{
  "format": "graph-model",
  "generatedBy": "1.15.0",
  "convertedBy": "TensorFlow.js Converter v1.3.2",
  "userDefinedMetadata": {
    "signature": {
      "inputs": {
        "input:0": {
          "name": "input:0",
          "dtype": "DT_FLOAT",
          "tensorShape": {
            "dim": [
              {
                "size": "1"
              },
              {
                "size": "256"
              },
              {
                "size": "256"
              },
              {
                "size": "3"
              }
            ]
          }
        }
      },
      "outputs": {
        "Identity:0": {
          "name": "Identity:0",
          "dtype": "DT_FLOAT",
          "tensorShape": {
            "dim": [
              {
                "size": "1"
              },
              {
                "size": "2944"
              },
              {
                "size": "19"
              }
            ]
          }
        }
      }
    }
  },
  "modelTopology": {
    "node": [
      {
        "name": "input",
        "op": "Placeholder",
        "attr": {
          "dtype": {
            "type": "DT_FLOAT"
          },
          "shape": {
            "shape": {
              "dim": [
                {
                  "size": "1"
                },
                {
                  "size": "256"
                },
                {
                  "size": "256"
                },
                {
                  "size": "3"
                }
              ]
            }
          }
        }
      },
      {
        "name": "StatefulPartitionedCall/model/conv2d/Conv2D_weights",
        "op": "Const",
        "attr": {
          "value": {
            "tensor": {
              "dtype": "DT_FLOAT",
              "tensorShape": {
                "dim": [
                  {
                    "size": "3"
                  },
                  {
                    "size": "3"
                  },
                  {
                    "size": "3"
                  },
                  {
                    "size": "32"
                  }
                ]
              }
            }
          },
          "dtype": {
            "type": "DT_FLOAT"
          }
        }
      },
      {
        "name": "StatefulPartitionedCall/model/conv2d/Conv2D_bn_offset",
        "op": "Const",
        "attr": {
          "value": {
            "tensor": {
              "dtype": "DT_FLOAT",
              "tensorShape": {
                "dim": [
                  {
                    "size": "32"
                  }
                ]
              }
            }
          },
          "dtype": {
            "type": "DT_FLOAT"
          }
        }
      },
      {
        "name": "StatefulPartitionedCall/model/conv2d_1/Conv2D_weights",
        "op": "Const",
        "attr": {
          "value": {
            "tensor": {
              "dtype": "DT_FLOAT",
              "tensorShape": {
                "dim": [
                  {
                    "size": "1"
                  },
                  {
                    "size": "1"
                  },
                  {
                    "size": "32"
                  },
                  {
                    "size": "32"
                  }
                ]
              }
            }
          },
          "dtype": {
            "type": "DT_FLOAT"
          }
        }
      },
      {
        "name": "StatefulPartitionedCall/model/conv2d_40/Conv2D_weights",
        "op": "Const",
        "attr": {
          "value": {
            "tensor": {
              "dtype": "DT_FLOAT",
              "tensorShape": {
                "dim": [
                  {
                    "size": "1"
                  },
                  {
                    "size": "1"
                  },
                  {
                    "size": "256"
                  },
                  {
                    "size": "256"
                  }
                ]
              }
            }
          },
          "dtype": {
            "type": "DT_FLOAT"
          }
        }
      },
      {
        "name": "StatefulPartitionedCall/model/conv2d_1/Conv2D_bn_offset",
        "op": "Const",
        "attr": {
          "value": {
            "tensor": {
              "dtype": "DT_FLOAT",
              "tensorShape": {
                "dim": [
                  {
                    "size": "32"
                  }
                ]
              }
            }
          },
          "dtype": {
            "type": "DT_FLOAT"
          }
        }
      },
      {
        "name": "StatefulPartitionedCall/model/conv2d_2/Conv2D_weights",
        "op": "Const",
        "attr": {
          "dtype": {
            "type": "DT_FLOAT"
          },
          "value": {
            "tensor": {
              "dtype": "DT_FLOAT",
              "tensorShape": {
                "dim": [
                  {
                    "size": "1"
                  },
                  {
                    "size": "1"
                  },
                  {
                    "size": "32"
                  },
                  {
                    "size": "32"
                  }
                ]
              }
            }
          }
        }
      },
      {
        "name": "StatefulPartitionedCall/model/conv2d_2/Conv2D_bn_offset",
        "op": "Const",
        "attr": {
          "value": {
            "tensor": {
              "dtype": "DT_FLOAT",
              "tensorShape": {
                "dim": [
                  {
                    "size": "32"
                  }
                ]
              }
            }
          },
          "dtype": {
            "type": "DT_FLOAT"
          }
        }
      },
      {
        "name": "StatefulPartitionedCall/model/conv2d_3/Conv2D_weights",
        "op": "Const",
        "attr": {
          "dtype": {
            "type": "DT_FLOAT"
          },
          "value": {
            "tensor": {
              "dtype": "DT_FLOAT",
              "tensorShape": {
                "dim": [
                  {
                    "size": "1"
                  },
                  {
                    "size": "1"
                  },
                  {
                    "size": "32"
                  },
                  {
                    "size": "32"
                  }
                ]
              }
            }
          }
        }
      },
      {
        "name": "StatefulPartitionedCall/model/conv2d_40/Conv2D_bn_offset",
        "op": "Const",
        "attr": {
          "value": {
            "tensor": {
              "dtype": "DT_FLOAT",
              "tensorShape": {
                "dim": [
                  {
                    "size": "256"
                  }
                ]
              }
            }
          },
          "dtype": {
            "type": "DT_FLOAT"
          }
        }
      },
      {
        "name": "StatefulPartitionedCall/model/conv2d_3/Conv2D_bn_offset",
        "op": "Const",
        "attr": {
          "value": {
            "tensor": {
              "dtype": "DT_FLOAT",
              "tensorShape": {
                "dim": [
                  {
                    "size": "32"
                  }
                ]
              }
            }
          },
          "dtype": {
            "type": "DT_FLOAT"
          }
        }
      },
      {
        "name": "StatefulPartitionedCall/model/conv2d_4/Conv2D_weights",
        "op": "Const",
        "attr": {
          "value": {
            "tensor": {
              "dtype": "DT_FLOAT",
              "tensorShape": {
                "dim": [
                  {
                    "size": "1"
                  },
                  {
                    "size": "1"
                  },
                  {
                    "size": "32"
                  },
                  {
                    "size": "32"
                  }
                ]
              }
            }
          },
          "dtype": {
            "type": "DT_FLOAT"
          }
        }
      },
      {
        "name": "StatefulPartitionedCall/model/conv2d_4/Conv2D_bn_offset",
        "op": "Const",
        "attr": {
          "value": {
            "tensor": {
              "dtype": "DT_FLOAT",
              "tensorShape": {
                "dim": [
                  {
                    "size": "32"
                  }
                ]
              }
            }
          },
          "dtype": {
            "type": "DT_FLOAT"
          }
        }
      },
      {
        "name": "StatefulPartitionedCall/model/conv2d_5/Conv2D_weights",
        "op": "Const",
        "attr": {
          "value": {
            "tensor": {
              "dtype": "DT_FLOAT",
              "tensorShape": {
                "dim": [
                  {
                    "size": "1"
                  },
                  {
                    "size": "1"
                  },
                  {
                    "size": "32"
                  },
                  {
                    "size": "32"
                  }
                ]
              }
            }
          },
          "dtype": {
            "type": "DT_FLOAT"
          }
        }
      },
      {
        "name": "StatefulPartitionedCall/model/conv2d_5/Conv2D_bn_offset",
        "op": "Const",
        "attr": {
          "value": {
            "tensor": {
              "dtype": "DT_FLOAT",
              "tensorShape": {
                "dim": [
                  {
                    "size": "32"
                  }
                ]
              }
            }
          },
          "dtype": {
            "type": "DT_FLOAT"
          }
        }
      },
      {
        "name": "StatefulPartitionedCall/model/conv2d_6/Conv2D_weights",
        "op": "Const",
        "attr": {
          "value": {
            "tensor": {
              "dtype": "DT_FLOAT",
              "tensorShape": {
                "dim": [
                  {
                    "size": "1"
                  },
                  {
                    "size": "1"
                  },
                  {
                    "size": "32"
                  },
                  {
                    "size": "32"
                  }
                ]
              }
            }
          },
          "dtype": {
            "type": "DT_FLOAT"
          }
        }
      },
      {
        "name": "StatefulPartitionedCall/model/conv2d_6/Conv2D_bn_offset",
        "op": "Const",
        "attr": {
          "value": {
            "tensor": {
              "dtype": "DT_FLOAT",
              "tensorShape": {
                "dim": [
                  {
                    "size": "32"
                  }
                ]
              }
            }
          },
          "dtype": {
            "type": "DT_FLOAT"
          }
        }
      },
      {
        "name": "StatefulPartitionedCall/model/conv2d_7/Conv2D_weights",
        "op": "Const",
        "attr": {
          "value": {
            "tensor": {
              "dtype": "DT_FLOAT",
              "tensorShape": {
                "dim": [
                  {
                    "size": "1"
                  },
                  {
                    "size": "1"
                  },
                  {
                    "size": "32"
                  },
                  {
                    "size": "32"
                  }
                ]
              }
            }
          },
          "dtype": {
            "type": "DT_FLOAT"
          }
        }
      },
      {
        "name": "StatefulPartitionedCall/model/conv2d_7/Conv2D_bn_offset",
        "op": "Const",
        "attr": {
          "dtype": {
            "type": "DT_FLOAT"
          },
          "value": {
            "tensor": {
              "dtype": "DT_FLOAT",
              "tensorShape": {
                "dim": [
                  {
                    "size": "32"
                  }
                ]
              }
            }
          }
        }
      },
      {
        "name": "StatefulPartitionedCall/model/conv2d_8/Conv2D_weights",
        "op": "Const",
        "attr": {
          "value": {
            "tensor": {
              "dtype": "DT_FLOAT",
              "tensorShape": {
                "dim": [
                  {
                    "size": "1"
                  },
                  {
                    "size": "1"
                  },
                  {
                    "size": "32"
                  },
                  {
                    "size": "64"
                  }
                ]
              }
            }
          },
          "dtype": {
            "type": "DT_FLOAT"
          }
        }
      },
      {
        "name": "StatefulPartitionedCall/model/conv2d_8/Conv2D_bn_offset",
        "op": "Const",
        "attr": {
          "value": {
            "tensor": {
              "dtype": "DT_FLOAT",
              "tensorShape": {
                "dim": [
                  {
                    "size": "64"
                  }
                ]
              }
            }
          },
          "dtype": {
            "type": "DT_FLOAT"
          }
        }
      },
      {
        "name": "StatefulPartitionedCall/model/conv2d_9/Conv2D_weights",
        "op": "Const",
        "attr": {
          "value": {
            "tensor": {
              "dtype": "DT_FLOAT",
              "tensorShape": {
                "dim": [
                  {
                    "size": "1"
                  },
                  {
                    "size": "1"
                  },
                  {
                    "size": "64"
                  },
                  {
                    "size": "64"
                  }
                ]
              }
            }
          },
          "dtype": {
            "type": "DT_FLOAT"
          }
        }
      },
      {
        "name": "StatefulPartitionedCall/model/conv2d_9/Conv2D_bn_offset",
        "op": "Const",
        "attr": {
          "dtype": {
            "type": "DT_FLOAT"
          },
          "value": {
            "tensor": {
              "dtype": "DT_FLOAT",
              "tensorShape": {
                "dim": [
                  {
                    "size": "64"
                  }
                ]
              }
            }
          }
        }
      },
      {
        "name": "StatefulPartitionedCall/model/conv2d_10/Conv2D_weights",
        "op": "Const",
        "attr": {
          "value": {
            "tensor": {
              "dtype": "DT_FLOAT",
              "tensorShape": {
                "dim": [
                  {
                    "size": "1"
                  },
                  {
                    "size": "1"
                  },
                  {
                    "size": "64"
                  },
                  {
                    "size": "64"
                  }
                ]
              }
            }
          },
          "dtype": {
            "type": "DT_FLOAT"
          }
        }
      },
      {
        "name": "StatefulPartitionedCall/model/conv2d_10/Conv2D_bn_offset",
        "op": "Const",
        "attr": {
          "dtype": {
            "type": "DT_FLOAT"
          },
          "value": {
            "tensor": {
              "dtype": "DT_FLOAT",
              "tensorShape": {
                "dim": [
                  {
                    "size": "64"
                  }
                ]
              }
            }
          }
        }
      },
      {
        "name": "StatefulPartitionedCall/model/conv2d_11/Conv2D_weights",
        "op": "Const",
        "attr": {
          "value": {
            "tensor": {
              "dtype": "DT_FLOAT",
              "tensorShape": {
                "dim": [
                  {
                    "size": "1"
                  },
                  {
                    "size": "1"
                  },
                  {
                    "size": "64"
                  },
                  {
                    "size": "64"
                  }
                ]
              }
            }
          },
          "dtype": {
            "type": "DT_FLOAT"
          }
        }
      },
      {
        "name": "StatefulPartitionedCall/model/conv2d_11/Conv2D_bn_offset",
        "op": "Const",
        "attr": {
          "value": {
            "tensor": {
              "dtype": "DT_FLOAT",
              "tensorShape": {
                "dim": [
                  {
                    "size": "64"
                  }
                ]
              }
            }
          },
          "dtype": {
            "type": "DT_FLOAT"
          }
        }
      },
      {
        "name": "StatefulPartitionedCall/model/conv2d_12/Conv2D_weights",
        "op": "Const",
        "attr": {
          "dtype": {
            "type": "DT_FLOAT"
          },
          "value": {
            "tensor": {
              "dtype": "DT_FLOAT",
              "tensorShape": {
                "dim": [
                  {
                    "size": "1"
                  },
                  {
                    "size": "1"
                  },
                  {
                    "size": "64"
                  },
                  {
                    "size": "64"
                  }
                ]
              }
            }
          }
        }
      },
      {
        "name": "StatefulPartitionedCall/model/conv2d_12/Conv2D_bn_offset",
        "op": "Const",
        "attr": {
          "value": {
            "tensor": {
              "dtype": "DT_FLOAT",
              "tensorShape": {
                "dim": [
                  {
                    "size": "64"
                  }
                ]
              }
            }
          },
          "dtype": {
            "type": "DT_FLOAT"
          }
        }
      },
      {
        "name": "StatefulPartitionedCall/model/conv2d_13/Conv2D_weights",
        "op": "Const",
        "attr": {
          "value": {
            "tensor": {
              "dtype": "DT_FLOAT",
              "tensorShape": {
                "dim": [
                  {
                    "size": "1"
                  },
                  {
                    "size": "1"
                  },
                  {
                    "size": "64"
                  },
                  {
                    "size": "64"
                  }
                ]
              }
            }
          },
          "dtype": {
            "type": "DT_FLOAT"
          }
        }
      },
      {
        "name": "StatefulPartitionedCall/model/conv2d_13/Conv2D_bn_offset",
        "op": "Const",
        "attr": {
          "value": {
            "tensor": {
              "dtype": "DT_FLOAT",
              "tensorShape": {
                "dim": [
                  {
                    "size": "64"
                  }
                ]
              }
            }
          },
          "dtype": {
            "type": "DT_FLOAT"
          }
        }
      },
      {
        "name": "StatefulPartitionedCall/model/conv2d_14/Conv2D_weights",
        "op": "Const",
        "attr": {
          "value": {
            "tensor": {
              "dtype": "DT_FLOAT",
              "tensorShape": {
                "dim": [
                  {
                    "size": "1"
                  },
                  {
                    "size": "1"
                  },
                  {
                    "size": "64"
                  },
                  {
                    "size": "64"
                  }
                ]
              }
            }
          },
          "dtype": {
            "type": "DT_FLOAT"
          }
        }
      },
      {
        "name": "StatefulPartitionedCall/model/conv2d_14/Conv2D_bn_offset",
        "op": "Const",
        "attr": {
          "dtype": {
            "type": "DT_FLOAT"
          },
          "value": {
            "tensor": {
              "dtype": "DT_FLOAT",
              "tensorShape": {
                "dim": [
                  {
                    "size": "64"
                  }
                ]
              }
            }
          }
        }
      },
      {
        "name": "StatefulPartitionedCall/model/conv2d_15/Conv2D_weights",
        "op": "Const",
        "attr": {
          "value": {
            "tensor": {
              "dtype": "DT_FLOAT",
              "tensorShape": {
                "dim": [
                  {
                    "size": "1"
                  },
                  {
                    "size": "1"
                  },
                  {
                    "size": "64"
                  },
                  {
                    "size": "64"
                  }
                ]
              }
            }
          },
          "dtype": {
            "type": "DT_FLOAT"
          }
        }
      },
      {
        "name": "StatefulPartitionedCall/model/conv2d_15/Conv2D_bn_offset",
        "op": "Const",
        "attr": {
          "value": {
            "tensor": {
              "dtype": "DT_FLOAT",
              "tensorShape": {
                "dim": [
                  {
                    "size": "64"
                  }
                ]
              }
            }
          },
          "dtype": {
            "type": "DT_FLOAT"
          }
        }
      },
      {
        "name": "StatefulPartitionedCall/model/conv2d_16/Conv2D_weights",
        "op": "Const",
        "attr": {
          "value": {
            "tensor": {
              "dtype": "DT_FLOAT",
              "tensorShape": {
                "dim": [
                  {
                    "size": "1"
                  },
                  {
                    "size": "1"
                  },
                  {
                    "size": "64"
                  },
                  {
                    "size": "128"
                  }
                ]
              }
            }
          },
          "dtype": {
            "type": "DT_FLOAT"
          }
        }
      },
      {
        "name": "StatefulPartitionedCall/model/conv2d_16/Conv2D_bn_offset",
        "op": "Const",
        "attr": {
          "value": {
            "tensor": {
              "dtype": "DT_FLOAT",
              "tensorShape": {
                "dim": [
                  {
                    "size": "128"
                  }
                ]
              }
            }
          },
          "dtype": {
            "type": "DT_FLOAT"
          }
        }
      },
      {
        "name": "StatefulPartitionedCall/model/conv2d_17/Conv2D_weights",
        "op": "Const",
        "attr": {
          "value": {
            "tensor": {
              "dtype": "DT_FLOAT",
              "tensorShape": {
                "dim": [
                  {
                    "size": "1"
                  },
                  {
                    "size": "1"
                  },
                  {
                    "size": "128"
                  },
                  {
                    "size": "128"
                  }
                ]
              }
            }
          },
          "dtype": {
            "type": "DT_FLOAT"
          }
        }
      },
      {
        "name": "StatefulPartitionedCall/model/conv2d_17/Conv2D_bn_offset",
        "op": "Const",
        "attr": {
          "value": {
            "tensor": {
              "dtype": "DT_FLOAT",
              "tensorShape": {
                "dim": [
                  {
                    "size": "128"
                  }
                ]
              }
            }
          },
          "dtype": {
            "type": "DT_FLOAT"
          }
        }
      },
      {
        "name": "StatefulPartitionedCall/model/conv2d_18/Conv2D_weights",
        "op": "Const",
        "attr": {
          "dtype": {
            "type": "DT_FLOAT"
          },
          "value": {
            "tensor": {
              "dtype": "DT_FLOAT",
              "tensorShape": {
                "dim": [
                  {
                    "size": "1"
                  },
                  {
                    "size": "1"
                  },
                  {
                    "size": "128"
                  },
                  {
                    "size": "128"
                  }
                ]
              }
            }
          }
        }
      },
      {
        "name": "StatefulPartitionedCall/model/conv2d_41/Conv2D_weights",
        "op": "Const",
        "attr": {
          "value": {
            "tensor": {
              "dtype": "DT_FLOAT",
              "tensorShape": {
                "dim": [
                  {
                    "size": "1"
                  },
                  {
                    "size": "1"
                  },
                  {
                    "size": "128"
                  },
                  {
                    "size": "128"
                  }
                ]
              }
            }
          },
          "dtype": {
            "type": "DT_FLOAT"
          }
        }
      },
      {
        "name": "StatefulPartitionedCall/model/conv2d_18/Conv2D_bn_offset",
        "op": "Const",
        "attr": {
          "dtype": {
            "type": "DT_FLOAT"
          },
          "value": {
            "tensor": {
              "dtype": "DT_FLOAT",
              "tensorShape": {
                "dim": [
                  {
                    "size": "128"
                  }
                ]
              }
            }
          }
        }
      },
      {
        "name": "StatefulPartitionedCall/model/conv2d_19/Conv2D_weights",
        "op": "Const",
        "attr": {
          "dtype": {
            "type": "DT_FLOAT"
          },
          "value": {
            "tensor": {
              "dtype": "DT_FLOAT",
              "tensorShape": {
                "dim": [
                  {
                    "size": "1"
                  },
                  {
                    "size": "1"
                  },
                  {
                    "size": "128"
                  },
                  {
                    "size": "128"
                  }
                ]
              }
            }
          }
        }
      },
      {
        "name": "StatefulPartitionedCall/model/conv2d_19/Conv2D_bn_offset",
        "op": "Const",
        "attr": {
          "value": {
            "tensor": {
              "dtype": "DT_FLOAT",
              "tensorShape": {
                "dim": [
                  {
                    "size": "128"
                  }
                ]
              }
            }
          },
          "dtype": {
            "type": "DT_FLOAT"
          }
        }
      },
      {
        "name": "StatefulPartitionedCall/model/conv2d_20/Conv2D_weights",
        "op": "Const",
        "attr": {
          "value": {
            "tensor": {
              "dtype": "DT_FLOAT",
              "tensorShape": {
                "dim": [
                  {
                    "size": "1"
                  },
                  {
                    "size": "1"
                  },
                  {
                    "size": "128"
                  },
                  {
                    "size": "128"
                  }
                ]
              }
            }
          },
          "dtype": {
            "type": "DT_FLOAT"
          }
        }
      },
      {
        "name": "StatefulPartitionedCall/model/conv2d_41/Conv2D_bn_offset",
        "op": "Const",
        "attr": {
          "value": {
            "tensor": {
              "dtype": "DT_FLOAT",
              "tensorShape": {
                "dim": [
                  {
                    "size": "128"
                  }
                ]
              }
            }
          },
          "dtype": {
            "type": "DT_FLOAT"
          }
        }
      },
      {
        "name": "StatefulPartitionedCall/model/conv2d_20/Conv2D_bn_offset",
        "op": "Const",
        "attr": {
          "value": {
            "tensor": {
              "dtype": "DT_FLOAT",
              "tensorShape": {
                "dim": [
                  {
                    "size": "128"
                  }
                ]
              }
            }
          },
          "dtype": {
            "type": "DT_FLOAT"
          }
        }
      },
      {
        "name": "StatefulPartitionedCall/model/conv2d_21/Conv2D_weights",
        "op": "Const",
        "attr": {
          "dtype": {
            "type": "DT_FLOAT"
          },
          "value": {
            "tensor": {
              "dtype": "DT_FLOAT",
              "tensorShape": {
                "dim": [
                  {
                    "size": "1"
                  },
                  {
                    "size": "1"
                  },
                  {
                    "size": "128"
                  },
                  {
                    "size": "128"
                  }
                ]
              }
            }
          }
        }
      },
      {
        "name": "StatefulPartitionedCall/model/conv2d_21/Conv2D_bn_offset",
        "op": "Const",
        "attr": {
          "value": {
            "tensor": {
              "dtype": "DT_FLOAT",
              "tensorShape": {
                "dim": [
                  {
                    "size": "128"
                  }
                ]
              }
            }
          },
          "dtype": {
            "type": "DT_FLOAT"
          }
        }
      },
      {
        "name": "StatefulPartitionedCall/model/conv2d_22/Conv2D_weights",
        "op": "Const",
        "attr": {
          "value": {
            "tensor": {
              "dtype": "DT_FLOAT",
              "tensorShape": {
                "dim": [
                  {
                    "size": "1"
                  },
                  {
                    "size": "1"
                  },
                  {
                    "size": "128"
                  },
                  {
                    "size": "128"
                  }
                ]
              }
            }
          },
          "dtype": {
            "type": "DT_FLOAT"
          }
        }
      },
      {
        "name": "StatefulPartitionedCall/model/conv2d_22/Conv2D_bn_offset",
        "op": "Const",
        "attr": {
          "value": {
            "tensor": {
              "dtype": "DT_FLOAT",
              "tensorShape": {
                "dim": [
                  {
                    "size": "128"
                  }
                ]
              }
            }
          },
          "dtype": {
            "type": "DT_FLOAT"
          }
        }
      },
      {
        "name": "StatefulPartitionedCall/model/conv2d_23/Conv2D_weights",
        "op": "Const",
        "attr": {
          "value": {
            "tensor": {
              "dtype": "DT_FLOAT",
              "tensorShape": {
                "dim": [
                  {
                    "size": "1"
                  },
                  {
                    "size": "1"
                  },
                  {
                    "size": "128"
                  },
                  {
                    "size": "128"
                  }
                ]
              }
            }
          },
          "dtype": {
            "type": "DT_FLOAT"
          }
        }
      },
      {
        "name": "StatefulPartitionedCall/model/conv2d_23/Conv2D_bn_offset",
        "op": "Const",
        "attr": {
          "value": {
            "tensor": {
              "dtype": "DT_FLOAT",
              "tensorShape": {
                "dim": [
                  {
                    "size": "128"
                  }
                ]
              }
            }
          },
          "dtype": {
            "type": "DT_FLOAT"
          }
        }
      },
      {
        "name": "StatefulPartitionedCall/model/conv2d_24/Conv2D_weights",
        "op": "Const",
        "attr": {
          "value": {
            "tensor": {
              "dtype": "DT_FLOAT",
              "tensorShape": {
                "dim": [
                  {
                    "size": "1"
                  },
                  {
                    "size": "1"
                  },
                  {
                    "size": "128"
                  },
                  {
                    "size": "256"
                  }
                ]
              }
            }
          },
          "dtype": {
            "type": "DT_FLOAT"
          }
        }
      },
      {
        "name": "StatefulPartitionedCall/model/conv2d_24/Conv2D_bn_offset",
        "op": "Const",
        "attr": {
          "value": {
            "tensor": {
              "dtype": "DT_FLOAT",
              "tensorShape": {
                "dim": [
                  {
                    "size": "256"
                  }
                ]
              }
            }
          },
          "dtype": {
            "type": "DT_FLOAT"
          }
        }
      },
      {
        "name": "StatefulPartitionedCall/model/conv2d_25/Conv2D_weights",
        "op": "Const",
        "attr": {
          "value": {
            "tensor": {
              "dtype": "DT_FLOAT",
              "tensorShape": {
                "dim": [
                  {
                    "size": "1"
                  },
                  {
                    "size": "1"
                  },
                  {
                    "size": "256"
                  },
                  {
                    "size": "256"
                  }
                ]
              }
            }
          },
          "dtype": {
            "type": "DT_FLOAT"
          }
        }
      },
      {
        "name": "StatefulPartitionedCall/model/conv2d_25/Conv2D_bn_offset",
        "op": "Const",
        "attr": {
          "dtype": {
            "type": "DT_FLOAT"
          },
          "value": {
            "tensor": {
              "dtype": "DT_FLOAT",
              "tensorShape": {
                "dim": [
                  {
                    "size": "256"
                  }
                ]
              }
            }
          }
        }
      },
      {
        "name": "StatefulPartitionedCall/model/conv2d_26/Conv2D_weights",
        "op": "Const",
        "attr": {
          "value": {
            "tensor": {
              "dtype": "DT_FLOAT",
              "tensorShape": {
                "dim": [
                  {
                    "size": "1"
                  },
                  {
                    "size": "1"
                  },
                  {
                    "size": "256"
                  },
                  {
                    "size": "256"
                  }
                ]
              }
            }
          },
          "dtype": {
            "type": "DT_FLOAT"
          }
        }
      },
      {
        "name": "StatefulPartitionedCall/model/conv2d_26/Conv2D_bn_offset",
        "op": "Const",
        "attr": {
          "value": {
            "tensor": {
              "dtype": "DT_FLOAT",
              "tensorShape": {
                "dim": [
                  {
                    "size": "256"
                  }
                ]
              }
            }
          },
          "dtype": {
            "type": "DT_FLOAT"
          }
        }
      },
      {
        "name": "StatefulPartitionedCall/model/conv2d_27/Conv2D_weights",
        "op": "Const",
        "attr": {
          "value": {
            "tensor": {
              "dtype": "DT_FLOAT",
              "tensorShape": {
                "dim": [
                  {
                    "size": "1"
                  },
                  {
                    "size": "1"
                  },
                  {
                    "size": "256"
                  },
                  {
                    "size": "256"
                  }
                ]
              }
            }
          },
          "dtype": {
            "type": "DT_FLOAT"
          }
        }
      },
      {
        "name": "StatefulPartitionedCall/model/conv2d_27/Conv2D_bn_offset",
        "op": "Const",
        "attr": {
          "value": {
            "tensor": {
              "dtype": "DT_FLOAT",
              "tensorShape": {
                "dim": [
                  {
                    "size": "256"
                  }
                ]
              }
            }
          },
          "dtype": {
            "type": "DT_FLOAT"
          }
        }
      },
      {
        "name": "StatefulPartitionedCall/model/conv2d_28/Conv2D_weights",
        "op": "Const",
        "attr": {
          "value": {
            "tensor": {
              "dtype": "DT_FLOAT",
              "tensorShape": {
                "dim": [
                  {
                    "size": "1"
                  },
                  {
                    "size": "1"
                  },
                  {
                    "size": "256"
                  },
                  {
                    "size": "256"
                  }
                ]
              }
            }
          },
          "dtype": {
            "type": "DT_FLOAT"
          }
        }
      },
      {
        "name": "StatefulPartitionedCall/model/conv2d_28/Conv2D_bn_offset",
        "op": "Const",
        "attr": {
          "value": {
            "tensor": {
              "dtype": "DT_FLOAT",
              "tensorShape": {
                "dim": [
                  {
                    "size": "256"
                  }
                ]
              }
            }
          },
          "dtype": {
            "type": "DT_FLOAT"
          }
        }
      },
      {
        "name": "StatefulPartitionedCall/model/conv2d_29/Conv2D_weights",
        "op": "Const",
        "attr": {
          "value": {
            "tensor": {
              "dtype": "DT_FLOAT",
              "tensorShape": {
                "dim": [
                  {
                    "size": "1"
                  },
                  {
                    "size": "1"
                  },
                  {
                    "size": "256"
                  },
                  {
                    "size": "256"
                  }
                ]
              }
            }
          },
          "dtype": {
            "type": "DT_FLOAT"
          }
        }
      },
      {
        "name": "StatefulPartitionedCall/model/conv2d_29/Conv2D_bn_offset",
        "op": "Const",
        "attr": {
          "value": {
            "tensor": {
              "dtype": "DT_FLOAT",
              "tensorShape": {
                "dim": [
                  {
                    "size": "256"
                  }
                ]
              }
            }
          },
          "dtype": {
            "type": "DT_FLOAT"
          }
        }
      },
      {
        "name": "StatefulPartitionedCall/model/conv2d_30/Conv2D_weights",
        "op": "Const",
        "attr": {
          "value": {
            "tensor": {
              "dtype": "DT_FLOAT",
              "tensorShape": {
                "dim": [
                  {
                    "size": "1"
                  },
                  {
                    "size": "1"
                  },
                  {
                    "size": "256"
                  },
                  {
                    "size": "256"
                  }
                ]
              }
            }
          },
          "dtype": {
            "type": "DT_FLOAT"
          }
        }
      },
      {
        "name": "StatefulPartitionedCall/model/conv2d_30/Conv2D_bn_offset",
        "op": "Const",
        "attr": {
          "dtype": {
            "type": "DT_FLOAT"
          },
          "value": {
            "tensor": {
              "dtype": "DT_FLOAT",
              "tensorShape": {
                "dim": [
                  {
                    "size": "256"
                  }
                ]
              }
            }
          }
        }
      },
      {
        "name": "StatefulPartitionedCall/model/conv2d_31/Conv2D_weights",
        "op": "Const",
        "attr": {
          "value": {
            "tensor": {
              "dtype": "DT_FLOAT",
              "tensorShape": {
                "dim": [
                  {
                    "size": "1"
                  },
                  {
                    "size": "1"
                  },
                  {
                    "size": "256"
                  },
                  {
                    "size": "256"
                  }
                ]
              }
            }
          },
          "dtype": {
            "type": "DT_FLOAT"
          }
        }
      },
      {
        "name": "StatefulPartitionedCall/model/conv2d_31/Conv2D_bn_offset",
        "op": "Const",
        "attr": {
          "value": {
            "tensor": {
              "dtype": "DT_FLOAT",
              "tensorShape": {
                "dim": [
                  {
                    "size": "256"
                  }
                ]
              }
            }
          },
          "dtype": {
            "type": "DT_FLOAT"
          }
        }
      },
      {
        "name": "StatefulPartitionedCall/model/conv2d_32/Conv2D_weights",
        "op": "Const",
        "attr": {
          "dtype": {
            "type": "DT_FLOAT"
          },
          "value": {
            "tensor": {
              "dtype": "DT_FLOAT",
              "tensorShape": {
                "dim": [
                  {
                    "size": "1"
                  },
                  {
                    "size": "1"
                  },
                  {
                    "size": "256"
                  },
                  {
                    "size": "256"
                  }
                ]
              }
            }
          }
        }
      },
      {
        "name": "StatefulPartitionedCall/model/conv2d_32/Conv2D_bn_offset",
        "op": "Const",
        "attr": {
          "value": {
            "tensor": {
              "dtype": "DT_FLOAT",
              "tensorShape": {
                "dim": [
                  {
                    "size": "256"
                  }
                ]
              }
            }
          },
          "dtype": {
            "type": "DT_FLOAT"
          }
        }
      },
      {
        "name": "StatefulPartitionedCall/model/conv2d_33/Conv2D_weights",
        "op": "Const",
        "attr": {
          "dtype": {
            "type": "DT_FLOAT"
          },
          "value": {
            "tensor": {
              "dtype": "DT_FLOAT",
              "tensorShape": {
                "dim": [
                  {
                    "size": "1"
                  },
                  {
                    "size": "1"
                  },
                  {
                    "size": "256"
                  },
                  {
                    "size": "256"
                  }
                ]
              }
            }
          }
        }
      },
      {
        "name": "StatefulPartitionedCall/model/conv2d_33/Conv2D_bn_offset",
        "op": "Const",
        "attr": {
          "value": {
            "tensor": {
              "dtype": "DT_FLOAT",
              "tensorShape": {
                "dim": [
                  {
                    "size": "256"
                  }
                ]
              }
            }
          },
          "dtype": {
            "type": "DT_FLOAT"
          }
        }
      },
      {
        "name": "StatefulPartitionedCall/model/conv2d_34/Conv2D_weights",
        "op": "Const",
        "attr": {
          "dtype": {
            "type": "DT_FLOAT"
          },
          "value": {
            "tensor": {
              "dtype": "DT_FLOAT",
              "tensorShape": {
                "dim": [
                  {
                    "size": "1"
                  },
                  {
                    "size": "1"
                  },
                  {
                    "size": "256"
                  },
                  {
                    "size": "256"
                  }
                ]
              }
            }
          }
        }
      },
      {
        "name": "StatefulPartitionedCall/model/conv2d_34/Conv2D_bn_offset",
        "op": "Const",
        "attr": {
          "dtype": {
            "type": "DT_FLOAT"
          },
          "value": {
            "tensor": {
              "dtype": "DT_FLOAT",
              "tensorShape": {
                "dim": [
                  {
                    "size": "256"
                  }
                ]
              }
            }
          }
        }
      },
      {
        "name": "StatefulPartitionedCall/model/conv2d_35/Conv2D_weights",
        "op": "Const",
        "attr": {
          "value": {
            "tensor": {
              "dtype": "DT_FLOAT",
              "tensorShape": {
                "dim": [
                  {
                    "size": "1"
                  },
                  {
                    "size": "1"
                  },
                  {
                    "size": "256"
                  },
                  {
                    "size": "256"
                  }
                ]
              }
            }
          },
          "dtype": {
            "type": "DT_FLOAT"
          }
        }
      },
      {
        "name": "StatefulPartitionedCall/model/conv2d_35/Conv2D_bn_offset",
        "op": "Const",
        "attr": {
          "value": {
            "tensor": {
              "dtype": "DT_FLOAT",
              "tensorShape": {
                "dim": [
                  {
                    "size": "256"
                  }
                ]
              }
            }
          },
          "dtype": {
            "type": "DT_FLOAT"
          }
        }
      },
      {
        "name": "StatefulPartitionedCall/model/conv2d_36/Conv2D_weights",
        "op": "Const",
        "attr": {
          "value": {
            "tensor": {
              "dtype": "DT_FLOAT",
              "tensorShape": {
                "dim": [
                  {
                    "size": "1"
                  },
                  {
                    "size": "1"
                  },
                  {
                    "size": "256"
                  },
                  {
                    "size": "256"
                  }
                ]
              }
            }
          },
          "dtype": {
            "type": "DT_FLOAT"
          }
        }
      },
      {
        "name": "StatefulPartitionedCall/model/conv2d_36/Conv2D_bn_offset",
        "op": "Const",
        "attr": {
          "dtype": {
            "type": "DT_FLOAT"
          },
          "value": {
            "tensor": {
              "dtype": "DT_FLOAT",
              "tensorShape": {
                "dim": [
                  {
                    "size": "256"
                  }
                ]
              }
            }
          }
        }
      },
      {
        "name": "StatefulPartitionedCall/model/conv2d_37/Conv2D_weights",
        "op": "Const",
        "attr": {
          "value": {
            "tensor": {
              "dtype": "DT_FLOAT",
              "tensorShape": {
                "dim": [
                  {
                    "size": "1"
                  },
                  {
                    "size": "1"
                  },
                  {
                    "size": "256"
                  },
                  {
                    "size": "256"
                  }
                ]
              }
            }
          },
          "dtype": {
            "type": "DT_FLOAT"
          }
        }
      },
      {
        "name": "StatefulPartitionedCall/model/conv2d_37/Conv2D_bn_offset",
        "op": "Const",
        "attr": {
          "value": {
            "tensor": {
              "dtype": "DT_FLOAT",
              "tensorShape": {
                "dim": [
                  {
                    "size": "256"
                  }
                ]
              }
            }
          },
          "dtype": {
            "type": "DT_FLOAT"
          }
        }
      },
      {
        "name": "StatefulPartitionedCall/model/conv2d_38/Conv2D_weights",
        "op": "Const",
        "attr": {
          "dtype": {
            "type": "DT_FLOAT"
          },
          "value": {
            "tensor": {
              "dtype": "DT_FLOAT",
              "tensorShape": {
                "dim": [
                  {
                    "size": "1"
                  },
                  {
                    "size": "1"
                  },
                  {
                    "size": "256"
                  },
                  {
                    "size": "256"
                  }
                ]
              }
            }
          }
        }
      },
      {
        "name": "StatefulPartitionedCall/model/conv2d_38/Conv2D_bn_offset",
        "op": "Const",
        "attr": {
          "value": {
            "tensor": {
              "dtype": "DT_FLOAT",
              "tensorShape": {
                "dim": [
                  {
                    "size": "256"
                  }
                ]
              }
            }
          },
          "dtype": {
            "type": "DT_FLOAT"
          }
        }
      },
      {
        "name": "StatefulPartitionedCall/model/conv2d_39/Conv2D_weights",
        "op": "Const",
        "attr": {
          "value": {
            "tensor": {
              "dtype": "DT_FLOAT",
              "tensorShape": {
                "dim": [
                  {
                    "size": "1"
                  },
                  {
                    "size": "1"
                  },
                  {
                    "size": "256"
                  },
                  {
                    "size": "256"
                  }
                ]
              }
            }
          },
          "dtype": {
            "type": "DT_FLOAT"
          }
        }
      },
      {
        "name": "StatefulPartitionedCall/model/conv2d_39/Conv2D_bn_offset",
        "op": "Const",
        "attr": {
          "value": {
            "tensor": {
              "dtype": "DT_FLOAT",
              "tensorShape": {
                "dim": [
                  {
                    "size": "256"
                  }
                ]
              }
            }
          },
          "dtype": {
            "type": "DT_FLOAT"
          }
        }
      },
      {
        "name": "StatefulPartitionedCall/model/depthwise_conv2d_40/depthwise/ReadVariableOp",
        "op": "Const",
        "input": [
          "^input"
        ],
        "attr": {
          "value": {
            "tensor": {
              "dtype": "DT_FLOAT",
              "tensorShape": {
                "dim": [
                  {
                    "size": "3"
                  },
                  {
                    "size": "3"
                  },
                  {
                    "size": "128"
                  },
                  {
                    "size": "1"
                  }
                ]
              }
            }
          },
          "dtype": {
            "type": "DT_FLOAT"
          }
        }
      },
      {
        "name": "StatefulPartitionedCall/model/classificator_8/Conv2D/ReadVariableOp",
        "op": "Const",
        "input": [
          "^input"
        ],
        "attr": {
          "value": {
            "tensor": {
              "dtype": "DT_FLOAT",
              "tensorShape": {
                "dim": [
                  {
                    "size": "1"
                  },
                  {
                    "size": "1"
                  },
                  {
                    "size": "128"
                  },
                  {
                    "size": "2"
                  }
                ]
              }
            }
          },
          "dtype": {
            "type": "DT_FLOAT"
          }
        }
      },
      {
        "name": "StatefulPartitionedCall/model/classificator_8/BiasAdd/ReadVariableOp",
        "op": "Const",
        "input": [
          "^input"
        ],
        "attr": {
          "value": {
            "tensor": {
              "dtype": "DT_FLOAT",
              "tensorShape": {
                "dim": [
                  {
                    "size": "2"
                  }
                ]
              }
            }
          },
          "dtype": {
            "type": "DT_FLOAT"
          }
        }
      },
      {
        "name": "StatefulPartitionedCall/model/reshape/Reshape/shape",
        "op": "Const",
        "input": [
          "^input"
        ],
        "attr": {
          "dtype": {
            "type": "DT_INT32"
          },
          "value": {
            "tensor": {
              "dtype": "DT_INT32",
              "tensorShape": {
                "dim": [
                  {
                    "size": "3"
                  }
                ]
              }
            }
          }
        }
      },
      {
        "name": "StatefulPartitionedCall/model/classificator_16/Conv2D/ReadVariableOp",
        "op": "Const",
        "input": [
          "^input"
        ],
        "attr": {
          "value": {
            "tensor": {
              "dtype": "DT_FLOAT",
              "tensorShape": {
                "dim": [
                  {
                    "size": "1"
                  },
                  {
                    "size": "1"
                  },
                  {
                    "size": "256"
                  },
                  {
                    "size": "2"
                  }
                ]
              }
            }
          },
          "dtype": {
            "type": "DT_FLOAT"
          }
        }
      },
      {
        "name": "StatefulPartitionedCall/model/classificator_16/BiasAdd/ReadVariableOp",
        "op": "Const",
        "input": [
          "^input"
        ],
        "attr": {
          "value": {
            "tensor": {
              "dtype": "DT_FLOAT",
              "tensorShape": {
                "dim": [
                  {
                    "size": "2"
                  }
                ]
              }
            }
          },
          "dtype": {
            "type": "DT_FLOAT"
          }
        }
      },
      {
        "name": "StatefulPartitionedCall/model/classificator_32/Conv2D/ReadVariableOp",
        "op": "Const",
        "input": [
          "^input"
        ],
        "attr": {
          "value": {
            "tensor": {
              "dtype": "DT_FLOAT",
              "tensorShape": {
                "dim": [
                  {
                    "size": "1"
                  },
                  {
                    "size": "1"
                  },
                  {
                    "size": "256"
                  },
                  {
                    "size": "6"
                  }
                ]
              }
            }
          },
          "dtype": {
            "type": "DT_FLOAT"
          }
        }
      },
      {
        "name": "StatefulPartitionedCall/model/classificator_32/BiasAdd/ReadVariableOp",
        "op": "Const",
        "input": [
          "^input"
        ],
        "attr": {
          "dtype": {
            "type": "DT_FLOAT"
          },
          "value": {
            "tensor": {
              "dtype": "DT_FLOAT",
              "tensorShape": {
                "dim": [
                  {
                    "size": "6"
                  }
                ]
              }
            }
          }
        }
      },
      {
        "name": "StatefulPartitionedCall/model/classificators/concat/axis",
        "op": "Const",
        "input": [
          "^input"
        ],
        "attr": {
          "dtype": {
            "type": "DT_INT32"
          },
          "value": {
            "tensor": {
              "dtype": "DT_INT32",
              "tensorShape": {}
            }
          }
        }
      },
      {
        "name": "StatefulPartitionedCall/model/regressor_8/Conv2D/ReadVariableOp",
        "op": "Const",
        "input": [
          "^input"
        ],
        "attr": {
          "value": {
            "tensor": {
              "dtype": "DT_FLOAT",
              "tensorShape": {
                "dim": [
                  {
                    "size": "1"
                  },
                  {
                    "size": "1"
                  },
                  {
                    "size": "128"
                  },
                  {
                    "size": "36"
                  }
                ]
              }
            }
          },
          "dtype": {
            "type": "DT_FLOAT"
          }
        }
      },
      {
        "name": "StatefulPartitionedCall/model/regressor_8/BiasAdd/ReadVariableOp",
        "op": "Const",
        "input": [
          "^input"
        ],
        "attr": {
          "dtype": {
            "type": "DT_FLOAT"
          },
          "value": {
            "tensor": {
              "dtype": "DT_FLOAT",
              "tensorShape": {
                "dim": [
                  {
                    "size": "36"
                  }
                ]
              }
            }
          }
        }
      },
      {
        "name": "StatefulPartitionedCall/model/reshape_1/Reshape/shape",
        "op": "Const",
        "input": [
          "^input"
        ],
        "attr": {
          "value": {
            "tensor": {
              "dtype": "DT_INT32",
              "tensorShape": {
                "dim": [
                  {
                    "size": "3"
                  }
                ]
              }
            }
          },
          "dtype": {
            "type": "DT_INT32"
          }
        }
      },
      {
        "name": "StatefulPartitionedCall/model/regressor_16/Conv2D/ReadVariableOp",
        "op": "Const",
        "input": [
          "^input"
        ],
        "attr": {
          "value": {
            "tensor": {
              "dtype": "DT_FLOAT",
              "tensorShape": {
                "dim": [
                  {
                    "size": "1"
                  },
                  {
                    "size": "1"
                  },
                  {
                    "size": "256"
                  },
                  {
                    "size": "36"
                  }
                ]
              }
            }
          },
          "dtype": {
            "type": "DT_FLOAT"
          }
        }
      },
      {
        "name": "StatefulPartitionedCall/model/regressor_16/BiasAdd/ReadVariableOp",
        "op": "Const",
        "input": [
          "^input"
        ],
        "attr": {
          "value": {
            "tensor": {
              "dtype": "DT_FLOAT",
              "tensorShape": {
                "dim": [
                  {
                    "size": "36"
                  }
                ]
              }
            }
          },
          "dtype": {
            "type": "DT_FLOAT"
          }
        }
      },
      {
        "name": "StatefulPartitionedCall/model/regressor_32/Conv2D/ReadVariableOp",
        "op": "Const",
        "input": [
          "^input"
        ],
        "attr": {
          "value": {
            "tensor": {
              "dtype": "DT_FLOAT",
              "tensorShape": {
                "dim": [
                  {
                    "size": "1"
                  },
                  {
                    "size": "1"
                  },
                  {
                    "size": "256"
                  },
                  {
                    "size": "108"
                  }
                ]
              }
            }
          },
          "dtype": {
            "type": "DT_FLOAT"
          }
        }
      },
      {
        "name": "StatefulPartitionedCall/model/regressor_32/BiasAdd/ReadVariableOp",
        "op": "Const",
        "input": [
          "^input"
        ],
        "attr": {
          "value": {
            "tensor": {
              "dtype": "DT_FLOAT",
              "tensorShape": {
                "dim": [
                  {
                    "size": "108"
                  }
                ]
              }
            }
          },
          "dtype": {
            "type": "DT_FLOAT"
          }
        }
      },
      {
        "name": "StatefulPartitionedCall/model/objects/concat/axis",
        "op": "Const",
        "input": [
          "^input"
        ],
        "attr": {
          "dtype": {
            "type": "DT_INT32"
          },
          "value": {
            "tensor": {
              "dtype": "DT_INT32",
              "tensorShape": {}
            }
          }
        }
      },
      {
        "name": "StatefulPartitionedCall/model/conv2d_transpose_1/stack",
        "op": "Const",
        "input": [
          "^input"
        ],
        "attr": {
          "value": {
            "tensor": {
              "dtype": "DT_INT32",
              "tensorShape": {
                "dim": [
                  {
                    "size": "4"
                  }
                ]
              }
            }
          },
          "dtype": {
            "type": "DT_INT32"
          }
        }
      },
      {
        "name": "StatefulPartitionedCall/model/conv2d_transpose_1/conv2d_transpose/ReadVariableOp",
        "op": "Const",
        "input": [
          "^input"
        ],
        "attr": {
          "value": {
            "tensor": {
              "dtype": "DT_FLOAT",
              "tensorShape": {
                "dim": [
                  {
                    "size": "2"
                  },
                  {
                    "size": "2"
                  },
                  {
                    "size": "128"
                  },
                  {
                    "size": "256"
                  }
                ]
              }
            }
          },
          "dtype": {
            "type": "DT_FLOAT"
          }
        }
      },
      {
        "name": "StatefulPartitionedCall/model/conv2d_transpose/stack",
        "op": "Const",
        "input": [
          "^input"
        ],
        "attr": {
          "value": {
            "tensor": {
              "dtype": "DT_INT32",
              "tensorShape": {
                "dim": [
                  {
                    "size": "4"
                  }
                ]
              }
            }
          },
          "dtype": {
            "type": "DT_INT32"
          }
        }
      },
      {
        "name": "StatefulPartitionedCall/model/conv2d_transpose/conv2d_transpose/ReadVariableOp",
        "op": "Const",
        "input": [
          "^input"
        ],
        "attr": {
          "value": {
            "tensor": {
              "dtype": "DT_FLOAT",
              "tensorShape": {
                "dim": [
                  {
                    "size": "2"
                  },
                  {
                    "size": "2"
                  },
                  {
                    "size": "256"
                  },
                  {
                    "size": "256"
                  }
                ]
              }
            }
          },
          "dtype": {
            "type": "DT_FLOAT"
          }
        }
      },
      {
        "name": "StatefulPartitionedCall/model/depthwise_conv2d/depthwise/ReadVariableOp",
        "op": "Const",
        "input": [
          "^input"
        ],
        "attr": {
          "dtype": {
            "type": "DT_FLOAT"
          },
          "value": {
            "tensor": {
              "dtype": "DT_FLOAT",
              "tensorShape": {
                "dim": [
                  {
                    "size": "3"
                  },
                  {
                    "size": "3"
                  },
                  {
                    "size": "32"
                  },
                  {
                    "size": "1"
                  }
                ]
              }
            }
          }
        }
      },
      {
        "name": "StatefulPartitionedCall/model/depthwise_conv2d_1/depthwise/ReadVariableOp",
        "op": "Const",
        "input": [
          "^input"
        ],
        "attr": {
          "value": {
            "tensor": {
              "dtype": "DT_FLOAT",
              "tensorShape": {
                "dim": [
                  {
                    "size": "3"
                  },
                  {
                    "size": "3"
                  },
                  {
                    "size": "32"
                  },
                  {
                    "size": "1"
                  }
                ]
              }
            }
          },
          "dtype": {
            "type": "DT_FLOAT"
          }
        }
      },
      {
        "name": "StatefulPartitionedCall/model/depthwise_conv2d_2/depthwise/ReadVariableOp",
        "op": "Const",
        "input": [
          "^input"
        ],
        "attr": {
          "dtype": {
            "type": "DT_FLOAT"
          },
          "value": {
            "tensor": {
              "dtype": "DT_FLOAT",
              "tensorShape": {
                "dim": [
                  {
                    "size": "3"
                  },
                  {
                    "size": "3"
                  },
                  {
                    "size": "32"
                  },
                  {
                    "size": "1"
                  }
                ]
              }
            }
          }
        }
      },
      {
        "name": "StatefulPartitionedCall/model/depthwise_conv2d_3/depthwise/ReadVariableOp",
        "op": "Const",
        "input": [
          "^input"
        ],
        "attr": {
          "value": {
            "tensor": {
              "dtype": "DT_FLOAT",
              "tensorShape": {
                "dim": [
                  {
                    "size": "3"
                  },
                  {
                    "size": "3"
                  },
                  {
                    "size": "32"
                  },
                  {
                    "size": "1"
                  }
                ]
              }
            }
          },
          "dtype": {
            "type": "DT_FLOAT"
          }
        }
      },
      {
        "name": "StatefulPartitionedCall/model/depthwise_conv2d_4/depthwise/ReadVariableOp",
        "op": "Const",
        "input": [
          "^input"
        ],
        "attr": {
          "value": {
            "tensor": {
              "dtype": "DT_FLOAT",
              "tensorShape": {
                "dim": [
                  {
                    "size": "3"
                  },
                  {
                    "size": "3"
                  },
                  {
                    "size": "32"
                  },
                  {
                    "size": "1"
                  }
                ]
              }
            }
          },
          "dtype": {
            "type": "DT_FLOAT"
          }
        }
      },
      {
        "name": "StatefulPartitionedCall/model/depthwise_conv2d_5/depthwise/ReadVariableOp",
        "op": "Const",
        "input": [
          "^input"
        ],
        "attr": {
          "value": {
            "tensor": {
              "dtype": "DT_FLOAT",
              "tensorShape": {
                "dim": [
                  {
                    "size": "3"
                  },
                  {
                    "size": "3"
                  },
                  {
                    "size": "32"
                  },
                  {
                    "size": "1"
                  }
                ]
              }
            }
          },
          "dtype": {
            "type": "DT_FLOAT"
          }
        }
      },
      {
        "name": "StatefulPartitionedCall/model/depthwise_conv2d_6/depthwise/ReadVariableOp",
        "op": "Const",
        "input": [
          "^input"
        ],
        "attr": {
          "dtype": {
            "type": "DT_FLOAT"
          },
          "value": {
            "tensor": {
              "dtype": "DT_FLOAT",
              "tensorShape": {
                "dim": [
                  {
                    "size": "3"
                  },
                  {
                    "size": "3"
                  },
                  {
                    "size": "32"
                  },
                  {
                    "size": "1"
                  }
                ]
              }
            }
          }
        }
      },
      {
        "name": "StatefulPartitionedCall/model/channel_padding/Pad/paddings",
        "op": "Const",
        "input": [
          "^input"
        ],
        "attr": {
          "dtype": {
            "type": "DT_INT32"
          },
          "value": {
            "tensor": {
              "dtype": "DT_INT32",
              "tensorShape": {
                "dim": [
                  {
                    "size": "4"
                  },
                  {
                    "size": "2"
                  }
                ]
              }
            }
          }
        }
      },
      {
        "name": "StatefulPartitionedCall/model/depthwise_conv2d_7/depthwise/ReadVariableOp",
        "op": "Const",
        "input": [
          "^input"
        ],
        "attr": {
          "value": {
            "tensor": {
              "dtype": "DT_FLOAT",
              "tensorShape": {
                "dim": [
                  {
                    "size": "3"
                  },
                  {
                    "size": "3"
                  },
                  {
                    "size": "32"
                  },
                  {
                    "size": "1"
                  }
                ]
              }
            }
          },
          "dtype": {
            "type": "DT_FLOAT"
          }
        }
      },
      {
        "name": "StatefulPartitionedCall/model/depthwise_conv2d_8/depthwise/ReadVariableOp",
        "op": "Const",
        "input": [
          "^input"
        ],
        "attr": {
          "value": {
            "tensor": {
              "dtype": "DT_FLOAT",
              "tensorShape": {
                "dim": [
                  {
                    "size": "3"
                  },
                  {
                    "size": "3"
                  },
                  {
                    "size": "64"
                  },
                  {
                    "size": "1"
                  }
                ]
              }
            }
          },
          "dtype": {
            "type": "DT_FLOAT"
          }
        }
      },
      {
        "name": "StatefulPartitionedCall/model/depthwise_conv2d_9/depthwise/ReadVariableOp",
        "op": "Const",
        "input": [
          "^input"
        ],
        "attr": {
          "value": {
            "tensor": {
              "dtype": "DT_FLOAT",
              "tensorShape": {
                "dim": [
                  {
                    "size": "3"
                  },
                  {
                    "size": "3"
                  },
                  {
                    "size": "64"
                  },
                  {
                    "size": "1"
                  }
                ]
              }
            }
          },
          "dtype": {
            "type": "DT_FLOAT"
          }
        }
      },
      {
        "name": "StatefulPartitionedCall/model/depthwise_conv2d_10/depthwise/ReadVariableOp",
        "op": "Const",
        "input": [
          "^input"
        ],
        "attr": {
          "value": {
            "tensor": {
              "dtype": "DT_FLOAT",
              "tensorShape": {
                "dim": [
                  {
                    "size": "3"
                  },
                  {
                    "size": "3"
                  },
                  {
                    "size": "64"
                  },
                  {
                    "size": "1"
                  }
                ]
              }
            }
          },
          "dtype": {
            "type": "DT_FLOAT"
          }
        }
      },
      {
        "name": "StatefulPartitionedCall/model/depthwise_conv2d_11/depthwise/ReadVariableOp",
        "op": "Const",
        "input": [
          "^input"
        ],
        "attr": {
          "dtype": {
            "type": "DT_FLOAT"
          },
          "value": {
            "tensor": {
              "dtype": "DT_FLOAT",
              "tensorShape": {
                "dim": [
                  {
                    "size": "3"
                  },
                  {
                    "size": "3"
                  },
                  {
                    "size": "64"
                  },
                  {
                    "size": "1"
                  }
                ]
              }
            }
          }
        }
      },
      {
        "name": "StatefulPartitionedCall/model/depthwise_conv2d_12/depthwise/ReadVariableOp",
        "op": "Const",
        "input": [
          "^input"
        ],
        "attr": {
          "value": {
            "tensor": {
              "dtype": "DT_FLOAT",
              "tensorShape": {
                "dim": [
                  {
                    "size": "3"
                  },
                  {
                    "size": "3"
                  },
                  {
                    "size": "64"
                  },
                  {
                    "size": "1"
                  }
                ]
              }
            }
          },
          "dtype": {
            "type": "DT_FLOAT"
          }
        }
      },
      {
        "name": "StatefulPartitionedCall/model/depthwise_conv2d_13/depthwise/ReadVariableOp",
        "op": "Const",
        "input": [
          "^input"
        ],
        "attr": {
          "value": {
            "tensor": {
              "dtype": "DT_FLOAT",
              "tensorShape": {
                "dim": [
                  {
                    "size": "3"
                  },
                  {
                    "size": "3"
                  },
                  {
                    "size": "64"
                  },
                  {
                    "size": "1"
                  }
                ]
              }
            }
          },
          "dtype": {
            "type": "DT_FLOAT"
          }
        }
      },
      {
        "name": "StatefulPartitionedCall/model/depthwise_conv2d_14/depthwise/ReadVariableOp",
        "op": "Const",
        "input": [
          "^input"
        ],
        "attr": {
          "dtype": {
            "type": "DT_FLOAT"
          },
          "value": {
            "tensor": {
              "dtype": "DT_FLOAT",
              "tensorShape": {
                "dim": [
                  {
                    "size": "3"
                  },
                  {
                    "size": "3"
                  },
                  {
                    "size": "64"
                  },
                  {
                    "size": "1"
                  }
                ]
              }
            }
          }
        }
      },
      {
        "name": "StatefulPartitionedCall/model/channel_padding_1/Pad/paddings",
        "op": "Const",
        "input": [
          "^input"
        ],
        "attr": {
          "value": {
            "tensor": {
              "dtype": "DT_INT32",
              "tensorShape": {
                "dim": [
                  {
                    "size": "4"
                  },
                  {
                    "size": "2"
                  }
                ]
              }
            }
          },
          "dtype": {
            "type": "DT_INT32"
          }
        }
      },
      {
        "name": "StatefulPartitionedCall/model/depthwise_conv2d_15/depthwise/ReadVariableOp",
        "op": "Const",
        "input": [
          "^input"
        ],
        "attr": {
          "value": {
            "tensor": {
              "dtype": "DT_FLOAT",
              "tensorShape": {
                "dim": [
                  {
                    "size": "3"
                  },
                  {
                    "size": "3"
                  },
                  {
                    "size": "64"
                  },
                  {
                    "size": "1"
                  }
                ]
              }
            }
          },
          "dtype": {
            "type": "DT_FLOAT"
          }
        }
      },
      {
        "name": "StatefulPartitionedCall/model/depthwise_conv2d_16/depthwise/ReadVariableOp",
        "op": "Const",
        "input": [
          "^input"
        ],
        "attr": {
          "value": {
            "tensor": {
              "dtype": "DT_FLOAT",
              "tensorShape": {
                "dim": [
                  {
                    "size": "3"
                  },
                  {
                    "size": "3"
                  },
                  {
                    "size": "128"
                  },
                  {
                    "size": "1"
                  }
                ]
              }
            }
          },
          "dtype": {
            "type": "DT_FLOAT"
          }
        }
      },
      {
        "name": "StatefulPartitionedCall/model/depthwise_conv2d_17/depthwise/ReadVariableOp",
        "op": "Const",
        "input": [
          "^input"
        ],
        "attr": {
          "value": {
            "tensor": {
              "dtype": "DT_FLOAT",
              "tensorShape": {
                "dim": [
                  {
                    "size": "3"
                  },
                  {
                    "size": "3"
                  },
                  {
                    "size": "128"
                  },
                  {
                    "size": "1"
                  }
                ]
              }
            }
          },
          "dtype": {
            "type": "DT_FLOAT"
          }
        }
      },
      {
        "name": "StatefulPartitionedCall/model/depthwise_conv2d_18/depthwise/ReadVariableOp",
        "op": "Const",
        "input": [
          "^input"
        ],
        "attr": {
          "dtype": {
            "type": "DT_FLOAT"
          },
          "value": {
            "tensor": {
              "dtype": "DT_FLOAT",
              "tensorShape": {
                "dim": [
                  {
                    "size": "3"
                  },
                  {
                    "size": "3"
                  },
                  {
                    "size": "128"
                  },
                  {
                    "size": "1"
                  }
                ]
              }
            }
          }
        }
      },
      {
        "name": "StatefulPartitionedCall/model/depthwise_conv2d_19/depthwise/ReadVariableOp",
        "op": "Const",
        "input": [
          "^input"
        ],
        "attr": {
          "value": {
            "tensor": {
              "dtype": "DT_FLOAT",
              "tensorShape": {
                "dim": [
                  {
                    "size": "3"
                  },
                  {
                    "size": "3"
                  },
                  {
                    "size": "128"
                  },
                  {
                    "size": "1"
                  }
                ]
              }
            }
          },
          "dtype": {
            "type": "DT_FLOAT"
          }
        }
      },
      {
        "name": "StatefulPartitionedCall/model/depthwise_conv2d_20/depthwise/ReadVariableOp",
        "op": "Const",
        "input": [
          "^input"
        ],
        "attr": {
          "value": {
            "tensor": {
              "dtype": "DT_FLOAT",
              "tensorShape": {
                "dim": [
                  {
                    "size": "3"
                  },
                  {
                    "size": "3"
                  },
                  {
                    "size": "128"
                  },
                  {
                    "size": "1"
                  }
                ]
              }
            }
          },
          "dtype": {
            "type": "DT_FLOAT"
          }
        }
      },
      {
        "name": "StatefulPartitionedCall/model/depthwise_conv2d_21/depthwise/ReadVariableOp",
        "op": "Const",
        "input": [
          "^input"
        ],
        "attr": {
          "value": {
            "tensor": {
              "dtype": "DT_FLOAT",
              "tensorShape": {
                "dim": [
                  {
                    "size": "3"
                  },
                  {
                    "size": "3"
                  },
                  {
                    "size": "128"
                  },
                  {
                    "size": "1"
                  }
                ]
              }
            }
          },
          "dtype": {
            "type": "DT_FLOAT"
          }
        }
      },
      {
        "name": "StatefulPartitionedCall/model/depthwise_conv2d_22/depthwise/ReadVariableOp",
        "op": "Const",
        "input": [
          "^input"
        ],
        "attr": {
          "value": {
            "tensor": {
              "dtype": "DT_FLOAT",
              "tensorShape": {
                "dim": [
                  {
                    "size": "3"
                  },
                  {
                    "size": "3"
                  },
                  {
                    "size": "128"
                  },
                  {
                    "size": "1"
                  }
                ]
              }
            }
          },
          "dtype": {
            "type": "DT_FLOAT"
          }
        }
      },
      {
        "name": "StatefulPartitionedCall/model/channel_padding_2/Pad/paddings",
        "op": "Const",
        "input": [
          "^input"
        ],
        "attr": {
          "value": {
            "tensor": {
              "dtype": "DT_INT32",
              "tensorShape": {
                "dim": [
                  {
                    "size": "4"
                  },
                  {
                    "size": "2"
                  }
                ]
              }
            }
          },
          "dtype": {
            "type": "DT_INT32"
          }
        }
      },
      {
        "name": "StatefulPartitionedCall/model/depthwise_conv2d_23/depthwise/ReadVariableOp",
        "op": "Const",
        "input": [
          "^input"
        ],
        "attr": {
          "value": {
            "tensor": {
              "dtype": "DT_FLOAT",
              "tensorShape": {
                "dim": [
                  {
                    "size": "3"
                  },
                  {
                    "size": "3"
                  },
                  {
                    "size": "128"
                  },
                  {
                    "size": "1"
                  }
                ]
              }
            }
          },
          "dtype": {
            "type": "DT_FLOAT"
          }
        }
      },
      {
        "name": "StatefulPartitionedCall/model/depthwise_conv2d_24/depthwise/ReadVariableOp",
        "op": "Const",
        "input": [
          "^input"
        ],
        "attr": {
          "value": {
            "tensor": {
              "dtype": "DT_FLOAT",
              "tensorShape": {
                "dim": [
                  {
                    "size": "3"
                  },
                  {
                    "size": "3"
                  },
                  {
                    "size": "256"
                  },
                  {
                    "size": "1"
                  }
                ]
              }
            }
          },
          "dtype": {
            "type": "DT_FLOAT"
          }
        }
      },
      {
        "name": "StatefulPartitionedCall/model/depthwise_conv2d_25/depthwise/ReadVariableOp",
        "op": "Const",
        "input": [
          "^input"
        ],
        "attr": {
          "dtype": {
            "type": "DT_FLOAT"
          },
          "value": {
            "tensor": {
              "dtype": "DT_FLOAT",
              "tensorShape": {
                "dim": [
                  {
                    "size": "3"
                  },
                  {
                    "size": "3"
                  },
                  {
                    "size": "256"
                  },
                  {
                    "size": "1"
                  }
                ]
              }
            }
          }
        }
      },
      {
        "name": "StatefulPartitionedCall/model/depthwise_conv2d_26/depthwise/ReadVariableOp",
        "op": "Const",
        "input": [
          "^input"
        ],
        "attr": {
          "value": {
            "tensor": {
              "dtype": "DT_FLOAT",
              "tensorShape": {
                "dim": [
                  {
                    "size": "3"
                  },
                  {
                    "size": "3"
                  },
                  {
                    "size": "256"
                  },
                  {
                    "size": "1"
                  }
                ]
              }
            }
          },
          "dtype": {
            "type": "DT_FLOAT"
          }
        }
      },
      {
        "name": "StatefulPartitionedCall/model/depthwise_conv2d_27/depthwise/ReadVariableOp",
        "op": "Const",
        "input": [
          "^input"
        ],
        "attr": {
          "value": {
            "tensor": {
              "dtype": "DT_FLOAT",
              "tensorShape": {
                "dim": [
                  {
                    "size": "3"
                  },
                  {
                    "size": "3"
                  },
                  {
                    "size": "256"
                  },
                  {
                    "size": "1"
                  }
                ]
              }
            }
          },
          "dtype": {
            "type": "DT_FLOAT"
          }
        }
      },
      {
        "name": "StatefulPartitionedCall/model/depthwise_conv2d_28/depthwise/ReadVariableOp",
        "op": "Const",
        "input": [
          "^input"
        ],
        "attr": {
          "dtype": {
            "type": "DT_FLOAT"
          },
          "value": {
            "tensor": {
              "dtype": "DT_FLOAT",
              "tensorShape": {
                "dim": [
                  {
                    "size": "3"
                  },
                  {
                    "size": "3"
                  },
                  {
                    "size": "256"
                  },
                  {
                    "size": "1"
                  }
                ]
              }
            }
          }
        }
      },
      {
        "name": "StatefulPartitionedCall/model/depthwise_conv2d_29/depthwise/ReadVariableOp",
        "op": "Const",
        "input": [
          "^input"
        ],
        "attr": {
          "value": {
            "tensor": {
              "dtype": "DT_FLOAT",
              "tensorShape": {
                "dim": [
                  {
                    "size": "3"
                  },
                  {
                    "size": "3"
                  },
                  {
                    "size": "256"
                  },
                  {
                    "size": "1"
                  }
                ]
              }
            }
          },
          "dtype": {
            "type": "DT_FLOAT"
          }
        }
      },
      {
        "name": "StatefulPartitionedCall/model/depthwise_conv2d_30/depthwise/ReadVariableOp",
        "op": "Const",
        "input": [
          "^input"
        ],
        "attr": {
          "value": {
            "tensor": {
              "dtype": "DT_FLOAT",
              "tensorShape": {
                "dim": [
                  {
                    "size": "3"
                  },
                  {
                    "size": "3"
                  },
                  {
                    "size": "256"
                  },
                  {
                    "size": "1"
                  }
                ]
              }
            }
          },
          "dtype": {
            "type": "DT_FLOAT"
          }
        }
      },
      {
        "name": "StatefulPartitionedCall/model/depthwise_conv2d_31/depthwise/ReadVariableOp",
        "op": "Const",
        "input": [
          "^input"
        ],
        "attr": {
          "value": {
            "tensor": {
              "dtype": "DT_FLOAT",
              "tensorShape": {
                "dim": [
                  {
                    "size": "3"
                  },
                  {
                    "size": "3"
                  },
                  {
                    "size": "256"
                  },
                  {
                    "size": "1"
                  }
                ]
              }
            }
          },
          "dtype": {
            "type": "DT_FLOAT"
          }
        }
      },
      {
        "name": "StatefulPartitionedCall/model/depthwise_conv2d_32/depthwise/ReadVariableOp",
        "op": "Const",
        "input": [
          "^input"
        ],
        "attr": {
          "value": {
            "tensor": {
              "dtype": "DT_FLOAT",
              "tensorShape": {
                "dim": [
                  {
                    "size": "3"
                  },
                  {
                    "size": "3"
                  },
                  {
                    "size": "256"
                  },
                  {
                    "size": "1"
                  }
                ]
              }
            }
          },
          "dtype": {
            "type": "DT_FLOAT"
          }
        }
      },
      {
        "name": "StatefulPartitionedCall/model/depthwise_conv2d_33/depthwise/ReadVariableOp",
        "op": "Const",
        "input": [
          "^input"
        ],
        "attr": {
          "value": {
            "tensor": {
              "dtype": "DT_FLOAT",
              "tensorShape": {
                "dim": [
                  {
                    "size": "3"
                  },
                  {
                    "size": "3"
                  },
                  {
                    "size": "256"
                  },
                  {
                    "size": "1"
                  }
                ]
              }
            }
          },
          "dtype": {
            "type": "DT_FLOAT"
          }
        }
      },
      {
        "name": "StatefulPartitionedCall/model/depthwise_conv2d_34/depthwise/ReadVariableOp",
        "op": "Const",
        "input": [
          "^input"
        ],
        "attr": {
          "value": {
            "tensor": {
              "dtype": "DT_FLOAT",
              "tensorShape": {
                "dim": [
                  {
                    "size": "3"
                  },
                  {
                    "size": "3"
                  },
                  {
                    "size": "256"
                  },
                  {
                    "size": "1"
                  }
                ]
              }
            }
          },
          "dtype": {
            "type": "DT_FLOAT"
          }
        }
      },
      {
        "name": "StatefulPartitionedCall/model/depthwise_conv2d_35/depthwise/ReadVariableOp",
        "op": "Const",
        "input": [
          "^input"
        ],
        "attr": {
          "value": {
            "tensor": {
              "dtype": "DT_FLOAT",
              "tensorShape": {
                "dim": [
                  {
                    "size": "3"
                  },
                  {
                    "size": "3"
                  },
                  {
                    "size": "256"
                  },
                  {
                    "size": "1"
                  }
                ]
              }
            }
          },
          "dtype": {
            "type": "DT_FLOAT"
          }
        }
      },
      {
        "name": "StatefulPartitionedCall/model/depthwise_conv2d_36/depthwise/ReadVariableOp",
        "op": "Const",
        "input": [
          "^input"
        ],
        "attr": {
          "dtype": {
            "type": "DT_FLOAT"
          },
          "value": {
            "tensor": {
              "dtype": "DT_FLOAT",
              "tensorShape": {
                "dim": [
                  {
                    "size": "3"
                  },
                  {
                    "size": "3"
                  },
                  {
                    "size": "256"
                  },
                  {
                    "size": "1"
                  }
                ]
              }
            }
          }
        }
      },
      {
        "name": "StatefulPartitionedCall/model/depthwise_conv2d_37/depthwise/ReadVariableOp",
        "op": "Const",
        "input": [
          "^input"
        ],
        "attr": {
          "dtype": {
            "type": "DT_FLOAT"
          },
          "value": {
            "tensor": {
              "dtype": "DT_FLOAT",
              "tensorShape": {
                "dim": [
                  {
                    "size": "3"
                  },
                  {
                    "size": "3"
                  },
                  {
                    "size": "256"
                  },
                  {
                    "size": "1"
                  }
                ]
              }
            }
          }
        }
      },
      {
        "name": "StatefulPartitionedCall/model/depthwise_conv2d_38/depthwise/ReadVariableOp",
        "op": "Const",
        "input": [
          "^input"
        ],
        "attr": {
          "value": {
            "tensor": {
              "dtype": "DT_FLOAT",
              "tensorShape": {
                "dim": [
                  {
                    "size": "3"
                  },
                  {
                    "size": "3"
                  },
                  {
                    "size": "256"
                  },
                  {
                    "size": "1"
                  }
                ]
              }
            }
          },
          "dtype": {
            "type": "DT_FLOAT"
          }
        }
      },
      {
        "name": "StatefulPartitionedCall/model/depthwise_conv2d_39/depthwise/ReadVariableOp",
        "op": "Const",
        "input": [
          "^input"
        ],
        "attr": {
          "value": {
            "tensor": {
              "dtype": "DT_FLOAT",
              "tensorShape": {
                "dim": [
                  {
                    "size": "3"
                  },
                  {
                    "size": "3"
                  },
                  {
                    "size": "256"
                  },
                  {
                    "size": "1"
                  }
                ]
              }
            }
          },
          "dtype": {
            "type": "DT_FLOAT"
          }
        }
      },
      {
        "name": "StatefulPartitionedCall/model/batch_normalization_40/FusedBatchNormV3/Scaled",
        "op": "Const",
        "input": [
          "^input"
        ],
        "attr": {
          "value": {
            "tensor": {
              "dtype": "DT_FLOAT",
              "tensorShape": {
                "dim": [
                  {
                    "size": "256"
                  }
                ]
              }
            }
          },
          "dtype": {
            "type": "DT_FLOAT"
          }
        }
      },
      {
        "name": "StatefulPartitionedCall/model/batch_normalization_40/FusedBatchNormV3/Offset",
        "op": "Const",
        "input": [
          "^input"
        ],
        "attr": {
          "value": {
            "tensor": {
              "dtype": "DT_FLOAT",
              "tensorShape": {
                "dim": [
                  {
                    "size": "256"
                  }
                ]
              }
            }
          },
          "dtype": {
            "type": "DT_FLOAT"
          }
        }
      },
      {
        "name": "StatefulPartitionedCall/model/batch_normalization_42/FusedBatchNormV3/Scaled",
        "op": "Const",
        "input": [
          "^input"
        ],
        "attr": {
          "value": {
            "tensor": {
              "dtype": "DT_FLOAT",
              "tensorShape": {
                "dim": [
                  {
                    "size": "128"
                  }
                ]
              }
            }
          },
          "dtype": {
            "type": "DT_FLOAT"
          }
        }
      },
      {
        "name": "StatefulPartitionedCall/model/batch_normalization_42/FusedBatchNormV3/Offset",
        "op": "Const",
        "input": [
          "^input"
        ],
        "attr": {
          "dtype": {
            "type": "DT_FLOAT"
          },
          "value": {
            "tensor": {
              "dtype": "DT_FLOAT",
              "tensorShape": {
                "dim": [
                  {
                    "size": "128"
                  }
                ]
              }
            }
          }
        }
      },
      {
        "name": "StatefulPartitionedCall/model/activation/Relu",
        "op": "_FusedConv2D",
        "input": [
          "input",
          "StatefulPartitionedCall/model/conv2d/Conv2D_weights",
          "StatefulPartitionedCall/model/conv2d/Conv2D_bn_offset"
        ],
        "device": "/device:CPU:0",
        "attr": {
          "dilations": {
            "list": {
              "i": [
                "1",
                "1",
                "1",
                "1"
              ]
            }
          },
          "T": {
            "type": "DT_FLOAT"
          },
          "strides": {
            "list": {
              "i": [
                "1",
                "2",
                "2",
                "1"
              ]
            }
          },
          "data_format": {
            "s": "TkhXQw=="
          },
          "explicit_paddings": {
            "list": {}
          },
          "use_cudnn_on_gpu": {
            "b": true
          },
          "num_args": {
            "i": "1"
          },
          "epsilon": {
            "f": 0.0
          },
          "padding": {
            "s": "U0FNRQ=="
          },
          "fused_ops": {
            "list": {
              "s": [
                "Qmlhc0FkZA==",
                "UmVsdQ=="
              ]
            }
          }
        }
      },
      {
        "name": "StatefulPartitionedCall/model/depthwise_conv2d/depthwise",
        "op": "DepthwiseConv2dNative",
        "input": [
          "StatefulPartitionedCall/model/activation/Relu",
          "StatefulPartitionedCall/model/depthwise_conv2d/depthwise/ReadVariableOp"
        ],
        "attr": {
          "data_format": {
            "s": "TkhXQw=="
          },
          "strides": {
            "list": {
              "i": [
                "1",
                "1",
                "1",
                "1"
              ]
            }
          },
          "padding": {
            "s": "U0FNRQ=="
          },
          "dilations": {
            "list": {
              "i": [
                "1",
                "1",
                "1",
                "1"
              ]
            }
          },
          "T": {
            "type": "DT_FLOAT"
          }
        }
      },
      {
        "name": "StatefulPartitionedCall/model/batch_normalization_1/FusedBatchNormV3",
        "op": "_FusedConv2D",
        "input": [
          "StatefulPartitionedCall/model/depthwise_conv2d/depthwise",
          "StatefulPartitionedCall/model/conv2d_1/Conv2D_weights",
          "StatefulPartitionedCall/model/conv2d_1/Conv2D_bn_offset"
        ],
        "device": "/device:CPU:0",
        "attr": {
          "num_args": {
            "i": "1"
          },
          "epsilon": {
            "f": 0.0
          },
          "padding": {
            "s": "VkFMSUQ="
          },
          "fused_ops": {
            "list": {
              "s": [
                "Qmlhc0FkZA=="
              ]
            }
          },
          "dilations": {
            "list": {
              "i": [
                "1",
                "1",
                "1",
                "1"
              ]
            }
          },
          "T": {
            "type": "DT_FLOAT"
          },
          "strides": {
            "list": {
              "i": [
                "1",
                "1",
                "1",
                "1"
              ]
            }
          },
          "data_format": {
            "s": "TkhXQw=="
          },
          "explicit_paddings": {
            "list": {}
          },
          "use_cudnn_on_gpu": {
            "b": true
          }
        }
      },
      {
        "name": "StatefulPartitionedCall/model/add/add",
        "op": "AddV2",
        "input": [
          "StatefulPartitionedCall/model/activation/Relu",
          "StatefulPartitionedCall/model/batch_normalization_1/FusedBatchNormV3"
        ],
        "attr": {
          "T": {
            "type": "DT_FLOAT"
          }
        }
      },
      {
        "name": "StatefulPartitionedCall/model/activation_1/Relu",
        "op": "Relu",
        "input": [
          "StatefulPartitionedCall/model/add/add"
        ],
        "attr": {
          "T": {
            "type": "DT_FLOAT"
          }
        }
      },
      {
        "name": "StatefulPartitionedCall/model/depthwise_conv2d_1/depthwise",
        "op": "DepthwiseConv2dNative",
        "input": [
          "StatefulPartitionedCall/model/activation_1/Relu",
          "StatefulPartitionedCall/model/depthwise_conv2d_1/depthwise/ReadVariableOp"
        ],
        "attr": {
          "padding": {
            "s": "U0FNRQ=="
          },
          "dilations": {
            "list": {
              "i": [
                "1",
                "1",
                "1",
                "1"
              ]
            }
          },
          "T": {
            "type": "DT_FLOAT"
          },
          "strides": {
            "list": {
              "i": [
                "1",
                "1",
                "1",
                "1"
              ]
            }
          },
          "data_format": {
            "s": "TkhXQw=="
          }
        }
      },
      {
        "name": "StatefulPartitionedCall/model/batch_normalization_2/FusedBatchNormV3",
        "op": "_FusedConv2D",
        "input": [
          "StatefulPartitionedCall/model/depthwise_conv2d_1/depthwise",
          "StatefulPartitionedCall/model/conv2d_2/Conv2D_weights",
          "StatefulPartitionedCall/model/conv2d_2/Conv2D_bn_offset"
        ],
        "device": "/device:CPU:0",
        "attr": {
          "fused_ops": {
            "list": {
              "s": [
                "Qmlhc0FkZA=="
              ]
            }
          },
          "dilations": {
            "list": {
              "i": [
                "1",
                "1",
                "1",
                "1"
              ]
            }
          },
          "T": {
            "type": "DT_FLOAT"
          },
          "data_format": {
            "s": "TkhXQw=="
          },
          "strides": {
            "list": {
              "i": [
                "1",
                "1",
                "1",
                "1"
              ]
            }
          },
          "explicit_paddings": {
            "list": {}
          },
          "use_cudnn_on_gpu": {
            "b": true
          },
          "num_args": {
            "i": "1"
          },
          "epsilon": {
            "f": 0.0
          },
          "padding": {
            "s": "VkFMSUQ="
          }
        }
      },
      {
        "name": "StatefulPartitionedCall/model/add_1/add",
        "op": "AddV2",
        "input": [
          "StatefulPartitionedCall/model/activation_1/Relu",
          "StatefulPartitionedCall/model/batch_normalization_2/FusedBatchNormV3"
        ],
        "attr": {
          "T": {
            "type": "DT_FLOAT"
          }
        }
      },
      {
        "name": "StatefulPartitionedCall/model/activation_2/Relu",
        "op": "Relu",
        "input": [
          "StatefulPartitionedCall/model/add_1/add"
        ],
        "attr": {
          "T": {
            "type": "DT_FLOAT"
          }
        }
      },
      {
        "name": "StatefulPartitionedCall/model/depthwise_conv2d_2/depthwise",
        "op": "DepthwiseConv2dNative",
        "input": [
          "StatefulPartitionedCall/model/activation_2/Relu",
          "StatefulPartitionedCall/model/depthwise_conv2d_2/depthwise/ReadVariableOp"
        ],
        "attr": {
          "T": {
            "type": "DT_FLOAT"
          },
          "data_format": {
            "s": "TkhXQw=="
          },
          "strides": {
            "list": {
              "i": [
                "1",
                "1",
                "1",
                "1"
              ]
            }
          },
          "dilations": {
            "list": {
              "i": [
                "1",
                "1",
                "1",
                "1"
              ]
            }
          },
          "padding": {
            "s": "U0FNRQ=="
          }
        }
      },
      {
        "name": "StatefulPartitionedCall/model/batch_normalization_3/FusedBatchNormV3",
        "op": "_FusedConv2D",
        "input": [
          "StatefulPartitionedCall/model/depthwise_conv2d_2/depthwise",
          "StatefulPartitionedCall/model/conv2d_3/Conv2D_weights",
          "StatefulPartitionedCall/model/conv2d_3/Conv2D_bn_offset"
        ],
        "device": "/device:CPU:0",
        "attr": {
          "fused_ops": {
            "list": {
              "s": [
                "Qmlhc0FkZA=="
              ]
            }
          },
          "dilations": {
            "list": {
              "i": [
                "1",
                "1",
                "1",
                "1"
              ]
            }
          },
          "T": {
            "type": "DT_FLOAT"
          },
          "strides": {
            "list": {
              "i": [
                "1",
                "1",
                "1",
                "1"
              ]
            }
          },
          "data_format": {
            "s": "TkhXQw=="
          },
          "explicit_paddings": {
            "list": {}
          },
          "use_cudnn_on_gpu": {
            "b": true
          },
          "num_args": {
            "i": "1"
          },
          "epsilon": {
            "f": 0.0
          },
          "padding": {
            "s": "VkFMSUQ="
          }
        }
      },
      {
        "name": "StatefulPartitionedCall/model/add_2/add",
        "op": "AddV2",
        "input": [
          "StatefulPartitionedCall/model/activation_2/Relu",
          "StatefulPartitionedCall/model/batch_normalization_3/FusedBatchNormV3"
        ],
        "attr": {
          "T": {
            "type": "DT_FLOAT"
          }
        }
      },
      {
        "name": "StatefulPartitionedCall/model/activation_3/Relu",
        "op": "Relu",
        "input": [
          "StatefulPartitionedCall/model/add_2/add"
        ],
        "attr": {
          "T": {
            "type": "DT_FLOAT"
          }
        }
      },
      {
        "name": "StatefulPartitionedCall/model/depthwise_conv2d_3/depthwise",
        "op": "DepthwiseConv2dNative",
        "input": [
          "StatefulPartitionedCall/model/activation_3/Relu",
          "StatefulPartitionedCall/model/depthwise_conv2d_3/depthwise/ReadVariableOp"
        ],
        "attr": {
          "dilations": {
            "list": {
              "i": [
                "1",
                "1",
                "1",
                "1"
              ]
            }
          },
          "padding": {
            "s": "U0FNRQ=="
          },
          "T": {
            "type": "DT_FLOAT"
          },
          "data_format": {
            "s": "TkhXQw=="
          },
          "strides": {
            "list": {
              "i": [
                "1",
                "1",
                "1",
                "1"
              ]
            }
          }
        }
      },
      {
        "name": "StatefulPartitionedCall/model/batch_normalization_4/FusedBatchNormV3",
        "op": "_FusedConv2D",
        "input": [
          "StatefulPartitionedCall/model/depthwise_conv2d_3/depthwise",
          "StatefulPartitionedCall/model/conv2d_4/Conv2D_weights",
          "StatefulPartitionedCall/model/conv2d_4/Conv2D_bn_offset"
        ],
        "device": "/device:CPU:0",
        "attr": {
          "fused_ops": {
            "list": {
              "s": [
                "Qmlhc0FkZA=="
              ]
            }
          },
          "dilations": {
            "list": {
              "i": [
                "1",
                "1",
                "1",
                "1"
              ]
            }
          },
          "T": {
            "type": "DT_FLOAT"
          },
          "data_format": {
            "s": "TkhXQw=="
          },
          "strides": {
            "list": {
              "i": [
                "1",
                "1",
                "1",
                "1"
              ]
            }
          },
          "use_cudnn_on_gpu": {
            "b": true
          },
          "explicit_paddings": {
            "list": {}
          },
          "num_args": {
            "i": "1"
          },
          "epsilon": {
            "f": 0.0
          },
          "padding": {
            "s": "VkFMSUQ="
          }
        }
      },
      {
        "name": "StatefulPartitionedCall/model/add_3/add",
        "op": "AddV2",
        "input": [
          "StatefulPartitionedCall/model/activation_3/Relu",
          "StatefulPartitionedCall/model/batch_normalization_4/FusedBatchNormV3"
        ],
        "attr": {
          "T": {
            "type": "DT_FLOAT"
          }
        }
      },
      {
        "name": "StatefulPartitionedCall/model/activation_4/Relu",
        "op": "Relu",
        "input": [
          "StatefulPartitionedCall/model/add_3/add"
        ],
        "attr": {
          "T": {
            "type": "DT_FLOAT"
          }
        }
      },
      {
        "name": "StatefulPartitionedCall/model/depthwise_conv2d_4/depthwise",
        "op": "DepthwiseConv2dNative",
        "input": [
          "StatefulPartitionedCall/model/activation_4/Relu",
          "StatefulPartitionedCall/model/depthwise_conv2d_4/depthwise/ReadVariableOp"
        ],
        "attr": {
          "padding": {
            "s": "U0FNRQ=="
          },
          "dilations": {
            "list": {
              "i": [
                "1",
                "1",
                "1",
                "1"
              ]
            }
          },
          "T": {
            "type": "DT_FLOAT"
          },
          "data_format": {
            "s": "TkhXQw=="
          },
          "strides": {
            "list": {
              "i": [
                "1",
                "1",
                "1",
                "1"
              ]
            }
          }
        }
      },
      {
        "name": "StatefulPartitionedCall/model/batch_normalization_5/FusedBatchNormV3",
        "op": "_FusedConv2D",
        "input": [
          "StatefulPartitionedCall/model/depthwise_conv2d_4/depthwise",
          "StatefulPartitionedCall/model/conv2d_5/Conv2D_weights",
          "StatefulPartitionedCall/model/conv2d_5/Conv2D_bn_offset"
        ],
        "device": "/device:CPU:0",
        "attr": {
          "num_args": {
            "i": "1"
          },
          "epsilon": {
            "f": 0.0
          },
          "padding": {
            "s": "VkFMSUQ="
          },
          "fused_ops": {
            "list": {
              "s": [
                "Qmlhc0FkZA=="
              ]
            }
          },
          "dilations": {
            "list": {
              "i": [
                "1",
                "1",
                "1",
                "1"
              ]
            }
          },
          "T": {
            "type": "DT_FLOAT"
          },
          "strides": {
            "list": {
              "i": [
                "1",
                "1",
                "1",
                "1"
              ]
            }
          },
          "data_format": {
            "s": "TkhXQw=="
          },
          "use_cudnn_on_gpu": {
            "b": true
          },
          "explicit_paddings": {
            "list": {}
          }
        }
      },
      {
        "name": "StatefulPartitionedCall/model/add_4/add",
        "op": "AddV2",
        "input": [
          "StatefulPartitionedCall/model/activation_4/Relu",
          "StatefulPartitionedCall/model/batch_normalization_5/FusedBatchNormV3"
        ],
        "attr": {
          "T": {
            "type": "DT_FLOAT"
          }
        }
      },
      {
        "name": "StatefulPartitionedCall/model/activation_5/Relu",
        "op": "Relu",
        "input": [
          "StatefulPartitionedCall/model/add_4/add"
        ],
        "attr": {
          "T": {
            "type": "DT_FLOAT"
          }
        }
      },
      {
        "name": "StatefulPartitionedCall/model/depthwise_conv2d_5/depthwise",
        "op": "DepthwiseConv2dNative",
        "input": [
          "StatefulPartitionedCall/model/activation_5/Relu",
          "StatefulPartitionedCall/model/depthwise_conv2d_5/depthwise/ReadVariableOp"
        ],
        "attr": {
          "T": {
            "type": "DT_FLOAT"
          },
          "data_format": {
            "s": "TkhXQw=="
          },
          "strides": {
            "list": {
              "i": [
                "1",
                "1",
                "1",
                "1"
              ]
            }
          },
          "padding": {
            "s": "U0FNRQ=="
          },
          "dilations": {
            "list": {
              "i": [
                "1",
                "1",
                "1",
                "1"
              ]
            }
          }
        }
      },
      {
        "name": "StatefulPartitionedCall/model/batch_normalization_6/FusedBatchNormV3",
        "op": "_FusedConv2D",
        "input": [
          "StatefulPartitionedCall/model/depthwise_conv2d_5/depthwise",
          "StatefulPartitionedCall/model/conv2d_6/Conv2D_weights",
          "StatefulPartitionedCall/model/conv2d_6/Conv2D_bn_offset"
        ],
        "device": "/device:CPU:0",
        "attr": {
          "epsilon": {
            "f": 0.0
          },
          "padding": {
            "s": "VkFMSUQ="
          },
          "fused_ops": {
            "list": {
              "s": [
                "Qmlhc0FkZA=="
              ]
            }
          },
          "dilations": {
            "list": {
              "i": [
                "1",
                "1",
                "1",
                "1"
              ]
            }
          },
          "T": {
            "type": "DT_FLOAT"
          },
          "strides": {
            "list": {
              "i": [
                "1",
                "1",
                "1",
                "1"
              ]
            }
          },
          "data_format": {
            "s": "TkhXQw=="
          },
          "use_cudnn_on_gpu": {
            "b": true
          },
          "explicit_paddings": {
            "list": {}
          },
          "num_args": {
            "i": "1"
          }
        }
      },
      {
        "name": "StatefulPartitionedCall/model/add_5/add",
        "op": "AddV2",
        "input": [
          "StatefulPartitionedCall/model/activation_5/Relu",
          "StatefulPartitionedCall/model/batch_normalization_6/FusedBatchNormV3"
        ],
        "attr": {
          "T": {
            "type": "DT_FLOAT"
          }
        }
      },
      {
        "name": "StatefulPartitionedCall/model/activation_6/Relu",
        "op": "Relu",
        "input": [
          "StatefulPartitionedCall/model/add_5/add"
        ],
        "attr": {
          "T": {
            "type": "DT_FLOAT"
          }
        }
      },
      {
        "name": "StatefulPartitionedCall/model/depthwise_conv2d_6/depthwise",
        "op": "DepthwiseConv2dNative",
        "input": [
          "StatefulPartitionedCall/model/activation_6/Relu",
          "StatefulPartitionedCall/model/depthwise_conv2d_6/depthwise/ReadVariableOp"
        ],
        "attr": {
          "T": {
            "type": "DT_FLOAT"
          },
          "data_format": {
            "s": "TkhXQw=="
          },
          "strides": {
            "list": {
              "i": [
                "1",
                "1",
                "1",
                "1"
              ]
            }
          },
          "padding": {
            "s": "U0FNRQ=="
          },
          "dilations": {
            "list": {
              "i": [
                "1",
                "1",
                "1",
                "1"
              ]
            }
          }
        }
      },
      {
        "name": "StatefulPartitionedCall/model/batch_normalization_7/FusedBatchNormV3",
        "op": "_FusedConv2D",
        "input": [
          "StatefulPartitionedCall/model/depthwise_conv2d_6/depthwise",
          "StatefulPartitionedCall/model/conv2d_7/Conv2D_weights",
          "StatefulPartitionedCall/model/conv2d_7/Conv2D_bn_offset"
        ],
        "device": "/device:CPU:0",
        "attr": {
          "strides": {
            "list": {
              "i": [
                "1",
                "1",
                "1",
                "1"
              ]
            }
          },
          "data_format": {
            "s": "TkhXQw=="
          },
          "use_cudnn_on_gpu": {
            "b": true
          },
          "explicit_paddings": {
            "list": {}
          },
          "num_args": {
            "i": "1"
          },
          "epsilon": {
            "f": 0.0
          },
          "padding": {
            "s": "VkFMSUQ="
          },
          "fused_ops": {
            "list": {
              "s": [
                "Qmlhc0FkZA=="
              ]
            }
          },
          "dilations": {
            "list": {
              "i": [
                "1",
                "1",
                "1",
                "1"
              ]
            }
          },
          "T": {
            "type": "DT_FLOAT"
          }
        }
      },
      {
        "name": "StatefulPartitionedCall/model/add_6/add",
        "op": "AddV2",
        "input": [
          "StatefulPartitionedCall/model/activation_6/Relu",
          "StatefulPartitionedCall/model/batch_normalization_7/FusedBatchNormV3"
        ],
        "attr": {
          "T": {
            "type": "DT_FLOAT"
          }
        }
      },
      {
        "name": "StatefulPartitionedCall/model/activation_7/Relu",
        "op": "Relu",
        "input": [
          "StatefulPartitionedCall/model/add_6/add"
        ],
        "attr": {
          "T": {
            "type": "DT_FLOAT"
          }
        }
      },
      {
        "name": "StatefulPartitionedCall/model/max_pooling2d/MaxPool",
        "op": "MaxPool",
        "input": [
          "StatefulPartitionedCall/model/activation_7/Relu"
        ],
        "attr": {
          "ksize": {
            "list": {
              "i": [
                "1",
                "2",
                "2",
                "1"
              ]
            }
          },
          "padding": {
            "s": "U0FNRQ=="
          },
          "T": {
            "type": "DT_FLOAT"
          },
          "strides": {
            "list": {
              "i": [
                "1",
                "2",
                "2",
                "1"
              ]
            }
          },
          "data_format": {
            "s": "TkhXQw=="
          }
        }
      },
      {
        "name": "StatefulPartitionedCall/model/depthwise_conv2d_7/depthwise",
        "op": "DepthwiseConv2dNative",
        "input": [
          "StatefulPartitionedCall/model/activation_7/Relu",
          "StatefulPartitionedCall/model/depthwise_conv2d_7/depthwise/ReadVariableOp"
        ],
        "attr": {
          "padding": {
            "s": "U0FNRQ=="
          },
          "dilations": {
            "list": {
              "i": [
                "1",
                "1",
                "1",
                "1"
              ]
            }
          },
          "T": {
            "type": "DT_FLOAT"
          },
          "strides": {
            "list": {
              "i": [
                "1",
                "2",
                "2",
                "1"
              ]
            }
          },
          "data_format": {
            "s": "TkhXQw=="
          }
        }
      },
      {
        "name": "StatefulPartitionedCall/model/channel_padding/Pad",
        "op": "Pad",
        "input": [
          "StatefulPartitionedCall/model/max_pooling2d/MaxPool",
          "StatefulPartitionedCall/model/channel_padding/Pad/paddings"
        ],
        "attr": {
          "T": {
            "type": "DT_FLOAT"
          },
          "Tpaddings": {
            "type": "DT_INT32"
          }
        }
      },
      {
        "name": "StatefulPartitionedCall/model/batch_normalization_8/FusedBatchNormV3",
        "op": "_FusedConv2D",
        "input": [
          "StatefulPartitionedCall/model/depthwise_conv2d_7/depthwise",
          "StatefulPartitionedCall/model/conv2d_8/Conv2D_weights",
          "StatefulPartitionedCall/model/conv2d_8/Conv2D_bn_offset"
        ],
        "device": "/device:CPU:0",
        "attr": {
          "num_args": {
            "i": "1"
          },
          "epsilon": {
            "f": 0.0
          },
          "padding": {
            "s": "VkFMSUQ="
          },
          "fused_ops": {
            "list": {
              "s": [
                "Qmlhc0FkZA=="
              ]
            }
          },
          "dilations": {
            "list": {
              "i": [
                "1",
                "1",
                "1",
                "1"
              ]
            }
          },
          "T": {
            "type": "DT_FLOAT"
          },
          "strides": {
            "list": {
              "i": [
                "1",
                "1",
                "1",
                "1"
              ]
            }
          },
          "data_format": {
            "s": "TkhXQw=="
          },
          "explicit_paddings": {
            "list": {}
          },
          "use_cudnn_on_gpu": {
            "b": true
          }
        }
      },
      {
        "name": "StatefulPartitionedCall/model/add_7/add",
        "op": "AddV2",
        "input": [
          "StatefulPartitionedCall/model/batch_normalization_8/FusedBatchNormV3",
          "StatefulPartitionedCall/model/channel_padding/Pad"
        ],
        "attr": {
          "T": {
            "type": "DT_FLOAT"
          }
        }
      },
      {
        "name": "StatefulPartitionedCall/model/activation_8/Relu",
        "op": "Relu",
        "input": [
          "StatefulPartitionedCall/model/add_7/add"
        ],
        "attr": {
          "T": {
            "type": "DT_FLOAT"
          }
        }
      },
      {
        "name": "StatefulPartitionedCall/model/depthwise_conv2d_8/depthwise",
        "op": "DepthwiseConv2dNative",
        "input": [
          "StatefulPartitionedCall/model/activation_8/Relu",
          "StatefulPartitionedCall/model/depthwise_conv2d_8/depthwise/ReadVariableOp"
        ],
        "attr": {
          "data_format": {
            "s": "TkhXQw=="
          },
          "strides": {
            "list": {
              "i": [
                "1",
                "1",
                "1",
                "1"
              ]
            }
          },
          "dilations": {
            "list": {
              "i": [
                "1",
                "1",
                "1",
                "1"
              ]
            }
          },
          "padding": {
            "s": "U0FNRQ=="
          },
          "T": {
            "type": "DT_FLOAT"
          }
        }
      },
      {
        "name": "StatefulPartitionedCall/model/batch_normalization_9/FusedBatchNormV3",
        "op": "_FusedConv2D",
        "input": [
          "StatefulPartitionedCall/model/depthwise_conv2d_8/depthwise",
          "StatefulPartitionedCall/model/conv2d_9/Conv2D_weights",
          "StatefulPartitionedCall/model/conv2d_9/Conv2D_bn_offset"
        ],
        "device": "/device:CPU:0",
        "attr": {
          "dilations": {
            "list": {
              "i": [
                "1",
                "1",
                "1",
                "1"
              ]
            }
          },
          "T": {
            "type": "DT_FLOAT"
          },
          "strides": {
            "list": {
              "i": [
                "1",
                "1",
                "1",
                "1"
              ]
            }
          },
          "data_format": {
            "s": "TkhXQw=="
          },
          "use_cudnn_on_gpu": {
            "b": true
          },
          "explicit_paddings": {
            "list": {}
          },
          "num_args": {
            "i": "1"
          },
          "epsilon": {
            "f": 0.0
          },
          "padding": {
            "s": "VkFMSUQ="
          },
          "fused_ops": {
            "list": {
              "s": [
                "Qmlhc0FkZA=="
              ]
            }
          }
        }
      },
      {
        "name": "StatefulPartitionedCall/model/add_8/add",
        "op": "AddV2",
        "input": [
          "StatefulPartitionedCall/model/activation_8/Relu",
          "StatefulPartitionedCall/model/batch_normalization_9/FusedBatchNormV3"
        ],
        "attr": {
          "T": {
            "type": "DT_FLOAT"
          }
        }
      },
      {
        "name": "StatefulPartitionedCall/model/activation_9/Relu",
        "op": "Relu",
        "input": [
          "StatefulPartitionedCall/model/add_8/add"
        ],
        "attr": {
          "T": {
            "type": "DT_FLOAT"
          }
        }
      },
      {
        "name": "StatefulPartitionedCall/model/depthwise_conv2d_9/depthwise",
        "op": "DepthwiseConv2dNative",
        "input": [
          "StatefulPartitionedCall/model/activation_9/Relu",
          "StatefulPartitionedCall/model/depthwise_conv2d_9/depthwise/ReadVariableOp"
        ],
        "attr": {
          "data_format": {
            "s": "TkhXQw=="
          },
          "strides": {
            "list": {
              "i": [
                "1",
                "1",
                "1",
                "1"
              ]
            }
          },
          "dilations": {
            "list": {
              "i": [
                "1",
                "1",
                "1",
                "1"
              ]
            }
          },
          "padding": {
            "s": "U0FNRQ=="
          },
          "T": {
            "type": "DT_FLOAT"
          }
        }
      },
      {
        "name": "StatefulPartitionedCall/model/batch_normalization_10/FusedBatchNormV3",
        "op": "_FusedConv2D",
        "input": [
          "StatefulPartitionedCall/model/depthwise_conv2d_9/depthwise",
          "StatefulPartitionedCall/model/conv2d_10/Conv2D_weights",
          "StatefulPartitionedCall/model/conv2d_10/Conv2D_bn_offset"
        ],
        "device": "/device:CPU:0",
        "attr": {
          "data_format": {
            "s": "TkhXQw=="
          },
          "strides": {
            "list": {
              "i": [
                "1",
                "1",
                "1",
                "1"
              ]
            }
          },
          "use_cudnn_on_gpu": {
            "b": true
          },
          "explicit_paddings": {
            "list": {}
          },
          "num_args": {
            "i": "1"
          },
          "epsilon": {
            "f": 0.0
          },
          "padding": {
            "s": "VkFMSUQ="
          },
          "fused_ops": {
            "list": {
              "s": [
                "Qmlhc0FkZA=="
              ]
            }
          },
          "dilations": {
            "list": {
              "i": [
                "1",
                "1",
                "1",
                "1"
              ]
            }
          },
          "T": {
            "type": "DT_FLOAT"
          }
        }
      },
      {
        "name": "StatefulPartitionedCall/model/add_9/add",
        "op": "AddV2",
        "input": [
          "StatefulPartitionedCall/model/activation_9/Relu",
          "StatefulPartitionedCall/model/batch_normalization_10/FusedBatchNormV3"
        ],
        "attr": {
          "T": {
            "type": "DT_FLOAT"
          }
        }
      },
      {
        "name": "StatefulPartitionedCall/model/activation_10/Relu",
        "op": "Relu",
        "input": [
          "StatefulPartitionedCall/model/add_9/add"
        ],
        "attr": {
          "T": {
            "type": "DT_FLOAT"
          }
        }
      },
      {
        "name": "StatefulPartitionedCall/model/depthwise_conv2d_10/depthwise",
        "op": "DepthwiseConv2dNative",
        "input": [
          "StatefulPartitionedCall/model/activation_10/Relu",
          "StatefulPartitionedCall/model/depthwise_conv2d_10/depthwise/ReadVariableOp"
        ],
        "attr": {
          "data_format": {
            "s": "TkhXQw=="
          },
          "strides": {
            "list": {
              "i": [
                "1",
                "1",
                "1",
                "1"
              ]
            }
          },
          "padding": {
            "s": "U0FNRQ=="
          },
          "dilations": {
            "list": {
              "i": [
                "1",
                "1",
                "1",
                "1"
              ]
            }
          },
          "T": {
            "type": "DT_FLOAT"
          }
        }
      },
      {
        "name": "StatefulPartitionedCall/model/batch_normalization_11/FusedBatchNormV3",
        "op": "_FusedConv2D",
        "input": [
          "StatefulPartitionedCall/model/depthwise_conv2d_10/depthwise",
          "StatefulPartitionedCall/model/conv2d_11/Conv2D_weights",
          "StatefulPartitionedCall/model/conv2d_11/Conv2D_bn_offset"
        ],
        "device": "/device:CPU:0",
        "attr": {
          "dilations": {
            "list": {
              "i": [
                "1",
                "1",
                "1",
                "1"
              ]
            }
          },
          "T": {
            "type": "DT_FLOAT"
          },
          "strides": {
            "list": {
              "i": [
                "1",
                "1",
                "1",
                "1"
              ]
            }
          },
          "data_format": {
            "s": "TkhXQw=="
          },
          "use_cudnn_on_gpu": {
            "b": true
          },
          "explicit_paddings": {
            "list": {}
          },
          "num_args": {
            "i": "1"
          },
          "epsilon": {
            "f": 0.0
          },
          "padding": {
            "s": "VkFMSUQ="
          },
          "fused_ops": {
            "list": {
              "s": [
                "Qmlhc0FkZA=="
              ]
            }
          }
        }
      },
      {
        "name": "StatefulPartitionedCall/model/add_10/add",
        "op": "AddV2",
        "input": [
          "StatefulPartitionedCall/model/activation_10/Relu",
          "StatefulPartitionedCall/model/batch_normalization_11/FusedBatchNormV3"
        ],
        "attr": {
          "T": {
            "type": "DT_FLOAT"
          }
        }
      },
      {
        "name": "StatefulPartitionedCall/model/activation_11/Relu",
        "op": "Relu",
        "input": [
          "StatefulPartitionedCall/model/add_10/add"
        ],
        "attr": {
          "T": {
            "type": "DT_FLOAT"
          }
        }
      },
      {
        "name": "StatefulPartitionedCall/model/depthwise_conv2d_11/depthwise",
        "op": "DepthwiseConv2dNative",
        "input": [
          "StatefulPartitionedCall/model/activation_11/Relu",
          "StatefulPartitionedCall/model/depthwise_conv2d_11/depthwise/ReadVariableOp"
        ],
        "attr": {
          "padding": {
            "s": "U0FNRQ=="
          },
          "dilations": {
            "list": {
              "i": [
                "1",
                "1",
                "1",
                "1"
              ]
            }
          },
          "T": {
            "type": "DT_FLOAT"
          },
          "data_format": {
            "s": "TkhXQw=="
          },
          "strides": {
            "list": {
              "i": [
                "1",
                "1",
                "1",
                "1"
              ]
            }
          }
        }
      },
      {
        "name": "StatefulPartitionedCall/model/batch_normalization_12/FusedBatchNormV3",
        "op": "_FusedConv2D",
        "input": [
          "StatefulPartitionedCall/model/depthwise_conv2d_11/depthwise",
          "StatefulPartitionedCall/model/conv2d_12/Conv2D_weights",
          "StatefulPartitionedCall/model/conv2d_12/Conv2D_bn_offset"
        ],
        "device": "/device:CPU:0",
        "attr": {
          "dilations": {
            "list": {
              "i": [
                "1",
                "1",
                "1",
                "1"
              ]
            }
          },
          "T": {
            "type": "DT_FLOAT"
          },
          "data_format": {
            "s": "TkhXQw=="
          },
          "strides": {
            "list": {
              "i": [
                "1",
                "1",
                "1",
                "1"
              ]
            }
          },
          "explicit_paddings": {
            "list": {}
          },
          "use_cudnn_on_gpu": {
            "b": true
          },
          "num_args": {
            "i": "1"
          },
          "epsilon": {
            "f": 0.0
          },
          "padding": {
            "s": "VkFMSUQ="
          },
          "fused_ops": {
            "list": {
              "s": [
                "Qmlhc0FkZA=="
              ]
            }
          }
        }
      },
      {
        "name": "StatefulPartitionedCall/model/add_11/add",
        "op": "AddV2",
        "input": [
          "StatefulPartitionedCall/model/activation_11/Relu",
          "StatefulPartitionedCall/model/batch_normalization_12/FusedBatchNormV3"
        ],
        "attr": {
          "T": {
            "type": "DT_FLOAT"
          }
        }
      },
      {
        "name": "StatefulPartitionedCall/model/activation_12/Relu",
        "op": "Relu",
        "input": [
          "StatefulPartitionedCall/model/add_11/add"
        ],
        "attr": {
          "T": {
            "type": "DT_FLOAT"
          }
        }
      },
      {
        "name": "StatefulPartitionedCall/model/depthwise_conv2d_12/depthwise",
        "op": "DepthwiseConv2dNative",
        "input": [
          "StatefulPartitionedCall/model/activation_12/Relu",
          "StatefulPartitionedCall/model/depthwise_conv2d_12/depthwise/ReadVariableOp"
        ],
        "attr": {
          "T": {
            "type": "DT_FLOAT"
          },
          "data_format": {
            "s": "TkhXQw=="
          },
          "strides": {
            "list": {
              "i": [
                "1",
                "1",
                "1",
                "1"
              ]
            }
          },
          "padding": {
            "s": "U0FNRQ=="
          },
          "dilations": {
            "list": {
              "i": [
                "1",
                "1",
                "1",
                "1"
              ]
            }
          }
        }
      },
      {
        "name": "StatefulPartitionedCall/model/batch_normalization_13/FusedBatchNormV3",
        "op": "_FusedConv2D",
        "input": [
          "StatefulPartitionedCall/model/depthwise_conv2d_12/depthwise",
          "StatefulPartitionedCall/model/conv2d_13/Conv2D_weights",
          "StatefulPartitionedCall/model/conv2d_13/Conv2D_bn_offset"
        ],
        "device": "/device:CPU:0",
        "attr": {
          "fused_ops": {
            "list": {
              "s": [
                "Qmlhc0FkZA=="
              ]
            }
          },
          "dilations": {
            "list": {
              "i": [
                "1",
                "1",
                "1",
                "1"
              ]
            }
          },
          "T": {
            "type": "DT_FLOAT"
          },
          "data_format": {
            "s": "TkhXQw=="
          },
          "strides": {
            "list": {
              "i": [
                "1",
                "1",
                "1",
                "1"
              ]
            }
          },
          "explicit_paddings": {
            "list": {}
          },
          "use_cudnn_on_gpu": {
            "b": true
          },
          "num_args": {
            "i": "1"
          },
          "epsilon": {
            "f": 0.0
          },
          "padding": {
            "s": "VkFMSUQ="
          }
        }
      },
      {
        "name": "StatefulPartitionedCall/model/add_12/add",
        "op": "AddV2",
        "input": [
          "StatefulPartitionedCall/model/activation_12/Relu",
          "StatefulPartitionedCall/model/batch_normalization_13/FusedBatchNormV3"
        ],
        "attr": {
          "T": {
            "type": "DT_FLOAT"
          }
        }
      },
      {
        "name": "StatefulPartitionedCall/model/activation_13/Relu",
        "op": "Relu",
        "input": [
          "StatefulPartitionedCall/model/add_12/add"
        ],
        "attr": {
          "T": {
            "type": "DT_FLOAT"
          }
        }
      },
      {
        "name": "StatefulPartitionedCall/model/depthwise_conv2d_13/depthwise",
        "op": "DepthwiseConv2dNative",
        "input": [
          "StatefulPartitionedCall/model/activation_13/Relu",
          "StatefulPartitionedCall/model/depthwise_conv2d_13/depthwise/ReadVariableOp"
        ],
        "attr": {
          "padding": {
            "s": "U0FNRQ=="
          },
          "dilations": {
            "list": {
              "i": [
                "1",
                "1",
                "1",
                "1"
              ]
            }
          },
          "T": {
            "type": "DT_FLOAT"
          },
          "strides": {
            "list": {
              "i": [
                "1",
                "1",
                "1",
                "1"
              ]
            }
          },
          "data_format": {
            "s": "TkhXQw=="
          }
        }
      },
      {
        "name": "StatefulPartitionedCall/model/batch_normalization_14/FusedBatchNormV3",
        "op": "_FusedConv2D",
        "input": [
          "StatefulPartitionedCall/model/depthwise_conv2d_13/depthwise",
          "StatefulPartitionedCall/model/conv2d_14/Conv2D_weights",
          "StatefulPartitionedCall/model/conv2d_14/Conv2D_bn_offset"
        ],
        "device": "/device:CPU:0",
        "attr": {
          "fused_ops": {
            "list": {
              "s": [
                "Qmlhc0FkZA=="
              ]
            }
          },
          "dilations": {
            "list": {
              "i": [
                "1",
                "1",
                "1",
                "1"
              ]
            }
          },
          "T": {
            "type": "DT_FLOAT"
          },
          "strides": {
            "list": {
              "i": [
                "1",
                "1",
                "1",
                "1"
              ]
            }
          },
          "data_format": {
            "s": "TkhXQw=="
          },
          "use_cudnn_on_gpu": {
            "b": true
          },
          "explicit_paddings": {
            "list": {}
          },
          "num_args": {
            "i": "1"
          },
          "epsilon": {
            "f": 0.0
          },
          "padding": {
            "s": "VkFMSUQ="
          }
        }
      },
      {
        "name": "StatefulPartitionedCall/model/add_13/add",
        "op": "AddV2",
        "input": [
          "StatefulPartitionedCall/model/activation_13/Relu",
          "StatefulPartitionedCall/model/batch_normalization_14/FusedBatchNormV3"
        ],
        "attr": {
          "T": {
            "type": "DT_FLOAT"
          }
        }
      },
      {
        "name": "StatefulPartitionedCall/model/activation_14/Relu",
        "op": "Relu",
        "input": [
          "StatefulPartitionedCall/model/add_13/add"
        ],
        "attr": {
          "T": {
            "type": "DT_FLOAT"
          }
        }
      },
      {
        "name": "StatefulPartitionedCall/model/depthwise_conv2d_14/depthwise",
        "op": "DepthwiseConv2dNative",
        "input": [
          "StatefulPartitionedCall/model/activation_14/Relu",
          "StatefulPartitionedCall/model/depthwise_conv2d_14/depthwise/ReadVariableOp"
        ],
        "attr": {
          "dilations": {
            "list": {
              "i": [
                "1",
                "1",
                "1",
                "1"
              ]
            }
          },
          "padding": {
            "s": "U0FNRQ=="
          },
          "T": {
            "type": "DT_FLOAT"
          },
          "data_format": {
            "s": "TkhXQw=="
          },
          "strides": {
            "list": {
              "i": [
                "1",
                "1",
                "1",
                "1"
              ]
            }
          }
        }
      },
      {
        "name": "StatefulPartitionedCall/model/batch_normalization_15/FusedBatchNormV3",
        "op": "_FusedConv2D",
        "input": [
          "StatefulPartitionedCall/model/depthwise_conv2d_14/depthwise",
          "StatefulPartitionedCall/model/conv2d_15/Conv2D_weights",
          "StatefulPartitionedCall/model/conv2d_15/Conv2D_bn_offset"
        ],
        "device": "/device:CPU:0",
        "attr": {
          "T": {
            "type": "DT_FLOAT"
          },
          "data_format": {
            "s": "TkhXQw=="
          },
          "strides": {
            "list": {
              "i": [
                "1",
                "1",
                "1",
                "1"
              ]
            }
          },
          "use_cudnn_on_gpu": {
            "b": true
          },
          "explicit_paddings": {
            "list": {}
          },
          "num_args": {
            "i": "1"
          },
          "epsilon": {
            "f": 0.0
          },
          "padding": {
            "s": "VkFMSUQ="
          },
          "fused_ops": {
            "list": {
              "s": [
                "Qmlhc0FkZA=="
              ]
            }
          },
          "dilations": {
            "list": {
              "i": [
                "1",
                "1",
                "1",
                "1"
              ]
            }
          }
        }
      },
      {
        "name": "StatefulPartitionedCall/model/add_14/add",
        "op": "AddV2",
        "input": [
          "StatefulPartitionedCall/model/activation_14/Relu",
          "StatefulPartitionedCall/model/batch_normalization_15/FusedBatchNormV3"
        ],
        "attr": {
          "T": {
            "type": "DT_FLOAT"
          }
        }
      },
      {
        "name": "StatefulPartitionedCall/model/activation_15/Relu",
        "op": "Relu",
        "input": [
          "StatefulPartitionedCall/model/add_14/add"
        ],
        "attr": {
          "T": {
            "type": "DT_FLOAT"
          }
        }
      },
      {
        "name": "StatefulPartitionedCall/model/max_pooling2d_1/MaxPool",
        "op": "MaxPool",
        "input": [
          "StatefulPartitionedCall/model/activation_15/Relu"
        ],
        "attr": {
          "ksize": {
            "list": {
              "i": [
                "1",
                "2",
                "2",
                "1"
              ]
            }
          },
          "padding": {
            "s": "U0FNRQ=="
          },
          "T": {
            "type": "DT_FLOAT"
          },
          "strides": {
            "list": {
              "i": [
                "1",
                "2",
                "2",
                "1"
              ]
            }
          },
          "data_format": {
            "s": "TkhXQw=="
          }
        }
      },
      {
        "name": "StatefulPartitionedCall/model/depthwise_conv2d_15/depthwise",
        "op": "DepthwiseConv2dNative",
        "input": [
          "StatefulPartitionedCall/model/activation_15/Relu",
          "StatefulPartitionedCall/model/depthwise_conv2d_15/depthwise/ReadVariableOp"
        ],
        "attr": {
          "data_format": {
            "s": "TkhXQw=="
          },
          "strides": {
            "list": {
              "i": [
                "1",
                "2",
                "2",
                "1"
              ]
            }
          },
          "padding": {
            "s": "U0FNRQ=="
          },
          "dilations": {
            "list": {
              "i": [
                "1",
                "1",
                "1",
                "1"
              ]
            }
          },
          "T": {
            "type": "DT_FLOAT"
          }
        }
      },
      {
        "name": "StatefulPartitionedCall/model/channel_padding_1/Pad",
        "op": "Pad",
        "input": [
          "StatefulPartitionedCall/model/max_pooling2d_1/MaxPool",
          "StatefulPartitionedCall/model/channel_padding_1/Pad/paddings"
        ],
        "attr": {
          "T": {
            "type": "DT_FLOAT"
          },
          "Tpaddings": {
            "type": "DT_INT32"
          }
        }
      },
      {
        "name": "StatefulPartitionedCall/model/batch_normalization_16/FusedBatchNormV3",
        "op": "_FusedConv2D",
        "input": [
          "StatefulPartitionedCall/model/depthwise_conv2d_15/depthwise",
          "StatefulPartitionedCall/model/conv2d_16/Conv2D_weights",
          "StatefulPartitionedCall/model/conv2d_16/Conv2D_bn_offset"
        ],
        "device": "/device:CPU:0",
        "attr": {
          "T": {
            "type": "DT_FLOAT"
          },
          "strides": {
            "list": {
              "i": [
                "1",
                "1",
                "1",
                "1"
              ]
            }
          },
          "data_format": {
            "s": "TkhXQw=="
          },
          "use_cudnn_on_gpu": {
            "b": true
          },
          "explicit_paddings": {
            "list": {}
          },
          "num_args": {
            "i": "1"
          },
          "epsilon": {
            "f": 0.0
          },
          "padding": {
            "s": "VkFMSUQ="
          },
          "fused_ops": {
            "list": {
              "s": [
                "Qmlhc0FkZA=="
              ]
            }
          },
          "dilations": {
            "list": {
              "i": [
                "1",
                "1",
                "1",
                "1"
              ]
            }
          }
        }
      },
      {
        "name": "StatefulPartitionedCall/model/add_15/add",
        "op": "AddV2",
        "input": [
          "StatefulPartitionedCall/model/batch_normalization_16/FusedBatchNormV3",
          "StatefulPartitionedCall/model/channel_padding_1/Pad"
        ],
        "attr": {
          "T": {
            "type": "DT_FLOAT"
          }
        }
      },
      {
        "name": "StatefulPartitionedCall/model/activation_16/Relu",
        "op": "Relu",
        "input": [
          "StatefulPartitionedCall/model/add_15/add"
        ],
        "attr": {
          "T": {
            "type": "DT_FLOAT"
          }
        }
      },
      {
        "name": "StatefulPartitionedCall/model/depthwise_conv2d_16/depthwise",
        "op": "DepthwiseConv2dNative",
        "input": [
          "StatefulPartitionedCall/model/activation_16/Relu",
          "StatefulPartitionedCall/model/depthwise_conv2d_16/depthwise/ReadVariableOp"
        ],
…
        "name": "StatefulPartitionedCall/model/depthwise_conv2d_39/depthwise",
        "op": "DepthwiseConv2dNative",
        "input": [
          "StatefulPartitionedCall/model/add_39/add",
          "StatefulPartitionedCall/model/depthwise_conv2d_39/depthwise/ReadVariableOp"
        ],
        "attr": {
          "dilations": {
            "list": {
              "i": [
                "1",
                "1",
                "1",
                "1"
              ]
            }
          },
          "padding": {
            "s": "U0FNRQ=="
          },
          "T": {
            "type": "DT_FLOAT"
          },
          "strides": {
            "list": {
              "i": [
                "1",
                "1",
                "1",
                "1"
              ]
            }
          },
          "data_format": {
            "s": "TkhXQw=="
          }
        }
      },
      {
        "name": "StatefulPartitionedCall/model/batch_normalization_41/FusedBatchNormV3",
        "op": "_FusedConv2D",
        "input": [
          "StatefulPartitionedCall/model/depthwise_conv2d_39/depthwise",
          "StatefulPartitionedCall/model/conv2d_40/Conv2D_weights",
          "StatefulPartitionedCall/model/conv2d_40/Conv2D_bn_offset"
        ],
        "device": "/device:CPU:0",
        "attr": {
          "dilations": {
            "list": {
              "i": [
                "1",
                "1",
                "1",
                "1"
              ]
            }
          },
          "T": {
            "type": "DT_FLOAT"
          },
          "data_format": {
            "s": "TkhXQw=="
          },
          "strides": {
            "list": {
              "i": [
                "1",
                "1",
                "1",
                "1"
              ]
            }
          },
          "explicit_paddings": {
            "list": {}
          },
          "use_cudnn_on_gpu": {
            "b": true
          },
          "num_args": {
            "i": "1"
          },
          "epsilon": {
            "f": 0.0
          },
          "padding": {
            "s": "VkFMSUQ="
          },
          "fused_ops": {
            "list": {
              "s": [
                "Qmlhc0FkZA=="
              ]
            }
          }
        }
      },
      {
        "name": "StatefulPartitionedCall/model/add_40/add",
        "op": "AddV2",
        "input": [
          "StatefulPartitionedCall/model/add_39/add",
          "StatefulPartitionedCall/model/batch_normalization_41/FusedBatchNormV3"
        ],
        "attr": {
          "T": {
            "type": "DT_FLOAT"
          }
        }
      },
      {
        "name": "StatefulPartitionedCall/model/activation_41/Relu",
        "op": "Relu",
        "input": [
          "StatefulPartitionedCall/model/add_40/add"
        ],
        "attr": {
          "T": {
            "type": "DT_FLOAT"
          }
        }
      },
      {
        "name": "StatefulPartitionedCall/model/conv2d_transpose_1/conv2d_transpose",
        "op": "Conv2DBackpropInput",
        "input": [
          "StatefulPartitionedCall/model/conv2d_transpose_1/stack",
          "StatefulPartitionedCall/model/conv2d_transpose_1/conv2d_transpose/ReadVariableOp",
          "StatefulPartitionedCall/model/activation_41/Relu"
        ],
        "attr": {
          "dilations": {
            "list": {
              "i": [
                "1",
                "1",
                "1",
                "1"
              ]
            }
          },
          "T": {
            "type": "DT_FLOAT"
          },
          "data_format": {
            "s": "TkhXQw=="
          },
          "strides": {
            "list": {
              "i": [
                "1",
                "2",
                "2",
                "1"
              ]
            }
          },
          "explicit_paddings": {
            "list": {}
          },
          "use_cudnn_on_gpu": {
            "b": true
          },
          "padding": {
            "s": "U0FNRQ=="
          }
        }
      },
      {
        "name": "StatefulPartitionedCall/model/classificator_16/BiasAdd",
        "op": "_FusedConv2D",
        "input": [
          "StatefulPartitionedCall/model/activation_41/Relu",
          "StatefulPartitionedCall/model/classificator_16/Conv2D/ReadVariableOp",
          "StatefulPartitionedCall/model/classificator_16/BiasAdd/ReadVariableOp"
        ],
        "device": "/device:CPU:0",
        "attr": {
          "dilations": {
            "list": {
              "i": [
                "1",
                "1",
                "1",
                "1"
              ]
            }
          },
          "T": {
            "type": "DT_FLOAT"
          },
          "data_format": {
            "s": "TkhXQw=="
          },
          "strides": {
            "list": {
              "i": [
                "1",
                "1",
                "1",
                "1"
              ]
            }
          },
          "explicit_paddings": {
            "list": {}
          },
          "use_cudnn_on_gpu": {
            "b": true
          },
          "num_args": {
            "i": "1"
          },
          "epsilon": {
            "f": 0.0
          },
          "padding": {
            "s": "U0FNRQ=="
          },
          "fused_ops": {
            "list": {
              "s": [
                "Qmlhc0FkZA=="
              ]
            }
          }
        }
      },
      {
        "name": "StatefulPartitionedCall/model/regressor_16/BiasAdd",
        "op": "_FusedConv2D",
        "input": [
          "StatefulPartitionedCall/model/activation_41/Relu",
          "StatefulPartitionedCall/model/regressor_16/Conv2D/ReadVariableOp",
          "StatefulPartitionedCall/model/regressor_16/BiasAdd/ReadVariableOp"
        ],
        "device": "/device:CPU:0",
        "attr": {
          "dilations": {
            "list": {
              "i": [
                "1",
                "1",
                "1",
                "1"
              ]
            }
          },
          "T": {
            "type": "DT_FLOAT"
          },
          "strides": {
            "list": {
              "i": [
                "1",
                "1",
                "1",
                "1"
              ]
            }
          },
          "data_format": {
            "s": "TkhXQw=="
          },
          "explicit_paddings": {
            "list": {}
          },
          "use_cudnn_on_gpu": {
            "b": true
          },
          "num_args": {
            "i": "1"
          },
          "epsilon": {
            "f": 0.0
          },
          "padding": {
            "s": "U0FNRQ=="
          },
          "fused_ops": {
            "list": {
              "s": [
                "Qmlhc0FkZA=="
              ]
            }
          }
        }
      },
      {
        "name": "StatefulPartitionedCall/model/batch_normalization_42/FusedBatchNormV3/Mul",
        "op": "Mul",
        "input": [
          "StatefulPartitionedCall/model/batch_normalization_42/FusedBatchNormV3/Scaled",
          "StatefulPartitionedCall/model/conv2d_transpose_1/conv2d_transpose"
        ],
        "attr": {
          "T": {
            "type": "DT_FLOAT"
          }
        }
      },
      {
        "name": "StatefulPartitionedCall/model/reshape_2/Reshape",
        "op": "Reshape",
        "input": [
          "StatefulPartitionedCall/model/classificator_16/BiasAdd",
          "StatefulPartitionedCall/model/reshape/Reshape/shape"
        ],
        "attr": {
          "T": {
            "type": "DT_FLOAT"
          },
          "Tshape": {
            "type": "DT_INT32"
          }
        }
      },
      {
        "name": "StatefulPartitionedCall/model/reshape_3/Reshape",
        "op": "Reshape",
        "input": [
          "StatefulPartitionedCall/model/regressor_16/BiasAdd",
          "StatefulPartitionedCall/model/reshape_1/Reshape/shape"
        ],
        "attr": {
          "T": {
            "type": "DT_FLOAT"
          },
          "Tshape": {
            "type": "DT_INT32"
          }
        }
      },
      {
        "name": "StatefulPartitionedCall/model/batch_normalization_42/FusedBatchNormV3",
        "op": "Add",
        "input": [
          "StatefulPartitionedCall/model/batch_normalization_42/FusedBatchNormV3/Mul",
          "StatefulPartitionedCall/model/batch_normalization_42/FusedBatchNormV3/Offset"
        ],
        "attr": {
          "T": {
            "type": "DT_FLOAT"
          }
        }
      },
      {
        "name": "StatefulPartitionedCall/model/activation_42/Relu",
        "op": "Relu",
        "input": [
          "StatefulPartitionedCall/model/batch_normalization_42/FusedBatchNormV3"
        ],
        "attr": {
          "T": {
            "type": "DT_FLOAT"
          }
        }
      },
      {
        "name": "StatefulPartitionedCall/model/add_41/add",
        "op": "AddV2",
        "input": [
          "StatefulPartitionedCall/model/activation_23/Relu",
          "StatefulPartitionedCall/model/activation_42/Relu"
        ],
        "attr": {
          "T": {
            "type": "DT_FLOAT"
          }
        }
      },
      {
        "name": "StatefulPartitionedCall/model/depthwise_conv2d_40/depthwise",
        "op": "DepthwiseConv2dNative",
        "input": [
          "StatefulPartitionedCall/model/add_41/add",
          "StatefulPartitionedCall/model/depthwise_conv2d_40/depthwise/ReadVariableOp"
        ],
        "attr": {
          "data_format": {
            "s": "TkhXQw=="
          },
          "strides": {
            "list": {
              "i": [
                "1",
                "1",
                "1",
                "1"
              ]
            }
          },
          "dilations": {
            "list": {
              "i": [
                "1",
                "1",
                "1",
                "1"
              ]
            }
          },
          "padding": {
            "s": "U0FNRQ=="
          },
          "T": {
            "type": "DT_FLOAT"
          }
        }
      },
      {
        "name": "StatefulPartitionedCall/model/batch_normalization_43/FusedBatchNormV3",
        "op": "_FusedConv2D",
        "input": [
          "StatefulPartitionedCall/model/depthwise_conv2d_40/depthwise",
          "StatefulPartitionedCall/model/conv2d_41/Conv2D_weights",
          "StatefulPartitionedCall/model/conv2d_41/Conv2D_bn_offset"
        ],
        "device": "/device:CPU:0",
        "attr": {
          "dilations": {
            "list": {
              "i": [
                "1",
                "1",
                "1",
                "1"
              ]
            }
          },
          "T": {
            "type": "DT_FLOAT"
          },
          "data_format": {
            "s": "TkhXQw=="
          },
          "strides": {
            "list": {
              "i": [
                "1",
                "1",
                "1",
                "1"
              ]
            }
          },
          "explicit_paddings": {
            "list": {}
          },
          "use_cudnn_on_gpu": {
            "b": true
          },
          "num_args": {
            "i": "1"
          },
          "epsilon": {
            "f": 0.0
          },
          "padding": {
            "s": "VkFMSUQ="
          },
          "fused_ops": {
            "list": {
              "s": [
                "Qmlhc0FkZA=="
              ]
            }
          }
        }
      },
      {
        "name": "StatefulPartitionedCall/model/add_42/add",
        "op": "AddV2",
        "input": [
          "StatefulPartitionedCall/model/add_41/add",
          "StatefulPartitionedCall/model/batch_normalization_43/FusedBatchNormV3"
        ],
        "attr": {
          "T": {
            "type": "DT_FLOAT"
          }
        }
      },
      {
        "name": "StatefulPartitionedCall/model/activation_43/Relu",
        "op": "Relu",
        "input": [
          "StatefulPartitionedCall/model/add_42/add"
        ],
        "attr": {
          "T": {
            "type": "DT_FLOAT"
          }
        }
      },
      {
        "name": "StatefulPartitionedCall/model/classificator_8/BiasAdd",
        "op": "_FusedConv2D",
        "input": [
          "StatefulPartitionedCall/model/activation_43/Relu",
          "StatefulPartitionedCall/model/classificator_8/Conv2D/ReadVariableOp",
          "StatefulPartitionedCall/model/classificator_8/BiasAdd/ReadVariableOp"
        ],
        "device": "/device:CPU:0",
        "attr": {
          "dilations": {
            "list": {
              "i": [
                "1",
                "1",
                "1",
                "1"
              ]
            }
          },
          "T": {
            "type": "DT_FLOAT"
          },
          "data_format": {
            "s": "TkhXQw=="
          },
          "strides": {
            "list": {
              "i": [
                "1",
                "1",
                "1",
                "1"
              ]
            }
          },
          "use_cudnn_on_gpu": {
            "b": true
          },
          "explicit_paddings": {
            "list": {}
          },
          "num_args": {
            "i": "1"
          },
          "epsilon": {
            "f": 0.0
          },
          "padding": {
            "s": "U0FNRQ=="
          },
          "fused_ops": {
            "list": {
              "s": [
                "Qmlhc0FkZA=="
              ]
            }
          }
        }
      },
      {
        "name": "StatefulPartitionedCall/model/regressor_8/BiasAdd",
        "op": "_FusedConv2D",
        "input": [
          "StatefulPartitionedCall/model/activation_43/Relu",
          "StatefulPartitionedCall/model/regressor_8/Conv2D/ReadVariableOp",
          "StatefulPartitionedCall/model/regressor_8/BiasAdd/ReadVariableOp"
        ],
        "device": "/device:CPU:0",
        "attr": {
          "dilations": {
            "list": {
              "i": [
                "1",
                "1",
                "1",
                "1"
              ]
            }
          },
          "T": {
            "type": "DT_FLOAT"
          },
          "strides": {
            "list": {
              "i": [
                "1",
                "1",
                "1",
                "1"
              ]
            }
          },
          "data_format": {
            "s": "TkhXQw=="
          },
          "explicit_paddings": {
            "list": {}
          },
          "use_cudnn_on_gpu": {
            "b": true
          },
          "num_args": {
            "i": "1"
          },
          "epsilon": {
            "f": 0.0
          },
          "padding": {
            "s": "U0FNRQ=="
          },
          "fused_ops": {
            "list": {
              "s": [
                "Qmlhc0FkZA=="
              ]
            }
          }
        }
      },
      {
        "name": "StatefulPartitionedCall/model/reshape/Reshape",
        "op": "Reshape",
        "input": [
          "StatefulPartitionedCall/model/classificator_8/BiasAdd",
          "StatefulPartitionedCall/model/reshape/Reshape/shape"
        ],
        "attr": {
          "T": {
            "type": "DT_FLOAT"
          },
          "Tshape": {
            "type": "DT_INT32"
          }
        }
      },
      {
        "name": "StatefulPartitionedCall/model/reshape_1/Reshape",
        "op": "Reshape",
        "input": [
          "StatefulPartitionedCall/model/regressor_8/BiasAdd",
          "StatefulPartitionedCall/model/reshape_1/Reshape/shape"
        ],
        "attr": {
          "T": {
            "type": "DT_FLOAT"
          },
          "Tshape": {
            "type": "DT_INT32"
          }
        }
      },
      {
        "name": "StatefulPartitionedCall/model/classificators/concat",
        "op": "ConcatV2",
        "input": [
          "StatefulPartitionedCall/model/reshape/Reshape",
          "StatefulPartitionedCall/model/reshape_2/Reshape",
          "StatefulPartitionedCall/model/reshape_4/Reshape",
          "StatefulPartitionedCall/model/classificators/concat/axis"
        ],
        "attr": {
          "Tidx": {
            "type": "DT_INT32"
          },
          "T": {
            "type": "DT_FLOAT"
          },
          "N": {
            "i": "3"
          }
        }
      },
      {
        "name": "StatefulPartitionedCall/model/regressors/concat",
        "op": "ConcatV2",
        "input": [
          "StatefulPartitionedCall/model/reshape_1/Reshape",
          "StatefulPartitionedCall/model/reshape_3/Reshape",
          "StatefulPartitionedCall/model/reshape_5/Reshape",
          "StatefulPartitionedCall/model/classificators/concat/axis"
        ],
        "attr": {
          "N": {
            "i": "3"
          },
          "Tidx": {
            "type": "DT_INT32"
          },
          "T": {
            "type": "DT_FLOAT"
          }
        }
      },
      {
        "name": "StatefulPartitionedCall/model/objects/concat",
        "op": "ConcatV2",
        "input": [
          "StatefulPartitionedCall/model/classificators/concat",
          "StatefulPartitionedCall/model/regressors/concat",
          "StatefulPartitionedCall/model/objects/concat/axis"
        ],
        "attr": {
          "T": {
            "type": "DT_FLOAT"
          },
          "N": {
            "i": "2"
          },
          "Tidx": {
            "type": "DT_INT32"
          }
        }
      },
      {
        "name": "Identity",
        "op": "Identity",
        "input": [
          "StatefulPartitionedCall/model/objects/concat"
        ],
        "attr": {
          "T": {
            "type": "DT_FLOAT"
          }
        }
      }
    ],
    "versions": {
      "producer": 134,
      "minConsumer": 12
    }
  },
  "weightsManifest": [
    {
      "paths": [
        "group1-shard1of2.bin",
        "group1-shard2of2.bin"
      ],
      "weights": [
        {
          "name": "StatefulPartitionedCall/model/conv2d/Conv2D_weights",
          "shape": [
            3,
            3,
            3,
            32
          ],
          "dtype": "float32"
        },
        {
          "name": "StatefulPartitionedCall/model/conv2d/Conv2D_bn_offset",
          "shape": [
            32
          ],
          "dtype": "float32"
        },
        {
          "name": "StatefulPartitionedCall/model/conv2d_1/Conv2D_weights",
          "shape": [
            1,
            1,
            32,
            32
          ],
          "dtype": "float32"
        },
        {
          "name": "StatefulPartitionedCall/model/conv2d_40/Conv2D_weights",
          "shape": [
            1,
            1,
            256,
            256
          ],
          "dtype": "float32"
        },
        {
          "name": "StatefulPartitionedCall/model/conv2d_1/Conv2D_bn_offset",
          "shape": [
            32
          ],
          "dtype": "float32"
        },
        {
          "name": "StatefulPartitionedCall/model/conv2d_2/Conv2D_weights",
          "shape": [
            1,
            1,
            32,
            32
          ],
          "dtype": "float32"
        },
        {
          "name": "StatefulPartitionedCall/model/conv2d_2/Conv2D_bn_offset",
          "shape": [
            32
          ],
          "dtype": "float32"
        },
        {
          "name": "StatefulPartitionedCall/model/conv2d_3/Conv2D_weights",
          "shape": [
            1,
            1,
            32,
            32
          ],
          "dtype": "float32"
        },
        {
          "name": "StatefulPartitionedCall/model/conv2d_40/Conv2D_bn_offset",
          "shape": [
            256
          ],
          "dtype": "float32"
        },
        {
          "name": "StatefulPartitionedCall/model/conv2d_3/Conv2D_bn_offset",
          "shape": [
            32
          ],
          "dtype": "float32"
        },
        {
          "name": "StatefulPartitionedCall/model/conv2d_4/Conv2D_weights",
          "shape": [
            1,
            1,
            32,
            32
          ],
          "dtype": "float32"
        },
        {
          "name": "StatefulPartitionedCall/model/conv2d_4/Conv2D_bn_offset",
          "shape": [
            32
          ],
          "dtype": "float32"
        },
        {
          "name": "StatefulPartitionedCall/model/conv2d_5/Conv2D_weights",
          "shape": [
            1,
            1,
            32,
            32
          ],
          "dtype": "float32"
        },
        {
          "name": "StatefulPartitionedCall/model/conv2d_5/Conv2D_bn_offset",
          "shape": [
            32
          ],
          "dtype": "float32"
        },
        {
          "name": "StatefulPartitionedCall/model/conv2d_6/Conv2D_weights",
          "shape": [
            1,
            1,
            32,
            32
          ],
          "dtype": "float32"
        },
        {
          "name": "StatefulPartitionedCall/model/conv2d_6/Conv2D_bn_offset",
          "shape": [
            32
          ],
          "dtype": "float32"
        },
        {
          "name": "StatefulPartitionedCall/model/conv2d_7/Conv2D_weights",
          "shape": [
            1,
            1,
            32,
            32
          ],
          "dtype": "float32"
        },
        {
          "name": "StatefulPartitionedCall/model/conv2d_7/Conv2D_bn_offset",
          "shape": [
            32
          ],
          "dtype": "float32"
        },
        {
          "name": "StatefulPartitionedCall/model/conv2d_8/Conv2D_weights",
          "shape": [
            1,
            1,
            32,
            64
          ],
          "dtype": "float32"
        },
        {
          "name": "StatefulPartitionedCall/model/conv2d_8/Conv2D_bn_offset",
          "shape": [
            64
          ],
          "dtype": "float32"
        },
        {
          "name": "StatefulPartitionedCall/model/conv2d_9/Conv2D_weights",
          "shape": [
            1,
            1,
            64,
            64
          ],
          "dtype": "float32"
        },
        {
          "name": "StatefulPartitionedCall/model/conv2d_9/Conv2D_bn_offset",
          "shape": [
            64
          ],
          "dtype": "float32"
        },
        {
          "name": "StatefulPartitionedCall/model/conv2d_10/Conv2D_weights",
          "shape": [
            1,
            1,
            64,
            64
          ],
          "dtype": "float32"
        },
        {
          "name": "StatefulPartitionedCall/model/conv2d_10/Conv2D_bn_offset",
          "shape": [
            64
          ],
          "dtype": "float32"
        },
        {
          "name": "StatefulPartitionedCall/model/conv2d_11/Conv2D_weights",
          "shape": [
            1,
            1,
            64,
            64
          ],
          "dtype": "float32"
        },
        {
          "name": "StatefulPartitionedCall/model/conv2d_11/Conv2D_bn_offset",
          "shape": [
            64
          ],
          "dtype": "float32"
        },
        {
          "name": "StatefulPartitionedCall/model/conv2d_12/Conv2D_weights",
          "shape": [
            1,
            1,
            64,
            64
          ],
          "dtype": "float32"
        },
        {
          "name": "StatefulPartitionedCall/model/conv2d_12/Conv2D_bn_offset",
          "shape": [
            64
          ],
          "dtype": "float32"
        },
        {
          "name": "StatefulPartitionedCall/model/conv2d_13/Conv2D_weights",
          "shape": [
            1,
            1,
            64,
            64
          ],
          "dtype": "float32"
        },
        {
          "name": "StatefulPartitionedCall/model/conv2d_13/Conv2D_bn_offset",
          "shape": [
            64
          ],
          "dtype": "float32"
        },
        {
          "name": "StatefulPartitionedCall/model/conv2d_14/Conv2D_weights",
          "shape": [
            1,
            1,
            64,
            64
          ],
          "dtype": "float32"
        },
        {
          "name": "StatefulPartitionedCall/model/conv2d_14/Conv2D_bn_offset",
          "shape": [
            64
          ],
          "dtype": "float32"
        },
        {
          "name": "StatefulPartitionedCall/model/conv2d_15/Conv2D_weights",
          "shape": [
            1,
            1,
            64,
            64
          ],
          "dtype": "float32"
        },
        {
          "name": "StatefulPartitionedCall/model/conv2d_15/Conv2D_bn_offset",
          "shape": [
            64
          ],
          "dtype": "float32"
        },
        {
          "name": "StatefulPartitionedCall/model/conv2d_16/Conv2D_weights",
          "shape": [
            1,
            1,
            64,
            128
          ],
          "dtype": "float32"
        },
        {
          "name": "StatefulPartitionedCall/model/conv2d_16/Conv2D_bn_offset",
          "shape": [
            128
          ],
          "dtype": "float32"
        },
        {
          "name": "StatefulPartitionedCall/model/conv2d_17/Conv2D_weights",
          "shape": [
            1,
            1,
            128,
            128
          ],
          "dtype": "float32"
        },
        {
          "name": "StatefulPartitionedCall/model/conv2d_17/Conv2D_bn_offset",
          "shape": [
            128
          ],
          "dtype": "float32"
        },
        {
          "name": "StatefulPartitionedCall/model/conv2d_18/Conv2D_weights",
          "shape": [
            1,
            1,
            128,
            128
          ],
          "dtype": "float32"
        },
        {
          "name": "StatefulPartitionedCall/model/conv2d_41/Conv2D_weights",
          "shape": [
            1,
            1,
            128,
            128
          ],
          "dtype": "float32"
        },
        {
          "name": "StatefulPartitionedCall/model/conv2d_18/Conv2D_bn_offset",
          "shape": [
            128
          ],
          "dtype": "float32"
        },
        {
          "name": "StatefulPartitionedCall/model/conv2d_19/Conv2D_weights",
          "shape": [
            1,
            1,
            128,
            128
          ],
          "dtype": "float32"
        },
        {
          "name": "StatefulPartitionedCall/model/conv2d_19/Conv2D_bn_offset",
          "shape": [
            128
          ],
          "dtype": "float32"
        },
        {
          "name": "StatefulPartitionedCall/model/conv2d_20/Conv2D_weights",
          "shape": [
            1,
            1,
            128,
            128
          ],
          "dtype": "float32"
        },
        {
          "name": "StatefulPartitionedCall/model/conv2d_41/Conv2D_bn_offset",
          "shape": [
            128
          ],
          "dtype": "float32"
        },
        {
          "name": "StatefulPartitionedCall/model/conv2d_20/Conv2D_bn_offset",
          "shape": [
            128
          ],
          "dtype": "float32"
        },
        {
          "name": "StatefulPartitionedCall/model/conv2d_21/Conv2D_weights",
          "shape": [
            1,
            1,
            128,
            128
          ],
          "dtype": "float32"
        },
        {
          "name": "StatefulPartitionedCall/model/conv2d_21/Conv2D_bn_offset",
          "shape": [
            128
          ],
          "dtype": "float32"
        },
        {
          "name": "StatefulPartitionedCall/model/conv2d_22/Conv2D_weights",
          "shape": [
            1,
            1,
            128,
            128
          ],
          "dtype": "float32"
        },
        {
          "name": "StatefulPartitionedCall/model/conv2d_22/Conv2D_bn_offset",
          "shape": [
            128
          ],
          "dtype": "float32"
        },
        {
          "name": "StatefulPartitionedCall/model/conv2d_23/Conv2D_weights",
          "shape": [
            1,
            1,
            128,
            128
          ],
          "dtype": "float32"
        },
        {
          "name": "StatefulPartitionedCall/model/conv2d_23/Conv2D_bn_offset",
          "shape": [
            128
          ],
          "dtype": "float32"
        },
        {
          "name": "StatefulPartitionedCall/model/conv2d_24/Conv2D_weights",
          "shape": [
            1,
            1,
            128,
            256
          ],
          "dtype": "float32"
        },
        {
          "name": "StatefulPartitionedCall/model/conv2d_24/Conv2D_bn_offset",
          "shape": [
            256
          ],
          "dtype": "float32"
        },
        {
          "name": "StatefulPartitionedCall/model/conv2d_25/Conv2D_weights",
          "shape": [
            1,
            1,
            256,
            256
          ],
          "dtype": "float32"
        },
        {
          "name": "StatefulPartitionedCall/model/conv2d_25/Conv2D_bn_offset",
          "shape": [
            256
          ],
          "dtype": "float32"
        },
        {
          "name": "StatefulPartitionedCall/model/conv2d_26/Conv2D_weights",
          "shape": [
            1,
            1,
            256,
            256
          ],
          "dtype": "float32"
        },
        {
          "name": "StatefulPartitionedCall/model/conv2d_26/Conv2D_bn_offset",
          "shape": [
            256
          ],
          "dtype": "float32"
        },
        {
          "name": "StatefulPartitionedCall/model/conv2d_27/Conv2D_weights",
          "shape": [
            1,
            1,
            256,
            256
          ],
          "dtype": "float32"
        },
        {
          "name": "StatefulPartitionedCall/model/conv2d_27/Conv2D_bn_offset",
          "shape": [
            256
          ],
          "dtype": "float32"
        },
        {
          "name": "StatefulPartitionedCall/model/conv2d_28/Conv2D_weights",
          "shape": [
            1,
            1,
            256,
            256
          ],
          "dtype": "float32"
        },
        {
          "name": "StatefulPartitionedCall/model/conv2d_28/Conv2D_bn_offset",
          "shape": [
            256
          ],
          "dtype": "float32"
        },
        {
          "name": "StatefulPartitionedCall/model/conv2d_29/Conv2D_weights",
          "shape": [
            1,
            1,
            256,
            256
          ],
          "dtype": "float32"
        },
        {
          "name": "StatefulPartitionedCall/model/conv2d_29/Conv2D_bn_offset",
          "shape": [
            256
          ],
          "dtype": "float32"
        },
        {
          "name": "StatefulPartitionedCall/model/conv2d_30/Conv2D_weights",
          "shape": [
            1,
            1,
            256,
            256
          ],
          "dtype": "float32"
        },
        {
          "name": "StatefulPartitionedCall/model/conv2d_30/Conv2D_bn_offset",
          "shape": [
            256
          ],
          "dtype": "float32"
        },
        {
          "name": "StatefulPartitionedCall/model/conv2d_31/Conv2D_weights",
          "shape": [
            1,
            1,
            256,
            256
          ],
          "dtype": "float32"
        },
        {
          "name": "StatefulPartitionedCall/model/conv2d_31/Conv2D_bn_offset",
          "shape": [
            256
          ],
          "dtype": "float32"
        },
        {
          "name": "StatefulPartitionedCall/model/conv2d_32/Conv2D_weights",
          "shape": [
            1,
            1,
            256,
            256
          ],
          "dtype": "float32"
        },
        {
          "name": "StatefulPartitionedCall/model/conv2d_32/Conv2D_bn_offset",
          "shape": [
            256
          ],
          "dtype": "float32"
        },
        {
          "name": "StatefulPartitionedCall/model/conv2d_33/Conv2D_weights",
          "shape": [
            1,
            1,
            256,
            256
          ],
          "dtype": "float32"
        },
        {
          "name": "StatefulPartitionedCall/model/conv2d_33/Conv2D_bn_offset",
          "shape": [
            256
          ],
          "dtype": "float32"
        },
        {
          "name": "StatefulPartitionedCall/model/conv2d_34/Conv2D_weights",
          "shape": [
            1,
            1,
            256,
            256
          ],
          "dtype": "float32"
        },
        {
          "name": "StatefulPartitionedCall/model/conv2d_34/Conv2D_bn_offset",
          "shape": [
            256
          ],
          "dtype": "float32"
        },
        {
          "name": "StatefulPartitionedCall/model/conv2d_35/Conv2D_weights",
          "shape": [
            1,
            1,
            256,
            256
          ],
          "dtype": "float32"
        },
        {
          "name": "StatefulPartitionedCall/model/conv2d_35/Conv2D_bn_offset",
          "shape": [
            256
          ],
          "dtype": "float32"
        },
        {
          "name": "StatefulPartitionedCall/model/conv2d_36/Conv2D_weights",
          "shape": [
            1,
            1,
            256,
            256
          ],
          "dtype": "float32"
        },
        {
          "name": "StatefulPartitionedCall/model/conv2d_36/Conv2D_bn_offset",
          "shape": [
            256
          ],
          "dtype": "float32"
        },
        {
          "name": "StatefulPartitionedCall/model/conv2d_37/Conv2D_weights",
          "shape": [
            1,
            1,
            256,
            256
          ],
          "dtype": "float32"
        },
        {
          "name": "StatefulPartitionedCall/model/conv2d_37/Conv2D_bn_offset",
          "shape": [
            256
          ],
          "dtype": "float32"
        },
        {
          "name": "StatefulPartitionedCall/model/conv2d_38/Conv2D_weights",
          "shape": [
            1,
            1,
            256,
            256
          ],
          "dtype": "float32"
        },
        {
          "name": "StatefulPartitionedCall/model/conv2d_38/Conv2D_bn_offset",
          "shape": [
            256
          ],
          "dtype": "float32"
        },
        {
          "name": "StatefulPartitionedCall/model/conv2d_39/Conv2D_weights",
          "shape": [
            1,
            1,
            256,
            256
          ],
          "dtype": "float32"
        },
        {
          "name": "StatefulPartitionedCall/model/conv2d_39/Conv2D_bn_offset",
          "shape": [
            256
          ],
          "dtype": "float32"
        },
        {
          "name": "StatefulPartitionedCall/model/depthwise_conv2d_40/depthwise/ReadVariableOp",
          "shape": [
            3,
            3,
            128,
            1
          ],
          "dtype": "float32"
        },
        {
          "name": "StatefulPartitionedCall/model/classificator_8/Conv2D/ReadVariableOp",
          "shape": [
            1,
            1,
            128,
            2
          ],
          "dtype": "float32"
        },
        {
          "name": "StatefulPartitionedCall/model/classificator_8/BiasAdd/ReadVariableOp",
          "shape": [
            2
          ],
          "dtype": "float32"
        },
        {
          "name": "StatefulPartitionedCall/model/reshape/Reshape/shape",
          "shape": [
            3
          ],
          "dtype": "int32"
        },
        {
          "name": "StatefulPartitionedCall/model/classificator_16/Conv2D/ReadVariableOp",
          "shape": [
            1,
            1,
            256,
            2
          ],
          "dtype": "float32"
        },
        {
          "name": "StatefulPartitionedCall/model/classificator_16/BiasAdd/ReadVariableOp",
          "shape": [
            2
          ],
          "dtype": "float32"
        },
        {
          "name": "StatefulPartitionedCall/model/classificator_32/Conv2D/ReadVariableOp",
          "shape": [
            1,
            1,
            256,
            6
          ],
          "dtype": "float32"
        },
        {
          "name": "StatefulPartitionedCall/model/classificator_32/BiasAdd/ReadVariableOp",
          "shape": [
            6
          ],
          "dtype": "float32"
        },
        {
          "name": "StatefulPartitionedCall/model/classificators/concat/axis",
          "shape": [],
          "dtype": "int32"
        },
        {
          "name": "StatefulPartitionedCall/model/regressor_8/Conv2D/ReadVariableOp",
          "shape": [
            1,
            1,
            128,
            36
          ],
          "dtype": "float32"
        },
        {
          "name": "StatefulPartitionedCall/model/regressor_8/BiasAdd/ReadVariableOp",
          "shape": [
            36
          ],
          "dtype": "float32"
        },
        {
          "name": "StatefulPartitionedCall/model/reshape_1/Reshape/shape",
          "shape": [
            3
          ],
          "dtype": "int32"
        },
        {
          "name": "StatefulPartitionedCall/model/regressor_16/Conv2D/ReadVariableOp",
          "shape": [
            1,
            1,
            256,
            36
          ],
          "dtype": "float32"
        },
        {
          "name": "StatefulPartitionedCall/model/regressor_16/BiasAdd/ReadVariableOp",
          "shape": [
            36
          ],
          "dtype": "float32"
        },
        {
          "name": "StatefulPartitionedCall/model/regressor_32/Conv2D/ReadVariableOp",
          "shape": [
            1,
            1,
            256,
            108
          ],
          "dtype": "float32"
        },
        {
          "name": "StatefulPartitionedCall/model/regressor_32/BiasAdd/ReadVariableOp",
          "shape": [
            108
          ],
          "dtype": "float32"
        },
        {
          "name": "StatefulPartitionedCall/model/objects/concat/axis",
          "shape": [],
          "dtype": "int32"
        },
        {
          "name": "StatefulPartitionedCall/model/conv2d_transpose_1/stack",
          "shape": [
            4
          ],
          "dtype": "int32"
        },
        {
          "name": "StatefulPartitionedCall/model/conv2d_transpose_1/conv2d_transpose/ReadVariableOp",
          "shape": [
            2,
            2,
            128,
            256
          ],
          "dtype": "float32"
        },
        {
          "name": "StatefulPartitionedCall/model/conv2d_transpose/stack",
          "shape": [
            4
          ],
          "dtype": "int32"
        },
        {
          "name": "StatefulPartitionedCall/model/conv2d_transpose/conv2d_transpose/ReadVariableOp",
          "shape": [
            2,
            2,
            256,
            256
          ],
          "dtype": "float32"
        },
        {
          "name": "StatefulPartitionedCall/model/depthwise_conv2d/depthwise/ReadVariableOp",
          "shape": [
            3,
            3,
            32,
            1
          ],
          "dtype": "float32"
        },
        {
          "name": "StatefulPartitionedCall/model/depthwise_conv2d_1/depthwise/ReadVariableOp",
          "shape": [
            3,
            3,
            32,
            1
          ],
          "dtype": "float32"
        },
        {
          "name": "StatefulPartitionedCall/model/depthwise_conv2d_2/depthwise/ReadVariableOp",
          "shape": [
            3,
            3,
            32,
            1
          ],
          "dtype": "float32"
        },
        {
          "name": "StatefulPartitionedCall/model/depthwise_conv2d_3/depthwise/ReadVariableOp",
          "shape": [
            3,
            3,
            32,
            1
          ],
          "dtype": "float32"
        },
        {
          "name": "StatefulPartitionedCall/model/depthwise_conv2d_4/depthwise/ReadVariableOp",
          "shape": [
            3,
            3,
            32,
            1
          ],
          "dtype": "float32"
        },
        {
          "name": "StatefulPartitionedCall/model/depthwise_conv2d_5/depthwise/ReadVariableOp",
          "shape": [
            3,
            3,
            32,
            1
          ],
          "dtype": "float32"
        },
        {
          "name": "StatefulPartitionedCall/model/depthwise_conv2d_6/depthwise/ReadVariableOp",
          "shape": [
            3,
            3,
            32,
            1
          ],
          "dtype": "float32"
        },
        {
          "name": "StatefulPartitionedCall/model/channel_padding/Pad/paddings",
          "shape": [
            4,
            2
          ],
          "dtype": "int32"
        },
        {
          "name": "StatefulPartitionedCall/model/depthwise_conv2d_7/depthwise/ReadVariableOp",
          "shape": [
            3,
            3,
            32,
            1
          ],
          "dtype": "float32"
        },
        {
          "name": "StatefulPartitionedCall/model/depthwise_conv2d_8/depthwise/ReadVariableOp",
          "shape": [
            3,
            3,
            64,
            1
          ],
          "dtype": "float32"
        },
        {
          "name": "StatefulPartitionedCall/model/depthwise_conv2d_9/depthwise/ReadVariableOp",
          "shape": [
            3,
            3,
            64,
            1
          ],
          "dtype": "float32"
        },
        {
          "name": "StatefulPartitionedCall/model/depthwise_conv2d_10/depthwise/ReadVariableOp",
          "shape": [
            3,
            3,
            64,
            1
          ],
          "dtype": "float32"
        },
        {
          "name": "StatefulPartitionedCall/model/depthwise_conv2d_11/depthwise/ReadVariableOp",
          "shape": [
            3,
            3,
            64,
            1
          ],
          "dtype": "float32"
        },
        {
          "name": "StatefulPartitionedCall/model/depthwise_conv2d_12/depthwise/ReadVariableOp",
          "shape": [
            3,
            3,
            64,
            1
          ],
          "dtype": "float32"
        },
        {
          "name": "StatefulPartitionedCall/model/depthwise_conv2d_13/depthwise/ReadVariableOp",
          "shape": [
            3,
            3,
            64,
            1
          ],
          "dtype": "float32"
        },
        {
          "name": "StatefulPartitionedCall/model/depthwise_conv2d_14/depthwise/ReadVariableOp",
          "shape": [
            3,
            3,
            64,
            1
          ],
          "dtype": "float32"
        },
        {
          "name": "StatefulPartitionedCall/model/channel_padding_1/Pad/paddings",
          "shape": [
            4,
            2
          ],
          "dtype": "int32"
        },
        {
          "name": "StatefulPartitionedCall/model/depthwise_conv2d_15/depthwise/ReadVariableOp",
          "shape": [
            3,
            3,
            64,
            1
          ],
          "dtype": "float32"
        },
        {
          "name": "StatefulPartitionedCall/model/depthwise_conv2d_16/depthwise/ReadVariableOp",
          "shape": [
            3,
            3,
            128,
            1
          ],
          "dtype": "float32"
        },
        {
          "name": "StatefulPartitionedCall/model/depthwise_conv2d_17/depthwise/ReadVariableOp",
          "shape": [
            3,
            3,
            128,
            1
          ],
          "dtype": "float32"
        },
        {
          "name": "StatefulPartitionedCall/model/depthwise_conv2d_18/depthwise/ReadVariableOp",
          "shape": [
            3,
            3,
            128,
            1
          ],
          "dtype": "float32"
        },
        {
          "name": "StatefulPartitionedCall/model/depthwise_conv2d_19/depthwise/ReadVariableOp",
          "shape": [
            3,
            3,
            128,
            1
          ],
          "dtype": "float32"
        },
        {
          "name": "StatefulPartitionedCall/model/depthwise_conv2d_20/depthwise/ReadVariableOp",
          "shape": [
            3,
            3,
            128,
            1
          ],
          "dtype": "float32"
        },
        {
          "name": "StatefulPartitionedCall/model/depthwise_conv2d_21/depthwise/ReadVariableOp",
          "shape": [
            3,
            3,
            128,
            1
          ],
          "dtype": "float32"
        },
        {
          "name": "StatefulPartitionedCall/model/depthwise_conv2d_22/depthwise/ReadVariableOp",
          "shape": [
            3,
            3,
            128,
            1
          ],
          "dtype": "float32"
        },
        {
          "name": "StatefulPartitionedCall/model/channel_padding_2/Pad/paddings",
          "shape": [
            4,
            2
          ],
          "dtype": "int32"
        },
        {
          "name": "StatefulPartitionedCall/model/depthwise_conv2d_23/depthwise/ReadVariableOp",
          "shape": [
            3,
            3,
            128,
            1
          ],
          "dtype": "float32"
        },
        {
          "name": "StatefulPartitionedCall/model/depthwise_conv2d_24/depthwise/ReadVariableOp",
          "shape": [
            3,
            3,
            256,
            1
          ],
          "dtype": "float32"
        },
        {
          "name": "StatefulPartitionedCall/model/depthwise_conv2d_25/depthwise/ReadVariableOp",
          "shape": [
            3,
            3,
            256,
            1
          ],
          "dtype": "float32"
        },
        {
          "name": "StatefulPartitionedCall/model/depthwise_conv2d_26/depthwise/ReadVariableOp",
          "shape": [
            3,
            3,
            256,
            1
          ],
          "dtype": "float32"
        },
        {
          "name": "StatefulPartitionedCall/model/depthwise_conv2d_27/depthwise/ReadVariableOp",
          "shape": [
            3,
            3,
            256,
            1
          ],
          "dtype": "float32"
        },
        {
          "name": "StatefulPartitionedCall/model/depthwise_conv2d_28/depthwise/ReadVariableOp",
          "shape": [
            3,
            3,
            256,
            1
          ],
          "dtype": "float32"
        },
        {
          "name": "StatefulPartitionedCall/model/depthwise_conv2d_29/depthwise/ReadVariableOp",
          "shape": [
            3,
            3,
            256,
            1
          ],
          "dtype": "float32"
        },
        {
          "name": "StatefulPartitionedCall/model/depthwise_conv2d_30/depthwise/ReadVariableOp",
          "shape": [
            3,
            3,
            256,
            1
          ],
          "dtype": "float32"
        },
        {
          "name": "StatefulPartitionedCall/model/depthwise_conv2d_31/depthwise/ReadVariableOp",
          "shape": [
            3,
            3,
            256,
            1
          ],
          "dtype": "float32"
        },
        {
          "name": "StatefulPartitionedCall/model/depthwise_conv2d_32/depthwise/ReadVariableOp",
          "shape": [
            3,
            3,
            256,
            1
          ],
          "dtype": "float32"
        },
        {
          "name": "StatefulPartitionedCall/model/depthwise_conv2d_33/depthwise/ReadVariableOp",
          "shape": [
            3,
            3,
            256,
            1
          ],
          "dtype": "float32"
        },
        {
          "name": "StatefulPartitionedCall/model/depthwise_conv2d_34/depthwise/ReadVariableOp",
          "shape": [
            3,
            3,
            256,
            1
          ],
          "dtype": "float32"
        },
        {
          "name": "StatefulPartitionedCall/model/depthwise_conv2d_35/depthwise/ReadVariableOp",
          "shape": [
            3,
            3,
            256,
            1
          ],
          "dtype": "float32"
        },
        {
          "name": "StatefulPartitionedCall/model/depthwise_conv2d_36/depthwise/ReadVariableOp",
          "shape": [
            3,
            3,
            256,
            1
          ],
          "dtype": "float32"
        },
        {
          "name": "StatefulPartitionedCall/model/depthwise_conv2d_37/depthwise/ReadVariableOp",
          "shape": [
            3,
            3,
            256,
            1
          ],
          "dtype": "float32"
        },
        {
          "name": "StatefulPartitionedCall/model/depthwise_conv2d_38/depthwise/ReadVariableOp",
          "shape": [
            3,
            3,
            256,
            1
          ],
          "dtype": "float32"
        },
        {
          "name": "StatefulPartitionedCall/model/depthwise_conv2d_39/depthwise/ReadVariableOp",
          "shape": [
            3,
            3,
            256,
            1
          ],
          "dtype": "float32"
        },
        {
          "name": "StatefulPartitionedCall/model/batch_normalization_40/FusedBatchNormV3/Scaled",
          "shape": [
            256
          ],
          "dtype": "float32"
        },
        {
          "name": "StatefulPartitionedCall/model/batch_normalization_40/FusedBatchNormV3/Offset",
          "shape": [
            256
          ],
          "dtype": "float32"
        },
        {
          "name": "StatefulPartitionedCall/model/batch_normalization_42/FusedBatchNormV3/Scaled",
          "shape": [
            128
          ],
          "dtype": "float32"
        },
        {
          "name": "StatefulPartitionedCall/model/batch_normalization_42/FusedBatchNormV3/Offset",
          "shape": [
            128
          ],
          "dtype": "float32"
        }
      ]
    }
  ]
}
