{
  "format": "graph-model",
  "generatedBy": "2.2.0",
  "convertedBy": "TensorFlow.js Converter v1.7.3",
  "userDefinedMetadata":
  {
      "signature":
      {
          "inputs": {"input:0":{"name":"input:0","dtype":"DT_FLOAT","tensorShape":{"dim":[{"size":"-1"},{"size":"128"},{"size":"128"},{"size":"3"}]}}},
          "outputs": {"Identity:0":{"name":"Identity:0","dtype":"DT_FLOAT","tensorShape":{"dim":[{"size":"1"},{"size":"896"},{"size":"1"}]}},"Identity_1:0":{"name":"Identity_1:0","dtype":"DT_FLOAT","tensorShape":{"dim":[{"size":"1"},{"size":"896"},{"size":"12"}]}}}
      }
  },
  "modelTopology":
  {
      "node":
      [
          {"name":"unknown_131","op":"Const","attr":{"value":{"tensor":{"dtype":"DT_FLOAT","tensorShape":{"dim":[{"size":"1"},{"size":"1"},{"size":"128"},{"size":"2"}]}}},"dtype":{"type":"DT_FLOAT"}}},
          {"name":"unknown_132","op":"Const","attr":{"value":{"tensor":{"dtype":"DT_FLOAT","tensorShape":{"dim":[{"size":"2"}]}}},"dtype":{"type":"DT_FLOAT"}}},
          {"name":"StatefulPartitionedCall/model/tf_op_layer_Reshape/Reshape/shape","op":"Const","attr":{"value":{"tensor":{"dtype":"DT_INT32","tensorShape":{"dim":[{"size":"3"}]}}},"dtype":{"type":"DT_INT32"}}},
          {"name":"unknown_129","op":"Const","attr":{"value":{"tensor":{"dtype":"DT_FLOAT","tensorShape":{"dim":[{"size":"1"},{"size":"1"},{"size":"256"},{"size":"6"}]}}},"dtype":{"type":"DT_FLOAT"}}},
          {"name":"unknown_130","op":"Const","attr":{"value":{"tensor":{"dtype":"DT_FLOAT","tensorShape":{"dim":[{"size":"6"}]}}},"dtype":{"type":"DT_FLOAT"}}},
          {"name":"StatefulPartitionedCall/model/tf_op_layer_Reshape_1/Reshape_1/shape","op":"Const","attr":{"value":{"tensor":{"dtype":"DT_INT32","tensorShape":{"dim":[{"size":"3"}]}}},"dtype":{"type":"DT_INT32"}}},
          {"name":"StatefulPartitionedCall/model/classificators/concat/axis","op":"Const","attr":{"dtype":{"type":"DT_INT32"},"value":{"tensor":{"dtype":"DT_INT32","tensorShape":{}}}}},
          {"name":"unknown_127","op":"Const","attr":{"dtype":{"type":"DT_FLOAT"},"value":{"tensor":{"dtype":"DT_FLOAT","tensorShape":{"dim":[{"size":"1"},{"size":"1"},{"size":"128"},{"size":"24"}]}}}}},
          {"name":"unknown_128","op":"Const","attr":{"value":{"tensor":{"dtype":"DT_FLOAT","tensorShape":{"dim":[{"size":"24"}]}}},"dtype":{"type":"DT_FLOAT"}}},
          {"name":"StatefulPartitionedCall/model/tf_op_layer_Reshape_2/Reshape_2/shape","op":"Const","attr":{"value":{"tensor":{"dtype":"DT_INT32","tensorShape":{"dim":[{"size":"3"}]}}},"dtype":{"type":"DT_INT32"}}},
          {"name":"unknown_97","op":"Const","attr":{"value":{"tensor":{"dtype":"DT_FLOAT","tensorShape":{"dim":[{"size":"1"},{"size":"1"},{"size":"128"},{"size":"256"}]}}},"dtype":{"type":"DT_FLOAT"}}},
          {"name":"unknown_98","op":"Const","attr":{"dtype":{"type":"DT_FLOAT"},"value":{"tensor":{"dtype":"DT_FLOAT","tensorShape":{"dim":[{"size":"256"}]}}}}},
          {"name":"unknown_63","op":"Const","attr":{"value":{"tensor":{"dtype":"DT_FLOAT","tensorShape":{"dim":[{"size":"1"},{"size":"1"},{"size":"96"},{"size":"128"}]}}},"dtype":{"type":"DT_FLOAT"}}},
          {"name":"unknown_64","op":"Const","attr":{"value":{"tensor":{"dtype":"DT_FLOAT","tensorShape":{"dim":[{"size":"128"}]}}},"dtype":{"type":"DT_FLOAT"}}},
          {"name":"unknown_33","op":"Const","attr":{"dtype":{"type":"DT_FLOAT"},"value":{"tensor":{"dtype":"DT_FLOAT","tensorShape":{"dim":[{"size":"1"},{"size":"1"},{"size":"64"},{"size":"96"}]}}}}},
          {"name":"unknown_34","op":"Const","attr":{"value":{"tensor":{"dtype":"DT_FLOAT","tensorShape":{"dim":[{"size":"96"}]}}},"dtype":{"type":"DT_FLOAT"}}},
          {"name":"unknown_15","op":"Const","attr":{"value":{"tensor":{"dtype":"DT_FLOAT","tensorShape":{"dim":[{"size":"1"},{"size":"1"},{"size":"48"},{"size":"64"}]}}},"dtype":{"type":"DT_FLOAT"}}},
          {"name":"unknown_16","op":"Const","attr":{"value":{"tensor":{"dtype":"DT_FLOAT","tensorShape":{"dim":[{"size":"64"}]}}},"dtype":{"type":"DT_FLOAT"}}},
          {"name":"unknown","op":"Const","attr":{"dtype":{"type":"DT_FLOAT"},"value":{"tensor":{"dtype":"DT_FLOAT","tensorShape":{"dim":[{"size":"5"},{"size":"5"},{"size":"3"},{"size":"48"}]}}}}},
          {"name":"unknown_0","op":"Const","attr":{"dtype":{"type":"DT_FLOAT"},"value":{"tensor":{"dtype":"DT_FLOAT","tensorShape":{"dim":[{"size":"48"}]}}}}},
          {"name":"unknown_1","op":"Const","attr":{"value":{"tensor":{"dtype":"DT_FLOAT","tensorShape":{"dim":[{"size":"5"},{"size":"5"},{"size":"48"},{"size":"1"}]}}},"dtype":{"type":"DT_FLOAT"}}},
          {"name":"unknown_3","op":"Const","attr":{"value":{"tensor":{"dtype":"DT_FLOAT","tensorShape":{"dim":[{"size":"1"},{"size":"1"},{"size":"48"},{"size":"48"}]}}},"dtype":{"type":"DT_FLOAT"}}},
          {"name":"unknown_4","op":"Const","attr":{"value":{"tensor":{"dtype":"DT_FLOAT","tensorShape":{"dim":[{"size":"48"}]}}},"dtype":{"type":"DT_FLOAT"}}},
          {"name":"unknown_5","op":"Const","attr":{"dtype":{"type":"DT_FLOAT"},"value":{"tensor":{"dtype":"DT_FLOAT","tensorShape":{"dim":[{"size":"5"},{"size":"5"},{"size":"48"},{"size":"1"}]}}}}},
          {"name":"unknown_7","op":"Const","attr":{"value":{"tensor":{"dtype":"DT_FLOAT","tensorShape":{"dim":[{"size":"1"},{"size":"1"},{"size":"48"},{"size":"48"}]}}},"dtype":{"type":"DT_FLOAT"}}},
          {"name":"unknown_8","op":"Const","attr":{"value":{"tensor":{"dtype":"DT_FLOAT","tensorShape":{"dim":[{"size":"48"}]}}},"dtype":{"type":"DT_FLOAT"}}},
          {"name":"unknown_9","op":"Const","attr":{"value":{"tensor":{"dtype":"DT_FLOAT","tensorShape":{"dim":[{"size":"5"},{"size":"5"},{"size":"48"},{"size":"1"}]}}},"dtype":{"type":"DT_FLOAT"}}},
          {"name":"unknown_11","op":"Const","attr":{"value":{"tensor":{"dtype":"DT_FLOAT","tensorShape":{"dim":[{"size":"1"},{"size":"1"},{"size":"48"},{"size":"48"}]}}},"dtype":{"type":"DT_FLOAT"}}},
          {"name":"unknown_12","op":"Const","attr":{"value":{"tensor":{"dtype":"DT_FLOAT","tensorShape":{"dim":[{"size":"48"}]}}},"dtype":{"type":"DT_FLOAT"}}},
          {"name":"unknown_13","op":"Const","attr":{"value":{"tensor":{"dtype":"DT_FLOAT","tensorShape":{"dim":[{"size":"5"},{"size":"5"},{"size":"48"},{"size":"1"}]}}},"dtype":{"type":"DT_FLOAT"}}},
          {"name":"unknown_17","op":"Const","attr":{"value":{"tensor":{"dtype":"DT_FLOAT","tensorShape":{"dim":[{"size":"1"},{"size":"1"},{"size":"48"},{"size":"64"}]}}},"dtype":{"type":"DT_FLOAT"}}},
          {"name":"unknown_18","op":"Const","attr":{"dtype":{"type":"DT_FLOAT"},"value":{"tensor":{"dtype":"DT_FLOAT","tensorShape":{"dim":[{"size":"64"}]}}}}},
          {"name":"unknown_19","op":"Const","attr":{"value":{"tensor":{"dtype":"DT_FLOAT","tensorShape":{"dim":[{"size":"5"},{"size":"5"},{"size":"64"},{"size":"1"}]}}},"dtype":{"type":"DT_FLOAT"}}},
          {"name":"unknown_21","op":"Const","attr":{"dtype":{"type":"DT_FLOAT"},"value":{"tensor":{"dtype":"DT_FLOAT","tensorShape":{"dim":[{"size":"1"},{"size":"1"},{"size":"64"},{"size":"64"}]}}}}},
          {"name":"unknown_22","op":"Const","attr":{"value":{"tensor":{"dtype":"DT_FLOAT","tensorShape":{"dim":[{"size":"64"}]}}},"dtype":{"type":"DT_FLOAT"}}},
          {"name":"unknown_23","op":"Const","attr":{"value":{"tensor":{"dtype":"DT_FLOAT","tensorShape":{"dim":[{"size":"5"},{"size":"5"},{"size":"64"},{"size":"1"}]}}},"dtype":{"type":"DT_FLOAT"}}},
          {"name":"unknown_25","op":"Const","attr":{"value":{"tensor":{"dtype":"DT_FLOAT","tensorShape":{"dim":[{"size":"1"},{"size":"1"},{"size":"64"},{"size":"64"}]}}},"dtype":{"type":"DT_FLOAT"}}},
          {"name":"unknown_26","op":"Const","attr":{"dtype":{"type":"DT_FLOAT"},"value":{"tensor":{"dtype":"DT_FLOAT","tensorShape":{"dim":[{"size":"64"}]}}}}},
          {"name":"unknown_27","op":"Const","attr":{"value":{"tensor":{"dtype":"DT_FLOAT","tensorShape":{"dim":[{"size":"5"},{"size":"5"},{"size":"64"},{"size":"1"}]}}},"dtype":{"type":"DT_FLOAT"}}},
          {"name":"unknown_29","op":"Const","attr":{"value":{"tensor":{"dtype":"DT_FLOAT","tensorShape":{"dim":[{"size":"1"},{"size":"1"},{"size":"64"},{"size":"64"}]}}},"dtype":{"type":"DT_FLOAT"}}},
          {"name":"unknown_30","op":"Const","attr":{"dtype":{"type":"DT_FLOAT"},"value":{"tensor":{"dtype":"DT_FLOAT","tensorShape":{"dim":[{"size":"64"}]}}}}},
          {"name":"unknown_31","op":"Const","attr":{"value":{"tensor":{"dtype":"DT_FLOAT","tensorShape":{"dim":[{"size":"5"},{"size":"5"},{"size":"64"},{"size":"1"}]}}},"dtype":{"type":"DT_FLOAT"}}},
          {"name":"unknown_35","op":"Const","attr":{"value":{"tensor":{"dtype":"DT_FLOAT","tensorShape":{"dim":[{"size":"1"},{"size":"1"},{"size":"64"},{"size":"96"}]}}},"dtype":{"type":"DT_FLOAT"}}},
          {"name":"unknown_36","op":"Const","attr":{"value":{"tensor":{"dtype":"DT_FLOAT","tensorShape":{"dim":[{"size":"96"}]}}},"dtype":{"type":"DT_FLOAT"}}},
          {"name":"unknown_37","op":"Const","attr":{"value":{"tensor":{"dtype":"DT_FLOAT","tensorShape":{"dim":[{"size":"5"},{"size":"5"},{"size":"96"},{"size":"1"}]}}},"dtype":{"type":"DT_FLOAT"}}},
          {"name":"unknown_39","op":"Const","attr":{"dtype":{"type":"DT_FLOAT"},"value":{"tensor":{"dtype":"DT_FLOAT","tensorShape":{"dim":[{"size":"1"},{"size":"1"},{"size":"96"},{"size":"96"}]}}}}},
          {"name":"unknown_40","op":"Const","attr":{"dtype":{"type":"DT_FLOAT"},"value":{"tensor":{"dtype":"DT_FLOAT","tensorShape":{"dim":[{"size":"96"}]}}}}},
          {"name":"unknown_41","op":"Const","attr":{"value":{"tensor":{"dtype":"DT_FLOAT","tensorShape":{"dim":[{"size":"5"},{"size":"5"},{"size":"96"},{"size":"1"}]}}},"dtype":{"type":"DT_FLOAT"}}},
          {"name":"unknown_43","op":"Const","attr":{"value":{"tensor":{"dtype":"DT_FLOAT","tensorShape":{"dim":[{"size":"1"},{"size":"1"},{"size":"96"},{"size":"96"}]}}},"dtype":{"type":"DT_FLOAT"}}},
          {"name":"unknown_44","op":"Const","attr":{"value":{"tensor":{"dtype":"DT_FLOAT","tensorShape":{"dim":[{"size":"96"}]}}},"dtype":{"type":"DT_FLOAT"}}},
          {"name":"unknown_45","op":"Const","attr":{"dtype":{"type":"DT_FLOAT"},"value":{"tensor":{"dtype":"DT_FLOAT","tensorShape":{"dim":[{"size":"5"},{"size":"5"},{"size":"96"},{"size":"1"}]}}}}},
          {"name":"unknown_47","op":"Const","attr":{"dtype":{"type":"DT_FLOAT"},"value":{"tensor":{"dtype":"DT_FLOAT","tensorShape":{"dim":[{"size":"1"},{"size":"1"},{"size":"96"},{"size":"96"}]}}}}},
          {"name":"unknown_48","op":"Const","attr":{"dtype":{"type":"DT_FLOAT"},"value":{"tensor":{"dtype":"DT_FLOAT","tensorShape":{"dim":[{"size":"96"}]}}}}},
          {"name":"unknown_49","op":"Const","attr":{"value":{"tensor":{"dtype":"DT_FLOAT","tensorShape":{"dim":[{"size":"5"},{"size":"5"},{"size":"96"},{"size":"1"}]}}},"dtype":{"type":"DT_FLOAT"}}},
          {"name":"unknown_51","op":"Const","attr":{"dtype":{"type":"DT_FLOAT"},"value":{"tensor":{"dtype":"DT_FLOAT","tensorShape":{"dim":[{"size":"1"},{"size":"1"},{"size":"96"},{"size":"96"}]}}}}},
          {"name":"unknown_52","op":"Const","attr":{"value":{"tensor":{"dtype":"DT_FLOAT","tensorShape":{"dim":[{"size":"96"}]}}},"dtype":{"type":"DT_FLOAT"}}},
          {"name":"unknown_53","op":"Const","attr":{"value":{"tensor":{"dtype":"DT_FLOAT","tensorShape":{"dim":[{"size":"5"},{"size":"5"},{"size":"96"},{"size":"1"}]}}},"dtype":{"type":"DT_FLOAT"}}},
          {"name":"unknown_55","op":"Const","attr":{"dtype":{"type":"DT_FLOAT"},"value":{"tensor":{"dtype":"DT_FLOAT","tensorShape":{"dim":[{"size":"1"},{"size":"1"},{"size":"96"},{"size":"96"}]}}}}},
          {"name":"unknown_56","op":"Const","attr":{"value":{"tensor":{"dtype":"DT_FLOAT","tensorShape":{"dim":[{"size":"96"}]}}},"dtype":{"type":"DT_FLOAT"}}},
          {"name":"unknown_57","op":"Const","attr":{"value":{"tensor":{"dtype":"DT_FLOAT","tensorShape":{"dim":[{"size":"5"},{"size":"5"},{"size":"96"},{"size":"1"}]}}},"dtype":{"type":"DT_FLOAT"}}},
          {"name":"unknown_59","op":"Const","attr":{"value":{"tensor":{"dtype":"DT_FLOAT","tensorShape":{"dim":[{"size":"1"},{"size":"1"},{"size":"96"},{"size":"96"}]}}},"dtype":{"type":"DT_FLOAT"}}},
          {"name":"unknown_60","op":"Const","attr":{"value":{"tensor":{"dtype":"DT_FLOAT","tensorShape":{"dim":[{"size":"96"}]}}},"dtype":{"type":"DT_FLOAT"}}},
          {"name":"unknown_61","op":"Const","attr":{"value":{"tensor":{"dtype":"DT_FLOAT","tensorShape":{"dim":[{"size":"5"},{"size":"5"},{"size":"96"},{"size":"1"}]}}},"dtype":{"type":"DT_FLOAT"}}},
          {"name":"unknown_65","op":"Const","attr":{"value":{"tensor":{"dtype":"DT_FLOAT","tensorShape":{"dim":[{"size":"1"},{"size":"1"},{"size":"96"},{"size":"128"}]}}},"dtype":{"type":"DT_FLOAT"}}},
          {"name":"unknown_66","op":"Const","attr":{"value":{"tensor":{"dtype":"DT_FLOAT","tensorShape":{"dim":[{"size":"128"}]}}},"dtype":{"type":"DT_FLOAT"}}},
          {"name":"unknown_67","op":"Const","attr":{"value":{"tensor":{"dtype":"DT_FLOAT","tensorShape":{"dim":[{"size":"5"},{"size":"5"},{"size":"128"},{"size":"1"}]}}},"dtype":{"type":"DT_FLOAT"}}},
          {"name":"unknown_69","op":"Const","attr":{"value":{"tensor":{"dtype":"DT_FLOAT","tensorShape":{"dim":[{"size":"1"},{"size":"1"},{"size":"128"},{"size":"128"}]}}},"dtype":{"type":"DT_FLOAT"}}},
          {"name":"unknown_70","op":"Const","attr":{"value":{"tensor":{"dtype":"DT_FLOAT","tensorShape":{"dim":[{"size":"128"}]}}},"dtype":{"type":"DT_FLOAT"}}},
          {"name":"unknown_71","op":"Const","attr":{"value":{"tensor":{"dtype":"DT_FLOAT","tensorShape":{"dim":[{"size":"5"},{"size":"5"},{"size":"128"},{"size":"1"}]}}},"dtype":{"type":"DT_FLOAT"}}},
          {"name":"unknown_73","op":"Const","attr":{"value":{"tensor":{"dtype":"DT_FLOAT","tensorShape":{"dim":[{"size":"1"},{"size":"1"},{"size":"128"},{"size":"128"}]}}},"dtype":{"type":"DT_FLOAT"}}},
          {"name":"unknown_74","op":"Const","attr":{"dtype":{"type":"DT_FLOAT"},"value":{"tensor":{"dtype":"DT_FLOAT","tensorShape":{"dim":[{"size":"128"}]}}}}},
          {"name":"unknown_75","op":"Const","attr":{"dtype":{"type":"DT_FLOAT"},"value":{"tensor":{"dtype":"DT_FLOAT","tensorShape":{"dim":[{"size":"5"},{"size":"5"},{"size":"128"},{"size":"1"}]}}}}},
          {"name":"unknown_77","op":"Const","attr":{"value":{"tensor":{"dtype":"DT_FLOAT","tensorShape":{"dim":[{"size":"1"},{"size":"1"},{"size":"128"},{"size":"128"}]}}},"dtype":{"type":"DT_FLOAT"}}},
          {"name":"unknown_78","op":"Const","attr":{"dtype":{"type":"DT_FLOAT"},"value":{"tensor":{"dtype":"DT_FLOAT","tensorShape":{"dim":[{"size":"128"}]}}}}},
          {"name":"unknown_79","op":"Const","attr":{"value":{"tensor":{"dtype":"DT_FLOAT","tensorShape":{"dim":[{"size":"5"},{"size":"5"},{"size":"128"},{"size":"1"}]}}},"dtype":{"type":"DT_FLOAT"}}},
          {"name":"unknown_81","op":"Const","attr":{"value":{"tensor":{"dtype":"DT_FLOAT","tensorShape":{"dim":[{"size":"1"},{"size":"1"},{"size":"128"},{"size":"128"}]}}},"dtype":{"type":"DT_FLOAT"}}},
          {"name":"unknown_82","op":"Const","attr":{"value":{"tensor":{"dtype":"DT_FLOAT","tensorShape":{"dim":[{"size":"128"}]}}},"dtype":{"type":"DT_FLOAT"}}},
          {"name":"unknown_83","op":"Const","attr":{"value":{"tensor":{"dtype":"DT_FLOAT","tensorShape":{"dim":[{"size":"5"},{"size":"5"},{"size":"128"},{"size":"1"}]}}},"dtype":{"type":"DT_FLOAT"}}},
          {"name":"unknown_85","op":"Const","attr":{"value":{"tensor":{"dtype":"DT_FLOAT","tensorShape":{"dim":[{"size":"1"},{"size":"1"},{"size":"128"},{"size":"128"}]}}},"dtype":{"type":"DT_FLOAT"}}},
          {"name":"unknown_86","op":"Const","attr":{"value":{"tensor":{"dtype":"DT_FLOAT","tensorShape":{"dim":[{"size":"128"}]}}},"dtype":{"type":"DT_FLOAT"}}},
          {"name":"unknown_87","op":"Const","attr":{"dtype":{"type":"DT_FLOAT"},"value":{"tensor":{"dtype":"DT_FLOAT","tensorShape":{"dim":[{"size":"5"},{"size":"5"},{"size":"128"},{"size":"1"}]}}}}},
          {"name":"unknown_89","op":"Const","attr":{"value":{"tensor":{"dtype":"DT_FLOAT","tensorShape":{"dim":[{"size":"1"},{"size":"1"},{"size":"128"},{"size":"128"}]}}},"dtype":{"type":"DT_FLOAT"}}},
          {"name":"unknown_90","op":"Const","attr":{"dtype":{"type":"DT_FLOAT"},"value":{"tensor":{"dtype":"DT_FLOAT","tensorShape":{"dim":[{"size":"128"}]}}}}},
          {"name":"unknown_91","op":"Const","attr":{"dtype":{"type":"DT_FLOAT"},"value":{"tensor":{"dtype":"DT_FLOAT","tensorShape":{"dim":[{"size":"5"},{"size":"5"},{"size":"128"},{"size":"1"}]}}}}},
          {"name":"unknown_93","op":"Const","attr":{"value":{"tensor":{"dtype":"DT_FLOAT","tensorShape":{"dim":[{"size":"1"},{"size":"1"},{"size":"128"},{"size":"128"}]}}},"dtype":{"type":"DT_FLOAT"}}},
          {"name":"unknown_94","op":"Const","attr":{"value":{"tensor":{"dtype":"DT_FLOAT","tensorShape":{"dim":[{"size":"128"}]}}},"dtype":{"type":"DT_FLOAT"}}},
          {"name":"unknown_95","op":"Const","attr":{"dtype":{"type":"DT_FLOAT"},"value":{"tensor":{"dtype":"DT_FLOAT","tensorShape":{"dim":[{"size":"5"},{"size":"5"},{"size":"128"},{"size":"1"}]}}}}},
          {"name":"unknown_99","op":"Const","attr":{"value":{"tensor":{"dtype":"DT_FLOAT","tensorShape":{"dim":[{"size":"1"},{"size":"1"},{"size":"128"},{"size":"256"}]}}},"dtype":{"type":"DT_FLOAT"}}},
          {"name":"unknown_100","op":"Const","attr":{"value":{"tensor":{"dtype":"DT_FLOAT","tensorShape":{"dim":[{"size":"256"}]}}},"dtype":{"type":"DT_FLOAT"}}},
          {"name":"unknown_101","op":"Const","attr":{"dtype":{"type":"DT_FLOAT"},"value":{"tensor":{"dtype":"DT_FLOAT","tensorShape":{"dim":[{"size":"5"},{"size":"5"},{"size":"256"},{"size":"1"}]}}}}},
          {"name":"unknown_103","op":"Const","attr":{"dtype":{"type":"DT_FLOAT"},"value":{"tensor":{"dtype":"DT_FLOAT","tensorShape":{"dim":[{"size":"1"},{"size":"1"},{"size":"256"},{"size":"256"}]}}}}},
          {"name":"unknown_104","op":"Const","attr":{"value":{"tensor":{"dtype":"DT_FLOAT","tensorShape":{"dim":[{"size":"256"}]}}},"dtype":{"type":"DT_FLOAT"}}},
          {"name":"unknown_105","op":"Const","attr":{"value":{"tensor":{"dtype":"DT_FLOAT","tensorShape":{"dim":[{"size":"5"},{"size":"5"},{"size":"256"},{"size":"1"}]}}},"dtype":{"type":"DT_FLOAT"}}},
          {"name":"unknown_107","op":"Const","attr":{"value":{"tensor":{"dtype":"DT_FLOAT","tensorShape":{"dim":[{"size":"1"},{"size":"1"},{"size":"256"},{"size":"256"}]}}},"dtype":{"type":"DT_FLOAT"}}},
          {"name":"unknown_108","op":"Const","attr":{"value":{"tensor":{"dtype":"DT_FLOAT","tensorShape":{"dim":[{"size":"256"}]}}},"dtype":{"type":"DT_FLOAT"}}},
          {"name":"unknown_109","op":"Const","attr":{"value":{"tensor":{"dtype":"DT_FLOAT","tensorShape":{"dim":[{"size":"5"},{"size":"5"},{"size":"256"},{"size":"1"}]}}},"dtype":{"type":"DT_FLOAT"}}},
          {"name":"unknown_111","op":"Const","attr":{"value":{"tensor":{"dtype":"DT_FLOAT","tensorShape":{"dim":[{"size":"1"},{"size":"1"},{"size":"256"},{"size":"256"}]}}},"dtype":{"type":"DT_FLOAT"}}},
          {"name":"unknown_112","op":"Const","attr":{"value":{"tensor":{"dtype":"DT_FLOAT","tensorShape":{"dim":[{"size":"256"}]}}},"dtype":{"type":"DT_FLOAT"}}},
          {"name":"unknown_113","op":"Const","attr":{"dtype":{"type":"DT_FLOAT"},"value":{"tensor":{"dtype":"DT_FLOAT","tensorShape":{"dim":[{"size":"5"},{"size":"5"},{"size":"256"},{"size":"1"}]}}}}},
          {"name":"unknown_115","op":"Const","attr":{"value":{"tensor":{"dtype":"DT_FLOAT","tensorShape":{"dim":[{"size":"1"},{"size":"1"},{"size":"256"},{"size":"256"}]}}},"dtype":{"type":"DT_FLOAT"}}},
          {"name":"unknown_116","op":"Const","attr":{"value":{"tensor":{"dtype":"DT_FLOAT","tensorShape":{"dim":[{"size":"256"}]}}},"dtype":{"type":"DT_FLOAT"}}},
          {"name":"unknown_117","op":"Const","attr":{"value":{"tensor":{"dtype":"DT_FLOAT","tensorShape":{"dim":[{"size":"5"},{"size":"5"},{"size":"256"},{"size":"1"}]}}},"dtype":{"type":"DT_FLOAT"}}},
          {"name":"unknown_119","op":"Const","attr":{"value":{"tensor":{"dtype":"DT_FLOAT","tensorShape":{"dim":[{"size":"1"},{"size":"1"},{"size":"256"},{"size":"256"}]}}},"dtype":{"type":"DT_FLOAT"}}},
          {"name":"unknown_120","op":"Const","attr":{"value":{"tensor":{"dtype":"DT_FLOAT","tensorShape":{"dim":[{"size":"256"}]}}},"dtype":{"type":"DT_FLOAT"}}},
          {"name":"unknown_121","op":"Const","attr":{"value":{"tensor":{"dtype":"DT_FLOAT","tensorShape":{"dim":[{"size":"5"},{"size":"5"},{"size":"256"},{"size":"1"}]}}},"dtype":{"type":"DT_FLOAT"}}},
          {"name":"unknown_123","op":"Const","attr":{"value":{"tensor":{"dtype":"DT_FLOAT","tensorShape":{"dim":[{"size":"1"},{"size":"1"},{"size":"256"},{"size":"256"}]}}},"dtype":{"type":"DT_FLOAT"}}},
          {"name":"unknown_124","op":"Const","attr":{"dtype":{"type":"DT_FLOAT"},"value":{"tensor":{"dtype":"DT_FLOAT","tensorShape":{"dim":[{"size":"256"}]}}}}},
          {"name":"unknown_125","op":"Const","attr":{"value":{"tensor":{"dtype":"DT_FLOAT","tensorShape":{"dim":[{"size":"1"},{"size":"1"},{"size":"256"},{"size":"72"}]}}},"dtype":{"type":"DT_FLOAT"}}},
          {"name":"unknown_126","op":"Const","attr":{"dtype":{"type":"DT_FLOAT"},"value":{"tensor":{"dtype":"DT_FLOAT","tensorShape":{"dim":[{"size":"72"}]}}}}},
          {"name":"StatefulPartitionedCall/model/tf_op_layer_Reshape_3/Reshape_3/shape","op":"Const","attr":{"value":{"tensor":{"dtype":"DT_INT32","tensorShape":{"dim":[{"size":"3"}]}}},"dtype":{"type":"DT_INT32"}}},
          {"name":"StatefulPartitionedCall/model/regressors/concat/axis","op":"Const","attr":{"value":{"tensor":{"dtype":"DT_INT32","tensorShape":{}}},"dtype":{"type":"DT_INT32"}}},
          {"name":"input","op":"Placeholder","attr":{"shape":{"shape":{"dim":[{"size":"-1"},{"size":"128"},{"size":"128"},{"size":"3"}]}},"dtype":{"type":"DT_FLOAT"}}},
          {"name":"StatefulPartitionedCall/model/conv2d/Relu","op":"_FusedConv2D","input":["input","unknown","unknown_0"],"device":"/device:CPU:0","attr":{"dilations":{"list":{"i":["1","1","1","1"]}},"T":{"type":"DT_FLOAT"},"strides":{"list":{"i":["1","1","1","1"]}},"data_format":{"s":"TkhXQw=="},"explicit_paddings":{"list":{}},"use_cudnn_on_gpu":{"b":true},"num_args":{"i":"1"},"epsilon":{"f":0},"padding":{"s":"U0FNRQ=="},"fused_ops":{"list":{"s":["Qmlhc0FkZA==","UmVsdQ=="]}}}},
          {"name":"StatefulPartitionedCall/model/depthwise_conv2d/depthwise","op":"DepthwiseConv2dNative","input":["StatefulPartitionedCall/model/conv2d/Relu","unknown_1"],"attr":{"dilations":{"list":{"i":["1","1","1","1"]}},"T":{"type":"DT_FLOAT"},"strides":{"list":{"i":["1","1","1","1"]}},"data_format":{"s":"TkhXQw=="},"explicit_paddings":{"list":{}},"padding":{"s":"U0FNRQ=="}}},
          {"name":"StatefulPartitionedCall/model/conv2d_1/BiasAdd","op":"_FusedConv2D","input":["StatefulPartitionedCall/model/depthwise_conv2d/depthwise","unknown_3","unknown_4"],"device":"/device:CPU:0","attr":{"dilations":{"list":{"i":["1","1","1","1"]}},"T":{"type":"DT_FLOAT"},"data_format":{"s":"TkhXQw=="},"strides":{"list":{"i":["1","1","1","1"]}},"explicit_paddings":{"list":{}},"use_cudnn_on_gpu":{"b":true},"num_args":{"i":"1"},"epsilon":{"f":0},"padding":{"s":"VkFMSUQ="},"fused_ops":{"list":{"s":["Qmlhc0FkZA=="]}}}},
          {"name":"StatefulPartitionedCall/model/add/add","op":"AddV2","input":["StatefulPartitionedCall/model/conv2d/Relu","StatefulPartitionedCall/model/conv2d_1/BiasAdd"],"attr":{"T":{"type":"DT_FLOAT"}}},
          {"name":"StatefulPartitionedCall/model/re_lu/Relu","op":"Relu","input":["StatefulPartitionedCall/model/add/add"],"attr":{"T":{"type":"DT_FLOAT"}}},
          {"name":"StatefulPartitionedCall/model/depthwise_conv2d_1/depthwise","op":"DepthwiseConv2dNative","input":["StatefulPartitionedCall/model/re_lu/Relu","unknown_5"],"attr":{"dilations":{"list":{"i":["1","1","1","1"]}},"T":{"type":"DT_FLOAT"},"data_format":{"s":"TkhXQw=="},"strides":{"list":{"i":["1","1","1","1"]}},"explicit_paddings":{"list":{}},"padding":{"s":"U0FNRQ=="}}},
          {"name":"StatefulPartitionedCall/model/conv2d_2/BiasAdd","op":"_FusedConv2D","input":["StatefulPartitionedCall/model/depthwise_conv2d_1/depthwise","unknown_7","unknown_8"],"device":"/device:CPU:0","attr":{"dilations":{"list":{"i":["1","1","1","1"]}},"T":{"type":"DT_FLOAT"},"data_format":{"s":"TkhXQw=="},"strides":{"list":{"i":["1","1","1","1"]}},"explicit_paddings":{"list":{}},"use_cudnn_on_gpu":{"b":true},"num_args":{"i":"1"},"epsilon":{"f":0},"padding":{"s":"VkFMSUQ="},"fused_ops":{"list":{"s":["Qmlhc0FkZA=="]}}}},
          {"name":"StatefulPartitionedCall/model/add_1/add","op":"AddV2","input":["StatefulPartitionedCall/model/re_lu/Relu","StatefulPartitionedCall/model/conv2d_2/BiasAdd"],"attr":{"T":{"type":"DT_FLOAT"}}},
          {"name":"StatefulPartitionedCall/model/re_lu_1/Relu","op":"Relu","input":["StatefulPartitionedCall/model/add_1/add"],"attr":{"T":{"type":"DT_FLOAT"}}},
          {"name":"StatefulPartitionedCall/model/depthwise_conv2d_2/depthwise","op":"DepthwiseConv2dNative","input":["StatefulPartitionedCall/model/re_lu_1/Relu","unknown_9"],"attr":{"padding":{"s":"U0FNRQ=="},"dilations":{"list":{"i":["1","1","1","1"]}},"T":{"type":"DT_FLOAT"},"data_format":{"s":"TkhXQw=="},"strides":{"list":{"i":["1","1","1","1"]}},"explicit_paddings":{"list":{}}}},
          {"name":"StatefulPartitionedCall/model/conv2d_3/BiasAdd","op":"_FusedConv2D","input":["StatefulPartitionedCall/model/depthwise_conv2d_2/depthwise","unknown_11","unknown_12"],"device":"/device:CPU:0","attr":{"T":{"type":"DT_FLOAT"},"data_format":{"s":"TkhXQw=="},"strides":{"list":{"i":["1","1","1","1"]}},"use_cudnn_on_gpu":{"b":true},"explicit_paddings":{"list":{}},"num_args":{"i":"1"},"epsilon":{"f":0},"padding":{"s":"VkFMSUQ="},"fused_ops":{"list":{"s":["Qmlhc0FkZA=="]}},"dilations":{"list":{"i":["1","1","1","1"]}}}},
          {"name":"StatefulPartitionedCall/model/add_2/add","op":"AddV2","input":["StatefulPartitionedCall/model/re_lu_1/Relu","StatefulPartitionedCall/model/conv2d_3/BiasAdd"],"attr":{"T":{"type":"DT_FLOAT"}}},
          {"name":"StatefulPartitionedCall/model/re_lu_2/Relu","op":"Relu","input":["StatefulPartitionedCall/model/add_2/add"],"attr":{"T":{"type":"DT_FLOAT"}}},
          {"name":"StatefulPartitionedCall/model/max_pooling2d/MaxPool","op":"MaxPool","input":["StatefulPartitionedCall/model/re_lu_2/Relu"],"attr":{"data_format":{"s":"TkhXQw=="},"strides":{"list":{"i":["1","2","2","1"]}},"ksize":{"list":{"i":["1","2","2","1"]}},"padding":{"s":"U0FNRQ=="},"T":{"type":"DT_FLOAT"}}},
          {"name":"StatefulPartitionedCall/model/depthwise_conv2d_3/depthwise","op":"DepthwiseConv2dNative","input":["StatefulPartitionedCall/model/re_lu_2/Relu","unknown_13"],"attr":{"padding":{"s":"U0FNRQ=="},"dilations":{"list":{"i":["1","1","1","1"]}},"T":{"type":"DT_FLOAT"},"data_format":{"s":"TkhXQw=="},"strides":{"list":{"i":["1","2","2","1"]}},"explicit_paddings":{"list":{}}}},
          {"name":"StatefulPartitionedCall/model/conv2d_5/BiasAdd","op":"_FusedConv2D","input":["StatefulPartitionedCall/model/max_pooling2d/MaxPool","unknown_15","unknown_16"],"device":"/device:CPU:0","attr":{"dilations":{"list":{"i":["1","1","1","1"]}},"T":{"type":"DT_FLOAT"},"data_format":{"s":"TkhXQw=="},"strides":{"list":{"i":["1","1","1","1"]}},"use_cudnn_on_gpu":{"b":true},"explicit_paddings":{"list":{}},"num_args":{"i":"1"},"epsilon":{"f":0},"padding":{"s":"VkFMSUQ="},"fused_ops":{"list":{"s":["Qmlhc0FkZA=="]}}}},
          {"name":"StatefulPartitionedCall/model/conv2d_4/BiasAdd","op":"_FusedConv2D","input":["StatefulPartitionedCall/model/depthwise_conv2d_3/depthwise","unknown_17","unknown_18"],"device":"/device:CPU:0","attr":{"strides":{"list":{"i":["1","1","1","1"]}},"data_format":{"s":"TkhXQw=="},"explicit_paddings":{"list":{}},"use_cudnn_on_gpu":{"b":true},"num_args":{"i":"1"},"epsilon":{"f":0},"padding":{"s":"VkFMSUQ="},"fused_ops":{"list":{"s":["Qmlhc0FkZA=="]}},"dilations":{"list":{"i":["1","1","1","1"]}},"T":{"type":"DT_FLOAT"}}},
          {"name":"StatefulPartitionedCall/model/add_3/add","op":"AddV2","input":["StatefulPartitionedCall/model/conv2d_5/BiasAdd","StatefulPartitionedCall/model/conv2d_4/BiasAdd"],"attr":{"T":{"type":"DT_FLOAT"}}},
          {"name":"StatefulPartitionedCall/model/re_lu_3/Relu","op":"Relu","input":["StatefulPartitionedCall/model/add_3/add"],"attr":{"T":{"type":"DT_FLOAT"}}},
          {"name":"StatefulPartitionedCall/model/depthwise_conv2d_4/depthwise","op":"DepthwiseConv2dNative","input":["StatefulPartitionedCall/model/re_lu_3/Relu","unknown_19"],"attr":{"padding":{"s":"U0FNRQ=="},"dilations":{"list":{"i":["1","1","1","1"]}},"T":{"type":"DT_FLOAT"},"strides":{"list":{"i":["1","1","1","1"]}},"data_format":{"s":"TkhXQw=="},"explicit_paddings":{"list":{}}}},
          {"name":"StatefulPartitionedCall/model/conv2d_6/BiasAdd","op":"_FusedConv2D","input":["StatefulPartitionedCall/model/depthwise_conv2d_4/depthwise","unknown_21","unknown_22"],"device":"/device:CPU:0","attr":{"T":{"type":"DT_FLOAT"},"strides":{"list":{"i":["1","1","1","1"]}},"data_format":{"s":"TkhXQw=="},"explicit_paddings":{"list":{}},"use_cudnn_on_gpu":{"b":true},"num_args":{"i":"1"},"epsilon":{"f":0},"padding":{"s":"VkFMSUQ="},"fused_ops":{"list":{"s":["Qmlhc0FkZA=="]}},"dilations":{"list":{"i":["1","1","1","1"]}}}},
          {"name":"StatefulPartitionedCall/model/add_4/add","op":"AddV2","input":["StatefulPartitionedCall/model/re_lu_3/Relu","StatefulPartitionedCall/model/conv2d_6/BiasAdd"],"attr":{"T":{"type":"DT_FLOAT"}}},
          {"name":"StatefulPartitionedCall/model/re_lu_4/Relu","op":"Relu","input":["StatefulPartitionedCall/model/add_4/add"],"attr":{"T":{"type":"DT_FLOAT"}}},
          {"name":"StatefulPartitionedCall/model/depthwise_conv2d_5/depthwise","op":"DepthwiseConv2dNative","input":["StatefulPartitionedCall/model/re_lu_4/Relu","unknown_23"],"attr":{"padding":{"s":"U0FNRQ=="},"dilations":{"list":{"i":["1","1","1","1"]}},"T":{"type":"DT_FLOAT"},"data_format":{"s":"TkhXQw=="},"strides":{"list":{"i":["1","1","1","1"]}},"explicit_paddings":{"list":{}}}},
          {"name":"StatefulPartitionedCall/model/conv2d_7/BiasAdd","op":"_FusedConv2D","input":["StatefulPartitionedCall/model/depthwise_conv2d_5/depthwise","unknown_25","unknown_26"],"device":"/device:CPU:0","attr":{"num_args":{"i":"1"},"epsilon":{"f":0},"padding":{"s":"VkFMSUQ="},"fused_ops":{"list":{"s":["Qmlhc0FkZA=="]}},"dilations":{"list":{"i":["1","1","1","1"]}},"T":{"type":"DT_FLOAT"},"strides":{"list":{"i":["1","1","1","1"]}},"data_format":{"s":"TkhXQw=="},"explicit_paddings":{"list":{}},"use_cudnn_on_gpu":{"b":true}}},
          {"name":"StatefulPartitionedCall/model/add_5/add","op":"AddV2","input":["StatefulPartitionedCall/model/re_lu_4/Relu","StatefulPartitionedCall/model/conv2d_7/BiasAdd"],"attr":{"T":{"type":"DT_FLOAT"}}},
          {"name":"StatefulPartitionedCall/model/re_lu_5/Relu","op":"Relu","input":["StatefulPartitionedCall/model/add_5/add"],"attr":{"T":{"type":"DT_FLOAT"}}},
          {"name":"StatefulPartitionedCall/model/depthwise_conv2d_6/depthwise","op":"DepthwiseConv2dNative","input":["StatefulPartitionedCall/model/re_lu_5/Relu","unknown_27"],"attr":{"dilations":{"list":{"i":["1","1","1","1"]}},"T":{"type":"DT_FLOAT"},"data_format":{"s":"TkhXQw=="},"strides":{"list":{"i":["1","1","1","1"]}},"explicit_paddings":{"list":{}},"padding":{"s":"U0FNRQ=="}}},
          {"name":"StatefulPartitionedCall/model/conv2d_8/BiasAdd","op":"_FusedConv2D","input":["StatefulPartitionedCall/model/depthwise_conv2d_6/depthwise","unknown_29","unknown_30"],"device":"/device:CPU:0","attr":{"fused_ops":{"list":{"s":["Qmlhc0FkZA=="]}},"dilations":{"list":{"i":["1","1","1","1"]}},"T":{"type":"DT_FLOAT"},"strides":{"list":{"i":["1","1","1","1"]}},"data_format":{"s":"TkhXQw=="},"explicit_paddings":{"list":{}},"use_cudnn_on_gpu":{"b":true},"num_args":{"i":"1"},"epsilon":{"f":0},"padding":{"s":"VkFMSUQ="}}},
          {"name":"StatefulPartitionedCall/model/add_6/add","op":"AddV2","input":["StatefulPartitionedCall/model/re_lu_5/Relu","StatefulPartitionedCall/model/conv2d_8/BiasAdd"],"attr":{"T":{"type":"DT_FLOAT"}}},
          {"name":"StatefulPartitionedCall/model/re_lu_6/Relu","op":"Relu","input":["StatefulPartitionedCall/model/add_6/add"],"attr":{"T":{"type":"DT_FLOAT"}}},
          {"name":"StatefulPartitionedCall/model/max_pooling2d_1/MaxPool","op":"MaxPool","input":["StatefulPartitionedCall/model/re_lu_6/Relu"],"attr":{"data_format":{"s":"TkhXQw=="},"strides":{"list":{"i":["1","2","2","1"]}},"ksize":{"list":{"i":["1","2","2","1"]}},"padding":{"s":"U0FNRQ=="},"T":{"type":"DT_FLOAT"}}},
          {"name":"StatefulPartitionedCall/model/depthwise_conv2d_7/depthwise","op":"DepthwiseConv2dNative","input":["StatefulPartitionedCall/model/re_lu_6/Relu","unknown_31"],"attr":{"dilations":{"list":{"i":["1","1","1","1"]}},"T":{"type":"DT_FLOAT"},"data_format":{"s":"TkhXQw=="},"strides":{"list":{"i":["1","2","2","1"]}},"explicit_paddings":{"list":{}},"padding":{"s":"U0FNRQ=="}}},
          {"name":"StatefulPartitionedCall/model/conv2d_10/BiasAdd","op":"_FusedConv2D","input":["StatefulPartitionedCall/model/max_pooling2d_1/MaxPool","unknown_33","unknown_34"],"device":"/device:CPU:0","attr":{"fused_ops":{"list":{"s":["Qmlhc0FkZA=="]}},"dilations":{"list":{"i":["1","1","1","1"]}},"T":{"type":"DT_FLOAT"},"data_format":{"s":"TkhXQw=="},"strides":{"list":{"i":["1","1","1","1"]}},"explicit_paddings":{"list":{}},"use_cudnn_on_gpu":{"b":true},"num_args":{"i":"1"},"epsilon":{"f":0},"padding":{"s":"VkFMSUQ="}}},
          {"name":"StatefulPartitionedCall/model/conv2d_9/BiasAdd","op":"_FusedConv2D","input":["StatefulPartitionedCall/model/depthwise_conv2d_7/depthwise","unknown_35","unknown_36"],"device":"/device:CPU:0","attr":{"dilations":{"list":{"i":["1","1","1","1"]}},"T":{"type":"DT_FLOAT"},"data_format":{"s":"TkhXQw=="},"strides":{"list":{"i":["1","1","1","1"]}},"explicit_paddings":{"list":{}},"use_cudnn_on_gpu":{"b":true},"num_args":{"i":"1"},"epsilon":{"f":0},"padding":{"s":"VkFMSUQ="},"fused_ops":{"list":{"s":["Qmlhc0FkZA=="]}}}},
          {"name":"StatefulPartitionedCall/model/add_7/add","op":"AddV2","input":["StatefulPartitionedCall/model/conv2d_10/BiasAdd","StatefulPartitionedCall/model/conv2d_9/BiasAdd"],"attr":{"T":{"type":"DT_FLOAT"}}},
          {"name":"StatefulPartitionedCall/model/re_lu_7/Relu","op":"Relu","input":["StatefulPartitionedCall/model/add_7/add"],"attr":{"T":{"type":"DT_FLOAT"}}},
          {"name":"StatefulPartitionedCall/model/depthwise_conv2d_8/depthwise","op":"DepthwiseConv2dNative","input":["StatefulPartitionedCall/model/re_lu_7/Relu","unknown_37"],"attr":{"padding":{"s":"U0FNRQ=="},"dilations":{"list":{"i":["1","1","1","1"]}},"T":{"type":"DT_FLOAT"},"data_format":{"s":"TkhXQw=="},"strides":{"list":{"i":["1","1","1","1"]}},"explicit_paddings":{"list":{}}}},
          {"name":"StatefulPartitionedCall/model/conv2d_11/BiasAdd","op":"_FusedConv2D","input":["StatefulPartitionedCall/model/depthwise_conv2d_8/depthwise","unknown_39","unknown_40"],"device":"/device:CPU:0","attr":{"dilations":{"list":{"i":["1","1","1","1"]}},"T":{"type":"DT_FLOAT"},"strides":{"list":{"i":["1","1","1","1"]}},"data_format":{"s":"TkhXQw=="},"explicit_paddings":{"list":{}},"use_cudnn_on_gpu":{"b":true},"num_args":{"i":"1"},"epsilon":{"f":0},"padding":{"s":"VkFMSUQ="},"fused_ops":{"list":{"s":["Qmlhc0FkZA=="]}}}},
          {"name":"StatefulPartitionedCall/model/add_8/add","op":"AddV2","input":["StatefulPartitionedCall/model/re_lu_7/Relu","StatefulPartitionedCall/model/conv2d_11/BiasAdd"],"attr":{"T":{"type":"DT_FLOAT"}}},
          {"name":"StatefulPartitionedCall/model/re_lu_8/Relu","op":"Relu","input":["StatefulPartitionedCall/model/add_8/add"],"attr":{"T":{"type":"DT_FLOAT"}}},
          {"name":"StatefulPartitionedCall/model/depthwise_conv2d_9/depthwise","op":"DepthwiseConv2dNative","input":["StatefulPartitionedCall/model/re_lu_8/Relu","unknown_41"],"attr":{"T":{"type":"DT_FLOAT"},"strides":{"list":{"i":["1","1","1","1"]}},"data_format":{"s":"TkhXQw=="},"explicit_paddings":{"list":{}},"padding":{"s":"U0FNRQ=="},"dilations":{"list":{"i":["1","1","1","1"]}}}},
          {"name":"StatefulPartitionedCall/model/conv2d_12/BiasAdd","op":"_FusedConv2D","input":["StatefulPartitionedCall/model/depthwise_conv2d_9/depthwise","unknown_43","unknown_44"],"device":"/device:CPU:0","attr":{"fused_ops":{"list":{"s":["Qmlhc0FkZA=="]}},"dilations":{"list":{"i":["1","1","1","1"]}},"T":{"type":"DT_FLOAT"},"strides":{"list":{"i":["1","1","1","1"]}},"data_format":{"s":"TkhXQw=="},"use_cudnn_on_gpu":{"b":true},"explicit_paddings":{"list":{}},"num_args":{"i":"1"},"epsilon":{"f":0},"padding":{"s":"VkFMSUQ="}}},
          {"name":"StatefulPartitionedCall/model/add_9/add","op":"AddV2","input":["StatefulPartitionedCall/model/re_lu_8/Relu","StatefulPartitionedCall/model/conv2d_12/BiasAdd"],"attr":{"T":{"type":"DT_FLOAT"}}},
          {"name":"StatefulPartitionedCall/model/re_lu_9/Relu","op":"Relu","input":["StatefulPartitionedCall/model/add_9/add"],"attr":{"T":{"type":"DT_FLOAT"}}},
          {"name":"StatefulPartitionedCall/model/depthwise_conv2d_10/depthwise","op":"DepthwiseConv2dNative","input":["StatefulPartitionedCall/model/re_lu_9/Relu","unknown_45"],"attr":{"T":{"type":"DT_FLOAT"},"data_format":{"s":"TkhXQw=="},"strides":{"list":{"i":["1","1","1","1"]}},"explicit_paddings":{"list":{}},"padding":{"s":"U0FNRQ=="},"dilations":{"list":{"i":["1","1","1","1"]}}}},
          {"name":"StatefulPartitionedCall/model/conv2d_13/BiasAdd","op":"_FusedConv2D","input":["StatefulPartitionedCall/model/depthwise_conv2d_10/depthwise","unknown_47","unknown_48"],"device":"/device:CPU:0","attr":{"T":{"type":"DT_FLOAT"},"data_format":{"s":"TkhXQw=="},"strides":{"list":{"i":["1","1","1","1"]}},"explicit_paddings":{"list":{}},"use_cudnn_on_gpu":{"b":true},"num_args":{"i":"1"},"epsilon":{"f":0},"padding":{"s":"VkFMSUQ="},"fused_ops":{"list":{"s":["Qmlhc0FkZA=="]}},"dilations":{"list":{"i":["1","1","1","1"]}}}},
          {"name":"StatefulPartitionedCall/model/add_10/add","op":"AddV2","input":["StatefulPartitionedCall/model/re_lu_9/Relu","StatefulPartitionedCall/model/conv2d_13/BiasAdd"],"attr":{"T":{"type":"DT_FLOAT"}}},
          {"name":"StatefulPartitionedCall/model/re_lu_10/Relu","op":"Relu","input":["StatefulPartitionedCall/model/add_10/add"],"attr":{"T":{"type":"DT_FLOAT"}}},
          {"name":"StatefulPartitionedCall/model/depthwise_conv2d_11/depthwise","op":"DepthwiseConv2dNative","input":["StatefulPartitionedCall/model/re_lu_10/Relu","unknown_49"],"attr":{"padding":{"s":"U0FNRQ=="},"dilations":{"list":{"i":["1","1","1","1"]}},"T":{"type":"DT_FLOAT"},"data_format":{"s":"TkhXQw=="},"strides":{"list":{"i":["1","1","1","1"]}},"explicit_paddings":{"list":{}}}},
          {"name":"StatefulPartitionedCall/model/conv2d_14/BiasAdd","op":"_FusedConv2D","input":["StatefulPartitionedCall/model/depthwise_conv2d_11/depthwise","unknown_51","unknown_52"],"device":"/device:CPU:0","attr":{"epsilon":{"f":0},"padding":{"s":"VkFMSUQ="},"fused_ops":{"list":{"s":["Qmlhc0FkZA=="]}},"dilations":{"list":{"i":["1","1","1","1"]}},"T":{"type":"DT_FLOAT"},"data_format":{"s":"TkhXQw=="},"strides":{"list":{"i":["1","1","1","1"]}},"explicit_paddings":{"list":{}},"use_cudnn_on_gpu":{"b":true},"num_args":{"i":"1"}}},
          {"name":"StatefulPartitionedCall/model/add_11/add","op":"AddV2","input":["StatefulPartitionedCall/model/re_lu_10/Relu","StatefulPartitionedCall/model/conv2d_14/BiasAdd"],"attr":{"T":{"type":"DT_FLOAT"}}},
          {"name":"StatefulPartitionedCall/model/re_lu_11/Relu","op":"Relu","input":["StatefulPartitionedCall/model/add_11/add"],"attr":{"T":{"type":"DT_FLOAT"}}},
          {"name":"StatefulPartitionedCall/model/depthwise_conv2d_12/depthwise","op":"DepthwiseConv2dNative","input":["StatefulPartitionedCall/model/re_lu_11/Relu","unknown_53"],"attr":{"dilations":{"list":{"i":["1","1","1","1"]}},"T":{"type":"DT_FLOAT"},"data_format":{"s":"TkhXQw=="},"strides":{"list":{"i":["1","1","1","1"]}},"explicit_paddings":{"list":{}},"padding":{"s":"U0FNRQ=="}}},
          {"name":"StatefulPartitionedCall/model/conv2d_15/BiasAdd","op":"_FusedConv2D","input":["StatefulPartitionedCall/model/depthwise_conv2d_12/depthwise","unknown_55","unknown_56"],"device":"/device:CPU:0","attr":{"epsilon":{"f":0},"padding":{"s":"VkFMSUQ="},"fused_ops":{"list":{"s":["Qmlhc0FkZA=="]}},"dilations":{"list":{"i":["1","1","1","1"]}},"T":{"type":"DT_FLOAT"},"data_format":{"s":"TkhXQw=="},"strides":{"list":{"i":["1","1","1","1"]}},"use_cudnn_on_gpu":{"b":true},"explicit_paddings":{"list":{}},"num_args":{"i":"1"}}},
          {"name":"StatefulPartitionedCall/model/add_12/add","op":"AddV2","input":["StatefulPartitionedCall/model/re_lu_11/Relu","StatefulPartitionedCall/model/conv2d_15/BiasAdd"],"attr":{"T":{"type":"DT_FLOAT"}}},
          {"name":"StatefulPartitionedCall/model/re_lu_12/Relu","op":"Relu","input":["StatefulPartitionedCall/model/add_12/add"],"attr":{"T":{"type":"DT_FLOAT"}}},
          {"name":"StatefulPartitionedCall/model/depthwise_conv2d_13/depthwise","op":"DepthwiseConv2dNative","input":["StatefulPartitionedCall/model/re_lu_12/Relu","unknown_57"],"attr":{"dilations":{"list":{"i":["1","1","1","1"]}},"T":{"type":"DT_FLOAT"},"strides":{"list":{"i":["1","1","1","1"]}},"data_format":{"s":"TkhXQw=="},"explicit_paddings":{"list":{}},"padding":{"s":"U0FNRQ=="}}},
          {"name":"StatefulPartitionedCall/model/conv2d_16/BiasAdd","op":"_FusedConv2D","input":["StatefulPartitionedCall/model/depthwise_conv2d_13/depthwise","unknown_59","unknown_60"],"device":"/device:CPU:0","attr":{"dilations":{"list":{"i":["1","1","1","1"]}},"T":{"type":"DT_FLOAT"},"data_format":{"s":"TkhXQw=="},"strides":{"list":{"i":["1","1","1","1"]}},"use_cudnn_on_gpu":{"b":true},"explicit_paddings":{"list":{}},"num_args":{"i":"1"},"epsilon":{"f":0},"padding":{"s":"VkFMSUQ="},"fused_ops":{"list":{"s":["Qmlhc0FkZA=="]}}}},
          {"name":"StatefulPartitionedCall/model/add_13/add","op":"AddV2","input":["StatefulPartitionedCall/model/re_lu_12/Relu","StatefulPartitionedCall/model/conv2d_16/BiasAdd"],"attr":{"T":{"type":"DT_FLOAT"}}},
          {"name":"StatefulPartitionedCall/model/re_lu_13/Relu","op":"Relu","input":["StatefulPartitionedCall/model/add_13/add"],"attr":{"T":{"type":"DT_FLOAT"}}},
          {"name":"StatefulPartitionedCall/model/max_pooling2d_2/MaxPool","op":"MaxPool","input":["StatefulPartitionedCall/model/re_lu_13/Relu"],"attr":{"T":{"type":"DT_FLOAT"},"strides":{"list":{"i":["1","2","2","1"]}},"data_format":{"s":"TkhXQw=="},"ksize":{"list":{"i":["1","2","2","1"]}},"padding":{"s":"U0FNRQ=="}}},
          {"name":"StatefulPartitionedCall/model/depthwise_conv2d_14/depthwise","op":"DepthwiseConv2dNative","input":["StatefulPartitionedCall/model/re_lu_13/Relu","unknown_61"],"attr":{"dilations":{"list":{"i":["1","1","1","1"]}},"T":{"type":"DT_FLOAT"},"data_format":{"s":"TkhXQw=="},"strides":{"list":{"i":["1","2","2","1"]}},"explicit_paddings":{"list":{}},"padding":{"s":"U0FNRQ=="}}},
          {"name":"StatefulPartitionedCall/model/conv2d_18/BiasAdd","op":"_FusedConv2D","input":["StatefulPartitionedCall/model/max_pooling2d_2/MaxPool","unknown_63","unknown_64"],"device":"/device:CPU:0","attr":{"dilations":{"list":{"i":["1","1","1","1"]}},"T":{"type":"DT_FLOAT"},"strides":{"list":{"i":["1","1","1","1"]}},"data_format":{"s":"TkhXQw=="},"use_cudnn_on_gpu":{"b":true},"explicit_paddings":{"list":{}},"num_args":{"i":"1"},"epsilon":{"f":0},"padding":{"s":"VkFMSUQ="},"fused_ops":{"list":{"s":["Qmlhc0FkZA=="]}}}},
          {"name":"StatefulPartitionedCall/model/conv2d_17/BiasAdd","op":"_FusedConv2D","input":["StatefulPartitionedCall/model/depthwise_conv2d_14/depthwise","unknown_65","unknown_66"],"device":"/device:CPU:0","attr":{"dilations":{"list":{"i":["1","1","1","1"]}},"T":{"type":"DT_FLOAT"},"data_format":{"s":"TkhXQw=="},"strides":{"list":{"i":["1","1","1","1"]}},"explicit_paddings":{"list":{}},"use_cudnn_on_gpu":{"b":true},"num_args":{"i":"1"},"epsilon":{"f":0},"padding":{"s":"VkFMSUQ="},"fused_ops":{"list":{"s":["Qmlhc0FkZA=="]}}}},
          {"name":"StatefulPartitionedCall/model/add_14/add","op":"AddV2","input":["StatefulPartitionedCall/model/conv2d_18/BiasAdd","StatefulPartitionedCall/model/conv2d_17/BiasAdd"],"attr":{"T":{"type":"DT_FLOAT"}}},
          {"name":"StatefulPartitionedCall/model/re_lu_14/Relu","op":"Relu","input":["StatefulPartitionedCall/model/add_14/add"],"attr":{"T":{"type":"DT_FLOAT"}}},
          {"name":"StatefulPartitionedCall/model/depthwise_conv2d_15/depthwise","op":"DepthwiseConv2dNative","input":["StatefulPartitionedCall/model/re_lu_14/Relu","unknown_67"],"attr":{"T":{"type":"DT_FLOAT"},"data_format":{"s":"TkhXQw=="},"strides":{"list":{"i":["1","1","1","1"]}},"explicit_paddings":{"list":{}},"padding":{"s":"U0FNRQ=="},"dilations":{"list":{"i":["1","1","1","1"]}}}},
          {"name":"StatefulPartitionedCall/model/conv2d_19/BiasAdd","op":"_FusedConv2D","input":["StatefulPartitionedCall/model/depthwise_conv2d_15/depthwise","unknown_69","unknown_70"],"device":"/device:CPU:0","attr":{"dilations":{"list":{"i":["1","1","1","1"]}},"T":{"type":"DT_FLOAT"},"data_format":{"s":"TkhXQw=="},"strides":{"list":{"i":["1","1","1","1"]}},"use_cudnn_on_gpu":{"b":true},"explicit_paddings":{"list":{}},"num_args":{"i":"1"},"epsilon":{"f":0},"padding":{"s":"VkFMSUQ="},"fused_ops":{"list":{"s":["Qmlhc0FkZA=="]}}}},
          {"name":"StatefulPartitionedCall/model/add_15/add","op":"AddV2","input":["StatefulPartitionedCall/model/re_lu_14/Relu","StatefulPartitionedCall/model/conv2d_19/BiasAdd"],"attr":{"T":{"type":"DT_FLOAT"}}},
          {"name":"StatefulPartitionedCall/model/re_lu_15/Relu","op":"Relu","input":["StatefulPartitionedCall/model/add_15/add"],"attr":{"T":{"type":"DT_FLOAT"}}},
          {"name":"StatefulPartitionedCall/model/depthwise_conv2d_16/depthwise","op":"DepthwiseConv2dNative","input":["StatefulPartitionedCall/model/re_lu_15/Relu","unknown_71"],"attr":{"T":{"type":"DT_FLOAT"},"data_format":{"s":"TkhXQw=="},"strides":{"list":{"i":["1","1","1","1"]}},"explicit_paddings":{"list":{}},"padding":{"s":"U0FNRQ=="},"dilations":{"list":{"i":["1","1","1","1"]}}}},
          {"name":"StatefulPartitionedCall/model/conv2d_20/BiasAdd","op":"_FusedConv2D","input":["StatefulPartitionedCall/model/depthwise_conv2d_16/depthwise","unknown_73","unknown_74"],"device":"/device:CPU:0","attr":{"dilations":{"list":{"i":["1","1","1","1"]}},"T":{"type":"DT_FLOAT"},"data_format":{"s":"TkhXQw=="},"strides":{"list":{"i":["1","1","1","1"]}},"explicit_paddings":{"list":{}},"use_cudnn_on_gpu":{"b":true},"num_args":{"i":"1"},"epsilon":{"f":0},"padding":{"s":"VkFMSUQ="},"fused_ops":{"list":{"s":["Qmlhc0FkZA=="]}}}},
          {"name":"StatefulPartitionedCall/model/add_16/add","op":"AddV2","input":["StatefulPartitionedCall/model/re_lu_15/Relu","StatefulPartitionedCall/model/conv2d_20/BiasAdd"],"attr":{"T":{"type":"DT_FLOAT"}}},
          {"name":"StatefulPartitionedCall/model/re_lu_16/Relu","op":"Relu","input":["StatefulPartitionedCall/model/add_16/add"],"attr":{"T":{"type":"DT_FLOAT"}}},
          {"name":"StatefulPartitionedCall/model/depthwise_conv2d_17/depthwise","op":"DepthwiseConv2dNative","input":["StatefulPartitionedCall/model/re_lu_16/Relu","unknown_75"],"attr":{"padding":{"s":"U0FNRQ=="},"dilations":{"list":{"i":["1","1","1","1"]}},"T":{"type":"DT_FLOAT"},"data_format":{"s":"TkhXQw=="},"strides":{"list":{"i":["1","1","1","1"]}},"explicit_paddings":{"list":{}}}},
          {"name":"StatefulPartitionedCall/model/conv2d_21/BiasAdd","op":"_FusedConv2D","input":["StatefulPartitionedCall/model/depthwise_conv2d_17/depthwise","unknown_77","unknown_78"],"device":"/device:CPU:0","attr":{"dilations":{"list":{"i":["1","1","1","1"]}},"T":{"type":"DT_FLOAT"},"data_format":{"s":"TkhXQw=="},"strides":{"list":{"i":["1","1","1","1"]}},"use_cudnn_on_gpu":{"b":true},"explicit_paddings":{"list":{}},"num_args":{"i":"1"},"epsilon":{"f":0},"padding":{"s":"VkFMSUQ="},"fused_ops":{"list":{"s":["Qmlhc0FkZA=="]}}}},
          {"name":"StatefulPartitionedCall/model/add_17/add","op":"AddV2","input":["StatefulPartitionedCall/model/re_lu_16/Relu","StatefulPartitionedCall/model/conv2d_21/BiasAdd"],"attr":{"T":{"type":"DT_FLOAT"}}},
          {"name":"StatefulPartitionedCall/model/re_lu_17/Relu","op":"Relu","input":["StatefulPartitionedCall/model/add_17/add"],"attr":{"T":{"type":"DT_FLOAT"}}},
          {"name":"StatefulPartitionedCall/model/depthwise_conv2d_18/depthwise","op":"DepthwiseConv2dNative","input":["StatefulPartitionedCall/model/re_lu_17/Relu","unknown_79"],"attr":{"T":{"type":"DT_FLOAT"},"data_format":{"s":"TkhXQw=="},"strides":{"list":{"i":["1","1","1","1"]}},"explicit_paddings":{"list":{}},"padding":{"s":"U0FNRQ=="},"dilations":{"list":{"i":["1","1","1","1"]}}}},
          {"name":"StatefulPartitionedCall/model/conv2d_22/BiasAdd","op":"_FusedConv2D","input":["StatefulPartitionedCall/model/depthwise_conv2d_18/depthwise","unknown_81","unknown_82"],"device":"/device:CPU:0","attr":{"epsilon":{"f":0},"padding":{"s":"VkFMSUQ="},"fused_ops":{"list":{"s":["Qmlhc0FkZA=="]}},"dilations":{"list":{"i":["1","1","1","1"]}},"T":{"type":"DT_FLOAT"},"strides":{"list":{"i":["1","1","1","1"]}},"data_format":{"s":"TkhXQw=="},"explicit_paddings":{"list":{}},"use_cudnn_on_gpu":{"b":true},"num_args":{"i":"1"}}},
          {"name":"StatefulPartitionedCall/model/add_18/add","op":"AddV2","input":["StatefulPartitionedCall/model/re_lu_17/Relu","StatefulPartitionedCall/model/conv2d_22/BiasAdd"],"attr":{"T":{"type":"DT_FLOAT"}}},
          {"name":"StatefulPartitionedCall/model/re_lu_18/Relu","op":"Relu","input":["StatefulPartitionedCall/model/add_18/add"],"attr":{"T":{"type":"DT_FLOAT"}}},
          {"name":"StatefulPartitionedCall/model/depthwise_conv2d_19/depthwise","op":"DepthwiseConv2dNative","input":["StatefulPartitionedCall/model/re_lu_18/Relu","unknown_83"],"attr":{"strides":{"list":{"i":["1","1","1","1"]}},"data_format":{"s":"TkhXQw=="},"explicit_paddings":{"list":{}},"padding":{"s":"U0FNRQ=="},"dilations":{"list":{"i":["1","1","1","1"]}},"T":{"type":"DT_FLOAT"}}},
          {"name":"StatefulPartitionedCall/model/conv2d_23/BiasAdd","op":"_FusedConv2D","input":["StatefulPartitionedCall/model/depthwise_conv2d_19/depthwise","unknown_85","unknown_86"],"device":"/device:CPU:0","attr":{"T":{"type":"DT_FLOAT"},"data_format":{"s":"TkhXQw=="},"strides":{"list":{"i":["1","1","1","1"]}},"use_cudnn_on_gpu":{"b":true},"explicit_paddings":{"list":{}},"num_args":{"i":"1"},"epsilon":{"f":0},"padding":{"s":"VkFMSUQ="},"fused_ops":{"list":{"s":["Qmlhc0FkZA=="]}},"dilations":{"list":{"i":["1","1","1","1"]}}}},
          {"name":"StatefulPartitionedCall/model/add_19/add","op":"AddV2","input":["StatefulPartitionedCall/model/re_lu_18/Relu","StatefulPartitionedCall/model/conv2d_23/BiasAdd"],"attr":{"T":{"type":"DT_FLOAT"}}},
          {"name":"StatefulPartitionedCall/model/re_lu_19/Relu","op":"Relu","input":["StatefulPartitionedCall/model/add_19/add"],"attr":{"T":{"type":"DT_FLOAT"}}},
          {"name":"StatefulPartitionedCall/model/depthwise_conv2d_20/depthwise","op":"DepthwiseConv2dNative","input":["StatefulPartitionedCall/model/re_lu_19/Relu","unknown_87"],"attr":{"padding":{"s":"U0FNRQ=="},"dilations":{"list":{"i":["1","1","1","1"]}},"T":{"type":"DT_FLOAT"},"strides":{"list":{"i":["1","1","1","1"]}},"data_format":{"s":"TkhXQw=="},"explicit_paddings":{"list":{}}}},
          {"name":"StatefulPartitionedCall/model/conv2d_24/BiasAdd","op":"_FusedConv2D","input":["StatefulPartitionedCall/model/depthwise_conv2d_20/depthwise","unknown_89","unknown_90"],"device":"/device:CPU:0","attr":{"dilations":{"list":{"i":["1","1","1","1"]}},"T":{"type":"DT_FLOAT"},"data_format":{"s":"TkhXQw=="},"strides":{"list":{"i":["1","1","1","1"]}},"explicit_paddings":{"list":{}},"use_cudnn_on_gpu":{"b":true},"num_args":{"i":"1"},"epsilon":{"f":0},"padding":{"s":"VkFMSUQ="},"fused_ops":{"list":{"s":["Qmlhc0FkZA=="]}}}},
          {"name":"StatefulPartitionedCall/model/add_20/add","op":"AddV2","input":["StatefulPartitionedCall/model/re_lu_19/Relu","StatefulPartitionedCall/model/conv2d_24/BiasAdd"],"attr":{"T":{"type":"DT_FLOAT"}}},
          {"name":"StatefulPartitionedCall/model/re_lu_20/Relu","op":"Relu","input":["StatefulPartitionedCall/model/add_20/add"],"attr":{"T":{"type":"DT_FLOAT"}}},
          {"name":"StatefulPartitionedCall/model/depthwise_conv2d_21/depthwise","op":"DepthwiseConv2dNative","input":["StatefulPartitionedCall/model/re_lu_20/Relu","unknown_91"],"attr":{"padding":{"s":"U0FNRQ=="},"dilations":{"list":{"i":["1","1","1","1"]}},"T":{"type":"DT_FLOAT"},"strides":{"list":{"i":["1","1","1","1"]}},"data_format":{"s":"TkhXQw=="},"explicit_paddings":{"list":{}}}},
          {"name":"StatefulPartitionedCall/model/conv2d_25/BiasAdd","op":"_FusedConv2D","input":["StatefulPartitionedCall/model/depthwise_conv2d_21/depthwise","unknown_93","unknown_94"],"device":"/device:CPU:0","attr":{"T":{"type":"DT_FLOAT"},"strides":{"list":{"i":["1","1","1","1"]}},"data_format":{"s":"TkhXQw=="},"explicit_paddings":{"list":{}},"use_cudnn_on_gpu":{"b":true},"num_args":{"i":"1"},"epsilon":{"f":0},"padding":{"s":"VkFMSUQ="},"fused_ops":{"list":{"s":["Qmlhc0FkZA=="]}},"dilations":{"list":{"i":["1","1","1","1"]}}}},
          {"name":"StatefulPartitionedCall/model/add_21/add","op":"AddV2","input":["StatefulPartitionedCall/model/re_lu_20/Relu","StatefulPartitionedCall/model/conv2d_25/BiasAdd"],"attr":{"T":{"type":"DT_FLOAT"}}},
          {"name":"StatefulPartitionedCall/model/re_lu_21/Relu","op":"Relu","input":["StatefulPartitionedCall/model/add_21/add"],"attr":{"T":{"type":"DT_FLOAT"}}},
          {"name":"StatefulPartitionedCall/model/conv2d_34/BiasAdd","op":"_FusedConv2D","input":["StatefulPartitionedCall/model/re_lu_21/Relu","unknown_131","unknown_132"],"device":"/device:CPU:0","attr":{"epsilon":{"f":0},"padding":{"s":"U0FNRQ=="},"fused_ops":{"list":{"s":["Qmlhc0FkZA=="]}},"dilations":{"list":{"i":["1","1","1","1"]}},"T":{"type":"DT_FLOAT"},"strides":{"list":{"i":["1","1","1","1"]}},"data_format":{"s":"TkhXQw=="},"explicit_paddings":{"list":{}},"use_cudnn_on_gpu":{"b":true},"num_args":{"i":"1"}}},
          {"name":"StatefulPartitionedCall/model/conv2d_36/BiasAdd","op":"_FusedConv2D","input":["StatefulPartitionedCall/model/re_lu_21/Relu","unknown_127","unknown_128"],"device":"/device:CPU:0","attr":{"dilations":{"list":{"i":["1","1","1","1"]}},"T":{"type":"DT_FLOAT"},"data_format":{"s":"TkhXQw=="},"strides":{"list":{"i":["1","1","1","1"]}},"explicit_paddings":{"list":{}},"use_cudnn_on_gpu":{"b":true},"num_args":{"i":"1"},"epsilon":{"f":0},"padding":{"s":"U0FNRQ=="},"fused_ops":{"list":{"s":["Qmlhc0FkZA=="]}}}},
          {"name":"StatefulPartitionedCall/model/max_pooling2d_3/MaxPool","op":"MaxPool","input":["StatefulPartitionedCall/model/re_lu_21/Relu"],"attr":{"ksize":{"list":{"i":["1","2","2","1"]}},"padding":{"s":"U0FNRQ=="},"T":{"type":"DT_FLOAT"},"data_format":{"s":"TkhXQw=="},"strides":{"list":{"i":["1","2","2","1"]}}}},
          {"name":"StatefulPartitionedCall/model/depthwise_conv2d_22/depthwise","op":"DepthwiseConv2dNative","input":["StatefulPartitionedCall/model/re_lu_21/Relu","unknown_95"],"attr":{"dilations":{"list":{"i":["1","1","1","1"]}},"T":{"type":"DT_FLOAT"},"data_format":{"s":"TkhXQw=="},"strides":{"list":{"i":["1","2","2","1"]}},"explicit_paddings":{"list":{}},"padding":{"s":"U0FNRQ=="}}},
          {"name":"StatefulPartitionedCall/model/tf_op_layer_Reshape/Reshape","op":"Reshape","input":["StatefulPartitionedCall/model/conv2d_34/BiasAdd","StatefulPartitionedCall/model/tf_op_layer_Reshape/Reshape/shape"],"attr":{"_cloned":{"b":true},"T":{"type":"DT_FLOAT"},"Tshape":{"type":"DT_INT32"}}},
          {"name":"StatefulPartitionedCall/model/tf_op_layer_Reshape_2/Reshape_2","op":"Reshape","input":["StatefulPartitionedCall/model/conv2d_36/BiasAdd","StatefulPartitionedCall/model/tf_op_layer_Reshape_2/Reshape_2/shape"],"attr":{"_cloned":{"b":true},"T":{"type":"DT_FLOAT"},"Tshape":{"type":"DT_INT32"}}},
          {"name":"StatefulPartitionedCall/model/conv2d_27/BiasAdd","op":"_FusedConv2D","input":["StatefulPartitionedCall/model/max_pooling2d_3/MaxPool","unknown_97","unknown_98"],"device":"/device:CPU:0","attr":{"dilations":{"list":{"i":["1","1","1","1"]}},"T":{"type":"DT_FLOAT"},"data_format":{"s":"TkhXQw=="},"strides":{"list":{"i":["1","1","1","1"]}},"explicit_paddings":{"list":{}},"use_cudnn_on_gpu":{"b":true},"num_args":{"i":"1"},"epsilon":{"f":0},"padding":{"s":"VkFMSUQ="},"fused_ops":{"list":{"s":["Qmlhc0FkZA=="]}}}},
          {"name":"StatefulPartitionedCall/model/conv2d_26/BiasAdd","op":"_FusedConv2D","input":["StatefulPartitionedCall/model/depthwise_conv2d_22/depthwise","unknown_99","unknown_100"],"device":"/device:CPU:0","attr":{"epsilon":{"f":0},"padding":{"s":"VkFMSUQ="},"fused_ops":{"list":{"s":["Qmlhc0FkZA=="]}},"dilations":{"list":{"i":["1","1","1","1"]}},"T":{"type":"DT_FLOAT"},"data_format":{"s":"TkhXQw=="},"strides":{"list":{"i":["1","1","1","1"]}},"use_cudnn_on_gpu":{"b":true},"explicit_paddings":{"list":{}},"num_args":{"i":"1"}}},
          {"name":"StatefulPartitionedCall/model/add_22/add","op":"AddV2","input":["StatefulPartitionedCall/model/conv2d_27/BiasAdd","StatefulPartitionedCall/model/conv2d_26/BiasAdd"],"attr":{"T":{"type":"DT_FLOAT"}}},
          {"name":"StatefulPartitionedCall/model/re_lu_22/Relu","op":"Relu","input":["StatefulPartitionedCall/model/add_22/add"],"attr":{"T":{"type":"DT_FLOAT"}}},
          {"name":"StatefulPartitionedCall/model/depthwise_conv2d_23/depthwise","op":"DepthwiseConv2dNative","input":["StatefulPartitionedCall/model/re_lu_22/Relu","unknown_101"],"attr":{"data_format":{"s":"TkhXQw=="},"strides":{"list":{"i":["1","1","1","1"]}},"explicit_paddings":{"list":{}},"padding":{"s":"U0FNRQ=="},"dilations":{"list":{"i":["1","1","1","1"]}},"T":{"type":"DT_FLOAT"}}},
          {"name":"StatefulPartitionedCall/model/conv2d_28/BiasAdd","op":"_FusedConv2D","input":["StatefulPartitionedCall/model/depthwise_conv2d_23/depthwise","unknown_103","unknown_104"],"device":"/device:CPU:0","attr":{"num_args":{"i":"1"},"epsilon":{"f":0},"padding":{"s":"VkFMSUQ="},"fused_ops":{"list":{"s":["Qmlhc0FkZA=="]}},"dilations":{"list":{"i":["1","1","1","1"]}},"T":{"type":"DT_FLOAT"},"strides":{"list":{"i":["1","1","1","1"]}},"data_format":{"s":"TkhXQw=="},"use_cudnn_on_gpu":{"b":true},"explicit_paddings":{"list":{}}}},
          {"name":"StatefulPartitionedCall/model/add_23/add","op":"AddV2","input":["StatefulPartitionedCall/model/re_lu_22/Relu","StatefulPartitionedCall/model/conv2d_28/BiasAdd"],"attr":{"T":{"type":"DT_FLOAT"}}},
          {"name":"StatefulPartitionedCall/model/re_lu_23/Relu","op":"Relu","input":["StatefulPartitionedCall/model/add_23/add"],"attr":{"T":{"type":"DT_FLOAT"}}},
          {"name":"StatefulPartitionedCall/model/depthwise_conv2d_24/depthwise","op":"DepthwiseConv2dNative","input":["StatefulPartitionedCall/model/re_lu_23/Relu","unknown_105"],"attr":{"dilations":{"list":{"i":["1","1","1","1"]}},"T":{"type":"DT_FLOAT"},"data_format":{"s":"TkhXQw=="},"strides":{"list":{"i":["1","1","1","1"]}},"explicit_paddings":{"list":{}},"padding":{"s":"U0FNRQ=="}}},
          {"name":"StatefulPartitionedCall/model/conv2d_29/BiasAdd","op":"_FusedConv2D","input":["StatefulPartitionedCall/model/depthwise_conv2d_24/depthwise","unknown_107","unknown_108"],"device":"/device:CPU:0","attr":{"dilations":{"list":{"i":["1","1","1","1"]}},"T":{"type":"DT_FLOAT"},"strides":{"list":{"i":["1","1","1","1"]}},"data_format":{"s":"TkhXQw=="},"explicit_paddings":{"list":{}},"use_cudnn_on_gpu":{"b":true},"num_args":{"i":"1"},"epsilon":{"f":0},"padding":{"s":"VkFMSUQ="},"fused_ops":{"list":{"s":["Qmlhc0FkZA=="]}}}},
          {"name":"StatefulPartitionedCall/model/add_24/add","op":"AddV2","input":["StatefulPartitionedCall/model/re_lu_23/Relu","StatefulPartitionedCall/model/conv2d_29/BiasAdd"],"attr":{"T":{"type":"DT_FLOAT"}}},
          {"name":"StatefulPartitionedCall/model/re_lu_24/Relu","op":"Relu","input":["StatefulPartitionedCall/model/add_24/add"],"attr":{"T":{"type":"DT_FLOAT"}}},
          {"name":"StatefulPartitionedCall/model/depthwise_conv2d_25/depthwise","op":"DepthwiseConv2dNative","input":["StatefulPartitionedCall/model/re_lu_24/Relu","unknown_109"],"attr":{"dilations":{"list":{"i":["1","1","1","1"]}},"T":{"type":"DT_FLOAT"},"data_format":{"s":"TkhXQw=="},"strides":{"list":{"i":["1","1","1","1"]}},"explicit_paddings":{"list":{}},"padding":{"s":"U0FNRQ=="}}},
          {"name":"StatefulPartitionedCall/model/conv2d_30/BiasAdd","op":"_FusedConv2D","input":["StatefulPartitionedCall/model/depthwise_conv2d_25/depthwise","unknown_111","unknown_112"],"device":"/device:CPU:0","attr":{"fused_ops":{"list":{"s":["Qmlhc0FkZA=="]}},"dilations":{"list":{"i":["1","1","1","1"]}},"T":{"type":"DT_FLOAT"},"data_format":{"s":"TkhXQw=="},"strides":{"list":{"i":["1","1","1","1"]}},"explicit_paddings":{"list":{}},"use_cudnn_on_gpu":{"b":true},"num_args":{"i":"1"},"epsilon":{"f":0},"padding":{"s":"VkFMSUQ="}}},
          {"name":"StatefulPartitionedCall/model/add_25/add","op":"AddV2","input":["StatefulPartitionedCall/model/re_lu_24/Relu","StatefulPartitionedCall/model/conv2d_30/BiasAdd"],"attr":{"T":{"type":"DT_FLOAT"}}},
          {"name":"StatefulPartitionedCall/model/re_lu_25/Relu","op":"Relu","input":["StatefulPartitionedCall/model/add_25/add"],"attr":{"T":{"type":"DT_FLOAT"}}},
          {"name":"StatefulPartitionedCall/model/depthwise_conv2d_26/depthwise","op":"DepthwiseConv2dNative","input":["StatefulPartitionedCall/model/re_lu_25/Relu","unknown_113"],"attr":{"padding":{"s":"U0FNRQ=="},"dilations":{"list":{"i":["1","1","1","1"]}},"T":{"type":"DT_FLOAT"},"data_format":{"s":"TkhXQw=="},"strides":{"list":{"i":["1","1","1","1"]}},"explicit_paddings":{"list":{}}}},
          {"name":"StatefulPartitionedCall/model/conv2d_31/BiasAdd","op":"_FusedConv2D","input":["StatefulPartitionedCall/model/depthwise_conv2d_26/depthwise","unknown_115","unknown_116"],"device":"/device:CPU:0","attr":{"dilations":{"list":{"i":["1","1","1","1"]}},"T":{"type":"DT_FLOAT"},"strides":{"list":{"i":["1","1","1","1"]}},"data_format":{"s":"TkhXQw=="},"explicit_paddings":{"list":{}},"use_cudnn_on_gpu":{"b":true},"num_args":{"i":"1"},"epsilon":{"f":0},"padding":{"s":"VkFMSUQ="},"fused_ops":{"list":{"s":["Qmlhc0FkZA=="]}}}},
          {"name":"StatefulPartitionedCall/model/add_26/add","op":"AddV2","input":["StatefulPartitionedCall/model/re_lu_25/Relu","StatefulPartitionedCall/model/conv2d_31/BiasAdd"],"attr":{"T":{"type":"DT_FLOAT"}}},
          {"name":"StatefulPartitionedCall/model/re_lu_26/Relu","op":"Relu","input":["StatefulPartitionedCall/model/add_26/add"],"attr":{"T":{"type":"DT_FLOAT"}}},
          {"name":"StatefulPartitionedCall/model/depthwise_conv2d_27/depthwise","op":"DepthwiseConv2dNative","input":["StatefulPartitionedCall/model/re_lu_26/Relu","unknown_117"],"attr":{"dilations":{"list":{"i":["1","1","1","1"]}},"T":{"type":"DT_FLOAT"},"strides":{"list":{"i":["1","1","1","1"]}},"data_format":{"s":"TkhXQw=="},"explicit_paddings":{"list":{}},"padding":{"s":"U0FNRQ=="}}},
          {"name":"StatefulPartitionedCall/model/conv2d_32/BiasAdd","op":"_FusedConv2D","input":["StatefulPartitionedCall/model/depthwise_conv2d_27/depthwise","unknown_119","unknown_120"],"device":"/device:CPU:0","attr":{"T":{"type":"DT_FLOAT"},"strides":{"list":{"i":["1","1","1","1"]}},"data_format":{"s":"TkhXQw=="},"explicit_paddings":{"list":{}},"use_cudnn_on_gpu":{"b":true},"num_args":{"i":"1"},"epsilon":{"f":0},"padding":{"s":"VkFMSUQ="},"fused_ops":{"list":{"s":["Qmlhc0FkZA=="]}},"dilations":{"list":{"i":["1","1","1","1"]}}}},
          {"name":"StatefulPartitionedCall/model/add_27/add","op":"AddV2","input":["StatefulPartitionedCall/model/re_lu_26/Relu","StatefulPartitionedCall/model/conv2d_32/BiasAdd"],"attr":{"T":{"type":"DT_FLOAT"}}},
          {"name":"StatefulPartitionedCall/model/re_lu_27/Relu","op":"Relu","input":["StatefulPartitionedCall/model/add_27/add"],"attr":{"T":{"type":"DT_FLOAT"}}},
          {"name":"StatefulPartitionedCall/model/depthwise_conv2d_28/depthwise","op":"DepthwiseConv2dNative","input":["StatefulPartitionedCall/model/re_lu_27/Relu","unknown_121"],"attr":{"dilations":{"list":{"i":["1","1","1","1"]}},"T":{"type":"DT_FLOAT"},"data_format":{"s":"TkhXQw=="},"strides":{"list":{"i":["1","1","1","1"]}},"explicit_paddings":{"list":{}},"padding":{"s":"U0FNRQ=="}}},
          {"name":"StatefulPartitionedCall/model/conv2d_33/BiasAdd","op":"_FusedConv2D","input":["StatefulPartitionedCall/model/depthwise_conv2d_28/depthwise","unknown_123","unknown_124"],"device":"/device:CPU:0","attr":{"dilations":{"list":{"i":["1","1","1","1"]}},"T":{"type":"DT_FLOAT"},"data_format":{"s":"TkhXQw=="},"strides":{"list":{"i":["1","1","1","1"]}},"explicit_paddings":{"list":{}},"use_cudnn_on_gpu":{"b":true},"num_args":{"i":"1"},"epsilon":{"f":0},"padding":{"s":"VkFMSUQ="},"fused_ops":{"list":{"s":["Qmlhc0FkZA=="]}}}},
          {"name":"StatefulPartitionedCall/model/add_28/add","op":"AddV2","input":["StatefulPartitionedCall/model/re_lu_27/Relu","StatefulPartitionedCall/model/conv2d_33/BiasAdd"],"attr":{"T":{"type":"DT_FLOAT"}}},
          {"name":"StatefulPartitionedCall/model/re_lu_28/Relu","op":"Relu","input":["StatefulPartitionedCall/model/add_28/add"],"attr":{"T":{"type":"DT_FLOAT"}}},
          {"name":"StatefulPartitionedCall/model/conv2d_37/BiasAdd","op":"_FusedConv2D","input":["StatefulPartitionedCall/model/re_lu_28/Relu","unknown_125","unknown_126"],"device":"/device:CPU:0","attr":{"T":{"type":"DT_FLOAT"},"strides":{"list":{"i":["1","1","1","1"]}},"data_format":{"s":"TkhXQw=="},"explicit_paddings":{"list":{}},"use_cudnn_on_gpu":{"b":true},"num_args":{"i":"1"},"epsilon":{"f":0},"padding":{"s":"U0FNRQ=="},"fused_ops":{"list":{"s":["Qmlhc0FkZA=="]}},"dilations":{"list":{"i":["1","1","1","1"]}}}},
          {"name":"StatefulPartitionedCall/model/conv2d_35/BiasAdd","op":"_FusedConv2D","input":["StatefulPartitionedCall/model/re_lu_28/Relu","unknown_129","unknown_130"],"device":"/device:CPU:0","attr":{"dilations":{"list":{"i":["1","1","1","1"]}},"T":{"type":"DT_FLOAT"},"strides":{"list":{"i":["1","1","1","1"]}},"data_format":{"s":"TkhXQw=="},"use_cudnn_on_gpu":{"b":true},"explicit_paddings":{"list":{}},"num_args":{"i":"1"},"epsilon":{"f":0},"padding":{"s":"U0FNRQ=="},"fused_ops":{"list":{"s":["Qmlhc0FkZA=="]}}}},
          {"name":"StatefulPartitionedCall/model/tf_op_layer_Reshape_3/Reshape_3","op":"Reshape","input":["StatefulPartitionedCall/model/conv2d_37/BiasAdd","StatefulPartitionedCall/model/tf_op_layer_Reshape_3/Reshape_3/shape"],"attr":{"T":{"type":"DT_FLOAT"},"Tshape":{"type":"DT_INT32"},"_cloned":{"b":true}}},
          {"name":"StatefulPartitionedCall/model/tf_op_layer_Reshape_1/Reshape_1","op":"Reshape","input":["StatefulPartitionedCall/model/conv2d_35/BiasAdd","StatefulPartitionedCall/model/tf_op_layer_Reshape_1/Reshape_1/shape"],"attr":{"T":{"type":"DT_FLOAT"},"Tshape":{"type":"DT_INT32"},"_cloned":{"b":true}}},
          {"name":"StatefulPartitionedCall/model/regressors/concat","op":"ConcatV2","input":["StatefulPartitionedCall/model/tf_op_layer_Reshape_2/Reshape_2","StatefulPartitionedCall/model/tf_op_layer_Reshape_3/Reshape_3","StatefulPartitionedCall/model/regressors/concat/axis"],"attr":{"Tidx":{"type":"DT_INT32"},"T":{"type":"DT_FLOAT"},"N":{"i":"2"}}},
          {"name":"StatefulPartitionedCall/model/classificators/concat","op":"ConcatV2","input":["StatefulPartitionedCall/model/tf_op_layer_Reshape/Reshape","StatefulPartitionedCall/model/tf_op_layer_Reshape_1/Reshape_1","StatefulPartitionedCall/model/classificators/concat/axis"],"attr":{"T":{"type":"DT_FLOAT"},"N":{"i":"2"},"Tidx":{"type":"DT_INT32"}}},
          {"name":"Identity_1","op":"Identity","input":["StatefulPartitionedCall/model/regressors/concat"],"attr":{"T":{"type":"DT_FLOAT"}}},
          {"name":"Identity","op":"Identity","input":["StatefulPartitionedCall/model/classificators/concat"],"attr":{"T":{"type":"DT_FLOAT"}}}
      ],
      "versions":
      {
          "producer": 440
      }
  },
  "weightsManifest":
  [
      {
          "paths": ["blazepose.bin"],
          "weights": [{"name":"unknown_131","shape":[1,1,128,2],"dtype":"float32"},{"name":"unknown_132","shape":[2],"dtype":"float32"},{"name":"StatefulPartitionedCall/model/tf_op_layer_Reshape/Reshape/shape","shape":[3],"dtype":"int32"},{"name":"unknown_129","shape":[1,1,256,6],"dtype":"float32"},{"name":"unknown_130","shape":[6],"dtype":"float32"},{"name":"StatefulPartitionedCall/model/tf_op_layer_Reshape_1/Reshape_1/shape","shape":[3],"dtype":"int32"},{"name":"StatefulPartitionedCall/model/classificators/concat/axis","shape":[],"dtype":"int32"},{"name":"unknown_127","shape":[1,1,128,24],"dtype":"float32"},{"name":"unknown_128","shape":[24],"dtype":"float32"},{"name":"StatefulPartitionedCall/model/tf_op_layer_Reshape_2/Reshape_2/shape","shape":[3],"dtype":"int32"},{"name":"unknown_97","shape":[1,1,128,256],"dtype":"float32"},{"name":"unknown_98","shape":[256],"dtype":"float32"},{"name":"unknown_63","shape":[1,1,96,128],"dtype":"float32"},{"name":"unknown_64","shape":[128],"dtype":"float32"},{"name":"unknown_33","shape":[1,1,64,96],"dtype":"float32"},{"name":"unknown_34","shape":[96],"dtype":"float32"},{"name":"unknown_15","shape":[1,1,48,64],"dtype":"float32"},{"name":"unknown_16","shape":[64],"dtype":"float32"},{"name":"unknown","shape":[5,5,3,48],"dtype":"float32"},{"name":"unknown_0","shape":[48],"dtype":"float32"},{"name":"unknown_1","shape":[5,5,48,1],"dtype":"float32"},{"name":"unknown_3","shape":[1,1,48,48],"dtype":"float32"},{"name":"unknown_4","shape":[48],"dtype":"float32"},{"name":"unknown_5","shape":[5,5,48,1],"dtype":"float32"},{"name":"unknown_7","shape":[1,1,48,48],"dtype":"float32"},{"name":"unknown_8","shape":[48],"dtype":"float32"},{"name":"unknown_9","shape":[5,5,48,1],"dtype":"float32"},{"name":"unknown_11","shape":[1,1,48,48],"dtype":"float32"},{"name":"unknown_12","shape":[48],"dtype":"float32"},{"name":"unknown_13","shape":[5,5,48,1],"dtype":"float32"},{"name":"unknown_17","shape":[1,1,48,64],"dtype":"float32"},{"name":"unknown_18","shape":[64],"dtype":"float32"},{"name":"unknown_19","shape":[5,5,64,1],"dtype":"float32"},{"name":"unknown_21","shape":[1,1,64,64],"dtype":"float32"},{"name":"unknown_22","shape":[64],"dtype":"float32"},{"name":"unknown_23","shape":[5,5,64,1],"dtype":"float32"},{"name":"unknown_25","shape":[1,1,64,64],"dtype":"float32"},{"name":"unknown_26","shape":[64],"dtype":"float32"},{"name":"unknown_27","shape":[5,5,64,1],"dtype":"float32"},{"name":"unknown_29","shape":[1,1,64,64],"dtype":"float32"},{"name":"unknown_30","shape":[64],"dtype":"float32"},{"name":"unknown_31","shape":[5,5,64,1],"dtype":"float32"},{"name":"unknown_35","shape":[1,1,64,96],"dtype":"float32"},{"name":"unknown_36","shape":[96],"dtype":"float32"},{"name":"unknown_37","shape":[5,5,96,1],"dtype":"float32"},{"name":"unknown_39","shape":[1,1,96,96],"dtype":"float32"},{"name":"unknown_40","shape":[96],"dtype":"float32"},{"name":"unknown_41","shape":[5,5,96,1],"dtype":"float32"},{"name":"unknown_43","shape":[1,1,96,96],"dtype":"float32"},{"name":"unknown_44","shape":[96],"dtype":"float32"},{"name":"unknown_45","shape":[5,5,96,1],"dtype":"float32"},{"name":"unknown_47","shape":[1,1,96,96],"dtype":"float32"},{"name":"unknown_48","shape":[96],"dtype":"float32"},{"name":"unknown_49","shape":[5,5,96,1],"dtype":"float32"},{"name":"unknown_51","shape":[1,1,96,96],"dtype":"float32"},{"name":"unknown_52","shape":[96],"dtype":"float32"},{"name":"unknown_53","shape":[5,5,96,1],"dtype":"float32"},{"name":"unknown_55","shape":[1,1,96,96],"dtype":"float32"},{"name":"unknown_56","shape":[96],"dtype":"float32"},{"name":"unknown_57","shape":[5,5,96,1],"dtype":"float32"},{"name":"unknown_59","shape":[1,1,96,96],"dtype":"float32"},{"name":"unknown_60","shape":[96],"dtype":"float32"},{"name":"unknown_61","shape":[5,5,96,1],"dtype":"float32"},{"name":"unknown_65","shape":[1,1,96,128],"dtype":"float32"},{"name":"unknown_66","shape":[128],"dtype":"float32"},{"name":"unknown_67","shape":[5,5,128,1],"dtype":"float32"},{"name":"unknown_69","shape":[1,1,128,128],"dtype":"float32"},{"name":"unknown_70","shape":[128],"dtype":"float32"},{"name":"unknown_71","shape":[5,5,128,1],"dtype":"float32"},{"name":"unknown_73","shape":[1,1,128,128],"dtype":"float32"},{"name":"unknown_74","shape":[128],"dtype":"float32"},{"name":"unknown_75","shape":[5,5,128,1],"dtype":"float32"},{"name":"unknown_77","shape":[1,1,128,128],"dtype":"float32"},{"name":"unknown_78","shape":[128],"dtype":"float32"},{"name":"unknown_79","shape":[5,5,128,1],"dtype":"float32"},{"name":"unknown_81","shape":[1,1,128,128],"dtype":"float32"},{"name":"unknown_82","shape":[128],"dtype":"float32"},{"name":"unknown_83","shape":[5,5,128,1],"dtype":"float32"},{"name":"unknown_85","shape":[1,1,128,128],"dtype":"float32"},{"name":"unknown_86","shape":[128],"dtype":"float32"},{"name":"unknown_87","shape":[5,5,128,1],"dtype":"float32"},{"name":"unknown_89","shape":[1,1,128,128],"dtype":"float32"},{"name":"unknown_90","shape":[128],"dtype":"float32"},{"name":"unknown_91","shape":[5,5,128,1],"dtype":"float32"},{"name":"unknown_93","shape":[1,1,128,128],"dtype":"float32"},{"name":"unknown_94","shape":[128],"dtype":"float32"},{"name":"unknown_95","shape":[5,5,128,1],"dtype":"float32"},{"name":"unknown_99","shape":[1,1,128,256],"dtype":"float32"},{"name":"unknown_100","shape":[256],"dtype":"float32"},{"name":"unknown_101","shape":[5,5,256,1],"dtype":"float32"},{"name":"unknown_103","shape":[1,1,256,256],"dtype":"float32"},{"name":"unknown_104","shape":[256],"dtype":"float32"},{"name":"unknown_105","shape":[5,5,256,1],"dtype":"float32"},{"name":"unknown_107","shape":[1,1,256,256],"dtype":"float32"},{"name":"unknown_108","shape":[256],"dtype":"float32"},{"name":"unknown_109","shape":[5,5,256,1],"dtype":"float32"},{"name":"unknown_111","shape":[1,1,256,256],"dtype":"float32"},{"name":"unknown_112","shape":[256],"dtype":"float32"},{"name":"unknown_113","shape":[5,5,256,1],"dtype":"float32"},{"name":"unknown_115","shape":[1,1,256,256],"dtype":"float32"},{"name":"unknown_116","shape":[256],"dtype":"float32"},{"name":"unknown_117","shape":[5,5,256,1],"dtype":"float32"},{"name":"unknown_119","shape":[1,1,256,256],"dtype":"float32"},{"name":"unknown_120","shape":[256],"dtype":"float32"},{"name":"unknown_121","shape":[5,5,256,1],"dtype":"float32"},{"name":"unknown_123","shape":[1,1,256,256],"dtype":"float32"},{"name":"unknown_124","shape":[256],"dtype":"float32"},{"name":"unknown_125","shape":[1,1,256,72],"dtype":"float32"},{"name":"unknown_126","shape":[72],"dtype":"float32"},{"name":"StatefulPartitionedCall/model/tf_op_layer_Reshape_3/Reshape_3/shape","shape":[3],"dtype":"int32"},{"name":"StatefulPartitionedCall/model/regressors/concat/axis","shape":[],"dtype":"int32"}]
      }
  ]
}