{
  "format": "graph-model",
  "generatedBy": "2.3.0",
  "convertedBy": "TensorFlow.js Converter v2.3.0",
  "userDefinedMetadata":
  {
      "signature":
      {
          "inputs": {"input:0":{"name":"input:0","dtype":"DT_FLOAT","tensorShape":{"dim":[{"size":"-1"},{"size":"256"},{"size":"256"},{"size":"3"}]}}},
          "outputs": {"Identity_1:0":{"name":"Identity_1:0","dtype":"DT_FLOAT","tensorShape":{"dim":[{"size":"-1"},{"size":"1"},{"size":"1"},{"size":"1"}]}},"Identity_2:0":{"name":"Identity_2:0","dtype":"DT_FLOAT","tensorShape":{"dim":[{"size":"1"},{"size":"156"}]}},"Identity:0":{"name":"Identity:0","dtype":"DT_FLOAT","tensorShape":{"dim":[{"size":"-1"},{"size":"128"},{"size":"128"},{"size":"1"}]}}}
      }
  },
  "modelTopology":
  {
      "node":
      [
          {"name":"unknown_257","op":"Const","attr":{"value":{"tensor":{"dtype":"DT_FLOAT","tensorShape":{"dim":[{"size":"3"},{"size":"3"},{"size":"48"},{"size":"1"}]}}},"dtype":{"type":"DT_FLOAT"}}},
          {"name":"unknown_263","op":"Const","attr":{"value":{"tensor":{"dtype":"DT_FLOAT","tensorShape":{"dim":[{"size":"1"},{"size":"1"},{"size":"48"},{"size":"8"}]}}},"dtype":{"type":"DT_FLOAT"}}},
          {"name":"unknown_264","op":"Const","attr":{"value":{"tensor":{"dtype":"DT_FLOAT","tensorShape":{"dim":[{"size":"8"}]}}},"dtype":{"type":"DT_FLOAT"}}},
          {"name":"StatefulPartitionedCall/functional_1/tf_op_layer_ResizeBilinear_3/ResizeBilinear_3/size","op":"Const","attr":{"value":{"tensor":{"dtype":"DT_INT32","tensorShape":{"dim":[{"size":"2"}]}}},"dtype":{"type":"DT_INT32"}}},
          {"name":"unknown_261","op":"Const","attr":{"value":{"tensor":{"dtype":"DT_FLOAT","tensorShape":{"dim":[{"size":"3"},{"size":"3"},{"size":"24"},{"size":"1"}]}}},"dtype":{"type":"DT_FLOAT"}}},
          {"name":"unknown_267","op":"Const","attr":{"value":{"tensor":{"dtype":"DT_FLOAT","tensorShape":{"dim":[{"size":"1"},{"size":"1"},{"size":"24"},{"size":"8"}]}}},"dtype":{"type":"DT_FLOAT"}}},
          {"name":"unknown_268","op":"Const","attr":{"value":{"tensor":{"dtype":"DT_FLOAT","tensorShape":{"dim":[{"size":"8"}]}}},"dtype":{"type":"DT_FLOAT"}}},
          {"name":"unknown_269","op":"Const","attr":{"value":{"tensor":{"dtype":"DT_FLOAT","tensorShape":{"dim":[{"size":"3"},{"size":"3"},{"size":"8"},{"size":"1"}]}}},"dtype":{"type":"DT_FLOAT"}}},
          {"name":"unknown_275","op":"Const","attr":{"dtype":{"type":"DT_FLOAT"},"value":{"tensor":{"dtype":"DT_FLOAT","tensorShape":{"dim":[{"size":"1"},{"size":"1"},{"size":"8"},{"size":"8"}]}}}}},
          {"name":"unknown_276","op":"Const","attr":{"value":{"tensor":{"dtype":"DT_FLOAT","tensorShape":{"dim":[{"size":"8"}]}}},"dtype":{"type":"DT_FLOAT"}}},
          {"name":"unknown_277","op":"Const","attr":{"value":{"tensor":{"dtype":"DT_FLOAT","tensorShape":{"dim":[{"size":"3"},{"size":"3"},{"size":"8"},{"size":"1"}]}}},"dtype":{"type":"DT_FLOAT"}}},
          {"name":"unknown_278","op":"Const","attr":{"dtype":{"type":"DT_FLOAT"},"value":{"tensor":{"dtype":"DT_FLOAT","tensorShape":{"dim":[{"size":"1"}]}}}}},
          {"name":"unknown_273","op":"Const","attr":{"value":{"tensor":{"dtype":"DT_FLOAT","tensorShape":{"dim":[{"size":"2"},{"size":"2"},{"size":"288"},{"size":"1"}]}}},"dtype":{"type":"DT_FLOAT"}}},
          {"name":"unknown_274","op":"Const","attr":{"dtype":{"type":"DT_FLOAT"},"value":{"tensor":{"dtype":"DT_FLOAT","tensorShape":{"dim":[{"size":"1"}]}}}}},
          {"name":"unknown_259","op":"Const","attr":{"value":{"tensor":{"dtype":"DT_FLOAT","tensorShape":{"dim":[{"size":"3"},{"size":"3"},{"size":"288"},{"size":"1"}]}}},"dtype":{"type":"DT_FLOAT"}}},
          {"name":"unknown_265","op":"Const","attr":{"value":{"tensor":{"dtype":"DT_FLOAT","tensorShape":{"dim":[{"size":"1"},{"size":"1"},{"size":"288"},{"size":"288"}]}}},"dtype":{"type":"DT_FLOAT"}}},
          {"name":"unknown_266","op":"Const","attr":{"value":{"tensor":{"dtype":"DT_FLOAT","tensorShape":{"dim":[{"size":"288"}]}}},"dtype":{"type":"DT_FLOAT"}}},
          {"name":"unknown_253","op":"Const","attr":{"dtype":{"type":"DT_FLOAT"},"value":{"tensor":{"dtype":"DT_FLOAT","tensorShape":{"dim":[{"size":"3"},{"size":"3"},{"size":"288"},{"size":"1"}]}}}}},
          {"name":"unknown_255","op":"Const","attr":{"dtype":{"type":"DT_FLOAT"},"value":{"tensor":{"dtype":"DT_FLOAT","tensorShape":{"dim":[{"size":"1"},{"size":"1"},{"size":"288"},{"size":"288"}]}}}}},
          {"name":"unknown_256","op":"Const","attr":{"value":{"tensor":{"dtype":"DT_FLOAT","tensorShape":{"dim":[{"size":"288"}]}}},"dtype":{"type":"DT_FLOAT"}}},
          {"name":"unknown_249","op":"Const","attr":{"value":{"tensor":{"dtype":"DT_FLOAT","tensorShape":{"dim":[{"size":"3"},{"size":"3"},{"size":"288"},{"size":"1"}]}}},"dtype":{"type":"DT_FLOAT"}}},
          {"name":"unknown_251","op":"Const","attr":{"dtype":{"type":"DT_FLOAT"},"value":{"tensor":{"dtype":"DT_FLOAT","tensorShape":{"dim":[{"size":"1"},{"size":"1"},{"size":"288"},{"size":"288"}]}}}}},
          {"name":"unknown_252","op":"Const","attr":{"value":{"tensor":{"dtype":"DT_FLOAT","tensorShape":{"dim":[{"size":"288"}]}}},"dtype":{"type":"DT_FLOAT"}}},
          {"name":"unknown_245","op":"Const","attr":{"value":{"tensor":{"dtype":"DT_FLOAT","tensorShape":{"dim":[{"size":"3"},{"size":"3"},{"size":"288"},{"size":"1"}]}}},"dtype":{"type":"DT_FLOAT"}}},
          {"name":"unknown_247","op":"Const","attr":{"value":{"tensor":{"dtype":"DT_FLOAT","tensorShape":{"dim":[{"size":"1"},{"size":"1"},{"size":"288"},{"size":"288"}]}}},"dtype":{"type":"DT_FLOAT"}}},
          {"name":"unknown_248","op":"Const","attr":{"value":{"tensor":{"dtype":"DT_FLOAT","tensorShape":{"dim":[{"size":"288"}]}}},"dtype":{"type":"DT_FLOAT"}}},
          {"name":"unknown_241","op":"Const","attr":{"dtype":{"type":"DT_FLOAT"},"value":{"tensor":{"dtype":"DT_FLOAT","tensorShape":{"dim":[{"size":"3"},{"size":"3"},{"size":"288"},{"size":"1"}]}}}}},
          {"name":"unknown_243","op":"Const","attr":{"value":{"tensor":{"dtype":"DT_FLOAT","tensorShape":{"dim":[{"size":"1"},{"size":"1"},{"size":"288"},{"size":"288"}]}}},"dtype":{"type":"DT_FLOAT"}}},
          {"name":"unknown_244","op":"Const","attr":{"value":{"tensor":{"dtype":"DT_FLOAT","tensorShape":{"dim":[{"size":"288"}]}}},"dtype":{"type":"DT_FLOAT"}}},
          {"name":"unknown_237","op":"Const","attr":{"value":{"tensor":{"dtype":"DT_FLOAT","tensorShape":{"dim":[{"size":"3"},{"size":"3"},{"size":"288"},{"size":"1"}]}}},"dtype":{"type":"DT_FLOAT"}}},
          {"name":"unknown_239","op":"Const","attr":{"dtype":{"type":"DT_FLOAT"},"value":{"tensor":{"dtype":"DT_FLOAT","tensorShape":{"dim":[{"size":"1"},{"size":"1"},{"size":"288"},{"size":"288"}]}}}}},
          {"name":"unknown_240","op":"Const","attr":{"value":{"tensor":{"dtype":"DT_FLOAT","tensorShape":{"dim":[{"size":"288"}]}}},"dtype":{"type":"DT_FLOAT"}}},
          {"name":"unknown_233","op":"Const","attr":{"value":{"tensor":{"dtype":"DT_FLOAT","tensorShape":{"dim":[{"size":"3"},{"size":"3"},{"size":"288"},{"size":"1"}]}}},"dtype":{"type":"DT_FLOAT"}}},
          {"name":"unknown_235","op":"Const","attr":{"value":{"tensor":{"dtype":"DT_FLOAT","tensorShape":{"dim":[{"size":"1"},{"size":"1"},{"size":"288"},{"size":"288"}]}}},"dtype":{"type":"DT_FLOAT"}}},
          {"name":"unknown_236","op":"Const","attr":{"dtype":{"type":"DT_FLOAT"},"value":{"tensor":{"dtype":"DT_FLOAT","tensorShape":{"dim":[{"size":"288"}]}}}}},
          {"name":"unknown_229","op":"Const","attr":{"value":{"tensor":{"dtype":"DT_FLOAT","tensorShape":{"dim":[{"size":"3"},{"size":"3"},{"size":"288"},{"size":"1"}]}}},"dtype":{"type":"DT_FLOAT"}}},
          {"name":"unknown_231","op":"Const","attr":{"value":{"tensor":{"dtype":"DT_FLOAT","tensorShape":{"dim":[{"size":"1"},{"size":"1"},{"size":"288"},{"size":"288"}]}}},"dtype":{"type":"DT_FLOAT"}}},
          {"name":"unknown_232","op":"Const","attr":{"value":{"tensor":{"dtype":"DT_FLOAT","tensorShape":{"dim":[{"size":"288"}]}}},"dtype":{"type":"DT_FLOAT"}}},
          {"name":"unknown_225","op":"Const","attr":{"value":{"tensor":{"dtype":"DT_FLOAT","tensorShape":{"dim":[{"size":"3"},{"size":"3"},{"size":"288"},{"size":"1"}]}}},"dtype":{"type":"DT_FLOAT"}}},
          {"name":"unknown_227","op":"Const","attr":{"value":{"tensor":{"dtype":"DT_FLOAT","tensorShape":{"dim":[{"size":"1"},{"size":"1"},{"size":"288"},{"size":"288"}]}}},"dtype":{"type":"DT_FLOAT"}}},
          {"name":"unknown_228","op":"Const","attr":{"value":{"tensor":{"dtype":"DT_FLOAT","tensorShape":{"dim":[{"size":"288"}]}}},"dtype":{"type":"DT_FLOAT"}}},
          {"name":"unknown_221","op":"Const","attr":{"dtype":{"type":"DT_FLOAT"},"value":{"tensor":{"dtype":"DT_FLOAT","tensorShape":{"dim":[{"size":"3"},{"size":"3"},{"size":"288"},{"size":"1"}]}}}}},
          {"name":"unknown_223","op":"Const","attr":{"dtype":{"type":"DT_FLOAT"},"value":{"tensor":{"dtype":"DT_FLOAT","tensorShape":{"dim":[{"size":"1"},{"size":"1"},{"size":"288"},{"size":"288"}]}}}}},
          {"name":"unknown_224","op":"Const","attr":{"value":{"tensor":{"dtype":"DT_FLOAT","tensorShape":{"dim":[{"size":"288"}]}}},"dtype":{"type":"DT_FLOAT"}}},
          {"name":"unknown_217","op":"Const","attr":{"dtype":{"type":"DT_FLOAT"},"value":{"tensor":{"dtype":"DT_FLOAT","tensorShape":{"dim":[{"size":"3"},{"size":"3"},{"size":"288"},{"size":"1"}]}}}}},
          {"name":"unknown_219","op":"Const","attr":{"dtype":{"type":"DT_FLOAT"},"value":{"tensor":{"dtype":"DT_FLOAT","tensorShape":{"dim":[{"size":"1"},{"size":"1"},{"size":"288"},{"size":"288"}]}}}}},
          {"name":"unknown_220","op":"Const","attr":{"value":{"tensor":{"dtype":"DT_FLOAT","tensorShape":{"dim":[{"size":"288"}]}}},"dtype":{"type":"DT_FLOAT"}}},
          {"name":"unknown_213","op":"Const","attr":{"value":{"tensor":{"dtype":"DT_FLOAT","tensorShape":{"dim":[{"size":"3"},{"size":"3"},{"size":"288"},{"size":"1"}]}}},"dtype":{"type":"DT_FLOAT"}}},
          {"name":"unknown_215","op":"Const","attr":{"value":{"tensor":{"dtype":"DT_FLOAT","tensorShape":{"dim":[{"size":"1"},{"size":"1"},{"size":"288"},{"size":"288"}]}}},"dtype":{"type":"DT_FLOAT"}}},
          {"name":"unknown_216","op":"Const","attr":{"value":{"tensor":{"dtype":"DT_FLOAT","tensorShape":{"dim":[{"size":"288"}]}}},"dtype":{"type":"DT_FLOAT"}}},
          {"name":"unknown_209","op":"Const","attr":{"value":{"tensor":{"dtype":"DT_FLOAT","tensorShape":{"dim":[{"size":"3"},{"size":"3"},{"size":"288"},{"size":"1"}]}}},"dtype":{"type":"DT_FLOAT"}}},
          {"name":"unknown_211","op":"Const","attr":{"dtype":{"type":"DT_FLOAT"},"value":{"tensor":{"dtype":"DT_FLOAT","tensorShape":{"dim":[{"size":"1"},{"size":"1"},{"size":"288"},{"size":"288"}]}}}}},
          {"name":"unknown_212","op":"Const","attr":{"value":{"tensor":{"dtype":"DT_FLOAT","tensorShape":{"dim":[{"size":"288"}]}}},"dtype":{"type":"DT_FLOAT"}}},
          {"name":"unknown_205","op":"Const","attr":{"value":{"tensor":{"dtype":"DT_FLOAT","tensorShape":{"dim":[{"size":"3"},{"size":"3"},{"size":"288"},{"size":"1"}]}}},"dtype":{"type":"DT_FLOAT"}}},
          {"name":"unknown_207","op":"Const","attr":{"value":{"tensor":{"dtype":"DT_FLOAT","tensorShape":{"dim":[{"size":"1"},{"size":"1"},{"size":"288"},{"size":"288"}]}}},"dtype":{"type":"DT_FLOAT"}}},
          {"name":"unknown_208","op":"Const","attr":{"dtype":{"type":"DT_FLOAT"},"value":{"tensor":{"dtype":"DT_FLOAT","tensorShape":{"dim":[{"size":"288"}]}}}}},
          {"name":"unknown_201","op":"Const","attr":{"value":{"tensor":{"dtype":"DT_FLOAT","tensorShape":{"dim":[{"size":"3"},{"size":"3"},{"size":"288"},{"size":"1"}]}}},"dtype":{"type":"DT_FLOAT"}}},
          {"name":"unknown_203","op":"Const","attr":{"value":{"tensor":{"dtype":"DT_FLOAT","tensorShape":{"dim":[{"size":"1"},{"size":"1"},{"size":"288"},{"size":"288"}]}}},"dtype":{"type":"DT_FLOAT"}}},
          {"name":"unknown_204","op":"Const","attr":{"value":{"tensor":{"dtype":"DT_FLOAT","tensorShape":{"dim":[{"size":"288"}]}}},"dtype":{"type":"DT_FLOAT"}}},
          {"name":"unknown_197","op":"Const","attr":{"dtype":{"type":"DT_FLOAT"},"value":{"tensor":{"dtype":"DT_FLOAT","tensorShape":{"dim":[{"size":"3"},{"size":"3"},{"size":"288"},{"size":"1"}]}}}}},
          {"name":"unknown_199","op":"Const","attr":{"dtype":{"type":"DT_FLOAT"},"value":{"tensor":{"dtype":"DT_FLOAT","tensorShape":{"dim":[{"size":"1"},{"size":"1"},{"size":"288"},{"size":"288"}]}}}}},
          {"name":"unknown_200","op":"Const","attr":{"value":{"tensor":{"dtype":"DT_FLOAT","tensorShape":{"dim":[{"size":"288"}]}}},"dtype":{"type":"DT_FLOAT"}}},
          {"name":"unknown_193","op":"Const","attr":{"value":{"tensor":{"dtype":"DT_FLOAT","tensorShape":{"dim":[{"size":"3"},{"size":"3"},{"size":"288"},{"size":"1"}]}}},"dtype":{"type":"DT_FLOAT"}}},
          {"name":"unknown_195","op":"Const","attr":{"value":{"tensor":{"dtype":"DT_FLOAT","tensorShape":{"dim":[{"size":"1"},{"size":"1"},{"size":"288"},{"size":"288"}]}}},"dtype":{"type":"DT_FLOAT"}}},
          {"name":"unknown_196","op":"Const","attr":{"value":{"tensor":{"dtype":"DT_FLOAT","tensorShape":{"dim":[{"size":"288"}]}}},"dtype":{"type":"DT_FLOAT"}}},
          {"name":"unknown_165","op":"Const","attr":{"value":{"tensor":{"dtype":"DT_FLOAT","tensorShape":{"dim":[{"size":"3"},{"size":"3"},{"size":"192"},{"size":"1"}]}}},"dtype":{"type":"DT_FLOAT"}}},
          {"name":"unknown_167","op":"Const","attr":{"value":{"tensor":{"dtype":"DT_FLOAT","tensorShape":{"dim":[{"size":"1"},{"size":"1"},{"size":"192"},{"size":"288"}]}}},"dtype":{"type":"DT_FLOAT"}}},
          {"name":"unknown_168","op":"Const","attr":{"value":{"tensor":{"dtype":"DT_FLOAT","tensorShape":{"dim":[{"size":"288"}]}}},"dtype":{"type":"DT_FLOAT"}}},
          {"name":"unknown_161","op":"Const","attr":{"value":{"tensor":{"dtype":"DT_FLOAT","tensorShape":{"dim":[{"size":"3"},{"size":"3"},{"size":"192"},{"size":"1"}]}}},"dtype":{"type":"DT_FLOAT"}}},
          {"name":"unknown_163","op":"Const","attr":{"dtype":{"type":"DT_FLOAT"},"value":{"tensor":{"dtype":"DT_FLOAT","tensorShape":{"dim":[{"size":"1"},{"size":"1"},{"size":"192"},{"size":"192"}]}}}}},
          {"name":"unknown_164","op":"Const","attr":{"dtype":{"type":"DT_FLOAT"},"value":{"tensor":{"dtype":"DT_FLOAT","tensorShape":{"dim":[{"size":"192"}]}}}}},
          {"name":"unknown_137","op":"Const","attr":{"value":{"tensor":{"dtype":"DT_FLOAT","tensorShape":{"dim":[{"size":"3"},{"size":"3"},{"size":"96"},{"size":"1"}]}}},"dtype":{"type":"DT_FLOAT"}}},
          {"name":"unknown_139","op":"Const","attr":{"value":{"tensor":{"dtype":"DT_FLOAT","tensorShape":{"dim":[{"size":"1"},{"size":"1"},{"size":"96"},{"size":"192"}]}}},"dtype":{"type":"DT_FLOAT"}}},
          {"name":"unknown_140","op":"Const","attr":{"value":{"tensor":{"dtype":"DT_FLOAT","tensorShape":{"dim":[{"size":"192"}]}}},"dtype":{"type":"DT_FLOAT"}}},
          {"name":"unknown_113","op":"Const","attr":{"dtype":{"type":"DT_FLOAT"},"value":{"tensor":{"dtype":"DT_FLOAT","tensorShape":{"dim":[{"size":"3"},{"size":"3"},{"size":"48"},{"size":"1"}]}}}}},
          {"name":"unknown_115","op":"Const","attr":{"value":{"tensor":{"dtype":"DT_FLOAT","tensorShape":{"dim":[{"size":"1"},{"size":"1"},{"size":"48"},{"size":"96"}]}}},"dtype":{"type":"DT_FLOAT"}}},
          {"name":"unknown_116","op":"Const","attr":{"dtype":{"type":"DT_FLOAT"},"value":{"tensor":{"dtype":"DT_FLOAT","tensorShape":{"dim":[{"size":"96"}]}}}}},
          {"name":"unknown_69","op":"Const","attr":{"value":{"tensor":{"dtype":"DT_FLOAT","tensorShape":{"dim":[{"size":"3"},{"size":"3"},{"size":"192"},{"size":"1"}]}}},"dtype":{"type":"DT_FLOAT"}}},
          {"name":"unknown_71","op":"Const","attr":{"value":{"tensor":{"dtype":"DT_FLOAT","tensorShape":{"dim":[{"size":"1"},{"size":"1"},{"size":"192"},{"size":"288"}]}}},"dtype":{"type":"DT_FLOAT"}}},
          {"name":"unknown_72","op":"Const","attr":{"dtype":{"type":"DT_FLOAT"},"value":{"tensor":{"dtype":"DT_FLOAT","tensorShape":{"dim":[{"size":"288"}]}}}}},
          {"name":"StatefulPartitionedCall/functional_1/tf_op_layer_Pad_3/Pad_3/paddings","op":"Const","attr":{"dtype":{"type":"DT_INT32"},"value":{"tensor":{"dtype":"DT_INT32","tensorShape":{"dim":[{"size":"4"},{"size":"2"}]}}}}},
          {"name":"unknown_73","op":"Const","attr":{"value":{"tensor":{"dtype":"DT_FLOAT","tensorShape":{"dim":[{"size":"3"},{"size":"3"},{"size":"288"},{"size":"1"}]}}},"dtype":{"type":"DT_FLOAT"}}},
          {"name":"unknown_75","op":"Const","attr":{"value":{"tensor":{"dtype":"DT_FLOAT","tensorShape":{"dim":[{"size":"1"},{"size":"1"},{"size":"288"},{"size":"288"}]}}},"dtype":{"type":"DT_FLOAT"}}},
          {"name":"unknown_76","op":"Const","attr":{"value":{"tensor":{"dtype":"DT_FLOAT","tensorShape":{"dim":[{"size":"288"}]}}},"dtype":{"type":"DT_FLOAT"}}},
          {"name":"unknown_77","op":"Const","attr":{"value":{"tensor":{"dtype":"DT_FLOAT","tensorShape":{"dim":[{"size":"3"},{"size":"3"},{"size":"288"},{"size":"1"}]}}},"dtype":{"type":"DT_FLOAT"}}},
          {"name":"unknown_79","op":"Const","attr":{"dtype":{"type":"DT_FLOAT"},"value":{"tensor":{"dtype":"DT_FLOAT","tensorShape":{"dim":[{"size":"1"},{"size":"1"},{"size":"288"},{"size":"288"}]}}}}},
          {"name":"unknown_80","op":"Const","attr":{"value":{"tensor":{"dtype":"DT_FLOAT","tensorShape":{"dim":[{"size":"288"}]}}},"dtype":{"type":"DT_FLOAT"}}},
          {"name":"unknown_81","op":"Const","attr":{"value":{"tensor":{"dtype":"DT_FLOAT","tensorShape":{"dim":[{"size":"3"},{"size":"3"},{"size":"288"},{"size":"1"}]}}},"dtype":{"type":"DT_FLOAT"}}},
          {"name":"unknown_83","op":"Const","attr":{"dtype":{"type":"DT_FLOAT"},"value":{"tensor":{"dtype":"DT_FLOAT","tensorShape":{"dim":[{"size":"1"},{"size":"1"},{"size":"288"},{"size":"288"}]}}}}},
          {"name":"unknown_84","op":"Const","attr":{"value":{"tensor":{"dtype":"DT_FLOAT","tensorShape":{"dim":[{"size":"288"}]}}},"dtype":{"type":"DT_FLOAT"}}},
          {"name":"unknown_85","op":"Const","attr":{"value":{"tensor":{"dtype":"DT_FLOAT","tensorShape":{"dim":[{"size":"3"},{"size":"3"},{"size":"288"},{"size":"1"}]}}},"dtype":{"type":"DT_FLOAT"}}},
          {"name":"unknown_87","op":"Const","attr":{"dtype":{"type":"DT_FLOAT"},"value":{"tensor":{"dtype":"DT_FLOAT","tensorShape":{"dim":[{"size":"1"},{"size":"1"},{"size":"288"},{"size":"288"}]}}}}},
          {"name":"unknown_88","op":"Const","attr":{"dtype":{"type":"DT_FLOAT"},"value":{"tensor":{"dtype":"DT_FLOAT","tensorShape":{"dim":[{"size":"288"}]}}}}},
          {"name":"unknown_89","op":"Const","attr":{"value":{"tensor":{"dtype":"DT_FLOAT","tensorShape":{"dim":[{"size":"3"},{"size":"3"},{"size":"288"},{"size":"1"}]}}},"dtype":{"type":"DT_FLOAT"}}},
          {"name":"unknown_91","op":"Const","attr":{"value":{"tensor":{"dtype":"DT_FLOAT","tensorShape":{"dim":[{"size":"1"},{"size":"1"},{"size":"288"},{"size":"288"}]}}},"dtype":{"type":"DT_FLOAT"}}},
          {"name":"unknown_92","op":"Const","attr":{"value":{"tensor":{"dtype":"DT_FLOAT","tensorShape":{"dim":[{"size":"288"}]}}},"dtype":{"type":"DT_FLOAT"}}},
          {"name":"unknown_93","op":"Const","attr":{"value":{"tensor":{"dtype":"DT_FLOAT","tensorShape":{"dim":[{"size":"3"},{"size":"3"},{"size":"288"},{"size":"1"}]}}},"dtype":{"type":"DT_FLOAT"}}},
          {"name":"unknown_95","op":"Const","attr":{"dtype":{"type":"DT_FLOAT"},"value":{"tensor":{"dtype":"DT_FLOAT","tensorShape":{"dim":[{"size":"1"},{"size":"1"},{"size":"288"},{"size":"288"}]}}}}},
          {"name":"unknown_96","op":"Const","attr":{"value":{"tensor":{"dtype":"DT_FLOAT","tensorShape":{"dim":[{"size":"288"}]}}},"dtype":{"type":"DT_FLOAT"}}},
          {"name":"unknown_97","op":"Const","attr":{"value":{"tensor":{"dtype":"DT_FLOAT","tensorShape":{"dim":[{"size":"3"},{"size":"3"},{"size":"288"},{"size":"1"}]}}},"dtype":{"type":"DT_FLOAT"}}},
          {"name":"unknown_101","op":"Const","attr":{"value":{"tensor":{"dtype":"DT_FLOAT","tensorShape":{"dim":[{"size":"1"},{"size":"1"},{"size":"288"},{"size":"48"}]}}},"dtype":{"type":"DT_FLOAT"}}},
          {"name":"unknown_102","op":"Const","attr":{"value":{"tensor":{"dtype":"DT_FLOAT","tensorShape":{"dim":[{"size":"48"}]}}},"dtype":{"type":"DT_FLOAT"}}},
          {"name":"StatefulPartitionedCall/functional_1/tf_op_layer_ResizeBilinear/ResizeBilinear/size","op":"Const","attr":{"value":{"tensor":{"dtype":"DT_INT32","tensorShape":{"dim":[{"size":"2"}]}}},"dtype":{"type":"DT_INT32"}}},
          {"name":"unknown_45","op":"Const","attr":{"value":{"tensor":{"dtype":"DT_FLOAT","tensorShape":{"dim":[{"size":"3"},{"size":"3"},{"size":"96"},{"size":"1"}]}}},"dtype":{"type":"DT_FLOAT"}}},
          {"name":"unknown_47","op":"Const","attr":{"value":{"tensor":{"dtype":"DT_FLOAT","tensorShape":{"dim":[{"size":"1"},{"size":"1"},{"size":"96"},{"size":"192"}]}}},"dtype":{"type":"DT_FLOAT"}}},
          {"name":"unknown_48","op":"Const","attr":{"value":{"tensor":{"dtype":"DT_FLOAT","tensorShape":{"dim":[{"size":"192"}]}}},"dtype":{"type":"DT_FLOAT"}}},
          {"name":"StatefulPartitionedCall/functional_1/tf_op_layer_Pad_2/Pad_2/paddings","op":"Const","attr":{"dtype":{"type":"DT_INT32"},"value":{"tensor":{"dtype":"DT_INT32","tensorShape":{"dim":[{"size":"4"},{"size":"2"}]}}}}},
          {"name":"unknown_49","op":"Const","attr":{"value":{"tensor":{"dtype":"DT_FLOAT","tensorShape":{"dim":[{"size":"3"},{"size":"3"},{"size":"192"},{"size":"1"}]}}},"dtype":{"type":"DT_FLOAT"}}},
          {"name":"unknown_51","op":"Const","attr":{"dtype":{"type":"DT_FLOAT"},"value":{"tensor":{"dtype":"DT_FLOAT","tensorShape":{"dim":[{"size":"1"},{"size":"1"},{"size":"192"},{"size":"192"}]}}}}},
          {"name":"unknown_52","op":"Const","attr":{"value":{"tensor":{"dtype":"DT_FLOAT","tensorShape":{"dim":[{"size":"192"}]}}},"dtype":{"type":"DT_FLOAT"}}},
          {"name":"unknown_53","op":"Const","attr":{"value":{"tensor":{"dtype":"DT_FLOAT","tensorShape":{"dim":[{"size":"3"},{"size":"3"},{"size":"192"},{"size":"1"}]}}},"dtype":{"type":"DT_FLOAT"}}},
          {"name":"unknown_55","op":"Const","attr":{"value":{"tensor":{"dtype":"DT_FLOAT","tensorShape":{"dim":[{"size":"1"},{"size":"1"},{"size":"192"},{"size":"192"}]}}},"dtype":{"type":"DT_FLOAT"}}},
          {"name":"unknown_56","op":"Const","attr":{"dtype":{"type":"DT_FLOAT"},"value":{"tensor":{"dtype":"DT_FLOAT","tensorShape":{"dim":[{"size":"192"}]}}}}},
          {"name":"unknown_57","op":"Const","attr":{"value":{"tensor":{"dtype":"DT_FLOAT","tensorShape":{"dim":[{"size":"3"},{"size":"3"},{"size":"192"},{"size":"1"}]}}},"dtype":{"type":"DT_FLOAT"}}},
          {"name":"unknown_59","op":"Const","attr":{"value":{"tensor":{"dtype":"DT_FLOAT","tensorShape":{"dim":[{"size":"1"},{"size":"1"},{"size":"192"},{"size":"192"}]}}},"dtype":{"type":"DT_FLOAT"}}},
          {"name":"unknown_60","op":"Const","attr":{"value":{"tensor":{"dtype":"DT_FLOAT","tensorShape":{"dim":[{"size":"192"}]}}},"dtype":{"type":"DT_FLOAT"}}},
          {"name":"unknown_61","op":"Const","attr":{"dtype":{"type":"DT_FLOAT"},"value":{"tensor":{"dtype":"DT_FLOAT","tensorShape":{"dim":[{"size":"3"},{"size":"3"},{"size":"192"},{"size":"1"}]}}}}},
          {"name":"unknown_63","op":"Const","attr":{"dtype":{"type":"DT_FLOAT"},"value":{"tensor":{"dtype":"DT_FLOAT","tensorShape":{"dim":[{"size":"1"},{"size":"1"},{"size":"192"},{"size":"192"}]}}}}},
          {"name":"unknown_64","op":"Const","attr":{"value":{"tensor":{"dtype":"DT_FLOAT","tensorShape":{"dim":[{"size":"192"}]}}},"dtype":{"type":"DT_FLOAT"}}},
          {"name":"unknown_65","op":"Const","attr":{"dtype":{"type":"DT_FLOAT"},"value":{"tensor":{"dtype":"DT_FLOAT","tensorShape":{"dim":[{"size":"3"},{"size":"3"},{"size":"192"},{"size":"1"}]}}}}},
          {"name":"unknown_67","op":"Const","attr":{"value":{"tensor":{"dtype":"DT_FLOAT","tensorShape":{"dim":[{"size":"1"},{"size":"1"},{"size":"192"},{"size":"192"}]}}},"dtype":{"type":"DT_FLOAT"}}},
          {"name":"unknown_68","op":"Const","attr":{"dtype":{"type":"DT_FLOAT"},"value":{"tensor":{"dtype":"DT_FLOAT","tensorShape":{"dim":[{"size":"192"}]}}}}},
          {"name":"unknown_99","op":"Const","attr":{"value":{"tensor":{"dtype":"DT_FLOAT","tensorShape":{"dim":[{"size":"3"},{"size":"3"},{"size":"192"},{"size":"1"}]}}},"dtype":{"type":"DT_FLOAT"}}},
          {"name":"unknown_103","op":"Const","attr":{"value":{"tensor":{"dtype":"DT_FLOAT","tensorShape":{"dim":[{"size":"1"},{"size":"1"},{"size":"192"},{"size":"48"}]}}},"dtype":{"type":"DT_FLOAT"}}},
          {"name":"unknown_104","op":"Const","attr":{"value":{"tensor":{"dtype":"DT_FLOAT","tensorShape":{"dim":[{"size":"48"}]}}},"dtype":{"type":"DT_FLOAT"}}},
          {"name":"StatefulPartitionedCall/functional_1/tf_op_layer_ResizeBilinear_1/ResizeBilinear_1/size","op":"Const","attr":{"value":{"tensor":{"dtype":"DT_INT32","tensorShape":{"dim":[{"size":"2"}]}}},"dtype":{"type":"DT_INT32"}}},
          {"name":"unknown_105","op":"Const","attr":{"value":{"tensor":{"dtype":"DT_FLOAT","tensorShape":{"dim":[{"size":"3"},{"size":"3"},{"size":"96"},{"size":"1"}]}}},"dtype":{"type":"DT_FLOAT"}}},
          {"name":"unknown_107","op":"Const","attr":{"value":{"tensor":{"dtype":"DT_FLOAT","tensorShape":{"dim":[{"size":"1"},{"size":"1"},{"size":"96"},{"size":"48"}]}}},"dtype":{"type":"DT_FLOAT"}}},
          {"name":"unknown_108","op":"Const","attr":{"value":{"tensor":{"dtype":"DT_FLOAT","tensorShape":{"dim":[{"size":"48"}]}}},"dtype":{"type":"DT_FLOAT"}}},
          {"name":"StatefulPartitionedCall/functional_1/tf_op_layer_ResizeBilinear_2/ResizeBilinear_2/size","op":"Const","attr":{"value":{"tensor":{"dtype":"DT_INT32","tensorShape":{"dim":[{"size":"2"}]}}},"dtype":{"type":"DT_INT32"}}},
          {"name":"unknown_109","op":"Const","attr":{"value":{"tensor":{"dtype":"DT_FLOAT","tensorShape":{"dim":[{"size":"3"},{"size":"3"},{"size":"48"},{"size":"1"}]}}},"dtype":{"type":"DT_FLOAT"}}},
          {"name":"unknown_111","op":"Const","attr":{"value":{"tensor":{"dtype":"DT_FLOAT","tensorShape":{"dim":[{"size":"1"},{"size":"1"},{"size":"48"},{"size":"48"}]}}},"dtype":{"type":"DT_FLOAT"}}},
          {"name":"unknown_112","op":"Const","attr":{"value":{"tensor":{"dtype":"DT_FLOAT","tensorShape":{"dim":[{"size":"48"}]}}},"dtype":{"type":"DT_FLOAT"}}},
          {"name":"StatefulPartitionedCall/functional_1/tf_op_layer_Pad_4/Pad_4/paddings","op":"Const","attr":{"value":{"tensor":{"dtype":"DT_INT32","tensorShape":{"dim":[{"size":"4"},{"size":"2"}]}}},"dtype":{"type":"DT_INT32"}}},
          {"name":"unknown_117","op":"Const","attr":{"value":{"tensor":{"dtype":"DT_FLOAT","tensorShape":{"dim":[{"size":"3"},{"size":"3"},{"size":"96"},{"size":"1"}]}}},"dtype":{"type":"DT_FLOAT"}}},
          {"name":"unknown_119","op":"Const","attr":{"dtype":{"type":"DT_FLOAT"},"value":{"tensor":{"dtype":"DT_FLOAT","tensorShape":{"dim":[{"size":"1"},{"size":"1"},{"size":"96"},{"size":"96"}]}}}}},
          {"name":"unknown_120","op":"Const","attr":{"value":{"tensor":{"dtype":"DT_FLOAT","tensorShape":{"dim":[{"size":"96"}]}}},"dtype":{"type":"DT_FLOAT"}}},
          {"name":"unknown_121","op":"Const","attr":{"value":{"tensor":{"dtype":"DT_FLOAT","tensorShape":{"dim":[{"size":"3"},{"size":"3"},{"size":"96"},{"size":"1"}]}}},"dtype":{"type":"DT_FLOAT"}}},
          {"name":"unknown_123","op":"Const","attr":{"dtype":{"type":"DT_FLOAT"},"value":{"tensor":{"dtype":"DT_FLOAT","tensorShape":{"dim":[{"size":"1"},{"size":"1"},{"size":"96"},{"size":"96"}]}}}}},
          {"name":"unknown_124","op":"Const","attr":{"value":{"tensor":{"dtype":"DT_FLOAT","tensorShape":{"dim":[{"size":"96"}]}}},"dtype":{"type":"DT_FLOAT"}}},
          {"name":"unknown_125","op":"Const","attr":{"dtype":{"type":"DT_FLOAT"},"value":{"tensor":{"dtype":"DT_FLOAT","tensorShape":{"dim":[{"size":"3"},{"size":"3"},{"size":"96"},{"size":"1"}]}}}}},
          {"name":"unknown_127","op":"Const","attr":{"value":{"tensor":{"dtype":"DT_FLOAT","tensorShape":{"dim":[{"size":"1"},{"size":"1"},{"size":"96"},{"size":"96"}]}}},"dtype":{"type":"DT_FLOAT"}}},
          {"name":"unknown_128","op":"Const","attr":{"value":{"tensor":{"dtype":"DT_FLOAT","tensorShape":{"dim":[{"size":"96"}]}}},"dtype":{"type":"DT_FLOAT"}}},
          {"name":"unknown_129","op":"Const","attr":{"dtype":{"type":"DT_FLOAT"},"value":{"tensor":{"dtype":"DT_FLOAT","tensorShape":{"dim":[{"size":"3"},{"size":"3"},{"size":"96"},{"size":"1"}]}}}}},
          {"name":"unknown_131","op":"Const","attr":{"value":{"tensor":{"dtype":"DT_FLOAT","tensorShape":{"dim":[{"size":"1"},{"size":"1"},{"size":"96"},{"size":"96"}]}}},"dtype":{"type":"DT_FLOAT"}}},
          {"name":"unknown_132","op":"Const","attr":{"value":{"tensor":{"dtype":"DT_FLOAT","tensorShape":{"dim":[{"size":"96"}]}}},"dtype":{"type":"DT_FLOAT"}}},
          {"name":"unknown_25","op":"Const","attr":{"dtype":{"type":"DT_FLOAT"},"value":{"tensor":{"dtype":"DT_FLOAT","tensorShape":{"dim":[{"size":"3"},{"size":"3"},{"size":"48"},{"size":"1"}]}}}}},
          {"name":"unknown_27","op":"Const","attr":{"value":{"tensor":{"dtype":"DT_FLOAT","tensorShape":{"dim":[{"size":"1"},{"size":"1"},{"size":"48"},{"size":"96"}]}}},"dtype":{"type":"DT_FLOAT"}}},
          {"name":"unknown_28","op":"Const","attr":{"value":{"tensor":{"dtype":"DT_FLOAT","tensorShape":{"dim":[{"size":"96"}]}}},"dtype":{"type":"DT_FLOAT"}}},
          {"name":"unknown_9","op":"Const","attr":{"dtype":{"type":"DT_FLOAT"},"value":{"tensor":{"dtype":"DT_FLOAT","tensorShape":{"dim":[{"size":"3"},{"size":"3"},{"size":"24"},{"size":"1"}]}}}}},
          {"name":"unknown_11","op":"Const","attr":{"value":{"tensor":{"dtype":"DT_FLOAT","tensorShape":{"dim":[{"size":"1"},{"size":"1"},{"size":"24"},{"size":"48"}]}}},"dtype":{"type":"DT_FLOAT"}}},
          {"name":"unknown_12","op":"Const","attr":{"value":{"tensor":{"dtype":"DT_FLOAT","tensorShape":{"dim":[{"size":"48"}]}}},"dtype":{"type":"DT_FLOAT"}}},
          {"name":"unknown","op":"Const","attr":{"value":{"tensor":{"dtype":"DT_FLOAT","tensorShape":{"dim":[{"size":"3"},{"size":"3"},{"size":"3"},{"size":"24"}]}}},"dtype":{"type":"DT_FLOAT"}}},
          {"name":"unknown_0","op":"Const","attr":{"value":{"tensor":{"dtype":"DT_FLOAT","tensorShape":{"dim":[{"size":"24"}]}}},"dtype":{"type":"DT_FLOAT"}}},
          {"name":"unknown_1","op":"Const","attr":{"value":{"tensor":{"dtype":"DT_FLOAT","tensorShape":{"dim":[{"size":"3"},{"size":"3"},{"size":"24"},{"size":"1"}]}}},"dtype":{"type":"DT_FLOAT"}}},
          {"name":"unknown_3","op":"Const","attr":{"value":{"tensor":{"dtype":"DT_FLOAT","tensorShape":{"dim":[{"size":"1"},{"size":"1"},{"size":"24"},{"size":"24"}]}}},"dtype":{"type":"DT_FLOAT"}}},
          {"name":"unknown_4","op":"Const","attr":{"value":{"tensor":{"dtype":"DT_FLOAT","tensorShape":{"dim":[{"size":"24"}]}}},"dtype":{"type":"DT_FLOAT"}}},
          {"name":"unknown_5","op":"Const","attr":{"value":{"tensor":{"dtype":"DT_FLOAT","tensorShape":{"dim":[{"size":"3"},{"size":"3"},{"size":"24"},{"size":"1"}]}}},"dtype":{"type":"DT_FLOAT"}}},
          {"name":"unknown_7","op":"Const","attr":{"value":{"tensor":{"dtype":"DT_FLOAT","tensorShape":{"dim":[{"size":"1"},{"size":"1"},{"size":"24"},{"size":"24"}]}}},"dtype":{"type":"DT_FLOAT"}}},
          {"name":"unknown_8","op":"Const","attr":{"value":{"tensor":{"dtype":"DT_FLOAT","tensorShape":{"dim":[{"size":"24"}]}}},"dtype":{"type":"DT_FLOAT"}}},
          {"name":"StatefulPartitionedCall/functional_1/tf_op_layer_Pad/Pad/paddings","op":"Const","attr":{"value":{"tensor":{"dtype":"DT_INT32","tensorShape":{"dim":[{"size":"4"},{"size":"2"}]}}},"dtype":{"type":"DT_INT32"}}},
          {"name":"unknown_13","op":"Const","attr":{"dtype":{"type":"DT_FLOAT"},"value":{"tensor":{"dtype":"DT_FLOAT","tensorShape":{"dim":[{"size":"3"},{"size":"3"},{"size":"48"},{"size":"1"}]}}}}},
          {"name":"unknown_15","op":"Const","attr":{"value":{"tensor":{"dtype":"DT_FLOAT","tensorShape":{"dim":[{"size":"1"},{"size":"1"},{"size":"48"},{"size":"48"}]}}},"dtype":{"type":"DT_FLOAT"}}},
          {"name":"unknown_16","op":"Const","attr":{"value":{"tensor":{"dtype":"DT_FLOAT","tensorShape":{"dim":[{"size":"48"}]}}},"dtype":{"type":"DT_FLOAT"}}},
          {"name":"unknown_17","op":"Const","attr":{"dtype":{"type":"DT_FLOAT"},"value":{"tensor":{"dtype":"DT_FLOAT","tensorShape":{"dim":[{"size":"3"},{"size":"3"},{"size":"48"},{"size":"1"}]}}}}},
          {"name":"unknown_19","op":"Const","attr":{"value":{"tensor":{"dtype":"DT_FLOAT","tensorShape":{"dim":[{"size":"1"},{"size":"1"},{"size":"48"},{"size":"48"}]}}},"dtype":{"type":"DT_FLOAT"}}},
          {"name":"unknown_20","op":"Const","attr":{"value":{"tensor":{"dtype":"DT_FLOAT","tensorShape":{"dim":[{"size":"48"}]}}},"dtype":{"type":"DT_FLOAT"}}},
          {"name":"unknown_21","op":"Const","attr":{"value":{"tensor":{"dtype":"DT_FLOAT","tensorShape":{"dim":[{"size":"3"},{"size":"3"},{"size":"48"},{"size":"1"}]}}},"dtype":{"type":"DT_FLOAT"}}},
          {"name":"unknown_23","op":"Const","attr":{"dtype":{"type":"DT_FLOAT"},"value":{"tensor":{"dtype":"DT_FLOAT","tensorShape":{"dim":[{"size":"1"},{"size":"1"},{"size":"48"},{"size":"48"}]}}}}},
          {"name":"unknown_24","op":"Const","attr":{"value":{"tensor":{"dtype":"DT_FLOAT","tensorShape":{"dim":[{"size":"48"}]}}},"dtype":{"type":"DT_FLOAT"}}},
          {"name":"StatefulPartitionedCall/functional_1/tf_op_layer_Pad_1/Pad_1/paddings","op":"Const","attr":{"dtype":{"type":"DT_INT32"},"value":{"tensor":{"dtype":"DT_INT32","tensorShape":{"dim":[{"size":"4"},{"size":"2"}]}}}}},
          {"name":"unknown_29","op":"Const","attr":{"dtype":{"type":"DT_FLOAT"},"value":{"tensor":{"dtype":"DT_FLOAT","tensorShape":{"dim":[{"size":"3"},{"size":"3"},{"size":"96"},{"size":"1"}]}}}}},
          {"name":"unknown_31","op":"Const","attr":{"value":{"tensor":{"dtype":"DT_FLOAT","tensorShape":{"dim":[{"size":"1"},{"size":"1"},{"size":"96"},{"size":"96"}]}}},"dtype":{"type":"DT_FLOAT"}}},
          {"name":"unknown_32","op":"Const","attr":{"value":{"tensor":{"dtype":"DT_FLOAT","tensorShape":{"dim":[{"size":"96"}]}}},"dtype":{"type":"DT_FLOAT"}}},
          {"name":"unknown_33","op":"Const","attr":{"value":{"tensor":{"dtype":"DT_FLOAT","tensorShape":{"dim":[{"size":"3"},{"size":"3"},{"size":"96"},{"size":"1"}]}}},"dtype":{"type":"DT_FLOAT"}}},
          {"name":"unknown_35","op":"Const","attr":{"dtype":{"type":"DT_FLOAT"},"value":{"tensor":{"dtype":"DT_FLOAT","tensorShape":{"dim":[{"size":"1"},{"size":"1"},{"size":"96"},{"size":"96"}]}}}}},
          {"name":"unknown_36","op":"Const","attr":{"value":{"tensor":{"dtype":"DT_FLOAT","tensorShape":{"dim":[{"size":"96"}]}}},"dtype":{"type":"DT_FLOAT"}}},
          {"name":"unknown_37","op":"Const","attr":{"value":{"tensor":{"dtype":"DT_FLOAT","tensorShape":{"dim":[{"size":"3"},{"size":"3"},{"size":"96"},{"size":"1"}]}}},"dtype":{"type":"DT_FLOAT"}}},
          {"name":"unknown_39","op":"Const","attr":{"dtype":{"type":"DT_FLOAT"},"value":{"tensor":{"dtype":"DT_FLOAT","tensorShape":{"dim":[{"size":"1"},{"size":"1"},{"size":"96"},{"size":"96"}]}}}}},
          {"name":"unknown_40","op":"Const","attr":{"value":{"tensor":{"dtype":"DT_FLOAT","tensorShape":{"dim":[{"size":"96"}]}}},"dtype":{"type":"DT_FLOAT"}}},
          {"name":"unknown_41","op":"Const","attr":{"value":{"tensor":{"dtype":"DT_FLOAT","tensorShape":{"dim":[{"size":"3"},{"size":"3"},{"size":"96"},{"size":"1"}]}}},"dtype":{"type":"DT_FLOAT"}}},
          {"name":"unknown_43","op":"Const","attr":{"value":{"tensor":{"dtype":"DT_FLOAT","tensorShape":{"dim":[{"size":"1"},{"size":"1"},{"size":"96"},{"size":"96"}]}}},"dtype":{"type":"DT_FLOAT"}}},
          {"name":"unknown_44","op":"Const","attr":{"value":{"tensor":{"dtype":"DT_FLOAT","tensorShape":{"dim":[{"size":"96"}]}}},"dtype":{"type":"DT_FLOAT"}}},
          {"name":"unknown_133","op":"Const","attr":{"value":{"tensor":{"dtype":"DT_FLOAT","tensorShape":{"dim":[{"size":"3"},{"size":"3"},{"size":"96"},{"size":"1"}]}}},"dtype":{"type":"DT_FLOAT"}}},
          {"name":"unknown_135","op":"Const","attr":{"value":{"tensor":{"dtype":"DT_FLOAT","tensorShape":{"dim":[{"size":"1"},{"size":"1"},{"size":"96"},{"size":"96"}]}}},"dtype":{"type":"DT_FLOAT"}}},
          {"name":"unknown_136","op":"Const","attr":{"dtype":{"type":"DT_FLOAT"},"value":{"tensor":{"dtype":"DT_FLOAT","tensorShape":{"dim":[{"size":"96"}]}}}}},
          {"name":"StatefulPartitionedCall/functional_1/tf_op_layer_Pad_5/Pad_5/paddings","op":"Const","attr":{"value":{"tensor":{"dtype":"DT_INT32","tensorShape":{"dim":[{"size":"4"},{"size":"2"}]}}},"dtype":{"type":"DT_INT32"}}},
          {"name":"unknown_141","op":"Const","attr":{"value":{"tensor":{"dtype":"DT_FLOAT","tensorShape":{"dim":[{"size":"3"},{"size":"3"},{"size":"192"},{"size":"1"}]}}},"dtype":{"type":"DT_FLOAT"}}},
          {"name":"unknown_143","op":"Const","attr":{"value":{"tensor":{"dtype":"DT_FLOAT","tensorShape":{"dim":[{"size":"1"},{"size":"1"},{"size":"192"},{"size":"192"}]}}},"dtype":{"type":"DT_FLOAT"}}},
          {"name":"unknown_144","op":"Const","attr":{"dtype":{"type":"DT_FLOAT"},"value":{"tensor":{"dtype":"DT_FLOAT","tensorShape":{"dim":[{"size":"192"}]}}}}},
          {"name":"unknown_145","op":"Const","attr":{"value":{"tensor":{"dtype":"DT_FLOAT","tensorShape":{"dim":[{"size":"3"},{"size":"3"},{"size":"192"},{"size":"1"}]}}},"dtype":{"type":"DT_FLOAT"}}},
          {"name":"unknown_147","op":"Const","attr":{"value":{"tensor":{"dtype":"DT_FLOAT","tensorShape":{"dim":[{"size":"1"},{"size":"1"},{"size":"192"},{"size":"192"}]}}},"dtype":{"type":"DT_FLOAT"}}},
          {"name":"unknown_148","op":"Const","attr":{"value":{"tensor":{"dtype":"DT_FLOAT","tensorShape":{"dim":[{"size":"192"}]}}},"dtype":{"type":"DT_FLOAT"}}},
          {"name":"unknown_149","op":"Const","attr":{"value":{"tensor":{"dtype":"DT_FLOAT","tensorShape":{"dim":[{"size":"3"},{"size":"3"},{"size":"192"},{"size":"1"}]}}},"dtype":{"type":"DT_FLOAT"}}},
          {"name":"unknown_151","op":"Const","attr":{"value":{"tensor":{"dtype":"DT_FLOAT","tensorShape":{"dim":[{"size":"1"},{"size":"1"},{"size":"192"},{"size":"192"}]}}},"dtype":{"type":"DT_FLOAT"}}},
          {"name":"unknown_152","op":"Const","attr":{"value":{"tensor":{"dtype":"DT_FLOAT","tensorShape":{"dim":[{"size":"192"}]}}},"dtype":{"type":"DT_FLOAT"}}},
          {"name":"unknown_153","op":"Const","attr":{"value":{"tensor":{"dtype":"DT_FLOAT","tensorShape":{"dim":[{"size":"3"},{"size":"3"},{"size":"192"},{"size":"1"}]}}},"dtype":{"type":"DT_FLOAT"}}},
          {"name":"unknown_155","op":"Const","attr":{"dtype":{"type":"DT_FLOAT"},"value":{"tensor":{"dtype":"DT_FLOAT","tensorShape":{"dim":[{"size":"1"},{"size":"1"},{"size":"192"},{"size":"192"}]}}}}},
          {"name":"unknown_156","op":"Const","attr":{"value":{"tensor":{"dtype":"DT_FLOAT","tensorShape":{"dim":[{"size":"192"}]}}},"dtype":{"type":"DT_FLOAT"}}},
          {"name":"unknown_157","op":"Const","attr":{"dtype":{"type":"DT_FLOAT"},"value":{"tensor":{"dtype":"DT_FLOAT","tensorShape":{"dim":[{"size":"3"},{"size":"3"},{"size":"192"},{"size":"1"}]}}}}},
          {"name":"unknown_159","op":"Const","attr":{"value":{"tensor":{"dtype":"DT_FLOAT","tensorShape":{"dim":[{"size":"1"},{"size":"1"},{"size":"192"},{"size":"192"}]}}},"dtype":{"type":"DT_FLOAT"}}},
          {"name":"unknown_160","op":"Const","attr":{"dtype":{"type":"DT_FLOAT"},"value":{"tensor":{"dtype":"DT_FLOAT","tensorShape":{"dim":[{"size":"192"}]}}}}},
          {"name":"StatefulPartitionedCall/functional_1/tf_op_layer_Pad_6/Pad_6/paddings","op":"Const","attr":{"value":{"tensor":{"dtype":"DT_INT32","tensorShape":{"dim":[{"size":"4"},{"size":"2"}]}}},"dtype":{"type":"DT_INT32"}}},
          {"name":"unknown_169","op":"Const","attr":{"dtype":{"type":"DT_FLOAT"},"value":{"tensor":{"dtype":"DT_FLOAT","tensorShape":{"dim":[{"size":"3"},{"size":"3"},{"size":"288"},{"size":"1"}]}}}}},
          {"name":"unknown_171","op":"Const","attr":{"value":{"tensor":{"dtype":"DT_FLOAT","tensorShape":{"dim":[{"size":"1"},{"size":"1"},{"size":"288"},{"size":"288"}]}}},"dtype":{"type":"DT_FLOAT"}}},
          {"name":"unknown_172","op":"Const","attr":{"value":{"tensor":{"dtype":"DT_FLOAT","tensorShape":{"dim":[{"size":"288"}]}}},"dtype":{"type":"DT_FLOAT"}}},
          {"name":"unknown_173","op":"Const","attr":{"value":{"tensor":{"dtype":"DT_FLOAT","tensorShape":{"dim":[{"size":"3"},{"size":"3"},{"size":"288"},{"size":"1"}]}}},"dtype":{"type":"DT_FLOAT"}}},
          {"name":"unknown_175","op":"Const","attr":{"dtype":{"type":"DT_FLOAT"},"value":{"tensor":{"dtype":"DT_FLOAT","tensorShape":{"dim":[{"size":"1"},{"size":"1"},{"size":"288"},{"size":"288"}]}}}}},
          {"name":"unknown_176","op":"Const","attr":{"value":{"tensor":{"dtype":"DT_FLOAT","tensorShape":{"dim":[{"size":"288"}]}}},"dtype":{"type":"DT_FLOAT"}}},
          {"name":"unknown_177","op":"Const","attr":{"value":{"tensor":{"dtype":"DT_FLOAT","tensorShape":{"dim":[{"size":"3"},{"size":"3"},{"size":"288"},{"size":"1"}]}}},"dtype":{"type":"DT_FLOAT"}}},
          {"name":"unknown_179","op":"Const","attr":{"value":{"tensor":{"dtype":"DT_FLOAT","tensorShape":{"dim":[{"size":"1"},{"size":"1"},{"size":"288"},{"size":"288"}]}}},"dtype":{"type":"DT_FLOAT"}}},
          {"name":"unknown_180","op":"Const","attr":{"dtype":{"type":"DT_FLOAT"},"value":{"tensor":{"dtype":"DT_FLOAT","tensorShape":{"dim":[{"size":"288"}]}}}}},
          {"name":"unknown_181","op":"Const","attr":{"dtype":{"type":"DT_FLOAT"},"value":{"tensor":{"dtype":"DT_FLOAT","tensorShape":{"dim":[{"size":"3"},{"size":"3"},{"size":"288"},{"size":"1"}]}}}}},
          {"name":"unknown_183","op":"Const","attr":{"value":{"tensor":{"dtype":"DT_FLOAT","tensorShape":{"dim":[{"size":"1"},{"size":"1"},{"size":"288"},{"size":"288"}]}}},"dtype":{"type":"DT_FLOAT"}}},
          {"name":"unknown_184","op":"Const","attr":{"value":{"tensor":{"dtype":"DT_FLOAT","tensorShape":{"dim":[{"size":"288"}]}}},"dtype":{"type":"DT_FLOAT"}}},
          {"name":"unknown_185","op":"Const","attr":{"value":{"tensor":{"dtype":"DT_FLOAT","tensorShape":{"dim":[{"size":"3"},{"size":"3"},{"size":"288"},{"size":"1"}]}}},"dtype":{"type":"DT_FLOAT"}}},
          {"name":"unknown_187","op":"Const","attr":{"value":{"tensor":{"dtype":"DT_FLOAT","tensorShape":{"dim":[{"size":"1"},{"size":"1"},{"size":"288"},{"size":"288"}]}}},"dtype":{"type":"DT_FLOAT"}}},
          {"name":"unknown_188","op":"Const","attr":{"value":{"tensor":{"dtype":"DT_FLOAT","tensorShape":{"dim":[{"size":"288"}]}}},"dtype":{"type":"DT_FLOAT"}}},
          {"name":"unknown_189","op":"Const","attr":{"value":{"tensor":{"dtype":"DT_FLOAT","tensorShape":{"dim":[{"size":"3"},{"size":"3"},{"size":"288"},{"size":"1"}]}}},"dtype":{"type":"DT_FLOAT"}}},
          {"name":"unknown_191","op":"Const","attr":{"value":{"tensor":{"dtype":"DT_FLOAT","tensorShape":{"dim":[{"size":"1"},{"size":"1"},{"size":"288"},{"size":"288"}]}}},"dtype":{"type":"DT_FLOAT"}}},
          {"name":"unknown_192","op":"Const","attr":{"value":{"tensor":{"dtype":"DT_FLOAT","tensorShape":{"dim":[{"size":"288"}]}}},"dtype":{"type":"DT_FLOAT"}}},
          {"name":"unknown_271","op":"Const","attr":{"value":{"tensor":{"dtype":"DT_FLOAT","tensorShape":{"dim":[{"size":"2"},{"size":"2"},{"size":"288"},{"size":"156"}]}}},"dtype":{"type":"DT_FLOAT"}}},
          {"name":"unknown_272","op":"Const","attr":{"value":{"tensor":{"dtype":"DT_FLOAT","tensorShape":{"dim":[{"size":"156"}]}}},"dtype":{"type":"DT_FLOAT"}}},
          {"name":"StatefulPartitionedCall/functional_1/tf_op_layer_ld_3d/ld_3d/shape","op":"Const","attr":{"value":{"tensor":{"dtype":"DT_INT32","tensorShape":{"dim":[{"size":"2"}]}}},"dtype":{"type":"DT_INT32"}}},
          {"name":"input","op":"Placeholder","attr":{"shape":{"shape":{"dim":[{"size":"-1"},{"size":"256"},{"size":"256"},{"size":"3"}]}},"dtype":{"type":"DT_FLOAT"}}},
          {"name":"StatefulPartitionedCall/functional_1/conv2d/Relu","op":"_FusedConv2D","input":["input","unknown","unknown_0"],"device":"/device:CPU:0","attr":{"T":{"type":"DT_FLOAT"},"strides":{"list":{"i":["1","2","2","1"]}},"data_format":{"s":"TkhXQw=="},"explicit_paddings":{"list":{}},"use_cudnn_on_gpu":{"b":true},"num_args":{"i":"1"},"epsilon":{"f":0},"padding":{"s":"U0FNRQ=="},"fused_ops":{"list":{"s":["Qmlhc0FkZA==","UmVsdQ=="]}},"dilations":{"list":{"i":["1","1","1","1"]}}}},
          {"name":"StatefulPartitionedCall/functional_1/depthwise_conv2d/depthwise","op":"DepthwiseConv2dNative","input":["StatefulPartitionedCall/functional_1/conv2d/Relu","unknown_1"],"attr":{"dilations":{"list":{"i":["1","1","1","1"]}},"T":{"type":"DT_FLOAT"},"data_format":{"s":"TkhXQw=="},"strides":{"list":{"i":["1","1","1","1"]}},"explicit_paddings":{"list":{}},"padding":{"s":"U0FNRQ=="}}},
          {"name":"StatefulPartitionedCall/functional_1/conv2d_1/BiasAdd","op":"_FusedConv2D","input":["StatefulPartitionedCall/functional_1/depthwise_conv2d/depthwise","unknown_3","unknown_4"],"device":"/device:CPU:0","attr":{"dilations":{"list":{"i":["1","1","1","1"]}},"T":{"type":"DT_FLOAT"},"data_format":{"s":"TkhXQw=="},"strides":{"list":{"i":["1","1","1","1"]}},"use_cudnn_on_gpu":{"b":true},"explicit_paddings":{"list":{}},"num_args":{"i":"1"},"epsilon":{"f":0},"padding":{"s":"VkFMSUQ="},"fused_ops":{"list":{"s":["Qmlhc0FkZA=="]}}}},
          {"name":"StatefulPartitionedCall/functional_1/add/add","op":"AddV2","input":["StatefulPartitionedCall/functional_1/conv2d/Relu","StatefulPartitionedCall/functional_1/conv2d_1/BiasAdd"],"attr":{"T":{"type":"DT_FLOAT"}}},
          {"name":"StatefulPartitionedCall/functional_1/re_lu/Relu","op":"Relu","input":["StatefulPartitionedCall/functional_1/add/add"],"attr":{"T":{"type":"DT_FLOAT"}}},
          {"name":"StatefulPartitionedCall/functional_1/depthwise_conv2d_1/depthwise","op":"DepthwiseConv2dNative","input":["StatefulPartitionedCall/functional_1/re_lu/Relu","unknown_5"],"attr":{"padding":{"s":"U0FNRQ=="},"dilations":{"list":{"i":["1","1","1","1"]}},"T":{"type":"DT_FLOAT"},"data_format":{"s":"TkhXQw=="},"strides":{"list":{"i":["1","1","1","1"]}},"explicit_paddings":{"list":{}}}},
          {"name":"StatefulPartitionedCall/functional_1/conv2d_2/BiasAdd","op":"_FusedConv2D","input":["StatefulPartitionedCall/functional_1/depthwise_conv2d_1/depthwise","unknown_7","unknown_8"],"device":"/device:CPU:0","attr":{"num_args":{"i":"1"},"epsilon":{"f":0},"padding":{"s":"VkFMSUQ="},"fused_ops":{"list":{"s":["Qmlhc0FkZA=="]}},"dilations":{"list":{"i":["1","1","1","1"]}},"T":{"type":"DT_FLOAT"},"data_format":{"s":"TkhXQw=="},"strides":{"list":{"i":["1","1","1","1"]}},"explicit_paddings":{"list":{}},"use_cudnn_on_gpu":{"b":true}}},
          {"name":"StatefulPartitionedCall/functional_1/add_1/add","op":"AddV2","input":["StatefulPartitionedCall/functional_1/re_lu/Relu","StatefulPartitionedCall/functional_1/conv2d_2/BiasAdd"],"attr":{"T":{"type":"DT_FLOAT"}}},
          {"name":"StatefulPartitionedCall/functional_1/re_lu_1/Relu","op":"Relu","input":["StatefulPartitionedCall/functional_1/add_1/add"],"attr":{"T":{"type":"DT_FLOAT"}}},
          {"name":"StatefulPartitionedCall/functional_1/depthwise_conv2d_66/depthwise","op":"DepthwiseConv2dNative","input":["StatefulPartitionedCall/functional_1/re_lu_1/Relu","unknown_261"],"attr":{"dilations":{"list":{"i":["1","1","1","1"]}},"T":{"type":"DT_FLOAT"},"strides":{"list":{"i":["1","1","1","1"]}},"data_format":{"s":"TkhXQw=="},"explicit_paddings":{"list":{}},"padding":{"s":"U0FNRQ=="}}},
          {"name":"StatefulPartitionedCall/functional_1/depthwise_conv2d_2/depthwise","op":"DepthwiseConv2dNative","input":["StatefulPartitionedCall/functional_1/re_lu_1/Relu","unknown_9"],"attr":{"padding":{"s":"U0FNRQ=="},"dilations":{"list":{"i":["1","1","1","1"]}},"T":{"type":"DT_FLOAT"},"strides":{"list":{"i":["1","2","2","1"]}},"data_format":{"s":"TkhXQw=="},"explicit_paddings":{"list":{}}}},
          {"name":"StatefulPartitionedCall/functional_1/max_pooling2d/MaxPool","op":"MaxPool","input":["StatefulPartitionedCall/functional_1/re_lu_1/Relu"],"attr":{"data_format":{"s":"TkhXQw=="},"strides":{"list":{"i":["1","2","2","1"]}},"ksize":{"list":{"i":["1","2","2","1"]}},"padding":{"s":"VkFMSUQ="},"T":{"type":"DT_FLOAT"}}},
          {"name":"StatefulPartitionedCall/functional_1/conv2d_67/Relu","op":"_FusedConv2D","input":["StatefulPartitionedCall/functional_1/depthwise_conv2d_66/depthwise","unknown_267","unknown_268"],"device":"/device:CPU:0","attr":{"dilations":{"list":{"i":["1","1","1","1"]}},"T":{"type":"DT_FLOAT"},"data_format":{"s":"TkhXQw=="},"strides":{"list":{"i":["1","1","1","1"]}},"use_cudnn_on_gpu":{"b":true},"explicit_paddings":{"list":{}},"num_args":{"i":"1"},"epsilon":{"f":0},"padding":{"s":"VkFMSUQ="},"fused_ops":{"list":{"s":["Qmlhc0FkZA==","UmVsdQ=="]}}}},
          {"name":"StatefulPartitionedCall/functional_1/conv2d_3/BiasAdd","op":"_FusedConv2D","input":["StatefulPartitionedCall/functional_1/depthwise_conv2d_2/depthwise","unknown_11","unknown_12"],"device":"/device:CPU:0","attr":{"dilations":{"list":{"i":["1","1","1","1"]}},"T":{"type":"DT_FLOAT"},"strides":{"list":{"i":["1","1","1","1"]}},"data_format":{"s":"TkhXQw=="},"explicit_paddings":{"list":{}},"use_cudnn_on_gpu":{"b":true},"num_args":{"i":"1"},"epsilon":{"f":0},"padding":{"s":"VkFMSUQ="},"fused_ops":{"list":{"s":["Qmlhc0FkZA=="]}}}},
          {"name":"StatefulPartitionedCall/functional_1/tf_op_layer_Pad/Pad","op":"Pad","input":["StatefulPartitionedCall/functional_1/max_pooling2d/MaxPool","StatefulPartitionedCall/functional_1/tf_op_layer_Pad/Pad/paddings"],"attr":{"Tpaddings":{"type":"DT_INT32"},"_cloned":{"b":true},"T":{"type":"DT_FLOAT"}}},
          {"name":"StatefulPartitionedCall/functional_1/add_2/add","op":"AddV2","input":["StatefulPartitionedCall/functional_1/conv2d_3/BiasAdd","StatefulPartitionedCall/functional_1/tf_op_layer_Pad/Pad"],"attr":{"T":{"type":"DT_FLOAT"}}},
          {"name":"StatefulPartitionedCall/functional_1/re_lu_2/Relu","op":"Relu","input":["StatefulPartitionedCall/functional_1/add_2/add"],"attr":{"T":{"type":"DT_FLOAT"}}},
          {"name":"StatefulPartitionedCall/functional_1/depthwise_conv2d_3/depthwise","op":"DepthwiseConv2dNative","input":["StatefulPartitionedCall/functional_1/re_lu_2/Relu","unknown_13"],"attr":{"dilations":{"list":{"i":["1","1","1","1"]}},"T":{"type":"DT_FLOAT"},"data_format":{"s":"TkhXQw=="},"strides":{"list":{"i":["1","1","1","1"]}},"explicit_paddings":{"list":{}},"padding":{"s":"U0FNRQ=="}}},
          {"name":"StatefulPartitionedCall/functional_1/conv2d_4/BiasAdd","op":"_FusedConv2D","input":["StatefulPartitionedCall/functional_1/depthwise_conv2d_3/depthwise","unknown_15","unknown_16"],"device":"/device:CPU:0","attr":{"strides":{"list":{"i":["1","1","1","1"]}},"data_format":{"s":"TkhXQw=="},"explicit_paddings":{"list":{}},"use_cudnn_on_gpu":{"b":true},"num_args":{"i":"1"},"epsilon":{"f":0},"padding":{"s":"VkFMSUQ="},"fused_ops":{"list":{"s":["Qmlhc0FkZA=="]}},"dilations":{"list":{"i":["1","1","1","1"]}},"T":{"type":"DT_FLOAT"}}},
          {"name":"StatefulPartitionedCall/functional_1/add_3/add","op":"AddV2","input":["StatefulPartitionedCall/functional_1/re_lu_2/Relu","StatefulPartitionedCall/functional_1/conv2d_4/BiasAdd"],"attr":{"T":{"type":"DT_FLOAT"}}},
          {"name":"StatefulPartitionedCall/functional_1/re_lu_3/Relu","op":"Relu","input":["StatefulPartitionedCall/functional_1/add_3/add"],"attr":{"T":{"type":"DT_FLOAT"}}},
          {"name":"StatefulPartitionedCall/functional_1/depthwise_conv2d_4/depthwise","op":"DepthwiseConv2dNative","input":["StatefulPartitionedCall/functional_1/re_lu_3/Relu","unknown_17"],"attr":{"T":{"type":"DT_FLOAT"},"strides":{"list":{"i":["1","1","1","1"]}},"data_format":{"s":"TkhXQw=="},"explicit_paddings":{"list":{}},"padding":{"s":"U0FNRQ=="},"dilations":{"list":{"i":["1","1","1","1"]}}}},
          {"name":"StatefulPartitionedCall/functional_1/conv2d_5/BiasAdd","op":"_FusedConv2D","input":["StatefulPartitionedCall/functional_1/depthwise_conv2d_4/depthwise","unknown_19","unknown_20"],"device":"/device:CPU:0","attr":{"dilations":{"list":{"i":["1","1","1","1"]}},"T":{"type":"DT_FLOAT"},"strides":{"list":{"i":["1","1","1","1"]}},"data_format":{"s":"TkhXQw=="},"use_cudnn_on_gpu":{"b":true},"explicit_paddings":{"list":{}},"num_args":{"i":"1"},"epsilon":{"f":0},"padding":{"s":"VkFMSUQ="},"fused_ops":{"list":{"s":["Qmlhc0FkZA=="]}}}},
          {"name":"StatefulPartitionedCall/functional_1/add_4/add","op":"AddV2","input":["StatefulPartitionedCall/functional_1/re_lu_3/Relu","StatefulPartitionedCall/functional_1/conv2d_5/BiasAdd"],"attr":{"T":{"type":"DT_FLOAT"}}},
          {"name":"StatefulPartitionedCall/functional_1/re_lu_4/Relu","op":"Relu","input":["StatefulPartitionedCall/functional_1/add_4/add"],"attr":{"T":{"type":"DT_FLOAT"}}},
          {"name":"StatefulPartitionedCall/functional_1/depthwise_conv2d_5/depthwise","op":"DepthwiseConv2dNative","input":["StatefulPartitionedCall/functional_1/re_lu_4/Relu","unknown_21"],"attr":{"dilations":{"list":{"i":["1","1","1","1"]}},"T":{"type":"DT_FLOAT"},"data_format":{"s":"TkhXQw=="},"strides":{"list":{"i":["1","1","1","1"]}},"explicit_paddings":{"list":{}},"padding":{"s":"U0FNRQ=="}}},
          {"name":"StatefulPartitionedCall/functional_1/conv2d_6/BiasAdd","op":"_FusedConv2D","input":["StatefulPartitionedCall/functional_1/depthwise_conv2d_5/depthwise","unknown_23","unknown_24"],"device":"/device:CPU:0","attr":{"T":{"type":"DT_FLOAT"},"data_format":{"s":"TkhXQw=="},"strides":{"list":{"i":["1","1","1","1"]}},"explicit_paddings":{"list":{}},"use_cudnn_on_gpu":{"b":true},"num_args":{"i":"1"},"epsilon":{"f":0},"padding":{"s":"VkFMSUQ="},"fused_ops":{"list":{"s":["Qmlhc0FkZA=="]}},"dilations":{"list":{"i":["1","1","1","1"]}}}},
          {"name":"StatefulPartitionedCall/functional_1/add_5/add","op":"AddV2","input":["StatefulPartitionedCall/functional_1/re_lu_4/Relu","StatefulPartitionedCall/functional_1/conv2d_6/BiasAdd"],"attr":{"T":{"type":"DT_FLOAT"}}},
          {"name":"StatefulPartitionedCall/functional_1/re_lu_5/Relu","op":"Relu","input":["StatefulPartitionedCall/functional_1/add_5/add"],"attr":{"T":{"type":"DT_FLOAT"}}},
          {"name":"StatefulPartitionedCall/functional_1/depthwise_conv2d_27/depthwise","op":"DepthwiseConv2dNative","input":["StatefulPartitionedCall/functional_1/re_lu_5/Relu","unknown_109"],"attr":{"dilations":{"list":{"i":["1","1","1","1"]}},"T":{"type":"DT_FLOAT"},"data_format":{"s":"TkhXQw=="},"strides":{"list":{"i":["1","1","1","1"]}},"explicit_paddings":{"list":{}},"padding":{"s":"U0FNRQ=="}}},
          {"name":"StatefulPartitionedCall/functional_1/depthwise_conv2d_6/depthwise","op":"DepthwiseConv2dNative","input":["StatefulPartitionedCall/functional_1/re_lu_5/Relu","unknown_25"],"attr":{"data_format":{"s":"TkhXQw=="},"strides":{"list":{"i":["1","2","2","1"]}},"explicit_paddings":{"list":{}},"padding":{"s":"U0FNRQ=="},"dilations":{"list":{"i":["1","1","1","1"]}},"T":{"type":"DT_FLOAT"}}},
          {"name":"StatefulPartitionedCall/functional_1/max_pooling2d_1/MaxPool","op":"MaxPool","input":["StatefulPartitionedCall/functional_1/re_lu_5/Relu"],"attr":{"ksize":{"list":{"i":["1","2","2","1"]}},"padding":{"s":"VkFMSUQ="},"T":{"type":"DT_FLOAT"},"data_format":{"s":"TkhXQw=="},"strides":{"list":{"i":["1","2","2","1"]}}}},
          {"name":"StatefulPartitionedCall/functional_1/conv2d_28/Relu","op":"_FusedConv2D","input":["StatefulPartitionedCall/functional_1/depthwise_conv2d_27/depthwise","unknown_111","unknown_112"],"device":"/device:CPU:0","attr":{"num_args":{"i":"1"},"epsilon":{"f":0},"padding":{"s":"VkFMSUQ="},"fused_ops":{"list":{"s":["Qmlhc0FkZA==","UmVsdQ=="]}},"dilations":{"list":{"i":["1","1","1","1"]}},"T":{"type":"DT_FLOAT"},"strides":{"list":{"i":["1","1","1","1"]}},"data_format":{"s":"TkhXQw=="},"explicit_paddings":{"list":{}},"use_cudnn_on_gpu":{"b":true}}},
          {"name":"StatefulPartitionedCall/functional_1/conv2d_7/BiasAdd","op":"_FusedConv2D","input":["StatefulPartitionedCall/functional_1/depthwise_conv2d_6/depthwise","unknown_27","unknown_28"],"device":"/device:CPU:0","attr":{"dilations":{"list":{"i":["1","1","1","1"]}},"T":{"type":"DT_FLOAT"},"data_format":{"s":"TkhXQw=="},"strides":{"list":{"i":["1","1","1","1"]}},"explicit_paddings":{"list":{}},"use_cudnn_on_gpu":{"b":true},"num_args":{"i":"1"},"epsilon":{"f":0},"padding":{"s":"VkFMSUQ="},"fused_ops":{"list":{"s":["Qmlhc0FkZA=="]}}}},
          {"name":"StatefulPartitionedCall/functional_1/tf_op_layer_Pad_1/Pad_1","op":"Pad","input":["StatefulPartitionedCall/functional_1/max_pooling2d_1/MaxPool","StatefulPartitionedCall/functional_1/tf_op_layer_Pad_1/Pad_1/paddings"],"attr":{"_cloned":{"b":true},"T":{"type":"DT_FLOAT"},"Tpaddings":{"type":"DT_INT32"}}},
          {"name":"StatefulPartitionedCall/functional_1/add_6/add","op":"AddV2","input":["StatefulPartitionedCall/functional_1/conv2d_7/BiasAdd","StatefulPartitionedCall/functional_1/tf_op_layer_Pad_1/Pad_1"],"attr":{"T":{"type":"DT_FLOAT"}}},
          {"name":"StatefulPartitionedCall/functional_1/re_lu_6/Relu","op":"Relu","input":["StatefulPartitionedCall/functional_1/add_6/add"],"attr":{"T":{"type":"DT_FLOAT"}}},
          {"name":"StatefulPartitionedCall/functional_1/depthwise_conv2d_7/depthwise","op":"DepthwiseConv2dNative","input":["StatefulPartitionedCall/functional_1/re_lu_6/Relu","unknown_29"],"attr":{"T":{"type":"DT_FLOAT"},"data_format":{"s":"TkhXQw=="},"strides":{"list":{"i":["1","1","1","1"]}},"explicit_paddings":{"list":{}},"padding":{"s":"U0FNRQ=="},"dilations":{"list":{"i":["1","1","1","1"]}}}},
          {"name":"StatefulPartitionedCall/functional_1/conv2d_8/BiasAdd","op":"_FusedConv2D","input":["StatefulPartitionedCall/functional_1/depthwise_conv2d_7/depthwise","unknown_31","unknown_32"],"device":"/device:CPU:0","attr":{"dilations":{"list":{"i":["1","1","1","1"]}},"T":{"type":"DT_FLOAT"},"strides":{"list":{"i":["1","1","1","1"]}},"data_format":{"s":"TkhXQw=="},"explicit_paddings":{"list":{}},"use_cudnn_on_gpu":{"b":true},"num_args":{"i":"1"},"epsilon":{"f":0},"padding":{"s":"VkFMSUQ="},"fused_ops":{"list":{"s":["Qmlhc0FkZA=="]}}}},
          {"name":"StatefulPartitionedCall/functional_1/add_7/add","op":"AddV2","input":["StatefulPartitionedCall/functional_1/re_lu_6/Relu","StatefulPartitionedCall/functional_1/conv2d_8/BiasAdd"],"attr":{"T":{"type":"DT_FLOAT"}}},
          {"name":"StatefulPartitionedCall/functional_1/re_lu_7/Relu","op":"Relu","input":["StatefulPartitionedCall/functional_1/add_7/add"],"attr":{"T":{"type":"DT_FLOAT"}}},
          {"name":"StatefulPartitionedCall/functional_1/depthwise_conv2d_8/depthwise","op":"DepthwiseConv2dNative","input":["StatefulPartitionedCall/functional_1/re_lu_7/Relu","unknown_33"],"attr":{"dilations":{"list":{"i":["1","1","1","1"]}},"T":{"type":"DT_FLOAT"},"strides":{"list":{"i":["1","1","1","1"]}},"data_format":{"s":"TkhXQw=="},"explicit_paddings":{"list":{}},"padding":{"s":"U0FNRQ=="}}},
          {"name":"StatefulPartitionedCall/functional_1/conv2d_9/BiasAdd","op":"_FusedConv2D","input":["StatefulPartitionedCall/functional_1/depthwise_conv2d_8/depthwise","unknown_35","unknown_36"],"device":"/device:CPU:0","attr":{"fused_ops":{"list":{"s":["Qmlhc0FkZA=="]}},"dilations":{"list":{"i":["1","1","1","1"]}},"T":{"type":"DT_FLOAT"},"strides":{"list":{"i":["1","1","1","1"]}},"data_format":{"s":"TkhXQw=="},"use_cudnn_on_gpu":{"b":true},"explicit_paddings":{"list":{}},"num_args":{"i":"1"},"epsilon":{"f":0},"padding":{"s":"VkFMSUQ="}}},
          {"name":"StatefulPartitionedCall/functional_1/add_8/add","op":"AddV2","input":["StatefulPartitionedCall/functional_1/re_lu_7/Relu","StatefulPartitionedCall/functional_1/conv2d_9/BiasAdd"],"attr":{"T":{"type":"DT_FLOAT"}}},
          {"name":"StatefulPartitionedCall/functional_1/re_lu_8/Relu","op":"Relu","input":["StatefulPartitionedCall/functional_1/add_8/add"],"attr":{"T":{"type":"DT_FLOAT"}}},
          {"name":"StatefulPartitionedCall/functional_1/depthwise_conv2d_9/depthwise","op":"DepthwiseConv2dNative","input":["StatefulPartitionedCall/functional_1/re_lu_8/Relu","unknown_37"],"attr":{"T":{"type":"DT_FLOAT"},"data_format":{"s":"TkhXQw=="},"strides":{"list":{"i":["1","1","1","1"]}},"explicit_paddings":{"list":{}},"padding":{"s":"U0FNRQ=="},"dilations":{"list":{"i":["1","1","1","1"]}}}},
          {"name":"StatefulPartitionedCall/functional_1/conv2d_10/BiasAdd","op":"_FusedConv2D","input":["StatefulPartitionedCall/functional_1/depthwise_conv2d_9/depthwise","unknown_39","unknown_40"],"device":"/device:CPU:0","attr":{"T":{"type":"DT_FLOAT"},"strides":{"list":{"i":["1","1","1","1"]}},"data_format":{"s":"TkhXQw=="},"explicit_paddings":{"list":{}},"use_cudnn_on_gpu":{"b":true},"num_args":{"i":"1"},"epsilon":{"f":0},"padding":{"s":"VkFMSUQ="},"fused_ops":{"list":{"s":["Qmlhc0FkZA=="]}},"dilations":{"list":{"i":["1","1","1","1"]}}}},
          {"name":"StatefulPartitionedCall/functional_1/add_9/add","op":"AddV2","input":["StatefulPartitionedCall/functional_1/re_lu_8/Relu","StatefulPartitionedCall/functional_1/conv2d_10/BiasAdd"],"attr":{"T":{"type":"DT_FLOAT"}}},
          {"name":"StatefulPartitionedCall/functional_1/re_lu_9/Relu","op":"Relu","input":["StatefulPartitionedCall/functional_1/add_9/add"],"attr":{"T":{"type":"DT_FLOAT"}}},
          {"name":"StatefulPartitionedCall/functional_1/depthwise_conv2d_10/depthwise","op":"DepthwiseConv2dNative","input":["StatefulPartitionedCall/functional_1/re_lu_9/Relu","unknown_41"],"attr":{"padding":{"s":"U0FNRQ=="},"dilations":{"list":{"i":["1","1","1","1"]}},"T":{"type":"DT_FLOAT"},"data_format":{"s":"TkhXQw=="},"strides":{"list":{"i":["1","1","1","1"]}},"explicit_paddings":{"list":{}}}},
          {"name":"StatefulPartitionedCall/functional_1/conv2d_11/BiasAdd","op":"_FusedConv2D","input":["StatefulPartitionedCall/functional_1/depthwise_conv2d_10/depthwise","unknown_43","unknown_44"],"device":"/device:CPU:0","attr":{"dilations":{"list":{"i":["1","1","1","1"]}},"T":{"type":"DT_FLOAT"},"data_format":{"s":"TkhXQw=="},"strides":{"list":{"i":["1","1","1","1"]}},"explicit_paddings":{"list":{}},"use_cudnn_on_gpu":{"b":true},"num_args":{"i":"1"},"epsilon":{"f":0},"padding":{"s":"VkFMSUQ="},"fused_ops":{"list":{"s":["Qmlhc0FkZA=="]}}}},
          {"name":"StatefulPartitionedCall/functional_1/add_10/add","op":"AddV2","input":["StatefulPartitionedCall/functional_1/re_lu_9/Relu","StatefulPartitionedCall/functional_1/conv2d_11/BiasAdd"],"attr":{"T":{"type":"DT_FLOAT"}}},
          {"name":"StatefulPartitionedCall/functional_1/re_lu_10/Relu","op":"Relu","input":["StatefulPartitionedCall/functional_1/add_10/add"],"attr":{"T":{"type":"DT_FLOAT"}}},
          {"name":"StatefulPartitionedCall/functional_1/depthwise_conv2d_11/depthwise","op":"DepthwiseConv2dNative","input":["StatefulPartitionedCall/functional_1/re_lu_10/Relu","unknown_45"],"attr":{"data_format":{"s":"TkhXQw=="},"strides":{"list":{"i":["1","2","2","1"]}},"explicit_paddings":{"list":{}},"padding":{"s":"U0FNRQ=="},"dilations":{"list":{"i":["1","1","1","1"]}},"T":{"type":"DT_FLOAT"}}},
          {"name":"StatefulPartitionedCall/functional_1/max_pooling2d_2/MaxPool","op":"MaxPool","input":["StatefulPartitionedCall/functional_1/re_lu_10/Relu"],"attr":{"ksize":{"list":{"i":["1","2","2","1"]}},"padding":{"s":"VkFMSUQ="},"T":{"type":"DT_FLOAT"},"strides":{"list":{"i":["1","2","2","1"]}},"data_format":{"s":"TkhXQw=="}}},
          {"name":"StatefulPartitionedCall/functional_1/depthwise_conv2d_26/depthwise","op":"DepthwiseConv2dNative","input":["StatefulPartitionedCall/functional_1/re_lu_10/Relu","unknown_105"],"attr":{"dilations":{"list":{"i":["1","1","1","1"]}},"T":{"type":"DT_FLOAT"},"data_format":{"s":"TkhXQw=="},"strides":{"list":{"i":["1","1","1","1"]}},"explicit_paddings":{"list":{}},"padding":{"s":"U0FNRQ=="}}},
          {"name":"StatefulPartitionedCall/functional_1/depthwise_conv2d_33/depthwise","op":"DepthwiseConv2dNative","input":["StatefulPartitionedCall/functional_1/re_lu_10/Relu","unknown_133"],"attr":{"dilations":{"list":{"i":["1","1","1","1"]}},"T":{"type":"DT_FLOAT"},"strides":{"list":{"i":["1","1","1","1"]}},"data_format":{"s":"TkhXQw=="},"explicit_paddings":{"list":{}},"padding":{"s":"U0FNRQ=="}}},
          {"name":"StatefulPartitionedCall/functional_1/conv2d_12/BiasAdd","op":"_FusedConv2D","input":["StatefulPartitionedCall/functional_1/depthwise_conv2d_11/depthwise","unknown_47","unknown_48"],"device":"/device:CPU:0","attr":{"T":{"type":"DT_FLOAT"},"data_format":{"s":"TkhXQw=="},"strides":{"list":{"i":["1","1","1","1"]}},"explicit_paddings":{"list":{}},"use_cudnn_on_gpu":{"b":true},"num_args":{"i":"1"},"epsilon":{"f":0},"padding":{"s":"VkFMSUQ="},"fused_ops":{"list":{"s":["Qmlhc0FkZA=="]}},"dilations":{"list":{"i":["1","1","1","1"]}}}},
          {"name":"StatefulPartitionedCall/functional_1/tf_op_layer_Pad_2/Pad_2","op":"Pad","input":["StatefulPartitionedCall/functional_1/max_pooling2d_2/MaxPool","StatefulPartitionedCall/functional_1/tf_op_layer_Pad_2/Pad_2/paddings"],"attr":{"T":{"type":"DT_FLOAT"},"Tpaddings":{"type":"DT_INT32"},"_cloned":{"b":true}}},
          {"name":"StatefulPartitionedCall/functional_1/conv2d_27/Relu","op":"_FusedConv2D","input":["StatefulPartitionedCall/functional_1/depthwise_conv2d_26/depthwise","unknown_107","unknown_108"],"device":"/device:CPU:0","attr":{"dilations":{"list":{"i":["1","1","1","1"]}},"T":{"type":"DT_FLOAT"},"data_format":{"s":"TkhXQw=="},"strides":{"list":{"i":["1","1","1","1"]}},"explicit_paddings":{"list":{}},"use_cudnn_on_gpu":{"b":true},"num_args":{"i":"1"},"epsilon":{"f":0},"padding":{"s":"VkFMSUQ="},"fused_ops":{"list":{"s":["Qmlhc0FkZA==","UmVsdQ=="]}}}},
          {"name":"StatefulPartitionedCall/functional_1/conv2d_34/Relu","op":"_FusedConv2D","input":["StatefulPartitionedCall/functional_1/depthwise_conv2d_33/depthwise","unknown_135","unknown_136"],"device":"/device:CPU:0","attr":{"dilations":{"list":{"i":["1","1","1","1"]}},"T":{"type":"DT_FLOAT"},"data_format":{"s":"TkhXQw=="},"strides":{"list":{"i":["1","1","1","1"]}},"use_cudnn_on_gpu":{"b":true},"explicit_paddings":{"list":{}},"num_args":{"i":"1"},"epsilon":{"f":0},"padding":{"s":"VkFMSUQ="},"fused_ops":{"list":{"s":["Qmlhc0FkZA==","UmVsdQ=="]}}}},
          {"name":"StatefulPartitionedCall/functional_1/add_11/add","op":"AddV2","input":["StatefulPartitionedCall/functional_1/conv2d_12/BiasAdd","StatefulPartitionedCall/functional_1/tf_op_layer_Pad_2/Pad_2"],"attr":{"T":{"type":"DT_FLOAT"}}},
          {"name":"StatefulPartitionedCall/functional_1/re_lu_11/Relu","op":"Relu","input":["StatefulPartitionedCall/functional_1/add_11/add"],"attr":{"T":{"type":"DT_FLOAT"}}},
          {"name":"StatefulPartitionedCall/functional_1/depthwise_conv2d_12/depthwise","op":"DepthwiseConv2dNative","input":["StatefulPartitionedCall/functional_1/re_lu_11/Relu","unknown_49"],"attr":{"T":{"type":"DT_FLOAT"},"data_format":{"s":"TkhXQw=="},"strides":{"list":{"i":["1","1","1","1"]}},"explicit_paddings":{"list":{}},"padding":{"s":"U0FNRQ=="},"dilations":{"list":{"i":["1","1","1","1"]}}}},
          {"name":"StatefulPartitionedCall/functional_1/conv2d_13/BiasAdd","op":"_FusedConv2D","input":["StatefulPartitionedCall/functional_1/depthwise_conv2d_12/depthwise","unknown_51","unknown_52"],"device":"/device:CPU:0","attr":{"num_args":{"i":"1"},"epsilon":{"f":0},"padding":{"s":"VkFMSUQ="},"fused_ops":{"list":{"s":["Qmlhc0FkZA=="]}},"dilations":{"list":{"i":["1","1","1","1"]}},"T":{"type":"DT_FLOAT"},"strides":{"list":{"i":["1","1","1","1"]}},"data_format":{"s":"TkhXQw=="},"explicit_paddings":{"list":{}},"use_cudnn_on_gpu":{"b":true}}},
          {"name":"StatefulPartitionedCall/functional_1/add_12/add","op":"AddV2","input":["StatefulPartitionedCall/functional_1/re_lu_11/Relu","StatefulPartitionedCall/functional_1/conv2d_13/BiasAdd"],"attr":{"T":{"type":"DT_FLOAT"}}},
          {"name":"StatefulPartitionedCall/functional_1/re_lu_12/Relu","op":"Relu","input":["StatefulPartitionedCall/functional_1/add_12/add"],"attr":{"T":{"type":"DT_FLOAT"}}},
          {"name":"StatefulPartitionedCall/functional_1/depthwise_conv2d_13/depthwise","op":"DepthwiseConv2dNative","input":["StatefulPartitionedCall/functional_1/re_lu_12/Relu","unknown_53"],"attr":{"padding":{"s":"U0FNRQ=="},"dilations":{"list":{"i":["1","1","1","1"]}},"T":{"type":"DT_FLOAT"},"data_format":{"s":"TkhXQw=="},"strides":{"list":{"i":["1","1","1","1"]}},"explicit_paddings":{"list":{}}}},
          {"name":"StatefulPartitionedCall/functional_1/conv2d_14/BiasAdd","op":"_FusedConv2D","input":["StatefulPartitionedCall/functional_1/depthwise_conv2d_13/depthwise","unknown_55","unknown_56"],"device":"/device:CPU:0","attr":{"dilations":{"list":{"i":["1","1","1","1"]}},"T":{"type":"DT_FLOAT"},"strides":{"list":{"i":["1","1","1","1"]}},"data_format":{"s":"TkhXQw=="},"use_cudnn_on_gpu":{"b":true},"explicit_paddings":{"list":{}},"num_args":{"i":"1"},"epsilon":{"f":0},"padding":{"s":"VkFMSUQ="},"fused_ops":{"list":{"s":["Qmlhc0FkZA=="]}}}},
          {"name":"StatefulPartitionedCall/functional_1/add_13/add","op":"AddV2","input":["StatefulPartitionedCall/functional_1/re_lu_12/Relu","StatefulPartitionedCall/functional_1/conv2d_14/BiasAdd"],"attr":{"T":{"type":"DT_FLOAT"}}},
          {"name":"StatefulPartitionedCall/functional_1/re_lu_13/Relu","op":"Relu","input":["StatefulPartitionedCall/functional_1/add_13/add"],"attr":{"T":{"type":"DT_FLOAT"}}},
          {"name":"StatefulPartitionedCall/functional_1/depthwise_conv2d_14/depthwise","op":"DepthwiseConv2dNative","input":["StatefulPartitionedCall/functional_1/re_lu_13/Relu","unknown_57"],"attr":{"dilations":{"list":{"i":["1","1","1","1"]}},"T":{"type":"DT_FLOAT"},"data_format":{"s":"TkhXQw=="},"strides":{"list":{"i":["1","1","1","1"]}},"explicit_paddings":{"list":{}},"padding":{"s":"U0FNRQ=="}}},
          {"name":"StatefulPartitionedCall/functional_1/conv2d_15/BiasAdd","op":"_FusedConv2D","input":["StatefulPartitionedCall/functional_1/depthwise_conv2d_14/depthwise","unknown_59","unknown_60"],"device":"/device:CPU:0","attr":{"T":{"type":"DT_FLOAT"},"data_format":{"s":"TkhXQw=="},"strides":{"list":{"i":["1","1","1","1"]}},"explicit_paddings":{"list":{}},"use_cudnn_on_gpu":{"b":true},"num_args":{"i":"1"},"epsilon":{"f":0},"padding":{"s":"VkFMSUQ="},"fused_ops":{"list":{"s":["Qmlhc0FkZA=="]}},"dilations":{"list":{"i":["1","1","1","1"]}}}},
          {"name":"StatefulPartitionedCall/functional_1/add_14/add","op":"AddV2","input":["StatefulPartitionedCall/functional_1/re_lu_13/Relu","StatefulPartitionedCall/functional_1/conv2d_15/BiasAdd"],"attr":{"T":{"type":"DT_FLOAT"}}},
          {"name":"StatefulPartitionedCall/functional_1/re_lu_14/Relu","op":"Relu","input":["StatefulPartitionedCall/functional_1/add_14/add"],"attr":{"T":{"type":"DT_FLOAT"}}},
          {"name":"StatefulPartitionedCall/functional_1/depthwise_conv2d_15/depthwise","op":"DepthwiseConv2dNative","input":["StatefulPartitionedCall/functional_1/re_lu_14/Relu","unknown_61"],"attr":{"data_format":{"s":"TkhXQw=="},"strides":{"list":{"i":["1","1","1","1"]}},"explicit_paddings":{"list":{}},"padding":{"s":"U0FNRQ=="},"dilations":{"list":{"i":["1","1","1","1"]}},"T":{"type":"DT_FLOAT"}}},
          {"name":"StatefulPartitionedCall/functional_1/conv2d_16/BiasAdd","op":"_FusedConv2D","input":["StatefulPartitionedCall/functional_1/depthwise_conv2d_15/depthwise","unknown_63","unknown_64"],"device":"/device:CPU:0","attr":{"num_args":{"i":"1"},"epsilon":{"f":0},"padding":{"s":"VkFMSUQ="},"fused_ops":{"list":{"s":["Qmlhc0FkZA=="]}},"dilations":{"list":{"i":["1","1","1","1"]}},"T":{"type":"DT_FLOAT"},"data_format":{"s":"TkhXQw=="},"strides":{"list":{"i":["1","1","1","1"]}},"explicit_paddings":{"list":{}},"use_cudnn_on_gpu":{"b":true}}},
          {"name":"StatefulPartitionedCall/functional_1/add_15/add","op":"AddV2","input":["StatefulPartitionedCall/functional_1/re_lu_14/Relu","StatefulPartitionedCall/functional_1/conv2d_16/BiasAdd"],"attr":{"T":{"type":"DT_FLOAT"}}},
          {"name":"StatefulPartitionedCall/functional_1/re_lu_15/Relu","op":"Relu","input":["StatefulPartitionedCall/functional_1/add_15/add"],"attr":{"T":{"type":"DT_FLOAT"}}},
          {"name":"StatefulPartitionedCall/functional_1/depthwise_conv2d_16/depthwise","op":"DepthwiseConv2dNative","input":["StatefulPartitionedCall/functional_1/re_lu_15/Relu","unknown_65"],"attr":{"T":{"type":"DT_FLOAT"},"data_format":{"s":"TkhXQw=="},"strides":{"list":{"i":["1","1","1","1"]}},"explicit_paddings":{"list":{}},"padding":{"s":"U0FNRQ=="},"dilations":{"list":{"i":["1","1","1","1"]}}}},
          {"name":"StatefulPartitionedCall/functional_1/conv2d_17/BiasAdd","op":"_FusedConv2D","input":["StatefulPartitionedCall/functional_1/depthwise_conv2d_16/depthwise","unknown_67","unknown_68"],"device":"/device:CPU:0","attr":{"dilations":{"list":{"i":["1","1","1","1"]}},"T":{"type":"DT_FLOAT"},"strides":{"list":{"i":["1","1","1","1"]}},"data_format":{"s":"TkhXQw=="},"use_cudnn_on_gpu":{"b":true},"explicit_paddings":{"list":{}},"num_args":{"i":"1"},"epsilon":{"f":0},"padding":{"s":"VkFMSUQ="},"fused_ops":{"list":{"s":["Qmlhc0FkZA=="]}}}},
          {"name":"StatefulPartitionedCall/functional_1/add_16/add","op":"AddV2","input":["StatefulPartitionedCall/functional_1/re_lu_15/Relu","StatefulPartitionedCall/functional_1/conv2d_17/BiasAdd"],"attr":{"T":{"type":"DT_FLOAT"}}},
          {"name":"StatefulPartitionedCall/functional_1/re_lu_16/Relu","op":"Relu","input":["StatefulPartitionedCall/functional_1/add_16/add"],"attr":{"T":{"type":"DT_FLOAT"}}},
          {"name":"StatefulPartitionedCall/functional_1/depthwise_conv2d_40/depthwise","op":"DepthwiseConv2dNative","input":["StatefulPartitionedCall/functional_1/re_lu_16/Relu","unknown_161"],"attr":{"dilations":{"list":{"i":["1","1","1","1"]}},"T":{"type":"DT_FLOAT"},"data_format":{"s":"TkhXQw=="},"strides":{"list":{"i":["1","1","1","1"]}},"explicit_paddings":{"list":{}},"padding":{"s":"U0FNRQ=="}}},
          {"name":"StatefulPartitionedCall/functional_1/depthwise_conv2d_17/depthwise","op":"DepthwiseConv2dNative","input":["StatefulPartitionedCall/functional_1/re_lu_16/Relu","unknown_69"],"attr":{"dilations":{"list":{"i":["1","1","1","1"]}},"T":{"type":"DT_FLOAT"},"strides":{"list":{"i":["1","2","2","1"]}},"data_format":{"s":"TkhXQw=="},"explicit_paddings":{"list":{}},"padding":{"s":"U0FNRQ=="}}},
          {"name":"StatefulPartitionedCall/functional_1/max_pooling2d_3/MaxPool","op":"MaxPool","input":["StatefulPartitionedCall/functional_1/re_lu_16/Relu"],"attr":{"ksize":{"list":{"i":["1","2","2","1"]}},"padding":{"s":"VkFMSUQ="},"T":{"type":"DT_FLOAT"},"data_format":{"s":"TkhXQw=="},"strides":{"list":{"i":["1","2","2","1"]}}}},
          {"name":"StatefulPartitionedCall/functional_1/depthwise_conv2d_25/depthwise","op":"DepthwiseConv2dNative","input":["StatefulPartitionedCall/functional_1/re_lu_16/Relu","unknown_99"],"attr":{"dilations":{"list":{"i":["1","1","1","1"]}},"T":{"type":"DT_FLOAT"},"strides":{"list":{"i":["1","1","1","1"]}},"data_format":{"s":"TkhXQw=="},"explicit_paddings":{"list":{}},"padding":{"s":"U0FNRQ=="}}},
          {"name":"StatefulPartitionedCall/functional_1/conv2d_41/Relu","op":"_FusedConv2D","input":["StatefulPartitionedCall/functional_1/depthwise_conv2d_40/depthwise","unknown_163","unknown_164"],"device":"/device:CPU:0","attr":{"dilations":{"list":{"i":["1","1","1","1"]}},"T":{"type":"DT_FLOAT"},"strides":{"list":{"i":["1","1","1","1"]}},"data_format":{"s":"TkhXQw=="},"explicit_paddings":{"list":{}},"use_cudnn_on_gpu":{"b":true},"num_args":{"i":"1"},"epsilon":{"f":0},"padding":{"s":"VkFMSUQ="},"fused_ops":{"list":{"s":["Qmlhc0FkZA==","UmVsdQ=="]}}}},
          {"name":"StatefulPartitionedCall/functional_1/conv2d_18/BiasAdd","op":"_FusedConv2D","input":["StatefulPartitionedCall/functional_1/depthwise_conv2d_17/depthwise","unknown_71","unknown_72"],"device":"/device:CPU:0","attr":{"epsilon":{"f":0},"padding":{"s":"VkFMSUQ="},"fused_ops":{"list":{"s":["Qmlhc0FkZA=="]}},"dilations":{"list":{"i":["1","1","1","1"]}},"T":{"type":"DT_FLOAT"},"data_format":{"s":"TkhXQw=="},"strides":{"list":{"i":["1","1","1","1"]}},"use_cudnn_on_gpu":{"b":true},"explicit_paddings":{"list":{}},"num_args":{"i":"1"}}},
          {"name":"StatefulPartitionedCall/functional_1/tf_op_layer_Pad_3/Pad_3","op":"Pad","input":["StatefulPartitionedCall/functional_1/max_pooling2d_3/MaxPool","StatefulPartitionedCall/functional_1/tf_op_layer_Pad_3/Pad_3/paddings"],"attr":{"_cloned":{"b":true},"T":{"type":"DT_FLOAT"},"Tpaddings":{"type":"DT_INT32"}}},
          {"name":"StatefulPartitionedCall/functional_1/conv2d_26/Relu","op":"_FusedConv2D","input":["StatefulPartitionedCall/functional_1/depthwise_conv2d_25/depthwise","unknown_103","unknown_104"],"device":"/device:CPU:0","attr":{"dilations":{"list":{"i":["1","1","1","1"]}},"T":{"type":"DT_FLOAT"},"data_format":{"s":"TkhXQw=="},"strides":{"list":{"i":["1","1","1","1"]}},"explicit_paddings":{"list":{}},"use_cudnn_on_gpu":{"b":true},"num_args":{"i":"1"},"epsilon":{"f":0},"padding":{"s":"VkFMSUQ="},"fused_ops":{"list":{"s":["Qmlhc0FkZA==","UmVsdQ=="]}}}},
          {"name":"StatefulPartitionedCall/functional_1/add_17/add","op":"AddV2","input":["StatefulPartitionedCall/functional_1/conv2d_18/BiasAdd","StatefulPartitionedCall/functional_1/tf_op_layer_Pad_3/Pad_3"],"attr":{"T":{"type":"DT_FLOAT"}}},
          {"name":"StatefulPartitionedCall/functional_1/re_lu_17/Relu","op":"Relu","input":["StatefulPartitionedCall/functional_1/add_17/add"],"attr":{"T":{"type":"DT_FLOAT"}}},
          {"name":"StatefulPartitionedCall/functional_1/depthwise_conv2d_18/depthwise","op":"DepthwiseConv2dNative","input":["StatefulPartitionedCall/functional_1/re_lu_17/Relu","unknown_73"],"attr":{"dilations":{"list":{"i":["1","1","1","1"]}},"T":{"type":"DT_FLOAT"},"data_format":{"s":"TkhXQw=="},"strides":{"list":{"i":["1","1","1","1"]}},"explicit_paddings":{"list":{}},"padding":{"s":"U0FNRQ=="}}},
          {"name":"StatefulPartitionedCall/functional_1/conv2d_19/BiasAdd","op":"_FusedConv2D","input":["StatefulPartitionedCall/functional_1/depthwise_conv2d_18/depthwise","unknown_75","unknown_76"],"device":"/device:CPU:0","attr":{"epsilon":{"f":0},"padding":{"s":"VkFMSUQ="},"fused_ops":{"list":{"s":["Qmlhc0FkZA=="]}},"dilations":{"list":{"i":["1","1","1","1"]}},"T":{"type":"DT_FLOAT"},"data_format":{"s":"TkhXQw=="},"strides":{"list":{"i":["1","1","1","1"]}},"use_cudnn_on_gpu":{"b":true},"explicit_paddings":{"list":{}},"num_args":{"i":"1"}}},
          {"name":"StatefulPartitionedCall/functional_1/add_18/add","op":"AddV2","input":["StatefulPartitionedCall/functional_1/re_lu_17/Relu","StatefulPartitionedCall/functional_1/conv2d_19/BiasAdd"],"attr":{"T":{"type":"DT_FLOAT"}}},
          {"name":"StatefulPartitionedCall/functional_1/re_lu_18/Relu","op":"Relu","input":["StatefulPartitionedCall/functional_1/add_18/add"],"attr":{"T":{"type":"DT_FLOAT"}}},
          {"name":"StatefulPartitionedCall/functional_1/depthwise_conv2d_19/depthwise","op":"DepthwiseConv2dNative","input":["StatefulPartitionedCall/functional_1/re_lu_18/Relu","unknown_77"],"attr":{"dilations":{"list":{"i":["1","1","1","1"]}},"T":{"type":"DT_FLOAT"},"data_format":{"s":"TkhXQw=="},"strides":{"list":{"i":["1","1","1","1"]}},"explicit_paddings":{"list":{}},"padding":{"s":"U0FNRQ=="}}},
          {"name":"StatefulPartitionedCall/functional_1/conv2d_20/BiasAdd","op":"_FusedConv2D","input":["StatefulPartitionedCall/functional_1/depthwise_conv2d_19/depthwise","unknown_79","unknown_80"],"device":"/device:CPU:0","attr":{"num_args":{"i":"1"},"epsilon":{"f":0},"padding":{"s":"VkFMSUQ="},"fused_ops":{"list":{"s":["Qmlhc0FkZA=="]}},"dilations":{"list":{"i":["1","1","1","1"]}},"T":{"type":"DT_FLOAT"},"data_format":{"s":"TkhXQw=="},"strides":{"list":{"i":["1","1","1","1"]}},"use_cudnn_on_gpu":{"b":true},"explicit_paddings":{"list":{}}}},
          {"name":"StatefulPartitionedCall/functional_1/add_19/add","op":"AddV2","input":["StatefulPartitionedCall/functional_1/re_lu_18/Relu","StatefulPartitionedCall/functional_1/conv2d_20/BiasAdd"],"attr":{"T":{"type":"DT_FLOAT"}}},
          {"name":"StatefulPartitionedCall/functional_1/re_lu_19/Relu","op":"Relu","input":["StatefulPartitionedCall/functional_1/add_19/add"],"attr":{"T":{"type":"DT_FLOAT"}}},
          {"name":"StatefulPartitionedCall/functional_1/depthwise_conv2d_20/depthwise","op":"DepthwiseConv2dNative","input":["StatefulPartitionedCall/functional_1/re_lu_19/Relu","unknown_81"],"attr":{"data_format":{"s":"TkhXQw=="},"strides":{"list":{"i":["1","1","1","1"]}},"explicit_paddings":{"list":{}},"padding":{"s":"U0FNRQ=="},"dilations":{"list":{"i":["1","1","1","1"]}},"T":{"type":"DT_FLOAT"}}},
          {"name":"StatefulPartitionedCall/functional_1/conv2d_21/BiasAdd","op":"_FusedConv2D","input":["StatefulPartitionedCall/functional_1/depthwise_conv2d_20/depthwise","unknown_83","unknown_84"],"device":"/device:CPU:0","attr":{"dilations":{"list":{"i":["1","1","1","1"]}},"T":{"type":"DT_FLOAT"},"data_format":{"s":"TkhXQw=="},"strides":{"list":{"i":["1","1","1","1"]}},"use_cudnn_on_gpu":{"b":true},"explicit_paddings":{"list":{}},"num_args":{"i":"1"},"epsilon":{"f":0},"padding":{"s":"VkFMSUQ="},"fused_ops":{"list":{"s":["Qmlhc0FkZA=="]}}}},
          {"name":"StatefulPartitionedCall/functional_1/add_20/add","op":"AddV2","input":["StatefulPartitionedCall/functional_1/re_lu_19/Relu","StatefulPartitionedCall/functional_1/conv2d_21/BiasAdd"],"attr":{"T":{"type":"DT_FLOAT"}}},
          {"name":"StatefulPartitionedCall/functional_1/re_lu_20/Relu","op":"Relu","input":["StatefulPartitionedCall/functional_1/add_20/add"],"attr":{"T":{"type":"DT_FLOAT"}}},
          {"name":"StatefulPartitionedCall/functional_1/depthwise_conv2d_21/depthwise","op":"DepthwiseConv2dNative","input":["StatefulPartitionedCall/functional_1/re_lu_20/Relu","unknown_85"],"attr":{"padding":{"s":"U0FNRQ=="},"dilations":{"list":{"i":["1","1","1","1"]}},"T":{"type":"DT_FLOAT"},"strides":{"list":{"i":["1","1","1","1"]}},"data_format":{"s":"TkhXQw=="},"explicit_paddings":{"list":{}}}},
          {"name":"StatefulPartitionedCall/functional_1/conv2d_22/BiasAdd","op":"_FusedConv2D","input":["StatefulPartitionedCall/functional_1/depthwise_conv2d_21/depthwise","unknown_87","unknown_88"],"device":"/device:CPU:0","attr":{"dilations":{"list":{"i":["1","1","1","1"]}},"T":{"type":"DT_FLOAT"},"strides":{"list":{"i":["1","1","1","1"]}},"data_format":{"s":"TkhXQw=="},"use_cudnn_on_gpu":{"b":true},"explicit_paddings":{"list":{}},"num_args":{"i":"1"},"epsilon":{"f":0},"padding":{"s":"VkFMSUQ="},"fused_ops":{"list":{"s":["Qmlhc0FkZA=="]}}}},
          {"name":"StatefulPartitionedCall/functional_1/add_21/add","op":"AddV2","input":["StatefulPartitionedCall/functional_1/re_lu_20/Relu","StatefulPartitionedCall/functional_1/conv2d_22/BiasAdd"],"attr":{"T":{"type":"DT_FLOAT"}}},
          {"name":"StatefulPartitionedCall/functional_1/re_lu_21/Relu","op":"Relu","input":["StatefulPartitionedCall/functional_1/add_21/add"],"attr":{"T":{"type":"DT_FLOAT"}}},
          {"name":"StatefulPartitionedCall/functional_1/depthwise_conv2d_22/depthwise","op":"DepthwiseConv2dNative","input":["StatefulPartitionedCall/functional_1/re_lu_21/Relu","unknown_89"],"attr":{"padding":{"s":"U0FNRQ=="},"dilations":{"list":{"i":["1","1","1","1"]}},"T":{"type":"DT_FLOAT"},"data_format":{"s":"TkhXQw=="},"strides":{"list":{"i":["1","1","1","1"]}},"explicit_paddings":{"list":{}}}},
          {"name":"StatefulPartitionedCall/functional_1/conv2d_23/BiasAdd","op":"_FusedConv2D","input":["StatefulPartitionedCall/functional_1/depthwise_conv2d_22/depthwise","unknown_91","unknown_92"],"device":"/device:CPU:0","attr":{"T":{"type":"DT_FLOAT"},"data_format":{"s":"TkhXQw=="},"strides":{"list":{"i":["1","1","1","1"]}},"use_cudnn_on_gpu":{"b":true},"explicit_paddings":{"list":{}},"num_args":{"i":"1"},"epsilon":{"f":0},"padding":{"s":"VkFMSUQ="},"fused_ops":{"list":{"s":["Qmlhc0FkZA=="]}},"dilations":{"list":{"i":["1","1","1","1"]}}}},
          {"name":"StatefulPartitionedCall/functional_1/add_22/add","op":"AddV2","input":["StatefulPartitionedCall/functional_1/re_lu_21/Relu","StatefulPartitionedCall/functional_1/conv2d_23/BiasAdd"],"attr":{"T":{"type":"DT_FLOAT"}}},
          {"name":"StatefulPartitionedCall/functional_1/re_lu_22/Relu","op":"Relu","input":["StatefulPartitionedCall/functional_1/add_22/add"],"attr":{"T":{"type":"DT_FLOAT"}}},
          {"name":"StatefulPartitionedCall/functional_1/depthwise_conv2d_23/depthwise","op":"DepthwiseConv2dNative","input":["StatefulPartitionedCall/functional_1/re_lu_22/Relu","unknown_93"],"attr":{"dilations":{"list":{"i":["1","1","1","1"]}},"T":{"type":"DT_FLOAT"},"data_format":{"s":"TkhXQw=="},"strides":{"list":{"i":["1","1","1","1"]}},"explicit_paddings":{"list":{}},"padding":{"s":"U0FNRQ=="}}},
          {"name":"StatefulPartitionedCall/functional_1/conv2d_24/BiasAdd","op":"_FusedConv2D","input":["StatefulPartitionedCall/functional_1/depthwise_conv2d_23/depthwise","unknown_95","unknown_96"],"device":"/device:CPU:0","attr":{"dilations":{"list":{"i":["1","1","1","1"]}},"T":{"type":"DT_FLOAT"},"data_format":{"s":"TkhXQw=="},"strides":{"list":{"i":["1","1","1","1"]}},"explicit_paddings":{"list":{}},"use_cudnn_on_gpu":{"b":true},"num_args":{"i":"1"},"epsilon":{"f":0},"padding":{"s":"VkFMSUQ="},"fused_ops":{"list":{"s":["Qmlhc0FkZA=="]}}}},
          {"name":"StatefulPartitionedCall/functional_1/add_23/add","op":"AddV2","input":["StatefulPartitionedCall/functional_1/re_lu_22/Relu","StatefulPartitionedCall/functional_1/conv2d_24/BiasAdd"],"attr":{"T":{"type":"DT_FLOAT"}}},
          {"name":"StatefulPartitionedCall/functional_1/re_lu_23/Relu","op":"Relu","input":["StatefulPartitionedCall/functional_1/add_23/add"],"attr":{"T":{"type":"DT_FLOAT"}}},
          {"name":"StatefulPartitionedCall/functional_1/depthwise_conv2d_48/depthwise","op":"DepthwiseConv2dNative","input":["StatefulPartitionedCall/functional_1/re_lu_23/Relu","unknown_193"],"attr":{"dilations":{"list":{"i":["1","1","1","1"]}},"T":{"type":"DT_FLOAT"},"strides":{"list":{"i":["1","1","1","1"]}},"data_format":{"s":"TkhXQw=="},"explicit_paddings":{"list":{}},"padding":{"s":"U0FNRQ=="}}},
          {"name":"StatefulPartitionedCall/functional_1/depthwise_conv2d_24/depthwise","op":"DepthwiseConv2dNative","input":["StatefulPartitionedCall/functional_1/re_lu_23/Relu","unknown_97"],"attr":{"dilations":{"list":{"i":["1","1","1","1"]}},"T":{"type":"DT_FLOAT"},"strides":{"list":{"i":["1","1","1","1"]}},"data_format":{"s":"TkhXQw=="},"explicit_paddings":{"list":{}},"padding":{"s":"U0FNRQ=="}}},
          {"name":"StatefulPartitionedCall/functional_1/conv2d_49/Relu","op":"_FusedConv2D","input":["StatefulPartitionedCall/functional_1/depthwise_conv2d_48/depthwise","unknown_195","unknown_196"],"device":"/device:CPU:0","attr":{"dilations":{"list":{"i":["1","1","1","1"]}},"T":{"type":"DT_FLOAT"},"data_format":{"s":"TkhXQw=="},"strides":{"list":{"i":["1","1","1","1"]}},"use_cudnn_on_gpu":{"b":true},"explicit_paddings":{"list":{}},"num_args":{"i":"1"},"epsilon":{"f":0},"padding":{"s":"VkFMSUQ="},"fused_ops":{"list":{"s":["Qmlhc0FkZA==","UmVsdQ=="]}}}},
          {"name":"StatefulPartitionedCall/functional_1/conv2d_25/Relu","op":"_FusedConv2D","input":["StatefulPartitionedCall/functional_1/depthwise_conv2d_24/depthwise","unknown_101","unknown_102"],"device":"/device:CPU:0","attr":{"fused_ops":{"list":{"s":["Qmlhc0FkZA==","UmVsdQ=="]}},"dilations":{"list":{"i":["1","1","1","1"]}},"T":{"type":"DT_FLOAT"},"strides":{"list":{"i":["1","1","1","1"]}},"data_format":{"s":"TkhXQw=="},"explicit_paddings":{"list":{}},"use_cudnn_on_gpu":{"b":true},"num_args":{"i":"1"},"epsilon":{"f":0},"padding":{"s":"VkFMSUQ="}}},
          {"name":"StatefulPartitionedCall/functional_1/tf_op_layer_ResizeBilinear/ResizeBilinear","op":"ResizeBilinear","input":["StatefulPartitionedCall/functional_1/conv2d_25/Relu","StatefulPartitionedCall/functional_1/tf_op_layer_ResizeBilinear/ResizeBilinear/size"],"attr":{"_cloned":{"b":true},"align_corners":{"b":false},"half_pixel_centers":{"b":true},"T":{"type":"DT_FLOAT"}}},
          {"name":"StatefulPartitionedCall/functional_1/add_24/add","op":"AddV2","input":["StatefulPartitionedCall/functional_1/tf_op_layer_ResizeBilinear/ResizeBilinear","StatefulPartitionedCall/functional_1/conv2d_26/Relu"],"attr":{"T":{"type":"DT_FLOAT"}}},
          {"name":"StatefulPartitionedCall/functional_1/tf_op_layer_ResizeBilinear_1/ResizeBilinear_1","op":"ResizeBilinear","input":["StatefulPartitionedCall/functional_1/add_24/add","StatefulPartitionedCall/functional_1/tf_op_layer_ResizeBilinear_1/ResizeBilinear_1/size"],"attr":{"_cloned":{"b":true},"align_corners":{"b":false},"half_pixel_centers":{"b":true},"T":{"type":"DT_FLOAT"}}},
          {"name":"StatefulPartitionedCall/functional_1/add_25/add","op":"AddV2","input":["StatefulPartitionedCall/functional_1/tf_op_layer_ResizeBilinear_1/ResizeBilinear_1","StatefulPartitionedCall/functional_1/conv2d_27/Relu"],"attr":{"T":{"type":"DT_FLOAT"}}},
          {"name":"StatefulPartitionedCall/functional_1/tf_op_layer_ResizeBilinear_2/ResizeBilinear_2","op":"ResizeBilinear","input":["StatefulPartitionedCall/functional_1/add_25/add","StatefulPartitionedCall/functional_1/tf_op_layer_ResizeBilinear_2/ResizeBilinear_2/size"],"attr":{"align_corners":{"b":false},"half_pixel_centers":{"b":true},"T":{"type":"DT_FLOAT"},"_cloned":{"b":true}}},
          {"name":"StatefulPartitionedCall/functional_1/add_26/add","op":"AddV2","input":["StatefulPartitionedCall/functional_1/tf_op_layer_ResizeBilinear_2/ResizeBilinear_2","StatefulPartitionedCall/functional_1/conv2d_28/Relu"],"attr":{"T":{"type":"DT_FLOAT"}}},
          {"name":"StatefulPartitionedCall/functional_1/depthwise_conv2d_65/depthwise","op":"DepthwiseConv2dNative","input":["StatefulPartitionedCall/functional_1/add_26/add","unknown_257"],"attr":{"dilations":{"list":{"i":["1","1","1","1"]}},"T":{"type":"DT_FLOAT"},"data_format":{"s":"TkhXQw=="},"strides":{"list":{"i":["1","1","1","1"]}},"explicit_paddings":{"list":{}},"padding":{"s":"U0FNRQ=="}}},
          {"name":"StatefulPartitionedCall/functional_1/depthwise_conv2d_28/depthwise","op":"DepthwiseConv2dNative","input":["StatefulPartitionedCall/functional_1/add_26/add","unknown_113"],"attr":{"padding":{"s":"U0FNRQ=="},"dilations":{"list":{"i":["1","1","1","1"]}},"T":{"type":"DT_FLOAT"},"strides":{"list":{"i":["1","2","2","1"]}},"data_format":{"s":"TkhXQw=="},"explicit_paddings":{"list":{}}}},
          {"name":"StatefulPartitionedCall/functional_1/max_pooling2d_4/MaxPool","op":"MaxPool","input":["StatefulPartitionedCall/functional_1/add_26/add"],"attr":{"ksize":{"list":{"i":["1","2","2","1"]}},"padding":{"s":"VkFMSUQ="},"T":{"type":"DT_FLOAT"},"data_format":{"s":"TkhXQw=="},"strides":{"list":{"i":["1","2","2","1"]}}}},
          {"name":"StatefulPartitionedCall/functional_1/conv2d_66/Relu","op":"_FusedConv2D","input":["StatefulPartitionedCall/functional_1/depthwise_conv2d_65/depthwise","unknown_263","unknown_264"],"device":"/device:CPU:0","attr":{"dilations":{"list":{"i":["1","1","1","1"]}},"T":{"type":"DT_FLOAT"},"data_format":{"s":"TkhXQw=="},"strides":{"list":{"i":["1","1","1","1"]}},"explicit_paddings":{"list":{}},"use_cudnn_on_gpu":{"b":true},"num_args":{"i":"1"},"epsilon":{"f":0},"padding":{"s":"VkFMSUQ="},"fused_ops":{"list":{"s":["Qmlhc0FkZA==","UmVsdQ=="]}}}},
          {"name":"StatefulPartitionedCall/functional_1/conv2d_29/BiasAdd","op":"_FusedConv2D","input":["StatefulPartitionedCall/functional_1/depthwise_conv2d_28/depthwise","unknown_115","unknown_116"],"device":"/device:CPU:0","attr":{"num_args":{"i":"1"},"epsilon":{"f":0},"padding":{"s":"VkFMSUQ="},"fused_ops":{"list":{"s":["Qmlhc0FkZA=="]}},"dilations":{"list":{"i":["1","1","1","1"]}},"T":{"type":"DT_FLOAT"},"strides":{"list":{"i":["1","1","1","1"]}},"data_format":{"s":"TkhXQw=="},"explicit_paddings":{"list":{}},"use_cudnn_on_gpu":{"b":true}}},
          {"name":"StatefulPartitionedCall/functional_1/tf_op_layer_Pad_4/Pad_4","op":"Pad","input":["StatefulPartitionedCall/functional_1/max_pooling2d_4/MaxPool","StatefulPartitionedCall/functional_1/tf_op_layer_Pad_4/Pad_4/paddings"],"attr":{"T":{"type":"DT_FLOAT"},"Tpaddings":{"type":"DT_INT32"},"_cloned":{"b":true}}},
          {"name":"StatefulPartitionedCall/functional_1/tf_op_layer_ResizeBilinear_3/ResizeBilinear_3","op":"ResizeBilinear","input":["StatefulPartitionedCall/functional_1/conv2d_66/Relu","StatefulPartitionedCall/functional_1/tf_op_layer_ResizeBilinear_3/ResizeBilinear_3/size"],"attr":{"T":{"type":"DT_FLOAT"},"_cloned":{"b":true},"align_corners":{"b":false},"half_pixel_centers":{"b":true}}},
          {"name":"StatefulPartitionedCall/functional_1/add_27/add","op":"AddV2","input":["StatefulPartitionedCall/functional_1/conv2d_29/BiasAdd","StatefulPartitionedCall/functional_1/tf_op_layer_Pad_4/Pad_4"],"attr":{"T":{"type":"DT_FLOAT"}}},
          {"name":"StatefulPartitionedCall/functional_1/add_64/add","op":"AddV2","input":["StatefulPartitionedCall/functional_1/tf_op_layer_ResizeBilinear_3/ResizeBilinear_3","StatefulPartitionedCall/functional_1/conv2d_67/Relu"],"attr":{"T":{"type":"DT_FLOAT"}}},
          {"name":"StatefulPartitionedCall/functional_1/re_lu_24/Relu","op":"Relu","input":["StatefulPartitionedCall/functional_1/add_27/add"],"attr":{"T":{"type":"DT_FLOAT"}}},
          {"name":"StatefulPartitionedCall/functional_1/depthwise_conv2d_67/depthwise","op":"DepthwiseConv2dNative","input":["StatefulPartitionedCall/functional_1/add_64/add","unknown_269"],"attr":{"padding":{"s":"U0FNRQ=="},"dilations":{"list":{"i":["1","1","1","1"]}},"T":{"type":"DT_FLOAT"},"strides":{"list":{"i":["1","1","1","1"]}},"data_format":{"s":"TkhXQw=="},"explicit_paddings":{"list":{}}}},
          {"name":"StatefulPartitionedCall/functional_1/depthwise_conv2d_29/depthwise","op":"DepthwiseConv2dNative","input":["StatefulPartitionedCall/functional_1/re_lu_24/Relu","unknown_117"],"attr":{"strides":{"list":{"i":["1","1","1","1"]}},"data_format":{"s":"TkhXQw=="},"explicit_paddings":{"list":{}},"padding":{"s":"U0FNRQ=="},"dilations":{"list":{"i":["1","1","1","1"]}},"T":{"type":"DT_FLOAT"}}},
          {"name":"StatefulPartitionedCall/functional_1/conv2d_68/Relu","op":"_FusedConv2D","input":["StatefulPartitionedCall/functional_1/depthwise_conv2d_67/depthwise","unknown_275","unknown_276"],"device":"/device:CPU:0","attr":{"dilations":{"list":{"i":["1","1","1","1"]}},"T":{"type":"DT_FLOAT"},"strides":{"list":{"i":["1","1","1","1"]}},"data_format":{"s":"TkhXQw=="},"explicit_paddings":{"list":{}},"use_cudnn_on_gpu":{"b":true},"num_args":{"i":"1"},"epsilon":{"f":0},"padding":{"s":"VkFMSUQ="},"fused_ops":{"list":{"s":["Qmlhc0FkZA==","UmVsdQ=="]}}}},
          {"name":"StatefulPartitionedCall/functional_1/conv2d_30/BiasAdd","op":"_FusedConv2D","input":["StatefulPartitionedCall/functional_1/depthwise_conv2d_29/depthwise","unknown_119","unknown_120"],"device":"/device:CPU:0","attr":{"T":{"type":"DT_FLOAT"},"data_format":{"s":"TkhXQw=="},"strides":{"list":{"i":["1","1","1","1"]}},"use_cudnn_on_gpu":{"b":true},"explicit_paddings":{"list":{}},"num_args":{"i":"1"},"epsilon":{"f":0},"padding":{"s":"VkFMSUQ="},"fused_ops":{"list":{"s":["Qmlhc0FkZA=="]}},"dilations":{"list":{"i":["1","1","1","1"]}}}},
          {"name":"StatefulPartitionedCall/functional_1/output_segmentation/BiasAdd","op":"_FusedConv2D","input":["StatefulPartitionedCall/functional_1/conv2d_68/Relu","unknown_277","unknown_278"],"device":"/device:CPU:0","attr":{"T":{"type":"DT_FLOAT"},"data_format":{"s":"TkhXQw=="},"strides":{"list":{"i":["1","1","1","1"]}},"explicit_paddings":{"list":{}},"use_cudnn_on_gpu":{"b":true},"num_args":{"i":"1"},"epsilon":{"f":0},"padding":{"s":"U0FNRQ=="},"fused_ops":{"list":{"s":["Qmlhc0FkZA=="]}},"dilations":{"list":{"i":["1","1","1","1"]}}}},
          {"name":"StatefulPartitionedCall/functional_1/add_28/add","op":"AddV2","input":["StatefulPartitionedCall/functional_1/re_lu_24/Relu","StatefulPartitionedCall/functional_1/conv2d_30/BiasAdd"],"attr":{"T":{"type":"DT_FLOAT"}}},
          {"name":"Identity","op":"Identity","input":["StatefulPartitionedCall/functional_1/output_segmentation/BiasAdd"],"attr":{"T":{"type":"DT_FLOAT"}}},
          {"name":"StatefulPartitionedCall/functional_1/re_lu_25/Relu","op":"Relu","input":["StatefulPartitionedCall/functional_1/add_28/add"],"attr":{"T":{"type":"DT_FLOAT"}}},
          {"name":"StatefulPartitionedCall/functional_1/depthwise_conv2d_30/depthwise","op":"DepthwiseConv2dNative","input":["StatefulPartitionedCall/functional_1/re_lu_25/Relu","unknown_121"],"attr":{"dilations":{"list":{"i":["1","1","1","1"]}},"T":{"type":"DT_FLOAT"},"strides":{"list":{"i":["1","1","1","1"]}},"data_format":{"s":"TkhXQw=="},"explicit_paddings":{"list":{}},"padding":{"s":"U0FNRQ=="}}},
          {"name":"StatefulPartitionedCall/functional_1/conv2d_31/BiasAdd","op":"_FusedConv2D","input":["StatefulPartitionedCall/functional_1/depthwise_conv2d_30/depthwise","unknown_123","unknown_124"],"device":"/device:CPU:0","attr":{"dilations":{"list":{"i":["1","1","1","1"]}},"T":{"type":"DT_FLOAT"},"data_format":{"s":"TkhXQw=="},"strides":{"list":{"i":["1","1","1","1"]}},"explicit_paddings":{"list":{}},"use_cudnn_on_gpu":{"b":true},"num_args":{"i":"1"},"epsilon":{"f":0},"padding":{"s":"VkFMSUQ="},"fused_ops":{"list":{"s":["Qmlhc0FkZA=="]}}}},
          {"name":"StatefulPartitionedCall/functional_1/add_29/add","op":"AddV2","input":["StatefulPartitionedCall/functional_1/re_lu_25/Relu","StatefulPartitionedCall/functional_1/conv2d_31/BiasAdd"],"attr":{"T":{"type":"DT_FLOAT"}}},
          {"name":"StatefulPartitionedCall/functional_1/re_lu_26/Relu","op":"Relu","input":["StatefulPartitionedCall/functional_1/add_29/add"],"attr":{"T":{"type":"DT_FLOAT"}}},
          {"name":"StatefulPartitionedCall/functional_1/depthwise_conv2d_31/depthwise","op":"DepthwiseConv2dNative","input":["StatefulPartitionedCall/functional_1/re_lu_26/Relu","unknown_125"],"attr":{"dilations":{"list":{"i":["1","1","1","1"]}},"T":{"type":"DT_FLOAT"},"strides":{"list":{"i":["1","1","1","1"]}},"data_format":{"s":"TkhXQw=="},"explicit_paddings":{"list":{}},"padding":{"s":"U0FNRQ=="}}},
          {"name":"StatefulPartitionedCall/functional_1/conv2d_32/BiasAdd","op":"_FusedConv2D","input":["StatefulPartitionedCall/functional_1/depthwise_conv2d_31/depthwise","unknown_127","unknown_128"],"device":"/device:CPU:0","attr":{"fused_ops":{"list":{"s":["Qmlhc0FkZA=="]}},"dilations":{"list":{"i":["1","1","1","1"]}},"T":{"type":"DT_FLOAT"},"data_format":{"s":"TkhXQw=="},"strides":{"list":{"i":["1","1","1","1"]}},"explicit_paddings":{"list":{}},"use_cudnn_on_gpu":{"b":true},"num_args":{"i":"1"},"epsilon":{"f":0},"padding":{"s":"VkFMSUQ="}}},
          {"name":"StatefulPartitionedCall/functional_1/add_30/add","op":"AddV2","input":["StatefulPartitionedCall/functional_1/re_lu_26/Relu","StatefulPartitionedCall/functional_1/conv2d_32/BiasAdd"],"attr":{"T":{"type":"DT_FLOAT"}}},
          {"name":"StatefulPartitionedCall/functional_1/re_lu_27/Relu","op":"Relu","input":["StatefulPartitionedCall/functional_1/add_30/add"],"attr":{"T":{"type":"DT_FLOAT"}}},
          {"name":"StatefulPartitionedCall/functional_1/depthwise_conv2d_32/depthwise","op":"DepthwiseConv2dNative","input":["StatefulPartitionedCall/functional_1/re_lu_27/Relu","unknown_129"],"attr":{"dilations":{"list":{"i":["1","1","1","1"]}},"T":{"type":"DT_FLOAT"},"data_format":{"s":"TkhXQw=="},"strides":{"list":{"i":["1","1","1","1"]}},"explicit_paddings":{"list":{}},"padding":{"s":"U0FNRQ=="}}},
          {"name":"StatefulPartitionedCall/functional_1/conv2d_33/BiasAdd","op":"_FusedConv2D","input":["StatefulPartitionedCall/functional_1/depthwise_conv2d_32/depthwise","unknown_131","unknown_132"],"device":"/device:CPU:0","attr":{"strides":{"list":{"i":["1","1","1","1"]}},"data_format":{"s":"TkhXQw=="},"use_cudnn_on_gpu":{"b":true},"explicit_paddings":{"list":{}},"num_args":{"i":"1"},"epsilon":{"f":0},"padding":{"s":"VkFMSUQ="},"fused_ops":{"list":{"s":["Qmlhc0FkZA=="]}},"dilations":{"list":{"i":["1","1","1","1"]}},"T":{"type":"DT_FLOAT"}}},
          {"name":"StatefulPartitionedCall/functional_1/add_31/add","op":"AddV2","input":["StatefulPartitionedCall/functional_1/re_lu_27/Relu","StatefulPartitionedCall/functional_1/conv2d_33/BiasAdd"],"attr":{"T":{"type":"DT_FLOAT"}}},
          {"name":"StatefulPartitionedCall/functional_1/re_lu_28/Relu","op":"Relu","input":["StatefulPartitionedCall/functional_1/add_31/add"],"attr":{"T":{"type":"DT_FLOAT"}}},
          {"name":"StatefulPartitionedCall/functional_1/add_32/add","op":"AddV2","input":["StatefulPartitionedCall/functional_1/re_lu_28/Relu","StatefulPartitionedCall/functional_1/conv2d_34/Relu"],"attr":{"T":{"type":"DT_FLOAT"}}},
          {"name":"StatefulPartitionedCall/functional_1/depthwise_conv2d_34/depthwise","op":"DepthwiseConv2dNative","input":["StatefulPartitionedCall/functional_1/add_32/add","unknown_137"],"attr":{"dilations":{"list":{"i":["1","1","1","1"]}},"T":{"type":"DT_FLOAT"},"data_format":{"s":"TkhXQw=="},"strides":{"list":{"i":["1","2","2","1"]}},"explicit_paddings":{"list":{}},"padding":{"s":"U0FNRQ=="}}},
          {"name":"StatefulPartitionedCall/functional_1/max_pooling2d_5/MaxPool","op":"MaxPool","input":["StatefulPartitionedCall/functional_1/add_32/add"],"attr":{"ksize":{"list":{"i":["1","2","2","1"]}},"padding":{"s":"VkFMSUQ="},"T":{"type":"DT_FLOAT"},"data_format":{"s":"TkhXQw=="},"strides":{"list":{"i":["1","2","2","1"]}}}},
          {"name":"StatefulPartitionedCall/functional_1/conv2d_35/BiasAdd","op":"_FusedConv2D","input":["StatefulPartitionedCall/functional_1/depthwise_conv2d_34/depthwise","unknown_139","unknown_140"],"device":"/device:CPU:0","attr":{"T":{"type":"DT_FLOAT"},"data_format":{"s":"TkhXQw=="},"strides":{"list":{"i":["1","1","1","1"]}},"use_cudnn_on_gpu":{"b":true},"explicit_paddings":{"list":{}},"num_args":{"i":"1"},"epsilon":{"f":0},"padding":{"s":"VkFMSUQ="},"fused_ops":{"list":{"s":["Qmlhc0FkZA=="]}},"dilations":{"list":{"i":["1","1","1","1"]}}}},
          {"name":"StatefulPartitionedCall/functional_1/tf_op_layer_Pad_5/Pad_5","op":"Pad","input":["StatefulPartitionedCall/functional_1/max_pooling2d_5/MaxPool","StatefulPartitionedCall/functional_1/tf_op_layer_Pad_5/Pad_5/paddings"],"attr":{"Tpaddings":{"type":"DT_INT32"},"_cloned":{"b":true},"T":{"type":"DT_FLOAT"}}},
          {"name":"StatefulPartitionedCall/functional_1/add_33/add","op":"AddV2","input":["StatefulPartitionedCall/functional_1/conv2d_35/BiasAdd","StatefulPartitionedCall/functional_1/tf_op_layer_Pad_5/Pad_5"],"attr":{"T":{"type":"DT_FLOAT"}}},
          {"name":"StatefulPartitionedCall/functional_1/re_lu_29/Relu","op":"Relu","input":["StatefulPartitionedCall/functional_1/add_33/add"],"attr":{"T":{"type":"DT_FLOAT"}}},
          {"name":"StatefulPartitionedCall/functional_1/depthwise_conv2d_35/depthwise","op":"DepthwiseConv2dNative","input":["StatefulPartitionedCall/functional_1/re_lu_29/Relu","unknown_141"],"attr":{"padding":{"s":"U0FNRQ=="},"dilations":{"list":{"i":["1","1","1","1"]}},"T":{"type":"DT_FLOAT"},"strides":{"list":{"i":["1","1","1","1"]}},"data_format":{"s":"TkhXQw=="},"explicit_paddings":{"list":{}}}},
          {"name":"StatefulPartitionedCall/functional_1/conv2d_36/BiasAdd","op":"_FusedConv2D","input":["StatefulPartitionedCall/functional_1/depthwise_conv2d_35/depthwise","unknown_143","unknown_144"],"device":"/device:CPU:0","attr":{"dilations":{"list":{"i":["1","1","1","1"]}},"T":{"type":"DT_FLOAT"},"strides":{"list":{"i":["1","1","1","1"]}},"data_format":{"s":"TkhXQw=="},"explicit_paddings":{"list":{}},"use_cudnn_on_gpu":{"b":true},"num_args":{"i":"1"},"epsilon":{"f":0},"padding":{"s":"VkFMSUQ="},"fused_ops":{"list":{"s":["Qmlhc0FkZA=="]}}}},
          {"name":"StatefulPartitionedCall/functional_1/add_34/add","op":"AddV2","input":["StatefulPartitionedCall/functional_1/re_lu_29/Relu","StatefulPartitionedCall/functional_1/conv2d_36/BiasAdd"],"attr":{"T":{"type":"DT_FLOAT"}}},
          {"name":"StatefulPartitionedCall/functional_1/re_lu_30/Relu","op":"Relu","input":["StatefulPartitionedCall/functional_1/add_34/add"],"attr":{"T":{"type":"DT_FLOAT"}}},
          {"name":"StatefulPartitionedCall/functional_1/depthwise_conv2d_36/depthwise","op":"DepthwiseConv2dNative","input":["StatefulPartitionedCall/functional_1/re_lu_30/Relu","unknown_145"],"attr":{"data_format":{"s":"TkhXQw=="},"strides":{"list":{"i":["1","1","1","1"]}},"explicit_paddings":{"list":{}},"padding":{"s":"U0FNRQ=="},"dilations":{"list":{"i":["1","1","1","1"]}},"T":{"type":"DT_FLOAT"}}},
          {"name":"StatefulPartitionedCall/functional_1/conv2d_37/BiasAdd","op":"_FusedConv2D","input":["StatefulPartitionedCall/functional_1/depthwise_conv2d_36/depthwise","unknown_147","unknown_148"],"device":"/device:CPU:0","attr":{"fused_ops":{"list":{"s":["Qmlhc0FkZA=="]}},"dilations":{"list":{"i":["1","1","1","1"]}},"T":{"type":"DT_FLOAT"},"data_format":{"s":"TkhXQw=="},"strides":{"list":{"i":["1","1","1","1"]}},"use_cudnn_on_gpu":{"b":true},"explicit_paddings":{"list":{}},"num_args":{"i":"1"},"epsilon":{"f":0},"padding":{"s":"VkFMSUQ="}}},
          {"name":"StatefulPartitionedCall/functional_1/add_35/add","op":"AddV2","input":["StatefulPartitionedCall/functional_1/re_lu_30/Relu","StatefulPartitionedCall/functional_1/conv2d_37/BiasAdd"],"attr":{"T":{"type":"DT_FLOAT"}}},
          {"name":"StatefulPartitionedCall/functional_1/re_lu_31/Relu","op":"Relu","input":["StatefulPartitionedCall/functional_1/add_35/add"],"attr":{"T":{"type":"DT_FLOAT"}}},
          {"name":"StatefulPartitionedCall/functional_1/depthwise_conv2d_37/depthwise","op":"DepthwiseConv2dNative","input":["StatefulPartitionedCall/functional_1/re_lu_31/Relu","unknown_149"],"attr":{"dilations":{"list":{"i":["1","1","1","1"]}},"T":{"type":"DT_FLOAT"},"data_format":{"s":"TkhXQw=="},"strides":{"list":{"i":["1","1","1","1"]}},"explicit_paddings":{"list":{}},"padding":{"s":"U0FNRQ=="}}},
          {"name":"StatefulPartitionedCall/functional_1/conv2d_38/BiasAdd","op":"_FusedConv2D","input":["StatefulPartitionedCall/functional_1/depthwise_conv2d_37/depthwise","unknown_151","unknown_152"],"device":"/device:CPU:0","attr":{"data_format":{"s":"TkhXQw=="},"strides":{"list":{"i":["1","1","1","1"]}},"use_cudnn_on_gpu":{"b":true},"explicit_paddings":{"list":{}},"num_args":{"i":"1"},"epsilon":{"f":0},"padding":{"s":"VkFMSUQ="},"fused_ops":{"list":{"s":["Qmlhc0FkZA=="]}},"dilations":{"list":{"i":["1","1","1","1"]}},"T":{"type":"DT_FLOAT"}}},
          {"name":"StatefulPartitionedCall/functional_1/add_36/add","op":"AddV2","input":["StatefulPartitionedCall/functional_1/re_lu_31/Relu","StatefulPartitionedCall/functional_1/conv2d_38/BiasAdd"],"attr":{"T":{"type":"DT_FLOAT"}}},
          {"name":"StatefulPartitionedCall/functional_1/re_lu_32/Relu","op":"Relu","input":["StatefulPartitionedCall/functional_1/add_36/add"],"attr":{"T":{"type":"DT_FLOAT"}}},
          {"name":"StatefulPartitionedCall/functional_1/depthwise_conv2d_38/depthwise","op":"DepthwiseConv2dNative","input":["StatefulPartitionedCall/functional_1/re_lu_32/Relu","unknown_153"],"attr":{"strides":{"list":{"i":["1","1","1","1"]}},"data_format":{"s":"TkhXQw=="},"explicit_paddings":{"list":{}},"padding":{"s":"U0FNRQ=="},"dilations":{"list":{"i":["1","1","1","1"]}},"T":{"type":"DT_FLOAT"}}},
          {"name":"StatefulPartitionedCall/functional_1/conv2d_39/BiasAdd","op":"_FusedConv2D","input":["StatefulPartitionedCall/functional_1/depthwise_conv2d_38/depthwise","unknown_155","unknown_156"],"device":"/device:CPU:0","attr":{"dilations":{"list":{"i":["1","1","1","1"]}},"T":{"type":"DT_FLOAT"},"strides":{"list":{"i":["1","1","1","1"]}},"data_format":{"s":"TkhXQw=="},"use_cudnn_on_gpu":{"b":true},"explicit_paddings":{"list":{}},"num_args":{"i":"1"},"epsilon":{"f":0},"padding":{"s":"VkFMSUQ="},"fused_ops":{"list":{"s":["Qmlhc0FkZA=="]}}}},
          {"name":"StatefulPartitionedCall/functional_1/add_37/add","op":"AddV2","input":["StatefulPartitionedCall/functional_1/re_lu_32/Relu","StatefulPartitionedCall/functional_1/conv2d_39/BiasAdd"],"attr":{"T":{"type":"DT_FLOAT"}}},
          {"name":"StatefulPartitionedCall/functional_1/re_lu_33/Relu","op":"Relu","input":["StatefulPartitionedCall/functional_1/add_37/add"],"attr":{"T":{"type":"DT_FLOAT"}}},
          {"name":"StatefulPartitionedCall/functional_1/depthwise_conv2d_39/depthwise","op":"DepthwiseConv2dNative","input":["StatefulPartitionedCall/functional_1/re_lu_33/Relu","unknown_157"],"attr":{"padding":{"s":"U0FNRQ=="},"dilations":{"list":{"i":["1","1","1","1"]}},"T":{"type":"DT_FLOAT"},"strides":{"list":{"i":["1","1","1","1"]}},"data_format":{"s":"TkhXQw=="},"explicit_paddings":{"list":{}}}},
          {"name":"StatefulPartitionedCall/functional_1/conv2d_40/BiasAdd","op":"_FusedConv2D","input":["StatefulPartitionedCall/functional_1/depthwise_conv2d_39/depthwise","unknown_159","unknown_160"],"device":"/device:CPU:0","attr":{"strides":{"list":{"i":["1","1","1","1"]}},"data_format":{"s":"TkhXQw=="},"use_cudnn_on_gpu":{"b":true},"explicit_paddings":{"list":{}},"num_args":{"i":"1"},"epsilon":{"f":0},"padding":{"s":"VkFMSUQ="},"fused_ops":{"list":{"s":["Qmlhc0FkZA=="]}},"dilations":{"list":{"i":["1","1","1","1"]}},"T":{"type":"DT_FLOAT"}}},
          {"name":"StatefulPartitionedCall/functional_1/add_38/add","op":"AddV2","input":["StatefulPartitionedCall/functional_1/re_lu_33/Relu","StatefulPartitionedCall/functional_1/conv2d_40/BiasAdd"],"attr":{"T":{"type":"DT_FLOAT"}}},
          {"name":"StatefulPartitionedCall/functional_1/re_lu_34/Relu","op":"Relu","input":["StatefulPartitionedCall/functional_1/add_38/add"],"attr":{"T":{"type":"DT_FLOAT"}}},
          {"name":"StatefulPartitionedCall/functional_1/add_39/add","op":"AddV2","input":["StatefulPartitionedCall/functional_1/conv2d_41/Relu","StatefulPartitionedCall/functional_1/re_lu_34/Relu"],"attr":{"T":{"type":"DT_FLOAT"}}},
          {"name":"StatefulPartitionedCall/functional_1/depthwise_conv2d_41/depthwise","op":"DepthwiseConv2dNative","input":["StatefulPartitionedCall/functional_1/add_39/add","unknown_165"],"attr":{"dilations":{"list":{"i":["1","1","1","1"]}},"T":{"type":"DT_FLOAT"},"strides":{"list":{"i":["1","2","2","1"]}},"data_format":{"s":"TkhXQw=="},"explicit_paddings":{"list":{}},"padding":{"s":"U0FNRQ=="}}},
          {"name":"StatefulPartitionedCall/functional_1/max_pooling2d_6/MaxPool","op":"MaxPool","input":["StatefulPartitionedCall/functional_1/add_39/add"],"attr":{"data_format":{"s":"TkhXQw=="},"strides":{"list":{"i":["1","2","2","1"]}},"ksize":{"list":{"i":["1","2","2","1"]}},"padding":{"s":"VkFMSUQ="},"T":{"type":"DT_FLOAT"}}},
          {"name":"StatefulPartitionedCall/functional_1/conv2d_42/BiasAdd","op":"_FusedConv2D","input":["StatefulPartitionedCall/functional_1/depthwise_conv2d_41/depthwise","unknown_167","unknown_168"],"device":"/device:CPU:0","attr":{"epsilon":{"f":0},"padding":{"s":"VkFMSUQ="},"fused_ops":{"list":{"s":["Qmlhc0FkZA=="]}},"dilations":{"list":{"i":["1","1","1","1"]}},"T":{"type":"DT_FLOAT"},"data_format":{"s":"TkhXQw=="},"strides":{"list":{"i":["1","1","1","1"]}},"explicit_paddings":{"list":{}},"use_cudnn_on_gpu":{"b":true},"num_args":{"i":"1"}}},
          {"name":"StatefulPartitionedCall/functional_1/tf_op_layer_Pad_6/Pad_6","op":"Pad","input":["StatefulPartitionedCall/functional_1/max_pooling2d_6/MaxPool","StatefulPartitionedCall/functional_1/tf_op_layer_Pad_6/Pad_6/paddings"],"attr":{"Tpaddings":{"type":"DT_INT32"},"_cloned":{"b":true},"T":{"type":"DT_FLOAT"}}},
          {"name":"StatefulPartitionedCall/functional_1/add_40/add","op":"AddV2","input":["StatefulPartitionedCall/functional_1/conv2d_42/BiasAdd","StatefulPartitionedCall/functional_1/tf_op_layer_Pad_6/Pad_6"],"attr":{"T":{"type":"DT_FLOAT"}}},
          {"name":"StatefulPartitionedCall/functional_1/re_lu_35/Relu","op":"Relu","input":["StatefulPartitionedCall/functional_1/add_40/add"],"attr":{"T":{"type":"DT_FLOAT"}}},
          {"name":"StatefulPartitionedCall/functional_1/depthwise_conv2d_42/depthwise","op":"DepthwiseConv2dNative","input":["StatefulPartitionedCall/functional_1/re_lu_35/Relu","unknown_169"],"attr":{"dilations":{"list":{"i":["1","1","1","1"]}},"T":{"type":"DT_FLOAT"},"data_format":{"s":"TkhXQw=="},"strides":{"list":{"i":["1","1","1","1"]}},"explicit_paddings":{"list":{}},"padding":{"s":"U0FNRQ=="}}},
          {"name":"StatefulPartitionedCall/functional_1/conv2d_43/BiasAdd","op":"_FusedConv2D","input":["StatefulPartitionedCall/functional_1/depthwise_conv2d_42/depthwise","unknown_171","unknown_172"],"device":"/device:CPU:0","attr":{"dilations":{"list":{"i":["1","1","1","1"]}},"T":{"type":"DT_FLOAT"},"data_format":{"s":"TkhXQw=="},"strides":{"list":{"i":["1","1","1","1"]}},"explicit_paddings":{"list":{}},"use_cudnn_on_gpu":{"b":true},"num_args":{"i":"1"},"epsilon":{"f":0},"padding":{"s":"VkFMSUQ="},"fused_ops":{"list":{"s":["Qmlhc0FkZA=="]}}}},
          {"name":"StatefulPartitionedCall/functional_1/add_41/add","op":"AddV2","input":["StatefulPartitionedCall/functional_1/re_lu_35/Relu","StatefulPartitionedCall/functional_1/conv2d_43/BiasAdd"],"attr":{"T":{"type":"DT_FLOAT"}}},
          {"name":"StatefulPartitionedCall/functional_1/re_lu_36/Relu","op":"Relu","input":["StatefulPartitionedCall/functional_1/add_41/add"],"attr":{"T":{"type":"DT_FLOAT"}}},
          {"name":"StatefulPartitionedCall/functional_1/depthwise_conv2d_43/depthwise","op":"DepthwiseConv2dNative","input":["StatefulPartitionedCall/functional_1/re_lu_36/Relu","unknown_173"],"attr":{"dilations":{"list":{"i":["1","1","1","1"]}},"T":{"type":"DT_FLOAT"},"strides":{"list":{"i":["1","1","1","1"]}},"data_format":{"s":"TkhXQw=="},"explicit_paddings":{"list":{}},"padding":{"s":"U0FNRQ=="}}},
          {"name":"StatefulPartitionedCall/functional_1/conv2d_44/BiasAdd","op":"_FusedConv2D","input":["StatefulPartitionedCall/functional_1/depthwise_conv2d_43/depthwise","unknown_175","unknown_176"],"device":"/device:CPU:0","attr":{"T":{"type":"DT_FLOAT"},"strides":{"list":{"i":["1","1","1","1"]}},"data_format":{"s":"TkhXQw=="},"use_cudnn_on_gpu":{"b":true},"explicit_paddings":{"list":{}},"num_args":{"i":"1"},"epsilon":{"f":0},"padding":{"s":"VkFMSUQ="},"fused_ops":{"list":{"s":["Qmlhc0FkZA=="]}},"dilations":{"list":{"i":["1","1","1","1"]}}}},
          {"name":"StatefulPartitionedCall/functional_1/add_42/add","op":"AddV2","input":["StatefulPartitionedCall/functional_1/re_lu_36/Relu","StatefulPartitionedCall/functional_1/conv2d_44/BiasAdd"],"attr":{"T":{"type":"DT_FLOAT"}}},
          {"name":"StatefulPartitionedCall/functional_1/re_lu_37/Relu","op":"Relu","input":["StatefulPartitionedCall/functional_1/add_42/add"],"attr":{"T":{"type":"DT_FLOAT"}}},
          {"name":"StatefulPartitionedCall/functional_1/depthwise_conv2d_44/depthwise","op":"DepthwiseConv2dNative","input":["StatefulPartitionedCall/functional_1/re_lu_37/Relu","unknown_177"],"attr":{"dilations":{"list":{"i":["1","1","1","1"]}},"T":{"type":"DT_FLOAT"},"strides":{"list":{"i":["1","1","1","1"]}},"data_format":{"s":"TkhXQw=="},"explicit_paddings":{"list":{}},"padding":{"s":"U0FNRQ=="}}},
          {"name":"StatefulPartitionedCall/functional_1/conv2d_45/BiasAdd","op":"_FusedConv2D","input":["StatefulPartitionedCall/functional_1/depthwise_conv2d_44/depthwise","unknown_179","unknown_180"],"device":"/device:CPU:0","attr":{"dilations":{"list":{"i":["1","1","1","1"]}},"T":{"type":"DT_FLOAT"},"strides":{"list":{"i":["1","1","1","1"]}},"data_format":{"s":"TkhXQw=="},"use_cudnn_on_gpu":{"b":true},"explicit_paddings":{"list":{}},"num_args":{"i":"1"},"epsilon":{"f":0},"padding":{"s":"VkFMSUQ="},"fused_ops":{"list":{"s":["Qmlhc0FkZA=="]}}}},
          {"name":"StatefulPartitionedCall/functional_1/add_43/add","op":"AddV2","input":["StatefulPartitionedCall/functional_1/re_lu_37/Relu","StatefulPartitionedCall/functional_1/conv2d_45/BiasAdd"],"attr":{"T":{"type":"DT_FLOAT"}}},
          {"name":"StatefulPartitionedCall/functional_1/re_lu_38/Relu","op":"Relu","input":["StatefulPartitionedCall/functional_1/add_43/add"],"attr":{"T":{"type":"DT_FLOAT"}}},
          {"name":"StatefulPartitionedCall/functional_1/depthwise_conv2d_45/depthwise","op":"DepthwiseConv2dNative","input":["StatefulPartitionedCall/functional_1/re_lu_38/Relu","unknown_181"],"attr":{"T":{"type":"DT_FLOAT"},"data_format":{"s":"TkhXQw=="},"strides":{"list":{"i":["1","1","1","1"]}},"explicit_paddings":{"list":{}},"padding":{"s":"U0FNRQ=="},"dilations":{"list":{"i":["1","1","1","1"]}}}},
          {"name":"StatefulPartitionedCall/functional_1/conv2d_46/BiasAdd","op":"_FusedConv2D","input":["StatefulPartitionedCall/functional_1/depthwise_conv2d_45/depthwise","unknown_183","unknown_184"],"device":"/device:CPU:0","attr":{"dilations":{"list":{"i":["1","1","1","1"]}},"T":{"type":"DT_FLOAT"},"strides":{"list":{"i":["1","1","1","1"]}},"data_format":{"s":"TkhXQw=="},"use_cudnn_on_gpu":{"b":true},"explicit_paddings":{"list":{}},"num_args":{"i":"1"},"epsilon":{"f":0},"padding":{"s":"VkFMSUQ="},"fused_ops":{"list":{"s":["Qmlhc0FkZA=="]}}}},
          {"name":"StatefulPartitionedCall/functional_1/add_44/add","op":"AddV2","input":["StatefulPartitionedCall/functional_1/re_lu_38/Relu","StatefulPartitionedCall/functional_1/conv2d_46/BiasAdd"],"attr":{"T":{"type":"DT_FLOAT"}}},
          {"name":"StatefulPartitionedCall/functional_1/re_lu_39/Relu","op":"Relu","input":["StatefulPartitionedCall/functional_1/add_44/add"],"attr":{"T":{"type":"DT_FLOAT"}}},
          {"name":"StatefulPartitionedCall/functional_1/depthwise_conv2d_46/depthwise","op":"DepthwiseConv2dNative","input":["StatefulPartitionedCall/functional_1/re_lu_39/Relu","unknown_185"],"attr":{"dilations":{"list":{"i":["1","1","1","1"]}},"T":{"type":"DT_FLOAT"},"strides":{"list":{"i":["1","1","1","1"]}},"data_format":{"s":"TkhXQw=="},"explicit_paddings":{"list":{}},"padding":{"s":"U0FNRQ=="}}},
          {"name":"StatefulPartitionedCall/functional_1/conv2d_47/BiasAdd","op":"_FusedConv2D","input":["StatefulPartitionedCall/functional_1/depthwise_conv2d_46/depthwise","unknown_187","unknown_188"],"device":"/device:CPU:0","attr":{"fused_ops":{"list":{"s":["Qmlhc0FkZA=="]}},"dilations":{"list":{"i":["1","1","1","1"]}},"T":{"type":"DT_FLOAT"},"data_format":{"s":"TkhXQw=="},"strides":{"list":{"i":["1","1","1","1"]}},"explicit_paddings":{"list":{}},"use_cudnn_on_gpu":{"b":true},"num_args":{"i":"1"},"epsilon":{"f":0},"padding":{"s":"VkFMSUQ="}}},
          {"name":"StatefulPartitionedCall/functional_1/add_45/add","op":"AddV2","input":["StatefulPartitionedCall/functional_1/re_lu_39/Relu","StatefulPartitionedCall/functional_1/conv2d_47/BiasAdd"],"attr":{"T":{"type":"DT_FLOAT"}}},
          {"name":"StatefulPartitionedCall/functional_1/re_lu_40/Relu","op":"Relu","input":["StatefulPartitionedCall/functional_1/add_45/add"],"attr":{"T":{"type":"DT_FLOAT"}}},
          {"name":"StatefulPartitionedCall/functional_1/depthwise_conv2d_47/depthwise","op":"DepthwiseConv2dNative","input":["StatefulPartitionedCall/functional_1/re_lu_40/Relu","unknown_189"],"attr":{"dilations":{"list":{"i":["1","1","1","1"]}},"T":{"type":"DT_FLOAT"},"strides":{"list":{"i":["1","1","1","1"]}},"data_format":{"s":"TkhXQw=="},"explicit_paddings":{"list":{}},"padding":{"s":"U0FNRQ=="}}},
          {"name":"StatefulPartitionedCall/functional_1/conv2d_48/BiasAdd","op":"_FusedConv2D","input":["StatefulPartitionedCall/functional_1/depthwise_conv2d_47/depthwise","unknown_191","unknown_192"],"device":"/device:CPU:0","attr":{"fused_ops":{"list":{"s":["Qmlhc0FkZA=="]}},"dilations":{"list":{"i":["1","1","1","1"]}},"T":{"type":"DT_FLOAT"},"data_format":{"s":"TkhXQw=="},"strides":{"list":{"i":["1","1","1","1"]}},"use_cudnn_on_gpu":{"b":true},"explicit_paddings":{"list":{}},"num_args":{"i":"1"},"epsilon":{"f":0},"padding":{"s":"VkFMSUQ="}}},
          {"name":"StatefulPartitionedCall/functional_1/add_46/add","op":"AddV2","input":["StatefulPartitionedCall/functional_1/re_lu_40/Relu","StatefulPartitionedCall/functional_1/conv2d_48/BiasAdd"],"attr":{"T":{"type":"DT_FLOAT"}}},
          {"name":"StatefulPartitionedCall/functional_1/re_lu_41/Relu","op":"Relu","input":["StatefulPartitionedCall/functional_1/add_46/add"],"attr":{"T":{"type":"DT_FLOAT"}}},
          {"name":"StatefulPartitionedCall/functional_1/add_47/add","op":"AddV2","input":["StatefulPartitionedCall/functional_1/conv2d_49/Relu","StatefulPartitionedCall/functional_1/re_lu_41/Relu"],"attr":{"T":{"type":"DT_FLOAT"}}},
          {"name":"StatefulPartitionedCall/functional_1/depthwise_conv2d_49/depthwise","op":"DepthwiseConv2dNative","input":["StatefulPartitionedCall/functional_1/add_47/add","unknown_197"],"attr":{"padding":{"s":"U0FNRQ=="},"dilations":{"list":{"i":["1","1","1","1"]}},"T":{"type":"DT_FLOAT"},"data_format":{"s":"TkhXQw=="},"strides":{"list":{"i":["1","2","2","1"]}},"explicit_paddings":{"list":{}}}},
          {"name":"StatefulPartitionedCall/functional_1/max_pooling2d_7/MaxPool","op":"MaxPool","input":["StatefulPartitionedCall/functional_1/add_47/add"],"attr":{"ksize":{"list":{"i":["1","2","2","1"]}},"padding":{"s":"VkFMSUQ="},"T":{"type":"DT_FLOAT"},"data_format":{"s":"TkhXQw=="},"strides":{"list":{"i":["1","2","2","1"]}}}},
          {"name":"StatefulPartitionedCall/functional_1/conv2d_50/BiasAdd","op":"_FusedConv2D","input":["StatefulPartitionedCall/functional_1/depthwise_conv2d_49/depthwise","unknown_199","unknown_200"],"device":"/device:CPU:0","attr":{"data_format":{"s":"TkhXQw=="},"strides":{"list":{"i":["1","1","1","1"]}},"explicit_paddings":{"list":{}},"use_cudnn_on_gpu":{"b":true},"num_args":{"i":"1"},"epsilon":{"f":0},"padding":{"s":"VkFMSUQ="},"fused_ops":{"list":{"s":["Qmlhc0FkZA=="]}},"dilations":{"list":{"i":["1","1","1","1"]}},"T":{"type":"DT_FLOAT"}}},
          {"name":"StatefulPartitionedCall/functional_1/add_48/add","op":"AddV2","input":["StatefulPartitionedCall/functional_1/conv2d_50/BiasAdd","StatefulPartitionedCall/functional_1/max_pooling2d_7/MaxPool"],"attr":{"T":{"type":"DT_FLOAT"}}},
          {"name":"StatefulPartitionedCall/functional_1/re_lu_42/Relu","op":"Relu","input":["StatefulPartitionedCall/functional_1/add_48/add"],"attr":{"T":{"type":"DT_FLOAT"}}},
          {"name":"StatefulPartitionedCall/functional_1/depthwise_conv2d_50/depthwise","op":"DepthwiseConv2dNative","input":["StatefulPartitionedCall/functional_1/re_lu_42/Relu","unknown_201"],"attr":{"data_format":{"s":"TkhXQw=="},"strides":{"list":{"i":["1","1","1","1"]}},"explicit_paddings":{"list":{}},"padding":{"s":"U0FNRQ=="},"dilations":{"list":{"i":["1","1","1","1"]}},"T":{"type":"DT_FLOAT"}}},
          {"name":"StatefulPartitionedCall/functional_1/conv2d_51/BiasAdd","op":"_FusedConv2D","input":["StatefulPartitionedCall/functional_1/depthwise_conv2d_50/depthwise","unknown_203","unknown_204"],"device":"/device:CPU:0","attr":{"dilations":{"list":{"i":["1","1","1","1"]}},"T":{"type":"DT_FLOAT"},"data_format":{"s":"TkhXQw=="},"strides":{"list":{"i":["1","1","1","1"]}},"use_cudnn_on_gpu":{"b":true},"explicit_paddings":{"list":{}},"num_args":{"i":"1"},"epsilon":{"f":0},"padding":{"s":"VkFMSUQ="},"fused_ops":{"list":{"s":["Qmlhc0FkZA=="]}}}},
          {"name":"StatefulPartitionedCall/functional_1/add_49/add","op":"AddV2","input":["StatefulPartitionedCall/functional_1/conv2d_51/BiasAdd","StatefulPartitionedCall/functional_1/re_lu_42/Relu"],"attr":{"T":{"type":"DT_FLOAT"}}},
          {"name":"StatefulPartitionedCall/functional_1/re_lu_43/Relu","op":"Relu","input":["StatefulPartitionedCall/functional_1/add_49/add"],"attr":{"T":{"type":"DT_FLOAT"}}},
          {"name":"StatefulPartitionedCall/functional_1/depthwise_conv2d_51/depthwise","op":"DepthwiseConv2dNative","input":["StatefulPartitionedCall/functional_1/re_lu_43/Relu","unknown_205"],"attr":{"dilations":{"list":{"i":["1","1","1","1"]}},"T":{"type":"DT_FLOAT"},"data_format":{"s":"TkhXQw=="},"strides":{"list":{"i":["1","1","1","1"]}},"explicit_paddings":{"list":{}},"padding":{"s":"U0FNRQ=="}}},
          {"name":"StatefulPartitionedCall/functional_1/conv2d_52/BiasAdd","op":"_FusedConv2D","input":["StatefulPartitionedCall/functional_1/depthwise_conv2d_51/depthwise","unknown_207","unknown_208"],"device":"/device:CPU:0","attr":{"dilations":{"list":{"i":["1","1","1","1"]}},"T":{"type":"DT_FLOAT"},"strides":{"list":{"i":["1","1","1","1"]}},"data_format":{"s":"TkhXQw=="},"explicit_paddings":{"list":{}},"use_cudnn_on_gpu":{"b":true},"num_args":{"i":"1"},"epsilon":{"f":0},"padding":{"s":"VkFMSUQ="},"fused_ops":{"list":{"s":["Qmlhc0FkZA=="]}}}},
          {"name":"StatefulPartitionedCall/functional_1/add_50/add","op":"AddV2","input":["StatefulPartitionedCall/functional_1/conv2d_52/BiasAdd","StatefulPartitionedCall/functional_1/re_lu_43/Relu"],"attr":{"T":{"type":"DT_FLOAT"}}},
          {"name":"StatefulPartitionedCall/functional_1/re_lu_44/Relu","op":"Relu","input":["StatefulPartitionedCall/functional_1/add_50/add"],"attr":{"T":{"type":"DT_FLOAT"}}},
          {"name":"StatefulPartitionedCall/functional_1/depthwise_conv2d_52/depthwise","op":"DepthwiseConv2dNative","input":["StatefulPartitionedCall/functional_1/re_lu_44/Relu","unknown_209"],"attr":{"data_format":{"s":"TkhXQw=="},"strides":{"list":{"i":["1","1","1","1"]}},"explicit_paddings":{"list":{}},"padding":{"s":"U0FNRQ=="},"dilations":{"list":{"i":["1","1","1","1"]}},"T":{"type":"DT_FLOAT"}}},
          {"name":"StatefulPartitionedCall/functional_1/conv2d_53/BiasAdd","op":"_FusedConv2D","input":["StatefulPartitionedCall/functional_1/depthwise_conv2d_52/depthwise","unknown_211","unknown_212"],"device":"/device:CPU:0","attr":{"num_args":{"i":"1"},"epsilon":{"f":0},"padding":{"s":"VkFMSUQ="},"fused_ops":{"list":{"s":["Qmlhc0FkZA=="]}},"dilations":{"list":{"i":["1","1","1","1"]}},"T":{"type":"DT_FLOAT"},"data_format":{"s":"TkhXQw=="},"strides":{"list":{"i":["1","1","1","1"]}},"use_cudnn_on_gpu":{"b":true},"explicit_paddings":{"list":{}}}},
          {"name":"StatefulPartitionedCall/functional_1/add_51/add","op":"AddV2","input":["StatefulPartitionedCall/functional_1/conv2d_53/BiasAdd","StatefulPartitionedCall/functional_1/re_lu_44/Relu"],"attr":{"T":{"type":"DT_FLOAT"}}},
          {"name":"StatefulPartitionedCall/functional_1/re_lu_45/Relu","op":"Relu","input":["StatefulPartitionedCall/functional_1/add_51/add"],"attr":{"T":{"type":"DT_FLOAT"}}},
          {"name":"StatefulPartitionedCall/functional_1/depthwise_conv2d_53/depthwise","op":"DepthwiseConv2dNative","input":["StatefulPartitionedCall/functional_1/re_lu_45/Relu","unknown_213"],"attr":{"T":{"type":"DT_FLOAT"},"data_format":{"s":"TkhXQw=="},"strides":{"list":{"i":["1","1","1","1"]}},"explicit_paddings":{"list":{}},"padding":{"s":"U0FNRQ=="},"dilations":{"list":{"i":["1","1","1","1"]}}}},
          {"name":"StatefulPartitionedCall/functional_1/conv2d_54/BiasAdd","op":"_FusedConv2D","input":["StatefulPartitionedCall/functional_1/depthwise_conv2d_53/depthwise","unknown_215","unknown_216"],"device":"/device:CPU:0","attr":{"dilations":{"list":{"i":["1","1","1","1"]}},"T":{"type":"DT_FLOAT"},"data_format":{"s":"TkhXQw=="},"strides":{"list":{"i":["1","1","1","1"]}},"explicit_paddings":{"list":{}},"use_cudnn_on_gpu":{"b":true},"num_args":{"i":"1"},"epsilon":{"f":0},"padding":{"s":"VkFMSUQ="},"fused_ops":{"list":{"s":["Qmlhc0FkZA=="]}}}},
          {"name":"StatefulPartitionedCall/functional_1/add_52/add","op":"AddV2","input":["StatefulPartitionedCall/functional_1/conv2d_54/BiasAdd","StatefulPartitionedCall/functional_1/re_lu_45/Relu"],"attr":{"T":{"type":"DT_FLOAT"}}},
          {"name":"StatefulPartitionedCall/functional_1/re_lu_46/Relu","op":"Relu","input":["StatefulPartitionedCall/functional_1/add_52/add"],"attr":{"T":{"type":"DT_FLOAT"}}},
          {"name":"StatefulPartitionedCall/functional_1/depthwise_conv2d_54/depthwise","op":"DepthwiseConv2dNative","input":["StatefulPartitionedCall/functional_1/re_lu_46/Relu","unknown_217"],"attr":{"dilations":{"list":{"i":["1","1","1","1"]}},"T":{"type":"DT_FLOAT"},"data_format":{"s":"TkhXQw=="},"strides":{"list":{"i":["1","1","1","1"]}},"explicit_paddings":{"list":{}},"padding":{"s":"U0FNRQ=="}}},
          {"name":"StatefulPartitionedCall/functional_1/conv2d_55/BiasAdd","op":"_FusedConv2D","input":["StatefulPartitionedCall/functional_1/depthwise_conv2d_54/depthwise","unknown_219","unknown_220"],"device":"/device:CPU:0","attr":{"dilations":{"list":{"i":["1","1","1","1"]}},"T":{"type":"DT_FLOAT"},"strides":{"list":{"i":["1","1","1","1"]}},"data_format":{"s":"TkhXQw=="},"use_cudnn_on_gpu":{"b":true},"explicit_paddings":{"list":{}},"num_args":{"i":"1"},"epsilon":{"f":0},"padding":{"s":"VkFMSUQ="},"fused_ops":{"list":{"s":["Qmlhc0FkZA=="]}}}},
          {"name":"StatefulPartitionedCall/functional_1/add_53/add","op":"AddV2","input":["StatefulPartitionedCall/functional_1/conv2d_55/BiasAdd","StatefulPartitionedCall/functional_1/re_lu_46/Relu"],"attr":{"T":{"type":"DT_FLOAT"}}},
          {"name":"StatefulPartitionedCall/functional_1/re_lu_47/Relu","op":"Relu","input":["StatefulPartitionedCall/functional_1/add_53/add"],"attr":{"T":{"type":"DT_FLOAT"}}},
          {"name":"StatefulPartitionedCall/functional_1/depthwise_conv2d_55/depthwise","op":"DepthwiseConv2dNative","input":["StatefulPartitionedCall/functional_1/re_lu_47/Relu","unknown_221"],"attr":{"dilations":{"list":{"i":["1","1","1","1"]}},"T":{"type":"DT_FLOAT"},"data_format":{"s":"TkhXQw=="},"strides":{"list":{"i":["1","1","1","1"]}},"explicit_paddings":{"list":{}},"padding":{"s":"U0FNRQ=="}}},
          {"name":"StatefulPartitionedCall/functional_1/conv2d_56/BiasAdd","op":"_FusedConv2D","input":["StatefulPartitionedCall/functional_1/depthwise_conv2d_55/depthwise","unknown_223","unknown_224"],"device":"/device:CPU:0","attr":{"num_args":{"i":"1"},"epsilon":{"f":0},"padding":{"s":"VkFMSUQ="},"fused_ops":{"list":{"s":["Qmlhc0FkZA=="]}},"dilations":{"list":{"i":["1","1","1","1"]}},"T":{"type":"DT_FLOAT"},"data_format":{"s":"TkhXQw=="},"strides":{"list":{"i":["1","1","1","1"]}},"use_cudnn_on_gpu":{"b":true},"explicit_paddings":{"list":{}}}},
          {"name":"StatefulPartitionedCall/functional_1/add_54/add","op":"AddV2","input":["StatefulPartitionedCall/functional_1/conv2d_56/BiasAdd","StatefulPartitionedCall/functional_1/re_lu_47/Relu"],"attr":{"T":{"type":"DT_FLOAT"}}},
          {"name":"StatefulPartitionedCall/functional_1/re_lu_48/Relu","op":"Relu","input":["StatefulPartitionedCall/functional_1/add_54/add"],"attr":{"T":{"type":"DT_FLOAT"}}},
          {"name":"StatefulPartitionedCall/functional_1/depthwise_conv2d_56/depthwise","op":"DepthwiseConv2dNative","input":["StatefulPartitionedCall/functional_1/re_lu_48/Relu","unknown_225"],"attr":{"padding":{"s":"U0FNRQ=="},"dilations":{"list":{"i":["1","1","1","1"]}},"T":{"type":"DT_FLOAT"},"strides":{"list":{"i":["1","1","1","1"]}},"data_format":{"s":"TkhXQw=="},"explicit_paddings":{"list":{}}}},
          {"name":"StatefulPartitionedCall/functional_1/conv2d_57/BiasAdd","op":"_FusedConv2D","input":["StatefulPartitionedCall/functional_1/depthwise_conv2d_56/depthwise","unknown_227","unknown_228"],"device":"/device:CPU:0","attr":{"dilations":{"list":{"i":["1","1","1","1"]}},"T":{"type":"DT_FLOAT"},"data_format":{"s":"TkhXQw=="},"strides":{"list":{"i":["1","1","1","1"]}},"use_cudnn_on_gpu":{"b":true},"explicit_paddings":{"list":{}},"num_args":{"i":"1"},"epsilon":{"f":0},"padding":{"s":"VkFMSUQ="},"fused_ops":{"list":{"s":["Qmlhc0FkZA=="]}}}},
          {"name":"StatefulPartitionedCall/functional_1/add_55/add","op":"AddV2","input":["StatefulPartitionedCall/functional_1/conv2d_57/BiasAdd","StatefulPartitionedCall/functional_1/re_lu_48/Relu"],"attr":{"T":{"type":"DT_FLOAT"}}},
          {"name":"StatefulPartitionedCall/functional_1/re_lu_49/Relu","op":"Relu","input":["StatefulPartitionedCall/functional_1/add_55/add"],"attr":{"T":{"type":"DT_FLOAT"}}},
          {"name":"StatefulPartitionedCall/functional_1/depthwise_conv2d_57/depthwise","op":"DepthwiseConv2dNative","input":["StatefulPartitionedCall/functional_1/re_lu_49/Relu","unknown_229"],"attr":{"dilations":{"list":{"i":["1","1","1","1"]}},"T":{"type":"DT_FLOAT"},"strides":{"list":{"i":["1","2","2","1"]}},"data_format":{"s":"TkhXQw=="},"explicit_paddings":{"list":{}},"padding":{"s":"U0FNRQ=="}}},
          {"name":"StatefulPartitionedCall/functional_1/max_pooling2d_8/MaxPool","op":"MaxPool","input":["StatefulPartitionedCall/functional_1/re_lu_49/Relu"],"attr":{"ksize":{"list":{"i":["1","2","2","1"]}},"padding":{"s":"VkFMSUQ="},"T":{"type":"DT_FLOAT"},"data_format":{"s":"TkhXQw=="},"strides":{"list":{"i":["1","2","2","1"]}}}},
          {"name":"StatefulPartitionedCall/functional_1/conv2d_58/BiasAdd","op":"_FusedConv2D","input":["StatefulPartitionedCall/functional_1/depthwise_conv2d_57/depthwise","unknown_231","unknown_232"],"device":"/device:CPU:0","attr":{"dilations":{"list":{"i":["1","1","1","1"]}},"T":{"type":"DT_FLOAT"},"strides":{"list":{"i":["1","1","1","1"]}},"data_format":{"s":"TkhXQw=="},"use_cudnn_on_gpu":{"b":true},"explicit_paddings":{"list":{}},"num_args":{"i":"1"},"epsilon":{"f":0},"padding":{"s":"VkFMSUQ="},"fused_ops":{"list":{"s":["Qmlhc0FkZA=="]}}}},
          {"name":"StatefulPartitionedCall/functional_1/add_56/add","op":"AddV2","input":["StatefulPartitionedCall/functional_1/conv2d_58/BiasAdd","StatefulPartitionedCall/functional_1/max_pooling2d_8/MaxPool"],"attr":{"T":{"type":"DT_FLOAT"}}},
          {"name":"StatefulPartitionedCall/functional_1/re_lu_50/Relu","op":"Relu","input":["StatefulPartitionedCall/functional_1/add_56/add"],"attr":{"T":{"type":"DT_FLOAT"}}},
          {"name":"StatefulPartitionedCall/functional_1/depthwise_conv2d_58/depthwise","op":"DepthwiseConv2dNative","input":["StatefulPartitionedCall/functional_1/re_lu_50/Relu","unknown_233"],"attr":{"padding":{"s":"U0FNRQ=="},"dilations":{"list":{"i":["1","1","1","1"]}},"T":{"type":"DT_FLOAT"},"strides":{"list":{"i":["1","1","1","1"]}},"data_format":{"s":"TkhXQw=="},"explicit_paddings":{"list":{}}}},
          {"name":"StatefulPartitionedCall/functional_1/conv2d_59/BiasAdd","op":"_FusedConv2D","input":["StatefulPartitionedCall/functional_1/depthwise_conv2d_58/depthwise","unknown_235","unknown_236"],"device":"/device:CPU:0","attr":{"epsilon":{"f":0},"padding":{"s":"VkFMSUQ="},"fused_ops":{"list":{"s":["Qmlhc0FkZA=="]}},"dilations":{"list":{"i":["1","1","1","1"]}},"T":{"type":"DT_FLOAT"},"strides":{"list":{"i":["1","1","1","1"]}},"data_format":{"s":"TkhXQw=="},"explicit_paddings":{"list":{}},"use_cudnn_on_gpu":{"b":true},"num_args":{"i":"1"}}},
          {"name":"StatefulPartitionedCall/functional_1/add_57/add","op":"AddV2","input":["StatefulPartitionedCall/functional_1/conv2d_59/BiasAdd","StatefulPartitionedCall/functional_1/re_lu_50/Relu"],"attr":{"T":{"type":"DT_FLOAT"}}},
          {"name":"StatefulPartitionedCall/functional_1/re_lu_51/Relu","op":"Relu","input":["StatefulPartitionedCall/functional_1/add_57/add"],"attr":{"T":{"type":"DT_FLOAT"}}},
          {"name":"StatefulPartitionedCall/functional_1/depthwise_conv2d_59/depthwise","op":"DepthwiseConv2dNative","input":["StatefulPartitionedCall/functional_1/re_lu_51/Relu","unknown_237"],"attr":{"T":{"type":"DT_FLOAT"},"strides":{"list":{"i":["1","1","1","1"]}},"data_format":{"s":"TkhXQw=="},"explicit_paddings":{"list":{}},"padding":{"s":"U0FNRQ=="},"dilations":{"list":{"i":["1","1","1","1"]}}}},
          {"name":"StatefulPartitionedCall/functional_1/conv2d_60/BiasAdd","op":"_FusedConv2D","input":["StatefulPartitionedCall/functional_1/depthwise_conv2d_59/depthwise","unknown_239","unknown_240"],"device":"/device:CPU:0","attr":{"T":{"type":"DT_FLOAT"},"strides":{"list":{"i":["1","1","1","1"]}},"data_format":{"s":"TkhXQw=="},"use_cudnn_on_gpu":{"b":true},"explicit_paddings":{"list":{}},"num_args":{"i":"1"},"epsilon":{"f":0},"padding":{"s":"VkFMSUQ="},"fused_ops":{"list":{"s":["Qmlhc0FkZA=="]}},"dilations":{"list":{"i":["1","1","1","1"]}}}},
          {"name":"StatefulPartitionedCall/functional_1/add_58/add","op":"AddV2","input":["StatefulPartitionedCall/functional_1/conv2d_60/BiasAdd","StatefulPartitionedCall/functional_1/re_lu_51/Relu"],"attr":{"T":{"type":"DT_FLOAT"}}},
          {"name":"StatefulPartitionedCall/functional_1/re_lu_52/Relu","op":"Relu","input":["StatefulPartitionedCall/functional_1/add_58/add"],"attr":{"T":{"type":"DT_FLOAT"}}},
          {"name":"StatefulPartitionedCall/functional_1/depthwise_conv2d_60/depthwise","op":"DepthwiseConv2dNative","input":["StatefulPartitionedCall/functional_1/re_lu_52/Relu","unknown_241"],"attr":{"dilations":{"list":{"i":["1","1","1","1"]}},"T":{"type":"DT_FLOAT"},"data_format":{"s":"TkhXQw=="},"strides":{"list":{"i":["1","1","1","1"]}},"explicit_paddings":{"list":{}},"padding":{"s":"U0FNRQ=="}}},
          {"name":"StatefulPartitionedCall/functional_1/conv2d_61/BiasAdd","op":"_FusedConv2D","input":["StatefulPartitionedCall/functional_1/depthwise_conv2d_60/depthwise","unknown_243","unknown_244"],"device":"/device:CPU:0","attr":{"fused_ops":{"list":{"s":["Qmlhc0FkZA=="]}},"dilations":{"list":{"i":["1","1","1","1"]}},"T":{"type":"DT_FLOAT"},"strides":{"list":{"i":["1","1","1","1"]}},"data_format":{"s":"TkhXQw=="},"use_cudnn_on_gpu":{"b":true},"explicit_paddings":{"list":{}},"num_args":{"i":"1"},"epsilon":{"f":0},"padding":{"s":"VkFMSUQ="}}},
          {"name":"StatefulPartitionedCall/functional_1/add_59/add","op":"AddV2","input":["StatefulPartitionedCall/functional_1/conv2d_61/BiasAdd","StatefulPartitionedCall/functional_1/re_lu_52/Relu"],"attr":{"T":{"type":"DT_FLOAT"}}},
          {"name":"StatefulPartitionedCall/functional_1/re_lu_53/Relu","op":"Relu","input":["StatefulPartitionedCall/functional_1/add_59/add"],"attr":{"T":{"type":"DT_FLOAT"}}},
          {"name":"StatefulPartitionedCall/functional_1/depthwise_conv2d_61/depthwise","op":"DepthwiseConv2dNative","input":["StatefulPartitionedCall/functional_1/re_lu_53/Relu","unknown_245"],"attr":{"dilations":{"list":{"i":["1","1","1","1"]}},"T":{"type":"DT_FLOAT"},"strides":{"list":{"i":["1","1","1","1"]}},"data_format":{"s":"TkhXQw=="},"explicit_paddings":{"list":{}},"padding":{"s":"U0FNRQ=="}}},
          {"name":"StatefulPartitionedCall/functional_1/conv2d_62/BiasAdd","op":"_FusedConv2D","input":["StatefulPartitionedCall/functional_1/depthwise_conv2d_61/depthwise","unknown_247","unknown_248"],"device":"/device:CPU:0","attr":{"fused_ops":{"list":{"s":["Qmlhc0FkZA=="]}},"dilations":{"list":{"i":["1","1","1","1"]}},"T":{"type":"DT_FLOAT"},"data_format":{"s":"TkhXQw=="},"strides":{"list":{"i":["1","1","1","1"]}},"explicit_paddings":{"list":{}},"use_cudnn_on_gpu":{"b":true},"num_args":{"i":"1"},"epsilon":{"f":0},"padding":{"s":"VkFMSUQ="}}},
          {"name":"StatefulPartitionedCall/functional_1/add_60/add","op":"AddV2","input":["StatefulPartitionedCall/functional_1/conv2d_62/BiasAdd","StatefulPartitionedCall/functional_1/re_lu_53/Relu"],"attr":{"T":{"type":"DT_FLOAT"}}},
          {"name":"StatefulPartitionedCall/functional_1/re_lu_54/Relu","op":"Relu","input":["StatefulPartitionedCall/functional_1/add_60/add"],"attr":{"T":{"type":"DT_FLOAT"}}},
          {"name":"StatefulPartitionedCall/functional_1/depthwise_conv2d_62/depthwise","op":"DepthwiseConv2dNative","input":["StatefulPartitionedCall/functional_1/re_lu_54/Relu","unknown_249"],"attr":{"dilations":{"list":{"i":["1","1","1","1"]}},"T":{"type":"DT_FLOAT"},"data_format":{"s":"TkhXQw=="},"strides":{"list":{"i":["1","1","1","1"]}},"explicit_paddings":{"list":{}},"padding":{"s":"U0FNRQ=="}}},
          {"name":"StatefulPartitionedCall/functional_1/conv2d_63/BiasAdd","op":"_FusedConv2D","input":["StatefulPartitionedCall/functional_1/depthwise_conv2d_62/depthwise","unknown_251","unknown_252"],"device":"/device:CPU:0","attr":{"dilations":{"list":{"i":["1","1","1","1"]}},"T":{"type":"DT_FLOAT"},"strides":{"list":{"i":["1","1","1","1"]}},"data_format":{"s":"TkhXQw=="},"use_cudnn_on_gpu":{"b":true},"explicit_paddings":{"list":{}},"num_args":{"i":"1"},"epsilon":{"f":0},"padding":{"s":"VkFMSUQ="},"fused_ops":{"list":{"s":["Qmlhc0FkZA=="]}}}},
          {"name":"StatefulPartitionedCall/functional_1/add_61/add","op":"AddV2","input":["StatefulPartitionedCall/functional_1/conv2d_63/BiasAdd","StatefulPartitionedCall/functional_1/re_lu_54/Relu"],"attr":{"T":{"type":"DT_FLOAT"}}},
          {"name":"StatefulPartitionedCall/functional_1/re_lu_55/Relu","op":"Relu","input":["StatefulPartitionedCall/functional_1/add_61/add"],"attr":{"T":{"type":"DT_FLOAT"}}},
          {"name":"StatefulPartitionedCall/functional_1/depthwise_conv2d_63/depthwise","op":"DepthwiseConv2dNative","input":["StatefulPartitionedCall/functional_1/re_lu_55/Relu","unknown_253"],"attr":{"strides":{"list":{"i":["1","1","1","1"]}},"data_format":{"s":"TkhXQw=="},"explicit_paddings":{"list":{}},"padding":{"s":"U0FNRQ=="},"dilations":{"list":{"i":["1","1","1","1"]}},"T":{"type":"DT_FLOAT"}}},
          {"name":"StatefulPartitionedCall/functional_1/conv2d_64/BiasAdd","op":"_FusedConv2D","input":["StatefulPartitionedCall/functional_1/depthwise_conv2d_63/depthwise","unknown_255","unknown_256"],"device":"/device:CPU:0","attr":{"T":{"type":"DT_FLOAT"},"data_format":{"s":"TkhXQw=="},"strides":{"list":{"i":["1","1","1","1"]}},"use_cudnn_on_gpu":{"b":true},"explicit_paddings":{"list":{}},"num_args":{"i":"1"},"epsilon":{"f":0},"padding":{"s":"VkFMSUQ="},"fused_ops":{"list":{"s":["Qmlhc0FkZA=="]}},"dilations":{"list":{"i":["1","1","1","1"]}}}},
          {"name":"StatefulPartitionedCall/functional_1/add_62/add","op":"AddV2","input":["StatefulPartitionedCall/functional_1/conv2d_64/BiasAdd","StatefulPartitionedCall/functional_1/re_lu_55/Relu"],"attr":{"T":{"type":"DT_FLOAT"}}},
          {"name":"StatefulPartitionedCall/functional_1/re_lu_56/Relu","op":"Relu","input":["StatefulPartitionedCall/functional_1/add_62/add"],"attr":{"T":{"type":"DT_FLOAT"}}},
          {"name":"StatefulPartitionedCall/functional_1/depthwise_conv2d_64/depthwise","op":"DepthwiseConv2dNative","input":["StatefulPartitionedCall/functional_1/re_lu_56/Relu","unknown_259"],"attr":{"padding":{"s":"U0FNRQ=="},"dilations":{"list":{"i":["1","1","1","1"]}},"T":{"type":"DT_FLOAT"},"data_format":{"s":"TkhXQw=="},"strides":{"list":{"i":["1","1","1","1"]}},"explicit_paddings":{"list":{}}}},
          {"name":"StatefulPartitionedCall/functional_1/conv2d_65/BiasAdd","op":"_FusedConv2D","input":["StatefulPartitionedCall/functional_1/depthwise_conv2d_64/depthwise","unknown_265","unknown_266"],"device":"/device:CPU:0","attr":{"fused_ops":{"list":{"s":["Qmlhc0FkZA=="]}},"dilations":{"list":{"i":["1","1","1","1"]}},"T":{"type":"DT_FLOAT"},"strides":{"list":{"i":["1","1","1","1"]}},"data_format":{"s":"TkhXQw=="},"use_cudnn_on_gpu":{"b":true},"explicit_paddings":{"list":{}},"num_args":{"i":"1"},"epsilon":{"f":0},"padding":{"s":"VkFMSUQ="}}},
          {"name":"StatefulPartitionedCall/functional_1/add_63/add","op":"AddV2","input":["StatefulPartitionedCall/functional_1/conv2d_65/BiasAdd","StatefulPartitionedCall/functional_1/re_lu_56/Relu"],"attr":{"T":{"type":"DT_FLOAT"}}},
          {"name":"StatefulPartitionedCall/functional_1/re_lu_57/Relu","op":"Relu","input":["StatefulPartitionedCall/functional_1/add_63/add"],"attr":{"T":{"type":"DT_FLOAT"}}},
          {"name":"StatefulPartitionedCall/functional_1/conv2d_70/BiasAdd","op":"_FusedConv2D","input":["StatefulPartitionedCall/functional_1/re_lu_57/Relu","unknown_271","unknown_272"],"device":"/device:CPU:0","attr":{"dilations":{"list":{"i":["1","1","1","1"]}},"T":{"type":"DT_FLOAT"},"strides":{"list":{"i":["1","1","1","1"]}},"data_format":{"s":"TkhXQw=="},"explicit_paddings":{"list":{}},"use_cudnn_on_gpu":{"b":true},"num_args":{"i":"1"},"epsilon":{"f":0},"padding":{"s":"VkFMSUQ="},"fused_ops":{"list":{"s":["Qmlhc0FkZA=="]}}}},
          {"name":"StatefulPartitionedCall/functional_1/conv2d_69/BiasAdd","op":"_FusedConv2D","input":["StatefulPartitionedCall/functional_1/re_lu_57/Relu","unknown_273","unknown_274"],"device":"/device:CPU:0","attr":{"num_args":{"i":"1"},"epsilon":{"f":0},"padding":{"s":"VkFMSUQ="},"fused_ops":{"list":{"s":["Qmlhc0FkZA=="]}},"dilations":{"list":{"i":["1","1","1","1"]}},"T":{"type":"DT_FLOAT"},"data_format":{"s":"TkhXQw=="},"strides":{"list":{"i":["1","1","1","1"]}},"explicit_paddings":{"list":{}},"use_cudnn_on_gpu":{"b":true}}},
          {"name":"StatefulPartitionedCall/functional_1/tf_op_layer_ld_3d/ld_3d","op":"Reshape","input":["StatefulPartitionedCall/functional_1/conv2d_70/BiasAdd","StatefulPartitionedCall/functional_1/tf_op_layer_ld_3d/ld_3d/shape"],"attr":{"_cloned":{"b":true},"T":{"type":"DT_FLOAT"},"Tshape":{"type":"DT_INT32"}}},
          {"name":"StatefulPartitionedCall/functional_1/tf_op_layer_Sigmoid/Sigmoid","op":"Sigmoid","input":["StatefulPartitionedCall/functional_1/conv2d_69/BiasAdd"],"attr":{"T":{"type":"DT_FLOAT"},"_cloned":{"b":true}}},
          {"name":"Identity_2","op":"Identity","input":["StatefulPartitionedCall/functional_1/tf_op_layer_ld_3d/ld_3d"],"attr":{"T":{"type":"DT_FLOAT"}}},
          {"name":"Identity_1","op":"Identity","input":["StatefulPartitionedCall/functional_1/tf_op_layer_Sigmoid/Sigmoid"],"attr":{"T":{"type":"DT_FLOAT"}}}
      ],
      "library": {},
      "versions":
      {
          "producer": 440
      }
  },
  "weightsManifest":
  [
      {
          "paths": ["blazepose.bin"],
          "weights": [{"name":"unknown_257","shape":[3,3,48,1],"dtype":"float32","quantization":{"dtype":"float16","original_dtype":"float32"}},{"name":"unknown_263","shape":[1,1,48,8],"dtype":"float32","quantization":{"dtype":"float16","original_dtype":"float32"}},{"name":"unknown_264","shape":[8],"dtype":"float32","quantization":{"dtype":"float16","original_dtype":"float32"}},{"name":"StatefulPartitionedCall/functional_1/tf_op_layer_ResizeBilinear_3/ResizeBilinear_3/size","shape":[2],"dtype":"int32"},{"name":"unknown_261","shape":[3,3,24,1],"dtype":"float32","quantization":{"dtype":"float16","original_dtype":"float32"}},{"name":"unknown_267","shape":[1,1,24,8],"dtype":"float32","quantization":{"dtype":"float16","original_dtype":"float32"}},{"name":"unknown_268","shape":[8],"dtype":"float32","quantization":{"dtype":"float16","original_dtype":"float32"}},{"name":"unknown_269","shape":[3,3,8,1],"dtype":"float32","quantization":{"dtype":"float16","original_dtype":"float32"}},{"name":"unknown_275","shape":[1,1,8,8],"dtype":"float32","quantization":{"dtype":"float16","original_dtype":"float32"}},{"name":"unknown_276","shape":[8],"dtype":"float32","quantization":{"dtype":"float16","original_dtype":"float32"}},{"name":"unknown_277","shape":[3,3,8,1],"dtype":"float32","quantization":{"dtype":"float16","original_dtype":"float32"}},{"name":"unknown_278","shape":[1],"dtype":"float32","quantization":{"dtype":"float16","original_dtype":"float32"}},{"name":"unknown_273","shape":[2,2,288,1],"dtype":"float32","quantization":{"dtype":"float16","original_dtype":"float32"}},{"name":"unknown_274","shape":[1],"dtype":"float32","quantization":{"dtype":"float16","original_dtype":"float32"}},{"name":"unknown_259","shape":[3,3,288,1],"dtype":"float32","quantization":{"dtype":"float16","original_dtype":"float32"}},{"name":"unknown_265","shape":[1,1,288,288],"dtype":"float32","quantization":{"dtype":"float16","original_dtype":"float32"}},{"name":"unknown_266","shape":[288],"dtype":"float32","quantization":{"dtype":"float16","original_dtype":"float32"}},{"name":"unknown_253","shape":[3,3,288,1],"dtype":"float32","quantization":{"dtype":"float16","original_dtype":"float32"}},{"name":"unknown_255","shape":[1,1,288,288],"dtype":"float32","quantization":{"dtype":"float16","original_dtype":"float32"}},{"name":"unknown_256","shape":[288],"dtype":"float32","quantization":{"dtype":"float16","original_dtype":"float32"}},{"name":"unknown_249","shape":[3,3,288,1],"dtype":"float32","quantization":{"dtype":"float16","original_dtype":"float32"}},{"name":"unknown_251","shape":[1,1,288,288],"dtype":"float32","quantization":{"dtype":"float16","original_dtype":"float32"}},{"name":"unknown_252","shape":[288],"dtype":"float32","quantization":{"dtype":"float16","original_dtype":"float32"}},{"name":"unknown_245","shape":[3,3,288,1],"dtype":"float32","quantization":{"dtype":"float16","original_dtype":"float32"}},{"name":"unknown_247","shape":[1,1,288,288],"dtype":"float32","quantization":{"dtype":"float16","original_dtype":"float32"}},{"name":"unknown_248","shape":[288],"dtype":"float32","quantization":{"dtype":"float16","original_dtype":"float32"}},{"name":"unknown_241","shape":[3,3,288,1],"dtype":"float32","quantization":{"dtype":"float16","original_dtype":"float32"}},{"name":"unknown_243","shape":[1,1,288,288],"dtype":"float32","quantization":{"dtype":"float16","original_dtype":"float32"}},{"name":"unknown_244","shape":[288],"dtype":"float32","quantization":{"dtype":"float16","original_dtype":"float32"}},{"name":"unknown_237","shape":[3,3,288,1],"dtype":"float32","quantization":{"dtype":"float16","original_dtype":"float32"}},{"name":"unknown_239","shape":[1,1,288,288],"dtype":"float32","quantization":{"dtype":"float16","original_dtype":"float32"}},{"name":"unknown_240","shape":[288],"dtype":"float32","quantization":{"dtype":"float16","original_dtype":"float32"}},{"name":"unknown_233","shape":[3,3,288,1],"dtype":"float32","quantization":{"dtype":"float16","original_dtype":"float32"}},{"name":"unknown_235","shape":[1,1,288,288],"dtype":"float32","quantization":{"dtype":"float16","original_dtype":"float32"}},{"name":"unknown_236","shape":[288],"dtype":"float32","quantization":{"dtype":"float16","original_dtype":"float32"}},{"name":"unknown_229","shape":[3,3,288,1],"dtype":"float32","quantization":{"dtype":"float16","original_dtype":"float32"}},{"name":"unknown_231","shape":[1,1,288,288],"dtype":"float32","quantization":{"dtype":"float16","original_dtype":"float32"}},{"name":"unknown_232","shape":[288],"dtype":"float32","quantization":{"dtype":"float16","original_dtype":"float32"}},{"name":"unknown_225","shape":[3,3,288,1],"dtype":"float32","quantization":{"dtype":"float16","original_dtype":"float32"}},{"name":"unknown_227","shape":[1,1,288,288],"dtype":"float32","quantization":{"dtype":"float16","original_dtype":"float32"}},{"name":"unknown_228","shape":[288],"dtype":"float32","quantization":{"dtype":"float16","original_dtype":"float32"}},{"name":"unknown_221","shape":[3,3,288,1],"dtype":"float32","quantization":{"dtype":"float16","original_dtype":"float32"}},{"name":"unknown_223","shape":[1,1,288,288],"dtype":"float32","quantization":{"dtype":"float16","original_dtype":"float32"}},{"name":"unknown_224","shape":[288],"dtype":"float32","quantization":{"dtype":"float16","original_dtype":"float32"}},{"name":"unknown_217","shape":[3,3,288,1],"dtype":"float32","quantization":{"dtype":"float16","original_dtype":"float32"}},{"name":"unknown_219","shape":[1,1,288,288],"dtype":"float32","quantization":{"dtype":"float16","original_dtype":"float32"}},{"name":"unknown_220","shape":[288],"dtype":"float32","quantization":{"dtype":"float16","original_dtype":"float32"}},{"name":"unknown_213","shape":[3,3,288,1],"dtype":"float32","quantization":{"dtype":"float16","original_dtype":"float32"}},{"name":"unknown_215","shape":[1,1,288,288],"dtype":"float32","quantization":{"dtype":"float16","original_dtype":"float32"}},{"name":"unknown_216","shape":[288],"dtype":"float32","quantization":{"dtype":"float16","original_dtype":"float32"}},{"name":"unknown_209","shape":[3,3,288,1],"dtype":"float32","quantization":{"dtype":"float16","original_dtype":"float32"}},{"name":"unknown_211","shape":[1,1,288,288],"dtype":"float32","quantization":{"dtype":"float16","original_dtype":"float32"}},{"name":"unknown_212","shape":[288],"dtype":"float32","quantization":{"dtype":"float16","original_dtype":"float32"}},{"name":"unknown_205","shape":[3,3,288,1],"dtype":"float32","quantization":{"dtype":"float16","original_dtype":"float32"}},{"name":"unknown_207","shape":[1,1,288,288],"dtype":"float32","quantization":{"dtype":"float16","original_dtype":"float32"}},{"name":"unknown_208","shape":[288],"dtype":"float32","quantization":{"dtype":"float16","original_dtype":"float32"}},{"name":"unknown_201","shape":[3,3,288,1],"dtype":"float32","quantization":{"dtype":"float16","original_dtype":"float32"}},{"name":"unknown_203","shape":[1,1,288,288],"dtype":"float32","quantization":{"dtype":"float16","original_dtype":"float32"}},{"name":"unknown_204","shape":[288],"dtype":"float32","quantization":{"dtype":"float16","original_dtype":"float32"}},{"name":"unknown_197","shape":[3,3,288,1],"dtype":"float32","quantization":{"dtype":"float16","original_dtype":"float32"}},{"name":"unknown_199","shape":[1,1,288,288],"dtype":"float32","quantization":{"dtype":"float16","original_dtype":"float32"}},{"name":"unknown_200","shape":[288],"dtype":"float32","quantization":{"dtype":"float16","original_dtype":"float32"}},{"name":"unknown_193","shape":[3,3,288,1],"dtype":"float32","quantization":{"dtype":"float16","original_dtype":"float32"}},{"name":"unknown_195","shape":[1,1,288,288],"dtype":"float32","quantization":{"dtype":"float16","original_dtype":"float32"}},{"name":"unknown_196","shape":[288],"dtype":"float32","quantization":{"dtype":"float16","original_dtype":"float32"}},{"name":"unknown_165","shape":[3,3,192,1],"dtype":"float32","quantization":{"dtype":"float16","original_dtype":"float32"}},{"name":"unknown_167","shape":[1,1,192,288],"dtype":"float32","quantization":{"dtype":"float16","original_dtype":"float32"}},{"name":"unknown_168","shape":[288],"dtype":"float32","quantization":{"dtype":"float16","original_dtype":"float32"}},{"name":"unknown_161","shape":[3,3,192,1],"dtype":"float32","quantization":{"dtype":"float16","original_dtype":"float32"}},{"name":"unknown_163","shape":[1,1,192,192],"dtype":"float32","quantization":{"dtype":"float16","original_dtype":"float32"}},{"name":"unknown_164","shape":[192],"dtype":"float32","quantization":{"dtype":"float16","original_dtype":"float32"}},{"name":"unknown_137","shape":[3,3,96,1],"dtype":"float32","quantization":{"dtype":"float16","original_dtype":"float32"}},{"name":"unknown_139","shape":[1,1,96,192],"dtype":"float32","quantization":{"dtype":"float16","original_dtype":"float32"}},{"name":"unknown_140","shape":[192],"dtype":"float32","quantization":{"dtype":"float16","original_dtype":"float32"}},{"name":"unknown_113","shape":[3,3,48,1],"dtype":"float32","quantization":{"dtype":"float16","original_dtype":"float32"}},{"name":"unknown_115","shape":[1,1,48,96],"dtype":"float32","quantization":{"dtype":"float16","original_dtype":"float32"}},{"name":"unknown_116","shape":[96],"dtype":"float32","quantization":{"dtype":"float16","original_dtype":"float32"}},{"name":"unknown_69","shape":[3,3,192,1],"dtype":"float32","quantization":{"dtype":"float16","original_dtype":"float32"}},{"name":"unknown_71","shape":[1,1,192,288],"dtype":"float32","quantization":{"dtype":"float16","original_dtype":"float32"}},{"name":"unknown_72","shape":[288],"dtype":"float32","quantization":{"dtype":"float16","original_dtype":"float32"}},{"name":"StatefulPartitionedCall/functional_1/tf_op_layer_Pad_3/Pad_3/paddings","shape":[4,2],"dtype":"int32"},{"name":"unknown_73","shape":[3,3,288,1],"dtype":"float32","quantization":{"dtype":"float16","original_dtype":"float32"}},{"name":"unknown_75","shape":[1,1,288,288],"dtype":"float32","quantization":{"dtype":"float16","original_dtype":"float32"}},{"name":"unknown_76","shape":[288],"dtype":"float32","quantization":{"dtype":"float16","original_dtype":"float32"}},{"name":"unknown_77","shape":[3,3,288,1],"dtype":"float32","quantization":{"dtype":"float16","original_dtype":"float32"}},{"name":"unknown_79","shape":[1,1,288,288],"dtype":"float32","quantization":{"dtype":"float16","original_dtype":"float32"}},{"name":"unknown_80","shape":[288],"dtype":"float32","quantization":{"dtype":"float16","original_dtype":"float32"}},{"name":"unknown_81","shape":[3,3,288,1],"dtype":"float32","quantization":{"dtype":"float16","original_dtype":"float32"}},{"name":"unknown_83","shape":[1,1,288,288],"dtype":"float32","quantization":{"dtype":"float16","original_dtype":"float32"}},{"name":"unknown_84","shape":[288],"dtype":"float32","quantization":{"dtype":"float16","original_dtype":"float32"}},{"name":"unknown_85","shape":[3,3,288,1],"dtype":"float32","quantization":{"dtype":"float16","original_dtype":"float32"}},{"name":"unknown_87","shape":[1,1,288,288],"dtype":"float32","quantization":{"dtype":"float16","original_dtype":"float32"}},{"name":"unknown_88","shape":[288],"dtype":"float32","quantization":{"dtype":"float16","original_dtype":"float32"}},{"name":"unknown_89","shape":[3,3,288,1],"dtype":"float32","quantization":{"dtype":"float16","original_dtype":"float32"}},{"name":"unknown_91","shape":[1,1,288,288],"dtype":"float32","quantization":{"dtype":"float16","original_dtype":"float32"}},{"name":"unknown_92","shape":[288],"dtype":"float32","quantization":{"dtype":"float16","original_dtype":"float32"}},{"name":"unknown_93","shape":[3,3,288,1],"dtype":"float32","quantization":{"dtype":"float16","original_dtype":"float32"}},{"name":"unknown_95","shape":[1,1,288,288],"dtype":"float32","quantization":{"dtype":"float16","original_dtype":"float32"}},{"name":"unknown_96","shape":[288],"dtype":"float32","quantization":{"dtype":"float16","original_dtype":"float32"}},{"name":"unknown_97","shape":[3,3,288,1],"dtype":"float32","quantization":{"dtype":"float16","original_dtype":"float32"}},{"name":"unknown_101","shape":[1,1,288,48],"dtype":"float32","quantization":{"dtype":"float16","original_dtype":"float32"}},{"name":"unknown_102","shape":[48],"dtype":"float32","quantization":{"dtype":"float16","original_dtype":"float32"}},{"name":"StatefulPartitionedCall/functional_1/tf_op_layer_ResizeBilinear/ResizeBilinear/size","shape":[2],"dtype":"int32"},{"name":"unknown_45","shape":[3,3,96,1],"dtype":"float32","quantization":{"dtype":"float16","original_dtype":"float32"}},{"name":"unknown_47","shape":[1,1,96,192],"dtype":"float32","quantization":{"dtype":"float16","original_dtype":"float32"}},{"name":"unknown_48","shape":[192],"dtype":"float32","quantization":{"dtype":"float16","original_dtype":"float32"}},{"name":"StatefulPartitionedCall/functional_1/tf_op_layer_Pad_2/Pad_2/paddings","shape":[4,2],"dtype":"int32"},{"name":"unknown_49","shape":[3,3,192,1],"dtype":"float32","quantization":{"dtype":"float16","original_dtype":"float32"}},{"name":"unknown_51","shape":[1,1,192,192],"dtype":"float32","quantization":{"dtype":"float16","original_dtype":"float32"}},{"name":"unknown_52","shape":[192],"dtype":"float32","quantization":{"dtype":"float16","original_dtype":"float32"}},{"name":"unknown_53","shape":[3,3,192,1],"dtype":"float32","quantization":{"dtype":"float16","original_dtype":"float32"}},{"name":"unknown_55","shape":[1,1,192,192],"dtype":"float32","quantization":{"dtype":"float16","original_dtype":"float32"}},{"name":"unknown_56","shape":[192],"dtype":"float32","quantization":{"dtype":"float16","original_dtype":"float32"}},{"name":"unknown_57","shape":[3,3,192,1],"dtype":"float32","quantization":{"dtype":"float16","original_dtype":"float32"}},{"name":"unknown_59","shape":[1,1,192,192],"dtype":"float32","quantization":{"dtype":"float16","original_dtype":"float32"}},{"name":"unknown_60","shape":[192],"dtype":"float32","quantization":{"dtype":"float16","original_dtype":"float32"}},{"name":"unknown_61","shape":[3,3,192,1],"dtype":"float32","quantization":{"dtype":"float16","original_dtype":"float32"}},{"name":"unknown_63","shape":[1,1,192,192],"dtype":"float32","quantization":{"dtype":"float16","original_dtype":"float32"}},{"name":"unknown_64","shape":[192],"dtype":"float32","quantization":{"dtype":"float16","original_dtype":"float32"}},{"name":"unknown_65","shape":[3,3,192,1],"dtype":"float32","quantization":{"dtype":"float16","original_dtype":"float32"}},{"name":"unknown_67","shape":[1,1,192,192],"dtype":"float32","quantization":{"dtype":"float16","original_dtype":"float32"}},{"name":"unknown_68","shape":[192],"dtype":"float32","quantization":{"dtype":"float16","original_dtype":"float32"}},{"name":"unknown_99","shape":[3,3,192,1],"dtype":"float32","quantization":{"dtype":"float16","original_dtype":"float32"}},{"name":"unknown_103","shape":[1,1,192,48],"dtype":"float32","quantization":{"dtype":"float16","original_dtype":"float32"}},{"name":"unknown_104","shape":[48],"dtype":"float32","quantization":{"dtype":"float16","original_dtype":"float32"}},{"name":"StatefulPartitionedCall/functional_1/tf_op_layer_ResizeBilinear_1/ResizeBilinear_1/size","shape":[2],"dtype":"int32"},{"name":"unknown_105","shape":[3,3,96,1],"dtype":"float32","quantization":{"dtype":"float16","original_dtype":"float32"}},{"name":"unknown_107","shape":[1,1,96,48],"dtype":"float32","quantization":{"dtype":"float16","original_dtype":"float32"}},{"name":"unknown_108","shape":[48],"dtype":"float32","quantization":{"dtype":"float16","original_dtype":"float32"}},{"name":"StatefulPartitionedCall/functional_1/tf_op_layer_ResizeBilinear_2/ResizeBilinear_2/size","shape":[2],"dtype":"int32"},{"name":"unknown_109","shape":[3,3,48,1],"dtype":"float32","quantization":{"dtype":"float16","original_dtype":"float32"}},{"name":"unknown_111","shape":[1,1,48,48],"dtype":"float32","quantization":{"dtype":"float16","original_dtype":"float32"}},{"name":"unknown_112","shape":[48],"dtype":"float32","quantization":{"dtype":"float16","original_dtype":"float32"}},{"name":"StatefulPartitionedCall/functional_1/tf_op_layer_Pad_4/Pad_4/paddings","shape":[4,2],"dtype":"int32"},{"name":"unknown_117","shape":[3,3,96,1],"dtype":"float32","quantization":{"dtype":"float16","original_dtype":"float32"}},{"name":"unknown_119","shape":[1,1,96,96],"dtype":"float32","quantization":{"dtype":"float16","original_dtype":"float32"}},{"name":"unknown_120","shape":[96],"dtype":"float32","quantization":{"dtype":"float16","original_dtype":"float32"}},{"name":"unknown_121","shape":[3,3,96,1],"dtype":"float32","quantization":{"dtype":"float16","original_dtype":"float32"}},{"name":"unknown_123","shape":[1,1,96,96],"dtype":"float32","quantization":{"dtype":"float16","original_dtype":"float32"}},{"name":"unknown_124","shape":[96],"dtype":"float32","quantization":{"dtype":"float16","original_dtype":"float32"}},{"name":"unknown_125","shape":[3,3,96,1],"dtype":"float32","quantization":{"dtype":"float16","original_dtype":"float32"}},{"name":"unknown_127","shape":[1,1,96,96],"dtype":"float32","quantization":{"dtype":"float16","original_dtype":"float32"}},{"name":"unknown_128","shape":[96],"dtype":"float32","quantization":{"dtype":"float16","original_dtype":"float32"}},{"name":"unknown_129","shape":[3,3,96,1],"dtype":"float32","quantization":{"dtype":"float16","original_dtype":"float32"}},{"name":"unknown_131","shape":[1,1,96,96],"dtype":"float32","quantization":{"dtype":"float16","original_dtype":"float32"}},{"name":"unknown_132","shape":[96],"dtype":"float32","quantization":{"dtype":"float16","original_dtype":"float32"}},{"name":"unknown_25","shape":[3,3,48,1],"dtype":"float32","quantization":{"dtype":"float16","original_dtype":"float32"}},{"name":"unknown_27","shape":[1,1,48,96],"dtype":"float32","quantization":{"dtype":"float16","original_dtype":"float32"}},{"name":"unknown_28","shape":[96],"dtype":"float32","quantization":{"dtype":"float16","original_dtype":"float32"}},{"name":"unknown_9","shape":[3,3,24,1],"dtype":"float32","quantization":{"dtype":"float16","original_dtype":"float32"}},{"name":"unknown_11","shape":[1,1,24,48],"dtype":"float32","quantization":{"dtype":"float16","original_dtype":"float32"}},{"name":"unknown_12","shape":[48],"dtype":"float32","quantization":{"dtype":"float16","original_dtype":"float32"}},{"name":"unknown","shape":[3,3,3,24],"dtype":"float32","quantization":{"dtype":"float16","original_dtype":"float32"}},{"name":"unknown_0","shape":[24],"dtype":"float32","quantization":{"dtype":"float16","original_dtype":"float32"}},{"name":"unknown_1","shape":[3,3,24,1],"dtype":"float32","quantization":{"dtype":"float16","original_dtype":"float32"}},{"name":"unknown_3","shape":[1,1,24,24],"dtype":"float32","quantization":{"dtype":"float16","original_dtype":"float32"}},{"name":"unknown_4","shape":[24],"dtype":"float32","quantization":{"dtype":"float16","original_dtype":"float32"}},{"name":"unknown_5","shape":[3,3,24,1],"dtype":"float32","quantization":{"dtype":"float16","original_dtype":"float32"}},{"name":"unknown_7","shape":[1,1,24,24],"dtype":"float32","quantization":{"dtype":"float16","original_dtype":"float32"}},{"name":"unknown_8","shape":[24],"dtype":"float32","quantization":{"dtype":"float16","original_dtype":"float32"}},{"name":"StatefulPartitionedCall/functional_1/tf_op_layer_Pad/Pad/paddings","shape":[4,2],"dtype":"int32"},{"name":"unknown_13","shape":[3,3,48,1],"dtype":"float32","quantization":{"dtype":"float16","original_dtype":"float32"}},{"name":"unknown_15","shape":[1,1,48,48],"dtype":"float32","quantization":{"dtype":"float16","original_dtype":"float32"}},{"name":"unknown_16","shape":[48],"dtype":"float32","quantization":{"dtype":"float16","original_dtype":"float32"}},{"name":"unknown_17","shape":[3,3,48,1],"dtype":"float32","quantization":{"dtype":"float16","original_dtype":"float32"}},{"name":"unknown_19","shape":[1,1,48,48],"dtype":"float32","quantization":{"dtype":"float16","original_dtype":"float32"}},{"name":"unknown_20","shape":[48],"dtype":"float32","quantization":{"dtype":"float16","original_dtype":"float32"}},{"name":"unknown_21","shape":[3,3,48,1],"dtype":"float32","quantization":{"dtype":"float16","original_dtype":"float32"}},{"name":"unknown_23","shape":[1,1,48,48],"dtype":"float32","quantization":{"dtype":"float16","original_dtype":"float32"}},{"name":"unknown_24","shape":[48],"dtype":"float32","quantization":{"dtype":"float16","original_dtype":"float32"}},{"name":"StatefulPartitionedCall/functional_1/tf_op_layer_Pad_1/Pad_1/paddings","shape":[4,2],"dtype":"int32"},{"name":"unknown_29","shape":[3,3,96,1],"dtype":"float32","quantization":{"dtype":"float16","original_dtype":"float32"}},{"name":"unknown_31","shape":[1,1,96,96],"dtype":"float32","quantization":{"dtype":"float16","original_dtype":"float32"}},{"name":"unknown_32","shape":[96],"dtype":"float32","quantization":{"dtype":"float16","original_dtype":"float32"}},{"name":"unknown_33","shape":[3,3,96,1],"dtype":"float32","quantization":{"dtype":"float16","original_dtype":"float32"}},{"name":"unknown_35","shape":[1,1,96,96],"dtype":"float32","quantization":{"dtype":"float16","original_dtype":"float32"}},{"name":"unknown_36","shape":[96],"dtype":"float32","quantization":{"dtype":"float16","original_dtype":"float32"}},{"name":"unknown_37","shape":[3,3,96,1],"dtype":"float32","quantization":{"dtype":"float16","original_dtype":"float32"}},{"name":"unknown_39","shape":[1,1,96,96],"dtype":"float32","quantization":{"dtype":"float16","original_dtype":"float32"}},{"name":"unknown_40","shape":[96],"dtype":"float32","quantization":{"dtype":"float16","original_dtype":"float32"}},{"name":"unknown_41","shape":[3,3,96,1],"dtype":"float32","quantization":{"dtype":"float16","original_dtype":"float32"}},{"name":"unknown_43","shape":[1,1,96,96],"dtype":"float32","quantization":{"dtype":"float16","original_dtype":"float32"}},{"name":"unknown_44","shape":[96],"dtype":"float32","quantization":{"dtype":"float16","original_dtype":"float32"}},{"name":"unknown_133","shape":[3,3,96,1],"dtype":"float32","quantization":{"dtype":"float16","original_dtype":"float32"}},{"name":"unknown_135","shape":[1,1,96,96],"dtype":"float32","quantization":{"dtype":"float16","original_dtype":"float32"}},{"name":"unknown_136","shape":[96],"dtype":"float32","quantization":{"dtype":"float16","original_dtype":"float32"}},{"name":"StatefulPartitionedCall/functional_1/tf_op_layer_Pad_5/Pad_5/paddings","shape":[4,2],"dtype":"int32"},{"name":"unknown_141","shape":[3,3,192,1],"dtype":"float32","quantization":{"dtype":"float16","original_dtype":"float32"}},{"name":"unknown_143","shape":[1,1,192,192],"dtype":"float32","quantization":{"dtype":"float16","original_dtype":"float32"}},{"name":"unknown_144","shape":[192],"dtype":"float32","quantization":{"dtype":"float16","original_dtype":"float32"}},{"name":"unknown_145","shape":[3,3,192,1],"dtype":"float32","quantization":{"dtype":"float16","original_dtype":"float32"}},{"name":"unknown_147","shape":[1,1,192,192],"dtype":"float32","quantization":{"dtype":"float16","original_dtype":"float32"}},{"name":"unknown_148","shape":[192],"dtype":"float32","quantization":{"dtype":"float16","original_dtype":"float32"}},{"name":"unknown_149","shape":[3,3,192,1],"dtype":"float32","quantization":{"dtype":"float16","original_dtype":"float32"}},{"name":"unknown_151","shape":[1,1,192,192],"dtype":"float32","quantization":{"dtype":"float16","original_dtype":"float32"}},{"name":"unknown_152","shape":[192],"dtype":"float32","quantization":{"dtype":"float16","original_dtype":"float32"}},{"name":"unknown_153","shape":[3,3,192,1],"dtype":"float32","quantization":{"dtype":"float16","original_dtype":"float32"}},{"name":"unknown_155","shape":[1,1,192,192],"dtype":"float32","quantization":{"dtype":"float16","original_dtype":"float32"}},{"name":"unknown_156","shape":[192],"dtype":"float32","quantization":{"dtype":"float16","original_dtype":"float32"}},{"name":"unknown_157","shape":[3,3,192,1],"dtype":"float32","quantization":{"dtype":"float16","original_dtype":"float32"}},{"name":"unknown_159","shape":[1,1,192,192],"dtype":"float32","quantization":{"dtype":"float16","original_dtype":"float32"}},{"name":"unknown_160","shape":[192],"dtype":"float32","quantization":{"dtype":"float16","original_dtype":"float32"}},{"name":"StatefulPartitionedCall/functional_1/tf_op_layer_Pad_6/Pad_6/paddings","shape":[4,2],"dtype":"int32"},{"name":"unknown_169","shape":[3,3,288,1],"dtype":"float32","quantization":{"dtype":"float16","original_dtype":"float32"}},{"name":"unknown_171","shape":[1,1,288,288],"dtype":"float32","quantization":{"dtype":"float16","original_dtype":"float32"}},{"name":"unknown_172","shape":[288],"dtype":"float32","quantization":{"dtype":"float16","original_dtype":"float32"}},{"name":"unknown_173","shape":[3,3,288,1],"dtype":"float32","quantization":{"dtype":"float16","original_dtype":"float32"}},{"name":"unknown_175","shape":[1,1,288,288],"dtype":"float32","quantization":{"dtype":"float16","original_dtype":"float32"}},{"name":"unknown_176","shape":[288],"dtype":"float32","quantization":{"dtype":"float16","original_dtype":"float32"}},{"name":"unknown_177","shape":[3,3,288,1],"dtype":"float32","quantization":{"dtype":"float16","original_dtype":"float32"}},{"name":"unknown_179","shape":[1,1,288,288],"dtype":"float32","quantization":{"dtype":"float16","original_dtype":"float32"}},{"name":"unknown_180","shape":[288],"dtype":"float32","quantization":{"dtype":"float16","original_dtype":"float32"}},{"name":"unknown_181","shape":[3,3,288,1],"dtype":"float32","quantization":{"dtype":"float16","original_dtype":"float32"}},{"name":"unknown_183","shape":[1,1,288,288],"dtype":"float32","quantization":{"dtype":"float16","original_dtype":"float32"}},{"name":"unknown_184","shape":[288],"dtype":"float32","quantization":{"dtype":"float16","original_dtype":"float32"}},{"name":"unknown_185","shape":[3,3,288,1],"dtype":"float32","quantization":{"dtype":"float16","original_dtype":"float32"}},{"name":"unknown_187","shape":[1,1,288,288],"dtype":"float32","quantization":{"dtype":"float16","original_dtype":"float32"}},{"name":"unknown_188","shape":[288],"dtype":"float32","quantization":{"dtype":"float16","original_dtype":"float32"}},{"name":"unknown_189","shape":[3,3,288,1],"dtype":"float32","quantization":{"dtype":"float16","original_dtype":"float32"}},{"name":"unknown_191","shape":[1,1,288,288],"dtype":"float32","quantization":{"dtype":"float16","original_dtype":"float32"}},{"name":"unknown_192","shape":[288],"dtype":"float32","quantization":{"dtype":"float16","original_dtype":"float32"}},{"name":"unknown_271","shape":[2,2,288,156],"dtype":"float32","quantization":{"dtype":"float16","original_dtype":"float32"}},{"name":"unknown_272","shape":[156],"dtype":"float32","quantization":{"dtype":"float16","original_dtype":"float32"}},{"name":"StatefulPartitionedCall/functional_1/tf_op_layer_ld_3d/ld_3d/shape","shape":[2],"dtype":"int32"}]
      }
  ]
}