{
  "format": "graph-model",
  "generatedBy": "https://github.com/google/mediapipe",
  "convertedBy": "https://github.com/vladmandic",
  "userDefinedMetadata":
  {
    "signature":
    {
      "inputs":
      {
        "input_1:0": {"name":"input_1:0","dtype":"DT_FLOAT","tensorShape":{"dim":[{"size":"1"},{"size":"256"},{"size":"256"},{"size":"3"}]}}
      },
      "outputs":
      {
        "ld_3d:0": {"name":"ld_3d:0","dtype":"DT_FLOAT","tensorShape":{"dim":[{"size":"1"},{"size":"195"}]}},
        "output_segmentation:0": {"name":"output_segmentation:0","dtype":"DT_FLOAT","tensorShape":{"dim":[{"size":"1"},{"size":"128"},{"size":"128"},{"size":"1"}]}},
        "output_poseflag:0": {"name":"output_poseflag:0","dtype":"DT_FLOAT","tensorShape":{"dim":[{"size":"1"},{"size":"1"}]}}
      }
    }
  },
  "modelTopology":
  {
      "node":
      [
          {"name":"Conv2D_73/filter","op":"Const","attr":{"dtype":{"type":"DT_FLOAT"},"value":{"tensor":{"dtype":"DT_FLOAT","tensorShape":{"dim":[{"size":"2"},{"size":"2"},{"size":"288"},{"size":"195"}]}}}}},
          {"name":"convld_3d/y","op":"Const","attr":{"dtype":{"type":"DT_FLOAT"},"value":{"tensor":{"dtype":"DT_FLOAT","tensorShape":{"dim":[{"size":"195"}]}}}}},
          {"name":"ld_3d/shape","op":"Const","attr":{"value":{"tensor":{"dtype":"DT_INT32","tensorShape":{"dim":[{"size":"2"}]}}},"dtype":{"type":"DT_INT32"}}},
          {"name":"conv2d_65_1/y","op":"Const","attr":{"dtype":{"type":"DT_FLOAT"},"value":{"tensor":{"dtype":"DT_FLOAT","tensorShape":{"dim":[{"size":"288"}]}}}}},
          {"name":"conv2d_64_1/y","op":"Const","attr":{"dtype":{"type":"DT_FLOAT"},"value":{"tensor":{"dtype":"DT_FLOAT","tensorShape":{"dim":[{"size":"288"}]}}}}},
          {"name":"conv2d_63_1/y","op":"Const","attr":{"value":{"tensor":{"dtype":"DT_FLOAT","tensorShape":{"dim":[{"size":"288"}]}}},"dtype":{"type":"DT_FLOAT"}}},
          {"name":"conv2d_62_1/y","op":"Const","attr":{"dtype":{"type":"DT_FLOAT"},"value":{"tensor":{"dtype":"DT_FLOAT","tensorShape":{"dim":[{"size":"288"}]}}}}},
          {"name":"conv2d_61_1/y","op":"Const","attr":{"dtype":{"type":"DT_FLOAT"},"value":{"tensor":{"dtype":"DT_FLOAT","tensorShape":{"dim":[{"size":"288"}]}}}}},
          {"name":"conv2d_60_1/y","op":"Const","attr":{"dtype":{"type":"DT_FLOAT"},"value":{"tensor":{"dtype":"DT_FLOAT","tensorShape":{"dim":[{"size":"288"}]}}}}},
          {"name":"conv2d_59_1/y","op":"Const","attr":{"dtype":{"type":"DT_FLOAT"},"value":{"tensor":{"dtype":"DT_FLOAT","tensorShape":{"dim":[{"size":"288"}]}}}}},
          {"name":"conv2d_58_1/y","op":"Const","attr":{"dtype":{"type":"DT_FLOAT"},"value":{"tensor":{"dtype":"DT_FLOAT","tensorShape":{"dim":[{"size":"288"}]}}}}},
          {"name":"conv2d_57_1/y","op":"Const","attr":{"dtype":{"type":"DT_FLOAT"},"value":{"tensor":{"dtype":"DT_FLOAT","tensorShape":{"dim":[{"size":"288"}]}}}}},
          {"name":"conv2d_56_1/y","op":"Const","attr":{"value":{"tensor":{"dtype":"DT_FLOAT","tensorShape":{"dim":[{"size":"288"}]}}},"dtype":{"type":"DT_FLOAT"}}},
          {"name":"conv2d_55_1/y","op":"Const","attr":{"value":{"tensor":{"dtype":"DT_FLOAT","tensorShape":{"dim":[{"size":"288"}]}}},"dtype":{"type":"DT_FLOAT"}}},
          {"name":"conv2d_54_1/y","op":"Const","attr":{"value":{"tensor":{"dtype":"DT_FLOAT","tensorShape":{"dim":[{"size":"288"}]}}},"dtype":{"type":"DT_FLOAT"}}},
          {"name":"conv2d_53_1/y","op":"Const","attr":{"dtype":{"type":"DT_FLOAT"},"value":{"tensor":{"dtype":"DT_FLOAT","tensorShape":{"dim":[{"size":"288"}]}}}}},
          {"name":"conv2d_52_1/y","op":"Const","attr":{"value":{"tensor":{"dtype":"DT_FLOAT","tensorShape":{"dim":[{"size":"288"}]}}},"dtype":{"type":"DT_FLOAT"}}},
          {"name":"conv2d_51_1/y","op":"Const","attr":{"value":{"tensor":{"dtype":"DT_FLOAT","tensorShape":{"dim":[{"size":"288"}]}}},"dtype":{"type":"DT_FLOAT"}}},
          {"name":"conv2d_50_1/y","op":"Const","attr":{"value":{"tensor":{"dtype":"DT_FLOAT","tensorShape":{"dim":[{"size":"288"}]}}},"dtype":{"type":"DT_FLOAT"}}},
          {"name":"conv2d_48_1/y","op":"Const","attr":{"dtype":{"type":"DT_FLOAT"},"value":{"tensor":{"dtype":"DT_FLOAT","tensorShape":{"dim":[{"size":"288"}]}}}}},
          {"name":"conv2d_47_1/y","op":"Const","attr":{"dtype":{"type":"DT_FLOAT"},"value":{"tensor":{"dtype":"DT_FLOAT","tensorShape":{"dim":[{"size":"288"}]}}}}},
          {"name":"conv2d_46_1/y","op":"Const","attr":{"value":{"tensor":{"dtype":"DT_FLOAT","tensorShape":{"dim":[{"size":"288"}]}}},"dtype":{"type":"DT_FLOAT"}}},
          {"name":"conv2d_45_1/y","op":"Const","attr":{"dtype":{"type":"DT_FLOAT"},"value":{"tensor":{"dtype":"DT_FLOAT","tensorShape":{"dim":[{"size":"288"}]}}}}},
          {"name":"conv2d_44_1/y","op":"Const","attr":{"dtype":{"type":"DT_FLOAT"},"value":{"tensor":{"dtype":"DT_FLOAT","tensorShape":{"dim":[{"size":"288"}]}}}}},
          {"name":"conv2d_43_1/y","op":"Const","attr":{"value":{"tensor":{"dtype":"DT_FLOAT","tensorShape":{"dim":[{"size":"288"}]}}},"dtype":{"type":"DT_FLOAT"}}},
          {"name":"conv2d_42_1/y","op":"Const","attr":{"value":{"tensor":{"dtype":"DT_FLOAT","tensorShape":{"dim":[{"size":"288"}]}}},"dtype":{"type":"DT_FLOAT"}}},
          {"name":"channel_padding_6/paddings","op":"Const","attr":{"dtype":{"type":"DT_INT32"},"value":{"tensor":{"dtype":"DT_INT32","tensorShape":{"dim":[{"size":"4"},{"size":"2"}]}}}}},
          {"name":"conv2d_40_1/y","op":"Const","attr":{"value":{"tensor":{"dtype":"DT_FLOAT","tensorShape":{"dim":[{"size":"192"}]}}},"dtype":{"type":"DT_FLOAT"}}},
          {"name":"conv2d_39_1/y","op":"Const","attr":{"dtype":{"type":"DT_FLOAT"},"value":{"tensor":{"dtype":"DT_FLOAT","tensorShape":{"dim":[{"size":"192"}]}}}}},
          {"name":"conv2d_38_1/y","op":"Const","attr":{"dtype":{"type":"DT_FLOAT"},"value":{"tensor":{"dtype":"DT_FLOAT","tensorShape":{"dim":[{"size":"192"}]}}}}},
          {"name":"conv2d_37_1/y","op":"Const","attr":{"value":{"tensor":{"dtype":"DT_FLOAT","tensorShape":{"dim":[{"size":"192"}]}}},"dtype":{"type":"DT_FLOAT"}}},
          {"name":"conv2d_36_1/y","op":"Const","attr":{"dtype":{"type":"DT_FLOAT"},"value":{"tensor":{"dtype":"DT_FLOAT","tensorShape":{"dim":[{"size":"192"}]}}}}},
          {"name":"conv2d_35_1/y","op":"Const","attr":{"value":{"tensor":{"dtype":"DT_FLOAT","tensorShape":{"dim":[{"size":"192"}]}}},"dtype":{"type":"DT_FLOAT"}}},
          {"name":"channel_padding_5/paddings","op":"Const","attr":{"value":{"tensor":{"dtype":"DT_INT32","tensorShape":{"dim":[{"size":"4"},{"size":"2"}]}}},"dtype":{"type":"DT_INT32"}}},
          {"name":"conv2d_33_1/y","op":"Const","attr":{"dtype":{"type":"DT_FLOAT"},"value":{"tensor":{"dtype":"DT_FLOAT","tensorShape":{"dim":[{"size":"96"}]}}}}},
          {"name":"conv2d_32_1/y","op":"Const","attr":{"dtype":{"type":"DT_FLOAT"},"value":{"tensor":{"dtype":"DT_FLOAT","tensorShape":{"dim":[{"size":"96"}]}}}}},
          {"name":"conv2d_31_1/y","op":"Const","attr":{"dtype":{"type":"DT_FLOAT"},"value":{"tensor":{"dtype":"DT_FLOAT","tensorShape":{"dim":[{"size":"96"}]}}}}},
          {"name":"conv2d_30_1/y","op":"Const","attr":{"dtype":{"type":"DT_FLOAT"},"value":{"tensor":{"dtype":"DT_FLOAT","tensorShape":{"dim":[{"size":"96"}]}}}}},
          {"name":"conv2d_29_1/y","op":"Const","attr":{"value":{"tensor":{"dtype":"DT_FLOAT","tensorShape":{"dim":[{"size":"96"}]}}},"dtype":{"type":"DT_FLOAT"}}},
          {"name":"channel_padding_4/paddings","op":"Const","attr":{"value":{"tensor":{"dtype":"DT_INT32","tensorShape":{"dim":[{"size":"4"},{"size":"2"}]}}},"dtype":{"type":"DT_INT32"}}},
          {"name":"depthwise_28/filter_in","op":"Const","attr":{"dtype":{"type":"DT_FLOAT"},"value":{"tensor":{"dtype":"DT_FLOAT","tensorShape":{"dim":[{"size":"3"},{"size":"3"},{"size":"48"},{"size":"1"}]}}}}},
          {"name":"Conv2D_30/filter","op":"Const","attr":{"dtype":{"type":"DT_FLOAT"},"value":{"tensor":{"dtype":"DT_FLOAT","tensorShape":{"dim":[{"size":"1"},{"size":"1"},{"size":"48"},{"size":"96"}]}}}}},
          {"name":"depthwise_29/filter_in","op":"Const","attr":{"value":{"tensor":{"dtype":"DT_FLOAT","tensorShape":{"dim":[{"size":"3"},{"size":"3"},{"size":"96"},{"size":"1"}]}}},"dtype":{"type":"DT_FLOAT"}}},
          {"name":"Conv2D_31/filter","op":"Const","attr":{"dtype":{"type":"DT_FLOAT"},"value":{"tensor":{"dtype":"DT_FLOAT","tensorShape":{"dim":[{"size":"1"},{"size":"1"},{"size":"96"},{"size":"96"}]}}}}},
          {"name":"depthwise_30/filter_in","op":"Const","attr":{"dtype":{"type":"DT_FLOAT"},"value":{"tensor":{"dtype":"DT_FLOAT","tensorShape":{"dim":[{"size":"3"},{"size":"3"},{"size":"96"},{"size":"1"}]}}}}},
          {"name":"Conv2D_32/filter","op":"Const","attr":{"dtype":{"type":"DT_FLOAT"},"value":{"tensor":{"dtype":"DT_FLOAT","tensorShape":{"dim":[{"size":"1"},{"size":"1"},{"size":"96"},{"size":"96"}]}}}}},
          {"name":"depthwise_31/filter_in","op":"Const","attr":{"dtype":{"type":"DT_FLOAT"},"value":{"tensor":{"dtype":"DT_FLOAT","tensorShape":{"dim":[{"size":"3"},{"size":"3"},{"size":"96"},{"size":"1"}]}}}}},
          {"name":"Conv2D_33/filter","op":"Const","attr":{"dtype":{"type":"DT_FLOAT"},"value":{"tensor":{"dtype":"DT_FLOAT","tensorShape":{"dim":[{"size":"1"},{"size":"1"},{"size":"96"},{"size":"96"}]}}}}},
          {"name":"depthwise_32/filter_in","op":"Const","attr":{"value":{"tensor":{"dtype":"DT_FLOAT","tensorShape":{"dim":[{"size":"3"},{"size":"3"},{"size":"96"},{"size":"1"}]}}},"dtype":{"type":"DT_FLOAT"}}},
          {"name":"Conv2D_34/filter","op":"Const","attr":{"dtype":{"type":"DT_FLOAT"},"value":{"tensor":{"dtype":"DT_FLOAT","tensorShape":{"dim":[{"size":"1"},{"size":"1"},{"size":"96"},{"size":"96"}]}}}}},
          {"name":"depthwise_33/filter_in","op":"Const","attr":{"value":{"tensor":{"dtype":"DT_FLOAT","tensorShape":{"dim":[{"size":"3"},{"size":"3"},{"size":"96"},{"size":"1"}]}}},"dtype":{"type":"DT_FLOAT"}}},
          {"name":"Conv2D_35/filter","op":"Const","attr":{"value":{"tensor":{"dtype":"DT_FLOAT","tensorShape":{"dim":[{"size":"1"},{"size":"1"},{"size":"96"},{"size":"96"}]}}},"dtype":{"type":"DT_FLOAT"}}},
          {"name":"conv2d_34_1/y","op":"Const","attr":{"value":{"tensor":{"dtype":"DT_FLOAT","tensorShape":{"dim":[{"size":"96"}]}}},"dtype":{"type":"DT_FLOAT"}}},
          {"name":"depthwise_34/filter_in","op":"Const","attr":{"value":{"tensor":{"dtype":"DT_FLOAT","tensorShape":{"dim":[{"size":"3"},{"size":"3"},{"size":"96"},{"size":"1"}]}}},"dtype":{"type":"DT_FLOAT"}}},
          {"name":"Conv2D_36/filter","op":"Const","attr":{"dtype":{"type":"DT_FLOAT"},"value":{"tensor":{"dtype":"DT_FLOAT","tensorShape":{"dim":[{"size":"1"},{"size":"1"},{"size":"96"},{"size":"192"}]}}}}},
          {"name":"depthwise_35/filter_in","op":"Const","attr":{"value":{"tensor":{"dtype":"DT_FLOAT","tensorShape":{"dim":[{"size":"3"},{"size":"3"},{"size":"192"},{"size":"1"}]}}},"dtype":{"type":"DT_FLOAT"}}},
          {"name":"Conv2D_37/filter","op":"Const","attr":{"dtype":{"type":"DT_FLOAT"},"value":{"tensor":{"dtype":"DT_FLOAT","tensorShape":{"dim":[{"size":"1"},{"size":"1"},{"size":"192"},{"size":"192"}]}}}}},
          {"name":"depthwise_36/filter_in","op":"Const","attr":{"value":{"tensor":{"dtype":"DT_FLOAT","tensorShape":{"dim":[{"size":"3"},{"size":"3"},{"size":"192"},{"size":"1"}]}}},"dtype":{"type":"DT_FLOAT"}}},
          {"name":"Conv2D_38/filter","op":"Const","attr":{"value":{"tensor":{"dtype":"DT_FLOAT","tensorShape":{"dim":[{"size":"1"},{"size":"1"},{"size":"192"},{"size":"192"}]}}},"dtype":{"type":"DT_FLOAT"}}},
          {"name":"depthwise_37/filter_in","op":"Const","attr":{"value":{"tensor":{"dtype":"DT_FLOAT","tensorShape":{"dim":[{"size":"3"},{"size":"3"},{"size":"192"},{"size":"1"}]}}},"dtype":{"type":"DT_FLOAT"}}},
          {"name":"Conv2D_39/filter","op":"Const","attr":{"dtype":{"type":"DT_FLOAT"},"value":{"tensor":{"dtype":"DT_FLOAT","tensorShape":{"dim":[{"size":"1"},{"size":"1"},{"size":"192"},{"size":"192"}]}}}}},
          {"name":"depthwise_38/filter_in","op":"Const","attr":{"value":{"tensor":{"dtype":"DT_FLOAT","tensorShape":{"dim":[{"size":"3"},{"size":"3"},{"size":"192"},{"size":"1"}]}}},"dtype":{"type":"DT_FLOAT"}}},
          {"name":"Conv2D_40/filter","op":"Const","attr":{"value":{"tensor":{"dtype":"DT_FLOAT","tensorShape":{"dim":[{"size":"1"},{"size":"1"},{"size":"192"},{"size":"192"}]}}},"dtype":{"type":"DT_FLOAT"}}},
          {"name":"depthwise_39/filter_in","op":"Const","attr":{"value":{"tensor":{"dtype":"DT_FLOAT","tensorShape":{"dim":[{"size":"3"},{"size":"3"},{"size":"192"},{"size":"1"}]}}},"dtype":{"type":"DT_FLOAT"}}},
          {"name":"Conv2D_41/filter","op":"Const","attr":{"dtype":{"type":"DT_FLOAT"},"value":{"tensor":{"dtype":"DT_FLOAT","tensorShape":{"dim":[{"size":"1"},{"size":"1"},{"size":"192"},{"size":"192"}]}}}}},
          {"name":"depthwise_40/filter_in","op":"Const","attr":{"dtype":{"type":"DT_FLOAT"},"value":{"tensor":{"dtype":"DT_FLOAT","tensorShape":{"dim":[{"size":"3"},{"size":"3"},{"size":"192"},{"size":"1"}]}}}}},
          {"name":"Conv2D_42/filter","op":"Const","attr":{"dtype":{"type":"DT_FLOAT"},"value":{"tensor":{"dtype":"DT_FLOAT","tensorShape":{"dim":[{"size":"1"},{"size":"1"},{"size":"192"},{"size":"192"}]}}}}},
          {"name":"conv2d_41_1/y","op":"Const","attr":{"value":{"tensor":{"dtype":"DT_FLOAT","tensorShape":{"dim":[{"size":"192"}]}}},"dtype":{"type":"DT_FLOAT"}}},
          {"name":"depthwise_41/filter_in","op":"Const","attr":{"dtype":{"type":"DT_FLOAT"},"value":{"tensor":{"dtype":"DT_FLOAT","tensorShape":{"dim":[{"size":"3"},{"size":"3"},{"size":"192"},{"size":"1"}]}}}}},
          {"name":"Conv2D_43/filter","op":"Const","attr":{"dtype":{"type":"DT_FLOAT"},"value":{"tensor":{"dtype":"DT_FLOAT","tensorShape":{"dim":[{"size":"1"},{"size":"1"},{"size":"192"},{"size":"288"}]}}}}},
          {"name":"depthwise_42/filter_in","op":"Const","attr":{"value":{"tensor":{"dtype":"DT_FLOAT","tensorShape":{"dim":[{"size":"3"},{"size":"3"},{"size":"288"},{"size":"1"}]}}},"dtype":{"type":"DT_FLOAT"}}},
          {"name":"Conv2D_44/filter","op":"Const","attr":{"value":{"tensor":{"dtype":"DT_FLOAT","tensorShape":{"dim":[{"size":"1"},{"size":"1"},{"size":"288"},{"size":"288"}]}}},"dtype":{"type":"DT_FLOAT"}}},
          {"name":"depthwise_43/filter_in","op":"Const","attr":{"dtype":{"type":"DT_FLOAT"},"value":{"tensor":{"dtype":"DT_FLOAT","tensorShape":{"dim":[{"size":"3"},{"size":"3"},{"size":"288"},{"size":"1"}]}}}}},
          {"name":"Conv2D_45/filter","op":"Const","attr":{"value":{"tensor":{"dtype":"DT_FLOAT","tensorShape":{"dim":[{"size":"1"},{"size":"1"},{"size":"288"},{"size":"288"}]}}},"dtype":{"type":"DT_FLOAT"}}},
          {"name":"depthwise_44/filter_in","op":"Const","attr":{"dtype":{"type":"DT_FLOAT"},"value":{"tensor":{"dtype":"DT_FLOAT","tensorShape":{"dim":[{"size":"3"},{"size":"3"},{"size":"288"},{"size":"1"}]}}}}},
          {"name":"Conv2D_46/filter","op":"Const","attr":{"dtype":{"type":"DT_FLOAT"},"value":{"tensor":{"dtype":"DT_FLOAT","tensorShape":{"dim":[{"size":"1"},{"size":"1"},{"size":"288"},{"size":"288"}]}}}}},
          {"name":"depthwise_45/filter_in","op":"Const","attr":{"value":{"tensor":{"dtype":"DT_FLOAT","tensorShape":{"dim":[{"size":"3"},{"size":"3"},{"size":"288"},{"size":"1"}]}}},"dtype":{"type":"DT_FLOAT"}}},
          {"name":"Conv2D_47/filter","op":"Const","attr":{"value":{"tensor":{"dtype":"DT_FLOAT","tensorShape":{"dim":[{"size":"1"},{"size":"1"},{"size":"288"},{"size":"288"}]}}},"dtype":{"type":"DT_FLOAT"}}},
          {"name":"depthwise_46/filter_in","op":"Const","attr":{"dtype":{"type":"DT_FLOAT"},"value":{"tensor":{"dtype":"DT_FLOAT","tensorShape":{"dim":[{"size":"3"},{"size":"3"},{"size":"288"},{"size":"1"}]}}}}},
          {"name":"Conv2D_48/filter","op":"Const","attr":{"dtype":{"type":"DT_FLOAT"},"value":{"tensor":{"dtype":"DT_FLOAT","tensorShape":{"dim":[{"size":"1"},{"size":"1"},{"size":"288"},{"size":"288"}]}}}}},
          {"name":"depthwise_47/filter_in","op":"Const","attr":{"dtype":{"type":"DT_FLOAT"},"value":{"tensor":{"dtype":"DT_FLOAT","tensorShape":{"dim":[{"size":"3"},{"size":"3"},{"size":"288"},{"size":"1"}]}}}}},
          {"name":"Conv2D_49/filter","op":"Const","attr":{"dtype":{"type":"DT_FLOAT"},"value":{"tensor":{"dtype":"DT_FLOAT","tensorShape":{"dim":[{"size":"1"},{"size":"1"},{"size":"288"},{"size":"288"}]}}}}},
          {"name":"depthwise_48/filter_in","op":"Const","attr":{"value":{"tensor":{"dtype":"DT_FLOAT","tensorShape":{"dim":[{"size":"3"},{"size":"3"},{"size":"288"},{"size":"1"}]}}},"dtype":{"type":"DT_FLOAT"}}},
          {"name":"Conv2D_50/filter","op":"Const","attr":{"dtype":{"type":"DT_FLOAT"},"value":{"tensor":{"dtype":"DT_FLOAT","tensorShape":{"dim":[{"size":"1"},{"size":"1"},{"size":"288"},{"size":"288"}]}}}}},
          {"name":"conv2d_49_1/y","op":"Const","attr":{"dtype":{"type":"DT_FLOAT"},"value":{"tensor":{"dtype":"DT_FLOAT","tensorShape":{"dim":[{"size":"288"}]}}}}},
          {"name":"depthwise_49/filter_in","op":"Const","attr":{"dtype":{"type":"DT_FLOAT"},"value":{"tensor":{"dtype":"DT_FLOAT","tensorShape":{"dim":[{"size":"3"},{"size":"3"},{"size":"288"},{"size":"1"}]}}}}},
          {"name":"Conv2D_51/filter","op":"Const","attr":{"value":{"tensor":{"dtype":"DT_FLOAT","tensorShape":{"dim":[{"size":"1"},{"size":"1"},{"size":"288"},{"size":"288"}]}}},"dtype":{"type":"DT_FLOAT"}}},
          {"name":"depthwise_50/filter_in","op":"Const","attr":{"dtype":{"type":"DT_FLOAT"},"value":{"tensor":{"dtype":"DT_FLOAT","tensorShape":{"dim":[{"size":"3"},{"size":"3"},{"size":"288"},{"size":"1"}]}}}}},
          {"name":"Conv2D_52/filter","op":"Const","attr":{"value":{"tensor":{"dtype":"DT_FLOAT","tensorShape":{"dim":[{"size":"1"},{"size":"1"},{"size":"288"},{"size":"288"}]}}},"dtype":{"type":"DT_FLOAT"}}},
          {"name":"depthwise_51/filter_in","op":"Const","attr":{"value":{"tensor":{"dtype":"DT_FLOAT","tensorShape":{"dim":[{"size":"3"},{"size":"3"},{"size":"288"},{"size":"1"}]}}},"dtype":{"type":"DT_FLOAT"}}},
          {"name":"Conv2D_53/filter","op":"Const","attr":{"dtype":{"type":"DT_FLOAT"},"value":{"tensor":{"dtype":"DT_FLOAT","tensorShape":{"dim":[{"size":"1"},{"size":"1"},{"size":"288"},{"size":"288"}]}}}}},
          {"name":"depthwise_52/filter_in","op":"Const","attr":{"dtype":{"type":"DT_FLOAT"},"value":{"tensor":{"dtype":"DT_FLOAT","tensorShape":{"dim":[{"size":"3"},{"size":"3"},{"size":"288"},{"size":"1"}]}}}}},
          {"name":"Conv2D_54/filter","op":"Const","attr":{"dtype":{"type":"DT_FLOAT"},"value":{"tensor":{"dtype":"DT_FLOAT","tensorShape":{"dim":[{"size":"1"},{"size":"1"},{"size":"288"},{"size":"288"}]}}}}},
          {"name":"depthwise_53/filter_in","op":"Const","attr":{"value":{"tensor":{"dtype":"DT_FLOAT","tensorShape":{"dim":[{"size":"3"},{"size":"3"},{"size":"288"},{"size":"1"}]}}},"dtype":{"type":"DT_FLOAT"}}},
          {"name":"Conv2D_55/filter","op":"Const","attr":{"value":{"tensor":{"dtype":"DT_FLOAT","tensorShape":{"dim":[{"size":"1"},{"size":"1"},{"size":"288"},{"size":"288"}]}}},"dtype":{"type":"DT_FLOAT"}}},
          {"name":"depthwise_54/filter_in","op":"Const","attr":{"value":{"tensor":{"dtype":"DT_FLOAT","tensorShape":{"dim":[{"size":"3"},{"size":"3"},{"size":"288"},{"size":"1"}]}}},"dtype":{"type":"DT_FLOAT"}}},
          {"name":"Conv2D_56/filter","op":"Const","attr":{"dtype":{"type":"DT_FLOAT"},"value":{"tensor":{"dtype":"DT_FLOAT","tensorShape":{"dim":[{"size":"1"},{"size":"1"},{"size":"288"},{"size":"288"}]}}}}},
          {"name":"depthwise_55/filter_in","op":"Const","attr":{"value":{"tensor":{"dtype":"DT_FLOAT","tensorShape":{"dim":[{"size":"3"},{"size":"3"},{"size":"288"},{"size":"1"}]}}},"dtype":{"type":"DT_FLOAT"}}},
          {"name":"Conv2D_57/filter","op":"Const","attr":{"dtype":{"type":"DT_FLOAT"},"value":{"tensor":{"dtype":"DT_FLOAT","tensorShape":{"dim":[{"size":"1"},{"size":"1"},{"size":"288"},{"size":"288"}]}}}}},
          {"name":"depthwise_56/filter_in","op":"Const","attr":{"value":{"tensor":{"dtype":"DT_FLOAT","tensorShape":{"dim":[{"size":"3"},{"size":"3"},{"size":"288"},{"size":"1"}]}}},"dtype":{"type":"DT_FLOAT"}}},
          {"name":"Conv2D_58/filter","op":"Const","attr":{"value":{"tensor":{"dtype":"DT_FLOAT","tensorShape":{"dim":[{"size":"1"},{"size":"1"},{"size":"288"},{"size":"288"}]}}},"dtype":{"type":"DT_FLOAT"}}},
          {"name":"depthwise_57/filter_in","op":"Const","attr":{"dtype":{"type":"DT_FLOAT"},"value":{"tensor":{"dtype":"DT_FLOAT","tensorShape":{"dim":[{"size":"3"},{"size":"3"},{"size":"288"},{"size":"1"}]}}}}},
          {"name":"Conv2D_59/filter","op":"Const","attr":{"dtype":{"type":"DT_FLOAT"},"value":{"tensor":{"dtype":"DT_FLOAT","tensorShape":{"dim":[{"size":"1"},{"size":"1"},{"size":"288"},{"size":"288"}]}}}}},
          {"name":"depthwise_58/filter_in","op":"Const","attr":{"dtype":{"type":"DT_FLOAT"},"value":{"tensor":{"dtype":"DT_FLOAT","tensorShape":{"dim":[{"size":"3"},{"size":"3"},{"size":"288"},{"size":"1"}]}}}}},
          {"name":"Conv2D_60/filter","op":"Const","attr":{"value":{"tensor":{"dtype":"DT_FLOAT","tensorShape":{"dim":[{"size":"1"},{"size":"1"},{"size":"288"},{"size":"288"}]}}},"dtype":{"type":"DT_FLOAT"}}},
          {"name":"depthwise_59/filter_in","op":"Const","attr":{"dtype":{"type":"DT_FLOAT"},"value":{"tensor":{"dtype":"DT_FLOAT","tensorShape":{"dim":[{"size":"3"},{"size":"3"},{"size":"288"},{"size":"1"}]}}}}},
          {"name":"Conv2D_61/filter","op":"Const","attr":{"value":{"tensor":{"dtype":"DT_FLOAT","tensorShape":{"dim":[{"size":"1"},{"size":"1"},{"size":"288"},{"size":"288"}]}}},"dtype":{"type":"DT_FLOAT"}}},
          {"name":"depthwise_60/filter_in","op":"Const","attr":{"dtype":{"type":"DT_FLOAT"},"value":{"tensor":{"dtype":"DT_FLOAT","tensorShape":{"dim":[{"size":"3"},{"size":"3"},{"size":"288"},{"size":"1"}]}}}}},
          {"name":"Conv2D_62/filter","op":"Const","attr":{"value":{"tensor":{"dtype":"DT_FLOAT","tensorShape":{"dim":[{"size":"1"},{"size":"1"},{"size":"288"},{"size":"288"}]}}},"dtype":{"type":"DT_FLOAT"}}},
          {"name":"depthwise_61/filter_in","op":"Const","attr":{"dtype":{"type":"DT_FLOAT"},"value":{"tensor":{"dtype":"DT_FLOAT","tensorShape":{"dim":[{"size":"3"},{"size":"3"},{"size":"288"},{"size":"1"}]}}}}},
          {"name":"Conv2D_63/filter","op":"Const","attr":{"dtype":{"type":"DT_FLOAT"},"value":{"tensor":{"dtype":"DT_FLOAT","tensorShape":{"dim":[{"size":"1"},{"size":"1"},{"size":"288"},{"size":"288"}]}}}}},
          {"name":"depthwise_62/filter_in","op":"Const","attr":{"value":{"tensor":{"dtype":"DT_FLOAT","tensorShape":{"dim":[{"size":"3"},{"size":"3"},{"size":"288"},{"size":"1"}]}}},"dtype":{"type":"DT_FLOAT"}}},
          {"name":"Conv2D_64/filter","op":"Const","attr":{"value":{"tensor":{"dtype":"DT_FLOAT","tensorShape":{"dim":[{"size":"1"},{"size":"1"},{"size":"288"},{"size":"288"}]}}},"dtype":{"type":"DT_FLOAT"}}},
          {"name":"depthwise_63/filter_in","op":"Const","attr":{"dtype":{"type":"DT_FLOAT"},"value":{"tensor":{"dtype":"DT_FLOAT","tensorShape":{"dim":[{"size":"3"},{"size":"3"},{"size":"288"},{"size":"1"}]}}}}},
          {"name":"Conv2D_65/filter","op":"Const","attr":{"value":{"tensor":{"dtype":"DT_FLOAT","tensorShape":{"dim":[{"size":"1"},{"size":"1"},{"size":"288"},{"size":"288"}]}}},"dtype":{"type":"DT_FLOAT"}}},
          {"name":"depthwise_66/filter_in","op":"Const","attr":{"dtype":{"type":"DT_FLOAT"},"value":{"tensor":{"dtype":"DT_FLOAT","tensorShape":{"dim":[{"size":"3"},{"size":"3"},{"size":"288"},{"size":"1"}]}}}}},
          {"name":"Conv2D_69/filter","op":"Const","attr":{"value":{"tensor":{"dtype":"DT_FLOAT","tensorShape":{"dim":[{"size":"1"},{"size":"1"},{"size":"288"},{"size":"288"}]}}},"dtype":{"type":"DT_FLOAT"}}},
          {"name":"Conv2D_71/filter","op":"Const","attr":{"dtype":{"type":"DT_FLOAT"},"value":{"tensor":{"dtype":"DT_FLOAT","tensorShape":{"dim":[{"size":"2"},{"size":"2"},{"size":"288"},{"size":"1"}]}}}}},
          {"name":"conv_poseflag/y","op":"Const","attr":{"value":{"tensor":{"dtype":"DT_FLOAT","tensorShape":{"dim":[{"size":"1"}]}}},"dtype":{"type":"DT_FLOAT"}}},
          {"name":"output_poseflag/shape","op":"Const","attr":{"value":{"tensor":{"dtype":"DT_INT32","tensorShape":{"dim":[{"size":"2"}]}}},"dtype":{"type":"DT_INT32"}}},
          {"name":"channel_padding_3/paddings","op":"Const","attr":{"value":{"tensor":{"dtype":"DT_INT32","tensorShape":{"dim":[{"size":"4"},{"size":"2"}]}}},"dtype":{"type":"DT_INT32"}}},
          {"name":"depthwise_17/filter_in","op":"Const","attr":{"value":{"tensor":{"dtype":"DT_FLOAT","tensorShape":{"dim":[{"size":"3"},{"size":"3"},{"size":"192"},{"size":"1"}]}}},"dtype":{"type":"DT_FLOAT"}}},
          {"name":"Conv2D_19/filter","op":"Const","attr":{"dtype":{"type":"DT_FLOAT"},"value":{"tensor":{"dtype":"DT_FLOAT","tensorShape":{"dim":[{"size":"1"},{"size":"1"},{"size":"192"},{"size":"288"}]}}}}},
          {"name":"conv2d_18_1/y","op":"Const","attr":{"dtype":{"type":"DT_FLOAT"},"value":{"tensor":{"dtype":"DT_FLOAT","tensorShape":{"dim":[{"size":"288"}]}}}}},
          {"name":"depthwise_18/filter_in","op":"Const","attr":{"dtype":{"type":"DT_FLOAT"},"value":{"tensor":{"dtype":"DT_FLOAT","tensorShape":{"dim":[{"size":"3"},{"size":"3"},{"size":"288"},{"size":"1"}]}}}}},
          {"name":"Conv2D_20/filter","op":"Const","attr":{"value":{"tensor":{"dtype":"DT_FLOAT","tensorShape":{"dim":[{"size":"1"},{"size":"1"},{"size":"288"},{"size":"288"}]}}},"dtype":{"type":"DT_FLOAT"}}},
          {"name":"conv2d_19_1/y","op":"Const","attr":{"value":{"tensor":{"dtype":"DT_FLOAT","tensorShape":{"dim":[{"size":"288"}]}}},"dtype":{"type":"DT_FLOAT"}}},
          {"name":"depthwise_19/filter_in","op":"Const","attr":{"dtype":{"type":"DT_FLOAT"},"value":{"tensor":{"dtype":"DT_FLOAT","tensorShape":{"dim":[{"size":"3"},{"size":"3"},{"size":"288"},{"size":"1"}]}}}}},
          {"name":"Conv2D_21/filter","op":"Const","attr":{"dtype":{"type":"DT_FLOAT"},"value":{"tensor":{"dtype":"DT_FLOAT","tensorShape":{"dim":[{"size":"1"},{"size":"1"},{"size":"288"},{"size":"288"}]}}}}},
          {"name":"conv2d_20_1/y","op":"Const","attr":{"dtype":{"type":"DT_FLOAT"},"value":{"tensor":{"dtype":"DT_FLOAT","tensorShape":{"dim":[{"size":"288"}]}}}}},
          {"name":"depthwise_20/filter_in","op":"Const","attr":{"dtype":{"type":"DT_FLOAT"},"value":{"tensor":{"dtype":"DT_FLOAT","tensorShape":{"dim":[{"size":"3"},{"size":"3"},{"size":"288"},{"size":"1"}]}}}}},
          {"name":"Conv2D_22/filter","op":"Const","attr":{"dtype":{"type":"DT_FLOAT"},"value":{"tensor":{"dtype":"DT_FLOAT","tensorShape":{"dim":[{"size":"1"},{"size":"1"},{"size":"288"},{"size":"288"}]}}}}},
          {"name":"conv2d_21_1/y","op":"Const","attr":{"value":{"tensor":{"dtype":"DT_FLOAT","tensorShape":{"dim":[{"size":"288"}]}}},"dtype":{"type":"DT_FLOAT"}}},
          {"name":"depthwise_21/filter_in","op":"Const","attr":{"dtype":{"type":"DT_FLOAT"},"value":{"tensor":{"dtype":"DT_FLOAT","tensorShape":{"dim":[{"size":"3"},{"size":"3"},{"size":"288"},{"size":"1"}]}}}}},
          {"name":"Conv2D_23/filter","op":"Const","attr":{"dtype":{"type":"DT_FLOAT"},"value":{"tensor":{"dtype":"DT_FLOAT","tensorShape":{"dim":[{"size":"1"},{"size":"1"},{"size":"288"},{"size":"288"}]}}}}},
          {"name":"conv2d_22_1/y","op":"Const","attr":{"value":{"tensor":{"dtype":"DT_FLOAT","tensorShape":{"dim":[{"size":"288"}]}}},"dtype":{"type":"DT_FLOAT"}}},
          {"name":"depthwise_22/filter_in","op":"Const","attr":{"value":{"tensor":{"dtype":"DT_FLOAT","tensorShape":{"dim":[{"size":"3"},{"size":"3"},{"size":"288"},{"size":"1"}]}}},"dtype":{"type":"DT_FLOAT"}}},
          {"name":"Conv2D_24/filter","op":"Const","attr":{"value":{"tensor":{"dtype":"DT_FLOAT","tensorShape":{"dim":[{"size":"1"},{"size":"1"},{"size":"288"},{"size":"288"}]}}},"dtype":{"type":"DT_FLOAT"}}},
          {"name":"conv2d_23_1/y","op":"Const","attr":{"dtype":{"type":"DT_FLOAT"},"value":{"tensor":{"dtype":"DT_FLOAT","tensorShape":{"dim":[{"size":"288"}]}}}}},
          {"name":"depthwise_23/filter_in","op":"Const","attr":{"value":{"tensor":{"dtype":"DT_FLOAT","tensorShape":{"dim":[{"size":"3"},{"size":"3"},{"size":"288"},{"size":"1"}]}}},"dtype":{"type":"DT_FLOAT"}}},
          {"name":"Conv2D_25/filter","op":"Const","attr":{"value":{"tensor":{"dtype":"DT_FLOAT","tensorShape":{"dim":[{"size":"1"},{"size":"1"},{"size":"288"},{"size":"288"}]}}},"dtype":{"type":"DT_FLOAT"}}},
          {"name":"conv2d_24_1/y","op":"Const","attr":{"value":{"tensor":{"dtype":"DT_FLOAT","tensorShape":{"dim":[{"size":"288"}]}}},"dtype":{"type":"DT_FLOAT"}}},
          {"name":"depthwise_24/filter_in","op":"Const","attr":{"dtype":{"type":"DT_FLOAT"},"value":{"tensor":{"dtype":"DT_FLOAT","tensorShape":{"dim":[{"size":"3"},{"size":"3"},{"size":"288"},{"size":"1"}]}}}}},
          {"name":"Conv2D_26/filter","op":"Const","attr":{"dtype":{"type":"DT_FLOAT"},"value":{"tensor":{"dtype":"DT_FLOAT","tensorShape":{"dim":[{"size":"1"},{"size":"1"},{"size":"288"},{"size":"48"}]}}}}},
          {"name":"conv2d_25_1/y","op":"Const","attr":{"dtype":{"type":"DT_FLOAT"},"value":{"tensor":{"dtype":"DT_FLOAT","tensorShape":{"dim":[{"size":"48"}]}}}}},
          {"name":"depthwise_conv2d_26_1/resize/size","op":"Const","attr":{"value":{"tensor":{"dtype":"DT_INT32","tensorShape":{"dim":[{"size":"2"}]}}},"dtype":{"type":"DT_INT32"}}},
          {"name":"channel_padding_2/paddings","op":"Const","attr":{"value":{"tensor":{"dtype":"DT_INT32","tensorShape":{"dim":[{"size":"4"},{"size":"2"}]}}},"dtype":{"type":"DT_INT32"}}},
          {"name":"depthwise_11/filter_in","op":"Const","attr":{"dtype":{"type":"DT_FLOAT"},"value":{"tensor":{"dtype":"DT_FLOAT","tensorShape":{"dim":[{"size":"3"},{"size":"3"},{"size":"96"},{"size":"1"}]}}}}},
          {"name":"Conv2D_13/filter","op":"Const","attr":{"value":{"tensor":{"dtype":"DT_FLOAT","tensorShape":{"dim":[{"size":"1"},{"size":"1"},{"size":"96"},{"size":"192"}]}}},"dtype":{"type":"DT_FLOAT"}}},
          {"name":"conv2d_12_1/y","op":"Const","attr":{"dtype":{"type":"DT_FLOAT"},"value":{"tensor":{"dtype":"DT_FLOAT","tensorShape":{"dim":[{"size":"192"}]}}}}},
          {"name":"depthwise_12/filter_in","op":"Const","attr":{"value":{"tensor":{"dtype":"DT_FLOAT","tensorShape":{"dim":[{"size":"3"},{"size":"3"},{"size":"192"},{"size":"1"}]}}},"dtype":{"type":"DT_FLOAT"}}},
          {"name":"Conv2D_14/filter","op":"Const","attr":{"dtype":{"type":"DT_FLOAT"},"value":{"tensor":{"dtype":"DT_FLOAT","tensorShape":{"dim":[{"size":"1"},{"size":"1"},{"size":"192"},{"size":"192"}]}}}}},
          {"name":"conv2d_13_1/y","op":"Const","attr":{"dtype":{"type":"DT_FLOAT"},"value":{"tensor":{"dtype":"DT_FLOAT","tensorShape":{"dim":[{"size":"192"}]}}}}},
          {"name":"depthwise_13/filter_in","op":"Const","attr":{"dtype":{"type":"DT_FLOAT"},"value":{"tensor":{"dtype":"DT_FLOAT","tensorShape":{"dim":[{"size":"3"},{"size":"3"},{"size":"192"},{"size":"1"}]}}}}},
          {"name":"Conv2D_15/filter","op":"Const","attr":{"value":{"tensor":{"dtype":"DT_FLOAT","tensorShape":{"dim":[{"size":"1"},{"size":"1"},{"size":"192"},{"size":"192"}]}}},"dtype":{"type":"DT_FLOAT"}}},
          {"name":"conv2d_14_1/y","op":"Const","attr":{"value":{"tensor":{"dtype":"DT_FLOAT","tensorShape":{"dim":[{"size":"192"}]}}},"dtype":{"type":"DT_FLOAT"}}},
          {"name":"depthwise_14/filter_in","op":"Const","attr":{"dtype":{"type":"DT_FLOAT"},"value":{"tensor":{"dtype":"DT_FLOAT","tensorShape":{"dim":[{"size":"3"},{"size":"3"},{"size":"192"},{"size":"1"}]}}}}},
          {"name":"Conv2D_16/filter","op":"Const","attr":{"dtype":{"type":"DT_FLOAT"},"value":{"tensor":{"dtype":"DT_FLOAT","tensorShape":{"dim":[{"size":"1"},{"size":"1"},{"size":"192"},{"size":"192"}]}}}}},
          {"name":"conv2d_15_1/y","op":"Const","attr":{"value":{"tensor":{"dtype":"DT_FLOAT","tensorShape":{"dim":[{"size":"192"}]}}},"dtype":{"type":"DT_FLOAT"}}},
          {"name":"depthwise_15/filter_in","op":"Const","attr":{"dtype":{"type":"DT_FLOAT"},"value":{"tensor":{"dtype":"DT_FLOAT","tensorShape":{"dim":[{"size":"3"},{"size":"3"},{"size":"192"},{"size":"1"}]}}}}},
          {"name":"Conv2D_17/filter","op":"Const","attr":{"dtype":{"type":"DT_FLOAT"},"value":{"tensor":{"dtype":"DT_FLOAT","tensorShape":{"dim":[{"size":"1"},{"size":"1"},{"size":"192"},{"size":"192"}]}}}}},
          {"name":"conv2d_16_1/y","op":"Const","attr":{"value":{"tensor":{"dtype":"DT_FLOAT","tensorShape":{"dim":[{"size":"192"}]}}},"dtype":{"type":"DT_FLOAT"}}},
          {"name":"depthwise_16/filter_in","op":"Const","attr":{"dtype":{"type":"DT_FLOAT"},"value":{"tensor":{"dtype":"DT_FLOAT","tensorShape":{"dim":[{"size":"3"},{"size":"3"},{"size":"192"},{"size":"1"}]}}}}},
          {"name":"Conv2D_18/filter","op":"Const","attr":{"dtype":{"type":"DT_FLOAT"},"value":{"tensor":{"dtype":"DT_FLOAT","tensorShape":{"dim":[{"size":"1"},{"size":"1"},{"size":"192"},{"size":"192"}]}}}}},
          {"name":"conv2d_17_1/y","op":"Const","attr":{"value":{"tensor":{"dtype":"DT_FLOAT","tensorShape":{"dim":[{"size":"192"}]}}},"dtype":{"type":"DT_FLOAT"}}},
          {"name":"depthwise_25/filter_in","op":"Const","attr":{"dtype":{"type":"DT_FLOAT"},"value":{"tensor":{"dtype":"DT_FLOAT","tensorShape":{"dim":[{"size":"3"},{"size":"3"},{"size":"192"},{"size":"1"}]}}}}},
          {"name":"Conv2D_27/filter","op":"Const","attr":{"value":{"tensor":{"dtype":"DT_FLOAT","tensorShape":{"dim":[{"size":"1"},{"size":"1"},{"size":"192"},{"size":"48"}]}}},"dtype":{"type":"DT_FLOAT"}}},
          {"name":"conv2d_26_1/y","op":"Const","attr":{"dtype":{"type":"DT_FLOAT"},"value":{"tensor":{"dtype":"DT_FLOAT","tensorShape":{"dim":[{"size":"48"}]}}}}},
          {"name":"depthwise_conv2d_27_1/resize/size","op":"Const","attr":{"value":{"tensor":{"dtype":"DT_INT32","tensorShape":{"dim":[{"size":"2"}]}}},"dtype":{"type":"DT_INT32"}}},
          {"name":"channel_padding_1/paddings","op":"Const","attr":{"value":{"tensor":{"dtype":"DT_INT32","tensorShape":{"dim":[{"size":"4"},{"size":"2"}]}}},"dtype":{"type":"DT_INT32"}}},
          {"name":"depthwise_6/filter_in","op":"Const","attr":{"value":{"tensor":{"dtype":"DT_FLOAT","tensorShape":{"dim":[{"size":"3"},{"size":"3"},{"size":"48"},{"size":"1"}]}}},"dtype":{"type":"DT_FLOAT"}}},
          {"name":"Conv2D_8/filter","op":"Const","attr":{"value":{"tensor":{"dtype":"DT_FLOAT","tensorShape":{"dim":[{"size":"1"},{"size":"1"},{"size":"48"},{"size":"96"}]}}},"dtype":{"type":"DT_FLOAT"}}},
          {"name":"conv2d_7_1/y","op":"Const","attr":{"dtype":{"type":"DT_FLOAT"},"value":{"tensor":{"dtype":"DT_FLOAT","tensorShape":{"dim":[{"size":"96"}]}}}}},
          {"name":"depthwise_7/filter_in","op":"Const","attr":{"dtype":{"type":"DT_FLOAT"},"value":{"tensor":{"dtype":"DT_FLOAT","tensorShape":{"dim":[{"size":"3"},{"size":"3"},{"size":"96"},{"size":"1"}]}}}}},
          {"name":"Conv2D_9/filter","op":"Const","attr":{"dtype":{"type":"DT_FLOAT"},"value":{"tensor":{"dtype":"DT_FLOAT","tensorShape":{"dim":[{"size":"1"},{"size":"1"},{"size":"96"},{"size":"96"}]}}}}},
          {"name":"conv2d_8_1/y","op":"Const","attr":{"value":{"tensor":{"dtype":"DT_FLOAT","tensorShape":{"dim":[{"size":"96"}]}}},"dtype":{"type":"DT_FLOAT"}}},
          {"name":"depthwise_8/filter_in","op":"Const","attr":{"dtype":{"type":"DT_FLOAT"},"value":{"tensor":{"dtype":"DT_FLOAT","tensorShape":{"dim":[{"size":"3"},{"size":"3"},{"size":"96"},{"size":"1"}]}}}}},
          {"name":"Conv2D_10/filter","op":"Const","attr":{"dtype":{"type":"DT_FLOAT"},"value":{"tensor":{"dtype":"DT_FLOAT","tensorShape":{"dim":[{"size":"1"},{"size":"1"},{"size":"96"},{"size":"96"}]}}}}},
          {"name":"conv2d_9_1/y","op":"Const","attr":{"value":{"tensor":{"dtype":"DT_FLOAT","tensorShape":{"dim":[{"size":"96"}]}}},"dtype":{"type":"DT_FLOAT"}}},
          {"name":"depthwise_9/filter_in","op":"Const","attr":{"value":{"tensor":{"dtype":"DT_FLOAT","tensorShape":{"dim":[{"size":"3"},{"size":"3"},{"size":"96"},{"size":"1"}]}}},"dtype":{"type":"DT_FLOAT"}}},
          {"name":"Conv2D_11/filter","op":"Const","attr":{"value":{"tensor":{"dtype":"DT_FLOAT","tensorShape":{"dim":[{"size":"1"},{"size":"1"},{"size":"96"},{"size":"96"}]}}},"dtype":{"type":"DT_FLOAT"}}},
          {"name":"conv2d_10_1/y","op":"Const","attr":{"value":{"tensor":{"dtype":"DT_FLOAT","tensorShape":{"dim":[{"size":"96"}]}}},"dtype":{"type":"DT_FLOAT"}}},
          {"name":"depthwise_10/filter_in","op":"Const","attr":{"value":{"tensor":{"dtype":"DT_FLOAT","tensorShape":{"dim":[{"size":"3"},{"size":"3"},{"size":"96"},{"size":"1"}]}}},"dtype":{"type":"DT_FLOAT"}}},
          {"name":"Conv2D_12/filter","op":"Const","attr":{"dtype":{"type":"DT_FLOAT"},"value":{"tensor":{"dtype":"DT_FLOAT","tensorShape":{"dim":[{"size":"1"},{"size":"1"},{"size":"96"},{"size":"96"}]}}}}},
          {"name":"conv2d_11_1/y","op":"Const","attr":{"dtype":{"type":"DT_FLOAT"},"value":{"tensor":{"dtype":"DT_FLOAT","tensorShape":{"dim":[{"size":"96"}]}}}}},
          {"name":"depthwise_26/filter_in","op":"Const","attr":{"value":{"tensor":{"dtype":"DT_FLOAT","tensorShape":{"dim":[{"size":"3"},{"size":"3"},{"size":"96"},{"size":"1"}]}}},"dtype":{"type":"DT_FLOAT"}}},
          {"name":"Conv2D_28/filter","op":"Const","attr":{"value":{"tensor":{"dtype":"DT_FLOAT","tensorShape":{"dim":[{"size":"1"},{"size":"1"},{"size":"96"},{"size":"48"}]}}},"dtype":{"type":"DT_FLOAT"}}},
          {"name":"conv2d_27_1/y","op":"Const","attr":{"value":{"tensor":{"dtype":"DT_FLOAT","tensorShape":{"dim":[{"size":"48"}]}}},"dtype":{"type":"DT_FLOAT"}}},
          {"name":"add_25__xeno_compat__1_1/resize/size","op":"Const","attr":{"value":{"tensor":{"dtype":"DT_INT32","tensorShape":{"dim":[{"size":"2"}]}}},"dtype":{"type":"DT_INT32"}}},
          {"name":"channel_padding/paddings","op":"Const","attr":{"dtype":{"type":"DT_INT32"},"value":{"tensor":{"dtype":"DT_INT32","tensorShape":{"dim":[{"size":"4"},{"size":"2"}]}}}}},
          {"name":"depthwise_2/filter_in","op":"Const","attr":{"value":{"tensor":{"dtype":"DT_FLOAT","tensorShape":{"dim":[{"size":"3"},{"size":"3"},{"size":"24"},{"size":"1"}]}}},"dtype":{"type":"DT_FLOAT"}}},
          {"name":"Conv2D_4/filter","op":"Const","attr":{"dtype":{"type":"DT_FLOAT"},"value":{"tensor":{"dtype":"DT_FLOAT","tensorShape":{"dim":[{"size":"1"},{"size":"1"},{"size":"24"},{"size":"48"}]}}}}},
          {"name":"conv2d_3_1/y","op":"Const","attr":{"dtype":{"type":"DT_FLOAT"},"value":{"tensor":{"dtype":"DT_FLOAT","tensorShape":{"dim":[{"size":"48"}]}}}}},
          {"name":"depthwise_3/filter_in","op":"Const","attr":{"dtype":{"type":"DT_FLOAT"},"value":{"tensor":{"dtype":"DT_FLOAT","tensorShape":{"dim":[{"size":"3"},{"size":"3"},{"size":"48"},{"size":"1"}]}}}}},
          {"name":"Conv2D_5/filter","op":"Const","attr":{"dtype":{"type":"DT_FLOAT"},"value":{"tensor":{"dtype":"DT_FLOAT","tensorShape":{"dim":[{"size":"1"},{"size":"1"},{"size":"48"},{"size":"48"}]}}}}},
          {"name":"conv2d_4_1/y","op":"Const","attr":{"value":{"tensor":{"dtype":"DT_FLOAT","tensorShape":{"dim":[{"size":"48"}]}}},"dtype":{"type":"DT_FLOAT"}}},
          {"name":"depthwise_4/filter_in","op":"Const","attr":{"dtype":{"type":"DT_FLOAT"},"value":{"tensor":{"dtype":"DT_FLOAT","tensorShape":{"dim":[{"size":"3"},{"size":"3"},{"size":"48"},{"size":"1"}]}}}}},
          {"name":"Conv2D_6/filter","op":"Const","attr":{"value":{"tensor":{"dtype":"DT_FLOAT","tensorShape":{"dim":[{"size":"1"},{"size":"1"},{"size":"48"},{"size":"48"}]}}},"dtype":{"type":"DT_FLOAT"}}},
          {"name":"conv2d_5_1/y","op":"Const","attr":{"dtype":{"type":"DT_FLOAT"},"value":{"tensor":{"dtype":"DT_FLOAT","tensorShape":{"dim":[{"size":"48"}]}}}}},
          {"name":"depthwise_5/filter_in","op":"Const","attr":{"value":{"tensor":{"dtype":"DT_FLOAT","tensorShape":{"dim":[{"size":"3"},{"size":"3"},{"size":"48"},{"size":"1"}]}}},"dtype":{"type":"DT_FLOAT"}}},
          {"name":"Conv2D_7/filter","op":"Const","attr":{"value":{"tensor":{"dtype":"DT_FLOAT","tensorShape":{"dim":[{"size":"1"},{"size":"1"},{"size":"48"},{"size":"48"}]}}},"dtype":{"type":"DT_FLOAT"}}},
          {"name":"conv2d_6_1/y","op":"Const","attr":{"dtype":{"type":"DT_FLOAT"},"value":{"tensor":{"dtype":"DT_FLOAT","tensorShape":{"dim":[{"size":"48"}]}}}}},
          {"name":"depthwise_27/filter_in","op":"Const","attr":{"dtype":{"type":"DT_FLOAT"},"value":{"tensor":{"dtype":"DT_FLOAT","tensorShape":{"dim":[{"size":"3"},{"size":"3"},{"size":"48"},{"size":"1"}]}}}}},
          {"name":"Conv2D_29/filter","op":"Const","attr":{"dtype":{"type":"DT_FLOAT"},"value":{"tensor":{"dtype":"DT_FLOAT","tensorShape":{"dim":[{"size":"1"},{"size":"1"},{"size":"48"},{"size":"48"}]}}}}},
          {"name":"conv2d_28_1/y","op":"Const","attr":{"dtype":{"type":"DT_FLOAT"},"value":{"tensor":{"dtype":"DT_FLOAT","tensorShape":{"dim":[{"size":"48"}]}}}}},
          {"name":"depthwise_64/filter_in","op":"Const","attr":{"dtype":{"type":"DT_FLOAT"},"value":{"tensor":{"dtype":"DT_FLOAT","tensorShape":{"dim":[{"size":"3"},{"size":"3"},{"size":"48"},{"size":"1"}]}}}}},
          {"name":"Conv2D_66/filter","op":"Const","attr":{"value":{"tensor":{"dtype":"DT_FLOAT","tensorShape":{"dim":[{"size":"1"},{"size":"1"},{"size":"48"},{"size":"8"}]}}},"dtype":{"type":"DT_FLOAT"}}},
          {"name":"conv2d_67/y","op":"Const","attr":{"value":{"tensor":{"dtype":"DT_FLOAT","tensorShape":{"dim":[{"size":"8"}]}}},"dtype":{"type":"DT_FLOAT"}}},
          {"name":"depthwise_conv2d_64_1/resize/size","op":"Const","attr":{"dtype":{"type":"DT_INT32"},"value":{"tensor":{"dtype":"DT_INT32","tensorShape":{"dim":[{"size":"2"}]}}}}},
          {"name":"input_1","op":"Placeholder","attr":{"shape":{"shape":{"dim":[{"size":"1"},{"size":"256"},{"size":"256"},{"size":"3"}]}},"dtype":{"type":"DT_FLOAT"}}},
          {"name":"Conv2D/filter","op":"Const","attr":{"value":{"tensor":{"dtype":"DT_FLOAT","tensorShape":{"dim":[{"size":"3"},{"size":"3"},{"size":"3"},{"size":"24"}]}}},"dtype":{"type":"DT_FLOAT"}}},
          {"name":"conv2d_1/y","op":"Const","attr":{"dtype":{"type":"DT_FLOAT"},"value":{"tensor":{"dtype":"DT_FLOAT","tensorShape":{"dim":[{"size":"24"}]}}}}},
          {"name":"depthwise/filter_in","op":"Const","attr":{"value":{"tensor":{"dtype":"DT_FLOAT","tensorShape":{"dim":[{"size":"3"},{"size":"3"},{"size":"24"},{"size":"1"}]}}},"dtype":{"type":"DT_FLOAT"}}},
          {"name":"Conv2D_2/filter","op":"Const","attr":{"value":{"tensor":{"dtype":"DT_FLOAT","tensorShape":{"dim":[{"size":"1"},{"size":"1"},{"size":"24"},{"size":"24"}]}}},"dtype":{"type":"DT_FLOAT"}}},
          {"name":"conv2d_1_1/y","op":"Const","attr":{"dtype":{"type":"DT_FLOAT"},"value":{"tensor":{"dtype":"DT_FLOAT","tensorShape":{"dim":[{"size":"24"}]}}}}},
          {"name":"depthwise_1/filter_in","op":"Const","attr":{"dtype":{"type":"DT_FLOAT"},"value":{"tensor":{"dtype":"DT_FLOAT","tensorShape":{"dim":[{"size":"3"},{"size":"3"},{"size":"24"},{"size":"1"}]}}}}},
          {"name":"Conv2D_3/filter","op":"Const","attr":{"value":{"tensor":{"dtype":"DT_FLOAT","tensorShape":{"dim":[{"size":"1"},{"size":"1"},{"size":"24"},{"size":"24"}]}}},"dtype":{"type":"DT_FLOAT"}}},
          {"name":"conv2d_2_1/y","op":"Const","attr":{"value":{"tensor":{"dtype":"DT_FLOAT","tensorShape":{"dim":[{"size":"24"}]}}},"dtype":{"type":"DT_FLOAT"}}},
          {"name":"depthwise_65/filter_in","op":"Const","attr":{"value":{"tensor":{"dtype":"DT_FLOAT","tensorShape":{"dim":[{"size":"3"},{"size":"3"},{"size":"24"},{"size":"1"}]}}},"dtype":{"type":"DT_FLOAT"}}},
          {"name":"Conv2D_68/filter","op":"Const","attr":{"dtype":{"type":"DT_FLOAT"},"value":{"tensor":{"dtype":"DT_FLOAT","tensorShape":{"dim":[{"size":"1"},{"size":"1"},{"size":"24"},{"size":"8"}]}}}}},
          {"name":"conv2d_66_1/y","op":"Const","attr":{"dtype":{"type":"DT_FLOAT"},"value":{"tensor":{"dtype":"DT_FLOAT","tensorShape":{"dim":[{"size":"8"}]}}}}},
          {"name":"depthwise_67/filter_in","op":"Const","attr":{"dtype":{"type":"DT_FLOAT"},"value":{"tensor":{"dtype":"DT_FLOAT","tensorShape":{"dim":[{"size":"3"},{"size":"3"},{"size":"8"},{"size":"1"}]}}}}},
          {"name":"Conv2D_70/filter","op":"Const","attr":{"value":{"tensor":{"dtype":"DT_FLOAT","tensorShape":{"dim":[{"size":"1"},{"size":"1"},{"size":"8"},{"size":"8"}]}}},"dtype":{"type":"DT_FLOAT"}}},
          {"name":"conv2d_68_1/y","op":"Const","attr":{"value":{"tensor":{"dtype":"DT_FLOAT","tensorShape":{"dim":[{"size":"8"}]}}},"dtype":{"type":"DT_FLOAT"}}},
          {"name":"Conv2D_72/filter","op":"Const","attr":{"dtype":{"type":"DT_FLOAT"},"value":{"tensor":{"dtype":"DT_FLOAT","tensorShape":{"dim":[{"size":"3"},{"size":"3"},{"size":"8"},{"size":"1"}]}}}}},
          {"name":"output_segmentation/y","op":"Const","attr":{"dtype":{"type":"DT_FLOAT"},"value":{"tensor":{"dtype":"DT_FLOAT","tensorShape":{"dim":[{"size":"1"}]}}}}},
          {"name":"Conv2D","op":"Conv2D","input":["input_1","Conv2D/filter"],"device":"/device:CPU:0","attr":{"use_cudnn_on_gpu":{"b":true},"T":{"type":"DT_FLOAT"},"dilations":{"list":{"i":["1","1","1","1"]}},"data_format":{"s":"TkhXQw=="},"padding":{"s":"U0FNRQ=="},"strides":{"list":{"i":["1","2","2","1"]}},"explicit_paddings":{"list":{}}}},
          {"name":"conv2d_1","op":"Add","input":["Conv2D","conv2d_1/y"],"attr":{"T":{"type":"DT_FLOAT"}}},
          {"name":"activation","op":"Relu","input":["conv2d_1"],"attr":{"T":{"type":"DT_FLOAT"}}},
          {"name":"depthwise","op":"DepthwiseConv2dNative","input":["activation","depthwise/filter_in"],"attr":{"explicit_paddings":{"list":{}},"strides":{"list":{"i":["1","1","1","1"]}},"dilations":{"list":{"i":["1","1","1","1"]}},"data_format":{"s":"TkhXQw=="},"T":{"type":"DT_FLOAT"},"padding":{"s":"U0FNRQ=="}}},
          {"name":"Conv2D_2","op":"Conv2D","input":["depthwise","Conv2D_2/filter"],"device":"/device:CPU:0","attr":{"explicit_paddings":{"list":{}},"T":{"type":"DT_FLOAT"},"use_cudnn_on_gpu":{"b":true},"strides":{"list":{"i":["1","1","1","1"]}},"padding":{"s":"VkFMSUQ="},"data_format":{"s":"TkhXQw=="},"dilations":{"list":{"i":["1","1","1","1"]}}}},
          {"name":"conv2d_1_1","op":"Add","input":["Conv2D_2","conv2d_1_1/y"],"attr":{"T":{"type":"DT_FLOAT"}}},
          {"name":"add__xeno_compat__1","op":"Add","input":["activation","conv2d_1_1"],"attr":{"T":{"type":"DT_FLOAT"}}},
          {"name":"activation_1","op":"Relu","input":["add__xeno_compat__1"],"attr":{"T":{"type":"DT_FLOAT"}}},
          {"name":"depthwise_1","op":"DepthwiseConv2dNative","input":["activation_1","depthwise_1/filter_in"],"attr":{"strides":{"list":{"i":["1","1","1","1"]}},"T":{"type":"DT_FLOAT"},"explicit_paddings":{"list":{}},"dilations":{"list":{"i":["1","1","1","1"]}},"padding":{"s":"U0FNRQ=="},"data_format":{"s":"TkhXQw=="}}},
          {"name":"Conv2D_3","op":"Conv2D","input":["depthwise_1","Conv2D_3/filter"],"device":"/device:CPU:0","attr":{"use_cudnn_on_gpu":{"b":true},"padding":{"s":"VkFMSUQ="},"strides":{"list":{"i":["1","1","1","1"]}},"T":{"type":"DT_FLOAT"},"data_format":{"s":"TkhXQw=="},"dilations":{"list":{"i":["1","1","1","1"]}},"explicit_paddings":{"list":{}}}},
          {"name":"conv2d_2_1","op":"Add","input":["Conv2D_3","conv2d_2_1/y"],"attr":{"T":{"type":"DT_FLOAT"}}},
          {"name":"add_1__xeno_compat__1","op":"Add","input":["activation_1","conv2d_2_1"],"attr":{"T":{"type":"DT_FLOAT"}}},
          {"name":"activation_2","op":"Relu","input":["add_1__xeno_compat__1"],"attr":{"T":{"type":"DT_FLOAT"}}},
          {"name":"max_pooling2d","op":"MaxPool","input":["activation_2"],"attr":{"T":{"type":"DT_FLOAT"},"ksize":{"list":{"i":["1","2","2","1"]}},"data_format":{"s":"TkhXQw=="},"padding":{"s":"VkFMSUQ="},"explicit_paddings":{"list":{}},"strides":{"list":{"i":["1","2","2","1"]}}}},
          {"name":"depthwise_2","op":"DepthwiseConv2dNative","input":["activation_2","depthwise_2/filter_in"],"attr":{"padding":{"s":"U0FNRQ=="},"T":{"type":"DT_FLOAT"},"strides":{"list":{"i":["1","2","2","1"]}},"data_format":{"s":"TkhXQw=="},"explicit_paddings":{"list":{}},"dilations":{"list":{"i":["1","1","1","1"]}}}},
          {"name":"depthwise_65","op":"DepthwiseConv2dNative","input":["activation_2","depthwise_65/filter_in"],"attr":{"data_format":{"s":"TkhXQw=="},"padding":{"s":"U0FNRQ=="},"dilations":{"list":{"i":["1","1","1","1"]}},"T":{"type":"DT_FLOAT"},"explicit_paddings":{"list":{}},"strides":{"list":{"i":["1","1","1","1"]}}}},
          {"name":"channel_padding","op":"Pad","input":["max_pooling2d","channel_padding/paddings"],"attr":{"Tpaddings":{"type":"DT_INT32"},"T":{"type":"DT_FLOAT"}}},
          {"name":"Conv2D_4","op":"Conv2D","input":["depthwise_2","Conv2D_4/filter"],"device":"/device:CPU:0","attr":{"use_cudnn_on_gpu":{"b":true},"data_format":{"s":"TkhXQw=="},"explicit_paddings":{"list":{}},"dilations":{"list":{"i":["1","1","1","1"]}},"strides":{"list":{"i":["1","1","1","1"]}},"T":{"type":"DT_FLOAT"},"padding":{"s":"VkFMSUQ="}}},
          {"name":"Conv2D_68","op":"Conv2D","input":["depthwise_65","Conv2D_68/filter"],"device":"/device:CPU:0","attr":{"padding":{"s":"VkFMSUQ="},"explicit_paddings":{"list":{}},"use_cudnn_on_gpu":{"b":true},"T":{"type":"DT_FLOAT"},"data_format":{"s":"TkhXQw=="},"dilations":{"list":{"i":["1","1","1","1"]}},"strides":{"list":{"i":["1","1","1","1"]}}}},
          {"name":"conv2d_3_1","op":"Add","input":["Conv2D_4","conv2d_3_1/y"],"attr":{"T":{"type":"DT_FLOAT"}}},
          {"name":"conv2d_66_1","op":"Add","input":["Conv2D_68","conv2d_66_1/y"],"attr":{"T":{"type":"DT_FLOAT"}}},
          {"name":"add_2__xeno_compat__1","op":"Add","input":["channel_padding","conv2d_3_1"],"attr":{"T":{"type":"DT_FLOAT"}}},
          {"name":"activation_66","op":"Relu","input":["conv2d_66_1"],"attr":{"T":{"type":"DT_FLOAT"}}},
          {"name":"activation_3","op":"Relu","input":["add_2__xeno_compat__1"],"attr":{"T":{"type":"DT_FLOAT"}}},
          {"name":"depthwise_3","op":"DepthwiseConv2dNative","input":["activation_3","depthwise_3/filter_in"],"attr":{"padding":{"s":"U0FNRQ=="},"data_format":{"s":"TkhXQw=="},"strides":{"list":{"i":["1","1","1","1"]}},"explicit_paddings":{"list":{}},"T":{"type":"DT_FLOAT"},"dilations":{"list":{"i":["1","1","1","1"]}}}},
          {"name":"Conv2D_5","op":"Conv2D","input":["depthwise_3","Conv2D_5/filter"],"device":"/device:CPU:0","attr":{"use_cudnn_on_gpu":{"b":true},"strides":{"list":{"i":["1","1","1","1"]}},"T":{"type":"DT_FLOAT"},"padding":{"s":"VkFMSUQ="},"dilations":{"list":{"i":["1","1","1","1"]}},"explicit_paddings":{"list":{}},"data_format":{"s":"TkhXQw=="}}},
          {"name":"conv2d_4_1","op":"Add","input":["Conv2D_5","conv2d_4_1/y"],"attr":{"T":{"type":"DT_FLOAT"}}},
          {"name":"add_3__xeno_compat__1","op":"Add","input":["activation_3","conv2d_4_1"],"attr":{"T":{"type":"DT_FLOAT"}}},
          {"name":"activation_4","op":"Relu","input":["add_3__xeno_compat__1"],"attr":{"T":{"type":"DT_FLOAT"}}},
          {"name":"depthwise_4","op":"DepthwiseConv2dNative","input":["activation_4","depthwise_4/filter_in"],"attr":{"strides":{"list":{"i":["1","1","1","1"]}},"explicit_paddings":{"list":{}},"dilations":{"list":{"i":["1","1","1","1"]}},"T":{"type":"DT_FLOAT"},"data_format":{"s":"TkhXQw=="},"padding":{"s":"U0FNRQ=="}}},
          {"name":"Conv2D_6","op":"Conv2D","input":["depthwise_4","Conv2D_6/filter"],"device":"/device:CPU:0","attr":{"T":{"type":"DT_FLOAT"},"strides":{"list":{"i":["1","1","1","1"]}},"explicit_paddings":{"list":{}},"use_cudnn_on_gpu":{"b":true},"dilations":{"list":{"i":["1","1","1","1"]}},"data_format":{"s":"TkhXQw=="},"padding":{"s":"VkFMSUQ="}}},
          {"name":"conv2d_5_1","op":"Add","input":["Conv2D_6","conv2d_5_1/y"],"attr":{"T":{"type":"DT_FLOAT"}}},
          {"name":"add_4__xeno_compat__1","op":"Add","input":["activation_4","conv2d_5_1"],"attr":{"T":{"type":"DT_FLOAT"}}},
          {"name":"activation_5","op":"Relu","input":["add_4__xeno_compat__1"],"attr":{"T":{"type":"DT_FLOAT"}}},
          {"name":"depthwise_5","op":"DepthwiseConv2dNative","input":["activation_5","depthwise_5/filter_in"],"attr":{"padding":{"s":"U0FNRQ=="},"explicit_paddings":{"list":{}},"T":{"type":"DT_FLOAT"},"dilations":{"list":{"i":["1","1","1","1"]}},"data_format":{"s":"TkhXQw=="},"strides":{"list":{"i":["1","1","1","1"]}}}},
          {"name":"Conv2D_7","op":"Conv2D","input":["depthwise_5","Conv2D_7/filter"],"device":"/device:CPU:0","attr":{"T":{"type":"DT_FLOAT"},"data_format":{"s":"TkhXQw=="},"dilations":{"list":{"i":["1","1","1","1"]}},"padding":{"s":"VkFMSUQ="},"explicit_paddings":{"list":{}},"use_cudnn_on_gpu":{"b":true},"strides":{"list":{"i":["1","1","1","1"]}}}},
          {"name":"conv2d_6_1","op":"Add","input":["Conv2D_7","conv2d_6_1/y"],"attr":{"T":{"type":"DT_FLOAT"}}},
          {"name":"add_5__xeno_compat__1","op":"Add","input":["activation_5","conv2d_6_1"],"attr":{"T":{"type":"DT_FLOAT"}}},
          {"name":"activation_6","op":"Relu","input":["add_5__xeno_compat__1"],"attr":{"T":{"type":"DT_FLOAT"}}},
          {"name":"max_pooling2d_1","op":"MaxPool","input":["activation_6"],"attr":{"ksize":{"list":{"i":["1","2","2","1"]}},"padding":{"s":"VkFMSUQ="},"explicit_paddings":{"list":{}},"strides":{"list":{"i":["1","2","2","1"]}},"T":{"type":"DT_FLOAT"},"data_format":{"s":"TkhXQw=="}}},
          {"name":"depthwise_6","op":"DepthwiseConv2dNative","input":["activation_6","depthwise_6/filter_in"],"attr":{"T":{"type":"DT_FLOAT"},"dilations":{"list":{"i":["1","1","1","1"]}},"explicit_paddings":{"list":{}},"strides":{"list":{"i":["1","2","2","1"]}},"padding":{"s":"U0FNRQ=="},"data_format":{"s":"TkhXQw=="}}},
          {"name":"depthwise_27","op":"DepthwiseConv2dNative","input":["activation_6","depthwise_27/filter_in"],"attr":{"dilations":{"list":{"i":["1","1","1","1"]}},"explicit_paddings":{"list":{}},"padding":{"s":"U0FNRQ=="},"T":{"type":"DT_FLOAT"},"data_format":{"s":"TkhXQw=="},"strides":{"list":{"i":["1","1","1","1"]}}}},
          {"name":"channel_padding_1","op":"Pad","input":["max_pooling2d_1","channel_padding_1/paddings"],"attr":{"T":{"type":"DT_FLOAT"},"Tpaddings":{"type":"DT_INT32"}}},
          {"name":"Conv2D_8","op":"Conv2D","input":["depthwise_6","Conv2D_8/filter"],"device":"/device:CPU:0","attr":{"data_format":{"s":"TkhXQw=="},"T":{"type":"DT_FLOAT"},"explicit_paddings":{"list":{}},"padding":{"s":"VkFMSUQ="},"strides":{"list":{"i":["1","1","1","1"]}},"dilations":{"list":{"i":["1","1","1","1"]}},"use_cudnn_on_gpu":{"b":true}}},
          {"name":"Conv2D_29","op":"Conv2D","input":["depthwise_27","Conv2D_29/filter"],"device":"/device:CPU:0","attr":{"data_format":{"s":"TkhXQw=="},"use_cudnn_on_gpu":{"b":true},"T":{"type":"DT_FLOAT"},"explicit_paddings":{"list":{}},"dilations":{"list":{"i":["1","1","1","1"]}},"strides":{"list":{"i":["1","1","1","1"]}},"padding":{"s":"VkFMSUQ="}}},
          {"name":"conv2d_7_1","op":"Add","input":["Conv2D_8","conv2d_7_1/y"],"attr":{"T":{"type":"DT_FLOAT"}}},
          {"name":"conv2d_28_1","op":"Add","input":["Conv2D_29","conv2d_28_1/y"],"attr":{"T":{"type":"DT_FLOAT"}}},
          {"name":"add_6__xeno_compat__1","op":"Add","input":["channel_padding_1","conv2d_7_1"],"attr":{"T":{"type":"DT_FLOAT"}}},
          {"name":"activation_28","op":"Relu","input":["conv2d_28_1"],"attr":{"T":{"type":"DT_FLOAT"}}},
          {"name":"activation_7","op":"Relu","input":["add_6__xeno_compat__1"],"attr":{"T":{"type":"DT_FLOAT"}}},
          {"name":"depthwise_7","op":"DepthwiseConv2dNative","input":["activation_7","depthwise_7/filter_in"],"attr":{"padding":{"s":"U0FNRQ=="},"T":{"type":"DT_FLOAT"},"dilations":{"list":{"i":["1","1","1","1"]}},"data_format":{"s":"TkhXQw=="},"strides":{"list":{"i":["1","1","1","1"]}},"explicit_paddings":{"list":{}}}},
          {"name":"Conv2D_9","op":"Conv2D","input":["depthwise_7","Conv2D_9/filter"],"device":"/device:CPU:0","attr":{"padding":{"s":"VkFMSUQ="},"strides":{"list":{"i":["1","1","1","1"]}},"dilations":{"list":{"i":["1","1","1","1"]}},"use_cudnn_on_gpu":{"b":true},"data_format":{"s":"TkhXQw=="},"T":{"type":"DT_FLOAT"},"explicit_paddings":{"list":{}}}},
          {"name":"conv2d_8_1","op":"Add","input":["Conv2D_9","conv2d_8_1/y"],"attr":{"T":{"type":"DT_FLOAT"}}},
          {"name":"add_7__xeno_compat__1","op":"Add","input":["activation_7","conv2d_8_1"],"attr":{"T":{"type":"DT_FLOAT"}}},
          {"name":"activation_8","op":"Relu","input":["add_7__xeno_compat__1"],"attr":{"T":{"type":"DT_FLOAT"}}},
          {"name":"depthwise_8","op":"DepthwiseConv2dNative","input":["activation_8","depthwise_8/filter_in"],"attr":{"T":{"type":"DT_FLOAT"},"dilations":{"list":{"i":["1","1","1","1"]}},"padding":{"s":"U0FNRQ=="},"explicit_paddings":{"list":{}},"strides":{"list":{"i":["1","1","1","1"]}},"data_format":{"s":"TkhXQw=="}}},
          {"name":"Conv2D_10","op":"Conv2D","input":["depthwise_8","Conv2D_10/filter"],"device":"/device:CPU:0","attr":{"dilations":{"list":{"i":["1","1","1","1"]}},"data_format":{"s":"TkhXQw=="},"padding":{"s":"VkFMSUQ="},"use_cudnn_on_gpu":{"b":true},"T":{"type":"DT_FLOAT"},"explicit_paddings":{"list":{}},"strides":{"list":{"i":["1","1","1","1"]}}}},
          {"name":"conv2d_9_1","op":"Add","input":["Conv2D_10","conv2d_9_1/y"],"attr":{"T":{"type":"DT_FLOAT"}}},
          {"name":"add_8__xeno_compat__1","op":"Add","input":["activation_8","conv2d_9_1"],"attr":{"T":{"type":"DT_FLOAT"}}},
          {"name":"activation_9","op":"Relu","input":["add_8__xeno_compat__1"],"attr":{"T":{"type":"DT_FLOAT"}}},
          {"name":"depthwise_9","op":"DepthwiseConv2dNative","input":["activation_9","depthwise_9/filter_in"],"attr":{"dilations":{"list":{"i":["1","1","1","1"]}},"T":{"type":"DT_FLOAT"},"padding":{"s":"U0FNRQ=="},"data_format":{"s":"TkhXQw=="},"strides":{"list":{"i":["1","1","1","1"]}},"explicit_paddings":{"list":{}}}},
          {"name":"Conv2D_11","op":"Conv2D","input":["depthwise_9","Conv2D_11/filter"],"device":"/device:CPU:0","attr":{"T":{"type":"DT_FLOAT"},"data_format":{"s":"TkhXQw=="},"padding":{"s":"VkFMSUQ="},"strides":{"list":{"i":["1","1","1","1"]}},"explicit_paddings":{"list":{}},"use_cudnn_on_gpu":{"b":true},"dilations":{"list":{"i":["1","1","1","1"]}}}},
          {"name":"conv2d_10_1","op":"Add","input":["Conv2D_11","conv2d_10_1/y"],"attr":{"T":{"type":"DT_FLOAT"}}},
          {"name":"add_9__xeno_compat__1","op":"Add","input":["activation_9","conv2d_10_1"],"attr":{"T":{"type":"DT_FLOAT"}}},
          {"name":"activation_10","op":"Relu","input":["add_9__xeno_compat__1"],"attr":{"T":{"type":"DT_FLOAT"}}},
          {"name":"depthwise_10","op":"DepthwiseConv2dNative","input":["activation_10","depthwise_10/filter_in"],"attr":{"strides":{"list":{"i":["1","1","1","1"]}},"padding":{"s":"U0FNRQ=="},"explicit_paddings":{"list":{}},"dilations":{"list":{"i":["1","1","1","1"]}},"data_format":{"s":"TkhXQw=="},"T":{"type":"DT_FLOAT"}}},
          {"name":"Conv2D_12","op":"Conv2D","input":["depthwise_10","Conv2D_12/filter"],"device":"/device:CPU:0","attr":{"use_cudnn_on_gpu":{"b":true},"strides":{"list":{"i":["1","1","1","1"]}},"data_format":{"s":"TkhXQw=="},"explicit_paddings":{"list":{}},"dilations":{"list":{"i":["1","1","1","1"]}},"T":{"type":"DT_FLOAT"},"padding":{"s":"VkFMSUQ="}}},
          {"name":"conv2d_11_1","op":"Add","input":["Conv2D_12","conv2d_11_1/y"],"attr":{"T":{"type":"DT_FLOAT"}}},
          {"name":"add_10__xeno_compat__1","op":"Add","input":["activation_10","conv2d_11_1"],"attr":{"T":{"type":"DT_FLOAT"}}},
          {"name":"activation_11","op":"Relu","input":["add_10__xeno_compat__1"],"attr":{"T":{"type":"DT_FLOAT"}}},
          {"name":"depthwise_33","op":"DepthwiseConv2dNative","input":["activation_11","depthwise_33/filter_in"],"attr":{"padding":{"s":"U0FNRQ=="},"T":{"type":"DT_FLOAT"},"strides":{"list":{"i":["1","1","1","1"]}},"data_format":{"s":"TkhXQw=="},"dilations":{"list":{"i":["1","1","1","1"]}},"explicit_paddings":{"list":{}}}},
          {"name":"max_pooling2d_2","op":"MaxPool","input":["activation_11"],"attr":{"ksize":{"list":{"i":["1","2","2","1"]}},"T":{"type":"DT_FLOAT"},"data_format":{"s":"TkhXQw=="},"strides":{"list":{"i":["1","2","2","1"]}},"explicit_paddings":{"list":{}},"padding":{"s":"VkFMSUQ="}}},
          {"name":"depthwise_11","op":"DepthwiseConv2dNative","input":["activation_11","depthwise_11/filter_in"],"attr":{"explicit_paddings":{"list":{}},"strides":{"list":{"i":["1","2","2","1"]}},"padding":{"s":"U0FNRQ=="},"dilations":{"list":{"i":["1","1","1","1"]}},"data_format":{"s":"TkhXQw=="},"T":{"type":"DT_FLOAT"}}},
          {"name":"depthwise_26","op":"DepthwiseConv2dNative","input":["activation_11","depthwise_26/filter_in"],"attr":{"strides":{"list":{"i":["1","1","1","1"]}},"padding":{"s":"U0FNRQ=="},"data_format":{"s":"TkhXQw=="},"dilations":{"list":{"i":["1","1","1","1"]}},"explicit_paddings":{"list":{}},"T":{"type":"DT_FLOAT"}}},
          {"name":"Conv2D_35","op":"Conv2D","input":["depthwise_33","Conv2D_35/filter"],"device":"/device:CPU:0","attr":{"data_format":{"s":"TkhXQw=="},"padding":{"s":"VkFMSUQ="},"use_cudnn_on_gpu":{"b":true},"strides":{"list":{"i":["1","1","1","1"]}},"T":{"type":"DT_FLOAT"},"explicit_paddings":{"list":{}},"dilations":{"list":{"i":["1","1","1","1"]}}}},
          {"name":"channel_padding_2","op":"Pad","input":["max_pooling2d_2","channel_padding_2/paddings"],"attr":{"Tpaddings":{"type":"DT_INT32"},"T":{"type":"DT_FLOAT"}}},
          {"name":"Conv2D_13","op":"Conv2D","input":["depthwise_11","Conv2D_13/filter"],"device":"/device:CPU:0","attr":{"strides":{"list":{"i":["1","1","1","1"]}},"padding":{"s":"VkFMSUQ="},"use_cudnn_on_gpu":{"b":true},"data_format":{"s":"TkhXQw=="},"T":{"type":"DT_FLOAT"},"dilations":{"list":{"i":["1","1","1","1"]}},"explicit_paddings":{"list":{}}}},
          {"name":"Conv2D_28","op":"Conv2D","input":["depthwise_26","Conv2D_28/filter"],"device":"/device:CPU:0","attr":{"padding":{"s":"VkFMSUQ="},"T":{"type":"DT_FLOAT"},"explicit_paddings":{"list":{}},"use_cudnn_on_gpu":{"b":true},"dilations":{"list":{"i":["1","1","1","1"]}},"strides":{"list":{"i":["1","1","1","1"]}},"data_format":{"s":"TkhXQw=="}}},
          {"name":"conv2d_34_1","op":"Add","input":["Conv2D_35","conv2d_34_1/y"],"attr":{"T":{"type":"DT_FLOAT"}}},
          {"name":"conv2d_12_1","op":"Add","input":["Conv2D_13","conv2d_12_1/y"],"attr":{"T":{"type":"DT_FLOAT"}}},
          {"name":"conv2d_27_1","op":"Add","input":["Conv2D_28","conv2d_27_1/y"],"attr":{"T":{"type":"DT_FLOAT"}}},
          {"name":"activation_34","op":"Relu","input":["conv2d_34_1"],"attr":{"T":{"type":"DT_FLOAT"}}},
          {"name":"add_11__xeno_compat__1","op":"Add","input":["channel_padding_2","conv2d_12_1"],"attr":{"T":{"type":"DT_FLOAT"}}},
          {"name":"activation_27","op":"Relu","input":["conv2d_27_1"],"attr":{"T":{"type":"DT_FLOAT"}}},
          {"name":"activation_12","op":"Relu","input":["add_11__xeno_compat__1"],"attr":{"T":{"type":"DT_FLOAT"}}},
          {"name":"depthwise_12","op":"DepthwiseConv2dNative","input":["activation_12","depthwise_12/filter_in"],"attr":{"padding":{"s":"U0FNRQ=="},"explicit_paddings":{"list":{}},"dilations":{"list":{"i":["1","1","1","1"]}},"data_format":{"s":"TkhXQw=="},"T":{"type":"DT_FLOAT"},"strides":{"list":{"i":["1","1","1","1"]}}}},
          {"name":"Conv2D_14","op":"Conv2D","input":["depthwise_12","Conv2D_14/filter"],"device":"/device:CPU:0","attr":{"use_cudnn_on_gpu":{"b":true},"explicit_paddings":{"list":{}},"data_format":{"s":"TkhXQw=="},"dilations":{"list":{"i":["1","1","1","1"]}},"T":{"type":"DT_FLOAT"},"padding":{"s":"VkFMSUQ="},"strides":{"list":{"i":["1","1","1","1"]}}}},
          {"name":"conv2d_13_1","op":"Add","input":["Conv2D_14","conv2d_13_1/y"],"attr":{"T":{"type":"DT_FLOAT"}}},
          {"name":"add_12__xeno_compat__1","op":"Add","input":["activation_12","conv2d_13_1"],"attr":{"T":{"type":"DT_FLOAT"}}},
          {"name":"activation_13","op":"Relu","input":["add_12__xeno_compat__1"],"attr":{"T":{"type":"DT_FLOAT"}}},
          {"name":"depthwise_13","op":"DepthwiseConv2dNative","input":["activation_13","depthwise_13/filter_in"],"attr":{"explicit_paddings":{"list":{}},"data_format":{"s":"TkhXQw=="},"dilations":{"list":{"i":["1","1","1","1"]}},"strides":{"list":{"i":["1","1","1","1"]}},"T":{"type":"DT_FLOAT"},"padding":{"s":"U0FNRQ=="}}},
          {"name":"Conv2D_15","op":"Conv2D","input":["depthwise_13","Conv2D_15/filter"],"device":"/device:CPU:0","attr":{"strides":{"list":{"i":["1","1","1","1"]}},"use_cudnn_on_gpu":{"b":true},"padding":{"s":"VkFMSUQ="},"data_format":{"s":"TkhXQw=="},"T":{"type":"DT_FLOAT"},"dilations":{"list":{"i":["1","1","1","1"]}},"explicit_paddings":{"list":{}}}},
          {"name":"conv2d_14_1","op":"Add","input":["Conv2D_15","conv2d_14_1/y"],"attr":{"T":{"type":"DT_FLOAT"}}},
          {"name":"add_13__xeno_compat__1","op":"Add","input":["activation_13","conv2d_14_1"],"attr":{"T":{"type":"DT_FLOAT"}}},
          {"name":"activation_14","op":"Relu","input":["add_13__xeno_compat__1"],"attr":{"T":{"type":"DT_FLOAT"}}},
          {"name":"depthwise_14","op":"DepthwiseConv2dNative","input":["activation_14","depthwise_14/filter_in"],"attr":{"explicit_paddings":{"list":{}},"data_format":{"s":"TkhXQw=="},"padding":{"s":"U0FNRQ=="},"strides":{"list":{"i":["1","1","1","1"]}},"dilations":{"list":{"i":["1","1","1","1"]}},"T":{"type":"DT_FLOAT"}}},
          {"name":"Conv2D_16","op":"Conv2D","input":["depthwise_14","Conv2D_16/filter"],"device":"/device:CPU:0","attr":{"strides":{"list":{"i":["1","1","1","1"]}},"data_format":{"s":"TkhXQw=="},"explicit_paddings":{"list":{}},"T":{"type":"DT_FLOAT"},"padding":{"s":"VkFMSUQ="},"dilations":{"list":{"i":["1","1","1","1"]}},"use_cudnn_on_gpu":{"b":true}}},
          {"name":"conv2d_15_1","op":"Add","input":["Conv2D_16","conv2d_15_1/y"],"attr":{"T":{"type":"DT_FLOAT"}}},
          {"name":"add_14__xeno_compat__1","op":"Add","input":["activation_14","conv2d_15_1"],"attr":{"T":{"type":"DT_FLOAT"}}},
          {"name":"activation_15","op":"Relu","input":["add_14__xeno_compat__1"],"attr":{"T":{"type":"DT_FLOAT"}}},
          {"name":"depthwise_15","op":"DepthwiseConv2dNative","input":["activation_15","depthwise_15/filter_in"],"attr":{"T":{"type":"DT_FLOAT"},"dilations":{"list":{"i":["1","1","1","1"]}},"explicit_paddings":{"list":{}},"strides":{"list":{"i":["1","1","1","1"]}},"data_format":{"s":"TkhXQw=="},"padding":{"s":"U0FNRQ=="}}},
          {"name":"Conv2D_17","op":"Conv2D","input":["depthwise_15","Conv2D_17/filter"],"device":"/device:CPU:0","attr":{"strides":{"list":{"i":["1","1","1","1"]}},"T":{"type":"DT_FLOAT"},"explicit_paddings":{"list":{}},"use_cudnn_on_gpu":{"b":true},"data_format":{"s":"TkhXQw=="},"padding":{"s":"VkFMSUQ="},"dilations":{"list":{"i":["1","1","1","1"]}}}},
          {"name":"conv2d_16_1","op":"Add","input":["Conv2D_17","conv2d_16_1/y"],"attr":{"T":{"type":"DT_FLOAT"}}},
          {"name":"add_15__xeno_compat__1","op":"Add","input":["activation_15","conv2d_16_1"],"attr":{"T":{"type":"DT_FLOAT"}}},
          {"name":"activation_16","op":"Relu","input":["add_15__xeno_compat__1"],"attr":{"T":{"type":"DT_FLOAT"}}},
          {"name":"depthwise_16","op":"DepthwiseConv2dNative","input":["activation_16","depthwise_16/filter_in"],"attr":{"T":{"type":"DT_FLOAT"},"dilations":{"list":{"i":["1","1","1","1"]}},"data_format":{"s":"TkhXQw=="},"strides":{"list":{"i":["1","1","1","1"]}},"padding":{"s":"U0FNRQ=="},"explicit_paddings":{"list":{}}}},
          {"name":"Conv2D_18","op":"Conv2D","input":["depthwise_16","Conv2D_18/filter"],"device":"/device:CPU:0","attr":{"padding":{"s":"VkFMSUQ="},"dilations":{"list":{"i":["1","1","1","1"]}},"T":{"type":"DT_FLOAT"},"strides":{"list":{"i":["1","1","1","1"]}},"data_format":{"s":"TkhXQw=="},"explicit_paddings":{"list":{}},"use_cudnn_on_gpu":{"b":true}}},
          {"name":"conv2d_17_1","op":"Add","input":["Conv2D_18","conv2d_17_1/y"],"attr":{"T":{"type":"DT_FLOAT"}}},
          {"name":"add_16__xeno_compat__1","op":"Add","input":["activation_16","conv2d_17_1"],"attr":{"T":{"type":"DT_FLOAT"}}},
          {"name":"activation_17","op":"Relu","input":["add_16__xeno_compat__1"],"attr":{"T":{"type":"DT_FLOAT"}}},
          {"name":"depthwise_40","op":"DepthwiseConv2dNative","input":["activation_17","depthwise_40/filter_in"],"attr":{"T":{"type":"DT_FLOAT"},"strides":{"list":{"i":["1","1","1","1"]}},"dilations":{"list":{"i":["1","1","1","1"]}},"data_format":{"s":"TkhXQw=="},"padding":{"s":"U0FNRQ=="},"explicit_paddings":{"list":{}}}},
          {"name":"max_pooling2d_3","op":"MaxPool","input":["activation_17"],"attr":{"strides":{"list":{"i":["1","2","2","1"]}},"explicit_paddings":{"list":{}},"ksize":{"list":{"i":["1","2","2","1"]}},"T":{"type":"DT_FLOAT"},"data_format":{"s":"TkhXQw=="},"padding":{"s":"VkFMSUQ="}}},
          {"name":"depthwise_17","op":"DepthwiseConv2dNative","input":["activation_17","depthwise_17/filter_in"],"attr":{"padding":{"s":"U0FNRQ=="},"dilations":{"list":{"i":["1","1","1","1"]}},"data_format":{"s":"TkhXQw=="},"strides":{"list":{"i":["1","2","2","1"]}},"T":{"type":"DT_FLOAT"},"explicit_paddings":{"list":{}}}},
          {"name":"depthwise_25","op":"DepthwiseConv2dNative","input":["activation_17","depthwise_25/filter_in"],"attr":{"strides":{"list":{"i":["1","1","1","1"]}},"T":{"type":"DT_FLOAT"},"padding":{"s":"U0FNRQ=="},"data_format":{"s":"TkhXQw=="},"explicit_paddings":{"list":{}},"dilations":{"list":{"i":["1","1","1","1"]}}}},
          {"name":"Conv2D_42","op":"Conv2D","input":["depthwise_40","Conv2D_42/filter"],"device":"/device:CPU:0","attr":{"T":{"type":"DT_FLOAT"},"dilations":{"list":{"i":["1","1","1","1"]}},"explicit_paddings":{"list":{}},"data_format":{"s":"TkhXQw=="},"use_cudnn_on_gpu":{"b":true},"strides":{"list":{"i":["1","1","1","1"]}},"padding":{"s":"VkFMSUQ="}}},
          {"name":"channel_padding_3","op":"Pad","input":["max_pooling2d_3","channel_padding_3/paddings"],"attr":{"Tpaddings":{"type":"DT_INT32"},"T":{"type":"DT_FLOAT"}}},
          {"name":"Conv2D_19","op":"Conv2D","input":["depthwise_17","Conv2D_19/filter"],"device":"/device:CPU:0","attr":{"strides":{"list":{"i":["1","1","1","1"]}},"data_format":{"s":"TkhXQw=="},"padding":{"s":"VkFMSUQ="},"T":{"type":"DT_FLOAT"},"explicit_paddings":{"list":{}},"dilations":{"list":{"i":["1","1","1","1"]}},"use_cudnn_on_gpu":{"b":true}}},
          {"name":"Conv2D_27","op":"Conv2D","input":["depthwise_25","Conv2D_27/filter"],"device":"/device:CPU:0","attr":{"explicit_paddings":{"list":{}},"T":{"type":"DT_FLOAT"},"padding":{"s":"VkFMSUQ="},"data_format":{"s":"TkhXQw=="},"strides":{"list":{"i":["1","1","1","1"]}},"use_cudnn_on_gpu":{"b":true},"dilations":{"list":{"i":["1","1","1","1"]}}}},
          {"name":"conv2d_41_1","op":"Add","input":["Conv2D_42","conv2d_41_1/y"],"attr":{"T":{"type":"DT_FLOAT"}}},
          {"name":"conv2d_18_1","op":"Add","input":["Conv2D_19","conv2d_18_1/y"],"attr":{"T":{"type":"DT_FLOAT"}}},
          {"name":"conv2d_26_1","op":"Add","input":["Conv2D_27","conv2d_26_1/y"],"attr":{"T":{"type":"DT_FLOAT"}}},
          {"name":"activation_41","op":"Relu","input":["conv2d_41_1"],"attr":{"T":{"type":"DT_FLOAT"}}},
          {"name":"add_17__xeno_compat__1","op":"Add","input":["channel_padding_3","conv2d_18_1"],"attr":{"T":{"type":"DT_FLOAT"}}},
          {"name":"activation_26","op":"Relu","input":["conv2d_26_1"],"attr":{"T":{"type":"DT_FLOAT"}}},
          {"name":"activation_18","op":"Relu","input":["add_17__xeno_compat__1"],"attr":{"T":{"type":"DT_FLOAT"}}},
          {"name":"depthwise_18","op":"DepthwiseConv2dNative","input":["activation_18","depthwise_18/filter_in"],"attr":{"T":{"type":"DT_FLOAT"},"data_format":{"s":"TkhXQw=="},"dilations":{"list":{"i":["1","1","1","1"]}},"explicit_paddings":{"list":{}},"strides":{"list":{"i":["1","1","1","1"]}},"padding":{"s":"U0FNRQ=="}}},
          {"name":"Conv2D_20","op":"Conv2D","input":["depthwise_18","Conv2D_20/filter"],"device":"/device:CPU:0","attr":{"use_cudnn_on_gpu":{"b":true},"strides":{"list":{"i":["1","1","1","1"]}},"dilations":{"list":{"i":["1","1","1","1"]}},"T":{"type":"DT_FLOAT"},"explicit_paddings":{"list":{}},"padding":{"s":"VkFMSUQ="},"data_format":{"s":"TkhXQw=="}}},
          {"name":"conv2d_19_1","op":"Add","input":["Conv2D_20","conv2d_19_1/y"],"attr":{"T":{"type":"DT_FLOAT"}}},
          {"name":"add_18__xeno_compat__1","op":"Add","input":["activation_18","conv2d_19_1"],"attr":{"T":{"type":"DT_FLOAT"}}},
          {"name":"activation_19","op":"Relu","input":["add_18__xeno_compat__1"],"attr":{"T":{"type":"DT_FLOAT"}}},
          {"name":"depthwise_19","op":"DepthwiseConv2dNative","input":["activation_19","depthwise_19/filter_in"],"attr":{"T":{"type":"DT_FLOAT"},"padding":{"s":"U0FNRQ=="},"data_format":{"s":"TkhXQw=="},"dilations":{"list":{"i":["1","1","1","1"]}},"explicit_paddings":{"list":{}},"strides":{"list":{"i":["1","1","1","1"]}}}},
          {"name":"Conv2D_21","op":"Conv2D","input":["depthwise_19","Conv2D_21/filter"],"device":"/device:CPU:0","attr":{"T":{"type":"DT_FLOAT"},"dilations":{"list":{"i":["1","1","1","1"]}},"explicit_paddings":{"list":{}},"strides":{"list":{"i":["1","1","1","1"]}},"padding":{"s":"VkFMSUQ="},"use_cudnn_on_gpu":{"b":true},"data_format":{"s":"TkhXQw=="}}},
          {"name":"conv2d_20_1","op":"Add","input":["Conv2D_21","conv2d_20_1/y"],"attr":{"T":{"type":"DT_FLOAT"}}},
          {"name":"add_19__xeno_compat__1","op":"Add","input":["activation_19","conv2d_20_1"],"attr":{"T":{"type":"DT_FLOAT"}}},
          {"name":"activation_20","op":"Relu","input":["add_19__xeno_compat__1"],"attr":{"T":{"type":"DT_FLOAT"}}},
          {"name":"depthwise_20","op":"DepthwiseConv2dNative","input":["activation_20","depthwise_20/filter_in"],"attr":{"dilations":{"list":{"i":["1","1","1","1"]}},"strides":{"list":{"i":["1","1","1","1"]}},"T":{"type":"DT_FLOAT"},"explicit_paddings":{"list":{}},"data_format":{"s":"TkhXQw=="},"padding":{"s":"U0FNRQ=="}}},
          {"name":"Conv2D_22","op":"Conv2D","input":["depthwise_20","Conv2D_22/filter"],"device":"/device:CPU:0","attr":{"use_cudnn_on_gpu":{"b":true},"T":{"type":"DT_FLOAT"},"explicit_paddings":{"list":{}},"strides":{"list":{"i":["1","1","1","1"]}},"data_format":{"s":"TkhXQw=="},"dilations":{"list":{"i":["1","1","1","1"]}},"padding":{"s":"VkFMSUQ="}}},
          {"name":"conv2d_21_1","op":"Add","input":["Conv2D_22","conv2d_21_1/y"],"attr":{"T":{"type":"DT_FLOAT"}}},
          {"name":"add_20__xeno_compat__1","op":"Add","input":["activation_20","conv2d_21_1"],"attr":{"T":{"type":"DT_FLOAT"}}},
          {"name":"activation_21","op":"Relu","input":["add_20__xeno_compat__1"],"attr":{"T":{"type":"DT_FLOAT"}}},
          {"name":"depthwise_21","op":"DepthwiseConv2dNative","input":["activation_21","depthwise_21/filter_in"],"attr":{"T":{"type":"DT_FLOAT"},"data_format":{"s":"TkhXQw=="},"strides":{"list":{"i":["1","1","1","1"]}},"padding":{"s":"U0FNRQ=="},"dilations":{"list":{"i":["1","1","1","1"]}},"explicit_paddings":{"list":{}}}},
          {"name":"Conv2D_23","op":"Conv2D","input":["depthwise_21","Conv2D_23/filter"],"device":"/device:CPU:0","attr":{"data_format":{"s":"TkhXQw=="},"dilations":{"list":{"i":["1","1","1","1"]}},"explicit_paddings":{"list":{}},"use_cudnn_on_gpu":{"b":true},"padding":{"s":"VkFMSUQ="},"strides":{"list":{"i":["1","1","1","1"]}},"T":{"type":"DT_FLOAT"}}},
          {"name":"conv2d_22_1","op":"Add","input":["Conv2D_23","conv2d_22_1/y"],"attr":{"T":{"type":"DT_FLOAT"}}},
          {"name":"add_21__xeno_compat__1","op":"Add","input":["activation_21","conv2d_22_1"],"attr":{"T":{"type":"DT_FLOAT"}}},
          {"name":"activation_22","op":"Relu","input":["add_21__xeno_compat__1"],"attr":{"T":{"type":"DT_FLOAT"}}},
          {"name":"depthwise_22","op":"DepthwiseConv2dNative","input":["activation_22","depthwise_22/filter_in"],"attr":{"data_format":{"s":"TkhXQw=="},"explicit_paddings":{"list":{}},"T":{"type":"DT_FLOAT"},"strides":{"list":{"i":["1","1","1","1"]}},"padding":{"s":"U0FNRQ=="},"dilations":{"list":{"i":["1","1","1","1"]}}}},
          {"name":"Conv2D_24","op":"Conv2D","input":["depthwise_22","Conv2D_24/filter"],"device":"/device:CPU:0","attr":{"strides":{"list":{"i":["1","1","1","1"]}},"explicit_paddings":{"list":{}},"padding":{"s":"VkFMSUQ="},"data_format":{"s":"TkhXQw=="},"use_cudnn_on_gpu":{"b":true},"dilations":{"list":{"i":["1","1","1","1"]}},"T":{"type":"DT_FLOAT"}}},
          {"name":"conv2d_23_1","op":"Add","input":["Conv2D_24","conv2d_23_1/y"],"attr":{"T":{"type":"DT_FLOAT"}}},
          {"name":"add_22__xeno_compat__1","op":"Add","input":["activation_22","conv2d_23_1"],"attr":{"T":{"type":"DT_FLOAT"}}},
          {"name":"activation_23","op":"Relu","input":["add_22__xeno_compat__1"],"attr":{"T":{"type":"DT_FLOAT"}}},
          {"name":"depthwise_23","op":"DepthwiseConv2dNative","input":["activation_23","depthwise_23/filter_in"],"attr":{"explicit_paddings":{"list":{}},"dilations":{"list":{"i":["1","1","1","1"]}},"strides":{"list":{"i":["1","1","1","1"]}},"T":{"type":"DT_FLOAT"},"data_format":{"s":"TkhXQw=="},"padding":{"s":"U0FNRQ=="}}},
          {"name":"Conv2D_25","op":"Conv2D","input":["depthwise_23","Conv2D_25/filter"],"device":"/device:CPU:0","attr":{"data_format":{"s":"TkhXQw=="},"dilations":{"list":{"i":["1","1","1","1"]}},"explicit_paddings":{"list":{}},"padding":{"s":"VkFMSUQ="},"use_cudnn_on_gpu":{"b":true},"T":{"type":"DT_FLOAT"},"strides":{"list":{"i":["1","1","1","1"]}}}},
          {"name":"conv2d_24_1","op":"Add","input":["Conv2D_25","conv2d_24_1/y"],"attr":{"T":{"type":"DT_FLOAT"}}},
          {"name":"add_23__xeno_compat__1","op":"Add","input":["activation_23","conv2d_24_1"],"attr":{"T":{"type":"DT_FLOAT"}}},
          {"name":"activation_24","op":"Relu","input":["add_23__xeno_compat__1"],"attr":{"T":{"type":"DT_FLOAT"}}},
          {"name":"depthwise_48","op":"DepthwiseConv2dNative","input":["activation_24","depthwise_48/filter_in"],"attr":{"data_format":{"s":"TkhXQw=="},"padding":{"s":"U0FNRQ=="},"T":{"type":"DT_FLOAT"},"explicit_paddings":{"list":{}},"dilations":{"list":{"i":["1","1","1","1"]}},"strides":{"list":{"i":["1","1","1","1"]}}}},
          {"name":"depthwise_24","op":"DepthwiseConv2dNative","input":["activation_24","depthwise_24/filter_in"],"attr":{"explicit_paddings":{"list":{}},"dilations":{"list":{"i":["1","1","1","1"]}},"strides":{"list":{"i":["1","1","1","1"]}},"data_format":{"s":"TkhXQw=="},"padding":{"s":"U0FNRQ=="},"T":{"type":"DT_FLOAT"}}},
          {"name":"Conv2D_50","op":"Conv2D","input":["depthwise_48","Conv2D_50/filter"],"device":"/device:CPU:0","attr":{"padding":{"s":"VkFMSUQ="},"dilations":{"list":{"i":["1","1","1","1"]}},"explicit_paddings":{"list":{}},"T":{"type":"DT_FLOAT"},"strides":{"list":{"i":["1","1","1","1"]}},"data_format":{"s":"TkhXQw=="},"use_cudnn_on_gpu":{"b":true}}},
          {"name":"Conv2D_26","op":"Conv2D","input":["depthwise_24","Conv2D_26/filter"],"device":"/device:CPU:0","attr":{"dilations":{"list":{"i":["1","1","1","1"]}},"explicit_paddings":{"list":{}},"padding":{"s":"VkFMSUQ="},"strides":{"list":{"i":["1","1","1","1"]}},"use_cudnn_on_gpu":{"b":true},"data_format":{"s":"TkhXQw=="},"T":{"type":"DT_FLOAT"}}},
          {"name":"conv2d_49_1","op":"Add","input":["Conv2D_50","conv2d_49_1/y"],"attr":{"T":{"type":"DT_FLOAT"}}},
          {"name":"conv2d_25_1","op":"Add","input":["Conv2D_26","conv2d_25_1/y"],"attr":{"T":{"type":"DT_FLOAT"}}},
          {"name":"activation_49","op":"Relu","input":["conv2d_49_1"],"attr":{"T":{"type":"DT_FLOAT"}}},
          {"name":"activation_25","op":"Relu","input":["conv2d_25_1"],"attr":{"T":{"type":"DT_FLOAT"}}},
          {"name":"depthwise_conv2d_26_1/resize/ResizeBilinear","op":"ResizeBilinear","input":["activation_25","depthwise_conv2d_26_1/resize/size"],"attr":{"half_pixel_centers":{"b":true},"align_corners":{"b":false},"T":{"type":"DT_FLOAT"}}},
          {"name":"add_24__xeno_compat__1","op":"Add","input":["depthwise_conv2d_26_1/resize/ResizeBilinear","activation_26"],"attr":{"T":{"type":"DT_FLOAT"}}},
          {"name":"depthwise_conv2d_27_1/resize/ResizeBilinear","op":"ResizeBilinear","input":["add_24__xeno_compat__1","depthwise_conv2d_27_1/resize/size"],"attr":{"T":{"type":"DT_FLOAT"},"half_pixel_centers":{"b":true},"align_corners":{"b":false}}},
          {"name":"add_25__xeno_compat__1","op":"Add","input":["depthwise_conv2d_27_1/resize/ResizeBilinear","activation_27"],"attr":{"T":{"type":"DT_FLOAT"}}},
          {"name":"add_25__xeno_compat__1_1/resize/ResizeBilinear","op":"ResizeBilinear","input":["add_25__xeno_compat__1","add_25__xeno_compat__1_1/resize/size"],"attr":{"align_corners":{"b":false},"half_pixel_centers":{"b":true},"T":{"type":"DT_FLOAT"}}},
          {"name":"add_26__xeno_compat__1","op":"Add","input":["add_25__xeno_compat__1_1/resize/ResizeBilinear","activation_28"],"attr":{"T":{"type":"DT_FLOAT"}}},
          {"name":"max_pooling2d_4","op":"MaxPool","input":["add_26__xeno_compat__1"],"attr":{"T":{"type":"DT_FLOAT"},"padding":{"s":"VkFMSUQ="},"ksize":{"list":{"i":["1","2","2","1"]}},"data_format":{"s":"TkhXQw=="},"strides":{"list":{"i":["1","2","2","1"]}},"explicit_paddings":{"list":{}}}},
          {"name":"depthwise_28","op":"DepthwiseConv2dNative","input":["add_26__xeno_compat__1","depthwise_28/filter_in"],"attr":{"explicit_paddings":{"list":{}},"data_format":{"s":"TkhXQw=="},"padding":{"s":"U0FNRQ=="},"T":{"type":"DT_FLOAT"},"dilations":{"list":{"i":["1","1","1","1"]}},"strides":{"list":{"i":["1","2","2","1"]}}}},
          {"name":"depthwise_64","op":"DepthwiseConv2dNative","input":["add_26__xeno_compat__1","depthwise_64/filter_in"],"attr":{"padding":{"s":"U0FNRQ=="},"data_format":{"s":"TkhXQw=="},"explicit_paddings":{"list":{}},"dilations":{"list":{"i":["1","1","1","1"]}},"strides":{"list":{"i":["1","1","1","1"]}},"T":{"type":"DT_FLOAT"}}},
          {"name":"channel_padding_4","op":"Pad","input":["max_pooling2d_4","channel_padding_4/paddings"],"attr":{"T":{"type":"DT_FLOAT"},"Tpaddings":{"type":"DT_INT32"}}},
          {"name":"Conv2D_30","op":"Conv2D","input":["depthwise_28","Conv2D_30/filter"],"device":"/device:CPU:0","attr":{"padding":{"s":"VkFMSUQ="},"data_format":{"s":"TkhXQw=="},"explicit_paddings":{"list":{}},"use_cudnn_on_gpu":{"b":true},"strides":{"list":{"i":["1","1","1","1"]}},"T":{"type":"DT_FLOAT"},"dilations":{"list":{"i":["1","1","1","1"]}}}},
          {"name":"Conv2D_66","op":"Conv2D","input":["depthwise_64","Conv2D_66/filter"],"device":"/device:CPU:0","attr":{"padding":{"s":"VkFMSUQ="},"T":{"type":"DT_FLOAT"},"use_cudnn_on_gpu":{"b":true},"dilations":{"list":{"i":["1","1","1","1"]}},"data_format":{"s":"TkhXQw=="},"explicit_paddings":{"list":{}},"strides":{"list":{"i":["1","1","1","1"]}}}},
          {"name":"ArithmeticOptimizer/AddOpsRewrite_Leaf_1_add_27__xeno_compat__1","op":"AddN","input":["channel_padding_4","Conv2D_30"],"attr":{"_grappler_ArithmeticOptimizer_AddOpsRewriteStage":{"b":true},"N":{"i":"2"},"T":{"type":"DT_FLOAT"}}},
          {"name":"conv2d_67","op":"Add","input":["Conv2D_66","conv2d_67/y"],"attr":{"T":{"type":"DT_FLOAT"}}},
          {"name":"ArithmeticOptimizer/AddOpsRewrite_add_27__xeno_compat__1","op":"AddV2","input":["conv2d_29_1/y","ArithmeticOptimizer/AddOpsRewrite_Leaf_1_add_27__xeno_compat__1"],"attr":{"T":{"type":"DT_FLOAT"},"_grappler_ArithmeticOptimizer_AddOpsRewriteStage":{"b":true}}},
          {"name":"activation_67","op":"Relu","input":["conv2d_67"],"attr":{"T":{"type":"DT_FLOAT"}}},
          {"name":"activation_29","op":"Relu","input":["ArithmeticOptimizer/AddOpsRewrite_add_27__xeno_compat__1"],"attr":{"T":{"type":"DT_FLOAT"}}},
          {"name":"depthwise_conv2d_64_1/resize/ResizeBilinear","op":"ResizeBilinear","input":["activation_67","depthwise_conv2d_64_1/resize/size"],"attr":{"T":{"type":"DT_FLOAT"},"align_corners":{"b":false},"half_pixel_centers":{"b":true}}},
          {"name":"depthwise_29","op":"DepthwiseConv2dNative","input":["activation_29","depthwise_29/filter_in"],"attr":{"dilations":{"list":{"i":["1","1","1","1"]}},"explicit_paddings":{"list":{}},"strides":{"list":{"i":["1","1","1","1"]}},"padding":{"s":"U0FNRQ=="},"data_format":{"s":"TkhXQw=="},"T":{"type":"DT_FLOAT"}}},
          {"name":"add_64__xeno_compat__1","op":"Add","input":["depthwise_conv2d_64_1/resize/ResizeBilinear","activation_66"],"attr":{"T":{"type":"DT_FLOAT"}}},
          {"name":"Conv2D_31","op":"Conv2D","input":["depthwise_29","Conv2D_31/filter"],"device":"/device:CPU:0","attr":{"T":{"type":"DT_FLOAT"},"dilations":{"list":{"i":["1","1","1","1"]}},"padding":{"s":"VkFMSUQ="},"explicit_paddings":{"list":{}},"strides":{"list":{"i":["1","1","1","1"]}},"data_format":{"s":"TkhXQw=="},"use_cudnn_on_gpu":{"b":true}}},
          {"name":"depthwise_67","op":"DepthwiseConv2dNative","input":["add_64__xeno_compat__1","depthwise_67/filter_in"],"attr":{"padding":{"s":"U0FNRQ=="},"dilations":{"list":{"i":["1","1","1","1"]}},"data_format":{"s":"TkhXQw=="},"T":{"type":"DT_FLOAT"},"explicit_paddings":{"list":{}},"strides":{"list":{"i":["1","1","1","1"]}}}},
          {"name":"ArithmeticOptimizer/AddOpsRewrite_Leaf_1_add_28__xeno_compat__1","op":"AddN","input":["activation_29","Conv2D_31"],"attr":{"N":{"i":"2"},"T":{"type":"DT_FLOAT"},"_grappler_ArithmeticOptimizer_AddOpsRewriteStage":{"b":true}}},
          {"name":"Conv2D_70","op":"Conv2D","input":["depthwise_67","Conv2D_70/filter"],"device":"/device:CPU:0","attr":{"explicit_paddings":{"list":{}},"T":{"type":"DT_FLOAT"},"data_format":{"s":"TkhXQw=="},"strides":{"list":{"i":["1","1","1","1"]}},"dilations":{"list":{"i":["1","1","1","1"]}},"use_cudnn_on_gpu":{"b":true},"padding":{"s":"VkFMSUQ="}}},
          {"name":"ArithmeticOptimizer/AddOpsRewrite_add_28__xeno_compat__1","op":"AddV2","input":["conv2d_30_1/y","ArithmeticOptimizer/AddOpsRewrite_Leaf_1_add_28__xeno_compat__1"],"attr":{"T":{"type":"DT_FLOAT"},"_grappler_ArithmeticOptimizer_AddOpsRewriteStage":{"b":true}}},
          {"name":"conv2d_68_1","op":"Add","input":["Conv2D_70","conv2d_68_1/y"],"attr":{"T":{"type":"DT_FLOAT"}}},
          {"name":"activation_30","op":"Relu","input":["ArithmeticOptimizer/AddOpsRewrite_add_28__xeno_compat__1"],"attr":{"T":{"type":"DT_FLOAT"}}},
          {"name":"activation_68","op":"Relu","input":["conv2d_68_1"],"attr":{"T":{"type":"DT_FLOAT"}}},
          {"name":"depthwise_30","op":"DepthwiseConv2dNative","input":["activation_30","depthwise_30/filter_in"],"attr":{"explicit_paddings":{"list":{}},"data_format":{"s":"TkhXQw=="},"T":{"type":"DT_FLOAT"},"dilations":{"list":{"i":["1","1","1","1"]}},"padding":{"s":"U0FNRQ=="},"strides":{"list":{"i":["1","1","1","1"]}}}},
          {"name":"Conv2D_72","op":"Conv2D","input":["activation_68","Conv2D_72/filter"],"device":"/device:CPU:0","attr":{"data_format":{"s":"TkhXQw=="},"T":{"type":"DT_FLOAT"},"explicit_paddings":{"list":{}},"padding":{"s":"U0FNRQ=="},"use_cudnn_on_gpu":{"b":true},"dilations":{"list":{"i":["1","1","1","1"]}},"strides":{"list":{"i":["1","1","1","1"]}}}},
          {"name":"Conv2D_32","op":"Conv2D","input":["depthwise_30","Conv2D_32/filter"],"device":"/device:CPU:0","attr":{"data_format":{"s":"TkhXQw=="},"strides":{"list":{"i":["1","1","1","1"]}},"explicit_paddings":{"list":{}},"use_cudnn_on_gpu":{"b":true},"dilations":{"list":{"i":["1","1","1","1"]}},"padding":{"s":"VkFMSUQ="},"T":{"type":"DT_FLOAT"}}},
          {"name":"output_segmentation","op":"Add","input":["Conv2D_72","output_segmentation/y"],"attr":{"T":{"type":"DT_FLOAT"}}},
          {"name":"ArithmeticOptimizer/AddOpsRewrite_Leaf_1_add_29__xeno_compat__1","op":"AddN","input":["activation_30","Conv2D_32"],"attr":{"_grappler_ArithmeticOptimizer_AddOpsRewriteStage":{"b":true},"N":{"i":"2"},"T":{"type":"DT_FLOAT"}}},
          {"name":"ArithmeticOptimizer/AddOpsRewrite_add_29__xeno_compat__1","op":"AddV2","input":["conv2d_31_1/y","ArithmeticOptimizer/AddOpsRewrite_Leaf_1_add_29__xeno_compat__1"],"attr":{"T":{"type":"DT_FLOAT"},"_grappler_ArithmeticOptimizer_AddOpsRewriteStage":{"b":true}}},
          {"name":"activation_31","op":"Relu","input":["ArithmeticOptimizer/AddOpsRewrite_add_29__xeno_compat__1"],"attr":{"T":{"type":"DT_FLOAT"}}},
          {"name":"depthwise_31","op":"DepthwiseConv2dNative","input":["activation_31","depthwise_31/filter_in"],"attr":{"strides":{"list":{"i":["1","1","1","1"]}},"padding":{"s":"U0FNRQ=="},"data_format":{"s":"TkhXQw=="},"dilations":{"list":{"i":["1","1","1","1"]}},"T":{"type":"DT_FLOAT"},"explicit_paddings":{"list":{}}}},
          {"name":"Conv2D_33","op":"Conv2D","input":["depthwise_31","Conv2D_33/filter"],"device":"/device:CPU:0","attr":{"T":{"type":"DT_FLOAT"},"use_cudnn_on_gpu":{"b":true},"data_format":{"s":"TkhXQw=="},"strides":{"list":{"i":["1","1","1","1"]}},"padding":{"s":"VkFMSUQ="},"dilations":{"list":{"i":["1","1","1","1"]}},"explicit_paddings":{"list":{}}}},
          {"name":"ArithmeticOptimizer/AddOpsRewrite_Leaf_1_add_30__xeno_compat__1","op":"AddN","input":["activation_31","Conv2D_33"],"attr":{"N":{"i":"2"},"_grappler_ArithmeticOptimizer_AddOpsRewriteStage":{"b":true},"T":{"type":"DT_FLOAT"}}},
          {"name":"ArithmeticOptimizer/AddOpsRewrite_add_30__xeno_compat__1","op":"AddV2","input":["conv2d_32_1/y","ArithmeticOptimizer/AddOpsRewrite_Leaf_1_add_30__xeno_compat__1"],"attr":{"_grappler_ArithmeticOptimizer_AddOpsRewriteStage":{"b":true},"T":{"type":"DT_FLOAT"}}},
          {"name":"activation_32","op":"Relu","input":["ArithmeticOptimizer/AddOpsRewrite_add_30__xeno_compat__1"],"attr":{"T":{"type":"DT_FLOAT"}}},
          {"name":"depthwise_32","op":"DepthwiseConv2dNative","input":["activation_32","depthwise_32/filter_in"],"attr":{"data_format":{"s":"TkhXQw=="},"dilations":{"list":{"i":["1","1","1","1"]}},"T":{"type":"DT_FLOAT"},"explicit_paddings":{"list":{}},"padding":{"s":"U0FNRQ=="},"strides":{"list":{"i":["1","1","1","1"]}}}},
          {"name":"Conv2D_34","op":"Conv2D","input":["depthwise_32","Conv2D_34/filter"],"device":"/device:CPU:0","attr":{"dilations":{"list":{"i":["1","1","1","1"]}},"explicit_paddings":{"list":{}},"use_cudnn_on_gpu":{"b":true},"padding":{"s":"VkFMSUQ="},"data_format":{"s":"TkhXQw=="},"T":{"type":"DT_FLOAT"},"strides":{"list":{"i":["1","1","1","1"]}}}},
          {"name":"ArithmeticOptimizer/AddOpsRewrite_Leaf_1_add_31__xeno_compat__1","op":"AddN","input":["activation_32","Conv2D_34"],"attr":{"N":{"i":"2"},"T":{"type":"DT_FLOAT"},"_grappler_ArithmeticOptimizer_AddOpsRewriteStage":{"b":true}}},
          {"name":"ArithmeticOptimizer/AddOpsRewrite_add_31__xeno_compat__1","op":"AddV2","input":["conv2d_33_1/y","ArithmeticOptimizer/AddOpsRewrite_Leaf_1_add_31__xeno_compat__1"],"attr":{"T":{"type":"DT_FLOAT"},"_grappler_ArithmeticOptimizer_AddOpsRewriteStage":{"b":true}}},
          {"name":"activation_33","op":"Relu","input":["ArithmeticOptimizer/AddOpsRewrite_add_31__xeno_compat__1"],"attr":{"T":{"type":"DT_FLOAT"}}},
          {"name":"add_32__xeno_compat__1","op":"Add","input":["activation_33","activation_34"],"attr":{"T":{"type":"DT_FLOAT"}}},
          {"name":"max_pooling2d_5","op":"MaxPool","input":["add_32__xeno_compat__1"],"attr":{"T":{"type":"DT_FLOAT"},"data_format":{"s":"TkhXQw=="},"explicit_paddings":{"list":{}},"padding":{"s":"VkFMSUQ="},"ksize":{"list":{"i":["1","2","2","1"]}},"strides":{"list":{"i":["1","2","2","1"]}}}},
          {"name":"depthwise_34","op":"DepthwiseConv2dNative","input":["add_32__xeno_compat__1","depthwise_34/filter_in"],"attr":{"strides":{"list":{"i":["1","2","2","1"]}},"data_format":{"s":"TkhXQw=="},"explicit_paddings":{"list":{}},"dilations":{"list":{"i":["1","1","1","1"]}},"T":{"type":"DT_FLOAT"},"padding":{"s":"U0FNRQ=="}}},
          {"name":"channel_padding_5","op":"Pad","input":["max_pooling2d_5","channel_padding_5/paddings"],"attr":{"Tpaddings":{"type":"DT_INT32"},"T":{"type":"DT_FLOAT"}}},
          {"name":"Conv2D_36","op":"Conv2D","input":["depthwise_34","Conv2D_36/filter"],"device":"/device:CPU:0","attr":{"strides":{"list":{"i":["1","1","1","1"]}},"padding":{"s":"VkFMSUQ="},"use_cudnn_on_gpu":{"b":true},"T":{"type":"DT_FLOAT"},"explicit_paddings":{"list":{}},"data_format":{"s":"TkhXQw=="},"dilations":{"list":{"i":["1","1","1","1"]}}}},
          {"name":"ArithmeticOptimizer/AddOpsRewrite_Leaf_1_add_33__xeno_compat__1","op":"AddN","input":["channel_padding_5","Conv2D_36"],"attr":{"_grappler_ArithmeticOptimizer_AddOpsRewriteStage":{"b":true},"T":{"type":"DT_FLOAT"},"N":{"i":"2"}}},
          {"name":"ArithmeticOptimizer/AddOpsRewrite_add_33__xeno_compat__1","op":"AddV2","input":["conv2d_35_1/y","ArithmeticOptimizer/AddOpsRewrite_Leaf_1_add_33__xeno_compat__1"],"attr":{"T":{"type":"DT_FLOAT"},"_grappler_ArithmeticOptimizer_AddOpsRewriteStage":{"b":true}}},
          {"name":"activation_35","op":"Relu","input":["ArithmeticOptimizer/AddOpsRewrite_add_33__xeno_compat__1"],"attr":{"T":{"type":"DT_FLOAT"}}},
          {"name":"depthwise_35","op":"DepthwiseConv2dNative","input":["activation_35","depthwise_35/filter_in"],"attr":{"dilations":{"list":{"i":["1","1","1","1"]}},"strides":{"list":{"i":["1","1","1","1"]}},"explicit_paddings":{"list":{}},"padding":{"s":"U0FNRQ=="},"T":{"type":"DT_FLOAT"},"data_format":{"s":"TkhXQw=="}}},
          {"name":"Conv2D_37","op":"Conv2D","input":["depthwise_35","Conv2D_37/filter"],"device":"/device:CPU:0","attr":{"data_format":{"s":"TkhXQw=="},"use_cudnn_on_gpu":{"b":true},"padding":{"s":"VkFMSUQ="},"T":{"type":"DT_FLOAT"},"strides":{"list":{"i":["1","1","1","1"]}},"explicit_paddings":{"list":{}},"dilations":{"list":{"i":["1","1","1","1"]}}}},
          {"name":"ArithmeticOptimizer/AddOpsRewrite_Leaf_1_add_34__xeno_compat__1","op":"AddN","input":["activation_35","Conv2D_37"],"attr":{"_grappler_ArithmeticOptimizer_AddOpsRewriteStage":{"b":true},"N":{"i":"2"},"T":{"type":"DT_FLOAT"}}},
          {"name":"ArithmeticOptimizer/AddOpsRewrite_add_34__xeno_compat__1","op":"AddV2","input":["conv2d_36_1/y","ArithmeticOptimizer/AddOpsRewrite_Leaf_1_add_34__xeno_compat__1"],"attr":{"_grappler_ArithmeticOptimizer_AddOpsRewriteStage":{"b":true},"T":{"type":"DT_FLOAT"}}},
          {"name":"activation_36","op":"Relu","input":["ArithmeticOptimizer/AddOpsRewrite_add_34__xeno_compat__1"],"attr":{"T":{"type":"DT_FLOAT"}}},
          {"name":"depthwise_36","op":"DepthwiseConv2dNative","input":["activation_36","depthwise_36/filter_in"],"attr":{"T":{"type":"DT_FLOAT"},"data_format":{"s":"TkhXQw=="},"padding":{"s":"U0FNRQ=="},"dilations":{"list":{"i":["1","1","1","1"]}},"explicit_paddings":{"list":{}},"strides":{"list":{"i":["1","1","1","1"]}}}},
          {"name":"Conv2D_38","op":"Conv2D","input":["depthwise_36","Conv2D_38/filter"],"device":"/device:CPU:0","attr":{"data_format":{"s":"TkhXQw=="},"explicit_paddings":{"list":{}},"T":{"type":"DT_FLOAT"},"strides":{"list":{"i":["1","1","1","1"]}},"padding":{"s":"VkFMSUQ="},"use_cudnn_on_gpu":{"b":true},"dilations":{"list":{"i":["1","1","1","1"]}}}},
          {"name":"ArithmeticOptimizer/AddOpsRewrite_Leaf_1_add_35__xeno_compat__1","op":"AddN","input":["activation_36","Conv2D_38"],"attr":{"_grappler_ArithmeticOptimizer_AddOpsRewriteStage":{"b":true},"N":{"i":"2"},"T":{"type":"DT_FLOAT"}}},
          {"name":"ArithmeticOptimizer/AddOpsRewrite_add_35__xeno_compat__1","op":"AddV2","input":["conv2d_37_1/y","ArithmeticOptimizer/AddOpsRewrite_Leaf_1_add_35__xeno_compat__1"],"attr":{"_grappler_ArithmeticOptimizer_AddOpsRewriteStage":{"b":true},"T":{"type":"DT_FLOAT"}}},
          {"name":"activation_37","op":"Relu","input":["ArithmeticOptimizer/AddOpsRewrite_add_35__xeno_compat__1"],"attr":{"T":{"type":"DT_FLOAT"}}},
          {"name":"depthwise_37","op":"DepthwiseConv2dNative","input":["activation_37","depthwise_37/filter_in"],"attr":{"T":{"type":"DT_FLOAT"},"dilations":{"list":{"i":["1","1","1","1"]}},"data_format":{"s":"TkhXQw=="},"strides":{"list":{"i":["1","1","1","1"]}},"explicit_paddings":{"list":{}},"padding":{"s":"U0FNRQ=="}}},
          {"name":"Conv2D_39","op":"Conv2D","input":["depthwise_37","Conv2D_39/filter"],"device":"/device:CPU:0","attr":{"T":{"type":"DT_FLOAT"},"strides":{"list":{"i":["1","1","1","1"]}},"padding":{"s":"VkFMSUQ="},"data_format":{"s":"TkhXQw=="},"use_cudnn_on_gpu":{"b":true},"explicit_paddings":{"list":{}},"dilations":{"list":{"i":["1","1","1","1"]}}}},
          {"name":"ArithmeticOptimizer/AddOpsRewrite_Leaf_1_add_36__xeno_compat__1","op":"AddN","input":["activation_37","Conv2D_39"],"attr":{"T":{"type":"DT_FLOAT"},"N":{"i":"2"},"_grappler_ArithmeticOptimizer_AddOpsRewriteStage":{"b":true}}},
          {"name":"ArithmeticOptimizer/AddOpsRewrite_add_36__xeno_compat__1","op":"AddV2","input":["conv2d_38_1/y","ArithmeticOptimizer/AddOpsRewrite_Leaf_1_add_36__xeno_compat__1"],"attr":{"T":{"type":"DT_FLOAT"},"_grappler_ArithmeticOptimizer_AddOpsRewriteStage":{"b":true}}},
          {"name":"activation_38","op":"Relu","input":["ArithmeticOptimizer/AddOpsRewrite_add_36__xeno_compat__1"],"attr":{"T":{"type":"DT_FLOAT"}}},
          {"name":"depthwise_38","op":"DepthwiseConv2dNative","input":["activation_38","depthwise_38/filter_in"],"attr":{"strides":{"list":{"i":["1","1","1","1"]}},"padding":{"s":"U0FNRQ=="},"explicit_paddings":{"list":{}},"data_format":{"s":"TkhXQw=="},"dilations":{"list":{"i":["1","1","1","1"]}},"T":{"type":"DT_FLOAT"}}},
          {"name":"Conv2D_40","op":"Conv2D","input":["depthwise_38","Conv2D_40/filter"],"device":"/device:CPU:0","attr":{"dilations":{"list":{"i":["1","1","1","1"]}},"padding":{"s":"VkFMSUQ="},"strides":{"list":{"i":["1","1","1","1"]}},"use_cudnn_on_gpu":{"b":true},"T":{"type":"DT_FLOAT"},"explicit_paddings":{"list":{}},"data_format":{"s":"TkhXQw=="}}},
          {"name":"ArithmeticOptimizer/AddOpsRewrite_Leaf_1_add_37__xeno_compat__1","op":"AddN","input":["activation_38","Conv2D_40"],"attr":{"N":{"i":"2"},"_grappler_ArithmeticOptimizer_AddOpsRewriteStage":{"b":true},"T":{"type":"DT_FLOAT"}}},
          {"name":"ArithmeticOptimizer/AddOpsRewrite_add_37__xeno_compat__1","op":"AddV2","input":["conv2d_39_1/y","ArithmeticOptimizer/AddOpsRewrite_Leaf_1_add_37__xeno_compat__1"],"attr":{"T":{"type":"DT_FLOAT"},"_grappler_ArithmeticOptimizer_AddOpsRewriteStage":{"b":true}}},
          {"name":"activation_39","op":"Relu","input":["ArithmeticOptimizer/AddOpsRewrite_add_37__xeno_compat__1"],"attr":{"T":{"type":"DT_FLOAT"}}},
          {"name":"depthwise_39","op":"DepthwiseConv2dNative","input":["activation_39","depthwise_39/filter_in"],"attr":{"strides":{"list":{"i":["1","1","1","1"]}},"T":{"type":"DT_FLOAT"},"padding":{"s":"U0FNRQ=="},"explicit_paddings":{"list":{}},"data_format":{"s":"TkhXQw=="},"dilations":{"list":{"i":["1","1","1","1"]}}}},
          {"name":"Conv2D_41","op":"Conv2D","input":["depthwise_39","Conv2D_41/filter"],"device":"/device:CPU:0","attr":{"padding":{"s":"VkFMSUQ="},"strides":{"list":{"i":["1","1","1","1"]}},"explicit_paddings":{"list":{}},"data_format":{"s":"TkhXQw=="},"use_cudnn_on_gpu":{"b":true},"T":{"type":"DT_FLOAT"},"dilations":{"list":{"i":["1","1","1","1"]}}}},
          {"name":"ArithmeticOptimizer/AddOpsRewrite_Leaf_1_add_38__xeno_compat__1","op":"AddN","input":["activation_39","Conv2D_41"],"attr":{"T":{"type":"DT_FLOAT"},"_grappler_ArithmeticOptimizer_AddOpsRewriteStage":{"b":true},"N":{"i":"2"}}},
          {"name":"ArithmeticOptimizer/AddOpsRewrite_add_38__xeno_compat__1","op":"AddV2","input":["conv2d_40_1/y","ArithmeticOptimizer/AddOpsRewrite_Leaf_1_add_38__xeno_compat__1"],"attr":{"T":{"type":"DT_FLOAT"},"_grappler_ArithmeticOptimizer_AddOpsRewriteStage":{"b":true}}},
          {"name":"activation_40","op":"Relu","input":["ArithmeticOptimizer/AddOpsRewrite_add_38__xeno_compat__1"],"attr":{"T":{"type":"DT_FLOAT"}}},
          {"name":"add_39__xeno_compat__1","op":"Add","input":["activation_40","activation_41"],"attr":{"T":{"type":"DT_FLOAT"}}},
          {"name":"max_pooling2d_6","op":"MaxPool","input":["add_39__xeno_compat__1"],"attr":{"strides":{"list":{"i":["1","2","2","1"]}},"ksize":{"list":{"i":["1","2","2","1"]}},"data_format":{"s":"TkhXQw=="},"explicit_paddings":{"list":{}},"T":{"type":"DT_FLOAT"},"padding":{"s":"VkFMSUQ="}}},
          {"name":"depthwise_41","op":"DepthwiseConv2dNative","input":["add_39__xeno_compat__1","depthwise_41/filter_in"],"attr":{"explicit_paddings":{"list":{}},"padding":{"s":"U0FNRQ=="},"data_format":{"s":"TkhXQw=="},"strides":{"list":{"i":["1","2","2","1"]}},"T":{"type":"DT_FLOAT"},"dilations":{"list":{"i":["1","1","1","1"]}}}},
          {"name":"channel_padding_6","op":"Pad","input":["max_pooling2d_6","channel_padding_6/paddings"],"attr":{"T":{"type":"DT_FLOAT"},"Tpaddings":{"type":"DT_INT32"}}},
          {"name":"Conv2D_43","op":"Conv2D","input":["depthwise_41","Conv2D_43/filter"],"device":"/device:CPU:0","attr":{"padding":{"s":"VkFMSUQ="},"T":{"type":"DT_FLOAT"},"data_format":{"s":"TkhXQw=="},"use_cudnn_on_gpu":{"b":true},"explicit_paddings":{"list":{}},"strides":{"list":{"i":["1","1","1","1"]}},"dilations":{"list":{"i":["1","1","1","1"]}}}},
          {"name":"ArithmeticOptimizer/AddOpsRewrite_Leaf_1_add_40__xeno_compat__1","op":"AddN","input":["channel_padding_6","Conv2D_43"],"attr":{"N":{"i":"2"},"T":{"type":"DT_FLOAT"},"_grappler_ArithmeticOptimizer_AddOpsRewriteStage":{"b":true}}},
          {"name":"ArithmeticOptimizer/AddOpsRewrite_add_40__xeno_compat__1","op":"AddV2","input":["conv2d_42_1/y","ArithmeticOptimizer/AddOpsRewrite_Leaf_1_add_40__xeno_compat__1"],"attr":{"T":{"type":"DT_FLOAT"},"_grappler_ArithmeticOptimizer_AddOpsRewriteStage":{"b":true}}},
          {"name":"activation_42","op":"Relu","input":["ArithmeticOptimizer/AddOpsRewrite_add_40__xeno_compat__1"],"attr":{"T":{"type":"DT_FLOAT"}}},
          {"name":"depthwise_42","op":"DepthwiseConv2dNative","input":["activation_42","depthwise_42/filter_in"],"attr":{"explicit_paddings":{"list":{}},"dilations":{"list":{"i":["1","1","1","1"]}},"T":{"type":"DT_FLOAT"},"data_format":{"s":"TkhXQw=="},"strides":{"list":{"i":["1","1","1","1"]}},"padding":{"s":"U0FNRQ=="}}},
          {"name":"Conv2D_44","op":"Conv2D","input":["depthwise_42","Conv2D_44/filter"],"device":"/device:CPU:0","attr":{"dilations":{"list":{"i":["1","1","1","1"]}},"use_cudnn_on_gpu":{"b":true},"explicit_paddings":{"list":{}},"padding":{"s":"VkFMSUQ="},"data_format":{"s":"TkhXQw=="},"T":{"type":"DT_FLOAT"},"strides":{"list":{"i":["1","1","1","1"]}}}},
          {"name":"ArithmeticOptimizer/AddOpsRewrite_Leaf_1_add_41__xeno_compat__1","op":"AddN","input":["activation_42","Conv2D_44"],"attr":{"T":{"type":"DT_FLOAT"},"N":{"i":"2"},"_grappler_ArithmeticOptimizer_AddOpsRewriteStage":{"b":true}}},
          {"name":"ArithmeticOptimizer/AddOpsRewrite_add_41__xeno_compat__1","op":"AddV2","input":["conv2d_43_1/y","ArithmeticOptimizer/AddOpsRewrite_Leaf_1_add_41__xeno_compat__1"],"attr":{"T":{"type":"DT_FLOAT"},"_grappler_ArithmeticOptimizer_AddOpsRewriteStage":{"b":true}}},
          {"name":"activation_43","op":"Relu","input":["ArithmeticOptimizer/AddOpsRewrite_add_41__xeno_compat__1"],"attr":{"T":{"type":"DT_FLOAT"}}},
          {"name":"depthwise_43","op":"DepthwiseConv2dNative","input":["activation_43","depthwise_43/filter_in"],"attr":{"data_format":{"s":"TkhXQw=="},"explicit_paddings":{"list":{}},"T":{"type":"DT_FLOAT"},"padding":{"s":"U0FNRQ=="},"strides":{"list":{"i":["1","1","1","1"]}},"dilations":{"list":{"i":["1","1","1","1"]}}}},
          {"name":"Conv2D_45","op":"Conv2D","input":["depthwise_43","Conv2D_45/filter"],"device":"/device:CPU:0","attr":{"padding":{"s":"VkFMSUQ="},"dilations":{"list":{"i":["1","1","1","1"]}},"strides":{"list":{"i":["1","1","1","1"]}},"data_format":{"s":"TkhXQw=="},"use_cudnn_on_gpu":{"b":true},"T":{"type":"DT_FLOAT"},"explicit_paddings":{"list":{}}}},
          {"name":"ArithmeticOptimizer/AddOpsRewrite_Leaf_1_add_42__xeno_compat__1","op":"AddN","input":["activation_43","Conv2D_45"],"attr":{"T":{"type":"DT_FLOAT"},"_grappler_ArithmeticOptimizer_AddOpsRewriteStage":{"b":true},"N":{"i":"2"}}},
          {"name":"ArithmeticOptimizer/AddOpsRewrite_add_42__xeno_compat__1","op":"AddV2","input":["conv2d_44_1/y","ArithmeticOptimizer/AddOpsRewrite_Leaf_1_add_42__xeno_compat__1"],"attr":{"T":{"type":"DT_FLOAT"},"_grappler_ArithmeticOptimizer_AddOpsRewriteStage":{"b":true}}},
          {"name":"activation_44","op":"Relu","input":["ArithmeticOptimizer/AddOpsRewrite_add_42__xeno_compat__1"],"attr":{"T":{"type":"DT_FLOAT"}}},
          {"name":"depthwise_44","op":"DepthwiseConv2dNative","input":["activation_44","depthwise_44/filter_in"],"attr":{"T":{"type":"DT_FLOAT"},"dilations":{"list":{"i":["1","1","1","1"]}},"strides":{"list":{"i":["1","1","1","1"]}},"padding":{"s":"U0FNRQ=="},"data_format":{"s":"TkhXQw=="},"explicit_paddings":{"list":{}}}},
          {"name":"Conv2D_46","op":"Conv2D","input":["depthwise_44","Conv2D_46/filter"],"device":"/device:CPU:0","attr":{"data_format":{"s":"TkhXQw=="},"padding":{"s":"VkFMSUQ="},"strides":{"list":{"i":["1","1","1","1"]}},"use_cudnn_on_gpu":{"b":true},"explicit_paddings":{"list":{}},"T":{"type":"DT_FLOAT"},"dilations":{"list":{"i":["1","1","1","1"]}}}},
          {"name":"ArithmeticOptimizer/AddOpsRewrite_Leaf_1_add_43__xeno_compat__1","op":"AddN","input":["activation_44","Conv2D_46"],"attr":{"_grappler_ArithmeticOptimizer_AddOpsRewriteStage":{"b":true},"T":{"type":"DT_FLOAT"},"N":{"i":"2"}}},
          {"name":"ArithmeticOptimizer/AddOpsRewrite_add_43__xeno_compat__1","op":"AddV2","input":["conv2d_45_1/y","ArithmeticOptimizer/AddOpsRewrite_Leaf_1_add_43__xeno_compat__1"],"attr":{"_grappler_ArithmeticOptimizer_AddOpsRewriteStage":{"b":true},"T":{"type":"DT_FLOAT"}}},
          {"name":"activation_45","op":"Relu","input":["ArithmeticOptimizer/AddOpsRewrite_add_43__xeno_compat__1"],"attr":{"T":{"type":"DT_FLOAT"}}},
          {"name":"depthwise_45","op":"DepthwiseConv2dNative","input":["activation_45","depthwise_45/filter_in"],"attr":{"dilations":{"list":{"i":["1","1","1","1"]}},"data_format":{"s":"TkhXQw=="},"T":{"type":"DT_FLOAT"},"padding":{"s":"U0FNRQ=="},"explicit_paddings":{"list":{}},"strides":{"list":{"i":["1","1","1","1"]}}}},
          {"name":"Conv2D_47","op":"Conv2D","input":["depthwise_45","Conv2D_47/filter"],"device":"/device:CPU:0","attr":{"T":{"type":"DT_FLOAT"},"use_cudnn_on_gpu":{"b":true},"strides":{"list":{"i":["1","1","1","1"]}},"padding":{"s":"VkFMSUQ="},"explicit_paddings":{"list":{}},"data_format":{"s":"TkhXQw=="},"dilations":{"list":{"i":["1","1","1","1"]}}}},
          {"name":"ArithmeticOptimizer/AddOpsRewrite_Leaf_1_add_44__xeno_compat__1","op":"AddN","input":["activation_45","Conv2D_47"],"attr":{"_grappler_ArithmeticOptimizer_AddOpsRewriteStage":{"b":true},"N":{"i":"2"},"T":{"type":"DT_FLOAT"}}},
          {"name":"ArithmeticOptimizer/AddOpsRewrite_add_44__xeno_compat__1","op":"AddV2","input":["conv2d_46_1/y","ArithmeticOptimizer/AddOpsRewrite_Leaf_1_add_44__xeno_compat__1"],"attr":{"T":{"type":"DT_FLOAT"},"_grappler_ArithmeticOptimizer_AddOpsRewriteStage":{"b":true}}},
          {"name":"activation_46","op":"Relu","input":["ArithmeticOptimizer/AddOpsRewrite_add_44__xeno_compat__1"],"attr":{"T":{"type":"DT_FLOAT"}}},
          {"name":"depthwise_46","op":"DepthwiseConv2dNative","input":["activation_46","depthwise_46/filter_in"],"attr":{"explicit_paddings":{"list":{}},"padding":{"s":"U0FNRQ=="},"T":{"type":"DT_FLOAT"},"data_format":{"s":"TkhXQw=="},"dilations":{"list":{"i":["1","1","1","1"]}},"strides":{"list":{"i":["1","1","1","1"]}}}},
          {"name":"Conv2D_48","op":"Conv2D","input":["depthwise_46","Conv2D_48/filter"],"device":"/device:CPU:0","attr":{"data_format":{"s":"TkhXQw=="},"padding":{"s":"VkFMSUQ="},"strides":{"list":{"i":["1","1","1","1"]}},"explicit_paddings":{"list":{}},"use_cudnn_on_gpu":{"b":true},"T":{"type":"DT_FLOAT"},"dilations":{"list":{"i":["1","1","1","1"]}}}},
          {"name":"ArithmeticOptimizer/AddOpsRewrite_Leaf_1_add_45__xeno_compat__1","op":"AddN","input":["activation_46","Conv2D_48"],"attr":{"N":{"i":"2"},"_grappler_ArithmeticOptimizer_AddOpsRewriteStage":{"b":true},"T":{"type":"DT_FLOAT"}}},
          {"name":"ArithmeticOptimizer/AddOpsRewrite_add_45__xeno_compat__1","op":"AddV2","input":["conv2d_47_1/y","ArithmeticOptimizer/AddOpsRewrite_Leaf_1_add_45__xeno_compat__1"],"attr":{"T":{"type":"DT_FLOAT"},"_grappler_ArithmeticOptimizer_AddOpsRewriteStage":{"b":true}}},
          {"name":"activation_47","op":"Relu","input":["ArithmeticOptimizer/AddOpsRewrite_add_45__xeno_compat__1"],"attr":{"T":{"type":"DT_FLOAT"}}},
          {"name":"depthwise_47","op":"DepthwiseConv2dNative","input":["activation_47","depthwise_47/filter_in"],"attr":{"dilations":{"list":{"i":["1","1","1","1"]}},"data_format":{"s":"TkhXQw=="},"padding":{"s":"U0FNRQ=="},"T":{"type":"DT_FLOAT"},"strides":{"list":{"i":["1","1","1","1"]}},"explicit_paddings":{"list":{}}}},
          {"name":"Conv2D_49","op":"Conv2D","input":["depthwise_47","Conv2D_49/filter"],"device":"/device:CPU:0","attr":{"padding":{"s":"VkFMSUQ="},"data_format":{"s":"TkhXQw=="},"strides":{"list":{"i":["1","1","1","1"]}},"explicit_paddings":{"list":{}},"use_cudnn_on_gpu":{"b":true},"T":{"type":"DT_FLOAT"},"dilations":{"list":{"i":["1","1","1","1"]}}}},
          {"name":"ArithmeticOptimizer/AddOpsRewrite_Leaf_1_add_46__xeno_compat__1","op":"AddN","input":["activation_47","Conv2D_49"],"attr":{"_grappler_ArithmeticOptimizer_AddOpsRewriteStage":{"b":true},"T":{"type":"DT_FLOAT"},"N":{"i":"2"}}},
          {"name":"ArithmeticOptimizer/AddOpsRewrite_add_46__xeno_compat__1","op":"AddV2","input":["conv2d_48_1/y","ArithmeticOptimizer/AddOpsRewrite_Leaf_1_add_46__xeno_compat__1"],"attr":{"T":{"type":"DT_FLOAT"},"_grappler_ArithmeticOptimizer_AddOpsRewriteStage":{"b":true}}},
          {"name":"activation_48","op":"Relu","input":["ArithmeticOptimizer/AddOpsRewrite_add_46__xeno_compat__1"],"attr":{"T":{"type":"DT_FLOAT"}}},
          {"name":"add_47__xeno_compat__1","op":"Add","input":["activation_48","activation_49"],"attr":{"T":{"type":"DT_FLOAT"}}},
          {"name":"max_pooling2d_7","op":"MaxPool","input":["add_47__xeno_compat__1"],"attr":{"T":{"type":"DT_FLOAT"},"ksize":{"list":{"i":["1","2","2","1"]}},"data_format":{"s":"TkhXQw=="},"strides":{"list":{"i":["1","2","2","1"]}},"explicit_paddings":{"list":{}},"padding":{"s":"VkFMSUQ="}}},
          {"name":"depthwise_49","op":"DepthwiseConv2dNative","input":["add_47__xeno_compat__1","depthwise_49/filter_in"],"attr":{"dilations":{"list":{"i":["1","1","1","1"]}},"T":{"type":"DT_FLOAT"},"explicit_paddings":{"list":{}},"data_format":{"s":"TkhXQw=="},"strides":{"list":{"i":["1","2","2","1"]}},"padding":{"s":"U0FNRQ=="}}},
          {"name":"Conv2D_51","op":"Conv2D","input":["depthwise_49","Conv2D_51/filter"],"device":"/device:CPU:0","attr":{"T":{"type":"DT_FLOAT"},"explicit_paddings":{"list":{}},"data_format":{"s":"TkhXQw=="},"dilations":{"list":{"i":["1","1","1","1"]}},"strides":{"list":{"i":["1","1","1","1"]}},"padding":{"s":"VkFMSUQ="},"use_cudnn_on_gpu":{"b":true}}},
          {"name":"ArithmeticOptimizer/AddOpsRewrite_Leaf_1_add_48__xeno_compat__1","op":"AddN","input":["max_pooling2d_7","Conv2D_51"],"attr":{"T":{"type":"DT_FLOAT"},"_grappler_ArithmeticOptimizer_AddOpsRewriteStage":{"b":true},"N":{"i":"2"}}},
          {"name":"ArithmeticOptimizer/AddOpsRewrite_add_48__xeno_compat__1","op":"AddV2","input":["conv2d_50_1/y","ArithmeticOptimizer/AddOpsRewrite_Leaf_1_add_48__xeno_compat__1"],"attr":{"T":{"type":"DT_FLOAT"},"_grappler_ArithmeticOptimizer_AddOpsRewriteStage":{"b":true}}},
          {"name":"activation_50","op":"Relu","input":["ArithmeticOptimizer/AddOpsRewrite_add_48__xeno_compat__1"],"attr":{"T":{"type":"DT_FLOAT"}}},
          {"name":"depthwise_50","op":"DepthwiseConv2dNative","input":["activation_50","depthwise_50/filter_in"],"attr":{"explicit_paddings":{"list":{}},"data_format":{"s":"TkhXQw=="},"dilations":{"list":{"i":["1","1","1","1"]}},"padding":{"s":"U0FNRQ=="},"strides":{"list":{"i":["1","1","1","1"]}},"T":{"type":"DT_FLOAT"}}},
          {"name":"Conv2D_52","op":"Conv2D","input":["depthwise_50","Conv2D_52/filter"],"device":"/device:CPU:0","attr":{"strides":{"list":{"i":["1","1","1","1"]}},"padding":{"s":"VkFMSUQ="},"use_cudnn_on_gpu":{"b":true},"T":{"type":"DT_FLOAT"},"dilations":{"list":{"i":["1","1","1","1"]}},"data_format":{"s":"TkhXQw=="},"explicit_paddings":{"list":{}}}},
          {"name":"ArithmeticOptimizer/AddOpsRewrite_Leaf_1_add_49__xeno_compat__1","op":"AddN","input":["activation_50","Conv2D_52"],"attr":{"N":{"i":"2"},"T":{"type":"DT_FLOAT"},"_grappler_ArithmeticOptimizer_AddOpsRewriteStage":{"b":true}}},
          {"name":"ArithmeticOptimizer/AddOpsRewrite_add_49__xeno_compat__1","op":"AddV2","input":["conv2d_51_1/y","ArithmeticOptimizer/AddOpsRewrite_Leaf_1_add_49__xeno_compat__1"],"attr":{"_grappler_ArithmeticOptimizer_AddOpsRewriteStage":{"b":true},"T":{"type":"DT_FLOAT"}}},
          {"name":"activation_51","op":"Relu","input":["ArithmeticOptimizer/AddOpsRewrite_add_49__xeno_compat__1"],"attr":{"T":{"type":"DT_FLOAT"}}},
          {"name":"depthwise_51","op":"DepthwiseConv2dNative","input":["activation_51","depthwise_51/filter_in"],"attr":{"explicit_paddings":{"list":{}},"T":{"type":"DT_FLOAT"},"padding":{"s":"U0FNRQ=="},"dilations":{"list":{"i":["1","1","1","1"]}},"strides":{"list":{"i":["1","1","1","1"]}},"data_format":{"s":"TkhXQw=="}}},
          {"name":"Conv2D_53","op":"Conv2D","input":["depthwise_51","Conv2D_53/filter"],"device":"/device:CPU:0","attr":{"explicit_paddings":{"list":{}},"strides":{"list":{"i":["1","1","1","1"]}},"data_format":{"s":"TkhXQw=="},"use_cudnn_on_gpu":{"b":true},"padding":{"s":"VkFMSUQ="},"dilations":{"list":{"i":["1","1","1","1"]}},"T":{"type":"DT_FLOAT"}}},
          {"name":"ArithmeticOptimizer/AddOpsRewrite_Leaf_1_add_50__xeno_compat__1","op":"AddN","input":["activation_51","Conv2D_53"],"attr":{"T":{"type":"DT_FLOAT"},"N":{"i":"2"},"_grappler_ArithmeticOptimizer_AddOpsRewriteStage":{"b":true}}},
          {"name":"ArithmeticOptimizer/AddOpsRewrite_add_50__xeno_compat__1","op":"AddV2","input":["conv2d_52_1/y","ArithmeticOptimizer/AddOpsRewrite_Leaf_1_add_50__xeno_compat__1"],"attr":{"_grappler_ArithmeticOptimizer_AddOpsRewriteStage":{"b":true},"T":{"type":"DT_FLOAT"}}},
          {"name":"activation_52","op":"Relu","input":["ArithmeticOptimizer/AddOpsRewrite_add_50__xeno_compat__1"],"attr":{"T":{"type":"DT_FLOAT"}}},
          {"name":"depthwise_52","op":"DepthwiseConv2dNative","input":["activation_52","depthwise_52/filter_in"],"attr":{"dilations":{"list":{"i":["1","1","1","1"]}},"padding":{"s":"U0FNRQ=="},"data_format":{"s":"TkhXQw=="},"strides":{"list":{"i":["1","1","1","1"]}},"T":{"type":"DT_FLOAT"},"explicit_paddings":{"list":{}}}},
          {"name":"Conv2D_54","op":"Conv2D","input":["depthwise_52","Conv2D_54/filter"],"device":"/device:CPU:0","attr":{"strides":{"list":{"i":["1","1","1","1"]}},"padding":{"s":"VkFMSUQ="},"dilations":{"list":{"i":["1","1","1","1"]}},"T":{"type":"DT_FLOAT"},"explicit_paddings":{"list":{}},"data_format":{"s":"TkhXQw=="},"use_cudnn_on_gpu":{"b":true}}},
          {"name":"ArithmeticOptimizer/AddOpsRewrite_Leaf_1_add_51__xeno_compat__1","op":"AddN","input":["activation_52","Conv2D_54"],"attr":{"T":{"type":"DT_FLOAT"},"N":{"i":"2"},"_grappler_ArithmeticOptimizer_AddOpsRewriteStage":{"b":true}}},
          {"name":"ArithmeticOptimizer/AddOpsRewrite_add_51__xeno_compat__1","op":"AddV2","input":["conv2d_53_1/y","ArithmeticOptimizer/AddOpsRewrite_Leaf_1_add_51__xeno_compat__1"],"attr":{"_grappler_ArithmeticOptimizer_AddOpsRewriteStage":{"b":true},"T":{"type":"DT_FLOAT"}}},
          {"name":"activation_53","op":"Relu","input":["ArithmeticOptimizer/AddOpsRewrite_add_51__xeno_compat__1"],"attr":{"T":{"type":"DT_FLOAT"}}},
          {"name":"depthwise_53","op":"DepthwiseConv2dNative","input":["activation_53","depthwise_53/filter_in"],"attr":{"explicit_paddings":{"list":{}},"strides":{"list":{"i":["1","1","1","1"]}},"data_format":{"s":"TkhXQw=="},"padding":{"s":"U0FNRQ=="},"dilations":{"list":{"i":["1","1","1","1"]}},"T":{"type":"DT_FLOAT"}}},
          {"name":"Conv2D_55","op":"Conv2D","input":["depthwise_53","Conv2D_55/filter"],"device":"/device:CPU:0","attr":{"explicit_paddings":{"list":{}},"dilations":{"list":{"i":["1","1","1","1"]}},"T":{"type":"DT_FLOAT"},"use_cudnn_on_gpu":{"b":true},"padding":{"s":"VkFMSUQ="},"data_format":{"s":"TkhXQw=="},"strides":{"list":{"i":["1","1","1","1"]}}}},
          {"name":"ArithmeticOptimizer/AddOpsRewrite_Leaf_1_add_52__xeno_compat__1","op":"AddN","input":["activation_53","Conv2D_55"],"attr":{"N":{"i":"2"},"T":{"type":"DT_FLOAT"},"_grappler_ArithmeticOptimizer_AddOpsRewriteStage":{"b":true}}},
          {"name":"ArithmeticOptimizer/AddOpsRewrite_add_52__xeno_compat__1","op":"AddV2","input":["conv2d_54_1/y","ArithmeticOptimizer/AddOpsRewrite_Leaf_1_add_52__xeno_compat__1"],"attr":{"_grappler_ArithmeticOptimizer_AddOpsRewriteStage":{"b":true},"T":{"type":"DT_FLOAT"}}},
          {"name":"activation_54","op":"Relu","input":["ArithmeticOptimizer/AddOpsRewrite_add_52__xeno_compat__1"],"attr":{"T":{"type":"DT_FLOAT"}}},
          {"name":"depthwise_54","op":"DepthwiseConv2dNative","input":["activation_54","depthwise_54/filter_in"],"attr":{"dilations":{"list":{"i":["1","1","1","1"]}},"strides":{"list":{"i":["1","1","1","1"]}},"data_format":{"s":"TkhXQw=="},"explicit_paddings":{"list":{}},"padding":{"s":"U0FNRQ=="},"T":{"type":"DT_FLOAT"}}},
          {"name":"Conv2D_56","op":"Conv2D","input":["depthwise_54","Conv2D_56/filter"],"device":"/device:CPU:0","attr":{"strides":{"list":{"i":["1","1","1","1"]}},"data_format":{"s":"TkhXQw=="},"dilations":{"list":{"i":["1","1","1","1"]}},"use_cudnn_on_gpu":{"b":true},"explicit_paddings":{"list":{}},"padding":{"s":"VkFMSUQ="},"T":{"type":"DT_FLOAT"}}},
          {"name":"ArithmeticOptimizer/AddOpsRewrite_Leaf_1_add_53__xeno_compat__1","op":"AddN","input":["activation_54","Conv2D_56"],"attr":{"_grappler_ArithmeticOptimizer_AddOpsRewriteStage":{"b":true},"N":{"i":"2"},"T":{"type":"DT_FLOAT"}}},
          {"name":"ArithmeticOptimizer/AddOpsRewrite_add_53__xeno_compat__1","op":"AddV2","input":["conv2d_55_1/y","ArithmeticOptimizer/AddOpsRewrite_Leaf_1_add_53__xeno_compat__1"],"attr":{"T":{"type":"DT_FLOAT"},"_grappler_ArithmeticOptimizer_AddOpsRewriteStage":{"b":true}}},
          {"name":"activation_55","op":"Relu","input":["ArithmeticOptimizer/AddOpsRewrite_add_53__xeno_compat__1"],"attr":{"T":{"type":"DT_FLOAT"}}},
          {"name":"depthwise_55","op":"DepthwiseConv2dNative","input":["activation_55","depthwise_55/filter_in"],"attr":{"data_format":{"s":"TkhXQw=="},"dilations":{"list":{"i":["1","1","1","1"]}},"strides":{"list":{"i":["1","1","1","1"]}},"T":{"type":"DT_FLOAT"},"explicit_paddings":{"list":{}},"padding":{"s":"U0FNRQ=="}}},
          {"name":"Conv2D_57","op":"Conv2D","input":["depthwise_55","Conv2D_57/filter"],"device":"/device:CPU:0","attr":{"dilations":{"list":{"i":["1","1","1","1"]}},"T":{"type":"DT_FLOAT"},"padding":{"s":"VkFMSUQ="},"explicit_paddings":{"list":{}},"data_format":{"s":"TkhXQw=="},"strides":{"list":{"i":["1","1","1","1"]}},"use_cudnn_on_gpu":{"b":true}}},
          {"name":"ArithmeticOptimizer/AddOpsRewrite_Leaf_1_add_54__xeno_compat__1","op":"AddN","input":["activation_55","Conv2D_57"],"attr":{"_grappler_ArithmeticOptimizer_AddOpsRewriteStage":{"b":true},"N":{"i":"2"},"T":{"type":"DT_FLOAT"}}},
          {"name":"ArithmeticOptimizer/AddOpsRewrite_add_54__xeno_compat__1","op":"AddV2","input":["conv2d_56_1/y","ArithmeticOptimizer/AddOpsRewrite_Leaf_1_add_54__xeno_compat__1"],"attr":{"T":{"type":"DT_FLOAT"},"_grappler_ArithmeticOptimizer_AddOpsRewriteStage":{"b":true}}},
          {"name":"activation_56","op":"Relu","input":["ArithmeticOptimizer/AddOpsRewrite_add_54__xeno_compat__1"],"attr":{"T":{"type":"DT_FLOAT"}}},
          {"name":"depthwise_56","op":"DepthwiseConv2dNative","input":["activation_56","depthwise_56/filter_in"],"attr":{"data_format":{"s":"TkhXQw=="},"explicit_paddings":{"list":{}},"strides":{"list":{"i":["1","1","1","1"]}},"dilations":{"list":{"i":["1","1","1","1"]}},"T":{"type":"DT_FLOAT"},"padding":{"s":"U0FNRQ=="}}},
          {"name":"Conv2D_58","op":"Conv2D","input":["depthwise_56","Conv2D_58/filter"],"device":"/device:CPU:0","attr":{"data_format":{"s":"TkhXQw=="},"strides":{"list":{"i":["1","1","1","1"]}},"explicit_paddings":{"list":{}},"T":{"type":"DT_FLOAT"},"padding":{"s":"VkFMSUQ="},"dilations":{"list":{"i":["1","1","1","1"]}},"use_cudnn_on_gpu":{"b":true}}},
          {"name":"ArithmeticOptimizer/AddOpsRewrite_Leaf_1_add_55__xeno_compat__1","op":"AddN","input":["activation_56","Conv2D_58"],"attr":{"T":{"type":"DT_FLOAT"},"N":{"i":"2"},"_grappler_ArithmeticOptimizer_AddOpsRewriteStage":{"b":true}}},
          {"name":"ArithmeticOptimizer/AddOpsRewrite_add_55__xeno_compat__1","op":"AddV2","input":["conv2d_57_1/y","ArithmeticOptimizer/AddOpsRewrite_Leaf_1_add_55__xeno_compat__1"],"attr":{"_grappler_ArithmeticOptimizer_AddOpsRewriteStage":{"b":true},"T":{"type":"DT_FLOAT"}}},
          {"name":"activation_57","op":"Relu","input":["ArithmeticOptimizer/AddOpsRewrite_add_55__xeno_compat__1"],"attr":{"T":{"type":"DT_FLOAT"}}},
          {"name":"max_pooling2d_8","op":"MaxPool","input":["activation_57"],"attr":{"data_format":{"s":"TkhXQw=="},"T":{"type":"DT_FLOAT"},"strides":{"list":{"i":["1","2","2","1"]}},"padding":{"s":"VkFMSUQ="},"ksize":{"list":{"i":["1","2","2","1"]}},"explicit_paddings":{"list":{}}}},
          {"name":"depthwise_57","op":"DepthwiseConv2dNative","input":["activation_57","depthwise_57/filter_in"],"attr":{"strides":{"list":{"i":["1","2","2","1"]}},"data_format":{"s":"TkhXQw=="},"T":{"type":"DT_FLOAT"},"explicit_paddings":{"list":{}},"dilations":{"list":{"i":["1","1","1","1"]}},"padding":{"s":"U0FNRQ=="}}},
          {"name":"Conv2D_59","op":"Conv2D","input":["depthwise_57","Conv2D_59/filter"],"device":"/device:CPU:0","attr":{"dilations":{"list":{"i":["1","1","1","1"]}},"strides":{"list":{"i":["1","1","1","1"]}},"explicit_paddings":{"list":{}},"data_format":{"s":"TkhXQw=="},"padding":{"s":"VkFMSUQ="},"T":{"type":"DT_FLOAT"},"use_cudnn_on_gpu":{"b":true}}},
          {"name":"ArithmeticOptimizer/AddOpsRewrite_Leaf_1_add_56__xeno_compat__1","op":"AddN","input":["max_pooling2d_8","Conv2D_59"],"attr":{"_grappler_ArithmeticOptimizer_AddOpsRewriteStage":{"b":true},"T":{"type":"DT_FLOAT"},"N":{"i":"2"}}},
          {"name":"ArithmeticOptimizer/AddOpsRewrite_add_56__xeno_compat__1","op":"AddV2","input":["conv2d_58_1/y","ArithmeticOptimizer/AddOpsRewrite_Leaf_1_add_56__xeno_compat__1"],"attr":{"T":{"type":"DT_FLOAT"},"_grappler_ArithmeticOptimizer_AddOpsRewriteStage":{"b":true}}},
          {"name":"activation_58","op":"Relu","input":["ArithmeticOptimizer/AddOpsRewrite_add_56__xeno_compat__1"],"attr":{"T":{"type":"DT_FLOAT"}}},
          {"name":"depthwise_58","op":"DepthwiseConv2dNative","input":["activation_58","depthwise_58/filter_in"],"attr":{"dilations":{"list":{"i":["1","1","1","1"]}},"strides":{"list":{"i":["1","1","1","1"]}},"T":{"type":"DT_FLOAT"},"data_format":{"s":"TkhXQw=="},"explicit_paddings":{"list":{}},"padding":{"s":"U0FNRQ=="}}},
          {"name":"Conv2D_60","op":"Conv2D","input":["depthwise_58","Conv2D_60/filter"],"device":"/device:CPU:0","attr":{"dilations":{"list":{"i":["1","1","1","1"]}},"explicit_paddings":{"list":{}},"padding":{"s":"VkFMSUQ="},"use_cudnn_on_gpu":{"b":true},"strides":{"list":{"i":["1","1","1","1"]}},"data_format":{"s":"TkhXQw=="},"T":{"type":"DT_FLOAT"}}},
          {"name":"ArithmeticOptimizer/AddOpsRewrite_Leaf_1_add_57__xeno_compat__1","op":"AddN","input":["activation_58","Conv2D_60"],"attr":{"T":{"type":"DT_FLOAT"},"N":{"i":"2"},"_grappler_ArithmeticOptimizer_AddOpsRewriteStage":{"b":true}}},
          {"name":"ArithmeticOptimizer/AddOpsRewrite_add_57__xeno_compat__1","op":"AddV2","input":["conv2d_59_1/y","ArithmeticOptimizer/AddOpsRewrite_Leaf_1_add_57__xeno_compat__1"],"attr":{"T":{"type":"DT_FLOAT"},"_grappler_ArithmeticOptimizer_AddOpsRewriteStage":{"b":true}}},
          {"name":"activation_59","op":"Relu","input":["ArithmeticOptimizer/AddOpsRewrite_add_57__xeno_compat__1"],"attr":{"T":{"type":"DT_FLOAT"}}},
          {"name":"depthwise_59","op":"DepthwiseConv2dNative","input":["activation_59","depthwise_59/filter_in"],"attr":{"T":{"type":"DT_FLOAT"},"strides":{"list":{"i":["1","1","1","1"]}},"dilations":{"list":{"i":["1","1","1","1"]}},"padding":{"s":"U0FNRQ=="},"data_format":{"s":"TkhXQw=="},"explicit_paddings":{"list":{}}}},
          {"name":"Conv2D_61","op":"Conv2D","input":["depthwise_59","Conv2D_61/filter"],"device":"/device:CPU:0","attr":{"use_cudnn_on_gpu":{"b":true},"dilations":{"list":{"i":["1","1","1","1"]}},"padding":{"s":"VkFMSUQ="},"explicit_paddings":{"list":{}},"strides":{"list":{"i":["1","1","1","1"]}},"data_format":{"s":"TkhXQw=="},"T":{"type":"DT_FLOAT"}}},
          {"name":"ArithmeticOptimizer/AddOpsRewrite_Leaf_1_add_58__xeno_compat__1","op":"AddN","input":["activation_59","Conv2D_61"],"attr":{"_grappler_ArithmeticOptimizer_AddOpsRewriteStage":{"b":true},"N":{"i":"2"},"T":{"type":"DT_FLOAT"}}},
          {"name":"ArithmeticOptimizer/AddOpsRewrite_add_58__xeno_compat__1","op":"AddV2","input":["conv2d_60_1/y","ArithmeticOptimizer/AddOpsRewrite_Leaf_1_add_58__xeno_compat__1"],"attr":{"_grappler_ArithmeticOptimizer_AddOpsRewriteStage":{"b":true},"T":{"type":"DT_FLOAT"}}},
          {"name":"activation_60","op":"Relu","input":["ArithmeticOptimizer/AddOpsRewrite_add_58__xeno_compat__1"],"attr":{"T":{"type":"DT_FLOAT"}}},
          {"name":"depthwise_60","op":"DepthwiseConv2dNative","input":["activation_60","depthwise_60/filter_in"],"attr":{"explicit_paddings":{"list":{}},"data_format":{"s":"TkhXQw=="},"strides":{"list":{"i":["1","1","1","1"]}},"dilations":{"list":{"i":["1","1","1","1"]}},"T":{"type":"DT_FLOAT"},"padding":{"s":"U0FNRQ=="}}},
          {"name":"Conv2D_62","op":"Conv2D","input":["depthwise_60","Conv2D_62/filter"],"device":"/device:CPU:0","attr":{"T":{"type":"DT_FLOAT"},"strides":{"list":{"i":["1","1","1","1"]}},"dilations":{"list":{"i":["1","1","1","1"]}},"use_cudnn_on_gpu":{"b":true},"explicit_paddings":{"list":{}},"data_format":{"s":"TkhXQw=="},"padding":{"s":"VkFMSUQ="}}},
          {"name":"ArithmeticOptimizer/AddOpsRewrite_Leaf_1_add_59__xeno_compat__1","op":"AddN","input":["activation_60","Conv2D_62"],"attr":{"_grappler_ArithmeticOptimizer_AddOpsRewriteStage":{"b":true},"N":{"i":"2"},"T":{"type":"DT_FLOAT"}}},
          {"name":"ArithmeticOptimizer/AddOpsRewrite_add_59__xeno_compat__1","op":"AddV2","input":["conv2d_61_1/y","ArithmeticOptimizer/AddOpsRewrite_Leaf_1_add_59__xeno_compat__1"],"attr":{"_grappler_ArithmeticOptimizer_AddOpsRewriteStage":{"b":true},"T":{"type":"DT_FLOAT"}}},
          {"name":"activation_61","op":"Relu","input":["ArithmeticOptimizer/AddOpsRewrite_add_59__xeno_compat__1"],"attr":{"T":{"type":"DT_FLOAT"}}},
          {"name":"depthwise_61","op":"DepthwiseConv2dNative","input":["activation_61","depthwise_61/filter_in"],"attr":{"T":{"type":"DT_FLOAT"},"explicit_paddings":{"list":{}},"strides":{"list":{"i":["1","1","1","1"]}},"padding":{"s":"U0FNRQ=="},"data_format":{"s":"TkhXQw=="},"dilations":{"list":{"i":["1","1","1","1"]}}}},
          {"name":"Conv2D_63","op":"Conv2D","input":["depthwise_61","Conv2D_63/filter"],"device":"/device:CPU:0","attr":{"strides":{"list":{"i":["1","1","1","1"]}},"use_cudnn_on_gpu":{"b":true},"dilations":{"list":{"i":["1","1","1","1"]}},"T":{"type":"DT_FLOAT"},"explicit_paddings":{"list":{}},"padding":{"s":"VkFMSUQ="},"data_format":{"s":"TkhXQw=="}}},
          {"name":"ArithmeticOptimizer/AddOpsRewrite_Leaf_1_add_60__xeno_compat__1","op":"AddN","input":["activation_61","Conv2D_63"],"attr":{"_grappler_ArithmeticOptimizer_AddOpsRewriteStage":{"b":true},"N":{"i":"2"},"T":{"type":"DT_FLOAT"}}},
          {"name":"ArithmeticOptimizer/AddOpsRewrite_add_60__xeno_compat__1","op":"AddV2","input":["conv2d_62_1/y","ArithmeticOptimizer/AddOpsRewrite_Leaf_1_add_60__xeno_compat__1"],"attr":{"T":{"type":"DT_FLOAT"},"_grappler_ArithmeticOptimizer_AddOpsRewriteStage":{"b":true}}},
          {"name":"activation_62","op":"Relu","input":["ArithmeticOptimizer/AddOpsRewrite_add_60__xeno_compat__1"],"attr":{"T":{"type":"DT_FLOAT"}}},
          {"name":"depthwise_62","op":"DepthwiseConv2dNative","input":["activation_62","depthwise_62/filter_in"],"attr":{"T":{"type":"DT_FLOAT"},"dilations":{"list":{"i":["1","1","1","1"]}},"padding":{"s":"U0FNRQ=="},"strides":{"list":{"i":["1","1","1","1"]}},"data_format":{"s":"TkhXQw=="},"explicit_paddings":{"list":{}}}},
          {"name":"Conv2D_64","op":"Conv2D","input":["depthwise_62","Conv2D_64/filter"],"device":"/device:CPU:0","attr":{"dilations":{"list":{"i":["1","1","1","1"]}},"explicit_paddings":{"list":{}},"data_format":{"s":"TkhXQw=="},"T":{"type":"DT_FLOAT"},"padding":{"s":"VkFMSUQ="},"strides":{"list":{"i":["1","1","1","1"]}},"use_cudnn_on_gpu":{"b":true}}},
          {"name":"ArithmeticOptimizer/AddOpsRewrite_Leaf_1_add_61__xeno_compat__1","op":"AddN","input":["activation_62","Conv2D_64"],"attr":{"N":{"i":"2"},"_grappler_ArithmeticOptimizer_AddOpsRewriteStage":{"b":true},"T":{"type":"DT_FLOAT"}}},
          {"name":"ArithmeticOptimizer/AddOpsRewrite_add_61__xeno_compat__1","op":"AddV2","input":["conv2d_63_1/y","ArithmeticOptimizer/AddOpsRewrite_Leaf_1_add_61__xeno_compat__1"],"attr":{"T":{"type":"DT_FLOAT"},"_grappler_ArithmeticOptimizer_AddOpsRewriteStage":{"b":true}}},
          {"name":"activation_63","op":"Relu","input":["ArithmeticOptimizer/AddOpsRewrite_add_61__xeno_compat__1"],"attr":{"T":{"type":"DT_FLOAT"}}},
          {"name":"depthwise_63","op":"DepthwiseConv2dNative","input":["activation_63","depthwise_63/filter_in"],"attr":{"T":{"type":"DT_FLOAT"},"padding":{"s":"U0FNRQ=="},"dilations":{"list":{"i":["1","1","1","1"]}},"data_format":{"s":"TkhXQw=="},"explicit_paddings":{"list":{}},"strides":{"list":{"i":["1","1","1","1"]}}}},
          {"name":"Conv2D_65","op":"Conv2D","input":["depthwise_63","Conv2D_65/filter"],"device":"/device:CPU:0","attr":{"explicit_paddings":{"list":{}},"T":{"type":"DT_FLOAT"},"padding":{"s":"VkFMSUQ="},"dilations":{"list":{"i":["1","1","1","1"]}},"data_format":{"s":"TkhXQw=="},"strides":{"list":{"i":["1","1","1","1"]}},"use_cudnn_on_gpu":{"b":true}}},
          {"name":"ArithmeticOptimizer/AddOpsRewrite_Leaf_1_add_62__xeno_compat__1","op":"AddN","input":["activation_63","Conv2D_65"],"attr":{"N":{"i":"2"},"T":{"type":"DT_FLOAT"},"_grappler_ArithmeticOptimizer_AddOpsRewriteStage":{"b":true}}},
          {"name":"ArithmeticOptimizer/AddOpsRewrite_add_62__xeno_compat__1","op":"AddV2","input":["conv2d_64_1/y","ArithmeticOptimizer/AddOpsRewrite_Leaf_1_add_62__xeno_compat__1"],"attr":{"T":{"type":"DT_FLOAT"},"_grappler_ArithmeticOptimizer_AddOpsRewriteStage":{"b":true}}},
          {"name":"activation_64","op":"Relu","input":["ArithmeticOptimizer/AddOpsRewrite_add_62__xeno_compat__1"],"attr":{"T":{"type":"DT_FLOAT"}}},
          {"name":"depthwise_66","op":"DepthwiseConv2dNative","input":["activation_64","depthwise_66/filter_in"],"attr":{"strides":{"list":{"i":["1","1","1","1"]}},"dilations":{"list":{"i":["1","1","1","1"]}},"explicit_paddings":{"list":{}},"data_format":{"s":"TkhXQw=="},"padding":{"s":"U0FNRQ=="},"T":{"type":"DT_FLOAT"}}},
          {"name":"Conv2D_69","op":"Conv2D","input":["depthwise_66","Conv2D_69/filter"],"device":"/device:CPU:0","attr":{"T":{"type":"DT_FLOAT"},"padding":{"s":"VkFMSUQ="},"strides":{"list":{"i":["1","1","1","1"]}},"use_cudnn_on_gpu":{"b":true},"dilations":{"list":{"i":["1","1","1","1"]}},"explicit_paddings":{"list":{}},"data_format":{"s":"TkhXQw=="}}},
          {"name":"ArithmeticOptimizer/AddOpsRewrite_Leaf_1_add_63__xeno_compat__1","op":"AddN","input":["activation_64","Conv2D_69"],"attr":{"T":{"type":"DT_FLOAT"},"N":{"i":"2"},"_grappler_ArithmeticOptimizer_AddOpsRewriteStage":{"b":true}}},
          {"name":"ArithmeticOptimizer/AddOpsRewrite_add_63__xeno_compat__1","op":"AddV2","input":["conv2d_65_1/y","ArithmeticOptimizer/AddOpsRewrite_Leaf_1_add_63__xeno_compat__1"],"attr":{"_grappler_ArithmeticOptimizer_AddOpsRewriteStage":{"b":true},"T":{"type":"DT_FLOAT"}}},
          {"name":"activation_65","op":"Relu","input":["ArithmeticOptimizer/AddOpsRewrite_add_63__xeno_compat__1"],"attr":{"T":{"type":"DT_FLOAT"}}},
          {"name":"Conv2D_73","op":"Conv2D","input":["activation_65","Conv2D_73/filter"],"device":"/device:CPU:0","attr":{"data_format":{"s":"TkhXQw=="},"strides":{"list":{"i":["1","1","1","1"]}},"T":{"type":"DT_FLOAT"},"use_cudnn_on_gpu":{"b":true},"dilations":{"list":{"i":["1","1","1","1"]}},"padding":{"s":"VkFMSUQ="},"explicit_paddings":{"list":{}}}},
          {"name":"Conv2D_71","op":"Conv2D","input":["activation_65","Conv2D_71/filter"],"device":"/device:CPU:0","attr":{"explicit_paddings":{"list":{}},"padding":{"s":"VkFMSUQ="},"dilations":{"list":{"i":["1","1","1","1"]}},"use_cudnn_on_gpu":{"b":true},"data_format":{"s":"TkhXQw=="},"strides":{"list":{"i":["1","1","1","1"]}},"T":{"type":"DT_FLOAT"}}},
          {"name":"convld_3d","op":"Add","input":["Conv2D_73","convld_3d/y"],"attr":{"T":{"type":"DT_FLOAT"}}},
          {"name":"conv_poseflag","op":"Add","input":["Conv2D_71","conv_poseflag/y"],"attr":{"T":{"type":"DT_FLOAT"}}},
          {"name":"ld_3d","op":"Reshape","input":["convld_3d","ld_3d/shape"],"attr":{"Tshape":{"type":"DT_INT32"},"T":{"type":"DT_FLOAT"}}},
          {"name":"activation_poseflag","op":"Sigmoid","input":["conv_poseflag"],"attr":{"T":{"type":"DT_FLOAT"}}},
          {"name":"output_poseflag","op":"Reshape","input":["activation_poseflag","output_poseflag/shape"],"attr":{"Tshape":{"type":"DT_INT32"},"T":{"type":"DT_FLOAT"}}}
      ],
      "library": {},
      "versions": {}
  },
  "weightsManifest":
  [
      {
          "paths": ["blazepose.bin"],
          "weights": [{"name":"Conv2D_73/filter","shape":[2,2,288,195],"dtype":"float32","quantization":{"dtype":"float16","original_dtype":"float32"}},{"name":"convld_3d/y","shape":[195],"dtype":"float32","quantization":{"dtype":"float16","original_dtype":"float32"}},{"name":"ld_3d/shape","shape":[2],"dtype":"int32"},{"name":"conv2d_65_1/y","shape":[288],"dtype":"float32","quantization":{"dtype":"float16","original_dtype":"float32"}},{"name":"conv2d_64_1/y","shape":[288],"dtype":"float32","quantization":{"dtype":"float16","original_dtype":"float32"}},{"name":"conv2d_63_1/y","shape":[288],"dtype":"float32","quantization":{"dtype":"float16","original_dtype":"float32"}},{"name":"conv2d_62_1/y","shape":[288],"dtype":"float32","quantization":{"dtype":"float16","original_dtype":"float32"}},{"name":"conv2d_61_1/y","shape":[288],"dtype":"float32","quantization":{"dtype":"float16","original_dtype":"float32"}},{"name":"conv2d_60_1/y","shape":[288],"dtype":"float32","quantization":{"dtype":"float16","original_dtype":"float32"}},{"name":"conv2d_59_1/y","shape":[288],"dtype":"float32","quantization":{"dtype":"float16","original_dtype":"float32"}},{"name":"conv2d_58_1/y","shape":[288],"dtype":"float32","quantization":{"dtype":"float16","original_dtype":"float32"}},{"name":"conv2d_57_1/y","shape":[288],"dtype":"float32","quantization":{"dtype":"float16","original_dtype":"float32"}},{"name":"conv2d_56_1/y","shape":[288],"dtype":"float32","quantization":{"dtype":"float16","original_dtype":"float32"}},{"name":"conv2d_55_1/y","shape":[288],"dtype":"float32","quantization":{"dtype":"float16","original_dtype":"float32"}},{"name":"conv2d_54_1/y","shape":[288],"dtype":"float32","quantization":{"dtype":"float16","original_dtype":"float32"}},{"name":"conv2d_53_1/y","shape":[288],"dtype":"float32","quantization":{"dtype":"float16","original_dtype":"float32"}},{"name":"conv2d_52_1/y","shape":[288],"dtype":"float32","quantization":{"dtype":"float16","original_dtype":"float32"}},{"name":"conv2d_51_1/y","shape":[288],"dtype":"float32","quantization":{"dtype":"float16","original_dtype":"float32"}},{"name":"conv2d_50_1/y","shape":[288],"dtype":"float32","quantization":{"dtype":"float16","original_dtype":"float32"}},{"name":"conv2d_48_1/y","shape":[288],"dtype":"float32","quantization":{"dtype":"float16","original_dtype":"float32"}},{"name":"conv2d_47_1/y","shape":[288],"dtype":"float32","quantization":{"dtype":"float16","original_dtype":"float32"}},{"name":"conv2d_46_1/y","shape":[288],"dtype":"float32","quantization":{"dtype":"float16","original_dtype":"float32"}},{"name":"conv2d_45_1/y","shape":[288],"dtype":"float32","quantization":{"dtype":"float16","original_dtype":"float32"}},{"name":"conv2d_44_1/y","shape":[288],"dtype":"float32","quantization":{"dtype":"float16","original_dtype":"float32"}},{"name":"conv2d_43_1/y","shape":[288],"dtype":"float32","quantization":{"dtype":"float16","original_dtype":"float32"}},{"name":"conv2d_42_1/y","shape":[288],"dtype":"float32","quantization":{"dtype":"float16","original_dtype":"float32"}},{"name":"channel_padding_6/paddings","shape":[4,2],"dtype":"int32"},{"name":"conv2d_40_1/y","shape":[192],"dtype":"float32","quantization":{"dtype":"float16","original_dtype":"float32"}},{"name":"conv2d_39_1/y","shape":[192],"dtype":"float32","quantization":{"dtype":"float16","original_dtype":"float32"}},{"name":"conv2d_38_1/y","shape":[192],"dtype":"float32","quantization":{"dtype":"float16","original_dtype":"float32"}},{"name":"conv2d_37_1/y","shape":[192],"dtype":"float32","quantization":{"dtype":"float16","original_dtype":"float32"}},{"name":"conv2d_36_1/y","shape":[192],"dtype":"float32","quantization":{"dtype":"float16","original_dtype":"float32"}},{"name":"conv2d_35_1/y","shape":[192],"dtype":"float32","quantization":{"dtype":"float16","original_dtype":"float32"}},{"name":"channel_padding_5/paddings","shape":[4,2],"dtype":"int32"},{"name":"conv2d_33_1/y","shape":[96],"dtype":"float32","quantization":{"dtype":"float16","original_dtype":"float32"}},{"name":"conv2d_32_1/y","shape":[96],"dtype":"float32","quantization":{"dtype":"float16","original_dtype":"float32"}},{"name":"conv2d_31_1/y","shape":[96],"dtype":"float32","quantization":{"dtype":"float16","original_dtype":"float32"}},{"name":"conv2d_30_1/y","shape":[96],"dtype":"float32","quantization":{"dtype":"float16","original_dtype":"float32"}},{"name":"conv2d_29_1/y","shape":[96],"dtype":"float32","quantization":{"dtype":"float16","original_dtype":"float32"}},{"name":"channel_padding_4/paddings","shape":[4,2],"dtype":"int32"},{"name":"depthwise_28/filter_in","shape":[3,3,48,1],"dtype":"float32","quantization":{"dtype":"float16","original_dtype":"float32"}},{"name":"Conv2D_30/filter","shape":[1,1,48,96],"dtype":"float32","quantization":{"dtype":"float16","original_dtype":"float32"}},{"name":"depthwise_29/filter_in","shape":[3,3,96,1],"dtype":"float32","quantization":{"dtype":"float16","original_dtype":"float32"}},{"name":"Conv2D_31/filter","shape":[1,1,96,96],"dtype":"float32","quantization":{"dtype":"float16","original_dtype":"float32"}},{"name":"depthwise_30/filter_in","shape":[3,3,96,1],"dtype":"float32","quantization":{"dtype":"float16","original_dtype":"float32"}},{"name":"Conv2D_32/filter","shape":[1,1,96,96],"dtype":"float32","quantization":{"dtype":"float16","original_dtype":"float32"}},{"name":"depthwise_31/filter_in","shape":[3,3,96,1],"dtype":"float32","quantization":{"dtype":"float16","original_dtype":"float32"}},{"name":"Conv2D_33/filter","shape":[1,1,96,96],"dtype":"float32","quantization":{"dtype":"float16","original_dtype":"float32"}},{"name":"depthwise_32/filter_in","shape":[3,3,96,1],"dtype":"float32","quantization":{"dtype":"float16","original_dtype":"float32"}},{"name":"Conv2D_34/filter","shape":[1,1,96,96],"dtype":"float32","quantization":{"dtype":"float16","original_dtype":"float32"}},{"name":"depthwise_33/filter_in","shape":[3,3,96,1],"dtype":"float32","quantization":{"dtype":"float16","original_dtype":"float32"}},{"name":"Conv2D_35/filter","shape":[1,1,96,96],"dtype":"float32","quantization":{"dtype":"float16","original_dtype":"float32"}},{"name":"conv2d_34_1/y","shape":[96],"dtype":"float32","quantization":{"dtype":"float16","original_dtype":"float32"}},{"name":"depthwise_34/filter_in","shape":[3,3,96,1],"dtype":"float32","quantization":{"dtype":"float16","original_dtype":"float32"}},{"name":"Conv2D_36/filter","shape":[1,1,96,192],"dtype":"float32","quantization":{"dtype":"float16","original_dtype":"float32"}},{"name":"depthwise_35/filter_in","shape":[3,3,192,1],"dtype":"float32","quantization":{"dtype":"float16","original_dtype":"float32"}},{"name":"Conv2D_37/filter","shape":[1,1,192,192],"dtype":"float32","quantization":{"dtype":"float16","original_dtype":"float32"}},{"name":"depthwise_36/filter_in","shape":[3,3,192,1],"dtype":"float32","quantization":{"dtype":"float16","original_dtype":"float32"}},{"name":"Conv2D_38/filter","shape":[1,1,192,192],"dtype":"float32","quantization":{"dtype":"float16","original_dtype":"float32"}},{"name":"depthwise_37/filter_in","shape":[3,3,192,1],"dtype":"float32","quantization":{"dtype":"float16","original_dtype":"float32"}},{"name":"Conv2D_39/filter","shape":[1,1,192,192],"dtype":"float32","quantization":{"dtype":"float16","original_dtype":"float32"}},{"name":"depthwise_38/filter_in","shape":[3,3,192,1],"dtype":"float32","quantization":{"dtype":"float16","original_dtype":"float32"}},{"name":"Conv2D_40/filter","shape":[1,1,192,192],"dtype":"float32","quantization":{"dtype":"float16","original_dtype":"float32"}},{"name":"depthwise_39/filter_in","shape":[3,3,192,1],"dtype":"float32","quantization":{"dtype":"float16","original_dtype":"float32"}},{"name":"Conv2D_41/filter","shape":[1,1,192,192],"dtype":"float32","quantization":{"dtype":"float16","original_dtype":"float32"}},{"name":"depthwise_40/filter_in","shape":[3,3,192,1],"dtype":"float32","quantization":{"dtype":"float16","original_dtype":"float32"}},{"name":"Conv2D_42/filter","shape":[1,1,192,192],"dtype":"float32","quantization":{"dtype":"float16","original_dtype":"float32"}},{"name":"conv2d_41_1/y","shape":[192],"dtype":"float32","quantization":{"dtype":"float16","original_dtype":"float32"}},{"name":"depthwise_41/filter_in","shape":[3,3,192,1],"dtype":"float32","quantization":{"dtype":"float16","original_dtype":"float32"}},{"name":"Conv2D_43/filter","shape":[1,1,192,288],"dtype":"float32","quantization":{"dtype":"float16","original_dtype":"float32"}},{"name":"depthwise_42/filter_in","shape":[3,3,288,1],"dtype":"float32","quantization":{"dtype":"float16","original_dtype":"float32"}},{"name":"Conv2D_44/filter","shape":[1,1,288,288],"dtype":"float32","quantization":{"dtype":"float16","original_dtype":"float32"}},{"name":"depthwise_43/filter_in","shape":[3,3,288,1],"dtype":"float32","quantization":{"dtype":"float16","original_dtype":"float32"}},{"name":"Conv2D_45/filter","shape":[1,1,288,288],"dtype":"float32","quantization":{"dtype":"float16","original_dtype":"float32"}},{"name":"depthwise_44/filter_in","shape":[3,3,288,1],"dtype":"float32","quantization":{"dtype":"float16","original_dtype":"float32"}},{"name":"Conv2D_46/filter","shape":[1,1,288,288],"dtype":"float32","quantization":{"dtype":"float16","original_dtype":"float32"}},{"name":"depthwise_45/filter_in","shape":[3,3,288,1],"dtype":"float32","quantization":{"dtype":"float16","original_dtype":"float32"}},{"name":"Conv2D_47/filter","shape":[1,1,288,288],"dtype":"float32","quantization":{"dtype":"float16","original_dtype":"float32"}},{"name":"depthwise_46/filter_in","shape":[3,3,288,1],"dtype":"float32","quantization":{"dtype":"float16","original_dtype":"float32"}},{"name":"Conv2D_48/filter","shape":[1,1,288,288],"dtype":"float32","quantization":{"dtype":"float16","original_dtype":"float32"}},{"name":"depthwise_47/filter_in","shape":[3,3,288,1],"dtype":"float32","quantization":{"dtype":"float16","original_dtype":"float32"}},{"name":"Conv2D_49/filter","shape":[1,1,288,288],"dtype":"float32","quantization":{"dtype":"float16","original_dtype":"float32"}},{"name":"depthwise_48/filter_in","shape":[3,3,288,1],"dtype":"float32","quantization":{"dtype":"float16","original_dtype":"float32"}},{"name":"Conv2D_50/filter","shape":[1,1,288,288],"dtype":"float32","quantization":{"dtype":"float16","original_dtype":"float32"}},{"name":"conv2d_49_1/y","shape":[288],"dtype":"float32","quantization":{"dtype":"float16","original_dtype":"float32"}},{"name":"depthwise_49/filter_in","shape":[3,3,288,1],"dtype":"float32","quantization":{"dtype":"float16","original_dtype":"float32"}},{"name":"Conv2D_51/filter","shape":[1,1,288,288],"dtype":"float32","quantization":{"dtype":"float16","original_dtype":"float32"}},{"name":"depthwise_50/filter_in","shape":[3,3,288,1],"dtype":"float32","quantization":{"dtype":"float16","original_dtype":"float32"}},{"name":"Conv2D_52/filter","shape":[1,1,288,288],"dtype":"float32","quantization":{"dtype":"float16","original_dtype":"float32"}},{"name":"depthwise_51/filter_in","shape":[3,3,288,1],"dtype":"float32","quantization":{"dtype":"float16","original_dtype":"float32"}},{"name":"Conv2D_53/filter","shape":[1,1,288,288],"dtype":"float32","quantization":{"dtype":"float16","original_dtype":"float32"}},{"name":"depthwise_52/filter_in","shape":[3,3,288,1],"dtype":"float32","quantization":{"dtype":"float16","original_dtype":"float32"}},{"name":"Conv2D_54/filter","shape":[1,1,288,288],"dtype":"float32","quantization":{"dtype":"float16","original_dtype":"float32"}},{"name":"depthwise_53/filter_in","shape":[3,3,288,1],"dtype":"float32","quantization":{"dtype":"float16","original_dtype":"float32"}},{"name":"Conv2D_55/filter","shape":[1,1,288,288],"dtype":"float32","quantization":{"dtype":"float16","original_dtype":"float32"}},{"name":"depthwise_54/filter_in","shape":[3,3,288,1],"dtype":"float32","quantization":{"dtype":"float16","original_dtype":"float32"}},{"name":"Conv2D_56/filter","shape":[1,1,288,288],"dtype":"float32","quantization":{"dtype":"float16","original_dtype":"float32"}},{"name":"depthwise_55/filter_in","shape":[3,3,288,1],"dtype":"float32","quantization":{"dtype":"float16","original_dtype":"float32"}},{"name":"Conv2D_57/filter","shape":[1,1,288,288],"dtype":"float32","quantization":{"dtype":"float16","original_dtype":"float32"}},{"name":"depthwise_56/filter_in","shape":[3,3,288,1],"dtype":"float32","quantization":{"dtype":"float16","original_dtype":"float32"}},{"name":"Conv2D_58/filter","shape":[1,1,288,288],"dtype":"float32","quantization":{"dtype":"float16","original_dtype":"float32"}},{"name":"depthwise_57/filter_in","shape":[3,3,288,1],"dtype":"float32","quantization":{"dtype":"float16","original_dtype":"float32"}},{"name":"Conv2D_59/filter","shape":[1,1,288,288],"dtype":"float32","quantization":{"dtype":"float16","original_dtype":"float32"}},{"name":"depthwise_58/filter_in","shape":[3,3,288,1],"dtype":"float32","quantization":{"dtype":"float16","original_dtype":"float32"}},{"name":"Conv2D_60/filter","shape":[1,1,288,288],"dtype":"float32","quantization":{"dtype":"float16","original_dtype":"float32"}},{"name":"depthwise_59/filter_in","shape":[3,3,288,1],"dtype":"float32","quantization":{"dtype":"float16","original_dtype":"float32"}},{"name":"Conv2D_61/filter","shape":[1,1,288,288],"dtype":"float32","quantization":{"dtype":"float16","original_dtype":"float32"}},{"name":"depthwise_60/filter_in","shape":[3,3,288,1],"dtype":"float32","quantization":{"dtype":"float16","original_dtype":"float32"}},{"name":"Conv2D_62/filter","shape":[1,1,288,288],"dtype":"float32","quantization":{"dtype":"float16","original_dtype":"float32"}},{"name":"depthwise_61/filter_in","shape":[3,3,288,1],"dtype":"float32","quantization":{"dtype":"float16","original_dtype":"float32"}},{"name":"Conv2D_63/filter","shape":[1,1,288,288],"dtype":"float32","quantization":{"dtype":"float16","original_dtype":"float32"}},{"name":"depthwise_62/filter_in","shape":[3,3,288,1],"dtype":"float32","quantization":{"dtype":"float16","original_dtype":"float32"}},{"name":"Conv2D_64/filter","shape":[1,1,288,288],"dtype":"float32","quantization":{"dtype":"float16","original_dtype":"float32"}},{"name":"depthwise_63/filter_in","shape":[3,3,288,1],"dtype":"float32","quantization":{"dtype":"float16","original_dtype":"float32"}},{"name":"Conv2D_65/filter","shape":[1,1,288,288],"dtype":"float32","quantization":{"dtype":"float16","original_dtype":"float32"}},{"name":"depthwise_66/filter_in","shape":[3,3,288,1],"dtype":"float32","quantization":{"dtype":"float16","original_dtype":"float32"}},{"name":"Conv2D_69/filter","shape":[1,1,288,288],"dtype":"float32","quantization":{"dtype":"float16","original_dtype":"float32"}},{"name":"Conv2D_71/filter","shape":[2,2,288,1],"dtype":"float32","quantization":{"dtype":"float16","original_dtype":"float32"}},{"name":"conv_poseflag/y","shape":[1],"dtype":"float32","quantization":{"dtype":"float16","original_dtype":"float32"}},{"name":"output_poseflag/shape","shape":[2],"dtype":"int32"},{"name":"channel_padding_3/paddings","shape":[4,2],"dtype":"int32"},{"name":"depthwise_17/filter_in","shape":[3,3,192,1],"dtype":"float32","quantization":{"dtype":"float16","original_dtype":"float32"}},{"name":"Conv2D_19/filter","shape":[1,1,192,288],"dtype":"float32","quantization":{"dtype":"float16","original_dtype":"float32"}},{"name":"conv2d_18_1/y","shape":[288],"dtype":"float32","quantization":{"dtype":"float16","original_dtype":"float32"}},{"name":"depthwise_18/filter_in","shape":[3,3,288,1],"dtype":"float32","quantization":{"dtype":"float16","original_dtype":"float32"}},{"name":"Conv2D_20/filter","shape":[1,1,288,288],"dtype":"float32","quantization":{"dtype":"float16","original_dtype":"float32"}},{"name":"conv2d_19_1/y","shape":[288],"dtype":"float32","quantization":{"dtype":"float16","original_dtype":"float32"}},{"name":"depthwise_19/filter_in","shape":[3,3,288,1],"dtype":"float32","quantization":{"dtype":"float16","original_dtype":"float32"}},{"name":"Conv2D_21/filter","shape":[1,1,288,288],"dtype":"float32","quantization":{"dtype":"float16","original_dtype":"float32"}},{"name":"conv2d_20_1/y","shape":[288],"dtype":"float32","quantization":{"dtype":"float16","original_dtype":"float32"}},{"name":"depthwise_20/filter_in","shape":[3,3,288,1],"dtype":"float32","quantization":{"dtype":"float16","original_dtype":"float32"}},{"name":"Conv2D_22/filter","shape":[1,1,288,288],"dtype":"float32","quantization":{"dtype":"float16","original_dtype":"float32"}},{"name":"conv2d_21_1/y","shape":[288],"dtype":"float32","quantization":{"dtype":"float16","original_dtype":"float32"}},{"name":"depthwise_21/filter_in","shape":[3,3,288,1],"dtype":"float32","quantization":{"dtype":"float16","original_dtype":"float32"}},{"name":"Conv2D_23/filter","shape":[1,1,288,288],"dtype":"float32","quantization":{"dtype":"float16","original_dtype":"float32"}},{"name":"conv2d_22_1/y","shape":[288],"dtype":"float32","quantization":{"dtype":"float16","original_dtype":"float32"}},{"name":"depthwise_22/filter_in","shape":[3,3,288,1],"dtype":"float32","quantization":{"dtype":"float16","original_dtype":"float32"}},{"name":"Conv2D_24/filter","shape":[1,1,288,288],"dtype":"float32","quantization":{"dtype":"float16","original_dtype":"float32"}},{"name":"conv2d_23_1/y","shape":[288],"dtype":"float32","quantization":{"dtype":"float16","original_dtype":"float32"}},{"name":"depthwise_23/filter_in","shape":[3,3,288,1],"dtype":"float32","quantization":{"dtype":"float16","original_dtype":"float32"}},{"name":"Conv2D_25/filter","shape":[1,1,288,288],"dtype":"float32","quantization":{"dtype":"float16","original_dtype":"float32"}},{"name":"conv2d_24_1/y","shape":[288],"dtype":"float32","quantization":{"dtype":"float16","original_dtype":"float32"}},{"name":"depthwise_24/filter_in","shape":[3,3,288,1],"dtype":"float32","quantization":{"dtype":"float16","original_dtype":"float32"}},{"name":"Conv2D_26/filter","shape":[1,1,288,48],"dtype":"float32","quantization":{"dtype":"float16","original_dtype":"float32"}},{"name":"conv2d_25_1/y","shape":[48],"dtype":"float32","quantization":{"dtype":"float16","original_dtype":"float32"}},{"name":"depthwise_conv2d_26_1/resize/size","shape":[2],"dtype":"int32"},{"name":"channel_padding_2/paddings","shape":[4,2],"dtype":"int32"},{"name":"depthwise_11/filter_in","shape":[3,3,96,1],"dtype":"float32","quantization":{"dtype":"float16","original_dtype":"float32"}},{"name":"Conv2D_13/filter","shape":[1,1,96,192],"dtype":"float32","quantization":{"dtype":"float16","original_dtype":"float32"}},{"name":"conv2d_12_1/y","shape":[192],"dtype":"float32","quantization":{"dtype":"float16","original_dtype":"float32"}},{"name":"depthwise_12/filter_in","shape":[3,3,192,1],"dtype":"float32","quantization":{"dtype":"float16","original_dtype":"float32"}},{"name":"Conv2D_14/filter","shape":[1,1,192,192],"dtype":"float32","quantization":{"dtype":"float16","original_dtype":"float32"}},{"name":"conv2d_13_1/y","shape":[192],"dtype":"float32","quantization":{"dtype":"float16","original_dtype":"float32"}},{"name":"depthwise_13/filter_in","shape":[3,3,192,1],"dtype":"float32","quantization":{"dtype":"float16","original_dtype":"float32"}},{"name":"Conv2D_15/filter","shape":[1,1,192,192],"dtype":"float32","quantization":{"dtype":"float16","original_dtype":"float32"}},{"name":"conv2d_14_1/y","shape":[192],"dtype":"float32","quantization":{"dtype":"float16","original_dtype":"float32"}},{"name":"depthwise_14/filter_in","shape":[3,3,192,1],"dtype":"float32","quantization":{"dtype":"float16","original_dtype":"float32"}},{"name":"Conv2D_16/filter","shape":[1,1,192,192],"dtype":"float32","quantization":{"dtype":"float16","original_dtype":"float32"}},{"name":"conv2d_15_1/y","shape":[192],"dtype":"float32","quantization":{"dtype":"float16","original_dtype":"float32"}},{"name":"depthwise_15/filter_in","shape":[3,3,192,1],"dtype":"float32","quantization":{"dtype":"float16","original_dtype":"float32"}},{"name":"Conv2D_17/filter","shape":[1,1,192,192],"dtype":"float32","quantization":{"dtype":"float16","original_dtype":"float32"}},{"name":"conv2d_16_1/y","shape":[192],"dtype":"float32","quantization":{"dtype":"float16","original_dtype":"float32"}},{"name":"depthwise_16/filter_in","shape":[3,3,192,1],"dtype":"float32","quantization":{"dtype":"float16","original_dtype":"float32"}},{"name":"Conv2D_18/filter","shape":[1,1,192,192],"dtype":"float32","quantization":{"dtype":"float16","original_dtype":"float32"}},{"name":"conv2d_17_1/y","shape":[192],"dtype":"float32","quantization":{"dtype":"float16","original_dtype":"float32"}},{"name":"depthwise_25/filter_in","shape":[3,3,192,1],"dtype":"float32","quantization":{"dtype":"float16","original_dtype":"float32"}},{"name":"Conv2D_27/filter","shape":[1,1,192,48],"dtype":"float32","quantization":{"dtype":"float16","original_dtype":"float32"}},{"name":"conv2d_26_1/y","shape":[48],"dtype":"float32","quantization":{"dtype":"float16","original_dtype":"float32"}},{"name":"depthwise_conv2d_27_1/resize/size","shape":[2],"dtype":"int32"},{"name":"channel_padding_1/paddings","shape":[4,2],"dtype":"int32"},{"name":"depthwise_6/filter_in","shape":[3,3,48,1],"dtype":"float32","quantization":{"dtype":"float16","original_dtype":"float32"}},{"name":"Conv2D_8/filter","shape":[1,1,48,96],"dtype":"float32","quantization":{"dtype":"float16","original_dtype":"float32"}},{"name":"conv2d_7_1/y","shape":[96],"dtype":"float32","quantization":{"dtype":"float16","original_dtype":"float32"}},{"name":"depthwise_7/filter_in","shape":[3,3,96,1],"dtype":"float32","quantization":{"dtype":"float16","original_dtype":"float32"}},{"name":"Conv2D_9/filter","shape":[1,1,96,96],"dtype":"float32","quantization":{"dtype":"float16","original_dtype":"float32"}},{"name":"conv2d_8_1/y","shape":[96],"dtype":"float32","quantization":{"dtype":"float16","original_dtype":"float32"}},{"name":"depthwise_8/filter_in","shape":[3,3,96,1],"dtype":"float32","quantization":{"dtype":"float16","original_dtype":"float32"}},{"name":"Conv2D_10/filter","shape":[1,1,96,96],"dtype":"float32","quantization":{"dtype":"float16","original_dtype":"float32"}},{"name":"conv2d_9_1/y","shape":[96],"dtype":"float32","quantization":{"dtype":"float16","original_dtype":"float32"}},{"name":"depthwise_9/filter_in","shape":[3,3,96,1],"dtype":"float32","quantization":{"dtype":"float16","original_dtype":"float32"}},{"name":"Conv2D_11/filter","shape":[1,1,96,96],"dtype":"float32","quantization":{"dtype":"float16","original_dtype":"float32"}},{"name":"conv2d_10_1/y","shape":[96],"dtype":"float32","quantization":{"dtype":"float16","original_dtype":"float32"}},{"name":"depthwise_10/filter_in","shape":[3,3,96,1],"dtype":"float32","quantization":{"dtype":"float16","original_dtype":"float32"}},{"name":"Conv2D_12/filter","shape":[1,1,96,96],"dtype":"float32","quantization":{"dtype":"float16","original_dtype":"float32"}},{"name":"conv2d_11_1/y","shape":[96],"dtype":"float32","quantization":{"dtype":"float16","original_dtype":"float32"}},{"name":"depthwise_26/filter_in","shape":[3,3,96,1],"dtype":"float32","quantization":{"dtype":"float16","original_dtype":"float32"}},{"name":"Conv2D_28/filter","shape":[1,1,96,48],"dtype":"float32","quantization":{"dtype":"float16","original_dtype":"float32"}},{"name":"conv2d_27_1/y","shape":[48],"dtype":"float32","quantization":{"dtype":"float16","original_dtype":"float32"}},{"name":"add_25__xeno_compat__1_1/resize/size","shape":[2],"dtype":"int32"},{"name":"channel_padding/paddings","shape":[4,2],"dtype":"int32"},{"name":"depthwise_2/filter_in","shape":[3,3,24,1],"dtype":"float32","quantization":{"dtype":"float16","original_dtype":"float32"}},{"name":"Conv2D_4/filter","shape":[1,1,24,48],"dtype":"float32","quantization":{"dtype":"float16","original_dtype":"float32"}},{"name":"conv2d_3_1/y","shape":[48],"dtype":"float32","quantization":{"dtype":"float16","original_dtype":"float32"}},{"name":"depthwise_3/filter_in","shape":[3,3,48,1],"dtype":"float32","quantization":{"dtype":"float16","original_dtype":"float32"}},{"name":"Conv2D_5/filter","shape":[1,1,48,48],"dtype":"float32","quantization":{"dtype":"float16","original_dtype":"float32"}},{"name":"conv2d_4_1/y","shape":[48],"dtype":"float32","quantization":{"dtype":"float16","original_dtype":"float32"}},{"name":"depthwise_4/filter_in","shape":[3,3,48,1],"dtype":"float32","quantization":{"dtype":"float16","original_dtype":"float32"}},{"name":"Conv2D_6/filter","shape":[1,1,48,48],"dtype":"float32","quantization":{"dtype":"float16","original_dtype":"float32"}},{"name":"conv2d_5_1/y","shape":[48],"dtype":"float32","quantization":{"dtype":"float16","original_dtype":"float32"}},{"name":"depthwise_5/filter_in","shape":[3,3,48,1],"dtype":"float32","quantization":{"dtype":"float16","original_dtype":"float32"}},{"name":"Conv2D_7/filter","shape":[1,1,48,48],"dtype":"float32","quantization":{"dtype":"float16","original_dtype":"float32"}},{"name":"conv2d_6_1/y","shape":[48],"dtype":"float32","quantization":{"dtype":"float16","original_dtype":"float32"}},{"name":"depthwise_27/filter_in","shape":[3,3,48,1],"dtype":"float32","quantization":{"dtype":"float16","original_dtype":"float32"}},{"name":"Conv2D_29/filter","shape":[1,1,48,48],"dtype":"float32","quantization":{"dtype":"float16","original_dtype":"float32"}},{"name":"conv2d_28_1/y","shape":[48],"dtype":"float32","quantization":{"dtype":"float16","original_dtype":"float32"}},{"name":"depthwise_64/filter_in","shape":[3,3,48,1],"dtype":"float32","quantization":{"dtype":"float16","original_dtype":"float32"}},{"name":"Conv2D_66/filter","shape":[1,1,48,8],"dtype":"float32","quantization":{"dtype":"float16","original_dtype":"float32"}},{"name":"conv2d_67/y","shape":[8],"dtype":"float32","quantization":{"dtype":"float16","original_dtype":"float32"}},{"name":"depthwise_conv2d_64_1/resize/size","shape":[2],"dtype":"int32"},{"name":"Conv2D/filter","shape":[3,3,3,24],"dtype":"float32","quantization":{"dtype":"float16","original_dtype":"float32"}},{"name":"conv2d_1/y","shape":[24],"dtype":"float32","quantization":{"dtype":"float16","original_dtype":"float32"}},{"name":"depthwise/filter_in","shape":[3,3,24,1],"dtype":"float32","quantization":{"dtype":"float16","original_dtype":"float32"}},{"name":"Conv2D_2/filter","shape":[1,1,24,24],"dtype":"float32","quantization":{"dtype":"float16","original_dtype":"float32"}},{"name":"conv2d_1_1/y","shape":[24],"dtype":"float32","quantization":{"dtype":"float16","original_dtype":"float32"}},{"name":"depthwise_1/filter_in","shape":[3,3,24,1],"dtype":"float32","quantization":{"dtype":"float16","original_dtype":"float32"}},{"name":"Conv2D_3/filter","shape":[1,1,24,24],"dtype":"float32","quantization":{"dtype":"float16","original_dtype":"float32"}},{"name":"conv2d_2_1/y","shape":[24],"dtype":"float32","quantization":{"dtype":"float16","original_dtype":"float32"}},{"name":"depthwise_65/filter_in","shape":[3,3,24,1],"dtype":"float32","quantization":{"dtype":"float16","original_dtype":"float32"}},{"name":"Conv2D_68/filter","shape":[1,1,24,8],"dtype":"float32","quantization":{"dtype":"float16","original_dtype":"float32"}},{"name":"conv2d_66_1/y","shape":[8],"dtype":"float32","quantization":{"dtype":"float16","original_dtype":"float32"}},{"name":"depthwise_67/filter_in","shape":[3,3,8,1],"dtype":"float32","quantization":{"dtype":"float16","original_dtype":"float32"}},{"name":"Conv2D_70/filter","shape":[1,1,8,8],"dtype":"float32","quantization":{"dtype":"float16","original_dtype":"float32"}},{"name":"conv2d_68_1/y","shape":[8],"dtype":"float32","quantization":{"dtype":"float16","original_dtype":"float32"}},{"name":"Conv2D_72/filter","shape":[3,3,8,1],"dtype":"float32","quantization":{"dtype":"float16","original_dtype":"float32"}},{"name":"output_segmentation/y","shape":[1],"dtype":"float32","quantization":{"dtype":"float16","original_dtype":"float32"}}]
      }
  ]
}
