{
  "format": "graph-model",
  "generatedBy": "<https://github.com/ybkscht/EfficientPose>",
  "convertedBy": "<https://github.com/vladmandic>",
  "signature":
  {
      "inputs": {
        "input_1_0": { "name": "input_1_0", "dtype": "DT_FLOAT", "tensorShape":{"dim":[{"size":"1"},{"size":"368"},{"size":"368"},{"size":"3"}]} }
      },
      "outputs":
      {
        "upscaled_confs/BiasAdd:0": { "name": "upscaled_confs/BiasAdd:0", "dtype": "DT_FLOAT", "tensorShape":{"dim":[{"size":"1"},{"size":"-1"},{"size":"-1"},{"size":"16"}]} }
      }
  },
  "modelTopology":
  {
      "node":
      [
          {"name":"upscaled_confs/strided_slice/stack","op":"Const","attr":{"value":{"tensor":{"dtype":"DT_INT32","tensorShape":{"dim":[{"size":"1"}]}}},"dtype":{"type":"DT_INT32"}}},
          {"name":"upscaled_confs/strided_slice/stack_1","op":"Const","attr":{"value":{"tensor":{"dtype":"DT_INT32","tensorShape":{"dim":[{"size":"1"}]}}},"dtype":{"type":"DT_INT32"}}},
          {"name":"upscaled_confs/strided_slice/stack_2","op":"Const","attr":{"dtype":{"type":"DT_INT32"},"value":{"tensor":{"dtype":"DT_INT32","tensorShape":{"dim":[{"size":"1"}]}}}}},
          {"name":"upscaled_confs/strided_slice_1/stack","op":"Const","attr":{"dtype":{"type":"DT_INT32"},"value":{"tensor":{"dtype":"DT_INT32","tensorShape":{"dim":[{"size":"1"}]}}}}},
          {"name":"upscaled_confs/strided_slice_1/stack_1","op":"Const","attr":{"value":{"tensor":{"dtype":"DT_INT32","tensorShape":{"dim":[{"size":"1"}]}}},"dtype":{"type":"DT_INT32"}}},
          {"name":"upscaled_confs/strided_slice_1/stack_2","op":"Const","attr":{"dtype":{"type":"DT_INT32"},"value":{"tensor":{"dtype":"DT_INT32","tensorShape":{"dim":[{"size":"1"}]}}}}},
          {"name":"upscaled_confs/mul/y","op":"Const","attr":{"value":{"tensor":{"dtype":"DT_INT32","tensorShape":{}}},"dtype":{"type":"DT_INT32"}}},
          {"name":"upscaled_confs/strided_slice_2/stack","op":"Const","attr":{"value":{"tensor":{"dtype":"DT_INT32","tensorShape":{"dim":[{"size":"1"}]}}},"dtype":{"type":"DT_INT32"}}},
          {"name":"upscaled_confs/strided_slice_2/stack_1","op":"Const","attr":{"value":{"tensor":{"dtype":"DT_INT32","tensorShape":{"dim":[{"size":"1"}]}}},"dtype":{"type":"DT_INT32"}}},
          {"name":"upscaled_confs/strided_slice_2/stack_2","op":"Const","attr":{"dtype":{"type":"DT_INT32"},"value":{"tensor":{"dtype":"DT_INT32","tensorShape":{"dim":[{"size":"1"}]}}}}},
          {"name":"upscaled_confs/mul_1/y","op":"Const","attr":{"value":{"tensor":{"dtype":"DT_INT32","tensorShape":{}}},"dtype":{"type":"DT_INT32"}}},
          {"name":"upscaled_confs/stack/3","op":"Const","attr":{"dtype":{"type":"DT_INT32"},"value":{"tensor":{"dtype":"DT_INT32","tensorShape":{}}}}},
          {"name":"upscaled_confs/kernel","op":"Const","attr":{"dtype":{"type":"DT_FLOAT"},"value":{"tensor":{"dtype":"DT_FLOAT","tensorShape":{"dim":[{"size":"4"},{"size":"4"},{"size":"16"},{"size":"16"}]}}}}},
          {"name":"upscaled_deconv2/strided_slice/stack","op":"Const","attr":{"dtype":{"type":"DT_INT32"},"value":{"tensor":{"dtype":"DT_INT32","tensorShape":{"dim":[{"size":"1"}]}}}}},
          {"name":"upscaled_deconv2/strided_slice/stack_1","op":"Const","attr":{"dtype":{"type":"DT_INT32"},"value":{"tensor":{"dtype":"DT_INT32","tensorShape":{"dim":[{"size":"1"}]}}}}},
          {"name":"upscaled_deconv2/strided_slice/stack_2","op":"Const","attr":{"value":{"tensor":{"dtype":"DT_INT32","tensorShape":{"dim":[{"size":"1"}]}}},"dtype":{"type":"DT_INT32"}}},
          {"name":"upscaled_deconv2/strided_slice_1/stack","op":"Const","attr":{"value":{"tensor":{"dtype":"DT_INT32","tensorShape":{"dim":[{"size":"1"}]}}},"dtype":{"type":"DT_INT32"}}},
          {"name":"upscaled_deconv2/strided_slice_1/stack_1","op":"Const","attr":{"value":{"tensor":{"dtype":"DT_INT32","tensorShape":{"dim":[{"size":"1"}]}}},"dtype":{"type":"DT_INT32"}}},
          {"name":"upscaled_deconv2/strided_slice_1/stack_2","op":"Const","attr":{"dtype":{"type":"DT_INT32"},"value":{"tensor":{"dtype":"DT_INT32","tensorShape":{"dim":[{"size":"1"}]}}}}},
          {"name":"upscaled_deconv2/mul/y","op":"Const","attr":{"value":{"tensor":{"dtype":"DT_INT32","tensorShape":{}}},"dtype":{"type":"DT_INT32"}}},
          {"name":"upscaled_deconv2/strided_slice_2/stack","op":"Const","attr":{"dtype":{"type":"DT_INT32"},"value":{"tensor":{"dtype":"DT_INT32","tensorShape":{"dim":[{"size":"1"}]}}}}},
          {"name":"upscaled_deconv2/strided_slice_2/stack_1","op":"Const","attr":{"dtype":{"type":"DT_INT32"},"value":{"tensor":{"dtype":"DT_INT32","tensorShape":{"dim":[{"size":"1"}]}}}}},
          {"name":"upscaled_deconv2/strided_slice_2/stack_2","op":"Const","attr":{"value":{"tensor":{"dtype":"DT_INT32","tensorShape":{"dim":[{"size":"1"}]}}},"dtype":{"type":"DT_INT32"}}},
          {"name":"upscaled_deconv2/mul_1/y","op":"Const","attr":{"dtype":{"type":"DT_INT32"},"value":{"tensor":{"dtype":"DT_INT32","tensorShape":{}}}}},
          {"name":"upscaled_deconv2/stack/3","op":"Const","attr":{"dtype":{"type":"DT_INT32"},"value":{"tensor":{"dtype":"DT_INT32","tensorShape":{}}}}},
          {"name":"upscaled_deconv2/kernel","op":"Const","attr":{"dtype":{"type":"DT_FLOAT"},"value":{"tensor":{"dtype":"DT_FLOAT","tensorShape":{"dim":[{"size":"4"},{"size":"4"},{"size":"16"},{"size":"16"}]}}}}},
          {"name":"upscaled_deconv1/strided_slice/stack","op":"Const","attr":{"value":{"tensor":{"dtype":"DT_INT32","tensorShape":{"dim":[{"size":"1"}]}}},"dtype":{"type":"DT_INT32"}}},
          {"name":"upscaled_deconv1/strided_slice/stack_1","op":"Const","attr":{"value":{"tensor":{"dtype":"DT_INT32","tensorShape":{"dim":[{"size":"1"}]}}},"dtype":{"type":"DT_INT32"}}},
          {"name":"upscaled_deconv1/strided_slice/stack_2","op":"Const","attr":{"dtype":{"type":"DT_INT32"},"value":{"tensor":{"dtype":"DT_INT32","tensorShape":{"dim":[{"size":"1"}]}}}}},
          {"name":"upscaled_deconv1/strided_slice_1/stack","op":"Const","attr":{"value":{"tensor":{"dtype":"DT_INT32","tensorShape":{"dim":[{"size":"1"}]}}},"dtype":{"type":"DT_INT32"}}},
          {"name":"upscaled_deconv1/strided_slice_1/stack_1","op":"Const","attr":{"dtype":{"type":"DT_INT32"},"value":{"tensor":{"dtype":"DT_INT32","tensorShape":{"dim":[{"size":"1"}]}}}}},
          {"name":"upscaled_deconv1/strided_slice_1/stack_2","op":"Const","attr":{"dtype":{"type":"DT_INT32"},"value":{"tensor":{"dtype":"DT_INT32","tensorShape":{"dim":[{"size":"1"}]}}}}},
          {"name":"upscaled_deconv1/mul/y","op":"Const","attr":{"value":{"tensor":{"dtype":"DT_INT32","tensorShape":{}}},"dtype":{"type":"DT_INT32"}}},
          {"name":"upscaled_deconv1/strided_slice_2/stack","op":"Const","attr":{"dtype":{"type":"DT_INT32"},"value":{"tensor":{"dtype":"DT_INT32","tensorShape":{"dim":[{"size":"1"}]}}}}},
          {"name":"upscaled_deconv1/strided_slice_2/stack_1","op":"Const","attr":{"dtype":{"type":"DT_INT32"},"value":{"tensor":{"dtype":"DT_INT32","tensorShape":{"dim":[{"size":"1"}]}}}}},
          {"name":"upscaled_deconv1/strided_slice_2/stack_2","op":"Const","attr":{"value":{"tensor":{"dtype":"DT_INT32","tensorShape":{"dim":[{"size":"1"}]}}},"dtype":{"type":"DT_INT32"}}},
          {"name":"upscaled_deconv1/mul_1/y","op":"Const","attr":{"value":{"tensor":{"dtype":"DT_INT32","tensorShape":{}}},"dtype":{"type":"DT_INT32"}}},
          {"name":"upscaled_deconv1/stack/3","op":"Const","attr":{"dtype":{"type":"DT_INT32"},"value":{"tensor":{"dtype":"DT_INT32","tensorShape":{}}}}},
          {"name":"upscaled_deconv1/kernel","op":"Const","attr":{"value":{"tensor":{"dtype":"DT_FLOAT","tensorShape":{"dim":[{"size":"4"},{"size":"4"},{"size":"16"},{"size":"16"}]}}},"dtype":{"type":"DT_FLOAT"}}},
          {"name":"pass3_block2_mbconv2_detection2_dense/concat/axis","op":"Const","attr":{"value":{"tensor":{"dtype":"DT_INT32","tensorShape":{}}},"dtype":{"type":"DT_INT32"}}},
          {"name":"pass3_block2_mbconv3_detection2_dense/concat/axis","op":"Const","attr":{"dtype":{"type":"DT_INT32"},"value":{"tensor":{"dtype":"DT_INT32","tensorShape":{}}}}},
          {"name":"pass2_block2_mbconv2_detection1_dense/concat/axis","op":"Const","attr":{"dtype":{"type":"DT_INT32"},"value":{"tensor":{"dtype":"DT_INT32","tensorShape":{}}}}},
          {"name":"pass2_block2_mbconv3_detection1_dense/concat/axis","op":"Const","attr":{"dtype":{"type":"DT_INT32"},"value":{"tensor":{"dtype":"DT_INT32","tensorShape":{}}}}},
          {"name":"pass1_block2_mbconv2_skeleton_dense/concat/axis","op":"Const","attr":{"dtype":{"type":"DT_INT32"},"value":{"tensor":{"dtype":"DT_INT32","tensorShape":{}}}}},
          {"name":"pass1_block2_mbconv3_skeleton_dense/concat/axis","op":"Const","attr":{"value":{"tensor":{"dtype":"DT_INT32","tensorShape":{}}},"dtype":{"type":"DT_INT32"}}},
          {"name":"pass1_block1_mbconv2_skeleton_dense/concat/axis","op":"Const","attr":{"value":{"tensor":{"dtype":"DT_INT32","tensorShape":{}}},"dtype":{"type":"DT_INT32"}}},
          {"name":"pass1_block1_mbconv3_skeleton_dense/concat/axis","op":"Const","attr":{"value":{"tensor":{"dtype":"DT_INT32","tensorShape":{}}},"dtype":{"type":"DT_INT32"}}},
          {"name":"concatenate_1/concat/axis","op":"Const","attr":{"value":{"tensor":{"dtype":"DT_INT32","tensorShape":{}}},"dtype":{"type":"DT_INT32"}}},
          {"name":"pass2_block1_mbconv2_detection1_dense/concat/axis","op":"Const","attr":{"value":{"tensor":{"dtype":"DT_INT32","tensorShape":{}}},"dtype":{"type":"DT_INT32"}}},
          {"name":"pass2_block1_mbconv3_detection1_dense/concat/axis","op":"Const","attr":{"value":{"tensor":{"dtype":"DT_INT32","tensorShape":{}}},"dtype":{"type":"DT_INT32"}}},
          {"name":"input_1_0","op":"Placeholder","attr":{"dtype":{"type":"DT_FLOAT"},"shape":{"shape":{"dim":[{"size":"1"},{"size":"368"},{"size":"368"},{"size":"3"}]}}}},
          {"name":"concatenate_2/concat/axis","op":"Const","attr":{"value":{"tensor":{"dtype":"DT_INT32","tensorShape":{}}},"dtype":{"type":"DT_INT32"}}},
          {"name":"pass3_block1_mbconv2_detection2_dense/concat/axis","op":"Const","attr":{"value":{"tensor":{"dtype":"DT_INT32","tensorShape":{}}},"dtype":{"type":"DT_INT32"}}},
          {"name":"pass3_block1_mbconv3_detection2_dense/concat/axis","op":"Const","attr":{"value":{"tensor":{"dtype":"DT_INT32","tensorShape":{}}},"dtype":{"type":"DT_INT32"}}},
          {"name":"pass3_detection2_confs/kernel","op":"Const","attr":{"dtype":{"type":"DT_FLOAT"},"value":{"tensor":{"dtype":"DT_FLOAT","tensorShape":{"dim":[{"size":"1"},{"size":"1"},{"size":"168"},{"size":"16"}]}}}}},
          {"name":"pass3_detection2_confs/bias","op":"Const","attr":{"dtype":{"type":"DT_FLOAT"},"value":{"tensor":{"dtype":"DT_FLOAT","tensorShape":{"dim":[{"size":"16"}]}}}}},
          {"name":"efficientnet-lite4/model/stem/conv2d/Conv2D_0/convolution_weights","op":"Const","attr":{"dtype":{"type":"DT_FLOAT"},"value":{"tensor":{"dtype":"DT_FLOAT","tensorShape":{"dim":[{"size":"3"},{"size":"3"},{"size":"3"},{"size":"32"}]}}}}},
          {"name":"pass3_block1_mbconv3_detection2_dconv1/depthwise_weights","op":"Const","attr":{"dtype":{"type":"DT_FLOAT"},"value":{"tensor":{"dtype":"DT_FLOAT","tensorShape":{"dim":[{"size":"5"},{"size":"5"},{"size":"336"},{"size":"1"}]}}}}},
          {"name":"efficientnet-lite4/model/stem/conv2d/Conv2D_0/convolution_bn_offset","op":"Const","attr":{"dtype":{"type":"DT_FLOAT"},"value":{"tensor":{"dtype":"DT_FLOAT","tensorShape":{"dim":[{"size":"32"}]}}}}},
          {"name":"efficientnet-lite4/model/blocks_0/depthwise_conv2d/depthwise_0/depthwise_weights","op":"Const","attr":{"value":{"tensor":{"dtype":"DT_FLOAT","tensorShape":{"dim":[{"size":"3"},{"size":"3"},{"size":"32"},{"size":"1"}]}}},"dtype":{"type":"DT_FLOAT"}}},
          {"name":"efficientnet-lite4/model/blocks_0/depthwise_conv2d/depthwise_0/depthwise_bn_offset","op":"Const","attr":{"dtype":{"type":"DT_FLOAT"},"value":{"tensor":{"dtype":"DT_FLOAT","tensorShape":{"dim":[{"size":"32"}]}}}}},
          {"name":"efficientnet-lite4/model/blocks_0/conv2d/Conv2D_0/convolution_weights","op":"Const","attr":{"dtype":{"type":"DT_FLOAT"},"value":{"tensor":{"dtype":"DT_FLOAT","tensorShape":{"dim":[{"size":"1"},{"size":"1"},{"size":"32"},{"size":"24"}]}}}}},
          {"name":"pass3_block1_mbconv3_detection2_dconv1/depthwise_bn_offset","op":"Const","attr":{"dtype":{"type":"DT_FLOAT"},"value":{"tensor":{"dtype":"DT_FLOAT","tensorShape":{"dim":[{"size":"336"}]}}}}},
          {"name":"efficientnet-lite4/model/blocks_0/conv2d/Conv2D_0/convolution_bn_offset","op":"Const","attr":{"value":{"tensor":{"dtype":"DT_FLOAT","tensorShape":{"dim":[{"size":"24"}]}}},"dtype":{"type":"DT_FLOAT"}}},
          {"name":"efficientnet-lite4/model/blocks_1/conv2d/Conv2D_0/convolution_weights","op":"Const","attr":{"dtype":{"type":"DT_FLOAT"},"value":{"tensor":{"dtype":"DT_FLOAT","tensorShape":{"dim":[{"size":"1"},{"size":"1"},{"size":"24"},{"size":"144"}]}}}}},
          {"name":"efficientnet-lite4/model/blocks_1/conv2d/Conv2D_0/convolution_bn_offset","op":"Const","attr":{"dtype":{"type":"DT_FLOAT"},"value":{"tensor":{"dtype":"DT_FLOAT","tensorShape":{"dim":[{"size":"144"}]}}}}},
          {"name":"efficientnet-lite4/model/blocks_1/depthwise_conv2d/depthwise_0/depthwise_weights","op":"Const","attr":{"value":{"tensor":{"dtype":"DT_FLOAT","tensorShape":{"dim":[{"size":"3"},{"size":"3"},{"size":"144"},{"size":"1"}]}}},"dtype":{"type":"DT_FLOAT"}}},
          {"name":"efficientnet-lite4/model/blocks_1/depthwise_conv2d/depthwise_0/depthwise_bn_offset","op":"Const","attr":{"value":{"tensor":{"dtype":"DT_FLOAT","tensorShape":{"dim":[{"size":"144"}]}}},"dtype":{"type":"DT_FLOAT"}}},
          {"name":"efficientnet-lite4/model/blocks_1/conv2d_1/Conv2D_0/convolution_weights","op":"Const","attr":{"value":{"tensor":{"dtype":"DT_FLOAT","tensorShape":{"dim":[{"size":"1"},{"size":"1"},{"size":"144"},{"size":"32"}]}}},"dtype":{"type":"DT_FLOAT"}}},
          {"name":"pass3_block1_mbconv3_detection2_conv2/convolution_weights","op":"Const","attr":{"dtype":{"type":"DT_FLOAT"},"value":{"tensor":{"dtype":"DT_FLOAT","tensorShape":{"dim":[{"size":"1"},{"size":"1"},{"size":"336"},{"size":"56"}]}}}}},
          {"name":"efficientnet-lite4/model/blocks_1/conv2d_1/Conv2D_0/convolution_bn_offset","op":"Const","attr":{"value":{"tensor":{"dtype":"DT_FLOAT","tensorShape":{"dim":[{"size":"32"}]}}},"dtype":{"type":"DT_FLOAT"}}},
          {"name":"efficientnet-lite4/model/blocks_2/conv2d/Conv2D_0/convolution_weights","op":"Const","attr":{"dtype":{"type":"DT_FLOAT"},"value":{"tensor":{"dtype":"DT_FLOAT","tensorShape":{"dim":[{"size":"1"},{"size":"1"},{"size":"32"},{"size":"192"}]}}}}},
          {"name":"efficientnet-lite4/model/blocks_2/conv2d/Conv2D_0/convolution_bn_offset","op":"Const","attr":{"dtype":{"type":"DT_FLOAT"},"value":{"tensor":{"dtype":"DT_FLOAT","tensorShape":{"dim":[{"size":"192"}]}}}}},
          {"name":"pass3_block1_mbconv3_detection2_conv2/convolution_bn_offset","op":"Const","attr":{"value":{"tensor":{"dtype":"DT_FLOAT","tensorShape":{"dim":[{"size":"56"}]}}},"dtype":{"type":"DT_FLOAT"}}},
          {"name":"efficientnet-lite4/model/blocks_2/depthwise_conv2d/depthwise_0/depthwise_weights","op":"Const","attr":{"dtype":{"type":"DT_FLOAT"},"value":{"tensor":{"dtype":"DT_FLOAT","tensorShape":{"dim":[{"size":"3"},{"size":"3"},{"size":"192"},{"size":"1"}]}}}}},
          {"name":"efficientnet-lite4/model/blocks_2/depthwise_conv2d/depthwise_0/depthwise_bn_offset","op":"Const","attr":{"value":{"tensor":{"dtype":"DT_FLOAT","tensorShape":{"dim":[{"size":"192"}]}}},"dtype":{"type":"DT_FLOAT"}}},
          {"name":"efficientnet-lite4/model/blocks_2/conv2d_1/Conv2D_0/convolution_weights","op":"Const","attr":{"value":{"tensor":{"dtype":"DT_FLOAT","tensorShape":{"dim":[{"size":"1"},{"size":"1"},{"size":"192"},{"size":"32"}]}}},"dtype":{"type":"DT_FLOAT"}}},
          {"name":"efficientnet-lite4/model/blocks_2/conv2d_1/Conv2D_0/convolution_bn_offset","op":"Const","attr":{"value":{"tensor":{"dtype":"DT_FLOAT","tensorShape":{"dim":[{"size":"32"}]}}},"dtype":{"type":"DT_FLOAT"}}},
          {"name":"efficientnet-lite4/model/blocks_3/conv2d/Conv2D_0/convolution_weights","op":"Const","attr":{"value":{"tensor":{"dtype":"DT_FLOAT","tensorShape":{"dim":[{"size":"1"},{"size":"1"},{"size":"32"},{"size":"192"}]}}},"dtype":{"type":"DT_FLOAT"}}},
          {"name":"efficientnet-lite4/model/blocks_3/conv2d/Conv2D_0/convolution_bn_offset","op":"Const","attr":{"value":{"tensor":{"dtype":"DT_FLOAT","tensorShape":{"dim":[{"size":"192"}]}}},"dtype":{"type":"DT_FLOAT"}}},
          {"name":"pass3_block2_mbconv1_detection2_conv1/convolution_weights","op":"Const","attr":{"dtype":{"type":"DT_FLOAT"},"value":{"tensor":{"dtype":"DT_FLOAT","tensorShape":{"dim":[{"size":"1"},{"size":"1"},{"size":"168"},{"size":"336"}]}}}}},
          {"name":"efficientnet-lite4/model/blocks_3/depthwise_conv2d/depthwise_0/depthwise_weights","op":"Const","attr":{"value":{"tensor":{"dtype":"DT_FLOAT","tensorShape":{"dim":[{"size":"3"},{"size":"3"},{"size":"192"},{"size":"1"}]}}},"dtype":{"type":"DT_FLOAT"}}},
          {"name":"efficientnet-lite4/model/blocks_3/depthwise_conv2d/depthwise_0/depthwise_bn_offset","op":"Const","attr":{"dtype":{"type":"DT_FLOAT"},"value":{"tensor":{"dtype":"DT_FLOAT","tensorShape":{"dim":[{"size":"192"}]}}}}},
          {"name":"efficientnet-lite4/model/blocks_3/conv2d_1/Conv2D_0/convolution_weights","op":"Const","attr":{"value":{"tensor":{"dtype":"DT_FLOAT","tensorShape":{"dim":[{"size":"1"},{"size":"1"},{"size":"192"},{"size":"32"}]}}},"dtype":{"type":"DT_FLOAT"}}},
          {"name":"efficientnet-lite4/model/blocks_3/conv2d_1/Conv2D_0/convolution_bn_offset","op":"Const","attr":{"dtype":{"type":"DT_FLOAT"},"value":{"tensor":{"dtype":"DT_FLOAT","tensorShape":{"dim":[{"size":"32"}]}}}}},
          {"name":"efficientnet-lite4/model/blocks_4/conv2d/Conv2D_0/convolution_weights","op":"Const","attr":{"dtype":{"type":"DT_FLOAT"},"value":{"tensor":{"dtype":"DT_FLOAT","tensorShape":{"dim":[{"size":"1"},{"size":"1"},{"size":"32"},{"size":"192"}]}}}}},
          {"name":"pass3_block2_mbconv1_detection2_conv1/convolution_bn_offset","op":"Const","attr":{"value":{"tensor":{"dtype":"DT_FLOAT","tensorShape":{"dim":[{"size":"336"}]}}},"dtype":{"type":"DT_FLOAT"}}},
          {"name":"efficientnet-lite4/model/blocks_4/conv2d/Conv2D_0/convolution_bn_offset","op":"Const","attr":{"dtype":{"type":"DT_FLOAT"},"value":{"tensor":{"dtype":"DT_FLOAT","tensorShape":{"dim":[{"size":"192"}]}}}}},
          {"name":"efficientnet-lite4/model/blocks_4/depthwise_conv2d/depthwise_0/depthwise_weights","op":"Const","attr":{"dtype":{"type":"DT_FLOAT"},"value":{"tensor":{"dtype":"DT_FLOAT","tensorShape":{"dim":[{"size":"3"},{"size":"3"},{"size":"192"},{"size":"1"}]}}}}},
          {"name":"efficientnet-lite4/model/blocks_4/depthwise_conv2d/depthwise_0/depthwise_bn_offset","op":"Const","attr":{"value":{"tensor":{"dtype":"DT_FLOAT","tensorShape":{"dim":[{"size":"192"}]}}},"dtype":{"type":"DT_FLOAT"}}},
          {"name":"efficientnet-lite4/model/blocks_4/conv2d_1/Conv2D_0/convolution_weights","op":"Const","attr":{"value":{"tensor":{"dtype":"DT_FLOAT","tensorShape":{"dim":[{"size":"1"},{"size":"1"},{"size":"192"},{"size":"32"}]}}},"dtype":{"type":"DT_FLOAT"}}},
          {"name":"efficientnet-lite4/model/blocks_4/conv2d_1/Conv2D_0/convolution_bn_offset","op":"Const","attr":{"value":{"tensor":{"dtype":"DT_FLOAT","tensorShape":{"dim":[{"size":"32"}]}}},"dtype":{"type":"DT_FLOAT"}}},
          {"name":"efficientnet-lite4/model/blocks_5/conv2d/Conv2D_0/convolution_weights","op":"Const","attr":{"value":{"tensor":{"dtype":"DT_FLOAT","tensorShape":{"dim":[{"size":"1"},{"size":"1"},{"size":"32"},{"size":"192"}]}}},"dtype":{"type":"DT_FLOAT"}}},
          {"name":"pass3_block2_mbconv1_detection2_dconv1/depthwise_weights","op":"Const","attr":{"dtype":{"type":"DT_FLOAT"},"value":{"tensor":{"dtype":"DT_FLOAT","tensorShape":{"dim":[{"size":"5"},{"size":"5"},{"size":"336"},{"size":"1"}]}}}}},
          {"name":"efficientnet-lite4/model/blocks_5/conv2d/Conv2D_0/convolution_bn_offset","op":"Const","attr":{"value":{"tensor":{"dtype":"DT_FLOAT","tensorShape":{"dim":[{"size":"192"}]}}},"dtype":{"type":"DT_FLOAT"}}},
          {"name":"efficientnet-lite4/model/blocks_5/depthwise_conv2d/depthwise_0/depthwise_weights","op":"Const","attr":{"dtype":{"type":"DT_FLOAT"},"value":{"tensor":{"dtype":"DT_FLOAT","tensorShape":{"dim":[{"size":"5"},{"size":"5"},{"size":"192"},{"size":"1"}]}}}}},
          {"name":"efficientnet-lite4/model/blocks_5/depthwise_conv2d/depthwise_0/depthwise_bn_offset","op":"Const","attr":{"dtype":{"type":"DT_FLOAT"},"value":{"tensor":{"dtype":"DT_FLOAT","tensorShape":{"dim":[{"size":"192"}]}}}}},
          {"name":"efficientnet-lite4/model/blocks_5/conv2d_1/Conv2D_0/convolution_weights","op":"Const","attr":{"value":{"tensor":{"dtype":"DT_FLOAT","tensorShape":{"dim":[{"size":"1"},{"size":"1"},{"size":"192"},{"size":"56"}]}}},"dtype":{"type":"DT_FLOAT"}}},
          {"name":"pass3_block2_mbconv1_detection2_dconv1/depthwise_bn_offset","op":"Const","attr":{"value":{"tensor":{"dtype":"DT_FLOAT","tensorShape":{"dim":[{"size":"336"}]}}},"dtype":{"type":"DT_FLOAT"}}},
          {"name":"efficientnet-lite4/model/blocks_5/conv2d_1/Conv2D_0/convolution_bn_offset","op":"Const","attr":{"value":{"tensor":{"dtype":"DT_FLOAT","tensorShape":{"dim":[{"size":"56"}]}}},"dtype":{"type":"DT_FLOAT"}}},
          {"name":"efficientnet-lite4/model/blocks_6/conv2d/Conv2D_0/convolution_weights","op":"Const","attr":{"dtype":{"type":"DT_FLOAT"},"value":{"tensor":{"dtype":"DT_FLOAT","tensorShape":{"dim":[{"size":"1"},{"size":"1"},{"size":"56"},{"size":"336"}]}}}}},
          {"name":"efficientnet-lite4/model/blocks_6/conv2d/Conv2D_0/convolution_bn_offset","op":"Const","attr":{"value":{"tensor":{"dtype":"DT_FLOAT","tensorShape":{"dim":[{"size":"336"}]}}},"dtype":{"type":"DT_FLOAT"}}},
          {"name":"efficientnet-lite4/model/blocks_6/depthwise_conv2d/depthwise_0/depthwise_weights","op":"Const","attr":{"value":{"tensor":{"dtype":"DT_FLOAT","tensorShape":{"dim":[{"size":"5"},{"size":"5"},{"size":"336"},{"size":"1"}]}}},"dtype":{"type":"DT_FLOAT"}}},
          {"name":"efficientnet-lite4/model/blocks_6/depthwise_conv2d/depthwise_0/depthwise_bn_offset","op":"Const","attr":{"dtype":{"type":"DT_FLOAT"},"value":{"tensor":{"dtype":"DT_FLOAT","tensorShape":{"dim":[{"size":"336"}]}}}}},
          {"name":"efficientnet-lite4/model/blocks_6/conv2d_1/Conv2D_0/convolution_weights","op":"Const","attr":{"value":{"tensor":{"dtype":"DT_FLOAT","tensorShape":{"dim":[{"size":"1"},{"size":"1"},{"size":"336"},{"size":"56"}]}}},"dtype":{"type":"DT_FLOAT"}}},
          {"name":"pass3_block2_mbconv1_detection2_conv2/convolution_weights","op":"Const","attr":{"value":{"tensor":{"dtype":"DT_FLOAT","tensorShape":{"dim":[{"size":"1"},{"size":"1"},{"size":"336"},{"size":"56"}]}}},"dtype":{"type":"DT_FLOAT"}}},
          {"name":"efficientnet-lite4/model/blocks_6/conv2d_1/Conv2D_0/convolution_bn_offset","op":"Const","attr":{"value":{"tensor":{"dtype":"DT_FLOAT","tensorShape":{"dim":[{"size":"56"}]}}},"dtype":{"type":"DT_FLOAT"}}},
          {"name":"efficientnet-lite4/model/blocks_7/conv2d/Conv2D_0/convolution_weights","op":"Const","attr":{"value":{"tensor":{"dtype":"DT_FLOAT","tensorShape":{"dim":[{"size":"1"},{"size":"1"},{"size":"56"},{"size":"336"}]}}},"dtype":{"type":"DT_FLOAT"}}},
          {"name":"efficientnet-lite4/model/blocks_7/conv2d/Conv2D_0/convolution_bn_offset","op":"Const","attr":{"dtype":{"type":"DT_FLOAT"},"value":{"tensor":{"dtype":"DT_FLOAT","tensorShape":{"dim":[{"size":"336"}]}}}}},
          {"name":"pass3_block2_mbconv1_detection2_conv2/convolution_bn_offset","op":"Const","attr":{"value":{"tensor":{"dtype":"DT_FLOAT","tensorShape":{"dim":[{"size":"56"}]}}},"dtype":{"type":"DT_FLOAT"}}},
          {"name":"efficientnet-lite4/model/blocks_7/depthwise_conv2d/depthwise_0/depthwise_weights","op":"Const","attr":{"value":{"tensor":{"dtype":"DT_FLOAT","tensorShape":{"dim":[{"size":"5"},{"size":"5"},{"size":"336"},{"size":"1"}]}}},"dtype":{"type":"DT_FLOAT"}}},
          {"name":"efficientnet-lite4/model/blocks_7/depthwise_conv2d/depthwise_0/depthwise_bn_offset","op":"Const","attr":{"dtype":{"type":"DT_FLOAT"},"value":{"tensor":{"dtype":"DT_FLOAT","tensorShape":{"dim":[{"size":"336"}]}}}}},
          {"name":"efficientnet-lite4/model/blocks_7/conv2d_1/Conv2D_0/convolution_weights","op":"Const","attr":{"dtype":{"type":"DT_FLOAT"},"value":{"tensor":{"dtype":"DT_FLOAT","tensorShape":{"dim":[{"size":"1"},{"size":"1"},{"size":"336"},{"size":"56"}]}}}}},
          {"name":"efficientnet-lite4/model/blocks_7/conv2d_1/Conv2D_0/convolution_bn_offset","op":"Const","attr":{"dtype":{"type":"DT_FLOAT"},"value":{"tensor":{"dtype":"DT_FLOAT","tensorShape":{"dim":[{"size":"56"}]}}}}},
          {"name":"efficientnet-lite4/model/blocks_8/conv2d/Conv2D_0/convolution_weights","op":"Const","attr":{"value":{"tensor":{"dtype":"DT_FLOAT","tensorShape":{"dim":[{"size":"1"},{"size":"1"},{"size":"56"},{"size":"336"}]}}},"dtype":{"type":"DT_FLOAT"}}},
          {"name":"pass3_block2_mbconv2_detection2_conv1/convolution_weights","op":"Const","attr":{"value":{"tensor":{"dtype":"DT_FLOAT","tensorShape":{"dim":[{"size":"1"},{"size":"1"},{"size":"56"},{"size":"336"}]}}},"dtype":{"type":"DT_FLOAT"}}},
          {"name":"efficientnet-lite4/model/blocks_8/conv2d/Conv2D_0/convolution_bn_offset","op":"Const","attr":{"value":{"tensor":{"dtype":"DT_FLOAT","tensorShape":{"dim":[{"size":"336"}]}}},"dtype":{"type":"DT_FLOAT"}}},
          {"name":"efficientnet-lite4/model/blocks_8/depthwise_conv2d/depthwise_0/depthwise_weights","op":"Const","attr":{"dtype":{"type":"DT_FLOAT"},"value":{"tensor":{"dtype":"DT_FLOAT","tensorShape":{"dim":[{"size":"5"},{"size":"5"},{"size":"336"},{"size":"1"}]}}}}},
          {"name":"efficientnet-lite4/model/blocks_8/depthwise_conv2d/depthwise_0/depthwise_bn_offset","op":"Const","attr":{"dtype":{"type":"DT_FLOAT"},"value":{"tensor":{"dtype":"DT_FLOAT","tensorShape":{"dim":[{"size":"336"}]}}}}},
          {"name":"efficientnet-lite4/model/blocks_8/conv2d_1/Conv2D_0/convolution_weights","op":"Const","attr":{"dtype":{"type":"DT_FLOAT"},"value":{"tensor":{"dtype":"DT_FLOAT","tensorShape":{"dim":[{"size":"1"},{"size":"1"},{"size":"336"},{"size":"56"}]}}}}},
          {"name":"pass3_block2_mbconv2_detection2_conv1/convolution_bn_offset","op":"Const","attr":{"value":{"tensor":{"dtype":"DT_FLOAT","tensorShape":{"dim":[{"size":"336"}]}}},"dtype":{"type":"DT_FLOAT"}}},
          {"name":"efficientnet-lite4/model/blocks_8/conv2d_1/Conv2D_0/convolution_bn_offset","op":"Const","attr":{"dtype":{"type":"DT_FLOAT"},"value":{"tensor":{"dtype":"DT_FLOAT","tensorShape":{"dim":[{"size":"56"}]}}}}},
          {"name":"pass1_block1_mbconv1_skeleton_conv1/convolution_weights","op":"Const","attr":{"dtype":{"type":"DT_FLOAT"},"value":{"tensor":{"dtype":"DT_FLOAT","tensorShape":{"dim":[{"size":"1"},{"size":"1"},{"size":"56"},{"size":"336"}]}}}}},
          {"name":"pass1_block1_mbconv1_skeleton_conv1/convolution_bn_offset","op":"Const","attr":{"dtype":{"type":"DT_FLOAT"},"value":{"tensor":{"dtype":"DT_FLOAT","tensorShape":{"dim":[{"size":"336"}]}}}}},
          {"name":"pass1_block1_mbconv1_skeleton_dconv1/depthwise_weights","op":"Const","attr":{"dtype":{"type":"DT_FLOAT"},"value":{"tensor":{"dtype":"DT_FLOAT","tensorShape":{"dim":[{"size":"5"},{"size":"5"},{"size":"336"},{"size":"1"}]}}}}},
          {"name":"pass1_block1_mbconv1_skeleton_dconv1/depthwise_bn_offset","op":"Const","attr":{"value":{"tensor":{"dtype":"DT_FLOAT","tensorShape":{"dim":[{"size":"336"}]}}},"dtype":{"type":"DT_FLOAT"}}},
          {"name":"pass1_block1_mbconv1_skeleton_conv2/convolution_weights","op":"Const","attr":{"dtype":{"type":"DT_FLOAT"},"value":{"tensor":{"dtype":"DT_FLOAT","tensorShape":{"dim":[{"size":"1"},{"size":"1"},{"size":"336"},{"size":"56"}]}}}}},
          {"name":"pass3_block2_mbconv2_detection2_dconv1/depthwise_weights","op":"Const","attr":{"value":{"tensor":{"dtype":"DT_FLOAT","tensorShape":{"dim":[{"size":"5"},{"size":"5"},{"size":"336"},{"size":"1"}]}}},"dtype":{"type":"DT_FLOAT"}}},
          {"name":"pass1_block1_mbconv1_skeleton_conv2/convolution_bn_offset","op":"Const","attr":{"dtype":{"type":"DT_FLOAT"},"value":{"tensor":{"dtype":"DT_FLOAT","tensorShape":{"dim":[{"size":"56"}]}}}}},
          {"name":"pass1_block1_mbconv2_skeleton_conv1/convolution_weights","op":"Const","attr":{"dtype":{"type":"DT_FLOAT"},"value":{"tensor":{"dtype":"DT_FLOAT","tensorShape":{"dim":[{"size":"1"},{"size":"1"},{"size":"56"},{"size":"336"}]}}}}},
          {"name":"pass1_block1_mbconv2_skeleton_conv1/convolution_bn_offset","op":"Const","attr":{"value":{"tensor":{"dtype":"DT_FLOAT","tensorShape":{"dim":[{"size":"336"}]}}},"dtype":{"type":"DT_FLOAT"}}},
          {"name":"pass3_block2_mbconv2_detection2_dconv1/depthwise_bn_offset","op":"Const","attr":{"dtype":{"type":"DT_FLOAT"},"value":{"tensor":{"dtype":"DT_FLOAT","tensorShape":{"dim":[{"size":"336"}]}}}}},
          {"name":"pass1_block1_mbconv2_skeleton_dconv1/depthwise_weights","op":"Const","attr":{"value":{"tensor":{"dtype":"DT_FLOAT","tensorShape":{"dim":[{"size":"5"},{"size":"5"},{"size":"336"},{"size":"1"}]}}},"dtype":{"type":"DT_FLOAT"}}},
          {"name":"pass1_block1_mbconv2_skeleton_dconv1/depthwise_bn_offset","op":"Const","attr":{"dtype":{"type":"DT_FLOAT"},"value":{"tensor":{"dtype":"DT_FLOAT","tensorShape":{"dim":[{"size":"336"}]}}}}},
          {"name":"pass1_block1_mbconv2_skeleton_conv2/convolution_weights","op":"Const","attr":{"dtype":{"type":"DT_FLOAT"},"value":{"tensor":{"dtype":"DT_FLOAT","tensorShape":{"dim":[{"size":"1"},{"size":"1"},{"size":"336"},{"size":"56"}]}}}}},
          {"name":"pass1_block1_mbconv2_skeleton_conv2/convolution_bn_offset","op":"Const","attr":{"dtype":{"type":"DT_FLOAT"},"value":{"tensor":{"dtype":"DT_FLOAT","tensorShape":{"dim":[{"size":"56"}]}}}}},
          {"name":"pass1_block1_mbconv3_skeleton_conv1/convolution_weights","op":"Const","attr":{"value":{"tensor":{"dtype":"DT_FLOAT","tensorShape":{"dim":[{"size":"1"},{"size":"1"},{"size":"112"},{"size":"336"}]}}},"dtype":{"type":"DT_FLOAT"}}},
          {"name":"pass1_block1_mbconv3_skeleton_conv1/convolution_bn_offset","op":"Const","attr":{"value":{"tensor":{"dtype":"DT_FLOAT","tensorShape":{"dim":[{"size":"336"}]}}},"dtype":{"type":"DT_FLOAT"}}},
          {"name":"pass3_block2_mbconv2_detection2_conv2/convolution_weights","op":"Const","attr":{"dtype":{"type":"DT_FLOAT"},"value":{"tensor":{"dtype":"DT_FLOAT","tensorShape":{"dim":[{"size":"1"},{"size":"1"},{"size":"336"},{"size":"56"}]}}}}},
          {"name":"pass1_block1_mbconv3_skeleton_dconv1/depthwise_weights","op":"Const","attr":{"dtype":{"type":"DT_FLOAT"},"value":{"tensor":{"dtype":"DT_FLOAT","tensorShape":{"dim":[{"size":"5"},{"size":"5"},{"size":"336"},{"size":"1"}]}}}}},
          {"name":"pass1_block1_mbconv3_skeleton_dconv1/depthwise_bn_offset","op":"Const","attr":{"value":{"tensor":{"dtype":"DT_FLOAT","tensorShape":{"dim":[{"size":"336"}]}}},"dtype":{"type":"DT_FLOAT"}}},
          {"name":"pass1_block1_mbconv3_skeleton_conv2/convolution_weights","op":"Const","attr":{"dtype":{"type":"DT_FLOAT"},"value":{"tensor":{"dtype":"DT_FLOAT","tensorShape":{"dim":[{"size":"1"},{"size":"1"},{"size":"336"},{"size":"56"}]}}}}},
          {"name":"pass1_block1_mbconv3_skeleton_conv2/convolution_bn_offset","op":"Const","attr":{"value":{"tensor":{"dtype":"DT_FLOAT","tensorShape":{"dim":[{"size":"56"}]}}},"dtype":{"type":"DT_FLOAT"}}},
          {"name":"pass1_block2_mbconv1_skeleton_conv1/convolution_weights","op":"Const","attr":{"value":{"tensor":{"dtype":"DT_FLOAT","tensorShape":{"dim":[{"size":"1"},{"size":"1"},{"size":"168"},{"size":"336"}]}}},"dtype":{"type":"DT_FLOAT"}}},
          {"name":"pass3_block2_mbconv2_detection2_conv2/convolution_bn_offset","op":"Const","attr":{"dtype":{"type":"DT_FLOAT"},"value":{"tensor":{"dtype":"DT_FLOAT","tensorShape":{"dim":[{"size":"56"}]}}}}},
          {"name":"pass1_block2_mbconv1_skeleton_conv1/convolution_bn_offset","op":"Const","attr":{"dtype":{"type":"DT_FLOAT"},"value":{"tensor":{"dtype":"DT_FLOAT","tensorShape":{"dim":[{"size":"336"}]}}}}},
          {"name":"pass1_block2_mbconv1_skeleton_dconv1/depthwise_weights","op":"Const","attr":{"dtype":{"type":"DT_FLOAT"},"value":{"tensor":{"dtype":"DT_FLOAT","tensorShape":{"dim":[{"size":"5"},{"size":"5"},{"size":"336"},{"size":"1"}]}}}}},
          {"name":"pass1_block2_mbconv1_skeleton_dconv1/depthwise_bn_offset","op":"Const","attr":{"value":{"tensor":{"dtype":"DT_FLOAT","tensorShape":{"dim":[{"size":"336"}]}}},"dtype":{"type":"DT_FLOAT"}}},
          {"name":"pass1_block2_mbconv1_skeleton_conv2/convolution_weights","op":"Const","attr":{"value":{"tensor":{"dtype":"DT_FLOAT","tensorShape":{"dim":[{"size":"1"},{"size":"1"},{"size":"336"},{"size":"56"}]}}},"dtype":{"type":"DT_FLOAT"}}},
          {"name":"pass1_block2_mbconv1_skeleton_conv2/convolution_bn_offset","op":"Const","attr":{"dtype":{"type":"DT_FLOAT"},"value":{"tensor":{"dtype":"DT_FLOAT","tensorShape":{"dim":[{"size":"56"}]}}}}},
          {"name":"pass1_block2_mbconv2_skeleton_conv1/convolution_weights","op":"Const","attr":{"value":{"tensor":{"dtype":"DT_FLOAT","tensorShape":{"dim":[{"size":"1"},{"size":"1"},{"size":"56"},{"size":"336"}]}}},"dtype":{"type":"DT_FLOAT"}}},
          {"name":"pass3_block2_mbconv3_detection2_conv1/convolution_weights","op":"Const","attr":{"value":{"tensor":{"dtype":"DT_FLOAT","tensorShape":{"dim":[{"size":"1"},{"size":"1"},{"size":"112"},{"size":"336"}]}}},"dtype":{"type":"DT_FLOAT"}}},
          {"name":"pass1_block2_mbconv2_skeleton_conv1/convolution_bn_offset","op":"Const","attr":{"value":{"tensor":{"dtype":"DT_FLOAT","tensorShape":{"dim":[{"size":"336"}]}}},"dtype":{"type":"DT_FLOAT"}}},
          {"name":"pass1_block2_mbconv2_skeleton_dconv1/depthwise_weights","op":"Const","attr":{"value":{"tensor":{"dtype":"DT_FLOAT","tensorShape":{"dim":[{"size":"5"},{"size":"5"},{"size":"336"},{"size":"1"}]}}},"dtype":{"type":"DT_FLOAT"}}},
          {"name":"pass1_block2_mbconv2_skeleton_dconv1/depthwise_bn_offset","op":"Const","attr":{"value":{"tensor":{"dtype":"DT_FLOAT","tensorShape":{"dim":[{"size":"336"}]}}},"dtype":{"type":"DT_FLOAT"}}},
          {"name":"pass1_block2_mbconv2_skeleton_conv2/convolution_weights","op":"Const","attr":{"dtype":{"type":"DT_FLOAT"},"value":{"tensor":{"dtype":"DT_FLOAT","tensorShape":{"dim":[{"size":"1"},{"size":"1"},{"size":"336"},{"size":"56"}]}}}}},
          {"name":"pass3_block2_mbconv3_detection2_conv1/convolution_bn_offset","op":"Const","attr":{"dtype":{"type":"DT_FLOAT"},"value":{"tensor":{"dtype":"DT_FLOAT","tensorShape":{"dim":[{"size":"336"}]}}}}},
          {"name":"pass1_block2_mbconv2_skeleton_conv2/convolution_bn_offset","op":"Const","attr":{"value":{"tensor":{"dtype":"DT_FLOAT","tensorShape":{"dim":[{"size":"56"}]}}},"dtype":{"type":"DT_FLOAT"}}},
          {"name":"pass1_block2_mbconv3_skeleton_conv1/convolution_weights","op":"Const","attr":{"dtype":{"type":"DT_FLOAT"},"value":{"tensor":{"dtype":"DT_FLOAT","tensorShape":{"dim":[{"size":"1"},{"size":"1"},{"size":"112"},{"size":"336"}]}}}}},
          {"name":"pass1_block2_mbconv3_skeleton_conv1/convolution_bn_offset","op":"Const","attr":{"dtype":{"type":"DT_FLOAT"},"value":{"tensor":{"dtype":"DT_FLOAT","tensorShape":{"dim":[{"size":"336"}]}}}}},
          {"name":"pass1_block2_mbconv3_skeleton_dconv1/depthwise_weights","op":"Const","attr":{"dtype":{"type":"DT_FLOAT"},"value":{"tensor":{"dtype":"DT_FLOAT","tensorShape":{"dim":[{"size":"5"},{"size":"5"},{"size":"336"},{"size":"1"}]}}}}},
          {"name":"pass1_block2_mbconv3_skeleton_dconv1/depthwise_bn_offset","op":"Const","attr":{"value":{"tensor":{"dtype":"DT_FLOAT","tensorShape":{"dim":[{"size":"336"}]}}},"dtype":{"type":"DT_FLOAT"}}},
          {"name":"pass1_block2_mbconv3_skeleton_conv2/convolution_weights","op":"Const","attr":{"value":{"tensor":{"dtype":"DT_FLOAT","tensorShape":{"dim":[{"size":"1"},{"size":"1"},{"size":"336"},{"size":"56"}]}}},"dtype":{"type":"DT_FLOAT"}}},
          {"name":"pass3_block2_mbconv3_detection2_dconv1/depthwise_weights","op":"Const","attr":{"value":{"tensor":{"dtype":"DT_FLOAT","tensorShape":{"dim":[{"size":"5"},{"size":"5"},{"size":"336"},{"size":"1"}]}}},"dtype":{"type":"DT_FLOAT"}}},
          {"name":"pass1_block2_mbconv3_skeleton_conv2/convolution_bn_offset","op":"Const","attr":{"value":{"tensor":{"dtype":"DT_FLOAT","tensorShape":{"dim":[{"size":"56"}]}}},"dtype":{"type":"DT_FLOAT"}}},
          {"name":"pass2_block1_mbconv1_detection1_conv1/convolution_weights","op":"Const","attr":{"dtype":{"type":"DT_FLOAT"},"value":{"tensor":{"dtype":"DT_FLOAT","tensorShape":{"dim":[{"size":"1"},{"size":"1"},{"size":"224"},{"size":"336"}]}}}}},
          {"name":"pass2_block1_mbconv1_detection1_conv1/convolution_bn_offset","op":"Const","attr":{"dtype":{"type":"DT_FLOAT"},"value":{"tensor":{"dtype":"DT_FLOAT","tensorShape":{"dim":[{"size":"336"}]}}}}},
          {"name":"pass3_block2_mbconv3_detection2_dconv1/depthwise_bn_offset","op":"Const","attr":{"dtype":{"type":"DT_FLOAT"},"value":{"tensor":{"dtype":"DT_FLOAT","tensorShape":{"dim":[{"size":"336"}]}}}}},
          {"name":"pass2_block1_mbconv1_detection1_dconv1/depthwise_weights","op":"Const","attr":{"value":{"tensor":{"dtype":"DT_FLOAT","tensorShape":{"dim":[{"size":"5"},{"size":"5"},{"size":"336"},{"size":"1"}]}}},"dtype":{"type":"DT_FLOAT"}}},
          {"name":"pass2_block1_mbconv1_detection1_dconv1/depthwise_bn_offset","op":"Const","attr":{"value":{"tensor":{"dtype":"DT_FLOAT","tensorShape":{"dim":[{"size":"336"}]}}},"dtype":{"type":"DT_FLOAT"}}},
          {"name":"pass2_block1_mbconv1_detection1_conv2/convolution_weights","op":"Const","attr":{"value":{"tensor":{"dtype":"DT_FLOAT","tensorShape":{"dim":[{"size":"1"},{"size":"1"},{"size":"336"},{"size":"56"}]}}},"dtype":{"type":"DT_FLOAT"}}},
          {"name":"pass2_block1_mbconv1_detection1_conv2/convolution_bn_offset","op":"Const","attr":{"value":{"tensor":{"dtype":"DT_FLOAT","tensorShape":{"dim":[{"size":"56"}]}}},"dtype":{"type":"DT_FLOAT"}}},
          {"name":"pass2_block1_mbconv2_detection1_conv1/convolution_weights","op":"Const","attr":{"dtype":{"type":"DT_FLOAT"},"value":{"tensor":{"dtype":"DT_FLOAT","tensorShape":{"dim":[{"size":"1"},{"size":"1"},{"size":"56"},{"size":"336"}]}}}}},
          {"name":"pass2_block1_mbconv2_detection1_conv1/convolution_bn_offset","op":"Const","attr":{"value":{"tensor":{"dtype":"DT_FLOAT","tensorShape":{"dim":[{"size":"336"}]}}},"dtype":{"type":"DT_FLOAT"}}},
          {"name":"pass3_block2_mbconv3_detection2_conv2/convolution_weights","op":"Const","attr":{"value":{"tensor":{"dtype":"DT_FLOAT","tensorShape":{"dim":[{"size":"1"},{"size":"1"},{"size":"336"},{"size":"56"}]}}},"dtype":{"type":"DT_FLOAT"}}},
          {"name":"pass2_block1_mbconv2_detection1_dconv1/depthwise_weights","op":"Const","attr":{"value":{"tensor":{"dtype":"DT_FLOAT","tensorShape":{"dim":[{"size":"5"},{"size":"5"},{"size":"336"},{"size":"1"}]}}},"dtype":{"type":"DT_FLOAT"}}},
          {"name":"pass2_block1_mbconv2_detection1_dconv1/depthwise_bn_offset","op":"Const","attr":{"dtype":{"type":"DT_FLOAT"},"value":{"tensor":{"dtype":"DT_FLOAT","tensorShape":{"dim":[{"size":"336"}]}}}}},
          {"name":"pass2_block1_mbconv2_detection1_conv2/convolution_weights","op":"Const","attr":{"dtype":{"type":"DT_FLOAT"},"value":{"tensor":{"dtype":"DT_FLOAT","tensorShape":{"dim":[{"size":"1"},{"size":"1"},{"size":"336"},{"size":"56"}]}}}}},
          {"name":"pass2_block1_mbconv2_detection1_conv2/convolution_bn_offset","op":"Const","attr":{"dtype":{"type":"DT_FLOAT"},"value":{"tensor":{"dtype":"DT_FLOAT","tensorShape":{"dim":[{"size":"56"}]}}}}},
          {"name":"pass2_block1_mbconv3_detection1_conv1/convolution_weights","op":"Const","attr":{"value":{"tensor":{"dtype":"DT_FLOAT","tensorShape":{"dim":[{"size":"1"},{"size":"1"},{"size":"112"},{"size":"336"}]}}},"dtype":{"type":"DT_FLOAT"}}},
          {"name":"pass3_block2_mbconv3_detection2_conv2/convolution_bn_offset","op":"Const","attr":{"value":{"tensor":{"dtype":"DT_FLOAT","tensorShape":{"dim":[{"size":"56"}]}}},"dtype":{"type":"DT_FLOAT"}}},
          {"name":"pass2_block1_mbconv3_detection1_conv1/convolution_bn_offset","op":"Const","attr":{"dtype":{"type":"DT_FLOAT"},"value":{"tensor":{"dtype":"DT_FLOAT","tensorShape":{"dim":[{"size":"336"}]}}}}},
          {"name":"pass2_block1_mbconv3_detection1_dconv1/depthwise_weights","op":"Const","attr":{"dtype":{"type":"DT_FLOAT"},"value":{"tensor":{"dtype":"DT_FLOAT","tensorShape":{"dim":[{"size":"5"},{"size":"5"},{"size":"336"},{"size":"1"}]}}}}},
          {"name":"pass2_block1_mbconv3_detection1_dconv1/depthwise_bn_offset","op":"Const","attr":{"dtype":{"type":"DT_FLOAT"},"value":{"tensor":{"dtype":"DT_FLOAT","tensorShape":{"dim":[{"size":"336"}]}}}}},
          {"name":"pass2_block1_mbconv3_detection1_conv2/convolution_weights","op":"Const","attr":{"value":{"tensor":{"dtype":"DT_FLOAT","tensorShape":{"dim":[{"size":"1"},{"size":"1"},{"size":"336"},{"size":"56"}]}}},"dtype":{"type":"DT_FLOAT"}}},
          {"name":"pass2_block1_mbconv3_detection1_conv2/convolution_bn_offset","op":"Const","attr":{"value":{"tensor":{"dtype":"DT_FLOAT","tensorShape":{"dim":[{"size":"56"}]}}},"dtype":{"type":"DT_FLOAT"}}},
          {"name":"pass2_block2_mbconv1_detection1_conv1/convolution_weights","op":"Const","attr":{"dtype":{"type":"DT_FLOAT"},"value":{"tensor":{"dtype":"DT_FLOAT","tensorShape":{"dim":[{"size":"1"},{"size":"1"},{"size":"168"},{"size":"336"}]}}}}},
          {"name":"pass2_block2_mbconv1_detection1_conv1/convolution_bn_offset","op":"Const","attr":{"dtype":{"type":"DT_FLOAT"},"value":{"tensor":{"dtype":"DT_FLOAT","tensorShape":{"dim":[{"size":"336"}]}}}}},
          {"name":"pass2_block2_mbconv1_detection1_dconv1/depthwise_weights","op":"Const","attr":{"dtype":{"type":"DT_FLOAT"},"value":{"tensor":{"dtype":"DT_FLOAT","tensorShape":{"dim":[{"size":"5"},{"size":"5"},{"size":"336"},{"size":"1"}]}}}}},
          {"name":"pass2_block2_mbconv1_detection1_dconv1/depthwise_bn_offset","op":"Const","attr":{"dtype":{"type":"DT_FLOAT"},"value":{"tensor":{"dtype":"DT_FLOAT","tensorShape":{"dim":[{"size":"336"}]}}}}},
          {"name":"pass2_block2_mbconv1_detection1_conv2/convolution_weights","op":"Const","attr":{"dtype":{"type":"DT_FLOAT"},"value":{"tensor":{"dtype":"DT_FLOAT","tensorShape":{"dim":[{"size":"1"},{"size":"1"},{"size":"336"},{"size":"56"}]}}}}},
          {"name":"pass2_block2_mbconv1_detection1_conv2/convolution_bn_offset","op":"Const","attr":{"dtype":{"type":"DT_FLOAT"},"value":{"tensor":{"dtype":"DT_FLOAT","tensorShape":{"dim":[{"size":"56"}]}}}}},
          {"name":"pass2_block2_mbconv2_detection1_conv1/convolution_weights","op":"Const","attr":{"value":{"tensor":{"dtype":"DT_FLOAT","tensorShape":{"dim":[{"size":"1"},{"size":"1"},{"size":"56"},{"size":"336"}]}}},"dtype":{"type":"DT_FLOAT"}}},
          {"name":"pass2_block2_mbconv2_detection1_conv1/convolution_bn_offset","op":"Const","attr":{"value":{"tensor":{"dtype":"DT_FLOAT","tensorShape":{"dim":[{"size":"336"}]}}},"dtype":{"type":"DT_FLOAT"}}},
          {"name":"pass2_block2_mbconv2_detection1_dconv1/depthwise_weights","op":"Const","attr":{"value":{"tensor":{"dtype":"DT_FLOAT","tensorShape":{"dim":[{"size":"5"},{"size":"5"},{"size":"336"},{"size":"1"}]}}},"dtype":{"type":"DT_FLOAT"}}},
          {"name":"pass2_block2_mbconv2_detection1_dconv1/depthwise_bn_offset","op":"Const","attr":{"dtype":{"type":"DT_FLOAT"},"value":{"tensor":{"dtype":"DT_FLOAT","tensorShape":{"dim":[{"size":"336"}]}}}}},
          {"name":"pass2_block2_mbconv2_detection1_conv2/convolution_weights","op":"Const","attr":{"dtype":{"type":"DT_FLOAT"},"value":{"tensor":{"dtype":"DT_FLOAT","tensorShape":{"dim":[{"size":"1"},{"size":"1"},{"size":"336"},{"size":"56"}]}}}}},
          {"name":"pass2_block2_mbconv2_detection1_conv2/convolution_bn_offset","op":"Const","attr":{"dtype":{"type":"DT_FLOAT"},"value":{"tensor":{"dtype":"DT_FLOAT","tensorShape":{"dim":[{"size":"56"}]}}}}},
          {"name":"pass2_block2_mbconv3_detection1_conv1/convolution_weights","op":"Const","attr":{"value":{"tensor":{"dtype":"DT_FLOAT","tensorShape":{"dim":[{"size":"1"},{"size":"1"},{"size":"112"},{"size":"336"}]}}},"dtype":{"type":"DT_FLOAT"}}},
          {"name":"pass2_block2_mbconv3_detection1_conv1/convolution_bn_offset","op":"Const","attr":{"dtype":{"type":"DT_FLOAT"},"value":{"tensor":{"dtype":"DT_FLOAT","tensorShape":{"dim":[{"size":"336"}]}}}}},
          {"name":"pass2_block2_mbconv3_detection1_dconv1/depthwise_weights","op":"Const","attr":{"value":{"tensor":{"dtype":"DT_FLOAT","tensorShape":{"dim":[{"size":"5"},{"size":"5"},{"size":"336"},{"size":"1"}]}}},"dtype":{"type":"DT_FLOAT"}}},
          {"name":"pass2_block2_mbconv3_detection1_dconv1/depthwise_bn_offset","op":"Const","attr":{"value":{"tensor":{"dtype":"DT_FLOAT","tensorShape":{"dim":[{"size":"336"}]}}},"dtype":{"type":"DT_FLOAT"}}},
          {"name":"pass2_block2_mbconv3_detection1_conv2/convolution_weights","op":"Const","attr":{"dtype":{"type":"DT_FLOAT"},"value":{"tensor":{"dtype":"DT_FLOAT","tensorShape":{"dim":[{"size":"1"},{"size":"1"},{"size":"336"},{"size":"56"}]}}}}},
          {"name":"pass2_block2_mbconv3_detection1_conv2/convolution_bn_offset","op":"Const","attr":{"dtype":{"type":"DT_FLOAT"},"value":{"tensor":{"dtype":"DT_FLOAT","tensorShape":{"dim":[{"size":"56"}]}}}}},
          {"name":"pass3_block1_mbconv1_detection2_conv1/convolution_weights","op":"Const","attr":{"dtype":{"type":"DT_FLOAT"},"value":{"tensor":{"dtype":"DT_FLOAT","tensorShape":{"dim":[{"size":"1"},{"size":"1"},{"size":"224"},{"size":"336"}]}}}}},
          {"name":"pass3_block1_mbconv1_detection2_conv1/convolution_bn_offset","op":"Const","attr":{"value":{"tensor":{"dtype":"DT_FLOAT","tensorShape":{"dim":[{"size":"336"}]}}},"dtype":{"type":"DT_FLOAT"}}},
          {"name":"pass3_block1_mbconv1_detection2_dconv1/depthwise_weights","op":"Const","attr":{"value":{"tensor":{"dtype":"DT_FLOAT","tensorShape":{"dim":[{"size":"5"},{"size":"5"},{"size":"336"},{"size":"1"}]}}},"dtype":{"type":"DT_FLOAT"}}},
          {"name":"pass3_block1_mbconv1_detection2_dconv1/depthwise_bn_offset","op":"Const","attr":{"value":{"tensor":{"dtype":"DT_FLOAT","tensorShape":{"dim":[{"size":"336"}]}}},"dtype":{"type":"DT_FLOAT"}}},
          {"name":"pass3_block1_mbconv1_detection2_conv2/convolution_weights","op":"Const","attr":{"dtype":{"type":"DT_FLOAT"},"value":{"tensor":{"dtype":"DT_FLOAT","tensorShape":{"dim":[{"size":"1"},{"size":"1"},{"size":"336"},{"size":"56"}]}}}}},
          {"name":"pass3_block1_mbconv1_detection2_conv2/convolution_bn_offset","op":"Const","attr":{"dtype":{"type":"DT_FLOAT"},"value":{"tensor":{"dtype":"DT_FLOAT","tensorShape":{"dim":[{"size":"56"}]}}}}},
          {"name":"pass3_block1_mbconv2_detection2_conv1/convolution_weights","op":"Const","attr":{"value":{"tensor":{"dtype":"DT_FLOAT","tensorShape":{"dim":[{"size":"1"},{"size":"1"},{"size":"56"},{"size":"336"}]}}},"dtype":{"type":"DT_FLOAT"}}},
          {"name":"pass3_block1_mbconv2_detection2_conv1/convolution_bn_offset","op":"Const","attr":{"dtype":{"type":"DT_FLOAT"},"value":{"tensor":{"dtype":"DT_FLOAT","tensorShape":{"dim":[{"size":"336"}]}}}}},
          {"name":"pass3_block1_mbconv2_detection2_dconv1/depthwise_weights","op":"Const","attr":{"value":{"tensor":{"dtype":"DT_FLOAT","tensorShape":{"dim":[{"size":"5"},{"size":"5"},{"size":"336"},{"size":"1"}]}}},"dtype":{"type":"DT_FLOAT"}}},
          {"name":"pass3_block1_mbconv2_detection2_dconv1/depthwise_bn_offset","op":"Const","attr":{"value":{"tensor":{"dtype":"DT_FLOAT","tensorShape":{"dim":[{"size":"336"}]}}},"dtype":{"type":"DT_FLOAT"}}},
          {"name":"pass3_block1_mbconv2_detection2_conv2/convolution_weights","op":"Const","attr":{"value":{"tensor":{"dtype":"DT_FLOAT","tensorShape":{"dim":[{"size":"1"},{"size":"1"},{"size":"336"},{"size":"56"}]}}},"dtype":{"type":"DT_FLOAT"}}},
          {"name":"pass3_block1_mbconv2_detection2_conv2/convolution_bn_offset","op":"Const","attr":{"value":{"tensor":{"dtype":"DT_FLOAT","tensorShape":{"dim":[{"size":"56"}]}}},"dtype":{"type":"DT_FLOAT"}}},
          {"name":"pass3_block1_mbconv3_detection2_conv1/convolution_weights","op":"Const","attr":{"dtype":{"type":"DT_FLOAT"},"value":{"tensor":{"dtype":"DT_FLOAT","tensorShape":{"dim":[{"size":"1"},{"size":"1"},{"size":"112"},{"size":"336"}]}}}}},
          {"name":"pass3_block1_mbconv3_detection2_conv1/convolution_bn_offset","op":"Const","attr":{"value":{"tensor":{"dtype":"DT_FLOAT","tensorShape":{"dim":[{"size":"336"}]}}},"dtype":{"type":"DT_FLOAT"}}},
          {"name":"efficientnet-lite4/model/stem/Relu6_0/Relu6","op":"_FusedConv2D","input":["input_1_0","efficientnet-lite4/model/stem/conv2d/Conv2D_0/convolution_weights","efficientnet-lite4/model/stem/conv2d/Conv2D_0/convolution_bn_offset"],"device":"/device:CPU:0","attr":{"strides":{"list":{"i":["1","2","2","1"]}},"T":{"type":"DT_FLOAT"},"use_cudnn_on_gpu":{"b":true},"fused_ops":{"list":{"s":["Qmlhc0FkZA==","UmVsdTY="]}},"num_args":{"i":"1"},"explicit_paddings":{"list":{}},"data_format":{"s":"TkhXQw=="},"padding":{"s":"U0FNRQ=="},"dilations":{"list":{"i":["1","1","1","1"]}},"epsilon":{"f":0}}},
          {"name":"efficientnet-lite4/model/blocks_0/depthwise_conv2d/depthwise_0/depthwise","op":"FusedDepthwiseConv2dNative","input":["efficientnet-lite4/model/stem/Relu6_0/Relu6","efficientnet-lite4/model/blocks_0/depthwise_conv2d/depthwise_0/depthwise_weights","efficientnet-lite4/model/blocks_0/depthwise_conv2d/depthwise_0/depthwise_bn_offset"],"attr":{"explicit_paddings":{"list":{}},"fused_ops":{"list":{"s":["Qmlhc0FkZA==","UmVsdTY="]}},"T":{"type":"DT_FLOAT"},"padding":{"s":"U0FNRQ=="},"num_args":{"i":"1"},"data_format":{"s":"TkhXQw=="},"strides":{"list":{"i":["1","1","1","1"]}},"dilations":{"list":{"i":["1","1","1","1"]}}}},
          {"name":"efficientnet-lite4/model/blocks_0/tpu_batch_normalization_1/FusedBatchNormV3_0/FusedBatchNormV3_1","op":"_FusedConv2D","input":["efficientnet-lite4/model/blocks_0/depthwise_conv2d/depthwise_0/depthwise","efficientnet-lite4/model/blocks_0/conv2d/Conv2D_0/convolution_weights","efficientnet-lite4/model/blocks_0/conv2d/Conv2D_0/convolution_bn_offset"],"device":"/device:CPU:0","attr":{"fused_ops":{"list":{"s":["Qmlhc0FkZA=="]}},"T":{"type":"DT_FLOAT"},"padding":{"s":"U0FNRQ=="},"use_cudnn_on_gpu":{"b":true},"explicit_paddings":{"list":{}},"strides":{"list":{"i":["1","1","1","1"]}},"data_format":{"s":"TkhXQw=="},"num_args":{"i":"1"},"dilations":{"list":{"i":["1","1","1","1"]}},"epsilon":{"f":0}}},
          {"name":"efficientnet-lite4/model/blocks_1/Relu6_0/Relu6","op":"_FusedConv2D","input":["efficientnet-lite4/model/blocks_0/tpu_batch_normalization_1/FusedBatchNormV3_0/FusedBatchNormV3_1","efficientnet-lite4/model/blocks_1/conv2d/Conv2D_0/convolution_weights","efficientnet-lite4/model/blocks_1/conv2d/Conv2D_0/convolution_bn_offset"],"device":"/device:CPU:0","attr":{"dilations":{"list":{"i":["1","1","1","1"]}},"data_format":{"s":"TkhXQw=="},"padding":{"s":"U0FNRQ=="},"num_args":{"i":"1"},"explicit_paddings":{"list":{}},"epsilon":{"f":0},"strides":{"list":{"i":["1","1","1","1"]}},"fused_ops":{"list":{"s":["Qmlhc0FkZA==","UmVsdTY="]}},"T":{"type":"DT_FLOAT"},"use_cudnn_on_gpu":{"b":true}}},
          {"name":"efficientnet-lite4/model/blocks_1/depthwise_conv2d/depthwise_0/depthwise","op":"FusedDepthwiseConv2dNative","input":["efficientnet-lite4/model/blocks_1/Relu6_0/Relu6","efficientnet-lite4/model/blocks_1/depthwise_conv2d/depthwise_0/depthwise_weights","efficientnet-lite4/model/blocks_1/depthwise_conv2d/depthwise_0/depthwise_bn_offset"],"attr":{"fused_ops":{"list":{"s":["Qmlhc0FkZA==","UmVsdTY="]}},"T":{"type":"DT_FLOAT"},"padding":{"s":"U0FNRQ=="},"num_args":{"i":"1"},"data_format":{"s":"TkhXQw=="},"explicit_paddings":{"list":{}},"strides":{"list":{"i":["1","2","2","1"]}},"dilations":{"list":{"i":["1","1","1","1"]}}}},
          {"name":"efficientnet-lite4/model/blocks_1/tpu_batch_normalization_2/FusedBatchNormV3_0/FusedBatchNormV3_1","op":"_FusedConv2D","input":["efficientnet-lite4/model/blocks_1/depthwise_conv2d/depthwise_0/depthwise","efficientnet-lite4/model/blocks_1/conv2d_1/Conv2D_0/convolution_weights","efficientnet-lite4/model/blocks_1/conv2d_1/Conv2D_0/convolution_bn_offset"],"device":"/device:CPU:0","attr":{"T":{"type":"DT_FLOAT"},"num_args":{"i":"1"},"data_format":{"s":"TkhXQw=="},"dilations":{"list":{"i":["1","1","1","1"]}},"fused_ops":{"list":{"s":["Qmlhc0FkZA=="]}},"use_cudnn_on_gpu":{"b":true},"epsilon":{"f":0},"strides":{"list":{"i":["1","1","1","1"]}},"padding":{"s":"U0FNRQ=="},"explicit_paddings":{"list":{}}}},
          {"name":"efficientnet-lite4/model/blocks_2/Relu6_0/Relu6","op":"_FusedConv2D","input":["efficientnet-lite4/model/blocks_1/tpu_batch_normalization_2/FusedBatchNormV3_0/FusedBatchNormV3_1","efficientnet-lite4/model/blocks_2/conv2d/Conv2D_0/convolution_weights","efficientnet-lite4/model/blocks_2/conv2d/Conv2D_0/convolution_bn_offset"],"device":"/device:CPU:0","attr":{"num_args":{"i":"1"},"T":{"type":"DT_FLOAT"},"use_cudnn_on_gpu":{"b":true},"fused_ops":{"list":{"s":["Qmlhc0FkZA==","UmVsdTY="]}},"dilations":{"list":{"i":["1","1","1","1"]}},"epsilon":{"f":0},"padding":{"s":"U0FNRQ=="},"strides":{"list":{"i":["1","1","1","1"]}},"explicit_paddings":{"list":{}},"data_format":{"s":"TkhXQw=="}}},
          {"name":"efficientnet-lite4/model/blocks_2/depthwise_conv2d/depthwise_0/depthwise","op":"FusedDepthwiseConv2dNative","input":["efficientnet-lite4/model/blocks_2/Relu6_0/Relu6","efficientnet-lite4/model/blocks_2/depthwise_conv2d/depthwise_0/depthwise_weights","efficientnet-lite4/model/blocks_2/depthwise_conv2d/depthwise_0/depthwise_bn_offset"],"attr":{"strides":{"list":{"i":["1","1","1","1"]}},"num_args":{"i":"1"},"padding":{"s":"U0FNRQ=="},"dilations":{"list":{"i":["1","1","1","1"]}},"T":{"type":"DT_FLOAT"},"data_format":{"s":"TkhXQw=="},"fused_ops":{"list":{"s":["Qmlhc0FkZA==","UmVsdTY="]}},"explicit_paddings":{"list":{}}}},
          {"name":"efficientnet-lite4/model/blocks_2/tpu_batch_normalization_2/FusedBatchNormV3_0/FusedBatchNormV3_1","op":"_FusedConv2D","input":["efficientnet-lite4/model/blocks_2/depthwise_conv2d/depthwise_0/depthwise","efficientnet-lite4/model/blocks_2/conv2d_1/Conv2D_0/convolution_weights","efficientnet-lite4/model/blocks_2/conv2d_1/Conv2D_0/convolution_bn_offset"],"device":"/device:CPU:0","attr":{"padding":{"s":"U0FNRQ=="},"explicit_paddings":{"list":{}},"epsilon":{"f":0},"strides":{"list":{"i":["1","1","1","1"]}},"data_format":{"s":"TkhXQw=="},"num_args":{"i":"1"},"dilations":{"list":{"i":["1","1","1","1"]}},"fused_ops":{"list":{"s":["Qmlhc0FkZA=="]}},"T":{"type":"DT_FLOAT"},"use_cudnn_on_gpu":{"b":true}}},
          {"name":"efficientnet-lite4/model/blocks_2/Add_0/add","op":"AddV2","input":["efficientnet-lite4/model/blocks_2/tpu_batch_normalization_2/FusedBatchNormV3_0/FusedBatchNormV3_1","efficientnet-lite4/model/blocks_1/tpu_batch_normalization_2/FusedBatchNormV3_0/FusedBatchNormV3_1"],"attr":{"T":{"type":"DT_FLOAT"}}},
          {"name":"efficientnet-lite4/model/blocks_3/Relu6_0/Relu6","op":"_FusedConv2D","input":["efficientnet-lite4/model/blocks_2/Add_0/add","efficientnet-lite4/model/blocks_3/conv2d/Conv2D_0/convolution_weights","efficientnet-lite4/model/blocks_3/conv2d/Conv2D_0/convolution_bn_offset"],"device":"/device:CPU:0","attr":{"data_format":{"s":"TkhXQw=="},"explicit_paddings":{"list":{}},"strides":{"list":{"i":["1","1","1","1"]}},"T":{"type":"DT_FLOAT"},"fused_ops":{"list":{"s":["Qmlhc0FkZA==","UmVsdTY="]}},"num_args":{"i":"1"},"padding":{"s":"U0FNRQ=="},"use_cudnn_on_gpu":{"b":true},"epsilon":{"f":0},"dilations":{"list":{"i":["1","1","1","1"]}}}},
          {"name":"efficientnet-lite4/model/blocks_3/depthwise_conv2d/depthwise_0/depthwise","op":"FusedDepthwiseConv2dNative","input":["efficientnet-lite4/model/blocks_3/Relu6_0/Relu6","efficientnet-lite4/model/blocks_3/depthwise_conv2d/depthwise_0/depthwise_weights","efficientnet-lite4/model/blocks_3/depthwise_conv2d/depthwise_0/depthwise_bn_offset"],"attr":{"padding":{"s":"U0FNRQ=="},"T":{"type":"DT_FLOAT"},"data_format":{"s":"TkhXQw=="},"explicit_paddings":{"list":{}},"fused_ops":{"list":{"s":["Qmlhc0FkZA==","UmVsdTY="]}},"num_args":{"i":"1"},"dilations":{"list":{"i":["1","1","1","1"]}},"strides":{"list":{"i":["1","1","1","1"]}}}},
          {"name":"efficientnet-lite4/model/blocks_3/tpu_batch_normalization_2/FusedBatchNormV3_0/FusedBatchNormV3_1","op":"_FusedConv2D","input":["efficientnet-lite4/model/blocks_3/depthwise_conv2d/depthwise_0/depthwise","efficientnet-lite4/model/blocks_3/conv2d_1/Conv2D_0/convolution_weights","efficientnet-lite4/model/blocks_3/conv2d_1/Conv2D_0/convolution_bn_offset"],"device":"/device:CPU:0","attr":{"use_cudnn_on_gpu":{"b":true},"padding":{"s":"U0FNRQ=="},"strides":{"list":{"i":["1","1","1","1"]}},"dilations":{"list":{"i":["1","1","1","1"]}},"explicit_paddings":{"list":{}},"epsilon":{"f":0},"num_args":{"i":"1"},"T":{"type":"DT_FLOAT"},"fused_ops":{"list":{"s":["Qmlhc0FkZA=="]}},"data_format":{"s":"TkhXQw=="}}},
          {"name":"efficientnet-lite4/model/blocks_3/Add_0/add","op":"AddV2","input":["efficientnet-lite4/model/blocks_3/tpu_batch_normalization_2/FusedBatchNormV3_0/FusedBatchNormV3_1","efficientnet-lite4/model/blocks_2/Add_0/add"],"attr":{"T":{"type":"DT_FLOAT"}}},
          {"name":"efficientnet-lite4/model/blocks_4/Relu6_0/Relu6","op":"_FusedConv2D","input":["efficientnet-lite4/model/blocks_3/Add_0/add","efficientnet-lite4/model/blocks_4/conv2d/Conv2D_0/convolution_weights","efficientnet-lite4/model/blocks_4/conv2d/Conv2D_0/convolution_bn_offset"],"device":"/device:CPU:0","attr":{"epsilon":{"f":0},"num_args":{"i":"1"},"T":{"type":"DT_FLOAT"},"use_cudnn_on_gpu":{"b":true},"dilations":{"list":{"i":["1","1","1","1"]}},"explicit_paddings":{"list":{}},"padding":{"s":"U0FNRQ=="},"strides":{"list":{"i":["1","1","1","1"]}},"fused_ops":{"list":{"s":["Qmlhc0FkZA==","UmVsdTY="]}},"data_format":{"s":"TkhXQw=="}}},
          {"name":"efficientnet-lite4/model/blocks_4/depthwise_conv2d/depthwise_0/depthwise","op":"FusedDepthwiseConv2dNative","input":["efficientnet-lite4/model/blocks_4/Relu6_0/Relu6","efficientnet-lite4/model/blocks_4/depthwise_conv2d/depthwise_0/depthwise_weights","efficientnet-lite4/model/blocks_4/depthwise_conv2d/depthwise_0/depthwise_bn_offset"],"attr":{"T":{"type":"DT_FLOAT"},"fused_ops":{"list":{"s":["Qmlhc0FkZA==","UmVsdTY="]}},"dilations":{"list":{"i":["1","1","1","1"]}},"strides":{"list":{"i":["1","1","1","1"]}},"explicit_paddings":{"list":{}},"padding":{"s":"U0FNRQ=="},"num_args":{"i":"1"},"data_format":{"s":"TkhXQw=="}}},
          {"name":"efficientnet-lite4/model/blocks_4/tpu_batch_normalization_2/FusedBatchNormV3_0/FusedBatchNormV3_1","op":"_FusedConv2D","input":["efficientnet-lite4/model/blocks_4/depthwise_conv2d/depthwise_0/depthwise","efficientnet-lite4/model/blocks_4/conv2d_1/Conv2D_0/convolution_weights","efficientnet-lite4/model/blocks_4/conv2d_1/Conv2D_0/convolution_bn_offset"],"device":"/device:CPU:0","attr":{"explicit_paddings":{"list":{}},"num_args":{"i":"1"},"fused_ops":{"list":{"s":["Qmlhc0FkZA=="]}},"epsilon":{"f":0},"padding":{"s":"U0FNRQ=="},"use_cudnn_on_gpu":{"b":true},"dilations":{"list":{"i":["1","1","1","1"]}},"data_format":{"s":"TkhXQw=="},"strides":{"list":{"i":["1","1","1","1"]}},"T":{"type":"DT_FLOAT"}}},
          {"name":"efficientnet-lite4/model/blocks_4/Add_0/add","op":"AddV2","input":["efficientnet-lite4/model/blocks_4/tpu_batch_normalization_2/FusedBatchNormV3_0/FusedBatchNormV3_1","efficientnet-lite4/model/blocks_3/Add_0/add"],"attr":{"T":{"type":"DT_FLOAT"}}},
          {"name":"efficientnet-lite4/model/blocks_5/Relu6_0/Relu6","op":"_FusedConv2D","input":["efficientnet-lite4/model/blocks_4/Add_0/add","efficientnet-lite4/model/blocks_5/conv2d/Conv2D_0/convolution_weights","efficientnet-lite4/model/blocks_5/conv2d/Conv2D_0/convolution_bn_offset"],"device":"/device:CPU:0","attr":{"fused_ops":{"list":{"s":["Qmlhc0FkZA==","UmVsdTY="]}},"num_args":{"i":"1"},"strides":{"list":{"i":["1","1","1","1"]}},"use_cudnn_on_gpu":{"b":true},"dilations":{"list":{"i":["1","1","1","1"]}},"explicit_paddings":{"list":{}},"T":{"type":"DT_FLOAT"},"epsilon":{"f":0},"data_format":{"s":"TkhXQw=="},"padding":{"s":"U0FNRQ=="}}},
          {"name":"efficientnet-lite4/model/blocks_5/depthwise_conv2d/depthwise_0/depthwise","op":"FusedDepthwiseConv2dNative","input":["efficientnet-lite4/model/blocks_5/Relu6_0/Relu6","efficientnet-lite4/model/blocks_5/depthwise_conv2d/depthwise_0/depthwise_weights","efficientnet-lite4/model/blocks_5/depthwise_conv2d/depthwise_0/depthwise_bn_offset"],"attr":{"strides":{"list":{"i":["1","2","2","1"]}},"T":{"type":"DT_FLOAT"},"fused_ops":{"list":{"s":["Qmlhc0FkZA==","UmVsdTY="]}},"explicit_paddings":{"list":{}},"num_args":{"i":"1"},"dilations":{"list":{"i":["1","1","1","1"]}},"padding":{"s":"U0FNRQ=="},"data_format":{"s":"TkhXQw=="}}},
          {"name":"efficientnet-lite4/model/blocks_5/tpu_batch_normalization_2/FusedBatchNormV3_0/FusedBatchNormV3_1","op":"_FusedConv2D","input":["efficientnet-lite4/model/blocks_5/depthwise_conv2d/depthwise_0/depthwise","efficientnet-lite4/model/blocks_5/conv2d_1/Conv2D_0/convolution_weights","efficientnet-lite4/model/blocks_5/conv2d_1/Conv2D_0/convolution_bn_offset"],"device":"/device:CPU:0","attr":{"explicit_paddings":{"list":{}},"padding":{"s":"U0FNRQ=="},"epsilon":{"f":0},"data_format":{"s":"TkhXQw=="},"fused_ops":{"list":{"s":["Qmlhc0FkZA=="]}},"dilations":{"list":{"i":["1","1","1","1"]}},"use_cudnn_on_gpu":{"b":true},"strides":{"list":{"i":["1","1","1","1"]}},"T":{"type":"DT_FLOAT"},"num_args":{"i":"1"}}},
          {"name":"efficientnet-lite4/model/blocks_6/Relu6_0/Relu6","op":"_FusedConv2D","input":["efficientnet-lite4/model/blocks_5/tpu_batch_normalization_2/FusedBatchNormV3_0/FusedBatchNormV3_1","efficientnet-lite4/model/blocks_6/conv2d/Conv2D_0/convolution_weights","efficientnet-lite4/model/blocks_6/conv2d/Conv2D_0/convolution_bn_offset"],"device":"/device:CPU:0","attr":{"T":{"type":"DT_FLOAT"},"epsilon":{"f":0},"padding":{"s":"U0FNRQ=="},"fused_ops":{"list":{"s":["Qmlhc0FkZA==","UmVsdTY="]}},"explicit_paddings":{"list":{}},"dilations":{"list":{"i":["1","1","1","1"]}},"use_cudnn_on_gpu":{"b":true},"num_args":{"i":"1"},"strides":{"list":{"i":["1","1","1","1"]}},"data_format":{"s":"TkhXQw=="}}},
          {"name":"efficientnet-lite4/model/blocks_6/depthwise_conv2d/depthwise_0/depthwise","op":"FusedDepthwiseConv2dNative","input":["efficientnet-lite4/model/blocks_6/Relu6_0/Relu6","efficientnet-lite4/model/blocks_6/depthwise_conv2d/depthwise_0/depthwise_weights","efficientnet-lite4/model/blocks_6/depthwise_conv2d/depthwise_0/depthwise_bn_offset"],"attr":{"T":{"type":"DT_FLOAT"},"num_args":{"i":"1"},"explicit_paddings":{"list":{}},"strides":{"list":{"i":["1","1","1","1"]}},"padding":{"s":"U0FNRQ=="},"data_format":{"s":"TkhXQw=="},"dilations":{"list":{"i":["1","1","1","1"]}},"fused_ops":{"list":{"s":["Qmlhc0FkZA==","UmVsdTY="]}}}},
          {"name":"efficientnet-lite4/model/blocks_6/tpu_batch_normalization_2/FusedBatchNormV3_0/FusedBatchNormV3_1","op":"_FusedConv2D","input":["efficientnet-lite4/model/blocks_6/depthwise_conv2d/depthwise_0/depthwise","efficientnet-lite4/model/blocks_6/conv2d_1/Conv2D_0/convolution_weights","efficientnet-lite4/model/blocks_6/conv2d_1/Conv2D_0/convolution_bn_offset"],"device":"/device:CPU:0","attr":{"padding":{"s":"U0FNRQ=="},"epsilon":{"f":0},"explicit_paddings":{"list":{}},"dilations":{"list":{"i":["1","1","1","1"]}},"use_cudnn_on_gpu":{"b":true},"T":{"type":"DT_FLOAT"},"num_args":{"i":"1"},"data_format":{"s":"TkhXQw=="},"fused_ops":{"list":{"s":["Qmlhc0FkZA=="]}},"strides":{"list":{"i":["1","1","1","1"]}}}},
          {"name":"efficientnet-lite4/model/blocks_6/Add_0/add","op":"AddV2","input":["efficientnet-lite4/model/blocks_6/tpu_batch_normalization_2/FusedBatchNormV3_0/FusedBatchNormV3_1","efficientnet-lite4/model/blocks_5/tpu_batch_normalization_2/FusedBatchNormV3_0/FusedBatchNormV3_1"],"attr":{"T":{"type":"DT_FLOAT"}}},
          {"name":"efficientnet-lite4/model/blocks_7/Relu6_0/Relu6","op":"_FusedConv2D","input":["efficientnet-lite4/model/blocks_6/Add_0/add","efficientnet-lite4/model/blocks_7/conv2d/Conv2D_0/convolution_weights","efficientnet-lite4/model/blocks_7/conv2d/Conv2D_0/convolution_bn_offset"],"device":"/device:CPU:0","attr":{"T":{"type":"DT_FLOAT"},"padding":{"s":"U0FNRQ=="},"dilations":{"list":{"i":["1","1","1","1"]}},"num_args":{"i":"1"},"fused_ops":{"list":{"s":["Qmlhc0FkZA==","UmVsdTY="]}},"epsilon":{"f":0},"use_cudnn_on_gpu":{"b":true},"strides":{"list":{"i":["1","1","1","1"]}},"explicit_paddings":{"list":{}},"data_format":{"s":"TkhXQw=="}}},
          {"name":"efficientnet-lite4/model/blocks_7/depthwise_conv2d/depthwise_0/depthwise","op":"FusedDepthwiseConv2dNative","input":["efficientnet-lite4/model/blocks_7/Relu6_0/Relu6","efficientnet-lite4/model/blocks_7/depthwise_conv2d/depthwise_0/depthwise_weights","efficientnet-lite4/model/blocks_7/depthwise_conv2d/depthwise_0/depthwise_bn_offset"],"attr":{"strides":{"list":{"i":["1","1","1","1"]}},"data_format":{"s":"TkhXQw=="},"T":{"type":"DT_FLOAT"},"dilations":{"list":{"i":["1","1","1","1"]}},"padding":{"s":"U0FNRQ=="},"fused_ops":{"list":{"s":["Qmlhc0FkZA==","UmVsdTY="]}},"num_args":{"i":"1"},"explicit_paddings":{"list":{}}}},
          {"name":"efficientnet-lite4/model/blocks_7/tpu_batch_normalization_2/FusedBatchNormV3_0/FusedBatchNormV3_1","op":"_FusedConv2D","input":["efficientnet-lite4/model/blocks_7/depthwise_conv2d/depthwise_0/depthwise","efficientnet-lite4/model/blocks_7/conv2d_1/Conv2D_0/convolution_weights","efficientnet-lite4/model/blocks_7/conv2d_1/Conv2D_0/convolution_bn_offset"],"device":"/device:CPU:0","attr":{"strides":{"list":{"i":["1","1","1","1"]}},"num_args":{"i":"1"},"padding":{"s":"U0FNRQ=="},"T":{"type":"DT_FLOAT"},"data_format":{"s":"TkhXQw=="},"fused_ops":{"list":{"s":["Qmlhc0FkZA=="]}},"epsilon":{"f":0},"explicit_paddings":{"list":{}},"use_cudnn_on_gpu":{"b":true},"dilations":{"list":{"i":["1","1","1","1"]}}}},
          {"name":"efficientnet-lite4/model/blocks_7/Add_0/add","op":"AddV2","input":["efficientnet-lite4/model/blocks_7/tpu_batch_normalization_2/FusedBatchNormV3_0/FusedBatchNormV3_1","efficientnet-lite4/model/blocks_6/Add_0/add"],"attr":{"T":{"type":"DT_FLOAT"}}},
          {"name":"efficientnet-lite4/model/blocks_8/Relu6_0/Relu6","op":"_FusedConv2D","input":["efficientnet-lite4/model/blocks_7/Add_0/add","efficientnet-lite4/model/blocks_8/conv2d/Conv2D_0/convolution_weights","efficientnet-lite4/model/blocks_8/conv2d/Conv2D_0/convolution_bn_offset"],"device":"/device:CPU:0","attr":{"num_args":{"i":"1"},"padding":{"s":"U0FNRQ=="},"data_format":{"s":"TkhXQw=="},"epsilon":{"f":0},"T":{"type":"DT_FLOAT"},"dilations":{"list":{"i":["1","1","1","1"]}},"strides":{"list":{"i":["1","1","1","1"]}},"explicit_paddings":{"list":{}},"use_cudnn_on_gpu":{"b":true},"fused_ops":{"list":{"s":["Qmlhc0FkZA==","UmVsdTY="]}}}},
          {"name":"efficientnet-lite4/model/blocks_8/depthwise_conv2d/depthwise_0/depthwise","op":"FusedDepthwiseConv2dNative","input":["efficientnet-lite4/model/blocks_8/Relu6_0/Relu6","efficientnet-lite4/model/blocks_8/depthwise_conv2d/depthwise_0/depthwise_weights","efficientnet-lite4/model/blocks_8/depthwise_conv2d/depthwise_0/depthwise_bn_offset"],"attr":{"data_format":{"s":"TkhXQw=="},"fused_ops":{"list":{"s":["Qmlhc0FkZA==","UmVsdTY="]}},"strides":{"list":{"i":["1","1","1","1"]}},"padding":{"s":"U0FNRQ=="},"num_args":{"i":"1"},"dilations":{"list":{"i":["1","1","1","1"]}},"T":{"type":"DT_FLOAT"},"explicit_paddings":{"list":{}}}},
          {"name":"efficientnet-lite4/model/blocks_8/tpu_batch_normalization_2/FusedBatchNormV3_0/FusedBatchNormV3_1","op":"_FusedConv2D","input":["efficientnet-lite4/model/blocks_8/depthwise_conv2d/depthwise_0/depthwise","efficientnet-lite4/model/blocks_8/conv2d_1/Conv2D_0/convolution_weights","efficientnet-lite4/model/blocks_8/conv2d_1/Conv2D_0/convolution_bn_offset"],"device":"/device:CPU:0","attr":{"dilations":{"list":{"i":["1","1","1","1"]}},"epsilon":{"f":0},"padding":{"s":"U0FNRQ=="},"num_args":{"i":"1"},"data_format":{"s":"TkhXQw=="},"strides":{"list":{"i":["1","1","1","1"]}},"fused_ops":{"list":{"s":["Qmlhc0FkZA=="]}},"use_cudnn_on_gpu":{"b":true},"explicit_paddings":{"list":{}},"T":{"type":"DT_FLOAT"}}},
          {"name":"efficientnet-lite4/model/blocks_8/Add_0/add","op":"AddV2","input":["efficientnet-lite4/model/blocks_8/tpu_batch_normalization_2/FusedBatchNormV3_0/FusedBatchNormV3_1","efficientnet-lite4/model/blocks_7/Add_0/add"],"attr":{"T":{"type":"DT_FLOAT"}}},
          {"name":"pass1_block1_mbconv1_skeleton_conv1_relu6/Relu6","op":"_FusedConv2D","input":["efficientnet-lite4/model/blocks_8/Add_0/add","pass1_block1_mbconv1_skeleton_conv1/convolution_weights","pass1_block1_mbconv1_skeleton_conv1/convolution_bn_offset"],"device":"/device:CPU:0","attr":{"fused_ops":{"list":{"s":["Qmlhc0FkZA==","UmVsdTY="]}},"use_cudnn_on_gpu":{"b":true},"epsilon":{"f":0},"num_args":{"i":"1"},"strides":{"list":{"i":["1","1","1","1"]}},"padding":{"s":"U0FNRQ=="},"explicit_paddings":{"list":{}},"T":{"type":"DT_FLOAT"},"dilations":{"list":{"i":["1","1","1","1"]}},"data_format":{"s":"TkhXQw=="}}},
          {"name":"pass1_block1_mbconv1_skeleton_dconv1/depthwise","op":"FusedDepthwiseConv2dNative","input":["pass1_block1_mbconv1_skeleton_conv1_relu6/Relu6","pass1_block1_mbconv1_skeleton_dconv1/depthwise_weights","pass1_block1_mbconv1_skeleton_dconv1/depthwise_bn_offset"],"attr":{"strides":{"list":{"i":["1","1","1","1"]}},"dilations":{"list":{"i":["1","1","1","1"]}},"num_args":{"i":"1"},"fused_ops":{"list":{"s":["Qmlhc0FkZA==","UmVsdTY="]}},"T":{"type":"DT_FLOAT"},"data_format":{"s":"TkhXQw=="},"padding":{"s":"U0FNRQ=="},"explicit_paddings":{"list":{}}}},
          {"name":"pass1_block1_mbconv1_skeleton_conv2_bn/FusedBatchNormV3_1","op":"_FusedConv2D","input":["pass1_block1_mbconv1_skeleton_dconv1/depthwise","pass1_block1_mbconv1_skeleton_conv2/convolution_weights","pass1_block1_mbconv1_skeleton_conv2/convolution_bn_offset"],"device":"/device:CPU:0","attr":{"num_args":{"i":"1"},"fused_ops":{"list":{"s":["Qmlhc0FkZA=="]}},"dilations":{"list":{"i":["1","1","1","1"]}},"strides":{"list":{"i":["1","1","1","1"]}},"epsilon":{"f":0},"use_cudnn_on_gpu":{"b":true},"explicit_paddings":{"list":{}},"data_format":{"s":"TkhXQw=="},"T":{"type":"DT_FLOAT"},"padding":{"s":"U0FNRQ=="}}},
          {"name":"pass1_block1_mbconv2_skeleton_conv1_relu6/Relu6","op":"_FusedConv2D","input":["pass1_block1_mbconv1_skeleton_conv2_bn/FusedBatchNormV3_1","pass1_block1_mbconv2_skeleton_conv1/convolution_weights","pass1_block1_mbconv2_skeleton_conv1/convolution_bn_offset"],"device":"/device:CPU:0","attr":{"dilations":{"list":{"i":["1","1","1","1"]}},"use_cudnn_on_gpu":{"b":true},"padding":{"s":"U0FNRQ=="},"fused_ops":{"list":{"s":["Qmlhc0FkZA==","UmVsdTY="]}},"data_format":{"s":"TkhXQw=="},"explicit_paddings":{"list":{}},"strides":{"list":{"i":["1","1","1","1"]}},"epsilon":{"f":0},"num_args":{"i":"1"},"T":{"type":"DT_FLOAT"}}},
          {"name":"pass1_block1_mbconv2_skeleton_dconv1/depthwise","op":"FusedDepthwiseConv2dNative","input":["pass1_block1_mbconv2_skeleton_conv1_relu6/Relu6","pass1_block1_mbconv2_skeleton_dconv1/depthwise_weights","pass1_block1_mbconv2_skeleton_dconv1/depthwise_bn_offset"],"attr":{"data_format":{"s":"TkhXQw=="},"explicit_paddings":{"list":{}},"T":{"type":"DT_FLOAT"},"dilations":{"list":{"i":["1","1","1","1"]}},"num_args":{"i":"1"},"padding":{"s":"U0FNRQ=="},"strides":{"list":{"i":["1","1","1","1"]}},"fused_ops":{"list":{"s":["Qmlhc0FkZA==","UmVsdTY="]}}}},
          {"name":"pass1_block1_mbconv2_skeleton_conv2_bn/FusedBatchNormV3_1","op":"_FusedConv2D","input":["pass1_block1_mbconv2_skeleton_dconv1/depthwise","pass1_block1_mbconv2_skeleton_conv2/convolution_weights","pass1_block1_mbconv2_skeleton_conv2/convolution_bn_offset"],"device":"/device:CPU:0","attr":{"fused_ops":{"list":{"s":["Qmlhc0FkZA=="]}},"data_format":{"s":"TkhXQw=="},"T":{"type":"DT_FLOAT"},"padding":{"s":"U0FNRQ=="},"dilations":{"list":{"i":["1","1","1","1"]}},"epsilon":{"f":0},"explicit_paddings":{"list":{}},"strides":{"list":{"i":["1","1","1","1"]}},"num_args":{"i":"1"},"use_cudnn_on_gpu":{"b":true}}},
          {"name":"pass1_block1_mbconv2_skeleton_dense/concat","op":"ConcatV2","input":["pass1_block1_mbconv2_skeleton_conv2_bn/FusedBatchNormV3_1","pass1_block1_mbconv1_skeleton_conv2_bn/FusedBatchNormV3_1","pass1_block1_mbconv2_skeleton_dense/concat/axis"],"attr":{"Tidx":{"type":"DT_INT32"},"T":{"type":"DT_FLOAT"},"N":{"i":"2"}}},
          {"name":"pass1_block1_mbconv3_skeleton_conv1_relu6/Relu6","op":"_FusedConv2D","input":["pass1_block1_mbconv2_skeleton_dense/concat","pass1_block1_mbconv3_skeleton_conv1/convolution_weights","pass1_block1_mbconv3_skeleton_conv1/convolution_bn_offset"],"device":"/device:CPU:0","attr":{"T":{"type":"DT_FLOAT"},"epsilon":{"f":0},"fused_ops":{"list":{"s":["Qmlhc0FkZA==","UmVsdTY="]}},"num_args":{"i":"1"},"padding":{"s":"U0FNRQ=="},"explicit_paddings":{"list":{}},"strides":{"list":{"i":["1","1","1","1"]}},"data_format":{"s":"TkhXQw=="},"use_cudnn_on_gpu":{"b":true},"dilations":{"list":{"i":["1","1","1","1"]}}}},
          {"name":"pass1_block1_mbconv3_skeleton_dconv1/depthwise","op":"FusedDepthwiseConv2dNative","input":["pass1_block1_mbconv3_skeleton_conv1_relu6/Relu6","pass1_block1_mbconv3_skeleton_dconv1/depthwise_weights","pass1_block1_mbconv3_skeleton_dconv1/depthwise_bn_offset"],"attr":{"dilations":{"list":{"i":["1","1","1","1"]}},"data_format":{"s":"TkhXQw=="},"strides":{"list":{"i":["1","1","1","1"]}},"explicit_paddings":{"list":{}},"fused_ops":{"list":{"s":["Qmlhc0FkZA==","UmVsdTY="]}},"T":{"type":"DT_FLOAT"},"num_args":{"i":"1"},"padding":{"s":"U0FNRQ=="}}},
          {"name":"pass1_block1_mbconv3_skeleton_conv2_bn/FusedBatchNormV3_1","op":"_FusedConv2D","input":["pass1_block1_mbconv3_skeleton_dconv1/depthwise","pass1_block1_mbconv3_skeleton_conv2/convolution_weights","pass1_block1_mbconv3_skeleton_conv2/convolution_bn_offset"],"device":"/device:CPU:0","attr":{"fused_ops":{"list":{"s":["Qmlhc0FkZA=="]}},"num_args":{"i":"1"},"use_cudnn_on_gpu":{"b":true},"dilations":{"list":{"i":["1","1","1","1"]}},"data_format":{"s":"TkhXQw=="},"explicit_paddings":{"list":{}},"strides":{"list":{"i":["1","1","1","1"]}},"epsilon":{"f":0},"T":{"type":"DT_FLOAT"},"padding":{"s":"U0FNRQ=="}}},
          {"name":"pass1_block1_mbconv3_skeleton_dense/concat","op":"ConcatV2","input":["pass1_block1_mbconv3_skeleton_conv2_bn/FusedBatchNormV3_1","pass1_block1_mbconv2_skeleton_dense/concat","pass1_block1_mbconv3_skeleton_dense/concat/axis"],"attr":{"T":{"type":"DT_FLOAT"},"N":{"i":"2"},"Tidx":{"type":"DT_INT32"}}},
          {"name":"pass1_block2_mbconv1_skeleton_conv1_relu6/Relu6","op":"_FusedConv2D","input":["pass1_block1_mbconv3_skeleton_dense/concat","pass1_block2_mbconv1_skeleton_conv1/convolution_weights","pass1_block2_mbconv1_skeleton_conv1/convolution_bn_offset"],"device":"/device:CPU:0","attr":{"epsilon":{"f":0},"dilations":{"list":{"i":["1","1","1","1"]}},"T":{"type":"DT_FLOAT"},"explicit_paddings":{"list":{}},"use_cudnn_on_gpu":{"b":true},"strides":{"list":{"i":["1","1","1","1"]}},"fused_ops":{"list":{"s":["Qmlhc0FkZA==","UmVsdTY="]}},"num_args":{"i":"1"},"padding":{"s":"U0FNRQ=="},"data_format":{"s":"TkhXQw=="}}},
          {"name":"pass1_block2_mbconv1_skeleton_dconv1/depthwise","op":"FusedDepthwiseConv2dNative","input":["pass1_block2_mbconv1_skeleton_conv1_relu6/Relu6","pass1_block2_mbconv1_skeleton_dconv1/depthwise_weights","pass1_block2_mbconv1_skeleton_dconv1/depthwise_bn_offset"],"attr":{"num_args":{"i":"1"},"explicit_paddings":{"list":{}},"strides":{"list":{"i":["1","1","1","1"]}},"T":{"type":"DT_FLOAT"},"dilations":{"list":{"i":["1","1","1","1"]}},"fused_ops":{"list":{"s":["Qmlhc0FkZA==","UmVsdTY="]}},"padding":{"s":"U0FNRQ=="},"data_format":{"s":"TkhXQw=="}}},
          {"name":"pass1_block2_mbconv1_skeleton_conv2_bn/FusedBatchNormV3_1","op":"_FusedConv2D","input":["pass1_block2_mbconv1_skeleton_dconv1/depthwise","pass1_block2_mbconv1_skeleton_conv2/convolution_weights","pass1_block2_mbconv1_skeleton_conv2/convolution_bn_offset"],"device":"/device:CPU:0","attr":{"data_format":{"s":"TkhXQw=="},"epsilon":{"f":0},"padding":{"s":"U0FNRQ=="},"fused_ops":{"list":{"s":["Qmlhc0FkZA=="]}},"explicit_paddings":{"list":{}},"dilations":{"list":{"i":["1","1","1","1"]}},"use_cudnn_on_gpu":{"b":true},"num_args":{"i":"1"},"T":{"type":"DT_FLOAT"},"strides":{"list":{"i":["1","1","1","1"]}}}},
          {"name":"pass1_block2_mbconv2_skeleton_conv1_relu6/Relu6","op":"_FusedConv2D","input":["pass1_block2_mbconv1_skeleton_conv2_bn/FusedBatchNormV3_1","pass1_block2_mbconv2_skeleton_conv1/convolution_weights","pass1_block2_mbconv2_skeleton_conv1/convolution_bn_offset"],"device":"/device:CPU:0","attr":{"data_format":{"s":"TkhXQw=="},"epsilon":{"f":0},"num_args":{"i":"1"},"padding":{"s":"U0FNRQ=="},"T":{"type":"DT_FLOAT"},"dilations":{"list":{"i":["1","1","1","1"]}},"use_cudnn_on_gpu":{"b":true},"explicit_paddings":{"list":{}},"fused_ops":{"list":{"s":["Qmlhc0FkZA==","UmVsdTY="]}},"strides":{"list":{"i":["1","1","1","1"]}}}},
          {"name":"pass1_block2_mbconv2_skeleton_dconv1/depthwise","op":"FusedDepthwiseConv2dNative","input":["pass1_block2_mbconv2_skeleton_conv1_relu6/Relu6","pass1_block2_mbconv2_skeleton_dconv1/depthwise_weights","pass1_block2_mbconv2_skeleton_dconv1/depthwise_bn_offset"],"attr":{"dilations":{"list":{"i":["1","1","1","1"]}},"fused_ops":{"list":{"s":["Qmlhc0FkZA==","UmVsdTY="]}},"T":{"type":"DT_FLOAT"},"explicit_paddings":{"list":{}},"num_args":{"i":"1"},"padding":{"s":"U0FNRQ=="},"data_format":{"s":"TkhXQw=="},"strides":{"list":{"i":["1","1","1","1"]}}}},
          {"name":"pass1_block2_mbconv2_skeleton_conv2_bn/FusedBatchNormV3_1","op":"_FusedConv2D","input":["pass1_block2_mbconv2_skeleton_dconv1/depthwise","pass1_block2_mbconv2_skeleton_conv2/convolution_weights","pass1_block2_mbconv2_skeleton_conv2/convolution_bn_offset"],"device":"/device:CPU:0","attr":{"dilations":{"list":{"i":["1","1","1","1"]}},"num_args":{"i":"1"},"T":{"type":"DT_FLOAT"},"epsilon":{"f":0},"strides":{"list":{"i":["1","1","1","1"]}},"explicit_paddings":{"list":{}},"fused_ops":{"list":{"s":["Qmlhc0FkZA=="]}},"use_cudnn_on_gpu":{"b":true},"padding":{"s":"U0FNRQ=="},"data_format":{"s":"TkhXQw=="}}},
          {"name":"pass1_block2_mbconv2_skeleton_dense/concat","op":"ConcatV2","input":["pass1_block2_mbconv2_skeleton_conv2_bn/FusedBatchNormV3_1","pass1_block2_mbconv1_skeleton_conv2_bn/FusedBatchNormV3_1","pass1_block2_mbconv2_skeleton_dense/concat/axis"],"attr":{"T":{"type":"DT_FLOAT"},"Tidx":{"type":"DT_INT32"},"N":{"i":"2"}}},
          {"name":"pass1_block2_mbconv3_skeleton_conv1_relu6/Relu6","op":"_FusedConv2D","input":["pass1_block2_mbconv2_skeleton_dense/concat","pass1_block2_mbconv3_skeleton_conv1/convolution_weights","pass1_block2_mbconv3_skeleton_conv1/convolution_bn_offset"],"device":"/device:CPU:0","attr":{"use_cudnn_on_gpu":{"b":true},"T":{"type":"DT_FLOAT"},"epsilon":{"f":0},"explicit_paddings":{"list":{}},"data_format":{"s":"TkhXQw=="},"strides":{"list":{"i":["1","1","1","1"]}},"num_args":{"i":"1"},"fused_ops":{"list":{"s":["Qmlhc0FkZA==","UmVsdTY="]}},"padding":{"s":"U0FNRQ=="},"dilations":{"list":{"i":["1","1","1","1"]}}}},
          {"name":"pass1_block2_mbconv3_skeleton_dconv1/depthwise","op":"FusedDepthwiseConv2dNative","input":["pass1_block2_mbconv3_skeleton_conv1_relu6/Relu6","pass1_block2_mbconv3_skeleton_dconv1/depthwise_weights","pass1_block2_mbconv3_skeleton_dconv1/depthwise_bn_offset"],"attr":{"padding":{"s":"U0FNRQ=="},"num_args":{"i":"1"},"explicit_paddings":{"list":{}},"strides":{"list":{"i":["1","1","1","1"]}},"fused_ops":{"list":{"s":["Qmlhc0FkZA==","UmVsdTY="]}},"dilations":{"list":{"i":["1","1","1","1"]}},"T":{"type":"DT_FLOAT"},"data_format":{"s":"TkhXQw=="}}},
          {"name":"pass1_block2_mbconv3_skeleton_conv2_bn/FusedBatchNormV3_1","op":"_FusedConv2D","input":["pass1_block2_mbconv3_skeleton_dconv1/depthwise","pass1_block2_mbconv3_skeleton_conv2/convolution_weights","pass1_block2_mbconv3_skeleton_conv2/convolution_bn_offset"],"device":"/device:CPU:0","attr":{"dilations":{"list":{"i":["1","1","1","1"]}},"fused_ops":{"list":{"s":["Qmlhc0FkZA=="]}},"T":{"type":"DT_FLOAT"},"data_format":{"s":"TkhXQw=="},"explicit_paddings":{"list":{}},"epsilon":{"f":0},"use_cudnn_on_gpu":{"b":true},"num_args":{"i":"1"},"padding":{"s":"U0FNRQ=="},"strides":{"list":{"i":["1","1","1","1"]}}}},
          {"name":"pass1_block2_mbconv3_skeleton_dense/concat","op":"ConcatV2","input":["pass1_block2_mbconv3_skeleton_conv2_bn/FusedBatchNormV3_1","pass1_block2_mbconv2_skeleton_dense/concat","pass1_block2_mbconv3_skeleton_dense/concat/axis"],"attr":{"Tidx":{"type":"DT_INT32"},"N":{"i":"2"},"T":{"type":"DT_FLOAT"}}},
          {"name":"pass1_block2_skip_skeleton/add","op":"AddV2","input":["pass1_block2_mbconv3_skeleton_dense/concat","pass1_block1_mbconv3_skeleton_dense/concat"],"attr":{"T":{"type":"DT_FLOAT"}}},
          {"name":"concatenate_1/concat","op":"ConcatV2","input":["pass1_block2_skip_skeleton/add","efficientnet-lite4/model/blocks_8/Add_0/add","concatenate_1/concat/axis"],"attr":{"T":{"type":"DT_FLOAT"},"N":{"i":"2"},"Tidx":{"type":"DT_INT32"}}},
          {"name":"pass2_block1_mbconv1_detection1_conv1_relu6/Relu6","op":"_FusedConv2D","input":["concatenate_1/concat","pass2_block1_mbconv1_detection1_conv1/convolution_weights","pass2_block1_mbconv1_detection1_conv1/convolution_bn_offset"],"device":"/device:CPU:0","attr":{"epsilon":{"f":0},"strides":{"list":{"i":["1","1","1","1"]}},"use_cudnn_on_gpu":{"b":true},"padding":{"s":"U0FNRQ=="},"dilations":{"list":{"i":["1","1","1","1"]}},"explicit_paddings":{"list":{}},"data_format":{"s":"TkhXQw=="},"fused_ops":{"list":{"s":["Qmlhc0FkZA==","UmVsdTY="]}},"num_args":{"i":"1"},"T":{"type":"DT_FLOAT"}}},
          {"name":"pass2_block1_mbconv1_detection1_dconv1/depthwise","op":"FusedDepthwiseConv2dNative","input":["pass2_block1_mbconv1_detection1_conv1_relu6/Relu6","pass2_block1_mbconv1_detection1_dconv1/depthwise_weights","pass2_block1_mbconv1_detection1_dconv1/depthwise_bn_offset"],"attr":{"padding":{"s":"U0FNRQ=="},"explicit_paddings":{"list":{}},"T":{"type":"DT_FLOAT"},"strides":{"list":{"i":["1","1","1","1"]}},"dilations":{"list":{"i":["1","1","1","1"]}},"fused_ops":{"list":{"s":["Qmlhc0FkZA==","UmVsdTY="]}},"num_args":{"i":"1"},"data_format":{"s":"TkhXQw=="}}},
          {"name":"pass2_block1_mbconv1_detection1_conv2_bn/FusedBatchNormV3_1","op":"_FusedConv2D","input":["pass2_block1_mbconv1_detection1_dconv1/depthwise","pass2_block1_mbconv1_detection1_conv2/convolution_weights","pass2_block1_mbconv1_detection1_conv2/convolution_bn_offset"],"device":"/device:CPU:0","attr":{"dilations":{"list":{"i":["1","1","1","1"]}},"padding":{"s":"U0FNRQ=="},"num_args":{"i":"1"},"strides":{"list":{"i":["1","1","1","1"]}},"T":{"type":"DT_FLOAT"},"explicit_paddings":{"list":{}},"fused_ops":{"list":{"s":["Qmlhc0FkZA=="]}},"data_format":{"s":"TkhXQw=="},"use_cudnn_on_gpu":{"b":true},"epsilon":{"f":0}}},
          {"name":"pass2_block1_mbconv2_detection1_conv1_relu6/Relu6","op":"_FusedConv2D","input":["pass2_block1_mbconv1_detection1_conv2_bn/FusedBatchNormV3_1","pass2_block1_mbconv2_detection1_conv1/convolution_weights","pass2_block1_mbconv2_detection1_conv1/convolution_bn_offset"],"device":"/device:CPU:0","attr":{"T":{"type":"DT_FLOAT"},"dilations":{"list":{"i":["1","1","1","1"]}},"padding":{"s":"U0FNRQ=="},"data_format":{"s":"TkhXQw=="},"epsilon":{"f":0},"fused_ops":{"list":{"s":["Qmlhc0FkZA==","UmVsdTY="]}},"num_args":{"i":"1"},"explicit_paddings":{"list":{}},"use_cudnn_on_gpu":{"b":true},"strides":{"list":{"i":["1","1","1","1"]}}}},
          {"name":"pass2_block1_mbconv2_detection1_dconv1/depthwise","op":"FusedDepthwiseConv2dNative","input":["pass2_block1_mbconv2_detection1_conv1_relu6/Relu6","pass2_block1_mbconv2_detection1_dconv1/depthwise_weights","pass2_block1_mbconv2_detection1_dconv1/depthwise_bn_offset"],"attr":{"T":{"type":"DT_FLOAT"},"explicit_paddings":{"list":{}},"padding":{"s":"U0FNRQ=="},"fused_ops":{"list":{"s":["Qmlhc0FkZA==","UmVsdTY="]}},"strides":{"list":{"i":["1","1","1","1"]}},"dilations":{"list":{"i":["1","1","1","1"]}},"num_args":{"i":"1"},"data_format":{"s":"TkhXQw=="}}},
          {"name":"pass2_block1_mbconv2_detection1_conv2_bn/FusedBatchNormV3_1","op":"_FusedConv2D","input":["pass2_block1_mbconv2_detection1_dconv1/depthwise","pass2_block1_mbconv2_detection1_conv2/convolution_weights","pass2_block1_mbconv2_detection1_conv2/convolution_bn_offset"],"device":"/device:CPU:0","attr":{"padding":{"s":"U0FNRQ=="},"fused_ops":{"list":{"s":["Qmlhc0FkZA=="]}},"explicit_paddings":{"list":{}},"data_format":{"s":"TkhXQw=="},"strides":{"list":{"i":["1","1","1","1"]}},"epsilon":{"f":0},"dilations":{"list":{"i":["1","1","1","1"]}},"num_args":{"i":"1"},"use_cudnn_on_gpu":{"b":true},"T":{"type":"DT_FLOAT"}}},
          {"name":"pass2_block1_mbconv2_detection1_dense/concat","op":"ConcatV2","input":["pass2_block1_mbconv2_detection1_conv2_bn/FusedBatchNormV3_1","pass2_block1_mbconv1_detection1_conv2_bn/FusedBatchNormV3_1","pass2_block1_mbconv2_detection1_dense/concat/axis"],"attr":{"N":{"i":"2"},"Tidx":{"type":"DT_INT32"},"T":{"type":"DT_FLOAT"}}},
          {"name":"pass2_block1_mbconv3_detection1_conv1_relu6/Relu6","op":"_FusedConv2D","input":["pass2_block1_mbconv2_detection1_dense/concat","pass2_block1_mbconv3_detection1_conv1/convolution_weights","pass2_block1_mbconv3_detection1_conv1/convolution_bn_offset"],"device":"/device:CPU:0","attr":{"use_cudnn_on_gpu":{"b":true},"dilations":{"list":{"i":["1","1","1","1"]}},"num_args":{"i":"1"},"strides":{"list":{"i":["1","1","1","1"]}},"fused_ops":{"list":{"s":["Qmlhc0FkZA==","UmVsdTY="]}},"T":{"type":"DT_FLOAT"},"explicit_paddings":{"list":{}},"epsilon":{"f":0},"data_format":{"s":"TkhXQw=="},"padding":{"s":"U0FNRQ=="}}},
          {"name":"pass2_block1_mbconv3_detection1_dconv1/depthwise","op":"FusedDepthwiseConv2dNative","input":["pass2_block1_mbconv3_detection1_conv1_relu6/Relu6","pass2_block1_mbconv3_detection1_dconv1/depthwise_weights","pass2_block1_mbconv3_detection1_dconv1/depthwise_bn_offset"],"attr":{"explicit_paddings":{"list":{}},"T":{"type":"DT_FLOAT"},"padding":{"s":"U0FNRQ=="},"strides":{"list":{"i":["1","1","1","1"]}},"dilations":{"list":{"i":["1","1","1","1"]}},"fused_ops":{"list":{"s":["Qmlhc0FkZA==","UmVsdTY="]}},"num_args":{"i":"1"},"data_format":{"s":"TkhXQw=="}}},
          {"name":"pass2_block1_mbconv3_detection1_conv2_bn/FusedBatchNormV3_1","op":"_FusedConv2D","input":["pass2_block1_mbconv3_detection1_dconv1/depthwise","pass2_block1_mbconv3_detection1_conv2/convolution_weights","pass2_block1_mbconv3_detection1_conv2/convolution_bn_offset"],"device":"/device:CPU:0","attr":{"dilations":{"list":{"i":["1","1","1","1"]}},"padding":{"s":"U0FNRQ=="},"T":{"type":"DT_FLOAT"},"strides":{"list":{"i":["1","1","1","1"]}},"num_args":{"i":"1"},"explicit_paddings":{"list":{}},"epsilon":{"f":0},"data_format":{"s":"TkhXQw=="},"fused_ops":{"list":{"s":["Qmlhc0FkZA=="]}},"use_cudnn_on_gpu":{"b":true}}},
          {"name":"pass2_block1_mbconv3_detection1_dense/concat","op":"ConcatV2","input":["pass2_block1_mbconv3_detection1_conv2_bn/FusedBatchNormV3_1","pass2_block1_mbconv2_detection1_dense/concat","pass2_block1_mbconv3_detection1_dense/concat/axis"],"attr":{"T":{"type":"DT_FLOAT"},"Tidx":{"type":"DT_INT32"},"N":{"i":"2"}}},
          {"name":"pass2_block2_mbconv1_detection1_conv1_relu6/Relu6","op":"_FusedConv2D","input":["pass2_block1_mbconv3_detection1_dense/concat","pass2_block2_mbconv1_detection1_conv1/convolution_weights","pass2_block2_mbconv1_detection1_conv1/convolution_bn_offset"],"device":"/device:CPU:0","attr":{"strides":{"list":{"i":["1","1","1","1"]}},"num_args":{"i":"1"},"explicit_paddings":{"list":{}},"use_cudnn_on_gpu":{"b":true},"padding":{"s":"U0FNRQ=="},"epsilon":{"f":0},"dilations":{"list":{"i":["1","1","1","1"]}},"fused_ops":{"list":{"s":["Qmlhc0FkZA==","UmVsdTY="]}},"T":{"type":"DT_FLOAT"},"data_format":{"s":"TkhXQw=="}}},
          {"name":"pass2_block2_mbconv1_detection1_dconv1/depthwise","op":"FusedDepthwiseConv2dNative","input":["pass2_block2_mbconv1_detection1_conv1_relu6/Relu6","pass2_block2_mbconv1_detection1_dconv1/depthwise_weights","pass2_block2_mbconv1_detection1_dconv1/depthwise_bn_offset"],"attr":{"T":{"type":"DT_FLOAT"},"fused_ops":{"list":{"s":["Qmlhc0FkZA==","UmVsdTY="]}},"dilations":{"list":{"i":["1","1","1","1"]}},"strides":{"list":{"i":["1","1","1","1"]}},"padding":{"s":"U0FNRQ=="},"data_format":{"s":"TkhXQw=="},"explicit_paddings":{"list":{}},"num_args":{"i":"1"}}},
          {"name":"pass2_block2_mbconv1_detection1_conv2_bn/FusedBatchNormV3_1","op":"_FusedConv2D","input":["pass2_block2_mbconv1_detection1_dconv1/depthwise","pass2_block2_mbconv1_detection1_conv2/convolution_weights","pass2_block2_mbconv1_detection1_conv2/convolution_bn_offset"],"device":"/device:CPU:0","attr":{"data_format":{"s":"TkhXQw=="},"fused_ops":{"list":{"s":["Qmlhc0FkZA=="]}},"dilations":{"list":{"i":["1","1","1","1"]}},"epsilon":{"f":0},"T":{"type":"DT_FLOAT"},"num_args":{"i":"1"},"use_cudnn_on_gpu":{"b":true},"padding":{"s":"U0FNRQ=="},"strides":{"list":{"i":["1","1","1","1"]}},"explicit_paddings":{"list":{}}}},
          {"name":"pass2_block2_mbconv2_detection1_conv1_relu6/Relu6","op":"_FusedConv2D","input":["pass2_block2_mbconv1_detection1_conv2_bn/FusedBatchNormV3_1","pass2_block2_mbconv2_detection1_conv1/convolution_weights","pass2_block2_mbconv2_detection1_conv1/convolution_bn_offset"],"device":"/device:CPU:0","attr":{"padding":{"s":"U0FNRQ=="},"fused_ops":{"list":{"s":["Qmlhc0FkZA==","UmVsdTY="]}},"explicit_paddings":{"list":{}},"dilations":{"list":{"i":["1","1","1","1"]}},"T":{"type":"DT_FLOAT"},"epsilon":{"f":0},"num_args":{"i":"1"},"data_format":{"s":"TkhXQw=="},"use_cudnn_on_gpu":{"b":true},"strides":{"list":{"i":["1","1","1","1"]}}}},
          {"name":"pass2_block2_mbconv2_detection1_dconv1/depthwise","op":"FusedDepthwiseConv2dNative","input":["pass2_block2_mbconv2_detection1_conv1_relu6/Relu6","pass2_block2_mbconv2_detection1_dconv1/depthwise_weights","pass2_block2_mbconv2_detection1_dconv1/depthwise_bn_offset"],"attr":{"data_format":{"s":"TkhXQw=="},"explicit_paddings":{"list":{}},"dilations":{"list":{"i":["1","1","1","1"]}},"T":{"type":"DT_FLOAT"},"strides":{"list":{"i":["1","1","1","1"]}},"padding":{"s":"U0FNRQ=="},"fused_ops":{"list":{"s":["Qmlhc0FkZA==","UmVsdTY="]}},"num_args":{"i":"1"}}},
          {"name":"pass2_block2_mbconv2_detection1_conv2_bn/FusedBatchNormV3_1","op":"_FusedConv2D","input":["pass2_block2_mbconv2_detection1_dconv1/depthwise","pass2_block2_mbconv2_detection1_conv2/convolution_weights","pass2_block2_mbconv2_detection1_conv2/convolution_bn_offset"],"device":"/device:CPU:0","attr":{"T":{"type":"DT_FLOAT"},"num_args":{"i":"1"},"use_cudnn_on_gpu":{"b":true},"fused_ops":{"list":{"s":["Qmlhc0FkZA=="]}},"padding":{"s":"U0FNRQ=="},"data_format":{"s":"TkhXQw=="},"strides":{"list":{"i":["1","1","1","1"]}},"epsilon":{"f":0},"explicit_paddings":{"list":{}},"dilations":{"list":{"i":["1","1","1","1"]}}}},
          {"name":"pass2_block2_mbconv2_detection1_dense/concat","op":"ConcatV2","input":["pass2_block2_mbconv2_detection1_conv2_bn/FusedBatchNormV3_1","pass2_block2_mbconv1_detection1_conv2_bn/FusedBatchNormV3_1","pass2_block2_mbconv2_detection1_dense/concat/axis"],"attr":{"T":{"type":"DT_FLOAT"},"N":{"i":"2"},"Tidx":{"type":"DT_INT32"}}},
          {"name":"pass2_block2_mbconv3_detection1_conv1_relu6/Relu6","op":"_FusedConv2D","input":["pass2_block2_mbconv2_detection1_dense/concat","pass2_block2_mbconv3_detection1_conv1/convolution_weights","pass2_block2_mbconv3_detection1_conv1/convolution_bn_offset"],"device":"/device:CPU:0","attr":{"data_format":{"s":"TkhXQw=="},"use_cudnn_on_gpu":{"b":true},"strides":{"list":{"i":["1","1","1","1"]}},"T":{"type":"DT_FLOAT"},"explicit_paddings":{"list":{}},"padding":{"s":"U0FNRQ=="},"dilations":{"list":{"i":["1","1","1","1"]}},"num_args":{"i":"1"},"fused_ops":{"list":{"s":["Qmlhc0FkZA==","UmVsdTY="]}},"epsilon":{"f":0}}},
          {"name":"pass2_block2_mbconv3_detection1_dconv1/depthwise","op":"FusedDepthwiseConv2dNative","input":["pass2_block2_mbconv3_detection1_conv1_relu6/Relu6","pass2_block2_mbconv3_detection1_dconv1/depthwise_weights","pass2_block2_mbconv3_detection1_dconv1/depthwise_bn_offset"],"attr":{"data_format":{"s":"TkhXQw=="},"T":{"type":"DT_FLOAT"},"num_args":{"i":"1"},"fused_ops":{"list":{"s":["Qmlhc0FkZA==","UmVsdTY="]}},"strides":{"list":{"i":["1","1","1","1"]}},"explicit_paddings":{"list":{}},"padding":{"s":"U0FNRQ=="},"dilations":{"list":{"i":["1","1","1","1"]}}}},
          {"name":"pass2_block2_mbconv3_detection1_conv2_bn/FusedBatchNormV3_1","op":"_FusedConv2D","input":["pass2_block2_mbconv3_detection1_dconv1/depthwise","pass2_block2_mbconv3_detection1_conv2/convolution_weights","pass2_block2_mbconv3_detection1_conv2/convolution_bn_offset"],"device":"/device:CPU:0","attr":{"dilations":{"list":{"i":["1","1","1","1"]}},"explicit_paddings":{"list":{}},"T":{"type":"DT_FLOAT"},"num_args":{"i":"1"},"strides":{"list":{"i":["1","1","1","1"]}},"data_format":{"s":"TkhXQw=="},"use_cudnn_on_gpu":{"b":true},"padding":{"s":"U0FNRQ=="},"epsilon":{"f":0},"fused_ops":{"list":{"s":["Qmlhc0FkZA=="]}}}},
          {"name":"pass2_block2_mbconv3_detection1_dense/concat","op":"ConcatV2","input":["pass2_block2_mbconv3_detection1_conv2_bn/FusedBatchNormV3_1","pass2_block2_mbconv2_detection1_dense/concat","pass2_block2_mbconv3_detection1_dense/concat/axis"],"attr":{"T":{"type":"DT_FLOAT"},"N":{"i":"2"},"Tidx":{"type":"DT_INT32"}}},
          {"name":"pass2_block2_skip_detection1/add","op":"AddV2","input":["pass2_block2_mbconv3_detection1_dense/concat","pass2_block1_mbconv3_detection1_dense/concat"],"attr":{"T":{"type":"DT_FLOAT"}}},
          {"name":"concatenate_2/concat","op":"ConcatV2","input":["pass2_block2_skip_detection1/add","efficientnet-lite4/model/blocks_8/Add_0/add","concatenate_2/concat/axis"],"attr":{"T":{"type":"DT_FLOAT"},"Tidx":{"type":"DT_INT32"},"N":{"i":"2"}}},
          {"name":"pass3_block1_mbconv1_detection2_conv1_relu6/Relu6","op":"_FusedConv2D","input":["concatenate_2/concat","pass3_block1_mbconv1_detection2_conv1/convolution_weights","pass3_block1_mbconv1_detection2_conv1/convolution_bn_offset"],"device":"/device:CPU:0","attr":{"epsilon":{"f":0},"fused_ops":{"list":{"s":["Qmlhc0FkZA==","UmVsdTY="]}},"padding":{"s":"U0FNRQ=="},"use_cudnn_on_gpu":{"b":true},"explicit_paddings":{"list":{}},"data_format":{"s":"TkhXQw=="},"num_args":{"i":"1"},"T":{"type":"DT_FLOAT"},"strides":{"list":{"i":["1","1","1","1"]}},"dilations":{"list":{"i":["1","1","1","1"]}}}},
          {"name":"pass3_block1_mbconv1_detection2_dconv1/depthwise","op":"FusedDepthwiseConv2dNative","input":["pass3_block1_mbconv1_detection2_conv1_relu6/Relu6","pass3_block1_mbconv1_detection2_dconv1/depthwise_weights","pass3_block1_mbconv1_detection2_dconv1/depthwise_bn_offset"],"attr":{"strides":{"list":{"i":["1","1","1","1"]}},"padding":{"s":"U0FNRQ=="},"data_format":{"s":"TkhXQw=="},"fused_ops":{"list":{"s":["Qmlhc0FkZA==","UmVsdTY="]}},"num_args":{"i":"1"},"dilations":{"list":{"i":["1","1","1","1"]}},"T":{"type":"DT_FLOAT"},"explicit_paddings":{"list":{}}}},
          {"name":"pass3_block1_mbconv1_detection2_conv2_bn/FusedBatchNormV3_1","op":"_FusedConv2D","input":["pass3_block1_mbconv1_detection2_dconv1/depthwise","pass3_block1_mbconv1_detection2_conv2/convolution_weights","pass3_block1_mbconv1_detection2_conv2/convolution_bn_offset"],"device":"/device:CPU:0","attr":{"fused_ops":{"list":{"s":["Qmlhc0FkZA=="]}},"explicit_paddings":{"list":{}},"T":{"type":"DT_FLOAT"},"num_args":{"i":"1"},"epsilon":{"f":0},"dilations":{"list":{"i":["1","1","1","1"]}},"data_format":{"s":"TkhXQw=="},"use_cudnn_on_gpu":{"b":true},"strides":{"list":{"i":["1","1","1","1"]}},"padding":{"s":"U0FNRQ=="}}},
          {"name":"pass3_block1_mbconv2_detection2_conv1_relu6/Relu6","op":"_FusedConv2D","input":["pass3_block1_mbconv1_detection2_conv2_bn/FusedBatchNormV3_1","pass3_block1_mbconv2_detection2_conv1/convolution_weights","pass3_block1_mbconv2_detection2_conv1/convolution_bn_offset"],"device":"/device:CPU:0","attr":{"dilations":{"list":{"i":["1","1","1","1"]}},"use_cudnn_on_gpu":{"b":true},"explicit_paddings":{"list":{}},"num_args":{"i":"1"},"fused_ops":{"list":{"s":["Qmlhc0FkZA==","UmVsdTY="]}},"data_format":{"s":"TkhXQw=="},"strides":{"list":{"i":["1","1","1","1"]}},"epsilon":{"f":0},"padding":{"s":"U0FNRQ=="},"T":{"type":"DT_FLOAT"}}},
          {"name":"pass3_block1_mbconv2_detection2_dconv1/depthwise","op":"FusedDepthwiseConv2dNative","input":["pass3_block1_mbconv2_detection2_conv1_relu6/Relu6","pass3_block1_mbconv2_detection2_dconv1/depthwise_weights","pass3_block1_mbconv2_detection2_dconv1/depthwise_bn_offset"],"attr":{"data_format":{"s":"TkhXQw=="},"num_args":{"i":"1"},"T":{"type":"DT_FLOAT"},"strides":{"list":{"i":["1","1","1","1"]}},"fused_ops":{"list":{"s":["Qmlhc0FkZA==","UmVsdTY="]}},"dilations":{"list":{"i":["1","1","1","1"]}},"padding":{"s":"U0FNRQ=="},"explicit_paddings":{"list":{}}}},
          {"name":"pass3_block1_mbconv2_detection2_conv2_bn/FusedBatchNormV3_1","op":"_FusedConv2D","input":["pass3_block1_mbconv2_detection2_dconv1/depthwise","pass3_block1_mbconv2_detection2_conv2/convolution_weights","pass3_block1_mbconv2_detection2_conv2/convolution_bn_offset"],"device":"/device:CPU:0","attr":{"dilations":{"list":{"i":["1","1","1","1"]}},"T":{"type":"DT_FLOAT"},"explicit_paddings":{"list":{}},"strides":{"list":{"i":["1","1","1","1"]}},"use_cudnn_on_gpu":{"b":true},"padding":{"s":"U0FNRQ=="},"data_format":{"s":"TkhXQw=="},"epsilon":{"f":0},"fused_ops":{"list":{"s":["Qmlhc0FkZA=="]}},"num_args":{"i":"1"}}},
          {"name":"pass3_block1_mbconv2_detection2_dense/concat","op":"ConcatV2","input":["pass3_block1_mbconv2_detection2_conv2_bn/FusedBatchNormV3_1","pass3_block1_mbconv1_detection2_conv2_bn/FusedBatchNormV3_1","pass3_block1_mbconv2_detection2_dense/concat/axis"],"attr":{"T":{"type":"DT_FLOAT"},"Tidx":{"type":"DT_INT32"},"N":{"i":"2"}}},
          {"name":"pass3_block1_mbconv3_detection2_conv1_relu6/Relu6","op":"_FusedConv2D","input":["pass3_block1_mbconv2_detection2_dense/concat","pass3_block1_mbconv3_detection2_conv1/convolution_weights","pass3_block1_mbconv3_detection2_conv1/convolution_bn_offset"],"device":"/device:CPU:0","attr":{"epsilon":{"f":0},"data_format":{"s":"TkhXQw=="},"strides":{"list":{"i":["1","1","1","1"]}},"padding":{"s":"U0FNRQ=="},"num_args":{"i":"1"},"dilations":{"list":{"i":["1","1","1","1"]}},"use_cudnn_on_gpu":{"b":true},"fused_ops":{"list":{"s":["Qmlhc0FkZA==","UmVsdTY="]}},"T":{"type":"DT_FLOAT"},"explicit_paddings":{"list":{}}}},
          {"name":"pass3_block1_mbconv3_detection2_dconv1/depthwise","op":"FusedDepthwiseConv2dNative","input":["pass3_block1_mbconv3_detection2_conv1_relu6/Relu6","pass3_block1_mbconv3_detection2_dconv1/depthwise_weights","pass3_block1_mbconv3_detection2_dconv1/depthwise_bn_offset"],"attr":{"dilations":{"list":{"i":["1","1","1","1"]}},"fused_ops":{"list":{"s":["Qmlhc0FkZA==","UmVsdTY="]}},"data_format":{"s":"TkhXQw=="},"num_args":{"i":"1"},"strides":{"list":{"i":["1","1","1","1"]}},"padding":{"s":"U0FNRQ=="},"explicit_paddings":{"list":{}},"T":{"type":"DT_FLOAT"}}},
          {"name":"pass3_block1_mbconv3_detection2_conv2_bn/FusedBatchNormV3_1","op":"_FusedConv2D","input":["pass3_block1_mbconv3_detection2_dconv1/depthwise","pass3_block1_mbconv3_detection2_conv2/convolution_weights","pass3_block1_mbconv3_detection2_conv2/convolution_bn_offset"],"device":"/device:CPU:0","attr":{"T":{"type":"DT_FLOAT"},"strides":{"list":{"i":["1","1","1","1"]}},"fused_ops":{"list":{"s":["Qmlhc0FkZA=="]}},"data_format":{"s":"TkhXQw=="},"padding":{"s":"U0FNRQ=="},"epsilon":{"f":0},"use_cudnn_on_gpu":{"b":true},"explicit_paddings":{"list":{}},"dilations":{"list":{"i":["1","1","1","1"]}},"num_args":{"i":"1"}}},
          {"name":"pass3_block1_mbconv3_detection2_dense/concat","op":"ConcatV2","input":["pass3_block1_mbconv3_detection2_conv2_bn/FusedBatchNormV3_1","pass3_block1_mbconv2_detection2_dense/concat","pass3_block1_mbconv3_detection2_dense/concat/axis"],"attr":{"N":{"i":"2"},"Tidx":{"type":"DT_INT32"},"T":{"type":"DT_FLOAT"}}},
          {"name":"pass3_block2_mbconv1_detection2_conv1_relu6/Relu6","op":"_FusedConv2D","input":["pass3_block1_mbconv3_detection2_dense/concat","pass3_block2_mbconv1_detection2_conv1/convolution_weights","pass3_block2_mbconv1_detection2_conv1/convolution_bn_offset"],"device":"/device:CPU:0","attr":{"dilations":{"list":{"i":["1","1","1","1"]}},"epsilon":{"f":0},"num_args":{"i":"1"},"T":{"type":"DT_FLOAT"},"fused_ops":{"list":{"s":["Qmlhc0FkZA==","UmVsdTY="]}},"strides":{"list":{"i":["1","1","1","1"]}},"explicit_paddings":{"list":{}},"data_format":{"s":"TkhXQw=="},"use_cudnn_on_gpu":{"b":true},"padding":{"s":"U0FNRQ=="}}},
          {"name":"pass3_block2_mbconv1_detection2_dconv1/depthwise","op":"FusedDepthwiseConv2dNative","input":["pass3_block2_mbconv1_detection2_conv1_relu6/Relu6","pass3_block2_mbconv1_detection2_dconv1/depthwise_weights","pass3_block2_mbconv1_detection2_dconv1/depthwise_bn_offset"],"attr":{"strides":{"list":{"i":["1","1","1","1"]}},"num_args":{"i":"1"},"explicit_paddings":{"list":{}},"data_format":{"s":"TkhXQw=="},"T":{"type":"DT_FLOAT"},"padding":{"s":"U0FNRQ=="},"fused_ops":{"list":{"s":["Qmlhc0FkZA==","UmVsdTY="]}},"dilations":{"list":{"i":["1","1","1","1"]}}}},
          {"name":"pass3_block2_mbconv1_detection2_conv2_bn/FusedBatchNormV3_1","op":"_FusedConv2D","input":["pass3_block2_mbconv1_detection2_dconv1/depthwise","pass3_block2_mbconv1_detection2_conv2/convolution_weights","pass3_block2_mbconv1_detection2_conv2/convolution_bn_offset"],"device":"/device:CPU:0","attr":{"use_cudnn_on_gpu":{"b":true},"padding":{"s":"U0FNRQ=="},"T":{"type":"DT_FLOAT"},"dilations":{"list":{"i":["1","1","1","1"]}},"fused_ops":{"list":{"s":["Qmlhc0FkZA=="]}},"explicit_paddings":{"list":{}},"data_format":{"s":"TkhXQw=="},"epsilon":{"f":0},"strides":{"list":{"i":["1","1","1","1"]}},"num_args":{"i":"1"}}},
          {"name":"pass3_block2_mbconv2_detection2_conv1_relu6/Relu6","op":"_FusedConv2D","input":["pass3_block2_mbconv1_detection2_conv2_bn/FusedBatchNormV3_1","pass3_block2_mbconv2_detection2_conv1/convolution_weights","pass3_block2_mbconv2_detection2_conv1/convolution_bn_offset"],"device":"/device:CPU:0","attr":{"num_args":{"i":"1"},"T":{"type":"DT_FLOAT"},"fused_ops":{"list":{"s":["Qmlhc0FkZA==","UmVsdTY="]}},"use_cudnn_on_gpu":{"b":true},"explicit_paddings":{"list":{}},"epsilon":{"f":0},"strides":{"list":{"i":["1","1","1","1"]}},"padding":{"s":"U0FNRQ=="},"dilations":{"list":{"i":["1","1","1","1"]}},"data_format":{"s":"TkhXQw=="}}},
          {"name":"pass3_block2_mbconv2_detection2_dconv1/depthwise","op":"FusedDepthwiseConv2dNative","input":["pass3_block2_mbconv2_detection2_conv1_relu6/Relu6","pass3_block2_mbconv2_detection2_dconv1/depthwise_weights","pass3_block2_mbconv2_detection2_dconv1/depthwise_bn_offset"],"attr":{"data_format":{"s":"TkhXQw=="},"fused_ops":{"list":{"s":["Qmlhc0FkZA==","UmVsdTY="]}},"padding":{"s":"U0FNRQ=="},"num_args":{"i":"1"},"dilations":{"list":{"i":["1","1","1","1"]}},"strides":{"list":{"i":["1","1","1","1"]}},"explicit_paddings":{"list":{}},"T":{"type":"DT_FLOAT"}}},
          {"name":"pass3_block2_mbconv2_detection2_conv2_bn/FusedBatchNormV3_1","op":"_FusedConv2D","input":["pass3_block2_mbconv2_detection2_dconv1/depthwise","pass3_block2_mbconv2_detection2_conv2/convolution_weights","pass3_block2_mbconv2_detection2_conv2/convolution_bn_offset"],"device":"/device:CPU:0","attr":{"data_format":{"s":"TkhXQw=="},"strides":{"list":{"i":["1","1","1","1"]}},"fused_ops":{"list":{"s":["Qmlhc0FkZA=="]}},"T":{"type":"DT_FLOAT"},"use_cudnn_on_gpu":{"b":true},"padding":{"s":"U0FNRQ=="},"num_args":{"i":"1"},"epsilon":{"f":0},"dilations":{"list":{"i":["1","1","1","1"]}},"explicit_paddings":{"list":{}}}},
          {"name":"pass3_block2_mbconv2_detection2_dense/concat","op":"ConcatV2","input":["pass3_block2_mbconv2_detection2_conv2_bn/FusedBatchNormV3_1","pass3_block2_mbconv1_detection2_conv2_bn/FusedBatchNormV3_1","pass3_block2_mbconv2_detection2_dense/concat/axis"],"attr":{"T":{"type":"DT_FLOAT"},"N":{"i":"2"},"Tidx":{"type":"DT_INT32"}}},
          {"name":"pass3_block2_mbconv3_detection2_conv1_relu6/Relu6","op":"_FusedConv2D","input":["pass3_block2_mbconv2_detection2_dense/concat","pass3_block2_mbconv3_detection2_conv1/convolution_weights","pass3_block2_mbconv3_detection2_conv1/convolution_bn_offset"],"device":"/device:CPU:0","attr":{"use_cudnn_on_gpu":{"b":true},"fused_ops":{"list":{"s":["Qmlhc0FkZA==","UmVsdTY="]}},"num_args":{"i":"1"},"strides":{"list":{"i":["1","1","1","1"]}},"T":{"type":"DT_FLOAT"},"epsilon":{"f":0},"dilations":{"list":{"i":["1","1","1","1"]}},"data_format":{"s":"TkhXQw=="},"explicit_paddings":{"list":{}},"padding":{"s":"U0FNRQ=="}}},
          {"name":"pass3_block2_mbconv3_detection2_dconv1/depthwise","op":"FusedDepthwiseConv2dNative","input":["pass3_block2_mbconv3_detection2_conv1_relu6/Relu6","pass3_block2_mbconv3_detection2_dconv1/depthwise_weights","pass3_block2_mbconv3_detection2_dconv1/depthwise_bn_offset"],"attr":{"padding":{"s":"U0FNRQ=="},"num_args":{"i":"1"},"dilations":{"list":{"i":["1","1","1","1"]}},"T":{"type":"DT_FLOAT"},"data_format":{"s":"TkhXQw=="},"fused_ops":{"list":{"s":["Qmlhc0FkZA==","UmVsdTY="]}},"strides":{"list":{"i":["1","1","1","1"]}},"explicit_paddings":{"list":{}}}},
          {"name":"pass3_block2_mbconv3_detection2_conv2_bn/FusedBatchNormV3_1","op":"_FusedConv2D","input":["pass3_block2_mbconv3_detection2_dconv1/depthwise","pass3_block2_mbconv3_detection2_conv2/convolution_weights","pass3_block2_mbconv3_detection2_conv2/convolution_bn_offset"],"device":"/device:CPU:0","attr":{"data_format":{"s":"TkhXQw=="},"explicit_paddings":{"list":{}},"T":{"type":"DT_FLOAT"},"padding":{"s":"U0FNRQ=="},"fused_ops":{"list":{"s":["Qmlhc0FkZA=="]}},"dilations":{"list":{"i":["1","1","1","1"]}},"epsilon":{"f":0},"use_cudnn_on_gpu":{"b":true},"strides":{"list":{"i":["1","1","1","1"]}},"num_args":{"i":"1"}}},
          {"name":"pass3_block2_mbconv3_detection2_dense/concat","op":"ConcatV2","input":["pass3_block2_mbconv3_detection2_conv2_bn/FusedBatchNormV3_1","pass3_block2_mbconv2_detection2_dense/concat","pass3_block2_mbconv3_detection2_dense/concat/axis"],"attr":{"Tidx":{"type":"DT_INT32"},"T":{"type":"DT_FLOAT"},"N":{"i":"2"}}},
          {"name":"pass3_block2_skip_detection2/add","op":"AddV2","input":["pass3_block2_mbconv3_detection2_dense/concat","pass3_block1_mbconv3_detection2_dense/concat"],"attr":{"T":{"type":"DT_FLOAT"}}},
          {"name":"pass3_detection2_confs/BiasAdd","op":"_FusedConv2D","input":["pass3_block2_skip_detection2/add","pass3_detection2_confs/kernel","pass3_detection2_confs/bias"],"device":"/device:CPU:0","attr":{"epsilon":{"f":0},"dilations":{"list":{"i":["1","1","1","1"]}},"num_args":{"i":"1"},"fused_ops":{"list":{"s":["Qmlhc0FkZA=="]}},"explicit_paddings":{"list":{}},"data_format":{"s":"TkhXQw=="},"T":{"type":"DT_FLOAT"},"strides":{"list":{"i":["1","1","1","1"]}},"padding":{"s":"U0FNRQ=="},"use_cudnn_on_gpu":{"b":true}}},
          {"name":"upscaled_deconv1/Shape","op":"Shape","input":["pass3_detection2_confs/BiasAdd"],"attr":{"out_type":{"type":"DT_INT32"},"T":{"type":"DT_FLOAT"}}},
          {"name":"upscaled_deconv1/strided_slice","op":"StridedSlice","input":["upscaled_deconv1/Shape","upscaled_deconv1/strided_slice/stack","upscaled_deconv1/strided_slice/stack_1","upscaled_deconv1/strided_slice/stack_2"],"attr":{"shrink_axis_mask":{"i":"1"},"begin_mask":{"i":"0"},"Index":{"type":"DT_INT32"},"end_mask":{"i":"0"},"T":{"type":"DT_INT32"},"ellipsis_mask":{"i":"0"},"new_axis_mask":{"i":"0"}}},
          {"name":"upscaled_deconv1/strided_slice_1","op":"StridedSlice","input":["upscaled_deconv1/Shape","upscaled_deconv1/strided_slice_1/stack","upscaled_deconv1/strided_slice_1/stack_1","upscaled_deconv1/strided_slice_1/stack_2"],"attr":{"T":{"type":"DT_INT32"},"ellipsis_mask":{"i":"0"},"end_mask":{"i":"0"},"Index":{"type":"DT_INT32"},"new_axis_mask":{"i":"0"},"shrink_axis_mask":{"i":"1"},"begin_mask":{"i":"0"}}},
          {"name":"upscaled_deconv1/strided_slice_2","op":"StridedSlice","input":["upscaled_deconv1/Shape","upscaled_deconv1/strided_slice_2/stack","upscaled_deconv1/strided_slice_2/stack_1","upscaled_deconv1/strided_slice_2/stack_2"],"attr":{"ellipsis_mask":{"i":"0"},"T":{"type":"DT_INT32"},"shrink_axis_mask":{"i":"1"},"new_axis_mask":{"i":"0"},"Index":{"type":"DT_INT32"},"begin_mask":{"i":"0"},"end_mask":{"i":"0"}}},
          {"name":"upscaled_deconv1/mul","op":"Mul","input":["upscaled_deconv1/strided_slice_1","upscaled_deconv1/mul/y"],"attr":{"T":{"type":"DT_INT32"}}},
          {"name":"upscaled_deconv1/mul_1","op":"Mul","input":["upscaled_deconv1/strided_slice_2","upscaled_deconv1/mul_1/y"],"attr":{"T":{"type":"DT_INT32"}}},
          {"name":"upscaled_deconv1/stack","op":"Pack","input":["upscaled_deconv1/strided_slice","upscaled_deconv1/mul","upscaled_deconv1/mul_1","upscaled_deconv1/stack/3"],"attr":{"T":{"type":"DT_INT32"},"axis":{"i":"0"},"N":{"i":"4"}}},
          {"name":"upscaled_deconv1/conv2d_transpose","op":"Conv2DBackpropInput","input":["upscaled_deconv1/stack","upscaled_deconv1/kernel","pass3_detection2_confs/BiasAdd"],"attr":{"data_format":{"s":"TkhXQw=="},"dilations":{"list":{"i":["1","1","1","1"]}},"strides":{"list":{"i":["1","2","2","1"]}},"explicit_paddings":{"list":{}},"T":{"type":"DT_FLOAT"},"use_cudnn_on_gpu":{"b":true},"padding":{"s":"U0FNRQ=="}}},
          {"name":"upscaled_deconv2/Shape","op":"Shape","input":["upscaled_deconv1/conv2d_transpose"],"attr":{"out_type":{"type":"DT_INT32"},"T":{"type":"DT_FLOAT"}}},
          {"name":"upscaled_deconv2/strided_slice","op":"StridedSlice","input":["upscaled_deconv2/Shape","upscaled_deconv2/strided_slice/stack","upscaled_deconv2/strided_slice/stack_1","upscaled_deconv2/strided_slice/stack_2"],"attr":{"T":{"type":"DT_INT32"},"Index":{"type":"DT_INT32"},"ellipsis_mask":{"i":"0"},"new_axis_mask":{"i":"0"},"begin_mask":{"i":"0"},"end_mask":{"i":"0"},"shrink_axis_mask":{"i":"1"}}},
          {"name":"upscaled_deconv2/strided_slice_1","op":"StridedSlice","input":["upscaled_deconv2/Shape","upscaled_deconv2/strided_slice_1/stack","upscaled_deconv2/strided_slice_1/stack_1","upscaled_deconv2/strided_slice_1/stack_2"],"attr":{"begin_mask":{"i":"0"},"end_mask":{"i":"0"},"T":{"type":"DT_INT32"},"Index":{"type":"DT_INT32"},"ellipsis_mask":{"i":"0"},"new_axis_mask":{"i":"0"},"shrink_axis_mask":{"i":"1"}}},
          {"name":"upscaled_deconv2/strided_slice_2","op":"StridedSlice","input":["upscaled_deconv2/Shape","upscaled_deconv2/strided_slice_2/stack","upscaled_deconv2/strided_slice_2/stack_1","upscaled_deconv2/strided_slice_2/stack_2"],"attr":{"T":{"type":"DT_INT32"},"begin_mask":{"i":"0"},"ellipsis_mask":{"i":"0"},"new_axis_mask":{"i":"0"},"shrink_axis_mask":{"i":"1"},"end_mask":{"i":"0"},"Index":{"type":"DT_INT32"}}},
          {"name":"upscaled_deconv2/mul","op":"Mul","input":["upscaled_deconv2/strided_slice_1","upscaled_deconv2/mul/y"],"attr":{"T":{"type":"DT_INT32"}}},
          {"name":"upscaled_deconv2/mul_1","op":"Mul","input":["upscaled_deconv2/strided_slice_2","upscaled_deconv2/mul_1/y"],"attr":{"T":{"type":"DT_INT32"}}},
          {"name":"upscaled_deconv2/stack","op":"Pack","input":["upscaled_deconv2/strided_slice","upscaled_deconv2/mul","upscaled_deconv2/mul_1","upscaled_deconv2/stack/3"],"attr":{"N":{"i":"4"},"axis":{"i":"0"},"T":{"type":"DT_INT32"}}},
          {"name":"upscaled_deconv2/conv2d_transpose","op":"Conv2DBackpropInput","input":["upscaled_deconv2/stack","upscaled_deconv2/kernel","upscaled_deconv1/conv2d_transpose"],"attr":{"dilations":{"list":{"i":["1","1","1","1"]}},"T":{"type":"DT_FLOAT"},"explicit_paddings":{"list":{}},"data_format":{"s":"TkhXQw=="},"use_cudnn_on_gpu":{"b":true},"strides":{"list":{"i":["1","2","2","1"]}},"padding":{"s":"U0FNRQ=="}}},
          {"name":"upscaled_confs/Shape","op":"Shape","input":["upscaled_deconv2/conv2d_transpose"],"attr":{"out_type":{"type":"DT_INT32"},"T":{"type":"DT_FLOAT"}}},
          {"name":"upscaled_confs/strided_slice","op":"StridedSlice","input":["upscaled_confs/Shape","upscaled_confs/strided_slice/stack","upscaled_confs/strided_slice/stack_1","upscaled_confs/strided_slice/stack_2"],"attr":{"T":{"type":"DT_INT32"},"shrink_axis_mask":{"i":"1"},"begin_mask":{"i":"0"},"Index":{"type":"DT_INT32"},"ellipsis_mask":{"i":"0"},"end_mask":{"i":"0"},"new_axis_mask":{"i":"0"}}},
          {"name":"upscaled_confs/strided_slice_1","op":"StridedSlice","input":["upscaled_confs/Shape","upscaled_confs/strided_slice_1/stack","upscaled_confs/strided_slice_1/stack_1","upscaled_confs/strided_slice_1/stack_2"],"attr":{"end_mask":{"i":"0"},"begin_mask":{"i":"0"},"ellipsis_mask":{"i":"0"},"Index":{"type":"DT_INT32"},"new_axis_mask":{"i":"0"},"shrink_axis_mask":{"i":"1"},"T":{"type":"DT_INT32"}}},
          {"name":"upscaled_confs/strided_slice_2","op":"StridedSlice","input":["upscaled_confs/Shape","upscaled_confs/strided_slice_2/stack","upscaled_confs/strided_slice_2/stack_1","upscaled_confs/strided_slice_2/stack_2"],"attr":{"T":{"type":"DT_INT32"},"begin_mask":{"i":"0"},"ellipsis_mask":{"i":"0"},"new_axis_mask":{"i":"0"},"Index":{"type":"DT_INT32"},"shrink_axis_mask":{"i":"1"},"end_mask":{"i":"0"}}},
          {"name":"upscaled_confs/mul","op":"Mul","input":["upscaled_confs/strided_slice_1","upscaled_confs/mul/y"],"attr":{"T":{"type":"DT_INT32"}}},
          {"name":"upscaled_confs/mul_1","op":"Mul","input":["upscaled_confs/strided_slice_2","upscaled_confs/mul_1/y"],"attr":{"T":{"type":"DT_INT32"}}},
          {"name":"upscaled_confs/stack","op":"Pack","input":["upscaled_confs/strided_slice","upscaled_confs/mul","upscaled_confs/mul_1","upscaled_confs/stack/3"],"attr":{"T":{"type":"DT_INT32"},"N":{"i":"4"},"axis":{"i":"0"}}},
          {"name":"upscaled_confs/conv2d_transpose","op":"Conv2DBackpropInput","input":["upscaled_confs/stack","upscaled_confs/kernel","upscaled_deconv2/conv2d_transpose"],"attr":{"strides":{"list":{"i":["1","2","2","1"]}},"dilations":{"list":{"i":["1","1","1","1"]}},"explicit_paddings":{"list":{}},"padding":{"s":"U0FNRQ=="},"T":{"type":"DT_FLOAT"},"use_cudnn_on_gpu":{"b":true},"data_format":{"s":"TkhXQw=="}}},
          {"name":"upscaled_confs/BiasAdd","op":"Identity","input":["upscaled_confs/conv2d_transpose"],"attr":{"T":{"type":"DT_FLOAT"}}}
      ],
      "library": {},
      "versions": {}
  },
  "weightsManifest":
  [
      {
          "paths": ["efficientpose.bin"],
          "weights": [{"name":"upscaled_confs/strided_slice/stack","shape":[1],"dtype":"int32"},{"name":"upscaled_confs/strided_slice/stack_1","shape":[1],"dtype":"int32"},{"name":"upscaled_confs/strided_slice/stack_2","shape":[1],"dtype":"int32"},{"name":"upscaled_confs/strided_slice_1/stack","shape":[1],"dtype":"int32"},{"name":"upscaled_confs/strided_slice_1/stack_1","shape":[1],"dtype":"int32"},{"name":"upscaled_confs/strided_slice_1/stack_2","shape":[1],"dtype":"int32"},{"name":"upscaled_confs/mul/y","shape":[],"dtype":"int32"},{"name":"upscaled_confs/strided_slice_2/stack","shape":[1],"dtype":"int32"},{"name":"upscaled_confs/strided_slice_2/stack_1","shape":[1],"dtype":"int32"},{"name":"upscaled_confs/strided_slice_2/stack_2","shape":[1],"dtype":"int32"},{"name":"upscaled_confs/mul_1/y","shape":[],"dtype":"int32"},{"name":"upscaled_confs/stack/3","shape":[],"dtype":"int32"},{"name":"upscaled_confs/kernel","shape":[4,4,16,16],"dtype":"float32"},{"name":"upscaled_deconv2/strided_slice/stack","shape":[1],"dtype":"int32"},{"name":"upscaled_deconv2/strided_slice/stack_1","shape":[1],"dtype":"int32"},{"name":"upscaled_deconv2/strided_slice/stack_2","shape":[1],"dtype":"int32"},{"name":"upscaled_deconv2/strided_slice_1/stack","shape":[1],"dtype":"int32"},{"name":"upscaled_deconv2/strided_slice_1/stack_1","shape":[1],"dtype":"int32"},{"name":"upscaled_deconv2/strided_slice_1/stack_2","shape":[1],"dtype":"int32"},{"name":"upscaled_deconv2/mul/y","shape":[],"dtype":"int32"},{"name":"upscaled_deconv2/strided_slice_2/stack","shape":[1],"dtype":"int32"},{"name":"upscaled_deconv2/strided_slice_2/stack_1","shape":[1],"dtype":"int32"},{"name":"upscaled_deconv2/strided_slice_2/stack_2","shape":[1],"dtype":"int32"},{"name":"upscaled_deconv2/mul_1/y","shape":[],"dtype":"int32"},{"name":"upscaled_deconv2/stack/3","shape":[],"dtype":"int32"},{"name":"upscaled_deconv2/kernel","shape":[4,4,16,16],"dtype":"float32"},{"name":"upscaled_deconv1/strided_slice/stack","shape":[1],"dtype":"int32"},{"name":"upscaled_deconv1/strided_slice/stack_1","shape":[1],"dtype":"int32"},{"name":"upscaled_deconv1/strided_slice/stack_2","shape":[1],"dtype":"int32"},{"name":"upscaled_deconv1/strided_slice_1/stack","shape":[1],"dtype":"int32"},{"name":"upscaled_deconv1/strided_slice_1/stack_1","shape":[1],"dtype":"int32"},{"name":"upscaled_deconv1/strided_slice_1/stack_2","shape":[1],"dtype":"int32"},{"name":"upscaled_deconv1/mul/y","shape":[],"dtype":"int32"},{"name":"upscaled_deconv1/strided_slice_2/stack","shape":[1],"dtype":"int32"},{"name":"upscaled_deconv1/strided_slice_2/stack_1","shape":[1],"dtype":"int32"},{"name":"upscaled_deconv1/strided_slice_2/stack_2","shape":[1],"dtype":"int32"},{"name":"upscaled_deconv1/mul_1/y","shape":[],"dtype":"int32"},{"name":"upscaled_deconv1/stack/3","shape":[],"dtype":"int32"},{"name":"upscaled_deconv1/kernel","shape":[4,4,16,16],"dtype":"float32"},{"name":"pass3_block2_mbconv2_detection2_dense/concat/axis","shape":[],"dtype":"int32"},{"name":"pass3_block2_mbconv3_detection2_dense/concat/axis","shape":[],"dtype":"int32"},{"name":"pass2_block2_mbconv2_detection1_dense/concat/axis","shape":[],"dtype":"int32"},{"name":"pass2_block2_mbconv3_detection1_dense/concat/axis","shape":[],"dtype":"int32"},{"name":"pass1_block2_mbconv2_skeleton_dense/concat/axis","shape":[],"dtype":"int32"},{"name":"pass1_block2_mbconv3_skeleton_dense/concat/axis","shape":[],"dtype":"int32"},{"name":"pass1_block1_mbconv2_skeleton_dense/concat/axis","shape":[],"dtype":"int32"},{"name":"pass1_block1_mbconv3_skeleton_dense/concat/axis","shape":[],"dtype":"int32"},{"name":"concatenate_1/concat/axis","shape":[],"dtype":"int32"},{"name":"pass2_block1_mbconv2_detection1_dense/concat/axis","shape":[],"dtype":"int32"},{"name":"pass2_block1_mbconv3_detection1_dense/concat/axis","shape":[],"dtype":"int32"},{"name":"concatenate_2/concat/axis","shape":[],"dtype":"int32"},{"name":"pass3_block1_mbconv2_detection2_dense/concat/axis","shape":[],"dtype":"int32"},{"name":"pass3_block1_mbconv3_detection2_dense/concat/axis","shape":[],"dtype":"int32"},{"name":"pass3_detection2_confs/kernel","shape":[1,1,168,16],"dtype":"float32"},{"name":"pass3_detection2_confs/bias","shape":[16],"dtype":"float32"},{"name":"efficientnet-lite4/model/stem/conv2d/Conv2D_0/convolution_weights","shape":[3,3,3,32],"dtype":"float32"},{"name":"pass3_block1_mbconv3_detection2_dconv1/depthwise_weights","shape":[5,5,336,1],"dtype":"float32"},{"name":"efficientnet-lite4/model/stem/conv2d/Conv2D_0/convolution_bn_offset","shape":[32],"dtype":"float32"},{"name":"efficientnet-lite4/model/blocks_0/depthwise_conv2d/depthwise_0/depthwise_weights","shape":[3,3,32,1],"dtype":"float32"},{"name":"efficientnet-lite4/model/blocks_0/depthwise_conv2d/depthwise_0/depthwise_bn_offset","shape":[32],"dtype":"float32"},{"name":"efficientnet-lite4/model/blocks_0/conv2d/Conv2D_0/convolution_weights","shape":[1,1,32,24],"dtype":"float32"},{"name":"pass3_block1_mbconv3_detection2_dconv1/depthwise_bn_offset","shape":[336],"dtype":"float32"},{"name":"efficientnet-lite4/model/blocks_0/conv2d/Conv2D_0/convolution_bn_offset","shape":[24],"dtype":"float32"},{"name":"efficientnet-lite4/model/blocks_1/conv2d/Conv2D_0/convolution_weights","shape":[1,1,24,144],"dtype":"float32"},{"name":"efficientnet-lite4/model/blocks_1/conv2d/Conv2D_0/convolution_bn_offset","shape":[144],"dtype":"float32"},{"name":"efficientnet-lite4/model/blocks_1/depthwise_conv2d/depthwise_0/depthwise_weights","shape":[3,3,144,1],"dtype":"float32"},{"name":"efficientnet-lite4/model/blocks_1/depthwise_conv2d/depthwise_0/depthwise_bn_offset","shape":[144],"dtype":"float32"},{"name":"efficientnet-lite4/model/blocks_1/conv2d_1/Conv2D_0/convolution_weights","shape":[1,1,144,32],"dtype":"float32"},{"name":"pass3_block1_mbconv3_detection2_conv2/convolution_weights","shape":[1,1,336,56],"dtype":"float32"},{"name":"efficientnet-lite4/model/blocks_1/conv2d_1/Conv2D_0/convolution_bn_offset","shape":[32],"dtype":"float32"},{"name":"efficientnet-lite4/model/blocks_2/conv2d/Conv2D_0/convolution_weights","shape":[1,1,32,192],"dtype":"float32"},{"name":"efficientnet-lite4/model/blocks_2/conv2d/Conv2D_0/convolution_bn_offset","shape":[192],"dtype":"float32"},{"name":"pass3_block1_mbconv3_detection2_conv2/convolution_bn_offset","shape":[56],"dtype":"float32"},{"name":"efficientnet-lite4/model/blocks_2/depthwise_conv2d/depthwise_0/depthwise_weights","shape":[3,3,192,1],"dtype":"float32"},{"name":"efficientnet-lite4/model/blocks_2/depthwise_conv2d/depthwise_0/depthwise_bn_offset","shape":[192],"dtype":"float32"},{"name":"efficientnet-lite4/model/blocks_2/conv2d_1/Conv2D_0/convolution_weights","shape":[1,1,192,32],"dtype":"float32"},{"name":"efficientnet-lite4/model/blocks_2/conv2d_1/Conv2D_0/convolution_bn_offset","shape":[32],"dtype":"float32"},{"name":"efficientnet-lite4/model/blocks_3/conv2d/Conv2D_0/convolution_weights","shape":[1,1,32,192],"dtype":"float32"},{"name":"efficientnet-lite4/model/blocks_3/conv2d/Conv2D_0/convolution_bn_offset","shape":[192],"dtype":"float32"},{"name":"pass3_block2_mbconv1_detection2_conv1/convolution_weights","shape":[1,1,168,336],"dtype":"float32"},{"name":"efficientnet-lite4/model/blocks_3/depthwise_conv2d/depthwise_0/depthwise_weights","shape":[3,3,192,1],"dtype":"float32"},{"name":"efficientnet-lite4/model/blocks_3/depthwise_conv2d/depthwise_0/depthwise_bn_offset","shape":[192],"dtype":"float32"},{"name":"efficientnet-lite4/model/blocks_3/conv2d_1/Conv2D_0/convolution_weights","shape":[1,1,192,32],"dtype":"float32"},{"name":"efficientnet-lite4/model/blocks_3/conv2d_1/Conv2D_0/convolution_bn_offset","shape":[32],"dtype":"float32"},{"name":"efficientnet-lite4/model/blocks_4/conv2d/Conv2D_0/convolution_weights","shape":[1,1,32,192],"dtype":"float32"},{"name":"pass3_block2_mbconv1_detection2_conv1/convolution_bn_offset","shape":[336],"dtype":"float32"},{"name":"efficientnet-lite4/model/blocks_4/conv2d/Conv2D_0/convolution_bn_offset","shape":[192],"dtype":"float32"},{"name":"efficientnet-lite4/model/blocks_4/depthwise_conv2d/depthwise_0/depthwise_weights","shape":[3,3,192,1],"dtype":"float32"},{"name":"efficientnet-lite4/model/blocks_4/depthwise_conv2d/depthwise_0/depthwise_bn_offset","shape":[192],"dtype":"float32"},{"name":"efficientnet-lite4/model/blocks_4/conv2d_1/Conv2D_0/convolution_weights","shape":[1,1,192,32],"dtype":"float32"},{"name":"efficientnet-lite4/model/blocks_4/conv2d_1/Conv2D_0/convolution_bn_offset","shape":[32],"dtype":"float32"},{"name":"efficientnet-lite4/model/blocks_5/conv2d/Conv2D_0/convolution_weights","shape":[1,1,32,192],"dtype":"float32"},{"name":"pass3_block2_mbconv1_detection2_dconv1/depthwise_weights","shape":[5,5,336,1],"dtype":"float32"},{"name":"efficientnet-lite4/model/blocks_5/conv2d/Conv2D_0/convolution_bn_offset","shape":[192],"dtype":"float32"},{"name":"efficientnet-lite4/model/blocks_5/depthwise_conv2d/depthwise_0/depthwise_weights","shape":[5,5,192,1],"dtype":"float32"},{"name":"efficientnet-lite4/model/blocks_5/depthwise_conv2d/depthwise_0/depthwise_bn_offset","shape":[192],"dtype":"float32"},{"name":"efficientnet-lite4/model/blocks_5/conv2d_1/Conv2D_0/convolution_weights","shape":[1,1,192,56],"dtype":"float32"},{"name":"pass3_block2_mbconv1_detection2_dconv1/depthwise_bn_offset","shape":[336],"dtype":"float32"},{"name":"efficientnet-lite4/model/blocks_5/conv2d_1/Conv2D_0/convolution_bn_offset","shape":[56],"dtype":"float32"},{"name":"efficientnet-lite4/model/blocks_6/conv2d/Conv2D_0/convolution_weights","shape":[1,1,56,336],"dtype":"float32"},{"name":"efficientnet-lite4/model/blocks_6/conv2d/Conv2D_0/convolution_bn_offset","shape":[336],"dtype":"float32"},{"name":"efficientnet-lite4/model/blocks_6/depthwise_conv2d/depthwise_0/depthwise_weights","shape":[5,5,336,1],"dtype":"float32"},{"name":"efficientnet-lite4/model/blocks_6/depthwise_conv2d/depthwise_0/depthwise_bn_offset","shape":[336],"dtype":"float32"},{"name":"efficientnet-lite4/model/blocks_6/conv2d_1/Conv2D_0/convolution_weights","shape":[1,1,336,56],"dtype":"float32"},{"name":"pass3_block2_mbconv1_detection2_conv2/convolution_weights","shape":[1,1,336,56],"dtype":"float32"},{"name":"efficientnet-lite4/model/blocks_6/conv2d_1/Conv2D_0/convolution_bn_offset","shape":[56],"dtype":"float32"},{"name":"efficientnet-lite4/model/blocks_7/conv2d/Conv2D_0/convolution_weights","shape":[1,1,56,336],"dtype":"float32"},{"name":"efficientnet-lite4/model/blocks_7/conv2d/Conv2D_0/convolution_bn_offset","shape":[336],"dtype":"float32"},{"name":"pass3_block2_mbconv1_detection2_conv2/convolution_bn_offset","shape":[56],"dtype":"float32"},{"name":"efficientnet-lite4/model/blocks_7/depthwise_conv2d/depthwise_0/depthwise_weights","shape":[5,5,336,1],"dtype":"float32"},{"name":"efficientnet-lite4/model/blocks_7/depthwise_conv2d/depthwise_0/depthwise_bn_offset","shape":[336],"dtype":"float32"},{"name":"efficientnet-lite4/model/blocks_7/conv2d_1/Conv2D_0/convolution_weights","shape":[1,1,336,56],"dtype":"float32"},{"name":"efficientnet-lite4/model/blocks_7/conv2d_1/Conv2D_0/convolution_bn_offset","shape":[56],"dtype":"float32"},{"name":"efficientnet-lite4/model/blocks_8/conv2d/Conv2D_0/convolution_weights","shape":[1,1,56,336],"dtype":"float32"},{"name":"pass3_block2_mbconv2_detection2_conv1/convolution_weights","shape":[1,1,56,336],"dtype":"float32"},{"name":"efficientnet-lite4/model/blocks_8/conv2d/Conv2D_0/convolution_bn_offset","shape":[336],"dtype":"float32"},{"name":"efficientnet-lite4/model/blocks_8/depthwise_conv2d/depthwise_0/depthwise_weights","shape":[5,5,336,1],"dtype":"float32"},{"name":"efficientnet-lite4/model/blocks_8/depthwise_conv2d/depthwise_0/depthwise_bn_offset","shape":[336],"dtype":"float32"},{"name":"efficientnet-lite4/model/blocks_8/conv2d_1/Conv2D_0/convolution_weights","shape":[1,1,336,56],"dtype":"float32"},{"name":"pass3_block2_mbconv2_detection2_conv1/convolution_bn_offset","shape":[336],"dtype":"float32"},{"name":"efficientnet-lite4/model/blocks_8/conv2d_1/Conv2D_0/convolution_bn_offset","shape":[56],"dtype":"float32"},{"name":"pass1_block1_mbconv1_skeleton_conv1/convolution_weights","shape":[1,1,56,336],"dtype":"float32"},{"name":"pass1_block1_mbconv1_skeleton_conv1/convolution_bn_offset","shape":[336],"dtype":"float32"},{"name":"pass1_block1_mbconv1_skeleton_dconv1/depthwise_weights","shape":[5,5,336,1],"dtype":"float32"},{"name":"pass1_block1_mbconv1_skeleton_dconv1/depthwise_bn_offset","shape":[336],"dtype":"float32"},{"name":"pass1_block1_mbconv1_skeleton_conv2/convolution_weights","shape":[1,1,336,56],"dtype":"float32"},{"name":"pass3_block2_mbconv2_detection2_dconv1/depthwise_weights","shape":[5,5,336,1],"dtype":"float32"},{"name":"pass1_block1_mbconv1_skeleton_conv2/convolution_bn_offset","shape":[56],"dtype":"float32"},{"name":"pass1_block1_mbconv2_skeleton_conv1/convolution_weights","shape":[1,1,56,336],"dtype":"float32"},{"name":"pass1_block1_mbconv2_skeleton_conv1/convolution_bn_offset","shape":[336],"dtype":"float32"},{"name":"pass3_block2_mbconv2_detection2_dconv1/depthwise_bn_offset","shape":[336],"dtype":"float32"},{"name":"pass1_block1_mbconv2_skeleton_dconv1/depthwise_weights","shape":[5,5,336,1],"dtype":"float32"},{"name":"pass1_block1_mbconv2_skeleton_dconv1/depthwise_bn_offset","shape":[336],"dtype":"float32"},{"name":"pass1_block1_mbconv2_skeleton_conv2/convolution_weights","shape":[1,1,336,56],"dtype":"float32"},{"name":"pass1_block1_mbconv2_skeleton_conv2/convolution_bn_offset","shape":[56],"dtype":"float32"},{"name":"pass1_block1_mbconv3_skeleton_conv1/convolution_weights","shape":[1,1,112,336],"dtype":"float32"},{"name":"pass1_block1_mbconv3_skeleton_conv1/convolution_bn_offset","shape":[336],"dtype":"float32"},{"name":"pass3_block2_mbconv2_detection2_conv2/convolution_weights","shape":[1,1,336,56],"dtype":"float32"},{"name":"pass1_block1_mbconv3_skeleton_dconv1/depthwise_weights","shape":[5,5,336,1],"dtype":"float32"},{"name":"pass1_block1_mbconv3_skeleton_dconv1/depthwise_bn_offset","shape":[336],"dtype":"float32"},{"name":"pass1_block1_mbconv3_skeleton_conv2/convolution_weights","shape":[1,1,336,56],"dtype":"float32"},{"name":"pass1_block1_mbconv3_skeleton_conv2/convolution_bn_offset","shape":[56],"dtype":"float32"},{"name":"pass1_block2_mbconv1_skeleton_conv1/convolution_weights","shape":[1,1,168,336],"dtype":"float32"},{"name":"pass3_block2_mbconv2_detection2_conv2/convolution_bn_offset","shape":[56],"dtype":"float32"},{"name":"pass1_block2_mbconv1_skeleton_conv1/convolution_bn_offset","shape":[336],"dtype":"float32"},{"name":"pass1_block2_mbconv1_skeleton_dconv1/depthwise_weights","shape":[5,5,336,1],"dtype":"float32"},{"name":"pass1_block2_mbconv1_skeleton_dconv1/depthwise_bn_offset","shape":[336],"dtype":"float32"},{"name":"pass1_block2_mbconv1_skeleton_conv2/convolution_weights","shape":[1,1,336,56],"dtype":"float32"},{"name":"pass1_block2_mbconv1_skeleton_conv2/convolution_bn_offset","shape":[56],"dtype":"float32"},{"name":"pass1_block2_mbconv2_skeleton_conv1/convolution_weights","shape":[1,1,56,336],"dtype":"float32"},{"name":"pass3_block2_mbconv3_detection2_conv1/convolution_weights","shape":[1,1,112,336],"dtype":"float32"},{"name":"pass1_block2_mbconv2_skeleton_conv1/convolution_bn_offset","shape":[336],"dtype":"float32"},{"name":"pass1_block2_mbconv2_skeleton_dconv1/depthwise_weights","shape":[5,5,336,1],"dtype":"float32"},{"name":"pass1_block2_mbconv2_skeleton_dconv1/depthwise_bn_offset","shape":[336],"dtype":"float32"},{"name":"pass1_block2_mbconv2_skeleton_conv2/convolution_weights","shape":[1,1,336,56],"dtype":"float32"},{"name":"pass3_block2_mbconv3_detection2_conv1/convolution_bn_offset","shape":[336],"dtype":"float32"},{"name":"pass1_block2_mbconv2_skeleton_conv2/convolution_bn_offset","shape":[56],"dtype":"float32"},{"name":"pass1_block2_mbconv3_skeleton_conv1/convolution_weights","shape":[1,1,112,336],"dtype":"float32"},{"name":"pass1_block2_mbconv3_skeleton_conv1/convolution_bn_offset","shape":[336],"dtype":"float32"},{"name":"pass1_block2_mbconv3_skeleton_dconv1/depthwise_weights","shape":[5,5,336,1],"dtype":"float32"},{"name":"pass1_block2_mbconv3_skeleton_dconv1/depthwise_bn_offset","shape":[336],"dtype":"float32"},{"name":"pass1_block2_mbconv3_skeleton_conv2/convolution_weights","shape":[1,1,336,56],"dtype":"float32"},{"name":"pass3_block2_mbconv3_detection2_dconv1/depthwise_weights","shape":[5,5,336,1],"dtype":"float32"},{"name":"pass1_block2_mbconv3_skeleton_conv2/convolution_bn_offset","shape":[56],"dtype":"float32"},{"name":"pass2_block1_mbconv1_detection1_conv1/convolution_weights","shape":[1,1,224,336],"dtype":"float32"},{"name":"pass2_block1_mbconv1_detection1_conv1/convolution_bn_offset","shape":[336],"dtype":"float32"},{"name":"pass3_block2_mbconv3_detection2_dconv1/depthwise_bn_offset","shape":[336],"dtype":"float32"},{"name":"pass2_block1_mbconv1_detection1_dconv1/depthwise_weights","shape":[5,5,336,1],"dtype":"float32"},{"name":"pass2_block1_mbconv1_detection1_dconv1/depthwise_bn_offset","shape":[336],"dtype":"float32"},{"name":"pass2_block1_mbconv1_detection1_conv2/convolution_weights","shape":[1,1,336,56],"dtype":"float32"},{"name":"pass2_block1_mbconv1_detection1_conv2/convolution_bn_offset","shape":[56],"dtype":"float32"},{"name":"pass2_block1_mbconv2_detection1_conv1/convolution_weights","shape":[1,1,56,336],"dtype":"float32"},{"name":"pass2_block1_mbconv2_detection1_conv1/convolution_bn_offset","shape":[336],"dtype":"float32"},{"name":"pass3_block2_mbconv3_detection2_conv2/convolution_weights","shape":[1,1,336,56],"dtype":"float32"},{"name":"pass2_block1_mbconv2_detection1_dconv1/depthwise_weights","shape":[5,5,336,1],"dtype":"float32"},{"name":"pass2_block1_mbconv2_detection1_dconv1/depthwise_bn_offset","shape":[336],"dtype":"float32"},{"name":"pass2_block1_mbconv2_detection1_conv2/convolution_weights","shape":[1,1,336,56],"dtype":"float32"},{"name":"pass2_block1_mbconv2_detection1_conv2/convolution_bn_offset","shape":[56],"dtype":"float32"},{"name":"pass2_block1_mbconv3_detection1_conv1/convolution_weights","shape":[1,1,112,336],"dtype":"float32"},{"name":"pass3_block2_mbconv3_detection2_conv2/convolution_bn_offset","shape":[56],"dtype":"float32"},{"name":"pass2_block1_mbconv3_detection1_conv1/convolution_bn_offset","shape":[336],"dtype":"float32"},{"name":"pass2_block1_mbconv3_detection1_dconv1/depthwise_weights","shape":[5,5,336,1],"dtype":"float32"},{"name":"pass2_block1_mbconv3_detection1_dconv1/depthwise_bn_offset","shape":[336],"dtype":"float32"},{"name":"pass2_block1_mbconv3_detection1_conv2/convolution_weights","shape":[1,1,336,56],"dtype":"float32"},{"name":"pass2_block1_mbconv3_detection1_conv2/convolution_bn_offset","shape":[56],"dtype":"float32"},{"name":"pass2_block2_mbconv1_detection1_conv1/convolution_weights","shape":[1,1,168,336],"dtype":"float32"},{"name":"pass2_block2_mbconv1_detection1_conv1/convolution_bn_offset","shape":[336],"dtype":"float32"},{"name":"pass2_block2_mbconv1_detection1_dconv1/depthwise_weights","shape":[5,5,336,1],"dtype":"float32"},{"name":"pass2_block2_mbconv1_detection1_dconv1/depthwise_bn_offset","shape":[336],"dtype":"float32"},{"name":"pass2_block2_mbconv1_detection1_conv2/convolution_weights","shape":[1,1,336,56],"dtype":"float32"},{"name":"pass2_block2_mbconv1_detection1_conv2/convolution_bn_offset","shape":[56],"dtype":"float32"},{"name":"pass2_block2_mbconv2_detection1_conv1/convolution_weights","shape":[1,1,56,336],"dtype":"float32"},{"name":"pass2_block2_mbconv2_detection1_conv1/convolution_bn_offset","shape":[336],"dtype":"float32"},{"name":"pass2_block2_mbconv2_detection1_dconv1/depthwise_weights","shape":[5,5,336,1],"dtype":"float32"},{"name":"pass2_block2_mbconv2_detection1_dconv1/depthwise_bn_offset","shape":[336],"dtype":"float32"},{"name":"pass2_block2_mbconv2_detection1_conv2/convolution_weights","shape":[1,1,336,56],"dtype":"float32"},{"name":"pass2_block2_mbconv2_detection1_conv2/convolution_bn_offset","shape":[56],"dtype":"float32"},{"name":"pass2_block2_mbconv3_detection1_conv1/convolution_weights","shape":[1,1,112,336],"dtype":"float32"},{"name":"pass2_block2_mbconv3_detection1_conv1/convolution_bn_offset","shape":[336],"dtype":"float32"},{"name":"pass2_block2_mbconv3_detection1_dconv1/depthwise_weights","shape":[5,5,336,1],"dtype":"float32"},{"name":"pass2_block2_mbconv3_detection1_dconv1/depthwise_bn_offset","shape":[336],"dtype":"float32"},{"name":"pass2_block2_mbconv3_detection1_conv2/convolution_weights","shape":[1,1,336,56],"dtype":"float32"},{"name":"pass2_block2_mbconv3_detection1_conv2/convolution_bn_offset","shape":[56],"dtype":"float32"},{"name":"pass3_block1_mbconv1_detection2_conv1/convolution_weights","shape":[1,1,224,336],"dtype":"float32"},{"name":"pass3_block1_mbconv1_detection2_conv1/convolution_bn_offset","shape":[336],"dtype":"float32"},{"name":"pass3_block1_mbconv1_detection2_dconv1/depthwise_weights","shape":[5,5,336,1],"dtype":"float32"},{"name":"pass3_block1_mbconv1_detection2_dconv1/depthwise_bn_offset","shape":[336],"dtype":"float32"},{"name":"pass3_block1_mbconv1_detection2_conv2/convolution_weights","shape":[1,1,336,56],"dtype":"float32"},{"name":"pass3_block1_mbconv1_detection2_conv2/convolution_bn_offset","shape":[56],"dtype":"float32"},{"name":"pass3_block1_mbconv2_detection2_conv1/convolution_weights","shape":[1,1,56,336],"dtype":"float32"},{"name":"pass3_block1_mbconv2_detection2_conv1/convolution_bn_offset","shape":[336],"dtype":"float32"},{"name":"pass3_block1_mbconv2_detection2_dconv1/depthwise_weights","shape":[5,5,336,1],"dtype":"float32"},{"name":"pass3_block1_mbconv2_detection2_dconv1/depthwise_bn_offset","shape":[336],"dtype":"float32"},{"name":"pass3_block1_mbconv2_detection2_conv2/convolution_weights","shape":[1,1,336,56],"dtype":"float32"},{"name":"pass3_block1_mbconv2_detection2_conv2/convolution_bn_offset","shape":[56],"dtype":"float32"},{"name":"pass3_block1_mbconv3_detection2_conv1/convolution_weights","shape":[1,1,112,336],"dtype":"float32"},{"name":"pass3_block1_mbconv3_detection2_conv1/convolution_bn_offset","shape":[336],"dtype":"float32"}]
      }
  ]
}