{
  "format": "graph-model",
  "generatedBy": "2.3.1",
  "convertedBy": "TensorFlow.js Converter v2.7.0",
  "userDefinedMetadata":
  {
      "signature":
      {
          "inputs": {"image_array_input:0":{"name":"image_array_input:0","dtype":"DT_FLOAT","tensorShape":{"dim":[{"size":"-1"},{"size":"48"},{"size":"48"},{"size":"1"}]}}},
          "outputs": {"Identity:0":{"name":"Identity:0","dtype":"DT_FLOAT","tensorShape":{"dim":[{"size":"-1"},{"size":"7"}]}}}
      }
  },
  "modelTopology":
  {
      "node":
      [
          {"name":"unknown_53","op":"Const","attr":{"dtype":{"type":"DT_FLOAT"},"value":{"tensor":{"dtype":"DT_FLOAT","tensorShape":{"dim":[{"size":"3"},{"size":"3"},{"size":"256"},{"size":"7"}]}}}}},
          {"name":"unknown_54","op":"Const","attr":{"value":{"tensor":{"dtype":"DT_FLOAT","tensorShape":{"dim":[{"size":"7"}]}}},"dtype":{"type":"DT_FLOAT"}}},
          {"name":"StatefulPartitionedCall/sequential/global_average_pooling2d_1/Mean/reduction_indices","op":"Const","attr":{"value":{"tensor":{"dtype":"DT_INT32","tensorShape":{"dim":[{"size":"2"}]}}},"dtype":{"type":"DT_INT32"}}},
          {"name":"image_array_input","op":"Placeholder","attr":{"dtype":{"type":"DT_FLOAT"},"shape":{"shape":{"dim":[{"size":"-1"},{"size":"48"},{"size":"48"},{"size":"1"}]}}}},
          {"name":"StatefulPartitionedCall/sequential/image_array/Conv2D_weights","op":"Const","attr":{"dtype":{"type":"DT_FLOAT"},"value":{"tensor":{"dtype":"DT_FLOAT","tensorShape":{"dim":[{"size":"7"},{"size":"7"},{"size":"1"},{"size":"16"}]}}}}},
          {"name":"StatefulPartitionedCall/sequential/image_array/Conv2D_bn_offset","op":"Const","attr":{"value":{"tensor":{"dtype":"DT_FLOAT","tensorShape":{"dim":[{"size":"16"}]}}},"dtype":{"type":"DT_FLOAT"}}},
          {"name":"StatefulPartitionedCall/sequential/conv2d_1/Conv2D_weights","op":"Const","attr":{"dtype":{"type":"DT_FLOAT"},"value":{"tensor":{"dtype":"DT_FLOAT","tensorShape":{"dim":[{"size":"7"},{"size":"7"},{"size":"16"},{"size":"16"}]}}}}},
          {"name":"StatefulPartitionedCall/sequential/conv2d_7/Conv2D_bn_offset","op":"Const","attr":{"dtype":{"type":"DT_FLOAT"},"value":{"tensor":{"dtype":"DT_FLOAT","tensorShape":{"dim":[{"size":"128"}]}}}}},
          {"name":"StatefulPartitionedCall/sequential/conv2d_1/Conv2D_bn_offset","op":"Const","attr":{"value":{"tensor":{"dtype":"DT_FLOAT","tensorShape":{"dim":[{"size":"16"}]}}},"dtype":{"type":"DT_FLOAT"}}},
          {"name":"StatefulPartitionedCall/sequential/conv2d_2/Conv2D_weights","op":"Const","attr":{"value":{"tensor":{"dtype":"DT_FLOAT","tensorShape":{"dim":[{"size":"5"},{"size":"5"},{"size":"16"},{"size":"32"}]}}},"dtype":{"type":"DT_FLOAT"}}},
          {"name":"StatefulPartitionedCall/sequential/conv2d_2/Conv2D_bn_offset","op":"Const","attr":{"dtype":{"type":"DT_FLOAT"},"value":{"tensor":{"dtype":"DT_FLOAT","tensorShape":{"dim":[{"size":"32"}]}}}}},
          {"name":"StatefulPartitionedCall/sequential/conv2d_3/Conv2D_weights","op":"Const","attr":{"value":{"tensor":{"dtype":"DT_FLOAT","tensorShape":{"dim":[{"size":"5"},{"size":"5"},{"size":"32"},{"size":"32"}]}}},"dtype":{"type":"DT_FLOAT"}}},
          {"name":"StatefulPartitionedCall/sequential/conv2d_3/Conv2D_bn_offset","op":"Const","attr":{"value":{"tensor":{"dtype":"DT_FLOAT","tensorShape":{"dim":[{"size":"32"}]}}},"dtype":{"type":"DT_FLOAT"}}},
          {"name":"StatefulPartitionedCall/sequential/conv2d_8/Conv2D_weights","op":"Const","attr":{"value":{"tensor":{"dtype":"DT_FLOAT","tensorShape":{"dim":[{"size":"3"},{"size":"3"},{"size":"128"},{"size":"256"}]}}},"dtype":{"type":"DT_FLOAT"}}},
          {"name":"StatefulPartitionedCall/sequential/conv2d_4/Conv2D_weights","op":"Const","attr":{"dtype":{"type":"DT_FLOAT"},"value":{"tensor":{"dtype":"DT_FLOAT","tensorShape":{"dim":[{"size":"3"},{"size":"3"},{"size":"32"},{"size":"64"}]}}}}},
          {"name":"StatefulPartitionedCall/sequential/conv2d_4/Conv2D_bn_offset","op":"Const","attr":{"dtype":{"type":"DT_FLOAT"},"value":{"tensor":{"dtype":"DT_FLOAT","tensorShape":{"dim":[{"size":"64"}]}}}}},
          {"name":"StatefulPartitionedCall/sequential/conv2d_5/Conv2D_weights","op":"Const","attr":{"dtype":{"type":"DT_FLOAT"},"value":{"tensor":{"dtype":"DT_FLOAT","tensorShape":{"dim":[{"size":"3"},{"size":"3"},{"size":"64"},{"size":"64"}]}}}}},
          {"name":"StatefulPartitionedCall/sequential/conv2d_8/Conv2D_bn_offset","op":"Const","attr":{"dtype":{"type":"DT_FLOAT"},"value":{"tensor":{"dtype":"DT_FLOAT","tensorShape":{"dim":[{"size":"256"}]}}}}},
          {"name":"StatefulPartitionedCall/sequential/conv2d_5/Conv2D_bn_offset","op":"Const","attr":{"value":{"tensor":{"dtype":"DT_FLOAT","tensorShape":{"dim":[{"size":"64"}]}}},"dtype":{"type":"DT_FLOAT"}}},
          {"name":"StatefulPartitionedCall/sequential/conv2d_6/Conv2D_weights","op":"Const","attr":{"value":{"tensor":{"dtype":"DT_FLOAT","tensorShape":{"dim":[{"size":"3"},{"size":"3"},{"size":"64"},{"size":"128"}]}}},"dtype":{"type":"DT_FLOAT"}}},
          {"name":"StatefulPartitionedCall/sequential/conv2d_6/Conv2D_bn_offset","op":"Const","attr":{"value":{"tensor":{"dtype":"DT_FLOAT","tensorShape":{"dim":[{"size":"128"}]}}},"dtype":{"type":"DT_FLOAT"}}},
          {"name":"StatefulPartitionedCall/sequential/conv2d_7/Conv2D_weights","op":"Const","attr":{"value":{"tensor":{"dtype":"DT_FLOAT","tensorShape":{"dim":[{"size":"3"},{"size":"3"},{"size":"128"},{"size":"128"}]}}},"dtype":{"type":"DT_FLOAT"}}},
          {"name":"StatefulPartitionedCall/sequential/batch_normalization_1/FusedBatchNormV3","op":"_FusedConv2D","input":["image_array_input","StatefulPartitionedCall/sequential/image_array/Conv2D_weights","StatefulPartitionedCall/sequential/image_array/Conv2D_bn_offset"],"device":"/device:CPU:0","attr":{"padding":{"s":"U0FNRQ=="},"num_args":{"i":"1"},"dilations":{"list":{"i":["1","1","1","1"]}},"T":{"type":"DT_FLOAT"},"data_format":{"s":"TkhXQw=="},"explicit_paddings":{"list":{}},"use_cudnn_on_gpu":{"b":true},"strides":{"list":{"i":["1","1","1","1"]}},"fused_ops":{"list":{"s":["Qmlhc0FkZA=="]}},"epsilon":{"f":0}}},
          {"name":"StatefulPartitionedCall/sequential/activation_1/Relu","op":"_FusedConv2D","input":["StatefulPartitionedCall/sequential/batch_normalization_1/FusedBatchNormV3","StatefulPartitionedCall/sequential/conv2d_1/Conv2D_weights","StatefulPartitionedCall/sequential/conv2d_1/Conv2D_bn_offset"],"device":"/device:CPU:0","attr":{"use_cudnn_on_gpu":{"b":true},"explicit_paddings":{"list":{}},"fused_ops":{"list":{"s":["Qmlhc0FkZA==","UmVsdQ=="]}},"num_args":{"i":"1"},"epsilon":{"f":0},"padding":{"s":"U0FNRQ=="},"dilations":{"list":{"i":["1","1","1","1"]}},"strides":{"list":{"i":["1","1","1","1"]}},"T":{"type":"DT_FLOAT"},"data_format":{"s":"TkhXQw=="}}},
          {"name":"StatefulPartitionedCall/sequential/average_pooling2d_1/AvgPool","op":"AvgPool","input":["StatefulPartitionedCall/sequential/activation_1/Relu"],"attr":{"T":{"type":"DT_FLOAT"},"ksize":{"list":{"i":["1","2","2","1"]}},"padding":{"s":"U0FNRQ=="},"strides":{"list":{"i":["1","2","2","1"]}},"data_format":{"s":"TkhXQw=="}}},
          {"name":"StatefulPartitionedCall/sequential/batch_normalization_3/FusedBatchNormV3","op":"_FusedConv2D","input":["StatefulPartitionedCall/sequential/average_pooling2d_1/AvgPool","StatefulPartitionedCall/sequential/conv2d_2/Conv2D_weights","StatefulPartitionedCall/sequential/conv2d_2/Conv2D_bn_offset"],"device":"/device:CPU:0","attr":{"use_cudnn_on_gpu":{"b":true},"fused_ops":{"list":{"s":["Qmlhc0FkZA=="]}},"explicit_paddings":{"list":{}},"data_format":{"s":"TkhXQw=="},"padding":{"s":"U0FNRQ=="},"T":{"type":"DT_FLOAT"},"dilations":{"list":{"i":["1","1","1","1"]}},"epsilon":{"f":0},"num_args":{"i":"1"},"strides":{"list":{"i":["1","1","1","1"]}}}},
          {"name":"StatefulPartitionedCall/sequential/activation_2/Relu","op":"_FusedConv2D","input":["StatefulPartitionedCall/sequential/batch_normalization_3/FusedBatchNormV3","StatefulPartitionedCall/sequential/conv2d_3/Conv2D_weights","StatefulPartitionedCall/sequential/conv2d_3/Conv2D_bn_offset"],"device":"/device:CPU:0","attr":{"strides":{"list":{"i":["1","1","1","1"]}},"num_args":{"i":"1"},"padding":{"s":"U0FNRQ=="},"epsilon":{"f":0},"fused_ops":{"list":{"s":["Qmlhc0FkZA==","UmVsdQ=="]}},"explicit_paddings":{"list":{}},"dilations":{"list":{"i":["1","1","1","1"]}},"T":{"type":"DT_FLOAT"},"use_cudnn_on_gpu":{"b":true},"data_format":{"s":"TkhXQw=="}}},
          {"name":"StatefulPartitionedCall/sequential/average_pooling2d_2/AvgPool","op":"AvgPool","input":["StatefulPartitionedCall/sequential/activation_2/Relu"],"attr":{"strides":{"list":{"i":["1","2","2","1"]}},"padding":{"s":"U0FNRQ=="},"ksize":{"list":{"i":["1","2","2","1"]}},"data_format":{"s":"TkhXQw=="},"T":{"type":"DT_FLOAT"}}},
          {"name":"StatefulPartitionedCall/sequential/batch_normalization_5/FusedBatchNormV3","op":"_FusedConv2D","input":["StatefulPartitionedCall/sequential/average_pooling2d_2/AvgPool","StatefulPartitionedCall/sequential/conv2d_4/Conv2D_weights","StatefulPartitionedCall/sequential/conv2d_4/Conv2D_bn_offset"],"device":"/device:CPU:0","attr":{"T":{"type":"DT_FLOAT"},"epsilon":{"f":0},"fused_ops":{"list":{"s":["Qmlhc0FkZA=="]}},"use_cudnn_on_gpu":{"b":true},"explicit_paddings":{"list":{}},"data_format":{"s":"TkhXQw=="},"strides":{"list":{"i":["1","1","1","1"]}},"padding":{"s":"U0FNRQ=="},"dilations":{"list":{"i":["1","1","1","1"]}},"num_args":{"i":"1"}}},
          {"name":"StatefulPartitionedCall/sequential/activation_3/Relu","op":"_FusedConv2D","input":["StatefulPartitionedCall/sequential/batch_normalization_5/FusedBatchNormV3","StatefulPartitionedCall/sequential/conv2d_5/Conv2D_weights","StatefulPartitionedCall/sequential/conv2d_5/Conv2D_bn_offset"],"device":"/device:CPU:0","attr":{"explicit_paddings":{"list":{}},"padding":{"s":"U0FNRQ=="},"data_format":{"s":"TkhXQw=="},"strides":{"list":{"i":["1","1","1","1"]}},"T":{"type":"DT_FLOAT"},"fused_ops":{"list":{"s":["Qmlhc0FkZA==","UmVsdQ=="]}},"epsilon":{"f":0},"num_args":{"i":"1"},"dilations":{"list":{"i":["1","1","1","1"]}},"use_cudnn_on_gpu":{"b":true}}},
          {"name":"StatefulPartitionedCall/sequential/average_pooling2d_3/AvgPool","op":"AvgPool","input":["StatefulPartitionedCall/sequential/activation_3/Relu"],"attr":{"padding":{"s":"U0FNRQ=="},"T":{"type":"DT_FLOAT"},"ksize":{"list":{"i":["1","2","2","1"]}},"strides":{"list":{"i":["1","2","2","1"]}},"data_format":{"s":"TkhXQw=="}}},
          {"name":"StatefulPartitionedCall/sequential/batch_normalization_7/FusedBatchNormV3","op":"_FusedConv2D","input":["StatefulPartitionedCall/sequential/average_pooling2d_3/AvgPool","StatefulPartitionedCall/sequential/conv2d_6/Conv2D_weights","StatefulPartitionedCall/sequential/conv2d_6/Conv2D_bn_offset"],"device":"/device:CPU:0","attr":{"fused_ops":{"list":{"s":["Qmlhc0FkZA=="]}},"strides":{"list":{"i":["1","1","1","1"]}},"padding":{"s":"U0FNRQ=="},"data_format":{"s":"TkhXQw=="},"use_cudnn_on_gpu":{"b":true},"epsilon":{"f":0},"dilations":{"list":{"i":["1","1","1","1"]}},"explicit_paddings":{"list":{}},"num_args":{"i":"1"},"T":{"type":"DT_FLOAT"}}},
          {"name":"StatefulPartitionedCall/sequential/activation_4/Relu","op":"_FusedConv2D","input":["StatefulPartitionedCall/sequential/batch_normalization_7/FusedBatchNormV3","StatefulPartitionedCall/sequential/conv2d_7/Conv2D_weights","StatefulPartitionedCall/sequential/conv2d_7/Conv2D_bn_offset"],"device":"/device:CPU:0","attr":{"explicit_paddings":{"list":{}},"num_args":{"i":"1"},"use_cudnn_on_gpu":{"b":true},"fused_ops":{"list":{"s":["Qmlhc0FkZA==","UmVsdQ=="]}},"epsilon":{"f":0},"data_format":{"s":"TkhXQw=="},"padding":{"s":"U0FNRQ=="},"T":{"type":"DT_FLOAT"},"dilations":{"list":{"i":["1","1","1","1"]}},"strides":{"list":{"i":["1","1","1","1"]}}}},
          {"name":"StatefulPartitionedCall/sequential/average_pooling2d_4/AvgPool","op":"AvgPool","input":["StatefulPartitionedCall/sequential/activation_4/Relu"],"attr":{"padding":{"s":"U0FNRQ=="},"ksize":{"list":{"i":["1","2","2","1"]}},"data_format":{"s":"TkhXQw=="},"T":{"type":"DT_FLOAT"},"strides":{"list":{"i":["1","2","2","1"]}}}},
          {"name":"StatefulPartitionedCall/sequential/batch_normalization_9/FusedBatchNormV3","op":"_FusedConv2D","input":["StatefulPartitionedCall/sequential/average_pooling2d_4/AvgPool","StatefulPartitionedCall/sequential/conv2d_8/Conv2D_weights","StatefulPartitionedCall/sequential/conv2d_8/Conv2D_bn_offset"],"device":"/device:CPU:0","attr":{"data_format":{"s":"TkhXQw=="},"explicit_paddings":{"list":{}},"epsilon":{"f":0},"dilations":{"list":{"i":["1","1","1","1"]}},"fused_ops":{"list":{"s":["Qmlhc0FkZA=="]}},"num_args":{"i":"1"},"use_cudnn_on_gpu":{"b":true},"padding":{"s":"U0FNRQ=="},"strides":{"list":{"i":["1","1","1","1"]}},"T":{"type":"DT_FLOAT"}}},
          {"name":"StatefulPartitionedCall/sequential/conv2d_9/BiasAdd","op":"_FusedConv2D","input":["StatefulPartitionedCall/sequential/batch_normalization_9/FusedBatchNormV3","unknown_53","unknown_54"],"device":"/device:CPU:0","attr":{"T":{"type":"DT_FLOAT"},"epsilon":{"f":0},"use_cudnn_on_gpu":{"b":true},"fused_ops":{"list":{"s":["Qmlhc0FkZA=="]}},"padding":{"s":"U0FNRQ=="},"num_args":{"i":"1"},"dilations":{"list":{"i":["1","1","1","1"]}},"explicit_paddings":{"list":{}},"data_format":{"s":"TkhXQw=="},"strides":{"list":{"i":["1","1","1","1"]}}}},
          {"name":"StatefulPartitionedCall/sequential/global_average_pooling2d_1/Mean","op":"Mean","input":["StatefulPartitionedCall/sequential/conv2d_9/BiasAdd","StatefulPartitionedCall/sequential/global_average_pooling2d_1/Mean/reduction_indices"],"attr":{"keep_dims":{"b":false},"T":{"type":"DT_FLOAT"},"Tidx":{"type":"DT_INT32"}}},
          {"name":"StatefulPartitionedCall/sequential/predictions/Softmax","op":"Softmax","input":["StatefulPartitionedCall/sequential/global_average_pooling2d_1/Mean"],"attr":{"T":{"type":"DT_FLOAT"}}},
          {"name":"Identity","op":"Identity","input":["StatefulPartitionedCall/sequential/predictions/Softmax"],"attr":{"T":{"type":"DT_FLOAT"}}}
      ],
      "library": {},
      "versions":
      {
          "producer": 440
      }
  },
  "weightsManifest":
  [
      {
          "paths": ["emotion-cnn.bin"],
          "weights": [{"name":"unknown_53","shape":[3,3,256,7],"dtype":"float32"},{"name":"unknown_54","shape":[7],"dtype":"float32"},{"name":"StatefulPartitionedCall/sequential/global_average_pooling2d_1/Mean/reduction_indices","shape":[2],"dtype":"int32"},{"name":"StatefulPartitionedCall/sequential/image_array/Conv2D_weights","shape":[7,7,1,16],"dtype":"float32"},{"name":"StatefulPartitionedCall/sequential/image_array/Conv2D_bn_offset","shape":[16],"dtype":"float32"},{"name":"StatefulPartitionedCall/sequential/conv2d_1/Conv2D_weights","shape":[7,7,16,16],"dtype":"float32"},{"name":"StatefulPartitionedCall/sequential/conv2d_7/Conv2D_bn_offset","shape":[128],"dtype":"float32"},{"name":"StatefulPartitionedCall/sequential/conv2d_1/Conv2D_bn_offset","shape":[16],"dtype":"float32"},{"name":"StatefulPartitionedCall/sequential/conv2d_2/Conv2D_weights","shape":[5,5,16,32],"dtype":"float32"},{"name":"StatefulPartitionedCall/sequential/conv2d_2/Conv2D_bn_offset","shape":[32],"dtype":"float32"},{"name":"StatefulPartitionedCall/sequential/conv2d_3/Conv2D_weights","shape":[5,5,32,32],"dtype":"float32"},{"name":"StatefulPartitionedCall/sequential/conv2d_3/Conv2D_bn_offset","shape":[32],"dtype":"float32"},{"name":"StatefulPartitionedCall/sequential/conv2d_8/Conv2D_weights","shape":[3,3,128,256],"dtype":"float32"},{"name":"StatefulPartitionedCall/sequential/conv2d_4/Conv2D_weights","shape":[3,3,32,64],"dtype":"float32"},{"name":"StatefulPartitionedCall/sequential/conv2d_4/Conv2D_bn_offset","shape":[64],"dtype":"float32"},{"name":"StatefulPartitionedCall/sequential/conv2d_5/Conv2D_weights","shape":[3,3,64,64],"dtype":"float32"},{"name":"StatefulPartitionedCall/sequential/conv2d_8/Conv2D_bn_offset","shape":[256],"dtype":"float32"},{"name":"StatefulPartitionedCall/sequential/conv2d_5/Conv2D_bn_offset","shape":[64],"dtype":"float32"},{"name":"StatefulPartitionedCall/sequential/conv2d_6/Conv2D_weights","shape":[3,3,64,128],"dtype":"float32"},{"name":"StatefulPartitionedCall/sequential/conv2d_6/Conv2D_bn_offset","shape":[128],"dtype":"float32"},{"name":"StatefulPartitionedCall/sequential/conv2d_7/Conv2D_weights","shape":[3,3,128,128],"dtype":"float32"}]
      }
  ]
}