{
  "format": "graph-model",
  "generatedBy": "2.4.0",
  "convertedBy": "TensorFlow.js Converter v2.8.0",
  "signature":
  {
      "outputs":
      {
          "scores": {"name":"scores"},
          "boxes": {"name":"boxes"},
          "num_boxes": {"name":"num_boxes"}
      }
  },
  "modelTopology":
  {
      "node":
      [
          {"name":"nms/map/TensorArrayStack/range/start","op":"Const","attr":{"value":{"tensor":{"dtype":"DT_INT32","tensorShape":{}}},"dtype":{"type":"DT_INT32"}}},
          {"name":"nms/map/TensorArrayStack/range/delta","op":"Const","attr":{"dtype":{"type":"DT_INT32"},"value":{"tensor":{"dtype":"DT_INT32","tensorShape":{}}}}},
          {"name":"nms/map/TensorArrayStack_2/range/start","op":"Const","attr":{"value":{"tensor":{"dtype":"DT_INT32","tensorShape":{}}},"dtype":{"type":"DT_INT32"}}},
          {"name":"nms/map/TensorArrayStack_2/range/delta","op":"Const","attr":{"value":{"tensor":{"dtype":"DT_INT32","tensorShape":{}}},"dtype":{"type":"DT_INT32"}}},
          {"name":"nms/map/TensorArrayStack_1/range/start","op":"Const","attr":{"value":{"tensor":{"dtype":"DT_INT32","tensorShape":{}}},"dtype":{"type":"DT_INT32"}}},
          {"name":"nms/map/TensorArrayStack_1/range/delta","op":"Const","attr":{"dtype":{"type":"DT_INT32"},"value":{"tensor":{"dtype":"DT_INT32","tensorShape":{}}}}},
          {"name":"nms/map/TensorArrayUnstack/range/start","op":"Const","attr":{"value":{"tensor":{"dtype":"DT_INT32","tensorShape":{}}},"dtype":{"type":"DT_INT32"}}},
          {"name":"nms/map/TensorArrayUnstack/strided_slice/stack","op":"Const","attr":{"dtype":{"type":"DT_INT32"},"value":{"tensor":{"dtype":"DT_INT32","tensorShape":{"dim":[{"size":"1"}]}}}}},
          {"name":"nms/map/TensorArrayUnstack/strided_slice/stack_1","op":"Const","attr":{"value":{"tensor":{"dtype":"DT_INT32","tensorShape":{"dim":[{"size":"1"}]}}},"dtype":{"type":"DT_INT32"}}},
          {"name":"nms/map/TensorArrayUnstack/strided_slice/stack_2","op":"Const","attr":{"value":{"tensor":{"dtype":"DT_INT32","tensorShape":{"dim":[{"size":"1"}]}}},"dtype":{"type":"DT_INT32"}}},
          {"name":"nms/map/TensorArrayUnstack/range/delta","op":"Const","attr":{"dtype":{"type":"DT_INT32"},"value":{"tensor":{"dtype":"DT_INT32","tensorShape":{}}}}},
          {"name":"nms/map/TensorArrayUnstack_1/range/start","op":"Const","attr":{"dtype":{"type":"DT_INT32"},"value":{"tensor":{"dtype":"DT_INT32","tensorShape":{}}}}},
          {"name":"nms/map/TensorArrayUnstack_1/strided_slice/stack","op":"Const","attr":{"value":{"tensor":{"dtype":"DT_INT32","tensorShape":{"dim":[{"size":"1"}]}}},"dtype":{"type":"DT_INT32"}}},
          {"name":"nms/map/TensorArrayUnstack_1/strided_slice/stack_1","op":"Const","attr":{"dtype":{"type":"DT_INT32"},"value":{"tensor":{"dtype":"DT_INT32","tensorShape":{"dim":[{"size":"1"}]}}}}},
          {"name":"nms/map/TensorArrayUnstack_1/strided_slice/stack_2","op":"Const","attr":{"value":{"tensor":{"dtype":"DT_INT32","tensorShape":{"dim":[{"size":"1"}]}}},"dtype":{"type":"DT_INT32"}}},
          {"name":"nms/map/TensorArrayUnstack_1/range/delta","op":"Const","attr":{"value":{"tensor":{"dtype":"DT_INT32","tensorShape":{}}},"dtype":{"type":"DT_INT32"}}},
          {"name":"prediction_layers/class_predictor_0/weights","op":"Const","attr":{"value":{"tensor":{"dtype":"DT_FLOAT","tensorShape":{"dim":[{"size":"3"},{"size":"3"},{"size":"128"},{"size":"42"}]}}},"dtype":{"type":"DT_FLOAT"}}},
          {"name":"prediction_layers/class_predictor_0/biases","op":"Const","attr":{"value":{"tensor":{"dtype":"DT_FLOAT","tensorShape":{"dim":[{"size":"42"}]}}},"dtype":{"type":"DT_FLOAT"}}},
          {"name":"reshaping/stack_1/2","op":"Const","attr":{"dtype":{"type":"DT_INT32"},"value":{"tensor":{"dtype":"DT_INT32","tensorShape":{}}}}},
          {"name":"prediction_layers/class_predictor_1/weights","op":"Const","attr":{"value":{"tensor":{"dtype":"DT_FLOAT","tensorShape":{"dim":[{"size":"3"},{"size":"3"},{"size":"256"},{"size":"2"}]}}},"dtype":{"type":"DT_FLOAT"}}},
          {"name":"prediction_layers/class_predictor_1/biases","op":"Const","attr":{"dtype":{"type":"DT_FLOAT"},"value":{"tensor":{"dtype":"DT_FLOAT","tensorShape":{"dim":[{"size":"2"}]}}}}},
          {"name":"reshaping/stack_3/2","op":"Const","attr":{"value":{"tensor":{"dtype":"DT_INT32","tensorShape":{}}},"dtype":{"type":"DT_INT32"}}},
          {"name":"prediction_layers/class_predictor_2/weights","op":"Const","attr":{"dtype":{"type":"DT_FLOAT"},"value":{"tensor":{"dtype":"DT_FLOAT","tensorShape":{"dim":[{"size":"3"},{"size":"3"},{"size":"256"},{"size":"2"}]}}}}},
          {"name":"prediction_layers/class_predictor_2/biases","op":"Const","attr":{"value":{"tensor":{"dtype":"DT_FLOAT","tensorShape":{"dim":[{"size":"2"}]}}},"dtype":{"type":"DT_FLOAT"}}},
          {"name":"reshaping/stack_5/2","op":"Const","attr":{"value":{"tensor":{"dtype":"DT_INT32","tensorShape":{}}},"dtype":{"type":"DT_INT32"}}},
          {"name":"reshaping/concat_1/axis","op":"Const","attr":{"value":{"tensor":{"dtype":"DT_INT32","tensorShape":{}}},"dtype":{"type":"DT_INT32"}}},
          {"name":"postprocessing/strided_slice_2/stack","op":"Const","attr":{"value":{"tensor":{"dtype":"DT_INT32","tensorShape":{"dim":[{"size":"3"}]}}},"dtype":{"type":"DT_INT32"}}},
          {"name":"postprocessing/strided_slice_2/stack_1","op":"Const","attr":{"dtype":{"type":"DT_INT32"},"value":{"tensor":{"dtype":"DT_INT32","tensorShape":{"dim":[{"size":"3"}]}}}}},
          {"name":"postprocessing/strided_slice_2/stack_2","op":"Const","attr":{"dtype":{"type":"DT_INT32"},"value":{"tensor":{"dtype":"DT_INT32","tensorShape":{"dim":[{"size":"3"}]}}}}},
          {"name":"nms/map/Const","op":"Const","attr":{"value":{"tensor":{"dtype":"DT_INT32","tensorShape":{}}},"dtype":{"type":"DT_INT32"}}},
          {"name":"nms/map/while/iteration_counter","op":"Const","attr":{"dtype":{"type":"DT_INT32"},"value":{"tensor":{"dtype":"DT_INT32","tensorShape":{}}}}},
          {"name":"postprocessing/decode_predictions/to_minmax_coordinates/mul/x","op":"Const","attr":{"dtype":{"type":"DT_FLOAT"},"value":{"tensor":{"dtype":"DT_FLOAT","tensorShape":{}}}}},
          {"name":"postprocessing/decode_predictions/to_minmax_coordinates/mul_1/x","op":"Const","attr":{"value":{"tensor":{"dtype":"DT_FLOAT","tensorShape":{}}},"dtype":{"type":"DT_FLOAT"}}},
          {"name":"ConstantFolding/postprocessing/decode_predictions/truediv_recip","op":"Const","attr":{"dtype":{"type":"DT_FLOAT"},"value":{"tensor":{"dtype":"DT_FLOAT","tensorShape":{}}}}},
          {"name":"postprocessing/decode_predictions/to_center_coordinates/mul/x","op":"Const","attr":{"value":{"tensor":{"dtype":"DT_FLOAT","tensorShape":{}}},"dtype":{"type":"DT_FLOAT"}}},
          {"name":"postprocessing/decode_predictions/to_minmax_coordinates/mul_2/x","op":"Const","attr":{"dtype":{"type":"DT_FLOAT"},"value":{"tensor":{"dtype":"DT_FLOAT","tensorShape":{}}}}},
          {"name":"ConstantFolding/postprocessing/decode_predictions/truediv_2_recip","op":"Const","attr":{"value":{"tensor":{"dtype":"DT_FLOAT","tensorShape":{}}},"dtype":{"type":"DT_FLOAT"}}},
          {"name":"ConstantFolding/postprocessing/decode_predictions/truediv_1_recip","op":"Const","attr":{"value":{"tensor":{"dtype":"DT_FLOAT","tensorShape":{}}},"dtype":{"type":"DT_FLOAT"}}},
          {"name":"postprocessing/decode_predictions/to_center_coordinates/mul_1/x","op":"Const","attr":{"value":{"tensor":{"dtype":"DT_FLOAT","tensorShape":{}}},"dtype":{"type":"DT_FLOAT"}}},
          {"name":"postprocessing/decode_predictions/to_minmax_coordinates/mul_3/x","op":"Const","attr":{"dtype":{"type":"DT_FLOAT"},"value":{"tensor":{"dtype":"DT_FLOAT","tensorShape":{}}}}},
          {"name":"postprocessing/Reshape/shape","op":"Const","attr":{"value":{"tensor":{"dtype":"DT_INT32","tensorShape":{"dim":[{"size":"2"}]}}},"dtype":{"type":"DT_INT32"}}},
          {"name":"ConstantFolding/postprocessing/decode_predictions/truediv_3_recip","op":"Const","attr":{"dtype":{"type":"DT_FLOAT"},"value":{"tensor":{"dtype":"DT_FLOAT","tensorShape":{}}}}},
          {"name":"concatenate/to_minmax_coordinates/mul/x","op":"Const","attr":{"value":{"tensor":{"dtype":"DT_FLOAT","tensorShape":{}}},"dtype":{"type":"DT_FLOAT"}}},
          {"name":"concatenate/to_minmax_coordinates/mul_1/x","op":"Const","attr":{"value":{"tensor":{"dtype":"DT_FLOAT","tensorShape":{}}},"dtype":{"type":"DT_FLOAT"}}},
          {"name":"concatenate/to_minmax_coordinates/mul_2/x","op":"Const","attr":{"value":{"tensor":{"dtype":"DT_FLOAT","tensorShape":{}}},"dtype":{"type":"DT_FLOAT"}}},
          {"name":"concatenate/to_minmax_coordinates/mul_3/x","op":"Const","attr":{"value":{"tensor":{"dtype":"DT_FLOAT","tensorShape":{}}},"dtype":{"type":"DT_FLOAT"}}},
          {"name":"anchor_generator/mul_1/x","op":"Const","attr":{"dtype":{"type":"DT_FLOAT"},"value":{"tensor":{"dtype":"DT_FLOAT","tensorShape":{}}}}},
          {"name":"anchor_generator/mul_3/x","op":"Const","attr":{"value":{"tensor":{"dtype":"DT_FLOAT","tensorShape":{}}},"dtype":{"type":"DT_FLOAT"}}},
          {"name":"ConstantFolding/anchor_generator/truediv_7_recip","op":"Const","attr":{"dtype":{"type":"DT_FLOAT"},"value":{"tensor":{"dtype":"DT_FLOAT","tensorShape":{}}}}},
          {"name":"anchor_generator/ExpandDims/dim","op":"Const","attr":{"value":{"tensor":{"dtype":"DT_INT32","tensorShape":{}}},"dtype":{"type":"DT_INT32"}}},
          {"name":"anchor_generator/Tile/multiples","op":"Const","attr":{"value":{"tensor":{"dtype":"DT_INT32","tensorShape":{"dim":[{"size":"2"}]}}},"dtype":{"type":"DT_INT32"}}},
          {"name":"anchor_generator/mul_2/x","op":"Const","attr":{"dtype":{"type":"DT_FLOAT"},"value":{"tensor":{"dtype":"DT_FLOAT","tensorShape":{}}}}},
          {"name":"anchor_generator/mul_5/x","op":"Const","attr":{"value":{"tensor":{"dtype":"DT_FLOAT","tensorShape":{}}},"dtype":{"type":"DT_FLOAT"}}},
          {"name":"ConstantFolding/anchor_generator/truediv_8_recip","op":"Const","attr":{"value":{"tensor":{"dtype":"DT_FLOAT","tensorShape":{}}},"dtype":{"type":"DT_FLOAT"}}},
          {"name":"anchor_generator/ToFloat_6","op":"Const","attr":{"dtype":{"type":"DT_FLOAT"},"value":{"tensor":{"dtype":"DT_FLOAT","tensorShape":{"dim":[{"size":"4"}]}}}}},
          {"name":"anchor_generator/ExpandDims_1/dim","op":"Const","attr":{"value":{"tensor":{"dtype":"DT_INT32","tensorShape":{}}},"dtype":{"type":"DT_INT32"}}},
          {"name":"anchor_generator/Tile_1/multiples","op":"Const","attr":{"value":{"tensor":{"dtype":"DT_INT32","tensorShape":{"dim":[{"size":"2"}]}}},"dtype":{"type":"DT_INT32"}}},
          {"name":"anchor_generator/truediv_4","op":"Const","attr":{"value":{"tensor":{"dtype":"DT_FLOAT","tensorShape":{}}},"dtype":{"type":"DT_FLOAT"}}},
          {"name":"anchor_generator/mul","op":"Const","attr":{"value":{"tensor":{"dtype":"DT_FLOAT","tensorShape":{}}},"dtype":{"type":"DT_FLOAT"}}},
          {"name":"anchor_generator/ExpandDims_2/dim","op":"Const","attr":{"value":{"tensor":{"dtype":"DT_INT32","tensorShape":{}}},"dtype":{"type":"DT_INT32"}}},
          {"name":"anchor_generator/ExpandDims_3/dim","op":"Const","attr":{"value":{"tensor":{"dtype":"DT_INT32","tensorShape":{}}},"dtype":{"type":"DT_INT32"}}},
          {"name":"anchor_generator/Tile_2/multiples","op":"Const","attr":{"value":{"tensor":{"dtype":"DT_INT32","tensorShape":{"dim":[{"size":"3"}]}}},"dtype":{"type":"DT_INT32"}}},
          {"name":"anchor_generator/Reshape_1/shape","op":"Const","attr":{"value":{"tensor":{"dtype":"DT_INT32","tensorShape":{"dim":[{"size":"4"}]}}},"dtype":{"type":"DT_INT32"}}},
          {"name":"anchor_generator/meshgrid/Reshape_3/shape","op":"Const","attr":{"value":{"tensor":{"dtype":"DT_INT32","tensorShape":{"dim":[{"size":"2"}]}}},"dtype":{"type":"DT_INT32"}}},
          {"name":"anchor_generator/meshgrid/Reshape_2/shape","op":"Const","attr":{"value":{"tensor":{"dtype":"DT_INT32","tensorShape":{"dim":[{"size":"2"}]}}},"dtype":{"type":"DT_INT32"}}},
          {"name":"anchor_generator/range_1/start","op":"Const","attr":{"dtype":{"type":"DT_INT32"},"value":{"tensor":{"dtype":"DT_INT32","tensorShape":{}}}}},
          {"name":"anchor_generator/range_1/delta","op":"Const","attr":{"dtype":{"type":"DT_INT32"},"value":{"tensor":{"dtype":"DT_INT32","tensorShape":{}}}}},
          {"name":"anchor_generator/range_2/start","op":"Const","attr":{"dtype":{"type":"DT_INT32"},"value":{"tensor":{"dtype":"DT_INT32","tensorShape":{}}}}},
          {"name":"anchor_generator/range_2/delta","op":"Const","attr":{"dtype":{"type":"DT_INT32"},"value":{"tensor":{"dtype":"DT_INT32","tensorShape":{}}}}},
          {"name":"anchor_generator/meshgrid/ones/Const","op":"Const","attr":{"value":{"tensor":{"dtype":"DT_FLOAT","tensorShape":{}}},"dtype":{"type":"DT_FLOAT"}}},
          {"name":"anchor_generator/Pad/paddings","op":"Const","attr":{"dtype":{"type":"DT_INT32"},"value":{"tensor":{"dtype":"DT_INT32","tensorShape":{"dim":[{"size":"3"},{"size":"2"}]}}}}},
          {"name":"anchor_generator/ExpandDims_4/dim","op":"Const","attr":{"value":{"tensor":{"dtype":"DT_INT32","tensorShape":{}}},"dtype":{"type":"DT_INT32"}}},
          {"name":"anchor_generator/Tile_3/multiples","op":"Const","attr":{"dtype":{"type":"DT_INT32"},"value":{"tensor":{"dtype":"DT_INT32","tensorShape":{"dim":[{"size":"4"}]}}}}},
          {"name":"anchor_generator/mul_10/x","op":"Const","attr":{"value":{"tensor":{"dtype":"DT_FLOAT","tensorShape":{}}},"dtype":{"type":"DT_FLOAT"}}},
          {"name":"anchor_generator/mul_12/x","op":"Const","attr":{"dtype":{"type":"DT_FLOAT"},"value":{"tensor":{"dtype":"DT_FLOAT","tensorShape":{}}}}},
          {"name":"ConstantFolding/anchor_generator/truediv_12_recip","op":"Const","attr":{"value":{"tensor":{"dtype":"DT_FLOAT","tensorShape":{}}},"dtype":{"type":"DT_FLOAT"}}},
          {"name":"anchor_generator/ExpandDims_5/dim","op":"Const","attr":{"value":{"tensor":{"dtype":"DT_INT32","tensorShape":{}}},"dtype":{"type":"DT_INT32"}}},
          {"name":"anchor_generator/Tile_4/multiples","op":"Const","attr":{"value":{"tensor":{"dtype":"DT_INT32","tensorShape":{"dim":[{"size":"2"}]}}},"dtype":{"type":"DT_INT32"}}},
          {"name":"anchor_generator/mul_11/x","op":"Const","attr":{"dtype":{"type":"DT_FLOAT"},"value":{"tensor":{"dtype":"DT_FLOAT","tensorShape":{}}}}},
          {"name":"anchor_generator/mul_14/x","op":"Const","attr":{"value":{"tensor":{"dtype":"DT_FLOAT","tensorShape":{}}},"dtype":{"type":"DT_FLOAT"}}},
          {"name":"ConstantFolding/anchor_generator/truediv_13_recip","op":"Const","attr":{"dtype":{"type":"DT_FLOAT"},"value":{"tensor":{"dtype":"DT_FLOAT","tensorShape":{}}}}},
          {"name":"anchor_generator/ToFloat_11","op":"Const","attr":{"value":{"tensor":{"dtype":"DT_FLOAT","tensorShape":{"dim":[{"size":"2"}]}}},"dtype":{"type":"DT_FLOAT"}}},
          {"name":"anchor_generator/ExpandDims_6/dim","op":"Const","attr":{"dtype":{"type":"DT_INT32"},"value":{"tensor":{"dtype":"DT_INT32","tensorShape":{}}}}},
          {"name":"anchor_generator/Tile_5/multiples","op":"Const","attr":{"value":{"tensor":{"dtype":"DT_INT32","tensorShape":{"dim":[{"size":"2"}]}}},"dtype":{"type":"DT_INT32"}}},
          {"name":"anchor_generator/truediv_9","op":"Const","attr":{"dtype":{"type":"DT_FLOAT"},"value":{"tensor":{"dtype":"DT_FLOAT","tensorShape":{}}}}},
          {"name":"anchor_generator/mul_9","op":"Const","attr":{"value":{"tensor":{"dtype":"DT_FLOAT","tensorShape":{}}},"dtype":{"type":"DT_FLOAT"}}},
          {"name":"anchor_generator/ExpandDims_7/dim","op":"Const","attr":{"value":{"tensor":{"dtype":"DT_INT32","tensorShape":{}}},"dtype":{"type":"DT_INT32"}}},
          {"name":"anchor_generator/ExpandDims_8/dim","op":"Const","attr":{"dtype":{"type":"DT_INT32"},"value":{"tensor":{"dtype":"DT_INT32","tensorShape":{}}}}},
          {"name":"anchor_generator/Tile_6/multiples","op":"Const","attr":{"dtype":{"type":"DT_INT32"},"value":{"tensor":{"dtype":"DT_INT32","tensorShape":{"dim":[{"size":"3"}]}}}}},
          {"name":"anchor_generator/Reshape_3/shape","op":"Const","attr":{"dtype":{"type":"DT_INT32"},"value":{"tensor":{"dtype":"DT_INT32","tensorShape":{"dim":[{"size":"4"}]}}}}},
          {"name":"anchor_generator/meshgrid_1/Reshape_3/shape","op":"Const","attr":{"dtype":{"type":"DT_INT32"},"value":{"tensor":{"dtype":"DT_INT32","tensorShape":{"dim":[{"size":"2"}]}}}}},
          {"name":"anchor_generator/meshgrid_1/Reshape_2/shape","op":"Const","attr":{"dtype":{"type":"DT_INT32"},"value":{"tensor":{"dtype":"DT_INT32","tensorShape":{"dim":[{"size":"2"}]}}}}},
          {"name":"anchor_generator/range_4/start","op":"Const","attr":{"value":{"tensor":{"dtype":"DT_INT32","tensorShape":{}}},"dtype":{"type":"DT_INT32"}}},
          {"name":"anchor_generator/range_4/delta","op":"Const","attr":{"value":{"tensor":{"dtype":"DT_INT32","tensorShape":{}}},"dtype":{"type":"DT_INT32"}}},
          {"name":"anchor_generator/range_5/start","op":"Const","attr":{"dtype":{"type":"DT_INT32"},"value":{"tensor":{"dtype":"DT_INT32","tensorShape":{}}}}},
          {"name":"anchor_generator/range_5/delta","op":"Const","attr":{"value":{"tensor":{"dtype":"DT_INT32","tensorShape":{}}},"dtype":{"type":"DT_INT32"}}},
          {"name":"anchor_generator/meshgrid_1/ones/Const","op":"Const","attr":{"dtype":{"type":"DT_FLOAT"},"value":{"tensor":{"dtype":"DT_FLOAT","tensorShape":{}}}}},
          {"name":"anchor_generator/Pad_1/paddings","op":"Const","attr":{"value":{"tensor":{"dtype":"DT_INT32","tensorShape":{"dim":[{"size":"3"},{"size":"2"}]}}},"dtype":{"type":"DT_INT32"}}},
          {"name":"anchor_generator/ExpandDims_9/dim","op":"Const","attr":{"value":{"tensor":{"dtype":"DT_INT32","tensorShape":{}}},"dtype":{"type":"DT_INT32"}}},
          {"name":"anchor_generator/Tile_7/multiples","op":"Const","attr":{"dtype":{"type":"DT_INT32"},"value":{"tensor":{"dtype":"DT_INT32","tensorShape":{"dim":[{"size":"4"}]}}}}},
          {"name":"anchor_generator/truediv_2/x","op":"Const","attr":{"dtype":{"type":"DT_FLOAT"},"value":{"tensor":{"dtype":"DT_FLOAT","tensorShape":{}}}}},
          {"name":"anchor_generator/mul_19/x","op":"Const","attr":{"dtype":{"type":"DT_FLOAT"},"value":{"tensor":{"dtype":"DT_FLOAT","tensorShape":{}}}}},
          {"name":"anchor_generator/mul_21/x","op":"Const","attr":{"value":{"tensor":{"dtype":"DT_FLOAT","tensorShape":{}}},"dtype":{"type":"DT_FLOAT"}}},
          {"name":"anchor_generator/ExpandDims_10/dim","op":"Const","attr":{"value":{"tensor":{"dtype":"DT_INT32","tensorShape":{}}},"dtype":{"type":"DT_INT32"}}},
          {"name":"anchor_generator/truediv_3/x","op":"Const","attr":{"value":{"tensor":{"dtype":"DT_FLOAT","tensorShape":{}}},"dtype":{"type":"DT_FLOAT"}}},
          {"name":"anchor_generator/mul_20/x","op":"Const","attr":{"value":{"tensor":{"dtype":"DT_FLOAT","tensorShape":{}}},"dtype":{"type":"DT_FLOAT"}}},
          {"name":"anchor_generator/mul_23/x","op":"Const","attr":{"value":{"tensor":{"dtype":"DT_FLOAT","tensorShape":{}}},"dtype":{"type":"DT_FLOAT"}}},
          {"name":"anchor_generator/ExpandDims_11/dim","op":"Const","attr":{"value":{"tensor":{"dtype":"DT_INT32","tensorShape":{}}},"dtype":{"type":"DT_INT32"}}},
          {"name":"anchor_generator/truediv_14","op":"Const","attr":{"dtype":{"type":"DT_FLOAT"},"value":{"tensor":{"dtype":"DT_FLOAT","tensorShape":{}}}}},
          {"name":"anchor_generator/mul_18","op":"Const","attr":{"dtype":{"type":"DT_FLOAT"},"value":{"tensor":{"dtype":"DT_FLOAT","tensorShape":{}}}}},
          {"name":"anchor_generator/ExpandDims_12/dim","op":"Const","attr":{"value":{"tensor":{"dtype":"DT_INT32","tensorShape":{}}},"dtype":{"type":"DT_INT32"}}},
          {"name":"anchor_generator/ExpandDims_13/dim","op":"Const","attr":{"dtype":{"type":"DT_INT32"},"value":{"tensor":{"dtype":"DT_INT32","tensorShape":{}}}}},
          {"name":"anchor_generator/Reshape_5/shape","op":"Const","attr":{"dtype":{"type":"DT_INT32"},"value":{"tensor":{"dtype":"DT_INT32","tensorShape":{"dim":[{"size":"4"}]}}}}},
          {"name":"anchor_generator/meshgrid_2/Reshape_3/shape","op":"Const","attr":{"dtype":{"type":"DT_INT32"},"value":{"tensor":{"dtype":"DT_INT32","tensorShape":{"dim":[{"size":"2"}]}}}}},
          {"name":"anchor_generator/meshgrid_2/Reshape_2/shape","op":"Const","attr":{"value":{"tensor":{"dtype":"DT_INT32","tensorShape":{"dim":[{"size":"2"}]}}},"dtype":{"type":"DT_INT32"}}},
          {"name":"anchor_generator/range_7/start","op":"Const","attr":{"value":{"tensor":{"dtype":"DT_INT32","tensorShape":{}}},"dtype":{"type":"DT_INT32"}}},
          {"name":"anchor_generator/range_7/delta","op":"Const","attr":{"dtype":{"type":"DT_INT32"},"value":{"tensor":{"dtype":"DT_INT32","tensorShape":{}}}}},
          {"name":"strided_slice_2/stack","op":"Const","attr":{"dtype":{"type":"DT_INT32"},"value":{"tensor":{"dtype":"DT_INT32","tensorShape":{"dim":[{"size":"1"}]}}}}},
          {"name":"strided_slice_2/stack_1","op":"Const","attr":{"value":{"tensor":{"dtype":"DT_INT32","tensorShape":{"dim":[{"size":"1"}]}}},"dtype":{"type":"DT_INT32"}}},
          {"name":"strided_slice_2/stack_2","op":"Const","attr":{"dtype":{"type":"DT_INT32"},"value":{"tensor":{"dtype":"DT_INT32","tensorShape":{"dim":[{"size":"1"}]}}}}},
          {"name":"anchor_generator/range_8/start","op":"Const","attr":{"dtype":{"type":"DT_INT32"},"value":{"tensor":{"dtype":"DT_INT32","tensorShape":{}}}}},
          {"name":"anchor_generator/range_8/delta","op":"Const","attr":{"dtype":{"type":"DT_INT32"},"value":{"tensor":{"dtype":"DT_INT32","tensorShape":{}}}}},
          {"name":"strided_slice_3/stack","op":"Const","attr":{"dtype":{"type":"DT_INT32"},"value":{"tensor":{"dtype":"DT_INT32","tensorShape":{"dim":[{"size":"1"}]}}}}},
          {"name":"strided_slice_3/stack_1","op":"Const","attr":{"dtype":{"type":"DT_INT32"},"value":{"tensor":{"dtype":"DT_INT32","tensorShape":{"dim":[{"size":"1"}]}}}}},
          {"name":"strided_slice_3/stack_2","op":"Const","attr":{"value":{"tensor":{"dtype":"DT_INT32","tensorShape":{"dim":[{"size":"1"}]}}},"dtype":{"type":"DT_INT32"}}},
          {"name":"anchor_generator/meshgrid_2/ones/Const","op":"Const","attr":{"dtype":{"type":"DT_FLOAT"},"value":{"tensor":{"dtype":"DT_FLOAT","tensorShape":{}}}}},
          {"name":"anchor_generator/Pad_2/paddings","op":"Const","attr":{"value":{"tensor":{"dtype":"DT_INT32","tensorShape":{"dim":[{"size":"3"},{"size":"2"}]}}},"dtype":{"type":"DT_INT32"}}},
          {"name":"anchor_generator/ExpandDims_14/dim","op":"Const","attr":{"value":{"tensor":{"dtype":"DT_INT32","tensorShape":{}}},"dtype":{"type":"DT_INT32"}}},
          {"name":"anchor_generator/concat/axis","op":"Const","attr":{"value":{"tensor":{"dtype":"DT_INT32","tensorShape":{}}},"dtype":{"type":"DT_INT32"}}},
          {"name":"anchor_generator/Reshape_6/shape","op":"Const","attr":{"dtype":{"type":"DT_INT32"},"value":{"tensor":{"dtype":"DT_INT32","tensorShape":{"dim":[{"size":"2"}]}}}}},
          {"name":"anchor_generator/truediv_21/x","op":"Const","attr":{"dtype":{"type":"DT_FLOAT"},"value":{"tensor":{"dtype":"DT_FLOAT","tensorShape":{}}}}},
          {"name":"anchor_generator/mul_30/x","op":"Const","attr":{"dtype":{"type":"DT_FLOAT"},"value":{"tensor":{"dtype":"DT_FLOAT","tensorShape":{}}}}},
          {"name":"anchor_generator/mul_32/x","op":"Const","attr":{"value":{"tensor":{"dtype":"DT_FLOAT","tensorShape":{}}},"dtype":{"type":"DT_FLOAT"}}},
          {"name":"anchor_generator/ExpandDims_15/dim","op":"Const","attr":{"value":{"tensor":{"dtype":"DT_INT32","tensorShape":{}}},"dtype":{"type":"DT_INT32"}}},
          {"name":"anchor_generator/truediv_22/x","op":"Const","attr":{"value":{"tensor":{"dtype":"DT_FLOAT","tensorShape":{}}},"dtype":{"type":"DT_FLOAT"}}},
          {"name":"anchor_generator/mul_31/x","op":"Const","attr":{"dtype":{"type":"DT_FLOAT"},"value":{"tensor":{"dtype":"DT_FLOAT","tensorShape":{}}}}},
          {"name":"anchor_generator/mul_34/x","op":"Const","attr":{"dtype":{"type":"DT_FLOAT"},"value":{"tensor":{"dtype":"DT_FLOAT","tensorShape":{}}}}},
          {"name":"anchor_generator/ExpandDims_16/dim","op":"Const","attr":{"dtype":{"type":"DT_INT32"},"value":{"tensor":{"dtype":"DT_INT32","tensorShape":{}}}}},
          {"name":"anchor_generator/truediv_23","op":"Const","attr":{"value":{"tensor":{"dtype":"DT_FLOAT","tensorShape":{}}},"dtype":{"type":"DT_FLOAT"}}},
          {"name":"anchor_generator/mul_29","op":"Const","attr":{"dtype":{"type":"DT_FLOAT"},"value":{"tensor":{"dtype":"DT_FLOAT","tensorShape":{}}}}},
          {"name":"anchor_generator/ExpandDims_17/dim","op":"Const","attr":{"value":{"tensor":{"dtype":"DT_INT32","tensorShape":{}}},"dtype":{"type":"DT_INT32"}}},
          {"name":"anchor_generator/ExpandDims_18/dim","op":"Const","attr":{"value":{"tensor":{"dtype":"DT_INT32","tensorShape":{}}},"dtype":{"type":"DT_INT32"}}},
          {"name":"anchor_generator/Reshape_8/shape","op":"Const","attr":{"dtype":{"type":"DT_INT32"},"value":{"tensor":{"dtype":"DT_INT32","tensorShape":{"dim":[{"size":"4"}]}}}}},
          {"name":"anchor_generator/meshgrid_3/Reshape_3/shape","op":"Const","attr":{"dtype":{"type":"DT_INT32"},"value":{"tensor":{"dtype":"DT_INT32","tensorShape":{"dim":[{"size":"2"}]}}}}},
          {"name":"anchor_generator/meshgrid_3/Reshape_2/shape","op":"Const","attr":{"value":{"tensor":{"dtype":"DT_INT32","tensorShape":{"dim":[{"size":"2"}]}}},"dtype":{"type":"DT_INT32"}}},
          {"name":"anchor_generator/range_10/start","op":"Const","attr":{"value":{"tensor":{"dtype":"DT_INT32","tensorShape":{}}},"dtype":{"type":"DT_INT32"}}},
          {"name":"anchor_generator/range_10/delta","op":"Const","attr":{"dtype":{"type":"DT_INT32"},"value":{"tensor":{"dtype":"DT_INT32","tensorShape":{}}}}},
          {"name":"strided_slice_4/stack","op":"Const","attr":{"value":{"tensor":{"dtype":"DT_INT32","tensorShape":{"dim":[{"size":"1"}]}}},"dtype":{"type":"DT_INT32"}}},
          {"name":"strided_slice_4/stack_1","op":"Const","attr":{"value":{"tensor":{"dtype":"DT_INT32","tensorShape":{"dim":[{"size":"1"}]}}},"dtype":{"type":"DT_INT32"}}},
          {"name":"strided_slice_4/stack_2","op":"Const","attr":{"value":{"tensor":{"dtype":"DT_INT32","tensorShape":{"dim":[{"size":"1"}]}}},"dtype":{"type":"DT_INT32"}}},
          {"name":"anchor_generator/range_11/start","op":"Const","attr":{"dtype":{"type":"DT_INT32"},"value":{"tensor":{"dtype":"DT_INT32","tensorShape":{}}}}},
          {"name":"anchor_generator/range_11/delta","op":"Const","attr":{"dtype":{"type":"DT_INT32"},"value":{"tensor":{"dtype":"DT_INT32","tensorShape":{}}}}},
          {"name":"strided_slice_5/stack","op":"Const","attr":{"value":{"tensor":{"dtype":"DT_INT32","tensorShape":{"dim":[{"size":"1"}]}}},"dtype":{"type":"DT_INT32"}}},
          {"name":"strided_slice_5/stack_1","op":"Const","attr":{"value":{"tensor":{"dtype":"DT_INT32","tensorShape":{"dim":[{"size":"1"}]}}},"dtype":{"type":"DT_INT32"}}},
          {"name":"strided_slice_5/stack_2","op":"Const","attr":{"dtype":{"type":"DT_INT32"},"value":{"tensor":{"dtype":"DT_INT32","tensorShape":{"dim":[{"size":"1"}]}}}}},
          {"name":"anchor_generator/meshgrid_3/ones/Const","op":"Const","attr":{"dtype":{"type":"DT_FLOAT"},"value":{"tensor":{"dtype":"DT_FLOAT","tensorShape":{}}}}},
          {"name":"anchor_generator/Pad_3/paddings","op":"Const","attr":{"dtype":{"type":"DT_INT32"},"value":{"tensor":{"dtype":"DT_INT32","tensorShape":{"dim":[{"size":"3"},{"size":"2"}]}}}}},
          {"name":"anchor_generator/ExpandDims_19/dim","op":"Const","attr":{"value":{"tensor":{"dtype":"DT_INT32","tensorShape":{}}},"dtype":{"type":"DT_INT32"}}},
          {"name":"anchor_generator/Reshape_9/shape","op":"Const","attr":{"value":{"tensor":{"dtype":"DT_INT32","tensorShape":{"dim":[{"size":"2"}]}}},"dtype":{"type":"DT_INT32"}}},
          {"name":"anchor_generator/truediv_30/x","op":"Const","attr":{"value":{"tensor":{"dtype":"DT_FLOAT","tensorShape":{}}},"dtype":{"type":"DT_FLOAT"}}},
          {"name":"anchor_generator/mul_41/x","op":"Const","attr":{"value":{"tensor":{"dtype":"DT_FLOAT","tensorShape":{}}},"dtype":{"type":"DT_FLOAT"}}},
          {"name":"anchor_generator/mul_43/x","op":"Const","attr":{"dtype":{"type":"DT_FLOAT"},"value":{"tensor":{"dtype":"DT_FLOAT","tensorShape":{}}}}},
          {"name":"anchor_generator/ExpandDims_20/dim","op":"Const","attr":{"dtype":{"type":"DT_INT32"},"value":{"tensor":{"dtype":"DT_INT32","tensorShape":{}}}}},
          {"name":"anchor_generator/truediv_31/x","op":"Const","attr":{"value":{"tensor":{"dtype":"DT_FLOAT","tensorShape":{}}},"dtype":{"type":"DT_FLOAT"}}},
          {"name":"anchor_generator/mul_42/x","op":"Const","attr":{"dtype":{"type":"DT_FLOAT"},"value":{"tensor":{"dtype":"DT_FLOAT","tensorShape":{}}}}},
          {"name":"anchor_generator/mul_45/x","op":"Const","attr":{"dtype":{"type":"DT_FLOAT"},"value":{"tensor":{"dtype":"DT_FLOAT","tensorShape":{}}}}},
          {"name":"anchor_generator/ExpandDims_21/dim","op":"Const","attr":{"dtype":{"type":"DT_INT32"},"value":{"tensor":{"dtype":"DT_INT32","tensorShape":{}}}}},
          {"name":"anchor_generator/truediv_32","op":"Const","attr":{"value":{"tensor":{"dtype":"DT_FLOAT","tensorShape":{}}},"dtype":{"type":"DT_FLOAT"}}},
          {"name":"anchor_generator/mul_40","op":"Const","attr":{"dtype":{"type":"DT_FLOAT"},"value":{"tensor":{"dtype":"DT_FLOAT","tensorShape":{}}}}},
          {"name":"anchor_generator/ExpandDims_22/dim","op":"Const","attr":{"value":{"tensor":{"dtype":"DT_INT32","tensorShape":{}}},"dtype":{"type":"DT_INT32"}}},
          {"name":"anchor_generator/ExpandDims_23/dim","op":"Const","attr":{"dtype":{"type":"DT_INT32"},"value":{"tensor":{"dtype":"DT_INT32","tensorShape":{}}}}},
          {"name":"anchor_generator/Reshape_11/shape","op":"Const","attr":{"value":{"tensor":{"dtype":"DT_INT32","tensorShape":{"dim":[{"size":"4"}]}}},"dtype":{"type":"DT_INT32"}}},
          {"name":"anchor_generator/meshgrid_4/Reshape_3/shape","op":"Const","attr":{"value":{"tensor":{"dtype":"DT_INT32","tensorShape":{"dim":[{"size":"2"}]}}},"dtype":{"type":"DT_INT32"}}},
          {"name":"anchor_generator/meshgrid_4/Reshape_2/shape","op":"Const","attr":{"dtype":{"type":"DT_INT32"},"value":{"tensor":{"dtype":"DT_INT32","tensorShape":{"dim":[{"size":"2"}]}}}}},
          {"name":"anchor_generator/range_13/start","op":"Const","attr":{"dtype":{"type":"DT_INT32"},"value":{"tensor":{"dtype":"DT_INT32","tensorShape":{}}}}},
          {"name":"anchor_generator/range_13/delta","op":"Const","attr":{"dtype":{"type":"DT_INT32"},"value":{"tensor":{"dtype":"DT_INT32","tensorShape":{}}}}},
          {"name":"strided_slice_6/stack","op":"Const","attr":{"dtype":{"type":"DT_INT32"},"value":{"tensor":{"dtype":"DT_INT32","tensorShape":{"dim":[{"size":"1"}]}}}}},
          {"name":"strided_slice_6/stack_1","op":"Const","attr":{"value":{"tensor":{"dtype":"DT_INT32","tensorShape":{"dim":[{"size":"1"}]}}},"dtype":{"type":"DT_INT32"}}},
          {"name":"strided_slice_6/stack_2","op":"Const","attr":{"value":{"tensor":{"dtype":"DT_INT32","tensorShape":{"dim":[{"size":"1"}]}}},"dtype":{"type":"DT_INT32"}}},
          {"name":"anchor_generator/range_14/start","op":"Const","attr":{"value":{"tensor":{"dtype":"DT_INT32","tensorShape":{}}},"dtype":{"type":"DT_INT32"}}},
          {"name":"anchor_generator/range_14/delta","op":"Const","attr":{"dtype":{"type":"DT_INT32"},"value":{"tensor":{"dtype":"DT_INT32","tensorShape":{}}}}},
          {"name":"strided_slice_7/stack","op":"Const","attr":{"dtype":{"type":"DT_INT32"},"value":{"tensor":{"dtype":"DT_INT32","tensorShape":{"dim":[{"size":"1"}]}}}}},
          {"name":"strided_slice_7/stack_1","op":"Const","attr":{"value":{"tensor":{"dtype":"DT_INT32","tensorShape":{"dim":[{"size":"1"}]}}},"dtype":{"type":"DT_INT32"}}},
          {"name":"strided_slice_7/stack_2","op":"Const","attr":{"dtype":{"type":"DT_INT32"},"value":{"tensor":{"dtype":"DT_INT32","tensorShape":{"dim":[{"size":"1"}]}}}}},
          {"name":"anchor_generator/meshgrid_4/ones/Const","op":"Const","attr":{"dtype":{"type":"DT_FLOAT"},"value":{"tensor":{"dtype":"DT_FLOAT","tensorShape":{}}}}},
          {"name":"anchor_generator/Pad_4/paddings","op":"Const","attr":{"dtype":{"type":"DT_INT32"},"value":{"tensor":{"dtype":"DT_INT32","tensorShape":{"dim":[{"size":"3"},{"size":"2"}]}}}}},
          {"name":"anchor_generator/ExpandDims_24/dim","op":"Const","attr":{"dtype":{"type":"DT_INT32"},"value":{"tensor":{"dtype":"DT_INT32","tensorShape":{}}}}},
          {"name":"anchor_generator/Reshape_12/shape","op":"Const","attr":{"value":{"tensor":{"dtype":"DT_INT32","tensorShape":{"dim":[{"size":"2"}]}}},"dtype":{"type":"DT_INT32"}}},
          {"name":"concatenate/concat/axis","op":"Const","attr":{"value":{"tensor":{"dtype":"DT_INT32","tensorShape":{}}},"dtype":{"type":"DT_INT32"}}},
          {"name":"concatenate/clip_by_value/Minimum/y","op":"Const","attr":{"dtype":{"type":"DT_FLOAT"},"value":{"tensor":{"dtype":"DT_FLOAT","tensorShape":{}}}}},
          {"name":"concatenate/clip_by_value/y","op":"Const","attr":{"dtype":{"type":"DT_FLOAT"},"value":{"tensor":{"dtype":"DT_FLOAT","tensorShape":{}}}}},
          {"name":"postprocessing/ExpandDims/dim","op":"Const","attr":{"value":{"tensor":{"dtype":"DT_INT32","tensorShape":{}}},"dtype":{"type":"DT_INT32"}}},
          {"name":"postprocessing/Tile/multiples/1","op":"Const","attr":{"dtype":{"type":"DT_INT32"},"value":{"tensor":{"dtype":"DT_INT32","tensorShape":{}}}}},
          {"name":"postprocessing/Tile/multiples/2","op":"Const","attr":{"dtype":{"type":"DT_INT32"},"value":{"tensor":{"dtype":"DT_INT32","tensorShape":{}}}}},
          {"name":"postprocessing/Reshape_1/shape","op":"Const","attr":{"value":{"tensor":{"dtype":"DT_INT32","tensorShape":{"dim":[{"size":"2"}]}}},"dtype":{"type":"DT_INT32"}}},
          {"name":"postprocessing/strided_slice/stack","op":"Const","attr":{"value":{"tensor":{"dtype":"DT_INT32","tensorShape":{"dim":[{"size":"1"}]}}},"dtype":{"type":"DT_INT32"}}},
          {"name":"postprocessing/strided_slice/stack_1","op":"Const","attr":{"value":{"tensor":{"dtype":"DT_INT32","tensorShape":{"dim":[{"size":"1"}]}}},"dtype":{"type":"DT_INT32"}}},
          {"name":"postprocessing/strided_slice/stack_2","op":"Const","attr":{"dtype":{"type":"DT_INT32"},"value":{"tensor":{"dtype":"DT_INT32","tensorShape":{"dim":[{"size":"1"}]}}}}},
          {"name":"prediction_layers/box_encoding_predictor_0/weights","op":"Const","attr":{"value":{"tensor":{"dtype":"DT_FLOAT","tensorShape":{"dim":[{"size":"3"},{"size":"3"},{"size":"128"},{"size":"84"}]}}},"dtype":{"type":"DT_FLOAT"}}},
          {"name":"prediction_layers/box_encoding_predictor_0/biases","op":"Const","attr":{"dtype":{"type":"DT_FLOAT"},"value":{"tensor":{"dtype":"DT_FLOAT","tensorShape":{"dim":[{"size":"84"}]}}}}},
          {"name":"reshaping/strided_slice/stack","op":"Const","attr":{"value":{"tensor":{"dtype":"DT_INT32","tensorShape":{"dim":[{"size":"1"}]}}},"dtype":{"type":"DT_INT32"}}},
          {"name":"reshaping/strided_slice/stack_1","op":"Const","attr":{"dtype":{"type":"DT_INT32"},"value":{"tensor":{"dtype":"DT_INT32","tensorShape":{"dim":[{"size":"1"}]}}}}},
          {"name":"reshaping/strided_slice/stack_2","op":"Const","attr":{"value":{"tensor":{"dtype":"DT_INT32","tensorShape":{"dim":[{"size":"1"}]}}},"dtype":{"type":"DT_INT32"}}},
          {"name":"reshaping/strided_slice_1/stack","op":"Const","attr":{"value":{"tensor":{"dtype":"DT_INT32","tensorShape":{"dim":[{"size":"1"}]}}},"dtype":{"type":"DT_INT32"}}},
          {"name":"reshaping/strided_slice_1/stack_1","op":"Const","attr":{"dtype":{"type":"DT_INT32"},"value":{"tensor":{"dtype":"DT_INT32","tensorShape":{"dim":[{"size":"1"}]}}}}},
          {"name":"reshaping/strided_slice_1/stack_2","op":"Const","attr":{"dtype":{"type":"DT_INT32"},"value":{"tensor":{"dtype":"DT_INT32","tensorShape":{"dim":[{"size":"1"}]}}}}},
          {"name":"reshaping/mul_1/y","op":"Const","attr":{"value":{"tensor":{"dtype":"DT_INT32","tensorShape":{}}},"dtype":{"type":"DT_INT32"}}},
          {"name":"reshaping/strided_slice_2/stack","op":"Const","attr":{"value":{"tensor":{"dtype":"DT_INT32","tensorShape":{"dim":[{"size":"1"}]}}},"dtype":{"type":"DT_INT32"}}},
          {"name":"reshaping/strided_slice_2/stack_1","op":"Const","attr":{"dtype":{"type":"DT_INT32"},"value":{"tensor":{"dtype":"DT_INT32","tensorShape":{"dim":[{"size":"1"}]}}}}},
          {"name":"reshaping/strided_slice_2/stack_2","op":"Const","attr":{"value":{"tensor":{"dtype":"DT_INT32","tensorShape":{"dim":[{"size":"1"}]}}},"dtype":{"type":"DT_INT32"}}},
          {"name":"reshaping/Reshape_1/shape/2","op":"Const","attr":{"dtype":{"type":"DT_INT32"},"value":{"tensor":{"dtype":"DT_INT32","tensorShape":{}}}}},
          {"name":"prediction_layers/box_encoding_predictor_1/weights","op":"Const","attr":{"value":{"tensor":{"dtype":"DT_FLOAT","tensorShape":{"dim":[{"size":"3"},{"size":"3"},{"size":"256"},{"size":"4"}]}}},"dtype":{"type":"DT_FLOAT"}}},
          {"name":"prediction_layers/box_encoding_predictor_1/biases","op":"Const","attr":{"dtype":{"type":"DT_FLOAT"},"value":{"tensor":{"dtype":"DT_FLOAT","tensorShape":{"dim":[{"size":"4"}]}}}}},
          {"name":"reshaping/strided_slice_3/stack","op":"Const","attr":{"dtype":{"type":"DT_INT32"},"value":{"tensor":{"dtype":"DT_INT32","tensorShape":{"dim":[{"size":"1"}]}}}}},
          {"name":"reshaping/strided_slice_3/stack_1","op":"Const","attr":{"value":{"tensor":{"dtype":"DT_INT32","tensorShape":{"dim":[{"size":"1"}]}}},"dtype":{"type":"DT_INT32"}}},
          {"name":"reshaping/strided_slice_3/stack_2","op":"Const","attr":{"dtype":{"type":"DT_INT32"},"value":{"tensor":{"dtype":"DT_INT32","tensorShape":{"dim":[{"size":"1"}]}}}}},
          {"name":"reshaping/strided_slice_4/stack","op":"Const","attr":{"dtype":{"type":"DT_INT32"},"value":{"tensor":{"dtype":"DT_INT32","tensorShape":{"dim":[{"size":"1"}]}}}}},
          {"name":"reshaping/strided_slice_4/stack_1","op":"Const","attr":{"dtype":{"type":"DT_INT32"},"value":{"tensor":{"dtype":"DT_INT32","tensorShape":{"dim":[{"size":"1"}]}}}}},
          {"name":"reshaping/strided_slice_4/stack_2","op":"Const","attr":{"dtype":{"type":"DT_INT32"},"value":{"tensor":{"dtype":"DT_INT32","tensorShape":{"dim":[{"size":"1"}]}}}}},
          {"name":"reshaping/strided_slice_5/stack","op":"Const","attr":{"value":{"tensor":{"dtype":"DT_INT32","tensorShape":{"dim":[{"size":"1"}]}}},"dtype":{"type":"DT_INT32"}}},
          {"name":"reshaping/strided_slice_5/stack_1","op":"Const","attr":{"dtype":{"type":"DT_INT32"},"value":{"tensor":{"dtype":"DT_INT32","tensorShape":{"dim":[{"size":"1"}]}}}}},
          {"name":"reshaping/strided_slice_5/stack_2","op":"Const","attr":{"value":{"tensor":{"dtype":"DT_INT32","tensorShape":{"dim":[{"size":"1"}]}}},"dtype":{"type":"DT_INT32"}}},
          {"name":"reshaping/Reshape_5/shape/2","op":"Const","attr":{"value":{"tensor":{"dtype":"DT_INT32","tensorShape":{}}},"dtype":{"type":"DT_INT32"}}},
          {"name":"prediction_layers/box_encoding_predictor_2/weights","op":"Const","attr":{"dtype":{"type":"DT_FLOAT"},"value":{"tensor":{"dtype":"DT_FLOAT","tensorShape":{"dim":[{"size":"3"},{"size":"3"},{"size":"256"},{"size":"4"}]}}}}},
          {"name":"prediction_layers/box_encoding_predictor_2/biases","op":"Const","attr":{"dtype":{"type":"DT_FLOAT"},"value":{"tensor":{"dtype":"DT_FLOAT","tensorShape":{"dim":[{"size":"4"}]}}}}},
          {"name":"reshaping/strided_slice_6/stack","op":"Const","attr":{"dtype":{"type":"DT_INT32"},"value":{"tensor":{"dtype":"DT_INT32","tensorShape":{"dim":[{"size":"1"}]}}}}},
          {"name":"reshaping/strided_slice_6/stack_1","op":"Const","attr":{"dtype":{"type":"DT_INT32"},"value":{"tensor":{"dtype":"DT_INT32","tensorShape":{"dim":[{"size":"1"}]}}}}},
          {"name":"reshaping/strided_slice_6/stack_2","op":"Const","attr":{"value":{"tensor":{"dtype":"DT_INT32","tensorShape":{"dim":[{"size":"1"}]}}},"dtype":{"type":"DT_INT32"}}},
          {"name":"reshaping/strided_slice_7/stack","op":"Const","attr":{"value":{"tensor":{"dtype":"DT_INT32","tensorShape":{"dim":[{"size":"1"}]}}},"dtype":{"type":"DT_INT32"}}},
          {"name":"reshaping/strided_slice_7/stack_1","op":"Const","attr":{"dtype":{"type":"DT_INT32"},"value":{"tensor":{"dtype":"DT_INT32","tensorShape":{"dim":[{"size":"1"}]}}}}},
          {"name":"reshaping/strided_slice_7/stack_2","op":"Const","attr":{"value":{"tensor":{"dtype":"DT_INT32","tensorShape":{"dim":[{"size":"1"}]}}},"dtype":{"type":"DT_INT32"}}},
          {"name":"standardize_input/mul/x","op":"Const","attr":{"value":{"tensor":{"dtype":"DT_FLOAT","tensorShape":{}}},"dtype":{"type":"DT_FLOAT"}}},
          {"name":"image_padding/pad_to_bounding_box/stack/0","op":"Const","attr":{"value":{"tensor":{"dtype":"DT_INT32","tensorShape":{}}},"dtype":{"type":"DT_INT32"}}},
          {"name":"image_padding/pad_to_bounding_box/stack/1","op":"Const","attr":{"value":{"tensor":{"dtype":"DT_INT32","tensorShape":{}}},"dtype":{"type":"DT_INT32"}}},
          {"name":"image_padding/pad_to_bounding_box/stack/2","op":"Const","attr":{"value":{"tensor":{"dtype":"DT_INT32","tensorShape":{}}},"dtype":{"type":"DT_INT32"}}},
          {"name":"image_padding/pad_to_bounding_box/stack/4","op":"Const","attr":{"value":{"tensor":{"dtype":"DT_INT32","tensorShape":{}}},"dtype":{"type":"DT_INT32"}}},
          {"name":"image_padding/pad_to_bounding_box/stack/6","op":"Const","attr":{"value":{"tensor":{"dtype":"DT_INT32","tensorShape":{}}},"dtype":{"type":"DT_INT32"}}},
          {"name":"image_padding/pad_to_bounding_box/stack/7","op":"Const","attr":{"value":{"tensor":{"dtype":"DT_INT32","tensorShape":{}}},"dtype":{"type":"DT_INT32"}}},
          {"name":"image_padding/pad_to_bounding_box/Reshape/shape","op":"Const","attr":{"dtype":{"type":"DT_INT32"},"value":{"tensor":{"dtype":"DT_INT32","tensorShape":{"dim":[{"size":"2"}]}}}}},
          {"name":"standardize_input/sub/y","op":"Const","attr":{"value":{"tensor":{"dtype":"DT_FLOAT","tensorShape":{}}},"dtype":{"type":"DT_FLOAT"}}},
          {"name":"conv1/CRelu/axis","op":"Const","attr":{"value":{"tensor":{"dtype":"DT_INT32","tensorShape":{}}},"dtype":{"type":"DT_INT32"}}},
          {"name":"conv2/CRelu/axis","op":"Const","attr":{"value":{"tensor":{"dtype":"DT_INT32","tensorShape":{}}},"dtype":{"type":"DT_INT32"}}},
          {"name":"inception1/concat/axis","op":"Const","attr":{"value":{"tensor":{"dtype":"DT_INT32","tensorShape":{}}},"dtype":{"type":"DT_INT32"}}},
          {"name":"inception2/concat/axis","op":"Const","attr":{"dtype":{"type":"DT_INT32"},"value":{"tensor":{"dtype":"DT_INT32","tensorShape":{}}}}},
          {"name":"inception3/concat/axis","op":"Const","attr":{"value":{"tensor":{"dtype":"DT_INT32","tensorShape":{}}},"dtype":{"type":"DT_INT32"}}},
          {"name":"reshaping/strided_slice_8/stack","op":"Const","attr":{"value":{"tensor":{"dtype":"DT_INT32","tensorShape":{"dim":[{"size":"1"}]}}},"dtype":{"type":"DT_INT32"}}},
          {"name":"reshaping/strided_slice_8/stack_1","op":"Const","attr":{"value":{"tensor":{"dtype":"DT_INT32","tensorShape":{"dim":[{"size":"1"}]}}},"dtype":{"type":"DT_INT32"}}},
          {"name":"reshaping/strided_slice_8/stack_2","op":"Const","attr":{"value":{"tensor":{"dtype":"DT_INT32","tensorShape":{"dim":[{"size":"1"}]}}},"dtype":{"type":"DT_INT32"}}},
          {"name":"reshaping/Reshape_9/shape/2","op":"Const","attr":{"value":{"tensor":{"dtype":"DT_INT32","tensorShape":{}}},"dtype":{"type":"DT_INT32"}}},
          {"name":"reshaping/concat/axis","op":"Const","attr":{"value":{"tensor":{"dtype":"DT_INT32","tensorShape":{}}},"dtype":{"type":"DT_INT32"}}},
          {"name":"postprocessing/strided_slice_1/stack","op":"Const","attr":{"dtype":{"type":"DT_INT32"},"value":{"tensor":{"dtype":"DT_INT32","tensorShape":{"dim":[{"size":"1"}]}}}}},
          {"name":"postprocessing/strided_slice_1/stack_1","op":"Const","attr":{"value":{"tensor":{"dtype":"DT_INT32","tensorShape":{"dim":[{"size":"1"}]}}},"dtype":{"type":"DT_INT32"}}},
          {"name":"postprocessing/strided_slice_1/stack_2","op":"Const","attr":{"dtype":{"type":"DT_INT32"},"value":{"tensor":{"dtype":"DT_INT32","tensorShape":{"dim":[{"size":"1"}]}}}}},
          {"name":"postprocessing/Reshape_2/shape/2","op":"Const","attr":{"dtype":{"type":"DT_INT32"},"value":{"tensor":{"dtype":"DT_INT32","tensorShape":{}}}}},
          {"name":"postprocessing/clip_by_value/Minimum/y","op":"Const","attr":{"value":{"tensor":{"dtype":"DT_FLOAT","tensorShape":{}}},"dtype":{"type":"DT_FLOAT"}}},
          {"name":"postprocessing/clip_by_value/y","op":"Const","attr":{"value":{"tensor":{"dtype":"DT_FLOAT","tensorShape":{}}},"dtype":{"type":"DT_FLOAT"}}},
          {"name":"image_padding/mul/x","op":"Const","attr":{"dtype":{"type":"DT_INT32"},"value":{"tensor":{"dtype":"DT_INT32","tensorShape":{}}}}},
          {"name":"strided_slice/stack","op":"Const","attr":{"dtype":{"type":"DT_INT32"},"value":{"tensor":{"dtype":"DT_INT32","tensorShape":{"dim":[{"size":"1"}]}}}}},
          {"name":"strided_slice/stack_1","op":"Const","attr":{"value":{"tensor":{"dtype":"DT_INT32","tensorShape":{"dim":[{"size":"1"}]}}},"dtype":{"type":"DT_INT32"}}},
          {"name":"strided_slice/stack_2","op":"Const","attr":{"dtype":{"type":"DT_INT32"},"value":{"tensor":{"dtype":"DT_INT32","tensorShape":{"dim":[{"size":"1"}]}}}}},
          {"name":"ConstantFolding/image_padding/truediv_recip","op":"Const","attr":{"value":{"tensor":{"dtype":"DT_DOUBLE","tensorShape":{}}},"dtype":{"type":"DT_DOUBLE"}}},
          {"name":"image_padding/mul_1/x","op":"Const","attr":{"dtype":{"type":"DT_INT32"},"value":{"tensor":{"dtype":"DT_INT32","tensorShape":{}}}}},
          {"name":"image_tensor","op":"Placeholder","attr":{"dtype":{"type":"DT_UINT8"},"shape":{"shape":{"dim":[{"size":"-1"},{"size":"-1"},{"size":"-1"},{"size":"3"}]}}}},
          {"name":"mul/y","op":"Const","attr":{"value":{"tensor":{"dtype":"DT_FLOAT","tensorShape":{}}},"dtype":{"type":"DT_FLOAT"}}},
          {"name":"strided_slice_1/stack","op":"Const","attr":{"dtype":{"type":"DT_INT32"},"value":{"tensor":{"dtype":"DT_INT32","tensorShape":{"dim":[{"size":"1"}]}}}}},
          {"name":"strided_slice_1/stack_1","op":"Const","attr":{"dtype":{"type":"DT_INT32"},"value":{"tensor":{"dtype":"DT_INT32","tensorShape":{"dim":[{"size":"1"}]}}}}},
          {"name":"strided_slice_1/stack_2","op":"Const","attr":{"dtype":{"type":"DT_INT32"},"value":{"tensor":{"dtype":"DT_INT32","tensorShape":{"dim":[{"size":"1"}]}}}}},
          {"name":"ConstantFolding/image_padding/truediv_1_recip","op":"Const","attr":{"value":{"tensor":{"dtype":"DT_DOUBLE","tensorShape":{}}},"dtype":{"type":"DT_DOUBLE"}}},
          {"name":"postprocessing/clip_by_value_1/Minimum/y","op":"Const","attr":{"dtype":{"type":"DT_FLOAT"},"value":{"tensor":{"dtype":"DT_FLOAT","tensorShape":{}}}}},
          {"name":"postprocessing/clip_by_value_1/y","op":"Const","attr":{"dtype":{"type":"DT_FLOAT"},"value":{"tensor":{"dtype":"DT_FLOAT","tensorShape":{}}}}},
          {"name":"nms/map/strided_slice/stack","op":"Const","attr":{"value":{"tensor":{"dtype":"DT_INT32","tensorShape":{"dim":[{"size":"1"}]}}},"dtype":{"type":"DT_INT32"}}},
          {"name":"nms/map/strided_slice/stack_1","op":"Const","attr":{"dtype":{"type":"DT_INT32"},"value":{"tensor":{"dtype":"DT_INT32","tensorShape":{"dim":[{"size":"1"}]}}}}},
          {"name":"nms/map/strided_slice/stack_2","op":"Const","attr":{"value":{"tensor":{"dtype":"DT_INT32","tensorShape":{"dim":[{"size":"1"}]}}},"dtype":{"type":"DT_INT32"}}},
          {"name":"conv1/Conv2D_weights","op":"Const","attr":{"dtype":{"type":"DT_FLOAT"},"value":{"tensor":{"dtype":"DT_FLOAT","tensorShape":{"dim":[{"size":"7"},{"size":"7"},{"size":"3"},{"size":"24"}]}}}}},
          {"name":"conv1/Conv2D_bn_offset","op":"Const","attr":{"value":{"tensor":{"dtype":"DT_FLOAT","tensorShape":{"dim":[{"size":"24"}]}}},"dtype":{"type":"DT_FLOAT"}}},
          {"name":"conv2/Conv2D_weights","op":"Const","attr":{"dtype":{"type":"DT_FLOAT"},"value":{"tensor":{"dtype":"DT_FLOAT","tensorShape":{"dim":[{"size":"5"},{"size":"5"},{"size":"48"},{"size":"64"}]}}}}},
          {"name":"conv2/Conv2D_bn_offset","op":"Const","attr":{"dtype":{"type":"DT_FLOAT"},"value":{"tensor":{"dtype":"DT_FLOAT","tensorShape":{"dim":[{"size":"64"}]}}}}},
          {"name":"inception1/conv_1x1_path1/Conv2D_weights","op":"Const","attr":{"value":{"tensor":{"dtype":"DT_FLOAT","tensorShape":{"dim":[{"size":"1"},{"size":"1"},{"size":"128"},{"size":"32"}]}}},"dtype":{"type":"DT_FLOAT"}}},
          {"name":"inception1/conv_1x1_path1/Conv2D_bn_offset","op":"Const","attr":{"value":{"tensor":{"dtype":"DT_FLOAT","tensorShape":{"dim":[{"size":"32"}]}}},"dtype":{"type":"DT_FLOAT"}}},
          {"name":"inception1/conv_1x1_path3/Conv2D_weights","op":"Const","attr":{"dtype":{"type":"DT_FLOAT"},"value":{"tensor":{"dtype":"DT_FLOAT","tensorShape":{"dim":[{"size":"1"},{"size":"1"},{"size":"128"},{"size":"24"}]}}}}},
          {"name":"inception1/conv_1x1_path3/Conv2D_bn_offset","op":"Const","attr":{"dtype":{"type":"DT_FLOAT"},"value":{"tensor":{"dtype":"DT_FLOAT","tensorShape":{"dim":[{"size":"24"}]}}}}},
          {"name":"inception1/conv_1x1_path4/Conv2D_weights","op":"Const","attr":{"dtype":{"type":"DT_FLOAT"},"value":{"tensor":{"dtype":"DT_FLOAT","tensorShape":{"dim":[{"size":"1"},{"size":"1"},{"size":"128"},{"size":"24"}]}}}}},
          {"name":"inception1/conv_1x1_path4/Conv2D_bn_offset","op":"Const","attr":{"value":{"tensor":{"dtype":"DT_FLOAT","tensorShape":{"dim":[{"size":"24"}]}}},"dtype":{"type":"DT_FLOAT"}}},
          {"name":"inception1/conv_1x1_path2/Conv2D_weights","op":"Const","attr":{"value":{"tensor":{"dtype":"DT_FLOAT","tensorShape":{"dim":[{"size":"1"},{"size":"1"},{"size":"128"},{"size":"32"}]}}},"dtype":{"type":"DT_FLOAT"}}},
          {"name":"inception1/conv_1x1_path2/Conv2D_bn_offset","op":"Const","attr":{"value":{"tensor":{"dtype":"DT_FLOAT","tensorShape":{"dim":[{"size":"32"}]}}},"dtype":{"type":"DT_FLOAT"}}},
          {"name":"inception1/conv_3x3_path3/Conv2D_weights","op":"Const","attr":{"dtype":{"type":"DT_FLOAT"},"value":{"tensor":{"dtype":"DT_FLOAT","tensorShape":{"dim":[{"size":"3"},{"size":"3"},{"size":"24"},{"size":"32"}]}}}}},
          {"name":"inception1/conv_3x3_path3/Conv2D_bn_offset","op":"Const","attr":{"dtype":{"type":"DT_FLOAT"},"value":{"tensor":{"dtype":"DT_FLOAT","tensorShape":{"dim":[{"size":"32"}]}}}}},
          {"name":"inception1/conv_3x3_path4/Conv2D_weights","op":"Const","attr":{"dtype":{"type":"DT_FLOAT"},"value":{"tensor":{"dtype":"DT_FLOAT","tensorShape":{"dim":[{"size":"3"},{"size":"3"},{"size":"24"},{"size":"32"}]}}}}},
          {"name":"inception1/conv_3x3_path4/Conv2D_bn_offset","op":"Const","attr":{"value":{"tensor":{"dtype":"DT_FLOAT","tensorShape":{"dim":[{"size":"32"}]}}},"dtype":{"type":"DT_FLOAT"}}},
          {"name":"inception1/conv_3x3_second_path4/Conv2D_weights","op":"Const","attr":{"dtype":{"type":"DT_FLOAT"},"value":{"tensor":{"dtype":"DT_FLOAT","tensorShape":{"dim":[{"size":"3"},{"size":"3"},{"size":"32"},{"size":"32"}]}}}}},
          {"name":"inception1/conv_3x3_second_path4/Conv2D_bn_offset","op":"Const","attr":{"dtype":{"type":"DT_FLOAT"},"value":{"tensor":{"dtype":"DT_FLOAT","tensorShape":{"dim":[{"size":"32"}]}}}}},
          {"name":"inception2/conv_1x1_path1/Conv2D_weights","op":"Const","attr":{"dtype":{"type":"DT_FLOAT"},"value":{"tensor":{"dtype":"DT_FLOAT","tensorShape":{"dim":[{"size":"1"},{"size":"1"},{"size":"128"},{"size":"32"}]}}}}},
          {"name":"inception2/conv_1x1_path1/Conv2D_bn_offset","op":"Const","attr":{"dtype":{"type":"DT_FLOAT"},"value":{"tensor":{"dtype":"DT_FLOAT","tensorShape":{"dim":[{"size":"32"}]}}}}},
          {"name":"inception2/conv_1x1_path3/Conv2D_weights","op":"Const","attr":{"value":{"tensor":{"dtype":"DT_FLOAT","tensorShape":{"dim":[{"size":"1"},{"size":"1"},{"size":"128"},{"size":"24"}]}}},"dtype":{"type":"DT_FLOAT"}}},
          {"name":"inception2/conv_1x1_path3/Conv2D_bn_offset","op":"Const","attr":{"dtype":{"type":"DT_FLOAT"},"value":{"tensor":{"dtype":"DT_FLOAT","tensorShape":{"dim":[{"size":"24"}]}}}}},
          {"name":"inception2/conv_1x1_path4/Conv2D_weights","op":"Const","attr":{"value":{"tensor":{"dtype":"DT_FLOAT","tensorShape":{"dim":[{"size":"1"},{"size":"1"},{"size":"128"},{"size":"24"}]}}},"dtype":{"type":"DT_FLOAT"}}},
          {"name":"inception2/conv_1x1_path4/Conv2D_bn_offset","op":"Const","attr":{"dtype":{"type":"DT_FLOAT"},"value":{"tensor":{"dtype":"DT_FLOAT","tensorShape":{"dim":[{"size":"24"}]}}}}},
          {"name":"inception2/conv_1x1_path2/Conv2D_weights","op":"Const","attr":{"dtype":{"type":"DT_FLOAT"},"value":{"tensor":{"dtype":"DT_FLOAT","tensorShape":{"dim":[{"size":"1"},{"size":"1"},{"size":"128"},{"size":"32"}]}}}}},
          {"name":"inception2/conv_1x1_path2/Conv2D_bn_offset","op":"Const","attr":{"value":{"tensor":{"dtype":"DT_FLOAT","tensorShape":{"dim":[{"size":"32"}]}}},"dtype":{"type":"DT_FLOAT"}}},
          {"name":"inception2/conv_3x3_path3/Conv2D_weights","op":"Const","attr":{"dtype":{"type":"DT_FLOAT"},"value":{"tensor":{"dtype":"DT_FLOAT","tensorShape":{"dim":[{"size":"3"},{"size":"3"},{"size":"24"},{"size":"32"}]}}}}},
          {"name":"inception2/conv_3x3_path3/Conv2D_bn_offset","op":"Const","attr":{"dtype":{"type":"DT_FLOAT"},"value":{"tensor":{"dtype":"DT_FLOAT","tensorShape":{"dim":[{"size":"32"}]}}}}},
          {"name":"inception2/conv_3x3_path4/Conv2D_weights","op":"Const","attr":{"value":{"tensor":{"dtype":"DT_FLOAT","tensorShape":{"dim":[{"size":"3"},{"size":"3"},{"size":"24"},{"size":"32"}]}}},"dtype":{"type":"DT_FLOAT"}}},
          {"name":"inception2/conv_3x3_path4/Conv2D_bn_offset","op":"Const","attr":{"value":{"tensor":{"dtype":"DT_FLOAT","tensorShape":{"dim":[{"size":"32"}]}}},"dtype":{"type":"DT_FLOAT"}}},
          {"name":"inception2/conv_3x3_second_path4/Conv2D_weights","op":"Const","attr":{"dtype":{"type":"DT_FLOAT"},"value":{"tensor":{"dtype":"DT_FLOAT","tensorShape":{"dim":[{"size":"3"},{"size":"3"},{"size":"32"},{"size":"32"}]}}}}},
          {"name":"inception2/conv_3x3_second_path4/Conv2D_bn_offset","op":"Const","attr":{"dtype":{"type":"DT_FLOAT"},"value":{"tensor":{"dtype":"DT_FLOAT","tensorShape":{"dim":[{"size":"32"}]}}}}},
          {"name":"inception3/conv_1x1_path1/Conv2D_weights","op":"Const","attr":{"value":{"tensor":{"dtype":"DT_FLOAT","tensorShape":{"dim":[{"size":"1"},{"size":"1"},{"size":"128"},{"size":"32"}]}}},"dtype":{"type":"DT_FLOAT"}}},
          {"name":"inception3/conv_1x1_path1/Conv2D_bn_offset","op":"Const","attr":{"value":{"tensor":{"dtype":"DT_FLOAT","tensorShape":{"dim":[{"size":"32"}]}}},"dtype":{"type":"DT_FLOAT"}}},
          {"name":"inception3/conv_1x1_path3/Conv2D_weights","op":"Const","attr":{"dtype":{"type":"DT_FLOAT"},"value":{"tensor":{"dtype":"DT_FLOAT","tensorShape":{"dim":[{"size":"1"},{"size":"1"},{"size":"128"},{"size":"24"}]}}}}},
          {"name":"inception3/conv_1x1_path3/Conv2D_bn_offset","op":"Const","attr":{"dtype":{"type":"DT_FLOAT"},"value":{"tensor":{"dtype":"DT_FLOAT","tensorShape":{"dim":[{"size":"24"}]}}}}},
          {"name":"inception3/conv_1x1_path4/Conv2D_weights","op":"Const","attr":{"dtype":{"type":"DT_FLOAT"},"value":{"tensor":{"dtype":"DT_FLOAT","tensorShape":{"dim":[{"size":"1"},{"size":"1"},{"size":"128"},{"size":"24"}]}}}}},
          {"name":"inception3/conv_1x1_path4/Conv2D_bn_offset","op":"Const","attr":{"dtype":{"type":"DT_FLOAT"},"value":{"tensor":{"dtype":"DT_FLOAT","tensorShape":{"dim":[{"size":"24"}]}}}}},
          {"name":"inception3/conv_1x1_path2/Conv2D_weights","op":"Const","attr":{"dtype":{"type":"DT_FLOAT"},"value":{"tensor":{"dtype":"DT_FLOAT","tensorShape":{"dim":[{"size":"1"},{"size":"1"},{"size":"128"},{"size":"32"}]}}}}},
          {"name":"inception3/conv_1x1_path2/Conv2D_bn_offset","op":"Const","attr":{"dtype":{"type":"DT_FLOAT"},"value":{"tensor":{"dtype":"DT_FLOAT","tensorShape":{"dim":[{"size":"32"}]}}}}},
          {"name":"inception3/conv_3x3_path3/Conv2D_weights","op":"Const","attr":{"dtype":{"type":"DT_FLOAT"},"value":{"tensor":{"dtype":"DT_FLOAT","tensorShape":{"dim":[{"size":"3"},{"size":"3"},{"size":"24"},{"size":"32"}]}}}}},
          {"name":"inception3/conv_3x3_path3/Conv2D_bn_offset","op":"Const","attr":{"dtype":{"type":"DT_FLOAT"},"value":{"tensor":{"dtype":"DT_FLOAT","tensorShape":{"dim":[{"size":"32"}]}}}}},
          {"name":"inception3/conv_3x3_path4/Conv2D_weights","op":"Const","attr":{"value":{"tensor":{"dtype":"DT_FLOAT","tensorShape":{"dim":[{"size":"3"},{"size":"3"},{"size":"24"},{"size":"32"}]}}},"dtype":{"type":"DT_FLOAT"}}},
          {"name":"inception3/conv_3x3_path4/Conv2D_bn_offset","op":"Const","attr":{"dtype":{"type":"DT_FLOAT"},"value":{"tensor":{"dtype":"DT_FLOAT","tensorShape":{"dim":[{"size":"32"}]}}}}},
          {"name":"inception3/conv_3x3_second_path4/Conv2D_weights","op":"Const","attr":{"dtype":{"type":"DT_FLOAT"},"value":{"tensor":{"dtype":"DT_FLOAT","tensorShape":{"dim":[{"size":"3"},{"size":"3"},{"size":"32"},{"size":"32"}]}}}}},
          {"name":"inception3/conv_3x3_second_path4/Conv2D_bn_offset","op":"Const","attr":{"dtype":{"type":"DT_FLOAT"},"value":{"tensor":{"dtype":"DT_FLOAT","tensorShape":{"dim":[{"size":"32"}]}}}}},
          {"name":"conv3_1/Conv2D_weights","op":"Const","attr":{"value":{"tensor":{"dtype":"DT_FLOAT","tensorShape":{"dim":[{"size":"1"},{"size":"1"},{"size":"128"},{"size":"128"}]}}},"dtype":{"type":"DT_FLOAT"}}},
          {"name":"conv3_1/Conv2D_bn_offset","op":"Const","attr":{"dtype":{"type":"DT_FLOAT"},"value":{"tensor":{"dtype":"DT_FLOAT","tensorShape":{"dim":[{"size":"128"}]}}}}},
          {"name":"conv3_2/Conv2D_weights","op":"Const","attr":{"value":{"tensor":{"dtype":"DT_FLOAT","tensorShape":{"dim":[{"size":"3"},{"size":"3"},{"size":"128"},{"size":"256"}]}}},"dtype":{"type":"DT_FLOAT"}}},
          {"name":"conv3_2/Conv2D_bn_offset","op":"Const","attr":{"dtype":{"type":"DT_FLOAT"},"value":{"tensor":{"dtype":"DT_FLOAT","tensorShape":{"dim":[{"size":"256"}]}}}}},
          {"name":"conv4_1/Conv2D_weights","op":"Const","attr":{"value":{"tensor":{"dtype":"DT_FLOAT","tensorShape":{"dim":[{"size":"1"},{"size":"1"},{"size":"256"},{"size":"128"}]}}},"dtype":{"type":"DT_FLOAT"}}},
          {"name":"conv4_1/Conv2D_bn_offset","op":"Const","attr":{"value":{"tensor":{"dtype":"DT_FLOAT","tensorShape":{"dim":[{"size":"128"}]}}},"dtype":{"type":"DT_FLOAT"}}},
          {"name":"conv4_2/Conv2D_weights","op":"Const","attr":{"value":{"tensor":{"dtype":"DT_FLOAT","tensorShape":{"dim":[{"size":"3"},{"size":"3"},{"size":"128"},{"size":"256"}]}}},"dtype":{"type":"DT_FLOAT"}}},
          {"name":"conv4_2/Conv2D_bn_offset","op":"Const","attr":{"value":{"tensor":{"dtype":"DT_FLOAT","tensorShape":{"dim":[{"size":"256"}]}}},"dtype":{"type":"DT_FLOAT"}}},
          {"name":"nms/map/while/Enter_1","op":"Enter","input":["nms/map/Const"],"attr":{"parallel_iterations":{"i":"8"},"T":{"type":"DT_INT32"},"frame_name":{"s":"bm1zL21hcC93aGlsZS93aGlsZV9jb250ZXh0"},"is_constant":{"b":false}}},
          {"name":"nms/map/while/Enter","op":"Enter","input":["nms/map/while/iteration_counter"],"attr":{"parallel_iterations":{"i":"8"},"frame_name":{"s":"bm1zL21hcC93aGlsZS93aGlsZV9jb250ZXh0"},"is_constant":{"b":false},"T":{"type":"DT_INT32"}}},
          {"name":"ToFloat","op":"Cast","input":["image_tensor"],"attr":{"Truncate":{"b":false},"DstT":{"type":"DT_FLOAT"},"SrcT":{"type":"DT_UINT8"}}},
          {"name":"nms/map/while/Merge_1","op":"Merge","input":["nms/map/while/Enter_1","nms/map/while/NextIteration_1"],"attr":{"T":{"type":"DT_INT32"},"N":{"i":"2"}}},
          {"name":"nms/map/while/Merge","op":"Merge","input":["nms/map/while/Enter","nms/map/while/NextIteration"],"attr":{"T":{"type":"DT_INT32"},"N":{"i":"2"}}},
          {"name":"mul","op":"Mul","input":["ToFloat","mul/y"],"attr":{"T":{"type":"DT_FLOAT"}}},
          {"name":"image_padding/pad_to_bounding_box/Shape_1","op":"Shape","input":["mul"],"attr":{"out_type":{"type":"DT_INT32"},"T":{"type":"DT_FLOAT"}}},
          {"name":"Shape","op":"Shape","input":["mul"],"attr":{"out_type":{"type":"DT_INT32"},"T":{"type":"DT_FLOAT"}}},
          {"name":"Shape_1","op":"Shape","input":["mul"],"attr":{"out_type":{"type":"DT_INT32"},"T":{"type":"DT_FLOAT"}}},
          {"name":"image_padding/pad_to_bounding_box/unstack","op":"Unpack","input":["image_padding/pad_to_bounding_box/Shape_1"],"attr":{"axis":{"i":"0"},"T":{"type":"DT_INT32"},"num":{"i":"4"}}},
          {"name":"strided_slice","op":"StridedSlice","input":["Shape","strided_slice/stack","strided_slice/stack_1","strided_slice/stack_2"],"attr":{"end_mask":{"i":"0"},"T":{"type":"DT_INT32"},"Index":{"type":"DT_INT32"},"ellipsis_mask":{"i":"0"},"shrink_axis_mask":{"i":"1"},"new_axis_mask":{"i":"0"},"begin_mask":{"i":"0"}}},
          {"name":"strided_slice_1","op":"StridedSlice","input":["Shape_1","strided_slice_1/stack","strided_slice_1/stack_1","strided_slice_1/stack_2"],"attr":{"shrink_axis_mask":{"i":"1"},"T":{"type":"DT_INT32"},"end_mask":{"i":"0"},"ellipsis_mask":{"i":"0"},"begin_mask":{"i":"0"},"Index":{"type":"DT_INT32"},"new_axis_mask":{"i":"0"}}},
          {"name":"image_padding/truediv_2/Cast","op":"Cast","input":["strided_slice"],"attr":{"SrcT":{"type":"DT_INT32"},"DstT":{"type":"DT_DOUBLE"},"Truncate":{"b":false}}},
          {"name":"image_padding/truediv_4/Cast","op":"Cast","input":["strided_slice"],"attr":{"DstT":{"type":"DT_DOUBLE"},"Truncate":{"b":false},"SrcT":{"type":"DT_INT32"}}},
          {"name":"image_padding/truediv/Cast","op":"Cast","input":["strided_slice"],"attr":{"DstT":{"type":"DT_DOUBLE"},"Truncate":{"b":false},"SrcT":{"type":"DT_INT32"}}},
          {"name":"image_padding/truediv_3/Cast","op":"Cast","input":["strided_slice_1"],"attr":{"SrcT":{"type":"DT_INT32"},"Truncate":{"b":false},"DstT":{"type":"DT_DOUBLE"}}},
          {"name":"image_padding/truediv_5/Cast","op":"Cast","input":["strided_slice_1"],"attr":{"DstT":{"type":"DT_DOUBLE"},"Truncate":{"b":false},"SrcT":{"type":"DT_INT32"}}},
          {"name":"image_padding/truediv_1/Cast","op":"Cast","input":["strided_slice_1"],"attr":{"DstT":{"type":"DT_DOUBLE"},"SrcT":{"type":"DT_INT32"},"Truncate":{"b":false}}},
          {"name":"image_padding/truediv","op":"Mul","input":["image_padding/truediv/Cast","ConstantFolding/image_padding/truediv_recip"],"attr":{"T":{"type":"DT_DOUBLE"}}},
          {"name":"image_padding/truediv_1","op":"Mul","input":["image_padding/truediv_1/Cast","ConstantFolding/image_padding/truediv_1_recip"],"attr":{"T":{"type":"DT_DOUBLE"}}},
          {"name":"image_padding/Ceil","op":"Ceil","input":["image_padding/truediv"],"attr":{"T":{"type":"DT_DOUBLE"}}},
          {"name":"image_padding/Ceil_1","op":"Ceil","input":["image_padding/truediv_1"],"attr":{"T":{"type":"DT_DOUBLE"}}},
          {"name":"image_padding/ToInt32","op":"Cast","input":["image_padding/Ceil"],"attr":{"Truncate":{"b":false},"DstT":{"type":"DT_INT32"},"SrcT":{"type":"DT_DOUBLE"}}},
          {"name":"image_padding/ToInt32_1","op":"Cast","input":["image_padding/Ceil_1"],"attr":{"DstT":{"type":"DT_INT32"},"SrcT":{"type":"DT_DOUBLE"},"Truncate":{"b":false}}},
          {"name":"image_padding/mul","op":"Mul","input":["image_padding/mul/x","image_padding/ToInt32"],"attr":{"T":{"type":"DT_INT32"}}},
          {"name":"image_padding/mul_1","op":"Mul","input":["image_padding/mul_1/x","image_padding/ToInt32_1"],"attr":{"T":{"type":"DT_INT32"}}},
          {"name":"anchor_generator/ToFloat_4","op":"Cast","input":["image_padding/mul"],"attr":{"SrcT":{"type":"DT_INT32"},"DstT":{"type":"DT_FLOAT"},"Truncate":{"b":false}}},
          {"name":"anchor_generator/ToFloat_9","op":"Cast","input":["image_padding/mul"],"attr":{"DstT":{"type":"DT_FLOAT"},"Truncate":{"b":false},"SrcT":{"type":"DT_INT32"}}},
          {"name":"anchor_generator/ToFloat_14","op":"Cast","input":["image_padding/mul"],"attr":{"Truncate":{"b":false},"DstT":{"type":"DT_FLOAT"},"SrcT":{"type":"DT_INT32"}}},
          {"name":"anchor_generator/ToFloat_23","op":"Cast","input":["image_padding/mul"],"attr":{"Truncate":{"b":false},"DstT":{"type":"DT_FLOAT"},"SrcT":{"type":"DT_INT32"}}},
          {"name":"anchor_generator/ToFloat_32","op":"Cast","input":["image_padding/mul"],"attr":{"DstT":{"type":"DT_FLOAT"},"Truncate":{"b":false},"SrcT":{"type":"DT_INT32"}}},
          {"name":"image_padding/pad_to_bounding_box/sub_3","op":"Sub","input":["image_padding/mul","image_padding/pad_to_bounding_box/unstack:1"],"attr":{"T":{"type":"DT_INT32"}}},
          {"name":"image_padding/truediv_2/Cast_1","op":"Cast","input":["image_padding/mul"],"attr":{"Truncate":{"b":false},"DstT":{"type":"DT_DOUBLE"},"SrcT":{"type":"DT_INT32"}}},
          {"name":"image_padding/truediv_4/Cast_1","op":"Cast","input":["image_padding/mul"],"attr":{"SrcT":{"type":"DT_INT32"},"DstT":{"type":"DT_DOUBLE"},"Truncate":{"b":false}}},
          {"name":"anchor_generator/ToFloat_5","op":"Cast","input":["image_padding/mul_1"],"attr":{"Truncate":{"b":false},"DstT":{"type":"DT_FLOAT"},"SrcT":{"type":"DT_INT32"}}},
          {"name":"anchor_generator/ToFloat_10","op":"Cast","input":["image_padding/mul_1"],"attr":{"Truncate":{"b":false},"SrcT":{"type":"DT_INT32"},"DstT":{"type":"DT_FLOAT"}}},
          {"name":"anchor_generator/ToFloat_15","op":"Cast","input":["image_padding/mul_1"],"attr":{"DstT":{"type":"DT_FLOAT"},"Truncate":{"b":false},"SrcT":{"type":"DT_INT32"}}},
          {"name":"anchor_generator/ToFloat_24","op":"Cast","input":["image_padding/mul_1"],"attr":{"Truncate":{"b":false},"SrcT":{"type":"DT_INT32"},"DstT":{"type":"DT_FLOAT"}}},
          {"name":"anchor_generator/ToFloat_33","op":"Cast","input":["image_padding/mul_1"],"attr":{"DstT":{"type":"DT_FLOAT"},"Truncate":{"b":false},"SrcT":{"type":"DT_INT32"}}},
          {"name":"image_padding/pad_to_bounding_box/sub_1","op":"Sub","input":["image_padding/mul_1","image_padding/pad_to_bounding_box/unstack:2"],"attr":{"T":{"type":"DT_INT32"}}},
          {"name":"image_padding/truediv_3/Cast_1","op":"Cast","input":["image_padding/mul_1"],"attr":{"Truncate":{"b":false},"SrcT":{"type":"DT_INT32"},"DstT":{"type":"DT_DOUBLE"}}},
          {"name":"image_padding/truediv_5/Cast_1","op":"Cast","input":["image_padding/mul_1"],"attr":{"Truncate":{"b":false},"SrcT":{"type":"DT_INT32"},"DstT":{"type":"DT_DOUBLE"}}},
          {"name":"anchor_generator/truediv_5","op":"RealDiv","input":["anchor_generator/truediv_4","anchor_generator/ToFloat_4"],"attr":{"T":{"type":"DT_FLOAT"}}},
          {"name":"anchor_generator/truediv_10","op":"RealDiv","input":["anchor_generator/truediv_9","anchor_generator/ToFloat_9"],"attr":{"T":{"type":"DT_FLOAT"}}},
          {"name":"anchor_generator/truediv_15","op":"RealDiv","input":["anchor_generator/truediv_14","anchor_generator/ToFloat_14"],"attr":{"T":{"type":"DT_FLOAT"}}},
          {"name":"anchor_generator/truediv_24","op":"RealDiv","input":["anchor_generator/truediv_23","anchor_generator/ToFloat_23"],"attr":{"T":{"type":"DT_FLOAT"}}},
          {"name":"anchor_generator/truediv_33","op":"RealDiv","input":["anchor_generator/truediv_32","anchor_generator/ToFloat_32"],"attr":{"T":{"type":"DT_FLOAT"}}},
          {"name":"image_padding/truediv_2","op":"RealDiv","input":["image_padding/truediv_2/Cast","image_padding/truediv_2/Cast_1"],"attr":{"T":{"type":"DT_DOUBLE"}}},
          {"name":"image_padding/truediv_4","op":"RealDiv","input":["image_padding/truediv_4/Cast","image_padding/truediv_4/Cast_1"],"attr":{"T":{"type":"DT_DOUBLE"}}},
          {"name":"anchor_generator/truediv_6","op":"RealDiv","input":["anchor_generator/mul","anchor_generator/ToFloat_5"],"attr":{"T":{"type":"DT_FLOAT"}}},
          {"name":"anchor_generator/truediv_11","op":"RealDiv","input":["anchor_generator/mul_9","anchor_generator/ToFloat_10"],"attr":{"T":{"type":"DT_FLOAT"}}},
          {"name":"anchor_generator/truediv_16","op":"RealDiv","input":["anchor_generator/mul_18","anchor_generator/ToFloat_15"],"attr":{"T":{"type":"DT_FLOAT"}}},
          {"name":"anchor_generator/truediv_25","op":"RealDiv","input":["anchor_generator/mul_29","anchor_generator/ToFloat_24"],"attr":{"T":{"type":"DT_FLOAT"}}},
          {"name":"anchor_generator/truediv_34","op":"RealDiv","input":["anchor_generator/mul_40","anchor_generator/ToFloat_33"],"attr":{"T":{"type":"DT_FLOAT"}}},
          {"name":"image_padding/pad_to_bounding_box/stack","op":"Pack","input":["image_padding/pad_to_bounding_box/stack/0","image_padding/pad_to_bounding_box/stack/1","image_padding/pad_to_bounding_box/stack/2","image_padding/pad_to_bounding_box/sub_3","image_padding/pad_to_bounding_box/stack/4","image_padding/pad_to_bounding_box/sub_1","image_padding/pad_to_bounding_box/stack/6","image_padding/pad_to_bounding_box/stack/7"],"attr":{"T":{"type":"DT_INT32"},"N":{"i":"8"},"axis":{"i":"0"}}},
          {"name":"image_padding/truediv_3","op":"RealDiv","input":["image_padding/truediv_3/Cast","image_padding/truediv_3/Cast_1"],"attr":{"T":{"type":"DT_DOUBLE"}}},
          {"name":"image_padding/truediv_5","op":"RealDiv","input":["image_padding/truediv_5/Cast","image_padding/truediv_5/Cast_1"],"attr":{"T":{"type":"DT_DOUBLE"}}},
          {"name":"anchor_generator/mul_1","op":"Mul","input":["anchor_generator/mul_1/x","anchor_generator/truediv_5"],"attr":{"T":{"type":"DT_FLOAT"}}},
          {"name":"anchor_generator/truediv_7","op":"Mul","input":["anchor_generator/truediv_5","ConstantFolding/anchor_generator/truediv_7_recip"],"attr":{"T":{"type":"DT_FLOAT"}}},
          {"name":"anchor_generator/mul_10","op":"Mul","input":["anchor_generator/mul_10/x","anchor_generator/truediv_10"],"attr":{"T":{"type":"DT_FLOAT"}}},
          {"name":"anchor_generator/truediv_12","op":"Mul","input":["anchor_generator/truediv_10","ConstantFolding/anchor_generator/truediv_12_recip"],"attr":{"T":{"type":"DT_FLOAT"}}},
          {"name":"anchor_generator/mul_19","op":"Mul","input":["anchor_generator/mul_19/x","anchor_generator/truediv_15"],"attr":{"T":{"type":"DT_FLOAT"}}},
          {"name":"anchor_generator/mul_21","op":"Mul","input":["anchor_generator/mul_21/x","anchor_generator/truediv_15"],"attr":{"T":{"type":"DT_FLOAT"}}},
          {"name":"ConstantFolding/anchor_generator/add_11-broadcastto_shape-0","op":"Const","input":["^anchor_generator/truediv_15"],"attr":{"dtype":{"type":"DT_INT32"},"value":{"tensor":{"dtype":"DT_INT32","tensorShape":{"dim":[{"size":"1"}]}}}}},
          {"name":"anchor_generator/mul_30","op":"Mul","input":["anchor_generator/mul_30/x","anchor_generator/truediv_24"],"attr":{"T":{"type":"DT_FLOAT"}}},
          {"name":"anchor_generator/mul_32","op":"Mul","input":["anchor_generator/mul_32/x","anchor_generator/truediv_24"],"attr":{"T":{"type":"DT_FLOAT"}}},
          {"name":"ConstantFolding/anchor_generator/add_16-broadcastto_shape-0","op":"Const","input":["^anchor_generator/truediv_24"],"attr":{"value":{"tensor":{"dtype":"DT_INT32","tensorShape":{"dim":[{"size":"1"}]}}},"dtype":{"type":"DT_INT32"}}},
          {"name":"anchor_generator/mul_41","op":"Mul","input":["anchor_generator/mul_41/x","anchor_generator/truediv_33"],"attr":{"T":{"type":"DT_FLOAT"}}},
          {"name":"anchor_generator/mul_43","op":"Mul","input":["anchor_generator/mul_43/x","anchor_generator/truediv_33"],"attr":{"T":{"type":"DT_FLOAT"}}},
          {"name":"ConstantFolding/anchor_generator/add_21-broadcastto_shape-0","op":"Const","input":["^anchor_generator/truediv_33"],"attr":{"dtype":{"type":"DT_INT32"},"value":{"tensor":{"dtype":"DT_INT32","tensorShape":{"dim":[{"size":"1"}]}}}}},
          {"name":"anchor_generator/mul_2","op":"Mul","input":["anchor_generator/mul_2/x","anchor_generator/truediv_6"],"attr":{"T":{"type":"DT_FLOAT"}}},
          {"name":"anchor_generator/truediv_8","op":"Mul","input":["anchor_generator/truediv_6","ConstantFolding/anchor_generator/truediv_8_recip"],"attr":{"T":{"type":"DT_FLOAT"}}},
          {"name":"anchor_generator/stack_1","op":"Pack","input":["anchor_generator/truediv_5","anchor_generator/truediv_6"],"attr":{"N":{"i":"2"},"axis":{"i":"0"},"T":{"type":"DT_FLOAT"}}},
          {"name":"anchor_generator/mul_11","op":"Mul","input":["anchor_generator/mul_11/x","anchor_generator/truediv_11"],"attr":{"T":{"type":"DT_FLOAT"}}},
          {"name":"anchor_generator/truediv_13","op":"Mul","input":["anchor_generator/truediv_11","ConstantFolding/anchor_generator/truediv_13_recip"],"attr":{"T":{"type":"DT_FLOAT"}}},
          {"name":"anchor_generator/stack_5","op":"Pack","input":["anchor_generator/truediv_10","anchor_generator/truediv_11"],"attr":{"N":{"i":"2"},"T":{"type":"DT_FLOAT"},"axis":{"i":"0"}}},
          {"name":"anchor_generator/mul_20","op":"Mul","input":["anchor_generator/mul_20/x","anchor_generator/truediv_16"],"attr":{"T":{"type":"DT_FLOAT"}}},
          {"name":"anchor_generator/mul_23","op":"Mul","input":["anchor_generator/mul_23/x","anchor_generator/truediv_16"],"attr":{"T":{"type":"DT_FLOAT"}}},
          {"name":"anchor_generator/stack_9","op":"Pack","input":["anchor_generator/truediv_15","anchor_generator/truediv_16"],"attr":{"T":{"type":"DT_FLOAT"},"N":{"i":"2"},"axis":{"i":"0"}}},
          {"name":"ConstantFolding/anchor_generator/add_13-broadcastto_shape-0","op":"Const","input":["^anchor_generator/truediv_16"],"attr":{"dtype":{"type":"DT_INT32"},"value":{"tensor":{"dtype":"DT_INT32","tensorShape":{"dim":[{"size":"1"}]}}}}},
          {"name":"anchor_generator/mul_31","op":"Mul","input":["anchor_generator/mul_31/x","anchor_generator/truediv_25"],"attr":{"T":{"type":"DT_FLOAT"}}},
          {"name":"anchor_generator/mul_34","op":"Mul","input":["anchor_generator/mul_34/x","anchor_generator/truediv_25"],"attr":{"T":{"type":"DT_FLOAT"}}},
          {"name":"anchor_generator/stack_13","op":"Pack","input":["anchor_generator/truediv_24","anchor_generator/truediv_25"],"attr":{"T":{"type":"DT_FLOAT"},"N":{"i":"2"},"axis":{"i":"0"}}},
          {"name":"ConstantFolding/anchor_generator/add_18-broadcastto_shape-0","op":"Const","input":["^anchor_generator/truediv_25"],"attr":{"value":{"tensor":{"dtype":"DT_INT32","tensorShape":{"dim":[{"size":"1"}]}}},"dtype":{"type":"DT_INT32"}}},
          {"name":"anchor_generator/mul_42","op":"Mul","input":["anchor_generator/mul_42/x","anchor_generator/truediv_34"],"attr":{"T":{"type":"DT_FLOAT"}}},
          {"name":"anchor_generator/mul_45","op":"Mul","input":["anchor_generator/mul_45/x","anchor_generator/truediv_34"],"attr":{"T":{"type":"DT_FLOAT"}}},
          {"name":"anchor_generator/stack_17","op":"Pack","input":["anchor_generator/truediv_33","anchor_generator/truediv_34"],"attr":{"T":{"type":"DT_FLOAT"},"N":{"i":"2"},"axis":{"i":"0"}}},
          {"name":"ConstantFolding/anchor_generator/add_23-broadcastto_shape-0","op":"Const","input":["^anchor_generator/truediv_34"],"attr":{"value":{"tensor":{"dtype":"DT_INT32","tensorShape":{"dim":[{"size":"1"}]}}},"dtype":{"type":"DT_INT32"}}},
          {"name":"image_padding/pad_to_bounding_box/Reshape","op":"Reshape","input":["image_padding/pad_to_bounding_box/stack","image_padding/pad_to_bounding_box/Reshape/shape"],"attr":{"T":{"type":"DT_INT32"},"Tshape":{"type":"DT_INT32"}}},
          {"name":"image_padding/stack","op":"Pack","input":["image_padding/truediv_2","image_padding/truediv_3","image_padding/truediv_4","image_padding/truediv_5"],"attr":{"T":{"type":"DT_DOUBLE"},"N":{"i":"4"},"axis":{"i":"0"}}},
          {"name":"anchor_generator/mul_3","op":"Mul","input":["anchor_generator/mul_3/x","anchor_generator/truediv_7"],"attr":{"T":{"type":"DT_FLOAT"}}},
          {"name":"anchor_generator/mul_4","op":"Mul","input":["anchor_generator/truediv_7","anchor_generator/ToFloat_6"],"attr":{"T":{"type":"DT_FLOAT"}}},
          {"name":"anchor_generator/mul_12","op":"Mul","input":["anchor_generator/mul_12/x","anchor_generator/truediv_12"],"attr":{"T":{"type":"DT_FLOAT"}}},
          {"name":"anchor_generator/mul_13","op":"Mul","input":["anchor_generator/truediv_12","anchor_generator/ToFloat_11"],"attr":{"T":{"type":"DT_FLOAT"}}},
          {"name":"anchor_generator/mul_5","op":"Mul","input":["anchor_generator/mul_5/x","anchor_generator/truediv_8"],"attr":{"T":{"type":"DT_FLOAT"}}},
          {"name":"anchor_generator/mul_6","op":"Mul","input":["anchor_generator/truediv_8","anchor_generator/ToFloat_6"],"attr":{"T":{"type":"DT_FLOAT"}}},
          {"name":"anchor_generator/ExpandDims_2","op":"ExpandDims","input":["anchor_generator/stack_1","anchor_generator/ExpandDims_2/dim"],"attr":{"T":{"type":"DT_FLOAT"},"Tdim":{"type":"DT_INT32"}}},
          {"name":"anchor_generator/mul_14","op":"Mul","input":["anchor_generator/mul_14/x","anchor_generator/truediv_13"],"attr":{"T":{"type":"DT_FLOAT"}}},
          {"name":"anchor_generator/mul_15","op":"Mul","input":["anchor_generator/truediv_13","anchor_generator/ToFloat_11"],"attr":{"T":{"type":"DT_FLOAT"}}},
          {"name":"anchor_generator/ExpandDims_7","op":"ExpandDims","input":["anchor_generator/stack_5","anchor_generator/ExpandDims_7/dim"],"attr":{"T":{"type":"DT_FLOAT"},"Tdim":{"type":"DT_INT32"}}},
          {"name":"anchor_generator/ExpandDims_12","op":"ExpandDims","input":["anchor_generator/stack_9","anchor_generator/ExpandDims_12/dim"],"attr":{"Tdim":{"type":"DT_INT32"},"T":{"type":"DT_FLOAT"}}},
          {"name":"anchor_generator/ExpandDims_17","op":"ExpandDims","input":["anchor_generator/stack_13","anchor_generator/ExpandDims_17/dim"],"attr":{"T":{"type":"DT_FLOAT"},"Tdim":{"type":"DT_INT32"}}},
          {"name":"anchor_generator/ExpandDims_22","op":"ExpandDims","input":["anchor_generator/stack_17","anchor_generator/ExpandDims_22/dim"],"attr":{"T":{"type":"DT_FLOAT"},"Tdim":{"type":"DT_INT32"}}},
          {"name":"image_padding/pad_to_bounding_box/Pad","op":"Pad","input":["mul","image_padding/pad_to_bounding_box/Reshape"],"attr":{"Tpaddings":{"type":"DT_INT32"},"T":{"type":"DT_FLOAT"}}},
          {"name":"image_padding/ToFloat","op":"Cast","input":["image_padding/stack"],"attr":{"SrcT":{"type":"DT_DOUBLE"},"DstT":{"type":"DT_FLOAT"},"Truncate":{"b":false}}},
          {"name":"anchor_generator/ExpandDims_3","op":"ExpandDims","input":["anchor_generator/ExpandDims_2","anchor_generator/ExpandDims_3/dim"],"attr":{"T":{"type":"DT_FLOAT"},"Tdim":{"type":"DT_INT32"}}},
          {"name":"anchor_generator/ExpandDims_8","op":"ExpandDims","input":["anchor_generator/ExpandDims_7","anchor_generator/ExpandDims_8/dim"],"attr":{"T":{"type":"DT_FLOAT"},"Tdim":{"type":"DT_INT32"}}},
          {"name":"anchor_generator/ExpandDims_13","op":"ExpandDims","input":["anchor_generator/ExpandDims_12","anchor_generator/ExpandDims_13/dim"],"attr":{"Tdim":{"type":"DT_INT32"},"T":{"type":"DT_FLOAT"}}},
          {"name":"anchor_generator/ExpandDims_18","op":"ExpandDims","input":["anchor_generator/ExpandDims_17","anchor_generator/ExpandDims_18/dim"],"attr":{"T":{"type":"DT_FLOAT"},"Tdim":{"type":"DT_INT32"}}},
          {"name":"anchor_generator/ExpandDims_23","op":"ExpandDims","input":["anchor_generator/ExpandDims_22","anchor_generator/ExpandDims_23/dim"],"attr":{"Tdim":{"type":"DT_INT32"},"T":{"type":"DT_FLOAT"}}},
          {"name":"standardize_input/mul","op":"Mul","input":["standardize_input/mul/x","image_padding/pad_to_bounding_box/Pad"],"attr":{"T":{"type":"DT_FLOAT"}}},
          {"name":"anchor_generator/Tile_2","op":"Tile","input":["anchor_generator/ExpandDims_3","anchor_generator/Tile_2/multiples"],"attr":{"Tmultiples":{"type":"DT_INT32"},"T":{"type":"DT_FLOAT"}}},
          {"name":"anchor_generator/Tile_6","op":"Tile","input":["anchor_generator/ExpandDims_8","anchor_generator/Tile_6/multiples"],"attr":{"Tmultiples":{"type":"DT_INT32"},"T":{"type":"DT_FLOAT"}}},
          {"name":"standardize_input/sub","op":"Sub","input":["standardize_input/mul","standardize_input/sub/y"],"attr":{"T":{"type":"DT_FLOAT"}}},
          {"name":"conv1/batch_norm/FusedBatchNorm","op":"_FusedConv2D","input":["standardize_input/sub","conv1/Conv2D_weights","conv1/Conv2D_bn_offset"],"device":"/device:CPU:0","attr":{"dilations":{"list":{"i":["1","1","1","1"]}},"epsilon":{"f":0},"data_format":{"s":"TkhXQw=="},"num_args":{"i":"1"},"fused_ops":{"list":{"s":["Qmlhc0FkZA=="]}},"padding":{"s":"U0FNRQ=="},"use_cudnn_on_gpu":{"b":true},"strides":{"list":{"i":["1","4","4","1"]}},"explicit_paddings":{"list":{}},"T":{"type":"DT_FLOAT"}}},
          {"name":"conv1/CRelu/Neg","op":"Neg","input":["conv1/batch_norm/FusedBatchNorm"],"attr":{"T":{"type":"DT_FLOAT"}}},
          {"name":"conv1/CRelu","op":"ConcatV2","input":["conv1/batch_norm/FusedBatchNorm","conv1/CRelu/Neg","conv1/CRelu/axis"],"attr":{"T":{"type":"DT_FLOAT"},"N":{"i":"2"},"Tidx":{"type":"DT_INT32"}}},
          {"name":"pool1/MaxPool","op":"MaxPool","input":["conv1/CRelu"],"attr":{"strides":{"list":{"i":["1","2","2","1"]}},"T":{"type":"DT_FLOAT"},"ksize":{"list":{"i":["1","3","3","1"]}},"data_format":{"s":"TkhXQw=="},"explicit_paddings":{"list":{}},"padding":{"s":"U0FNRQ=="}}},
          {"name":"conv1/CRelu/Relu","op":"Relu","input":["pool1/MaxPool"],"attr":{"T":{"type":"DT_FLOAT"}}},
          {"name":"conv2/batch_norm/FusedBatchNorm","op":"_FusedConv2D","input":["conv1/CRelu/Relu","conv2/Conv2D_weights","conv2/Conv2D_bn_offset"],"device":"/device:CPU:0","attr":{"use_cudnn_on_gpu":{"b":true},"num_args":{"i":"1"},"fused_ops":{"list":{"s":["Qmlhc0FkZA=="]}},"padding":{"s":"U0FNRQ=="},"dilations":{"list":{"i":["1","1","1","1"]}},"epsilon":{"f":0},"T":{"type":"DT_FLOAT"},"data_format":{"s":"TkhXQw=="},"explicit_paddings":{"list":{}},"strides":{"list":{"i":["1","2","2","1"]}}}},
          {"name":"conv2/CRelu/Neg","op":"Neg","input":["conv2/batch_norm/FusedBatchNorm"],"attr":{"T":{"type":"DT_FLOAT"}}},
          {"name":"conv2/CRelu","op":"ConcatV2","input":["conv2/batch_norm/FusedBatchNorm","conv2/CRelu/Neg","conv2/CRelu/axis"],"attr":{"T":{"type":"DT_FLOAT"},"Tidx":{"type":"DT_INT32"},"N":{"i":"2"}}},
          {"name":"pool2/MaxPool","op":"MaxPool","input":["conv2/CRelu"],"attr":{"T":{"type":"DT_FLOAT"},"data_format":{"s":"TkhXQw=="},"ksize":{"list":{"i":["1","3","3","1"]}},"strides":{"list":{"i":["1","2","2","1"]}},"explicit_paddings":{"list":{}},"padding":{"s":"U0FNRQ=="}}},
          {"name":"conv2/CRelu/Relu","op":"Relu","input":["pool2/MaxPool"],"attr":{"T":{"type":"DT_FLOAT"}}},
          {"name":"inception1/pool_3x3_path2/MaxPool","op":"MaxPool","input":["conv2/CRelu/Relu"],"attr":{"data_format":{"s":"TkhXQw=="},"T":{"type":"DT_FLOAT"},"explicit_paddings":{"list":{}},"padding":{"s":"U0FNRQ=="},"strides":{"list":{"i":["1","1","1","1"]}},"ksize":{"list":{"i":["1","3","3","1"]}}}},
          {"name":"inception1/conv_1x1_path1/Relu","op":"_FusedConv2D","input":["conv2/CRelu/Relu","inception1/conv_1x1_path1/Conv2D_weights","inception1/conv_1x1_path1/Conv2D_bn_offset"],"device":"/device:CPU:0","attr":{"epsilon":{"f":0},"num_args":{"i":"1"},"padding":{"s":"U0FNRQ=="},"strides":{"list":{"i":["1","1","1","1"]}},"dilations":{"list":{"i":["1","1","1","1"]}},"use_cudnn_on_gpu":{"b":true},"T":{"type":"DT_FLOAT"},"fused_ops":{"list":{"s":["Qmlhc0FkZA==","UmVsdQ=="]}},"data_format":{"s":"TkhXQw=="},"explicit_paddings":{"list":{}}}},
          {"name":"inception1/conv_1x1_path3/Relu","op":"_FusedConv2D","input":["conv2/CRelu/Relu","inception1/conv_1x1_path3/Conv2D_weights","inception1/conv_1x1_path3/Conv2D_bn_offset"],"device":"/device:CPU:0","attr":{"explicit_paddings":{"list":{}},"dilations":{"list":{"i":["1","1","1","1"]}},"fused_ops":{"list":{"s":["Qmlhc0FkZA==","UmVsdQ=="]}},"epsilon":{"f":0},"use_cudnn_on_gpu":{"b":true},"padding":{"s":"U0FNRQ=="},"strides":{"list":{"i":["1","1","1","1"]}},"T":{"type":"DT_FLOAT"},"data_format":{"s":"TkhXQw=="},"num_args":{"i":"1"}}},
          {"name":"inception1/conv_1x1_path4/Relu","op":"_FusedConv2D","input":["conv2/CRelu/Relu","inception1/conv_1x1_path4/Conv2D_weights","inception1/conv_1x1_path4/Conv2D_bn_offset"],"device":"/device:CPU:0","attr":{"fused_ops":{"list":{"s":["Qmlhc0FkZA==","UmVsdQ=="]}},"use_cudnn_on_gpu":{"b":true},"data_format":{"s":"TkhXQw=="},"dilations":{"list":{"i":["1","1","1","1"]}},"num_args":{"i":"1"},"strides":{"list":{"i":["1","1","1","1"]}},"explicit_paddings":{"list":{}},"padding":{"s":"U0FNRQ=="},"epsilon":{"f":0},"T":{"type":"DT_FLOAT"}}},
          {"name":"inception1/conv_1x1_path2/Relu","op":"_FusedConv2D","input":["inception1/pool_3x3_path2/MaxPool","inception1/conv_1x1_path2/Conv2D_weights","inception1/conv_1x1_path2/Conv2D_bn_offset"],"device":"/device:CPU:0","attr":{"data_format":{"s":"TkhXQw=="},"dilations":{"list":{"i":["1","1","1","1"]}},"epsilon":{"f":0},"T":{"type":"DT_FLOAT"},"num_args":{"i":"1"},"padding":{"s":"U0FNRQ=="},"explicit_paddings":{"list":{}},"use_cudnn_on_gpu":{"b":true},"strides":{"list":{"i":["1","1","1","1"]}},"fused_ops":{"list":{"s":["Qmlhc0FkZA==","UmVsdQ=="]}}}},
          {"name":"inception1/conv_3x3_path3/Relu","op":"_FusedConv2D","input":["inception1/conv_1x1_path3/Relu","inception1/conv_3x3_path3/Conv2D_weights","inception1/conv_3x3_path3/Conv2D_bn_offset"],"device":"/device:CPU:0","attr":{"data_format":{"s":"TkhXQw=="},"dilations":{"list":{"i":["1","1","1","1"]}},"num_args":{"i":"1"},"padding":{"s":"U0FNRQ=="},"fused_ops":{"list":{"s":["Qmlhc0FkZA==","UmVsdQ=="]}},"epsilon":{"f":0},"use_cudnn_on_gpu":{"b":true},"T":{"type":"DT_FLOAT"},"explicit_paddings":{"list":{}},"strides":{"list":{"i":["1","1","1","1"]}}}},
          {"name":"inception1/conv_3x3_path4/Relu","op":"_FusedConv2D","input":["inception1/conv_1x1_path4/Relu","inception1/conv_3x3_path4/Conv2D_weights","inception1/conv_3x3_path4/Conv2D_bn_offset"],"device":"/device:CPU:0","attr":{"strides":{"list":{"i":["1","1","1","1"]}},"dilations":{"list":{"i":["1","1","1","1"]}},"epsilon":{"f":0},"fused_ops":{"list":{"s":["Qmlhc0FkZA==","UmVsdQ=="]}},"explicit_paddings":{"list":{}},"use_cudnn_on_gpu":{"b":true},"data_format":{"s":"TkhXQw=="},"padding":{"s":"U0FNRQ=="},"T":{"type":"DT_FLOAT"},"num_args":{"i":"1"}}},
          {"name":"inception1/conv_3x3_second_path4/Relu","op":"_FusedConv2D","input":["inception1/conv_3x3_path4/Relu","inception1/conv_3x3_second_path4/Conv2D_weights","inception1/conv_3x3_second_path4/Conv2D_bn_offset"],"device":"/device:CPU:0","attr":{"T":{"type":"DT_FLOAT"},"data_format":{"s":"TkhXQw=="},"num_args":{"i":"1"},"epsilon":{"f":0},"strides":{"list":{"i":["1","1","1","1"]}},"explicit_paddings":{"list":{}},"padding":{"s":"U0FNRQ=="},"dilations":{"list":{"i":["1","1","1","1"]}},"use_cudnn_on_gpu":{"b":true},"fused_ops":{"list":{"s":["Qmlhc0FkZA==","UmVsdQ=="]}}}},
          {"name":"inception1/concat","op":"ConcatV2","input":["inception1/conv_1x1_path1/Relu","inception1/conv_1x1_path2/Relu","inception1/conv_3x3_path3/Relu","inception1/conv_3x3_second_path4/Relu","inception1/concat/axis"],"attr":{"N":{"i":"4"},"Tidx":{"type":"DT_INT32"},"T":{"type":"DT_FLOAT"}}},
          {"name":"inception2/pool_3x3_path2/MaxPool","op":"MaxPool","input":["inception1/concat"],"attr":{"data_format":{"s":"TkhXQw=="},"explicit_paddings":{"list":{}},"T":{"type":"DT_FLOAT"},"strides":{"list":{"i":["1","1","1","1"]}},"padding":{"s":"U0FNRQ=="},"ksize":{"list":{"i":["1","3","3","1"]}}}},
          {"name":"inception2/conv_1x1_path1/Relu","op":"_FusedConv2D","input":["inception1/concat","inception2/conv_1x1_path1/Conv2D_weights","inception2/conv_1x1_path1/Conv2D_bn_offset"],"device":"/device:CPU:0","attr":{"num_args":{"i":"1"},"dilations":{"list":{"i":["1","1","1","1"]}},"data_format":{"s":"TkhXQw=="},"padding":{"s":"U0FNRQ=="},"epsilon":{"f":0},"T":{"type":"DT_FLOAT"},"fused_ops":{"list":{"s":["Qmlhc0FkZA==","UmVsdQ=="]}},"strides":{"list":{"i":["1","1","1","1"]}},"use_cudnn_on_gpu":{"b":true},"explicit_paddings":{"list":{}}}},
          {"name":"inception2/conv_1x1_path3/Relu","op":"_FusedConv2D","input":["inception1/concat","inception2/conv_1x1_path3/Conv2D_weights","inception2/conv_1x1_path3/Conv2D_bn_offset"],"device":"/device:CPU:0","attr":{"T":{"type":"DT_FLOAT"},"explicit_paddings":{"list":{}},"use_cudnn_on_gpu":{"b":true},"epsilon":{"f":0},"data_format":{"s":"TkhXQw=="},"num_args":{"i":"1"},"padding":{"s":"U0FNRQ=="},"strides":{"list":{"i":["1","1","1","1"]}},"dilations":{"list":{"i":["1","1","1","1"]}},"fused_ops":{"list":{"s":["Qmlhc0FkZA==","UmVsdQ=="]}}}},
          {"name":"inception2/conv_1x1_path4/Relu","op":"_FusedConv2D","input":["inception1/concat","inception2/conv_1x1_path4/Conv2D_weights","inception2/conv_1x1_path4/Conv2D_bn_offset"],"device":"/device:CPU:0","attr":{"dilations":{"list":{"i":["1","1","1","1"]}},"epsilon":{"f":0},"data_format":{"s":"TkhXQw=="},"use_cudnn_on_gpu":{"b":true},"padding":{"s":"U0FNRQ=="},"fused_ops":{"list":{"s":["Qmlhc0FkZA==","UmVsdQ=="]}},"num_args":{"i":"1"},"explicit_paddings":{"list":{}},"T":{"type":"DT_FLOAT"},"strides":{"list":{"i":["1","1","1","1"]}}}},
          {"name":"inception2/conv_1x1_path2/Relu","op":"_FusedConv2D","input":["inception2/pool_3x3_path2/MaxPool","inception2/conv_1x1_path2/Conv2D_weights","inception2/conv_1x1_path2/Conv2D_bn_offset"],"device":"/device:CPU:0","attr":{"data_format":{"s":"TkhXQw=="},"strides":{"list":{"i":["1","1","1","1"]}},"dilations":{"list":{"i":["1","1","1","1"]}},"fused_ops":{"list":{"s":["Qmlhc0FkZA==","UmVsdQ=="]}},"padding":{"s":"U0FNRQ=="},"num_args":{"i":"1"},"use_cudnn_on_gpu":{"b":true},"T":{"type":"DT_FLOAT"},"epsilon":{"f":0},"explicit_paddings":{"list":{}}}},
          {"name":"inception2/conv_3x3_path3/Relu","op":"_FusedConv2D","input":["inception2/conv_1x1_path3/Relu","inception2/conv_3x3_path3/Conv2D_weights","inception2/conv_3x3_path3/Conv2D_bn_offset"],"device":"/device:CPU:0","attr":{"data_format":{"s":"TkhXQw=="},"padding":{"s":"U0FNRQ=="},"dilations":{"list":{"i":["1","1","1","1"]}},"num_args":{"i":"1"},"epsilon":{"f":0},"fused_ops":{"list":{"s":["Qmlhc0FkZA==","UmVsdQ=="]}},"explicit_paddings":{"list":{}},"T":{"type":"DT_FLOAT"},"use_cudnn_on_gpu":{"b":true},"strides":{"list":{"i":["1","1","1","1"]}}}},
          {"name":"inception2/conv_3x3_path4/Relu","op":"_FusedConv2D","input":["inception2/conv_1x1_path4/Relu","inception2/conv_3x3_path4/Conv2D_weights","inception2/conv_3x3_path4/Conv2D_bn_offset"],"device":"/device:CPU:0","attr":{"dilations":{"list":{"i":["1","1","1","1"]}},"strides":{"list":{"i":["1","1","1","1"]}},"padding":{"s":"U0FNRQ=="},"epsilon":{"f":0},"T":{"type":"DT_FLOAT"},"num_args":{"i":"1"},"explicit_paddings":{"list":{}},"fused_ops":{"list":{"s":["Qmlhc0FkZA==","UmVsdQ=="]}},"data_format":{"s":"TkhXQw=="},"use_cudnn_on_gpu":{"b":true}}},
          {"name":"inception2/conv_3x3_second_path4/Relu","op":"_FusedConv2D","input":["inception2/conv_3x3_path4/Relu","inception2/conv_3x3_second_path4/Conv2D_weights","inception2/conv_3x3_second_path4/Conv2D_bn_offset"],"device":"/device:CPU:0","attr":{"explicit_paddings":{"list":{}},"epsilon":{"f":0},"data_format":{"s":"TkhXQw=="},"use_cudnn_on_gpu":{"b":true},"fused_ops":{"list":{"s":["Qmlhc0FkZA==","UmVsdQ=="]}},"num_args":{"i":"1"},"strides":{"list":{"i":["1","1","1","1"]}},"T":{"type":"DT_FLOAT"},"dilations":{"list":{"i":["1","1","1","1"]}},"padding":{"s":"U0FNRQ=="}}},
          {"name":"inception2/concat","op":"ConcatV2","input":["inception2/conv_1x1_path1/Relu","inception2/conv_1x1_path2/Relu","inception2/conv_3x3_path3/Relu","inception2/conv_3x3_second_path4/Relu","inception2/concat/axis"],"attr":{"T":{"type":"DT_FLOAT"},"Tidx":{"type":"DT_INT32"},"N":{"i":"4"}}},
          {"name":"inception3/pool_3x3_path2/MaxPool","op":"MaxPool","input":["inception2/concat"],"attr":{"T":{"type":"DT_FLOAT"},"padding":{"s":"U0FNRQ=="},"data_format":{"s":"TkhXQw=="},"explicit_paddings":{"list":{}},"ksize":{"list":{"i":["1","3","3","1"]}},"strides":{"list":{"i":["1","1","1","1"]}}}},
          {"name":"inception3/conv_1x1_path1/Relu","op":"_FusedConv2D","input":["inception2/concat","inception3/conv_1x1_path1/Conv2D_weights","inception3/conv_1x1_path1/Conv2D_bn_offset"],"device":"/device:CPU:0","attr":{"epsilon":{"f":0},"dilations":{"list":{"i":["1","1","1","1"]}},"explicit_paddings":{"list":{}},"T":{"type":"DT_FLOAT"},"strides":{"list":{"i":["1","1","1","1"]}},"padding":{"s":"U0FNRQ=="},"fused_ops":{"list":{"s":["Qmlhc0FkZA==","UmVsdQ=="]}},"data_format":{"s":"TkhXQw=="},"num_args":{"i":"1"},"use_cudnn_on_gpu":{"b":true}}},
          {"name":"inception3/conv_1x1_path3/Relu","op":"_FusedConv2D","input":["inception2/concat","inception3/conv_1x1_path3/Conv2D_weights","inception3/conv_1x1_path3/Conv2D_bn_offset"],"device":"/device:CPU:0","attr":{"strides":{"list":{"i":["1","1","1","1"]}},"use_cudnn_on_gpu":{"b":true},"dilations":{"list":{"i":["1","1","1","1"]}},"num_args":{"i":"1"},"explicit_paddings":{"list":{}},"data_format":{"s":"TkhXQw=="},"T":{"type":"DT_FLOAT"},"epsilon":{"f":0},"padding":{"s":"U0FNRQ=="},"fused_ops":{"list":{"s":["Qmlhc0FkZA==","UmVsdQ=="]}}}},
          {"name":"inception3/conv_1x1_path4/Relu","op":"_FusedConv2D","input":["inception2/concat","inception3/conv_1x1_path4/Conv2D_weights","inception3/conv_1x1_path4/Conv2D_bn_offset"],"device":"/device:CPU:0","attr":{"strides":{"list":{"i":["1","1","1","1"]}},"padding":{"s":"U0FNRQ=="},"explicit_paddings":{"list":{}},"data_format":{"s":"TkhXQw=="},"dilations":{"list":{"i":["1","1","1","1"]}},"T":{"type":"DT_FLOAT"},"epsilon":{"f":0},"num_args":{"i":"1"},"fused_ops":{"list":{"s":["Qmlhc0FkZA==","UmVsdQ=="]}},"use_cudnn_on_gpu":{"b":true}}},
          {"name":"inception3/conv_1x1_path2/Relu","op":"_FusedConv2D","input":["inception3/pool_3x3_path2/MaxPool","inception3/conv_1x1_path2/Conv2D_weights","inception3/conv_1x1_path2/Conv2D_bn_offset"],"device":"/device:CPU:0","attr":{"padding":{"s":"U0FNRQ=="},"strides":{"list":{"i":["1","1","1","1"]}},"fused_ops":{"list":{"s":["Qmlhc0FkZA==","UmVsdQ=="]}},"epsilon":{"f":0},"explicit_paddings":{"list":{}},"use_cudnn_on_gpu":{"b":true},"num_args":{"i":"1"},"dilations":{"list":{"i":["1","1","1","1"]}},"T":{"type":"DT_FLOAT"},"data_format":{"s":"TkhXQw=="}}},
          {"name":"inception3/conv_3x3_path3/Relu","op":"_FusedConv2D","input":["inception3/conv_1x1_path3/Relu","inception3/conv_3x3_path3/Conv2D_weights","inception3/conv_3x3_path3/Conv2D_bn_offset"],"device":"/device:CPU:0","attr":{"T":{"type":"DT_FLOAT"},"explicit_paddings":{"list":{}},"data_format":{"s":"TkhXQw=="},"dilations":{"list":{"i":["1","1","1","1"]}},"padding":{"s":"U0FNRQ=="},"epsilon":{"f":0},"strides":{"list":{"i":["1","1","1","1"]}},"use_cudnn_on_gpu":{"b":true},"fused_ops":{"list":{"s":["Qmlhc0FkZA==","UmVsdQ=="]}},"num_args":{"i":"1"}}},
          {"name":"inception3/conv_3x3_path4/Relu","op":"_FusedConv2D","input":["inception3/conv_1x1_path4/Relu","inception3/conv_3x3_path4/Conv2D_weights","inception3/conv_3x3_path4/Conv2D_bn_offset"],"device":"/device:CPU:0","attr":{"padding":{"s":"U0FNRQ=="},"use_cudnn_on_gpu":{"b":true},"dilations":{"list":{"i":["1","1","1","1"]}},"epsilon":{"f":0},"T":{"type":"DT_FLOAT"},"data_format":{"s":"TkhXQw=="},"strides":{"list":{"i":["1","1","1","1"]}},"fused_ops":{"list":{"s":["Qmlhc0FkZA==","UmVsdQ=="]}},"num_args":{"i":"1"},"explicit_paddings":{"list":{}}}},
          {"name":"inception3/conv_3x3_second_path4/Relu","op":"_FusedConv2D","input":["inception3/conv_3x3_path4/Relu","inception3/conv_3x3_second_path4/Conv2D_weights","inception3/conv_3x3_second_path4/Conv2D_bn_offset"],"device":"/device:CPU:0","attr":{"dilations":{"list":{"i":["1","1","1","1"]}},"use_cudnn_on_gpu":{"b":true},"explicit_paddings":{"list":{}},"strides":{"list":{"i":["1","1","1","1"]}},"num_args":{"i":"1"},"padding":{"s":"U0FNRQ=="},"data_format":{"s":"TkhXQw=="},"epsilon":{"f":0},"T":{"type":"DT_FLOAT"},"fused_ops":{"list":{"s":["Qmlhc0FkZA==","UmVsdQ=="]}}}},
          {"name":"inception3/concat","op":"ConcatV2","input":["inception3/conv_1x1_path1/Relu","inception3/conv_1x1_path2/Relu","inception3/conv_3x3_path3/Relu","inception3/conv_3x3_second_path4/Relu","inception3/concat/axis"],"attr":{"N":{"i":"4"},"Tidx":{"type":"DT_INT32"},"T":{"type":"DT_FLOAT"}}},
          {"name":"prediction_layers/class_predictor_0/BiasAdd","op":"_FusedConv2D","input":["inception3/concat","prediction_layers/class_predictor_0/weights","prediction_layers/class_predictor_0/biases"],"device":"/device:CPU:0","attr":{"padding":{"s":"U0FNRQ=="},"strides":{"list":{"i":["1","1","1","1"]}},"dilations":{"list":{"i":["1","1","1","1"]}},"T":{"type":"DT_FLOAT"},"epsilon":{"f":0},"explicit_paddings":{"list":{}},"fused_ops":{"list":{"s":["Qmlhc0FkZA=="]}},"use_cudnn_on_gpu":{"b":true},"num_args":{"i":"1"},"data_format":{"s":"TkhXQw=="}}},
          {"name":"Shape_2","op":"Shape","input":["inception3/concat"],"attr":{"T":{"type":"DT_FLOAT"},"out_type":{"type":"DT_INT32"}}},
          {"name":"Shape_3","op":"Shape","input":["inception3/concat"],"attr":{"T":{"type":"DT_FLOAT"},"out_type":{"type":"DT_INT32"}}},
          {"name":"prediction_layers/box_encoding_predictor_0/BiasAdd","op":"_FusedConv2D","input":["inception3/concat","prediction_layers/box_encoding_predictor_0/weights","prediction_layers/box_encoding_predictor_0/biases"],"device":"/device:CPU:0","attr":{"num_args":{"i":"1"},"explicit_paddings":{"list":{}},"dilations":{"list":{"i":["1","1","1","1"]}},"strides":{"list":{"i":["1","1","1","1"]}},"fused_ops":{"list":{"s":["Qmlhc0FkZA=="]}},"padding":{"s":"U0FNRQ=="},"data_format":{"s":"TkhXQw=="},"use_cudnn_on_gpu":{"b":true},"epsilon":{"f":0},"T":{"type":"DT_FLOAT"}}},
          {"name":"reshaping/Shape","op":"Shape","input":["inception3/concat"],"attr":{"out_type":{"type":"DT_INT32"},"T":{"type":"DT_FLOAT"}}},
          {"name":"reshaping/Shape_1","op":"Shape","input":["inception3/concat"],"attr":{"out_type":{"type":"DT_INT32"},"T":{"type":"DT_FLOAT"}}},
          {"name":"reshaping/Shape_2","op":"Shape","input":["inception3/concat"],"attr":{"T":{"type":"DT_FLOAT"},"out_type":{"type":"DT_INT32"}}},
          {"name":"conv3_1/Relu","op":"_FusedConv2D","input":["inception3/concat","conv3_1/Conv2D_weights","conv3_1/Conv2D_bn_offset"],"device":"/device:CPU:0","attr":{"dilations":{"list":{"i":["1","1","1","1"]}},"use_cudnn_on_gpu":{"b":true},"T":{"type":"DT_FLOAT"},"strides":{"list":{"i":["1","1","1","1"]}},"data_format":{"s":"TkhXQw=="},"explicit_paddings":{"list":{}},"fused_ops":{"list":{"s":["Qmlhc0FkZA==","UmVsdQ=="]}},"num_args":{"i":"1"},"padding":{"s":"U0FNRQ=="},"epsilon":{"f":0}}},
          {"name":"strided_slice_2","op":"StridedSlice","input":["Shape_2","strided_slice_2/stack","strided_slice_2/stack_1","strided_slice_2/stack_2"],"attr":{"ellipsis_mask":{"i":"0"},"shrink_axis_mask":{"i":"1"},"Index":{"type":"DT_INT32"},"begin_mask":{"i":"0"},"T":{"type":"DT_INT32"},"end_mask":{"i":"0"},"new_axis_mask":{"i":"0"}}},
          {"name":"strided_slice_3","op":"StridedSlice","input":["Shape_3","strided_slice_3/stack","strided_slice_3/stack_1","strided_slice_3/stack_2"],"attr":{"end_mask":{"i":"0"},"shrink_axis_mask":{"i":"1"},"Index":{"type":"DT_INT32"},"ellipsis_mask":{"i":"0"},"T":{"type":"DT_INT32"},"begin_mask":{"i":"0"},"new_axis_mask":{"i":"0"}}},
          {"name":"reshaping/strided_slice","op":"StridedSlice","input":["reshaping/Shape","reshaping/strided_slice/stack","reshaping/strided_slice/stack_1","reshaping/strided_slice/stack_2"],"attr":{"Index":{"type":"DT_INT32"},"begin_mask":{"i":"0"},"shrink_axis_mask":{"i":"1"},"T":{"type":"DT_INT32"},"new_axis_mask":{"i":"0"},"end_mask":{"i":"0"},"ellipsis_mask":{"i":"0"}}},
          {"name":"reshaping/strided_slice_1","op":"StridedSlice","input":["reshaping/Shape_1","reshaping/strided_slice_1/stack","reshaping/strided_slice_1/stack_1","reshaping/strided_slice_1/stack_2"],"attr":{"end_mask":{"i":"0"},"T":{"type":"DT_INT32"},"new_axis_mask":{"i":"0"},"begin_mask":{"i":"0"},"ellipsis_mask":{"i":"0"},"Index":{"type":"DT_INT32"},"shrink_axis_mask":{"i":"1"}}},
          {"name":"reshaping/strided_slice_2","op":"StridedSlice","input":["reshaping/Shape_2","reshaping/strided_slice_2/stack","reshaping/strided_slice_2/stack_1","reshaping/strided_slice_2/stack_2"],"attr":{"new_axis_mask":{"i":"0"},"end_mask":{"i":"0"},"ellipsis_mask":{"i":"0"},"Index":{"type":"DT_INT32"},"shrink_axis_mask":{"i":"1"},"begin_mask":{"i":"0"},"T":{"type":"DT_INT32"}}},
          {"name":"conv3_2/Relu","op":"_FusedConv2D","input":["conv3_1/Relu","conv3_2/Conv2D_weights","conv3_2/Conv2D_bn_offset"],"device":"/device:CPU:0","attr":{"epsilon":{"f":0},"fused_ops":{"list":{"s":["Qmlhc0FkZA==","UmVsdQ=="]}},"padding":{"s":"U0FNRQ=="},"dilations":{"list":{"i":["1","1","1","1"]}},"num_args":{"i":"1"},"use_cudnn_on_gpu":{"b":true},"T":{"type":"DT_FLOAT"},"data_format":{"s":"TkhXQw=="},"explicit_paddings":{"list":{}},"strides":{"list":{"i":["1","2","2","1"]}}}},
          {"name":"anchor_generator/range_1","op":"Range","input":["anchor_generator/range_1/start","strided_slice_2","anchor_generator/range_1/delta"],"attr":{"Tidx":{"type":"DT_INT32"}}},
          {"name":"anchor_generator/range_4","op":"Range","input":["anchor_generator/range_4/start","strided_slice_2","anchor_generator/range_4/delta"],"attr":{"Tidx":{"type":"DT_INT32"}}},
          {"name":"anchor_generator/ToFloat_2","op":"Cast","input":["strided_slice_2"],"attr":{"SrcT":{"type":"DT_INT32"},"DstT":{"type":"DT_FLOAT"},"Truncate":{"b":false}}},
          {"name":"anchor_generator/range_7","op":"Range","input":["anchor_generator/range_7/start","strided_slice_2","anchor_generator/range_7/delta"],"attr":{"Tidx":{"type":"DT_INT32"}}},
          {"name":"anchor_generator/ToFloat","op":"Cast","input":["strided_slice_2"],"attr":{"Truncate":{"b":false},"SrcT":{"type":"DT_INT32"},"DstT":{"type":"DT_FLOAT"}}},
          {"name":"anchor_generator/range_2","op":"Range","input":["anchor_generator/range_2/start","strided_slice_3","anchor_generator/range_2/delta"],"attr":{"Tidx":{"type":"DT_INT32"}}},
          {"name":"anchor_generator/range_5","op":"Range","input":["anchor_generator/range_5/start","strided_slice_3","anchor_generator/range_5/delta"],"attr":{"Tidx":{"type":"DT_INT32"}}},
          {"name":"anchor_generator/ToFloat_3","op":"Cast","input":["strided_slice_3"],"attr":{"SrcT":{"type":"DT_INT32"},"Truncate":{"b":false},"DstT":{"type":"DT_FLOAT"}}},
          {"name":"anchor_generator/range_8","op":"Range","input":["anchor_generator/range_8/start","strided_slice_3","anchor_generator/range_8/delta"],"attr":{"Tidx":{"type":"DT_INT32"}}},
          {"name":"anchor_generator/ToFloat_1","op":"Cast","input":["strided_slice_3"],"attr":{"Truncate":{"b":false},"SrcT":{"type":"DT_INT32"},"DstT":{"type":"DT_FLOAT"}}},
          {"name":"reshaping/mul","op":"Mul","input":["reshaping/mul_1/y","reshaping/strided_slice_2"],"attr":{"_grappler_ArithmeticOptimizer_MinimizeBroadcasts":{"b":true},"T":{"type":"DT_INT32"}}},
          {"name":"prediction_layers/class_predictor_1/BiasAdd","op":"_FusedConv2D","input":["conv3_2/Relu","prediction_layers/class_predictor_1/weights","prediction_layers/class_predictor_1/biases"],"device":"/device:CPU:0","attr":{"strides":{"list":{"i":["1","1","1","1"]}},"padding":{"s":"U0FNRQ=="},"use_cudnn_on_gpu":{"b":true},"data_format":{"s":"TkhXQw=="},"num_args":{"i":"1"},"epsilon":{"f":0},"T":{"type":"DT_FLOAT"},"explicit_paddings":{"list":{}},"dilations":{"list":{"i":["1","1","1","1"]}},"fused_ops":{"list":{"s":["Qmlhc0FkZA=="]}}}},
          {"name":"Shape_4","op":"Shape","input":["conv3_2/Relu"],"attr":{"out_type":{"type":"DT_INT32"},"T":{"type":"DT_FLOAT"}}},
          {"name":"Shape_5","op":"Shape","input":["conv3_2/Relu"],"attr":{"T":{"type":"DT_FLOAT"},"out_type":{"type":"DT_INT32"}}},
          {"name":"prediction_layers/box_encoding_predictor_1/BiasAdd","op":"_FusedConv2D","input":["conv3_2/Relu","prediction_layers/box_encoding_predictor_1/weights","prediction_layers/box_encoding_predictor_1/biases"],"device":"/device:CPU:0","attr":{"explicit_paddings":{"list":{}},"num_args":{"i":"1"},"dilations":{"list":{"i":["1","1","1","1"]}},"epsilon":{"f":0},"data_format":{"s":"TkhXQw=="},"fused_ops":{"list":{"s":["Qmlhc0FkZA=="]}},"padding":{"s":"U0FNRQ=="},"strides":{"list":{"i":["1","1","1","1"]}},"T":{"type":"DT_FLOAT"},"use_cudnn_on_gpu":{"b":true}}},
          {"name":"reshaping/Shape_3","op":"Shape","input":["conv3_2/Relu"],"attr":{"T":{"type":"DT_FLOAT"},"out_type":{"type":"DT_INT32"}}},
          {"name":"reshaping/Shape_4","op":"Shape","input":["conv3_2/Relu"],"attr":{"T":{"type":"DT_FLOAT"},"out_type":{"type":"DT_INT32"}}},
          {"name":"reshaping/Shape_5","op":"Shape","input":["conv3_2/Relu"],"attr":{"T":{"type":"DT_FLOAT"},"out_type":{"type":"DT_INT32"}}},
          {"name":"conv4_1/Relu","op":"_FusedConv2D","input":["conv3_2/Relu","conv4_1/Conv2D_weights","conv4_1/Conv2D_bn_offset"],"device":"/device:CPU:0","attr":{"T":{"type":"DT_FLOAT"},"padding":{"s":"U0FNRQ=="},"epsilon":{"f":0},"num_args":{"i":"1"},"strides":{"list":{"i":["1","1","1","1"]}},"use_cudnn_on_gpu":{"b":true},"data_format":{"s":"TkhXQw=="},"fused_ops":{"list":{"s":["Qmlhc0FkZA==","UmVsdQ=="]}},"dilations":{"list":{"i":["1","1","1","1"]}},"explicit_paddings":{"list":{}}}},
          {"name":"anchor_generator/ToFloat_7","op":"Cast","input":["anchor_generator/range_1"],"attr":{"SrcT":{"type":"DT_INT32"},"Truncate":{"b":false},"DstT":{"type":"DT_FLOAT"}}},
          {"name":"anchor_generator/ToFloat_12","op":"Cast","input":["anchor_generator/range_4"],"attr":{"SrcT":{"type":"DT_INT32"},"Truncate":{"b":false},"DstT":{"type":"DT_FLOAT"}}},
          {"name":"anchor_generator/truediv_2","op":"RealDiv","input":["anchor_generator/truediv_2/x","anchor_generator/ToFloat_2"],"attr":{"T":{"type":"DT_FLOAT"}}},
          {"name":"anchor_generator/ToFloat_17","op":"Cast","input":["anchor_generator/range_7"],"attr":{"DstT":{"type":"DT_FLOAT"},"SrcT":{"type":"DT_INT32"},"Truncate":{"b":false}}},
          {"name":"anchor_generator/truediv","op":"Reciprocal","input":["anchor_generator/ToFloat"],"attr":{"T":{"type":"DT_FLOAT"}}},
          {"name":"anchor_generator/ToFloat_8","op":"Cast","input":["anchor_generator/range_2"],"attr":{"DstT":{"type":"DT_FLOAT"},"Truncate":{"b":false},"SrcT":{"type":"DT_INT32"}}},
          {"name":"anchor_generator/ToFloat_13","op":"Cast","input":["anchor_generator/range_5"],"attr":{"Truncate":{"b":false},"SrcT":{"type":"DT_INT32"},"DstT":{"type":"DT_FLOAT"}}},
          {"name":"anchor_generator/truediv_3","op":"RealDiv","input":["anchor_generator/truediv_3/x","anchor_generator/ToFloat_3"],"attr":{"T":{"type":"DT_FLOAT"}}},
          {"name":"anchor_generator/ToFloat_18","op":"Cast","input":["anchor_generator/range_8"],"attr":{"Truncate":{"b":false},"SrcT":{"type":"DT_INT32"},"DstT":{"type":"DT_FLOAT"}}},
          {"name":"anchor_generator/truediv_1","op":"Reciprocal","input":["anchor_generator/ToFloat_1"],"attr":{"T":{"type":"DT_FLOAT"}}},
          {"name":"reshaping/mul_1","op":"Mul","input":["reshaping/strided_slice_1","reshaping/mul"],"attr":{"_grappler_ArithmeticOptimizer_MinimizeBroadcasts":{"b":true},"T":{"type":"DT_INT32"}}},
          {"name":"strided_slice_4","op":"StridedSlice","input":["Shape_4","strided_slice_4/stack","strided_slice_4/stack_1","strided_slice_4/stack_2"],"attr":{"new_axis_mask":{"i":"0"},"end_mask":{"i":"0"},"ellipsis_mask":{"i":"0"},"shrink_axis_mask":{"i":"1"},"begin_mask":{"i":"0"},"T":{"type":"DT_INT32"},"Index":{"type":"DT_INT32"}}},
          {"name":"strided_slice_5","op":"StridedSlice","input":["Shape_5","strided_slice_5/stack","strided_slice_5/stack_1","strided_slice_5/stack_2"],"attr":{"T":{"type":"DT_INT32"},"new_axis_mask":{"i":"0"},"ellipsis_mask":{"i":"0"},"begin_mask":{"i":"0"},"end_mask":{"i":"0"},"Index":{"type":"DT_INT32"},"shrink_axis_mask":{"i":"1"}}},
          {"name":"reshaping/strided_slice_3","op":"StridedSlice","input":["reshaping/Shape_3","reshaping/strided_slice_3/stack","reshaping/strided_slice_3/stack_1","reshaping/strided_slice_3/stack_2"],"attr":{"Index":{"type":"DT_INT32"},"new_axis_mask":{"i":"0"},"begin_mask":{"i":"0"},"ellipsis_mask":{"i":"0"},"shrink_axis_mask":{"i":"1"},"end_mask":{"i":"0"},"T":{"type":"DT_INT32"}}},
          {"name":"reshaping/strided_slice_4","op":"StridedSlice","input":["reshaping/Shape_4","reshaping/strided_slice_4/stack","reshaping/strided_slice_4/stack_1","reshaping/strided_slice_4/stack_2"],"attr":{"new_axis_mask":{"i":"0"},"end_mask":{"i":"0"},"Index":{"type":"DT_INT32"},"T":{"type":"DT_INT32"},"shrink_axis_mask":{"i":"1"},"ellipsis_mask":{"i":"0"},"begin_mask":{"i":"0"}}},
          {"name":"reshaping/strided_slice_5","op":"StridedSlice","input":["reshaping/Shape_5","reshaping/strided_slice_5/stack","reshaping/strided_slice_5/stack_1","reshaping/strided_slice_5/stack_2"],"attr":{"ellipsis_mask":{"i":"0"},"end_mask":{"i":"0"},"begin_mask":{"i":"0"},"new_axis_mask":{"i":"0"},"shrink_axis_mask":{"i":"1"},"T":{"type":"DT_INT32"},"Index":{"type":"DT_INT32"}}},
          {"name":"conv4_2/Relu","op":"_FusedConv2D","input":["conv4_1/Relu","conv4_2/Conv2D_weights","conv4_2/Conv2D_bn_offset"],"device":"/device:CPU:0","attr":{"dilations":{"list":{"i":["1","1","1","1"]}},"padding":{"s":"U0FNRQ=="},"fused_ops":{"list":{"s":["Qmlhc0FkZA==","UmVsdQ=="]}},"strides":{"list":{"i":["1","2","2","1"]}},"data_format":{"s":"TkhXQw=="},"use_cudnn_on_gpu":{"b":true},"T":{"type":"DT_FLOAT"},"explicit_paddings":{"list":{}},"epsilon":{"f":0},"num_args":{"i":"1"}}},
          {"name":"anchor_generator/sub","op":"Sub","input":["anchor_generator/truediv_2","anchor_generator/mul_1"],"attr":{"T":{"type":"DT_FLOAT"}}},
          {"name":"anchor_generator/sub_2","op":"Sub","input":["anchor_generator/truediv_2","anchor_generator/mul_10"],"attr":{"T":{"type":"DT_FLOAT"}}},
          {"name":"anchor_generator/sub_4","op":"Sub","input":["anchor_generator/truediv_2","anchor_generator/mul_19"],"attr":{"T":{"type":"DT_FLOAT"}}},
          {"name":"anchor_generator/mul_7","op":"Mul","input":["anchor_generator/ToFloat_7","anchor_generator/truediv"],"attr":{"T":{"type":"DT_FLOAT"}}},
          {"name":"anchor_generator/mul_16","op":"Mul","input":["anchor_generator/ToFloat_12","anchor_generator/truediv"],"attr":{"T":{"type":"DT_FLOAT"}}},
          {"name":"anchor_generator/mul_25","op":"Mul","input":["anchor_generator/ToFloat_17","anchor_generator/truediv"],"attr":{"T":{"type":"DT_FLOAT"}}},
          {"name":"anchor_generator/sub_1","op":"Sub","input":["anchor_generator/truediv_3","anchor_generator/mul_2"],"attr":{"T":{"type":"DT_FLOAT"}}},
          {"name":"anchor_generator/sub_3","op":"Sub","input":["anchor_generator/truediv_3","anchor_generator/mul_11"],"attr":{"T":{"type":"DT_FLOAT"}}},
          {"name":"anchor_generator/sub_5","op":"Sub","input":["anchor_generator/truediv_3","anchor_generator/mul_20"],"attr":{"T":{"type":"DT_FLOAT"}}},
          {"name":"anchor_generator/mul_8","op":"Mul","input":["anchor_generator/ToFloat_8","anchor_generator/truediv_1"],"attr":{"T":{"type":"DT_FLOAT"}}},
          {"name":"anchor_generator/mul_17","op":"Mul","input":["anchor_generator/ToFloat_13","anchor_generator/truediv_1"],"attr":{"T":{"type":"DT_FLOAT"}}},
          {"name":"anchor_generator/mul_26","op":"Mul","input":["anchor_generator/ToFloat_18","anchor_generator/truediv_1"],"attr":{"T":{"type":"DT_FLOAT"}}},
          {"name":"reshaping/stack_1","op":"Pack","input":["reshaping/strided_slice","reshaping/mul_1","reshaping/stack_1/2"],"attr":{"axis":{"i":"0"},"N":{"i":"3"},"T":{"type":"DT_INT32"}}},
          {"name":"reshaping/Reshape_1/shape","op":"Pack","input":["reshaping/strided_slice","reshaping/mul_1","reshaping/Reshape_1/shape/2"],"attr":{"T":{"type":"DT_INT32"},"axis":{"i":"0"},"N":{"i":"3"}}},
          {"name":"anchor_generator/ToFloat_21","op":"Cast","input":["strided_slice_4"],"attr":{"Truncate":{"b":false},"DstT":{"type":"DT_FLOAT"},"SrcT":{"type":"DT_INT32"}}},
          {"name":"anchor_generator/range_10","op":"Range","input":["anchor_generator/range_10/start","strided_slice_4","anchor_generator/range_10/delta"],"attr":{"Tidx":{"type":"DT_INT32"}}},
          {"name":"anchor_generator/ToFloat_19","op":"Cast","input":["strided_slice_4"],"attr":{"SrcT":{"type":"DT_INT32"},"DstT":{"type":"DT_FLOAT"},"Truncate":{"b":false}}},
          {"name":"anchor_generator/ToFloat_22","op":"Cast","input":["strided_slice_5"],"attr":{"DstT":{"type":"DT_FLOAT"},"SrcT":{"type":"DT_INT32"},"Truncate":{"b":false}}},
          {"name":"anchor_generator/range_11","op":"Range","input":["anchor_generator/range_11/start","strided_slice_5","anchor_generator/range_11/delta"],"attr":{"Tidx":{"type":"DT_INT32"}}},
          {"name":"anchor_generator/ToFloat_20","op":"Cast","input":["strided_slice_5"],"attr":{"SrcT":{"type":"DT_INT32"},"Truncate":{"b":false},"DstT":{"type":"DT_FLOAT"}}},
          {"name":"reshaping/mul_2","op":"Mul","input":["reshaping/strided_slice_4","reshaping/strided_slice_5"],"attr":{"T":{"type":"DT_INT32"}}},
          {"name":"prediction_layers/class_predictor_2/BiasAdd","op":"_FusedConv2D","input":["conv4_2/Relu","prediction_layers/class_predictor_2/weights","prediction_layers/class_predictor_2/biases"],"device":"/device:CPU:0","attr":{"padding":{"s":"U0FNRQ=="},"T":{"type":"DT_FLOAT"},"strides":{"list":{"i":["1","1","1","1"]}},"fused_ops":{"list":{"s":["Qmlhc0FkZA=="]}},"data_format":{"s":"TkhXQw=="},"use_cudnn_on_gpu":{"b":true},"dilations":{"list":{"i":["1","1","1","1"]}},"epsilon":{"f":0},"num_args":{"i":"1"},"explicit_paddings":{"list":{}}}},
          {"name":"Shape_6","op":"Shape","input":["conv4_2/Relu"],"attr":{"out_type":{"type":"DT_INT32"},"T":{"type":"DT_FLOAT"}}},
          {"name":"Shape_7","op":"Shape","input":["conv4_2/Relu"],"attr":{"out_type":{"type":"DT_INT32"},"T":{"type":"DT_FLOAT"}}},
          {"name":"prediction_layers/box_encoding_predictor_2/BiasAdd","op":"_FusedConv2D","input":["conv4_2/Relu","prediction_layers/box_encoding_predictor_2/weights","prediction_layers/box_encoding_predictor_2/biases"],"device":"/device:CPU:0","attr":{"strides":{"list":{"i":["1","1","1","1"]}},"use_cudnn_on_gpu":{"b":true},"epsilon":{"f":0},"dilations":{"list":{"i":["1","1","1","1"]}},"explicit_paddings":{"list":{}},"T":{"type":"DT_FLOAT"},"num_args":{"i":"1"},"data_format":{"s":"TkhXQw=="},"fused_ops":{"list":{"s":["Qmlhc0FkZA=="]}},"padding":{"s":"U0FNRQ=="}}},
          {"name":"reshaping/Shape_6","op":"Shape","input":["conv4_2/Relu"],"attr":{"T":{"type":"DT_FLOAT"},"out_type":{"type":"DT_INT32"}}},
          {"name":"reshaping/Shape_7","op":"Shape","input":["conv4_2/Relu"],"attr":{"T":{"type":"DT_FLOAT"},"out_type":{"type":"DT_INT32"}}},
          {"name":"reshaping/Shape_8","op":"Shape","input":["conv4_2/Relu"],"attr":{"out_type":{"type":"DT_INT32"},"T":{"type":"DT_FLOAT"}}},
          {"name":"anchor_generator/ArithmeticOptimizer/AddOpsRewrite_Leaf_0_add_1","op":"AddN","input":["anchor_generator/sub","anchor_generator/mul_3"],"attr":{"N":{"i":"2"},"_grappler_ArithmeticOptimizer_AddOpsRewriteStage":{"b":true},"T":{"type":"DT_FLOAT"}}},
          {"name":"anchor_generator/ArithmeticOptimizer/AddOpsRewrite_Leaf_0_add_6","op":"AddN","input":["anchor_generator/sub_2","anchor_generator/mul_12"],"attr":{"N":{"i":"2"},"T":{"type":"DT_FLOAT"},"_grappler_ArithmeticOptimizer_AddOpsRewriteStage":{"b":true}}},
          {"name":"anchor_generator/add_10","op":"Add","input":["anchor_generator/sub_4","anchor_generator/mul_21"],"attr":{"T":{"type":"DT_FLOAT"}}},
          {"name":"anchor_generator/meshgrid/Reshape_3","op":"Reshape","input":["anchor_generator/mul_7","anchor_generator/meshgrid/Reshape_3/shape"],"attr":{"Tshape":{"type":"DT_INT32"},"T":{"type":"DT_FLOAT"}}},
          {"name":"anchor_generator/meshgrid/Size_1","op":"Size","input":["anchor_generator/mul_7"],"attr":{"T":{"type":"DT_FLOAT"},"out_type":{"type":"DT_INT32"}}},
          {"name":"anchor_generator/meshgrid_1/Reshape_3","op":"Reshape","input":["anchor_generator/mul_16","anchor_generator/meshgrid_1/Reshape_3/shape"],"attr":{"Tshape":{"type":"DT_INT32"},"T":{"type":"DT_FLOAT"}}},
          {"name":"anchor_generator/meshgrid_1/Size_1","op":"Size","input":["anchor_generator/mul_16"],"attr":{"T":{"type":"DT_FLOAT"},"out_type":{"type":"DT_INT32"}}},
          {"name":"anchor_generator/meshgrid_2/Reshape_3","op":"Reshape","input":["anchor_generator/mul_25","anchor_generator/meshgrid_2/Reshape_3/shape"],"attr":{"T":{"type":"DT_FLOAT"},"Tshape":{"type":"DT_INT32"}}},
          {"name":"anchor_generator/meshgrid_2/Size_1","op":"Size","input":["anchor_generator/mul_25"],"attr":{"out_type":{"type":"DT_INT32"},"T":{"type":"DT_FLOAT"}}},
          {"name":"anchor_generator/ArithmeticOptimizer/AddOpsRewrite_Leaf_0_add_3","op":"AddN","input":["anchor_generator/sub_1","anchor_generator/mul_5"],"attr":{"_grappler_ArithmeticOptimizer_AddOpsRewriteStage":{"b":true},"N":{"i":"2"},"T":{"type":"DT_FLOAT"}}},
          {"name":"anchor_generator/ArithmeticOptimizer/AddOpsRewrite_Leaf_0_add_8","op":"AddN","input":["anchor_generator/sub_3","anchor_generator/mul_14"],"attr":{"N":{"i":"2"},"_grappler_ArithmeticOptimizer_AddOpsRewriteStage":{"b":true},"T":{"type":"DT_FLOAT"}}},
          {"name":"anchor_generator/add_12","op":"Add","input":["anchor_generator/sub_5","anchor_generator/mul_23"],"attr":{"T":{"type":"DT_FLOAT"}}},
          {"name":"anchor_generator/meshgrid/Reshape_2","op":"Reshape","input":["anchor_generator/mul_8","anchor_generator/meshgrid/Reshape_2/shape"],"attr":{"T":{"type":"DT_FLOAT"},"Tshape":{"type":"DT_INT32"}}},
          {"name":"anchor_generator/meshgrid/Size","op":"Size","input":["anchor_generator/mul_8"],"attr":{"T":{"type":"DT_FLOAT"},"out_type":{"type":"DT_INT32"}}},
          {"name":"anchor_generator/meshgrid_1/Reshape_2","op":"Reshape","input":["anchor_generator/mul_17","anchor_generator/meshgrid_1/Reshape_2/shape"],"attr":{"Tshape":{"type":"DT_INT32"},"T":{"type":"DT_FLOAT"}}},
          {"name":"anchor_generator/meshgrid_1/Size","op":"Size","input":["anchor_generator/mul_17"],"attr":{"T":{"type":"DT_FLOAT"},"out_type":{"type":"DT_INT32"}}},
          {"name":"anchor_generator/meshgrid_2/Reshape_2","op":"Reshape","input":["anchor_generator/mul_26","anchor_generator/meshgrid_2/Reshape_2/shape"],"attr":{"Tshape":{"type":"DT_INT32"},"T":{"type":"DT_FLOAT"}}},
          {"name":"anchor_generator/meshgrid_2/Size","op":"Size","input":["anchor_generator/mul_26"],"attr":{"out_type":{"type":"DT_INT32"},"T":{"type":"DT_FLOAT"}}},
          {"name":"reshaping/Reshape_3","op":"Reshape","input":["prediction_layers/class_predictor_0/BiasAdd","reshaping/stack_1"],"attr":{"Tshape":{"type":"DT_INT32"},"T":{"type":"DT_FLOAT"}}},
          {"name":"reshaping/Reshape_1","op":"Reshape","input":["prediction_layers/box_encoding_predictor_0/BiasAdd","reshaping/Reshape_1/shape"],"attr":{"Tshape":{"type":"DT_INT32"},"T":{"type":"DT_FLOAT"}}},
          {"name":"anchor_generator/truediv_21","op":"RealDiv","input":["anchor_generator/truediv_21/x","anchor_generator/ToFloat_21"],"attr":{"T":{"type":"DT_FLOAT"}}},
          {"name":"anchor_generator/ToFloat_26","op":"Cast","input":["anchor_generator/range_10"],"attr":{"Truncate":{"b":false},"SrcT":{"type":"DT_INT32"},"DstT":{"type":"DT_FLOAT"}}},
          {"name":"anchor_generator/truediv_19","op":"Reciprocal","input":["anchor_generator/ToFloat_19"],"attr":{"T":{"type":"DT_FLOAT"}}},
          {"name":"anchor_generator/truediv_22","op":"RealDiv","input":["anchor_generator/truediv_22/x","anchor_generator/ToFloat_22"],"attr":{"T":{"type":"DT_FLOAT"}}},
          {"name":"anchor_generator/ToFloat_27","op":"Cast","input":["anchor_generator/range_11"],"attr":{"SrcT":{"type":"DT_INT32"},"Truncate":{"b":false},"DstT":{"type":"DT_FLOAT"}}},
          {"name":"anchor_generator/truediv_20","op":"Reciprocal","input":["anchor_generator/ToFloat_20"],"attr":{"T":{"type":"DT_FLOAT"}}},
          {"name":"reshaping/stack_3","op":"Pack","input":["reshaping/strided_slice_3","reshaping/mul_2","reshaping/stack_3/2"],"attr":{"N":{"i":"3"},"axis":{"i":"0"},"T":{"type":"DT_INT32"}}},
          {"name":"reshaping/Reshape_5/shape","op":"Pack","input":["reshaping/strided_slice_3","reshaping/mul_2","reshaping/Reshape_5/shape/2"],"attr":{"T":{"type":"DT_INT32"},"axis":{"i":"0"},"N":{"i":"3"}}},
          {"name":"strided_slice_6","op":"StridedSlice","input":["Shape_6","strided_slice_6/stack","strided_slice_6/stack_1","strided_slice_6/stack_2"],"attr":{"end_mask":{"i":"0"},"begin_mask":{"i":"0"},"T":{"type":"DT_INT32"},"Index":{"type":"DT_INT32"},"new_axis_mask":{"i":"0"},"shrink_axis_mask":{"i":"1"},"ellipsis_mask":{"i":"0"}}},
          {"name":"strided_slice_7","op":"StridedSlice","input":["Shape_7","strided_slice_7/stack","strided_slice_7/stack_1","strided_slice_7/stack_2"],"attr":{"new_axis_mask":{"i":"0"},"end_mask":{"i":"0"},"ellipsis_mask":{"i":"0"},"shrink_axis_mask":{"i":"1"},"T":{"type":"DT_INT32"},"Index":{"type":"DT_INT32"},"begin_mask":{"i":"0"}}},
          {"name":"reshaping/strided_slice_6","op":"StridedSlice","input":["reshaping/Shape_6","reshaping/strided_slice_6/stack","reshaping/strided_slice_6/stack_1","reshaping/strided_slice_6/stack_2"],"attr":{"begin_mask":{"i":"0"},"T":{"type":"DT_INT32"},"shrink_axis_mask":{"i":"1"},"end_mask":{"i":"0"},"new_axis_mask":{"i":"0"},"ellipsis_mask":{"i":"0"},"Index":{"type":"DT_INT32"}}},
          {"name":"reshaping/strided_slice_7","op":"StridedSlice","input":["reshaping/Shape_7","reshaping/strided_slice_7/stack","reshaping/strided_slice_7/stack_1","reshaping/strided_slice_7/stack_2"],"attr":{"begin_mask":{"i":"0"},"ellipsis_mask":{"i":"0"},"T":{"type":"DT_INT32"},"new_axis_mask":{"i":"0"},"end_mask":{"i":"0"},"shrink_axis_mask":{"i":"1"},"Index":{"type":"DT_INT32"}}},
          {"name":"reshaping/strided_slice_8","op":"StridedSlice","input":["reshaping/Shape_8","reshaping/strided_slice_8/stack","reshaping/strided_slice_8/stack_1","reshaping/strided_slice_8/stack_2"],"attr":{"begin_mask":{"i":"0"},"ellipsis_mask":{"i":"0"},"end_mask":{"i":"0"},"T":{"type":"DT_INT32"},"new_axis_mask":{"i":"0"},"Index":{"type":"DT_INT32"},"shrink_axis_mask":{"i":"1"}}},
          {"name":"anchor_generator/ArithmeticOptimizer/AddOpsRewrite_add_1","op":"AddV2","input":["anchor_generator/ArithmeticOptimizer/AddOpsRewrite_Leaf_0_add_1","anchor_generator/mul_4"],"attr":{"_grappler_ArithmeticOptimizer_AddOpsRewriteStage":{"b":true},"T":{"type":"DT_FLOAT"}}},
          {"name":"anchor_generator/ArithmeticOptimizer/AddOpsRewrite_add_6","op":"AddV2","input":["anchor_generator/ArithmeticOptimizer/AddOpsRewrite_Leaf_0_add_6","anchor_generator/mul_13"],"attr":{"T":{"type":"DT_FLOAT"},"_grappler_ArithmeticOptimizer_AddOpsRewriteStage":{"b":true}}},
          {"name":"anchor_generator/add_11","op":"BroadcastTo","input":["anchor_generator/add_10","ConstantFolding/anchor_generator/add_11-broadcastto_shape-0"],"attr":{"T":{"type":"DT_FLOAT"},"Tidx":{"type":"DT_INT32"}}},
          {"name":"anchor_generator/ArithmeticOptimizer/AddOpsRewrite_add_3","op":"AddV2","input":["anchor_generator/ArithmeticOptimizer/AddOpsRewrite_Leaf_0_add_3","anchor_generator/mul_6"],"attr":{"T":{"type":"DT_FLOAT"},"_grappler_ArithmeticOptimizer_AddOpsRewriteStage":{"b":true}}},
          {"name":"anchor_generator/ArithmeticOptimizer/AddOpsRewrite_add_8","op":"AddV2","input":["anchor_generator/ArithmeticOptimizer/AddOpsRewrite_Leaf_0_add_8","anchor_generator/mul_15"],"attr":{"_grappler_ArithmeticOptimizer_AddOpsRewriteStage":{"b":true},"T":{"type":"DT_FLOAT"}}},
          {"name":"anchor_generator/add_13","op":"BroadcastTo","input":["anchor_generator/add_12","ConstantFolding/anchor_generator/add_13-broadcastto_shape-0"],"attr":{"T":{"type":"DT_FLOAT"},"Tidx":{"type":"DT_INT32"}}},
          {"name":"anchor_generator/meshgrid/ones/packed","op":"Pack","input":["anchor_generator/meshgrid/Size_1","anchor_generator/meshgrid/Size"],"attr":{"T":{"type":"DT_INT32"},"axis":{"i":"0"},"N":{"i":"2"}}},
          {"name":"anchor_generator/meshgrid_1/ones/packed","op":"Pack","input":["anchor_generator/meshgrid_1/Size_1","anchor_generator/meshgrid_1/Size"],"attr":{"T":{"type":"DT_INT32"},"axis":{"i":"0"},"N":{"i":"2"}}},
          {"name":"anchor_generator/meshgrid_2/ones/packed","op":"Pack","input":["anchor_generator/meshgrid_2/Size_1","anchor_generator/meshgrid_2/Size"],"attr":{"axis":{"i":"0"},"N":{"i":"2"},"T":{"type":"DT_INT32"}}},
          {"name":"anchor_generator/sub_6","op":"Sub","input":["anchor_generator/truediv_21","anchor_generator/mul_30"],"attr":{"T":{"type":"DT_FLOAT"}}},
          {"name":"anchor_generator/mul_36","op":"Mul","input":["anchor_generator/ToFloat_26","anchor_generator/truediv_19"],"attr":{"T":{"type":"DT_FLOAT"}}},
          {"name":"anchor_generator/sub_7","op":"Sub","input":["anchor_generator/truediv_22","anchor_generator/mul_31"],"attr":{"T":{"type":"DT_FLOAT"}}},
          {"name":"anchor_generator/mul_37","op":"Mul","input":["anchor_generator/ToFloat_27","anchor_generator/truediv_20"],"attr":{"T":{"type":"DT_FLOAT"}}},
          {"name":"reshaping/Reshape_7","op":"Reshape","input":["prediction_layers/class_predictor_1/BiasAdd","reshaping/stack_3"],"attr":{"T":{"type":"DT_FLOAT"},"Tshape":{"type":"DT_INT32"}}},
          {"name":"reshaping/Reshape_5","op":"Reshape","input":["prediction_layers/box_encoding_predictor_1/BiasAdd","reshaping/Reshape_5/shape"],"attr":{"Tshape":{"type":"DT_INT32"},"T":{"type":"DT_FLOAT"}}},
          {"name":"anchor_generator/ToFloat_30","op":"Cast","input":["strided_slice_6"],"attr":{"DstT":{"type":"DT_FLOAT"},"SrcT":{"type":"DT_INT32"},"Truncate":{"b":false}}},
          {"name":"anchor_generator/range_13","op":"Range","input":["anchor_generator/range_13/start","strided_slice_6","anchor_generator/range_13/delta"],"attr":{"Tidx":{"type":"DT_INT32"}}},
          {"name":"anchor_generator/ToFloat_28","op":"Cast","input":["strided_slice_6"],"attr":{"SrcT":{"type":"DT_INT32"},"Truncate":{"b":false},"DstT":{"type":"DT_FLOAT"}}},
          {"name":"anchor_generator/ToFloat_31","op":"Cast","input":["strided_slice_7"],"attr":{"DstT":{"type":"DT_FLOAT"},"SrcT":{"type":"DT_INT32"},"Truncate":{"b":false}}},
          {"name":"anchor_generator/range_14","op":"Range","input":["anchor_generator/range_14/start","strided_slice_7","anchor_generator/range_14/delta"],"attr":{"Tidx":{"type":"DT_INT32"}}},
          {"name":"anchor_generator/ToFloat_29","op":"Cast","input":["strided_slice_7"],"attr":{"DstT":{"type":"DT_FLOAT"},"Truncate":{"b":false},"SrcT":{"type":"DT_INT32"}}},
          {"name":"reshaping/mul_4","op":"Mul","input":["reshaping/strided_slice_7","reshaping/strided_slice_8"],"attr":{"T":{"type":"DT_INT32"}}},
          {"name":"anchor_generator/ExpandDims","op":"ExpandDims","input":["anchor_generator/ArithmeticOptimizer/AddOpsRewrite_add_1","anchor_generator/ExpandDims/dim"],"attr":{"T":{"type":"DT_FLOAT"},"Tdim":{"type":"DT_INT32"}}},
          {"name":"anchor_generator/ExpandDims_5","op":"ExpandDims","input":["anchor_generator/ArithmeticOptimizer/AddOpsRewrite_add_6","anchor_generator/ExpandDims_5/dim"],"attr":{"T":{"type":"DT_FLOAT"},"Tdim":{"type":"DT_INT32"}}},
          {"name":"anchor_generator/ExpandDims_10","op":"ExpandDims","input":["anchor_generator/add_11","anchor_generator/ExpandDims_10/dim"],"attr":{"Tdim":{"type":"DT_INT32"},"T":{"type":"DT_FLOAT"}}},
          {"name":"anchor_generator/ExpandDims_1","op":"ExpandDims","input":["anchor_generator/ArithmeticOptimizer/AddOpsRewrite_add_3","anchor_generator/ExpandDims_1/dim"],"attr":{"Tdim":{"type":"DT_INT32"},"T":{"type":"DT_FLOAT"}}},
          {"name":"anchor_generator/ExpandDims_6","op":"ExpandDims","input":["anchor_generator/ArithmeticOptimizer/AddOpsRewrite_add_8","anchor_generator/ExpandDims_6/dim"],"attr":{"T":{"type":"DT_FLOAT"},"Tdim":{"type":"DT_INT32"}}},
          {"name":"anchor_generator/ExpandDims_11","op":"ExpandDims","input":["anchor_generator/add_13","anchor_generator/ExpandDims_11/dim"],"attr":{"Tdim":{"type":"DT_INT32"},"T":{"type":"DT_FLOAT"}}},
          {"name":"anchor_generator/meshgrid/ones","op":"Fill","input":["anchor_generator/meshgrid/ones/packed","anchor_generator/meshgrid/ones/Const"],"attr":{"index_type":{"type":"DT_INT32"},"T":{"type":"DT_FLOAT"}}},
          {"name":"anchor_generator/meshgrid_1/ones","op":"Fill","input":["anchor_generator/meshgrid_1/ones/packed","anchor_generator/meshgrid_1/ones/Const"],"attr":{"index_type":{"type":"DT_INT32"},"T":{"type":"DT_FLOAT"}}},
          {"name":"anchor_generator/meshgrid_2/ones","op":"Fill","input":["anchor_generator/meshgrid_2/ones/packed","anchor_generator/meshgrid_2/ones/Const"],"attr":{"index_type":{"type":"DT_INT32"},"T":{"type":"DT_FLOAT"}}},
          {"name":"anchor_generator/add_15","op":"Add","input":["anchor_generator/sub_6","anchor_generator/mul_32"],"attr":{"T":{"type":"DT_FLOAT"}}},
          {"name":"anchor_generator/meshgrid_3/Reshape_3","op":"Reshape","input":["anchor_generator/mul_36","anchor_generator/meshgrid_3/Reshape_3/shape"],"attr":{"Tshape":{"type":"DT_INT32"},"T":{"type":"DT_FLOAT"}}},
          {"name":"anchor_generator/meshgrid_3/Size_1","op":"Size","input":["anchor_generator/mul_36"],"attr":{"T":{"type":"DT_FLOAT"},"out_type":{"type":"DT_INT32"}}},
          {"name":"anchor_generator/add_17","op":"Add","input":["anchor_generator/sub_7","anchor_generator/mul_34"],"attr":{"T":{"type":"DT_FLOAT"}}},
          {"name":"anchor_generator/meshgrid_3/Reshape_2","op":"Reshape","input":["anchor_generator/mul_37","anchor_generator/meshgrid_3/Reshape_2/shape"],"attr":{"T":{"type":"DT_FLOAT"},"Tshape":{"type":"DT_INT32"}}},
          {"name":"anchor_generator/meshgrid_3/Size","op":"Size","input":["anchor_generator/mul_37"],"attr":{"T":{"type":"DT_FLOAT"},"out_type":{"type":"DT_INT32"}}},
          {"name":"anchor_generator/truediv_30","op":"RealDiv","input":["anchor_generator/truediv_30/x","anchor_generator/ToFloat_30"],"attr":{"T":{"type":"DT_FLOAT"}}},
          {"name":"anchor_generator/ToFloat_35","op":"Cast","input":["anchor_generator/range_13"],"attr":{"DstT":{"type":"DT_FLOAT"},"SrcT":{"type":"DT_INT32"},"Truncate":{"b":false}}},
          {"name":"anchor_generator/truediv_28","op":"Reciprocal","input":["anchor_generator/ToFloat_28"],"attr":{"T":{"type":"DT_FLOAT"}}},
          {"name":"anchor_generator/truediv_31","op":"RealDiv","input":["anchor_generator/truediv_31/x","anchor_generator/ToFloat_31"],"attr":{"T":{"type":"DT_FLOAT"}}},
          {"name":"anchor_generator/ToFloat_36","op":"Cast","input":["anchor_generator/range_14"],"attr":{"SrcT":{"type":"DT_INT32"},"Truncate":{"b":false},"DstT":{"type":"DT_FLOAT"}}},
          {"name":"anchor_generator/truediv_29","op":"Reciprocal","input":["anchor_generator/ToFloat_29"],"attr":{"T":{"type":"DT_FLOAT"}}},
          {"name":"reshaping/stack_5","op":"Pack","input":["reshaping/strided_slice_6","reshaping/mul_4","reshaping/stack_5/2"],"attr":{"N":{"i":"3"},"axis":{"i":"0"},"T":{"type":"DT_INT32"}}},
          {"name":"reshaping/Reshape_9/shape","op":"Pack","input":["reshaping/strided_slice_6","reshaping/mul_4","reshaping/Reshape_9/shape/2"],"attr":{"T":{"type":"DT_INT32"},"N":{"i":"3"},"axis":{"i":"0"}}},
          {"name":"anchor_generator/Tile","op":"Tile","input":["anchor_generator/ExpandDims","anchor_generator/Tile/multiples"],"attr":{"T":{"type":"DT_FLOAT"},"Tmultiples":{"type":"DT_INT32"}}},
          {"name":"anchor_generator/Tile_4","op":"Tile","input":["anchor_generator/ExpandDims_5","anchor_generator/Tile_4/multiples"],"attr":{"Tmultiples":{"type":"DT_INT32"},"T":{"type":"DT_FLOAT"}}},
          {"name":"anchor_generator/Tile_1","op":"Tile","input":["anchor_generator/ExpandDims_1","anchor_generator/Tile_1/multiples"],"attr":{"T":{"type":"DT_FLOAT"},"Tmultiples":{"type":"DT_INT32"}}},
          {"name":"anchor_generator/Tile_5","op":"Tile","input":["anchor_generator/ExpandDims_6","anchor_generator/Tile_5/multiples"],"attr":{"Tmultiples":{"type":"DT_INT32"},"T":{"type":"DT_FLOAT"}}},
          {"name":"anchor_generator/stack_8","op":"Pack","input":["anchor_generator/ExpandDims_10","anchor_generator/ExpandDims_11"],"attr":{"T":{"type":"DT_FLOAT"},"N":{"i":"2"},"axis":{"i":"2"}}},
          {"name":"anchor_generator/meshgrid/mul_1","op":"Mul","input":["anchor_generator/meshgrid/Reshape_3","anchor_generator/meshgrid/ones"],"attr":{"T":{"type":"DT_FLOAT"}}},
          {"name":"anchor_generator/meshgrid/mul","op":"Mul","input":["anchor_generator/meshgrid/Reshape_2","anchor_generator/meshgrid/ones"],"attr":{"T":{"type":"DT_FLOAT"}}},
          {"name":"anchor_generator/meshgrid_1/mul_1","op":"Mul","input":["anchor_generator/meshgrid_1/Reshape_3","anchor_generator/meshgrid_1/ones"],"attr":{"T":{"type":"DT_FLOAT"}}},
          {"name":"anchor_generator/meshgrid_1/mul","op":"Mul","input":["anchor_generator/meshgrid_1/Reshape_2","anchor_generator/meshgrid_1/ones"],"attr":{"T":{"type":"DT_FLOAT"}}},
          {"name":"anchor_generator/meshgrid_2/mul_1","op":"Mul","input":["anchor_generator/meshgrid_2/Reshape_3","anchor_generator/meshgrid_2/ones"],"attr":{"T":{"type":"DT_FLOAT"}}},
          {"name":"anchor_generator/meshgrid_2/mul","op":"Mul","input":["anchor_generator/meshgrid_2/Reshape_2","anchor_generator/meshgrid_2/ones"],"attr":{"T":{"type":"DT_FLOAT"}}},
          {"name":"anchor_generator/add_16","op":"BroadcastTo","input":["anchor_generator/add_15","ConstantFolding/anchor_generator/add_16-broadcastto_shape-0"],"attr":{"T":{"type":"DT_FLOAT"},"Tidx":{"type":"DT_INT32"}}},
          {"name":"anchor_generator/add_18","op":"BroadcastTo","input":["anchor_generator/add_17","ConstantFolding/anchor_generator/add_18-broadcastto_shape-0"],"attr":{"Tidx":{"type":"DT_INT32"},"T":{"type":"DT_FLOAT"}}},
          {"name":"anchor_generator/meshgrid_3/ones/packed","op":"Pack","input":["anchor_generator/meshgrid_3/Size_1","anchor_generator/meshgrid_3/Size"],"attr":{"axis":{"i":"0"},"N":{"i":"2"},"T":{"type":"DT_INT32"}}},
          {"name":"anchor_generator/sub_8","op":"Sub","input":["anchor_generator/truediv_30","anchor_generator/mul_41"],"attr":{"T":{"type":"DT_FLOAT"}}},
          {"name":"anchor_generator/mul_47","op":"Mul","input":["anchor_generator/ToFloat_35","anchor_generator/truediv_28"],"attr":{"T":{"type":"DT_FLOAT"}}},
          {"name":"anchor_generator/sub_9","op":"Sub","input":["anchor_generator/truediv_31","anchor_generator/mul_42"],"attr":{"T":{"type":"DT_FLOAT"}}},
          {"name":"anchor_generator/mul_48","op":"Mul","input":["anchor_generator/ToFloat_36","anchor_generator/truediv_29"],"attr":{"T":{"type":"DT_FLOAT"}}},
          {"name":"reshaping/Reshape_11","op":"Reshape","input":["prediction_layers/class_predictor_2/BiasAdd","reshaping/stack_5"],"attr":{"Tshape":{"type":"DT_INT32"},"T":{"type":"DT_FLOAT"}}},
          {"name":"reshaping/Reshape_9","op":"Reshape","input":["prediction_layers/box_encoding_predictor_2/BiasAdd","reshaping/Reshape_9/shape"],"attr":{"T":{"type":"DT_FLOAT"},"Tshape":{"type":"DT_INT32"}}},
          {"name":"anchor_generator/stack","op":"Pack","input":["anchor_generator/Tile","anchor_generator/Tile_1"],"attr":{"T":{"type":"DT_FLOAT"},"N":{"i":"2"},"axis":{"i":"2"}}},
          {"name":"anchor_generator/stack_4","op":"Pack","input":["anchor_generator/Tile_4","anchor_generator/Tile_5"],"attr":{"axis":{"i":"2"},"T":{"type":"DT_FLOAT"},"N":{"i":"2"}}},
          {"name":"anchor_generator/stack_10","op":"Pack","input":["anchor_generator/stack_8","anchor_generator/ExpandDims_13"],"attr":{"N":{"i":"2"},"T":{"type":"DT_FLOAT"},"axis":{"i":"2"}}},
          {"name":"anchor_generator/stack_3","op":"Pack","input":["anchor_generator/meshgrid/mul_1","anchor_generator/meshgrid/mul"],"attr":{"axis":{"i":"2"},"N":{"i":"2"},"T":{"type":"DT_FLOAT"}}},
          {"name":"anchor_generator/stack_7","op":"Pack","input":["anchor_generator/meshgrid_1/mul_1","anchor_generator/meshgrid_1/mul"],"attr":{"axis":{"i":"2"},"N":{"i":"2"},"T":{"type":"DT_FLOAT"}}},
          {"name":"anchor_generator/stack_11","op":"Pack","input":["anchor_generator/meshgrid_2/mul_1","anchor_generator/meshgrid_2/mul"],"attr":{"axis":{"i":"2"},"T":{"type":"DT_FLOAT"},"N":{"i":"2"}}},
          {"name":"anchor_generator/ExpandDims_15","op":"ExpandDims","input":["anchor_generator/add_16","anchor_generator/ExpandDims_15/dim"],"attr":{"T":{"type":"DT_FLOAT"},"Tdim":{"type":"DT_INT32"}}},
          {"name":"anchor_generator/ExpandDims_16","op":"ExpandDims","input":["anchor_generator/add_18","anchor_generator/ExpandDims_16/dim"],"attr":{"T":{"type":"DT_FLOAT"},"Tdim":{"type":"DT_INT32"}}},
          {"name":"anchor_generator/meshgrid_3/ones","op":"Fill","input":["anchor_generator/meshgrid_3/ones/packed","anchor_generator/meshgrid_3/ones/Const"],"attr":{"T":{"type":"DT_FLOAT"},"index_type":{"type":"DT_INT32"}}},
          {"name":"anchor_generator/add_20","op":"Add","input":["anchor_generator/sub_8","anchor_generator/mul_43"],"attr":{"T":{"type":"DT_FLOAT"}}},
          {"name":"anchor_generator/meshgrid_4/Reshape_3","op":"Reshape","input":["anchor_generator/mul_47","anchor_generator/meshgrid_4/Reshape_3/shape"],"attr":{"Tshape":{"type":"DT_INT32"},"T":{"type":"DT_FLOAT"}}},
          {"name":"anchor_generator/meshgrid_4/Size_1","op":"Size","input":["anchor_generator/mul_47"],"attr":{"T":{"type":"DT_FLOAT"},"out_type":{"type":"DT_INT32"}}},
          {"name":"anchor_generator/add_22","op":"Add","input":["anchor_generator/sub_9","anchor_generator/mul_45"],"attr":{"T":{"type":"DT_FLOAT"}}},
          {"name":"anchor_generator/meshgrid_4/Reshape_2","op":"Reshape","input":["anchor_generator/mul_48","anchor_generator/meshgrid_4/Reshape_2/shape"],"attr":{"Tshape":{"type":"DT_INT32"},"T":{"type":"DT_FLOAT"}}},
          {"name":"anchor_generator/meshgrid_4/Size","op":"Size","input":["anchor_generator/mul_48"],"attr":{"T":{"type":"DT_FLOAT"},"out_type":{"type":"DT_INT32"}}},
          {"name":"reshaping/concat_1","op":"ConcatV2","input":["reshaping/Reshape_3","reshaping/Reshape_7","reshaping/Reshape_11","reshaping/concat_1/axis"],"attr":{"Tidx":{"type":"DT_INT32"},"N":{"i":"3"},"T":{"type":"DT_FLOAT"}}},
          {"name":"reshaping/concat","op":"ConcatV2","input":["reshaping/Reshape_1","reshaping/Reshape_5","reshaping/Reshape_9","reshaping/concat/axis"],"attr":{"T":{"type":"DT_FLOAT"},"N":{"i":"3"},"Tidx":{"type":"DT_INT32"}}},
          {"name":"anchor_generator/stack_2","op":"Pack","input":["anchor_generator/stack","anchor_generator/Tile_2"],"attr":{"N":{"i":"2"},"axis":{"i":"2"},"T":{"type":"DT_FLOAT"}}},
          {"name":"anchor_generator/stack_6","op":"Pack","input":["anchor_generator/stack_4","anchor_generator/Tile_6"],"attr":{"N":{"i":"2"},"axis":{"i":"2"},"T":{"type":"DT_FLOAT"}}},
          {"name":"anchor_generator/Reshape_5","op":"Reshape","input":["anchor_generator/stack_10","anchor_generator/Reshape_5/shape"],"attr":{"Tshape":{"type":"DT_INT32"},"T":{"type":"DT_FLOAT"}}},
          {"name":"anchor_generator/Pad","op":"Pad","input":["anchor_generator/stack_3","anchor_generator/Pad/paddings"],"attr":{"T":{"type":"DT_FLOAT"},"Tpaddings":{"type":"DT_INT32"}}},
          {"name":"anchor_generator/Pad_1","op":"Pad","input":["anchor_generator/stack_7","anchor_generator/Pad_1/paddings"],"attr":{"Tpaddings":{"type":"DT_INT32"},"T":{"type":"DT_FLOAT"}}},
          {"name":"anchor_generator/Pad_2","op":"Pad","input":["anchor_generator/stack_11","anchor_generator/Pad_2/paddings"],"attr":{"Tpaddings":{"type":"DT_INT32"},"T":{"type":"DT_FLOAT"}}},
          {"name":"anchor_generator/stack_12","op":"Pack","input":["anchor_generator/ExpandDims_15","anchor_generator/ExpandDims_16"],"attr":{"axis":{"i":"2"},"N":{"i":"2"},"T":{"type":"DT_FLOAT"}}},
          {"name":"anchor_generator/meshgrid_3/mul_1","op":"Mul","input":["anchor_generator/meshgrid_3/Reshape_3","anchor_generator/meshgrid_3/ones"],"attr":{"T":{"type":"DT_FLOAT"}}},
          {"name":"anchor_generator/meshgrid_3/mul","op":"Mul","input":["anchor_generator/meshgrid_3/Reshape_2","anchor_generator/meshgrid_3/ones"],"attr":{"T":{"type":"DT_FLOAT"}}},
          {"name":"anchor_generator/add_21","op":"BroadcastTo","input":["anchor_generator/add_20","ConstantFolding/anchor_generator/add_21-broadcastto_shape-0"],"attr":{"Tidx":{"type":"DT_INT32"},"T":{"type":"DT_FLOAT"}}},
          {"name":"anchor_generator/add_23","op":"BroadcastTo","input":["anchor_generator/add_22","ConstantFolding/anchor_generator/add_23-broadcastto_shape-0"],"attr":{"T":{"type":"DT_FLOAT"},"Tidx":{"type":"DT_INT32"}}},
          {"name":"anchor_generator/meshgrid_4/ones/packed","op":"Pack","input":["anchor_generator/meshgrid_4/Size_1","anchor_generator/meshgrid_4/Size"],"attr":{"N":{"i":"2"},"axis":{"i":"0"},"T":{"type":"DT_INT32"}}},
          {"name":"postprocessing/Softmax","op":"Softmax","input":["reshaping/concat_1"],"attr":{"T":{"type":"DT_FLOAT"}}},
          {"name":"postprocessing/Reshape","op":"Reshape","input":["reshaping/concat","postprocessing/Reshape/shape"],"attr":{"Tshape":{"type":"DT_INT32"},"T":{"type":"DT_FLOAT"}}},
          {"name":"postprocessing/Shape","op":"Shape","input":["reshaping/concat"],"attr":{"T":{"type":"DT_FLOAT"},"out_type":{"type":"DT_INT32"}}},
          {"name":"postprocessing/Shape_1","op":"Shape","input":["reshaping/concat"],"attr":{"T":{"type":"DT_FLOAT"},"out_type":{"type":"DT_INT32"}}},
          {"name":"anchor_generator/Reshape_1","op":"Reshape","input":["anchor_generator/stack_2","anchor_generator/Reshape_1/shape"],"attr":{"Tshape":{"type":"DT_INT32"},"T":{"type":"DT_FLOAT"}}},
          {"name":"anchor_generator/Reshape_3","op":"Reshape","input":["anchor_generator/stack_6","anchor_generator/Reshape_3/shape"],"attr":{"Tshape":{"type":"DT_INT32"},"T":{"type":"DT_FLOAT"}}},
          {"name":"anchor_generator/ExpandDims_4","op":"ExpandDims","input":["anchor_generator/Pad","anchor_generator/ExpandDims_4/dim"],"attr":{"T":{"type":"DT_FLOAT"},"Tdim":{"type":"DT_INT32"}}},
          {"name":"anchor_generator/ExpandDims_9","op":"ExpandDims","input":["anchor_generator/Pad_1","anchor_generator/ExpandDims_9/dim"],"attr":{"Tdim":{"type":"DT_INT32"},"T":{"type":"DT_FLOAT"}}},
          {"name":"anchor_generator/ExpandDims_14","op":"ExpandDims","input":["anchor_generator/Pad_2","anchor_generator/ExpandDims_14/dim"],"attr":{"T":{"type":"DT_FLOAT"},"Tdim":{"type":"DT_INT32"}}},
          {"name":"anchor_generator/stack_14","op":"Pack","input":["anchor_generator/stack_12","anchor_generator/ExpandDims_18"],"attr":{"T":{"type":"DT_FLOAT"},"axis":{"i":"2"},"N":{"i":"2"}}},
          {"name":"anchor_generator/stack_15","op":"Pack","input":["anchor_generator/meshgrid_3/mul_1","anchor_generator/meshgrid_3/mul"],"attr":{"axis":{"i":"2"},"T":{"type":"DT_FLOAT"},"N":{"i":"2"}}},
          {"name":"anchor_generator/ExpandDims_20","op":"ExpandDims","input":["anchor_generator/add_21","anchor_generator/ExpandDims_20/dim"],"attr":{"Tdim":{"type":"DT_INT32"},"T":{"type":"DT_FLOAT"}}},
          {"name":"anchor_generator/ExpandDims_21","op":"ExpandDims","input":["anchor_generator/add_23","anchor_generator/ExpandDims_21/dim"],"attr":{"T":{"type":"DT_FLOAT"},"Tdim":{"type":"DT_INT32"}}},
          {"name":"anchor_generator/meshgrid_4/ones","op":"Fill","input":["anchor_generator/meshgrid_4/ones/packed","anchor_generator/meshgrid_4/ones/Const"],"attr":{"index_type":{"type":"DT_INT32"},"T":{"type":"DT_FLOAT"}}},
          {"name":"postprocessing/strided_slice_2","op":"StridedSlice","input":["postprocessing/Softmax","postprocessing/strided_slice_2/stack","postprocessing/strided_slice_2/stack_1","postprocessing/strided_slice_2/stack_2"],"attr":{"Index":{"type":"DT_INT32"},"begin_mask":{"i":"3"},"shrink_axis_mask":{"i":"4"},"ellipsis_mask":{"i":"0"},"new_axis_mask":{"i":"0"},"T":{"type":"DT_FLOAT"},"end_mask":{"i":"3"}}},
          {"name":"postprocessing/decode_predictions/unstack_1","op":"Unpack","input":["postprocessing/Reshape"],"attr":{"axis":{"i":"1"},"num":{"i":"4"},"T":{"type":"DT_FLOAT"}}},
          {"name":"postprocessing/strided_slice","op":"StridedSlice","input":["postprocessing/Shape","postprocessing/strided_slice/stack","postprocessing/strided_slice/stack_1","postprocessing/strided_slice/stack_2"],"attr":{"new_axis_mask":{"i":"0"},"ellipsis_mask":{"i":"0"},"shrink_axis_mask":{"i":"1"},"end_mask":{"i":"0"},"Index":{"type":"DT_INT32"},"T":{"type":"DT_INT32"},"begin_mask":{"i":"0"}}},
          {"name":"postprocessing/strided_slice_1","op":"StridedSlice","input":["postprocessing/Shape_1","postprocessing/strided_slice_1/stack","postprocessing/strided_slice_1/stack_1","postprocessing/strided_slice_1/stack_2"],"attr":{"end_mask":{"i":"0"},"Index":{"type":"DT_INT32"},"begin_mask":{"i":"0"},"shrink_axis_mask":{"i":"1"},"new_axis_mask":{"i":"0"},"T":{"type":"DT_INT32"},"ellipsis_mask":{"i":"0"}}},
          {"name":"anchor_generator/Tile_3","op":"Tile","input":["anchor_generator/ExpandDims_4","anchor_generator/Tile_3/multiples"],"attr":{"T":{"type":"DT_FLOAT"},"Tmultiples":{"type":"DT_INT32"}}},
          {"name":"anchor_generator/Tile_7","op":"Tile","input":["anchor_generator/ExpandDims_9","anchor_generator/Tile_7/multiples"],"attr":{"T":{"type":"DT_FLOAT"},"Tmultiples":{"type":"DT_INT32"}}},
          {"name":"anchor_generator/add_14","op":"Add","input":["anchor_generator/Reshape_5","anchor_generator/ExpandDims_14"],"attr":{"T":{"type":"DT_FLOAT"}}},
          {"name":"anchor_generator/Reshape_8","op":"Reshape","input":["anchor_generator/stack_14","anchor_generator/Reshape_8/shape"],"attr":{"Tshape":{"type":"DT_INT32"},"T":{"type":"DT_FLOAT"}}},
          {"name":"anchor_generator/Pad_3","op":"Pad","input":["anchor_generator/stack_15","anchor_generator/Pad_3/paddings"],"attr":{"Tpaddings":{"type":"DT_INT32"},"T":{"type":"DT_FLOAT"}}},
          {"name":"anchor_generator/stack_16","op":"Pack","input":["anchor_generator/ExpandDims_20","anchor_generator/ExpandDims_21"],"attr":{"N":{"i":"2"},"T":{"type":"DT_FLOAT"},"axis":{"i":"2"}}},
          {"name":"anchor_generator/meshgrid_4/mul_1","op":"Mul","input":["anchor_generator/meshgrid_4/Reshape_3","anchor_generator/meshgrid_4/ones"],"attr":{"T":{"type":"DT_FLOAT"}}},
          {"name":"anchor_generator/meshgrid_4/mul","op":"Mul","input":["anchor_generator/meshgrid_4/Reshape_2","anchor_generator/meshgrid_4/ones"],"attr":{"T":{"type":"DT_FLOAT"}}},
          {"name":"nms/map/TensorArrayUnstack_1/Shape","op":"Shape","input":["postprocessing/strided_slice_2"],"attr":{"out_type":{"type":"DT_INT32"},"T":{"type":"DT_FLOAT"}}},
          {"name":"postprocessing/decode_predictions/truediv","op":"Mul","input":["postprocessing/decode_predictions/unstack_1","ConstantFolding/postprocessing/decode_predictions/truediv_recip"],"attr":{"T":{"type":"DT_FLOAT"}}},
          {"name":"postprocessing/decode_predictions/truediv_1","op":"Mul","input":["postprocessing/decode_predictions/unstack_1:1","ConstantFolding/postprocessing/decode_predictions/truediv_1_recip"],"attr":{"T":{"type":"DT_FLOAT"}}},
          {"name":"postprocessing/decode_predictions/truediv_2","op":"Mul","input":["postprocessing/decode_predictions/unstack_1:2","ConstantFolding/postprocessing/decode_predictions/truediv_2_recip"],"attr":{"T":{"type":"DT_FLOAT"}}},
          {"name":"postprocessing/decode_predictions/truediv_3","op":"Mul","input":["postprocessing/decode_predictions/unstack_1:3","ConstantFolding/postprocessing/decode_predictions/truediv_3_recip"],"attr":{"T":{"type":"DT_FLOAT"}}},
          {"name":"postprocessing/Tile/multiples","op":"Pack","input":["postprocessing/strided_slice","postprocessing/Tile/multiples/1","postprocessing/Tile/multiples/2"],"attr":{"axis":{"i":"0"},"N":{"i":"3"},"T":{"type":"DT_INT32"}}},
          {"name":"postprocessing/Reshape_2/shape","op":"Pack","input":["postprocessing/strided_slice","postprocessing/strided_slice_1","postprocessing/Reshape_2/shape/2"],"attr":{"axis":{"i":"0"},"T":{"type":"DT_INT32"},"N":{"i":"3"}}},
          {"name":"anchor_generator/add_4","op":"Add","input":["anchor_generator/Reshape_1","anchor_generator/Tile_3"],"attr":{"T":{"type":"DT_FLOAT"}}},
          {"name":"anchor_generator/add_9","op":"Add","input":["anchor_generator/Reshape_3","anchor_generator/Tile_7"],"attr":{"T":{"type":"DT_FLOAT"}}},
          {"name":"anchor_generator/ExpandDims_19","op":"ExpandDims","input":["anchor_generator/Pad_3","anchor_generator/ExpandDims_19/dim"],"attr":{"T":{"type":"DT_FLOAT"},"Tdim":{"type":"DT_INT32"}}},
          {"name":"anchor_generator/stack_18","op":"Pack","input":["anchor_generator/stack_16","anchor_generator/ExpandDims_23"],"attr":{"T":{"type":"DT_FLOAT"},"N":{"i":"2"},"axis":{"i":"2"}}},
          {"name":"anchor_generator/stack_19","op":"Pack","input":["anchor_generator/meshgrid_4/mul_1","anchor_generator/meshgrid_4/mul"],"attr":{"axis":{"i":"2"},"T":{"type":"DT_FLOAT"},"N":{"i":"2"}}},
          {"name":"nms/map/TensorArrayUnstack_1/strided_slice","op":"StridedSlice","input":["nms/map/TensorArrayUnstack_1/Shape","nms/map/TensorArrayUnstack_1/strided_slice/stack","nms/map/TensorArrayUnstack_1/strided_slice/stack_1","nms/map/TensorArrayUnstack_1/strided_slice/stack_2"],"attr":{"begin_mask":{"i":"0"},"end_mask":{"i":"0"},"shrink_axis_mask":{"i":"1"},"new_axis_mask":{"i":"0"},"ellipsis_mask":{"i":"0"},"Index":{"type":"DT_INT32"},"T":{"type":"DT_INT32"}}},
          {"name":"postprocessing/decode_predictions/Exp_1","op":"Exp","input":["postprocessing/decode_predictions/truediv_2"],"attr":{"T":{"type":"DT_FLOAT"}}},
          {"name":"postprocessing/decode_predictions/Exp","op":"Exp","input":["postprocessing/decode_predictions/truediv_3"],"attr":{"T":{"type":"DT_FLOAT"}}},
          {"name":"anchor_generator/concat","op":"ConcatV2","input":["anchor_generator/add_4","anchor_generator/add_9","anchor_generator/add_14","anchor_generator/concat/axis"],"attr":{"T":{"type":"DT_FLOAT"},"Tidx":{"type":"DT_INT32"},"N":{"i":"3"}}},
          {"name":"anchor_generator/add_19","op":"Add","input":["anchor_generator/Reshape_8","anchor_generator/ExpandDims_19"],"attr":{"T":{"type":"DT_FLOAT"}}},
          {"name":"anchor_generator/Reshape_11","op":"Reshape","input":["anchor_generator/stack_18","anchor_generator/Reshape_11/shape"],"attr":{"Tshape":{"type":"DT_INT32"},"T":{"type":"DT_FLOAT"}}},
          {"name":"anchor_generator/Pad_4","op":"Pad","input":["anchor_generator/stack_19","anchor_generator/Pad_4/paddings"],"attr":{"T":{"type":"DT_FLOAT"},"Tpaddings":{"type":"DT_INT32"}}},
…
          {"name":"nms/map/while/Merge_4","op":"Merge","input":["nms/map/while/Enter_4","nms/map/while/NextIteration_4"],"attr":{"T":{"type":"DT_FLOAT"},"N":{"i":"2"}}},
          {"name":"nms/map/while/Merge_3","op":"Merge","input":["nms/map/while/Enter_3","nms/map/while/NextIteration_3"],"attr":{"T":{"type":"DT_FLOAT"},"N":{"i":"2"}}},
          {"name":"nms/map/while/TensorArrayReadV3/Enter_1","op":"Enter","input":["nms/map/TensorArrayUnstack/TensorArrayScatter/TensorArrayScatterV3"],"attr":{"T":{"type":"DT_FLOAT"},"parallel_iterations":{"i":"8"},"is_constant":{"b":true},"frame_name":{"s":"bm1zL21hcC93aGlsZS93aGlsZV9jb250ZXh0"}}},
          {"name":"nms/map/while/TensorArrayReadV3_1/Enter_1","op":"Enter","input":["nms/map/TensorArrayUnstack_1/TensorArrayScatter/TensorArrayScatterV3"],"attr":{"is_constant":{"b":true},"frame_name":{"s":"bm1zL21hcC93aGlsZS93aGlsZV9jb250ZXh0"},"T":{"type":"DT_FLOAT"},"parallel_iterations":{"i":"8"}}},
          {"name":"nms/map/while/LogicalAnd","op":"LogicalAnd","input":["nms/map/while/Less","nms/map/while/Less_1"]},
          {"name":"nms/map/while/LoopCond","op":"LoopCond","input":["nms/map/while/LogicalAnd"]},
          {"name":"nms/map/while/Switch_1","op":"Switch","input":["nms/map/while/Merge_1","nms/map/while/LoopCond"],"attr":{"T":{"type":"DT_INT32"}}},
          {"name":"nms/map/while/Switch","op":"Switch","input":["nms/map/while/Merge","nms/map/while/LoopCond"],"attr":{"T":{"type":"DT_INT32"}}},
          {"name":"nms/map/while/Switch_3","op":"Switch","input":["nms/map/while/Merge_3","nms/map/while/LoopCond"],"attr":{"T":{"type":"DT_FLOAT"}}},
          {"name":"nms/map/while/Switch_2","op":"Switch","input":["nms/map/while/Merge_2","nms/map/while/LoopCond"],"attr":{"T":{"type":"DT_FLOAT"}}},
          {"name":"nms/map/while/Switch_4","op":"Switch","input":["nms/map/while/Merge_4","nms/map/while/LoopCond"],"attr":{"T":{"type":"DT_FLOAT"}}},
          {"name":"nms/map/while/TensorArrayReadV3_1","op":"TensorArrayReadV3","input":["nms/map/while/TensorArrayReadV3_1/Enter","nms/map/while/Switch_1:1","nms/map/while/TensorArrayReadV3_1/Enter_1"],"attr":{"dtype":{"type":"DT_FLOAT"}}},
          {"name":"nms/map/while/TensorArrayReadV3","op":"TensorArrayReadV3","input":["nms/map/while/TensorArrayReadV3/Enter","nms/map/while/Switch_1:1","nms/map/while/TensorArrayReadV3/Enter_1"],"attr":{"dtype":{"type":"DT_FLOAT"}}},
          {"name":"nms/map/while/Identity","op":"Identity","input":["nms/map/while/Switch:1"],"attr":{"T":{"type":"DT_INT32"}}},
          {"name":"nms/map/while/Exit_3","op":"Exit","input":["nms/map/while/Switch_3"],"attr":{"T":{"type":"DT_FLOAT"}}},
          {"name":"nms/map/while/Exit_2","op":"Exit","input":["nms/map/while/Switch_2"],"attr":{"T":{"type":"DT_FLOAT"}}},
          {"name":"nms/map/while/Exit_4","op":"Exit","input":["nms/map/while/Switch_4"],"attr":{"T":{"type":"DT_FLOAT"}}},
          {"name":"nms/map/while/Pad/paddings/0/0","op":"Const","input":["^nms/map/while/Identity"],"attr":{"dtype":{"type":"DT_INT32"},"value":{"tensor":{"dtype":"DT_INT32","tensorShape":{}}}}},
          {"name":"nms/map/while/Pad/paddings/1_1","op":"Const","input":["^nms/map/while/Identity"],"attr":{"value":{"tensor":{"dtype":"DT_INT32","tensorShape":{"dim":[{"size":"2"}]}}},"dtype":{"type":"DT_INT32"}}},
          {"name":"nms/map/while/GatherV2_3/axis","op":"Const","input":["^nms/map/while/Identity"],"attr":{"dtype":{"type":"DT_INT32"},"value":{"tensor":{"dtype":"DT_INT32","tensorShape":{}}}}},
          {"name":"nms/map/while/Pad_1/paddings/0/0","op":"Const","input":["^nms/map/while/Identity"],"attr":{"value":{"tensor":{"dtype":"DT_INT32","tensorShape":{}}},"dtype":{"type":"DT_INT32"}}},
          {"name":"nms/map/while/sub/x","op":"Const","input":["^nms/map/while/Identity"],"attr":{"value":{"tensor":{"dtype":"DT_INT32","tensorShape":{}}},"dtype":{"type":"DT_INT32"}}},
          {"name":"nms/map/while/GatherV2/axis","op":"Const","input":["^nms/map/while/Identity"],"attr":{"value":{"tensor":{"dtype":"DT_INT32","tensorShape":{}}},"dtype":{"type":"DT_INT32"}}},
          {"name":"nms/map/while/GreaterEqual/y","op":"Const","input":["^nms/map/while/Identity"],"attr":{"dtype":{"type":"DT_FLOAT"},"value":{"tensor":{"dtype":"DT_FLOAT","tensorShape":{}}}}},
          {"name":"nms/map/while/GatherV2_1/axis","op":"Const","input":["^nms/map/while/Identity"],"attr":{"dtype":{"type":"DT_INT32"},"value":{"tensor":{"dtype":"DT_INT32","tensorShape":{}}}}},
          {"name":"nms/map/while/non_max_suppression/NonMaxSuppressionV3/max_output_size","op":"Const","input":["^nms/map/while/Identity"],"attr":{"value":{"tensor":{"dtype":"DT_INT32","tensorShape":{}}},"dtype":{"type":"DT_INT32"}}},
          {"name":"nms/map/while/non_max_suppression/iou_threshold","op":"Const","input":["^nms/map/while/Identity"],"attr":{"value":{"tensor":{"dtype":"DT_FLOAT","tensorShape":{}}},"dtype":{"type":"DT_FLOAT"}}},
          {"name":"nms/map/while/non_max_suppression/score_threshold","op":"Const","input":["^nms/map/while/Identity"],"attr":{"dtype":{"type":"DT_FLOAT"},"value":{"tensor":{"dtype":"DT_FLOAT","tensorShape":{}}}}},
          {"name":"nms/map/while/GatherV2_2/axis","op":"Const","input":["^nms/map/while/Identity"],"attr":{"dtype":{"type":"DT_INT32"},"value":{"tensor":{"dtype":"DT_INT32","tensorShape":{}}}}},
          {"name":"nms/map/while/strided_slice/stack","op":"Const","input":["^nms/map/while/Identity"],"attr":{"value":{"tensor":{"dtype":"DT_INT32","tensorShape":{"dim":[{"size":"1"}]}}},"dtype":{"type":"DT_INT32"}}},
          {"name":"nms/map/while/strided_slice/stack_1","op":"Const","input":["^nms/map/while/Identity"],"attr":{"dtype":{"type":"DT_INT32"},"value":{"tensor":{"dtype":"DT_INT32","tensorShape":{"dim":[{"size":"1"}]}}}}},
          {"name":"nms/map/while/strided_slice/stack_2","op":"Const","input":["^nms/map/while/Identity"],"attr":{"dtype":{"type":"DT_INT32"},"value":{"tensor":{"dtype":"DT_INT32","tensorShape":{"dim":[{"size":"1"}]}}}}},
          {"name":"nms/map/while/add/y","op":"Const","input":["^nms/map/while/Identity"],"attr":{"value":{"tensor":{"dtype":"DT_INT32","tensorShape":{}}},"dtype":{"type":"DT_INT32"}}},
          {"name":"nms/map/while/add_1/y","op":"Const","input":["^nms/map/while/Identity"],"attr":{"dtype":{"type":"DT_INT32"},"value":{"tensor":{"dtype":"DT_INT32","tensorShape":{}}}}},
          {"name":"nms/map/TensorArrayStack_1/TensorArraySizeV3","op":"TensorArraySizeV3","input":["nms/map/TensorArray_3","nms/map/while/Exit_3"]},
          {"name":"nms/map/TensorArrayStack/TensorArraySizeV3","op":"TensorArraySizeV3","input":["nms/map/TensorArray_2","nms/map/while/Exit_2"]},
          {"name":"nms/map/TensorArrayStack_2/TensorArraySizeV3","op":"TensorArraySizeV3","input":["nms/map/TensorArray_4","nms/map/while/Exit_4"]},
          {"name":"nms/map/while/GreaterEqual","op":"GreaterEqual","input":["nms/map/while/TensorArrayReadV3_1","nms/map/while/GreaterEqual/y"],"attr":{"T":{"type":"DT_FLOAT"}}},
          {"name":"nms/map/while/add","op":"Add","input":["nms/map/while/Identity","nms/map/while/add/y"],"attr":{"T":{"type":"DT_INT32"}}},
          {"name":"nms/map/while/add_1","op":"Add","input":["nms/map/while/Switch_1:1","nms/map/while/add_1/y"],"attr":{"T":{"type":"DT_INT32"}}},
          {"name":"nms/map/TensorArrayStack_1/range","op":"Range","input":["nms/map/TensorArrayStack_1/range/start","nms/map/TensorArrayStack_1/TensorArraySizeV3","nms/map/TensorArrayStack_1/range/delta"],"attr":{"Tidx":{"type":"DT_INT32"}}},
          {"name":"nms/map/TensorArrayStack/range","op":"Range","input":["nms/map/TensorArrayStack/range/start","nms/map/TensorArrayStack/TensorArraySizeV3","nms/map/TensorArrayStack/range/delta"],"attr":{"Tidx":{"type":"DT_INT32"}}},
          {"name":"nms/map/TensorArrayStack_2/range","op":"Range","input":["nms/map/TensorArrayStack_2/range/start","nms/map/TensorArrayStack_2/TensorArraySizeV3","nms/map/TensorArrayStack_2/range/delta"],"attr":{"Tidx":{"type":"DT_INT32"}}},
          {"name":"nms/map/while/Where","op":"Where","input":["nms/map/while/GreaterEqual"],"attr":{"T":{"type":"DT_BOOL"}}},
          {"name":"nms/map/while/NextIteration","op":"NextIteration","input":["nms/map/while/add"],"attr":{"T":{"type":"DT_INT32"}}},
          {"name":"nms/map/while/NextIteration_1","op":"NextIteration","input":["nms/map/while/add_1"],"attr":{"T":{"type":"DT_INT32"}}},
          {"name":"nms/map/TensorArrayStack_1/TensorArrayGatherV3","op":"TensorArrayGatherV3","input":["nms/map/TensorArray_3","nms/map/TensorArrayStack_1/range","nms/map/while/Exit_3"],"attr":{"element_shape":{"shape":{"dim":[{"size":"200"}]}},"dtype":{"type":"DT_FLOAT"}}},
          {"name":"nms/map/TensorArrayStack/TensorArrayGatherV3","op":"TensorArrayGatherV3","input":["nms/map/TensorArray_2","nms/map/TensorArrayStack/range","nms/map/while/Exit_2"],"attr":{"dtype":{"type":"DT_FLOAT"},"element_shape":{"shape":{"dim":[{"size":"200"},{"size":"4"}]}}}},
          {"name":"nms/map/TensorArrayStack_2/TensorArrayGatherV3","op":"TensorArrayGatherV3","input":["nms/map/TensorArray_4","nms/map/TensorArrayStack_2/range","nms/map/while/Exit_4"],"attr":{"element_shape":{"shape":{}},"dtype":{"type":"DT_INT32"}}},
          {"name":"nms/map/while/Squeeze","op":"Squeeze","input":["nms/map/while/Where"],"attr":{"T":{"type":"DT_INT64"},"squeeze_dims":{"list":{"i":["1"]}}}},
          {"name":"scores","op":"Identity","input":["nms/map/TensorArrayStack_1/TensorArrayGatherV3"],"attr":{"T":{"type":"DT_FLOAT"}}},
          {"name":"boxes","op":"Identity","input":["nms/map/TensorArrayStack/TensorArrayGatherV3"],"attr":{"T":{"type":"DT_FLOAT"}}},
          {"name":"num_boxes","op":"Identity","input":["nms/map/TensorArrayStack_2/TensorArrayGatherV3"],"attr":{"T":{"type":"DT_INT32"}}},
          {"name":"nms/map/while/GatherV2_1","op":"GatherV2","input":["nms/map/while/TensorArrayReadV3_1","nms/map/while/Squeeze","nms/map/while/GatherV2_1/axis"],"attr":{"Tparams":{"type":"DT_FLOAT"},"batch_dims":{"i":"0"},"Tindices":{"type":"DT_INT64"},"Taxis":{"type":"DT_INT32"}}},
          {"name":"nms/map/while/GatherV2","op":"GatherV2","input":["nms/map/while/TensorArrayReadV3","nms/map/while/Squeeze","nms/map/while/GatherV2/axis"],"attr":{"batch_dims":{"i":"0"},"Tparams":{"type":"DT_FLOAT"},"Tindices":{"type":"DT_INT64"},"Taxis":{"type":"DT_INT32"}}},
          {"name":"nms/map/while/non_max_suppression/NonMaxSuppressionV3","op":"NonMaxSuppressionV3","input":["nms/map/while/GatherV2","nms/map/while/GatherV2_1","nms/map/while/non_max_suppression/NonMaxSuppressionV3/max_output_size","nms/map/while/non_max_suppression/iou_threshold","nms/map/while/non_max_suppression/score_threshold"],"attr":{"T":{"type":"DT_FLOAT"},"T_threshold":{"type":"DT_FLOAT"}}},
          {"name":"nms/map/while/GatherV2_3","op":"GatherV2","input":["nms/map/while/GatherV2_1","nms/map/while/non_max_suppression/NonMaxSuppressionV3","nms/map/while/GatherV2_3/axis"],"attr":{"batch_dims":{"i":"0"},"Taxis":{"type":"DT_INT32"},"Tparams":{"type":"DT_FLOAT"},"Tindices":{"type":"DT_INT32"}}},
          {"name":"nms/map/while/GatherV2_2","op":"GatherV2","input":["nms/map/while/GatherV2","nms/map/while/non_max_suppression/NonMaxSuppressionV3","nms/map/while/GatherV2_2/axis"],"attr":{"Tindices":{"type":"DT_INT32"},"batch_dims":{"i":"0"},"Tparams":{"type":"DT_FLOAT"},"Taxis":{"type":"DT_INT32"}}},
          {"name":"nms/map/while/Shape","op":"Shape","input":["nms/map/while/GatherV2_2"],"attr":{"out_type":{"type":"DT_INT32"},"T":{"type":"DT_FLOAT"}}},
          {"name":"nms/map/while/strided_slice","op":"StridedSlice","input":["nms/map/while/Shape","nms/map/while/strided_slice/stack","nms/map/while/strided_slice/stack_1","nms/map/while/strided_slice/stack_2"],"attr":{"begin_mask":{"i":"0"},"T":{"type":"DT_INT32"},"shrink_axis_mask":{"i":"1"},"end_mask":{"i":"0"},"Index":{"type":"DT_INT32"},"ellipsis_mask":{"i":"0"},"new_axis_mask":{"i":"0"}}},
          {"name":"nms/map/while/TensorArrayWrite_2/TensorArrayWriteV3","op":"TensorArrayWriteV3","input":["nms/map/while/TensorArrayWrite_2/TensorArrayWriteV3/Enter","nms/map/while/Switch_1:1","nms/map/while/strided_slice","nms/map/while/Switch_4:1"],"attr":{"T":{"type":"DT_INT32"}}},
          {"name":"nms/map/while/sub","op":"Sub","input":["nms/map/while/sub/x","nms/map/while/strided_slice"],"attr":{"T":{"type":"DT_INT32"}}},
          {"name":"nms/map/while/NextIteration_4","op":"NextIteration","input":["nms/map/while/TensorArrayWrite_2/TensorArrayWriteV3"],"attr":{"T":{"type":"DT_FLOAT"}}},
          {"name":"nms/map/while/Pad/paddings/0","op":"Pack","input":["nms/map/while/Pad/paddings/0/0","nms/map/while/sub"],"attr":{"N":{"i":"2"},"T":{"type":"DT_INT32"},"axis":{"i":"0"}}},
          {"name":"nms/map/while/Pad_1/paddings/0","op":"Pack","input":["nms/map/while/Pad_1/paddings/0/0","nms/map/while/sub"],"attr":{"axis":{"i":"0"},"N":{"i":"2"},"T":{"type":"DT_INT32"}}},
          {"name":"nms/map/while/Pad/paddings","op":"Pack","input":["nms/map/while/Pad/paddings/0","nms/map/while/Pad/paddings/1_1"],"attr":{"axis":{"i":"0"},"T":{"type":"DT_INT32"},"N":{"i":"2"}}},
          {"name":"ConstantFolding/nms/map/while/Pad_1/paddings_const_axis","op":"Const","input":["^nms/map/while/Pad_1/paddings/0"],"attr":{"value":{"tensor":{"dtype":"DT_INT32","tensorShape":{}}},"dtype":{"type":"DT_INT32"}}},
          {"name":"nms/map/while/Pad","op":"Pad","input":["nms/map/while/GatherV2_2","nms/map/while/Pad/paddings"],"attr":{"Tpaddings":{"type":"DT_INT32"},"T":{"type":"DT_FLOAT"}}},
          {"name":"nms/map/while/Pad_1/paddings","op":"ExpandDims","input":["nms/map/while/Pad_1/paddings/0","ConstantFolding/nms/map/while/Pad_1/paddings_const_axis"],"attr":{"Tdim":{"type":"DT_INT32"},"T":{"type":"DT_INT32"}}},
          {"name":"nms/map/while/TensorArrayWrite/TensorArrayWriteV3","op":"TensorArrayWriteV3","input":["nms/map/while/TensorArrayWrite/TensorArrayWriteV3/Enter","nms/map/while/Switch_1:1","nms/map/while/Pad","nms/map/while/Switch_2:1"],"attr":{"T":{"type":"DT_FLOAT"}}},
          {"name":"nms/map/while/Pad_1","op":"Pad","input":["nms/map/while/GatherV2_3","nms/map/while/Pad_1/paddings"],"attr":{"Tpaddings":{"type":"DT_INT32"},"T":{"type":"DT_FLOAT"}}},
          {"name":"nms/map/while/NextIteration_2","op":"NextIteration","input":["nms/map/while/TensorArrayWrite/TensorArrayWriteV3"],"attr":{"T":{"type":"DT_FLOAT"}}},
          {"name":"nms/map/while/TensorArrayWrite_1/TensorArrayWriteV3","op":"TensorArrayWriteV3","input":["nms/map/while/TensorArrayWrite_1/TensorArrayWriteV3/Enter","nms/map/while/Switch_1:1","nms/map/while/Pad_1","nms/map/while/Switch_3:1"],"attr":{"T":{"type":"DT_FLOAT"}}},
          {"name":"nms/map/while/NextIteration_3","op":"NextIteration","input":["nms/map/while/TensorArrayWrite_1/TensorArrayWriteV3"],"attr":{"T":{"type":"DT_FLOAT"}}}
      ],
      "library": {},
      "versions": {}
  },
  "weightsManifest":
  [
      {
          "paths": ["faceboxes.bin"],
          "weights": [{"name":"nms/map/TensorArrayStack/range/start","shape":[],"dtype":"int32"},{"name":"nms/map/TensorArrayStack/range/delta","shape":[],"dtype":"int32"},{"name":"nms/map/TensorArrayStack_2/range/start","shape":[],"dtype":"int32"},{"name":"nms/map/TensorArrayStack_2/range/delta","shape":[],"dtype":"int32"},{"name":"nms/map/TensorArrayStack_1/range/start","shape":[],"dtype":"int32"},{"name":"nms/map/TensorArrayStack_1/range/delta","shape":[],"dtype":"int32"},{"name":"nms/map/TensorArrayUnstack/range/start","shape":[],"dtype":"int32"},{"name":"nms/map/TensorArrayUnstack/strided_slice/stack","shape":[1],"dtype":"int32"},{"name":"nms/map/TensorArrayUnstack/strided_slice/stack_1","shape":[1],"dtype":"int32"},{"name":"nms/map/TensorArrayUnstack/strided_slice/stack_2","shape":[1],"dtype":"int32"},{"name":"nms/map/TensorArrayUnstack/range/delta","shape":[],"dtype":"int32"},{"name":"nms/map/TensorArrayUnstack_1/range/start","shape":[],"dtype":"int32"},{"name":"nms/map/TensorArrayUnstack_1/strided_slice/stack","shape":[1],"dtype":"int32"},{"name":"nms/map/TensorArrayUnstack_1/strided_slice/stack_1","shape":[1],"dtype":"int32"},{"name":"nms/map/TensorArrayUnstack_1/strided_slice/stack_2","shape":[1],"dtype":"int32"},{"name":"nms/map/TensorArrayUnstack_1/range/delta","shape":[],"dtype":"int32"},{"name":"prediction_layers/class_predictor_0/weights","shape":[3,3,128,42],"dtype":"float32","quantization":{"dtype":"float16","original_dtype":"float32"}},{"name":"prediction_layers/class_predictor_0/biases","shape":[42],"dtype":"float32","quantization":{"dtype":"float16","original_dtype":"float32"}},{"name":"reshaping/stack_1/2","shape":[],"dtype":"int32"},{"name":"prediction_layers/class_predictor_1/weights","shape":[3,3,256,2],"dtype":"float32","quantization":{"dtype":"float16","original_dtype":"float32"}},{"name":"prediction_layers/class_predictor_1/biases","shape":[2],"dtype":"float32","quantization":{"dtype":"float16","original_dtype":"float32"}},{"name":"reshaping/stack_3/2","shape":[],"dtype":"int32"},{"name":"prediction_layers/class_predictor_2/weights","shape":[3,3,256,2],"dtype":"float32","quantization":{"dtype":"float16","original_dtype":"float32"}},{"name":"prediction_layers/class_predictor_2/biases","shape":[2],"dtype":"float32","quantization":{"dtype":"float16","original_dtype":"float32"}},{"name":"reshaping/stack_5/2","shape":[],"dtype":"int32"},{"name":"reshaping/concat_1/axis","shape":[],"dtype":"int32"},{"name":"postprocessing/strided_slice_2/stack","shape":[3],"dtype":"int32"},{"name":"postprocessing/strided_slice_2/stack_1","shape":[3],"dtype":"int32"},{"name":"postprocessing/strided_slice_2/stack_2","shape":[3],"dtype":"int32"},{"name":"nms/map/Const","shape":[],"dtype":"int32"},{"name":"nms/map/while/iteration_counter","shape":[],"dtype":"int32"},{"name":"postprocessing/decode_predictions/to_minmax_coordinates/mul/x","shape":[],"dtype":"float32","quantization":{"dtype":"float16","original_dtype":"float32"}},{"name":"postprocessing/decode_predictions/to_minmax_coordinates/mul_1/x","shape":[],"dtype":"float32","quantization":{"dtype":"float16","original_dtype":"float32"}},{"name":"ConstantFolding/postprocessing/decode_predictions/truediv_recip","shape":[],"dtype":"float32","quantization":{"dtype":"float16","original_dtype":"float32"}},{"name":"postprocessing/decode_predictions/to_center_coordinates/mul/x","shape":[],"dtype":"float32","quantization":{"dtype":"float16","original_dtype":"float32"}},{"name":"postprocessing/decode_predictions/to_minmax_coordinates/mul_2/x","shape":[],"dtype":"float32","quantization":{"dtype":"float16","original_dtype":"float32"}},{"name":"ConstantFolding/postprocessing/decode_predictions/truediv_2_recip","shape":[],"dtype":"float32","quantization":{"dtype":"float16","original_dtype":"float32"}},{"name":"ConstantFolding/postprocessing/decode_predictions/truediv_1_recip","shape":[],"dtype":"float32","quantization":{"dtype":"float16","original_dtype":"float32"}},{"name":"postprocessing/decode_predictions/to_center_coordinates/mul_1/x","shape":[],"dtype":"float32","quantization":{"dtype":"float16","original_dtype":"float32"}},{"name":"postprocessing/decode_predictions/to_minmax_coordinates/mul_3/x","shape":[],"dtype":"float32","quantization":{"dtype":"float16","original_dtype":"float32"}},{"name":"postprocessing/Reshape/shape","shape":[2],"dtype":"int32"},{"name":"ConstantFolding/postprocessing/decode_predictions/truediv_3_recip","shape":[],"dtype":"float32","quantization":{"dtype":"float16","original_dtype":"float32"}},{"name":"concatenate/to_minmax_coordinates/mul/x","shape":[],"dtype":"float32","quantization":{"dtype":"float16","original_dtype":"float32"}},{"name":"concatenate/to_minmax_coordinates/mul_1/x","shape":[],"dtype":"float32","quantization":{"dtype":"float16","original_dtype":"float32"}},{"name":"concatenate/to_minmax_coordinates/mul_2/x","shape":[],"dtype":"float32","quantization":{"dtype":"float16","original_dtype":"float32"}},{"name":"concatenate/to_minmax_coordinates/mul_3/x","shape":[],"dtype":"float32","quantization":{"dtype":"float16","original_dtype":"float32"}},{"name":"anchor_generator/mul_1/x","shape":[],"dtype":"float32","quantization":{"dtype":"float16","original_dtype":"float32"}},{"name":"anchor_generator/mul_3/x","shape":[],"dtype":"float32","quantization":{"dtype":"float16","original_dtype":"float32"}},{"name":"ConstantFolding/anchor_generator/truediv_7_recip","shape":[],"dtype":"float32","quantization":{"dtype":"float16","original_dtype":"float32"}},{"name":"anchor_generator/ExpandDims/dim","shape":[],"dtype":"int32"},{"name":"anchor_generator/Tile/multiples","shape":[2],"dtype":"int32"},{"name":"anchor_generator/mul_2/x","shape":[],"dtype":"float32","quantization":{"dtype":"float16","original_dtype":"float32"}},{"name":"anchor_generator/mul_5/x","shape":[],"dtype":"float32","quantization":{"dtype":"float16","original_dtype":"float32"}},{"name":"ConstantFolding/anchor_generator/truediv_8_recip","shape":[],"dtype":"float32","quantization":{"dtype":"float16","original_dtype":"float32"}},{"name":"anchor_generator/ToFloat_6","shape":[4],"dtype":"float32","quantization":{"dtype":"float16","original_dtype":"float32"}},{"name":"anchor_generator/ExpandDims_1/dim","shape":[],"dtype":"int32"},{"name":"anchor_generator/Tile_1/multiples","shape":[2],"dtype":"int32"},{"name":"anchor_generator/truediv_4","shape":[],"dtype":"float32","quantization":{"dtype":"float16","original_dtype":"float32"}},{"name":"anchor_generator/mul","shape":[],"dtype":"float32","quantization":{"dtype":"float16","original_dtype":"float32"}},{"name":"anchor_generator/ExpandDims_2/dim","shape":[],"dtype":"int32"},{"name":"anchor_generator/ExpandDims_3/dim","shape":[],"dtype":"int32"},{"name":"anchor_generator/Tile_2/multiples","shape":[3],"dtype":"int32"},{"name":"anchor_generator/Reshape_1/shape","shape":[4],"dtype":"int32"},{"name":"anchor_generator/meshgrid/Reshape_3/shape","shape":[2],"dtype":"int32"},{"name":"anchor_generator/meshgrid/Reshape_2/shape","shape":[2],"dtype":"int32"},{"name":"anchor_generator/range_1/start","shape":[],"dtype":"int32"},{"name":"anchor_generator/range_1/delta","shape":[],"dtype":"int32"},{"name":"anchor_generator/range_2/start","shape":[],"dtype":"int32"},{"name":"anchor_generator/range_2/delta","shape":[],"dtype":"int32"},{"name":"anchor_generator/meshgrid/ones/Const","shape":[],"dtype":"float32","quantization":{"dtype":"float16","original_dtype":"float32"}},{"name":"anchor_generator/Pad/paddings","shape":[3,2],"dtype":"int32"},{"name":"anchor_generator/ExpandDims_4/dim","shape":[],"dtype":"int32"},{"name":"anchor_generator/Tile_3/multiples","shape":[4],"dtype":"int32"},{"name":"anchor_generator/mul_10/x","shape":[],"dtype":"float32","quantization":{"dtype":"float16","original_dtype":"float32"}},{"name":"anchor_generator/mul_12/x","shape":[],"dtype":"float32","quantization":{"dtype":"float16","original_dtype":"float32"}},{"name":"ConstantFolding/anchor_generator/truediv_12_recip","shape":[],"dtype":"float32","quantization":{"dtype":"float16","original_dtype":"float32"}},{"name":"anchor_generator/ExpandDims_5/dim","shape":[],"dtype":"int32"},{"name":"anchor_generator/Tile_4/multiples","shape":[2],"dtype":"int32"},{"name":"anchor_generator/mul_11/x","shape":[],"dtype":"float32","quantization":{"dtype":"float16","original_dtype":"float32"}},{"name":"anchor_generator/mul_14/x","shape":[],"dtype":"float32","quantization":{"dtype":"float16","original_dtype":"float32"}},{"name":"ConstantFolding/anchor_generator/truediv_13_recip","shape":[],"dtype":"float32","quantization":{"dtype":"float16","original_dtype":"float32"}},{"name":"anchor_generator/ToFloat_11","shape":[2],"dtype":"float32","quantization":{"dtype":"float16","original_dtype":"float32"}},{"name":"anchor_generator/ExpandDims_6/dim","shape":[],"dtype":"int32"},{"name":"anchor_generator/Tile_5/multiples","shape":[2],"dtype":"int32"},{"name":"anchor_generator/truediv_9","shape":[],"dtype":"float32","quantization":{"dtype":"float16","original_dtype":"float32"}},{"name":"anchor_generator/mul_9","shape":[],"dtype":"float32","quantization":{"dtype":"float16","original_dtype":"float32"}},{"name":"anchor_generator/ExpandDims_7/dim","shape":[],"dtype":"int32"},{"name":"anchor_generator/ExpandDims_8/dim","shape":[],"dtype":"int32"},{"name":"anchor_generator/Tile_6/multiples","shape":[3],"dtype":"int32"},{"name":"anchor_generator/Reshape_3/shape","shape":[4],"dtype":"int32"},{"name":"anchor_generator/meshgrid_1/Reshape_3/shape","shape":[2],"dtype":"int32"},{"name":"anchor_generator/meshgrid_1/Reshape_2/shape","shape":[2],"dtype":"int32"},{"name":"anchor_generator/range_4/start","shape":[],"dtype":"int32"},{"name":"anchor_generator/range_4/delta","shape":[],"dtype":"int32"},{"name":"anchor_generator/range_5/start","shape":[],"dtype":"int32"},{"name":"anchor_generator/range_5/delta","shape":[],"dtype":"int32"},{"name":"anchor_generator/meshgrid_1/ones/Const","shape":[],"dtype":"float32","quantization":{"dtype":"float16","original_dtype":"float32"}},{"name":"anchor_generator/Pad_1/paddings","shape":[3,2],"dtype":"int32"},{"name":"anchor_generator/ExpandDims_9/dim","shape":[],"dtype":"int32"},{"name":"anchor_generator/Tile_7/multiples","shape":[4],"dtype":"int32"},{"name":"anchor_generator/truediv_2/x","shape":[],"dtype":"float32","quantization":{"dtype":"float16","original_dtype":"float32"}},{"name":"anchor_generator/mul_19/x","shape":[],"dtype":"float32","quantization":{"dtype":"float16","original_dtype":"float32"}},{"name":"anchor_generator/mul_21/x","shape":[],"dtype":"float32","quantization":{"dtype":"float16","original_dtype":"float32"}},{"name":"anchor_generator/ExpandDims_10/dim","shape":[],"dtype":"int32"},{"name":"anchor_generator/truediv_3/x","shape":[],"dtype":"float32","quantization":{"dtype":"float16","original_dtype":"float32"}},{"name":"anchor_generator/mul_20/x","shape":[],"dtype":"float32","quantization":{"dtype":"float16","original_dtype":"float32"}},{"name":"anchor_generator/mul_23/x","shape":[],"dtype":"float32","quantization":{"dtype":"float16","original_dtype":"float32"}},{"name":"anchor_generator/ExpandDims_11/dim","shape":[],"dtype":"int32"},{"name":"anchor_generator/truediv_14","shape":[],"dtype":"float32","quantization":{"dtype":"float16","original_dtype":"float32"}},{"name":"anchor_generator/mul_18","shape":[],"dtype":"float32","quantization":{"dtype":"float16","original_dtype":"float32"}},{"name":"anchor_generator/ExpandDims_12/dim","shape":[],"dtype":"int32"},{"name":"anchor_generator/ExpandDims_13/dim","shape":[],"dtype":"int32"},{"name":"anchor_generator/Reshape_5/shape","shape":[4],"dtype":"int32"},{"name":"anchor_generator/meshgrid_2/Reshape_3/shape","shape":[2],"dtype":"int32"},{"name":"anchor_generator/meshgrid_2/Reshape_2/shape","shape":[2],"dtype":"int32"},{"name":"anchor_generator/range_7/start","shape":[],"dtype":"int32"},{"name":"anchor_generator/range_7/delta","shape":[],"dtype":"int32"},{"name":"strided_slice_2/stack","shape":[1],"dtype":"int32"},{"name":"strided_slice_2/stack_1","shape":[1],"dtype":"int32"},{"name":"strided_slice_2/stack_2","shape":[1],"dtype":"int32"},{"name":"anchor_generator/range_8/start","shape":[],"dtype":"int32"},{"name":"anchor_generator/range_8/delta","shape":[],"dtype":"int32"},{"name":"strided_slice_3/stack","shape":[1],"dtype":"int32"},{"name":"strided_slice_3/stack_1","shape":[1],"dtype":"int32"},{"name":"strided_slice_3/stack_2","shape":[1],"dtype":"int32"},{"name":"anchor_generator/meshgrid_2/ones/Const","shape":[],"dtype":"float32","quantization":{"dtype":"float16","original_dtype":"float32"}},{"name":"anchor_generator/Pad_2/paddings","shape":[3,2],"dtype":"int32"},{"name":"anchor_generator/ExpandDims_14/dim","shape":[],"dtype":"int32"},{"name":"anchor_generator/concat/axis","shape":[],"dtype":"int32"},{"name":"anchor_generator/Reshape_6/shape","shape":[2],"dtype":"int32"},{"name":"anchor_generator/truediv_21/x","shape":[],"dtype":"float32","quantization":{"dtype":"float16","original_dtype":"float32"}},{"name":"anchor_generator/mul_30/x","shape":[],"dtype":"float32","quantization":{"dtype":"float16","original_dtype":"float32"}},{"name":"anchor_generator/mul_32/x","shape":[],"dtype":"float32","quantization":{"dtype":"float16","original_dtype":"float32"}},{"name":"anchor_generator/ExpandDims_15/dim","shape":[],"dtype":"int32"},{"name":"anchor_generator/truediv_22/x","shape":[],"dtype":"float32","quantization":{"dtype":"float16","original_dtype":"float32"}},{"name":"anchor_generator/mul_31/x","shape":[],"dtype":"float32","quantization":{"dtype":"float16","original_dtype":"float32"}},{"name":"anchor_generator/mul_34/x","shape":[],"dtype":"float32","quantization":{"dtype":"float16","original_dtype":"float32"}},{"name":"anchor_generator/ExpandDims_16/dim","shape":[],"dtype":"int32"},{"name":"anchor_generator/truediv_23","shape":[],"dtype":"float32","quantization":{"dtype":"float16","original_dtype":"float32"}},{"name":"anchor_generator/mul_29","shape":[],"dtype":"float32","quantization":{"dtype":"float16","original_dtype":"float32"}},{"name":"anchor_generator/ExpandDims_17/dim","shape":[],"dtype":"int32"},{"name":"anchor_generator/ExpandDims_18/dim","shape":[],"dtype":"int32"},{"name":"anchor_generator/Reshape_8/shape","shape":[4],"dtype":"int32"},{"name":"anchor_generator/meshgrid_3/Reshape_3/shape","shape":[2],"dtype":"int32"},{"name":"anchor_generator/meshgrid_3/Reshape_2/shape","shape":[2],"dtype":"int32"},{"name":"anchor_generator/range_10/start","shape":[],"dtype":"int32"},{"name":"anchor_generator/range_10/delta","shape":[],"dtype":"int32"},{"name":"strided_slice_4/stack","shape":[1],"dtype":"int32"},{"name":"strided_slice_4/stack_1","shape":[1],"dtype":"int32"},{"name":"strided_slice_4/stack_2","shape":[1],"dtype":"int32"},{"name":"anchor_generator/range_11/start","shape":[],"dtype":"int32"},{"name":"anchor_generator/range_11/delta","shape":[],"dtype":"int32"},{"name":"strided_slice_5/stack","shape":[1],"dtype":"int32"},{"name":"strided_slice_5/stack_1","shape":[1],"dtype":"int32"},{"name":"strided_slice_5/stack_2","shape":[1],"dtype":"int32"},{"name":"anchor_generator/meshgrid_3/ones/Const","shape":[],"dtype":"float32","quantization":{"dtype":"float16","original_dtype":"float32"}},{"name":"anchor_generator/Pad_3/paddings","shape":[3,2],"dtype":"int32"},{"name":"anchor_generator/ExpandDims_19/dim","shape":[],"dtype":"int32"},{"name":"anchor_generator/Reshape_9/shape","shape":[2],"dtype":"int32"},{"name":"anchor_generator/truediv_30/x","shape":[],"dtype":"float32","quantization":{"dtype":"float16","original_dtype":"float32"}},{"name":"anchor_generator/mul_41/x","shape":[],"dtype":"float32","quantization":{"dtype":"float16","original_dtype":"float32"}},{"name":"anchor_generator/mul_43/x","shape":[],"dtype":"float32","quantization":{"dtype":"float16","original_dtype":"float32"}},{"name":"anchor_generator/ExpandDims_20/dim","shape":[],"dtype":"int32"},{"name":"anchor_generator/truediv_31/x","shape":[],"dtype":"float32","quantization":{"dtype":"float16","original_dtype":"float32"}},{"name":"anchor_generator/mul_42/x","shape":[],"dtype":"float32","quantization":{"dtype":"float16","original_dtype":"float32"}},{"name":"anchor_generator/mul_45/x","shape":[],"dtype":"float32","quantization":{"dtype":"float16","original_dtype":"float32"}},{"name":"anchor_generator/ExpandDims_21/dim","shape":[],"dtype":"int32"},{"name":"anchor_generator/truediv_32","shape":[],"dtype":"float32","quantization":{"dtype":"float16","original_dtype":"float32"}},{"name":"anchor_generator/mul_40","shape":[],"dtype":"float32","quantization":{"dtype":"float16","original_dtype":"float32"}},{"name":"anchor_generator/ExpandDims_22/dim","shape":[],"dtype":"int32"},{"name":"anchor_generator/ExpandDims_23/dim","shape":[],"dtype":"int32"},{"name":"anchor_generator/Reshape_11/shape","shape":[4],"dtype":"int32"},{"name":"anchor_generator/meshgrid_4/Reshape_3/shape","shape":[2],"dtype":"int32"},{"name":"anchor_generator/meshgrid_4/Reshape_2/shape","shape":[2],"dtype":"int32"},{"name":"anchor_generator/range_13/start","shape":[],"dtype":"int32"},{"name":"anchor_generator/range_13/delta","shape":[],"dtype":"int32"},{"name":"strided_slice_6/stack","shape":[1],"dtype":"int32"},{"name":"strided_slice_6/stack_1","shape":[1],"dtype":"int32"},{"name":"strided_slice_6/stack_2","shape":[1],"dtype":"int32"},{"name":"anchor_generator/range_14/start","shape":[],"dtype":"int32"},{"name":"anchor_generator/range_14/delta","shape":[],"dtype":"int32"},{"name":"strided_slice_7/stack","shape":[1],"dtype":"int32"},{"name":"strided_slice_7/stack_1","shape":[1],"dtype":"int32"},{"name":"strided_slice_7/stack_2","shape":[1],"dtype":"int32"},{"name":"anchor_generator/meshgrid_4/ones/Const","shape":[],"dtype":"float32","quantization":{"dtype":"float16","original_dtype":"float32"}},{"name":"anchor_generator/Pad_4/paddings","shape":[3,2],"dtype":"int32"},{"name":"anchor_generator/ExpandDims_24/dim","shape":[],"dtype":"int32"},{"name":"anchor_generator/Reshape_12/shape","shape":[2],"dtype":"int32"},{"name":"concatenate/concat/axis","shape":[],"dtype":"int32"},{"name":"concatenate/clip_by_value/Minimum/y","shape":[],"dtype":"float32","quantization":{"dtype":"float16","original_dtype":"float32"}},{"name":"concatenate/clip_by_value/y","shape":[],"dtype":"float32","quantization":{"dtype":"float16","original_dtype":"float32"}},{"name":"postprocessing/ExpandDims/dim","shape":[],"dtype":"int32"},{"name":"postprocessing/Tile/multiples/1","shape":[],"dtype":"int32"},{"name":"postprocessing/Tile/multiples/2","shape":[],"dtype":"int32"},{"name":"postprocessing/Reshape_1/shape","shape":[2],"dtype":"int32"},{"name":"postprocessing/strided_slice/stack","shape":[1],"dtype":"int32"},{"name":"postprocessing/strided_slice/stack_1","shape":[1],"dtype":"int32"},{"name":"postprocessing/strided_slice/stack_2","shape":[1],"dtype":"int32"},{"name":"prediction_layers/box_encoding_predictor_0/weights","shape":[3,3,128,84],"dtype":"float32","quantization":{"dtype":"float16","original_dtype":"float32"}},{"name":"prediction_layers/box_encoding_predictor_0/biases","shape":[84],"dtype":"float32","quantization":{"dtype":"float16","original_dtype":"float32"}},{"name":"reshaping/strided_slice/stack","shape":[1],"dtype":"int32"},{"name":"reshaping/strided_slice/stack_1","shape":[1],"dtype":"int32"},{"name":"reshaping/strided_slice/stack_2","shape":[1],"dtype":"int32"},{"name":"reshaping/strided_slice_1/stack","shape":[1],"dtype":"int32"},{"name":"reshaping/strided_slice_1/stack_1","shape":[1],"dtype":"int32"},{"name":"reshaping/strided_slice_1/stack_2","shape":[1],"dtype":"int32"},{"name":"reshaping/mul_1/y","shape":[],"dtype":"int32"},{"name":"reshaping/strided_slice_2/stack","shape":[1],"dtype":"int32"},{"name":"reshaping/strided_slice_2/stack_1","shape":[1],"dtype":"int32"},{"name":"reshaping/strided_slice_2/stack_2","shape":[1],"dtype":"int32"},{"name":"reshaping/Reshape_1/shape/2","shape":[],"dtype":"int32"},{"name":"prediction_layers/box_encoding_predictor_1/weights","shape":[3,3,256,4],"dtype":"float32","quantization":{"dtype":"float16","original_dtype":"float32"}},{"name":"prediction_layers/box_encoding_predictor_1/biases","shape":[4],"dtype":"float32","quantization":{"dtype":"float16","original_dtype":"float32"}},{"name":"reshaping/strided_slice_3/stack","shape":[1],"dtype":"int32"},{"name":"reshaping/strided_slice_3/stack_1","shape":[1],"dtype":"int32"},{"name":"reshaping/strided_slice_3/stack_2","shape":[1],"dtype":"int32"},{"name":"reshaping/strided_slice_4/stack","shape":[1],"dtype":"int32"},{"name":"reshaping/strided_slice_4/stack_1","shape":[1],"dtype":"int32"},{"name":"reshaping/strided_slice_4/stack_2","shape":[1],"dtype":"int32"},{"name":"reshaping/strided_slice_5/stack","shape":[1],"dtype":"int32"},{"name":"reshaping/strided_slice_5/stack_1","shape":[1],"dtype":"int32"},{"name":"reshaping/strided_slice_5/stack_2","shape":[1],"dtype":"int32"},{"name":"reshaping/Reshape_5/shape/2","shape":[],"dtype":"int32"},{"name":"prediction_layers/box_encoding_predictor_2/weights","shape":[3,3,256,4],"dtype":"float32","quantization":{"dtype":"float16","original_dtype":"float32"}},{"name":"prediction_layers/box_encoding_predictor_2/biases","shape":[4],"dtype":"float32","quantization":{"dtype":"float16","original_dtype":"float32"}},{"name":"reshaping/strided_slice_6/stack","shape":[1],"dtype":"int32"},{"name":"reshaping/strided_slice_6/stack_1","shape":[1],"dtype":"int32"},{"name":"reshaping/strided_slice_6/stack_2","shape":[1],"dtype":"int32"},{"name":"reshaping/strided_slice_7/stack","shape":[1],"dtype":"int32"},{"name":"reshaping/strided_slice_7/stack_1","shape":[1],"dtype":"int32"},{"name":"reshaping/strided_slice_7/stack_2","shape":[1],"dtype":"int32"},{"name":"standardize_input/mul/x","shape":[],"dtype":"float32","quantization":{"dtype":"float16","original_dtype":"float32"}},{"name":"image_padding/pad_to_bounding_box/stack/0","shape":[],"dtype":"int32"},{"name":"image_padding/pad_to_bounding_box/stack/1","shape":[],"dtype":"int32"},{"name":"image_padding/pad_to_bounding_box/stack/2","shape":[],"dtype":"int32"},{"name":"image_padding/pad_to_bounding_box/stack/4","shape":[],"dtype":"int32"},{"name":"image_padding/pad_to_bounding_box/stack/6","shape":[],"dtype":"int32"},{"name":"image_padding/pad_to_bounding_box/stack/7","shape":[],"dtype":"int32"},{"name":"image_padding/pad_to_bounding_box/Reshape/shape","shape":[2],"dtype":"int32"},{"name":"standardize_input/sub/y","shape":[],"dtype":"float32","quantization":{"dtype":"float16","original_dtype":"float32"}},{"name":"conv1/CRelu/axis","shape":[],"dtype":"int32"},{"name":"conv2/CRelu/axis","shape":[],"dtype":"int32"},{"name":"inception1/concat/axis","shape":[],"dtype":"int32"},{"name":"inception2/concat/axis","shape":[],"dtype":"int32"},{"name":"inception3/concat/axis","shape":[],"dtype":"int32"},{"name":"reshaping/strided_slice_8/stack","shape":[1],"dtype":"int32"},{"name":"reshaping/strided_slice_8/stack_1","shape":[1],"dtype":"int32"},{"name":"reshaping/strided_slice_8/stack_2","shape":[1],"dtype":"int32"},{"name":"reshaping/Reshape_9/shape/2","shape":[],"dtype":"int32"},{"name":"reshaping/concat/axis","shape":[],"dtype":"int32"},{"name":"postprocessing/strided_slice_1/stack","shape":[1],"dtype":"int32"},{"name":"postprocessing/strided_slice_1/stack_1","shape":[1],"dtype":"int32"},{"name":"postprocessing/strided_slice_1/stack_2","shape":[1],"dtype":"int32"},{"name":"postprocessing/Reshape_2/shape/2","shape":[],"dtype":"int32"},{"name":"postprocessing/clip_by_value/Minimum/y","shape":[],"dtype":"float32","quantization":{"dtype":"float16","original_dtype":"float32"}},{"name":"postprocessing/clip_by_value/y","shape":[],"dtype":"float32","quantization":{"dtype":"float16","original_dtype":"float32"}},{"name":"image_padding/mul/x","shape":[],"dtype":"int32"},{"name":"strided_slice/stack","shape":[1],"dtype":"int32"},{"name":"strided_slice/stack_1","shape":[1],"dtype":"int32"},{"name":"strided_slice/stack_2","shape":[1],"dtype":"int32"},{"name":"ConstantFolding/image_padding/truediv_recip","shape":[],"dtype":"float32","quantization":{"dtype":"float16","original_dtype":"float32"}},{"name":"image_padding/mul_1/x","shape":[],"dtype":"int32"},{"name":"mul/y","shape":[],"dtype":"float32","quantization":{"dtype":"float16","original_dtype":"float32"}},{"name":"strided_slice_1/stack","shape":[1],"dtype":"int32"},{"name":"strided_slice_1/stack_1","shape":[1],"dtype":"int32"},{"name":"strided_slice_1/stack_2","shape":[1],"dtype":"int32"},{"name":"ConstantFolding/image_padding/truediv_1_recip","shape":[],"dtype":"float32","quantization":{"dtype":"float16","original_dtype":"float32"}},{"name":"postprocessing/clip_by_value_1/Minimum/y","shape":[],"dtype":"float32","quantization":{"dtype":"float16","original_dtype":"float32"}},{"name":"postprocessing/clip_by_value_1/y","shape":[],"dtype":"float32","quantization":{"dtype":"float16","original_dtype":"float32"}},{"name":"nms/map/strided_slice/stack","shape":[1],"dtype":"int32"},{"name":"nms/map/strided_slice/stack_1","shape":[1],"dtype":"int32"},{"name":"nms/map/strided_slice/stack_2","shape":[1],"dtype":"int32"},{"name":"conv1/Conv2D_weights","shape":[7,7,3,24],"dtype":"float32","quantization":{"dtype":"float16","original_dtype":"float32"}},{"name":"conv1/Conv2D_bn_offset","shape":[24],"dtype":"float32","quantization":{"dtype":"float16","original_dtype":"float32"}},{"name":"conv2/Conv2D_weights","shape":[5,5,48,64],"dtype":"float32","quantization":{"dtype":"float16","original_dtype":"float32"}},{"name":"conv2/Conv2D_bn_offset","shape":[64],"dtype":"float32","quantization":{"dtype":"float16","original_dtype":"float32"}},{"name":"inception1/conv_1x1_path1/Conv2D_weights","shape":[1,1,128,32],"dtype":"float32","quantization":{"dtype":"float16","original_dtype":"float32"}},{"name":"inception1/conv_1x1_path1/Conv2D_bn_offset","shape":[32],"dtype":"float32","quantization":{"dtype":"float16","original_dtype":"float32"}},{"name":"inception1/conv_1x1_path3/Conv2D_weights","shape":[1,1,128,24],"dtype":"float32","quantization":{"dtype":"float16","original_dtype":"float32"}},{"name":"inception1/conv_1x1_path3/Conv2D_bn_offset","shape":[24],"dtype":"float32","quantization":{"dtype":"float16","original_dtype":"float32"}},{"name":"inception1/conv_1x1_path4/Conv2D_weights","shape":[1,1,128,24],"dtype":"float32","quantization":{"dtype":"float16","original_dtype":"float32"}},{"name":"inception1/conv_1x1_path4/Conv2D_bn_offset","shape":[24],"dtype":"float32","quantization":{"dtype":"float16","original_dtype":"float32"}},{"name":"inception1/conv_1x1_path2/Conv2D_weights","shape":[1,1,128,32],"dtype":"float32","quantization":{"dtype":"float16","original_dtype":"float32"}},{"name":"inception1/conv_1x1_path2/Conv2D_bn_offset","shape":[32],"dtype":"float32","quantization":{"dtype":"float16","original_dtype":"float32"}},{"name":"inception1/conv_3x3_path3/Conv2D_weights","shape":[3,3,24,32],"dtype":"float32","quantization":{"dtype":"float16","original_dtype":"float32"}},{"name":"inception1/conv_3x3_path3/Conv2D_bn_offset","shape":[32],"dtype":"float32","quantization":{"dtype":"float16","original_dtype":"float32"}},{"name":"inception1/conv_3x3_path4/Conv2D_weights","shape":[3,3,24,32],"dtype":"float32","quantization":{"dtype":"float16","original_dtype":"float32"}},{"name":"inception1/conv_3x3_path4/Conv2D_bn_offset","shape":[32],"dtype":"float32","quantization":{"dtype":"float16","original_dtype":"float32"}},{"name":"inception1/conv_3x3_second_path4/Conv2D_weights","shape":[3,3,32,32],"dtype":"float32","quantization":{"dtype":"float16","original_dtype":"float32"}},{"name":"inception1/conv_3x3_second_path4/Conv2D_bn_offset","shape":[32],"dtype":"float32","quantization":{"dtype":"float16","original_dtype":"float32"}},{"name":"inception2/conv_1x1_path1/Conv2D_weights","shape":[1,1,128,32],"dtype":"float32","quantization":{"dtype":"float16","original_dtype":"float32"}},{"name":"inception2/conv_1x1_path1/Conv2D_bn_offset","shape":[32],"dtype":"float32","quantization":{"dtype":"float16","original_dtype":"float32"}},{"name":"inception2/conv_1x1_path3/Conv2D_weights","shape":[1,1,128,24],"dtype":"float32","quantization":{"dtype":"float16","original_dtype":"float32"}},{"name":"inception2/conv_1x1_path3/Conv2D_bn_offset","shape":[24],"dtype":"float32","quantization":{"dtype":"float16","original_dtype":"float32"}},{"name":"inception2/conv_1x1_path4/Conv2D_weights","shape":[1,1,128,24],"dtype":"float32","quantization":{"dtype":"float16","original_dtype":"float32"}},{"name":"inception2/conv_1x1_path4/Conv2D_bn_offset","shape":[24],"dtype":"float32","quantization":{"dtype":"float16","original_dtype":"float32"}},{"name":"inception2/conv_1x1_path2/Conv2D_weights","shape":[1,1,128,32],"dtype":"float32","quantization":{"dtype":"float16","original_dtype":"float32"}},{"name":"inception2/conv_1x1_path2/Conv2D_bn_offset","shape":[32],"dtype":"float32","quantization":{"dtype":"float16","original_dtype":"float32"}},{"name":"inception2/conv_3x3_path3/Conv2D_weights","shape":[3,3,24,32],"dtype":"float32","quantization":{"dtype":"float16","original_dtype":"float32"}},{"name":"inception2/conv_3x3_path3/Conv2D_bn_offset","shape":[32],"dtype":"float32","quantization":{"dtype":"float16","original_dtype":"float32"}},{"name":"inception2/conv_3x3_path4/Conv2D_weights","shape":[3,3,24,32],"dtype":"float32","quantization":{"dtype":"float16","original_dtype":"float32"}},{"name":"inception2/conv_3x3_path4/Conv2D_bn_offset","shape":[32],"dtype":"float32","quantization":{"dtype":"float16","original_dtype":"float32"}},{"name":"inception2/conv_3x3_second_path4/Conv2D_weights","shape":[3,3,32,32],"dtype":"float32","quantization":{"dtype":"float16","original_dtype":"float32"}},{"name":"inception2/conv_3x3_second_path4/Conv2D_bn_offset","shape":[32],"dtype":"float32","quantization":{"dtype":"float16","original_dtype":"float32"}},{"name":"inception3/conv_1x1_path1/Conv2D_weights","shape":[1,1,128,32],"dtype":"float32","quantization":{"dtype":"float16","original_dtype":"float32"}},{"name":"inception3/conv_1x1_path1/Conv2D_bn_offset","shape":[32],"dtype":"float32","quantization":{"dtype":"float16","original_dtype":"float32"}},{"name":"inception3/conv_1x1_path3/Conv2D_weights","shape":[1,1,128,24],"dtype":"float32","quantization":{"dtype":"float16","original_dtype":"float32"}},{"name":"inception3/conv_1x1_path3/Conv2D_bn_offset","shape":[24],"dtype":"float32","quantization":{"dtype":"float16","original_dtype":"float32"}},{"name":"inception3/conv_1x1_path4/Conv2D_weights","shape":[1,1,128,24],"dtype":"float32","quantization":{"dtype":"float16","original_dtype":"float32"}},{"name":"inception3/conv_1x1_path4/Conv2D_bn_offset","shape":[24],"dtype":"float32","quantization":{"dtype":"float16","original_dtype":"float32"}},{"name":"inception3/conv_1x1_path2/Conv2D_weights","shape":[1,1,128,32],"dtype":"float32","quantization":{"dtype":"float16","original_dtype":"float32"}},{"name":"inception3/conv_1x1_path2/Conv2D_bn_offset","shape":[32],"dtype":"float32","quantization":{"dtype":"float16","original_dtype":"float32"}},{"name":"inception3/conv_3x3_path3/Conv2D_weights","shape":[3,3,24,32],"dtype":"float32","quantization":{"dtype":"float16","original_dtype":"float32"}},{"name":"inception3/conv_3x3_path3/Conv2D_bn_offset","shape":[32],"dtype":"float32","quantization":{"dtype":"float16","original_dtype":"float32"}},{"name":"inception3/conv_3x3_path4/Conv2D_weights","shape":[3,3,24,32],"dtype":"float32","quantization":{"dtype":"float16","original_dtype":"float32"}},{"name":"inception3/conv_3x3_path4/Conv2D_bn_offset","shape":[32],"dtype":"float32","quantization":{"dtype":"float16","original_dtype":"float32"}},{"name":"inception3/conv_3x3_second_path4/Conv2D_weights","shape":[3,3,32,32],"dtype":"float32","quantization":{"dtype":"float16","original_dtype":"float32"}},{"name":"inception3/conv_3x3_second_path4/Conv2D_bn_offset","shape":[32],"dtype":"float32","quantization":{"dtype":"float16","original_dtype":"float32"}},{"name":"conv3_1/Conv2D_weights","shape":[1,1,128,128],"dtype":"float32","quantization":{"dtype":"float16","original_dtype":"float32"}},{"name":"conv3_1/Conv2D_bn_offset","shape":[128],"dtype":"float32","quantization":{"dtype":"float16","original_dtype":"float32"}},{"name":"conv3_2/Conv2D_weights","shape":[3,3,128,256],"dtype":"float32","quantization":{"dtype":"float16","original_dtype":"float32"}},{"name":"conv3_2/Conv2D_bn_offset","shape":[256],"dtype":"float32","quantization":{"dtype":"float16","original_dtype":"float32"}},{"name":"conv4_1/Conv2D_weights","shape":[1,1,256,128],"dtype":"float32","quantization":{"dtype":"float16","original_dtype":"float32"}},{"name":"conv4_1/Conv2D_bn_offset","shape":[128],"dtype":"float32","quantization":{"dtype":"float16","original_dtype":"float32"}},{"name":"conv4_2/Conv2D_weights","shape":[3,3,128,256],"dtype":"float32","quantization":{"dtype":"float16","original_dtype":"float32"}},{"name":"conv4_2/Conv2D_bn_offset","shape":[256],"dtype":"float32","quantization":{"dtype":"float16","original_dtype":"float32"}},{"name":"ConstantFolding/anchor_generator/add_11-broadcastto_shape-0","shape":[1],"dtype":"int32"},{"name":"ConstantFolding/anchor_generator/add_16-broadcastto_shape-0","shape":[1],"dtype":"int32"},{"name":"ConstantFolding/anchor_generator/add_21-broadcastto_shape-0","shape":[1],"dtype":"int32"},{"name":"ConstantFolding/anchor_generator/add_13-broadcastto_shape-0","shape":[1],"dtype":"int32"},{"name":"ConstantFolding/anchor_generator/add_18-broadcastto_shape-0","shape":[1],"dtype":"int32"},{"name":"ConstantFolding/anchor_generator/add_23-broadcastto_shape-0","shape":[1],"dtype":"int32"},{"name":"nms/map/while/Pad/paddings/0/0","shape":[],"dtype":"int32"},{"name":"nms/map/while/Pad/paddings/1_1","shape":[2],"dtype":"int32"},{"name":"nms/map/while/GatherV2_3/axis","shape":[],"dtype":"int32"},{"name":"nms/map/while/Pad_1/paddings/0/0","shape":[],"dtype":"int32"},{"name":"nms/map/while/sub/x","shape":[],"dtype":"int32"},{"name":"nms/map/while/GatherV2/axis","shape":[],"dtype":"int32"},{"name":"nms/map/while/GreaterEqual/y","shape":[],"dtype":"float32","quantization":{"dtype":"float16","original_dtype":"float32"}},{"name":"nms/map/while/GatherV2_1/axis","shape":[],"dtype":"int32"},{"name":"nms/map/while/non_max_suppression/NonMaxSuppressionV3/max_output_size","shape":[],"dtype":"int32"},{"name":"nms/map/while/non_max_suppression/iou_threshold","shape":[],"dtype":"float32","quantization":{"dtype":"float16","original_dtype":"float32"}},{"name":"nms/map/while/non_max_suppression/score_threshold","shape":[],"dtype":"float32","quantization":{"dtype":"float16","original_dtype":"float32"}},{"name":"nms/map/while/GatherV2_2/axis","shape":[],"dtype":"int32"},{"name":"nms/map/while/strided_slice/stack","shape":[1],"dtype":"int32"},{"name":"nms/map/while/strided_slice/stack_1","shape":[1],"dtype":"int32"},{"name":"nms/map/while/strided_slice/stack_2","shape":[1],"dtype":"int32"},{"name":"nms/map/while/add/y","shape":[],"dtype":"int32"},{"name":"nms/map/while/add_1/y","shape":[],"dtype":"int32"},{"name":"ConstantFolding/nms/map/while/Pad_1/paddings_const_axis","shape":[],"dtype":"int32"}]
      }
  ]
}