{
  "format": "graph-model",
  "generatedBy": "https://github.com/google/mediapipe",
  "convertedBy": "https://github.com/vladmandic",
  "signature":
  {
      "inputs":
      {
          "input_1": {"name":"input_1:0","dtype":"DT_FLOAT","tensorShape":{"dim":[{"size":"1"},{"size":"192"},{"size":"192"},{"size":"3"}]}}
      },
      "outputs":
      {
          "output_left_eye:0": {"name":"output_left_eye:0","dtype":"DT_FLOAT","tensorShape":{"dim":[{"size":"1"},{"size":"1"},{"size":"1"},{"size":"142"}]}},
          "output_right_iris:0": {"name":"output_right_iris:0","dtype":"DT_FLOAT","tensorShape":{"dim":[{"size":"1"},{"size":"1"},{"size":"1"},{"size":"10"}]}},
          "output_mesh_identity": {"name":"output_mesh_identity:0","dtype":"DT_FLOAT","tensorShape":{"dim":[{"size":"1"},{"size":"1"},{"size":"1"},{"size":"1404"}]}},
          "output_left_iris:0": {"name":"output_left_iris:0","dtype":"DT_FLOAT","tensorShape":{"dim":[{"size":"1"},{"size":"1"},{"size":"1"},{"size":"10"}]}},
          "conv_faceflag": {"name":"conv_faceflag:0","dtype":"DT_FLOAT","tensorShape":{"dim":[{"size":"1"},{"size":"1"},{"size":"1"},{"size":"1"}]}},
          "output_lips": {"name":"output_lips:0","dtype":"DT_FLOAT","tensorShape":{"dim":[{"size":"1"},{"size":"1"},{"size":"1"},{"size":"160"}]}},
          "output_right_eye:0": {"name":"output_right_eye:0","dtype":"DT_FLOAT","tensorShape":{"dim":[{"size":"1"},{"size":"1"},{"size":"1"},{"size":"142"}]}}
      }
  },
  "modelTopology":
  {
      "node":
      [
          {"name":"Conv2D_94/filter","op":"Const","attr":{"value":{"tensor":{"dtype":"DT_FLOAT","tensorShape":{"dim":[{"size":"3"},{"size":"3"},{"size":"32"},{"size":"1"}]}}},"dtype":{"type":"DT_FLOAT"}}},
          {"name":"conv_faceflag/y","op":"Const","attr":{"value":{"tensor":{"dtype":"DT_FLOAT","tensorShape":{"dim":[{"size":"1"}]}}},"dtype":{"type":"DT_FLOAT"}}},
          {"name":"p_re_lu_45/Alpha_dequantize_prelu/Neg","op":"Const","attr":{"dtype":{"type":"DT_FLOAT"},"value":{"tensor":{"dtype":"DT_FLOAT","tensorShape":{"dim":[{"size":"1"},{"size":"1"},{"size":"32"}]}}}}},
          {"name":"conv2d_45_1/y","op":"Const","attr":{"value":{"tensor":{"dtype":"DT_FLOAT","tensorShape":{"dim":[{"size":"32"}]}}},"dtype":{"type":"DT_FLOAT"}}},
          {"name":"p_re_lu_44/Alpha_dequantize_prelu/Neg","op":"Const","attr":{"value":{"tensor":{"dtype":"DT_FLOAT","tensorShape":{"dim":[{"size":"1"},{"size":"1"},{"size":"32"}]}}},"dtype":{"type":"DT_FLOAT"}}},
          {"name":"p_re_lu_43/Alpha_dequantize_prelu/Neg","op":"Const","attr":{"value":{"tensor":{"dtype":"DT_FLOAT","tensorShape":{"dim":[{"size":"1"},{"size":"1"},{"size":"128"}]}}},"dtype":{"type":"DT_FLOAT"}}},
          {"name":"conv2d_43_1/y","op":"Const","attr":{"dtype":{"type":"DT_FLOAT"},"value":{"tensor":{"dtype":"DT_FLOAT","tensorShape":{"dim":[{"size":"128"}]}}}}},
          {"name":"p_re_lu_42/Alpha_dequantize_prelu/Neg","op":"Const","attr":{"dtype":{"type":"DT_FLOAT"},"value":{"tensor":{"dtype":"DT_FLOAT","tensorShape":{"dim":[{"size":"1"},{"size":"1"},{"size":"128"}]}}}}},
          {"name":"conv2d_42_1/y","op":"Const","attr":{"value":{"tensor":{"dtype":"DT_FLOAT","tensorShape":{"dim":[{"size":"128"}]}}},"dtype":{"type":"DT_FLOAT"}}},
          {"name":"p_re_lu_41/Alpha_dequantize_prelu/Neg","op":"Const","attr":{"value":{"tensor":{"dtype":"DT_FLOAT","tensorShape":{"dim":[{"size":"1"},{"size":"1"},{"size":"128"}]}}},"dtype":{"type":"DT_FLOAT"}}},
          {"name":"conv2d_41_1/y","op":"Const","attr":{"value":{"tensor":{"dtype":"DT_FLOAT","tensorShape":{"dim":[{"size":"128"}]}}},"dtype":{"type":"DT_FLOAT"}}},
          {"name":"p_re_lu_40/Alpha_dequantize_prelu/Neg","op":"Const","attr":{"dtype":{"type":"DT_FLOAT"},"value":{"tensor":{"dtype":"DT_FLOAT","tensorShape":{"dim":[{"size":"1"},{"size":"1"},{"size":"128"}]}}}}},
          {"name":"conv2d_40_1/y","op":"Const","attr":{"value":{"tensor":{"dtype":"DT_FLOAT","tensorShape":{"dim":[{"size":"128"}]}}},"dtype":{"type":"DT_FLOAT"}}},
          {"name":"p_re_lu_39/Alpha_dequantize_prelu/Neg","op":"Const","attr":{"dtype":{"type":"DT_FLOAT"},"value":{"tensor":{"dtype":"DT_FLOAT","tensorShape":{"dim":[{"size":"1"},{"size":"1"},{"size":"128"}]}}}}},
          {"name":"conv2d_39_1/y","op":"Const","attr":{"dtype":{"type":"DT_FLOAT"},"value":{"tensor":{"dtype":"DT_FLOAT","tensorShape":{"dim":[{"size":"128"}]}}}}},
          {"name":"depthwise_37/filter_in","op":"Const","attr":{"value":{"tensor":{"dtype":"DT_FLOAT","tensorShape":{"dim":[{"size":"3"},{"size":"3"},{"size":"128"},{"size":"1"}]}}},"dtype":{"type":"DT_FLOAT"}}},
          {"name":"Conv2D_45/filter","op":"Const","attr":{"value":{"tensor":{"dtype":"DT_FLOAT","tensorShape":{"dim":[{"size":"1"},{"size":"1"},{"size":"128"},{"size":"128"}]}}},"dtype":{"type":"DT_FLOAT"}}},
          {"name":"depthwise_42/filter_in","op":"Const","attr":{"value":{"tensor":{"dtype":"DT_FLOAT","tensorShape":{"dim":[{"size":"3"},{"size":"3"},{"size":"128"},{"size":"1"}]}}},"dtype":{"type":"DT_FLOAT"}}},
          {"name":"Conv2D_50/filter","op":"Const","attr":{"dtype":{"type":"DT_FLOAT"},"value":{"tensor":{"dtype":"DT_FLOAT","tensorShape":{"dim":[{"size":"1"},{"size":"1"},{"size":"128"},{"size":"128"}]}}}}},
          {"name":"depthwise_47/filter_in","op":"Const","attr":{"value":{"tensor":{"dtype":"DT_FLOAT","tensorShape":{"dim":[{"size":"3"},{"size":"3"},{"size":"128"},{"size":"1"}]}}},"dtype":{"type":"DT_FLOAT"}}},
          {"name":"Conv2D_63/filter","op":"Const","attr":{"dtype":{"type":"DT_FLOAT"},"value":{"tensor":{"dtype":"DT_FLOAT","tensorShape":{"dim":[{"size":"1"},{"size":"1"},{"size":"128"},{"size":"128"}]}}}}},
          {"name":"depthwise_52/filter_in","op":"Const","attr":{"value":{"tensor":{"dtype":"DT_FLOAT","tensorShape":{"dim":[{"size":"3"},{"size":"3"},{"size":"128"},{"size":"1"}]}}},"dtype":{"type":"DT_FLOAT"}}},
          {"name":"Conv2D_70/filter","op":"Const","attr":{"value":{"tensor":{"dtype":"DT_FLOAT","tensorShape":{"dim":[{"size":"1"},{"size":"1"},{"size":"128"},{"size":"128"}]}}},"dtype":{"type":"DT_FLOAT"}}},
          {"name":"depthwise_57/filter_in","op":"Const","attr":{"dtype":{"type":"DT_FLOAT"},"value":{"tensor":{"dtype":"DT_FLOAT","tensorShape":{"dim":[{"size":"3"},{"size":"3"},{"size":"128"},{"size":"1"}]}}}}},
          {"name":"Conv2D_75/filter","op":"Const","attr":{"value":{"tensor":{"dtype":"DT_FLOAT","tensorShape":{"dim":[{"size":"1"},{"size":"1"},{"size":"128"},{"size":"128"}]}}},"dtype":{"type":"DT_FLOAT"}}},
          {"name":"Conv2D_80/filter","op":"Const","attr":{"value":{"tensor":{"dtype":"DT_FLOAT","tensorShape":{"dim":[{"size":"1"},{"size":"1"},{"size":"128"},{"size":"32"}]}}},"dtype":{"type":"DT_FLOAT"}}},
          {"name":"conv2d_44_1/y","op":"Const","attr":{"value":{"tensor":{"dtype":"DT_FLOAT","tensorShape":{"dim":[{"size":"32"}]}}},"dtype":{"type":"DT_FLOAT"}}},
          {"name":"depthwise_62/filter_in","op":"Const","attr":{"value":{"tensor":{"dtype":"DT_FLOAT","tensorShape":{"dim":[{"size":"3"},{"size":"3"},{"size":"32"},{"size":"1"}]}}},"dtype":{"type":"DT_FLOAT"}}},
          {"name":"Conv2D_85/filter","op":"Const","attr":{"dtype":{"type":"DT_FLOAT"},"value":{"tensor":{"dtype":"DT_FLOAT","tensorShape":{"dim":[{"size":"1"},{"size":"1"},{"size":"32"},{"size":"32"}]}}}}},
          {"name":"Conv2D_90/filter","op":"Const","attr":{"dtype":{"type":"DT_FLOAT"},"value":{"tensor":{"dtype":"DT_FLOAT","tensorShape":{"dim":[{"size":"2"},{"size":"2"},{"size":"32"},{"size":"142"}]}}}}},
          {"name":"conv_left_eye/y","op":"Const","attr":{"dtype":{"type":"DT_FLOAT"},"value":{"tensor":{"dtype":"DT_FLOAT","tensorShape":{"dim":[{"size":"142"}]}}}}},
          {"name":"reshape_3_1/shape","op":"Const","attr":{"dtype":{"type":"DT_INT32"},"value":{"tensor":{"dtype":"DT_INT32","tensorShape":{"dim":[{"size":"3"}]}}}}},
          {"name":"strided_slice_59/stack","op":"Const","attr":{"value":{"tensor":{"dtype":"DT_INT32","tensorShape":{"dim":[{"size":"3"}]}}},"dtype":{"type":"DT_INT32"}}},
          {"name":"strided_slice_59/stack_1","op":"Const","attr":{"dtype":{"type":"DT_INT32"},"value":{"tensor":{"dtype":"DT_INT32","tensorShape":{"dim":[{"size":"3"}]}}}}},
          {"name":"strided_slice_59/stack_2","op":"Const","attr":{"dtype":{"type":"DT_INT32"},"value":{"tensor":{"dtype":"DT_INT32","tensorShape":{"dim":[{"size":"3"}]}}}}},
          {"name":"strided_slice_60/stack","op":"Const","attr":{"dtype":{"type":"DT_INT32"},"value":{"tensor":{"dtype":"DT_INT32","tensorShape":{"dim":[{"size":"3"}]}}}}},
          {"name":"strided_slice_60/stack_1","op":"Const","attr":{"value":{"tensor":{"dtype":"DT_INT32","tensorShape":{"dim":[{"size":"3"}]}}},"dtype":{"type":"DT_INT32"}}},
          {"name":"strided_slice_60/stack_2","op":"Const","attr":{"value":{"tensor":{"dtype":"DT_INT32","tensorShape":{"dim":[{"size":"3"}]}}},"dtype":{"type":"DT_INT32"}}},
          {"name":"Reshape_9/shape","op":"Const","attr":{"value":{"tensor":{"dtype":"DT_INT32","tensorShape":{"dim":[{"size":"3"}]}}},"dtype":{"type":"DT_INT32"}}},
          {"name":"output_left_eye/shape","op":"Const","attr":{"dtype":{"type":"DT_INT32"},"value":{"tensor":{"dtype":"DT_INT32","tensorShape":{"dim":[{"size":"4"}]}}}}},
          {"name":"p_re_lu_52/Alpha_dequantize_prelu/Neg","op":"Const","attr":{"dtype":{"type":"DT_FLOAT"},"value":{"tensor":{"dtype":"DT_FLOAT","tensorShape":{"dim":[{"size":"1"},{"size":"1"},{"size":"32"}]}}}}},
          {"name":"conv2d_52_1/y","op":"Const","attr":{"value":{"tensor":{"dtype":"DT_FLOAT","tensorShape":{"dim":[{"size":"32"}]}}},"dtype":{"type":"DT_FLOAT"}}},
          {"name":"p_re_lu_51/Alpha_dequantize_prelu/Neg","op":"Const","attr":{"value":{"tensor":{"dtype":"DT_FLOAT","tensorShape":{"dim":[{"size":"1"},{"size":"1"},{"size":"32"}]}}},"dtype":{"type":"DT_FLOAT"}}},
          {"name":"p_re_lu_50/Alpha_dequantize_prelu/Neg","op":"Const","attr":{"dtype":{"type":"DT_FLOAT"},"value":{"tensor":{"dtype":"DT_FLOAT","tensorShape":{"dim":[{"size":"1"},{"size":"1"},{"size":"128"}]}}}}},
          {"name":"conv2d_50_1/y","op":"Const","attr":{"value":{"tensor":{"dtype":"DT_FLOAT","tensorShape":{"dim":[{"size":"128"}]}}},"dtype":{"type":"DT_FLOAT"}}},
          {"name":"p_re_lu_49/Alpha_dequantize_prelu/Neg","op":"Const","attr":{"dtype":{"type":"DT_FLOAT"},"value":{"tensor":{"dtype":"DT_FLOAT","tensorShape":{"dim":[{"size":"1"},{"size":"1"},{"size":"128"}]}}}}},
          {"name":"conv2d_49_1/y","op":"Const","attr":{"value":{"tensor":{"dtype":"DT_FLOAT","tensorShape":{"dim":[{"size":"128"}]}}},"dtype":{"type":"DT_FLOAT"}}},
          {"name":"p_re_lu_48/Alpha_dequantize_prelu/Neg","op":"Const","attr":{"value":{"tensor":{"dtype":"DT_FLOAT","tensorShape":{"dim":[{"size":"1"},{"size":"1"},{"size":"128"}]}}},"dtype":{"type":"DT_FLOAT"}}},
          {"name":"conv2d_48_1/y","op":"Const","attr":{"value":{"tensor":{"dtype":"DT_FLOAT","tensorShape":{"dim":[{"size":"128"}]}}},"dtype":{"type":"DT_FLOAT"}}},
          {"name":"p_re_lu_47/Alpha_dequantize_prelu/Neg","op":"Const","attr":{"value":{"tensor":{"dtype":"DT_FLOAT","tensorShape":{"dim":[{"size":"1"},{"size":"1"},{"size":"128"}]}}},"dtype":{"type":"DT_FLOAT"}}},
          {"name":"conv2d_47_1/y","op":"Const","attr":{"dtype":{"type":"DT_FLOAT"},"value":{"tensor":{"dtype":"DT_FLOAT","tensorShape":{"dim":[{"size":"128"}]}}}}},
          {"name":"p_re_lu_46/Alpha_dequantize_prelu/Neg","op":"Const","attr":{"value":{"tensor":{"dtype":"DT_FLOAT","tensorShape":{"dim":[{"size":"1"},{"size":"1"},{"size":"128"}]}}},"dtype":{"type":"DT_FLOAT"}}},
          {"name":"conv2d_46_1/y","op":"Const","attr":{"value":{"tensor":{"dtype":"DT_FLOAT","tensorShape":{"dim":[{"size":"128"}]}}},"dtype":{"type":"DT_FLOAT"}}},
          {"name":"p_re_lu_38/Alpha_dequantize_prelu/Neg","op":"Const","attr":{"dtype":{"type":"DT_FLOAT"},"value":{"tensor":{"dtype":"DT_FLOAT","tensorShape":{"dim":[{"size":"1"},{"size":"1"},{"size":"128"}]}}}}},
          {"name":"conv2d_38_1/y","op":"Const","attr":{"dtype":{"type":"DT_FLOAT"},"value":{"tensor":{"dtype":"DT_FLOAT","tensorShape":{"dim":[{"size":"128"}]}}}}},
          {"name":"channel_padding_6/paddings","op":"Const","attr":{"dtype":{"type":"DT_INT32"},"value":{"tensor":{"dtype":"DT_INT32","tensorShape":{"dim":[{"size":"4"},{"size":"2"}]}}}}},
          {"name":"p_re_lu_37/Alpha_dequantize_prelu/Neg","op":"Const","attr":{"value":{"tensor":{"dtype":"DT_FLOAT","tensorShape":{"dim":[{"size":"1"},{"size":"1"},{"size":"64"}]}}},"dtype":{"type":"DT_FLOAT"}}},
          {"name":"conv2d_37_1/y","op":"Const","attr":{"value":{"tensor":{"dtype":"DT_FLOAT","tensorShape":{"dim":[{"size":"64"}]}}},"dtype":{"type":"DT_FLOAT"}}},
          {"name":"p_re_lu_36/Alpha_dequantize_prelu/Neg","op":"Const","attr":{"dtype":{"type":"DT_FLOAT"},"value":{"tensor":{"dtype":"DT_FLOAT","tensorShape":{"dim":[{"size":"1"},{"size":"1"},{"size":"64"}]}}}}},
          {"name":"conv2d_36/y","op":"Const","attr":{"value":{"tensor":{"dtype":"DT_FLOAT","tensorShape":{"dim":[{"size":"64"}]}}},"dtype":{"type":"DT_FLOAT"}}},
          {"name":"p_re_lu_35/Alpha_dequantize_prelu/Neg","op":"Const","attr":{"value":{"tensor":{"dtype":"DT_FLOAT","tensorShape":{"dim":[{"size":"1"},{"size":"1"},{"size":"64"}]}}},"dtype":{"type":"DT_FLOAT"}}},
          {"name":"conv2d_35/y","op":"Const","attr":{"value":{"tensor":{"dtype":"DT_FLOAT","tensorShape":{"dim":[{"size":"64"}]}}},"dtype":{"type":"DT_FLOAT"}}},
          {"name":"channel_padding_5/paddings","op":"Const","attr":{"dtype":{"type":"DT_INT32"},"value":{"tensor":{"dtype":"DT_INT32","tensorShape":{"dim":[{"size":"4"},{"size":"2"}]}}}}},
          {"name":"p_re_lu_34/Alpha_dequantize_prelu/Neg","op":"Const","attr":{"dtype":{"type":"DT_FLOAT"},"value":{"tensor":{"dtype":"DT_FLOAT","tensorShape":{"dim":[{"size":"1"},{"size":"1"},{"size":"32"}]}}}}},
          {"name":"conv2d_34/y","op":"Const","attr":{"value":{"tensor":{"dtype":"DT_FLOAT","tensorShape":{"dim":[{"size":"32"}]}}},"dtype":{"type":"DT_FLOAT"}}},
          {"name":"p_re_lu_33/Alpha_dequantize_prelu/Neg","op":"Const","attr":{"value":{"tensor":{"dtype":"DT_FLOAT","tensorShape":{"dim":[{"size":"1"},{"size":"1"},{"size":"32"}]}}},"dtype":{"type":"DT_FLOAT"}}},
          {"name":"conv2d_33/y","op":"Const","attr":{"dtype":{"type":"DT_FLOAT"},"value":{"tensor":{"dtype":"DT_FLOAT","tensorShape":{"dim":[{"size":"32"}]}}}}},
          {"name":"BatchGatherND_4/Tile","op":"Const","attr":{"dtype":{"type":"DT_INT32"},"value":{"tensor":{"dtype":"DT_INT32","tensorShape":{"dim":[{"size":"1"},{"size":"16"},{"size":"16"},{"size":"1"}]}}}}},
          {"name":"strided_slice_39/stack","op":"Const","attr":{"dtype":{"type":"DT_INT32"},"value":{"tensor":{"dtype":"DT_INT32","tensorShape":{"dim":[{"size":"4"}]}}}}},
          {"name":"strided_slice_39/stack_1","op":"Const","attr":{"value":{"tensor":{"dtype":"DT_INT32","tensorShape":{"dim":[{"size":"4"}]}}},"dtype":{"type":"DT_INT32"}}},
          {"name":"strided_slice_39/stack_2","op":"Const","attr":{"dtype":{"type":"DT_INT32"},"value":{"tensor":{"dtype":"DT_INT32","tensorShape":{"dim":[{"size":"4"}]}}}}},
          {"name":"strided_slice_40/stack","op":"Const","attr":{"dtype":{"type":"DT_INT32"},"value":{"tensor":{"dtype":"DT_INT32","tensorShape":{"dim":[{"size":"4"}]}}}}},
          {"name":"strided_slice_40/stack_1","op":"Const","attr":{"value":{"tensor":{"dtype":"DT_INT32","tensorShape":{"dim":[{"size":"4"}]}}},"dtype":{"type":"DT_INT32"}}},
          {"name":"strided_slice_40/stack_2","op":"Const","attr":{"dtype":{"type":"DT_INT32"},"value":{"tensor":{"dtype":"DT_INT32","tensorShape":{"dim":[{"size":"4"}]}}}}},
          {"name":"concat_15/axis","op":"Const","attr":{"value":{"tensor":{"dtype":"DT_INT32","tensorShape":{}}},"dtype":{"type":"DT_INT32"}}},
          {"name":"BatchGatherND_4/concat_3/axis","op":"Const","attr":{"value":{"tensor":{"dtype":"DT_INT32","tensorShape":{}}},"dtype":{"type":"DT_INT32"}}},
          {"name":"Prod_3/reduction_indices","op":"Const","attr":{"value":{"tensor":{"dtype":"DT_INT32","tensorShape":{}}},"dtype":{"type":"DT_INT32"}}},
          {"name":"BatchGatherND_7/Tile","op":"Const","attr":{"value":{"tensor":{"dtype":"DT_INT32","tensorShape":{"dim":[{"size":"1"},{"size":"16"},{"size":"16"},{"size":"1"}]}}},"dtype":{"type":"DT_INT32"}}},
          {"name":"strided_slice_41/stack","op":"Const","attr":{"dtype":{"type":"DT_INT32"},"value":{"tensor":{"dtype":"DT_INT32","tensorShape":{"dim":[{"size":"4"}]}}}}},
          {"name":"strided_slice_41/stack_1","op":"Const","attr":{"dtype":{"type":"DT_INT32"},"value":{"tensor":{"dtype":"DT_INT32","tensorShape":{"dim":[{"size":"4"}]}}}}},
          {"name":"strided_slice_41/stack_2","op":"Const","attr":{"dtype":{"type":"DT_INT32"},"value":{"tensor":{"dtype":"DT_INT32","tensorShape":{"dim":[{"size":"4"}]}}}}},
          {"name":"strided_slice_42/stack","op":"Const","attr":{"dtype":{"type":"DT_INT32"},"value":{"tensor":{"dtype":"DT_INT32","tensorShape":{"dim":[{"size":"4"}]}}}}},
          {"name":"strided_slice_42/stack_1","op":"Const","attr":{"dtype":{"type":"DT_INT32"},"value":{"tensor":{"dtype":"DT_INT32","tensorShape":{"dim":[{"size":"4"}]}}}}},
          {"name":"strided_slice_42/stack_2","op":"Const","attr":{"value":{"tensor":{"dtype":"DT_INT32","tensorShape":{"dim":[{"size":"4"}]}}},"dtype":{"type":"DT_INT32"}}},
          {"name":"concat_16/axis","op":"Const","attr":{"dtype":{"type":"DT_INT32"},"value":{"tensor":{"dtype":"DT_INT32","tensorShape":{}}}}},
          {"name":"BatchGatherND_7/concat_3/axis","op":"Const","attr":{"dtype":{"type":"DT_INT32"},"value":{"tensor":{"dtype":"DT_INT32","tensorShape":{}}}}},
          {"name":"Prod_2/reduction_indices","op":"Const","attr":{"value":{"tensor":{"dtype":"DT_INT32","tensorShape":{}}},"dtype":{"type":"DT_INT32"}}},
          {"name":"strided_slice_31/stack","op":"Const","attr":{"dtype":{"type":"DT_INT32"},"value":{"tensor":{"dtype":"DT_INT32","tensorShape":{"dim":[{"size":"4"}]}}}}},
          {"name":"strided_slice_31/stack_1","op":"Const","attr":{"value":{"tensor":{"dtype":"DT_INT32","tensorShape":{"dim":[{"size":"4"}]}}},"dtype":{"type":"DT_INT32"}}},
          {"name":"strided_slice_31/stack_2","op":"Const","attr":{"value":{"tensor":{"dtype":"DT_INT32","tensorShape":{"dim":[{"size":"4"}]}}},"dtype":{"type":"DT_INT32"}}},
          {"name":"strided_slice_32/stack","op":"Const","attr":{"dtype":{"type":"DT_INT32"},"value":{"tensor":{"dtype":"DT_INT32","tensorShape":{"dim":[{"size":"4"}]}}}}},
          {"name":"strided_slice_32/stack_1","op":"Const","attr":{"dtype":{"type":"DT_INT32"},"value":{"tensor":{"dtype":"DT_INT32","tensorShape":{"dim":[{"size":"4"}]}}}}},
          {"name":"strided_slice_32/stack_2","op":"Const","attr":{"value":{"tensor":{"dtype":"DT_INT32","tensorShape":{"dim":[{"size":"4"}]}}},"dtype":{"type":"DT_INT32"}}},
          {"name":"BatchGatherND_5/Tile","op":"Const","attr":{"dtype":{"type":"DT_INT32"},"value":{"tensor":{"dtype":"DT_INT32","tensorShape":{"dim":[{"size":"1"},{"size":"16"},{"size":"16"},{"size":"1"}]}}}}},
          {"name":"strided_slice_35/stack","op":"Const","attr":{"dtype":{"type":"DT_INT32"},"value":{"tensor":{"dtype":"DT_INT32","tensorShape":{"dim":[{"size":"4"}]}}}}},
          {"name":"strided_slice_35/stack_1","op":"Const","attr":{"dtype":{"type":"DT_INT32"},"value":{"tensor":{"dtype":"DT_INT32","tensorShape":{"dim":[{"size":"4"}]}}}}},
          {"name":"strided_slice_35/stack_2","op":"Const","attr":{"value":{"tensor":{"dtype":"DT_INT32","tensorShape":{"dim":[{"size":"4"}]}}},"dtype":{"type":"DT_INT32"}}},
          {"name":"strided_slice_36/stack","op":"Const","attr":{"value":{"tensor":{"dtype":"DT_INT32","tensorShape":{"dim":[{"size":"4"}]}}},"dtype":{"type":"DT_INT32"}}},
          {"name":"strided_slice_36/stack_1","op":"Const","attr":{"dtype":{"type":"DT_INT32"},"value":{"tensor":{"dtype":"DT_INT32","tensorShape":{"dim":[{"size":"4"}]}}}}},
          {"name":"strided_slice_36/stack_2","op":"Const","attr":{"value":{"tensor":{"dtype":"DT_INT32","tensorShape":{"dim":[{"size":"4"}]}}},"dtype":{"type":"DT_INT32"}}},
          {"name":"concat_13/axis","op":"Const","attr":{"value":{"tensor":{"dtype":"DT_INT32","tensorShape":{}}},"dtype":{"type":"DT_INT32"}}},
          {"name":"BatchGatherND_5/concat_3/axis","op":"Const","attr":{"dtype":{"type":"DT_INT32"},"value":{"tensor":{"dtype":"DT_INT32","tensorShape":{}}}}},
          {"name":"ones_2","op":"Const","attr":{"value":{"tensor":{"dtype":"DT_FLOAT","tensorShape":{"dim":[{"size":"2"}]}}},"dtype":{"type":"DT_FLOAT"}}},
          {"name":"strided_slice_33/stack","op":"Const","attr":{"value":{"tensor":{"dtype":"DT_INT32","tensorShape":{"dim":[{"size":"4"}]}}},"dtype":{"type":"DT_INT32"}}},
          {"name":"strided_slice_33/stack_1","op":"Const","attr":{"dtype":{"type":"DT_INT32"},"value":{"tensor":{"dtype":"DT_INT32","tensorShape":{"dim":[{"size":"4"}]}}}}},
          {"name":"strided_slice_33/stack_2","op":"Const","attr":{"value":{"tensor":{"dtype":"DT_INT32","tensorShape":{"dim":[{"size":"4"}]}}},"dtype":{"type":"DT_INT32"}}},
          {"name":"strided_slice_34/stack","op":"Const","attr":{"dtype":{"type":"DT_INT32"},"value":{"tensor":{"dtype":"DT_INT32","tensorShape":{"dim":[{"size":"4"}]}}}}},
          {"name":"strided_slice_34/stack_1","op":"Const","attr":{"value":{"tensor":{"dtype":"DT_INT32","tensorShape":{"dim":[{"size":"4"}]}}},"dtype":{"type":"DT_INT32"}}},
          {"name":"strided_slice_34/stack_2","op":"Const","attr":{"value":{"tensor":{"dtype":"DT_INT32","tensorShape":{"dim":[{"size":"4"}]}}},"dtype":{"type":"DT_INT32"}}},
          {"name":"BatchGatherND_6/Tile","op":"Const","attr":{"value":{"tensor":{"dtype":"DT_INT32","tensorShape":{"dim":[{"size":"1"},{"size":"16"},{"size":"16"},{"size":"1"}]}}},"dtype":{"type":"DT_INT32"}}},
          {"name":"ones_3","op":"Const","attr":{"value":{"tensor":{"dtype":"DT_INT32","tensorShape":{"dim":[{"size":"2"}]}}},"dtype":{"type":"DT_INT32"}}},
          {"name":"Minimum_3/y","op":"Const","attr":{"value":{"tensor":{"dtype":"DT_INT32","tensorShape":{"dim":[{"size":"2"}]}}},"dtype":{"type":"DT_INT32"}}},
          {"name":"strided_slice_37/stack","op":"Const","attr":{"dtype":{"type":"DT_INT32"},"value":{"tensor":{"dtype":"DT_INT32","tensorShape":{"dim":[{"size":"4"}]}}}}},
          {"name":"strided_slice_37/stack_1","op":"Const","attr":{"dtype":{"type":"DT_INT32"},"value":{"tensor":{"dtype":"DT_INT32","tensorShape":{"dim":[{"size":"4"}]}}}}},
          {"name":"strided_slice_37/stack_2","op":"Const","attr":{"value":{"tensor":{"dtype":"DT_INT32","tensorShape":{"dim":[{"size":"4"}]}}},"dtype":{"type":"DT_INT32"}}},
          {"name":"Tile_4","op":"Const","attr":{"dtype":{"type":"DT_FLOAT"},"value":{"tensor":{"dtype":"DT_FLOAT","tensorShape":{"dim":[{"size":"1"},{"size":"16"},{"size":"16"},{"size":"2"}]}}}}},
          {"name":"strided_slice_29/stack","op":"Const","attr":{"value":{"tensor":{"dtype":"DT_INT32","tensorShape":{"dim":[{"size":"3"}]}}},"dtype":{"type":"DT_INT32"}}},
          {"name":"strided_slice_29/stack_1","op":"Const","attr":{"dtype":{"type":"DT_INT32"},"value":{"tensor":{"dtype":"DT_INT32","tensorShape":{"dim":[{"size":"3"}]}}}}},
          {"name":"strided_slice_29/stack_2","op":"Const","attr":{"value":{"tensor":{"dtype":"DT_INT32","tensorShape":{"dim":[{"size":"3"}]}}},"dtype":{"type":"DT_INT32"}}},
          {"name":"strided_slice_30/stack","op":"Const","attr":{"dtype":{"type":"DT_INT32"},"value":{"tensor":{"dtype":"DT_INT32","tensorShape":{"dim":[{"size":"3"}]}}}}},
          {"name":"strided_slice_30/stack_1","op":"Const","attr":{"value":{"tensor":{"dtype":"DT_INT32","tensorShape":{"dim":[{"size":"3"}]}}},"dtype":{"type":"DT_INT32"}}},
          {"name":"strided_slice_30/stack_2","op":"Const","attr":{"value":{"tensor":{"dtype":"DT_INT32","tensorShape":{"dim":[{"size":"3"}]}}},"dtype":{"type":"DT_INT32"}}},
          {"name":"Reshape_3/shape","op":"Const","attr":{"dtype":{"type":"DT_INT32"},"value":{"tensor":{"dtype":"DT_INT32","tensorShape":{"dim":[{"size":"4"}]}}}}},
          {"name":"zeros_4","op":"Const","attr":{"value":{"tensor":{"dtype":"DT_INT32","tensorShape":{"dim":[{"size":"2"}]}}},"dtype":{"type":"DT_INT32"}}},
          {"name":"Minimum_2/y","op":"Const","attr":{"value":{"tensor":{"dtype":"DT_INT32","tensorShape":{"dim":[{"size":"2"}]}}},"dtype":{"type":"DT_INT32"}}},
          {"name":"strided_slice_38/stack","op":"Const","attr":{"dtype":{"type":"DT_INT32"},"value":{"tensor":{"dtype":"DT_INT32","tensorShape":{"dim":[{"size":"4"}]}}}}},
          {"name":"strided_slice_38/stack_1","op":"Const","attr":{"dtype":{"type":"DT_INT32"},"value":{"tensor":{"dtype":"DT_INT32","tensorShape":{"dim":[{"size":"4"}]}}}}},
          {"name":"strided_slice_38/stack_2","op":"Const","attr":{"value":{"tensor":{"dtype":"DT_INT32","tensorShape":{"dim":[{"size":"4"}]}}},"dtype":{"type":"DT_INT32"}}},
          {"name":"concat_14/axis","op":"Const","attr":{"dtype":{"type":"DT_INT32"},"value":{"tensor":{"dtype":"DT_INT32","tensorShape":{}}}}},
          {"name":"BatchGatherND_6/concat_3/axis","op":"Const","attr":{"value":{"tensor":{"dtype":"DT_INT32","tensorShape":{}}},"dtype":{"type":"DT_INT32"}}},
          {"name":"depthwise_19/filter_in","op":"Const","attr":{"dtype":{"type":"DT_FLOAT"},"value":{"tensor":{"dtype":"DT_FLOAT","tensorShape":{"dim":[{"size":"3"},{"size":"3"},{"size":"32"},{"size":"1"}]}}}}},
          {"name":"Conv2D_23/filter","op":"Const","attr":{"value":{"tensor":{"dtype":"DT_FLOAT","tensorShape":{"dim":[{"size":"1"},{"size":"1"},{"size":"32"},{"size":"32"}]}}},"dtype":{"type":"DT_FLOAT"}}},
          {"name":"depthwise_22/filter_in","op":"Const","attr":{"dtype":{"type":"DT_FLOAT"},"value":{"tensor":{"dtype":"DT_FLOAT","tensorShape":{"dim":[{"size":"3"},{"size":"3"},{"size":"32"},{"size":"1"}]}}}}},
          {"name":"Conv2D_26/filter","op":"Const","attr":{"value":{"tensor":{"dtype":"DT_FLOAT","tensorShape":{"dim":[{"size":"1"},{"size":"1"},{"size":"32"},{"size":"32"}]}}},"dtype":{"type":"DT_FLOAT"}}},
          {"name":"depthwise_25/filter_in","op":"Const","attr":{"value":{"tensor":{"dtype":"DT_FLOAT","tensorShape":{"dim":[{"size":"3"},{"size":"3"},{"size":"32"},{"size":"1"}]}}},"dtype":{"type":"DT_FLOAT"}}},
          {"name":"Conv2D_29/filter","op":"Const","attr":{"value":{"tensor":{"dtype":"DT_FLOAT","tensorShape":{"dim":[{"size":"1"},{"size":"1"},{"size":"32"},{"size":"64"}]}}},"dtype":{"type":"DT_FLOAT"}}},
          {"name":"depthwise_28/filter_in","op":"Const","attr":{"dtype":{"type":"DT_FLOAT"},"value":{"tensor":{"dtype":"DT_FLOAT","tensorShape":{"dim":[{"size":"3"},{"size":"3"},{"size":"64"},{"size":"1"}]}}}}},
          {"name":"Conv2D_32/filter","op":"Const","attr":{"dtype":{"type":"DT_FLOAT"},"value":{"tensor":{"dtype":"DT_FLOAT","tensorShape":{"dim":[{"size":"1"},{"size":"1"},{"size":"64"},{"size":"64"}]}}}}},
          {"name":"depthwise_31/filter_in","op":"Const","attr":{"value":{"tensor":{"dtype":"DT_FLOAT","tensorShape":{"dim":[{"size":"3"},{"size":"3"},{"size":"64"},{"size":"1"}]}}},"dtype":{"type":"DT_FLOAT"}}},
          {"name":"Conv2D_39/filter","op":"Const","attr":{"value":{"tensor":{"dtype":"DT_FLOAT","tensorShape":{"dim":[{"size":"1"},{"size":"1"},{"size":"64"},{"size":"64"}]}}},"dtype":{"type":"DT_FLOAT"}}},
          {"name":"depthwise_34/filter_in","op":"Const","attr":{"value":{"tensor":{"dtype":"DT_FLOAT","tensorShape":{"dim":[{"size":"3"},{"size":"3"},{"size":"64"},{"size":"1"}]}}},"dtype":{"type":"DT_FLOAT"}}},
          {"name":"Conv2D_42/filter","op":"Const","attr":{"dtype":{"type":"DT_FLOAT"},"value":{"tensor":{"dtype":"DT_FLOAT","tensorShape":{"dim":[{"size":"1"},{"size":"1"},{"size":"64"},{"size":"128"}]}}}}},
          {"name":"depthwise_38/filter_in","op":"Const","attr":{"dtype":{"type":"DT_FLOAT"},"value":{"tensor":{"dtype":"DT_FLOAT","tensorShape":{"dim":[{"size":"3"},{"size":"3"},{"size":"128"},{"size":"1"}]}}}}},
          {"name":"Conv2D_46/filter","op":"Const","attr":{"dtype":{"type":"DT_FLOAT"},"value":{"tensor":{"dtype":"DT_FLOAT","tensorShape":{"dim":[{"size":"1"},{"size":"1"},{"size":"128"},{"size":"128"}]}}}}},
          {"name":"depthwise_43/filter_in","op":"Const","attr":{"value":{"tensor":{"dtype":"DT_FLOAT","tensorShape":{"dim":[{"size":"3"},{"size":"3"},{"size":"128"},{"size":"1"}]}}},"dtype":{"type":"DT_FLOAT"}}},
          {"name":"Conv2D_51/filter","op":"Const","attr":{"dtype":{"type":"DT_FLOAT"},"value":{"tensor":{"dtype":"DT_FLOAT","tensorShape":{"dim":[{"size":"1"},{"size":"1"},{"size":"128"},{"size":"128"}]}}}}},
          {"name":"depthwise_48/filter_in","op":"Const","attr":{"dtype":{"type":"DT_FLOAT"},"value":{"tensor":{"dtype":"DT_FLOAT","tensorShape":{"dim":[{"size":"3"},{"size":"3"},{"size":"128"},{"size":"1"}]}}}}},
          {"name":"Conv2D_64/filter","op":"Const","attr":{"dtype":{"type":"DT_FLOAT"},"value":{"tensor":{"dtype":"DT_FLOAT","tensorShape":{"dim":[{"size":"1"},{"size":"1"},{"size":"128"},{"size":"128"}]}}}}},
          {"name":"depthwise_53/filter_in","op":"Const","attr":{"dtype":{"type":"DT_FLOAT"},"value":{"tensor":{"dtype":"DT_FLOAT","tensorShape":{"dim":[{"size":"3"},{"size":"3"},{"size":"128"},{"size":"1"}]}}}}},
          {"name":"Conv2D_71/filter","op":"Const","attr":{"dtype":{"type":"DT_FLOAT"},"value":{"tensor":{"dtype":"DT_FLOAT","tensorShape":{"dim":[{"size":"1"},{"size":"1"},{"size":"128"},{"size":"128"}]}}}}},
          {"name":"depthwise_58/filter_in","op":"Const","attr":{"dtype":{"type":"DT_FLOAT"},"value":{"tensor":{"dtype":"DT_FLOAT","tensorShape":{"dim":[{"size":"3"},{"size":"3"},{"size":"128"},{"size":"1"}]}}}}},
          {"name":"Conv2D_76/filter","op":"Const","attr":{"dtype":{"type":"DT_FLOAT"},"value":{"tensor":{"dtype":"DT_FLOAT","tensorShape":{"dim":[{"size":"1"},{"size":"1"},{"size":"128"},{"size":"128"}]}}}}},
          {"name":"Conv2D_81/filter","op":"Const","attr":{"value":{"tensor":{"dtype":"DT_FLOAT","tensorShape":{"dim":[{"size":"1"},{"size":"1"},{"size":"128"},{"size":"32"}]}}},"dtype":{"type":"DT_FLOAT"}}},
          {"name":"conv2d_51_1/y","op":"Const","attr":{"value":{"tensor":{"dtype":"DT_FLOAT","tensorShape":{"dim":[{"size":"32"}]}}},"dtype":{"type":"DT_FLOAT"}}},
          {"name":"depthwise_63/filter_in","op":"Const","attr":{"dtype":{"type":"DT_FLOAT"},"value":{"tensor":{"dtype":"DT_FLOAT","tensorShape":{"dim":[{"size":"3"},{"size":"3"},{"size":"32"},{"size":"1"}]}}}}},
          {"name":"Conv2D_86/filter","op":"Const","attr":{"dtype":{"type":"DT_FLOAT"},"value":{"tensor":{"dtype":"DT_FLOAT","tensorShape":{"dim":[{"size":"1"},{"size":"1"},{"size":"32"},{"size":"32"}]}}}}},
          {"name":"Conv2D_91/filter","op":"Const","attr":{"value":{"tensor":{"dtype":"DT_FLOAT","tensorShape":{"dim":[{"size":"2"},{"size":"2"},{"size":"32"},{"size":"10"}]}}},"dtype":{"type":"DT_FLOAT"}}},
          {"name":"conv_left_iris/y","op":"Const","attr":{"dtype":{"type":"DT_FLOAT"},"value":{"tensor":{"dtype":"DT_FLOAT","tensorShape":{"dim":[{"size":"10"}]}}}}},
          {"name":"reshape_4_1/shape","op":"Const","attr":{"dtype":{"type":"DT_INT32"},"value":{"tensor":{"dtype":"DT_INT32","tensorShape":{"dim":[{"size":"3"}]}}}}},
          {"name":"strided_slice_61/stack","op":"Const","attr":{"dtype":{"type":"DT_INT32"},"value":{"tensor":{"dtype":"DT_INT32","tensorShape":{"dim":[{"size":"3"}]}}}}},
          {"name":"strided_slice_61/stack_1","op":"Const","attr":{"dtype":{"type":"DT_INT32"},"value":{"tensor":{"dtype":"DT_INT32","tensorShape":{"dim":[{"size":"3"}]}}}}},
          {"name":"strided_slice_61/stack_2","op":"Const","attr":{"value":{"tensor":{"dtype":"DT_INT32","tensorShape":{"dim":[{"size":"3"}]}}},"dtype":{"type":"DT_INT32"}}},
          {"name":"zeros_1","op":"Const","attr":{"dtype":{"type":"DT_FLOAT"},"value":{"tensor":{"dtype":"DT_FLOAT","tensorShape":{"dim":[{"size":"1"},{"size":"1"},{"size":"2"}]}}}}},
          {"name":"Const_5","op":"Const","attr":{"dtype":{"type":"DT_FLOAT"},"value":{"tensor":{"dtype":"DT_FLOAT","tensorShape":{}}}}},
          {"name":"strided_slice_8/stack","op":"Const","attr":{"value":{"tensor":{"dtype":"DT_INT32","tensorShape":{"dim":[{"size":"3"}]}}},"dtype":{"type":"DT_INT32"}}},
          {"name":"strided_slice_8/stack_1","op":"Const","attr":{"dtype":{"type":"DT_INT32"},"value":{"tensor":{"dtype":"DT_INT32","tensorShape":{"dim":[{"size":"3"}]}}}}},
          {"name":"strided_slice_8/stack_2","op":"Const","attr":{"value":{"tensor":{"dtype":"DT_INT32","tensorShape":{"dim":[{"size":"3"}]}}},"dtype":{"type":"DT_INT32"}}},
          {"name":"Mul_10/y","op":"Const","attr":{"value":{"tensor":{"dtype":"DT_FLOAT","tensorShape":{}}},"dtype":{"type":"DT_FLOAT"}}},
          {"name":"Const_6","op":"Const","attr":{"value":{"tensor":{"dtype":"DT_FLOAT","tensorShape":{"dim":[{"size":"1"},{"size":"2"}]}}},"dtype":{"type":"DT_FLOAT"}}},
          {"name":"Max_1/reduction_indices","op":"Const","attr":{"dtype":{"type":"DT_INT32"},"value":{"tensor":{"dtype":"DT_INT32","tensorShape":{}}}}},
          {"name":"GatherV2_1/indices","op":"Const","attr":{"value":{"tensor":{"dtype":"DT_INT32","tensorShape":{"dim":[{"size":"71"}]}}},"dtype":{"type":"DT_INT32"}}},
          {"name":"GatherV2_1/axis","op":"Const","attr":{"value":{"tensor":{"dtype":"DT_INT32","tensorShape":{}}},"dtype":{"type":"DT_INT32"}}},
          {"name":"strided_slice_7/stack","op":"Const","attr":{"dtype":{"type":"DT_INT32"},"value":{"tensor":{"dtype":"DT_INT32","tensorShape":{"dim":[{"size":"3"}]}}}}},
          {"name":"strided_slice_7/stack_1","op":"Const","attr":{"value":{"tensor":{"dtype":"DT_INT32","tensorShape":{"dim":[{"size":"3"}]}}},"dtype":{"type":"DT_INT32"}}},
          {"name":"strided_slice_7/stack_2","op":"Const","attr":{"value":{"tensor":{"dtype":"DT_INT32","tensorShape":{"dim":[{"size":"3"}]}}},"dtype":{"type":"DT_INT32"}}},
          {"name":"reshape_2/shape","op":"Const","attr":{"value":{"tensor":{"dtype":"DT_INT32","tensorShape":{"dim":[{"size":"3"}]}}},"dtype":{"type":"DT_INT32"}}},
          {"name":"multiply_by_constant_2/y","op":"Const","attr":{"dtype":{"type":"DT_FLOAT"},"value":{"tensor":{"dtype":"DT_FLOAT","tensorShape":{"dim":[{"size":"1"}]}}}}},
          {"name":"strided_slice_5/stack","op":"Const","attr":{"dtype":{"type":"DT_INT32"},"value":{"tensor":{"dtype":"DT_INT32","tensorShape":{"dim":[{"size":"3"}]}}}}},
          {"name":"strided_slice_5/stack_1","op":"Const","attr":{"value":{"tensor":{"dtype":"DT_INT32","tensorShape":{"dim":[{"size":"3"}]}}},"dtype":{"type":"DT_INT32"}}},
          {"name":"strided_slice_5/stack_2","op":"Const","attr":{"dtype":{"type":"DT_INT32"},"value":{"tensor":{"dtype":"DT_INT32","tensorShape":{"dim":[{"size":"3"}]}}}}},
          {"name":"strided_slice_6/stack","op":"Const","attr":{"value":{"tensor":{"dtype":"DT_INT32","tensorShape":{"dim":[{"size":"3"}]}}},"dtype":{"type":"DT_INT32"}}},
          {"name":"strided_slice_6/stack_1","op":"Const","attr":{"value":{"tensor":{"dtype":"DT_INT32","tensorShape":{"dim":[{"size":"3"}]}}},"dtype":{"type":"DT_INT32"}}},
          {"name":"strided_slice_6/stack_2","op":"Const","attr":{"value":{"tensor":{"dtype":"DT_INT32","tensorShape":{"dim":[{"size":"3"}]}}},"dtype":{"type":"DT_INT32"}}},
          {"name":"norm_1/Sum/reduction_indices","op":"Const","attr":{"dtype":{"type":"DT_INT32"},"value":{"tensor":{"dtype":"DT_INT32","tensorShape":{"dim":[{"size":"1"}]}}}}},
          {"name":"Const_4","op":"Const","attr":{"value":{"tensor":{"dtype":"DT_FLOAT","tensorShape":{"dim":[{"size":"2"},{"size":"2"}]}}},"dtype":{"type":"DT_FLOAT"}}},
          {"name":"concat_3/axis","op":"Const","attr":{"value":{"tensor":{"dtype":"DT_INT32","tensorShape":{}}},"dtype":{"type":"DT_INT32"}}},
          {"name":"Min_1/reduction_indices","op":"Const","attr":{"value":{"tensor":{"dtype":"DT_INT32","tensorShape":{}}},"dtype":{"type":"DT_INT32"}}},
          {"name":"strided_slice_9/stack","op":"Const","attr":{"value":{"tensor":{"dtype":"DT_INT32","tensorShape":{"dim":[{"size":"3"}]}}},"dtype":{"type":"DT_INT32"}}},
          {"name":"strided_slice_9/stack_1","op":"Const","attr":{"dtype":{"type":"DT_INT32"},"value":{"tensor":{"dtype":"DT_INT32","tensorShape":{"dim":[{"size":"3"}]}}}}},
          {"name":"strided_slice_9/stack_2","op":"Const","attr":{"value":{"tensor":{"dtype":"DT_INT32","tensorShape":{"dim":[{"size":"3"}]}}},"dtype":{"type":"DT_INT32"}}},
          {"name":"Mul_11/y","op":"Const","attr":{"dtype":{"type":"DT_FLOAT"},"value":{"tensor":{"dtype":"DT_FLOAT","tensorShape":{}}}}},
          {"name":"concat_4/axis","op":"Const","attr":{"dtype":{"type":"DT_INT32"},"value":{"tensor":{"dtype":"DT_INT32","tensorShape":{}}}}},
          {"name":"transpose_3/perm","op":"Const","attr":{"value":{"tensor":{"dtype":"DT_INT32","tensorShape":{"dim":[{"size":"3"}]}}},"dtype":{"type":"DT_INT32"}}},
          {"name":"Tile_1","op":"Const","attr":{"value":{"tensor":{"dtype":"DT_FLOAT","tensorShape":{"dim":[{"size":"1"},{"size":"2"},{"size":"4"}]}}},"dtype":{"type":"DT_FLOAT"}}},
          {"name":"concat_5/axis","op":"Const","attr":{"value":{"tensor":{"dtype":"DT_INT32","tensorShape":{}}},"dtype":{"type":"DT_INT32"}}},
          {"name":"multiply_by_constant_3/y","op":"Const","attr":{"dtype":{"type":"DT_FLOAT"},"value":{"tensor":{"dtype":"DT_FLOAT","tensorShape":{"dim":[{"size":"1"},{"size":"4"},{"size":"4"}]}}}}},
          {"name":"strided_slice_62/stack","op":"Const","attr":{"value":{"tensor":{"dtype":"DT_INT32","tensorShape":{"dim":[{"size":"3"}]}}},"dtype":{"type":"DT_INT32"}}},
          {"name":"strided_slice_62/stack_1","op":"Const","attr":{"dtype":{"type":"DT_INT32"},"value":{"tensor":{"dtype":"DT_INT32","tensorShape":{"dim":[{"size":"3"}]}}}}},
          {"name":"strided_slice_62/stack_2","op":"Const","attr":{"value":{"tensor":{"dtype":"DT_INT32","tensorShape":{"dim":[{"size":"3"}]}}},"dtype":{"type":"DT_INT32"}}},
          {"name":"Reshape_10/shape","op":"Const","attr":{"dtype":{"type":"DT_INT32"},"value":{"tensor":{"dtype":"DT_INT32","tensorShape":{"dim":[{"size":"3"}]}}}}},
          {"name":"output_left_iris/shape","op":"Const","attr":{"value":{"tensor":{"dtype":"DT_INT32","tensorShape":{"dim":[{"size":"4"}]}}},"dtype":{"type":"DT_INT32"}}},
          {"name":"p_re_lu_32/Alpha_dequantize_prelu/Neg","op":"Const","attr":{"dtype":{"type":"DT_FLOAT"},"value":{"tensor":{"dtype":"DT_FLOAT","tensorShape":{"dim":[{"size":"1"},{"size":"1"},{"size":"32"}]}}}}},
          {"name":"conv2d_32_1/y","op":"Const","attr":{"value":{"tensor":{"dtype":"DT_FLOAT","tensorShape":{"dim":[{"size":"32"}]}}},"dtype":{"type":"DT_FLOAT"}}},
          {"name":"p_re_lu_31/Alpha_dequantize_prelu/Neg","op":"Const","attr":{"value":{"tensor":{"dtype":"DT_FLOAT","tensorShape":{"dim":[{"size":"1"},{"size":"1"},{"size":"32"}]}}},"dtype":{"type":"DT_FLOAT"}}},
          {"name":"p_re_lu_30/Alpha_dequantize_prelu/Neg","op":"Const","attr":{"value":{"tensor":{"dtype":"DT_FLOAT","tensorShape":{"dim":[{"size":"1"},{"size":"1"},{"size":"128"}]}}},"dtype":{"type":"DT_FLOAT"}}},
          {"name":"conv2d_30_1/y","op":"Const","attr":{"value":{"tensor":{"dtype":"DT_FLOAT","tensorShape":{"dim":[{"size":"128"}]}}},"dtype":{"type":"DT_FLOAT"}}},
          {"name":"p_re_lu_29/Alpha_dequantize_prelu/Neg","op":"Const","attr":{"value":{"tensor":{"dtype":"DT_FLOAT","tensorShape":{"dim":[{"size":"1"},{"size":"1"},{"size":"128"}]}}},"dtype":{"type":"DT_FLOAT"}}},
          {"name":"conv2d_29_1/y","op":"Const","attr":{"value":{"tensor":{"dtype":"DT_FLOAT","tensorShape":{"dim":[{"size":"128"}]}}},"dtype":{"type":"DT_FLOAT"}}},
          {"name":"p_re_lu_28/Alpha_dequantize_prelu/Neg","op":"Const","attr":{"value":{"tensor":{"dtype":"DT_FLOAT","tensorShape":{"dim":[{"size":"1"},{"size":"1"},{"size":"128"}]}}},"dtype":{"type":"DT_FLOAT"}}},
          {"name":"conv2d_28_1/y","op":"Const","attr":{"value":{"tensor":{"dtype":"DT_FLOAT","tensorShape":{"dim":[{"size":"128"}]}}},"dtype":{"type":"DT_FLOAT"}}},
          {"name":"p_re_lu_27/Alpha_dequantize_prelu/Neg","op":"Const","attr":{"dtype":{"type":"DT_FLOAT"},"value":{"tensor":{"dtype":"DT_FLOAT","tensorShape":{"dim":[{"size":"1"},{"size":"1"},{"size":"128"}]}}}}},
          {"name":"conv2d_27_1/y","op":"Const","attr":{"value":{"tensor":{"dtype":"DT_FLOAT","tensorShape":{"dim":[{"size":"128"}]}}},"dtype":{"type":"DT_FLOAT"}}},
          {"name":"p_re_lu_26/Alpha_dequantize_prelu/Neg","op":"Const","attr":{"dtype":{"type":"DT_FLOAT"},"value":{"tensor":{"dtype":"DT_FLOAT","tensorShape":{"dim":[{"size":"1"},{"size":"1"},{"size":"128"}]}}}}},
          {"name":"conv2d_26_1/y","op":"Const","attr":{"dtype":{"type":"DT_FLOAT"},"value":{"tensor":{"dtype":"DT_FLOAT","tensorShape":{"dim":[{"size":"128"}]}}}}},
          {"name":"p_re_lu_25/Alpha_dequantize_prelu/Neg","op":"Const","attr":{"dtype":{"type":"DT_FLOAT"},"value":{"tensor":{"dtype":"DT_FLOAT","tensorShape":{"dim":[{"size":"1"},{"size":"1"},{"size":"128"}]}}}}},
          {"name":"conv2d_25_1/y","op":"Const","attr":{"value":{"tensor":{"dtype":"DT_FLOAT","tensorShape":{"dim":[{"size":"128"}]}}},"dtype":{"type":"DT_FLOAT"}}},
          {"name":"channel_padding_4/paddings","op":"Const","attr":{"dtype":{"type":"DT_INT32"},"value":{"tensor":{"dtype":"DT_INT32","tensorShape":{"dim":[{"size":"4"},{"size":"2"}]}}}}},
          {"name":"p_re_lu_24/Alpha_dequantize_prelu/Neg","op":"Const","attr":{"value":{"tensor":{"dtype":"DT_FLOAT","tensorShape":{"dim":[{"size":"1"},{"size":"1"},{"size":"64"}]}}},"dtype":{"type":"DT_FLOAT"}}},
          {"name":"conv2d_24_1/y","op":"Const","attr":{"dtype":{"type":"DT_FLOAT"},"value":{"tensor":{"dtype":"DT_FLOAT","tensorShape":{"dim":[{"size":"64"}]}}}}},
          {"name":"p_re_lu_23/Alpha_dequantize_prelu/Neg","op":"Const","attr":{"value":{"tensor":{"dtype":"DT_FLOAT","tensorShape":{"dim":[{"size":"1"},{"size":"1"},{"size":"64"}]}}},"dtype":{"type":"DT_FLOAT"}}},
          {"name":"conv2d_23_1/y","op":"Const","attr":{"dtype":{"type":"DT_FLOAT"},"value":{"tensor":{"dtype":"DT_FLOAT","tensorShape":{"dim":[{"size":"64"}]}}}}},
          {"name":"p_re_lu_22/Alpha_dequantize_prelu/Neg","op":"Const","attr":{"dtype":{"type":"DT_FLOAT"},"value":{"tensor":{"dtype":"DT_FLOAT","tensorShape":{"dim":[{"size":"1"},{"size":"1"},{"size":"64"}]}}}}},
          {"name":"conv2d_22_1/y","op":"Const","attr":{"dtype":{"type":"DT_FLOAT"},"value":{"tensor":{"dtype":"DT_FLOAT","tensorShape":{"dim":[{"size":"64"}]}}}}},
          {"name":"channel_padding_3/paddings","op":"Const","attr":{"value":{"tensor":{"dtype":"DT_INT32","tensorShape":{"dim":[{"size":"4"},{"size":"2"}]}}},"dtype":{"type":"DT_INT32"}}},
          {"name":"p_re_lu_21/Alpha_dequantize_prelu/Neg","op":"Const","attr":{"dtype":{"type":"DT_FLOAT"},"value":{"tensor":{"dtype":"DT_FLOAT","tensorShape":{"dim":[{"size":"1"},{"size":"1"},{"size":"32"}]}}}}},
          {"name":"conv2d_21_1/y","op":"Const","attr":{"dtype":{"type":"DT_FLOAT"},"value":{"tensor":{"dtype":"DT_FLOAT","tensorShape":{"dim":[{"size":"32"}]}}}}},
          {"name":"p_re_lu_20/Alpha_dequantize_prelu/Neg","op":"Const","attr":{"dtype":{"type":"DT_FLOAT"},"value":{"tensor":{"dtype":"DT_FLOAT","tensorShape":{"dim":[{"size":"1"},{"size":"1"},{"size":"32"}]}}}}},
          {"name":"conv2d_20_1/y","op":"Const","attr":{"dtype":{"type":"DT_FLOAT"},"value":{"tensor":{"dtype":"DT_FLOAT","tensorShape":{"dim":[{"size":"32"}]}}}}},
          {"name":"BatchGatherND/Tile","op":"Const","attr":{"value":{"tensor":{"dtype":"DT_INT32","tensorShape":{"dim":[{"size":"1"},{"size":"16"},{"size":"16"},{"size":"1"}]}}},"dtype":{"type":"DT_INT32"}}},
          {"name":"strided_slice_25/stack","op":"Const","attr":{"value":{"tensor":{"dtype":"DT_INT32","tensorShape":{"dim":[{"size":"4"}]}}},"dtype":{"type":"DT_INT32"}}},
          {"name":"strided_slice_25/stack_1","op":"Const","attr":{"dtype":{"type":"DT_INT32"},"value":{"tensor":{"dtype":"DT_INT32","tensorShape":{"dim":[{"size":"4"}]}}}}},
          {"name":"strided_slice_25/stack_2","op":"Const","attr":{"dtype":{"type":"DT_INT32"},"value":{"tensor":{"dtype":"DT_INT32","tensorShape":{"dim":[{"size":"4"}]}}}}},
          {"name":"strided_slice_26/stack","op":"Const","attr":{"value":{"tensor":{"dtype":"DT_INT32","tensorShape":{"dim":[{"size":"4"}]}}},"dtype":{"type":"DT_INT32"}}},
          {"name":"strided_slice_26/stack_1","op":"Const","attr":{"value":{"tensor":{"dtype":"DT_INT32","tensorShape":{"dim":[{"size":"4"}]}}},"dtype":{"type":"DT_INT32"}}},
          {"name":"strided_slice_26/stack_2","op":"Const","attr":{"value":{"tensor":{"dtype":"DT_INT32","tensorShape":{"dim":[{"size":"4"}]}}},"dtype":{"type":"DT_INT32"}}},
          {"name":"concat_11/axis","op":"Const","attr":{"dtype":{"type":"DT_INT32"},"value":{"tensor":{"dtype":"DT_INT32","tensorShape":{}}}}},
          {"name":"BatchGatherND/concat_3/axis","op":"Const","attr":{"value":{"tensor":{"dtype":"DT_INT32","tensorShape":{}}},"dtype":{"type":"DT_INT32"}}},
          {"name":"Prod_1/reduction_indices","op":"Const","attr":{"value":{"tensor":{"dtype":"DT_INT32","tensorShape":{}}},"dtype":{"type":"DT_INT32"}}},
          {"name":"BatchGatherND_3/Tile","op":"Const","attr":{"dtype":{"type":"DT_INT32"},"value":{"tensor":{"dtype":"DT_INT32","tensorShape":{"dim":[{"size":"1"},{"size":"16"},{"size":"16"},{"size":"1"}]}}}}},
          {"name":"strided_slice_27/stack","op":"Const","attr":{"dtype":{"type":"DT_INT32"},"value":{"tensor":{"dtype":"DT_INT32","tensorShape":{"dim":[{"size":"4"}]}}}}},
          {"name":"strided_slice_27/stack_1","op":"Const","attr":{"dtype":{"type":"DT_INT32"},"value":{"tensor":{"dtype":"DT_INT32","tensorShape":{"dim":[{"size":"4"}]}}}}},
          {"name":"strided_slice_27/stack_2","op":"Const","attr":{"dtype":{"type":"DT_INT32"},"value":{"tensor":{"dtype":"DT_INT32","tensorShape":{"dim":[{"size":"4"}]}}}}},
          {"name":"strided_slice_28/stack","op":"Const","attr":{"value":{"tensor":{"dtype":"DT_INT32","tensorShape":{"dim":[{"size":"4"}]}}},"dtype":{"type":"DT_INT32"}}},
          {"name":"strided_slice_28/stack_1","op":"Const","attr":{"dtype":{"type":"DT_INT32"},"value":{"tensor":{"dtype":"DT_INT32","tensorShape":{"dim":[{"size":"4"}]}}}}},
          {"name":"strided_slice_28/stack_2","op":"Const","attr":{"dtype":{"type":"DT_INT32"},"value":{"tensor":{"dtype":"DT_INT32","tensorShape":{"dim":[{"size":"4"}]}}}}},
          {"name":"concat_12/axis","op":"Const","attr":{"dtype":{"type":"DT_INT32"},"value":{"tensor":{"dtype":"DT_INT32","tensorShape":{}}}}},
          {"name":"BatchGatherND_3/concat_3/axis","op":"Const","attr":{"value":{"tensor":{"dtype":"DT_INT32","tensorShape":{}}},"dtype":{"type":"DT_INT32"}}},
          {"name":"Prod/reduction_indices","op":"Const","attr":{"value":{"tensor":{"dtype":"DT_INT32","tensorShape":{}}},"dtype":{"type":"DT_INT32"}}},
          {"name":"strided_slice_17/stack","op":"Const","attr":{"dtype":{"type":"DT_INT32"},"value":{"tensor":{"dtype":"DT_INT32","tensorShape":{"dim":[{"size":"4"}]}}}}},
          {"name":"strided_slice_17/stack_1","op":"Const","attr":{"dtype":{"type":"DT_INT32"},"value":{"tensor":{"dtype":"DT_INT32","tensorShape":{"dim":[{"size":"4"}]}}}}},
          {"name":"strided_slice_17/stack_2","op":"Const","attr":{"dtype":{"type":"DT_INT32"},"value":{"tensor":{"dtype":"DT_INT32","tensorShape":{"dim":[{"size":"4"}]}}}}},
          {"name":"strided_slice_18/stack","op":"Const","attr":{"dtype":{"type":"DT_INT32"},"value":{"tensor":{"dtype":"DT_INT32","tensorShape":{"dim":[{"size":"4"}]}}}}},
          {"name":"strided_slice_18/stack_1","op":"Const","attr":{"dtype":{"type":"DT_INT32"},"value":{"tensor":{"dtype":"DT_INT32","tensorShape":{"dim":[{"size":"4"}]}}}}},
          {"name":"strided_slice_18/stack_2","op":"Const","attr":{"dtype":{"type":"DT_INT32"},"value":{"tensor":{"dtype":"DT_INT32","tensorShape":{"dim":[{"size":"4"}]}}}}},
          {"name":"BatchGatherND_1/Tile","op":"Const","attr":{"value":{"tensor":{"dtype":"DT_INT32","tensorShape":{"dim":[{"size":"1"},{"size":"16"},{"size":"16"},{"size":"1"}]}}},"dtype":{"type":"DT_INT32"}}},
          {"name":"strided_slice_21/stack","op":"Const","attr":{"value":{"tensor":{"dtype":"DT_INT32","tensorShape":{"dim":[{"size":"4"}]}}},"dtype":{"type":"DT_INT32"}}},
          {"name":"strided_slice_21/stack_1","op":"Const","attr":{"value":{"tensor":{"dtype":"DT_INT32","tensorShape":{"dim":[{"size":"4"}]}}},"dtype":{"type":"DT_INT32"}}},
          {"name":"strided_slice_21/stack_2","op":"Const","attr":{"dtype":{"type":"DT_INT32"},"value":{"tensor":{"dtype":"DT_INT32","tensorShape":{"dim":[{"size":"4"}]}}}}},
          {"name":"strided_slice_22/stack","op":"Const","attr":{"value":{"tensor":{"dtype":"DT_INT32","tensorShape":{"dim":[{"size":"4"}]}}},"dtype":{"type":"DT_INT32"}}},
          {"name":"strided_slice_22/stack_1","op":"Const","attr":{"value":{"tensor":{"dtype":"DT_INT32","tensorShape":{"dim":[{"size":"4"}]}}},"dtype":{"type":"DT_INT32"}}},
          {"name":"strided_slice_22/stack_2","op":"Const","attr":{"dtype":{"type":"DT_INT32"},"value":{"tensor":{"dtype":"DT_INT32","tensorShape":{"dim":[{"size":"4"}]}}}}},
          {"name":"concat_9/axis","op":"Const","attr":{"value":{"tensor":{"dtype":"DT_INT32","tensorShape":{}}},"dtype":{"type":"DT_INT32"}}},
          {"name":"BatchGatherND_1/concat_3/axis","op":"Const","attr":{"value":{"tensor":{"dtype":"DT_INT32","tensorShape":{}}},"dtype":{"type":"DT_INT32"}}},
          {"name":"ones","op":"Const","attr":{"dtype":{"type":"DT_FLOAT"},"value":{"tensor":{"dtype":"DT_FLOAT","tensorShape":{"dim":[{"size":"2"}]}}}}},
          {"name":"strided_slice_19/stack","op":"Const","attr":{"value":{"tensor":{"dtype":"DT_INT32","tensorShape":{"dim":[{"size":"4"}]}}},"dtype":{"type":"DT_INT32"}}},
          {"name":"strided_slice_19/stack_1","op":"Const","attr":{"value":{"tensor":{"dtype":"DT_INT32","tensorShape":{"dim":[{"size":"4"}]}}},"dtype":{"type":"DT_INT32"}}},
          {"name":"strided_slice_19/stack_2","op":"Const","attr":{"dtype":{"type":"DT_INT32"},"value":{"tensor":{"dtype":"DT_INT32","tensorShape":{"dim":[{"size":"4"}]}}}}},
          {"name":"strided_slice_20/stack","op":"Const","attr":{"dtype":{"type":"DT_INT32"},"value":{"tensor":{"dtype":"DT_INT32","tensorShape":{"dim":[{"size":"4"}]}}}}},
          {"name":"strided_slice_20/stack_1","op":"Const","attr":{"value":{"tensor":{"dtype":"DT_INT32","tensorShape":{"dim":[{"size":"4"}]}}},"dtype":{"type":"DT_INT32"}}},
          {"name":"strided_slice_20/stack_2","op":"Const","attr":{"dtype":{"type":"DT_INT32"},"value":{"tensor":{"dtype":"DT_INT32","tensorShape":{"dim":[{"size":"4"}]}}}}},
          {"name":"BatchGatherND_2/Tile","op":"Const","attr":{"value":{"tensor":{"dtype":"DT_INT32","tensorShape":{"dim":[{"size":"1"},{"size":"16"},{"size":"16"},{"size":"1"}]}}},"dtype":{"type":"DT_INT32"}}},
          {"name":"ones_1","op":"Const","attr":{"dtype":{"type":"DT_INT32"},"value":{"tensor":{"dtype":"DT_INT32","tensorShape":{"dim":[{"size":"2"}]}}}}},
          {"name":"Minimum_1/y","op":"Const","attr":{"value":{"tensor":{"dtype":"DT_INT32","tensorShape":{"dim":[{"size":"2"}]}}},"dtype":{"type":"DT_INT32"}}},
          {"name":"strided_slice_23/stack","op":"Const","attr":{"dtype":{"type":"DT_INT32"},"value":{"tensor":{"dtype":"DT_INT32","tensorShape":{"dim":[{"size":"4"}]}}}}},
          {"name":"strided_slice_23/stack_1","op":"Const","attr":{"dtype":{"type":"DT_INT32"},"value":{"tensor":{"dtype":"DT_INT32","tensorShape":{"dim":[{"size":"4"}]}}}}},
          {"name":"strided_slice_23/stack_2","op":"Const","attr":{"value":{"tensor":{"dtype":"DT_INT32","tensorShape":{"dim":[{"size":"4"}]}}},"dtype":{"type":"DT_INT32"}}},
          {"name":"Tile_3","op":"Const","attr":{"dtype":{"type":"DT_FLOAT"},"value":{"tensor":{"dtype":"DT_FLOAT","tensorShape":{"dim":[{"size":"1"},{"size":"16"},{"size":"16"},{"size":"2"}]}}}}},
          {"name":"strided_slice_15/stack","op":"Const","attr":{"dtype":{"type":"DT_INT32"},"value":{"tensor":{"dtype":"DT_INT32","tensorShape":{"dim":[{"size":"3"}]}}}}},
          {"name":"strided_slice_15/stack_1","op":"Const","attr":{"dtype":{"type":"DT_INT32"},"value":{"tensor":{"dtype":"DT_INT32","tensorShape":{"dim":[{"size":"3"}]}}}}},
          {"name":"strided_slice_15/stack_2","op":"Const","attr":{"dtype":{"type":"DT_INT32"},"value":{"tensor":{"dtype":"DT_INT32","tensorShape":{"dim":[{"size":"3"}]}}}}},
          {"name":"strided_slice_16/stack","op":"Const","attr":{"dtype":{"type":"DT_INT32"},"value":{"tensor":{"dtype":"DT_INT32","tensorShape":{"dim":[{"size":"3"}]}}}}},
          {"name":"strided_slice_16/stack_1","op":"Const","attr":{"dtype":{"type":"DT_INT32"},"value":{"tensor":{"dtype":"DT_INT32","tensorShape":{"dim":[{"size":"3"}]}}}}},
          {"name":"strided_slice_16/stack_2","op":"Const","attr":{"value":{"tensor":{"dtype":"DT_INT32","tensorShape":{"dim":[{"size":"3"}]}}},"dtype":{"type":"DT_INT32"}}},
          {"name":"Reshape_1/shape","op":"Const","attr":{"value":{"tensor":{"dtype":"DT_INT32","tensorShape":{"dim":[{"size":"4"}]}}},"dtype":{"type":"DT_INT32"}}},
          {"name":"zeros_3","op":"Const","attr":{"dtype":{"type":"DT_INT32"},"value":{"tensor":{"dtype":"DT_INT32","tensorShape":{"dim":[{"size":"2"}]}}}}},
          {"name":"Minimum/y","op":"Const","attr":{"dtype":{"type":"DT_INT32"},"value":{"tensor":{"dtype":"DT_INT32","tensorShape":{"dim":[{"size":"2"}]}}}}},
          {"name":"strided_slice_24/stack","op":"Const","attr":{"dtype":{"type":"DT_INT32"},"value":{"tensor":{"dtype":"DT_INT32","tensorShape":{"dim":[{"size":"4"}]}}}}},
          {"name":"strided_slice_24/stack_1","op":"Const","attr":{"dtype":{"type":"DT_INT32"},"value":{"tensor":{"dtype":"DT_INT32","tensorShape":{"dim":[{"size":"4"}]}}}}},
          {"name":"strided_slice_24/stack_2","op":"Const","attr":{"value":{"tensor":{"dtype":"DT_INT32","tensorShape":{"dim":[{"size":"4"}]}}},"dtype":{"type":"DT_INT32"}}},
          {"name":"concat_10/axis","op":"Const","attr":{"value":{"tensor":{"dtype":"DT_INT32","tensorShape":{}}},"dtype":{"type":"DT_INT32"}}},
          {"name":"BatchGatherND_2/concat_3/axis","op":"Const","attr":{"dtype":{"type":"DT_INT32"},"value":{"tensor":{"dtype":"DT_INT32","tensorShape":{}}}}},
          {"name":"depthwise_18/filter_in","op":"Const","attr":{"dtype":{"type":"DT_FLOAT"},"value":{"tensor":{"dtype":"DT_FLOAT","tensorShape":{"dim":[{"size":"3"},{"size":"3"},{"size":"32"},{"size":"1"}]}}}}},
          {"name":"Conv2D_22/filter","op":"Const","attr":{"dtype":{"type":"DT_FLOAT"},"value":{"tensor":{"dtype":"DT_FLOAT","tensorShape":{"dim":[{"size":"1"},{"size":"1"},{"size":"32"},{"size":"32"}]}}}}},
          {"name":"depthwise_21/filter_in","op":"Const","attr":{"dtype":{"type":"DT_FLOAT"},"value":{"tensor":{"dtype":"DT_FLOAT","tensorShape":{"dim":[{"size":"3"},{"size":"3"},{"size":"32"},{"size":"1"}]}}}}},
          {"name":"Conv2D_25/filter","op":"Const","attr":{"dtype":{"type":"DT_FLOAT"},"value":{"tensor":{"dtype":"DT_FLOAT","tensorShape":{"dim":[{"size":"1"},{"size":"1"},{"size":"32"},{"size":"32"}]}}}}},
          {"name":"depthwise_24/filter_in","op":"Const","attr":{"dtype":{"type":"DT_FLOAT"},"value":{"tensor":{"dtype":"DT_FLOAT","tensorShape":{"dim":[{"size":"3"},{"size":"3"},{"size":"32"},{"size":"1"}]}}}}},
          {"name":"Conv2D_28/filter","op":"Const","attr":{"dtype":{"type":"DT_FLOAT"},"value":{"tensor":{"dtype":"DT_FLOAT","tensorShape":{"dim":[{"size":"1"},{"size":"1"},{"size":"32"},{"size":"64"}]}}}}},
          {"name":"depthwise_27/filter_in","op":"Const","attr":{"value":{"tensor":{"dtype":"DT_FLOAT","tensorShape":{"dim":[{"size":"3"},{"size":"3"},{"size":"64"},{"size":"1"}]}}},"dtype":{"type":"DT_FLOAT"}}},
          {"name":"Conv2D_31/filter","op":"Const","attr":{"value":{"tensor":{"dtype":"DT_FLOAT","tensorShape":{"dim":[{"size":"1"},{"size":"1"},{"size":"64"},{"size":"64"}]}}},"dtype":{"type":"DT_FLOAT"}}},
          {"name":"depthwise_30/filter_in","op":"Const","attr":{"dtype":{"type":"DT_FLOAT"},"value":{"tensor":{"dtype":"DT_FLOAT","tensorShape":{"dim":[{"size":"3"},{"size":"3"},{"size":"64"},{"size":"1"}]}}}}},
          {"name":"Conv2D_38/filter","op":"Const","attr":{"dtype":{"type":"DT_FLOAT"},"value":{"tensor":{"dtype":"DT_FLOAT","tensorShape":{"dim":[{"size":"1"},{"size":"1"},{"size":"64"},{"size":"64"}]}}}}},
          {"name":"depthwise_33/filter_in","op":"Const","attr":{"dtype":{"type":"DT_FLOAT"},"value":{"tensor":{"dtype":"DT_FLOAT","tensorShape":{"dim":[{"size":"3"},{"size":"3"},{"size":"64"},{"size":"1"}]}}}}},
          {"name":"Conv2D_41/filter","op":"Const","attr":{"dtype":{"type":"DT_FLOAT"},"value":{"tensor":{"dtype":"DT_FLOAT","tensorShape":{"dim":[{"size":"1"},{"size":"1"},{"size":"64"},{"size":"128"}]}}}}},
          {"name":"depthwise_36/filter_in","op":"Const","attr":{"value":{"tensor":{"dtype":"DT_FLOAT","tensorShape":{"dim":[{"size":"3"},{"size":"3"},{"size":"128"},{"size":"1"}]}}},"dtype":{"type":"DT_FLOAT"}}},
          {"name":"Conv2D_44/filter","op":"Const","attr":{"dtype":{"type":"DT_FLOAT"},"value":{"tensor":{"dtype":"DT_FLOAT","tensorShape":{"dim":[{"size":"1"},{"size":"1"},{"size":"128"},{"size":"128"}]}}}}},
          {"name":"depthwise_41/filter_in","op":"Const","attr":{"value":{"tensor":{"dtype":"DT_FLOAT","tensorShape":{"dim":[{"size":"3"},{"size":"3"},{"size":"128"},{"size":"1"}]}}},"dtype":{"type":"DT_FLOAT"}}},
          {"name":"Conv2D_49/filter","op":"Const","attr":{"dtype":{"type":"DT_FLOAT"},"value":{"tensor":{"dtype":"DT_FLOAT","tensorShape":{"dim":[{"size":"1"},{"size":"1"},{"size":"128"},{"size":"128"}]}}}}},
          {"name":"depthwise_46/filter_in","op":"Const","attr":{"dtype":{"type":"DT_FLOAT"},"value":{"tensor":{"dtype":"DT_FLOAT","tensorShape":{"dim":[{"size":"3"},{"size":"3"},{"size":"128"},{"size":"1"}]}}}}},
          {"name":"Conv2D_62/filter","op":"Const","attr":{"value":{"tensor":{"dtype":"DT_FLOAT","tensorShape":{"dim":[{"size":"1"},{"size":"1"},{"size":"128"},{"size":"128"}]}}},"dtype":{"type":"DT_FLOAT"}}},
          {"name":"depthwise_51/filter_in","op":"Const","attr":{"value":{"tensor":{"dtype":"DT_FLOAT","tensorShape":{"dim":[{"size":"3"},{"size":"3"},{"size":"128"},{"size":"1"}]}}},"dtype":{"type":"DT_FLOAT"}}},
          {"name":"Conv2D_69/filter","op":"Const","attr":{"dtype":{"type":"DT_FLOAT"},"value":{"tensor":{"dtype":"DT_FLOAT","tensorShape":{"dim":[{"size":"1"},{"size":"1"},{"size":"128"},{"size":"128"}]}}}}},
          {"name":"depthwise_56/filter_in","op":"Const","attr":{"dtype":{"type":"DT_FLOAT"},"value":{"tensor":{"dtype":"DT_FLOAT","tensorShape":{"dim":[{"size":"3"},{"size":"3"},{"size":"128"},{"size":"1"}]}}}}},
          {"name":"Conv2D_74/filter","op":"Const","attr":{"dtype":{"type":"DT_FLOAT"},"value":{"tensor":{"dtype":"DT_FLOAT","tensorShape":{"dim":[{"size":"1"},{"size":"1"},{"size":"128"},{"size":"128"}]}}}}},
          {"name":"Conv2D_79/filter","op":"Const","attr":{"value":{"tensor":{"dtype":"DT_FLOAT","tensorShape":{"dim":[{"size":"1"},{"size":"1"},{"size":"128"},{"size":"32"}]}}},"dtype":{"type":"DT_FLOAT"}}},
          {"name":"conv2d_31_1/y","op":"Const","attr":{"dtype":{"type":"DT_FLOAT"},"value":{"tensor":{"dtype":"DT_FLOAT","tensorShape":{"dim":[{"size":"32"}]}}}}},
          {"name":"depthwise_61/filter_in","op":"Const","attr":{"dtype":{"type":"DT_FLOAT"},"value":{"tensor":{"dtype":"DT_FLOAT","tensorShape":{"dim":[{"size":"3"},{"size":"3"},{"size":"32"},{"size":"1"}]}}}}},
          {"name":"Conv2D_84/filter","op":"Const","attr":{"dtype":{"type":"DT_FLOAT"},"value":{"tensor":{"dtype":"DT_FLOAT","tensorShape":{"dim":[{"size":"1"},{"size":"1"},{"size":"32"},{"size":"32"}]}}}}},
          {"name":"Conv2D_89/filter","op":"Const","attr":{"dtype":{"type":"DT_FLOAT"},"value":{"tensor":{"dtype":"DT_FLOAT","tensorShape":{"dim":[{"size":"2"},{"size":"2"},{"size":"32"},{"size":"160"}]}}}}},
          {"name":"conv_lips/y","op":"Const","attr":{"value":{"tensor":{"dtype":"DT_FLOAT","tensorShape":{"dim":[{"size":"160"}]}}},"dtype":{"type":"DT_FLOAT"}}},
          {"name":"reshape_1_1/shape","op":"Const","attr":{"value":{"tensor":{"dtype":"DT_INT32","tensorShape":{"dim":[{"size":"3"}]}}},"dtype":{"type":"DT_INT32"}}},
          {"name":"strided_slice_57/stack","op":"Const","attr":{"value":{"tensor":{"dtype":"DT_INT32","tensorShape":{"dim":[{"size":"3"}]}}},"dtype":{"type":"DT_INT32"}}},
          {"name":"strided_slice_57/stack_1","op":"Const","attr":{"dtype":{"type":"DT_INT32"},"value":{"tensor":{"dtype":"DT_INT32","tensorShape":{"dim":[{"size":"3"}]}}}}},
          {"name":"strided_slice_57/stack_2","op":"Const","attr":{"dtype":{"type":"DT_INT32"},"value":{"tensor":{"dtype":"DT_INT32","tensorShape":{"dim":[{"size":"3"}]}}}}},
          {"name":"zeros","op":"Const","attr":{"dtype":{"type":"DT_FLOAT"},"value":{"tensor":{"dtype":"DT_FLOAT","tensorShape":{"dim":[{"size":"1"},{"size":"1"},{"size":"2"}]}}}}},
          {"name":"Const_1","op":"Const","attr":{"dtype":{"type":"DT_FLOAT"},"value":{"tensor":{"dtype":"DT_FLOAT","tensorShape":{}}}}},
          {"name":"strided_slice_3/stack","op":"Const","attr":{"value":{"tensor":{"dtype":"DT_INT32","tensorShape":{"dim":[{"size":"3"}]}}},"dtype":{"type":"DT_INT32"}}},
          {"name":"strided_slice_3/stack_1","op":"Const","attr":{"dtype":{"type":"DT_INT32"},"value":{"tensor":{"dtype":"DT_INT32","tensorShape":{"dim":[{"size":"3"}]}}}}},
          {"name":"strided_slice_3/stack_2","op":"Const","attr":{"dtype":{"type":"DT_INT32"},"value":{"tensor":{"dtype":"DT_INT32","tensorShape":{"dim":[{"size":"3"}]}}}}},
          {"name":"Mul_4/y","op":"Const","attr":{"dtype":{"type":"DT_FLOAT"},"value":{"tensor":{"dtype":"DT_FLOAT","tensorShape":{}}}}},
          {"name":"Const_2","op":"Const","attr":{"dtype":{"type":"DT_FLOAT"},"value":{"tensor":{"dtype":"DT_FLOAT","tensorShape":{"dim":[{"size":"1"},{"size":"2"}]}}}}},
          {"name":"Max/reduction_indices","op":"Const","attr":{"dtype":{"type":"DT_INT32"},"value":{"tensor":{"dtype":"DT_INT32","tensorShape":{}}}}},
          {"name":"GatherV2/indices","op":"Const","attr":{"value":{"tensor":{"dtype":"DT_INT32","tensorShape":{"dim":[{"size":"80"}]}}},"dtype":{"type":"DT_INT32"}}},
          {"name":"GatherV2/axis","op":"Const","attr":{"dtype":{"type":"DT_INT32"},"value":{"tensor":{"dtype":"DT_INT32","tensorShape":{}}}}},
          {"name":"strided_slice_2/stack","op":"Const","attr":{"value":{"tensor":{"dtype":"DT_INT32","tensorShape":{"dim":[{"size":"3"}]}}},"dtype":{"type":"DT_INT32"}}},
          {"name":"strided_slice_2/stack_1","op":"Const","attr":{"dtype":{"type":"DT_INT32"},"value":{"tensor":{"dtype":"DT_INT32","tensorShape":{"dim":[{"size":"3"}]}}}}},
          {"name":"strided_slice_2/stack_2","op":"Const","attr":{"dtype":{"type":"DT_INT32"},"value":{"tensor":{"dtype":"DT_INT32","tensorShape":{"dim":[{"size":"3"}]}}}}},
          {"name":"reshape/shape","op":"Const","attr":{"dtype":{"type":"DT_INT32"},"value":{"tensor":{"dtype":"DT_INT32","tensorShape":{"dim":[{"size":"3"}]}}}}},
          {"name":"multiply_by_constant/y","op":"Const","attr":{"value":{"tensor":{"dtype":"DT_FLOAT","tensorShape":{"dim":[{"size":"1"}]}}},"dtype":{"type":"DT_FLOAT"}}},
          {"name":"strided_slice/stack","op":"Const","attr":{"dtype":{"type":"DT_INT32"},"value":{"tensor":{"dtype":"DT_INT32","tensorShape":{"dim":[{"size":"3"}]}}}}},
          {"name":"strided_slice/stack_1","op":"Const","attr":{"dtype":{"type":"DT_INT32"},"value":{"tensor":{"dtype":"DT_INT32","tensorShape":{"dim":[{"size":"3"}]}}}}},
          {"name":"strided_slice/stack_2","op":"Const","attr":{"dtype":{"type":"DT_INT32"},"value":{"tensor":{"dtype":"DT_INT32","tensorShape":{"dim":[{"size":"3"}]}}}}},
          {"name":"strided_slice_1/stack","op":"Const","attr":{"value":{"tensor":{"dtype":"DT_INT32","tensorShape":{"dim":[{"size":"3"}]}}},"dtype":{"type":"DT_INT32"}}},
          {"name":"strided_slice_1/stack_1","op":"Const","attr":{"value":{"tensor":{"dtype":"DT_INT32","tensorShape":{"dim":[{"size":"3"}]}}},"dtype":{"type":"DT_INT32"}}},
          {"name":"strided_slice_1/stack_2","op":"Const","attr":{"value":{"tensor":{"dtype":"DT_INT32","tensorShape":{"dim":[{"size":"3"}]}}},"dtype":{"type":"DT_INT32"}}},
          {"name":"norm/Sum/reduction_indices","op":"Const","attr":{"value":{"tensor":{"dtype":"DT_INT32","tensorShape":{"dim":[{"size":"1"}]}}},"dtype":{"type":"DT_INT32"}}},
          {"name":"Const","op":"Const","attr":{"value":{"tensor":{"dtype":"DT_FLOAT","tensorShape":{"dim":[{"size":"2"},{"size":"2"}]}}},"dtype":{"type":"DT_FLOAT"}}},
          {"name":"concat/axis","op":"Const","attr":{"dtype":{"type":"DT_INT32"},"value":{"tensor":{"dtype":"DT_INT32","tensorShape":{}}}}},
          {"name":"Min/reduction_indices","op":"Const","attr":{"dtype":{"type":"DT_INT32"},"value":{"tensor":{"dtype":"DT_INT32","tensorShape":{}}}}},
          {"name":"strided_slice_4/stack","op":"Const","attr":{"value":{"tensor":{"dtype":"DT_INT32","tensorShape":{"dim":[{"size":"3"}]}}},"dtype":{"type":"DT_INT32"}}},
          {"name":"strided_slice_4/stack_1","op":"Const","attr":{"value":{"tensor":{"dtype":"DT_INT32","tensorShape":{"dim":[{"size":"3"}]}}},"dtype":{"type":"DT_INT32"}}},
          {"name":"strided_slice_4/stack_2","op":"Const","attr":{"value":{"tensor":{"dtype":"DT_INT32","tensorShape":{"dim":[{"size":"3"}]}}},"dtype":{"type":"DT_INT32"}}},
          {"name":"Mul_5/y","op":"Const","attr":{"dtype":{"type":"DT_FLOAT"},"value":{"tensor":{"dtype":"DT_FLOAT","tensorShape":{}}}}},
          {"name":"concat_1/axis","op":"Const","attr":{"value":{"tensor":{"dtype":"DT_INT32","tensorShape":{}}},"dtype":{"type":"DT_INT32"}}},
          {"name":"transpose_1/perm","op":"Const","attr":{"value":{"tensor":{"dtype":"DT_INT32","tensorShape":{"dim":[{"size":"3"}]}}},"dtype":{"type":"DT_INT32"}}},
          {"name":"Tile","op":"Const","attr":{"value":{"tensor":{"dtype":"DT_FLOAT","tensorShape":{"dim":[{"size":"1"},{"size":"2"},{"size":"4"}]}}},"dtype":{"type":"DT_FLOAT"}}},
          {"name":"concat_2/axis","op":"Const","attr":{"dtype":{"type":"DT_INT32"},"value":{"tensor":{"dtype":"DT_INT32","tensorShape":{}}}}},
          {"name":"multiply_by_constant_1/y","op":"Const","attr":{"value":{"tensor":{"dtype":"DT_FLOAT","tensorShape":{"dim":[{"size":"1"},{"size":"4"},{"size":"4"}]}}},"dtype":{"type":"DT_FLOAT"}}},
          {"name":"strided_slice_58/stack","op":"Const","attr":{"value":{"tensor":{"dtype":"DT_INT32","tensorShape":{"dim":[{"size":"3"}]}}},"dtype":{"type":"DT_INT32"}}},
          {"name":"strided_slice_58/stack_1","op":"Const","attr":{"value":{"tensor":{"dtype":"DT_INT32","tensorShape":{"dim":[{"size":"3"}]}}},"dtype":{"type":"DT_INT32"}}},
          {"name":"strided_slice_58/stack_2","op":"Const","attr":{"value":{"tensor":{"dtype":"DT_INT32","tensorShape":{"dim":[{"size":"3"}]}}},"dtype":{"type":"DT_INT32"}}},
          {"name":"Reshape_8/shape","op":"Const","attr":{"value":{"tensor":{"dtype":"DT_INT32","tensorShape":{"dim":[{"size":"3"}]}}},"dtype":{"type":"DT_INT32"}}},
          {"name":"output_lips/shape","op":"Const","attr":{"value":{"tensor":{"dtype":"DT_INT32","tensorShape":{"dim":[{"size":"4"}]}}},"dtype":{"type":"DT_INT32"}}},
          {"name":"output_mesh_identity/begin","op":"Const","attr":{"dtype":{"type":"DT_INT32"},"value":{"tensor":{"dtype":"DT_INT32","tensorShape":{"dim":[{"size":"4"}]}}}}},
          {"name":"output_mesh_identity/end","op":"Const","attr":{"value":{"tensor":{"dtype":"DT_INT32","tensorShape":{"dim":[{"size":"4"}]}}},"dtype":{"type":"DT_INT32"}}},
          {"name":"output_mesh_identity/strides","op":"Const","attr":{"dtype":{"type":"DT_INT32"},"value":{"tensor":{"dtype":"DT_INT32","tensorShape":{"dim":[{"size":"4"}]}}}}},
          {"name":"p_re_lu_65/Alpha_dequantize_prelu/Neg","op":"Const","attr":{"value":{"tensor":{"dtype":"DT_FLOAT","tensorShape":{"dim":[{"size":"1"},{"size":"1"},{"size":"32"}]}}},"dtype":{"type":"DT_FLOAT"}}},
          {"name":"conv2d_65_1/y","op":"Const","attr":{"dtype":{"type":"DT_FLOAT"},"value":{"tensor":{"dtype":"DT_FLOAT","tensorShape":{"dim":[{"size":"32"}]}}}}},
          {"name":"p_re_lu_64/Alpha_dequantize_prelu/Neg","op":"Const","attr":{"dtype":{"type":"DT_FLOAT"},"value":{"tensor":{"dtype":"DT_FLOAT","tensorShape":{"dim":[{"size":"1"},{"size":"1"},{"size":"32"}]}}}}},
          {"name":"p_re_lu_63/Alpha_dequantize_prelu/Neg","op":"Const","attr":{"value":{"tensor":{"dtype":"DT_FLOAT","tensorShape":{"dim":[{"size":"1"},{"size":"1"},{"size":"128"}]}}},"dtype":{"type":"DT_FLOAT"}}},
          {"name":"conv2d_63_1/y","op":"Const","attr":{"value":{"tensor":{"dtype":"DT_FLOAT","tensorShape":{"dim":[{"size":"128"}]}}},"dtype":{"type":"DT_FLOAT"}}},
          {"name":"p_re_lu_62/Alpha_dequantize_prelu/Neg","op":"Const","attr":{"value":{"tensor":{"dtype":"DT_FLOAT","tensorShape":{"dim":[{"size":"1"},{"size":"1"},{"size":"128"}]}}},"dtype":{"type":"DT_FLOAT"}}},
          {"name":"conv2d_62_1/y","op":"Const","attr":{"value":{"tensor":{"dtype":"DT_FLOAT","tensorShape":{"dim":[{"size":"128"}]}}},"dtype":{"type":"DT_FLOAT"}}},
          {"name":"p_re_lu_61/Alpha_dequantize_prelu/Neg","op":"Const","attr":{"dtype":{"type":"DT_FLOAT"},"value":{"tensor":{"dtype":"DT_FLOAT","tensorShape":{"dim":[{"size":"1"},{"size":"1"},{"size":"128"}]}}}}},
          {"name":"conv2d_61_1/y","op":"Const","attr":{"value":{"tensor":{"dtype":"DT_FLOAT","tensorShape":{"dim":[{"size":"128"}]}}},"dtype":{"type":"DT_FLOAT"}}},
          {"name":"p_re_lu_60/Alpha_dequantize_prelu/Neg","op":"Const","attr":{"value":{"tensor":{"dtype":"DT_FLOAT","tensorShape":{"dim":[{"size":"1"},{"size":"1"},{"size":"128"}]}}},"dtype":{"type":"DT_FLOAT"}}},
          {"name":"conv2d_60/y","op":"Const","attr":{"value":{"tensor":{"dtype":"DT_FLOAT","tensorShape":{"dim":[{"size":"128"}]}}},"dtype":{"type":"DT_FLOAT"}}},
          {"name":"p_re_lu_59/Alpha_dequantize_prelu/Neg","op":"Const","attr":{"dtype":{"type":"DT_FLOAT"},"value":{"tensor":{"dtype":"DT_FLOAT","tensorShape":{"dim":[{"size":"1"},{"size":"1"},{"size":"128"}]}}}}},
          {"name":"conv2d_59/y","op":"Const","attr":{"value":{"tensor":{"dtype":"DT_FLOAT","tensorShape":{"dim":[{"size":"128"}]}}},"dtype":{"type":"DT_FLOAT"}}},
          {"name":"depthwise_39/filter_in","op":"Const","attr":{"dtype":{"type":"DT_FLOAT"},"value":{"tensor":{"dtype":"DT_FLOAT","tensorShape":{"dim":[{"size":"3"},{"size":"3"},{"size":"128"},{"size":"1"}]}}}}},
          {"name":"Conv2D_47/filter","op":"Const","attr":{"dtype":{"type":"DT_FLOAT"},"value":{"tensor":{"dtype":"DT_FLOAT","tensorShape":{"dim":[{"size":"1"},{"size":"1"},{"size":"128"},{"size":"128"}]}}}}},
          {"name":"depthwise_44/filter_in","op":"Const","attr":{"value":{"tensor":{"dtype":"DT_FLOAT","tensorShape":{"dim":[{"size":"3"},{"size":"3"},{"size":"128"},{"size":"1"}]}}},"dtype":{"type":"DT_FLOAT"}}},
          {"name":"Conv2D_52/filter","op":"Const","attr":{"value":{"tensor":{"dtype":"DT_FLOAT","tensorShape":{"dim":[{"size":"1"},{"size":"1"},{"size":"128"},{"size":"128"}]}}},"dtype":{"type":"DT_FLOAT"}}},
          {"name":"depthwise_49/filter_in","op":"Const","attr":{"value":{"tensor":{"dtype":"DT_FLOAT","tensorShape":{"dim":[{"size":"3"},{"size":"3"},{"size":"128"},{"size":"1"}]}}},"dtype":{"type":"DT_FLOAT"}}},
          {"name":"Conv2D_65/filter","op":"Const","attr":{"value":{"tensor":{"dtype":"DT_FLOAT","tensorShape":{"dim":[{"size":"1"},{"size":"1"},{"size":"128"},{"size":"128"}]}}},"dtype":{"type":"DT_FLOAT"}}},
          {"name":"depthwise_54/filter_in","op":"Const","attr":{"dtype":{"type":"DT_FLOAT"},"value":{"tensor":{"dtype":"DT_FLOAT","tensorShape":{"dim":[{"size":"3"},{"size":"3"},{"size":"128"},{"size":"1"}]}}}}},
          {"name":"Conv2D_72/filter","op":"Const","attr":{"dtype":{"type":"DT_FLOAT"},"value":{"tensor":{"dtype":"DT_FLOAT","tensorShape":{"dim":[{"size":"1"},{"size":"1"},{"size":"128"},{"size":"128"}]}}}}},
          {"name":"depthwise_59/filter_in","op":"Const","attr":{"dtype":{"type":"DT_FLOAT"},"value":{"tensor":{"dtype":"DT_FLOAT","tensorShape":{"dim":[{"size":"3"},{"size":"3"},{"size":"128"},{"size":"1"}]}}}}},
          {"name":"Conv2D_77/filter","op":"Const","attr":{"value":{"tensor":{"dtype":"DT_FLOAT","tensorShape":{"dim":[{"size":"1"},{"size":"1"},{"size":"128"},{"size":"128"}]}}},"dtype":{"type":"DT_FLOAT"}}},
          {"name":"Conv2D_82/filter","op":"Const","attr":{"value":{"tensor":{"dtype":"DT_FLOAT","tensorShape":{"dim":[{"size":"1"},{"size":"1"},{"size":"128"},{"size":"32"}]}}},"dtype":{"type":"DT_FLOAT"}}},
          {"name":"conv2d_64_1/y","op":"Const","attr":{"value":{"tensor":{"dtype":"DT_FLOAT","tensorShape":{"dim":[{"size":"32"}]}}},"dtype":{"type":"DT_FLOAT"}}},
          {"name":"depthwise_64/filter_in","op":"Const","attr":{"dtype":{"type":"DT_FLOAT"},"value":{"tensor":{"dtype":"DT_FLOAT","tensorShape":{"dim":[{"size":"3"},{"size":"3"},{"size":"32"},{"size":"1"}]}}}}},
          {"name":"Conv2D_87/filter","op":"Const","attr":{"value":{"tensor":{"dtype":"DT_FLOAT","tensorShape":{"dim":[{"size":"1"},{"size":"1"},{"size":"32"},{"size":"32"}]}}},"dtype":{"type":"DT_FLOAT"}}},
          {"name":"Conv2D_92/filter","op":"Const","attr":{"dtype":{"type":"DT_FLOAT"},"value":{"tensor":{"dtype":"DT_FLOAT","tensorShape":{"dim":[{"size":"2"},{"size":"2"},{"size":"32"},{"size":"142"}]}}}}},
          {"name":"conv_right_eye/y","op":"Const","attr":{"dtype":{"type":"DT_FLOAT"},"value":{"tensor":{"dtype":"DT_FLOAT","tensorShape":{"dim":[{"size":"142"}]}}}}},
          {"name":"reshape_6/shape","op":"Const","attr":{"dtype":{"type":"DT_INT32"},"value":{"tensor":{"dtype":"DT_INT32","tensorShape":{"dim":[{"size":"3"}]}}}}},
          {"name":"strided_slice_63/stack","op":"Const","attr":{"dtype":{"type":"DT_INT32"},"value":{"tensor":{"dtype":"DT_INT32","tensorShape":{"dim":[{"size":"3"}]}}}}},
          {"name":"strided_slice_63/stack_1","op":"Const","attr":{"value":{"tensor":{"dtype":"DT_INT32","tensorShape":{"dim":[{"size":"3"}]}}},"dtype":{"type":"DT_INT32"}}},
          {"name":"strided_slice_63/stack_2","op":"Const","attr":{"value":{"tensor":{"dtype":"DT_INT32","tensorShape":{"dim":[{"size":"3"}]}}},"dtype":{"type":"DT_INT32"}}},
          {"name":"strided_slice_64/stack","op":"Const","attr":{"value":{"tensor":{"dtype":"DT_INT32","tensorShape":{"dim":[{"size":"3"}]}}},"dtype":{"type":"DT_INT32"}}},
          {"name":"strided_slice_64/stack_1","op":"Const","attr":{"value":{"tensor":{"dtype":"DT_INT32","tensorShape":{"dim":[{"size":"3"}]}}},"dtype":{"type":"DT_INT32"}}},
          {"name":"strided_slice_64/stack_2","op":"Const","attr":{"value":{"tensor":{"dtype":"DT_INT32","tensorShape":{"dim":[{"size":"3"}]}}},"dtype":{"type":"DT_INT32"}}},
          {"name":"Reshape_11/shape","op":"Const","attr":{"dtype":{"type":"DT_INT32"},"value":{"tensor":{"dtype":"DT_INT32","tensorShape":{"dim":[{"size":"3"}]}}}}},
          {"name":"output_right_eye/shape","op":"Const","attr":{"dtype":{"type":"DT_INT32"},"value":{"tensor":{"dtype":"DT_INT32","tensorShape":{"dim":[{"size":"4"}]}}}}},
          {"name":"p_re_lu_72/Alpha_dequantize_prelu/Neg","op":"Const","attr":{"dtype":{"type":"DT_FLOAT"},"value":{"tensor":{"dtype":"DT_FLOAT","tensorShape":{"dim":[{"size":"1"},{"size":"1"},{"size":"32"}]}}}}},
          {"name":"conv2d_72_1/y","op":"Const","attr":{"dtype":{"type":"DT_FLOAT"},"value":{"tensor":{"dtype":"DT_FLOAT","tensorShape":{"dim":[{"size":"32"}]}}}}},
          {"name":"p_re_lu_71/Alpha_dequantize_prelu/Neg","op":"Const","attr":{"dtype":{"type":"DT_FLOAT"},"value":{"tensor":{"dtype":"DT_FLOAT","tensorShape":{"dim":[{"size":"1"},{"size":"1"},{"size":"32"}]}}}}},
          {"name":"p_re_lu_70/Alpha_dequantize_prelu/Neg","op":"Const","attr":{"value":{"tensor":{"dtype":"DT_FLOAT","tensorShape":{"dim":[{"size":"1"},{"size":"1"},{"size":"128"}]}}},"dtype":{"type":"DT_FLOAT"}}},
          {"name":"conv2d_70_1/y","op":"Const","attr":{"value":{"tensor":{"dtype":"DT_FLOAT","tensorShape":{"dim":[{"size":"128"}]}}},"dtype":{"type":"DT_FLOAT"}}},
          {"name":"p_re_lu_69/Alpha_dequantize_prelu/Neg","op":"Const","attr":{"dtype":{"type":"DT_FLOAT"},"value":{"tensor":{"dtype":"DT_FLOAT","tensorShape":{"dim":[{"size":"1"},{"size":"1"},{"size":"128"}]}}}}},
          {"name":"conv2d_69_1/y","op":"Const","attr":{"value":{"tensor":{"dtype":"DT_FLOAT","tensorShape":{"dim":[{"size":"128"}]}}},"dtype":{"type":"DT_FLOAT"}}},
          {"name":"p_re_lu_68/Alpha_dequantize_prelu/Neg","op":"Const","attr":{"value":{"tensor":{"dtype":"DT_FLOAT","tensorShape":{"dim":[{"size":"1"},{"size":"1"},{"size":"128"}]}}},"dtype":{"type":"DT_FLOAT"}}},
          {"name":"conv2d_68_1/y","op":"Const","attr":{"value":{"tensor":{"dtype":"DT_FLOAT","tensorShape":{"dim":[{"size":"128"}]}}},"dtype":{"type":"DT_FLOAT"}}},
          {"name":"p_re_lu_67/Alpha_dequantize_prelu/Neg","op":"Const","attr":{"value":{"tensor":{"dtype":"DT_FLOAT","tensorShape":{"dim":[{"size":"1"},{"size":"1"},{"size":"128"}]}}},"dtype":{"type":"DT_FLOAT"}}},
          {"name":"conv2d_67/y","op":"Const","attr":{"dtype":{"type":"DT_FLOAT"},"value":{"tensor":{"dtype":"DT_FLOAT","tensorShape":{"dim":[{"size":"128"}]}}}}},
          {"name":"p_re_lu_66/Alpha_dequantize_prelu/Neg","op":"Const","attr":{"value":{"tensor":{"dtype":"DT_FLOAT","tensorShape":{"dim":[{"size":"1"},{"size":"1"},{"size":"128"}]}}},"dtype":{"type":"DT_FLOAT"}}},
          {"name":"conv2d_66/y","op":"Const","attr":{"dtype":{"type":"DT_FLOAT"},"value":{"tensor":{"dtype":"DT_FLOAT","tensorShape":{"dim":[{"size":"128"}]}}}}},
          {"name":"p_re_lu_58/Alpha_dequantize_prelu/Neg","op":"Const","attr":{"dtype":{"type":"DT_FLOAT"},"value":{"tensor":{"dtype":"DT_FLOAT","tensorShape":{"dim":[{"size":"1"},{"size":"1"},{"size":"128"}]}}}}},
          {"name":"conv2d_58/y","op":"Const","attr":{"value":{"tensor":{"dtype":"DT_FLOAT","tensorShape":{"dim":[{"size":"128"}]}}},"dtype":{"type":"DT_FLOAT"}}},
          {"name":"channel_padding_8/paddings","op":"Const","attr":{"dtype":{"type":"DT_INT32"},"value":{"tensor":{"dtype":"DT_INT32","tensorShape":{"dim":[{"size":"4"},{"size":"2"}]}}}}},
          {"name":"p_re_lu_57/Alpha_dequantize_prelu/Neg","op":"Const","attr":{"dtype":{"type":"DT_FLOAT"},"value":{"tensor":{"dtype":"DT_FLOAT","tensorShape":{"dim":[{"size":"1"},{"size":"1"},{"size":"64"}]}}}}},
          {"name":"conv2d_57/y","op":"Const","attr":{"value":{"tensor":{"dtype":"DT_FLOAT","tensorShape":{"dim":[{"size":"64"}]}}},"dtype":{"type":"DT_FLOAT"}}},
          {"name":"p_re_lu_56/Alpha_dequantize_prelu/Neg","op":"Const","attr":{"value":{"tensor":{"dtype":"DT_FLOAT","tensorShape":{"dim":[{"size":"1"},{"size":"1"},{"size":"64"}]}}},"dtype":{"type":"DT_FLOAT"}}},
          {"name":"conv2d_56/y","op":"Const","attr":{"dtype":{"type":"DT_FLOAT"},"value":{"tensor":{"dtype":"DT_FLOAT","tensorShape":{"dim":[{"size":"64"}]}}}}},
          {"name":"p_re_lu_55/Alpha_dequantize_prelu/Neg","op":"Const","attr":{"value":{"tensor":{"dtype":"DT_FLOAT","tensorShape":{"dim":[{"size":"1"},{"size":"1"},{"size":"64"}]}}},"dtype":{"type":"DT_FLOAT"}}},
          {"name":"conv2d_55/y","op":"Const","attr":{"value":{"tensor":{"dtype":"DT_FLOAT","tensorShape":{"dim":[{"size":"64"}]}}},"dtype":{"type":"DT_FLOAT"}}},
          {"name":"channel_padding_7/paddings","op":"Const","attr":{"dtype":{"type":"DT_INT32"},"value":{"tensor":{"dtype":"DT_INT32","tensorShape":{"dim":[{"size":"4"},{"size":"2"}]}}}}},
          {"name":"p_re_lu_54/Alpha_dequantize_prelu/Neg","op":"Const","attr":{"dtype":{"type":"DT_FLOAT"},"value":{"tensor":{"dtype":"DT_FLOAT","tensorShape":{"dim":[{"size":"1"},{"size":"1"},{"size":"32"}]}}}}},
          {"name":"conv2d_54/y","op":"Const","attr":{"value":{"tensor":{"dtype":"DT_FLOAT","tensorShape":{"dim":[{"size":"32"}]}}},"dtype":{"type":"DT_FLOAT"}}},
          {"name":"p_re_lu_53/Alpha_dequantize_prelu/Neg","op":"Const","attr":{"value":{"tensor":{"dtype":"DT_FLOAT","tensorShape":{"dim":[{"size":"1"},{"size":"1"},{"size":"32"}]}}},"dtype":{"type":"DT_FLOAT"}}},
          {"name":"conv2d_53/y","op":"Const","attr":{"dtype":{"type":"DT_FLOAT"},"value":{"tensor":{"dtype":"DT_FLOAT","tensorShape":{"dim":[{"size":"32"}]}}}}},
          {"name":"BatchGatherND_8/Tile","op":"Const","attr":{"dtype":{"type":"DT_INT32"},"value":{"tensor":{"dtype":"DT_INT32","tensorShape":{"dim":[{"size":"1"},{"size":"16"},{"size":"16"},{"size":"1"}]}}}}},
          {"name":"strided_slice_53/stack","op":"Const","attr":{"dtype":{"type":"DT_INT32"},"value":{"tensor":{"dtype":"DT_INT32","tensorShape":{"dim":[{"size":"4"}]}}}}},
          {"name":"strided_slice_53/stack_1","op":"Const","attr":{"value":{"tensor":{"dtype":"DT_INT32","tensorShape":{"dim":[{"size":"4"}]}}},"dtype":{"type":"DT_INT32"}}},
          {"name":"strided_slice_53/stack_2","op":"Const","attr":{"value":{"tensor":{"dtype":"DT_INT32","tensorShape":{"dim":[{"size":"4"}]}}},"dtype":{"type":"DT_INT32"}}},
          {"name":"strided_slice_54/stack","op":"Const","attr":{"value":{"tensor":{"dtype":"DT_INT32","tensorShape":{"dim":[{"size":"4"}]}}},"dtype":{"type":"DT_INT32"}}},
          {"name":"strided_slice_54/stack_1","op":"Const","attr":{"value":{"tensor":{"dtype":"DT_INT32","tensorShape":{"dim":[{"size":"4"}]}}},"dtype":{"type":"DT_INT32"}}},
          {"name":"strided_slice_54/stack_2","op":"Const","attr":{"dtype":{"type":"DT_INT32"},"value":{"tensor":{"dtype":"DT_INT32","tensorShape":{"dim":[{"size":"4"}]}}}}},
          {"name":"concat_19/axis","op":"Const","attr":{"dtype":{"type":"DT_INT32"},"value":{"tensor":{"dtype":"DT_INT32","tensorShape":{}}}}},
          {"name":"BatchGatherND_8/concat_3/axis","op":"Const","attr":{"dtype":{"type":"DT_INT32"},"value":{"tensor":{"dtype":"DT_INT32","tensorShape":{}}}}},
          {"name":"Prod_5/reduction_indices","op":"Const","attr":{"dtype":{"type":"DT_INT32"},"value":{"tensor":{"dtype":"DT_INT32","tensorShape":{}}}}},
          {"name":"BatchGatherND_11/Tile","op":"Const","attr":{"value":{"tensor":{"dtype":"DT_INT32","tensorShape":{"dim":[{"size":"1"},{"size":"16"},{"size":"16"},{"size":"1"}]}}},"dtype":{"type":"DT_INT32"}}},
          {"name":"strided_slice_55/stack","op":"Const","attr":{"dtype":{"type":"DT_INT32"},"value":{"tensor":{"dtype":"DT_INT32","tensorShape":{"dim":[{"size":"4"}]}}}}},
          {"name":"strided_slice_55/stack_1","op":"Const","attr":{"value":{"tensor":{"dtype":"DT_INT32","tensorShape":{"dim":[{"size":"4"}]}}},"dtype":{"type":"DT_INT32"}}},
          {"name":"strided_slice_55/stack_2","op":"Const","attr":{"dtype":{"type":"DT_INT32"},"value":{"tensor":{"dtype":"DT_INT32","tensorShape":{"dim":[{"size":"4"}]}}}}},
          {"name":"strided_slice_56/stack","op":"Const","attr":{"dtype":{"type":"DT_INT32"},"value":{"tensor":{"dtype":"DT_INT32","tensorShape":{"dim":[{"size":"4"}]}}}}},
          {"name":"strided_slice_56/stack_1","op":"Const","attr":{"dtype":{"type":"DT_INT32"},"value":{"tensor":{"dtype":"DT_INT32","tensorShape":{"dim":[{"size":"4"}]}}}}},
          {"name":"strided_slice_56/stack_2","op":"Const","attr":{"value":{"tensor":{"dtype":"DT_INT32","tensorShape":{"dim":[{"size":"4"}]}}},"dtype":{"type":"DT_INT32"}}},
          {"name":"concat_20/axis","op":"Const","attr":{"dtype":{"type":"DT_INT32"},"value":{"tensor":{"dtype":"DT_INT32","tensorShape":{}}}}},
          {"name":"BatchGatherND_11/concat_3/axis","op":"Const","attr":{"value":{"tensor":{"dtype":"DT_INT32","tensorShape":{}}},"dtype":{"type":"DT_INT32"}}},
          {"name":"Prod_4/reduction_indices","op":"Const","attr":{"value":{"tensor":{"dtype":"DT_INT32","tensorShape":{}}},"dtype":{"type":"DT_INT32"}}},
          {"name":"strided_slice_45/stack","op":"Const","attr":{"dtype":{"type":"DT_INT32"},"value":{"tensor":{"dtype":"DT_INT32","tensorShape":{"dim":[{"size":"4"}]}}}}},
          {"name":"strided_slice_45/stack_1","op":"Const","attr":{"value":{"tensor":{"dtype":"DT_INT32","tensorShape":{"dim":[{"size":"4"}]}}},"dtype":{"type":"DT_INT32"}}},
          {"name":"strided_slice_45/stack_2","op":"Const","attr":{"value":{"tensor":{"dtype":"DT_INT32","tensorShape":{"dim":[{"size":"4"}]}}},"dtype":{"type":"DT_INT32"}}},
          {"name":"strided_slice_46/stack","op":"Const","attr":{"dtype":{"type":"DT_INT32"},"value":{"tensor":{"dtype":"DT_INT32","tensorShape":{"dim":[{"size":"4"}]}}}}},
          {"name":"strided_slice_46/stack_1","op":"Const","attr":{"value":{"tensor":{"dtype":"DT_INT32","tensorShape":{"dim":[{"size":"4"}]}}},"dtype":{"type":"DT_INT32"}}},
          {"name":"strided_slice_46/stack_2","op":"Const","attr":{"dtype":{"type":"DT_INT32"},"value":{"tensor":{"dtype":"DT_INT32","tensorShape":{"dim":[{"size":"4"}]}}}}},
          {"name":"BatchGatherND_9/Tile","op":"Const","attr":{"dtype":{"type":"DT_INT32"},"value":{"tensor":{"dtype":"DT_INT32","tensorShape":{"dim":[{"size":"1"},{"size":"16"},{"size":"16"},{"size":"1"}]}}}}},
          {"name":"strided_slice_49/stack","op":"Const","attr":{"value":{"tensor":{"dtype":"DT_INT32","tensorShape":{"dim":[{"size":"4"}]}}},"dtype":{"type":"DT_INT32"}}},
          {"name":"strided_slice_49/stack_1","op":"Const","attr":{"dtype":{"type":"DT_INT32"},"value":{"tensor":{"dtype":"DT_INT32","tensorShape":{"dim":[{"size":"4"}]}}}}},
          {"name":"strided_slice_49/stack_2","op":"Const","attr":{"dtype":{"type":"DT_INT32"},"value":{"tensor":{"dtype":"DT_INT32","tensorShape":{"dim":[{"size":"4"}]}}}}},
          {"name":"strided_slice_50/stack","op":"Const","attr":{"dtype":{"type":"DT_INT32"},"value":{"tensor":{"dtype":"DT_INT32","tensorShape":{"dim":[{"size":"4"}]}}}}},
          {"name":"strided_slice_50/stack_1","op":"Const","attr":{"value":{"tensor":{"dtype":"DT_INT32","tensorShape":{"dim":[{"size":"4"}]}}},"dtype":{"type":"DT_INT32"}}},
          {"name":"strided_slice_50/stack_2","op":"Const","attr":{"value":{"tensor":{"dtype":"DT_INT32","tensorShape":{"dim":[{"size":"4"}]}}},"dtype":{"type":"DT_INT32"}}},
          {"name":"concat_17/axis","op":"Const","attr":{"value":{"tensor":{"dtype":"DT_INT32","tensorShape":{}}},"dtype":{"type":"DT_INT32"}}},
          {"name":"BatchGatherND_9/concat_3/axis","op":"Const","attr":{"value":{"tensor":{"dtype":"DT_INT32","tensorShape":{}}},"dtype":{"type":"DT_INT32"}}},
          {"name":"ones_4","op":"Const","attr":{"dtype":{"type":"DT_FLOAT"},"value":{"tensor":{"dtype":"DT_FLOAT","tensorShape":{"dim":[{"size":"2"}]}}}}},
          {"name":"strided_slice_47/stack","op":"Const","attr":{"dtype":{"type":"DT_INT32"},"value":{"tensor":{"dtype":"DT_INT32","tensorShape":{"dim":[{"size":"4"}]}}}}},
          {"name":"strided_slice_47/stack_1","op":"Const","attr":{"value":{"tensor":{"dtype":"DT_INT32","tensorShape":{"dim":[{"size":"4"}]}}},"dtype":{"type":"DT_INT32"}}},
          {"name":"strided_slice_47/stack_2","op":"Const","attr":{"value":{"tensor":{"dtype":"DT_INT32","tensorShape":{"dim":[{"size":"4"}]}}},"dtype":{"type":"DT_INT32"}}},
          {"name":"strided_slice_48/stack","op":"Const","attr":{"value":{"tensor":{"dtype":"DT_INT32","tensorShape":{"dim":[{"size":"4"}]}}},"dtype":{"type":"DT_INT32"}}},
          {"name":"strided_slice_48/stack_1","op":"Const","attr":{"dtype":{"type":"DT_INT32"},"value":{"tensor":{"dtype":"DT_INT32","tensorShape":{"dim":[{"size":"4"}]}}}}},
          {"name":"strided_slice_48/stack_2","op":"Const","attr":{"value":{"tensor":{"dtype":"DT_INT32","tensorShape":{"dim":[{"size":"4"}]}}},"dtype":{"type":"DT_INT32"}}},
          {"name":"BatchGatherND_10/Tile","op":"Const","attr":{"dtype":{"type":"DT_INT32"},"value":{"tensor":{"dtype":"DT_INT32","tensorShape":{"dim":[{"size":"1"},{"size":"16"},{"size":"16"},{"size":"1"}]}}}}},
          {"name":"ones_5","op":"Const","attr":{"value":{"tensor":{"dtype":"DT_INT32","tensorShape":{"dim":[{"size":"2"}]}}},"dtype":{"type":"DT_INT32"}}},
          {"name":"Minimum_5/y","op":"Const","attr":{"dtype":{"type":"DT_INT32"},"value":{"tensor":{"dtype":"DT_INT32","tensorShape":{"dim":[{"size":"2"}]}}}}},
          {"name":"strided_slice_51/stack","op":"Const","attr":{"value":{"tensor":{"dtype":"DT_INT32","tensorShape":{"dim":[{"size":"4"}]}}},"dtype":{"type":"DT_INT32"}}},
          {"name":"strided_slice_51/stack_1","op":"Const","attr":{"dtype":{"type":"DT_INT32"},"value":{"tensor":{"dtype":"DT_INT32","tensorShape":{"dim":[{"size":"4"}]}}}}},
          {"name":"strided_slice_51/stack_2","op":"Const","attr":{"value":{"tensor":{"dtype":"DT_INT32","tensorShape":{"dim":[{"size":"4"}]}}},"dtype":{"type":"DT_INT32"}}},
          {"name":"Tile_5","op":"Const","attr":{"value":{"tensor":{"dtype":"DT_FLOAT","tensorShape":{"dim":[{"size":"1"},{"size":"16"},{"size":"16"},{"size":"2"}]}}},"dtype":{"type":"DT_FLOAT"}}},
          {"name":"strided_slice_43/stack","op":"Const","attr":{"dtype":{"type":"DT_INT32"},"value":{"tensor":{"dtype":"DT_INT32","tensorShape":{"dim":[{"size":"3"}]}}}}},
          {"name":"strided_slice_43/stack_1","op":"Const","attr":{"dtype":{"type":"DT_INT32"},"value":{"tensor":{"dtype":"DT_INT32","tensorShape":{"dim":[{"size":"3"}]}}}}},
          {"name":"strided_slice_43/stack_2","op":"Const","attr":{"dtype":{"type":"DT_INT32"},"value":{"tensor":{"dtype":"DT_INT32","tensorShape":{"dim":[{"size":"3"}]}}}}},
          {"name":"strided_slice_44/stack","op":"Const","attr":{"value":{"tensor":{"dtype":"DT_INT32","tensorShape":{"dim":[{"size":"3"}]}}},"dtype":{"type":"DT_INT32"}}},
          {"name":"strided_slice_44/stack_1","op":"Const","attr":{"value":{"tensor":{"dtype":"DT_INT32","tensorShape":{"dim":[{"size":"3"}]}}},"dtype":{"type":"DT_INT32"}}},
          {"name":"strided_slice_44/stack_2","op":"Const","attr":{"dtype":{"type":"DT_INT32"},"value":{"tensor":{"dtype":"DT_INT32","tensorShape":{"dim":[{"size":"3"}]}}}}},
          {"name":"Reshape_4/shape","op":"Const","attr":{"value":{"tensor":{"dtype":"DT_INT32","tensorShape":{"dim":[{"size":"4"}]}}},"dtype":{"type":"DT_INT32"}}},
          {"name":"zeros_5","op":"Const","attr":{"dtype":{"type":"DT_INT32"},"value":{"tensor":{"dtype":"DT_INT32","tensorShape":{"dim":[{"size":"2"}]}}}}},
          {"name":"Minimum_4/y","op":"Const","attr":{"dtype":{"type":"DT_INT32"},"value":{"tensor":{"dtype":"DT_INT32","tensorShape":{"dim":[{"size":"2"}]}}}}},
          {"name":"strided_slice_52/stack","op":"Const","attr":{"dtype":{"type":"DT_INT32"},"value":{"tensor":{"dtype":"DT_INT32","tensorShape":{"dim":[{"size":"4"}]}}}}},
          {"name":"strided_slice_52/stack_1","op":"Const","attr":{"value":{"tensor":{"dtype":"DT_INT32","tensorShape":{"dim":[{"size":"4"}]}}},"dtype":{"type":"DT_INT32"}}},
          {"name":"strided_slice_52/stack_2","op":"Const","attr":{"dtype":{"type":"DT_INT32"},"value":{"tensor":{"dtype":"DT_INT32","tensorShape":{"dim":[{"size":"4"}]}}}}},
          {"name":"concat_18/axis","op":"Const","attr":{"value":{"tensor":{"dtype":"DT_INT32","tensorShape":{}}},"dtype":{"type":"DT_INT32"}}},
          {"name":"BatchGatherND_10/concat_3/axis","op":"Const","attr":{"value":{"tensor":{"dtype":"DT_INT32","tensorShape":{}}},"dtype":{"type":"DT_INT32"}}},
          {"name":"depthwise_20/filter_in","op":"Const","attr":{"dtype":{"type":"DT_FLOAT"},"value":{"tensor":{"dtype":"DT_FLOAT","tensorShape":{"dim":[{"size":"3"},{"size":"3"},{"size":"32"},{"size":"1"}]}}}}},
          {"name":"Conv2D_24/filter","op":"Const","attr":{"value":{"tensor":{"dtype":"DT_FLOAT","tensorShape":{"dim":[{"size":"1"},{"size":"1"},{"size":"32"},{"size":"32"}]}}},"dtype":{"type":"DT_FLOAT"}}},
          {"name":"depthwise_23/filter_in","op":"Const","attr":{"value":{"tensor":{"dtype":"DT_FLOAT","tensorShape":{"dim":[{"size":"3"},{"size":"3"},{"size":"32"},{"size":"1"}]}}},"dtype":{"type":"DT_FLOAT"}}},
          {"name":"Conv2D_27/filter","op":"Const","attr":{"value":{"tensor":{"dtype":"DT_FLOAT","tensorShape":{"dim":[{"size":"1"},{"size":"1"},{"size":"32"},{"size":"32"}]}}},"dtype":{"type":"DT_FLOAT"}}},
          {"name":"depthwise_26/filter_in","op":"Const","attr":{"value":{"tensor":{"dtype":"DT_FLOAT","tensorShape":{"dim":[{"size":"3"},{"size":"3"},{"size":"32"},{"size":"1"}]}}},"dtype":{"type":"DT_FLOAT"}}},
          {"name":"Conv2D_30/filter","op":"Const","attr":{"dtype":{"type":"DT_FLOAT"},"value":{"tensor":{"dtype":"DT_FLOAT","tensorShape":{"dim":[{"size":"1"},{"size":"1"},{"size":"32"},{"size":"64"}]}}}}},
          {"name":"depthwise_29/filter_in","op":"Const","attr":{"value":{"tensor":{"dtype":"DT_FLOAT","tensorShape":{"dim":[{"size":"3"},{"size":"3"},{"size":"64"},{"size":"1"}]}}},"dtype":{"type":"DT_FLOAT"}}},
          {"name":"Conv2D_37/filter","op":"Const","attr":{"dtype":{"type":"DT_FLOAT"},"value":{"tensor":{"dtype":"DT_FLOAT","tensorShape":{"dim":[{"size":"1"},{"size":"1"},{"size":"64"},{"size":"64"}]}}}}},
          {"name":"depthwise_32/filter_in","op":"Const","attr":{"value":{"tensor":{"dtype":"DT_FLOAT","tensorShape":{"dim":[{"size":"3"},{"size":"3"},{"size":"64"},{"size":"1"}]}}},"dtype":{"type":"DT_FLOAT"}}},
          {"name":"Conv2D_40/filter","op":"Const","attr":{"dtype":{"type":"DT_FLOAT"},"value":{"tensor":{"dtype":"DT_FLOAT","tensorShape":{"dim":[{"size":"1"},{"size":"1"},{"size":"64"},{"size":"64"}]}}}}},
          {"name":"depthwise_35/filter_in","op":"Const","attr":{"dtype":{"type":"DT_FLOAT"},"value":{"tensor":{"dtype":"DT_FLOAT","tensorShape":{"dim":[{"size":"3"},{"size":"3"},{"size":"64"},{"size":"1"}]}}}}},
          {"name":"Conv2D_43/filter","op":"Const","attr":{"value":{"tensor":{"dtype":"DT_FLOAT","tensorShape":{"dim":[{"size":"1"},{"size":"1"},{"size":"64"},{"size":"128"}]}}},"dtype":{"type":"DT_FLOAT"}}},
          {"name":"depthwise_40/filter_in","op":"Const","attr":{"value":{"tensor":{"dtype":"DT_FLOAT","tensorShape":{"dim":[{"size":"3"},{"size":"3"},{"size":"128"},{"size":"1"}]}}},"dtype":{"type":"DT_FLOAT"}}},
          {"name":"Conv2D_48/filter","op":"Const","attr":{"value":{"tensor":{"dtype":"DT_FLOAT","tensorShape":{"dim":[{"size":"1"},{"size":"1"},{"size":"128"},{"size":"128"}]}}},"dtype":{"type":"DT_FLOAT"}}},
          {"name":"depthwise_45/filter_in","op":"Const","attr":{"value":{"tensor":{"dtype":"DT_FLOAT","tensorShape":{"dim":[{"size":"3"},{"size":"3"},{"size":"128"},{"size":"1"}]}}},"dtype":{"type":"DT_FLOAT"}}},
          {"name":"Conv2D_61/filter","op":"Const","attr":{"value":{"tensor":{"dtype":"DT_FLOAT","tensorShape":{"dim":[{"size":"1"},{"size":"1"},{"size":"128"},{"size":"128"}]}}},"dtype":{"type":"DT_FLOAT"}}},
          {"name":"depthwise_50/filter_in","op":"Const","attr":{"dtype":{"type":"DT_FLOAT"},"value":{"tensor":{"dtype":"DT_FLOAT","tensorShape":{"dim":[{"size":"3"},{"size":"3"},{"size":"128"},{"size":"1"}]}}}}},
          {"name":"Conv2D_68/filter","op":"Const","attr":{"value":{"tensor":{"dtype":"DT_FLOAT","tensorShape":{"dim":[{"size":"1"},{"size":"1"},{"size":"128"},{"size":"128"}]}}},"dtype":{"type":"DT_FLOAT"}}},
          {"name":"depthwise_55/filter_in","op":"Const","attr":{"value":{"tensor":{"dtype":"DT_FLOAT","tensorShape":{"dim":[{"size":"3"},{"size":"3"},{"size":"128"},{"size":"1"}]}}},"dtype":{"type":"DT_FLOAT"}}},
          {"name":"Conv2D_73/filter","op":"Const","attr":{"value":{"tensor":{"dtype":"DT_FLOAT","tensorShape":{"dim":[{"size":"1"},{"size":"1"},{"size":"128"},{"size":"128"}]}}},"dtype":{"type":"DT_FLOAT"}}},
          {"name":"depthwise_60/filter_in","op":"Const","attr":{"value":{"tensor":{"dtype":"DT_FLOAT","tensorShape":{"dim":[{"size":"3"},{"size":"3"},{"size":"128"},{"size":"1"}]}}},"dtype":{"type":"DT_FLOAT"}}},
          {"name":"Conv2D_78/filter","op":"Const","attr":{"value":{"tensor":{"dtype":"DT_FLOAT","tensorShape":{"dim":[{"size":"1"},{"size":"1"},{"size":"128"},{"size":"128"}]}}},"dtype":{"type":"DT_FLOAT"}}},
          {"name":"Conv2D_83/filter","op":"Const","attr":{"value":{"tensor":{"dtype":"DT_FLOAT","tensorShape":{"dim":[{"size":"1"},{"size":"1"},{"size":"128"},{"size":"32"}]}}},"dtype":{"type":"DT_FLOAT"}}},
          {"name":"conv2d_71_1/y","op":"Const","attr":{"value":{"tensor":{"dtype":"DT_FLOAT","tensorShape":{"dim":[{"size":"32"}]}}},"dtype":{"type":"DT_FLOAT"}}},
          {"name":"depthwise_65/filter_in","op":"Const","attr":{"value":{"tensor":{"dtype":"DT_FLOAT","tensorShape":{"dim":[{"size":"3"},{"size":"3"},{"size":"32"},{"size":"1"}]}}},"dtype":{"type":"DT_FLOAT"}}},
          {"name":"Conv2D_88/filter","op":"Const","attr":{"dtype":{"type":"DT_FLOAT"},"value":{"tensor":{"dtype":"DT_FLOAT","tensorShape":{"dim":[{"size":"1"},{"size":"1"},{"size":"32"},{"size":"32"}]}}}}},
          {"name":"Conv2D_93/filter","op":"Const","attr":{"value":{"tensor":{"dtype":"DT_FLOAT","tensorShape":{"dim":[{"size":"2"},{"size":"2"},{"size":"32"},{"size":"10"}]}}},"dtype":{"type":"DT_FLOAT"}}},
          {"name":"conv_right_iris/y","op":"Const","attr":{"dtype":{"type":"DT_FLOAT"},"value":{"tensor":{"dtype":"DT_FLOAT","tensorShape":{"dim":[{"size":"10"}]}}}}},
          {"name":"reshape_7/shape","op":"Const","attr":{"value":{"tensor":{"dtype":"DT_INT32","tensorShape":{"dim":[{"size":"3"}]}}},"dtype":{"type":"DT_INT32"}}},
          {"name":"strided_slice_65/stack","op":"Const","attr":{"dtype":{"type":"DT_INT32"},"value":{"tensor":{"dtype":"DT_INT32","tensorShape":{"dim":[{"size":"3"}]}}}}},
          {"name":"strided_slice_65/stack_1","op":"Const","attr":{"value":{"tensor":{"dtype":"DT_INT32","tensorShape":{"dim":[{"size":"3"}]}}},"dtype":{"type":"DT_INT32"}}},
          {"name":"strided_slice_65/stack_2","op":"Const","attr":{"dtype":{"type":"DT_INT32"},"value":{"tensor":{"dtype":"DT_INT32","tensorShape":{"dim":[{"size":"3"}]}}}}},
          {"name":"zeros_2","op":"Const","attr":{"dtype":{"type":"DT_FLOAT"},"value":{"tensor":{"dtype":"DT_FLOAT","tensorShape":{"dim":[{"size":"1"},{"size":"1"},{"size":"2"}]}}}}},
          {"name":"Const_9","op":"Const","attr":{"dtype":{"type":"DT_FLOAT"},"value":{"tensor":{"dtype":"DT_FLOAT","tensorShape":{}}}}},
          {"name":"strided_slice_13/stack","op":"Const","attr":{"dtype":{"type":"DT_INT32"},"value":{"tensor":{"dtype":"DT_INT32","tensorShape":{"dim":[{"size":"3"}]}}}}},
          {"name":"strided_slice_13/stack_1","op":"Const","attr":{"dtype":{"type":"DT_INT32"},"value":{"tensor":{"dtype":"DT_INT32","tensorShape":{"dim":[{"size":"3"}]}}}}},
          {"name":"strided_slice_13/stack_2","op":"Const","attr":{"dtype":{"type":"DT_INT32"},"value":{"tensor":{"dtype":"DT_INT32","tensorShape":{"dim":[{"size":"3"}]}}}}},
          {"name":"Mul_16/y","op":"Const","attr":{"dtype":{"type":"DT_FLOAT"},"value":{"tensor":{"dtype":"DT_FLOAT","tensorShape":{}}}}},
          {"name":"Const_10","op":"Const","attr":{"dtype":{"type":"DT_FLOAT"},"value":{"tensor":{"dtype":"DT_FLOAT","tensorShape":{"dim":[{"size":"1"},{"size":"2"}]}}}}},
          {"name":"Max_2/reduction_indices","op":"Const","attr":{"value":{"tensor":{"dtype":"DT_INT32","tensorShape":{}}},"dtype":{"type":"DT_INT32"}}},
          {"name":"GatherV2_2/indices","op":"Const","attr":{"dtype":{"type":"DT_INT32"},"value":{"tensor":{"dtype":"DT_INT32","tensorShape":{"dim":[{"size":"71"}]}}}}},
          {"name":"GatherV2_2/axis","op":"Const","attr":{"value":{"tensor":{"dtype":"DT_INT32","tensorShape":{}}},"dtype":{"type":"DT_INT32"}}},
          {"name":"strided_slice_12/stack","op":"Const","attr":{"value":{"tensor":{"dtype":"DT_INT32","tensorShape":{"dim":[{"size":"3"}]}}},"dtype":{"type":"DT_INT32"}}},
          {"name":"strided_slice_12/stack_1","op":"Const","attr":{"value":{"tensor":{"dtype":"DT_INT32","tensorShape":{"dim":[{"size":"3"}]}}},"dtype":{"type":"DT_INT32"}}},
          {"name":"strided_slice_12/stack_2","op":"Const","attr":{"value":{"tensor":{"dtype":"DT_INT32","tensorShape":{"dim":[{"size":"3"}]}}},"dtype":{"type":"DT_INT32"}}},
          {"name":"p_re_lu_19/Alpha_dequantize_prelu/Neg","op":"Const","attr":{"dtype":{"type":"DT_FLOAT"},"value":{"tensor":{"dtype":"DT_FLOAT","tensorShape":{"dim":[{"size":"1"},{"size":"1"},{"size":"32"}]}}}}},
          {"name":"p_re_lu_18/Alpha_dequantize_prelu/Neg","op":"Const","attr":{"dtype":{"type":"DT_FLOAT"},"value":{"tensor":{"dtype":"DT_FLOAT","tensorShape":{"dim":[{"size":"1"},{"size":"1"},{"size":"32"}]}}}}},
          {"name":"p_re_lu_17/Alpha_dequantize_prelu/Neg","op":"Const","attr":{"value":{"tensor":{"dtype":"DT_FLOAT","tensorShape":{"dim":[{"size":"1"},{"size":"1"},{"size":"128"}]}}},"dtype":{"type":"DT_FLOAT"}}},
          {"name":"p_re_lu_16/Alpha_dequantize_prelu/Neg","op":"Const","attr":{"dtype":{"type":"DT_FLOAT"},"value":{"tensor":{"dtype":"DT_FLOAT","tensorShape":{"dim":[{"size":"1"},{"size":"1"},{"size":"128"}]}}}}},
          {"name":"p_re_lu_15/Alpha_dequantize_prelu/Neg","op":"Const","attr":{"value":{"tensor":{"dtype":"DT_FLOAT","tensorShape":{"dim":[{"size":"1"},{"size":"1"},{"size":"128"}]}}},"dtype":{"type":"DT_FLOAT"}}},
          {"name":"p_re_lu_14/Alpha_dequantize_prelu/Neg","op":"Const","attr":{"dtype":{"type":"DT_FLOAT"},"value":{"tensor":{"dtype":"DT_FLOAT","tensorShape":{"dim":[{"size":"1"},{"size":"1"},{"size":"128"}]}}}}},
          {"name":"p_re_lu_13/Alpha_dequantize_prelu/Neg","op":"Const","attr":{"value":{"tensor":{"dtype":"DT_FLOAT","tensorShape":{"dim":[{"size":"1"},{"size":"1"},{"size":"128"}]}}},"dtype":{"type":"DT_FLOAT"}}},
          {"name":"p_re_lu_12/Alpha_dequantize_prelu/Neg","op":"Const","attr":{"dtype":{"type":"DT_FLOAT"},"value":{"tensor":{"dtype":"DT_FLOAT","tensorShape":{"dim":[{"size":"1"},{"size":"1"},{"size":"128"}]}}}}},
          {"name":"p_re_lu_11/Alpha_dequantize_prelu/Neg","op":"Const","attr":{"dtype":{"type":"DT_FLOAT"},"value":{"tensor":{"dtype":"DT_FLOAT","tensorShape":{"dim":[{"size":"1"},{"size":"1"},{"size":"128"}]}}}}},
          {"name":"p_re_lu_10/Alpha_dequantize_prelu/Neg","op":"Const","attr":{"value":{"tensor":{"dtype":"DT_FLOAT","tensorShape":{"dim":[{"size":"1"},{"size":"1"},{"size":"128"}]}}},"dtype":{"type":"DT_FLOAT"}}},
          {"name":"p_re_lu_9/Alpha_dequantize_prelu/Neg","op":"Const","attr":{"value":{"tensor":{"dtype":"DT_FLOAT","tensorShape":{"dim":[{"size":"1"},{"size":"1"},{"size":"128"}]}}},"dtype":{"type":"DT_FLOAT"}}},
          {"name":"channel_padding_2/paddings","op":"Const","attr":{"value":{"tensor":{"dtype":"DT_INT32","tensorShape":{"dim":[{"size":"4"},{"size":"2"}]}}},"dtype":{"type":"DT_INT32"}}},
          {"name":"p_re_lu_8/Alpha_dequantize_prelu/Neg","op":"Const","attr":{"value":{"tensor":{"dtype":"DT_FLOAT","tensorShape":{"dim":[{"size":"1"},{"size":"1"},{"size":"64"}]}}},"dtype":{"type":"DT_FLOAT"}}},
          {"name":"p_re_lu_7/Alpha_dequantize_prelu/Neg","op":"Const","attr":{"dtype":{"type":"DT_FLOAT"},"value":{"tensor":{"dtype":"DT_FLOAT","tensorShape":{"dim":[{"size":"1"},{"size":"1"},{"size":"64"}]}}}}},
          {"name":"p_re_lu_6/Alpha_dequantize_prelu/Neg","op":"Const","attr":{"dtype":{"type":"DT_FLOAT"},"value":{"tensor":{"dtype":"DT_FLOAT","tensorShape":{"dim":[{"size":"1"},{"size":"1"},{"size":"64"}]}}}}},
          {"name":"channel_padding_1/paddings","op":"Const","attr":{"dtype":{"type":"DT_INT32"},"value":{"tensor":{"dtype":"DT_INT32","tensorShape":{"dim":[{"size":"4"},{"size":"2"}]}}}}},
          {"name":"p_re_lu_5/Alpha_dequantize_prelu/Neg","op":"Const","attr":{"value":{"tensor":{"dtype":"DT_FLOAT","tensorShape":{"dim":[{"size":"1"},{"size":"1"},{"size":"32"}]}}},"dtype":{"type":"DT_FLOAT"}}},
          {"name":"p_re_lu_4/Alpha_dequantize_prelu/Neg","op":"Const","attr":{"value":{"tensor":{"dtype":"DT_FLOAT","tensorShape":{"dim":[{"size":"1"},{"size":"1"},{"size":"32"}]}}},"dtype":{"type":"DT_FLOAT"}}},
          {"name":"p_re_lu_3/Alpha_dequantize_prelu/Neg","op":"Const","attr":{"value":{"tensor":{"dtype":"DT_FLOAT","tensorShape":{"dim":[{"size":"1"},{"size":"1"},{"size":"32"}]}}},"dtype":{"type":"DT_FLOAT"}}},
          {"name":"channel_padding/paddings","op":"Const","attr":{"value":{"tensor":{"dtype":"DT_INT32","tensorShape":{"dim":[{"size":"4"},{"size":"2"}]}}},"dtype":{"type":"DT_INT32"}}},
          {"name":"p_re_lu_2/Alpha_dequantize_prelu/Neg","op":"Const","attr":{"dtype":{"type":"DT_FLOAT"},"value":{"tensor":{"dtype":"DT_FLOAT","tensorShape":{"dim":[{"size":"1"},{"size":"1"},{"size":"16"}]}}}}},
          {"name":"p_re_lu_1/Alpha_dequantize_prelu/Neg","op":"Const","attr":{"dtype":{"type":"DT_FLOAT"},"value":{"tensor":{"dtype":"DT_FLOAT","tensorShape":{"dim":[{"size":"1"},{"size":"1"},{"size":"16"}]}}}}},
          {"name":"p_re_lu/Alpha_dequantize_prelu/Neg","op":"Const","attr":{"dtype":{"type":"DT_FLOAT"},"value":{"tensor":{"dtype":"DT_FLOAT","tensorShape":{"dim":[{"size":"1"},{"size":"1"},{"size":"16"}]}}}}},
          {"name":"input_1","op":"Placeholder","attr":{"shape":{"shape":{"dim":[{"size":"1"},{"size":"192"},{"size":"192"},{"size":"3"}]}},"dtype":{"type":"DT_FLOAT"}}},
          {"name":"Conv2D/filter","op":"Const","attr":{"value":{"tensor":{"dtype":"DT_FLOAT","tensorShape":{"dim":[{"size":"3"},{"size":"3"},{"size":"3"},{"size":"16"}]}}},"dtype":{"type":"DT_FLOAT"}}},
          {"name":"conv2d_1/y","op":"Const","attr":{"dtype":{"type":"DT_FLOAT"},"value":{"tensor":{"dtype":"DT_FLOAT","tensorShape":{"dim":[{"size":"16"}]}}}}},
          {"name":"depthwise/filter_in","op":"Const","attr":{"dtype":{"type":"DT_FLOAT"},"value":{"tensor":{"dtype":"DT_FLOAT","tensorShape":{"dim":[{"size":"3"},{"size":"3"},{"size":"16"},{"size":"1"}]}}}}},
          {"name":"Conv2D_2/filter","op":"Const","attr":{"value":{"tensor":{"dtype":"DT_FLOAT","tensorShape":{"dim":[{"size":"1"},{"size":"1"},{"size":"16"},{"size":"16"}]}}},"dtype":{"type":"DT_FLOAT"}}},
          {"name":"conv2d_1_1/y","op":"Const","attr":{"dtype":{"type":"DT_FLOAT"},"value":{"tensor":{"dtype":"DT_FLOAT","tensorShape":{"dim":[{"size":"16"}]}}}}},
          {"name":"depthwise_1/filter_in","op":"Const","attr":{"dtype":{"type":"DT_FLOAT"},"value":{"tensor":{"dtype":"DT_FLOAT","tensorShape":{"dim":[{"size":"3"},{"size":"3"},{"size":"16"},{"size":"1"}]}}}}},
          {"name":"Conv2D_3/filter","op":"Const","attr":{"value":{"tensor":{"dtype":"DT_FLOAT","tensorShape":{"dim":[{"size":"1"},{"size":"1"},{"size":"16"},{"size":"16"}]}}},"dtype":{"type":"DT_FLOAT"}}},
          {"name":"conv2d_2_1/y","op":"Const","attr":{"value":{"tensor":{"dtype":"DT_FLOAT","tensorShape":{"dim":[{"size":"16"}]}}},"dtype":{"type":"DT_FLOAT"}}},
          {"name":"depthwise_2/filter_in","op":"Const","attr":{"dtype":{"type":"DT_FLOAT"},"value":{"tensor":{"dtype":"DT_FLOAT","tensorShape":{"dim":[{"size":"3"},{"size":"3"},{"size":"16"},{"size":"1"}]}}}}},
          {"name":"Conv2D_4/filter","op":"Const","attr":{"dtype":{"type":"DT_FLOAT"},"value":{"tensor":{"dtype":"DT_FLOAT","tensorShape":{"dim":[{"size":"1"},{"size":"1"},{"size":"16"},{"size":"32"}]}}}}},
          {"name":"conv2d_3_1/y","op":"Const","attr":{"dtype":{"type":"DT_FLOAT"},"value":{"tensor":{"dtype":"DT_FLOAT","tensorShape":{"dim":[{"size":"32"}]}}}}},
          {"name":"depthwise_3/filter_in","op":"Const","attr":{"value":{"tensor":{"dtype":"DT_FLOAT","tensorShape":{"dim":[{"size":"3"},{"size":"3"},{"size":"32"},{"size":"1"}]}}},"dtype":{"type":"DT_FLOAT"}}},
          {"name":"Conv2D_5/filter","op":"Const","attr":{"dtype":{"type":"DT_FLOAT"},"value":{"tensor":{"dtype":"DT_FLOAT","tensorShape":{"dim":[{"size":"1"},{"size":"1"},{"size":"32"},{"size":"32"}]}}}}},
          {"name":"conv2d_4_1/y","op":"Const","attr":{"dtype":{"type":"DT_FLOAT"},"value":{"tensor":{"dtype":"DT_FLOAT","tensorShape":{"dim":[{"size":"32"}]}}}}},
          {"name":"depthwise_4/filter_in","op":"Const","attr":{"value":{"tensor":{"dtype":"DT_FLOAT","tensorShape":{"dim":[{"size":"3"},{"size":"3"},{"size":"32"},{"size":"1"}]}}},"dtype":{"type":"DT_FLOAT"}}},
          {"name":"Conv2D_6/filter","op":"Const","attr":{"value":{"tensor":{"dtype":"DT_FLOAT","tensorShape":{"dim":[{"size":"1"},{"size":"1"},{"size":"32"},{"size":"32"}]}}},"dtype":{"type":"DT_FLOAT"}}},
          {"name":"conv2d_5_1/y","op":"Const","attr":{"value":{"tensor":{"dtype":"DT_FLOAT","tensorShape":{"dim":[{"size":"32"}]}}},"dtype":{"type":"DT_FLOAT"}}},
          {"name":"depthwise_5/filter_in","op":"Const","attr":{"value":{"tensor":{"dtype":"DT_FLOAT","tensorShape":{"dim":[{"size":"3"},{"size":"3"},{"size":"32"},{"size":"1"}]}}},"dtype":{"type":"DT_FLOAT"}}},
          {"name":"Conv2D_7/filter","op":"Const","attr":{"dtype":{"type":"DT_FLOAT"},"value":{"tensor":{"dtype":"DT_FLOAT","tensorShape":{"dim":[{"size":"1"},{"size":"1"},{"size":"32"},{"size":"64"}]}}}}},
          {"name":"conv2d_6_1/y","op":"Const","attr":{"dtype":{"type":"DT_FLOAT"},"value":{"tensor":{"dtype":"DT_FLOAT","tensorShape":{"dim":[{"size":"64"}]}}}}},
          {"name":"depthwise_6/filter_in","op":"Const","attr":{"dtype":{"type":"DT_FLOAT"},"value":{"tensor":{"dtype":"DT_FLOAT","tensorShape":{"dim":[{"size":"3"},{"size":"3"},{"size":"64"},{"size":"1"}]}}}}},
          {"name":"Conv2D_8/filter","op":"Const","attr":{"value":{"tensor":{"dtype":"DT_FLOAT","tensorShape":{"dim":[{"size":"1"},{"size":"1"},{"size":"64"},{"size":"64"}]}}},"dtype":{"type":"DT_FLOAT"}}},
          {"name":"conv2d_7_1/y","op":"Const","attr":{"dtype":{"type":"DT_FLOAT"},"value":{"tensor":{"dtype":"DT_FLOAT","tensorShape":{"dim":[{"size":"64"}]}}}}},
          {"name":"depthwise_7/filter_in","op":"Const","attr":{"dtype":{"type":"DT_FLOAT"},"value":{"tensor":{"dtype":"DT_FLOAT","tensorShape":{"dim":[{"size":"3"},{"size":"3"},{"size":"64"},{"size":"1"}]}}}}},
          {"name":"Conv2D_9/filter","op":"Const","attr":{"value":{"tensor":{"dtype":"DT_FLOAT","tensorShape":{"dim":[{"size":"1"},{"size":"1"},{"size":"64"},{"size":"64"}]}}},"dtype":{"type":"DT_FLOAT"}}},
          {"name":"conv2d_8_1/y","op":"Const","attr":{"value":{"tensor":{"dtype":"DT_FLOAT","tensorShape":{"dim":[{"size":"64"}]}}},"dtype":{"type":"DT_FLOAT"}}},
          {"name":"depthwise_8/filter_in","op":"Const","attr":{"value":{"tensor":{"dtype":"DT_FLOAT","tensorShape":{"dim":[{"size":"3"},{"size":"3"},{"size":"64"},{"size":"1"}]}}},"dtype":{"type":"DT_FLOAT"}}},
          {"name":"Conv2D_10/filter","op":"Const","attr":{"dtype":{"type":"DT_FLOAT"},"value":{"tensor":{"dtype":"DT_FLOAT","tensorShape":{"dim":[{"size":"1"},{"size":"1"},{"size":"64"},{"size":"128"}]}}}}},
          {"name":"conv2d_9_1/y","op":"Const","attr":{"dtype":{"type":"DT_FLOAT"},"value":{"tensor":{"dtype":"DT_FLOAT","tensorShape":{"dim":[{"size":"128"}]}}}}},
          {"name":"depthwise_9/filter_in","op":"Const","attr":{"value":{"tensor":{"dtype":"DT_FLOAT","tensorShape":{"dim":[{"size":"3"},{"size":"3"},{"size":"128"},{"size":"1"}]}}},"dtype":{"type":"DT_FLOAT"}}},
          {"name":"Conv2D_11/filter","op":"Const","attr":{"value":{"tensor":{"dtype":"DT_FLOAT","tensorShape":{"dim":[{"size":"1"},{"size":"1"},{"size":"128"},{"size":"128"}]}}},"dtype":{"type":"DT_FLOAT"}}},
          {"name":"conv2d_10_1/y","op":"Const","attr":{"value":{"tensor":{"dtype":"DT_FLOAT","tensorShape":{"dim":[{"size":"128"}]}}},"dtype":{"type":"DT_FLOAT"}}},
          {"name":"depthwise_10/filter_in","op":"Const","attr":{"value":{"tensor":{"dtype":"DT_FLOAT","tensorShape":{"dim":[{"size":"3"},{"size":"3"},{"size":"128"},{"size":"1"}]}}},"dtype":{"type":"DT_FLOAT"}}},
          {"name":"Conv2D_12/filter","op":"Const","attr":{"dtype":{"type":"DT_FLOAT"},"value":{"tensor":{"dtype":"DT_FLOAT","tensorShape":{"dim":[{"size":"1"},{"size":"1"},{"size":"128"},{"size":"128"}]}}}}},
          {"name":"conv2d_11_1/y","op":"Const","attr":{"value":{"tensor":{"dtype":"DT_FLOAT","tensorShape":{"dim":[{"size":"128"}]}}},"dtype":{"type":"DT_FLOAT"}}},
          {"name":"depthwise_11/filter_in","op":"Const","attr":{"value":{"tensor":{"dtype":"DT_FLOAT","tensorShape":{"dim":[{"size":"3"},{"size":"3"},{"size":"128"},{"size":"1"}]}}},"dtype":{"type":"DT_FLOAT"}}},
          {"name":"Conv2D_13/filter","op":"Const","attr":{"dtype":{"type":"DT_FLOAT"},"value":{"tensor":{"dtype":"DT_FLOAT","tensorShape":{"dim":[{"size":"1"},{"size":"1"},{"size":"128"},{"size":"128"}]}}}}},
          {"name":"conv2d_12_1/y","op":"Const","attr":{"value":{"tensor":{"dtype":"DT_FLOAT","tensorShape":{"dim":[{"size":"128"}]}}},"dtype":{"type":"DT_FLOAT"}}},
          {"name":"depthwise_12/filter_in","op":"Const","attr":{"dtype":{"type":"DT_FLOAT"},"value":{"tensor":{"dtype":"DT_FLOAT","tensorShape":{"dim":[{"size":"3"},{"size":"3"},{"size":"128"},{"size":"1"}]}}}}},
          {"name":"Conv2D_14/filter","op":"Const","attr":{"value":{"tensor":{"dtype":"DT_FLOAT","tensorShape":{"dim":[{"size":"1"},{"size":"1"},{"size":"128"},{"size":"128"}]}}},"dtype":{"type":"DT_FLOAT"}}},
          {"name":"conv2d_13_1/y","op":"Const","attr":{"dtype":{"type":"DT_FLOAT"},"value":{"tensor":{"dtype":"DT_FLOAT","tensorShape":{"dim":[{"size":"128"}]}}}}},
          {"name":"depthwise_13/filter_in","op":"Const","attr":{"value":{"tensor":{"dtype":"DT_FLOAT","tensorShape":{"dim":[{"size":"3"},{"size":"3"},{"size":"128"},{"size":"1"}]}}},"dtype":{"type":"DT_FLOAT"}}},
          {"name":"Conv2D_15/filter","op":"Const","attr":{"dtype":{"type":"DT_FLOAT"},"value":{"tensor":{"dtype":"DT_FLOAT","tensorShape":{"dim":[{"size":"1"},{"size":"1"},{"size":"128"},{"size":"128"}]}}}}},
          {"name":"conv2d_14_1/y","op":"Const","attr":{"value":{"tensor":{"dtype":"DT_FLOAT","tensorShape":{"dim":[{"size":"128"}]}}},"dtype":{"type":"DT_FLOAT"}}},
          {"name":"depthwise_14/filter_in","op":"Const","attr":{"dtype":{"type":"DT_FLOAT"},"value":{"tensor":{"dtype":"DT_FLOAT","tensorShape":{"dim":[{"size":"3"},{"size":"3"},{"size":"128"},{"size":"1"}]}}}}},
          {"name":"Conv2D_16/filter","op":"Const","attr":{"dtype":{"type":"DT_FLOAT"},"value":{"tensor":{"dtype":"DT_FLOAT","tensorShape":{"dim":[{"size":"1"},{"size":"1"},{"size":"128"},{"size":"128"}]}}}}},
          {"name":"conv2d_15_1/y","op":"Const","attr":{"dtype":{"type":"DT_FLOAT"},"value":{"tensor":{"dtype":"DT_FLOAT","tensorShape":{"dim":[{"size":"128"}]}}}}},
          {"name":"depthwise_15/filter_in","op":"Const","attr":{"dtype":{"type":"DT_FLOAT"},"value":{"tensor":{"dtype":"DT_FLOAT","tensorShape":{"dim":[{"size":"3"},{"size":"3"},{"size":"128"},{"size":"1"}]}}}}},
          {"name":"Conv2D_17/filter","op":"Const","attr":{"value":{"tensor":{"dtype":"DT_FLOAT","tensorShape":{"dim":[{"size":"1"},{"size":"1"},{"size":"128"},{"size":"128"}]}}},"dtype":{"type":"DT_FLOAT"}}},
          {"name":"conv2d_16_1/y","op":"Const","attr":{"dtype":{"type":"DT_FLOAT"},"value":{"tensor":{"dtype":"DT_FLOAT","tensorShape":{"dim":[{"size":"128"}]}}}}},
          {"name":"depthwise_16/filter_in","op":"Const","attr":{"dtype":{"type":"DT_FLOAT"},"value":{"tensor":{"dtype":"DT_FLOAT","tensorShape":{"dim":[{"size":"3"},{"size":"3"},{"size":"128"},{"size":"1"}]}}}}},
          {"name":"Conv2D_18/filter","op":"Const","attr":{"value":{"tensor":{"dtype":"DT_FLOAT","tensorShape":{"dim":[{"size":"1"},{"size":"1"},{"size":"128"},{"size":"128"}]}}},"dtype":{"type":"DT_FLOAT"}}},
          {"name":"conv2d_17_1/y","op":"Const","attr":{"dtype":{"type":"DT_FLOAT"},"value":{"tensor":{"dtype":"DT_FLOAT","tensorShape":{"dim":[{"size":"128"}]}}}}},
          {"name":"Conv2D_19/filter","op":"Const","attr":{"dtype":{"type":"DT_FLOAT"},"value":{"tensor":{"dtype":"DT_FLOAT","tensorShape":{"dim":[{"size":"1"},{"size":"1"},{"size":"128"},{"size":"32"}]}}}}},
          {"name":"conv2d_18_1/y","op":"Const","attr":{"dtype":{"type":"DT_FLOAT"},"value":{"tensor":{"dtype":"DT_FLOAT","tensorShape":{"dim":[{"size":"32"}]}}}}},
          {"name":"depthwise_17/filter_in","op":"Const","attr":{"dtype":{"type":"DT_FLOAT"},"value":{"tensor":{"dtype":"DT_FLOAT","tensorShape":{"dim":[{"size":"3"},{"size":"3"},{"size":"32"},{"size":"1"}]}}}}},
          {"name":"Conv2D_20/filter","op":"Const","attr":{"dtype":{"type":"DT_FLOAT"},"value":{"tensor":{"dtype":"DT_FLOAT","tensorShape":{"dim":[{"size":"1"},{"size":"1"},{"size":"32"},{"size":"32"}]}}}}},
          {"name":"conv2d_19_1/y","op":"Const","attr":{"dtype":{"type":"DT_FLOAT"},"value":{"tensor":{"dtype":"DT_FLOAT","tensorShape":{"dim":[{"size":"32"}]}}}}},
          {"name":"Conv2D_21/filter","op":"Const","attr":{"dtype":{"type":"DT_FLOAT"},"value":{"tensor":{"dtype":"DT_FLOAT","tensorShape":{"dim":[{"size":"3"},{"size":"3"},{"size":"32"},{"size":"1404"}]}}}}},
          {"name":"output_mesh/y","op":"Const","attr":{"dtype":{"type":"DT_FLOAT"},"value":{"tensor":{"dtype":"DT_FLOAT","tensorShape":{"dim":[{"size":"1404"}]}}}}},
          {"name":"reshape_5/shape","op":"Const","attr":{"dtype":{"type":"DT_INT32"},"value":{"tensor":{"dtype":"DT_INT32","tensorShape":{"dim":[{"size":"3"}]}}}}},
          {"name":"multiply_by_constant_4/y","op":"Const","attr":{"dtype":{"type":"DT_FLOAT"},"value":{"tensor":{"dtype":"DT_FLOAT","tensorShape":{"dim":[{"size":"1"}]}}}}},
          {"name":"strided_slice_10/stack","op":"Const","attr":{"value":{"tensor":{"dtype":"DT_INT32","tensorShape":{"dim":[{"size":"3"}]}}},"dtype":{"type":"DT_INT32"}}},
          {"name":"strided_slice_10/stack_1","op":"Const","attr":{"value":{"tensor":{"dtype":"DT_INT32","tensorShape":{"dim":[{"size":"3"}]}}},"dtype":{"type":"DT_INT32"}}},
          {"name":"strided_slice_10/stack_2","op":"Const","attr":{"dtype":{"type":"DT_INT32"},"value":{"tensor":{"dtype":"DT_INT32","tensorShape":{"dim":[{"size":"3"}]}}}}},
          {"name":"strided_slice_11/stack","op":"Const","attr":{"value":{"tensor":{"dtype":"DT_INT32","tensorShape":{"dim":[{"size":"3"}]}}},"dtype":{"type":"DT_INT32"}}},
          {"name":"strided_slice_11/stack_1","op":"Const","attr":{"dtype":{"type":"DT_INT32"},"value":{"tensor":{"dtype":"DT_INT32","tensorShape":{"dim":[{"size":"3"}]}}}}},
          {"name":"strided_slice_11/stack_2","op":"Const","attr":{"dtype":{"type":"DT_INT32"},"value":{"tensor":{"dtype":"DT_INT32","tensorShape":{"dim":[{"size":"3"}]}}}}},
          {"name":"norm_2/Sum/reduction_indices","op":"Const","attr":{"value":{"tensor":{"dtype":"DT_INT32","tensorShape":{"dim":[{"size":"1"}]}}},"dtype":{"type":"DT_INT32"}}},
          {"name":"Const_8","op":"Const","attr":{"dtype":{"type":"DT_FLOAT"},"value":{"tensor":{"dtype":"DT_FLOAT","tensorShape":{"dim":[{"size":"2"},{"size":"2"}]}}}}},
          {"name":"concat_6/axis","op":"Const","attr":{"dtype":{"type":"DT_INT32"},"value":{"tensor":{"dtype":"DT_INT32","tensorShape":{}}}}},
          {"name":"Min_2/reduction_indices","op":"Const","attr":{"value":{"tensor":{"dtype":"DT_INT32","tensorShape":{}}},"dtype":{"type":"DT_INT32"}}},
          {"name":"strided_slice_14/stack","op":"Const","attr":{"value":{"tensor":{"dtype":"DT_INT32","tensorShape":{"dim":[{"size":"3"}]}}},"dtype":{"type":"DT_INT32"}}},
          {"name":"strided_slice_14/stack_1","op":"Const","attr":{"dtype":{"type":"DT_INT32"},"value":{"tensor":{"dtype":"DT_INT32","tensorShape":{"dim":[{"size":"3"}]}}}}},
          {"name":"strided_slice_14/stack_2","op":"Const","attr":{"dtype":{"type":"DT_INT32"},"value":{"tensor":{"dtype":"DT_INT32","tensorShape":{"dim":[{"size":"3"}]}}}}},
          {"name":"Mul_17/y","op":"Const","attr":{"value":{"tensor":{"dtype":"DT_FLOAT","tensorShape":{}}},"dtype":{"type":"DT_FLOAT"}}},
          {"name":"concat_7/axis","op":"Const","attr":{"value":{"tensor":{"dtype":"DT_INT32","tensorShape":{}}},"dtype":{"type":"DT_INT32"}}},
          {"name":"transpose_5/perm","op":"Const","attr":{"value":{"tensor":{"dtype":"DT_INT32","tensorShape":{"dim":[{"size":"3"}]}}},"dtype":{"type":"DT_INT32"}}},
          {"name":"Tile_2","op":"Const","attr":{"value":{"tensor":{"dtype":"DT_FLOAT","tensorShape":{"dim":[{"size":"1"},{"size":"2"},{"size":"4"}]}}},"dtype":{"type":"DT_FLOAT"}}},
          {"name":"concat_8/axis","op":"Const","attr":{"dtype":{"type":"DT_INT32"},"value":{"tensor":{"dtype":"DT_INT32","tensorShape":{}}}}},
          {"name":"multiply_by_constant_5/y","op":"Const","attr":{"dtype":{"type":"DT_FLOAT"},"value":{"tensor":{"dtype":"DT_FLOAT","tensorShape":{"dim":[{"size":"1"},{"size":"4"},{"size":"4"}]}}}}},
          {"name":"strided_slice_66/stack","op":"Const","attr":{"dtype":{"type":"DT_INT32"},"value":{"tensor":{"dtype":"DT_INT32","tensorShape":{"dim":[{"size":"3"}]}}}}},
          {"name":"strided_slice_66/stack_1","op":"Const","attr":{"dtype":{"type":"DT_INT32"},"value":{"tensor":{"dtype":"DT_INT32","tensorShape":{"dim":[{"size":"3"}]}}}}},
          {"name":"strided_slice_66/stack_2","op":"Const","attr":{"value":{"tensor":{"dtype":"DT_INT32","tensorShape":{"dim":[{"size":"3"}]}}},"dtype":{"type":"DT_INT32"}}},
          {"name":"Reshape_12/shape","op":"Const","attr":{"value":{"tensor":{"dtype":"DT_INT32","tensorShape":{"dim":[{"size":"3"}]}}},"dtype":{"type":"DT_INT32"}}},
          {"name":"output_right_iris/shape","op":"Const","attr":{"value":{"tensor":{"dtype":"DT_INT32","tensorShape":{"dim":[{"size":"4"}]}}},"dtype":{"type":"DT_INT32"}}},
          {"name":"Conv2D","op":"Conv2D","input":["input_1","Conv2D/filter"],"device":"/device:CPU:0","attr":{"T":{"type":"DT_FLOAT"},"strides":{"list":{"i":["1","2","2","1"]}},"padding":{"s":"U0FNRQ=="},"explicit_paddings":{"list":{}},"data_format":{"s":"TkhXQw=="},"use_cudnn_on_gpu":{"b":true},"dilations":{"list":{"i":["1","1","1","1"]}}}},
          {"name":"conv2d_1","op":"AddV2","input":["Conv2D","conv2d_1/y"],"attr":{"T":{"type":"DT_FLOAT"}}},
          {"name":"p_re_lu/Alpha_dequantize_prelu/Relu","op":"Prelu","input":["conv2d_1","p_re_lu/Alpha_dequantize_prelu/Neg"]},
          {"name":"depthwise","op":"DepthwiseConv2dNative","input":["p_re_lu/Alpha_dequantize_prelu/Relu","depthwise/filter_in"],"attr":{"data_format":{"s":"TkhXQw=="},"T":{"type":"DT_FLOAT"},"explicit_paddings":{"list":{}},"dilations":{"list":{"i":["1","1","1","1"]}},"strides":{"list":{"i":["1","1","1","1"]}},"padding":{"s":"U0FNRQ=="}}},
          {"name":"Conv2D_2","op":"Conv2D","input":["depthwise","Conv2D_2/filter"],"device":"/device:CPU:0","attr":{"dilations":{"list":{"i":["1","1","1","1"]}},"strides":{"list":{"i":["1","1","1","1"]}},"padding":{"s":"VkFMSUQ="},"T":{"type":"DT_FLOAT"},"explicit_paddings":{"list":{}},"use_cudnn_on_gpu":{"b":true},"data_format":{"s":"TkhXQw=="}}},
          {"name":"conv2d_1_1","op":"AddV2","input":["Conv2D_2","conv2d_1_1/y"],"attr":{"T":{"type":"DT_FLOAT"}}},
          {"name":"add__xeno_compat__1","op":"AddV2","input":["p_re_lu/Alpha_dequantize_prelu/Relu","conv2d_1_1"],"attr":{"T":{"type":"DT_FLOAT"}}},
          {"name":"p_re_lu_1/Alpha_dequantize_prelu/Relu","op":"Prelu","input":["add__xeno_compat__1","p_re_lu_1/Alpha_dequantize_prelu/Neg"]},
          {"name":"depthwise_1","op":"DepthwiseConv2dNative","input":["p_re_lu_1/Alpha_dequantize_prelu/Relu","depthwise_1/filter_in"],"attr":{"dilations":{"list":{"i":["1","1","1","1"]}},"T":{"type":"DT_FLOAT"},"data_format":{"s":"TkhXQw=="},"explicit_paddings":{"list":{}},"strides":{"list":{"i":["1","1","1","1"]}},"padding":{"s":"U0FNRQ=="}}},
          {"name":"Conv2D_3","op":"Conv2D","input":["depthwise_1","Conv2D_3/filter"],"device":"/device:CPU:0","attr":{"explicit_paddings":{"list":{}},"padding":{"s":"VkFMSUQ="},"T":{"type":"DT_FLOAT"},"strides":{"list":{"i":["1","1","1","1"]}},"use_cudnn_on_gpu":{"b":true},"data_format":{"s":"TkhXQw=="},"dilations":{"list":{"i":["1","1","1","1"]}}}},
          {"name":"conv2d_2_1","op":"AddV2","input":["Conv2D_3","conv2d_2_1/y"],"attr":{"T":{"type":"DT_FLOAT"}}},
          {"name":"add_1__xeno_compat__1","op":"AddV2","input":["p_re_lu_1/Alpha_dequantize_prelu/Relu","conv2d_2_1"],"attr":{"T":{"type":"DT_FLOAT"}}},
          {"name":"p_re_lu_2/Alpha_dequantize_prelu/Relu","op":"Prelu","input":["add_1__xeno_compat__1","p_re_lu_2/Alpha_dequantize_prelu/Neg"]},
          {"name":"max_pooling2d","op":"MaxPool","input":["p_re_lu_2/Alpha_dequantize_prelu/Relu"],"attr":{"ksize":{"list":{"i":["1","2","2","1"]}},"strides":{"list":{"i":["1","2","2","1"]}},"data_format":{"s":"TkhXQw=="},"explicit_paddings":{"list":{}},"T":{"type":"DT_FLOAT"},"padding":{"s":"VkFMSUQ="}}},
          {"name":"depthwise_2","op":"DepthwiseConv2dNative","input":["p_re_lu_2/Alpha_dequantize_prelu/Relu","depthwise_2/filter_in"],"attr":{"strides":{"list":{"i":["1","2","2","1"]}},"padding":{"s":"U0FNRQ=="},"dilations":{"list":{"i":["1","1","1","1"]}},"T":{"type":"DT_FLOAT"},"explicit_paddings":{"list":{}},"data_format":{"s":"TkhXQw=="}}},
          {"name":"channel_padding","op":"Pad","input":["max_pooling2d","channel_padding/paddings"],"attr":{"T":{"type":"DT_FLOAT"},"Tpaddings":{"type":"DT_INT32"}}},
          {"name":"Conv2D_4","op":"Conv2D","input":["depthwise_2","Conv2D_4/filter"],"device":"/device:CPU:0","attr":{"T":{"type":"DT_FLOAT"},"use_cudnn_on_gpu":{"b":true},"strides":{"list":{"i":["1","1","1","1"]}},"explicit_paddings":{"list":{}},"data_format":{"s":"TkhXQw=="},"padding":{"s":"VkFMSUQ="},"dilations":{"list":{"i":["1","1","1","1"]}}}},
          {"name":"conv2d_3_1","op":"AddV2","input":["Conv2D_4","conv2d_3_1/y"],"attr":{"T":{"type":"DT_FLOAT"}}},
          {"name":"add_2__xeno_compat__1","op":"AddV2","input":["channel_padding","conv2d_3_1"],"attr":{"T":{"type":"DT_FLOAT"}}},
          {"name":"p_re_lu_3/Alpha_dequantize_prelu/Relu","op":"Prelu","input":["add_2__xeno_compat__1","p_re_lu_3/Alpha_dequantize_prelu/Neg"]},
          {"name":"depthwise_3","op":"DepthwiseConv2dNative","input":["p_re_lu_3/Alpha_dequantize_prelu/Relu","depthwise_3/filter_in"],"attr":{"explicit_paddings":{"list":{}},"strides":{"list":{"i":["1","1","1","1"]}},"padding":{"s":"U0FNRQ=="},"dilations":{"list":{"i":["1","1","1","1"]}},"data_format":{"s":"TkhXQw=="},"T":{"type":"DT_FLOAT"}}},
          {"name":"Conv2D_5","op":"Conv2D","input":["depthwise_3","Conv2D_5/filter"],"device":"/device:CPU:0","attr":{"padding":{"s":"VkFMSUQ="},"T":{"type":"DT_FLOAT"},"data_format":{"s":"TkhXQw=="},"strides":{"list":{"i":["1","1","1","1"]}},"use_cudnn_on_gpu":{"b":true},"dilations":{"list":{"i":["1","1","1","1"]}},"explicit_paddings":{"list":{}}}},
          {"name":"conv2d_4_1","op":"AddV2","input":["Conv2D_5","conv2d_4_1/y"],"attr":{"T":{"type":"DT_FLOAT"}}},
          {"name":"add_3__xeno_compat__1","op":"AddV2","input":["p_re_lu_3/Alpha_dequantize_prelu/Relu","conv2d_4_1"],"attr":{"T":{"type":"DT_FLOAT"}}},
          {"name":"p_re_lu_4/Alpha_dequantize_prelu/Relu","op":"Prelu","input":["add_3__xeno_compat__1","p_re_lu_4/Alpha_dequantize_prelu/Neg"]},
          {"name":"depthwise_4","op":"DepthwiseConv2dNative","input":["p_re_lu_4/Alpha_dequantize_prelu/Relu","depthwise_4/filter_in"],"attr":{"explicit_paddings":{"list":{}},"padding":{"s":"U0FNRQ=="},"strides":{"list":{"i":["1","1","1","1"]}},"T":{"type":"DT_FLOAT"},"data_format":{"s":"TkhXQw=="},"dilations":{"list":{"i":["1","1","1","1"]}}}},
          {"name":"Conv2D_6","op":"Conv2D","input":["depthwise_4","Conv2D_6/filter"],"device":"/device:CPU:0","attr":{"padding":{"s":"VkFMSUQ="},"T":{"type":"DT_FLOAT"},"dilations":{"list":{"i":["1","1","1","1"]}},"strides":{"list":{"i":["1","1","1","1"]}},"explicit_paddings":{"list":{}},"use_cudnn_on_gpu":{"b":true},"data_format":{"s":"TkhXQw=="}}},
          {"name":"conv2d_5_1","op":"AddV2","input":["Conv2D_6","conv2d_5_1/y"],"attr":{"T":{"type":"DT_FLOAT"}}},
          {"name":"add_4__xeno_compat__1","op":"AddV2","input":["p_re_lu_4/Alpha_dequantize_prelu/Relu","conv2d_5_1"],"attr":{"T":{"type":"DT_FLOAT"}}},
          {"name":"p_re_lu_5/Alpha_dequantize_prelu/Relu","op":"Prelu","input":["add_4__xeno_compat__1","p_re_lu_5/Alpha_dequantize_prelu/Neg"]},
          {"name":"max_pooling2d_1","op":"MaxPool","input":["p_re_lu_5/Alpha_dequantize_prelu/Relu"],"attr":{"T":{"type":"DT_FLOAT"},"data_format":{"s":"TkhXQw=="},"ksize":{"list":{"i":["1","2","2","1"]}},"explicit_paddings":{"list":{}},"padding":{"s":"VkFMSUQ="},"strides":{"list":{"i":["1","2","2","1"]}}}},
          {"name":"depthwise_5","op":"DepthwiseConv2dNative","input":["p_re_lu_5/Alpha_dequantize_prelu/Relu","depthwise_5/filter_in"],"attr":{"data_format":{"s":"TkhXQw=="},"T":{"type":"DT_FLOAT"},"padding":{"s":"U0FNRQ=="},"explicit_paddings":{"list":{}},"dilations":{"list":{"i":["1","1","1","1"]}},"strides":{"list":{"i":["1","2","2","1"]}}}},
          {"name":"channel_padding_1","op":"Pad","input":["max_pooling2d_1","channel_padding_1/paddings"],"attr":{"T":{"type":"DT_FLOAT"},"Tpaddings":{"type":"DT_INT32"}}},
          {"name":"Conv2D_7","op":"Conv2D","input":["depthwise_5","Conv2D_7/filter"],"device":"/device:CPU:0","attr":{"dilations":{"list":{"i":["1","1","1","1"]}},"use_cudnn_on_gpu":{"b":true},"padding":{"s":"VkFMSUQ="},"T":{"type":"DT_FLOAT"},"data_format":{"s":"TkhXQw=="},"strides":{"list":{"i":["1","1","1","1"]}},"explicit_paddings":{"list":{}}}},
          {"name":"conv2d_6_1","op":"AddV2","input":["Conv2D_7","conv2d_6_1/y"],"attr":{"T":{"type":"DT_FLOAT"}}},
          {"name":"add_5__xeno_compat__1","op":"AddV2","input":["channel_padding_1","conv2d_6_1"],"attr":{"T":{"type":"DT_FLOAT"}}},
          {"name":"p_re_lu_6/Alpha_dequantize_prelu/Relu","op":"Prelu","input":["add_5__xeno_compat__1","p_re_lu_6/Alpha_dequantize_prelu/Neg"]},
          {"name":"depthwise_6","op":"DepthwiseConv2dNative","input":["p_re_lu_6/Alpha_dequantize_prelu/Relu","depthwise_6/filter_in"],"attr":{"padding":{"s":"U0FNRQ=="},"dilations":{"list":{"i":["1","1","1","1"]}},"strides":{"list":{"i":["1","1","1","1"]}},"explicit_paddings":{"list":{}},"T":{"type":"DT_FLOAT"},"data_format":{"s":"TkhXQw=="}}},
          {"name":"Conv2D_8","op":"Conv2D","input":["depthwise_6","Conv2D_8/filter"],"device":"/device:CPU:0","attr":{"use_cudnn_on_gpu":{"b":true},"T":{"type":"DT_FLOAT"},"padding":{"s":"VkFMSUQ="},"dilations":{"list":{"i":["1","1","1","1"]}},"explicit_paddings":{"list":{}},"data_format":{"s":"TkhXQw=="},"strides":{"list":{"i":["1","1","1","1"]}}}},
          {"name":"conv2d_7_1","op":"AddV2","input":["Conv2D_8","conv2d_7_1/y"],"attr":{"T":{"type":"DT_FLOAT"}}},
          {"name":"add_6__xeno_compat__1","op":"AddV2","input":["p_re_lu_6/Alpha_dequantize_prelu/Relu","conv2d_7_1"],"attr":{"T":{"type":"DT_FLOAT"}}},
          {"name":"p_re_lu_7/Alpha_dequantize_prelu/Relu","op":"Prelu","input":["add_6__xeno_compat__1","p_re_lu_7/Alpha_dequantize_prelu/Neg"]},
          {"name":"depthwise_7","op":"DepthwiseConv2dNative","input":["p_re_lu_7/Alpha_dequantize_prelu/Relu","depthwise_7/filter_in"],"attr":{"T":{"type":"DT_FLOAT"},"padding":{"s":"U0FNRQ=="},"dilations":{"list":{"i":["1","1","1","1"]}},"data_format":{"s":"TkhXQw=="},"explicit_paddings":{"list":{}},"strides":{"list":{"i":["1","1","1","1"]}}}},
          {"name":"Conv2D_9","op":"Conv2D","input":["depthwise_7","Conv2D_9/filter"],"device":"/device:CPU:0","attr":{"padding":{"s":"VkFMSUQ="},"T":{"type":"DT_FLOAT"},"explicit_paddings":{"list":{}},"dilations":{"list":{"i":["1","1","1","1"]}},"data_format":{"s":"TkhXQw=="},"use_cudnn_on_gpu":{"b":true},"strides":{"list":{"i":["1","1","1","1"]}}}},
          {"name":"conv2d_8_1","op":"AddV2","input":["Conv2D_9","conv2d_8_1/y"],"attr":{"T":{"type":"DT_FLOAT"}}},
          {"name":"add_7__xeno_compat__1","op":"AddV2","input":["p_re_lu_7/Alpha_dequantize_prelu/Relu","conv2d_8_1"],"attr":{"T":{"type":"DT_FLOAT"}}},
          {"name":"p_re_lu_8/Alpha_dequantize_prelu/Relu","op":"Prelu","input":["add_7__xeno_compat__1","p_re_lu_8/Alpha_dequantize_prelu/Neg"]},
          {"name":"max_pooling2d_2","op":"MaxPool","input":["p_re_lu_8/Alpha_dequantize_prelu/Relu"],"attr":{"padding":{"s":"VkFMSUQ="},"strides":{"list":{"i":["1","2","2","1"]}},"explicit_paddings":{"list":{}},"ksize":{"list":{"i":["1","2","2","1"]}},"data_format":{"s":"TkhXQw=="},"T":{"type":"DT_FLOAT"}}},
          {"name":"depthwise_8","op":"DepthwiseConv2dNative","input":["p_re_lu_8/Alpha_dequantize_prelu/Relu","depthwise_8/filter_in"],"attr":{"dilations":{"list":{"i":["1","1","1","1"]}},"strides":{"list":{"i":["1","2","2","1"]}},"explicit_paddings":{"list":{}},"padding":{"s":"U0FNRQ=="},"T":{"type":"DT_FLOAT"},"data_format":{"s":"TkhXQw=="}}},
          {"name":"channel_padding_2","op":"Pad","input":["max_pooling2d_2","channel_padding_2/paddings"],"attr":{"T":{"type":"DT_FLOAT"},"Tpaddings":{"type":"DT_INT32"}}},
          {"name":"Conv2D_10","op":"Conv2D","input":["depthwise_8","Conv2D_10/filter"],"device":"/device:CPU:0","attr":{"padding":{"s":"VkFMSUQ="},"data_format":{"s":"TkhXQw=="},"strides":{"list":{"i":["1","1","1","1"]}},"dilations":{"list":{"i":["1","1","1","1"]}},"explicit_paddings":{"list":{}},"use_cudnn_on_gpu":{"b":true},"T":{"type":"DT_FLOAT"}}},
          {"name":"conv2d_9_1","op":"AddV2","input":["Conv2D_10","conv2d_9_1/y"],"attr":{"T":{"type":"DT_FLOAT"}}},
          {"name":"add_8__xeno_compat__1","op":"AddV2","input":["channel_padding_2","conv2d_9_1"],"attr":{"T":{"type":"DT_FLOAT"}}},
          {"name":"p_re_lu_9/Alpha_dequantize_prelu/Relu","op":"Prelu","input":["add_8__xeno_compat__1","p_re_lu_9/Alpha_dequantize_prelu/Neg"]},
          {"name":"depthwise_9","op":"DepthwiseConv2dNative","input":["p_re_lu_9/Alpha_dequantize_prelu/Relu","depthwise_9/filter_in"],"attr":{"data_format":{"s":"TkhXQw=="},"explicit_paddings":{"list":{}},"dilations":{"list":{"i":["1","1","1","1"]}},"T":{"type":"DT_FLOAT"},"padding":{"s":"U0FNRQ=="},"strides":{"list":{"i":["1","1","1","1"]}}}},
          {"name":"Conv2D_11","op":"Conv2D","input":["depthwise_9","Conv2D_11/filter"],"device":"/device:CPU:0","attr":{"use_cudnn_on_gpu":{"b":true},"dilations":{"list":{"i":["1","1","1","1"]}},"data_format":{"s":"TkhXQw=="},"padding":{"s":"VkFMSUQ="},"explicit_paddings":{"list":{}},"strides":{"list":{"i":["1","1","1","1"]}},"T":{"type":"DT_FLOAT"}}},
          {"name":"conv2d_10_1","op":"AddV2","input":["Conv2D_11","conv2d_10_1/y"],"attr":{"T":{"type":"DT_FLOAT"}}},
          {"name":"add_9__xeno_compat__1","op":"AddV2","input":["p_re_lu_9/Alpha_dequantize_prelu/Relu","conv2d_10_1"],"attr":{"T":{"type":"DT_FLOAT"}}},
          {"name":"p_re_lu_10/Alpha_dequantize_prelu/Relu","op":"Prelu","input":["add_9__xeno_compat__1","p_re_lu_10/Alpha_dequantize_prelu/Neg"]},
          {"name":"depthwise_10","op":"DepthwiseConv2dNative","input":["p_re_lu_10/Alpha_dequantize_prelu/Relu","depthwise_10/filter_in"],"attr":{"padding":{"s":"U0FNRQ=="},"T":{"type":"DT_FLOAT"},"dilations":{"list":{"i":["1","1","1","1"]}},"explicit_paddings":{"list":{}},"strides":{"list":{"i":["1","1","1","1"]}},"data_format":{"s":"TkhXQw=="}}},
          {"name":"Conv2D_12","op":"Conv2D","input":["depthwise_10","Conv2D_12/filter"],"device":"/device:CPU:0","attr":{"explicit_paddings":{"list":{}},"data_format":{"s":"TkhXQw=="},"padding":{"s":"VkFMSUQ="},"dilations":{"list":{"i":["1","1","1","1"]}},"strides":{"list":{"i":["1","1","1","1"]}},"use_cudnn_on_gpu":{"b":true},"T":{"type":"DT_FLOAT"}}},
          {"name":"conv2d_11_1","op":"AddV2","input":["Conv2D_12","conv2d_11_1/y"],"attr":{"T":{"type":"DT_FLOAT"}}},
          {"name":"add_10__xeno_compat__1","op":"AddV2","input":["p_re_lu_10/Alpha_dequantize_prelu/Relu","conv2d_11_1"],"attr":{"T":{"type":"DT_FLOAT"}}},
          {"name":"p_re_lu_11/Alpha_dequantize_prelu/Relu","op":"Prelu","input":["add_10__xeno_compat__1","p_re_lu_11/Alpha_dequantize_prelu/Neg"]},
          {"name":"max_pooling2d_3","op":"MaxPool","input":["p_re_lu_11/Alpha_dequantize_prelu/Relu"],"attr":{"T":{"type":"DT_FLOAT"},"strides":{"list":{"i":["1","2","2","1"]}},"explicit_paddings":{"list":{}},"data_format":{"s":"TkhXQw=="},"padding":{"s":"VkFMSUQ="},"ksize":{"list":{"i":["1","2","2","1"]}}}},
          {"name":"depthwise_11","op":"DepthwiseConv2dNative","input":["p_re_lu_11/Alpha_dequantize_prelu/Relu","depthwise_11/filter_in"],"attr":{"data_format":{"s":"TkhXQw=="},"T":{"type":"DT_FLOAT"},"explicit_paddings":{"list":{}},"padding":{"s":"U0FNRQ=="},"strides":{"list":{"i":["1","2","2","1"]}},"dilations":{"list":{"i":["1","1","1","1"]}}}},
          {"name":"Conv2D_13","op":"Conv2D","input":["depthwise_11","Conv2D_13/filter"],"device":"/device:CPU:0","attr":{"explicit_paddings":{"list":{}},"use_cudnn_on_gpu":{"b":true},"padding":{"s":"VkFMSUQ="},"strides":{"list":{"i":["1","1","1","1"]}},"dilations":{"list":{"i":["1","1","1","1"]}},"T":{"type":"DT_FLOAT"},"data_format":{"s":"TkhXQw=="}}},
          {"name":"conv2d_12_1","op":"AddV2","input":["Conv2D_13","conv2d_12_1/y"],"attr":{"T":{"type":"DT_FLOAT"}}},
          {"name":"add_11__xeno_compat__1","op":"AddV2","input":["max_pooling2d_3","conv2d_12_1"],"attr":{"T":{"type":"DT_FLOAT"}}},
          {"name":"p_re_lu_12/Alpha_dequantize_prelu/Relu","op":"Prelu","input":["add_11__xeno_compat__1","p_re_lu_12/Alpha_dequantize_prelu/Neg"]},
          {"name":"depthwise_12","op":"DepthwiseConv2dNative","input":["p_re_lu_12/Alpha_dequantize_prelu/Relu","depthwise_12/filter_in"],"attr":{"T":{"type":"DT_FLOAT"},"strides":{"list":{"i":["1","1","1","1"]}},"dilations":{"list":{"i":["1","1","1","1"]}},"explicit_paddings":{"list":{}},"padding":{"s":"U0FNRQ=="},"data_format":{"s":"TkhXQw=="}}},
          {"name":"Conv2D_14","op":"Conv2D","input":["depthwise_12","Conv2D_14/filter"],"device":"/device:CPU:0","attr":{"dilations":{"list":{"i":["1","1","1","1"]}},"use_cudnn_on_gpu":{"b":true},"T":{"type":"DT_FLOAT"},"data_format":{"s":"TkhXQw=="},"padding":{"s":"VkFMSUQ="},"explicit_paddings":{"list":{}},"strides":{"list":{"i":["1","1","1","1"]}}}},
          {"name":"conv2d_13_1","op":"AddV2","input":["Conv2D_14","conv2d_13_1/y"],"attr":{"T":{"type":"DT_FLOAT"}}},
          {"name":"add_12__xeno_compat__1","op":"AddV2","input":["p_re_lu_12/Alpha_dequantize_prelu/Relu","conv2d_13_1"],"attr":{"T":{"type":"DT_FLOAT"}}},
          {"name":"p_re_lu_13/Alpha_dequantize_prelu/Relu","op":"Prelu","input":["add_12__xeno_compat__1","p_re_lu_13/Alpha_dequantize_prelu/Neg"]},
          {"name":"depthwise_13","op":"DepthwiseConv2dNative","input":["p_re_lu_13/Alpha_dequantize_prelu/Relu","depthwise_13/filter_in"],"attr":{"data_format":{"s":"TkhXQw=="},"padding":{"s":"U0FNRQ=="},"T":{"type":"DT_FLOAT"},"strides":{"list":{"i":["1","1","1","1"]}},"dilations":{"list":{"i":["1","1","1","1"]}},"explicit_paddings":{"list":{}}}},
          {"name":"Conv2D_15","op":"Conv2D","input":["depthwise_13","Conv2D_15/filter"],"device":"/device:CPU:0","attr":{"explicit_paddings":{"list":{}},"strides":{"list":{"i":["1","1","1","1"]}},"dilations":{"list":{"i":["1","1","1","1"]}},"use_cudnn_on_gpu":{"b":true},"data_format":{"s":"TkhXQw=="},"padding":{"s":"VkFMSUQ="},"T":{"type":"DT_FLOAT"}}},
          {"name":"conv2d_14_1","op":"AddV2","input":["Conv2D_15","conv2d_14_1/y"],"attr":{"T":{"type":"DT_FLOAT"}}},
          {"name":"add_13__xeno_compat__1","op":"AddV2","input":["p_re_lu_13/Alpha_dequantize_prelu/Relu","conv2d_14_1"],"attr":{"T":{"type":"DT_FLOAT"}}},
          {"name":"p_re_lu_14/Alpha_dequantize_prelu/Relu","op":"Prelu","input":["add_13__xeno_compat__1","p_re_lu_14/Alpha_dequantize_prelu/Neg"]},
          {"name":"max_pooling2d_4","op":"MaxPool","input":["p_re_lu_14/Alpha_dequantize_prelu/Relu"],"attr":{"explicit_paddings":{"list":{}},"ksize":{"list":{"i":["1","2","2","1"]}},"padding":{"s":"VkFMSUQ="},"strides":{"list":{"i":["1","2","2","1"]}},"T":{"type":"DT_FLOAT"},"data_format":{"s":"TkhXQw=="}}},
          {"name":"depthwise_14","op":"DepthwiseConv2dNative","input":["p_re_lu_14/Alpha_dequantize_prelu/Relu","depthwise_14/filter_in"],"attr":{"strides":{"list":{"i":["1","2","2","1"]}},"padding":{"s":"U0FNRQ=="},"T":{"type":"DT_FLOAT"},"data_format":{"s":"TkhXQw=="},"explicit_paddings":{"list":{}},"dilations":{"list":{"i":["1","1","1","1"]}}}},
          {"name":"Conv2D_16","op":"Conv2D","input":["depthwise_14","Conv2D_16/filter"],"device":"/device:CPU:0","attr":{"data_format":{"s":"TkhXQw=="},"strides":{"list":{"i":["1","1","1","1"]}},"padding":{"s":"VkFMSUQ="},"T":{"type":"DT_FLOAT"},"explicit_paddings":{"list":{}},"use_cudnn_on_gpu":{"b":true},"dilations":{"list":{"i":["1","1","1","1"]}}}},
          {"name":"conv2d_15_1","op":"AddV2","input":["Conv2D_16","conv2d_15_1/y"],"attr":{"T":{"type":"DT_FLOAT"}}},
          {"name":"add_14__xeno_compat__1","op":"AddV2","input":["max_pooling2d_4","conv2d_15_1"],"attr":{"T":{"type":"DT_FLOAT"}}},
          {"name":"p_re_lu_15/Alpha_dequantize_prelu/Relu","op":"Prelu","input":["add_14__xeno_compat__1","p_re_lu_15/Alpha_dequantize_prelu/Neg"]},
          {"name":"depthwise_15","op":"DepthwiseConv2dNative","input":["p_re_lu_15/Alpha_dequantize_prelu/Relu","depthwise_15/filter_in"],"attr":{"padding":{"s":"U0FNRQ=="},"strides":{"list":{"i":["1","1","1","1"]}},"explicit_paddings":{"list":{}},"T":{"type":"DT_FLOAT"},"dilations":{"list":{"i":["1","1","1","1"]}},"data_format":{"s":"TkhXQw=="}}},
          {"name":"Conv2D_17","op":"Conv2D","input":["depthwise_15","Conv2D_17/filter"],"device":"/device:CPU:0","attr":{"data_format":{"s":"TkhXQw=="},"use_cudnn_on_gpu":{"b":true},"padding":{"s":"VkFMSUQ="},"T":{"type":"DT_FLOAT"},"dilations":{"list":{"i":["1","1","1","1"]}},"explicit_paddings":{"list":{}},"strides":{"list":{"i":["1","1","1","1"]}}}},
          {"name":"conv2d_16_1","op":"AddV2","input":["Conv2D_17","conv2d_16_1/y"],"attr":{"T":{"type":"DT_FLOAT"}}},
          {"name":"add_15__xeno_compat__1","op":"AddV2","input":["p_re_lu_15/Alpha_dequantize_prelu/Relu","conv2d_16_1"],"attr":{"T":{"type":"DT_FLOAT"}}},
          {"name":"p_re_lu_16/Alpha_dequantize_prelu/Relu","op":"Prelu","input":["add_15__xeno_compat__1","p_re_lu_16/Alpha_dequantize_prelu/Neg"]},
          {"name":"depthwise_16","op":"DepthwiseConv2dNative","input":["p_re_lu_16/Alpha_dequantize_prelu/Relu","depthwise_16/filter_in"],"attr":{"strides":{"list":{"i":["1","1","1","1"]}},"explicit_paddings":{"list":{}},"dilations":{"list":{"i":["1","1","1","1"]}},"padding":{"s":"U0FNRQ=="},"data_format":{"s":"TkhXQw=="},"T":{"type":"DT_FLOAT"}}},
          {"name":"Conv2D_18","op":"Conv2D","input":["depthwise_16","Conv2D_18/filter"],"device":"/device:CPU:0","attr":{"T":{"type":"DT_FLOAT"},"use_cudnn_on_gpu":{"b":true},"data_format":{"s":"TkhXQw=="},"padding":{"s":"VkFMSUQ="},"strides":{"list":{"i":["1","1","1","1"]}},"dilations":{"list":{"i":["1","1","1","1"]}},"explicit_paddings":{"list":{}}}},
          {"name":"conv2d_17_1","op":"AddV2","input":["Conv2D_18","conv2d_17_1/y"],"attr":{"T":{"type":"DT_FLOAT"}}},
          {"name":"add_16__xeno_compat__1","op":"AddV2","input":["p_re_lu_16/Alpha_dequantize_prelu/Relu","conv2d_17_1"],"attr":{"T":{"type":"DT_FLOAT"}}},
          {"name":"p_re_lu_17/Alpha_dequantize_prelu/Relu","op":"Prelu","input":["add_16__xeno_compat__1","p_re_lu_17/Alpha_dequantize_prelu/Neg"]},
          {"name":"Conv2D_19","op":"Conv2D","input":["p_re_lu_17/Alpha_dequantize_prelu/Relu","Conv2D_19/filter"],"device":"/device:CPU:0","attr":{"strides":{"list":{"i":["1","1","1","1"]}},"data_format":{"s":"TkhXQw=="},"explicit_paddings":{"list":{}},"T":{"type":"DT_FLOAT"},"padding":{"s":"VkFMSUQ="},"use_cudnn_on_gpu":{"b":true},"dilations":{"list":{"i":["1","1","1","1"]}}}},
          {"name":"conv2d_18_1","op":"AddV2","input":["Conv2D_19","conv2d_18_1/y"],"attr":{"T":{"type":"DT_FLOAT"}}},
          {"name":"p_re_lu_18/Alpha_dequantize_prelu/Relu","op":"Prelu","input":["conv2d_18_1","p_re_lu_18/Alpha_dequantize_prelu/Neg"]},
          {"name":"depthwise_17","op":"DepthwiseConv2dNative","input":["p_re_lu_18/Alpha_dequantize_prelu/Relu","depthwise_17/filter_in"],"attr":{"explicit_paddings":{"list":{}},"T":{"type":"DT_FLOAT"},"strides":{"list":{"i":["1","1","1","1"]}},"dilations":{"list":{"i":["1","1","1","1"]}},"padding":{"s":"U0FNRQ=="},"data_format":{"s":"TkhXQw=="}}},
          {"name":"Conv2D_20","op":"Conv2D","input":["depthwise_17","Conv2D_20/filter"],"device":"/device:CPU:0","attr":{"padding":{"s":"VkFMSUQ="},"data_format":{"s":"TkhXQw=="},"T":{"type":"DT_FLOAT"},"explicit_paddings":{"list":{}},"use_cudnn_on_gpu":{"b":true},"dilations":{"list":{"i":["1","1","1","1"]}},"strides":{"list":{"i":["1","1","1","1"]}}}},
          {"name":"conv2d_19_1","op":"AddV2","input":["Conv2D_20","conv2d_19_1/y"],"attr":{"T":{"type":"DT_FLOAT"}}},
          {"name":"add_17__xeno_compat__1","op":"AddV2","input":["p_re_lu_18/Alpha_dequantize_prelu/Relu","conv2d_19_1"],"attr":{"T":{"type":"DT_FLOAT"}}},
          {"name":"p_re_lu_19/Alpha_dequantize_prelu/Relu","op":"Prelu","input":["add_17__xeno_compat__1","p_re_lu_19/Alpha_dequantize_prelu/Neg"]},
          {"name":"Conv2D_94","op":"Conv2D","input":["p_re_lu_19/Alpha_dequantize_prelu/Relu","Conv2D_94/filter"],"device":"/device:CPU:0","attr":{"use_cudnn_on_gpu":{"b":true},"explicit_paddings":{"list":{}},"dilations":{"list":{"i":["1","1","1","1"]}},"strides":{"list":{"i":["1","3","3","1"]}},"padding":{"s":"VkFMSUQ="},"data_format":{"s":"TkhXQw=="},"T":{"type":"DT_FLOAT"}}},
          {"name":"Conv2D_21","op":"Conv2D","input":["p_re_lu_19/Alpha_dequantize_prelu/Relu","Conv2D_21/filter"],"device":"/device:CPU:0","attr":{"T":{"type":"DT_FLOAT"},"explicit_paddings":{"list":{}},"padding":{"s":"VkFMSUQ="},"data_format":{"s":"TkhXQw=="},"use_cudnn_on_gpu":{"b":true},"dilations":{"list":{"i":["1","1","1","1"]}},"strides":{"list":{"i":["1","3","3","1"]}}}},
          {"name":"conv_faceflag","op":"AddV2","input":["Conv2D_94","conv_faceflag/y"],"attr":{"T":{"type":"DT_FLOAT"}}},
          {"name":"output_mesh","op":"AddV2","input":["Conv2D_21","output_mesh/y"],"attr":{"T":{"type":"DT_FLOAT"}}},
          {"name":"reshape_2","op":"Reshape","input":["output_mesh","reshape_2/shape"],"attr":{"Tshape":{"type":"DT_INT32"},"T":{"type":"DT_FLOAT"}}},
          {"name":"reshape","op":"Reshape","input":["output_mesh","reshape/shape"],"attr":{"Tshape":{"type":"DT_INT32"},"T":{"type":"DT_FLOAT"}}},
          {"name":"output_mesh_identity","op":"StridedSlice","input":["output_mesh","output_mesh_identity/begin","output_mesh_identity/end","output_mesh_identity/strides"],"attr":{"end_mask":{"i":"0"},"new_axis_mask":{"i":"0"},"ellipsis_mask":{"i":"0"},"Index":{"type":"DT_INT32"},"shrink_axis_mask":{"i":"0"},"begin_mask":{"i":"0"},"T":{"type":"DT_FLOAT"}}},
          {"name":"reshape_5","op":"Reshape","input":["output_mesh","reshape_5/shape"],"attr":{"T":{"type":"DT_FLOAT"},"Tshape":{"type":"DT_INT32"}}},
          {"name":"multiply_by_constant_2","op":"Mul","input":["reshape_2","multiply_by_constant_2/y"],"attr":{"T":{"type":"DT_FLOAT"}}},
          {"name":"multiply_by_constant","op":"Mul","input":["reshape","multiply_by_constant/y"],"attr":{"T":{"type":"DT_FLOAT"}}},
          {"name":"multiply_by_constant_4","op":"Mul","input":["reshape_5","multiply_by_constant_4/y"],"attr":{"T":{"type":"DT_FLOAT"}}},
          {"name":"strided_slice_5","op":"StridedSlice","input":["multiply_by_constant_2","strided_slice_5/stack","strided_slice_5/stack_1","strided_slice_5/stack_2"],"attr":{"shrink_axis_mask":{"i":"0"},"begin_mask":{"i":"3"},"Index":{"type":"DT_INT32"},"ellipsis_mask":{"i":"0"},"end_mask":{"i":"3"},"new_axis_mask":{"i":"0"},"T":{"type":"DT_FLOAT"}}},
          {"name":"strided_slice","op":"StridedSlice","input":["multiply_by_constant","strided_slice/stack","strided_slice/stack_1","strided_slice/stack_2"],"attr":{"shrink_axis_mask":{"i":"0"},"ellipsis_mask":{"i":"0"},"begin_mask":{"i":"3"},"new_axis_mask":{"i":"0"},"Index":{"type":"DT_INT32"},"T":{"type":"DT_FLOAT"},"end_mask":{"i":"3"}}},
          {"name":"strided_slice_10","op":"StridedSlice","input":["multiply_by_constant_4","strided_slice_10/stack","strided_slice_10/stack_1","strided_slice_10/stack_2"],"attr":{"Index":{"type":"DT_INT32"},"shrink_axis_mask":{"i":"0"},"T":{"type":"DT_FLOAT"},"begin_mask":{"i":"3"},"end_mask":{"i":"3"},"ellipsis_mask":{"i":"0"},"new_axis_mask":{"i":"0"}}},
          {"name":"GatherV2_1","op":"GatherV2","input":["strided_slice_5","GatherV2_1/indices","GatherV2_1/axis"],"attr":{"batch_dims":{"i":"0"},"Tparams":{"type":"DT_FLOAT"},"Taxis":{"type":"DT_INT32"},"Tindices":{"type":"DT_INT32"}}},
          {"name":"strided_slice_7","op":"StridedSlice","input":["strided_slice_5","strided_slice_7/stack","strided_slice_7/stack_1","strided_slice_7/stack_2"],"attr":{"shrink_axis_mask":{"i":"0"},"begin_mask":{"i":"5"},"Index":{"type":"DT_INT32"},"new_axis_mask":{"i":"0"},"end_mask":{"i":"5"},"T":{"type":"DT_FLOAT"},"ellipsis_mask":{"i":"0"}}},
          {"name":"strided_slice_6","op":"StridedSlice","input":["strided_slice_5","strided_slice_6/stack","strided_slice_6/stack_1","strided_slice_6/stack_2"],"attr":{"begin_mask":{"i":"5"},"ellipsis_mask":{"i":"0"},"new_axis_mask":{"i":"0"},"end_mask":{"i":"5"},"T":{"type":"DT_FLOAT"},"Index":{"type":"DT_INT32"},"shrink_axis_mask":{"i":"0"}}},
          {"name":"GatherV2","op":"GatherV2","input":["strided_slice","GatherV2/indices","GatherV2/axis"],"attr":{"Taxis":{"type":"DT_INT32"},"batch_dims":{"i":"0"},"Tindices":{"type":"DT_INT32"},"Tparams":{"type":"DT_FLOAT"}}},
          {"name":"strided_slice_2","op":"StridedSlice","input":["strided_slice","strided_slice_2/stack","strided_slice_2/stack_1","strided_slice_2/stack_2"],"attr":{"T":{"type":"DT_FLOAT"},"new_axis_mask":{"i":"0"},"ellipsis_mask":{"i":"0"},"end_mask":{"i":"5"},"Index":{"type":"DT_INT32"},"shrink_axis_mask":{"i":"0"},"begin_mask":{"i":"5"}}},
          {"name":"strided_slice_1","op":"StridedSlice","input":["strided_slice","strided_slice_1/stack","strided_slice_1/stack_1","strided_slice_1/stack_2"],"attr":{"begin_mask":{"i":"5"},"new_axis_mask":{"i":"0"},"shrink_axis_mask":{"i":"0"},"end_mask":{"i":"5"},"Index":{"type":"DT_INT32"},"T":{"type":"DT_FLOAT"},"ellipsis_mask":{"i":"0"}}},
          {"name":"GatherV2_2","op":"GatherV2","input":["strided_slice_10","GatherV2_2/indices","GatherV2_2/axis"],"attr":{"Taxis":{"type":"DT_INT32"},"Tindices":{"type":"DT_INT32"},"batch_dims":{"i":"0"},"Tparams":{"type":"DT_FLOAT"}}},
…
dtype":"float32","quantization":{"dtype":"float16","original_dtype":"float32"}},{"name":"depthwise_25/filter_in","shape":[3,3,32,1],"dtype":"float32","quantization":{"dtype":"float16","original_dtype":"float32"}},{"name":"Conv2D_29/filter","shape":[1,1,32,64],"dtype":"float32","quantization":{"dtype":"float16","original_dtype":"float32"}},{"name":"depthwise_28/filter_in","shape":[3,3,64,1],"dtype":"float32","quantization":{"dtype":"float16","original_dtype":"float32"}},{"name":"Conv2D_32/filter","shape":[1,1,64,64],"dtype":"float32","quantization":{"dtype":"float16","original_dtype":"float32"}},{"name":"depthwise_31/filter_in","shape":[3,3,64,1],"dtype":"float32","quantization":{"dtype":"float16","original_dtype":"float32"}},{"name":"Conv2D_39/filter","shape":[1,1,64,64],"dtype":"float32","quantization":{"dtype":"float16","original_dtype":"float32"}},{"name":"depthwise_34/filter_in","shape":[3,3,64,1],"dtype":"float32","quantization":{"dtype":"float16","original_dtype":"float32"}},{"name":"Conv2D_42/filter","shape":[1,1,64,128],"dtype":"float32","quantization":{"dtype":"float16","original_dtype":"float32"}},{"name":"depthwise_38/filter_in","shape":[3,3,128,1],"dtype":"float32","quantization":{"dtype":"float16","original_dtype":"float32"}},{"name":"Conv2D_46/filter","shape":[1,1,128,128],"dtype":"float32","quantization":{"dtype":"float16","original_dtype":"float32"}},{"name":"depthwise_43/filter_in","shape":[3,3,128,1],"dtype":"float32","quantization":{"dtype":"float16","original_dtype":"float32"}},{"name":"Conv2D_51/filter","shape":[1,1,128,128],"dtype":"float32","quantization":{"dtype":"float16","original_dtype":"float32"}},{"name":"depthwise_48/filter_in","shape":[3,3,128,1],"dtype":"float32","quantization":{"dtype":"float16","original_dtype":"float32"}},{"name":"Conv2D_64/filter","shape":[1,1,128,128],"dtype":"float32","quantization":{"dtype":"float16","original_dtype":"float32"}},{"name":"depthwise_53/filter_in","shape":[3,3,128,1],"dtype":"float32","quantization":{"dtype":"float16","original_dtype":"float32"}},{"name":"Conv2D_71/filter","shape":[1,1,128,128],"dtype":"float32","quantization":{"dtype":"float16","original_dtype":"float32"}},{"name":"depthwise_58/filter_in","shape":[3,3,128,1],"dtype":"float32","quantization":{"dtype":"float16","original_dtype":"float32"}},{"name":"Conv2D_76/filter","shape":[1,1,128,128],"dtype":"float32","quantization":{"dtype":"float16","original_dtype":"float32"}},{"name":"Conv2D_81/filter","shape":[1,1,128,32],"dtype":"float32","quantization":{"dtype":"float16","original_dtype":"float32"}},{"name":"conv2d_51_1/y","shape":[32],"dtype":"float32","quantization":{"dtype":"float16","original_dtype":"float32"}},{"name":"depthwise_63/filter_in","shape":[3,3,32,1],"dtype":"float32","quantization":{"dtype":"float16","original_dtype":"float32"}},{"name":"Conv2D_86/filter","shape":[1,1,32,32],"dtype":"float32","quantization":{"dtype":"float16","original_dtype":"float32"}},{"name":"Conv2D_91/filter","shape":[2,2,32,10],"dtype":"float32","quantization":{"dtype":"float16","original_dtype":"float32"}},{"name":"conv_left_iris/y","shape":[10],"dtype":"float32","quantization":{"dtype":"float16","original_dtype":"float32"}},{"name":"reshape_4_1/shape","shape":[3],"dtype":"int32"},{"name":"strided_slice_61/stack","shape":[3],"dtype":"int32"},{"name":"strided_slice_61/stack_1","shape":[3],"dtype":"int32"},{"name":"strided_slice_61/stack_2","shape":[3],"dtype":"int32"},{"name":"zeros_1","shape":[1,1,2],"dtype":"float32","quantization":{"dtype":"float16","original_dtype":"float32"}},{"name":"Const_5","shape":[],"dtype":"float32","quantization":{"dtype":"float16","original_dtype":"float32"}},{"name":"strided_slice_8/stack","shape":[3],"dtype":"int32"},{"name":"strided_slice_8/stack_1","shape":[3],"dtype":"int32"},{"name":"strided_slice_8/stack_2","shape":[3],"dtype":"int32"},{"name":"Mul_10/y","shape":[],"dtype":"float32","quantization":{"dtype":"float16","original_dtype":"float32"}},{"name":"Const_6","shape":[1,2],"dtype":"float32","quantization":{"dtype":"float16","original_dtype":"float32"}},{"name":"Max_1/reduction_indices","shape":[],"dtype":"int32"},{"name":"GatherV2_1/indices","shape":[71],"dtype":"int32"},{"name":"GatherV2_1/axis","shape":[],"dtype":"int32"},{"name":"strided_slice_7/stack","shape":[3],"dtype":"int32"},{"name":"strided_slice_7/stack_1","shape":[3],"dtype":"int32"},{"name":"strided_slice_7/stack_2","shape":[3],"dtype":"int32"},{"name":"reshape_2/shape","shape":[3],"dtype":"int32"},{"name":"multiply_by_constant_2/y","shape":[1],"dtype":"float32","quantization":{"dtype":"float16","original_dtype":"float32"}},{"name":"strided_slice_5/stack","shape":[3],"dtype":"int32"},{"name":"strided_slice_5/stack_1","shape":[3],"dtype":"int32"},{"name":"strided_slice_5/stack_2","shape":[3],"dtype":"int32"},{"name":"strided_slice_6/stack","shape":[3],"dtype":"int32"},{"name":"strided_slice_6/stack_1","shape":[3],"dtype":"int32"},{"name":"strided_slice_6/stack_2","shape":[3],"dtype":"int32"},{"name":"norm_1/Sum/reduction_indices","shape":[1],"dtype":"int32"},{"name":"Const_4","shape":[2,2],"dtype":"float32","quantization":{"dtype":"float16","original_dtype":"float32"}},{"name":"concat_3/axis","shape":[],"dtype":"int32"},{"name":"Min_1/reduction_indices","shape":[],"dtype":"int32"},{"name":"strided_slice_9/stack","shape":[3],"dtype":"int32"},{"name":"strided_slice_9/stack_1","shape":[3],"dtype":"int32"},{"name":"strided_slice_9/stack_2","shape":[3],"dtype":"int32"},{"name":"Mul_11/y","shape":[],"dtype":"float32","quantization":{"dtype":"float16","original_dtype":"float32"}},{"name":"concat_4/axis","shape":[],"dtype":"int32"},{"name":"transpose_3/perm","shape":[3],"dtype":"int32"},{"name":"Tile_1","shape":[1,2,4],"dtype":"float32","quantization":{"dtype":"float16","original_dtype":"float32"}},{"name":"concat_5/axis","shape":[],"dtype":"int32"},{"name":"multiply_by_constant_3/y","shape":[1,4,4],"dtype":"float32","quantization":{"dtype":"float16","original_dtype":"float32"}},{"name":"strided_slice_62/stack","shape":[3],"dtype":"int32"},{"name":"strided_slice_62/stack_1","shape":[3],"dtype":"int32"},{"name":"strided_slice_62/stack_2","shape":[3],"dtype":"int32"},{"name":"Reshape_10/shape","shape":[3],"dtype":"int32"},{"name":"output_left_iris/shape","shape":[4],"dtype":"int32"},{"name":"p_re_lu_32/Alpha_dequantize_prelu/Neg","shape":[1,1,32],"dtype":"float32","quantization":{"dtype":"float16","original_dtype":"float32"}},{"name":"conv2d_32_1/y","shape":[32],"dtype":"float32","quantization":{"dtype":"float16","original_dtype":"float32"}},{"name":"p_re_lu_31/Alpha_dequantize_prelu/Neg","shape":[1,1,32],"dtype":"float32","quantization":{"dtype":"float16","original_dtype":"float32"}},{"name":"p_re_lu_30/Alpha_dequantize_prelu/Neg","shape":[1,1,128],"dtype":"float32","quantization":{"dtype":"float16","original_dtype":"float32"}},{"name":"conv2d_30_1/y","shape":[128],"dtype":"float32","quantization":{"dtype":"float16","original_dtype":"float32"}},{"name":"p_re_lu_29/Alpha_dequantize_prelu/Neg","shape":[1,1,128],"dtype":"float32","quantization":{"dtype":"float16","original_dtype":"float32"}},{"name":"conv2d_29_1/y","shape":[128],"dtype":"float32","quantization":{"dtype":"float16","original_dtype":"float32"}},{"name":"p_re_lu_28/Alpha_dequantize_prelu/Neg","shape":[1,1,128],"dtype":"float32","quantization":{"dtype":"float16","original_dtype":"float32"}},{"name":"conv2d_28_1/y","shape":[128],"dtype":"float32","quantization":{"dtype":"float16","original_dtype":"float32"}},{"name":"p_re_lu_27/Alpha_dequantize_prelu/Neg","shape":[1,1,128],"dtype":"float32","quantization":{"dtype":"float16","original_dtype":"float32"}},{"name":"conv2d_27_1/y","shape":[128],"dtype":"float32","quantization":{"dtype":"float16","original_dtype":"float32"}},{"name":"p_re_lu_26/Alpha_dequantize_prelu/Neg","shape":[1,1,128],"dtype":"float32","quantization":{"dtype":"float16","original_dtype":"float32"}},{"name":"conv2d_26_1/y","shape":[128],"dtype":"float32","quantization":{"dtype":"float16","original_dtype":"float32"}},{"name":"p_re_lu_25/Alpha_dequantize_prelu/Neg","shape":[1,1,128],"dtype":"float32","quantization":{"dtype":"float16","original_dtype":"float32"}},{"name":"conv2d_25_1/y","shape":[128],"dtype":"float32","quantization":{"dtype":"float16","original_dtype":"float32"}},{"name":"channel_padding_4/paddings","shape":[4,2],"dtype":"int32"},{"name":"p_re_lu_24/Alpha_dequantize_prelu/Neg","shape":[1,1,64],"dtype":"float32","quantization":{"dtype":"float16","original_dtype":"float32"}},{"name":"conv2d_24_1/y","shape":[64],"dtype":"float32","quantization":{"dtype":"float16","original_dtype":"float32"}},{"name":"p_re_lu_23/Alpha_dequantize_prelu/Neg","shape":[1,1,64],"dtype":"float32","quantization":{"dtype":"float16","original_dtype":"float32"}},{"name":"conv2d_23_1/y","shape":[64],"dtype":"float32","quantization":{"dtype":"float16","original_dtype":"float32"}},{"name":"p_re_lu_22/Alpha_dequantize_prelu/Neg","shape":[1,1,64],"dtype":"float32","quantization":{"dtype":"float16","original_dtype":"float32"}},{"name":"conv2d_22_1/y","shape":[64],"dtype":"float32","quantization":{"dtype":"float16","original_dtype":"float32"}},{"name":"channel_padding_3/paddings","shape":[4,2],"dtype":"int32"},{"name":"p_re_lu_21/Alpha_dequantize_prelu/Neg","shape":[1,1,32],"dtype":"float32","quantization":{"dtype":"float16","original_dtype":"float32"}},{"name":"conv2d_21_1/y","shape":[32],"dtype":"float32","quantization":{"dtype":"float16","original_dtype":"float32"}},{"name":"p_re_lu_20/Alpha_dequantize_prelu/Neg","shape":[1,1,32],"dtype":"float32","quantization":{"dtype":"float16","original_dtype":"float32"}},{"name":"conv2d_20_1/y","shape":[32],"dtype":"float32","quantization":{"dtype":"float16","original_dtype":"float32"}},{"name":"BatchGatherND/Tile","shape":[1,16,16,1],"dtype":"int32"},{"name":"strided_slice_25/stack","shape":[4],"dtype":"int32"},{"name":"strided_slice_25/stack_1","shape":[4],"dtype":"int32"},{"name":"strided_slice_25/stack_2","shape":[4],"dtype":"int32"},{"name":"strided_slice_26/stack","shape":[4],"dtype":"int32"},{"name":"strided_slice_26/stack_1","shape":[4],"dtype":"int32"},{"name":"strided_slice_26/stack_2","shape":[4],"dtype":"int32"},{"name":"concat_11/axis","shape":[],"dtype":"int32"},{"name":"BatchGatherND/concat_3/axis","shape":[],"dtype":"int32"},{"name":"Prod_1/reduction_indices","shape":[],"dtype":"int32"},{"name":"BatchGatherND_3/Tile","shape":[1,16,16,1],"dtype":"int32"},{"name":"strided_slice_27/stack","shape":[4],"dtype":"int32"},{"name":"strided_slice_27/stack_1","shape":[4],"dtype":"int32"},{"name":"strided_slice_27/stack_2","shape":[4],"dtype":"int32"},{"name":"strided_slice_28/stack","shape":[4],"dtype":"int32"},{"name":"strided_slice_28/stack_1","shape":[4],"dtype":"int32"},{"name":"strided_slice_28/stack_2","shape":[4],"dtype":"int32"},{"name":"concat_12/axis","shape":[],"dtype":"int32"},{"name":"BatchGatherND_3/concat_3/axis","shape":[],"dtype":"int32"},{"name":"Prod/reduction_indices","shape":[],"dtype":"int32"},{"name":"strided_slice_17/stack","shape":[4],"dtype":"int32"},{"name":"strided_slice_17/stack_1","shape":[4],"dtype":"int32"},{"name":"strided_slice_17/stack_2","shape":[4],"dtype":"int32"},{"name":"strided_slice_18/stack","shape":[4],"dtype":"int32"},{"name":"strided_slice_18/stack_1","shape":[4],"dtype":"int32"},{"name":"strided_slice_18/stack_2","shape":[4],"dtype":"int32"},{"name":"BatchGatherND_1/Tile","shape":[1,16,16,1],"dtype":"int32"},{"name":"strided_slice_21/stack","shape":[4],"dtype":"int32"},{"name":"strided_slice_21/stack_1","shape":[4],"dtype":"int32"},{"name":"strided_slice_21/stack_2","shape":[4],"dtype":"int32"},{"name":"strided_slice_22/stack","shape":[4],"dtype":"int32"},{"name":"strided_slice_22/stack_1","shape":[4],"dtype":"int32"},{"name":"strided_slice_22/stack_2","shape":[4],"dtype":"int32"},{"name":"concat_9/axis","shape":[],"dtype":"int32"},{"name":"BatchGatherND_1/concat_3/axis","shape":[],"dtype":"int32"},{"name":"ones","shape":[2],"dtype":"float32","quantization":{"dtype":"float16","original_dtype":"float32"}},{"name":"strided_slice_19/stack","shape":[4],"dtype":"int32"},{"name":"strided_slice_19/stack_1","shape":[4],"dtype":"int32"},{"name":"strided_slice_19/stack_2","shape":[4],"dtype":"int32"},{"name":"strided_slice_20/stack","shape":[4],"dtype":"int32"},{"name":"strided_slice_20/stack_1","shape":[4],"dtype":"int32"},{"name":"strided_slice_20/stack_2","shape":[4],"dtype":"int32"},{"name":"BatchGatherND_2/Tile","shape":[1,16,16,1],"dtype":"int32"},{"name":"ones_1","shape":[2],"dtype":"int32"},{"name":"Minimum_1/y","shape":[2],"dtype":"int32"},{"name":"strided_slice_23/stack","shape":[4],"dtype":"int32"},{"name":"strided_slice_23/stack_1","shape":[4],"dtype":"int32"},{"name":"strided_slice_23/stack_2","shape":[4],"dtype":"int32"},{"name":"Tile_3","shape":[1,16,16,2],"dtype":"float32","quantization":{"dtype":"float16","original_dtype":"float32"}},{"name":"strided_slice_15/stack","shape":[3],"dtype":"int32"},{"name":"strided_slice_15/stack_1","shape":[3],"dtype":"int32"},{"name":"strided_slice_15/stack_2","shape":[3],"dtype":"int32"},{"name":"strided_slice_16/stack","shape":[3],"dtype":"int32"},{"name":"strided_slice_16/stack_1","shape":[3],"dtype":"int32"},{"name":"strided_slice_16/stack_2","shape":[3],"dtype":"int32"},{"name":"Reshape_1/shape","shape":[4],"dtype":"int32"},{"name":"zeros_3","shape":[2],"dtype":"int32"},{"name":"Minimum/y","shape":[2],"dtype":"int32"},{"name":"strided_slice_24/stack","shape":[4],"dtype":"int32"},{"name":"strided_slice_24/stack_1","shape":[4],"dtype":"int32"},{"name":"strided_slice_24/stack_2","shape":[4],"dtype":"int32"},{"name":"concat_10/axis","shape":[],"dtype":"int32"},{"name":"BatchGatherND_2/concat_3/axis","shape":[],"dtype":"int32"},{"name":"depthwise_18/filter_in","shape":[3,3,32,1],"dtype":"float32","quantization":{"dtype":"float16","original_dtype":"float32"}},{"name":"Conv2D_22/filter","shape":[1,1,32,32],"dtype":"float32","quantization":{"dtype":"float16","original_dtype":"float32"}},{"name":"depthwise_21/filter_in","shape":[3,3,32,1],"dtype":"float32","quantization":{"dtype":"float16","original_dtype":"float32"}},{"name":"Conv2D_25/filter","shape":[1,1,32,32],"dtype":"float32","quantization":{"dtype":"float16","original_dtype":"float32"}},{"name":"depthwise_24/filter_in","shape":[3,3,32,1],"dtype":"float32","quantization":{"dtype":"float16","original_dtype":"float32"}},{"name":"Conv2D_28/filter","shape":[1,1,32,64],"dtype":"float32","quantization":{"dtype":"float16","original_dtype":"float32"}},{"name":"depthwise_27/filter_in","shape":[3,3,64,1],"dtype":"float32","quantization":{"dtype":"float16","original_dtype":"float32"}},{"name":"Conv2D_31/filter","shape":[1,1,64,64],"dtype":"float32","quantization":{"dtype":"float16","original_dtype":"float32"}},{"name":"depthwise_30/filter_in","shape":[3,3,64,1],"dtype":"float32","quantization":{"dtype":"float16","original_dtype":"float32"}},{"name":"Conv2D_38/filter","shape":[1,1,64,64],"dtype":"float32","quantization":{"dtype":"float16","original_dtype":"float32"}},{"name":"depthwise_33/filter_in","shape":[3,3,64,1],"dtype":"float32","quantization":{"dtype":"float16","original_dtype":"float32"}},{"name":"Conv2D_41/filter","shape":[1,1,64,128],"dtype":"float32","quantization":{"dtype":"float16","original_dtype":"float32"}},{"name":"depthwise_36/filter_in","shape":[3,3,128,1],"dtype":"float32","quantization":{"dtype":"float16","original_dtype":"float32"}},{"name":"Conv2D_44/filter","shape":[1,1,128,128],"dtype":"float32","quantization":{"dtype":"float16","original_dtype":"float32"}},{"name":"depthwise_41/filter_in","shape":[3,3,128,1],"dtype":"float32","quantization":{"dtype":"float16","original_dtype":"float32"}},{"name":"Conv2D_49/filter","shape":[1,1,128,128],"dtype":"float32","quantization":{"dtype":"float16","original_dtype":"float32"}},{"name":"depthwise_46/filter_in","shape":[3,3,128,1],"dtype":"float32","quantization":{"dtype":"float16","original_dtype":"float32"}},{"name":"Conv2D_62/filter","shape":[1,1,128,128],"dtype":"float32","quantization":{"dtype":"float16","original_dtype":"float32"}},{"name":"depthwise_51/filter_in","shape":[3,3,128,1],"dtype":"float32","quantization":{"dtype":"float16","original_dtype":"float32"}},{"name":"Conv2D_69/filter","shape":[1,1,128,128],"dtype":"float32","quantization":{"dtype":"float16","original_dtype":"float32"}},{"name":"depthwise_56/filter_in","shape":[3,3,128,1],"dtype":"float32","quantization":{"dtype":"float16","original_dtype":"float32"}},{"name":"Conv2D_74/filter","shape":[1,1,128,128],"dtype":"float32","quantization":{"dtype":"float16","original_dtype":"float32"}},{"name":"Conv2D_79/filter","shape":[1,1,128,32],"dtype":"float32","quantization":{"dtype":"float16","original_dtype":"float32"}},{"name":"conv2d_31_1/y","shape":[32],"dtype":"float32","quantization":{"dtype":"float16","original_dtype":"float32"}},{"name":"depthwise_61/filter_in","shape":[3,3,32,1],"dtype":"float32","quantization":{"dtype":"float16","original_dtype":"float32"}},{"name":"Conv2D_84/filter","shape":[1,1,32,32],"dtype":"float32","quantization":{"dtype":"float16","original_dtype":"float32"}},{"name":"Conv2D_89/filter","shape":[2,2,32,160],"dtype":"float32","quantization":{"dtype":"float16","original_dtype":"float32"}},{"name":"conv_lips/y","shape":[160],"dtype":"float32","quantization":{"dtype":"float16","original_dtype":"float32"}},{"name":"reshape_1_1/shape","shape":[3],"dtype":"int32"},{"name":"strided_slice_57/stack","shape":[3],"dtype":"int32"},{"name":"strided_slice_57/stack_1","shape":[3],"dtype":"int32"},{"name":"strided_slice_57/stack_2","shape":[3],"dtype":"int32"},{"name":"zeros","shape":[1,1,2],"dtype":"float32","quantization":{"dtype":"float16","original_dtype":"float32"}},{"name":"Const_1","shape":[],"dtype":"float32","quantization":{"dtype":"float16","original_dtype":"float32"}},{"name":"strided_slice_3/stack","shape":[3],"dtype":"int32"},{"name":"strided_slice_3/stack_1","shape":[3],"dtype":"int32"},{"name":"strided_slice_3/stack_2","shape":[3],"dtype":"int32"},{"name":"Mul_4/y","shape":[],"dtype":"float32","quantization":{"dtype":"float16","original_dtype":"float32"}},{"name":"Const_2","shape":[1,2],"dtype":"float32","quantization":{"dtype":"float16","original_dtype":"float32"}},{"name":"Max/reduction_indices","shape":[],"dtype":"int32"},{"name":"GatherV2/indices","shape":[80],"dtype":"int32"},{"name":"GatherV2/axis","shape":[],"dtype":"int32"},{"name":"strided_slice_2/stack","shape":[3],"dtype":"int32"},{"name":"strided_slice_2/stack_1","shape":[3],"dtype":"int32"},{"name":"strided_slice_2/stack_2","shape":[3],"dtype":"int32"},{"name":"reshape/shape","shape":[3],"dtype":"int32"},{"name":"multiply_by_constant/y","shape":[1],"dtype":"float32","quantization":{"dtype":"float16","original_dtype":"float32"}},{"name":"strided_slice/stack","shape":[3],"dtype":"int32"},{"name":"strided_slice/stack_1","shape":[3],"dtype":"int32"},{"name":"strided_slice/stack_2","shape":[3],"dtype":"int32"},{"name":"strided_slice_1/stack","shape":[3],"dtype":"int32"},{"name":"strided_slice_1/stack_1","shape":[3],"dtype":"int32"},{"name":"strided_slice_1/stack_2","shape":[3],"dtype":"int32"},{"name":"norm/Sum/reduction_indices","shape":[1],"dtype":"int32"},{"name":"Const","shape":[2,2],"dtype":"float32","quantization":{"dtype":"float16","original_dtype":"float32"}},{"name":"concat/axis","shape":[],"dtype":"int32"},{"name":"Min/reduction_indices","shape":[],"dtype":"int32"},{"name":"strided_slice_4/stack","shape":[3],"dtype":"int32"},{"name":"strided_slice_4/stack_1","shape":[3],"dtype":"int32"},{"name":"strided_slice_4/stack_2","shape":[3],"dtype":"int32"},{"name":"Mul_5/y","shape":[],"dtype":"float32","quantization":{"dtype":"float16","original_dtype":"float32"}},{"name":"concat_1/axis","shape":[],"dtype":"int32"},{"name":"transpose_1/perm","shape":[3],"dtype":"int32"},{"name":"Tile","shape":[1,2,4],"dtype":"float32","quantization":{"dtype":"float16","original_dtype":"float32"}},{"name":"concat_2/axis","shape":[],"dtype":"int32"},{"name":"multiply_by_constant_1/y","shape":[1,4,4],"dtype":"float32","quantization":{"dtype":"float16","original_dtype":"float32"}},{"name":"strided_slice_58/stack","shape":[3],"dtype":"int32"},{"name":"strided_slice_58/stack_1","shape":[3],"dtype":"int32"},{"name":"strided_slice_58/stack_2","shape":[3],"dtype":"int32"},{"name":"Reshape_8/shape","shape":[3],"dtype":"int32"},{"name":"output_lips/shape","shape":[4],"dtype":"int32"},{"name":"output_mesh_identity/begin","shape":[4],"dtype":"int32"},{"name":"output_mesh_identity/end","shape":[4],"dtype":"int32"},{"name":"output_mesh_identity/strides","shape":[4],"dtype":"int32"},{"name":"p_re_lu_65/Alpha_dequantize_prelu/Neg","shape":[1,1,32],"dtype":"float32","quantization":{"dtype":"float16","original_dtype":"float32"}},{"name":"conv2d_65_1/y","shape":[32],"dtype":"float32","quantization":{"dtype":"float16","original_dtype":"float32"}},{"name":"p_re_lu_64/Alpha_dequantize_prelu/Neg","shape":[1,1,32],"dtype":"float32","quantization":{"dtype":"float16","original_dtype":"float32"}},{"name":"p_re_lu_63/Alpha_dequantize_prelu/Neg","shape":[1,1,128],"dtype":"float32","quantization":{"dtype":"float16","original_dtype":"float32"}},{"name":"conv2d_63_1/y","shape":[128],"dtype":"float32","quantization":{"dtype":"float16","original_dtype":"float32"}},{"name":"p_re_lu_62/Alpha_dequantize_prelu/Neg","shape":[1,1,128],"dtype":"float32","quantization":{"dtype":"float16","original_dtype":"float32"}},{"name":"conv2d_62_1/y","shape":[128],"dtype":"float32","quantization":{"dtype":"float16","original_dtype":"float32"}},{"name":"p_re_lu_61/Alpha_dequantize_prelu/Neg","shape":[1,1,128],"dtype":"float32","quantization":{"dtype":"float16","original_dtype":"float32"}},{"name":"conv2d_61_1/y","shape":[128],"dtype":"float32","quantization":{"dtype":"float16","original_dtype":"float32"}},{"name":"p_re_lu_60/Alpha_dequantize_prelu/Neg","shape":[1,1,128],"dtype":"float32","quantization":{"dtype":"float16","original_dtype":"float32"}},{"name":"conv2d_60/y","shape":[128],"dtype":"float32","quantization":{"dtype":"float16","original_dtype":"float32"}},{"name":"p_re_lu_59/Alpha_dequantize_prelu/Neg","shape":[1,1,128],"dtype":"float32","quantization":{"dtype":"float16","original_dtype":"float32"}},{"name":"conv2d_59/y","shape":[128],"dtype":"float32","quantization":{"dtype":"float16","original_dtype":"float32"}},{"name":"depthwise_39/filter_in","shape":[3,3,128,1],"dtype":"float32","quantization":{"dtype":"float16","original_dtype":"float32"}},{"name":"Conv2D_47/filter","shape":[1,1,128,128],"dtype":"float32","quantization":{"dtype":"float16","original_dtype":"float32"}},{"name":"depthwise_44/filter_in","shape":[3,3,128,1],"dtype":"float32","quantization":{"dtype":"float16","original_dtype":"float32"}},{"name":"Conv2D_52/filter","shape":[1,1,128,128],"dtype":"float32","quantization":{"dtype":"float16","original_dtype":"float32"}},{"name":"depthwise_49/filter_in","shape":[3,3,128,1],"dtype":"float32","quantization":{"dtype":"float16","original_dtype":"float32"}},{"name":"Conv2D_65/filter","shape":[1,1,128,128],"dtype":"float32","quantization":{"dtype":"float16","original_dtype":"float32"}},{"name":"depthwise_54/filter_in","shape":[3,3,128,1],"dtype":"float32","quantization":{"dtype":"float16","original_dtype":"float32"}},{"name":"Conv2D_72/filter","shape":[1,1,128,128],"dtype":"float32","quantization":{"dtype":"float16","original_dtype":"float32"}},{"name":"depthwise_59/filter_in","shape":[3,3,128,1],"dtype":"float32","quantization":{"dtype":"float16","original_dtype":"float32"}},{"name":"Conv2D_77/filter","shape":[1,1,128,128],"dtype":"float32","quantization":{"dtype":"float16","original_dtype":"float32"}},{"name":"Conv2D_82/filter","shape":[1,1,128,32],"dtype":"float32","quantization":{"dtype":"float16","original_dtype":"float32"}},{"name":"conv2d_64_1/y","shape":[32],"dtype":"float32","quantization":{"dtype":"float16","original_dtype":"float32"}},{"name":"depthwise_64/filter_in","shape":[3,3,32,1],"dtype":"float32","quantization":{"dtype":"float16","original_dtype":"float32"}},{"name":"Conv2D_87/filter","shape":[1,1,32,32],"dtype":"float32","quantization":{"dtype":"float16","original_dtype":"float32"}},{"name":"Conv2D_92/filter","shape":[2,2,32,142],"dtype":"float32","quantization":{"dtype":"float16","original_dtype":"float32"}},{"name":"conv_right_eye/y","shape":[142],"dtype":"float32","quantization":{"dtype":"float16","original_dtype":"float32"}},{"name":"reshape_6/shape","shape":[3],"dtype":"int32"},{"name":"strided_slice_63/stack","shape":[3],"dtype":"int32"},{"name":"strided_slice_63/stack_1","shape":[3],"dtype":"int32"},{"name":"strided_slice_63/stack_2","shape":[3],"dtype":"int32"},{"name":"strided_slice_64/stack","shape":[3],"dtype":"int32"},{"name":"strided_slice_64/stack_1","shape":[3],"dtype":"int32"},{"name":"strided_slice_64/stack_2","shape":[3],"dtype":"int32"},{"name":"Reshape_11/shape","shape":[3],"dtype":"int32"},{"name":"output_right_eye/shape","shape":[4],"dtype":"int32"},{"name":"p_re_lu_72/Alpha_dequantize_prelu/Neg","shape":[1,1,32],"dtype":"float32","quantization":{"dtype":"float16","original_dtype":"float32"}},{"name":"conv2d_72_1/y","shape":[32],"dtype":"float32","quantization":{"dtype":"float16","original_dtype":"float32"}},{"name":"p_re_lu_71/Alpha_dequantize_prelu/Neg","shape":[1,1,32],"dtype":"float32","quantization":{"dtype":"float16","original_dtype":"float32"}},{"name":"p_re_lu_70/Alpha_dequantize_prelu/Neg","shape":[1,1,128],"dtype":"float32","quantization":{"dtype":"float16","original_dtype":"float32"}},{"name":"conv2d_70_1/y","shape":[128],"dtype":"float32","quantization":{"dtype":"float16","original_dtype":"float32"}},{"name":"p_re_lu_69/Alpha_dequantize_prelu/Neg","shape":[1,1,128],"dtype":"float32","quantization":{"dtype":"float16","original_dtype":"float32"}},{"name":"conv2d_69_1/y","shape":[128],"dtype":"float32","quantization":{"dtype":"float16","original_dtype":"float32"}},{"name":"p_re_lu_68/Alpha_dequantize_prelu/Neg","shape":[1,1,128],"dtype":"float32","quantization":{"dtype":"float16","original_dtype":"float32"}},{"name":"conv2d_68_1/y","shape":[128],"dtype":"float32","quantization":{"dtype":"float16","original_dtype":"float32"}},{"name":"p_re_lu_67/Alpha_dequantize_prelu/Neg","shape":[1,1,128],"dtype":"float32","quantization":{"dtype":"float16","original_dtype":"float32"}},{"name":"conv2d_67/y","shape":[128],"dtype":"float32","quantization":{"dtype":"float16","original_dtype":"float32"}},{"name":"p_re_lu_66/Alpha_dequantize_prelu/Neg","shape":[1,1,128],"dtype":"float32","quantization":{"dtype":"float16","original_dtype":"float32"}},{"name":"conv2d_66/y","shape":[128],"dtype":"float32","quantization":{"dtype":"float16","original_dtype":"float32"}},{"name":"p_re_lu_58/Alpha_dequantize_prelu/Neg","shape":[1,1,128],"dtype":"float32","quantization":{"dtype":"float16","original_dtype":"float32"}},{"name":"conv2d_58/y","shape":[128],"dtype":"float32","quantization":{"dtype":"float16","original_dtype":"float32"}},{"name":"channel_padding_8/paddings","shape":[4,2],"dtype":"int32"},{"name":"p_re_lu_57/Alpha_dequantize_prelu/Neg","shape":[1,1,64],"dtype":"float32","quantization":{"dtype":"float16","original_dtype":"float32"}},{"name":"conv2d_57/y","shape":[64],"dtype":"float32","quantization":{"dtype":"float16","original_dtype":"float32"}},{"name":"p_re_lu_56/Alpha_dequantize_prelu/Neg","shape":[1,1,64],"dtype":"float32","quantization":{"dtype":"float16","original_dtype":"float32"}},{"name":"conv2d_56/y","shape":[64],"dtype":"float32","quantization":{"dtype":"float16","original_dtype":"float32"}},{"name":"p_re_lu_55/Alpha_dequantize_prelu/Neg","shape":[1,1,64],"dtype":"float32","quantization":{"dtype":"float16","original_dtype":"float32"}},{"name":"conv2d_55/y","shape":[64],"dtype":"float32","quantization":{"dtype":"float16","original_dtype":"float32"}},{"name":"channel_padding_7/paddings","shape":[4,2],"dtype":"int32"},{"name":"p_re_lu_54/Alpha_dequantize_prelu/Neg","shape":[1,1,32],"dtype":"float32","quantization":{"dtype":"float16","original_dtype":"float32"}},{"name":"conv2d_54/y","shape":[32],"dtype":"float32","quantization":{"dtype":"float16","original_dtype":"float32"}},{"name":"p_re_lu_53/Alpha_dequantize_prelu/Neg","shape":[1,1,32],"dtype":"float32","quantization":{"dtype":"float16","original_dtype":"float32"}},{"name":"conv2d_53/y","shape":[32],"dtype":"float32","quantization":{"dtype":"float16","original_dtype":"float32"}},{"name":"BatchGatherND_8/Tile","shape":[1,16,16,1],"dtype":"int32"},{"name":"strided_slice_53/stack","shape":[4],"dtype":"int32"},{"name":"strided_slice_53/stack_1","shape":[4],"dtype":"int32"},{"name":"strided_slice_53/stack_2","shape":[4],"dtype":"int32"},{"name":"strided_slice_54/stack","shape":[4],"dtype":"int32"},{"name":"strided_slice_54/stack_1","shape":[4],"dtype":"int32"},{"name":"strided_slice_54/stack_2","shape":[4],"dtype":"int32"},{"name":"concat_19/axis","shape":[],"dtype":"int32"},{"name":"BatchGatherND_8/concat_3/axis","shape":[],"dtype":"int32"},{"name":"Prod_5/reduction_indices","shape":[],"dtype":"int32"},{"name":"BatchGatherND_11/Tile","shape":[1,16,16,1],"dtype":"int32"},{"name":"strided_slice_55/stack","shape":[4],"dtype":"int32"},{"name":"strided_slice_55/stack_1","shape":[4],"dtype":"int32"},{"name":"strided_slice_55/stack_2","shape":[4],"dtype":"int32"},{"name":"strided_slice_56/stack","shape":[4],"dtype":"int32"},{"name":"strided_slice_56/stack_1","shape":[4],"dtype":"int32"},{"name":"strided_slice_56/stack_2","shape":[4],"dtype":"int32"},{"name":"concat_20/axis","shape":[],"dtype":"int32"},{"name":"BatchGatherND_11/concat_3/axis","shape":[],"dtype":"int32"},{"name":"Prod_4/reduction_indices","shape":[],"dtype":"int32"},{"name":"strided_slice_45/stack","shape":[4],"dtype":"int32"},{"name":"strided_slice_45/stack_1","shape":[4],"dtype":"int32"},{"name":"strided_slice_45/stack_2","shape":[4],"dtype":"int32"},{"name":"strided_slice_46/stack","shape":[4],"dtype":"int32"},{"name":"strided_slice_46/stack_1","shape":[4],"dtype":"int32"},{"name":"strided_slice_46/stack_2","shape":[4],"dtype":"int32"},{"name":"BatchGatherND_9/Tile","shape":[1,16,16,1],"dtype":"int32"},{"name":"strided_slice_49/stack","shape":[4],"dtype":"int32"},{"name":"strided_slice_49/stack_1","shape":[4],"dtype":"int32"},{"name":"strided_slice_49/stack_2","shape":[4],"dtype":"int32"},{"name":"strided_slice_50/stack","shape":[4],"dtype":"int32"},{"name":"strided_slice_50/stack_1","shape":[4],"dtype":"int32"},{"name":"strided_slice_50/stack_2","shape":[4],"dtype":"int32"},{"name":"concat_17/axis","shape":[],"dtype":"int32"},{"name":"BatchGatherND_9/concat_3/axis","shape":[],"dtype":"int32"},{"name":"ones_4","shape":[2],"dtype":"float32","quantization":{"dtype":"float16","original_dtype":"float32"}},{"name":"strided_slice_47/stack","shape":[4],"dtype":"int32"},{"name":"strided_slice_47/stack_1","shape":[4],"dtype":"int32"},{"name":"strided_slice_47/stack_2","shape":[4],"dtype":"int32"},{"name":"strided_slice_48/stack","shape":[4],"dtype":"int32"},{"name":"strided_slice_48/stack_1","shape":[4],"dtype":"int32"},{"name":"strided_slice_48/stack_2","shape":[4],"dtype":"int32"},{"name":"BatchGatherND_10/Tile","shape":[1,16,16,1],"dtype":"int32"},{"name":"ones_5","shape":[2],"dtype":"int32"},{"name":"Minimum_5/y","shape":[2],"dtype":"int32"},{"name":"strided_slice_51/stack","shape":[4],"dtype":"int32"},{"name":"strided_slice_51/stack_1","shape":[4],"dtype":"int32"},{"name":"strided_slice_51/stack_2","shape":[4],"dtype":"int32"},{"name":"Tile_5","shape":[1,16,16,2],"dtype":"float32","quantization":{"dtype":"float16","original_dtype":"float32"}},{"name":"strided_slice_43/stack","shape":[3],"dtype":"int32"},{"name":"strided_slice_43/stack_1","shape":[3],"dtype":"int32"},{"name":"strided_slice_43/stack_2","shape":[3],"dtype":"int32"},{"name":"strided_slice_44/stack","shape":[3],"dtype":"int32"},{"name":"strided_slice_44/stack_1","shape":[3],"dtype":"int32"},{"name":"strided_slice_44/stack_2","shape":[3],"dtype":"int32"},{"name":"Reshape_4/shape","shape":[4],"dtype":"int32"},{"name":"zeros_5","shape":[2],"dtype":"int32"},{"name":"Minimum_4/y","shape":[2],"dtype":"int32"},{"name":"strided_slice_52/stack","shape":[4],"dtype":"int32"},{"name":"strided_slice_52/stack_1","shape":[4],"dtype":"int32"},{"name":"strided_slice_52/stack_2","shape":[4],"dtype":"int32"},{"name":"concat_18/axis","shape":[],"dtype":"int32"},{"name":"BatchGatherND_10/concat_3/axis","shape":[],"dtype":"int32"},{"name":"depthwise_20/filter_in","shape":[3,3,32,1],"dtype":"float32","quantization":{"dtype":"float16","original_dtype":"float32"}},{"name":"Conv2D_24/filter","shape":[1,1,32,32],"dtype":"float32","quantization":{"dtype":"float16","original_dtype":"float32"}},{"name":"depthwise_23/filter_in","shape":[3,3,32,1],"dtype":"float32","quantization":{"dtype":"float16","original_dtype":"float32"}},{"name":"Conv2D_27/filter","shape":[1,1,32,32],"dtype":"float32","quantization":{"dtype":"float16","original_dtype":"float32"}},{"name":"depthwise_26/filter_in","shape":[3,3,32,1],"dtype":"float32","quantization":{"dtype":"float16","original_dtype":"float32"}},{"name":"Conv2D_30/filter","shape":[1,1,32,64],"dtype":"float32","quantization":{"dtype":"float16","original_dtype":"float32"}},{"name":"depthwise_29/filter_in","shape":[3,3,64,1],"dtype":"float32","quantization":{"dtype":"float16","original_dtype":"float32"}},{"name":"Conv2D_37/filter","shape":[1,1,64,64],"dtype":"float32","quantization":{"dtype":"float16","original_dtype":"float32"}},{"name":"depthwise_32/filter_in","shape":[3,3,64,1],"dtype":"float32","quantization":{"dtype":"float16","original_dtype":"float32"}},{"name":"Conv2D_40/filter","shape":[1,1,64,64],"dtype":"float32","quantization":{"dtype":"float16","original_dtype":"float32"}},{"name":"depthwise_35/filter_in","shape":[3,3,64,1],"dtype":"float32","quantization":{"dtype":"float16","original_dtype":"float32"}},{"name":"Conv2D_43/filter","shape":[1,1,64,128],"dtype":"float32","quantization":{"dtype":"float16","original_dtype":"float32"}},{"name":"depthwise_40/filter_in","shape":[3,3,128,1],"dtype":"float32","quantization":{"dtype":"float16","original_dtype":"float32"}},{"name":"Conv2D_48/filter","shape":[1,1,128,128],"dtype":"float32","quantization":{"dtype":"float16","original_dtype":"float32"}},{"name":"depthwise_45/filter_in","shape":[3,3,128,1],"dtype":"float32","quantization":{"dtype":"float16","original_dtype":"float32"}},{"name":"Conv2D_61/filter","shape":[1,1,128,128],"dtype":"float32","quantization":{"dtype":"float16","original_dtype":"float32"}},{"name":"depthwise_50/filter_in","shape":[3,3,128,1],"dtype":"float32","quantization":{"dtype":"float16","original_dtype":"float32"}},{"name":"Conv2D_68/filter","shape":[1,1,128,128],"dtype":"float32","quantization":{"dtype":"float16","original_dtype":"float32"}},{"name":"depthwise_55/filter_in","shape":[3,3,128,1],"dtype":"float32","quantization":{"dtype":"float16","original_dtype":"float32"}},{"name":"Conv2D_73/filter","shape":[1,1,128,128],"dtype":"float32","quantization":{"dtype":"float16","original_dtype":"float32"}},{"name":"depthwise_60/filter_in","shape":[3,3,128,1],"dtype":"float32","quantization":{"dtype":"float16","original_dtype":"float32"}},{"name":"Conv2D_78/filter","shape":[1,1,128,128],"dtype":"float32","quantization":{"dtype":"float16","original_dtype":"float32"}},{"name":"Conv2D_83/filter","shape":[1,1,128,32],"dtype":"float32","quantization":{"dtype":"float16","original_dtype":"float32"}},{"name":"conv2d_71_1/y","shape":[32],"dtype":"float32","quantization":{"dtype":"float16","original_dtype":"float32"}},{"name":"depthwise_65/filter_in","shape":[3,3,32,1],"dtype":"float32","quantization":{"dtype":"float16","original_dtype":"float32"}},{"name":"Conv2D_88/filter","shape":[1,1,32,32],"dtype":"float32","quantization":{"dtype":"float16","original_dtype":"float32"}},{"name":"Conv2D_93/filter","shape":[2,2,32,10],"dtype":"float32","quantization":{"dtype":"float16","original_dtype":"float32"}},{"name":"conv_right_iris/y","shape":[10],"dtype":"float32","quantization":{"dtype":"float16","original_dtype":"float32"}},{"name":"reshape_7/shape","shape":[3],"dtype":"int32"},{"name":"strided_slice_65/stack","shape":[3],"dtype":"int32"},{"name":"strided_slice_65/stack_1","shape":[3],"dtype":"int32"},{"name":"strided_slice_65/stack_2","shape":[3],"dtype":"int32"},{"name":"zeros_2","shape":[1,1,2],"dtype":"float32","quantization":{"dtype":"float16","original_dtype":"float32"}},{"name":"Const_9","shape":[],"dtype":"float32","quantization":{"dtype":"float16","original_dtype":"float32"}},{"name":"strided_slice_13/stack","shape":[3],"dtype":"int32"},{"name":"strided_slice_13/stack_1","shape":[3],"dtype":"int32"},{"name":"strided_slice_13/stack_2","shape":[3],"dtype":"int32"},{"name":"Mul_16/y","shape":[],"dtype":"float32","quantization":{"dtype":"float16","original_dtype":"float32"}},{"name":"Const_10","shape":[1,2],"dtype":"float32","quantization":{"dtype":"float16","original_dtype":"float32"}},{"name":"Max_2/reduction_indices","shape":[],"dtype":"int32"},{"name":"GatherV2_2/indices","shape":[71],"dtype":"int32"},{"name":"GatherV2_2/axis","shape":[],"dtype":"int32"},{"name":"strided_slice_12/stack","shape":[3],"dtype":"int32"},{"name":"strided_slice_12/stack_1","shape":[3],"dtype":"int32"},{"name":"strided_slice_12/stack_2","shape":[3],"dtype":"int32"},{"name":"p_re_lu_19/Alpha_dequantize_prelu/Neg","shape":[1,1,32],"dtype":"float32","quantization":{"dtype":"float16","original_dtype":"float32"}},{"name":"p_re_lu_18/Alpha_dequantize_prelu/Neg","shape":[1,1,32],"dtype":"float32","quantization":{"dtype":"float16","original_dtype":"float32"}},{"name":"p_re_lu_17/Alpha_dequantize_prelu/Neg","shape":[1,1,128],"dtype":"float32","quantization":{"dtype":"float16","original_dtype":"float32"}},{"name":"p_re_lu_16/Alpha_dequantize_prelu/Neg","shape":[1,1,128],"dtype":"float32","quantization":{"dtype":"float16","original_dtype":"float32"}},{"name":"p_re_lu_15/Alpha_dequantize_prelu/Neg","shape":[1,1,128],"dtype":"float32","quantization":{"dtype":"float16","original_dtype":"float32"}},{"name":"p_re_lu_14/Alpha_dequantize_prelu/Neg","shape":[1,1,128],"dtype":"float32","quantization":{"dtype":"float16","original_dtype":"float32"}},{"name":"p_re_lu_13/Alpha_dequantize_prelu/Neg","shape":[1,1,128],"dtype":"float32","quantization":{"dtype":"float16","original_dtype":"float32"}},{"name":"p_re_lu_12/Alpha_dequantize_prelu/Neg","shape":[1,1,128],"dtype":"float32","quantization":{"dtype":"float16","original_dtype":"float32"}},{"name":"p_re_lu_11/Alpha_dequantize_prelu/Neg","shape":[1,1,128],"dtype":"float32","quantization":{"dtype":"float16","original_dtype":"float32"}},{"name":"p_re_lu_10/Alpha_dequantize_prelu/Neg","shape":[1,1,128],"dtype":"float32","quantization":{"dtype":"float16","original_dtype":"float32"}},{"name":"p_re_lu_9/Alpha_dequantize_prelu/Neg","shape":[1,1,128],"dtype":"float32","quantization":{"dtype":"float16","original_dtype":"float32"}},{"name":"channel_padding_2/paddings","shape":[4,2],"dtype":"int32"},{"name":"p_re_lu_8/Alpha_dequantize_prelu/Neg","shape":[1,1,64],"dtype":"float32","quantization":{"dtype":"float16","original_dtype":"float32"}},{"name":"p_re_lu_7/Alpha_dequantize_prelu/Neg","shape":[1,1,64],"dtype":"float32","quantization":{"dtype":"float16","original_dtype":"float32"}},{"name":"p_re_lu_6/Alpha_dequantize_prelu/Neg","shape":[1,1,64],"dtype":"float32","quantization":{"dtype":"float16","original_dtype":"float32"}},{"name":"channel_padding_1/paddings","shape":[4,2],"dtype":"int32"},{"name":"p_re_lu_5/Alpha_dequantize_prelu/Neg","shape":[1,1,32],"dtype":"float32","quantization":{"dtype":"float16","original_dtype":"float32"}},{"name":"p_re_lu_4/Alpha_dequantize_prelu/Neg","shape":[1,1,32],"dtype":"float32","quantization":{"dtype":"float16","original_dtype":"float32"}},{"name":"p_re_lu_3/Alpha_dequantize_prelu/Neg","shape":[1,1,32],"dtype":"float32","quantization":{"dtype":"float16","original_dtype":"float32"}},{"name":"channel_padding/paddings","shape":[4,2],"dtype":"int32"},{"name":"p_re_lu_2/Alpha_dequantize_prelu/Neg","shape":[1,1,16],"dtype":"float32","quantization":{"dtype":"float16","original_dtype":"float32"}},{"name":"p_re_lu_1/Alpha_dequantize_prelu/Neg","shape":[1,1,16],"dtype":"float32","quantization":{"dtype":"float16","original_dtype":"float32"}},{"name":"p_re_lu/Alpha_dequantize_prelu/Neg","shape":[1,1,16],"dtype":"float32","quantization":{"dtype":"float16","original_dtype":"float32"}},{"name":"Conv2D/filter","shape":[3,3,3,16],"dtype":"float32","quantization":{"dtype":"float16","original_dtype":"float32"}},{"name":"conv2d_1/y","shape":[16],"dtype":"float32","quantization":{"dtype":"float16","original_dtype":"float32"}},{"name":"depthwise/filter_in","shape":[3,3,16,1],"dtype":"float32","quantization":{"dtype":"float16","original_dtype":"float32"}},{"name":"Conv2D_2/filter","shape":[1,1,16,16],"dtype":"float32","quantization":{"dtype":"float16","original_dtype":"float32"}},{"name":"conv2d_1_1/y","shape":[16],"dtype":"float32","quantization":{"dtype":"float16","original_dtype":"float32"}},{"name":"depthwise_1/filter_in","shape":[3,3,16,1],"dtype":"float32","quantization":{"dtype":"float16","original_dtype":"float32"}},{"name":"Conv2D_3/filter","shape":[1,1,16,16],"dtype":"float32","quantization":{"dtype":"float16","original_dtype":"float32"}},{"name":"conv2d_2_1/y","shape":[16],"dtype":"float32","quantization":{"dtype":"float16","original_dtype":"float32"}},{"name":"depthwise_2/filter_in","shape":[3,3,16,1],"dtype":"float32","quantization":{"dtype":"float16","original_dtype":"float32"}},{"name":"Conv2D_4/filter","shape":[1,1,16,32],"dtype":"float32","quantization":{"dtype":"float16","original_dtype":"float32"}},{"name":"conv2d_3_1/y","shape":[32],"dtype":"float32","quantization":{"dtype":"float16","original_dtype":"float32"}},{"name":"depthwise_3/filter_in","shape":[3,3,32,1],"dtype":"float32","quantization":{"dtype":"float16","original_dtype":"float32"}},{"name":"Conv2D_5/filter","shape":[1,1,32,32],"dtype":"float32","quantization":{"dtype":"float16","original_dtype":"float32"}},{"name":"conv2d_4_1/y","shape":[32],"dtype":"float32","quantization":{"dtype":"float16","original_dtype":"float32"}},{"name":"depthwise_4/filter_in","shape":[3,3,32,1],"dtype":"float32","quantization":{"dtype":"float16","original_dtype":"float32"}},{"name":"Conv2D_6/filter","shape":[1,1,32,32],"dtype":"float32","quantization":{"dtype":"float16","original_dtype":"float32"}},{"name":"conv2d_5_1/y","shape":[32],"dtype":"float32","quantization":{"dtype":"float16","original_dtype":"float32"}},{"name":"depthwise_5/filter_in","shape":[3,3,32,1],"dtype":"float32","quantization":{"dtype":"float16","original_dtype":"float32"}},{"name":"Conv2D_7/filter","shape":[1,1,32,64],"dtype":"float32","quantization":{"dtype":"float16","original_dtype":"float32"}},{"name":"conv2d_6_1/y","shape":[64],"dtype":"float32","quantization":{"dtype":"float16","original_dtype":"float32"}},{"name":"depthwise_6/filter_in","shape":[3,3,64,1],"dtype":"float32","quantization":{"dtype":"float16","original_dtype":"float32"}},{"name":"Conv2D_8/filter","shape":[1,1,64,64],"dtype":"float32","quantization":{"dtype":"float16","original_dtype":"float32"}},{"name":"conv2d_7_1/y","shape":[64],"dtype":"float32","quantization":{"dtype":"float16","original_dtype":"float32"}},{"name":"depthwise_7/filter_in","shape":[3,3,64,1],"dtype":"float32","quantization":{"dtype":"float16","original_dtype":"float32"}},{"name":"Conv2D_9/filter","shape":[1,1,64,64],"dtype":"float32","quantization":{"dtype":"float16","original_dtype":"float32"}},{"name":"conv2d_8_1/y","shape":[64],"dtype":"float32","quantization":{"dtype":"float16","original_dtype":"float32"}},{"name":"depthwise_8/filter_in","shape":[3,3,64,1],"dtype":"float32","quantization":{"dtype":"float16","original_dtype":"float32"}},{"name":"Conv2D_10/filter","shape":[1,1,64,128],"dtype":"float32","quantization":{"dtype":"float16","original_dtype":"float32"}},{"name":"conv2d_9_1/y","shape":[128],"dtype":"float32","quantization":{"dtype":"float16","original_dtype":"float32"}},{"name":"depthwise_9/filter_in","shape":[3,3,128,1],"dtype":"float32","quantization":{"dtype":"float16","original_dtype":"float32"}},{"name":"Conv2D_11/filter","shape":[1,1,128,128],"dtype":"float32","quantization":{"dtype":"float16","original_dtype":"float32"}},{"name":"conv2d_10_1/y","shape":[128],"dtype":"float32","quantization":{"dtype":"float16","original_dtype":"float32"}},{"name":"depthwise_10/filter_in","shape":[3,3,128,1],"dtype":"float32","quantization":{"dtype":"float16","original_dtype":"float32"}},{"name":"Conv2D_12/filter","shape":[1,1,128,128],"dtype":"float32","quantization":{"dtype":"float16","original_dtype":"float32"}},{"name":"conv2d_11_1/y","shape":[128],"dtype":"float32","quantization":{"dtype":"float16","original_dtype":"float32"}},{"name":"depthwise_11/filter_in","shape":[3,3,128,1],"dtype":"float32","quantization":{"dtype":"float16","original_dtype":"float32"}},{"name":"Conv2D_13/filter","shape":[1,1,128,128],"dtype":"float32","quantization":{"dtype":"float16","original_dtype":"float32"}},{"name":"conv2d_12_1/y","shape":[128],"dtype":"float32","quantization":{"dtype":"float16","original_dtype":"float32"}},{"name":"depthwise_12/filter_in","shape":[3,3,128,1],"dtype":"float32","quantization":{"dtype":"float16","original_dtype":"float32"}},{"name":"Conv2D_14/filter","shape":[1,1,128,128],"dtype":"float32","quantization":{"dtype":"float16","original_dtype":"float32"}},{"name":"conv2d_13_1/y","shape":[128],"dtype":"float32","quantization":{"dtype":"float16","original_dtype":"float32"}},{"name":"depthwise_13/filter_in","shape":[3,3,128,1],"dtype":"float32","quantization":{"dtype":"float16","original_dtype":"float32"}},{"name":"Conv2D_15/filter","shape":[1,1,128,128],"dtype":"float32","quantization":{"dtype":"float16","original_dtype":"float32"}},{"name":"conv2d_14_1/y","shape":[128],"dtype":"float32","quantization":{"dtype":"float16","original_dtype":"float32"}},{"name":"depthwise_14/filter_in","shape":[3,3,128,1],"dtype":"float32","quantization":{"dtype":"float16","original_dtype":"float32"}},{"name":"Conv2D_16/filter","shape":[1,1,128,128],"dtype":"float32","quantization":{"dtype":"float16","original_dtype":"float32"}},{"name":"conv2d_15_1/y","shape":[128],"dtype":"float32","quantization":{"dtype":"float16","original_dtype":"float32"}},{"name":"depthwise_15/filter_in","shape":[3,3,128,1],"dtype":"float32","quantization":{"dtype":"float16","original_dtype":"float32"}},{"name":"Conv2D_17/filter","shape":[1,1,128,128],"dtype":"float32","quantization":{"dtype":"float16","original_dtype":"float32"}},{"name":"conv2d_16_1/y","shape":[128],"dtype":"float32","quantization":{"dtype":"float16","original_dtype":"float32"}},{"name":"depthwise_16/filter_in","shape":[3,3,128,1],"dtype":"float32","quantization":{"dtype":"float16","original_dtype":"float32"}},{"name":"Conv2D_18/filter","shape":[1,1,128,128],"dtype":"float32","quantization":{"dtype":"float16","original_dtype":"float32"}},{"name":"conv2d_17_1/y","shape":[128],"dtype":"float32","quantization":{"dtype":"float16","original_dtype":"float32"}},{"name":"Conv2D_19/filter","shape":[1,1,128,32],"dtype":"float32","quantization":{"dtype":"float16","original_dtype":"float32"}},{"name":"conv2d_18_1/y","shape":[32],"dtype":"float32","quantization":{"dtype":"float16","original_dtype":"float32"}},{"name":"depthwise_17/filter_in","shape":[3,3,32,1],"dtype":"float32","quantization":{"dtype":"float16","original_dtype":"float32"}},{"name":"Conv2D_20/filter","shape":[1,1,32,32],"dtype":"float32","quantization":{"dtype":"float16","original_dtype":"float32"}},{"name":"conv2d_19_1/y","shape":[32],"dtype":"float32","quantization":{"dtype":"float16","original_dtype":"float32"}},{"name":"Conv2D_21/filter","shape":[3,3,32,1404],"dtype":"float32","quantization":{"dtype":"float16","original_dtype":"float32"}},{"name":"output_mesh/y","shape":[1404],"dtype":"float32","quantization":{"dtype":"float16","original_dtype":"float32"}},{"name":"reshape_5/shape","shape":[3],"dtype":"int32"},{"name":"multiply_by_constant_4/y","shape":[1],"dtype":"float32","quantization":{"dtype":"float16","original_dtype":"float32"}},{"name":"strided_slice_10/stack","shape":[3],"dtype":"int32"},{"name":"strided_slice_10/stack_1","shape":[3],"dtype":"int32"},{"name":"strided_slice_10/stack_2","shape":[3],"dtype":"int32"},{"name":"strided_slice_11/stack","shape":[3],"dtype":"int32"},{"name":"strided_slice_11/stack_1","shape":[3],"dtype":"int32"},{"name":"strided_slice_11/stack_2","shape":[3],"dtype":"int32"},{"name":"norm_2/Sum/reduction_indices","shape":[1],"dtype":"int32"},{"name":"Const_8","shape":[2,2],"dtype":"float32","quantization":{"dtype":"float16","original_dtype":"float32"}},{"name":"concat_6/axis","shape":[],"dtype":"int32"},{"name":"Min_2/reduction_indices","shape":[],"dtype":"int32"},{"name":"strided_slice_14/stack","shape":[3],"dtype":"int32"},{"name":"strided_slice_14/stack_1","shape":[3],"dtype":"int32"},{"name":"strided_slice_14/stack_2","shape":[3],"dtype":"int32"},{"name":"Mul_17/y","shape":[],"dtype":"float32","quantization":{"dtype":"float16","original_dtype":"float32"}},{"name":"concat_7/axis","shape":[],"dtype":"int32"},{"name":"transpose_5/perm","shape":[3],"dtype":"int32"},{"name":"Tile_2","shape":[1,2,4],"dtype":"float32","quantization":{"dtype":"float16","original_dtype":"float32"}},{"name":"concat_8/axis","shape":[],"dtype":"int32"},{"name":"multiply_by_constant_5/y","shape":[1,4,4],"dtype":"float32","quantization":{"dtype":"float16","original_dtype":"float32"}},{"name":"strided_slice_66/stack","shape":[3],"dtype":"int32"},{"name":"strided_slice_66/stack_1","shape":[3],"dtype":"int32"},{"name":"strided_slice_66/stack_2","shape":[3],"dtype":"int32"},{"name":"Reshape_12/shape","shape":[3],"dtype":"int32"},{"name":"output_right_iris/shape","shape":[4],"dtype":"int32"}]
      }
  ]
}