{
  "format": "graph-model",
  "generatedBy": "https://github.com/google/mediapipe",
  "convertedBy": "https://github.com/vladmandic",
  "userDefinedMetadata":
  {
    "signature":
    {
      "inputs":
      {
        "input_1:0":{"name":"input_1:0","dtype":"DT_FLOAT","tensorShape":{"dim":[{"size":"1"},{"size":"256"},{"size":"256"},{"size":"3"}]}}
      },
      "outputs":
      {
        "Identity_1:0":{"name":"Identity_1:0","dtype":"DT_FLOAT","tensorShape":{"dim":[{"size":"1"},{"size":"1"}]}},
        "Identity:0":{"name":"Identity:0","dtype":"DT_FLOAT","tensorShape":{"dim":[{"size":"1"},{"size":"63"}]}}
      }
    }
  },
  "modelTopology":
  {
      "node":
      [
          {"name":"input_1","op":"Placeholder","attr":{"dtype":{"type":"DT_FLOAT"},"shape":{"shape":{"dim":[{"size":"1"},{"size":"256"},{"size":"256"},{"size":"3"}]}}}},
          {"name":"StatefulPartitionedCall/model/conv2d/Conv2D_weights","op":"Const","attr":{"value":{"tensor":{"dtype":"DT_FLOAT","tensorShape":{"dim":[{"size":"3"},{"size":"3"},{"size":"3"},{"size":"32"}]}}},"dtype":{"type":"DT_FLOAT"}}},
          {"name":"StatefulPartitionedCall/model/conv2d_40/Conv2D_bn_offset","op":"Const","attr":{"value":{"tensor":{"dtype":"DT_FLOAT","tensorShape":{"dim":[{"size":"192"}]}}},"dtype":{"type":"DT_FLOAT"}}},
          {"name":"StatefulPartitionedCall/model/conv2d/Conv2D_bn_offset","op":"Const","attr":{"dtype":{"type":"DT_FLOAT"},"value":{"tensor":{"dtype":"DT_FLOAT","tensorShape":{"dim":[{"size":"32"}]}}}}},
          {"name":"StatefulPartitionedCall/model/conv2d_1/Conv2D_weights","op":"Const","attr":{"dtype":{"type":"DT_FLOAT"},"value":{"tensor":{"dtype":"DT_FLOAT","tensorShape":{"dim":[{"size":"1"},{"size":"1"},{"size":"32"},{"size":"32"}]}}}}},
          {"name":"StatefulPartitionedCall/model/conv2d_1/Conv2D_bn_offset","op":"Const","attr":{"value":{"tensor":{"dtype":"DT_FLOAT","tensorShape":{"dim":[{"size":"32"}]}}},"dtype":{"type":"DT_FLOAT"}}},
          {"name":"StatefulPartitionedCall/model/conv2d_2/Conv2D_weights","op":"Const","attr":{"value":{"tensor":{"dtype":"DT_FLOAT","tensorShape":{"dim":[{"size":"1"},{"size":"1"},{"size":"32"},{"size":"32"}]}}},"dtype":{"type":"DT_FLOAT"}}},
          {"name":"StatefulPartitionedCall/model/conv2d_2/Conv2D_bn_offset","op":"Const","attr":{"value":{"tensor":{"dtype":"DT_FLOAT","tensorShape":{"dim":[{"size":"32"}]}}},"dtype":{"type":"DT_FLOAT"}}},
          {"name":"StatefulPartitionedCall/model/conv2d_3/Conv2D_weights","op":"Const","attr":{"value":{"tensor":{"dtype":"DT_FLOAT","tensorShape":{"dim":[{"size":"1"},{"size":"1"},{"size":"32"},{"size":"32"}]}}},"dtype":{"type":"DT_FLOAT"}}},
          {"name":"StatefulPartitionedCall/model/conv2d_3/Conv2D_bn_offset","op":"Const","attr":{"value":{"tensor":{"dtype":"DT_FLOAT","tensorShape":{"dim":[{"size":"32"}]}}},"dtype":{"type":"DT_FLOAT"}}},
          {"name":"StatefulPartitionedCall/model/conv2d_4/Conv2D_weights","op":"Const","attr":{"value":{"tensor":{"dtype":"DT_FLOAT","tensorShape":{"dim":[{"size":"1"},{"size":"1"},{"size":"32"},{"size":"32"}]}}},"dtype":{"type":"DT_FLOAT"}}},
          {"name":"StatefulPartitionedCall/model/conv2d_4/Conv2D_bn_offset","op":"Const","attr":{"dtype":{"type":"DT_FLOAT"},"value":{"tensor":{"dtype":"DT_FLOAT","tensorShape":{"dim":[{"size":"32"}]}}}}},
          {"name":"StatefulPartitionedCall/model/conv2d_5/Conv2D_weights","op":"Const","attr":{"value":{"tensor":{"dtype":"DT_FLOAT","tensorShape":{"dim":[{"size":"1"},{"size":"1"},{"size":"32"},{"size":"64"}]}}},"dtype":{"type":"DT_FLOAT"}}},
          {"name":"StatefulPartitionedCall/model/conv2d_41/Conv2D_weights","op":"Const","attr":{"value":{"tensor":{"dtype":"DT_FLOAT","tensorShape":{"dim":[{"size":"1"},{"size":"1"},{"size":"192"},{"size":"192"}]}}},"dtype":{"type":"DT_FLOAT"}}},
          {"name":"StatefulPartitionedCall/model/conv2d_5/Conv2D_bn_offset","op":"Const","attr":{"value":{"tensor":{"dtype":"DT_FLOAT","tensorShape":{"dim":[{"size":"64"}]}}},"dtype":{"type":"DT_FLOAT"}}},
          {"name":"StatefulPartitionedCall/model/conv2d_6/Conv2D_weights","op":"Const","attr":{"value":{"tensor":{"dtype":"DT_FLOAT","tensorShape":{"dim":[{"size":"1"},{"size":"1"},{"size":"64"},{"size":"64"}]}}},"dtype":{"type":"DT_FLOAT"}}},
          {"name":"StatefulPartitionedCall/model/conv2d_6/Conv2D_bn_offset","op":"Const","attr":{"value":{"tensor":{"dtype":"DT_FLOAT","tensorShape":{"dim":[{"size":"64"}]}}},"dtype":{"type":"DT_FLOAT"}}},
          {"name":"StatefulPartitionedCall/model/conv2d_7/Conv2D_weights","op":"Const","attr":{"value":{"tensor":{"dtype":"DT_FLOAT","tensorShape":{"dim":[{"size":"1"},{"size":"1"},{"size":"64"},{"size":"64"}]}}},"dtype":{"type":"DT_FLOAT"}}},
          {"name":"StatefulPartitionedCall/model/conv2d_41/Conv2D_bn_offset","op":"Const","attr":{"value":{"tensor":{"dtype":"DT_FLOAT","tensorShape":{"dim":[{"size":"192"}]}}},"dtype":{"type":"DT_FLOAT"}}},
          {"name":"StatefulPartitionedCall/model/conv2d_7/Conv2D_bn_offset","op":"Const","attr":{"value":{"tensor":{"dtype":"DT_FLOAT","tensorShape":{"dim":[{"size":"64"}]}}},"dtype":{"type":"DT_FLOAT"}}},
          {"name":"StatefulPartitionedCall/model/conv2d_8/Conv2D_weights","op":"Const","attr":{"value":{"tensor":{"dtype":"DT_FLOAT","tensorShape":{"dim":[{"size":"1"},{"size":"1"},{"size":"64"},{"size":"64"}]}}},"dtype":{"type":"DT_FLOAT"}}},
          {"name":"StatefulPartitionedCall/model/conv2d_8/Conv2D_bn_offset","op":"Const","attr":{"value":{"tensor":{"dtype":"DT_FLOAT","tensorShape":{"dim":[{"size":"64"}]}}},"dtype":{"type":"DT_FLOAT"}}},
          {"name":"StatefulPartitionedCall/model/conv2d_9/Conv2D_weights","op":"Const","attr":{"value":{"tensor":{"dtype":"DT_FLOAT","tensorShape":{"dim":[{"size":"1"},{"size":"1"},{"size":"64"},{"size":"64"}]}}},"dtype":{"type":"DT_FLOAT"}}},
          {"name":"StatefulPartitionedCall/model/conv2d_9/Conv2D_bn_offset","op":"Const","attr":{"value":{"tensor":{"dtype":"DT_FLOAT","tensorShape":{"dim":[{"size":"64"}]}}},"dtype":{"type":"DT_FLOAT"}}},
          {"name":"StatefulPartitionedCall/model/conv2d_10/Conv2D_weights","op":"Const","attr":{"value":{"tensor":{"dtype":"DT_FLOAT","tensorShape":{"dim":[{"size":"1"},{"size":"1"},{"size":"64"},{"size":"64"}]}}},"dtype":{"type":"DT_FLOAT"}}},
          {"name":"StatefulPartitionedCall/model/conv2d_10/Conv2D_bn_offset","op":"Const","attr":{"value":{"tensor":{"dtype":"DT_FLOAT","tensorShape":{"dim":[{"size":"64"}]}}},"dtype":{"type":"DT_FLOAT"}}},
          {"name":"StatefulPartitionedCall/model/conv2d_11/Conv2D_weights","op":"Const","attr":{"value":{"tensor":{"dtype":"DT_FLOAT","tensorShape":{"dim":[{"size":"1"},{"size":"1"},{"size":"64"},{"size":"128"}]}}},"dtype":{"type":"DT_FLOAT"}}},
          {"name":"StatefulPartitionedCall/model/conv2d_11/Conv2D_bn_offset","op":"Const","attr":{"value":{"tensor":{"dtype":"DT_FLOAT","tensorShape":{"dim":[{"size":"128"}]}}},"dtype":{"type":"DT_FLOAT"}}},
          {"name":"StatefulPartitionedCall/model/conv2d_12/Conv2D_weights","op":"Const","attr":{"dtype":{"type":"DT_FLOAT"},"value":{"tensor":{"dtype":"DT_FLOAT","tensorShape":{"dim":[{"size":"1"},{"size":"1"},{"size":"128"},{"size":"128"}]}}}}},
          {"name":"StatefulPartitionedCall/model/conv2d_42/Conv2D_weights","op":"Const","attr":{"value":{"tensor":{"dtype":"DT_FLOAT","tensorShape":{"dim":[{"size":"1"},{"size":"1"},{"size":"192"},{"size":"192"}]}}},"dtype":{"type":"DT_FLOAT"}}},
          {"name":"StatefulPartitionedCall/model/conv2d_12/Conv2D_bn_offset","op":"Const","attr":{"value":{"tensor":{"dtype":"DT_FLOAT","tensorShape":{"dim":[{"size":"128"}]}}},"dtype":{"type":"DT_FLOAT"}}},
          {"name":"StatefulPartitionedCall/model/conv2d_13/Conv2D_weights","op":"Const","attr":{"dtype":{"type":"DT_FLOAT"},"value":{"tensor":{"dtype":"DT_FLOAT","tensorShape":{"dim":[{"size":"1"},{"size":"1"},{"size":"128"},{"size":"128"}]}}}}},
          {"name":"StatefulPartitionedCall/model/conv2d_13/Conv2D_bn_offset","op":"Const","attr":{"value":{"tensor":{"dtype":"DT_FLOAT","tensorShape":{"dim":[{"size":"128"}]}}},"dtype":{"type":"DT_FLOAT"}}},
          {"name":"StatefulPartitionedCall/model/conv2d_14/Conv2D_weights","op":"Const","attr":{"dtype":{"type":"DT_FLOAT"},"value":{"tensor":{"dtype":"DT_FLOAT","tensorShape":{"dim":[{"size":"1"},{"size":"1"},{"size":"128"},{"size":"128"}]}}}}},
          {"name":"StatefulPartitionedCall/model/conv2d_42/Conv2D_bn_offset","op":"Const","attr":{"value":{"tensor":{"dtype":"DT_FLOAT","tensorShape":{"dim":[{"size":"192"}]}}},"dtype":{"type":"DT_FLOAT"}}},
          {"name":"StatefulPartitionedCall/model/conv2d_14/Conv2D_bn_offset","op":"Const","attr":{"value":{"tensor":{"dtype":"DT_FLOAT","tensorShape":{"dim":[{"size":"128"}]}}},"dtype":{"type":"DT_FLOAT"}}},
          {"name":"StatefulPartitionedCall/model/conv2d_15/Conv2D_weights","op":"Const","attr":{"value":{"tensor":{"dtype":"DT_FLOAT","tensorShape":{"dim":[{"size":"1"},{"size":"1"},{"size":"128"},{"size":"128"}]}}},"dtype":{"type":"DT_FLOAT"}}},
          {"name":"StatefulPartitionedCall/model/conv2d_15/Conv2D_bn_offset","op":"Const","attr":{"value":{"tensor":{"dtype":"DT_FLOAT","tensorShape":{"dim":[{"size":"128"}]}}},"dtype":{"type":"DT_FLOAT"}}},
          {"name":"StatefulPartitionedCall/model/conv2d_16/Conv2D_weights","op":"Const","attr":{"dtype":{"type":"DT_FLOAT"},"value":{"tensor":{"dtype":"DT_FLOAT","tensorShape":{"dim":[{"size":"1"},{"size":"1"},{"size":"128"},{"size":"128"}]}}}}},
          {"name":"StatefulPartitionedCall/model/conv2d_16/Conv2D_bn_offset","op":"Const","attr":{"dtype":{"type":"DT_FLOAT"},"value":{"tensor":{"dtype":"DT_FLOAT","tensorShape":{"dim":[{"size":"128"}]}}}}},
          {"name":"StatefulPartitionedCall/model/conv2d_17/Conv2D_weights","op":"Const","attr":{"value":{"tensor":{"dtype":"DT_FLOAT","tensorShape":{"dim":[{"size":"1"},{"size":"1"},{"size":"128"},{"size":"128"}]}}},"dtype":{"type":"DT_FLOAT"}}},
          {"name":"StatefulPartitionedCall/model/conv2d_17/Conv2D_bn_offset","op":"Const","attr":{"value":{"tensor":{"dtype":"DT_FLOAT","tensorShape":{"dim":[{"size":"128"}]}}},"dtype":{"type":"DT_FLOAT"}}},
          {"name":"StatefulPartitionedCall/model/conv2d_18/Conv2D_weights","op":"Const","attr":{"value":{"tensor":{"dtype":"DT_FLOAT","tensorShape":{"dim":[{"size":"1"},{"size":"1"},{"size":"128"},{"size":"192"}]}}},"dtype":{"type":"DT_FLOAT"}}},
          {"name":"StatefulPartitionedCall/model/conv2d_18/Conv2D_bn_offset","op":"Const","attr":{"value":{"tensor":{"dtype":"DT_FLOAT","tensorShape":{"dim":[{"size":"192"}]}}},"dtype":{"type":"DT_FLOAT"}}},
          {"name":"StatefulPartitionedCall/model/conv2d_19/Conv2D_weights","op":"Const","attr":{"value":{"tensor":{"dtype":"DT_FLOAT","tensorShape":{"dim":[{"size":"1"},{"size":"1"},{"size":"192"},{"size":"192"}]}}},"dtype":{"type":"DT_FLOAT"}}},
          {"name":"StatefulPartitionedCall/model/conv2d_43/Conv2D_weights","op":"Const","attr":{"dtype":{"type":"DT_FLOAT"},"value":{"tensor":{"dtype":"DT_FLOAT","tensorShape":{"dim":[{"size":"1"},{"size":"1"},{"size":"192"},{"size":"192"}]}}}}},
          {"name":"StatefulPartitionedCall/model/conv2d_19/Conv2D_bn_offset","op":"Const","attr":{"value":{"tensor":{"dtype":"DT_FLOAT","tensorShape":{"dim":[{"size":"192"}]}}},"dtype":{"type":"DT_FLOAT"}}},
          {"name":"StatefulPartitionedCall/model/conv2d_20/Conv2D_weights","op":"Const","attr":{"value":{"tensor":{"dtype":"DT_FLOAT","tensorShape":{"dim":[{"size":"1"},{"size":"1"},{"size":"192"},{"size":"192"}]}}},"dtype":{"type":"DT_FLOAT"}}},
          {"name":"StatefulPartitionedCall/model/conv2d_20/Conv2D_bn_offset","op":"Const","attr":{"dtype":{"type":"DT_FLOAT"},"value":{"tensor":{"dtype":"DT_FLOAT","tensorShape":{"dim":[{"size":"192"}]}}}}},
          {"name":"StatefulPartitionedCall/model/conv2d_21/Conv2D_weights","op":"Const","attr":{"value":{"tensor":{"dtype":"DT_FLOAT","tensorShape":{"dim":[{"size":"1"},{"size":"1"},{"size":"192"},{"size":"192"}]}}},"dtype":{"type":"DT_FLOAT"}}},
          {"name":"StatefulPartitionedCall/model/conv2d_43/Conv2D_bn_offset","op":"Const","attr":{"value":{"tensor":{"dtype":"DT_FLOAT","tensorShape":{"dim":[{"size":"192"}]}}},"dtype":{"type":"DT_FLOAT"}}},
          {"name":"StatefulPartitionedCall/model/conv2d_21/Conv2D_bn_offset","op":"Const","attr":{"dtype":{"type":"DT_FLOAT"},"value":{"tensor":{"dtype":"DT_FLOAT","tensorShape":{"dim":[{"size":"192"}]}}}}},
          {"name":"StatefulPartitionedCall/model/conv2d_22/Conv2D_weights","op":"Const","attr":{"value":{"tensor":{"dtype":"DT_FLOAT","tensorShape":{"dim":[{"size":"1"},{"size":"1"},{"size":"192"},{"size":"192"}]}}},"dtype":{"type":"DT_FLOAT"}}},
          {"name":"StatefulPartitionedCall/model/conv2d_22/Conv2D_bn_offset","op":"Const","attr":{"value":{"tensor":{"dtype":"DT_FLOAT","tensorShape":{"dim":[{"size":"192"}]}}},"dtype":{"type":"DT_FLOAT"}}},
          {"name":"StatefulPartitionedCall/model/conv2d_23/Conv2D_weights","op":"Const","attr":{"dtype":{"type":"DT_FLOAT"},"value":{"tensor":{"dtype":"DT_FLOAT","tensorShape":{"dim":[{"size":"1"},{"size":"1"},{"size":"192"},{"size":"192"}]}}}}},
          {"name":"StatefulPartitionedCall/model/conv2d_23/Conv2D_bn_offset","op":"Const","attr":{"value":{"tensor":{"dtype":"DT_FLOAT","tensorShape":{"dim":[{"size":"192"}]}}},"dtype":{"type":"DT_FLOAT"}}},
          {"name":"StatefulPartitionedCall/model/conv2d_24/Conv2D_weights","op":"Const","attr":{"value":{"tensor":{"dtype":"DT_FLOAT","tensorShape":{"dim":[{"size":"1"},{"size":"1"},{"size":"192"},{"size":"192"}]}}},"dtype":{"type":"DT_FLOAT"}}},
          {"name":"StatefulPartitionedCall/model/conv2d_24/Conv2D_bn_offset","op":"Const","attr":{"value":{"tensor":{"dtype":"DT_FLOAT","tensorShape":{"dim":[{"size":"192"}]}}},"dtype":{"type":"DT_FLOAT"}}},
          {"name":"StatefulPartitionedCall/model/conv2d_25/Conv2D_weights","op":"Const","attr":{"value":{"tensor":{"dtype":"DT_FLOAT","tensorShape":{"dim":[{"size":"1"},{"size":"1"},{"size":"192"},{"size":"192"}]}}},"dtype":{"type":"DT_FLOAT"}}},
          {"name":"StatefulPartitionedCall/model/conv2d_25/Conv2D_bn_offset","op":"Const","attr":{"value":{"tensor":{"dtype":"DT_FLOAT","tensorShape":{"dim":[{"size":"192"}]}}},"dtype":{"type":"DT_FLOAT"}}},
          {"name":"StatefulPartitionedCall/model/conv2d_26/Conv2D_weights","op":"Const","attr":{"value":{"tensor":{"dtype":"DT_FLOAT","tensorShape":{"dim":[{"size":"1"},{"size":"1"},{"size":"192"},{"size":"192"}]}}},"dtype":{"type":"DT_FLOAT"}}},
          {"name":"StatefulPartitionedCall/model/conv2d_44/Conv2D_weights","op":"Const","attr":{"value":{"tensor":{"dtype":"DT_FLOAT","tensorShape":{"dim":[{"size":"1"},{"size":"1"},{"size":"192"},{"size":"192"}]}}},"dtype":{"type":"DT_FLOAT"}}},
          {"name":"StatefulPartitionedCall/model/conv2d_26/Conv2D_bn_offset","op":"Const","attr":{"value":{"tensor":{"dtype":"DT_FLOAT","tensorShape":{"dim":[{"size":"192"}]}}},"dtype":{"type":"DT_FLOAT"}}},
          {"name":"StatefulPartitionedCall/model/conv2d_27/Conv2D_weights","op":"Const","attr":{"value":{"tensor":{"dtype":"DT_FLOAT","tensorShape":{"dim":[{"size":"1"},{"size":"1"},{"size":"192"},{"size":"192"}]}}},"dtype":{"type":"DT_FLOAT"}}},
          {"name":"StatefulPartitionedCall/model/conv2d_27/Conv2D_bn_offset","op":"Const","attr":{"dtype":{"type":"DT_FLOAT"},"value":{"tensor":{"dtype":"DT_FLOAT","tensorShape":{"dim":[{"size":"192"}]}}}}},
          {"name":"StatefulPartitionedCall/model/conv2d_28/Conv2D_weights","op":"Const","attr":{"value":{"tensor":{"dtype":"DT_FLOAT","tensorShape":{"dim":[{"size":"1"},{"size":"1"},{"size":"192"},{"size":"192"}]}}},"dtype":{"type":"DT_FLOAT"}}},
          {"name":"StatefulPartitionedCall/model/conv2d_44/Conv2D_bn_offset","op":"Const","attr":{"value":{"tensor":{"dtype":"DT_FLOAT","tensorShape":{"dim":[{"size":"192"}]}}},"dtype":{"type":"DT_FLOAT"}}},
          {"name":"StatefulPartitionedCall/model/conv2d_28/Conv2D_bn_offset","op":"Const","attr":{"dtype":{"type":"DT_FLOAT"},"value":{"tensor":{"dtype":"DT_FLOAT","tensorShape":{"dim":[{"size":"192"}]}}}}},
          {"name":"StatefulPartitionedCall/model/conv2d_29/Conv2D_weights","op":"Const","attr":{"value":{"tensor":{"dtype":"DT_FLOAT","tensorShape":{"dim":[{"size":"1"},{"size":"1"},{"size":"192"},{"size":"192"}]}}},"dtype":{"type":"DT_FLOAT"}}},
          {"name":"StatefulPartitionedCall/model/conv2d_29/Conv2D_bn_offset","op":"Const","attr":{"value":{"tensor":{"dtype":"DT_FLOAT","tensorShape":{"dim":[{"size":"192"}]}}},"dtype":{"type":"DT_FLOAT"}}},
          {"name":"StatefulPartitionedCall/model/conv2d_30/Conv2D_weights","op":"Const","attr":{"value":{"tensor":{"dtype":"DT_FLOAT","tensorShape":{"dim":[{"size":"1"},{"size":"1"},{"size":"192"},{"size":"192"}]}}},"dtype":{"type":"DT_FLOAT"}}},
          {"name":"StatefulPartitionedCall/model/conv2d_30/Conv2D_bn_offset","op":"Const","attr":{"value":{"tensor":{"dtype":"DT_FLOAT","tensorShape":{"dim":[{"size":"192"}]}}},"dtype":{"type":"DT_FLOAT"}}},
          {"name":"StatefulPartitionedCall/model/conv2d_31/Conv2D_weights","op":"Const","attr":{"dtype":{"type":"DT_FLOAT"},"value":{"tensor":{"dtype":"DT_FLOAT","tensorShape":{"dim":[{"size":"1"},{"size":"1"},{"size":"192"},{"size":"192"}]}}}}},
          {"name":"StatefulPartitionedCall/model/conv2d_31/Conv2D_bn_offset","op":"Const","attr":{"value":{"tensor":{"dtype":"DT_FLOAT","tensorShape":{"dim":[{"size":"192"}]}}},"dtype":{"type":"DT_FLOAT"}}},
          {"name":"StatefulPartitionedCall/model/conv2d_32/Conv2D_weights","op":"Const","attr":{"dtype":{"type":"DT_FLOAT"},"value":{"tensor":{"dtype":"DT_FLOAT","tensorShape":{"dim":[{"size":"1"},{"size":"1"},{"size":"192"},{"size":"192"}]}}}}},
          {"name":"StatefulPartitionedCall/model/conv2d_32/Conv2D_bn_offset","op":"Const","attr":{"value":{"tensor":{"dtype":"DT_FLOAT","tensorShape":{"dim":[{"size":"192"}]}}},"dtype":{"type":"DT_FLOAT"}}},
          {"name":"StatefulPartitionedCall/model/conv2d_33/Conv2D_weights","op":"Const","attr":{"value":{"tensor":{"dtype":"DT_FLOAT","tensorShape":{"dim":[{"size":"1"},{"size":"1"},{"size":"192"},{"size":"192"}]}}},"dtype":{"type":"DT_FLOAT"}}},
          {"name":"StatefulPartitionedCall/model/conv2d_45/Conv2D_weights","op":"Const","attr":{"dtype":{"type":"DT_FLOAT"},"value":{"tensor":{"dtype":"DT_FLOAT","tensorShape":{"dim":[{"size":"1"},{"size":"1"},{"size":"192"},{"size":"192"}]}}}}},
          {"name":"StatefulPartitionedCall/model/conv2d_33/Conv2D_bn_offset","op":"Const","attr":{"dtype":{"type":"DT_FLOAT"},"value":{"tensor":{"dtype":"DT_FLOAT","tensorShape":{"dim":[{"size":"192"}]}}}}},
          {"name":"StatefulPartitionedCall/model/conv2d_34/Conv2D_weights","op":"Const","attr":{"value":{"tensor":{"dtype":"DT_FLOAT","tensorShape":{"dim":[{"size":"1"},{"size":"1"},{"size":"192"},{"size":"192"}]}}},"dtype":{"type":"DT_FLOAT"}}},
          {"name":"StatefulPartitionedCall/model/conv2d_34/Conv2D_bn_offset","op":"Const","attr":{"value":{"tensor":{"dtype":"DT_FLOAT","tensorShape":{"dim":[{"size":"192"}]}}},"dtype":{"type":"DT_FLOAT"}}},
          {"name":"StatefulPartitionedCall/model/conv2d_35/Conv2D_weights","op":"Const","attr":{"dtype":{"type":"DT_FLOAT"},"value":{"tensor":{"dtype":"DT_FLOAT","tensorShape":{"dim":[{"size":"1"},{"size":"1"},{"size":"192"},{"size":"192"}]}}}}},
          {"name":"StatefulPartitionedCall/model/conv2d_45/Conv2D_bn_offset","op":"Const","attr":{"dtype":{"type":"DT_FLOAT"},"value":{"tensor":{"dtype":"DT_FLOAT","tensorShape":{"dim":[{"size":"192"}]}}}}},
          {"name":"StatefulPartitionedCall/model/conv2d_35/Conv2D_bn_offset","op":"Const","attr":{"value":{"tensor":{"dtype":"DT_FLOAT","tensorShape":{"dim":[{"size":"192"}]}}},"dtype":{"type":"DT_FLOAT"}}},
          {"name":"StatefulPartitionedCall/model/conv2d_36/Conv2D_weights","op":"Const","attr":{"value":{"tensor":{"dtype":"DT_FLOAT","tensorShape":{"dim":[{"size":"1"},{"size":"1"},{"size":"192"},{"size":"192"}]}}},"dtype":{"type":"DT_FLOAT"}}},
          {"name":"StatefulPartitionedCall/model/conv2d_36/Conv2D_bn_offset","op":"Const","attr":{"value":{"tensor":{"dtype":"DT_FLOAT","tensorShape":{"dim":[{"size":"192"}]}}},"dtype":{"type":"DT_FLOAT"}}},
          {"name":"StatefulPartitionedCall/model/conv2d_37/Conv2D_weights","op":"Const","attr":{"value":{"tensor":{"dtype":"DT_FLOAT","tensorShape":{"dim":[{"size":"1"},{"size":"1"},{"size":"192"},{"size":"192"}]}}},"dtype":{"type":"DT_FLOAT"}}},
          {"name":"StatefulPartitionedCall/model/conv2d_37/Conv2D_bn_offset","op":"Const","attr":{"dtype":{"type":"DT_FLOAT"},"value":{"tensor":{"dtype":"DT_FLOAT","tensorShape":{"dim":[{"size":"192"}]}}}}},
          {"name":"StatefulPartitionedCall/model/conv2d_38/Conv2D_weights","op":"Const","attr":{"dtype":{"type":"DT_FLOAT"},"value":{"tensor":{"dtype":"DT_FLOAT","tensorShape":{"dim":[{"size":"1"},{"size":"1"},{"size":"192"},{"size":"192"}]}}}}},
          {"name":"StatefulPartitionedCall/model/conv2d_38/Conv2D_bn_offset","op":"Const","attr":{"value":{"tensor":{"dtype":"DT_FLOAT","tensorShape":{"dim":[{"size":"192"}]}}},"dtype":{"type":"DT_FLOAT"}}},
          {"name":"StatefulPartitionedCall/model/conv2d_39/Conv2D_weights","op":"Const","attr":{"value":{"tensor":{"dtype":"DT_FLOAT","tensorShape":{"dim":[{"size":"1"},{"size":"1"},{"size":"192"},{"size":"192"}]}}},"dtype":{"type":"DT_FLOAT"}}},
          {"name":"StatefulPartitionedCall/model/conv2d_39/Conv2D_bn_offset","op":"Const","attr":{"value":{"tensor":{"dtype":"DT_FLOAT","tensorShape":{"dim":[{"size":"192"}]}}},"dtype":{"type":"DT_FLOAT"}}},
          {"name":"StatefulPartitionedCall/model/conv2d_40/Conv2D_weights","op":"Const","attr":{"value":{"tensor":{"dtype":"DT_FLOAT","tensorShape":{"dim":[{"size":"1"},{"size":"1"},{"size":"192"},{"size":"192"}]}}},"dtype":{"type":"DT_FLOAT"}}},
          {"name":"StatefulPartitionedCall/model/depthwise_conv2d_41/depthwise/ReadVariableOp","op":"Const","input":["^input_1"],"attr":{"value":{"tensor":{"dtype":"DT_FLOAT","tensorShape":{"dim":[{"size":"5"},{"size":"5"},{"size":"192"},{"size":"1"}]}}},"dtype":{"type":"DT_FLOAT"}}},
          {"name":"StatefulPartitionedCall/model/depthwise_conv2d_42/depthwise/ReadVariableOp","op":"Const","input":["^input_1"],"attr":{"value":{"tensor":{"dtype":"DT_FLOAT","tensorShape":{"dim":[{"size":"5"},{"size":"5"},{"size":"192"},{"size":"1"}]}}},"dtype":{"type":"DT_FLOAT"}}},
          {"name":"StatefulPartitionedCall/model/depthwise_conv2d_43/depthwise/ReadVariableOp","op":"Const","input":["^input_1"],"attr":{"dtype":{"type":"DT_FLOAT"},"value":{"tensor":{"dtype":"DT_FLOAT","tensorShape":{"dim":[{"size":"5"},{"size":"5"},{"size":"192"},{"size":"1"}]}}}}},
          {"name":"StatefulPartitionedCall/model/depthwise_conv2d_44/depthwise/ReadVariableOp","op":"Const","input":["^input_1"],"attr":{"dtype":{"type":"DT_FLOAT"},"value":{"tensor":{"dtype":"DT_FLOAT","tensorShape":{"dim":[{"size":"5"},{"size":"5"},{"size":"192"},{"size":"1"}]}}}}},
          {"name":"StatefulPartitionedCall/model/convld_21_3d/Conv2D/ReadVariableOp","op":"Const","input":["^input_1"],"attr":{"value":{"tensor":{"dtype":"DT_FLOAT","tensorShape":{"dim":[{"size":"2"},{"size":"2"},{"size":"192"},{"size":"63"}]}}},"dtype":{"type":"DT_FLOAT"}}},
          {"name":"StatefulPartitionedCall/model/convld_21_3d/BiasAdd/ReadVariableOp","op":"Const","input":["^input_1"],"attr":{"dtype":{"type":"DT_FLOAT"},"value":{"tensor":{"dtype":"DT_FLOAT","tensorShape":{"dim":[{"size":"63"}]}}}}},
          {"name":"StatefulPartitionedCall/model/ld_21_3d/Reshape/shape","op":"Const","input":["^input_1"],"attr":{"value":{"tensor":{"dtype":"DT_INT32","tensorShape":{"dim":[{"size":"2"}]}}},"dtype":{"type":"DT_INT32"}}},
          {"name":"StatefulPartitionedCall/model/conv_handflag/BiasAdd/ReadVariableOp","op":"Const","input":["^input_1"],"attr":{"dtype":{"type":"DT_FLOAT"},"value":{"tensor":{"dtype":"DT_FLOAT","tensorShape":{"dim":[{"size":"1"}]}}}}},
          {"name":"StatefulPartitionedCall/model/conv_handflag/Conv2D/ReadVariableOp","op":"Const","input":["^input_1"],"attr":{"value":{"tensor":{"dtype":"DT_FLOAT","tensorShape":{"dim":[{"size":"2"},{"size":"2"},{"size":"192"},{"size":"1"}]}}},"dtype":{"type":"DT_FLOAT"}}},
          {"name":"StatefulPartitionedCall/model/p_re_lu/Neg","op":"Const","input":["^input_1"],"attr":{"value":{"tensor":{"dtype":"DT_FLOAT","tensorShape":{"dim":[{"size":"1"},{"size":"1"},{"size":"32"}]}}},"dtype":{"type":"DT_FLOAT"}}},
          {"name":"StatefulPartitionedCall/model/depthwise_conv2d/depthwise/ReadVariableOp","op":"Const","input":["^input_1"],"attr":{"value":{"tensor":{"dtype":"DT_FLOAT","tensorShape":{"dim":[{"size":"5"},{"size":"5"},{"size":"32"},{"size":"1"}]}}},"dtype":{"type":"DT_FLOAT"}}},
          {"name":"StatefulPartitionedCall/model/depthwise_conv2d_1/depthwise/ReadVariableOp","op":"Const","input":["^input_1"],"attr":{"value":{"tensor":{"dtype":"DT_FLOAT","tensorShape":{"dim":[{"size":"5"},{"size":"5"},{"size":"32"},{"size":"1"}]}}},"dtype":{"type":"DT_FLOAT"}}},
          {"name":"StatefulPartitionedCall/model/depthwise_conv2d_2/depthwise/ReadVariableOp","op":"Const","input":["^input_1"],"attr":{"dtype":{"type":"DT_FLOAT"},"value":{"tensor":{"dtype":"DT_FLOAT","tensorShape":{"dim":[{"size":"5"},{"size":"5"},{"size":"32"},{"size":"1"}]}}}}},
          {"name":"StatefulPartitionedCall/model/depthwise_conv2d_3/depthwise/ReadVariableOp","op":"Const","input":["^input_1"],"attr":{"value":{"tensor":{"dtype":"DT_FLOAT","tensorShape":{"dim":[{"size":"5"},{"size":"5"},{"size":"32"},{"size":"1"}]}}},"dtype":{"type":"DT_FLOAT"}}},
          {"name":"StatefulPartitionedCall/model/channel_padding/Pad/paddings","op":"Const","input":["^input_1"],"attr":{"value":{"tensor":{"dtype":"DT_INT32","tensorShape":{"dim":[{"size":"4"},{"size":"2"}]}}},"dtype":{"type":"DT_INT32"}}},
          {"name":"StatefulPartitionedCall/model/depthwise_conv2d_4/depthwise/ReadVariableOp","op":"Const","input":["^input_1"],"attr":{"value":{"tensor":{"dtype":"DT_FLOAT","tensorShape":{"dim":[{"size":"5"},{"size":"5"},{"size":"32"},{"size":"1"}]}}},"dtype":{"type":"DT_FLOAT"}}},
          {"name":"StatefulPartitionedCall/model/depthwise_conv2d_5/depthwise/ReadVariableOp","op":"Const","input":["^input_1"],"attr":{"value":{"tensor":{"dtype":"DT_FLOAT","tensorShape":{"dim":[{"size":"5"},{"size":"5"},{"size":"64"},{"size":"1"}]}}},"dtype":{"type":"DT_FLOAT"}}},
          {"name":"StatefulPartitionedCall/model/depthwise_conv2d_6/depthwise/ReadVariableOp","op":"Const","input":["^input_1"],"attr":{"value":{"tensor":{"dtype":"DT_FLOAT","tensorShape":{"dim":[{"size":"5"},{"size":"5"},{"size":"64"},{"size":"1"}]}}},"dtype":{"type":"DT_FLOAT"}}},
          {"name":"StatefulPartitionedCall/model/depthwise_conv2d_7/depthwise/ReadVariableOp","op":"Const","input":["^input_1"],"attr":{"value":{"tensor":{"dtype":"DT_FLOAT","tensorShape":{"dim":[{"size":"5"},{"size":"5"},{"size":"64"},{"size":"1"}]}}},"dtype":{"type":"DT_FLOAT"}}},
          {"name":"StatefulPartitionedCall/model/depthwise_conv2d_8/depthwise/ReadVariableOp","op":"Const","input":["^input_1"],"attr":{"value":{"tensor":{"dtype":"DT_FLOAT","tensorShape":{"dim":[{"size":"5"},{"size":"5"},{"size":"64"},{"size":"1"}]}}},"dtype":{"type":"DT_FLOAT"}}},
          {"name":"StatefulPartitionedCall/model/depthwise_conv2d_9/depthwise/ReadVariableOp","op":"Const","input":["^input_1"],"attr":{"dtype":{"type":"DT_FLOAT"},"value":{"tensor":{"dtype":"DT_FLOAT","tensorShape":{"dim":[{"size":"5"},{"size":"5"},{"size":"64"},{"size":"1"}]}}}}},
          {"name":"StatefulPartitionedCall/model/channel_padding_1/Pad/paddings","op":"Const","input":["^input_1"],"attr":{"value":{"tensor":{"dtype":"DT_INT32","tensorShape":{"dim":[{"size":"4"},{"size":"2"}]}}},"dtype":{"type":"DT_INT32"}}},
          {"name":"StatefulPartitionedCall/model/depthwise_conv2d_10/depthwise/ReadVariableOp","op":"Const","input":["^input_1"],"attr":{"dtype":{"type":"DT_FLOAT"},"value":{"tensor":{"dtype":"DT_FLOAT","tensorShape":{"dim":[{"size":"5"},{"size":"5"},{"size":"64"},{"size":"1"}]}}}}},
          {"name":"StatefulPartitionedCall/model/depthwise_conv2d_11/depthwise/ReadVariableOp","op":"Const","input":["^input_1"],"attr":{"dtype":{"type":"DT_FLOAT"},"value":{"tensor":{"dtype":"DT_FLOAT","tensorShape":{"dim":[{"size":"5"},{"size":"5"},{"size":"128"},{"size":"1"}]}}}}},
          {"name":"StatefulPartitionedCall/model/depthwise_conv2d_12/depthwise/ReadVariableOp","op":"Const","input":["^input_1"],"attr":{"value":{"tensor":{"dtype":"DT_FLOAT","tensorShape":{"dim":[{"size":"5"},{"size":"5"},{"size":"128"},{"size":"1"}]}}},"dtype":{"type":"DT_FLOAT"}}},
          {"name":"StatefulPartitionedCall/model/depthwise_conv2d_13/depthwise/ReadVariableOp","op":"Const","input":["^input_1"],"attr":{"value":{"tensor":{"dtype":"DT_FLOAT","tensorShape":{"dim":[{"size":"5"},{"size":"5"},{"size":"128"},{"size":"1"}]}}},"dtype":{"type":"DT_FLOAT"}}},
          {"name":"StatefulPartitionedCall/model/depthwise_conv2d_14/depthwise/ReadVariableOp","op":"Const","input":["^input_1"],"attr":{"value":{"tensor":{"dtype":"DT_FLOAT","tensorShape":{"dim":[{"size":"5"},{"size":"5"},{"size":"128"},{"size":"1"}]}}},"dtype":{"type":"DT_FLOAT"}}},
          {"name":"StatefulPartitionedCall/model/depthwise_conv2d_15/depthwise/ReadVariableOp","op":"Const","input":["^input_1"],"attr":{"value":{"tensor":{"dtype":"DT_FLOAT","tensorShape":{"dim":[{"size":"5"},{"size":"5"},{"size":"128"},{"size":"1"}]}}},"dtype":{"type":"DT_FLOAT"}}},
          {"name":"StatefulPartitionedCall/model/depthwise_conv2d_16/depthwise/ReadVariableOp","op":"Const","input":["^input_1"],"attr":{"value":{"tensor":{"dtype":"DT_FLOAT","tensorShape":{"dim":[{"size":"5"},{"size":"5"},{"size":"128"},{"size":"1"}]}}},"dtype":{"type":"DT_FLOAT"}}},
          {"name":"StatefulPartitionedCall/model/depthwise_conv2d_17/depthwise/ReadVariableOp","op":"Const","input":["^input_1"],"attr":{"value":{"tensor":{"dtype":"DT_FLOAT","tensorShape":{"dim":[{"size":"5"},{"size":"5"},{"size":"128"},{"size":"1"}]}}},"dtype":{"type":"DT_FLOAT"}}},
          {"name":"StatefulPartitionedCall/model/depthwise_conv2d_18/depthwise/ReadVariableOp","op":"Const","input":["^input_1"],"attr":{"value":{"tensor":{"dtype":"DT_FLOAT","tensorShape":{"dim":[{"size":"5"},{"size":"5"},{"size":"192"},{"size":"1"}]}}},"dtype":{"type":"DT_FLOAT"}}},
          {"name":"StatefulPartitionedCall/model/depthwise_conv2d_19/depthwise/ReadVariableOp","op":"Const","input":["^input_1"],"attr":{"dtype":{"type":"DT_FLOAT"},"value":{"tensor":{"dtype":"DT_FLOAT","tensorShape":{"dim":[{"size":"5"},{"size":"5"},{"size":"192"},{"size":"1"}]}}}}},
          {"name":"StatefulPartitionedCall/model/depthwise_conv2d_20/depthwise/ReadVariableOp","op":"Const","input":["^input_1"],"attr":{"value":{"tensor":{"dtype":"DT_FLOAT","tensorShape":{"dim":[{"size":"5"},{"size":"5"},{"size":"192"},{"size":"1"}]}}},"dtype":{"type":"DT_FLOAT"}}},
          {"name":"StatefulPartitionedCall/model/depthwise_conv2d_21/depthwise/ReadVariableOp","op":"Const","input":["^input_1"],"attr":{"value":{"tensor":{"dtype":"DT_FLOAT","tensorShape":{"dim":[{"size":"5"},{"size":"5"},{"size":"192"},{"size":"1"}]}}},"dtype":{"type":"DT_FLOAT"}}},
          {"name":"StatefulPartitionedCall/model/depthwise_conv2d_22/depthwise/ReadVariableOp","op":"Const","input":["^input_1"],"attr":{"value":{"tensor":{"dtype":"DT_FLOAT","tensorShape":{"dim":[{"size":"5"},{"size":"5"},{"size":"192"},{"size":"1"}]}}},"dtype":{"type":"DT_FLOAT"}}},
          {"name":"StatefulPartitionedCall/model/depthwise_conv2d_23/depthwise/ReadVariableOp","op":"Const","input":["^input_1"],"attr":{"value":{"tensor":{"dtype":"DT_FLOAT","tensorShape":{"dim":[{"size":"5"},{"size":"5"},{"size":"192"},{"size":"1"}]}}},"dtype":{"type":"DT_FLOAT"}}},
          {"name":"StatefulPartitionedCall/model/depthwise_conv2d_24/depthwise/ReadVariableOp","op":"Const","input":["^input_1"],"attr":{"value":{"tensor":{"dtype":"DT_FLOAT","tensorShape":{"dim":[{"size":"5"},{"size":"5"},{"size":"192"},{"size":"1"}]}}},"dtype":{"type":"DT_FLOAT"}}},
          {"name":"StatefulPartitionedCall/model/depthwise_conv2d_25/depthwise/ReadVariableOp","op":"Const","input":["^input_1"],"attr":{"value":{"tensor":{"dtype":"DT_FLOAT","tensorShape":{"dim":[{"size":"5"},{"size":"5"},{"size":"192"},{"size":"1"}]}}},"dtype":{"type":"DT_FLOAT"}}},
          {"name":"StatefulPartitionedCall/model/depthwise_conv2d_26/depthwise/ReadVariableOp","op":"Const","input":["^input_1"],"attr":{"value":{"tensor":{"dtype":"DT_FLOAT","tensorShape":{"dim":[{"size":"5"},{"size":"5"},{"size":"192"},{"size":"1"}]}}},"dtype":{"type":"DT_FLOAT"}}},
          {"name":"StatefulPartitionedCall/model/depthwise_conv2d_27/depthwise/ReadVariableOp","op":"Const","input":["^input_1"],"attr":{"value":{"tensor":{"dtype":"DT_FLOAT","tensorShape":{"dim":[{"size":"5"},{"size":"5"},{"size":"192"},{"size":"1"}]}}},"dtype":{"type":"DT_FLOAT"}}},
          {"name":"StatefulPartitionedCall/model/depthwise_conv2d_28/depthwise/ReadVariableOp","op":"Const","input":["^input_1"],"attr":{"value":{"tensor":{"dtype":"DT_FLOAT","tensorShape":{"dim":[{"size":"5"},{"size":"5"},{"size":"192"},{"size":"1"}]}}},"dtype":{"type":"DT_FLOAT"}}},
          {"name":"StatefulPartitionedCall/model/depthwise_conv2d_29/depthwise/ReadVariableOp","op":"Const","input":["^input_1"],"attr":{"value":{"tensor":{"dtype":"DT_FLOAT","tensorShape":{"dim":[{"size":"5"},{"size":"5"},{"size":"192"},{"size":"1"}]}}},"dtype":{"type":"DT_FLOAT"}}},
          {"name":"StatefulPartitionedCall/model/depthwise_conv2d_30/depthwise/ReadVariableOp","op":"Const","input":["^input_1"],"attr":{"value":{"tensor":{"dtype":"DT_FLOAT","tensorShape":{"dim":[{"size":"5"},{"size":"5"},{"size":"192"},{"size":"1"}]}}},"dtype":{"type":"DT_FLOAT"}}},
          {"name":"StatefulPartitionedCall/model/depthwise_conv2d_31/depthwise/ReadVariableOp","op":"Const","input":["^input_1"],"attr":{"value":{"tensor":{"dtype":"DT_FLOAT","tensorShape":{"dim":[{"size":"5"},{"size":"5"},{"size":"192"},{"size":"1"}]}}},"dtype":{"type":"DT_FLOAT"}}},
          {"name":"StatefulPartitionedCall/model/depthwise_conv2d_32/depthwise/ReadVariableOp","op":"Const","input":["^input_1"],"attr":{"value":{"tensor":{"dtype":"DT_FLOAT","tensorShape":{"dim":[{"size":"5"},{"size":"5"},{"size":"192"},{"size":"1"}]}}},"dtype":{"type":"DT_FLOAT"}}},
          {"name":"StatefulPartitionedCall/model/depthwise_conv2d_33/depthwise/ReadVariableOp","op":"Const","input":["^input_1"],"attr":{"value":{"tensor":{"dtype":"DT_FLOAT","tensorShape":{"dim":[{"size":"5"},{"size":"5"},{"size":"192"},{"size":"1"}]}}},"dtype":{"type":"DT_FLOAT"}}},
          {"name":"StatefulPartitionedCall/model/depthwise_conv2d_34/depthwise/ReadVariableOp","op":"Const","input":["^input_1"],"attr":{"value":{"tensor":{"dtype":"DT_FLOAT","tensorShape":{"dim":[{"size":"5"},{"size":"5"},{"size":"192"},{"size":"1"}]}}},"dtype":{"type":"DT_FLOAT"}}},
          {"name":"StatefulPartitionedCall/model/depthwise_conv2d_35/depthwise/ReadVariableOp","op":"Const","input":["^input_1"],"attr":{"value":{"tensor":{"dtype":"DT_FLOAT","tensorShape":{"dim":[{"size":"5"},{"size":"5"},{"size":"192"},{"size":"1"}]}}},"dtype":{"type":"DT_FLOAT"}}},
          {"name":"StatefulPartitionedCall/model/depthwise_conv2d_36/depthwise/ReadVariableOp","op":"Const","input":["^input_1"],"attr":{"value":{"tensor":{"dtype":"DT_FLOAT","tensorShape":{"dim":[{"size":"5"},{"size":"5"},{"size":"192"},{"size":"1"}]}}},"dtype":{"type":"DT_FLOAT"}}},
          {"name":"StatefulPartitionedCall/model/depthwise_conv2d_37/depthwise/ReadVariableOp","op":"Const","input":["^input_1"],"attr":{"value":{"tensor":{"dtype":"DT_FLOAT","tensorShape":{"dim":[{"size":"5"},{"size":"5"},{"size":"192"},{"size":"1"}]}}},"dtype":{"type":"DT_FLOAT"}}},
          {"name":"StatefulPartitionedCall/model/depthwise_conv2d_38/depthwise/ReadVariableOp","op":"Const","input":["^input_1"],"attr":{"dtype":{"type":"DT_FLOAT"},"value":{"tensor":{"dtype":"DT_FLOAT","tensorShape":{"dim":[{"size":"5"},{"size":"5"},{"size":"192"},{"size":"1"}]}}}}},
          {"name":"StatefulPartitionedCall/model/depthwise_conv2d_39/depthwise/ReadVariableOp","op":"Const","input":["^input_1"],"attr":{"value":{"tensor":{"dtype":"DT_FLOAT","tensorShape":{"dim":[{"size":"5"},{"size":"5"},{"size":"192"},{"size":"1"}]}}},"dtype":{"type":"DT_FLOAT"}}},
          {"name":"StatefulPartitionedCall/model/depthwise_conv2d_40/depthwise/ReadVariableOp","op":"Const","input":["^input_1"],"attr":{"value":{"tensor":{"dtype":"DT_FLOAT","tensorShape":{"dim":[{"size":"5"},{"size":"5"},{"size":"192"},{"size":"1"}]}}},"dtype":{"type":"DT_FLOAT"}}},
          {"name":"StatefulPartitionedCall/model/batch_normalization/FusedBatchNormV3","op":"_FusedConv2D","input":["input_1","StatefulPartitionedCall/model/conv2d/Conv2D_weights","StatefulPartitionedCall/model/conv2d/Conv2D_bn_offset","StatefulPartitionedCall/model/p_re_lu/Neg"],"device":"/device:CPU:0","attr":{"num_args":{"i":"2"},"epsilon":{"f":0},"padding":{"s":"U0FNRQ=="},"fused_ops":{"list":{"s":["Qmlhc0FkZA==","UHJlbHU="]}},"dilations":{"list":{"i":["1","1","1","1"]}},"T":{"type":"DT_FLOAT"},"strides":{"list":{"i":["1","2","2","1"]}},"data_format":{"s":"TkhXQw=="},"use_cudnn_on_gpu":{"b":true},"explicit_paddings":{"list":{}}}},
          {"name":"Func/StatefulPartitionedCall/output_control_node/_285","op":"NoOp","input":["^StatefulPartitionedCall/model/conv_handflag/BiasAdd/ReadVariableOp","^StatefulPartitionedCall/model/conv_handflag/Conv2D/ReadVariableOp","^StatefulPartitionedCall/model/convld_21_3d/BiasAdd/ReadVariableOp","^StatefulPartitionedCall/model/convld_21_3d/Conv2D/ReadVariableOp","^StatefulPartitionedCall/model/depthwise_conv2d/depthwise/ReadVariableOp","^StatefulPartitionedCall/model/depthwise_conv2d_1/depthwise/ReadVariableOp","^StatefulPartitionedCall/model/depthwise_conv2d_10/depthwise/ReadVariableOp","^StatefulPartitionedCall/model/depthwise_conv2d_11/depthwise/ReadVariableOp","^StatefulPartitionedCall/model/depthwise_conv2d_12/depthwise/ReadVariableOp","^StatefulPartitionedCall/model/depthwise_conv2d_13/depthwise/ReadVariableOp","^StatefulPartitionedCall/model/depthwise_conv2d_14/depthwise/ReadVariableOp","^StatefulPartitionedCall/model/depthwise_conv2d_15/depthwise/ReadVariableOp","^StatefulPartitionedCall/model/depthwise_conv2d_16/depthwise/ReadVariableOp","^StatefulPartitionedCall/model/depthwise_conv2d_17/depthwise/ReadVariableOp","^StatefulPartitionedCall/model/depthwise_conv2d_18/depthwise/ReadVariableOp","^StatefulPartitionedCall/model/depthwise_conv2d_19/depthwise/ReadVariableOp","^StatefulPartitionedCall/model/depthwise_conv2d_2/depthwise/ReadVariableOp","^StatefulPartitionedCall/model/depthwise_conv2d_20/depthwise/ReadVariableOp","^StatefulPartitionedCall/model/depthwise_conv2d_21/depthwise/ReadVariableOp","^StatefulPartitionedCall/model/depthwise_conv2d_22/depthwise/ReadVariableOp","^StatefulPartitionedCall/model/depthwise_conv2d_23/depthwise/ReadVariableOp","^StatefulPartitionedCall/model/depthwise_conv2d_24/depthwise/ReadVariableOp","^StatefulPartitionedCall/model/depthwise_conv2d_25/depthwise/ReadVariableOp","^StatefulPartitionedCall/model/depthwise_conv2d_26/depthwise/ReadVariableOp","^StatefulPartitionedCall/model/depthwise_conv2d_27/depthwise/ReadVariableOp","^StatefulPartitionedCall/model/depthwise_conv2d_28/depthwise/ReadVariableOp","^StatefulPartitionedCall/model/depthwise_conv2d_29/depthwise/ReadVariableOp","^StatefulPartitionedCall/model/depthwise_conv2d_3/depthwise/ReadVariableOp","^StatefulPartitionedCall/model/depthwise_conv2d_30/depthwise/ReadVariableOp","^StatefulPartitionedCall/model/depthwise_conv2d_31/depthwise/ReadVariableOp","^StatefulPartitionedCall/model/depthwise_conv2d_32/depthwise/ReadVariableOp","^StatefulPartitionedCall/model/depthwise_conv2d_33/depthwise/ReadVariableOp","^StatefulPartitionedCall/model/depthwise_conv2d_34/depthwise/ReadVariableOp","^StatefulPartitionedCall/model/depthwise_conv2d_35/depthwise/ReadVariableOp","^StatefulPartitionedCall/model/depthwise_conv2d_36/depthwise/ReadVariableOp","^StatefulPartitionedCall/model/depthwise_conv2d_37/depthwise/ReadVariableOp","^StatefulPartitionedCall/model/depthwise_conv2d_38/depthwise/ReadVariableOp","^StatefulPartitionedCall/model/depthwise_conv2d_39/depthwise/ReadVariableOp","^StatefulPartitionedCall/model/depthwise_conv2d_4/depthwise/ReadVariableOp","^StatefulPartitionedCall/model/depthwise_conv2d_40/depthwise/ReadVariableOp","^StatefulPartitionedCall/model/depthwise_conv2d_41/depthwise/ReadVariableOp","^StatefulPartitionedCall/model/depthwise_conv2d_42/depthwise/ReadVariableOp","^StatefulPartitionedCall/model/depthwise_conv2d_43/depthwise/ReadVariableOp","^StatefulPartitionedCall/model/depthwise_conv2d_44/depthwise/ReadVariableOp","^StatefulPartitionedCall/model/depthwise_conv2d_5/depthwise/ReadVariableOp","^StatefulPartitionedCall/model/depthwise_conv2d_6/depthwise/ReadVariableOp","^StatefulPartitionedCall/model/depthwise_conv2d_7/depthwise/ReadVariableOp","^StatefulPartitionedCall/model/depthwise_conv2d_8/depthwise/ReadVariableOp","^StatefulPartitionedCall/model/depthwise_conv2d_9/depthwise/ReadVariableOp"]},
          {"name":"StatefulPartitionedCall/model/depthwise_conv2d/depthwise","op":"DepthwiseConv2dNative","input":["StatefulPartitionedCall/model/batch_normalization/FusedBatchNormV3","StatefulPartitionedCall/model/depthwise_conv2d/depthwise/ReadVariableOp"],"attr":{"padding":{"s":"U0FNRQ=="},"dilations":{"list":{"i":["1","1","1","1"]}},"T":{"type":"DT_FLOAT"},"strides":{"list":{"i":["1","1","1","1"]}},"data_format":{"s":"TkhXQw=="}}},
          {"name":"StatefulPartitionedCall/model/batch_normalization_1/FusedBatchNormV3","op":"_FusedConv2D","input":["StatefulPartitionedCall/model/depthwise_conv2d/depthwise","StatefulPartitionedCall/model/conv2d_1/Conv2D_weights","StatefulPartitionedCall/model/conv2d_1/Conv2D_bn_offset"],"device":"/device:CPU:0","attr":{"data_format":{"s":"TkhXQw=="},"strides":{"list":{"i":["1","1","1","1"]}},"use_cudnn_on_gpu":{"b":true},"explicit_paddings":{"list":{}},"num_args":{"i":"1"},"epsilon":{"f":0},"padding":{"s":"VkFMSUQ="},"fused_ops":{"list":{"s":["Qmlhc0FkZA=="]}},"dilations":{"list":{"i":["1","1","1","1"]}},"T":{"type":"DT_FLOAT"}}},
          {"name":"StatefulPartitionedCall/model/add/add","op":"AddV2","input":["StatefulPartitionedCall/model/batch_normalization_1/FusedBatchNormV3","StatefulPartitionedCall/model/batch_normalization/FusedBatchNormV3"],"attr":{"T":{"type":"DT_FLOAT"}}},
          {"name":"StatefulPartitionedCall/model/activation/Relu","op":"Relu","input":["StatefulPartitionedCall/model/add/add"],"attr":{"T":{"type":"DT_FLOAT"}}},
          {"name":"StatefulPartitionedCall/model/depthwise_conv2d_1/depthwise","op":"DepthwiseConv2dNative","input":["StatefulPartitionedCall/model/activation/Relu","StatefulPartitionedCall/model/depthwise_conv2d_1/depthwise/ReadVariableOp"],"attr":{"strides":{"list":{"i":["1","1","1","1"]}},"data_format":{"s":"TkhXQw=="},"dilations":{"list":{"i":["1","1","1","1"]}},"padding":{"s":"U0FNRQ=="},"T":{"type":"DT_FLOAT"}}},
          {"name":"StatefulPartitionedCall/model/batch_normalization_2/FusedBatchNormV3","op":"_FusedConv2D","input":["StatefulPartitionedCall/model/depthwise_conv2d_1/depthwise","StatefulPartitionedCall/model/conv2d_2/Conv2D_weights","StatefulPartitionedCall/model/conv2d_2/Conv2D_bn_offset"],"device":"/device:CPU:0","attr":{"epsilon":{"f":0},"padding":{"s":"VkFMSUQ="},"fused_ops":{"list":{"s":["Qmlhc0FkZA=="]}},"dilations":{"list":{"i":["1","1","1","1"]}},"T":{"type":"DT_FLOAT"},"data_format":{"s":"TkhXQw=="},"strides":{"list":{"i":["1","1","1","1"]}},"explicit_paddings":{"list":{}},"use_cudnn_on_gpu":{"b":true},"num_args":{"i":"1"}}},
          {"name":"StatefulPartitionedCall/model/add_1/add","op":"AddV2","input":["StatefulPartitionedCall/model/activation/Relu","StatefulPartitionedCall/model/batch_normalization_2/FusedBatchNormV3"],"attr":{"T":{"type":"DT_FLOAT"}}},
          {"name":"StatefulPartitionedCall/model/activation_1/Relu","op":"Relu","input":["StatefulPartitionedCall/model/add_1/add"],"attr":{"T":{"type":"DT_FLOAT"}}},
          {"name":"StatefulPartitionedCall/model/depthwise_conv2d_2/depthwise","op":"DepthwiseConv2dNative","input":["StatefulPartitionedCall/model/activation_1/Relu","StatefulPartitionedCall/model/depthwise_conv2d_2/depthwise/ReadVariableOp"],"attr":{"data_format":{"s":"TkhXQw=="},"strides":{"list":{"i":["1","1","1","1"]}},"dilations":{"list":{"i":["1","1","1","1"]}},"padding":{"s":"U0FNRQ=="},"T":{"type":"DT_FLOAT"}}},
          {"name":"StatefulPartitionedCall/model/batch_normalization_3/FusedBatchNormV3","op":"_FusedConv2D","input":["StatefulPartitionedCall/model/depthwise_conv2d_2/depthwise","StatefulPartitionedCall/model/conv2d_3/Conv2D_weights","StatefulPartitionedCall/model/conv2d_3/Conv2D_bn_offset"],"device":"/device:CPU:0","attr":{"T":{"type":"DT_FLOAT"},"strides":{"list":{"i":["1","1","1","1"]}},"data_format":{"s":"TkhXQw=="},"use_cudnn_on_gpu":{"b":true},"explicit_paddings":{"list":{}},"num_args":{"i":"1"},"epsilon":{"f":0},"padding":{"s":"VkFMSUQ="},"fused_ops":{"list":{"s":["Qmlhc0FkZA=="]}},"dilations":{"list":{"i":["1","1","1","1"]}}}},
          {"name":"StatefulPartitionedCall/model/add_2/add","op":"AddV2","input":["StatefulPartitionedCall/model/activation_1/Relu","StatefulPartitionedCall/model/batch_normalization_3/FusedBatchNormV3"],"attr":{"T":{"type":"DT_FLOAT"}}},
          {"name":"StatefulPartitionedCall/model/activation_2/Relu","op":"Relu","input":["StatefulPartitionedCall/model/add_2/add"],"attr":{"T":{"type":"DT_FLOAT"}}},
          {"name":"StatefulPartitionedCall/model/depthwise_conv2d_3/depthwise","op":"DepthwiseConv2dNative","input":["StatefulPartitionedCall/model/activation_2/Relu","StatefulPartitionedCall/model/depthwise_conv2d_3/depthwise/ReadVariableOp"],"attr":{"strides":{"list":{"i":["1","1","1","1"]}},"data_format":{"s":"TkhXQw=="},"dilations":{"list":{"i":["1","1","1","1"]}},"padding":{"s":"U0FNRQ=="},"T":{"type":"DT_FLOAT"}}},
          {"name":"StatefulPartitionedCall/model/batch_normalization_4/FusedBatchNormV3","op":"_FusedConv2D","input":["StatefulPartitionedCall/model/depthwise_conv2d_3/depthwise","StatefulPartitionedCall/model/conv2d_4/Conv2D_weights","StatefulPartitionedCall/model/conv2d_4/Conv2D_bn_offset"],"device":"/device:CPU:0","attr":{"dilations":{"list":{"i":["1","1","1","1"]}},"T":{"type":"DT_FLOAT"},"data_format":{"s":"TkhXQw=="},"strides":{"list":{"i":["1","1","1","1"]}},"explicit_paddings":{"list":{}},"use_cudnn_on_gpu":{"b":true},"num_args":{"i":"1"},"epsilon":{"f":0},"padding":{"s":"VkFMSUQ="},"fused_ops":{"list":{"s":["Qmlhc0FkZA=="]}}}},
          {"name":"StatefulPartitionedCall/model/add_3/add","op":"AddV2","input":["StatefulPartitionedCall/model/activation_2/Relu","StatefulPartitionedCall/model/batch_normalization_4/FusedBatchNormV3"],"attr":{"T":{"type":"DT_FLOAT"}}},
          {"name":"StatefulPartitionedCall/model/activation_3/Relu","op":"Relu","input":["StatefulPartitionedCall/model/add_3/add"],"attr":{"T":{"type":"DT_FLOAT"}}},
          {"name":"StatefulPartitionedCall/model/max_pooling2d/MaxPool","op":"MaxPool","input":["StatefulPartitionedCall/model/activation_3/Relu"],"attr":{"ksize":{"list":{"i":["1","2","2","1"]}},"padding":{"s":"VkFMSUQ="},"T":{"type":"DT_FLOAT"},"data_format":{"s":"TkhXQw=="},"strides":{"list":{"i":["1","2","2","1"]}}}},
          {"name":"StatefulPartitionedCall/model/depthwise_conv2d_4/depthwise","op":"DepthwiseConv2dNative","input":["StatefulPartitionedCall/model/activation_3/Relu","StatefulPartitionedCall/model/depthwise_conv2d_4/depthwise/ReadVariableOp"],"attr":{"data_format":{"s":"TkhXQw=="},"strides":{"list":{"i":["1","2","2","1"]}},"padding":{"s":"U0FNRQ=="},"dilations":{"list":{"i":["1","1","1","1"]}},"T":{"type":"DT_FLOAT"}}},
          {"name":"StatefulPartitionedCall/model/channel_padding/Pad","op":"Pad","input":["StatefulPartitionedCall/model/max_pooling2d/MaxPool","StatefulPartitionedCall/model/channel_padding/Pad/paddings"],"attr":{"T":{"type":"DT_FLOAT"},"Tpaddings":{"type":"DT_INT32"}}},
          {"name":"StatefulPartitionedCall/model/batch_normalization_5/FusedBatchNormV3","op":"_FusedConv2D","input":["StatefulPartitionedCall/model/depthwise_conv2d_4/depthwise","StatefulPartitionedCall/model/conv2d_5/Conv2D_weights","StatefulPartitionedCall/model/conv2d_5/Conv2D_bn_offset"],"device":"/device:CPU:0","attr":{"dilations":{"list":{"i":["1","1","1","1"]}},"T":{"type":"DT_FLOAT"},"data_format":{"s":"TkhXQw=="},"strides":{"list":{"i":["1","1","1","1"]}},"use_cudnn_on_gpu":{"b":true},"explicit_paddings":{"list":{}},"num_args":{"i":"1"},"epsilon":{"f":0},"padding":{"s":"VkFMSUQ="},"fused_ops":{"list":{"s":["Qmlhc0FkZA=="]}}}},
          {"name":"StatefulPartitionedCall/model/add_4/add","op":"AddV2","input":["StatefulPartitionedCall/model/batch_normalization_5/FusedBatchNormV3","StatefulPartitionedCall/model/channel_padding/Pad"],"attr":{"T":{"type":"DT_FLOAT"}}},
          {"name":"StatefulPartitionedCall/model/activation_4/Relu","op":"Relu","input":["StatefulPartitionedCall/model/add_4/add"],"attr":{"T":{"type":"DT_FLOAT"}}},
          {"name":"StatefulPartitionedCall/model/depthwise_conv2d_5/depthwise","op":"DepthwiseConv2dNative","input":["StatefulPartitionedCall/model/activation_4/Relu","StatefulPartitionedCall/model/depthwise_conv2d_5/depthwise/ReadVariableOp"],"attr":{"padding":{"s":"U0FNRQ=="},"dilations":{"list":{"i":["1","1","1","1"]}},"T":{"type":"DT_FLOAT"},"strides":{"list":{"i":["1","1","1","1"]}},"data_format":{"s":"TkhXQw=="}}},
          {"name":"StatefulPartitionedCall/model/batch_normalization_6/FusedBatchNormV3","op":"_FusedConv2D","input":["StatefulPartitionedCall/model/depthwise_conv2d_5/depthwise","StatefulPartitionedCall/model/conv2d_6/Conv2D_weights","StatefulPartitionedCall/model/conv2d_6/Conv2D_bn_offset"],"device":"/device:CPU:0","attr":{"dilations":{"list":{"i":["1","1","1","1"]}},"T":{"type":"DT_FLOAT"},"data_format":{"s":"TkhXQw=="},"strides":{"list":{"i":["1","1","1","1"]}},"use_cudnn_on_gpu":{"b":true},"explicit_paddings":{"list":{}},"num_args":{"i":"1"},"epsilon":{"f":0},"padding":{"s":"VkFMSUQ="},"fused_ops":{"list":{"s":["Qmlhc0FkZA=="]}}}},
          {"name":"StatefulPartitionedCall/model/add_5/add","op":"AddV2","input":["StatefulPartitionedCall/model/activation_4/Relu","StatefulPartitionedCall/model/batch_normalization_6/FusedBatchNormV3"],"attr":{"T":{"type":"DT_FLOAT"}}},
          {"name":"StatefulPartitionedCall/model/activation_5/Relu","op":"Relu","input":["StatefulPartitionedCall/model/add_5/add"],"attr":{"T":{"type":"DT_FLOAT"}}},
          {"name":"StatefulPartitionedCall/model/depthwise_conv2d_6/depthwise","op":"DepthwiseConv2dNative","input":["StatefulPartitionedCall/model/activation_5/Relu","StatefulPartitionedCall/model/depthwise_conv2d_6/depthwise/ReadVariableOp"],"attr":{"strides":{"list":{"i":["1","1","1","1"]}},"data_format":{"s":"TkhXQw=="},"padding":{"s":"U0FNRQ=="},"dilations":{"list":{"i":["1","1","1","1"]}},"T":{"type":"DT_FLOAT"}}},
          {"name":"StatefulPartitionedCall/model/batch_normalization_7/FusedBatchNormV3","op":"_FusedConv2D","input":["StatefulPartitionedCall/model/depthwise_conv2d_6/depthwise","StatefulPartitionedCall/model/conv2d_7/Conv2D_weights","StatefulPartitionedCall/model/conv2d_7/Conv2D_bn_offset"],"device":"/device:CPU:0","attr":{"num_args":{"i":"1"},"epsilon":{"f":0},"padding":{"s":"VkFMSUQ="},"fused_ops":{"list":{"s":["Qmlhc0FkZA=="]}},"dilations":{"list":{"i":["1","1","1","1"]}},"T":{"type":"DT_FLOAT"},"data_format":{"s":"TkhXQw=="},"strides":{"list":{"i":["1","1","1","1"]}},"use_cudnn_on_gpu":{"b":true},"explicit_paddings":{"list":{}}}},
          {"name":"StatefulPartitionedCall/model/add_6/add","op":"AddV2","input":["StatefulPartitionedCall/model/activation_5/Relu","StatefulPartitionedCall/model/batch_normalization_7/FusedBatchNormV3"],"attr":{"T":{"type":"DT_FLOAT"}}},
          {"name":"StatefulPartitionedCall/model/activation_6/Relu","op":"Relu","input":["StatefulPartitionedCall/model/add_6/add"],"attr":{"T":{"type":"DT_FLOAT"}}},
          {"name":"StatefulPartitionedCall/model/depthwise_conv2d_7/depthwise","op":"DepthwiseConv2dNative","input":["StatefulPartitionedCall/model/activation_6/Relu","StatefulPartitionedCall/model/depthwise_conv2d_7/depthwise/ReadVariableOp"],"attr":{"data_format":{"s":"TkhXQw=="},"strides":{"list":{"i":["1","1","1","1"]}},"dilations":{"list":{"i":["1","1","1","1"]}},"padding":{"s":"U0FNRQ=="},"T":{"type":"DT_FLOAT"}}},
          {"name":"StatefulPartitionedCall/model/batch_normalization_8/FusedBatchNormV3","op":"_FusedConv2D","input":["StatefulPartitionedCall/model/depthwise_conv2d_7/depthwise","StatefulPartitionedCall/model/conv2d_8/Conv2D_weights","StatefulPartitionedCall/model/conv2d_8/Conv2D_bn_offset"],"device":"/device:CPU:0","attr":{"T":{"type":"DT_FLOAT"},"strides":{"list":{"i":["1","1","1","1"]}},"data_format":{"s":"TkhXQw=="},"explicit_paddings":{"list":{}},"use_cudnn_on_gpu":{"b":true},"num_args":{"i":"1"},"epsilon":{"f":0},"padding":{"s":"VkFMSUQ="},"fused_ops":{"list":{"s":["Qmlhc0FkZA=="]}},"dilations":{"list":{"i":["1","1","1","1"]}}}},
          {"name":"StatefulPartitionedCall/model/add_7/add","op":"AddV2","input":["StatefulPartitionedCall/model/activation_6/Relu","StatefulPartitionedCall/model/batch_normalization_8/FusedBatchNormV3"],"attr":{"T":{"type":"DT_FLOAT"}}},
          {"name":"StatefulPartitionedCall/model/activation_7/Relu","op":"Relu","input":["StatefulPartitionedCall/model/add_7/add"],"attr":{"T":{"type":"DT_FLOAT"}}},
          {"name":"StatefulPartitionedCall/model/depthwise_conv2d_8/depthwise","op":"DepthwiseConv2dNative","input":["StatefulPartitionedCall/model/activation_7/Relu","StatefulPartitionedCall/model/depthwise_conv2d_8/depthwise/ReadVariableOp"],"attr":{"data_format":{"s":"TkhXQw=="},"strides":{"list":{"i":["1","1","1","1"]}},"padding":{"s":"U0FNRQ=="},"dilations":{"list":{"i":["1","1","1","1"]}},"T":{"type":"DT_FLOAT"}}},
          {"name":"StatefulPartitionedCall/model/batch_normalization_9/FusedBatchNormV3","op":"_FusedConv2D","input":["StatefulPartitionedCall/model/depthwise_conv2d_8/depthwise","StatefulPartitionedCall/model/conv2d_9/Conv2D_weights","StatefulPartitionedCall/model/conv2d_9/Conv2D_bn_offset"],"device":"/device:CPU:0","attr":{"data_format":{"s":"TkhXQw=="},"strides":{"list":{"i":["1","1","1","1"]}},"use_cudnn_on_gpu":{"b":true},"explicit_paddings":{"list":{}},"num_args":{"i":"1"},"epsilon":{"f":0},"padding":{"s":"VkFMSUQ="},"fused_ops":{"list":{"s":["Qmlhc0FkZA=="]}},"dilations":{"list":{"i":["1","1","1","1"]}},"T":{"type":"DT_FLOAT"}}},
          {"name":"StatefulPartitionedCall/model/add_8/add","op":"AddV2","input":["StatefulPartitionedCall/model/activation_7/Relu","StatefulPartitionedCall/model/batch_normalization_9/FusedBatchNormV3"],"attr":{"T":{"type":"DT_FLOAT"}}},
          {"name":"StatefulPartitionedCall/model/activation_8/Relu","op":"Relu","input":["StatefulPartitionedCall/model/add_8/add"],"attr":{"T":{"type":"DT_FLOAT"}}},
          {"name":"StatefulPartitionedCall/model/depthwise_conv2d_9/depthwise","op":"DepthwiseConv2dNative","input":["StatefulPartitionedCall/model/activation_8/Relu","StatefulPartitionedCall/model/depthwise_conv2d_9/depthwise/ReadVariableOp"],"attr":{"strides":{"list":{"i":["1","1","1","1"]}},"data_format":{"s":"TkhXQw=="},"dilations":{"list":{"i":["1","1","1","1"]}},"padding":{"s":"U0FNRQ=="},"T":{"type":"DT_FLOAT"}}},
          {"name":"StatefulPartitionedCall/model/batch_normalization_10/FusedBatchNormV3","op":"_FusedConv2D","input":["StatefulPartitionedCall/model/depthwise_conv2d_9/depthwise","StatefulPartitionedCall/model/conv2d_10/Conv2D_weights","StatefulPartitionedCall/model/conv2d_10/Conv2D_bn_offset"],"device":"/device:CPU:0","attr":{"epsilon":{"f":0},"padding":{"s":"VkFMSUQ="},"fused_ops":{"list":{"s":["Qmlhc0FkZA=="]}},"dilations":{"list":{"i":["1","1","1","1"]}},"T":{"type":"DT_FLOAT"},"strides":{"list":{"i":["1","1","1","1"]}},"data_format":{"s":"TkhXQw=="},"use_cudnn_on_gpu":{"b":true},"explicit_paddings":{"list":{}},"num_args":{"i":"1"}}},
          {"name":"StatefulPartitionedCall/model/add_9/add","op":"AddV2","input":["StatefulPartitionedCall/model/activation_8/Relu","StatefulPartitionedCall/model/batch_normalization_10/FusedBatchNormV3"],"attr":{"T":{"type":"DT_FLOAT"}}},
          {"name":"StatefulPartitionedCall/model/activation_9/Relu","op":"Relu","input":["StatefulPartitionedCall/model/add_9/add"],"attr":{"T":{"type":"DT_FLOAT"}}},
          {"name":"StatefulPartitionedCall/model/max_pooling2d_1/MaxPool","op":"MaxPool","input":["StatefulPartitionedCall/model/activation_9/Relu"],"attr":{"data_format":{"s":"TkhXQw=="},"strides":{"list":{"i":["1","2","2","1"]}},"ksize":{"list":{"i":["1","2","2","1"]}},"padding":{"s":"VkFMSUQ="},"T":{"type":"DT_FLOAT"}}},
          {"name":"StatefulPartitionedCall/model/depthwise_conv2d_10/depthwise","op":"DepthwiseConv2dNative","input":["StatefulPartitionedCall/model/activation_9/Relu","StatefulPartitionedCall/model/depthwise_conv2d_10/depthwise/ReadVariableOp"],"attr":{"data_format":{"s":"TkhXQw=="},"strides":{"list":{"i":["1","2","2","1"]}},"padding":{"s":"U0FNRQ=="},"dilations":{"list":{"i":["1","1","1","1"]}},"T":{"type":"DT_FLOAT"}}},
          {"name":"StatefulPartitionedCall/model/channel_padding_1/Pad","op":"Pad","input":["StatefulPartitionedCall/model/max_pooling2d_1/MaxPool","StatefulPartitionedCall/model/channel_padding_1/Pad/paddings"],"attr":{"T":{"type":"DT_FLOAT"},"Tpaddings":{"type":"DT_INT32"}}},
          {"name":"StatefulPartitionedCall/model/batch_normalization_11/FusedBatchNormV3","op":"_FusedConv2D","input":["StatefulPartitionedCall/model/depthwise_conv2d_10/depthwise","StatefulPartitionedCall/model/conv2d_11/Conv2D_weights","StatefulPartitionedCall/model/conv2d_11/Conv2D_bn_offset"],"device":"/device:CPU:0","attr":{"dilations":{"list":{"i":["1","1","1","1"]}},"T":{"type":"DT_FLOAT"},"data_format":{"s":"TkhXQw=="},"strides":{"list":{"i":["1","1","1","1"]}},"use_cudnn_on_gpu":{"b":true},"explicit_paddings":{"list":{}},"num_args":{"i":"1"},"epsilon":{"f":0},"padding":{"s":"VkFMSUQ="},"fused_ops":{"list":{"s":["Qmlhc0FkZA=="]}}}},
          {"name":"StatefulPartitionedCall/model/add_10/add","op":"AddV2","input":["StatefulPartitionedCall/model/batch_normalization_11/FusedBatchNormV3","StatefulPartitionedCall/model/channel_padding_1/Pad"],"attr":{"T":{"type":"DT_FLOAT"}}},
          {"name":"StatefulPartitionedCall/model/activation_10/Relu","op":"Relu","input":["StatefulPartitionedCall/model/add_10/add"],"attr":{"T":{"type":"DT_FLOAT"}}},
          {"name":"StatefulPartitionedCall/model/depthwise_conv2d_11/depthwise","op":"DepthwiseConv2dNative","input":["StatefulPartitionedCall/model/activation_10/Relu","StatefulPartitionedCall/model/depthwise_conv2d_11/depthwise/ReadVariableOp"],"attr":{"dilations":{"list":{"i":["1","1","1","1"]}},"padding":{"s":"U0FNRQ=="},"T":{"type":"DT_FLOAT"},"strides":{"list":{"i":["1","1","1","1"]}},"data_format":{"s":"TkhXQw=="}}},
          {"name":"StatefulPartitionedCall/model/batch_normalization_12/FusedBatchNormV3","op":"_FusedConv2D","input":["StatefulPartitionedCall/model/depthwise_conv2d_11/depthwise","StatefulPartitionedCall/model/conv2d_12/Conv2D_weights","StatefulPartitionedCall/model/conv2d_12/Conv2D_bn_offset"],"device":"/device:CPU:0","attr":{"dilations":{"list":{"i":["1","1","1","1"]}},"T":{"type":"DT_FLOAT"},"data_format":{"s":"TkhXQw=="},"strides":{"list":{"i":["1","1","1","1"]}},"explicit_paddings":{"list":{}},"use_cudnn_on_gpu":{"b":true},"num_args":{"i":"1"},"epsilon":{"f":0},"padding":{"s":"VkFMSUQ="},"fused_ops":{"list":{"s":["Qmlhc0FkZA=="]}}}},
          {"name":"StatefulPartitionedCall/model/add_11/add","op":"AddV2","input":["StatefulPartitionedCall/model/activation_10/Relu","StatefulPartitionedCall/model/batch_normalization_12/FusedBatchNormV3"],"attr":{"T":{"type":"DT_FLOAT"}}},
          {"name":"StatefulPartitionedCall/model/activation_11/Relu","op":"Relu","input":["StatefulPartitionedCall/model/add_11/add"],"attr":{"T":{"type":"DT_FLOAT"}}},
          {"name":"StatefulPartitionedCall/model/depthwise_conv2d_12/depthwise","op":"DepthwiseConv2dNative","input":["StatefulPartitionedCall/model/activation_11/Relu","StatefulPartitionedCall/model/depthwise_conv2d_12/depthwise/ReadVariableOp"],"attr":{"padding":{"s":"U0FNRQ=="},"dilations":{"list":{"i":["1","1","1","1"]}},"T":{"type":"DT_FLOAT"},"strides":{"list":{"i":["1","1","1","1"]}},"data_format":{"s":"TkhXQw=="}}},
          {"name":"StatefulPartitionedCall/model/batch_normalization_13/FusedBatchNormV3","op":"_FusedConv2D","input":["StatefulPartitionedCall/model/depthwise_conv2d_12/depthwise","StatefulPartitionedCall/model/conv2d_13/Conv2D_weights","StatefulPartitionedCall/model/conv2d_13/Conv2D_bn_offset"],"device":"/device:CPU:0","attr":{"fused_ops":{"list":{"s":["Qmlhc0FkZA=="]}},"dilations":{"list":{"i":["1","1","1","1"]}},"T":{"type":"DT_FLOAT"},"strides":{"list":{"i":["1","1","1","1"]}},"data_format":{"s":"TkhXQw=="},"explicit_paddings":{"list":{}},"use_cudnn_on_gpu":{"b":true},"num_args":{"i":"1"},"epsilon":{"f":0},"padding":{"s":"VkFMSUQ="}}},
          {"name":"StatefulPartitionedCall/model/add_12/add","op":"AddV2","input":["StatefulPartitionedCall/model/activation_11/Relu","StatefulPartitionedCall/model/batch_normalization_13/FusedBatchNormV3"],"attr":{"T":{"type":"DT_FLOAT"}}},
          {"name":"StatefulPartitionedCall/model/activation_12/Relu","op":"Relu","input":["StatefulPartitionedCall/model/add_12/add"],"attr":{"T":{"type":"DT_FLOAT"}}},
          {"name":"StatefulPartitionedCall/model/depthwise_conv2d_13/depthwise","op":"DepthwiseConv2dNative","input":["StatefulPartitionedCall/model/activation_12/Relu","StatefulPartitionedCall/model/depthwise_conv2d_13/depthwise/ReadVariableOp"],"attr":{"padding":{"s":"U0FNRQ=="},"dilations":{"list":{"i":["1","1","1","1"]}},"T":{"type":"DT_FLOAT"},"strides":{"list":{"i":["1","1","1","1"]}},"data_format":{"s":"TkhXQw=="}}},
          {"name":"StatefulPartitionedCall/model/batch_normalization_14/FusedBatchNormV3","op":"_FusedConv2D","input":["StatefulPartitionedCall/model/depthwise_conv2d_13/depthwise","StatefulPartitionedCall/model/conv2d_14/Conv2D_weights","StatefulPartitionedCall/model/conv2d_14/Conv2D_bn_offset"],"device":"/device:CPU:0","attr":{"dilations":{"list":{"i":["1","1","1","1"]}},"T":{"type":"DT_FLOAT"},"data_format":{"s":"TkhXQw=="},"strides":{"list":{"i":["1","1","1","1"]}},"use_cudnn_on_gpu":{"b":true},"explicit_paddings":{"list":{}},"num_args":{"i":"1"},"epsilon":{"f":0},"padding":{"s":"VkFMSUQ="},"fused_ops":{"list":{"s":["Qmlhc0FkZA=="]}}}},
          {"name":"StatefulPartitionedCall/model/add_13/add","op":"AddV2","input":["StatefulPartitionedCall/model/activation_12/Relu","StatefulPartitionedCall/model/batch_normalization_14/FusedBatchNormV3"],"attr":{"T":{"type":"DT_FLOAT"}}},
          {"name":"StatefulPartitionedCall/model/activation_13/Relu","op":"Relu","input":["StatefulPartitionedCall/model/add_13/add"],"attr":{"T":{"type":"DT_FLOAT"}}},
          {"name":"StatefulPartitionedCall/model/depthwise_conv2d_14/depthwise","op":"DepthwiseConv2dNative","input":["StatefulPartitionedCall/model/activation_13/Relu","StatefulPartitionedCall/model/depthwise_conv2d_14/depthwise/ReadVariableOp"],"attr":{"T":{"type":"DT_FLOAT"},"strides":{"list":{"i":["1","1","1","1"]}},"data_format":{"s":"TkhXQw=="},"dilations":{"list":{"i":["1","1","1","1"]}},"padding":{"s":"U0FNRQ=="}}},
          {"name":"StatefulPartitionedCall/model/batch_normalization_15/FusedBatchNormV3","op":"_FusedConv2D","input":["StatefulPartitionedCall/model/depthwise_conv2d_14/depthwise","StatefulPartitionedCall/model/conv2d_15/Conv2D_weights","StatefulPartitionedCall/model/conv2d_15/Conv2D_bn_offset"],"device":"/device:CPU:0","attr":{"T":{"type":"DT_FLOAT"},"data_format":{"s":"TkhXQw=="},"strides":{"list":{"i":["1","1","1","1"]}},"use_cudnn_on_gpu":{"b":true},"explicit_paddings":{"list":{}},"num_args":{"i":"1"},"epsilon":{"f":0},"padding":{"s":"VkFMSUQ="},"fused_ops":{"list":{"s":["Qmlhc0FkZA=="]}},"dilations":{"list":{"i":["1","1","1","1"]}}}},
          {"name":"StatefulPartitionedCall/model/add_14/add","op":"AddV2","input":["StatefulPartitionedCall/model/activation_13/Relu","StatefulPartitionedCall/model/batch_normalization_15/FusedBatchNormV3"],"attr":{"T":{"type":"DT_FLOAT"}}},
          {"name":"StatefulPartitionedCall/model/activation_14/Relu","op":"Relu","input":["StatefulPartitionedCall/model/add_14/add"],"attr":{"T":{"type":"DT_FLOAT"}}},
          {"name":"StatefulPartitionedCall/model/depthwise_conv2d_15/depthwise","op":"DepthwiseConv2dNative","input":["StatefulPartitionedCall/model/activation_14/Relu","StatefulPartitionedCall/model/depthwise_conv2d_15/depthwise/ReadVariableOp"],"attr":{"data_format":{"s":"TkhXQw=="},"strides":{"list":{"i":["1","1","1","1"]}},"dilations":{"list":{"i":["1","1","1","1"]}},"padding":{"s":"U0FNRQ=="},"T":{"type":"DT_FLOAT"}}},
          {"name":"StatefulPartitionedCall/model/batch_normalization_16/FusedBatchNormV3","op":"_FusedConv2D","input":["StatefulPartitionedCall/model/depthwise_conv2d_15/depthwise","StatefulPartitionedCall/model/conv2d_16/Conv2D_weights","StatefulPartitionedCall/model/conv2d_16/Conv2D_bn_offset"],"device":"/device:CPU:0","attr":{"strides":{"list":{"i":["1","1","1","1"]}},"data_format":{"s":"TkhXQw=="},"explicit_paddings":{"list":{}},"use_cudnn_on_gpu":{"b":true},"num_args":{"i":"1"},"epsilon":{"f":0},"padding":{"s":"VkFMSUQ="},"fused_ops":{"list":{"s":["Qmlhc0FkZA=="]}},"dilations":{"list":{"i":["1","1","1","1"]}},"T":{"type":"DT_FLOAT"}}},
          {"name":"StatefulPartitionedCall/model/add_15/add","op":"AddV2","input":["StatefulPartitionedCall/model/activation_14/Relu","StatefulPartitionedCall/model/batch_normalization_16/FusedBatchNormV3"],"attr":{"T":{"type":"DT_FLOAT"}}},
          {"name":"StatefulPartitionedCall/model/activation_15/Relu","op":"Relu","input":["StatefulPartitionedCall/model/add_15/add"],"attr":{"T":{"type":"DT_FLOAT"}}},
          {"name":"StatefulPartitionedCall/model/depthwise_conv2d_16/depthwise","op":"DepthwiseConv2dNative","input":["StatefulPartitionedCall/model/activation_15/Relu","StatefulPartitionedCall/model/depthwise_conv2d_16/depthwise/ReadVariableOp"],"attr":{"strides":{"list":{"i":["1","1","1","1"]}},"data_format":{"s":"TkhXQw=="},"dilations":{"list":{"i":["1","1","1","1"]}},"padding":{"s":"U0FNRQ=="},"T":{"type":"DT_FLOAT"}}},
          {"name":"StatefulPartitionedCall/model/batch_normalization_17/FusedBatchNormV3","op":"_FusedConv2D","input":["StatefulPartitionedCall/model/depthwise_conv2d_16/depthwise","StatefulPartitionedCall/model/conv2d_17/Conv2D_weights","StatefulPartitionedCall/model/conv2d_17/Conv2D_bn_offset"],"device":"/device:CPU:0","attr":{"T":{"type":"DT_FLOAT"},"data_format":{"s":"TkhXQw=="},"strides":{"list":{"i":["1","1","1","1"]}},"explicit_paddings":{"list":{}},"use_cudnn_on_gpu":{"b":true},"num_args":{"i":"1"},"epsilon":{"f":0},"padding":{"s":"VkFMSUQ="},"fused_ops":{"list":{"s":["Qmlhc0FkZA=="]}},"dilations":{"list":{"i":["1","1","1","1"]}}}},
          {"name":"StatefulPartitionedCall/model/add_16/add","op":"AddV2","input":["StatefulPartitionedCall/model/activation_15/Relu","StatefulPartitionedCall/model/batch_normalization_17/FusedBatchNormV3"],"attr":{"T":{"type":"DT_FLOAT"}}},
          {"name":"StatefulPartitionedCall/model/activation_16/Relu","op":"Relu","input":["StatefulPartitionedCall/model/add_16/add"],"attr":{"T":{"type":"DT_FLOAT"}}},
          {"name":"StatefulPartitionedCall/model/max_pooling2d_2/MaxPool","op":"MaxPool","input":["StatefulPartitionedCall/model/activation_16/Relu"],"attr":{"T":{"type":"DT_FLOAT"},"strides":{"list":{"i":["1","2","2","1"]}},"data_format":{"s":"TkhXQw=="},"ksize":{"list":{"i":["1","2","2","1"]}},"padding":{"s":"VkFMSUQ="}}},
          {"name":"StatefulPartitionedCall/model/depthwise_conv2d_17/depthwise","op":"DepthwiseConv2dNative","input":["StatefulPartitionedCall/model/activation_16/Relu","StatefulPartitionedCall/model/depthwise_conv2d_17/depthwise/ReadVariableOp"],"attr":{"dilations":{"list":{"i":["1","1","1","1"]}},"padding":{"s":"U0FNRQ=="},"T":{"type":"DT_FLOAT"},"strides":{"list":{"i":["1","2","2","1"]}},"data_format":{"s":"TkhXQw=="}}},
          {"name":"StatefulPartitionedCall/model/channel_padding_2/Pad","op":"Pad","input":["StatefulPartitionedCall/model/max_pooling2d_2/MaxPool","StatefulPartitionedCall/model/channel_padding_1/Pad/paddings"],"attr":{"Tpaddings":{"type":"DT_INT32"},"T":{"type":"DT_FLOAT"}}},
          {"name":"StatefulPartitionedCall/model/batch_normalization_18/FusedBatchNormV3","op":"_FusedConv2D","input":["StatefulPartitionedCall/model/depthwise_conv2d_17/depthwise","StatefulPartitionedCall/model/conv2d_18/Conv2D_weights","StatefulPartitionedCall/model/conv2d_18/Conv2D_bn_offset"],"device":"/device:CPU:0","attr":{"T":{"type":"DT_FLOAT"},"strides":{"list":{"i":["1","1","1","1"]}},"data_format":{"s":"TkhXQw=="},"use_cudnn_on_gpu":{"b":true},"explicit_paddings":{"list":{}},"num_args":{"i":"1"},"epsilon":{"f":0},"padding":{"s":"VkFMSUQ="},"fused_ops":{"list":{"s":["Qmlhc0FkZA=="]}},"dilations":{"list":{"i":["1","1","1","1"]}}}},
          {"name":"StatefulPartitionedCall/model/add_17/add","op":"AddV2","input":["StatefulPartitionedCall/model/batch_normalization_18/FusedBatchNormV3","StatefulPartitionedCall/model/channel_padding_2/Pad"],"attr":{"T":{"type":"DT_FLOAT"}}},
          {"name":"StatefulPartitionedCall/model/activation_17/Relu","op":"Relu","input":["StatefulPartitionedCall/model/add_17/add"],"attr":{"T":{"type":"DT_FLOAT"}}},
          {"name":"StatefulPartitionedCall/model/depthwise_conv2d_18/depthwise","op":"DepthwiseConv2dNative","input":["StatefulPartitionedCall/model/activation_17/Relu","StatefulPartitionedCall/model/depthwise_conv2d_18/depthwise/ReadVariableOp"],"attr":{"dilations":{"list":{"i":["1","1","1","1"]}},"padding":{"s":"U0FNRQ=="},"T":{"type":"DT_FLOAT"},"strides":{"list":{"i":["1","1","1","1"]}},"data_format":{"s":"TkhXQw=="}}},
          {"name":"StatefulPartitionedCall/model/batch_normalization_19/FusedBatchNormV3","op":"_FusedConv2D","input":["StatefulPartitionedCall/model/depthwise_conv2d_18/depthwise","StatefulPartitionedCall/model/conv2d_19/Conv2D_weights","StatefulPartitionedCall/model/conv2d_19/Conv2D_bn_offset"],"device":"/device:CPU:0","attr":{"dilations":{"list":{"i":["1","1","1","1"]}},"T":{"type":"DT_FLOAT"},"data_format":{"s":"TkhXQw=="},"strides":{"list":{"i":["1","1","1","1"]}},"use_cudnn_on_gpu":{"b":true},"explicit_paddings":{"list":{}},"num_args":{"i":"1"},"epsilon":{"f":0},"padding":{"s":"VkFMSUQ="},"fused_ops":{"list":{"s":["Qmlhc0FkZA=="]}}}},
          {"name":"StatefulPartitionedCall/model/add_18/add","op":"AddV2","input":["StatefulPartitionedCall/model/activation_17/Relu","StatefulPartitionedCall/model/batch_normalization_19/FusedBatchNormV3"],"attr":{"T":{"type":"DT_FLOAT"}}},
          {"name":"StatefulPartitionedCall/model/activation_18/Relu","op":"Relu","input":["StatefulPartitionedCall/model/add_18/add"],"attr":{"T":{"type":"DT_FLOAT"}}},
          {"name":"StatefulPartitionedCall/model/depthwise_conv2d_19/depthwise","op":"DepthwiseConv2dNative","input":["StatefulPartitionedCall/model/activation_18/Relu","StatefulPartitionedCall/model/depthwise_conv2d_19/depthwise/ReadVariableOp"],"attr":{"dilations":{"list":{"i":["1","1","1","1"]}},"padding":{"s":"U0FNRQ=="},"T":{"type":"DT_FLOAT"},"strides":{"list":{"i":["1","1","1","1"]}},"data_format":{"s":"TkhXQw=="}}},
          {"name":"StatefulPartitionedCall/model/batch_normalization_20/FusedBatchNormV3","op":"_FusedConv2D","input":["StatefulPartitionedCall/model/depthwise_conv2d_19/depthwise","StatefulPartitionedCall/model/conv2d_20/Conv2D_weights","StatefulPartitionedCall/model/conv2d_20/Conv2D_bn_offset"],"device":"/device:CPU:0","attr":{"dilations":{"list":{"i":["1","1","1","1"]}},"T":{"type":"DT_FLOAT"},"strides":{"list":{"i":["1","1","1","1"]}},"data_format":{"s":"TkhXQw=="},"use_cudnn_on_gpu":{"b":true},"explicit_paddings":{"list":{}},"num_args":{"i":"1"},"epsilon":{"f":0},"padding":{"s":"VkFMSUQ="},"fused_ops":{"list":{"s":["Qmlhc0FkZA=="]}}}},
          {"name":"StatefulPartitionedCall/model/add_19/add","op":"AddV2","input":["StatefulPartitionedCall/model/activation_18/Relu","StatefulPartitionedCall/model/batch_normalization_20/FusedBatchNormV3"],"attr":{"T":{"type":"DT_FLOAT"}}},
          {"name":"StatefulPartitionedCall/model/activation_19/Relu","op":"Relu","input":["StatefulPartitionedCall/model/add_19/add"],"attr":{"T":{"type":"DT_FLOAT"}}},
          {"name":"StatefulPartitionedCall/model/depthwise_conv2d_20/depthwise","op":"DepthwiseConv2dNative","input":["StatefulPartitionedCall/model/activation_19/Relu","StatefulPartitionedCall/model/depthwise_conv2d_20/depthwise/ReadVariableOp"],"attr":{"T":{"type":"DT_FLOAT"},"strides":{"list":{"i":["1","1","1","1"]}},"data_format":{"s":"TkhXQw=="},"dilations":{"list":{"i":["1","1","1","1"]}},"padding":{"s":"U0FNRQ=="}}},
          {"name":"StatefulPartitionedCall/model/batch_normalization_21/FusedBatchNormV3","op":"_FusedConv2D","input":["StatefulPartitionedCall/model/depthwise_conv2d_20/depthwise","StatefulPartitionedCall/model/conv2d_21/Conv2D_weights","StatefulPartitionedCall/model/conv2d_21/Conv2D_bn_offset"],"device":"/device:CPU:0","attr":{"num_args":{"i":"1"},"epsilon":{"f":0},"padding":{"s":"VkFMSUQ="},"fused_ops":{"list":{"s":["Qmlhc0FkZA=="]}},"dilations":{"list":{"i":["1","1","1","1"]}},"T":{"type":"DT_FLOAT"},"strides":{"list":{"i":["1","1","1","1"]}},"data_format":{"s":"TkhXQw=="},"use_cudnn_on_gpu":{"b":true},"explicit_paddings":{"list":{}}}},
          {"name":"StatefulPartitionedCall/model/add_20/add","op":"AddV2","input":["StatefulPartitionedCall/model/activation_19/Relu","StatefulPartitionedCall/model/batch_normalization_21/FusedBatchNormV3"],"attr":{"T":{"type":"DT_FLOAT"}}},
          {"name":"StatefulPartitionedCall/model/activation_20/Relu","op":"Relu","input":["StatefulPartitionedCall/model/add_20/add"],"attr":{"T":{"type":"DT_FLOAT"}}},
          {"name":"StatefulPartitionedCall/model/depthwise_conv2d_21/depthwise","op":"DepthwiseConv2dNative","input":["StatefulPartitionedCall/model/activation_20/Relu","StatefulPartitionedCall/model/depthwise_conv2d_21/depthwise/ReadVariableOp"],"attr":{"strides":{"list":{"i":["1","1","1","1"]}},"data_format":{"s":"TkhXQw=="},"padding":{"s":"U0FNRQ=="},"dilations":{"list":{"i":["1","1","1","1"]}},"T":{"type":"DT_FLOAT"}}},
          {"name":"StatefulPartitionedCall/model/batch_normalization_22/FusedBatchNormV3","op":"_FusedConv2D","input":["StatefulPartitionedCall/model/depthwise_conv2d_21/depthwise","StatefulPartitionedCall/model/conv2d_22/Conv2D_weights","StatefulPartitionedCall/model/conv2d_22/Conv2D_bn_offset"],"device":"/device:CPU:0","attr":{"dilations":{"list":{"i":["1","1","1","1"]}},"T":{"type":"DT_FLOAT"},"strides":{"list":{"i":["1","1","1","1"]}},"data_format":{"s":"TkhXQw=="},"use_cudnn_on_gpu":{"b":true},"explicit_paddings":{"list":{}},"num_args":{"i":"1"},"epsilon":{"f":0},"padding":{"s":"VkFMSUQ="},"fused_ops":{"list":{"s":["Qmlhc0FkZA=="]}}}},
          {"name":"StatefulPartitionedCall/model/add_21/add","op":"AddV2","input":["StatefulPartitionedCall/model/activation_20/Relu","StatefulPartitionedCall/model/batch_normalization_22/FusedBatchNormV3"],"attr":{"T":{"type":"DT_FLOAT"}}},
          {"name":"StatefulPartitionedCall/model/activation_21/Relu","op":"Relu","input":["StatefulPartitionedCall/model/add_21/add"],"attr":{"T":{"type":"DT_FLOAT"}}},
          {"name":"StatefulPartitionedCall/model/depthwise_conv2d_22/depthwise","op":"DepthwiseConv2dNative","input":["StatefulPartitionedCall/model/activation_21/Relu","StatefulPartitionedCall/model/depthwise_conv2d_22/depthwise/ReadVariableOp"],"attr":{"T":{"type":"DT_FLOAT"},"strides":{"list":{"i":["1","1","1","1"]}},"data_format":{"s":"TkhXQw=="},"dilations":{"list":{"i":["1","1","1","1"]}},"padding":{"s":"U0FNRQ=="}}},
          {"name":"StatefulPartitionedCall/model/batch_normalization_23/FusedBatchNormV3","op":"_FusedConv2D","input":["StatefulPartitionedCall/model/depthwise_conv2d_22/depthwise","StatefulPartitionedCall/model/conv2d_23/Conv2D_weights","StatefulPartitionedCall/model/conv2d_23/Conv2D_bn_offset"],"device":"/device:CPU:0","attr":{"fused_ops":{"list":{"s":["Qmlhc0FkZA=="]}},"dilations":{"list":{"i":["1","1","1","1"]}},"T":{"type":"DT_FLOAT"},"strides":{"list":{"i":["1","1","1","1"]}},"data_format":{"s":"TkhXQw=="},"use_cudnn_on_gpu":{"b":true},"explicit_paddings":{"list":{}},"num_args":{"i":"1"},"epsilon":{"f":0},"padding":{"s":"VkFMSUQ="}}},
          {"name":"StatefulPartitionedCall/model/add_22/add","op":"AddV2","input":["StatefulPartitionedCall/model/activation_21/Relu","StatefulPartitionedCall/model/batch_normalization_23/FusedBatchNormV3"],"attr":{"T":{"type":"DT_FLOAT"}}},
          {"name":"StatefulPartitionedCall/model/activation_22/Relu","op":"Relu","input":["StatefulPartitionedCall/model/add_22/add"],"attr":{"T":{"type":"DT_FLOAT"}}},
          {"name":"StatefulPartitionedCall/model/depthwise_conv2d_23/depthwise","op":"DepthwiseConv2dNative","input":["StatefulPartitionedCall/model/activation_22/Relu","StatefulPartitionedCall/model/depthwise_conv2d_23/depthwise/ReadVariableOp"],"attr":{"strides":{"list":{"i":["1","1","1","1"]}},"data_format":{"s":"TkhXQw=="},"padding":{"s":"U0FNRQ=="},"dilations":{"list":{"i":["1","1","1","1"]}},"T":{"type":"DT_FLOAT"}}},
          {"name":"StatefulPartitionedCall/model/batch_normalization_24/FusedBatchNormV3","op":"_FusedConv2D","input":["StatefulPartitionedCall/model/depthwise_conv2d_23/depthwise","StatefulPartitionedCall/model/conv2d_24/Conv2D_weights","StatefulPartitionedCall/model/conv2d_24/Conv2D_bn_offset"],"device":"/device:CPU:0","attr":{"num_args":{"i":"1"},"epsilon":{"f":0},"padding":{"s":"VkFMSUQ="},"fused_ops":{"list":{"s":["Qmlhc0FkZA=="]}},"dilations":{"list":{"i":["1","1","1","1"]}},"T":{"type":"DT_FLOAT"},"data_format":{"s":"TkhXQw=="},"strides":{"list":{"i":["1","1","1","1"]}},"use_cudnn_on_gpu":{"b":true},"explicit_paddings":{"list":{}}}},
          {"name":"StatefulPartitionedCall/model/add_23/add","op":"AddV2","input":["StatefulPartitionedCall/model/activation_22/Relu","StatefulPartitionedCall/model/batch_normalization_24/FusedBatchNormV3"],"attr":{"T":{"type":"DT_FLOAT"}}},
          {"name":"StatefulPartitionedCall/model/activation_23/Relu","op":"Relu","input":["StatefulPartitionedCall/model/add_23/add"],"attr":{"T":{"type":"DT_FLOAT"}}},
          {"name":"StatefulPartitionedCall/model/max_pooling2d_3/MaxPool","op":"MaxPool","input":["StatefulPartitionedCall/model/activation_23/Relu"],"attr":{"ksize":{"list":{"i":["1","2","2","1"]}},"padding":{"s":"VkFMSUQ="},"T":{"type":"DT_FLOAT"},"data_format":{"s":"TkhXQw=="},"strides":{"list":{"i":["1","2","2","1"]}}}},
          {"name":"StatefulPartitionedCall/model/depthwise_conv2d_24/depthwise","op":"DepthwiseConv2dNative","input":["StatefulPartitionedCall/model/activation_23/Relu","StatefulPartitionedCall/model/depthwise_conv2d_24/depthwise/ReadVariableOp"],"attr":{"data_format":{"s":"TkhXQw=="},"strides":{"list":{"i":["1","2","2","1"]}},"padding":{"s":"U0FNRQ=="},"dilations":{"list":{"i":["1","1","1","1"]}},"T":{"type":"DT_FLOAT"}}},
          {"name":"StatefulPartitionedCall/model/batch_normalization_25/FusedBatchNormV3","op":"_FusedConv2D","input":["StatefulPartitionedCall/model/depthwise_conv2d_24/depthwise","StatefulPartitionedCall/model/conv2d_25/Conv2D_weights","StatefulPartitionedCall/model/conv2d_25/Conv2D_bn_offset"],"device":"/device:CPU:0","attr":{"epsilon":{"f":0},"padding":{"s":"VkFMSUQ="},"fused_ops":{"list":{"s":["Qmlhc0FkZA=="]}},"dilations":{"list":{"i":["1","1","1","1"]}},"T":{"type":"DT_FLOAT"},"strides":{"list":{"i":["1","1","1","1"]}},"data_format":{"s":"TkhXQw=="},"explicit_paddings":{"list":{}},"use_cudnn_on_gpu":{"b":true},"num_args":{"i":"1"}}},
          {"name":"StatefulPartitionedCall/model/add_24/add","op":"AddV2","input":["StatefulPartitionedCall/model/batch_normalization_25/FusedBatchNormV3","StatefulPartitionedCall/model/max_pooling2d_3/MaxPool"],"attr":{"T":{"type":"DT_FLOAT"}}},
          {"name":"StatefulPartitionedCall/model/activation_24/Relu","op":"Relu","input":["StatefulPartitionedCall/model/add_24/add"],"attr":{"T":{"type":"DT_FLOAT"}}},
          {"name":"StatefulPartitionedCall/model/depthwise_conv2d_25/depthwise","op":"DepthwiseConv2dNative","input":["StatefulPartitionedCall/model/activation_24/Relu","StatefulPartitionedCall/model/depthwise_conv2d_25/depthwise/ReadVariableOp"],"attr":{"dilations":{"list":{"i":["1","1","1","1"]}},"padding":{"s":"U0FNRQ=="},"T":{"type":"DT_FLOAT"},"data_format":{"s":"TkhXQw=="},"strides":{"list":{"i":["1","1","1","1"]}}}},
          {"name":"StatefulPartitionedCall/model/batch_normalization_26/FusedBatchNormV3","op":"_FusedConv2D","input":["StatefulPartitionedCall/model/depthwise_conv2d_25/depthwise","StatefulPartitionedCall/model/conv2d_26/Conv2D_weights","StatefulPartitionedCall/model/conv2d_26/Conv2D_bn_offset"],"device":"/device:CPU:0","attr":{"T":{"type":"DT_FLOAT"},"strides":{"list":{"i":["1","1","1","1"]}},"data_format":{"s":"TkhXQw=="},"explicit_paddings":{"list":{}},"use_cudnn_on_gpu":{"b":true},"num_args":{"i":"1"},"epsilon":{"f":0},"padding":{"s":"VkFMSUQ="},"fused_ops":{"list":{"s":["Qmlhc0FkZA=="]}},"dilations":{"list":{"i":["1","1","1","1"]}}}},
          {"name":"StatefulPartitionedCall/model/add_25/add","op":"AddV2","input":["StatefulPartitionedCall/model/activation_24/Relu","StatefulPartitionedCall/model/batch_normalization_26/FusedBatchNormV3"],"attr":{"T":{"type":"DT_FLOAT"}}},
          {"name":"StatefulPartitionedCall/model/activation_25/Relu","op":"Relu","input":["StatefulPartitionedCall/model/add_25/add"],"attr":{"T":{"type":"DT_FLOAT"}}},
          {"name":"StatefulPartitionedCall/model/depthwise_conv2d_26/depthwise","op":"DepthwiseConv2dNative","input":["StatefulPartitionedCall/model/activation_25/Relu","StatefulPartitionedCall/model/depthwise_conv2d_26/depthwise/ReadVariableOp"],"attr":{"padding":{"s":"U0FNRQ=="},"dilations":{"list":{"i":["1","1","1","1"]}},"T":{"type":"DT_FLOAT"},"strides":{"list":{"i":["1","1","1","1"]}},"data_format":{"s":"TkhXQw=="}}},
          {"name":"StatefulPartitionedCall/model/batch_normalization_27/FusedBatchNormV3","op":"_FusedConv2D","input":["StatefulPartitionedCall/model/depthwise_conv2d_26/depthwise","StatefulPartitionedCall/model/conv2d_27/Conv2D_weights","StatefulPartitionedCall/model/conv2d_27/Conv2D_bn_offset"],"device":"/device:CPU:0","attr":{"fused_ops":{"list":{"s":["Qmlhc0FkZA=="]}},"dilations":{"list":{"i":["1","1","1","1"]}},"T":{"type":"DT_FLOAT"},"strides":{"list":{"i":["1","1","1","1"]}},"data_format":{"s":"TkhXQw=="},"use_cudnn_on_gpu":{"b":true},"explicit_paddings":{"list":{}},"num_args":{"i":"1"},"epsilon":{"f":0},"padding":{"s":"VkFMSUQ="}}},
          {"name":"StatefulPartitionedCall/model/add_26/add","op":"AddV2","input":["StatefulPartitionedCall/model/activation_25/Relu","StatefulPartitionedCall/model/batch_normalization_27/FusedBatchNormV3"],"attr":{"T":{"type":"DT_FLOAT"}}},
          {"name":"StatefulPartitionedCall/model/activation_26/Relu","op":"Relu","input":["StatefulPartitionedCall/model/add_26/add"],"attr":{"T":{"type":"DT_FLOAT"}}},
          {"name":"StatefulPartitionedCall/model/depthwise_conv2d_27/depthwise","op":"DepthwiseConv2dNative","input":["StatefulPartitionedCall/model/activation_26/Relu","StatefulPartitionedCall/model/depthwise_conv2d_27/depthwise/ReadVariableOp"],"attr":{"padding":{"s":"U0FNRQ=="},"dilations":{"list":{"i":["1","1","1","1"]}},"T":{"type":"DT_FLOAT"},"data_format":{"s":"TkhXQw=="},"strides":{"list":{"i":["1","1","1","1"]}}}},
          {"name":"StatefulPartitionedCall/model/batch_normalization_28/FusedBatchNormV3","op":"_FusedConv2D","input":["StatefulPartitionedCall/model/depthwise_conv2d_27/depthwise","StatefulPartitionedCall/model/conv2d_28/Conv2D_weights","StatefulPartitionedCall/model/conv2d_28/Conv2D_bn_offset"],"device":"/device:CPU:0","attr":{"dilations":{"list":{"i":["1","1","1","1"]}},"T":{"type":"DT_FLOAT"},"strides":{"list":{"i":["1","1","1","1"]}},"data_format":{"s":"TkhXQw=="},"explicit_paddings":{"list":{}},"use_cudnn_on_gpu":{"b":true},"num_args":{"i":"1"},"epsilon":{"f":0},"padding":{"s":"VkFMSUQ="},"fused_ops":{"list":{"s":["Qmlhc0FkZA=="]}}}},
          {"name":"StatefulPartitionedCall/model/add_27/add","op":"AddV2","input":["StatefulPartitionedCall/model/activation_26/Relu","StatefulPartitionedCall/model/batch_normalization_28/FusedBatchNormV3"],"attr":{"T":{"type":"DT_FLOAT"}}},
          {"name":"StatefulPartitionedCall/model/activation_27/Relu","op":"Relu","input":["StatefulPartitionedCall/model/add_27/add"],"attr":{"T":{"type":"DT_FLOAT"}}},
          {"name":"StatefulPartitionedCall/model/depthwise_conv2d_28/depthwise","op":"DepthwiseConv2dNative","input":["StatefulPartitionedCall/model/activation_27/Relu","StatefulPartitionedCall/model/depthwise_conv2d_28/depthwise/ReadVariableOp"],"attr":{"strides":{"list":{"i":["1","1","1","1"]}},"data_format":{"s":"TkhXQw=="},"padding":{"s":"U0FNRQ=="},"dilations":{"list":{"i":["1","1","1","1"]}},"T":{"type":"DT_FLOAT"}}},
          {"name":"StatefulPartitionedCall/model/batch_normalization_29/FusedBatchNormV3","op":"_FusedConv2D","input":["StatefulPartitionedCall/model/depthwise_conv2d_28/depthwise","StatefulPartitionedCall/model/conv2d_29/Conv2D_weights","StatefulPartitionedCall/model/conv2d_29/Conv2D_bn_offset"],"device":"/device:CPU:0","attr":{"dilations":{"list":{"i":["1","1","1","1"]}},"T":{"type":"DT_FLOAT"},"strides":{"list":{"i":["1","1","1","1"]}},"data_format":{"s":"TkhXQw=="},"use_cudnn_on_gpu":{"b":true},"explicit_paddings":{"list":{}},"num_args":{"i":"1"},"epsilon":{"f":0},"padding":{"s":"VkFMSUQ="},"fused_ops":{"list":{"s":["Qmlhc0FkZA=="]}}}},
          {"name":"StatefulPartitionedCall/model/add_28/add","op":"AddV2","input":["StatefulPartitionedCall/model/activation_27/Relu","StatefulPartitionedCall/model/batch_normalization_29/FusedBatchNormV3"],"attr":{"T":{"type":"DT_FLOAT"}}},
          {"name":"StatefulPartitionedCall/model/activation_28/Relu","op":"Relu","input":["StatefulPartitionedCall/model/add_28/add"],"attr":{"T":{"type":"DT_FLOAT"}}},
          {"name":"StatefulPartitionedCall/model/depthwise_conv2d_29/depthwise","op":"DepthwiseConv2dNative","input":["StatefulPartitionedCall/model/activation_28/Relu","StatefulPartitionedCall/model/depthwise_conv2d_29/depthwise/ReadVariableOp"],"attr":{"strides":{"list":{"i":["1","1","1","1"]}},"data_format":{"s":"TkhXQw=="},"padding":{"s":"U0FNRQ=="},"dilations":{"list":{"i":["1","1","1","1"]}},"T":{"type":"DT_FLOAT"}}},
          {"name":"StatefulPartitionedCall/model/batch_normalization_30/FusedBatchNormV3","op":"_FusedConv2D","input":["StatefulPartitionedCall/model/depthwise_conv2d_29/depthwise","StatefulPartitionedCall/model/conv2d_30/Conv2D_weights","StatefulPartitionedCall/model/conv2d_30/Conv2D_bn_offset"],"device":"/device:CPU:0","attr":{"dilations":{"list":{"i":["1","1","1","1"]}},"T":{"type":"DT_FLOAT"},"strides":{"list":{"i":["1","1","1","1"]}},"data_format":{"s":"TkhXQw=="},"explicit_paddings":{"list":{}},"use_cudnn_on_gpu":{"b":true},"num_args":{"i":"1"},"epsilon":{"f":0},"padding":{"s":"VkFMSUQ="},"fused_ops":{"list":{"s":["Qmlhc0FkZA=="]}}}},
          {"name":"StatefulPartitionedCall/model/add_29/add","op":"AddV2","input":["StatefulPartitionedCall/model/activation_28/Relu","StatefulPartitionedCall/model/batch_normalization_30/FusedBatchNormV3"],"attr":{"T":{"type":"DT_FLOAT"}}},
          {"name":"StatefulPartitionedCall/model/activation_29/Relu","op":"Relu","input":["StatefulPartitionedCall/model/add_29/add"],"attr":{"T":{"type":"DT_FLOAT"}}},
          {"name":"StatefulPartitionedCall/model/depthwise_conv2d_30/depthwise","op":"DepthwiseConv2dNative","input":["StatefulPartitionedCall/model/activation_29/Relu","StatefulPartitionedCall/model/depthwise_conv2d_30/depthwise/ReadVariableOp"],"attr":{"T":{"type":"DT_FLOAT"},"strides":{"list":{"i":["1","1","1","1"]}},"data_format":{"s":"TkhXQw=="},"padding":{"s":"U0FNRQ=="},"dilations":{"list":{"i":["1","1","1","1"]}}}},
          {"name":"StatefulPartitionedCall/model/batch_normalization_31/FusedBatchNormV3","op":"_FusedConv2D","input":["StatefulPartitionedCall/model/depthwise_conv2d_30/depthwise","StatefulPartitionedCall/model/conv2d_31/Conv2D_weights","StatefulPartitionedCall/model/conv2d_31/Conv2D_bn_offset"],"device":"/device:CPU:0","attr":{"T":{"type":"DT_FLOAT"},"strides":{"list":{"i":["1","1","1","1"]}},"data_format":{"s":"TkhXQw=="},"explicit_paddings":{"list":{}},"use_cudnn_on_gpu":{"b":true},"num_args":{"i":"1"},"epsilon":{"f":0},"padding":{"s":"VkFMSUQ="},"fused_ops":{"list":{"s":["Qmlhc0FkZA=="]}},"dilations":{"list":{"i":["1","1","1","1"]}}}},
          {"name":"StatefulPartitionedCall/model/add_30/add","op":"AddV2","input":["StatefulPartitionedCall/model/activation_29/Relu","StatefulPartitionedCall/model/batch_normalization_31/FusedBatchNormV3"],"attr":{"T":{"type":"DT_FLOAT"}}},
          {"name":"StatefulPartitionedCall/model/activation_30/Relu","op":"Relu","input":["StatefulPartitionedCall/model/add_30/add"],"attr":{"T":{"type":"DT_FLOAT"}}},
          {"name":"StatefulPartitionedCall/model/max_pooling2d_4/MaxPool","op":"MaxPool","input":["StatefulPartitionedCall/model/activation_30/Relu"],"attr":{"T":{"type":"DT_FLOAT"},"data_format":{"s":"TkhXQw=="},"strides":{"list":{"i":["1","2","2","1"]}},"ksize":{"list":{"i":["1","2","2","1"]}},"padding":{"s":"VkFMSUQ="}}},
          {"name":"StatefulPartitionedCall/model/depthwise_conv2d_31/depthwise","op":"DepthwiseConv2dNative","input":["StatefulPartitionedCall/model/activation_30/Relu","StatefulPartitionedCall/model/depthwise_conv2d_31/depthwise/ReadVariableOp"],"attr":{"strides":{"list":{"i":["1","2","2","1"]}},"data_format":{"s":"TkhXQw=="},"dilations":{"list":{"i":["1","1","1","1"]}},"padding":{"s":"U0FNRQ=="},"T":{"type":"DT_FLOAT"}}},
          {"name":"StatefulPartitionedCall/model/batch_normalization_32/FusedBatchNormV3","op":"_FusedConv2D","input":["StatefulPartitionedCall/model/depthwise_conv2d_31/depthwise","StatefulPartitionedCall/model/conv2d_32/Conv2D_weights","StatefulPartitionedCall/model/conv2d_32/Conv2D_bn_offset"],"device":"/device:CPU:0","attr":{"dilations":{"list":{"i":["1","1","1","1"]}},"T":{"type":"DT_FLOAT"},"data_format":{"s":"TkhXQw=="},"strides":{"list":{"i":["1","1","1","1"]}},"explicit_paddings":{"list":{}},"use_cudnn_on_gpu":{"b":true},"num_args":{"i":"1"},"epsilon":{"f":0},"padding":{"s":"VkFMSUQ="},"fused_ops":{"list":{"s":["Qmlhc0FkZA=="]}}}},
          {"name":"StatefulPartitionedCall/model/add_31/add","op":"AddV2","input":["StatefulPartitionedCall/model/batch_normalization_32/FusedBatchNormV3","StatefulPartitionedCall/model/max_pooling2d_4/MaxPool"],"attr":{"T":{"type":"DT_FLOAT"}}},
          {"name":"StatefulPartitionedCall/model/activation_31/Relu","op":"Relu","input":["StatefulPartitionedCall/model/add_31/add"],"attr":{"T":{"type":"DT_FLOAT"}}},
          {"name":"StatefulPartitionedCall/model/depthwise_conv2d_32/depthwise","op":"DepthwiseConv2dNative","input":["StatefulPartitionedCall/model/activation_31/Relu","StatefulPartitionedCall/model/depthwise_conv2d_32/depthwise/ReadVariableOp"],"attr":{"data_format":{"s":"TkhXQw=="},"strides":{"list":{"i":["1","1","1","1"]}},"dilations":{"list":{"i":["1","1","1","1"]}},"padding":{"s":"U0FNRQ=="},"T":{"type":"DT_FLOAT"}}},
          {"name":"StatefulPartitionedCall/model/batch_normalization_33/FusedBatchNormV3","op":"_FusedConv2D","input":["StatefulPartitionedCall/model/depthwise_conv2d_32/depthwise","StatefulPartitionedCall/model/conv2d_33/Conv2D_weights","StatefulPartitionedCall/model/conv2d_33/Conv2D_bn_offset"],"device":"/device:CPU:0","attr":{"epsilon":{"f":0},"padding":{"s":"VkFMSUQ="},"fused_ops":{"list":{"s":["Qmlhc0FkZA=="]}},"dilations":{"list":{"i":["1","1","1","1"]}},"T":{"type":"DT_FLOAT"},"data_format":{"s":"TkhXQw=="},"strides":{"list":{"i":["1","1","1","1"]}},"use_cudnn_on_gpu":{"b":true},"explicit_paddings":{"list":{}},"num_args":{"i":"1"}}},
          {"name":"StatefulPartitionedCall/model/add_32/add","op":"AddV2","input":["StatefulPartitionedCall/model/activation_31/Relu","StatefulPartitionedCall/model/batch_normalization_33/FusedBatchNormV3"],"attr":{"T":{"type":"DT_FLOAT"}}},
          {"name":"StatefulPartitionedCall/model/activation_32/Relu","op":"Relu","input":["StatefulPartitionedCall/model/add_32/add"],"attr":{"T":{"type":"DT_FLOAT"}}},
          {"name":"StatefulPartitionedCall/model/depthwise_conv2d_33/depthwise","op":"DepthwiseConv2dNative","input":["StatefulPartitionedCall/model/activation_32/Relu","StatefulPartitionedCall/model/depthwise_conv2d_33/depthwise/ReadVariableOp"],"attr":{"data_format":{"s":"TkhXQw=="},"strides":{"list":{"i":["1","1","1","1"]}},"dilations":{"list":{"i":["1","1","1","1"]}},"padding":{"s":"U0FNRQ=="},"T":{"type":"DT_FLOAT"}}},
          {"name":"StatefulPartitionedCall/model/batch_normalization_34/FusedBatchNormV3","op":"_FusedConv2D","input":["StatefulPartitionedCall/model/depthwise_conv2d_33/depthwise","StatefulPartitionedCall/model/conv2d_34/Conv2D_weights","StatefulPartitionedCall/model/conv2d_34/Conv2D_bn_offset"],"device":"/device:CPU:0","attr":{"dilations":{"list":{"i":["1","1","1","1"]}},"T":{"type":"DT_FLOAT"},"data_format":{"s":"TkhXQw=="},"strides":{"list":{"i":["1","1","1","1"]}},"explicit_paddings":{"list":{}},"use_cudnn_on_gpu":{"b":true},"num_args":{"i":"1"},"epsilon":{"f":0},"padding":{"s":"VkFMSUQ="},"fused_ops":{"list":{"s":["Qmlhc0FkZA=="]}}}},
          {"name":"StatefulPartitionedCall/model/add_33/add","op":"AddV2","input":["StatefulPartitionedCall/model/activation_32/Relu","StatefulPartitionedCall/model/batch_normalization_34/FusedBatchNormV3"],"attr":{"T":{"type":"DT_FLOAT"}}},
          {"name":"StatefulPartitionedCall/model/activation_33/Relu","op":"Relu","input":["StatefulPartitionedCall/model/add_33/add"],"attr":{"T":{"type":"DT_FLOAT"}}},
          {"name":"StatefulPartitionedCall/model/depthwise_conv2d_34/depthwise","op":"DepthwiseConv2dNative","input":["StatefulPartitionedCall/model/activation_33/Relu","StatefulPartitionedCall/model/depthwise_conv2d_34/depthwise/ReadVariableOp"],"attr":{"T":{"type":"DT_FLOAT"},"strides":{"list":{"i":["1","1","1","1"]}},"data_format":{"s":"TkhXQw=="},"dilations":{"list":{"i":["1","1","1","1"]}},"padding":{"s":"U0FNRQ=="}}},
          {"name":"StatefulPartitionedCall/model/batch_normalization_35/FusedBatchNormV3","op":"_FusedConv2D","input":["StatefulPartitionedCall/model/depthwise_conv2d_34/depthwise","StatefulPartitionedCall/model/conv2d_35/Conv2D_weights","StatefulPartitionedCall/model/conv2d_35/Conv2D_bn_offset"],"device":"/device:CPU:0","attr":{"T":{"type":"DT_FLOAT"},"data_format":{"s":"TkhXQw=="},"strides":{"list":{"i":["1","1","1","1"]}},"use_cudnn_on_gpu":{"b":true},"explicit_paddings":{"list":{}},"num_args":{"i":"1"},"epsilon":{"f":0},"padding":{"s":"VkFMSUQ="},"fused_ops":{"list":{"s":["Qmlhc0FkZA=="]}},"dilations":{"list":{"i":["1","1","1","1"]}}}},
          {"name":"StatefulPartitionedCall/model/add_34/add","op":"AddV2","input":["StatefulPartitionedCall/model/activation_33/Relu","StatefulPartitionedCall/model/batch_normalization_35/FusedBatchNormV3"],"attr":{"T":{"type":"DT_FLOAT"}}},
          {"name":"StatefulPartitionedCall/model/activation_34/Relu","op":"Relu","input":["StatefulPartitionedCall/model/add_34/add"],"attr":{"T":{"type":"DT_FLOAT"}}},
          {"name":"StatefulPartitionedCall/model/depthwise_conv2d_35/depthwise","op":"DepthwiseConv2dNative","input":["StatefulPartitionedCall/model/activation_34/Relu","StatefulPartitionedCall/model/depthwise_conv2d_35/depthwise/ReadVariableOp"],"attr":{"strides":{"list":{"i":["1","1","1","1"]}},"data_format":{"s":"TkhXQw=="},"dilations":{"list":{"i":["1","1","1","1"]}},"padding":{"s":"U0FNRQ=="},"T":{"type":"DT_FLOAT"}}},
          {"name":"StatefulPartitionedCall/model/batch_normalization_36/FusedBatchNormV3","op":"_FusedConv2D","input":["StatefulPartitionedCall/model/depthwise_conv2d_35/depthwise","StatefulPartitionedCall/model/conv2d_36/Conv2D_weights","StatefulPartitionedCall/model/conv2d_36/Conv2D_bn_offset"],"device":"/device:CPU:0","attr":{"fused_ops":{"list":{"s":["Qmlhc0FkZA=="]}},"dilations":{"list":{"i":["1","1","1","1"]}},"T":{"type":"DT_FLOAT"},"data_format":{"s":"TkhXQw=="},"strides":{"list":{"i":["1","1","1","1"]}},"explicit_paddings":{"list":{}},"use_cudnn_on_gpu":{"b":true},"num_args":{"i":"1"},"epsilon":{"f":0},"padding":{"s":"VkFMSUQ="}}},
          {"name":"StatefulPartitionedCall/model/add_35/add","op":"AddV2","input":["StatefulPartitionedCall/model/activation_34/Relu","StatefulPartitionedCall/model/batch_normalization_36/FusedBatchNormV3"],"attr":{"T":{"type":"DT_FLOAT"}}},
          {"name":"StatefulPartitionedCall/model/activation_35/Relu","op":"Relu","input":["StatefulPartitionedCall/model/add_35/add"],"attr":{"T":{"type":"DT_FLOAT"}}},
          {"name":"StatefulPartitionedCall/model/depthwise_conv2d_36/depthwise","op":"DepthwiseConv2dNative","input":["StatefulPartitionedCall/model/activation_35/Relu","StatefulPartitionedCall/model/depthwise_conv2d_36/depthwise/ReadVariableOp"],"attr":{"strides":{"list":{"i":["1","1","1","1"]}},"data_format":{"s":"TkhXQw=="},"dilations":{"list":{"i":["1","1","1","1"]}},"padding":{"s":"U0FNRQ=="},"T":{"type":"DT_FLOAT"}}},
          {"name":"StatefulPartitionedCall/model/batch_normalization_37/FusedBatchNormV3","op":"_FusedConv2D","input":["StatefulPartitionedCall/model/depthwise_conv2d_36/depthwise","StatefulPartitionedCall/model/conv2d_37/Conv2D_weights","StatefulPartitionedCall/model/conv2d_37/Conv2D_bn_offset"],"device":"/device:CPU:0","attr":{"epsilon":{"f":0},"padding":{"s":"VkFMSUQ="},"fused_ops":{"list":{"s":["Qmlhc0FkZA=="]}},"dilations":{"list":{"i":["1","1","1","1"]}},"T":{"type":"DT_FLOAT"},"strides":{"list":{"i":["1","1","1","1"]}},"data_format":{"s":"TkhXQw=="},"use_cudnn_on_gpu":{"b":true},"explicit_paddings":{"list":{}},"num_args":{"i":"1"}}},
          {"name":"StatefulPartitionedCall/model/add_36/add","op":"AddV2","input":["StatefulPartitionedCall/model/activation_35/Relu","StatefulPartitionedCall/model/batch_normalization_37/FusedBatchNormV3"],"attr":{"T":{"type":"DT_FLOAT"}}},
          {"name":"StatefulPartitionedCall/model/activation_36/Relu","op":"Relu","input":["StatefulPartitionedCall/model/add_36/add"],"attr":{"T":{"type":"DT_FLOAT"}}},
          {"name":"StatefulPartitionedCall/model/depthwise_conv2d_37/depthwise","op":"DepthwiseConv2dNative","input":["StatefulPartitionedCall/model/activation_36/Relu","StatefulPartitionedCall/model/depthwise_conv2d_37/depthwise/ReadVariableOp"],"attr":{"T":{"type":"DT_FLOAT"},"strides":{"list":{"i":["1","1","1","1"]}},"data_format":{"s":"TkhXQw=="},"dilations":{"list":{"i":["1","1","1","1"]}},"padding":{"s":"U0FNRQ=="}}},
          {"name":"StatefulPartitionedCall/model/batch_normalization_38/FusedBatchNormV3","op":"_FusedConv2D","input":["StatefulPartitionedCall/model/depthwise_conv2d_37/depthwise","StatefulPartitionedCall/model/conv2d_38/Conv2D_weights","StatefulPartitionedCall/model/conv2d_38/Conv2D_bn_offset"],"device":"/device:CPU:0","attr":{"dilations":{"list":{"i":["1","1","1","1"]}},"T":{"type":"DT_FLOAT"},"strides":{"list":{"i":["1","1","1","1"]}},"data_format":{"s":"TkhXQw=="},"use_cudnn_on_gpu":{"b":true},"explicit_paddings":{"list":{}},"num_args":{"i":"1"},"epsilon":{"f":0},"padding":{"s":"VkFMSUQ="},"fused_ops":{"list":{"s":["Qmlhc0FkZA=="]}}}},
          {"name":"StatefulPartitionedCall/model/add_37/add","op":"AddV2","input":["StatefulPartitionedCall/model/activation_36/Relu","StatefulPartitionedCall/model/batch_normalization_38/FusedBatchNormV3"],"attr":{"T":{"type":"DT_FLOAT"}}},
          {"name":"StatefulPartitionedCall/model/activation_37/Relu","op":"Relu","input":["StatefulPartitionedCall/model/add_37/add"],"attr":{"T":{"type":"DT_FLOAT"}}},
          {"name":"StatefulPartitionedCall/model/max_pooling2d_5/MaxPool","op":"MaxPool","input":["StatefulPartitionedCall/model/activation_37/Relu"],"attr":{"ksize":{"list":{"i":["1","2","2","1"]}},"padding":{"s":"VkFMSUQ="},"T":{"type":"DT_FLOAT"},"data_format":{"s":"TkhXQw=="},"strides":{"list":{"i":["1","2","2","1"]}}}},
          {"name":"StatefulPartitionedCall/model/depthwise_conv2d_38/depthwise","op":"DepthwiseConv2dNative","input":["StatefulPartitionedCall/model/activation_37/Relu","StatefulPartitionedCall/model/depthwise_conv2d_38/depthwise/ReadVariableOp"],"attr":{"strides":{"list":{"i":["1","2","2","1"]}},"data_format":{"s":"TkhXQw=="},"dilations":{"list":{"i":["1","1","1","1"]}},"padding":{"s":"U0FNRQ=="},"T":{"type":"DT_FLOAT"}}},
          {"name":"StatefulPartitionedCall/model/batch_normalization_39/FusedBatchNormV3","op":"_FusedConv2D","input":["StatefulPartitionedCall/model/depthwise_conv2d_38/depthwise","StatefulPartitionedCall/model/conv2d_39/Conv2D_weights","StatefulPartitionedCall/model/conv2d_39/Conv2D_bn_offset"],"device":"/device:CPU:0","attr":{"num_args":{"i":"1"},"epsilon":{"f":0},"padding":{"s":"VkFMSUQ="},"fused_ops":{"list":{"s":["Qmlhc0FkZA=="]}},"dilations":{"list":{"i":["1","1","1","1"]}},"T":{"type":"DT_FLOAT"},"strides":{"list":{"i":["1","1","1","1"]}},"data_format":{"s":"TkhXQw=="},"explicit_paddings":{"list":{}},"use_cudnn_on_gpu":{"b":true}}},
          {"name":"StatefulPartitionedCall/model/add_38/add","op":"AddV2","input":["StatefulPartitionedCall/model/batch_normalization_39/FusedBatchNormV3","StatefulPartitionedCall/model/max_pooling2d_5/MaxPool"],"attr":{"T":{"type":"DT_FLOAT"}}},
          {"name":"StatefulPartitionedCall/model/activation_38/Relu","op":"Relu","input":["StatefulPartitionedCall/model/add_38/add"],"attr":{"T":{"type":"DT_FLOAT"}}},
          {"name":"StatefulPartitionedCall/model/depthwise_conv2d_39/depthwise","op":"DepthwiseConv2dNative","input":["StatefulPartitionedCall/model/activation_38/Relu","StatefulPartitionedCall/model/depthwise_conv2d_39/depthwise/ReadVariableOp"],"attr":{"dilations":{"list":{"i":["1","1","1","1"]}},"padding":{"s":"U0FNRQ=="},"T":{"type":"DT_FLOAT"},"strides":{"list":{"i":["1","1","1","1"]}},"data_format":{"s":"TkhXQw=="}}},
          {"name":"StatefulPartitionedCall/model/batch_normalization_40/FusedBatchNormV3","op":"_FusedConv2D","input":["StatefulPartitionedCall/model/depthwise_conv2d_39/depthwise","StatefulPartitionedCall/model/conv2d_40/Conv2D_weights","StatefulPartitionedCall/model/conv2d_40/Conv2D_bn_offset"],"device":"/device:CPU:0","attr":{"dilations":{"list":{"i":["1","1","1","1"]}},"T":{"type":"DT_FLOAT"},"strides":{"list":{"i":["1","1","1","1"]}},"data_format":{"s":"TkhXQw=="},"use_cudnn_on_gpu":{"b":true},"explicit_paddings":{"list":{}},"num_args":{"i":"1"},"epsilon":{"f":0},"padding":{"s":"VkFMSUQ="},"fused_ops":{"list":{"s":["Qmlhc0FkZA=="]}}}},
          {"name":"StatefulPartitionedCall/model/add_39/add","op":"AddV2","input":["StatefulPartitionedCall/model/activation_38/Relu","StatefulPartitionedCall/model/batch_normalization_40/FusedBatchNormV3"],"attr":{"T":{"type":"DT_FLOAT"}}},
          {"name":"StatefulPartitionedCall/model/activation_39/Relu","op":"Relu","input":["StatefulPartitionedCall/model/add_39/add"],"attr":{"T":{"type":"DT_FLOAT"}}},
          {"name":"StatefulPartitionedCall/model/depthwise_conv2d_40/depthwise","op":"DepthwiseConv2dNative","input":["StatefulPartitionedCall/model/activation_39/Relu","StatefulPartitionedCall/model/depthwise_conv2d_40/depthwise/ReadVariableOp"],"attr":{"dilations":{"list":{"i":["1","1","1","1"]}},"padding":{"s":"U0FNRQ=="},"T":{"type":"DT_FLOAT"},"strides":{"list":{"i":["1","1","1","1"]}},"data_format":{"s":"TkhXQw=="}}},
          {"name":"StatefulPartitionedCall/model/batch_normalization_41/FusedBatchNormV3","op":"_FusedConv2D","input":["StatefulPartitionedCall/model/depthwise_conv2d_40/depthwise","StatefulPartitionedCall/model/conv2d_41/Conv2D_weights","StatefulPartitionedCall/model/conv2d_41/Conv2D_bn_offset"],"device":"/device:CPU:0","attr":{"dilations":{"list":{"i":["1","1","1","1"]}},"T":{"type":"DT_FLOAT"},"data_format":{"s":"TkhXQw=="},"strides":{"list":{"i":["1","1","1","1"]}},"use_cudnn_on_gpu":{"b":true},"explicit_paddings":{"list":{}},"num_args":{"i":"1"},"epsilon":{"f":0},"padding":{"s":"VkFMSUQ="},"fused_ops":{"list":{"s":["Qmlhc0FkZA=="]}}}},
          {"name":"StatefulPartitionedCall/model/add_40/add","op":"AddV2","input":["StatefulPartitionedCall/model/activation_39/Relu","StatefulPartitionedCall/model/batch_normalization_41/FusedBatchNormV3"],"attr":{"T":{"type":"DT_FLOAT"}}},
          {"name":"StatefulPartitionedCall/model/activation_40/Relu","op":"Relu","input":["StatefulPartitionedCall/model/add_40/add"],"attr":{"T":{"type":"DT_FLOAT"}}},
          {"name":"StatefulPartitionedCall/model/depthwise_conv2d_41/depthwise","op":"DepthwiseConv2dNative","input":["StatefulPartitionedCall/model/activation_40/Relu","StatefulPartitionedCall/model/depthwise_conv2d_41/depthwise/ReadVariableOp"],"attr":{"padding":{"s":"U0FNRQ=="},"dilations":{"list":{"i":["1","1","1","1"]}},"T":{"type":"DT_FLOAT"},"strides":{"list":{"i":["1","1","1","1"]}},"data_format":{"s":"TkhXQw=="}}},
          {"name":"StatefulPartitionedCall/model/batch_normalization_42/FusedBatchNormV3","op":"_FusedConv2D","input":["StatefulPartitionedCall/model/depthwise_conv2d_41/depthwise","StatefulPartitionedCall/model/conv2d_42/Conv2D_weights","StatefulPartitionedCall/model/conv2d_42/Conv2D_bn_offset"],"device":"/device:CPU:0","attr":{"T":{"type":"DT_FLOAT"},"data_format":{"s":"TkhXQw=="},"strides":{"list":{"i":["1","1","1","1"]}},"use_cudnn_on_gpu":{"b":true},"explicit_paddings":{"list":{}},"num_args":{"i":"1"},"epsilon":{"f":0},"padding":{"s":"VkFMSUQ="},"fused_ops":{"list":{"s":["Qmlhc0FkZA=="]}},"dilations":{"list":{"i":["1","1","1","1"]}}}},
          {"name":"StatefulPartitionedCall/model/add_41/add","op":"AddV2","input":["StatefulPartitionedCall/model/activation_40/Relu","StatefulPartitionedCall/model/batch_normalization_42/FusedBatchNormV3"],"attr":{"T":{"type":"DT_FLOAT"}}},
          {"name":"StatefulPartitionedCall/model/activation_41/Relu","op":"Relu","input":["StatefulPartitionedCall/model/add_41/add"],"attr":{"T":{"type":"DT_FLOAT"}}},
          {"name":"StatefulPartitionedCall/model/depthwise_conv2d_42/depthwise","op":"DepthwiseConv2dNative","input":["StatefulPartitionedCall/model/activation_41/Relu","StatefulPartitionedCall/model/depthwise_conv2d_42/depthwise/ReadVariableOp"],"attr":{"padding":{"s":"U0FNRQ=="},"dilations":{"list":{"i":["1","1","1","1"]}},"T":{"type":"DT_FLOAT"},"strides":{"list":{"i":["1","1","1","1"]}},"data_format":{"s":"TkhXQw=="}}},
          {"name":"StatefulPartitionedCall/model/batch_normalization_43/FusedBatchNormV3","op":"_FusedConv2D","input":["StatefulPartitionedCall/model/depthwise_conv2d_42/depthwise","StatefulPartitionedCall/model/conv2d_43/Conv2D_weights","StatefulPartitionedCall/model/conv2d_43/Conv2D_bn_offset"],"device":"/device:CPU:0","attr":{"dilations":{"list":{"i":["1","1","1","1"]}},"T":{"type":"DT_FLOAT"},"strides":{"list":{"i":["1","1","1","1"]}},"data_format":{"s":"TkhXQw=="},"explicit_paddings":{"list":{}},"use_cudnn_on_gpu":{"b":true},"num_args":{"i":"1"},"epsilon":{"f":0},"padding":{"s":"VkFMSUQ="},"fused_ops":{"list":{"s":["Qmlhc0FkZA=="]}}}},
          {"name":"StatefulPartitionedCall/model/add_42/add","op":"AddV2","input":["StatefulPartitionedCall/model/activation_41/Relu","StatefulPartitionedCall/model/batch_normalization_43/FusedBatchNormV3"],"attr":{"T":{"type":"DT_FLOAT"}}},
          {"name":"StatefulPartitionedCall/model/activation_42/Relu","op":"Relu","input":["StatefulPartitionedCall/model/add_42/add"],"attr":{"T":{"type":"DT_FLOAT"}}},
          {"name":"StatefulPartitionedCall/model/depthwise_conv2d_43/depthwise","op":"DepthwiseConv2dNative","input":["StatefulPartitionedCall/model/activation_42/Relu","StatefulPartitionedCall/model/depthwise_conv2d_43/depthwise/ReadVariableOp"],"attr":{"dilations":{"list":{"i":["1","1","1","1"]}},"padding":{"s":"U0FNRQ=="},"T":{"type":"DT_FLOAT"},"data_format":{"s":"TkhXQw=="},"strides":{"list":{"i":["1","1","1","1"]}}}},
          {"name":"StatefulPartitionedCall/model/batch_normalization_44/FusedBatchNormV3","op":"_FusedConv2D","input":["StatefulPartitionedCall/model/depthwise_conv2d_43/depthwise","StatefulPartitionedCall/model/conv2d_44/Conv2D_weights","StatefulPartitionedCall/model/conv2d_44/Conv2D_bn_offset"],"device":"/device:CPU:0","attr":{"strides":{"list":{"i":["1","1","1","1"]}},"data_format":{"s":"TkhXQw=="},"use_cudnn_on_gpu":{"b":true},"explicit_paddings":{"list":{}},"num_args":{"i":"1"},"epsilon":{"f":0},"padding":{"s":"VkFMSUQ="},"fused_ops":{"list":{"s":["Qmlhc0FkZA=="]}},"dilations":{"list":{"i":["1","1","1","1"]}},"T":{"type":"DT_FLOAT"}}},
          {"name":"StatefulPartitionedCall/model/add_43/add","op":"AddV2","input":["StatefulPartitionedCall/model/activation_42/Relu","StatefulPartitionedCall/model/batch_normalization_44/FusedBatchNormV3"],"attr":{"T":{"type":"DT_FLOAT"}}},
          {"name":"StatefulPartitionedCall/model/activation_43/Relu","op":"Relu","input":["StatefulPartitionedCall/model/add_43/add"],"attr":{"T":{"type":"DT_FLOAT"}}},
          {"name":"StatefulPartitionedCall/model/depthwise_conv2d_44/depthwise","op":"DepthwiseConv2dNative","input":["StatefulPartitionedCall/model/activation_43/Relu","StatefulPartitionedCall/model/depthwise_conv2d_44/depthwise/ReadVariableOp"],"attr":{"padding":{"s":"U0FNRQ=="},"dilations":{"list":{"i":["1","1","1","1"]}},"T":{"type":"DT_FLOAT"},"strides":{"list":{"i":["1","1","1","1"]}},"data_format":{"s":"TkhXQw=="}}},
          {"name":"StatefulPartitionedCall/model/batch_normalization_45/FusedBatchNormV3","op":"_FusedConv2D","input":["StatefulPartitionedCall/model/depthwise_conv2d_44/depthwise","StatefulPartitionedCall/model/conv2d_45/Conv2D_weights","StatefulPartitionedCall/model/conv2d_45/Conv2D_bn_offset"],"device":"/device:CPU:0","attr":{"data_format":{"s":"TkhXQw=="},"strides":{"list":{"i":["1","1","1","1"]}},"explicit_paddings":{"list":{}},"use_cudnn_on_gpu":{"b":true},"num_args":{"i":"1"},"epsilon":{"f":0},"padding":{"s":"VkFMSUQ="},"fused_ops":{"list":{"s":["Qmlhc0FkZA=="]}},"dilations":{"list":{"i":["1","1","1","1"]}},"T":{"type":"DT_FLOAT"}}},
          {"name":"StatefulPartitionedCall/model/add_44/add","op":"AddV2","input":["StatefulPartitionedCall/model/activation_43/Relu","StatefulPartitionedCall/model/batch_normalization_45/FusedBatchNormV3"],"attr":{"T":{"type":"DT_FLOAT"}}},
          {"name":"StatefulPartitionedCall/model/activation_44/Relu","op":"Relu","input":["StatefulPartitionedCall/model/add_44/add"],"attr":{"T":{"type":"DT_FLOAT"}}},
          {"name":"StatefulPartitionedCall/model/conv_handflag/BiasAdd","op":"_FusedConv2D","input":["StatefulPartitionedCall/model/activation_44/Relu","StatefulPartitionedCall/model/conv_handflag/Conv2D/ReadVariableOp","StatefulPartitionedCall/model/conv_handflag/BiasAdd/ReadVariableOp"],"device":"/device:CPU:0","attr":{"num_args":{"i":"1"},"epsilon":{"f":0},"padding":{"s":"VkFMSUQ="},"fused_ops":{"list":{"s":["Qmlhc0FkZA=="]}},"dilations":{"list":{"i":["1","1","1","1"]}},"T":{"type":"DT_FLOAT"},"strides":{"list":{"i":["1","1","1","1"]}},"data_format":{"s":"TkhXQw=="},"use_cudnn_on_gpu":{"b":true},"explicit_paddings":{"list":{}}}},
          {"name":"StatefulPartitionedCall/model/convld_21_3d/BiasAdd","op":"_FusedConv2D","input":["StatefulPartitionedCall/model/activation_44/Relu","StatefulPartitionedCall/model/convld_21_3d/Conv2D/ReadVariableOp","StatefulPartitionedCall/model/convld_21_3d/BiasAdd/ReadVariableOp"],"device":"/device:CPU:0","attr":{"dilations":{"list":{"i":["1","1","1","1"]}},"T":{"type":"DT_FLOAT"},"data_format":{"s":"TkhXQw=="},"strides":{"list":{"i":["1","1","1","1"]}},"explicit_paddings":{"list":{}},"use_cudnn_on_gpu":{"b":true},"num_args":{"i":"1"},"epsilon":{"f":0},"padding":{"s":"VkFMSUQ="},"fused_ops":{"list":{"s":["Qmlhc0FkZA=="]}}}},
          {"name":"StatefulPartitionedCall/model/activation_handflag/Sigmoid","op":"Sigmoid","input":["StatefulPartitionedCall/model/conv_handflag/BiasAdd"],"attr":{"T":{"type":"DT_FLOAT"}}},
          {"name":"StatefulPartitionedCall/model/ld_21_3d/Reshape","op":"Reshape","input":["StatefulPartitionedCall/model/convld_21_3d/BiasAdd","StatefulPartitionedCall/model/ld_21_3d/Reshape/shape"],"attr":{"T":{"type":"DT_FLOAT"},"Tshape":{"type":"DT_INT32"}}},
          {"name":"StatefulPartitionedCall/model/output_handflag/Reshape","op":"Reshape","input":["StatefulPartitionedCall/model/activation_handflag/Sigmoid","StatefulPartitionedCall/model/ld_21_3d/Reshape/shape"],"attr":{"T":{"type":"DT_FLOAT"},"Tshape":{"type":"DT_INT32"}}},
          {"name":"Identity","op":"Identity","input":["StatefulPartitionedCall/model/ld_21_3d/Reshape","^Func/StatefulPartitionedCall/output_control_node/_285"],"attr":{"T":{"type":"DT_FLOAT"}}},
          {"name":"Identity_1","op":"Identity","input":["StatefulPartitionedCall/model/output_handflag/Reshape","^Func/StatefulPartitionedCall/output_control_node/_285"],"attr":{"T":{"type":"DT_FLOAT"}}}
      ],
      "library": {},
      "versions": {}
  },
  "weightsManifest":
  [
      {
          "paths": ["handskeleton.bin"],
          "weights": [{"name":"StatefulPartitionedCall/model/conv2d/Conv2D_weights","shape":[3,3,3,32],"dtype":"float32"},{"name":"StatefulPartitionedCall/model/conv2d_40/Conv2D_bn_offset","shape":[192],"dtype":"float32"},{"name":"StatefulPartitionedCall/model/conv2d/Conv2D_bn_offset","shape":[32],"dtype":"float32"},{"name":"StatefulPartitionedCall/model/conv2d_1/Conv2D_weights","shape":[1,1,32,32],"dtype":"float32"},{"name":"StatefulPartitionedCall/model/conv2d_1/Conv2D_bn_offset","shape":[32],"dtype":"float32"},{"name":"StatefulPartitionedCall/model/conv2d_2/Conv2D_weights","shape":[1,1,32,32],"dtype":"float32"},{"name":"StatefulPartitionedCall/model/conv2d_2/Conv2D_bn_offset","shape":[32],"dtype":"float32"},{"name":"StatefulPartitionedCall/model/conv2d_3/Conv2D_weights","shape":[1,1,32,32],"dtype":"float32"},{"name":"StatefulPartitionedCall/model/conv2d_3/Conv2D_bn_offset","shape":[32],"dtype":"float32"},{"name":"StatefulPartitionedCall/model/conv2d_4/Conv2D_weights","shape":[1,1,32,32],"dtype":"float32"},{"name":"StatefulPartitionedCall/model/conv2d_4/Conv2D_bn_offset","shape":[32],"dtype":"float32"},{"name":"StatefulPartitionedCall/model/conv2d_5/Conv2D_weights","shape":[1,1,32,64],"dtype":"float32"},{"name":"StatefulPartitionedCall/model/conv2d_41/Conv2D_weights","shape":[1,1,192,192],"dtype":"float32"},{"name":"StatefulPartitionedCall/model/conv2d_5/Conv2D_bn_offset","shape":[64],"dtype":"float32"},{"name":"StatefulPartitionedCall/model/conv2d_6/Conv2D_weights","shape":[1,1,64,64],"dtype":"float32"},{"name":"StatefulPartitionedCall/model/conv2d_6/Conv2D_bn_offset","shape":[64],"dtype":"float32"},{"name":"StatefulPartitionedCall/model/conv2d_7/Conv2D_weights","shape":[1,1,64,64],"dtype":"float32"},{"name":"StatefulPartitionedCall/model/conv2d_41/Conv2D_bn_offset","shape":[192],"dtype":"float32"},{"name":"StatefulPartitionedCall/model/conv2d_7/Conv2D_bn_offset","shape":[64],"dtype":"float32"},{"name":"StatefulPartitionedCall/model/conv2d_8/Conv2D_weights","shape":[1,1,64,64],"dtype":"float32"},{"name":"StatefulPartitionedCall/model/conv2d_8/Conv2D_bn_offset","shape":[64],"dtype":"float32"},{"name":"StatefulPartitionedCall/model/conv2d_9/Conv2D_weights","shape":[1,1,64,64],"dtype":"float32"},{"name":"StatefulPartitionedCall/model/conv2d_9/Conv2D_bn_offset","shape":[64],"dtype":"float32"},{"name":"StatefulPartitionedCall/model/conv2d_10/Conv2D_weights","shape":[1,1,64,64],"dtype":"float32"},{"name":"StatefulPartitionedCall/model/conv2d_10/Conv2D_bn_offset","shape":[64],"dtype":"float32"},{"name":"StatefulPartitionedCall/model/conv2d_11/Conv2D_weights","shape":[1,1,64,128],"dtype":"float32"},{"name":"StatefulPartitionedCall/model/conv2d_11/Conv2D_bn_offset","shape":[128],"dtype":"float32"},{"name":"StatefulPartitionedCall/model/conv2d_12/Conv2D_weights","shape":[1,1,128,128],"dtype":"float32"},{"name":"StatefulPartitionedCall/model/conv2d_42/Conv2D_weights","shape":[1,1,192,192],"dtype":"float32"},{"name":"StatefulPartitionedCall/model/conv2d_12/Conv2D_bn_offset","shape":[128],"dtype":"float32"},{"name":"StatefulPartitionedCall/model/conv2d_13/Conv2D_weights","shape":[1,1,128,128],"dtype":"float32"},{"name":"StatefulPartitionedCall/model/conv2d_13/Conv2D_bn_offset","shape":[128],"dtype":"float32"},{"name":"StatefulPartitionedCall/model/conv2d_14/Conv2D_weights","shape":[1,1,128,128],"dtype":"float32"},{"name":"StatefulPartitionedCall/model/conv2d_42/Conv2D_bn_offset","shape":[192],"dtype":"float32"},{"name":"StatefulPartitionedCall/model/conv2d_14/Conv2D_bn_offset","shape":[128],"dtype":"float32"},{"name":"StatefulPartitionedCall/model/conv2d_15/Conv2D_weights","shape":[1,1,128,128],"dtype":"float32"},{"name":"StatefulPartitionedCall/model/conv2d_15/Conv2D_bn_offset","shape":[128],"dtype":"float32"},{"name":"StatefulPartitionedCall/model/conv2d_16/Conv2D_weights","shape":[1,1,128,128],"dtype":"float32"},{"name":"StatefulPartitionedCall/model/conv2d_16/Conv2D_bn_offset","shape":[128],"dtype":"float32"},{"name":"StatefulPartitionedCall/model/conv2d_17/Conv2D_weights","shape":[1,1,128,128],"dtype":"float32"},{"name":"StatefulPartitionedCall/model/conv2d_17/Conv2D_bn_offset","shape":[128],"dtype":"float32"},{"name":"StatefulPartitionedCall/model/conv2d_18/Conv2D_weights","shape":[1,1,128,192],"dtype":"float32"},{"name":"StatefulPartitionedCall/model/conv2d_18/Conv2D_bn_offset","shape":[192],"dtype":"float32"},{"name":"StatefulPartitionedCall/model/conv2d_19/Conv2D_weights","shape":[1,1,192,192],"dtype":"float32"},{"name":"StatefulPartitionedCall/model/conv2d_43/Conv2D_weights","shape":[1,1,192,192],"dtype":"float32"},{"name":"StatefulPartitionedCall/model/conv2d_19/Conv2D_bn_offset","shape":[192],"dtype":"float32"},{"name":"StatefulPartitionedCall/model/conv2d_20/Conv2D_weights","shape":[1,1,192,192],"dtype":"float32"},{"name":"StatefulPartitionedCall/model/conv2d_20/Conv2D_bn_offset","shape":[192],"dtype":"float32"},{"name":"StatefulPartitionedCall/model/conv2d_21/Conv2D_weights","shape":[1,1,192,192],"dtype":"float32"},{"name":"StatefulPartitionedCall/model/conv2d_43/Conv2D_bn_offset","shape":[192],"dtype":"float32"},{"name":"StatefulPartitionedCall/model/conv2d_21/Conv2D_bn_offset","shape":[192],"dtype":"float32"},{"name":"StatefulPartitionedCall/model/conv2d_22/Conv2D_weights","shape":[1,1,192,192],"dtype":"float32"},{"name":"StatefulPartitionedCall/model/conv2d_22/Conv2D_bn_offset","shape":[192],"dtype":"float32"},{"name":"StatefulPartitionedCall/model/conv2d_23/Conv2D_weights","shape":[1,1,192,192],"dtype":"float32"},{"name":"StatefulPartitionedCall/model/conv2d_23/Conv2D_bn_offset","shape":[192],"dtype":"float32"},{"name":"StatefulPartitionedCall/model/conv2d_24/Conv2D_weights","shape":[1,1,192,192],"dtype":"float32"},{"name":"StatefulPartitionedCall/model/conv2d_24/Conv2D_bn_offset","shape":[192],"dtype":"float32"},{"name":"StatefulPartitionedCall/model/conv2d_25/Conv2D_weights","shape":[1,1,192,192],"dtype":"float32"},{"name":"StatefulPartitionedCall/model/conv2d_25/Conv2D_bn_offset","shape":[192],"dtype":"float32"},{"name":"StatefulPartitionedCall/model/conv2d_26/Conv2D_weights","shape":[1,1,192,192],"dtype":"float32"},{"name":"StatefulPartitionedCall/model/conv2d_44/Conv2D_weights","shape":[1,1,192,192],"dtype":"float32"},{"name":"StatefulPartitionedCall/model/conv2d_26/Conv2D_bn_offset","shape":[192],"dtype":"float32"},{"name":"StatefulPartitionedCall/model/conv2d_27/Conv2D_weights","shape":[1,1,192,192],"dtype":"float32"},{"name":"StatefulPartitionedCall/model/conv2d_27/Conv2D_bn_offset","shape":[192],"dtype":"float32"},{"name":"StatefulPartitionedCall/model/conv2d_28/Conv2D_weights","shape":[1,1,192,192],"dtype":"float32"},{"name":"StatefulPartitionedCall/model/conv2d_44/Conv2D_bn_offset","shape":[192],"dtype":"float32"},{"name":"StatefulPartitionedCall/model/conv2d_28/Conv2D_bn_offset","shape":[192],"dtype":"float32"},{"name":"StatefulPartitionedCall/model/conv2d_29/Conv2D_weights","shape":[1,1,192,192],"dtype":"float32"},{"name":"StatefulPartitionedCall/model/conv2d_29/Conv2D_bn_offset","shape":[192],"dtype":"float32"},{"name":"StatefulPartitionedCall/model/conv2d_30/Conv2D_weights","shape":[1,1,192,192],"dtype":"float32"},{"name":"StatefulPartitionedCall/model/conv2d_30/Conv2D_bn_offset","shape":[192],"dtype":"float32"},{"name":"StatefulPartitionedCall/model/conv2d_31/Conv2D_weights","shape":[1,1,192,192],"dtype":"float32"},{"name":"StatefulPartitionedCall/model/conv2d_31/Conv2D_bn_offset","shape":[192],"dtype":"float32"},{"name":"StatefulPartitionedCall/model/conv2d_32/Conv2D_weights","shape":[1,1,192,192],"dtype":"float32"},{"name":"StatefulPartitionedCall/model/conv2d_32/Conv2D_bn_offset","shape":[192],"dtype":"float32"},{"name":"StatefulPartitionedCall/model/conv2d_33/Conv2D_weights","shape":[1,1,192,192],"dtype":"float32"},{"name":"StatefulPartitionedCall/model/conv2d_45/Conv2D_weights","shape":[1,1,192,192],"dtype":"float32"},{"name":"StatefulPartitionedCall/model/conv2d_33/Conv2D_bn_offset","shape":[192],"dtype":"float32"},{"name":"StatefulPartitionedCall/model/conv2d_34/Conv2D_weights","shape":[1,1,192,192],"dtype":"float32"},{"name":"StatefulPartitionedCall/model/conv2d_34/Conv2D_bn_offset","shape":[192],"dtype":"float32"},{"name":"StatefulPartitionedCall/model/conv2d_35/Conv2D_weights","shape":[1,1,192,192],"dtype":"float32"},{"name":"StatefulPartitionedCall/model/conv2d_45/Conv2D_bn_offset","shape":[192],"dtype":"float32"},{"name":"StatefulPartitionedCall/model/conv2d_35/Conv2D_bn_offset","shape":[192],"dtype":"float32"},{"name":"StatefulPartitionedCall/model/conv2d_36/Conv2D_weights","shape":[1,1,192,192],"dtype":"float32"},{"name":"StatefulPartitionedCall/model/conv2d_36/Conv2D_bn_offset","shape":[192],"dtype":"float32"},{"name":"StatefulPartitionedCall/model/conv2d_37/Conv2D_weights","shape":[1,1,192,192],"dtype":"float32"},{"name":"StatefulPartitionedCall/model/conv2d_37/Conv2D_bn_offset","shape":[192],"dtype":"float32"},{"name":"StatefulPartitionedCall/model/conv2d_38/Conv2D_weights","shape":[1,1,192,192],"dtype":"float32"},{"name":"StatefulPartitionedCall/model/conv2d_38/Conv2D_bn_offset","shape":[192],"dtype":"float32"},{"name":"StatefulPartitionedCall/model/conv2d_39/Conv2D_weights","shape":[1,1,192,192],"dtype":"float32"},{"name":"StatefulPartitionedCall/model/conv2d_39/Conv2D_bn_offset","shape":[192],"dtype":"float32"},{"name":"StatefulPartitionedCall/model/conv2d_40/Conv2D_weights","shape":[1,1,192,192],"dtype":"float32"},{"name":"StatefulPartitionedCall/model/depthwise_conv2d_41/depthwise/ReadVariableOp","shape":[5,5,192,1],"dtype":"float32"},{"name":"StatefulPartitionedCall/model/depthwise_conv2d_42/depthwise/ReadVariableOp","shape":[5,5,192,1],"dtype":"float32"},{"name":"StatefulPartitionedCall/model/depthwise_conv2d_43/depthwise/ReadVariableOp","shape":[5,5,192,1],"dtype":"float32"},{"name":"StatefulPartitionedCall/model/depthwise_conv2d_44/depthwise/ReadVariableOp","shape":[5,5,192,1],"dtype":"float32"},{"name":"StatefulPartitionedCall/model/convld_21_3d/Conv2D/ReadVariableOp","shape":[2,2,192,63],"dtype":"float32"},{"name":"StatefulPartitionedCall/model/convld_21_3d/BiasAdd/ReadVariableOp","shape":[63],"dtype":"float32"},{"name":"StatefulPartitionedCall/model/ld_21_3d/Reshape/shape","shape":[2],"dtype":"int32"},{"name":"StatefulPartitionedCall/model/conv_handflag/BiasAdd/ReadVariableOp","shape":[1],"dtype":"float32"},{"name":"StatefulPartitionedCall/model/conv_handflag/Conv2D/ReadVariableOp","shape":[2,2,192,1],"dtype":"float32"},{"name":"StatefulPartitionedCall/model/p_re_lu/Neg","shape":[1,1,32],"dtype":"float32"},{"name":"StatefulPartitionedCall/model/depthwise_conv2d/depthwise/ReadVariableOp","shape":[5,5,32,1],"dtype":"float32"},{"name":"StatefulPartitionedCall/model/depthwise_conv2d_1/depthwise/ReadVariableOp","shape":[5,5,32,1],"dtype":"float32"},{"name":"StatefulPartitionedCall/model/depthwise_conv2d_2/depthwise/ReadVariableOp","shape":[5,5,32,1],"dtype":"float32"},{"name":"StatefulPartitionedCall/model/depthwise_conv2d_3/depthwise/ReadVariableOp","shape":[5,5,32,1],"dtype":"float32"},{"name":"StatefulPartitionedCall/model/channel_padding/Pad/paddings","shape":[4,2],"dtype":"int32"},{"name":"StatefulPartitionedCall/model/depthwise_conv2d_4/depthwise/ReadVariableOp","shape":[5,5,32,1],"dtype":"float32"},{"name":"StatefulPartitionedCall/model/depthwise_conv2d_5/depthwise/ReadVariableOp","shape":[5,5,64,1],"dtype":"float32"},{"name":"StatefulPartitionedCall/model/depthwise_conv2d_6/depthwise/ReadVariableOp","shape":[5,5,64,1],"dtype":"float32"},{"name":"StatefulPartitionedCall/model/depthwise_conv2d_7/depthwise/ReadVariableOp","shape":[5,5,64,1],"dtype":"float32"},{"name":"StatefulPartitionedCall/model/depthwise_conv2d_8/depthwise/ReadVariableOp","shape":[5,5,64,1],"dtype":"float32"},{"name":"StatefulPartitionedCall/model/depthwise_conv2d_9/depthwise/ReadVariableOp","shape":[5,5,64,1],"dtype":"float32"},{"name":"StatefulPartitionedCall/model/channel_padding_1/Pad/paddings","shape":[4,2],"dtype":"int32"},{"name":"StatefulPartitionedCall/model/depthwise_conv2d_10/depthwise/ReadVariableOp","shape":[5,5,64,1],"dtype":"float32"},{"name":"StatefulPartitionedCall/model/depthwise_conv2d_11/depthwise/ReadVariableOp","shape":[5,5,128,1],"dtype":"float32"},{"name":"StatefulPartitionedCall/model/depthwise_conv2d_12/depthwise/ReadVariableOp","shape":[5,5,128,1],"dtype":"float32"},{"name":"StatefulPartitionedCall/model/depthwise_conv2d_13/depthwise/ReadVariableOp","shape":[5,5,128,1],"dtype":"float32"},{"name":"StatefulPartitionedCall/model/depthwise_conv2d_14/depthwise/ReadVariableOp","shape":[5,5,128,1],"dtype":"float32"},{"name":"StatefulPartitionedCall/model/depthwise_conv2d_15/depthwise/ReadVariableOp","shape":[5,5,128,1],"dtype":"float32"},{"name":"StatefulPartitionedCall/model/depthwise_conv2d_16/depthwise/ReadVariableOp","shape":[5,5,128,1],"dtype":"float32"},{"name":"StatefulPartitionedCall/model/depthwise_conv2d_17/depthwise/ReadVariableOp","shape":[5,5,128,1],"dtype":"float32"},{"name":"StatefulPartitionedCall/model/depthwise_conv2d_18/depthwise/ReadVariableOp","shape":[5,5,192,1],"dtype":"float32"},{"name":"StatefulPartitionedCall/model/depthwise_conv2d_19/depthwise/ReadVariableOp","shape":[5,5,192,1],"dtype":"float32"},{"name":"StatefulPartitionedCall/model/depthwise_conv2d_20/depthwise/ReadVariableOp","shape":[5,5,192,1],"dtype":"float32"},{"name":"StatefulPartitionedCall/model/depthwise_conv2d_21/depthwise/ReadVariableOp","shape":[5,5,192,1],"dtype":"float32"},{"name":"StatefulPartitionedCall/model/depthwise_conv2d_22/depthwise/ReadVariableOp","shape":[5,5,192,1],"dtype":"float32"},{"name":"StatefulPartitionedCall/model/depthwise_conv2d_23/depthwise/ReadVariableOp","shape":[5,5,192,1],"dtype":"float32"},{"name":"StatefulPartitionedCall/model/depthwise_conv2d_24/depthwise/ReadVariableOp","shape":[5,5,192,1],"dtype":"float32"},{"name":"StatefulPartitionedCall/model/depthwise_conv2d_25/depthwise/ReadVariableOp","shape":[5,5,192,1],"dtype":"float32"},{"name":"StatefulPartitionedCall/model/depthwise_conv2d_26/depthwise/ReadVariableOp","shape":[5,5,192,1],"dtype":"float32"},{"name":"StatefulPartitionedCall/model/depthwise_conv2d_27/depthwise/ReadVariableOp","shape":[5,5,192,1],"dtype":"float32"},{"name":"StatefulPartitionedCall/model/depthwise_conv2d_28/depthwise/ReadVariableOp","shape":[5,5,192,1],"dtype":"float32"},{"name":"StatefulPartitionedCall/model/depthwise_conv2d_29/depthwise/ReadVariableOp","shape":[5,5,192,1],"dtype":"float32"},{"name":"StatefulPartitionedCall/model/depthwise_conv2d_30/depthwise/ReadVariableOp","shape":[5,5,192,1],"dtype":"float32"},{"name":"StatefulPartitionedCall/model/depthwise_conv2d_31/depthwise/ReadVariableOp","shape":[5,5,192,1],"dtype":"float32"},{"name":"StatefulPartitionedCall/model/depthwise_conv2d_32/depthwise/ReadVariableOp","shape":[5,5,192,1],"dtype":"float32"},{"name":"StatefulPartitionedCall/model/depthwise_conv2d_33/depthwise/ReadVariableOp","shape":[5,5,192,1],"dtype":"float32"},{"name":"StatefulPartitionedCall/model/depthwise_conv2d_34/depthwise/ReadVariableOp","shape":[5,5,192,1],"dtype":"float32"},{"name":"StatefulPartitionedCall/model/depthwise_conv2d_35/depthwise/ReadVariableOp","shape":[5,5,192,1],"dtype":"float32"},{"name":"StatefulPartitionedCall/model/depthwise_conv2d_36/depthwise/ReadVariableOp","shape":[5,5,192,1],"dtype":"float32"},{"name":"StatefulPartitionedCall/model/depthwise_conv2d_37/depthwise/ReadVariableOp","shape":[5,5,192,1],"dtype":"float32"},{"name":"StatefulPartitionedCall/model/depthwise_conv2d_38/depthwise/ReadVariableOp","shape":[5,5,192,1],"dtype":"float32"},{"name":"StatefulPartitionedCall/model/depthwise_conv2d_39/depthwise/ReadVariableOp","shape":[5,5,192,1],"dtype":"float32"},{"name":"StatefulPartitionedCall/model/depthwise_conv2d_40/depthwise/ReadVariableOp","shape":[5,5,192,1],"dtype":"float32"}]
      }
  ]
}