{
  "format": "graph-model",
  "generatedBy": "2.3.1",
  "convertedBy": "https://github.com/vladmandic",
  "userDefinedMetadata":
  {
      "signature":
      {
          "outputs": {"embeddings":{"name":"embeddings"}}
      }
  },
  "modelTopology":
  {
      "node":
      [
          {"name":"MobileFaceNet/MobileFaceNet/Conv2d_6_InvResBlock_1/Conv/mul","op":"Const","attr":{"dtype":{"type":"DT_FLOAT"},"value":{"tensor":{"dtype":"DT_FLOAT","tensorShape":{"dim":[{"size":"256"}]}}}}},
          {"name":"MobileFaceNet/MobileFaceNet/Conv2d_6_InvResBlock_1/SeparableConv2d/mul","op":"Const","attr":{"dtype":{"type":"DT_FLOAT"},"value":{"tensor":{"dtype":"DT_FLOAT","tensorShape":{"dim":[{"size":"256"}]}}}}},
          {"name":"MobileFaceNet/MobileFaceNet/Conv2d_6_InvResBlock_0/Conv/mul","op":"Const","attr":{"value":{"tensor":{"dtype":"DT_FLOAT","tensorShape":{"dim":[{"size":"256"}]}}},"dtype":{"type":"DT_FLOAT"}}},
          {"name":"MobileFaceNet/MobileFaceNet/Conv2d_6_InvResBlock_0/SeparableConv2d/mul","op":"Const","attr":{"value":{"tensor":{"dtype":"DT_FLOAT","tensorShape":{"dim":[{"size":"256"}]}}},"dtype":{"type":"DT_FLOAT"}}},
          {"name":"MobileFaceNet/MobileFaceNet/Conv2d_4_InvResBlock_5/Conv/mul","op":"Const","attr":{"dtype":{"type":"DT_FLOAT"},"value":{"tensor":{"dtype":"DT_FLOAT","tensorShape":{"dim":[{"size":"256"}]}}}}},
          {"name":"MobileFaceNet/MobileFaceNet/Conv2d_4_InvResBlock_5/SeparableConv2d/mul","op":"Const","attr":{"dtype":{"type":"DT_FLOAT"},"value":{"tensor":{"dtype":"DT_FLOAT","tensorShape":{"dim":[{"size":"256"}]}}}}},
          {"name":"MobileFaceNet/MobileFaceNet/Conv2d_4_InvResBlock_4/Conv/mul","op":"Const","attr":{"dtype":{"type":"DT_FLOAT"},"value":{"tensor":{"dtype":"DT_FLOAT","tensorShape":{"dim":[{"size":"256"}]}}}}},
          {"name":"MobileFaceNet/MobileFaceNet/Conv2d_4_InvResBlock_4/SeparableConv2d/mul","op":"Const","attr":{"value":{"tensor":{"dtype":"DT_FLOAT","tensorShape":{"dim":[{"size":"256"}]}}},"dtype":{"type":"DT_FLOAT"}}},
          {"name":"MobileFaceNet/MobileFaceNet/Conv2d_4_InvResBlock_3/Conv/mul","op":"Const","attr":{"value":{"tensor":{"dtype":"DT_FLOAT","tensorShape":{"dim":[{"size":"256"}]}}},"dtype":{"type":"DT_FLOAT"}}},
          {"name":"MobileFaceNet/MobileFaceNet/Conv2d_4_InvResBlock_3/SeparableConv2d/mul","op":"Const","attr":{"dtype":{"type":"DT_FLOAT"},"value":{"tensor":{"dtype":"DT_FLOAT","tensorShape":{"dim":[{"size":"256"}]}}}}},
          {"name":"MobileFaceNet/MobileFaceNet/Conv2d_4_InvResBlock_2/Conv/mul","op":"Const","attr":{"dtype":{"type":"DT_FLOAT"},"value":{"tensor":{"dtype":"DT_FLOAT","tensorShape":{"dim":[{"size":"256"}]}}}}},
          {"name":"MobileFaceNet/MobileFaceNet/Conv2d_4_InvResBlock_2/SeparableConv2d/mul","op":"Const","attr":{"value":{"tensor":{"dtype":"DT_FLOAT","tensorShape":{"dim":[{"size":"256"}]}}},"dtype":{"type":"DT_FLOAT"}}},
          {"name":"MobileFaceNet/MobileFaceNet/Conv2d_4_InvResBlock_1/Conv/mul","op":"Const","attr":{"dtype":{"type":"DT_FLOAT"},"value":{"tensor":{"dtype":"DT_FLOAT","tensorShape":{"dim":[{"size":"256"}]}}}}},
          {"name":"MobileFaceNet/MobileFaceNet/Conv2d_4_InvResBlock_1/SeparableConv2d/mul","op":"Const","attr":{"dtype":{"type":"DT_FLOAT"},"value":{"tensor":{"dtype":"DT_FLOAT","tensorShape":{"dim":[{"size":"256"}]}}}}},
          {"name":"MobileFaceNet/MobileFaceNet/Conv2d_4_InvResBlock_0/Conv/mul","op":"Const","attr":{"value":{"tensor":{"dtype":"DT_FLOAT","tensorShape":{"dim":[{"size":"256"}]}}},"dtype":{"type":"DT_FLOAT"}}},
          {"name":"MobileFaceNet/MobileFaceNet/Conv2d_4_InvResBlock_0/SeparableConv2d/mul","op":"Const","attr":{"value":{"tensor":{"dtype":"DT_FLOAT","tensorShape":{"dim":[{"size":"256"}]}}},"dtype":{"type":"DT_FLOAT"}}},
          {"name":"MobileFaceNet/MobileFaceNet/Conv2d_2_InvResBlock_4/Conv/mul","op":"Const","attr":{"value":{"tensor":{"dtype":"DT_FLOAT","tensorShape":{"dim":[{"size":"128"}]}}},"dtype":{"type":"DT_FLOAT"}}},
          {"name":"MobileFaceNet/MobileFaceNet/Conv2d_2_InvResBlock_4/SeparableConv2d/mul","op":"Const","attr":{"dtype":{"type":"DT_FLOAT"},"value":{"tensor":{"dtype":"DT_FLOAT","tensorShape":{"dim":[{"size":"128"}]}}}}},
          {"name":"MobileFaceNet/MobileFaceNet/Conv2d_2_InvResBlock_3/Conv/mul","op":"Const","attr":{"dtype":{"type":"DT_FLOAT"},"value":{"tensor":{"dtype":"DT_FLOAT","tensorShape":{"dim":[{"size":"128"}]}}}}},
          {"name":"MobileFaceNet/MobileFaceNet/Conv2d_2_InvResBlock_3/SeparableConv2d/mul","op":"Const","attr":{"value":{"tensor":{"dtype":"DT_FLOAT","tensorShape":{"dim":[{"size":"128"}]}}},"dtype":{"type":"DT_FLOAT"}}},
          {"name":"MobileFaceNet/MobileFaceNet/Conv2d_2_InvResBlock_2/Conv/mul","op":"Const","attr":{"dtype":{"type":"DT_FLOAT"},"value":{"tensor":{"dtype":"DT_FLOAT","tensorShape":{"dim":[{"size":"128"}]}}}}},
          {"name":"MobileFaceNet/MobileFaceNet/Conv2d_2_InvResBlock_2/SeparableConv2d/mul","op":"Const","attr":{"value":{"tensor":{"dtype":"DT_FLOAT","tensorShape":{"dim":[{"size":"128"}]}}},"dtype":{"type":"DT_FLOAT"}}},
          {"name":"MobileFaceNet/MobileFaceNet/Conv2d_2_InvResBlock_1/Conv/mul","op":"Const","attr":{"dtype":{"type":"DT_FLOAT"},"value":{"tensor":{"dtype":"DT_FLOAT","tensorShape":{"dim":[{"size":"128"}]}}}}},
          {"name":"MobileFaceNet/MobileFaceNet/Conv2d_2_InvResBlock_1/SeparableConv2d/mul","op":"Const","attr":{"value":{"tensor":{"dtype":"DT_FLOAT","tensorShape":{"dim":[{"size":"128"}]}}},"dtype":{"type":"DT_FLOAT"}}},
          {"name":"MobileFaceNet/MobileFaceNet/Conv2d_0/mul","op":"Const","attr":{"value":{"tensor":{"dtype":"DT_FLOAT","tensorShape":{"dim":[{"size":"64"}]}}},"dtype":{"type":"DT_FLOAT"}}},
          {"name":"MobileFaceNet/MobileFaceNet/SeparableConv2d/mul","op":"Const","attr":{"dtype":{"type":"DT_FLOAT"},"value":{"tensor":{"dtype":"DT_FLOAT","tensorShape":{"dim":[{"size":"64"}]}}}}},
          {"name":"MobileFaceNet/MobileFaceNet/Conv2d_2_InvResBlock_0/Conv/mul","op":"Const","attr":{"value":{"tensor":{"dtype":"DT_FLOAT","tensorShape":{"dim":[{"size":"128"}]}}},"dtype":{"type":"DT_FLOAT"}}},
          {"name":"MobileFaceNet/MobileFaceNet/Conv2d_2_InvResBlock_0/SeparableConv2d/mul","op":"Const","attr":{"dtype":{"type":"DT_FLOAT"},"value":{"tensor":{"dtype":"DT_FLOAT","tensorShape":{"dim":[{"size":"128"}]}}}}},
          {"name":"MobileFaceNet/MobileFaceNet/Conv2d_3_InvResBlock_0/Conv/mul","op":"Const","attr":{"dtype":{"type":"DT_FLOAT"},"value":{"tensor":{"dtype":"DT_FLOAT","tensorShape":{"dim":[{"size":"256"}]}}}}},
          {"name":"MobileFaceNet/MobileFaceNet/Conv2d_3_InvResBlock_0/SeparableConv2d/mul","op":"Const","attr":{"value":{"tensor":{"dtype":"DT_FLOAT","tensorShape":{"dim":[{"size":"256"}]}}},"dtype":{"type":"DT_FLOAT"}}},
          {"name":"MobileFaceNet/MobileFaceNet/Conv2d_5_InvResBlock_0/Conv/mul","op":"Const","attr":{"value":{"tensor":{"dtype":"DT_FLOAT","tensorShape":{"dim":[{"size":"512"}]}}},"dtype":{"type":"DT_FLOAT"}}},
          {"name":"MobileFaceNet/MobileFaceNet/Conv2d_5_InvResBlock_0/SeparableConv2d/mul","op":"Const","attr":{"dtype":{"type":"DT_FLOAT"},"value":{"tensor":{"dtype":"DT_FLOAT","tensorShape":{"dim":[{"size":"512"}]}}}}},
          {"name":"MobileFaceNet/MobileFaceNet/Conv2d_7/mul","op":"Const","attr":{"dtype":{"type":"DT_FLOAT"},"value":{"tensor":{"dtype":"DT_FLOAT","tensorShape":{"dim":[{"size":"512"}]}}}}},
          {"name":"embeddings/Sum/reduction_indices","op":"Const","attr":{"dtype":{"type":"DT_INT32"},"value":{"tensor":{"dtype":"DT_INT32","tensorShape":{}}}}},
          {"name":"embeddings/Maximum/y","op":"Const","attr":{"dtype":{"type":"DT_FLOAT"},"value":{"tensor":{"dtype":"DT_FLOAT","tensorShape":{}}}}},
          {"name":"img_inputs","op":"Placeholder","attr":{"dtype":{"type":"DT_FLOAT"},"shape":{"shape":{"dim":[{"size":"-1"},{"size":"112"},{"size":"112"},{"size":"3"}]}}}},
          {"name":"MobileFaceNet/MobileFaceNet/Conv2d_0/Conv2D_weights","op":"Const","attr":{"dtype":{"type":"DT_FLOAT"},"value":{"tensor":{"dtype":"DT_FLOAT","tensorShape":{"dim":[{"size":"3"},{"size":"3"},{"size":"3"},{"size":"64"}]}}}}},
          {"name":"MobileFaceNet/MobileFaceNet/Conv2d_0/Conv2D_bn_offset","op":"Const","attr":{"dtype":{"type":"DT_FLOAT"},"value":{"tensor":{"dtype":"DT_FLOAT","tensorShape":{"dim":[{"size":"64"}]}}}}},
          {"name":"MobileFaceNet/MobileFaceNet/SeparableConv2d/depthwise_weights","op":"Const","attr":{"dtype":{"type":"DT_FLOAT"},"value":{"tensor":{"dtype":"DT_FLOAT","tensorShape":{"dim":[{"size":"3"},{"size":"3"},{"size":"64"},{"size":"1"}]}}}}},
          {"name":"MobileFaceNet/MobileFaceNet/SeparableConv2d/depthwise_bn_offset","op":"Const","attr":{"value":{"tensor":{"dtype":"DT_FLOAT","tensorShape":{"dim":[{"size":"64"}]}}},"dtype":{"type":"DT_FLOAT"}}},
          {"name":"MobileFaceNet/MobileFaceNet/Conv/Conv2D_weights","op":"Const","attr":{"dtype":{"type":"DT_FLOAT"},"value":{"tensor":{"dtype":"DT_FLOAT","tensorShape":{"dim":[{"size":"1"},{"size":"1"},{"size":"64"},{"size":"64"}]}}}}},
          {"name":"MobileFaceNet/MobileFaceNet/Conv/Conv2D_bn_offset","op":"Const","attr":{"dtype":{"type":"DT_FLOAT"},"value":{"tensor":{"dtype":"DT_FLOAT","tensorShape":{"dim":[{"size":"64"}]}}}}},
          {"name":"MobileFaceNet/MobileFaceNet/Conv2d_2_InvResBlock_0/Conv/Conv2D_weights","op":"Const","attr":{"value":{"tensor":{"dtype":"DT_FLOAT","tensorShape":{"dim":[{"size":"1"},{"size":"1"},{"size":"64"},{"size":"128"}]}}},"dtype":{"type":"DT_FLOAT"}}},
          {"name":"MobileFaceNet/MobileFaceNet/Conv2d_2_InvResBlock_0/Conv/Conv2D_bn_offset","op":"Const","attr":{"value":{"tensor":{"dtype":"DT_FLOAT","tensorShape":{"dim":[{"size":"128"}]}}},"dtype":{"type":"DT_FLOAT"}}},
          {"name":"MobileFaceNet/MobileFaceNet/Conv2d_2_InvResBlock_0/SeparableConv2d/depthwise_weights","op":"Const","attr":{"dtype":{"type":"DT_FLOAT"},"value":{"tensor":{"dtype":"DT_FLOAT","tensorShape":{"dim":[{"size":"3"},{"size":"3"},{"size":"128"},{"size":"1"}]}}}}},
          {"name":"MobileFaceNet/MobileFaceNet/Conv2d_2_InvResBlock_0/SeparableConv2d/depthwise_bn_offset","op":"Const","attr":{"dtype":{"type":"DT_FLOAT"},"value":{"tensor":{"dtype":"DT_FLOAT","tensorShape":{"dim":[{"size":"128"}]}}}}},
          {"name":"MobileFaceNet/MobileFaceNet/Conv2d_2_InvResBlock_0/Conv_1/Conv2D_weights","op":"Const","attr":{"value":{"tensor":{"dtype":"DT_FLOAT","tensorShape":{"dim":[{"size":"1"},{"size":"1"},{"size":"128"},{"size":"64"}]}}},"dtype":{"type":"DT_FLOAT"}}},
          {"name":"MobileFaceNet/MobileFaceNet/Conv2d_6_InvResBlock_1/Conv_1/Conv2D_weights","op":"Const","attr":{"value":{"tensor":{"dtype":"DT_FLOAT","tensorShape":{"dim":[{"size":"1"},{"size":"1"},{"size":"256"},{"size":"128"}]}}},"dtype":{"type":"DT_FLOAT"}}},
          {"name":"MobileFaceNet/MobileFaceNet/Conv2d_2_InvResBlock_0/Conv_1/Conv2D_bn_offset","op":"Const","attr":{"value":{"tensor":{"dtype":"DT_FLOAT","tensorShape":{"dim":[{"size":"64"}]}}},"dtype":{"type":"DT_FLOAT"}}},
          {"name":"MobileFaceNet/MobileFaceNet/Conv2d_2_InvResBlock_1/Conv/Conv2D_weights","op":"Const","attr":{"value":{"tensor":{"dtype":"DT_FLOAT","tensorShape":{"dim":[{"size":"1"},{"size":"1"},{"size":"64"},{"size":"128"}]}}},"dtype":{"type":"DT_FLOAT"}}},
          {"name":"MobileFaceNet/MobileFaceNet/Conv2d_2_InvResBlock_1/Conv/Conv2D_bn_offset","op":"Const","attr":{"value":{"tensor":{"dtype":"DT_FLOAT","tensorShape":{"dim":[{"size":"128"}]}}},"dtype":{"type":"DT_FLOAT"}}},
          {"name":"MobileFaceNet/MobileFaceNet/Conv2d_2_InvResBlock_1/SeparableConv2d/depthwise_weights","op":"Const","attr":{"dtype":{"type":"DT_FLOAT"},"value":{"tensor":{"dtype":"DT_FLOAT","tensorShape":{"dim":[{"size":"3"},{"size":"3"},{"size":"128"},{"size":"1"}]}}}}},
          {"name":"MobileFaceNet/MobileFaceNet/Conv2d_2_InvResBlock_1/SeparableConv2d/depthwise_bn_offset","op":"Const","attr":{"dtype":{"type":"DT_FLOAT"},"value":{"tensor":{"dtype":"DT_FLOAT","tensorShape":{"dim":[{"size":"128"}]}}}}},
          {"name":"MobileFaceNet/MobileFaceNet/Conv2d_2_InvResBlock_1/Conv_1/Conv2D_weights","op":"Const","attr":{"value":{"tensor":{"dtype":"DT_FLOAT","tensorShape":{"dim":[{"size":"1"},{"size":"1"},{"size":"128"},{"size":"64"}]}}},"dtype":{"type":"DT_FLOAT"}}},
          {"name":"MobileFaceNet/MobileFaceNet/Conv2d_6_InvResBlock_1/Conv_1/Conv2D_bn_offset","op":"Const","attr":{"value":{"tensor":{"dtype":"DT_FLOAT","tensorShape":{"dim":[{"size":"128"}]}}},"dtype":{"type":"DT_FLOAT"}}},
          {"name":"MobileFaceNet/MobileFaceNet/Conv2d_2_InvResBlock_1/Conv_1/Conv2D_bn_offset","op":"Const","attr":{"dtype":{"type":"DT_FLOAT"},"value":{"tensor":{"dtype":"DT_FLOAT","tensorShape":{"dim":[{"size":"64"}]}}}}},
          {"name":"MobileFaceNet/MobileFaceNet/Conv2d_2_InvResBlock_2/Conv/Conv2D_weights","op":"Const","attr":{"dtype":{"type":"DT_FLOAT"},"value":{"tensor":{"dtype":"DT_FLOAT","tensorShape":{"dim":[{"size":"1"},{"size":"1"},{"size":"64"},{"size":"128"}]}}}}},
          {"name":"MobileFaceNet/MobileFaceNet/Conv2d_2_InvResBlock_2/Conv/Conv2D_bn_offset","op":"Const","attr":{"value":{"tensor":{"dtype":"DT_FLOAT","tensorShape":{"dim":[{"size":"128"}]}}},"dtype":{"type":"DT_FLOAT"}}},
          {"name":"MobileFaceNet/MobileFaceNet/Conv2d_2_InvResBlock_2/SeparableConv2d/depthwise_weights","op":"Const","attr":{"value":{"tensor":{"dtype":"DT_FLOAT","tensorShape":{"dim":[{"size":"3"},{"size":"3"},{"size":"128"},{"size":"1"}]}}},"dtype":{"type":"DT_FLOAT"}}},
          {"name":"MobileFaceNet/MobileFaceNet/Conv2d_2_InvResBlock_2/SeparableConv2d/depthwise_bn_offset","op":"Const","attr":{"dtype":{"type":"DT_FLOAT"},"value":{"tensor":{"dtype":"DT_FLOAT","tensorShape":{"dim":[{"size":"128"}]}}}}},
          {"name":"MobileFaceNet/MobileFaceNet/Conv2d_2_InvResBlock_2/Conv_1/Conv2D_weights","op":"Const","attr":{"dtype":{"type":"DT_FLOAT"},"value":{"tensor":{"dtype":"DT_FLOAT","tensorShape":{"dim":[{"size":"1"},{"size":"1"},{"size":"128"},{"size":"64"}]}}}}},
          {"name":"MobileFaceNet/MobileFaceNet/Conv2d_2_InvResBlock_2/Conv_1/Conv2D_bn_offset","op":"Const","attr":{"value":{"tensor":{"dtype":"DT_FLOAT","tensorShape":{"dim":[{"size":"64"}]}}},"dtype":{"type":"DT_FLOAT"}}},
          {"name":"MobileFaceNet/MobileFaceNet/Conv2d_2_InvResBlock_3/Conv/Conv2D_weights","op":"Const","attr":{"value":{"tensor":{"dtype":"DT_FLOAT","tensorShape":{"dim":[{"size":"1"},{"size":"1"},{"size":"64"},{"size":"128"}]}}},"dtype":{"type":"DT_FLOAT"}}},
          {"name":"MobileFaceNet/MobileFaceNet/Conv2d_7/Conv2D_weights","op":"Const","attr":{"value":{"tensor":{"dtype":"DT_FLOAT","tensorShape":{"dim":[{"size":"1"},{"size":"1"},{"size":"128"},{"size":"512"}]}}},"dtype":{"type":"DT_FLOAT"}}},
          {"name":"MobileFaceNet/MobileFaceNet/Conv2d_2_InvResBlock_3/Conv/Conv2D_bn_offset","op":"Const","attr":{"dtype":{"type":"DT_FLOAT"},"value":{"tensor":{"dtype":"DT_FLOAT","tensorShape":{"dim":[{"size":"128"}]}}}}},
          {"name":"MobileFaceNet/MobileFaceNet/Conv2d_2_InvResBlock_3/SeparableConv2d/depthwise_weights","op":"Const","attr":{"dtype":{"type":"DT_FLOAT"},"value":{"tensor":{"dtype":"DT_FLOAT","tensorShape":{"dim":[{"size":"3"},{"size":"3"},{"size":"128"},{"size":"1"}]}}}}},
          {"name":"MobileFaceNet/MobileFaceNet/Conv2d_2_InvResBlock_3/SeparableConv2d/depthwise_bn_offset","op":"Const","attr":{"value":{"tensor":{"dtype":"DT_FLOAT","tensorShape":{"dim":[{"size":"128"}]}}},"dtype":{"type":"DT_FLOAT"}}},
          {"name":"MobileFaceNet/MobileFaceNet/Conv2d_2_InvResBlock_3/Conv_1/Conv2D_weights","op":"Const","attr":{"dtype":{"type":"DT_FLOAT"},"value":{"tensor":{"dtype":"DT_FLOAT","tensorShape":{"dim":[{"size":"1"},{"size":"1"},{"size":"128"},{"size":"64"}]}}}}},
          {"name":"MobileFaceNet/MobileFaceNet/Conv2d_2_InvResBlock_3/Conv_1/Conv2D_bn_offset","op":"Const","attr":{"value":{"tensor":{"dtype":"DT_FLOAT","tensorShape":{"dim":[{"size":"64"}]}}},"dtype":{"type":"DT_FLOAT"}}},
          {"name":"MobileFaceNet/MobileFaceNet/Conv2d_2_InvResBlock_4/Conv/Conv2D_weights","op":"Const","attr":{"dtype":{"type":"DT_FLOAT"},"value":{"tensor":{"dtype":"DT_FLOAT","tensorShape":{"dim":[{"size":"1"},{"size":"1"},{"size":"64"},{"size":"128"}]}}}}},
          {"name":"MobileFaceNet/MobileFaceNet/Conv2d_7/Conv2D_bn_offset","op":"Const","attr":{"dtype":{"type":"DT_FLOAT"},"value":{"tensor":{"dtype":"DT_FLOAT","tensorShape":{"dim":[{"size":"512"}]}}}}},
          {"name":"MobileFaceNet/MobileFaceNet/Conv2d_2_InvResBlock_4/Conv/Conv2D_bn_offset","op":"Const","attr":{"dtype":{"type":"DT_FLOAT"},"value":{"tensor":{"dtype":"DT_FLOAT","tensorShape":{"dim":[{"size":"128"}]}}}}},
          {"name":"MobileFaceNet/MobileFaceNet/Conv2d_2_InvResBlock_4/SeparableConv2d/depthwise_weights","op":"Const","attr":{"value":{"tensor":{"dtype":"DT_FLOAT","tensorShape":{"dim":[{"size":"3"},{"size":"3"},{"size":"128"},{"size":"1"}]}}},"dtype":{"type":"DT_FLOAT"}}},
          {"name":"MobileFaceNet/MobileFaceNet/Conv2d_2_InvResBlock_4/SeparableConv2d/depthwise_bn_offset","op":"Const","attr":{"value":{"tensor":{"dtype":"DT_FLOAT","tensorShape":{"dim":[{"size":"128"}]}}},"dtype":{"type":"DT_FLOAT"}}},
          {"name":"MobileFaceNet/MobileFaceNet/Conv2d_2_InvResBlock_4/Conv_1/Conv2D_weights","op":"Const","attr":{"dtype":{"type":"DT_FLOAT"},"value":{"tensor":{"dtype":"DT_FLOAT","tensorShape":{"dim":[{"size":"1"},{"size":"1"},{"size":"128"},{"size":"64"}]}}}}},
          {"name":"MobileFaceNet/MobileFaceNet/Conv2d_2_InvResBlock_4/Conv_1/Conv2D_bn_offset","op":"Const","attr":{"dtype":{"type":"DT_FLOAT"},"value":{"tensor":{"dtype":"DT_FLOAT","tensorShape":{"dim":[{"size":"64"}]}}}}},
          {"name":"MobileFaceNet/MobileFaceNet/Conv2d_3_InvResBlock_0/Conv/Conv2D_weights","op":"Const","attr":{"value":{"tensor":{"dtype":"DT_FLOAT","tensorShape":{"dim":[{"size":"1"},{"size":"1"},{"size":"64"},{"size":"256"}]}}},"dtype":{"type":"DT_FLOAT"}}},
          {"name":"MobileFaceNet/MobileFaceNet/Conv2d_3_InvResBlock_0/Conv/Conv2D_bn_offset","op":"Const","attr":{"dtype":{"type":"DT_FLOAT"},"value":{"tensor":{"dtype":"DT_FLOAT","tensorShape":{"dim":[{"size":"256"}]}}}}},
          {"name":"MobileFaceNet/MobileFaceNet/Conv2d_3_InvResBlock_0/SeparableConv2d/depthwise_weights","op":"Const","attr":{"value":{"tensor":{"dtype":"DT_FLOAT","tensorShape":{"dim":[{"size":"3"},{"size":"3"},{"size":"256"},{"size":"1"}]}}},"dtype":{"type":"DT_FLOAT"}}},
          {"name":"MobileFaceNet/MobileFaceNet/Conv2d_3_InvResBlock_0/SeparableConv2d/depthwise_bn_offset","op":"Const","attr":{"value":{"tensor":{"dtype":"DT_FLOAT","tensorShape":{"dim":[{"size":"256"}]}}},"dtype":{"type":"DT_FLOAT"}}},
          {"name":"MobileFaceNet/MobileFaceNet/Conv2d_3_InvResBlock_0/Conv_1/Conv2D_weights","op":"Const","attr":{"value":{"tensor":{"dtype":"DT_FLOAT","tensorShape":{"dim":[{"size":"1"},{"size":"1"},{"size":"256"},{"size":"128"}]}}},"dtype":{"type":"DT_FLOAT"}}},
          {"name":"MobileFaceNet/MobileFaceNet/Conv2d_3_InvResBlock_0/Conv_1/Conv2D_bn_offset","op":"Const","attr":{"dtype":{"type":"DT_FLOAT"},"value":{"tensor":{"dtype":"DT_FLOAT","tensorShape":{"dim":[{"size":"128"}]}}}}},
          {"name":"MobileFaceNet/MobileFaceNet/Conv2d_4_InvResBlock_0/Conv/Conv2D_weights","op":"Const","attr":{"value":{"tensor":{"dtype":"DT_FLOAT","tensorShape":{"dim":[{"size":"1"},{"size":"1"},{"size":"128"},{"size":"256"}]}}},"dtype":{"type":"DT_FLOAT"}}},
          {"name":"MobileFaceNet/MobileFaceNet/Conv2d_4_InvResBlock_0/Conv/Conv2D_bn_offset","op":"Const","attr":{"dtype":{"type":"DT_FLOAT"},"value":{"tensor":{"dtype":"DT_FLOAT","tensorShape":{"dim":[{"size":"256"}]}}}}},
          {"name":"MobileFaceNet/MobileFaceNet/Conv2d_4_InvResBlock_0/SeparableConv2d/depthwise_weights","op":"Const","attr":{"dtype":{"type":"DT_FLOAT"},"value":{"tensor":{"dtype":"DT_FLOAT","tensorShape":{"dim":[{"size":"3"},{"size":"3"},{"size":"256"},{"size":"1"}]}}}}},
          {"name":"MobileFaceNet/MobileFaceNet/Conv2d_4_InvResBlock_0/SeparableConv2d/depthwise_bn_offset","op":"Const","attr":{"value":{"tensor":{"dtype":"DT_FLOAT","tensorShape":{"dim":[{"size":"256"}]}}},"dtype":{"type":"DT_FLOAT"}}},
          {"name":"MobileFaceNet/MobileFaceNet/Conv2d_4_InvResBlock_0/Conv_1/Conv2D_weights","op":"Const","attr":{"dtype":{"type":"DT_FLOAT"},"value":{"tensor":{"dtype":"DT_FLOAT","tensorShape":{"dim":[{"size":"1"},{"size":"1"},{"size":"256"},{"size":"128"}]}}}}},
          {"name":"MobileFaceNet/MobileFaceNet/Conv2d_4_InvResBlock_0/Conv_1/Conv2D_bn_offset","op":"Const","attr":{"dtype":{"type":"DT_FLOAT"},"value":{"tensor":{"dtype":"DT_FLOAT","tensorShape":{"dim":[{"size":"128"}]}}}}},
          {"name":"MobileFaceNet/MobileFaceNet/Conv2d_4_InvResBlock_1/Conv/Conv2D_weights","op":"Const","attr":{"dtype":{"type":"DT_FLOAT"},"value":{"tensor":{"dtype":"DT_FLOAT","tensorShape":{"dim":[{"size":"1"},{"size":"1"},{"size":"128"},{"size":"256"}]}}}}},
          {"name":"MobileFaceNet/MobileFaceNet/Conv2d_4_InvResBlock_1/Conv/Conv2D_bn_offset","op":"Const","attr":{"value":{"tensor":{"dtype":"DT_FLOAT","tensorShape":{"dim":[{"size":"256"}]}}},"dtype":{"type":"DT_FLOAT"}}},
          {"name":"MobileFaceNet/MobileFaceNet/Conv2d_4_InvResBlock_1/SeparableConv2d/depthwise_weights","op":"Const","attr":{"value":{"tensor":{"dtype":"DT_FLOAT","tensorShape":{"dim":[{"size":"3"},{"size":"3"},{"size":"256"},{"size":"1"}]}}},"dtype":{"type":"DT_FLOAT"}}},
          {"name":"MobileFaceNet/MobileFaceNet/Conv2d_4_InvResBlock_1/SeparableConv2d/depthwise_bn_offset","op":"Const","attr":{"dtype":{"type":"DT_FLOAT"},"value":{"tensor":{"dtype":"DT_FLOAT","tensorShape":{"dim":[{"size":"256"}]}}}}},
          {"name":"MobileFaceNet/MobileFaceNet/Conv2d_4_InvResBlock_1/Conv_1/Conv2D_weights","op":"Const","attr":{"value":{"tensor":{"dtype":"DT_FLOAT","tensorShape":{"dim":[{"size":"1"},{"size":"1"},{"size":"256"},{"size":"128"}]}}},"dtype":{"type":"DT_FLOAT"}}},
          {"name":"MobileFaceNet/Logits/SeparableConv2d/depthwise_weights","op":"Const","attr":{"dtype":{"type":"DT_FLOAT"},"value":{"tensor":{"dtype":"DT_FLOAT","tensorShape":{"dim":[{"size":"7"},{"size":"7"},{"size":"512"},{"size":"1"}]}}}}},
          {"name":"MobileFaceNet/MobileFaceNet/Conv2d_4_InvResBlock_1/Conv_1/Conv2D_bn_offset","op":"Const","attr":{"value":{"tensor":{"dtype":"DT_FLOAT","tensorShape":{"dim":[{"size":"128"}]}}},"dtype":{"type":"DT_FLOAT"}}},
          {"name":"MobileFaceNet/MobileFaceNet/Conv2d_4_InvResBlock_2/Conv/Conv2D_weights","op":"Const","attr":{"dtype":{"type":"DT_FLOAT"},"value":{"tensor":{"dtype":"DT_FLOAT","tensorShape":{"dim":[{"size":"1"},{"size":"1"},{"size":"128"},{"size":"256"}]}}}}},
          {"name":"MobileFaceNet/MobileFaceNet/Conv2d_4_InvResBlock_2/Conv/Conv2D_bn_offset","op":"Const","attr":{"value":{"tensor":{"dtype":"DT_FLOAT","tensorShape":{"dim":[{"size":"256"}]}}},"dtype":{"type":"DT_FLOAT"}}},
          {"name":"MobileFaceNet/MobileFaceNet/Conv2d_4_InvResBlock_2/SeparableConv2d/depthwise_weights","op":"Const","attr":{"dtype":{"type":"DT_FLOAT"},"value":{"tensor":{"dtype":"DT_FLOAT","tensorShape":{"dim":[{"size":"3"},{"size":"3"},{"size":"256"},{"size":"1"}]}}}}},
          {"name":"MobileFaceNet/MobileFaceNet/Conv2d_4_InvResBlock_2/SeparableConv2d/depthwise_bn_offset","op":"Const","attr":{"value":{"tensor":{"dtype":"DT_FLOAT","tensorShape":{"dim":[{"size":"256"}]}}},"dtype":{"type":"DT_FLOAT"}}},
          {"name":"MobileFaceNet/MobileFaceNet/Conv2d_4_InvResBlock_2/Conv_1/Conv2D_weights","op":"Const","attr":{"dtype":{"type":"DT_FLOAT"},"value":{"tensor":{"dtype":"DT_FLOAT","tensorShape":{"dim":[{"size":"1"},{"size":"1"},{"size":"256"},{"size":"128"}]}}}}},
          {"name":"MobileFaceNet/Logits/SeparableConv2d/depthwise_bn_offset","op":"Const","attr":{"value":{"tensor":{"dtype":"DT_FLOAT","tensorShape":{"dim":[{"size":"512"}]}}},"dtype":{"type":"DT_FLOAT"}}},
          {"name":"MobileFaceNet/MobileFaceNet/Conv2d_4_InvResBlock_2/Conv_1/Conv2D_bn_offset","op":"Const","attr":{"dtype":{"type":"DT_FLOAT"},"value":{"tensor":{"dtype":"DT_FLOAT","tensorShape":{"dim":[{"size":"128"}]}}}}},
          {"name":"MobileFaceNet/MobileFaceNet/Conv2d_4_InvResBlock_3/Conv/Conv2D_weights","op":"Const","attr":{"dtype":{"type":"DT_FLOAT"},"value":{"tensor":{"dtype":"DT_FLOAT","tensorShape":{"dim":[{"size":"1"},{"size":"1"},{"size":"128"},{"size":"256"}]}}}}},
          {"name":"MobileFaceNet/MobileFaceNet/Conv2d_4_InvResBlock_3/Conv/Conv2D_bn_offset","op":"Const","attr":{"value":{"tensor":{"dtype":"DT_FLOAT","tensorShape":{"dim":[{"size":"256"}]}}},"dtype":{"type":"DT_FLOAT"}}},
          {"name":"MobileFaceNet/MobileFaceNet/Conv2d_4_InvResBlock_3/SeparableConv2d/depthwise_weights","op":"Const","attr":{"dtype":{"type":"DT_FLOAT"},"value":{"tensor":{"dtype":"DT_FLOAT","tensorShape":{"dim":[{"size":"3"},{"size":"3"},{"size":"256"},{"size":"1"}]}}}}},
          {"name":"MobileFaceNet/MobileFaceNet/Conv2d_4_InvResBlock_3/SeparableConv2d/depthwise_bn_offset","op":"Const","attr":{"value":{"tensor":{"dtype":"DT_FLOAT","tensorShape":{"dim":[{"size":"256"}]}}},"dtype":{"type":"DT_FLOAT"}}},
          {"name":"MobileFaceNet/MobileFaceNet/Conv2d_4_InvResBlock_3/Conv_1/Conv2D_weights","op":"Const","attr":{"dtype":{"type":"DT_FLOAT"},"value":{"tensor":{"dtype":"DT_FLOAT","tensorShape":{"dim":[{"size":"1"},{"size":"1"},{"size":"256"},{"size":"128"}]}}}}},
          {"name":"MobileFaceNet/Logits/Conv/Conv2D_weights","op":"Const","attr":{"value":{"tensor":{"dtype":"DT_FLOAT","tensorShape":{"dim":[{"size":"1"},{"size":"1"},{"size":"512"},{"size":"512"}]}}},"dtype":{"type":"DT_FLOAT"}}},
          {"name":"MobileFaceNet/MobileFaceNet/Conv2d_4_InvResBlock_3/Conv_1/Conv2D_bn_offset","op":"Const","attr":{"value":{"tensor":{"dtype":"DT_FLOAT","tensorShape":{"dim":[{"size":"128"}]}}},"dtype":{"type":"DT_FLOAT"}}},
          {"name":"MobileFaceNet/MobileFaceNet/Conv2d_4_InvResBlock_4/Conv/Conv2D_weights","op":"Const","attr":{"value":{"tensor":{"dtype":"DT_FLOAT","tensorShape":{"dim":[{"size":"1"},{"size":"1"},{"size":"128"},{"size":"256"}]}}},"dtype":{"type":"DT_FLOAT"}}},
          {"name":"MobileFaceNet/MobileFaceNet/Conv2d_4_InvResBlock_4/Conv/Conv2D_bn_offset","op":"Const","attr":{"dtype":{"type":"DT_FLOAT"},"value":{"tensor":{"dtype":"DT_FLOAT","tensorShape":{"dim":[{"size":"256"}]}}}}},
          {"name":"MobileFaceNet/MobileFaceNet/Conv2d_4_InvResBlock_4/SeparableConv2d/depthwise_weights","op":"Const","attr":{"value":{"tensor":{"dtype":"DT_FLOAT","tensorShape":{"dim":[{"size":"3"},{"size":"3"},{"size":"256"},{"size":"1"}]}}},"dtype":{"type":"DT_FLOAT"}}},
          {"name":"MobileFaceNet/MobileFaceNet/Conv2d_4_InvResBlock_4/SeparableConv2d/depthwise_bn_offset","op":"Const","attr":{"dtype":{"type":"DT_FLOAT"},"value":{"tensor":{"dtype":"DT_FLOAT","tensorShape":{"dim":[{"size":"256"}]}}}}},
          {"name":"MobileFaceNet/MobileFaceNet/Conv2d_4_InvResBlock_4/Conv_1/Conv2D_weights","op":"Const","attr":{"dtype":{"type":"DT_FLOAT"},"value":{"tensor":{"dtype":"DT_FLOAT","tensorShape":{"dim":[{"size":"1"},{"size":"1"},{"size":"256"},{"size":"128"}]}}}}},
          {"name":"MobileFaceNet/Logits/Conv/Conv2D_bn_offset","op":"Const","attr":{"value":{"tensor":{"dtype":"DT_FLOAT","tensorShape":{"dim":[{"size":"512"}]}}},"dtype":{"type":"DT_FLOAT"}}},
          {"name":"MobileFaceNet/MobileFaceNet/Conv2d_4_InvResBlock_4/Conv_1/Conv2D_bn_offset","op":"Const","attr":{"dtype":{"type":"DT_FLOAT"},"value":{"tensor":{"dtype":"DT_FLOAT","tensorShape":{"dim":[{"size":"128"}]}}}}},
          {"name":"MobileFaceNet/MobileFaceNet/Conv2d_4_InvResBlock_5/Conv/Conv2D_weights","op":"Const","attr":{"dtype":{"type":"DT_FLOAT"},"value":{"tensor":{"dtype":"DT_FLOAT","tensorShape":{"dim":[{"size":"1"},{"size":"1"},{"size":"128"},{"size":"256"}]}}}}},
          {"name":"MobileFaceNet/MobileFaceNet/Conv2d_4_InvResBlock_5/Conv/Conv2D_bn_offset","op":"Const","attr":{"value":{"tensor":{"dtype":"DT_FLOAT","tensorShape":{"dim":[{"size":"256"}]}}},"dtype":{"type":"DT_FLOAT"}}},
          {"name":"MobileFaceNet/MobileFaceNet/Conv2d_4_InvResBlock_5/SeparableConv2d/depthwise_weights","op":"Const","attr":{"dtype":{"type":"DT_FLOAT"},"value":{"tensor":{"dtype":"DT_FLOAT","tensorShape":{"dim":[{"size":"3"},{"size":"3"},{"size":"256"},{"size":"1"}]}}}}},
          {"name":"MobileFaceNet/MobileFaceNet/Conv2d_4_InvResBlock_5/SeparableConv2d/depthwise_bn_offset","op":"Const","attr":{"dtype":{"type":"DT_FLOAT"},"value":{"tensor":{"dtype":"DT_FLOAT","tensorShape":{"dim":[{"size":"256"}]}}}}},
          {"name":"MobileFaceNet/MobileFaceNet/Conv2d_4_InvResBlock_5/Conv_1/Conv2D_weights","op":"Const","attr":{"value":{"tensor":{"dtype":"DT_FLOAT","tensorShape":{"dim":[{"size":"1"},{"size":"1"},{"size":"256"},{"size":"128"}]}}},"dtype":{"type":"DT_FLOAT"}}},
          {"name":"MobileFaceNet/Logits/LinearConv1x1/Conv2D_weights","op":"Const","attr":{"dtype":{"type":"DT_FLOAT"},"value":{"tensor":{"dtype":"DT_FLOAT","tensorShape":{"dim":[{"size":"1"},{"size":"1"},{"size":"512"},{"size":"192"}]}}}}},
          {"name":"MobileFaceNet/MobileFaceNet/Conv2d_4_InvResBlock_5/Conv_1/Conv2D_bn_offset","op":"Const","attr":{"value":{"tensor":{"dtype":"DT_FLOAT","tensorShape":{"dim":[{"size":"128"}]}}},"dtype":{"type":"DT_FLOAT"}}},
          {"name":"MobileFaceNet/MobileFaceNet/Conv2d_5_InvResBlock_0/Conv/Conv2D_weights","op":"Const","attr":{"dtype":{"type":"DT_FLOAT"},"value":{"tensor":{"dtype":"DT_FLOAT","tensorShape":{"dim":[{"size":"1"},{"size":"1"},{"size":"128"},{"size":"512"}]}}}}},
          {"name":"MobileFaceNet/MobileFaceNet/Conv2d_5_InvResBlock_0/Conv/Conv2D_bn_offset","op":"Const","attr":{"value":{"tensor":{"dtype":"DT_FLOAT","tensorShape":{"dim":[{"size":"512"}]}}},"dtype":{"type":"DT_FLOAT"}}},
          {"name":"MobileFaceNet/MobileFaceNet/Conv2d_5_InvResBlock_0/SeparableConv2d/depthwise_weights","op":"Const","attr":{"dtype":{"type":"DT_FLOAT"},"value":{"tensor":{"dtype":"DT_FLOAT","tensorShape":{"dim":[{"size":"3"},{"size":"3"},{"size":"512"},{"size":"1"}]}}}}},
          {"name":"MobileFaceNet/MobileFaceNet/Conv2d_5_InvResBlock_0/SeparableConv2d/depthwise_bn_offset","op":"Const","attr":{"value":{"tensor":{"dtype":"DT_FLOAT","tensorShape":{"dim":[{"size":"512"}]}}},"dtype":{"type":"DT_FLOAT"}}},
          {"name":"MobileFaceNet/MobileFaceNet/Conv2d_5_InvResBlock_0/Conv_1/Conv2D_weights","op":"Const","attr":{"value":{"tensor":{"dtype":"DT_FLOAT","tensorShape":{"dim":[{"size":"1"},{"size":"1"},{"size":"512"},{"size":"128"}]}}},"dtype":{"type":"DT_FLOAT"}}},
          {"name":"MobileFaceNet/Logits/LinearConv1x1/Conv2D_bn_offset","op":"Const","attr":{"dtype":{"type":"DT_FLOAT"},"value":{"tensor":{"dtype":"DT_FLOAT","tensorShape":{"dim":[{"size":"192"}]}}}}},
          {"name":"MobileFaceNet/MobileFaceNet/Conv2d_5_InvResBlock_0/Conv_1/Conv2D_bn_offset","op":"Const","attr":{"value":{"tensor":{"dtype":"DT_FLOAT","tensorShape":{"dim":[{"size":"128"}]}}},"dtype":{"type":"DT_FLOAT"}}},
          {"name":"MobileFaceNet/MobileFaceNet/Conv2d_6_InvResBlock_0/Conv/Conv2D_weights","op":"Const","attr":{"dtype":{"type":"DT_FLOAT"},"value":{"tensor":{"dtype":"DT_FLOAT","tensorShape":{"dim":[{"size":"1"},{"size":"1"},{"size":"128"},{"size":"256"}]}}}}},
          {"name":"MobileFaceNet/MobileFaceNet/Conv2d_6_InvResBlock_0/Conv/Conv2D_bn_offset","op":"Const","attr":{"dtype":{"type":"DT_FLOAT"},"value":{"tensor":{"dtype":"DT_FLOAT","tensorShape":{"dim":[{"size":"256"}]}}}}},
          {"name":"MobileFaceNet/MobileFaceNet/Conv2d_6_InvResBlock_0/SeparableConv2d/depthwise_weights","op":"Const","attr":{"value":{"tensor":{"dtype":"DT_FLOAT","tensorShape":{"dim":[{"size":"3"},{"size":"3"},{"size":"256"},{"size":"1"}]}}},"dtype":{"type":"DT_FLOAT"}}},
          {"name":"MobileFaceNet/MobileFaceNet/Conv2d_6_InvResBlock_0/SeparableConv2d/depthwise_bn_offset","op":"Const","attr":{"value":{"tensor":{"dtype":"DT_FLOAT","tensorShape":{"dim":[{"size":"256"}]}}},"dtype":{"type":"DT_FLOAT"}}},
          {"name":"MobileFaceNet/MobileFaceNet/Conv2d_6_InvResBlock_0/Conv_1/Conv2D_weights","op":"Const","attr":{"value":{"tensor":{"dtype":"DT_FLOAT","tensorShape":{"dim":[{"size":"1"},{"size":"1"},{"size":"256"},{"size":"128"}]}}},"dtype":{"type":"DT_FLOAT"}}},
          {"name":"MobileFaceNet/MobileFaceNet/Conv2d_6_InvResBlock_0/Conv_1/Conv2D_bn_offset","op":"Const","attr":{"dtype":{"type":"DT_FLOAT"},"value":{"tensor":{"dtype":"DT_FLOAT","tensorShape":{"dim":[{"size":"128"}]}}}}},
          {"name":"MobileFaceNet/MobileFaceNet/Conv2d_6_InvResBlock_1/Conv/Conv2D_weights","op":"Const","attr":{"value":{"tensor":{"dtype":"DT_FLOAT","tensorShape":{"dim":[{"size":"1"},{"size":"1"},{"size":"128"},{"size":"256"}]}}},"dtype":{"type":"DT_FLOAT"}}},
          {"name":"MobileFaceNet/MobileFaceNet/Conv2d_6_InvResBlock_1/Conv/Conv2D_bn_offset","op":"Const","attr":{"value":{"tensor":{"dtype":"DT_FLOAT","tensorShape":{"dim":[{"size":"256"}]}}},"dtype":{"type":"DT_FLOAT"}}},
          {"name":"MobileFaceNet/MobileFaceNet/Conv2d_6_InvResBlock_1/SeparableConv2d/depthwise_weights","op":"Const","attr":{"dtype":{"type":"DT_FLOAT"},"value":{"tensor":{"dtype":"DT_FLOAT","tensorShape":{"dim":[{"size":"3"},{"size":"3"},{"size":"256"},{"size":"1"}]}}}}},
          {"name":"MobileFaceNet/MobileFaceNet/Conv2d_6_InvResBlock_1/SeparableConv2d/depthwise_bn_offset","op":"Const","attr":{"dtype":{"type":"DT_FLOAT"},"value":{"tensor":{"dtype":"DT_FLOAT","tensorShape":{"dim":[{"size":"256"}]}}}}},
          {"name":"MobileFaceNet/MobileFaceNet/Conv2d_0/BatchNorm/FusedBatchNorm","op":"_FusedConv2D","input":["img_inputs","MobileFaceNet/MobileFaceNet/Conv2d_0/Conv2D_weights","MobileFaceNet/MobileFaceNet/Conv2d_0/Conv2D_bn_offset"],"device":"/device:CPU:0","attr":{"fused_ops":{"list":{"s":["Qmlhc0FkZA=="]}},"use_cudnn_on_gpu":{"b":true},"padding":{"s":"U0FNRQ=="},"strides":{"list":{"i":["1","2","2","1"]}},"explicit_paddings":{"list":{}},"epsilon":{"f":0},"num_args":{"i":"1"},"data_format":{"s":"TkhXQw=="},"T":{"type":"DT_FLOAT"},"dilations":{"list":{"i":["1","1","1","1"]}}}},
          {"name":"MobileFaceNet/MobileFaceNet/Conv2d_0/Relu","op":"Relu","input":["MobileFaceNet/MobileFaceNet/Conv2d_0/BatchNorm/FusedBatchNorm"],"attr":{"T":{"type":"DT_FLOAT"}}},
          {"name":"MobileFaceNet/MobileFaceNet/Conv2d_0/Abs","op":"Abs","input":["MobileFaceNet/MobileFaceNet/Conv2d_0/BatchNorm/FusedBatchNorm"],"attr":{"T":{"type":"DT_FLOAT"}}},
          {"name":"MobileFaceNet/MobileFaceNet/Conv2d_0/sub","op":"Sub","input":["MobileFaceNet/MobileFaceNet/Conv2d_0/BatchNorm/FusedBatchNorm","MobileFaceNet/MobileFaceNet/Conv2d_0/Abs"],"attr":{"T":{"type":"DT_FLOAT"}}},
          {"name":"MobileFaceNet/MobileFaceNet/Conv2d_0/mul_1","op":"Mul","input":["MobileFaceNet/MobileFaceNet/Conv2d_0/sub","MobileFaceNet/MobileFaceNet/Conv2d_0/mul"],"attr":{"T":{"type":"DT_FLOAT"}}},
          {"name":"MobileFaceNet/MobileFaceNet/Conv2d_0/add","op":"Add","input":["MobileFaceNet/MobileFaceNet/Conv2d_0/Relu","MobileFaceNet/MobileFaceNet/Conv2d_0/mul_1"],"attr":{"T":{"type":"DT_FLOAT"}}},
          {"name":"MobileFaceNet/MobileFaceNet/SeparableConv2d/depthwise","op":"FusedDepthwiseConv2dNative","input":["MobileFaceNet/MobileFaceNet/Conv2d_0/add","MobileFaceNet/MobileFaceNet/SeparableConv2d/depthwise_weights","MobileFaceNet/MobileFaceNet/SeparableConv2d/depthwise_bn_offset"],"attr":{"explicit_paddings":{"list":{}},"strides":{"list":{"i":["1","1","1","1"]}},"dilations":{"list":{"i":["1","1","1","1"]}},"T":{"type":"DT_FLOAT"},"padding":{"s":"U0FNRQ=="},"data_format":{"s":"TkhXQw=="},"fused_ops":{"list":{"s":["Qmlhc0FkZA==","UmVsdQ=="]}},"num_args":{"i":"1"}}},
          {"name":"MobileFaceNet/MobileFaceNet/SeparableConv2d/Abs","op":"Abs","input":["MobileFaceNet/MobileFaceNet/SeparableConv2d/depthwise"],"attr":{"T":{"type":"DT_FLOAT"}}},
          {"name":"MobileFaceNet/MobileFaceNet/SeparableConv2d/sub","op":"Sub","input":["MobileFaceNet/MobileFaceNet/SeparableConv2d/depthwise","MobileFaceNet/MobileFaceNet/SeparableConv2d/Abs"],"attr":{"T":{"type":"DT_FLOAT"}}},
          {"name":"MobileFaceNet/MobileFaceNet/SeparableConv2d/mul_1","op":"Mul","input":["MobileFaceNet/MobileFaceNet/SeparableConv2d/sub","MobileFaceNet/MobileFaceNet/SeparableConv2d/mul"],"attr":{"T":{"type":"DT_FLOAT"}}},
          {"name":"MobileFaceNet/MobileFaceNet/SeparableConv2d/add","op":"Add","input":["MobileFaceNet/MobileFaceNet/SeparableConv2d/depthwise","MobileFaceNet/MobileFaceNet/SeparableConv2d/mul_1"],"attr":{"T":{"type":"DT_FLOAT"}}},
          {"name":"MobileFaceNet/MobileFaceNet/Conv/BatchNorm/FusedBatchNorm","op":"_FusedConv2D","input":["MobileFaceNet/MobileFaceNet/SeparableConv2d/add","MobileFaceNet/MobileFaceNet/Conv/Conv2D_weights","MobileFaceNet/MobileFaceNet/Conv/Conv2D_bn_offset"],"device":"/device:CPU:0","attr":{"padding":{"s":"U0FNRQ=="},"epsilon":{"f":0},"T":{"type":"DT_FLOAT"},"use_cudnn_on_gpu":{"b":true},"dilations":{"list":{"i":["1","1","1","1"]}},"explicit_paddings":{"list":{}},"fused_ops":{"list":{"s":["Qmlhc0FkZA=="]}},"num_args":{"i":"1"},"data_format":{"s":"TkhXQw=="},"strides":{"list":{"i":["1","1","1","1"]}}}},
          {"name":"MobileFaceNet/MobileFaceNet/Conv2d_2_InvResBlock_0/Conv/BatchNorm/FusedBatchNorm","op":"_FusedConv2D","input":["MobileFaceNet/MobileFaceNet/Conv/BatchNorm/FusedBatchNorm","MobileFaceNet/MobileFaceNet/Conv2d_2_InvResBlock_0/Conv/Conv2D_weights","MobileFaceNet/MobileFaceNet/Conv2d_2_InvResBlock_0/Conv/Conv2D_bn_offset"],"device":"/device:CPU:0","attr":{"epsilon":{"f":0},"dilations":{"list":{"i":["1","1","1","1"]}},"data_format":{"s":"TkhXQw=="},"explicit_paddings":{"list":{}},"padding":{"s":"U0FNRQ=="},"use_cudnn_on_gpu":{"b":true},"strides":{"list":{"i":["1","1","1","1"]}},"T":{"type":"DT_FLOAT"},"fused_ops":{"list":{"s":["Qmlhc0FkZA=="]}},"num_args":{"i":"1"}}},
          {"name":"MobileFaceNet/MobileFaceNet/Conv2d_2_InvResBlock_0/Conv/Relu","op":"Relu","input":["MobileFaceNet/MobileFaceNet/Conv2d_2_InvResBlock_0/Conv/BatchNorm/FusedBatchNorm"],"attr":{"T":{"type":"DT_FLOAT"}}},
          {"name":"MobileFaceNet/MobileFaceNet/Conv2d_2_InvResBlock_0/Conv/Abs","op":"Abs","input":["MobileFaceNet/MobileFaceNet/Conv2d_2_InvResBlock_0/Conv/BatchNorm/FusedBatchNorm"],"attr":{"T":{"type":"DT_FLOAT"}}},
          {"name":"MobileFaceNet/MobileFaceNet/Conv2d_2_InvResBlock_0/Conv/sub","op":"Sub","input":["MobileFaceNet/MobileFaceNet/Conv2d_2_InvResBlock_0/Conv/BatchNorm/FusedBatchNorm","MobileFaceNet/MobileFaceNet/Conv2d_2_InvResBlock_0/Conv/Abs"],"attr":{"T":{"type":"DT_FLOAT"}}},
          {"name":"MobileFaceNet/MobileFaceNet/Conv2d_2_InvResBlock_0/Conv/mul_1","op":"Mul","input":["MobileFaceNet/MobileFaceNet/Conv2d_2_InvResBlock_0/Conv/sub","MobileFaceNet/MobileFaceNet/Conv2d_2_InvResBlock_0/Conv/mul"],"attr":{"T":{"type":"DT_FLOAT"}}},
          {"name":"MobileFaceNet/MobileFaceNet/Conv2d_2_InvResBlock_0/Conv/add","op":"Add","input":["MobileFaceNet/MobileFaceNet/Conv2d_2_InvResBlock_0/Conv/Relu","MobileFaceNet/MobileFaceNet/Conv2d_2_InvResBlock_0/Conv/mul_1"],"attr":{"T":{"type":"DT_FLOAT"}}},
          {"name":"MobileFaceNet/MobileFaceNet/Conv2d_2_InvResBlock_0/SeparableConv2d/depthwise","op":"FusedDepthwiseConv2dNative","input":["MobileFaceNet/MobileFaceNet/Conv2d_2_InvResBlock_0/Conv/add","MobileFaceNet/MobileFaceNet/Conv2d_2_InvResBlock_0/SeparableConv2d/depthwise_weights","MobileFaceNet/MobileFaceNet/Conv2d_2_InvResBlock_0/SeparableConv2d/depthwise_bn_offset"],"attr":{"explicit_paddings":{"list":{}},"T":{"type":"DT_FLOAT"},"fused_ops":{"list":{"s":["Qmlhc0FkZA==","UmVsdQ=="]}},"strides":{"list":{"i":["1","2","2","1"]}},"dilations":{"list":{"i":["1","1","1","1"]}},"num_args":{"i":"1"},"padding":{"s":"U0FNRQ=="},"data_format":{"s":"TkhXQw=="}}},
          {"name":"MobileFaceNet/MobileFaceNet/Conv2d_2_InvResBlock_0/SeparableConv2d/Abs","op":"Abs","input":["MobileFaceNet/MobileFaceNet/Conv2d_2_InvResBlock_0/SeparableConv2d/depthwise"],"attr":{"T":{"type":"DT_FLOAT"}}},
          {"name":"MobileFaceNet/MobileFaceNet/Conv2d_2_InvResBlock_0/SeparableConv2d/sub","op":"Sub","input":["MobileFaceNet/MobileFaceNet/Conv2d_2_InvResBlock_0/SeparableConv2d/depthwise","MobileFaceNet/MobileFaceNet/Conv2d_2_InvResBlock_0/SeparableConv2d/Abs"],"attr":{"T":{"type":"DT_FLOAT"}}},
          {"name":"MobileFaceNet/MobileFaceNet/Conv2d_2_InvResBlock_0/SeparableConv2d/mul_1","op":"Mul","input":["MobileFaceNet/MobileFaceNet/Conv2d_2_InvResBlock_0/SeparableConv2d/sub","MobileFaceNet/MobileFaceNet/Conv2d_2_InvResBlock_0/SeparableConv2d/mul"],"attr":{"T":{"type":"DT_FLOAT"}}},
          {"name":"MobileFaceNet/MobileFaceNet/Conv2d_2_InvResBlock_0/SeparableConv2d/add","op":"Add","input":["MobileFaceNet/MobileFaceNet/Conv2d_2_InvResBlock_0/SeparableConv2d/depthwise","MobileFaceNet/MobileFaceNet/Conv2d_2_InvResBlock_0/SeparableConv2d/mul_1"],"attr":{"T":{"type":"DT_FLOAT"}}},
          {"name":"MobileFaceNet/MobileFaceNet/Conv2d_2_InvResBlock_0/Conv_1/BatchNorm/FusedBatchNorm","op":"_FusedConv2D","input":["MobileFaceNet/MobileFaceNet/Conv2d_2_InvResBlock_0/SeparableConv2d/add","MobileFaceNet/MobileFaceNet/Conv2d_2_InvResBlock_0/Conv_1/Conv2D_weights","MobileFaceNet/MobileFaceNet/Conv2d_2_InvResBlock_0/Conv_1/Conv2D_bn_offset"],"device":"/device:CPU:0","attr":{"num_args":{"i":"1"},"fused_ops":{"list":{"s":["Qmlhc0FkZA=="]}},"dilations":{"list":{"i":["1","1","1","1"]}},"padding":{"s":"U0FNRQ=="},"explicit_paddings":{"list":{}},"epsilon":{"f":0},"use_cudnn_on_gpu":{"b":true},"strides":{"list":{"i":["1","1","1","1"]}},"T":{"type":"DT_FLOAT"},"data_format":{"s":"TkhXQw=="}}},
          {"name":"MobileFaceNet/MobileFaceNet/Conv2d_2_InvResBlock_1/Conv/BatchNorm/FusedBatchNorm","op":"_FusedConv2D","input":["MobileFaceNet/MobileFaceNet/Conv2d_2_InvResBlock_0/Conv_1/BatchNorm/FusedBatchNorm","MobileFaceNet/MobileFaceNet/Conv2d_2_InvResBlock_1/Conv/Conv2D_weights","MobileFaceNet/MobileFaceNet/Conv2d_2_InvResBlock_1/Conv/Conv2D_bn_offset"],"device":"/device:CPU:0","attr":{"epsilon":{"f":0},"padding":{"s":"U0FNRQ=="},"strides":{"list":{"i":["1","1","1","1"]}},"data_format":{"s":"TkhXQw=="},"explicit_paddings":{"list":{}},"fused_ops":{"list":{"s":["Qmlhc0FkZA=="]}},"num_args":{"i":"1"},"T":{"type":"DT_FLOAT"},"use_cudnn_on_gpu":{"b":true},"dilations":{"list":{"i":["1","1","1","1"]}}}},
          {"name":"MobileFaceNet/MobileFaceNet/Conv2d_2_InvResBlock_1/Conv/Relu","op":"Relu","input":["MobileFaceNet/MobileFaceNet/Conv2d_2_InvResBlock_1/Conv/BatchNorm/FusedBatchNorm"],"attr":{"T":{"type":"DT_FLOAT"}}},
          {"name":"MobileFaceNet/MobileFaceNet/Conv2d_2_InvResBlock_1/Conv/Abs","op":"Abs","input":["MobileFaceNet/MobileFaceNet/Conv2d_2_InvResBlock_1/Conv/BatchNorm/FusedBatchNorm"],"attr":{"T":{"type":"DT_FLOAT"}}},
          {"name":"MobileFaceNet/MobileFaceNet/Conv2d_2_InvResBlock_1/Conv/sub","op":"Sub","input":["MobileFaceNet/MobileFaceNet/Conv2d_2_InvResBlock_1/Conv/BatchNorm/FusedBatchNorm","MobileFaceNet/MobileFaceNet/Conv2d_2_InvResBlock_1/Conv/Abs"],"attr":{"T":{"type":"DT_FLOAT"}}},
          {"name":"MobileFaceNet/MobileFaceNet/Conv2d_2_InvResBlock_1/Conv/mul_1","op":"Mul","input":["MobileFaceNet/MobileFaceNet/Conv2d_2_InvResBlock_1/Conv/sub","MobileFaceNet/MobileFaceNet/Conv2d_2_InvResBlock_1/Conv/mul"],"attr":{"T":{"type":"DT_FLOAT"}}},
          {"name":"MobileFaceNet/MobileFaceNet/Conv2d_2_InvResBlock_1/Conv/add","op":"Add","input":["MobileFaceNet/MobileFaceNet/Conv2d_2_InvResBlock_1/Conv/Relu","MobileFaceNet/MobileFaceNet/Conv2d_2_InvResBlock_1/Conv/mul_1"],"attr":{"T":{"type":"DT_FLOAT"}}},
          {"name":"MobileFaceNet/MobileFaceNet/Conv2d_2_InvResBlock_1/SeparableConv2d/depthwise","op":"FusedDepthwiseConv2dNative","input":["MobileFaceNet/MobileFaceNet/Conv2d_2_InvResBlock_1/Conv/add","MobileFaceNet/MobileFaceNet/Conv2d_2_InvResBlock_1/SeparableConv2d/depthwise_weights","MobileFaceNet/MobileFaceNet/Conv2d_2_InvResBlock_1/SeparableConv2d/depthwise_bn_offset"],"attr":{"padding":{"s":"U0FNRQ=="},"num_args":{"i":"1"},"strides":{"list":{"i":["1","1","1","1"]}},"T":{"type":"DT_FLOAT"},"data_format":{"s":"TkhXQw=="},"dilations":{"list":{"i":["1","1","1","1"]}},"fused_ops":{"list":{"s":["Qmlhc0FkZA==","UmVsdQ=="]}},"explicit_paddings":{"list":{}}}},
          {"name":"MobileFaceNet/MobileFaceNet/Conv2d_2_InvResBlock_1/SeparableConv2d/Abs","op":"Abs","input":["MobileFaceNet/MobileFaceNet/Conv2d_2_InvResBlock_1/SeparableConv2d/depthwise"],"attr":{"T":{"type":"DT_FLOAT"}}},
          {"name":"MobileFaceNet/MobileFaceNet/Conv2d_2_InvResBlock_1/SeparableConv2d/sub","op":"Sub","input":["MobileFaceNet/MobileFaceNet/Conv2d_2_InvResBlock_1/SeparableConv2d/depthwise","MobileFaceNet/MobileFaceNet/Conv2d_2_InvResBlock_1/SeparableConv2d/Abs"],"attr":{"T":{"type":"DT_FLOAT"}}},
          {"name":"MobileFaceNet/MobileFaceNet/Conv2d_2_InvResBlock_1/SeparableConv2d/mul_1","op":"Mul","input":["MobileFaceNet/MobileFaceNet/Conv2d_2_InvResBlock_1/SeparableConv2d/sub","MobileFaceNet/MobileFaceNet/Conv2d_2_InvResBlock_1/SeparableConv2d/mul"],"attr":{"T":{"type":"DT_FLOAT"}}},
          {"name":"MobileFaceNet/MobileFaceNet/Conv2d_2_InvResBlock_1/SeparableConv2d/add","op":"Add","input":["MobileFaceNet/MobileFaceNet/Conv2d_2_InvResBlock_1/SeparableConv2d/depthwise","MobileFaceNet/MobileFaceNet/Conv2d_2_InvResBlock_1/SeparableConv2d/mul_1"],"attr":{"T":{"type":"DT_FLOAT"}}},
          {"name":"MobileFaceNet/MobileFaceNet/Conv2d_2_InvResBlock_1/Conv_1/BatchNorm/FusedBatchNorm","op":"_FusedConv2D","input":["MobileFaceNet/MobileFaceNet/Conv2d_2_InvResBlock_1/SeparableConv2d/add","MobileFaceNet/MobileFaceNet/Conv2d_2_InvResBlock_1/Conv_1/Conv2D_weights","MobileFaceNet/MobileFaceNet/Conv2d_2_InvResBlock_1/Conv_1/Conv2D_bn_offset"],"device":"/device:CPU:0","attr":{"use_cudnn_on_gpu":{"b":true},"padding":{"s":"U0FNRQ=="},"fused_ops":{"list":{"s":["Qmlhc0FkZA=="]}},"strides":{"list":{"i":["1","1","1","1"]}},"epsilon":{"f":0},"dilations":{"list":{"i":["1","1","1","1"]}},"T":{"type":"DT_FLOAT"},"data_format":{"s":"TkhXQw=="},"explicit_paddings":{"list":{}},"num_args":{"i":"1"}}},
          {"name":"MobileFaceNet/MobileFaceNet/Conv2d_2_InvResBlock_1/Add","op":"Add","input":["MobileFaceNet/MobileFaceNet/Conv2d_2_InvResBlock_1/Conv_1/BatchNorm/FusedBatchNorm","MobileFaceNet/MobileFaceNet/Conv2d_2_InvResBlock_0/Conv_1/BatchNorm/FusedBatchNorm"],"attr":{"T":{"type":"DT_FLOAT"}}},
          {"name":"MobileFaceNet/MobileFaceNet/Conv2d_2_InvResBlock_2/Conv/BatchNorm/FusedBatchNorm","op":"_FusedConv2D","input":["MobileFaceNet/MobileFaceNet/Conv2d_2_InvResBlock_1/Add","MobileFaceNet/MobileFaceNet/Conv2d_2_InvResBlock_2/Conv/Conv2D_weights","MobileFaceNet/MobileFaceNet/Conv2d_2_InvResBlock_2/Conv/Conv2D_bn_offset"],"device":"/device:CPU:0","attr":{"strides":{"list":{"i":["1","1","1","1"]}},"num_args":{"i":"1"},"epsilon":{"f":0},"data_format":{"s":"TkhXQw=="},"explicit_paddings":{"list":{}},"padding":{"s":"U0FNRQ=="},"use_cudnn_on_gpu":{"b":true},"dilations":{"list":{"i":["1","1","1","1"]}},"T":{"type":"DT_FLOAT"},"fused_ops":{"list":{"s":["Qmlhc0FkZA=="]}}}},
          {"name":"MobileFaceNet/MobileFaceNet/Conv2d_2_InvResBlock_2/Conv/Relu","op":"Relu","input":["MobileFaceNet/MobileFaceNet/Conv2d_2_InvResBlock_2/Conv/BatchNorm/FusedBatchNorm"],"attr":{"T":{"type":"DT_FLOAT"}}},
          {"name":"MobileFaceNet/MobileFaceNet/Conv2d_2_InvResBlock_2/Conv/Abs","op":"Abs","input":["MobileFaceNet/MobileFaceNet/Conv2d_2_InvResBlock_2/Conv/BatchNorm/FusedBatchNorm"],"attr":{"T":{"type":"DT_FLOAT"}}},
          {"name":"MobileFaceNet/MobileFaceNet/Conv2d_2_InvResBlock_2/Conv/sub","op":"Sub","input":["MobileFaceNet/MobileFaceNet/Conv2d_2_InvResBlock_2/Conv/BatchNorm/FusedBatchNorm","MobileFaceNet/MobileFaceNet/Conv2d_2_InvResBlock_2/Conv/Abs"],"attr":{"T":{"type":"DT_FLOAT"}}},
          {"name":"MobileFaceNet/MobileFaceNet/Conv2d_2_InvResBlock_2/Conv/mul_1","op":"Mul","input":["MobileFaceNet/MobileFaceNet/Conv2d_2_InvResBlock_2/Conv/sub","MobileFaceNet/MobileFaceNet/Conv2d_2_InvResBlock_2/Conv/mul"],"attr":{"T":{"type":"DT_FLOAT"}}},
          {"name":"MobileFaceNet/MobileFaceNet/Conv2d_2_InvResBlock_2/Conv/add","op":"Add","input":["MobileFaceNet/MobileFaceNet/Conv2d_2_InvResBlock_2/Conv/Relu","MobileFaceNet/MobileFaceNet/Conv2d_2_InvResBlock_2/Conv/mul_1"],"attr":{"T":{"type":"DT_FLOAT"}}},
          {"name":"MobileFaceNet/MobileFaceNet/Conv2d_2_InvResBlock_2/SeparableConv2d/depthwise","op":"FusedDepthwiseConv2dNative","input":["MobileFaceNet/MobileFaceNet/Conv2d_2_InvResBlock_2/Conv/add","MobileFaceNet/MobileFaceNet/Conv2d_2_InvResBlock_2/SeparableConv2d/depthwise_weights","MobileFaceNet/MobileFaceNet/Conv2d_2_InvResBlock_2/SeparableConv2d/depthwise_bn_offset"],"attr":{"strides":{"list":{"i":["1","1","1","1"]}},"num_args":{"i":"1"},"fused_ops":{"list":{"s":["Qmlhc0FkZA==","UmVsdQ=="]}},"padding":{"s":"U0FNRQ=="},"explicit_paddings":{"list":{}},"T":{"type":"DT_FLOAT"},"dilations":{"list":{"i":["1","1","1","1"]}},"data_format":{"s":"TkhXQw=="}}},
          {"name":"MobileFaceNet/MobileFaceNet/Conv2d_2_InvResBlock_2/SeparableConv2d/Abs","op":"Abs","input":["MobileFaceNet/MobileFaceNet/Conv2d_2_InvResBlock_2/SeparableConv2d/depthwise"],"attr":{"T":{"type":"DT_FLOAT"}}},
          {"name":"MobileFaceNet/MobileFaceNet/Conv2d_2_InvResBlock_2/SeparableConv2d/sub","op":"Sub","input":["MobileFaceNet/MobileFaceNet/Conv2d_2_InvResBlock_2/SeparableConv2d/depthwise","MobileFaceNet/MobileFaceNet/Conv2d_2_InvResBlock_2/SeparableConv2d/Abs"],"attr":{"T":{"type":"DT_FLOAT"}}},
          {"name":"MobileFaceNet/MobileFaceNet/Conv2d_2_InvResBlock_2/SeparableConv2d/mul_1","op":"Mul","input":["MobileFaceNet/MobileFaceNet/Conv2d_2_InvResBlock_2/SeparableConv2d/sub","MobileFaceNet/MobileFaceNet/Conv2d_2_InvResBlock_2/SeparableConv2d/mul"],"attr":{"T":{"type":"DT_FLOAT"}}},
          {"name":"MobileFaceNet/MobileFaceNet/Conv2d_2_InvResBlock_2/SeparableConv2d/add","op":"Add","input":["MobileFaceNet/MobileFaceNet/Conv2d_2_InvResBlock_2/SeparableConv2d/depthwise","MobileFaceNet/MobileFaceNet/Conv2d_2_InvResBlock_2/SeparableConv2d/mul_1"],"attr":{"T":{"type":"DT_FLOAT"}}},
          {"name":"MobileFaceNet/MobileFaceNet/Conv2d_2_InvResBlock_2/Conv_1/BatchNorm/FusedBatchNorm","op":"_FusedConv2D","input":["MobileFaceNet/MobileFaceNet/Conv2d_2_InvResBlock_2/SeparableConv2d/add","MobileFaceNet/MobileFaceNet/Conv2d_2_InvResBlock_2/Conv_1/Conv2D_weights","MobileFaceNet/MobileFaceNet/Conv2d_2_InvResBlock_2/Conv_1/Conv2D_bn_offset"],"device":"/device:CPU:0","attr":{"use_cudnn_on_gpu":{"b":true},"data_format":{"s":"TkhXQw=="},"dilations":{"list":{"i":["1","1","1","1"]}},"padding":{"s":"U0FNRQ=="},"fused_ops":{"list":{"s":["Qmlhc0FkZA=="]}},"explicit_paddings":{"list":{}},"epsilon":{"f":0},"T":{"type":"DT_FLOAT"},"strides":{"list":{"i":["1","1","1","1"]}},"num_args":{"i":"1"}}},
          {"name":"MobileFaceNet/MobileFaceNet/Conv2d_2_InvResBlock_2/Add","op":"Add","input":["MobileFaceNet/MobileFaceNet/Conv2d_2_InvResBlock_2/Conv_1/BatchNorm/FusedBatchNorm","MobileFaceNet/MobileFaceNet/Conv2d_2_InvResBlock_1/Add"],"attr":{"T":{"type":"DT_FLOAT"}}},
          {"name":"MobileFaceNet/MobileFaceNet/Conv2d_2_InvResBlock_3/Conv/BatchNorm/FusedBatchNorm","op":"_FusedConv2D","input":["MobileFaceNet/MobileFaceNet/Conv2d_2_InvResBlock_2/Add","MobileFaceNet/MobileFaceNet/Conv2d_2_InvResBlock_3/Conv/Conv2D_weights","MobileFaceNet/MobileFaceNet/Conv2d_2_InvResBlock_3/Conv/Conv2D_bn_offset"],"device":"/device:CPU:0","attr":{"data_format":{"s":"TkhXQw=="},"use_cudnn_on_gpu":{"b":true},"explicit_paddings":{"list":{}},"T":{"type":"DT_FLOAT"},"num_args":{"i":"1"},"padding":{"s":"U0FNRQ=="},"epsilon":{"f":0},"dilations":{"list":{"i":["1","1","1","1"]}},"fused_ops":{"list":{"s":["Qmlhc0FkZA=="]}},"strides":{"list":{"i":["1","1","1","1"]}}}},
          {"name":"MobileFaceNet/MobileFaceNet/Conv2d_2_InvResBlock_3/Conv/Relu","op":"Relu","input":["MobileFaceNet/MobileFaceNet/Conv2d_2_InvResBlock_3/Conv/BatchNorm/FusedBatchNorm"],"attr":{"T":{"type":"DT_FLOAT"}}},
          {"name":"MobileFaceNet/MobileFaceNet/Conv2d_2_InvResBlock_3/Conv/Abs","op":"Abs","input":["MobileFaceNet/MobileFaceNet/Conv2d_2_InvResBlock_3/Conv/BatchNorm/FusedBatchNorm"],"attr":{"T":{"type":"DT_FLOAT"}}},
          {"name":"MobileFaceNet/MobileFaceNet/Conv2d_2_InvResBlock_3/Conv/sub","op":"Sub","input":["MobileFaceNet/MobileFaceNet/Conv2d_2_InvResBlock_3/Conv/BatchNorm/FusedBatchNorm","MobileFaceNet/MobileFaceNet/Conv2d_2_InvResBlock_3/Conv/Abs"],"attr":{"T":{"type":"DT_FLOAT"}}},
          {"name":"MobileFaceNet/MobileFaceNet/Conv2d_2_InvResBlock_3/Conv/mul_1","op":"Mul","input":["MobileFaceNet/MobileFaceNet/Conv2d_2_InvResBlock_3/Conv/sub","MobileFaceNet/MobileFaceNet/Conv2d_2_InvResBlock_3/Conv/mul"],"attr":{"T":{"type":"DT_FLOAT"}}},
          {"name":"MobileFaceNet/MobileFaceNet/Conv2d_2_InvResBlock_3/Conv/add","op":"Add","input":["MobileFaceNet/MobileFaceNet/Conv2d_2_InvResBlock_3/Conv/Relu","MobileFaceNet/MobileFaceNet/Conv2d_2_InvResBlock_3/Conv/mul_1"],"attr":{"T":{"type":"DT_FLOAT"}}},
          {"name":"MobileFaceNet/MobileFaceNet/Conv2d_2_InvResBlock_3/SeparableConv2d/depthwise","op":"FusedDepthwiseConv2dNative","input":["MobileFaceNet/MobileFaceNet/Conv2d_2_InvResBlock_3/Conv/add","MobileFaceNet/MobileFaceNet/Conv2d_2_InvResBlock_3/SeparableConv2d/depthwise_weights","MobileFaceNet/MobileFaceNet/Conv2d_2_InvResBlock_3/SeparableConv2d/depthwise_bn_offset"],"attr":{"strides":{"list":{"i":["1","1","1","1"]}},"num_args":{"i":"1"},"dilations":{"list":{"i":["1","1","1","1"]}},"padding":{"s":"U0FNRQ=="},"T":{"type":"DT_FLOAT"},"explicit_paddings":{"list":{}},"fused_ops":{"list":{"s":["Qmlhc0FkZA==","UmVsdQ=="]}},"data_format":{"s":"TkhXQw=="}}},
          {"name":"MobileFaceNet/MobileFaceNet/Conv2d_2_InvResBlock_3/SeparableConv2d/Abs","op":"Abs","input":["MobileFaceNet/MobileFaceNet/Conv2d_2_InvResBlock_3/SeparableConv2d/depthwise"],"attr":{"T":{"type":"DT_FLOAT"}}},
          {"name":"MobileFaceNet/MobileFaceNet/Conv2d_2_InvResBlock_3/SeparableConv2d/sub","op":"Sub","input":["MobileFaceNet/MobileFaceNet/Conv2d_2_InvResBlock_3/SeparableConv2d/depthwise","MobileFaceNet/MobileFaceNet/Conv2d_2_InvResBlock_3/SeparableConv2d/Abs"],"attr":{"T":{"type":"DT_FLOAT"}}},
          {"name":"MobileFaceNet/MobileFaceNet/Conv2d_2_InvResBlock_3/SeparableConv2d/mul_1","op":"Mul","input":["MobileFaceNet/MobileFaceNet/Conv2d_2_InvResBlock_3/SeparableConv2d/sub","MobileFaceNet/MobileFaceNet/Conv2d_2_InvResBlock_3/SeparableConv2d/mul"],"attr":{"T":{"type":"DT_FLOAT"}}},
          {"name":"MobileFaceNet/MobileFaceNet/Conv2d_2_InvResBlock_3/SeparableConv2d/add","op":"Add","input":["MobileFaceNet/MobileFaceNet/Conv2d_2_InvResBlock_3/SeparableConv2d/depthwise","MobileFaceNet/MobileFaceNet/Conv2d_2_InvResBlock_3/SeparableConv2d/mul_1"],"attr":{"T":{"type":"DT_FLOAT"}}},
          {"name":"MobileFaceNet/MobileFaceNet/Conv2d_2_InvResBlock_3/Conv_1/BatchNorm/FusedBatchNorm","op":"_FusedConv2D","input":["MobileFaceNet/MobileFaceNet/Conv2d_2_InvResBlock_3/SeparableConv2d/add","MobileFaceNet/MobileFaceNet/Conv2d_2_InvResBlock_3/Conv_1/Conv2D_weights","MobileFaceNet/MobileFaceNet/Conv2d_2_InvResBlock_3/Conv_1/Conv2D_bn_offset"],"device":"/device:CPU:0","attr":{"fused_ops":{"list":{"s":["Qmlhc0FkZA=="]}},"padding":{"s":"U0FNRQ=="},"strides":{"list":{"i":["1","1","1","1"]}},"epsilon":{"f":0},"dilations":{"list":{"i":["1","1","1","1"]}},"data_format":{"s":"TkhXQw=="},"use_cudnn_on_gpu":{"b":true},"explicit_paddings":{"list":{}},"num_args":{"i":"1"},"T":{"type":"DT_FLOAT"}}},
          {"name":"MobileFaceNet/MobileFaceNet/Conv2d_2_InvResBlock_3/Add","op":"Add","input":["MobileFaceNet/MobileFaceNet/Conv2d_2_InvResBlock_3/Conv_1/BatchNorm/FusedBatchNorm","MobileFaceNet/MobileFaceNet/Conv2d_2_InvResBlock_2/Add"],"attr":{"T":{"type":"DT_FLOAT"}}},
          {"name":"MobileFaceNet/MobileFaceNet/Conv2d_2_InvResBlock_4/Conv/BatchNorm/FusedBatchNorm","op":"_FusedConv2D","input":["MobileFaceNet/MobileFaceNet/Conv2d_2_InvResBlock_3/Add","MobileFaceNet/MobileFaceNet/Conv2d_2_InvResBlock_4/Conv/Conv2D_weights","MobileFaceNet/MobileFaceNet/Conv2d_2_InvResBlock_4/Conv/Conv2D_bn_offset"],"device":"/device:CPU:0","attr":{"use_cudnn_on_gpu":{"b":true},"dilations":{"list":{"i":["1","1","1","1"]}},"strides":{"list":{"i":["1","1","1","1"]}},"T":{"type":"DT_FLOAT"},"padding":{"s":"U0FNRQ=="},"epsilon":{"f":0},"data_format":{"s":"TkhXQw=="},"num_args":{"i":"1"},"fused_ops":{"list":{"s":["Qmlhc0FkZA=="]}},"explicit_paddings":{"list":{}}}},
          {"name":"MobileFaceNet/MobileFaceNet/Conv2d_2_InvResBlock_4/Conv/Relu","op":"Relu","input":["MobileFaceNet/MobileFaceNet/Conv2d_2_InvResBlock_4/Conv/BatchNorm/FusedBatchNorm"],"attr":{"T":{"type":"DT_FLOAT"}}},
          {"name":"MobileFaceNet/MobileFaceNet/Conv2d_2_InvResBlock_4/Conv/Abs","op":"Abs","input":["MobileFaceNet/MobileFaceNet/Conv2d_2_InvResBlock_4/Conv/BatchNorm/FusedBatchNorm"],"attr":{"T":{"type":"DT_FLOAT"}}},
          {"name":"MobileFaceNet/MobileFaceNet/Conv2d_2_InvResBlock_4/Conv/sub","op":"Sub","input":["MobileFaceNet/MobileFaceNet/Conv2d_2_InvResBlock_4/Conv/BatchNorm/FusedBatchNorm","MobileFaceNet/MobileFaceNet/Conv2d_2_InvResBlock_4/Conv/Abs"],"attr":{"T":{"type":"DT_FLOAT"}}},
          {"name":"MobileFaceNet/MobileFaceNet/Conv2d_2_InvResBlock_4/Conv/mul_1","op":"Mul","input":["MobileFaceNet/MobileFaceNet/Conv2d_2_InvResBlock_4/Conv/sub","MobileFaceNet/MobileFaceNet/Conv2d_2_InvResBlock_4/Conv/mul"],"attr":{"T":{"type":"DT_FLOAT"}}},
          {"name":"MobileFaceNet/MobileFaceNet/Conv2d_2_InvResBlock_4/Conv/add","op":"Add","input":["MobileFaceNet/MobileFaceNet/Conv2d_2_InvResBlock_4/Conv/Relu","MobileFaceNet/MobileFaceNet/Conv2d_2_InvResBlock_4/Conv/mul_1"],"attr":{"T":{"type":"DT_FLOAT"}}},
          {"name":"MobileFaceNet/MobileFaceNet/Conv2d_2_InvResBlock_4/SeparableConv2d/depthwise","op":"FusedDepthwiseConv2dNative","input":["MobileFaceNet/MobileFaceNet/Conv2d_2_InvResBlock_4/Conv/add","MobileFaceNet/MobileFaceNet/Conv2d_2_InvResBlock_4/SeparableConv2d/depthwise_weights","MobileFaceNet/MobileFaceNet/Conv2d_2_InvResBlock_4/SeparableConv2d/depthwise_bn_offset"],"attr":{"fused_ops":{"list":{"s":["Qmlhc0FkZA==","UmVsdQ=="]}},"num_args":{"i":"1"},"padding":{"s":"U0FNRQ=="},"data_format":{"s":"TkhXQw=="},"explicit_paddings":{"list":{}},"dilations":{"list":{"i":["1","1","1","1"]}},"T":{"type":"DT_FLOAT"},"strides":{"list":{"i":["1","1","1","1"]}}}},
          {"name":"MobileFaceNet/MobileFaceNet/Conv2d_2_InvResBlock_4/SeparableConv2d/Abs","op":"Abs","input":["MobileFaceNet/MobileFaceNet/Conv2d_2_InvResBlock_4/SeparableConv2d/depthwise"],"attr":{"T":{"type":"DT_FLOAT"}}},
          {"name":"MobileFaceNet/MobileFaceNet/Conv2d_2_InvResBlock_4/SeparableConv2d/sub","op":"Sub","input":["MobileFaceNet/MobileFaceNet/Conv2d_2_InvResBlock_4/SeparableConv2d/depthwise","MobileFaceNet/MobileFaceNet/Conv2d_2_InvResBlock_4/SeparableConv2d/Abs"],"attr":{"T":{"type":"DT_FLOAT"}}},
          {"name":"MobileFaceNet/MobileFaceNet/Conv2d_2_InvResBlock_4/SeparableConv2d/mul_1","op":"Mul","input":["MobileFaceNet/MobileFaceNet/Conv2d_2_InvResBlock_4/SeparableConv2d/sub","MobileFaceNet/MobileFaceNet/Conv2d_2_InvResBlock_4/SeparableConv2d/mul"],"attr":{"T":{"type":"DT_FLOAT"}}},
          {"name":"MobileFaceNet/MobileFaceNet/Conv2d_2_InvResBlock_4/SeparableConv2d/add","op":"Add","input":["MobileFaceNet/MobileFaceNet/Conv2d_2_InvResBlock_4/SeparableConv2d/depthwise","MobileFaceNet/MobileFaceNet/Conv2d_2_InvResBlock_4/SeparableConv2d/mul_1"],"attr":{"T":{"type":"DT_FLOAT"}}},
          {"name":"MobileFaceNet/MobileFaceNet/Conv2d_2_InvResBlock_4/Conv_1/BatchNorm/FusedBatchNorm","op":"_FusedConv2D","input":["MobileFaceNet/MobileFaceNet/Conv2d_2_InvResBlock_4/SeparableConv2d/add","MobileFaceNet/MobileFaceNet/Conv2d_2_InvResBlock_4/Conv_1/Conv2D_weights","MobileFaceNet/MobileFaceNet/Conv2d_2_InvResBlock_4/Conv_1/Conv2D_bn_offset"],"device":"/device:CPU:0","attr":{"num_args":{"i":"1"},"T":{"type":"DT_FLOAT"},"strides":{"list":{"i":["1","1","1","1"]}},"dilations":{"list":{"i":["1","1","1","1"]}},"epsilon":{"f":0},"fused_ops":{"list":{"s":["Qmlhc0FkZA=="]}},"padding":{"s":"U0FNRQ=="},"data_format":{"s":"TkhXQw=="},"use_cudnn_on_gpu":{"b":true},"explicit_paddings":{"list":{}}}},
          {"name":"MobileFaceNet/MobileFaceNet/Conv2d_2_InvResBlock_4/Add","op":"Add","input":["MobileFaceNet/MobileFaceNet/Conv2d_2_InvResBlock_4/Conv_1/BatchNorm/FusedBatchNorm","MobileFaceNet/MobileFaceNet/Conv2d_2_InvResBlock_3/Add"],"attr":{"T":{"type":"DT_FLOAT"}}},
          {"name":"MobileFaceNet/MobileFaceNet/Conv2d_3_InvResBlock_0/Conv/BatchNorm/FusedBatchNorm","op":"_FusedConv2D","input":["MobileFaceNet/MobileFaceNet/Conv2d_2_InvResBlock_4/Add","MobileFaceNet/MobileFaceNet/Conv2d_3_InvResBlock_0/Conv/Conv2D_weights","MobileFaceNet/MobileFaceNet/Conv2d_3_InvResBlock_0/Conv/Conv2D_bn_offset"],"device":"/device:CPU:0","attr":{"fused_ops":{"list":{"s":["Qmlhc0FkZA=="]}},"padding":{"s":"U0FNRQ=="},"data_format":{"s":"TkhXQw=="},"use_cudnn_on_gpu":{"b":true},"T":{"type":"DT_FLOAT"},"strides":{"list":{"i":["1","1","1","1"]}},"epsilon":{"f":0},"num_args":{"i":"1"},"explicit_paddings":{"list":{}},"dilations":{"list":{"i":["1","1","1","1"]}}}},
          {"name":"MobileFaceNet/MobileFaceNet/Conv2d_3_InvResBlock_0/Conv/Relu","op":"Relu","input":["MobileFaceNet/MobileFaceNet/Conv2d_3_InvResBlock_0/Conv/BatchNorm/FusedBatchNorm"],"attr":{"T":{"type":"DT_FLOAT"}}},
          {"name":"MobileFaceNet/MobileFaceNet/Conv2d_3_InvResBlock_0/Conv/Abs","op":"Abs","input":["MobileFaceNet/MobileFaceNet/Conv2d_3_InvResBlock_0/Conv/BatchNorm/FusedBatchNorm"],"attr":{"T":{"type":"DT_FLOAT"}}},
          {"name":"MobileFaceNet/MobileFaceNet/Conv2d_3_InvResBlock_0/Conv/sub","op":"Sub","input":["MobileFaceNet/MobileFaceNet/Conv2d_3_InvResBlock_0/Conv/BatchNorm/FusedBatchNorm","MobileFaceNet/MobileFaceNet/Conv2d_3_InvResBlock_0/Conv/Abs"],"attr":{"T":{"type":"DT_FLOAT"}}},
          {"name":"MobileFaceNet/MobileFaceNet/Conv2d_3_InvResBlock_0/Conv/mul_1","op":"Mul","input":["MobileFaceNet/MobileFaceNet/Conv2d_3_InvResBlock_0/Conv/sub","MobileFaceNet/MobileFaceNet/Conv2d_3_InvResBlock_0/Conv/mul"],"attr":{"T":{"type":"DT_FLOAT"}}},
          {"name":"MobileFaceNet/MobileFaceNet/Conv2d_3_InvResBlock_0/Conv/add","op":"Add","input":["MobileFaceNet/MobileFaceNet/Conv2d_3_InvResBlock_0/Conv/Relu","MobileFaceNet/MobileFaceNet/Conv2d_3_InvResBlock_0/Conv/mul_1"],"attr":{"T":{"type":"DT_FLOAT"}}},
          {"name":"MobileFaceNet/MobileFaceNet/Conv2d_3_InvResBlock_0/SeparableConv2d/depthwise","op":"FusedDepthwiseConv2dNative","input":["MobileFaceNet/MobileFaceNet/Conv2d_3_InvResBlock_0/Conv/add","MobileFaceNet/MobileFaceNet/Conv2d_3_InvResBlock_0/SeparableConv2d/depthwise_weights","MobileFaceNet/MobileFaceNet/Conv2d_3_InvResBlock_0/SeparableConv2d/depthwise_bn_offset"],"attr":{"T":{"type":"DT_FLOAT"},"explicit_paddings":{"list":{}},"fused_ops":{"list":{"s":["Qmlhc0FkZA==","UmVsdQ=="]}},"data_format":{"s":"TkhXQw=="},"num_args":{"i":"1"},"dilations":{"list":{"i":["1","1","1","1"]}},"strides":{"list":{"i":["1","2","2","1"]}},"padding":{"s":"U0FNRQ=="}}},
          {"name":"MobileFaceNet/MobileFaceNet/Conv2d_3_InvResBlock_0/SeparableConv2d/Abs","op":"Abs","input":["MobileFaceNet/MobileFaceNet/Conv2d_3_InvResBlock_0/SeparableConv2d/depthwise"],"attr":{"T":{"type":"DT_FLOAT"}}},
          {"name":"MobileFaceNet/MobileFaceNet/Conv2d_3_InvResBlock_0/SeparableConv2d/sub","op":"Sub","input":["MobileFaceNet/MobileFaceNet/Conv2d_3_InvResBlock_0/SeparableConv2d/depthwise","MobileFaceNet/MobileFaceNet/Conv2d_3_InvResBlock_0/SeparableConv2d/Abs"],"attr":{"T":{"type":"DT_FLOAT"}}},
          {"name":"MobileFaceNet/MobileFaceNet/Conv2d_3_InvResBlock_0/SeparableConv2d/mul_1","op":"Mul","input":["MobileFaceNet/MobileFaceNet/Conv2d_3_InvResBlock_0/SeparableConv2d/sub","MobileFaceNet/MobileFaceNet/Conv2d_3_InvResBlock_0/SeparableConv2d/mul"],"attr":{"T":{"type":"DT_FLOAT"}}},
          {"name":"MobileFaceNet/MobileFaceNet/Conv2d_3_InvResBlock_0/SeparableConv2d/add","op":"Add","input":["MobileFaceNet/MobileFaceNet/Conv2d_3_InvResBlock_0/SeparableConv2d/depthwise","MobileFaceNet/MobileFaceNet/Conv2d_3_InvResBlock_0/SeparableConv2d/mul_1"],"attr":{"T":{"type":"DT_FLOAT"}}},
          {"name":"MobileFaceNet/MobileFaceNet/Conv2d_3_InvResBlock_0/Conv_1/BatchNorm/FusedBatchNorm","op":"_FusedConv2D","input":["MobileFaceNet/MobileFaceNet/Conv2d_3_InvResBlock_0/SeparableConv2d/add","MobileFaceNet/MobileFaceNet/Conv2d_3_InvResBlock_0/Conv_1/Conv2D_weights","MobileFaceNet/MobileFaceNet/Conv2d_3_InvResBlock_0/Conv_1/Conv2D_bn_offset"],"device":"/device:CPU:0","attr":{"fused_ops":{"list":{"s":["Qmlhc0FkZA=="]}},"epsilon":{"f":0},"use_cudnn_on_gpu":{"b":true},"dilations":{"list":{"i":["1","1","1","1"]}},"padding":{"s":"U0FNRQ=="},"data_format":{"s":"TkhXQw=="},"strides":{"list":{"i":["1","1","1","1"]}},"num_args":{"i":"1"},"T":{"type":"DT_FLOAT"},"explicit_paddings":{"list":{}}}},
          {"name":"MobileFaceNet/MobileFaceNet/Conv2d_4_InvResBlock_0/Conv/BatchNorm/FusedBatchNorm","op":"_FusedConv2D","input":["MobileFaceNet/MobileFaceNet/Conv2d_3_InvResBlock_0/Conv_1/BatchNorm/FusedBatchNorm","MobileFaceNet/MobileFaceNet/Conv2d_4_InvResBlock_0/Conv/Conv2D_weights","MobileFaceNet/MobileFaceNet/Conv2d_4_InvResBlock_0/Conv/Conv2D_bn_offset"],"device":"/device:CPU:0","attr":{"use_cudnn_on_gpu":{"b":true},"padding":{"s":"U0FNRQ=="},"data_format":{"s":"TkhXQw=="},"fused_ops":{"list":{"s":["Qmlhc0FkZA=="]}},"T":{"type":"DT_FLOAT"},"dilations":{"list":{"i":["1","1","1","1"]}},"explicit_paddings":{"list":{}},"epsilon":{"f":0},"num_args":{"i":"1"},"strides":{"list":{"i":["1","1","1","1"]}}}},
          {"name":"MobileFaceNet/MobileFaceNet/Conv2d_4_InvResBlock_0/Conv/Relu","op":"Relu","input":["MobileFaceNet/MobileFaceNet/Conv2d_4_InvResBlock_0/Conv/BatchNorm/FusedBatchNorm"],"attr":{"T":{"type":"DT_FLOAT"}}},
          {"name":"MobileFaceNet/MobileFaceNet/Conv2d_4_InvResBlock_0/Conv/Abs","op":"Abs","input":["MobileFaceNet/MobileFaceNet/Conv2d_4_InvResBlock_0/Conv/BatchNorm/FusedBatchNorm"],"attr":{"T":{"type":"DT_FLOAT"}}},
          {"name":"MobileFaceNet/MobileFaceNet/Conv2d_4_InvResBlock_0/Conv/sub","op":"Sub","input":["MobileFaceNet/MobileFaceNet/Conv2d_4_InvResBlock_0/Conv/BatchNorm/FusedBatchNorm","MobileFaceNet/MobileFaceNet/Conv2d_4_InvResBlock_0/Conv/Abs"],"attr":{"T":{"type":"DT_FLOAT"}}},
          {"name":"MobileFaceNet/MobileFaceNet/Conv2d_4_InvResBlock_0/Conv/mul_1","op":"Mul","input":["MobileFaceNet/MobileFaceNet/Conv2d_4_InvResBlock_0/Conv/sub","MobileFaceNet/MobileFaceNet/Conv2d_4_InvResBlock_0/Conv/mul"],"attr":{"T":{"type":"DT_FLOAT"}}},
          {"name":"MobileFaceNet/MobileFaceNet/Conv2d_4_InvResBlock_0/Conv/add","op":"Add","input":["MobileFaceNet/MobileFaceNet/Conv2d_4_InvResBlock_0/Conv/Relu","MobileFaceNet/MobileFaceNet/Conv2d_4_InvResBlock_0/Conv/mul_1"],"attr":{"T":{"type":"DT_FLOAT"}}},
          {"name":"MobileFaceNet/MobileFaceNet/Conv2d_4_InvResBlock_0/SeparableConv2d/depthwise","op":"FusedDepthwiseConv2dNative","input":["MobileFaceNet/MobileFaceNet/Conv2d_4_InvResBlock_0/Conv/add","MobileFaceNet/MobileFaceNet/Conv2d_4_InvResBlock_0/SeparableConv2d/depthwise_weights","MobileFaceNet/MobileFaceNet/Conv2d_4_InvResBlock_0/SeparableConv2d/depthwise_bn_offset"],"attr":{"strides":{"list":{"i":["1","1","1","1"]}},"fused_ops":{"list":{"s":["Qmlhc0FkZA==","UmVsdQ=="]}},"num_args":{"i":"1"},"data_format":{"s":"TkhXQw=="},"padding":{"s":"U0FNRQ=="},"explicit_paddings":{"list":{}},"T":{"type":"DT_FLOAT"},"dilations":{"list":{"i":["1","1","1","1"]}}}},
          {"name":"MobileFaceNet/MobileFaceNet/Conv2d_4_InvResBlock_0/SeparableConv2d/Abs","op":"Abs","input":["MobileFaceNet/MobileFaceNet/Conv2d_4_InvResBlock_0/SeparableConv2d/depthwise"],"attr":{"T":{"type":"DT_FLOAT"}}},
          {"name":"MobileFaceNet/MobileFaceNet/Conv2d_4_InvResBlock_0/SeparableConv2d/sub","op":"Sub","input":["MobileFaceNet/MobileFaceNet/Conv2d_4_InvResBlock_0/SeparableConv2d/depthwise","MobileFaceNet/MobileFaceNet/Conv2d_4_InvResBlock_0/SeparableConv2d/Abs"],"attr":{"T":{"type":"DT_FLOAT"}}},
          {"name":"MobileFaceNet/MobileFaceNet/Conv2d_4_InvResBlock_0/SeparableConv2d/mul_1","op":"Mul","input":["MobileFaceNet/MobileFaceNet/Conv2d_4_InvResBlock_0/SeparableConv2d/sub","MobileFaceNet/MobileFaceNet/Conv2d_4_InvResBlock_0/SeparableConv2d/mul"],"attr":{"T":{"type":"DT_FLOAT"}}},
          {"name":"MobileFaceNet/MobileFaceNet/Conv2d_4_InvResBlock_0/SeparableConv2d/add","op":"Add","input":["MobileFaceNet/MobileFaceNet/Conv2d_4_InvResBlock_0/SeparableConv2d/depthwise","MobileFaceNet/MobileFaceNet/Conv2d_4_InvResBlock_0/SeparableConv2d/mul_1"],"attr":{"T":{"type":"DT_FLOAT"}}},
          {"name":"MobileFaceNet/MobileFaceNet/Conv2d_4_InvResBlock_0/Conv_1/BatchNorm/FusedBatchNorm","op":"_FusedConv2D","input":["MobileFaceNet/MobileFaceNet/Conv2d_4_InvResBlock_0/SeparableConv2d/add","MobileFaceNet/MobileFaceNet/Conv2d_4_InvResBlock_0/Conv_1/Conv2D_weights","MobileFaceNet/MobileFaceNet/Conv2d_4_InvResBlock_0/Conv_1/Conv2D_bn_offset"],"device":"/device:CPU:0","attr":{"epsilon":{"f":0},"dilations":{"list":{"i":["1","1","1","1"]}},"use_cudnn_on_gpu":{"b":true},"padding":{"s":"U0FNRQ=="},"explicit_paddings":{"list":{}},"strides":{"list":{"i":["1","1","1","1"]}},"T":{"type":"DT_FLOAT"},"data_format":{"s":"TkhXQw=="},"fused_ops":{"list":{"s":["Qmlhc0FkZA=="]}},"num_args":{"i":"1"}}},
          {"name":"MobileFaceNet/MobileFaceNet/Conv2d_4_InvResBlock_0/Add","op":"Add","input":["MobileFaceNet/MobileFaceNet/Conv2d_4_InvResBlock_0/Conv_1/BatchNorm/FusedBatchNorm","MobileFaceNet/MobileFaceNet/Conv2d_3_InvResBlock_0/Conv_1/BatchNorm/FusedBatchNorm"],"attr":{"T":{"type":"DT_FLOAT"}}},
          {"name":"MobileFaceNet/MobileFaceNet/Conv2d_4_InvResBlock_1/Conv/BatchNorm/FusedBatchNorm","op":"_FusedConv2D","input":["MobileFaceNet/MobileFaceNet/Conv2d_4_InvResBlock_0/Add","MobileFaceNet/MobileFaceNet/Conv2d_4_InvResBlock_1/Conv/Conv2D_weights","MobileFaceNet/MobileFaceNet/Conv2d_4_InvResBlock_1/Conv/Conv2D_bn_offset"],"device":"/device:CPU:0","attr":{"epsilon":{"f":0},"use_cudnn_on_gpu":{"b":true},"num_args":{"i":"1"},"strides":{"list":{"i":["1","1","1","1"]}},"data_format":{"s":"TkhXQw=="},"explicit_paddings":{"list":{}},"dilations":{"list":{"i":["1","1","1","1"]}},"padding":{"s":"U0FNRQ=="},"fused_ops":{"list":{"s":["Qmlhc0FkZA=="]}},"T":{"type":"DT_FLOAT"}}},
          {"name":"MobileFaceNet/MobileFaceNet/Conv2d_4_InvResBlock_1/Conv/Relu","op":"Relu","input":["MobileFaceNet/MobileFaceNet/Conv2d_4_InvResBlock_1/Conv/BatchNorm/FusedBatchNorm"],"attr":{"T":{"type":"DT_FLOAT"}}},
          {"name":"MobileFaceNet/MobileFaceNet/Conv2d_4_InvResBlock_1/Conv/Abs","op":"Abs","input":["MobileFaceNet/MobileFaceNet/Conv2d_4_InvResBlock_1/Conv/BatchNorm/FusedBatchNorm"],"attr":{"T":{"type":"DT_FLOAT"}}},
          {"name":"MobileFaceNet/MobileFaceNet/Conv2d_4_InvResBlock_1/Conv/sub","op":"Sub","input":["MobileFaceNet/MobileFaceNet/Conv2d_4_InvResBlock_1/Conv/BatchNorm/FusedBatchNorm","MobileFaceNet/MobileFaceNet/Conv2d_4_InvResBlock_1/Conv/Abs"],"attr":{"T":{"type":"DT_FLOAT"}}},
          {"name":"MobileFaceNet/MobileFaceNet/Conv2d_4_InvResBlock_1/Conv/mul_1","op":"Mul","input":["MobileFaceNet/MobileFaceNet/Conv2d_4_InvResBlock_1/Conv/sub","MobileFaceNet/MobileFaceNet/Conv2d_4_InvResBlock_1/Conv/mul"],"attr":{"T":{"type":"DT_FLOAT"}}},
          {"name":"MobileFaceNet/MobileFaceNet/Conv2d_4_InvResBlock_1/Conv/add","op":"Add","input":["MobileFaceNet/MobileFaceNet/Conv2d_4_InvResBlock_1/Conv/Relu","MobileFaceNet/MobileFaceNet/Conv2d_4_InvResBlock_1/Conv/mul_1"],"attr":{"T":{"type":"DT_FLOAT"}}},
          {"name":"MobileFaceNet/MobileFaceNet/Conv2d_4_InvResBlock_1/SeparableConv2d/depthwise","op":"FusedDepthwiseConv2dNative","input":["MobileFaceNet/MobileFaceNet/Conv2d_4_InvResBlock_1/Conv/add","MobileFaceNet/MobileFaceNet/Conv2d_4_InvResBlock_1/SeparableConv2d/depthwise_weights","MobileFaceNet/MobileFaceNet/Conv2d_4_InvResBlock_1/SeparableConv2d/depthwise_bn_offset"],"attr":{"num_args":{"i":"1"},"explicit_paddings":{"list":{}},"dilations":{"list":{"i":["1","1","1","1"]}},"data_format":{"s":"TkhXQw=="},"strides":{"list":{"i":["1","1","1","1"]}},"T":{"type":"DT_FLOAT"},"fused_ops":{"list":{"s":["Qmlhc0FkZA==","UmVsdQ=="]}},"padding":{"s":"U0FNRQ=="}}},
          {"name":"MobileFaceNet/MobileFaceNet/Conv2d_4_InvResBlock_1/SeparableConv2d/Abs","op":"Abs","input":["MobileFaceNet/MobileFaceNet/Conv2d_4_InvResBlock_1/SeparableConv2d/depthwise"],"attr":{"T":{"type":"DT_FLOAT"}}},
          {"name":"MobileFaceNet/MobileFaceNet/Conv2d_4_InvResBlock_1/SeparableConv2d/sub","op":"Sub","input":["MobileFaceNet/MobileFaceNet/Conv2d_4_InvResBlock_1/SeparableConv2d/depthwise","MobileFaceNet/MobileFaceNet/Conv2d_4_InvResBlock_1/SeparableConv2d/Abs"],"attr":{"T":{"type":"DT_FLOAT"}}},
          {"name":"MobileFaceNet/MobileFaceNet/Conv2d_4_InvResBlock_1/SeparableConv2d/mul_1","op":"Mul","input":["MobileFaceNet/MobileFaceNet/Conv2d_4_InvResBlock_1/SeparableConv2d/sub","MobileFaceNet/MobileFaceNet/Conv2d_4_InvResBlock_1/SeparableConv2d/mul"],"attr":{"T":{"type":"DT_FLOAT"}}},
          {"name":"MobileFaceNet/MobileFaceNet/Conv2d_4_InvResBlock_1/SeparableConv2d/add","op":"Add","input":["MobileFaceNet/MobileFaceNet/Conv2d_4_InvResBlock_1/SeparableConv2d/depthwise","MobileFaceNet/MobileFaceNet/Conv2d_4_InvResBlock_1/SeparableConv2d/mul_1"],"attr":{"T":{"type":"DT_FLOAT"}}},
          {"name":"MobileFaceNet/MobileFaceNet/Conv2d_4_InvResBlock_1/Conv_1/BatchNorm/FusedBatchNorm","op":"_FusedConv2D","input":["MobileFaceNet/MobileFaceNet/Conv2d_4_InvResBlock_1/SeparableConv2d/add","MobileFaceNet/MobileFaceNet/Conv2d_4_InvResBlock_1/Conv_1/Conv2D_weights","MobileFaceNet/MobileFaceNet/Conv2d_4_InvResBlock_1/Conv_1/Conv2D_bn_offset"],"device":"/device:CPU:0","attr":{"T":{"type":"DT_FLOAT"},"dilations":{"list":{"i":["1","1","1","1"]}},"use_cudnn_on_gpu":{"b":true},"explicit_paddings":{"list":{}},"epsilon":{"f":0},"strides":{"list":{"i":["1","1","1","1"]}},"fused_ops":{"list":{"s":["Qmlhc0FkZA=="]}},"num_args":{"i":"1"},"data_format":{"s":"TkhXQw=="},"padding":{"s":"U0FNRQ=="}}},
          {"name":"MobileFaceNet/MobileFaceNet/Conv2d_4_InvResBlock_1/Add","op":"Add","input":["MobileFaceNet/MobileFaceNet/Conv2d_4_InvResBlock_1/Conv_1/BatchNorm/FusedBatchNorm","MobileFaceNet/MobileFaceNet/Conv2d_4_InvResBlock_0/Add"],"attr":{"T":{"type":"DT_FLOAT"}}},
          {"name":"MobileFaceNet/MobileFaceNet/Conv2d_4_InvResBlock_2/Conv/BatchNorm/FusedBatchNorm","op":"_FusedConv2D","input":["MobileFaceNet/MobileFaceNet/Conv2d_4_InvResBlock_1/Add","MobileFaceNet/MobileFaceNet/Conv2d_4_InvResBlock_2/Conv/Conv2D_weights","MobileFaceNet/MobileFaceNet/Conv2d_4_InvResBlock_2/Conv/Conv2D_bn_offset"],"device":"/device:CPU:0","attr":{"data_format":{"s":"TkhXQw=="},"explicit_paddings":{"list":{}},"epsilon":{"f":0},"fused_ops":{"list":{"s":["Qmlhc0FkZA=="]}},"padding":{"s":"U0FNRQ=="},"dilations":{"list":{"i":["1","1","1","1"]}},"num_args":{"i":"1"},"use_cudnn_on_gpu":{"b":true},"strides":{"list":{"i":["1","1","1","1"]}},"T":{"type":"DT_FLOAT"}}},
          {"name":"MobileFaceNet/MobileFaceNet/Conv2d_4_InvResBlock_2/Conv/Relu","op":"Relu","input":["MobileFaceNet/MobileFaceNet/Conv2d_4_InvResBlock_2/Conv/BatchNorm/FusedBatchNorm"],"attr":{"T":{"type":"DT_FLOAT"}}},
          {"name":"MobileFaceNet/MobileFaceNet/Conv2d_4_InvResBlock_2/Conv/Abs","op":"Abs","input":["MobileFaceNet/MobileFaceNet/Conv2d_4_InvResBlock_2/Conv/BatchNorm/FusedBatchNorm"],"attr":{"T":{"type":"DT_FLOAT"}}},
          {"name":"MobileFaceNet/MobileFaceNet/Conv2d_4_InvResBlock_2/Conv/sub","op":"Sub","input":["MobileFaceNet/MobileFaceNet/Conv2d_4_InvResBlock_2/Conv/BatchNorm/FusedBatchNorm","MobileFaceNet/MobileFaceNet/Conv2d_4_InvResBlock_2/Conv/Abs"],"attr":{"T":{"type":"DT_FLOAT"}}},
          {"name":"MobileFaceNet/MobileFaceNet/Conv2d_4_InvResBlock_2/Conv/mul_1","op":"Mul","input":["MobileFaceNet/MobileFaceNet/Conv2d_4_InvResBlock_2/Conv/sub","MobileFaceNet/MobileFaceNet/Conv2d_4_InvResBlock_2/Conv/mul"],"attr":{"T":{"type":"DT_FLOAT"}}},
          {"name":"MobileFaceNet/MobileFaceNet/Conv2d_4_InvResBlock_2/Conv/add","op":"Add","input":["MobileFaceNet/MobileFaceNet/Conv2d_4_InvResBlock_2/Conv/Relu","MobileFaceNet/MobileFaceNet/Conv2d_4_InvResBlock_2/Conv/mul_1"],"attr":{"T":{"type":"DT_FLOAT"}}},
          {"name":"MobileFaceNet/MobileFaceNet/Conv2d_4_InvResBlock_2/SeparableConv2d/depthwise","op":"FusedDepthwiseConv2dNative","input":["MobileFaceNet/MobileFaceNet/Conv2d_4_InvResBlock_2/Conv/add","MobileFaceNet/MobileFaceNet/Conv2d_4_InvResBlock_2/SeparableConv2d/depthwise_weights","MobileFaceNet/MobileFaceNet/Conv2d_4_InvResBlock_2/SeparableConv2d/depthwise_bn_offset"],"attr":{"strides":{"list":{"i":["1","1","1","1"]}},"num_args":{"i":"1"},"dilations":{"list":{"i":["1","1","1","1"]}},"T":{"type":"DT_FLOAT"},"data_format":{"s":"TkhXQw=="},"padding":{"s":"U0FNRQ=="},"explicit_paddings":{"list":{}},"fused_ops":{"list":{"s":["Qmlhc0FkZA==","UmVsdQ=="]}}}},
          {"name":"MobileFaceNet/MobileFaceNet/Conv2d_4_InvResBlock_2/SeparableConv2d/Abs","op":"Abs","input":["MobileFaceNet/MobileFaceNet/Conv2d_4_InvResBlock_2/SeparableConv2d/depthwise"],"attr":{"T":{"type":"DT_FLOAT"}}},
          {"name":"MobileFaceNet/MobileFaceNet/Conv2d_4_InvResBlock_2/SeparableConv2d/sub","op":"Sub","input":["MobileFaceNet/MobileFaceNet/Conv2d_4_InvResBlock_2/SeparableConv2d/depthwise","MobileFaceNet/MobileFaceNet/Conv2d_4_InvResBlock_2/SeparableConv2d/Abs"],"attr":{"T":{"type":"DT_FLOAT"}}},
          {"name":"MobileFaceNet/MobileFaceNet/Conv2d_4_InvResBlock_2/SeparableConv2d/mul_1","op":"Mul","input":["MobileFaceNet/MobileFaceNet/Conv2d_4_InvResBlock_2/SeparableConv2d/sub","MobileFaceNet/MobileFaceNet/Conv2d_4_InvResBlock_2/SeparableConv2d/mul"],"attr":{"T":{"type":"DT_FLOAT"}}},
          {"name":"MobileFaceNet/MobileFaceNet/Conv2d_4_InvResBlock_2/SeparableConv2d/add","op":"Add","input":["MobileFaceNet/MobileFaceNet/Conv2d_4_InvResBlock_2/SeparableConv2d/depthwise","MobileFaceNet/MobileFaceNet/Conv2d_4_InvResBlock_2/SeparableConv2d/mul_1"],"attr":{"T":{"type":"DT_FLOAT"}}},
          {"name":"MobileFaceNet/MobileFaceNet/Conv2d_4_InvResBlock_2/Conv_1/BatchNorm/FusedBatchNorm","op":"_FusedConv2D","input":["MobileFaceNet/MobileFaceNet/Conv2d_4_InvResBlock_2/SeparableConv2d/add","MobileFaceNet/MobileFaceNet/Conv2d_4_InvResBlock_2/Conv_1/Conv2D_weights","MobileFaceNet/MobileFaceNet/Conv2d_4_InvResBlock_2/Conv_1/Conv2D_bn_offset"],"device":"/device:CPU:0","attr":{"use_cudnn_on_gpu":{"b":true},"num_args":{"i":"1"},"epsilon":{"f":0},"data_format":{"s":"TkhXQw=="},"explicit_paddings":{"list":{}},"T":{"type":"DT_FLOAT"},"dilations":{"list":{"i":["1","1","1","1"]}},"strides":{"list":{"i":["1","1","1","1"]}},"padding":{"s":"U0FNRQ=="},"fused_ops":{"list":{"s":["Qmlhc0FkZA=="]}}}},
          {"name":"MobileFaceNet/MobileFaceNet/Conv2d_4_InvResBlock_2/Add","op":"Add","input":["MobileFaceNet/MobileFaceNet/Conv2d_4_InvResBlock_2/Conv_1/BatchNorm/FusedBatchNorm","MobileFaceNet/MobileFaceNet/Conv2d_4_InvResBlock_1/Add"],"attr":{"T":{"type":"DT_FLOAT"}}},
          {"name":"MobileFaceNet/MobileFaceNet/Conv2d_4_InvResBlock_3/Conv/BatchNorm/FusedBatchNorm","op":"_FusedConv2D","input":["MobileFaceNet/MobileFaceNet/Conv2d_4_InvResBlock_2/Add","MobileFaceNet/MobileFaceNet/Conv2d_4_InvResBlock_3/Conv/Conv2D_weights","MobileFaceNet/MobileFaceNet/Conv2d_4_InvResBlock_3/Conv/Conv2D_bn_offset"],"device":"/device:CPU:0","attr":{"data_format":{"s":"TkhXQw=="},"num_args":{"i":"1"},"explicit_paddings":{"list":{}},"epsilon":{"f":0},"dilations":{"list":{"i":["1","1","1","1"]}},"padding":{"s":"U0FNRQ=="},"use_cudnn_on_gpu":{"b":true},"fused_ops":{"list":{"s":["Qmlhc0FkZA=="]}},"T":{"type":"DT_FLOAT"},"strides":{"list":{"i":["1","1","1","1"]}}}},
          {"name":"MobileFaceNet/MobileFaceNet/Conv2d_4_InvResBlock_3/Conv/Relu","op":"Relu","input":["MobileFaceNet/MobileFaceNet/Conv2d_4_InvResBlock_3/Conv/BatchNorm/FusedBatchNorm"],"attr":{"T":{"type":"DT_FLOAT"}}},
          {"name":"MobileFaceNet/MobileFaceNet/Conv2d_4_InvResBlock_3/Conv/Abs","op":"Abs","input":["MobileFaceNet/MobileFaceNet/Conv2d_4_InvResBlock_3/Conv/BatchNorm/FusedBatchNorm"],"attr":{"T":{"type":"DT_FLOAT"}}},
          {"name":"MobileFaceNet/MobileFaceNet/Conv2d_4_InvResBlock_3/Conv/sub","op":"Sub","input":["MobileFaceNet/MobileFaceNet/Conv2d_4_InvResBlock_3/Conv/BatchNorm/FusedBatchNorm","MobileFaceNet/MobileFaceNet/Conv2d_4_InvResBlock_3/Conv/Abs"],"attr":{"T":{"type":"DT_FLOAT"}}},
          {"name":"MobileFaceNet/MobileFaceNet/Conv2d_4_InvResBlock_3/Conv/mul_1","op":"Mul","input":["MobileFaceNet/MobileFaceNet/Conv2d_4_InvResBlock_3/Conv/sub","MobileFaceNet/MobileFaceNet/Conv2d_4_InvResBlock_3/Conv/mul"],"attr":{"T":{"type":"DT_FLOAT"}}},
          {"name":"MobileFaceNet/MobileFaceNet/Conv2d_4_InvResBlock_3/Conv/add","op":"Add","input":["MobileFaceNet/MobileFaceNet/Conv2d_4_InvResBlock_3/Conv/Relu","MobileFaceNet/MobileFaceNet/Conv2d_4_InvResBlock_3/Conv/mul_1"],"attr":{"T":{"type":"DT_FLOAT"}}},
          {"name":"MobileFaceNet/MobileFaceNet/Conv2d_4_InvResBlock_3/SeparableConv2d/depthwise","op":"FusedDepthwiseConv2dNative","input":["MobileFaceNet/MobileFaceNet/Conv2d_4_InvResBlock_3/Conv/add","MobileFaceNet/MobileFaceNet/Conv2d_4_InvResBlock_3/SeparableConv2d/depthwise_weights","MobileFaceNet/MobileFaceNet/Conv2d_4_InvResBlock_3/SeparableConv2d/depthwise_bn_offset"],"attr":{"explicit_paddings":{"list":{}},"dilations":{"list":{"i":["1","1","1","1"]}},"T":{"type":"DT_FLOAT"},"padding":{"s":"U0FNRQ=="},"num_args":{"i":"1"},"fused_ops":{"list":{"s":["Qmlhc0FkZA==","UmVsdQ=="]}},"strides":{"list":{"i":["1","1","1","1"]}},"data_format":{"s":"TkhXQw=="}}},
          {"name":"MobileFaceNet/MobileFaceNet/Conv2d_4_InvResBlock_3/SeparableConv2d/Abs","op":"Abs","input":["MobileFaceNet/MobileFaceNet/Conv2d_4_InvResBlock_3/SeparableConv2d/depthwise"],"attr":{"T":{"type":"DT_FLOAT"}}},
          {"name":"MobileFaceNet/MobileFaceNet/Conv2d_4_InvResBlock_3/SeparableConv2d/sub","op":"Sub","input":["MobileFaceNet/MobileFaceNet/Conv2d_4_InvResBlock_3/SeparableConv2d/depthwise","MobileFaceNet/MobileFaceNet/Conv2d_4_InvResBlock_3/SeparableConv2d/Abs"],"attr":{"T":{"type":"DT_FLOAT"}}},
          {"name":"MobileFaceNet/MobileFaceNet/Conv2d_4_InvResBlock_3/SeparableConv2d/mul_1","op":"Mul","input":["MobileFaceNet/MobileFaceNet/Conv2d_4_InvResBlock_3/SeparableConv2d/sub","MobileFaceNet/MobileFaceNet/Conv2d_4_InvResBlock_3/SeparableConv2d/mul"],"attr":{"T":{"type":"DT_FLOAT"}}},
          {"name":"MobileFaceNet/MobileFaceNet/Conv2d_4_InvResBlock_3/SeparableConv2d/add","op":"Add","input":["MobileFaceNet/MobileFaceNet/Conv2d_4_InvResBlock_3/SeparableConv2d/depthwise","MobileFaceNet/MobileFaceNet/Conv2d_4_InvResBlock_3/SeparableConv2d/mul_1"],"attr":{"T":{"type":"DT_FLOAT"}}},
          {"name":"MobileFaceNet/MobileFaceNet/Conv2d_4_InvResBlock_3/Conv_1/BatchNorm/FusedBatchNorm","op":"_FusedConv2D","input":["MobileFaceNet/MobileFaceNet/Conv2d_4_InvResBlock_3/SeparableConv2d/add","MobileFaceNet/MobileFaceNet/Conv2d_4_InvResBlock_3/Conv_1/Conv2D_weights","MobileFaceNet/MobileFaceNet/Conv2d_4_InvResBlock_3/Conv_1/Conv2D_bn_offset"],"device":"/device:CPU:0","attr":{"use_cudnn_on_gpu":{"b":true},"data_format":{"s":"TkhXQw=="},"num_args":{"i":"1"},"explicit_paddings":{"list":{}},"epsilon":{"f":0},"dilations":{"list":{"i":["1","1","1","1"]}},"strides":{"list":{"i":["1","1","1","1"]}},"padding":{"s":"U0FNRQ=="},"fused_ops":{"list":{"s":["Qmlhc0FkZA=="]}},"T":{"type":"DT_FLOAT"}}},
          {"name":"MobileFaceNet/MobileFaceNet/Conv2d_4_InvResBlock_3/Add","op":"Add","input":["MobileFaceNet/MobileFaceNet/Conv2d_4_InvResBlock_3/Conv_1/BatchNorm/FusedBatchNorm","MobileFaceNet/MobileFaceNet/Conv2d_4_InvResBlock_2/Add"],"attr":{"T":{"type":"DT_FLOAT"}}},
          {"name":"MobileFaceNet/MobileFaceNet/Conv2d_4_InvResBlock_4/Conv/BatchNorm/FusedBatchNorm","op":"_FusedConv2D","input":["MobileFaceNet/MobileFaceNet/Conv2d_4_InvResBlock_3/Add","MobileFaceNet/MobileFaceNet/Conv2d_4_InvResBlock_4/Conv/Conv2D_weights","MobileFaceNet/MobileFaceNet/Conv2d_4_InvResBlock_4/Conv/Conv2D_bn_offset"],"device":"/device:CPU:0","attr":{"T":{"type":"DT_FLOAT"},"dilations":{"list":{"i":["1","1","1","1"]}},"data_format":{"s":"TkhXQw=="},"explicit_paddings":{"list":{}},"padding":{"s":"U0FNRQ=="},"strides":{"list":{"i":["1","1","1","1"]}},"epsilon":{"f":0},"fused_ops":{"list":{"s":["Qmlhc0FkZA=="]}},"num_args":{"i":"1"},"use_cudnn_on_gpu":{"b":true}}},
          {"name":"MobileFaceNet/MobileFaceNet/Conv2d_4_InvResBlock_4/Conv/Relu","op":"Relu","input":["MobileFaceNet/MobileFaceNet/Conv2d_4_InvResBlock_4/Conv/BatchNorm/FusedBatchNorm"],"attr":{"T":{"type":"DT_FLOAT"}}},
          {"name":"MobileFaceNet/MobileFaceNet/Conv2d_4_InvResBlock_4/Conv/Abs","op":"Abs","input":["MobileFaceNet/MobileFaceNet/Conv2d_4_InvResBlock_4/Conv/BatchNorm/FusedBatchNorm"],"attr":{"T":{"type":"DT_FLOAT"}}},
          {"name":"MobileFaceNet/MobileFaceNet/Conv2d_4_InvResBlock_4/Conv/sub","op":"Sub","input":["MobileFaceNet/MobileFaceNet/Conv2d_4_InvResBlock_4/Conv/BatchNorm/FusedBatchNorm","MobileFaceNet/MobileFaceNet/Conv2d_4_InvResBlock_4/Conv/Abs"],"attr":{"T":{"type":"DT_FLOAT"}}},
          {"name":"MobileFaceNet/MobileFaceNet/Conv2d_4_InvResBlock_4/Conv/mul_1","op":"Mul","input":["MobileFaceNet/MobileFaceNet/Conv2d_4_InvResBlock_4/Conv/sub","MobileFaceNet/MobileFaceNet/Conv2d_4_InvResBlock_4/Conv/mul"],"attr":{"T":{"type":"DT_FLOAT"}}},
          {"name":"MobileFaceNet/MobileFaceNet/Conv2d_4_InvResBlock_4/Conv/add","op":"Add","input":["MobileFaceNet/MobileFaceNet/Conv2d_4_InvResBlock_4/Conv/Relu","MobileFaceNet/MobileFaceNet/Conv2d_4_InvResBlock_4/Conv/mul_1"],"attr":{"T":{"type":"DT_FLOAT"}}},
          {"name":"MobileFaceNet/MobileFaceNet/Conv2d_4_InvResBlock_4/SeparableConv2d/depthwise","op":"FusedDepthwiseConv2dNative","input":["MobileFaceNet/MobileFaceNet/Conv2d_4_InvResBlock_4/Conv/add","MobileFaceNet/MobileFaceNet/Conv2d_4_InvResBlock_4/SeparableConv2d/depthwise_weights","MobileFaceNet/MobileFaceNet/Conv2d_4_InvResBlock_4/SeparableConv2d/depthwise_bn_offset"],"attr":{"fused_ops":{"list":{"s":["Qmlhc0FkZA==","UmVsdQ=="]}},"padding":{"s":"U0FNRQ=="},"explicit_paddings":{"list":{}},"num_args":{"i":"1"},"dilations":{"list":{"i":["1","1","1","1"]}},"T":{"type":"DT_FLOAT"},"strides":{"list":{"i":["1","1","1","1"]}},"data_format":{"s":"TkhXQw=="}}},
          {"name":"MobileFaceNet/MobileFaceNet/Conv2d_4_InvResBlock_4/SeparableConv2d/Abs","op":"Abs","input":["MobileFaceNet/MobileFaceNet/Conv2d_4_InvResBlock_4/SeparableConv2d/depthwise"],"attr":{"T":{"type":"DT_FLOAT"}}},
          {"name":"MobileFaceNet/MobileFaceNet/Conv2d_4_InvResBlock_4/SeparableConv2d/sub","op":"Sub","input":["MobileFaceNet/MobileFaceNet/Conv2d_4_InvResBlock_4/SeparableConv2d/depthwise","MobileFaceNet/MobileFaceNet/Conv2d_4_InvResBlock_4/SeparableConv2d/Abs"],"attr":{"T":{"type":"DT_FLOAT"}}},
          {"name":"MobileFaceNet/MobileFaceNet/Conv2d_4_InvResBlock_4/SeparableConv2d/mul_1","op":"Mul","input":["MobileFaceNet/MobileFaceNet/Conv2d_4_InvResBlock_4/SeparableConv2d/sub","MobileFaceNet/MobileFaceNet/Conv2d_4_InvResBlock_4/SeparableConv2d/mul"],"attr":{"T":{"type":"DT_FLOAT"}}},
          {"name":"MobileFaceNet/MobileFaceNet/Conv2d_4_InvResBlock_4/SeparableConv2d/add","op":"Add","input":["MobileFaceNet/MobileFaceNet/Conv2d_4_InvResBlock_4/SeparableConv2d/depthwise","MobileFaceNet/MobileFaceNet/Conv2d_4_InvResBlock_4/SeparableConv2d/mul_1"],"attr":{"T":{"type":"DT_FLOAT"}}},
          {"name":"MobileFaceNet/MobileFaceNet/Conv2d_4_InvResBlock_4/Conv_1/BatchNorm/FusedBatchNorm","op":"_FusedConv2D","input":["MobileFaceNet/MobileFaceNet/Conv2d_4_InvResBlock_4/SeparableConv2d/add","MobileFaceNet/MobileFaceNet/Conv2d_4_InvResBlock_4/Conv_1/Conv2D_weights","MobileFaceNet/MobileFaceNet/Conv2d_4_InvResBlock_4/Conv_1/Conv2D_bn_offset"],"device":"/device:CPU:0","attr":{"data_format":{"s":"TkhXQw=="},"fused_ops":{"list":{"s":["Qmlhc0FkZA=="]}},"epsilon":{"f":0},"use_cudnn_on_gpu":{"b":true},"num_args":{"i":"1"},"strides":{"list":{"i":["1","1","1","1"]}},"explicit_paddings":{"list":{}},"T":{"type":"DT_FLOAT"},"dilations":{"list":{"i":["1","1","1","1"]}},"padding":{"s":"U0FNRQ=="}}},
          {"name":"MobileFaceNet/MobileFaceNet/Conv2d_4_InvResBlock_4/Add","op":"Add","input":["MobileFaceNet/MobileFaceNet/Conv2d_4_InvResBlock_4/Conv_1/BatchNorm/FusedBatchNorm","MobileFaceNet/MobileFaceNet/Conv2d_4_InvResBlock_3/Add"],"attr":{"T":{"type":"DT_FLOAT"}}},
          {"name":"MobileFaceNet/MobileFaceNet/Conv2d_4_InvResBlock_5/Conv/BatchNorm/FusedBatchNorm","op":"_FusedConv2D","input":["MobileFaceNet/MobileFaceNet/Conv2d_4_InvResBlock_4/Add","MobileFaceNet/MobileFaceNet/Conv2d_4_InvResBlock_5/Conv/Conv2D_weights","MobileFaceNet/MobileFaceNet/Conv2d_4_InvResBlock_5/Conv/Conv2D_bn_offset"],"device":"/device:CPU:0","attr":{"epsilon":{"f":0},"strides":{"list":{"i":["1","1","1","1"]}},"explicit_paddings":{"list":{}},"dilations":{"list":{"i":["1","1","1","1"]}},"use_cudnn_on_gpu":{"b":true},"num_args":{"i":"1"},"fused_ops":{"list":{"s":["Qmlhc0FkZA=="]}},"data_format":{"s":"TkhXQw=="},"T":{"type":"DT_FLOAT"},"padding":{"s":"U0FNRQ=="}}},
          {"name":"MobileFaceNet/MobileFaceNet/Conv2d_4_InvResBlock_5/Conv/Relu","op":"Relu","input":["MobileFaceNet/MobileFaceNet/Conv2d_4_InvResBlock_5/Conv/BatchNorm/FusedBatchNorm"],"attr":{"T":{"type":"DT_FLOAT"}}},
          {"name":"MobileFaceNet/MobileFaceNet/Conv2d_4_InvResBlock_5/Conv/Abs","op":"Abs","input":["MobileFaceNet/MobileFaceNet/Conv2d_4_InvResBlock_5/Conv/BatchNorm/FusedBatchNorm"],"attr":{"T":{"type":"DT_FLOAT"}}},
          {"name":"MobileFaceNet/MobileFaceNet/Conv2d_4_InvResBlock_5/Conv/sub","op":"Sub","input":["MobileFaceNet/MobileFaceNet/Conv2d_4_InvResBlock_5/Conv/BatchNorm/FusedBatchNorm","MobileFaceNet/MobileFaceNet/Conv2d_4_InvResBlock_5/Conv/Abs"],"attr":{"T":{"type":"DT_FLOAT"}}},
          {"name":"MobileFaceNet/MobileFaceNet/Conv2d_4_InvResBlock_5/Conv/mul_1","op":"Mul","input":["MobileFaceNet/MobileFaceNet/Conv2d_4_InvResBlock_5/Conv/sub","MobileFaceNet/MobileFaceNet/Conv2d_4_InvResBlock_5/Conv/mul"],"attr":{"T":{"type":"DT_FLOAT"}}},
          {"name":"MobileFaceNet/MobileFaceNet/Conv2d_4_InvResBlock_5/Conv/add","op":"Add","input":["MobileFaceNet/MobileFaceNet/Conv2d_4_InvResBlock_5/Conv/Relu","MobileFaceNet/MobileFaceNet/Conv2d_4_InvResBlock_5/Conv/mul_1"],"attr":{"T":{"type":"DT_FLOAT"}}},
          {"name":"MobileFaceNet/MobileFaceNet/Conv2d_4_InvResBlock_5/SeparableConv2d/depthwise","op":"FusedDepthwiseConv2dNative","input":["MobileFaceNet/MobileFaceNet/Conv2d_4_InvResBlock_5/Conv/add","MobileFaceNet/MobileFaceNet/Conv2d_4_InvResBlock_5/SeparableConv2d/depthwise_weights","MobileFaceNet/MobileFaceNet/Conv2d_4_InvResBlock_5/SeparableConv2d/depthwise_bn_offset"],"attr":{"fused_ops":{"list":{"s":["Qmlhc0FkZA==","UmVsdQ=="]}},"data_format":{"s":"TkhXQw=="},"strides":{"list":{"i":["1","1","1","1"]}},"dilations":{"list":{"i":["1","1","1","1"]}},"explicit_paddings":{"list":{}},"num_args":{"i":"1"},"padding":{"s":"U0FNRQ=="},"T":{"type":"DT_FLOAT"}}},
          {"name":"MobileFaceNet/MobileFaceNet/Conv2d_4_InvResBlock_5/SeparableConv2d/Abs","op":"Abs","input":["MobileFaceNet/MobileFaceNet/Conv2d_4_InvResBlock_5/SeparableConv2d/depthwise"],"attr":{"T":{"type":"DT_FLOAT"}}},
          {"name":"MobileFaceNet/MobileFaceNet/Conv2d_4_InvResBlock_5/SeparableConv2d/sub","op":"Sub","input":["MobileFaceNet/MobileFaceNet/Conv2d_4_InvResBlock_5/SeparableConv2d/depthwise","MobileFaceNet/MobileFaceNet/Conv2d_4_InvResBlock_5/SeparableConv2d/Abs"],"attr":{"T":{"type":"DT_FLOAT"}}},
          {"name":"MobileFaceNet/MobileFaceNet/Conv2d_4_InvResBlock_5/SeparableConv2d/mul_1","op":"Mul","input":["MobileFaceNet/MobileFaceNet/Conv2d_4_InvResBlock_5/SeparableConv2d/sub","MobileFaceNet/MobileFaceNet/Conv2d_4_InvResBlock_5/SeparableConv2d/mul"],"attr":{"T":{"type":"DT_FLOAT"}}},
          {"name":"MobileFaceNet/MobileFaceNet/Conv2d_4_InvResBlock_5/SeparableConv2d/add","op":"Add","input":["MobileFaceNet/MobileFaceNet/Conv2d_4_InvResBlock_5/SeparableConv2d/depthwise","MobileFaceNet/MobileFaceNet/Conv2d_4_InvResBlock_5/SeparableConv2d/mul_1"],"attr":{"T":{"type":"DT_FLOAT"}}},
          {"name":"MobileFaceNet/MobileFaceNet/Conv2d_4_InvResBlock_5/Conv_1/BatchNorm/FusedBatchNorm","op":"_FusedConv2D","input":["MobileFaceNet/MobileFaceNet/Conv2d_4_InvResBlock_5/SeparableConv2d/add","MobileFaceNet/MobileFaceNet/Conv2d_4_InvResBlock_5/Conv_1/Conv2D_weights","MobileFaceNet/MobileFaceNet/Conv2d_4_InvResBlock_5/Conv_1/Conv2D_bn_offset"],"device":"/device:CPU:0","attr":{"epsilon":{"f":0},"use_cudnn_on_gpu":{"b":true},"data_format":{"s":"TkhXQw=="},"explicit_paddings":{"list":{}},"T":{"type":"DT_FLOAT"},"fused_ops":{"list":{"s":["Qmlhc0FkZA=="]}},"dilations":{"list":{"i":["1","1","1","1"]}},"padding":{"s":"U0FNRQ=="},"strides":{"list":{"i":["1","1","1","1"]}},"num_args":{"i":"1"}}},
          {"name":"MobileFaceNet/MobileFaceNet/Conv2d_4_InvResBlock_5/Add","op":"Add","input":["MobileFaceNet/MobileFaceNet/Conv2d_4_InvResBlock_5/Conv_1/BatchNorm/FusedBatchNorm","MobileFaceNet/MobileFaceNet/Conv2d_4_InvResBlock_4/Add"],"attr":{"T":{"type":"DT_FLOAT"}}},
          {"name":"MobileFaceNet/MobileFaceNet/Conv2d_5_InvResBlock_0/Conv/BatchNorm/FusedBatchNorm","op":"_FusedConv2D","input":["MobileFaceNet/MobileFaceNet/Conv2d_4_InvResBlock_5/Add","MobileFaceNet/MobileFaceNet/Conv2d_5_InvResBlock_0/Conv/Conv2D_weights","MobileFaceNet/MobileFaceNet/Conv2d_5_InvResBlock_0/Conv/Conv2D_bn_offset"],"device":"/device:CPU:0","attr":{"fused_ops":{"list":{"s":["Qmlhc0FkZA=="]}},"num_args":{"i":"1"},"padding":{"s":"U0FNRQ=="},"use_cudnn_on_gpu":{"b":true},"explicit_paddings":{"list":{}},"strides":{"list":{"i":["1","1","1","1"]}},"epsilon":{"f":0},"T":{"type":"DT_FLOAT"},"dilations":{"list":{"i":["1","1","1","1"]}},"data_format":{"s":"TkhXQw=="}}},
          {"name":"MobileFaceNet/MobileFaceNet/Conv2d_5_InvResBlock_0/Conv/Relu","op":"Relu","input":["MobileFaceNet/MobileFaceNet/Conv2d_5_InvResBlock_0/Conv/BatchNorm/FusedBatchNorm"],"attr":{"T":{"type":"DT_FLOAT"}}},
          {"name":"MobileFaceNet/MobileFaceNet/Conv2d_5_InvResBlock_0/Conv/Abs","op":"Abs","input":["MobileFaceNet/MobileFaceNet/Conv2d_5_InvResBlock_0/Conv/BatchNorm/FusedBatchNorm"],"attr":{"T":{"type":"DT_FLOAT"}}},
          {"name":"MobileFaceNet/MobileFaceNet/Conv2d_5_InvResBlock_0/Conv/sub","op":"Sub","input":["MobileFaceNet/MobileFaceNet/Conv2d_5_InvResBlock_0/Conv/BatchNorm/FusedBatchNorm","MobileFaceNet/MobileFaceNet/Conv2d_5_InvResBlock_0/Conv/Abs"],"attr":{"T":{"type":"DT_FLOAT"}}},
          {"name":"MobileFaceNet/MobileFaceNet/Conv2d_5_InvResBlock_0/Conv/mul_1","op":"Mul","input":["MobileFaceNet/MobileFaceNet/Conv2d_5_InvResBlock_0/Conv/sub","MobileFaceNet/MobileFaceNet/Conv2d_5_InvResBlock_0/Conv/mul"],"attr":{"T":{"type":"DT_FLOAT"}}},
          {"name":"MobileFaceNet/MobileFaceNet/Conv2d_5_InvResBlock_0/Conv/add","op":"Add","input":["MobileFaceNet/MobileFaceNet/Conv2d_5_InvResBlock_0/Conv/Relu","MobileFaceNet/MobileFaceNet/Conv2d_5_InvResBlock_0/Conv/mul_1"],"attr":{"T":{"type":"DT_FLOAT"}}},
          {"name":"MobileFaceNet/MobileFaceNet/Conv2d_5_InvResBlock_0/SeparableConv2d/depthwise","op":"FusedDepthwiseConv2dNative","input":["MobileFaceNet/MobileFaceNet/Conv2d_5_InvResBlock_0/Conv/add","MobileFaceNet/MobileFaceNet/Conv2d_5_InvResBlock_0/SeparableConv2d/depthwise_weights","MobileFaceNet/MobileFaceNet/Conv2d_5_InvResBlock_0/SeparableConv2d/depthwise_bn_offset"],"attr":{"num_args":{"i":"1"},"strides":{"list":{"i":["1","2","2","1"]}},"dilations":{"list":{"i":["1","1","1","1"]}},"padding":{"s":"U0FNRQ=="},"fused_ops":{"list":{"s":["Qmlhc0FkZA==","UmVsdQ=="]}},"explicit_paddings":{"list":{}},"T":{"type":"DT_FLOAT"},"data_format":{"s":"TkhXQw=="}}},
          {"name":"MobileFaceNet/MobileFaceNet/Conv2d_5_InvResBlock_0/SeparableConv2d/Abs","op":"Abs","input":["MobileFaceNet/MobileFaceNet/Conv2d_5_InvResBlock_0/SeparableConv2d/depthwise"],"attr":{"T":{"type":"DT_FLOAT"}}},
          {"name":"MobileFaceNet/MobileFaceNet/Conv2d_5_InvResBlock_0/SeparableConv2d/sub","op":"Sub","input":["MobileFaceNet/MobileFaceNet/Conv2d_5_InvResBlock_0/SeparableConv2d/depthwise","MobileFaceNet/MobileFaceNet/Conv2d_5_InvResBlock_0/SeparableConv2d/Abs"],"attr":{"T":{"type":"DT_FLOAT"}}},
          {"name":"MobileFaceNet/MobileFaceNet/Conv2d_5_InvResBlock_0/SeparableConv2d/mul_1","op":"Mul","input":["MobileFaceNet/MobileFaceNet/Conv2d_5_InvResBlock_0/SeparableConv2d/sub","MobileFaceNet/MobileFaceNet/Conv2d_5_InvResBlock_0/SeparableConv2d/mul"],"attr":{"T":{"type":"DT_FLOAT"}}},
          {"name":"MobileFaceNet/MobileFaceNet/Conv2d_5_InvResBlock_0/SeparableConv2d/add","op":"Add","input":["MobileFaceNet/MobileFaceNet/Conv2d_5_InvResBlock_0/SeparableConv2d/depthwise","MobileFaceNet/MobileFaceNet/Conv2d_5_InvResBlock_0/SeparableConv2d/mul_1"],"attr":{"T":{"type":"DT_FLOAT"}}},
          {"name":"MobileFaceNet/MobileFaceNet/Conv2d_5_InvResBlock_0/Conv_1/BatchNorm/FusedBatchNorm","op":"_FusedConv2D","input":["MobileFaceNet/MobileFaceNet/Conv2d_5_InvResBlock_0/SeparableConv2d/add","MobileFaceNet/MobileFaceNet/Conv2d_5_InvResBlock_0/Conv_1/Conv2D_weights","MobileFaceNet/MobileFaceNet/Conv2d_5_InvResBlock_0/Conv_1/Conv2D_bn_offset"],"device":"/device:CPU:0","attr":{"dilations":{"list":{"i":["1","1","1","1"]}},"explicit_paddings":{"list":{}},"strides":{"list":{"i":["1","1","1","1"]}},"num_args":{"i":"1"},"use_cudnn_on_gpu":{"b":true},"T":{"type":"DT_FLOAT"},"padding":{"s":"U0FNRQ=="},"epsilon":{"f":0},"fused_ops":{"list":{"s":["Qmlhc0FkZA=="]}},"data_format":{"s":"TkhXQw=="}}},
          {"name":"MobileFaceNet/MobileFaceNet/Conv2d_6_InvResBlock_0/Conv/BatchNorm/FusedBatchNorm","op":"_FusedConv2D","input":["MobileFaceNet/MobileFaceNet/Conv2d_5_InvResBlock_0/Conv_1/BatchNorm/FusedBatchNorm","MobileFaceNet/MobileFaceNet/Conv2d_6_InvResBlock_0/Conv/Conv2D_weights","MobileFaceNet/MobileFaceNet/Conv2d_6_InvResBlock_0/Conv/Conv2D_bn_offset"],"device":"/device:CPU:0","attr":{"epsilon":{"f":0},"T":{"type":"DT_FLOAT"},"explicit_paddings":{"list":{}},"fused_ops":{"list":{"s":["Qmlhc0FkZA=="]}},"data_format":{"s":"TkhXQw=="},"num_args":{"i":"1"},"padding":{"s":"U0FNRQ=="},"strides":{"list":{"i":["1","1","1","1"]}},"dilations":{"list":{"i":["1","1","1","1"]}},"use_cudnn_on_gpu":{"b":true}}},
          {"name":"MobileFaceNet/MobileFaceNet/Conv2d_6_InvResBlock_0/Conv/Relu","op":"Relu","input":["MobileFaceNet/MobileFaceNet/Conv2d_6_InvResBlock_0/Conv/BatchNorm/FusedBatchNorm"],"attr":{"T":{"type":"DT_FLOAT"}}},
          {"name":"MobileFaceNet/MobileFaceNet/Conv2d_6_InvResBlock_0/Conv/Abs","op":"Abs","input":["MobileFaceNet/MobileFaceNet/Conv2d_6_InvResBlock_0/Conv/BatchNorm/FusedBatchNorm"],"attr":{"T":{"type":"DT_FLOAT"}}},
          {"name":"MobileFaceNet/MobileFaceNet/Conv2d_6_InvResBlock_0/Conv/sub","op":"Sub","input":["MobileFaceNet/MobileFaceNet/Conv2d_6_InvResBlock_0/Conv/BatchNorm/FusedBatchNorm","MobileFaceNet/MobileFaceNet/Conv2d_6_InvResBlock_0/Conv/Abs"],"attr":{"T":{"type":"DT_FLOAT"}}},
          {"name":"MobileFaceNet/MobileFaceNet/Conv2d_6_InvResBlock_0/Conv/mul_1","op":"Mul","input":["MobileFaceNet/MobileFaceNet/Conv2d_6_InvResBlock_0/Conv/sub","MobileFaceNet/MobileFaceNet/Conv2d_6_InvResBlock_0/Conv/mul"],"attr":{"T":{"type":"DT_FLOAT"}}},
          {"name":"MobileFaceNet/MobileFaceNet/Conv2d_6_InvResBlock_0/Conv/add","op":"Add","input":["MobileFaceNet/MobileFaceNet/Conv2d_6_InvResBlock_0/Conv/Relu","MobileFaceNet/MobileFaceNet/Conv2d_6_InvResBlock_0/Conv/mul_1"],"attr":{"T":{"type":"DT_FLOAT"}}},
          {"name":"MobileFaceNet/MobileFaceNet/Conv2d_6_InvResBlock_0/SeparableConv2d/depthwise","op":"FusedDepthwiseConv2dNative","input":["MobileFaceNet/MobileFaceNet/Conv2d_6_InvResBlock_0/Conv/add","MobileFaceNet/MobileFaceNet/Conv2d_6_InvResBlock_0/SeparableConv2d/depthwise_weights","MobileFaceNet/MobileFaceNet/Conv2d_6_InvResBlock_0/SeparableConv2d/depthwise_bn_offset"],"attr":{"explicit_paddings":{"list":{}},"padding":{"s":"U0FNRQ=="},"fused_ops":{"list":{"s":["Qmlhc0FkZA==","UmVsdQ=="]}},"strides":{"list":{"i":["1","1","1","1"]}},"T":{"type":"DT_FLOAT"},"num_args":{"i":"1"},"data_format":{"s":"TkhXQw=="},"dilations":{"list":{"i":["1","1","1","1"]}}}},
          {"name":"MobileFaceNet/MobileFaceNet/Conv2d_6_InvResBlock_0/SeparableConv2d/Abs","op":"Abs","input":["MobileFaceNet/MobileFaceNet/Conv2d_6_InvResBlock_0/SeparableConv2d/depthwise"],"attr":{"T":{"type":"DT_FLOAT"}}},
          {"name":"MobileFaceNet/MobileFaceNet/Conv2d_6_InvResBlock_0/SeparableConv2d/sub","op":"Sub","input":["MobileFaceNet/MobileFaceNet/Conv2d_6_InvResBlock_0/SeparableConv2d/depthwise","MobileFaceNet/MobileFaceNet/Conv2d_6_InvResBlock_0/SeparableConv2d/Abs"],"attr":{"T":{"type":"DT_FLOAT"}}},
          {"name":"MobileFaceNet/MobileFaceNet/Conv2d_6_InvResBlock_0/SeparableConv2d/mul_1","op":"Mul","input":["MobileFaceNet/MobileFaceNet/Conv2d_6_InvResBlock_0/SeparableConv2d/sub","MobileFaceNet/MobileFaceNet/Conv2d_6_InvResBlock_0/SeparableConv2d/mul"],"attr":{"T":{"type":"DT_FLOAT"}}},
          {"name":"MobileFaceNet/MobileFaceNet/Conv2d_6_InvResBlock_0/SeparableConv2d/add","op":"Add","input":["MobileFaceNet/MobileFaceNet/Conv2d_6_InvResBlock_0/SeparableConv2d/depthwise","MobileFaceNet/MobileFaceNet/Conv2d_6_InvResBlock_0/SeparableConv2d/mul_1"],"attr":{"T":{"type":"DT_FLOAT"}}},
          {"name":"MobileFaceNet/MobileFaceNet/Conv2d_6_InvResBlock_0/Conv_1/BatchNorm/FusedBatchNorm","op":"_FusedConv2D","input":["MobileFaceNet/MobileFaceNet/Conv2d_6_InvResBlock_0/SeparableConv2d/add","MobileFaceNet/MobileFaceNet/Conv2d_6_InvResBlock_0/Conv_1/Conv2D_weights","MobileFaceNet/MobileFaceNet/Conv2d_6_InvResBlock_0/Conv_1/Conv2D_bn_offset"],"device":"/device:CPU:0","attr":{"T":{"type":"DT_FLOAT"},"fused_ops":{"list":{"s":["Qmlhc0FkZA=="]}},"num_args":{"i":"1"},"epsilon":{"f":0},"padding":{"s":"U0FNRQ=="},"strides":{"list":{"i":["1","1","1","1"]}},"dilations":{"list":{"i":["1","1","1","1"]}},"use_cudnn_on_gpu":{"b":true},"explicit_paddings":{"list":{}},"data_format":{"s":"TkhXQw=="}}},
          {"name":"MobileFaceNet/MobileFaceNet/Conv2d_6_InvResBlock_0/Add","op":"Add","input":["MobileFaceNet/MobileFaceNet/Conv2d_6_InvResBlock_0/Conv_1/BatchNorm/FusedBatchNorm","MobileFaceNet/MobileFaceNet/Conv2d_5_InvResBlock_0/Conv_1/BatchNorm/FusedBatchNorm"],"attr":{"T":{"type":"DT_FLOAT"}}},
          {"name":"MobileFaceNet/MobileFaceNet/Conv2d_6_InvResBlock_1/Conv/BatchNorm/FusedBatchNorm","op":"_FusedConv2D","input":["MobileFaceNet/MobileFaceNet/Conv2d_6_InvResBlock_0/Add","MobileFaceNet/MobileFaceNet/Conv2d_6_InvResBlock_1/Conv/Conv2D_weights","MobileFaceNet/MobileFaceNet/Conv2d_6_InvResBlock_1/Conv/Conv2D_bn_offset"],"device":"/device:CPU:0","attr":{"data_format":{"s":"TkhXQw=="},"num_args":{"i":"1"},"epsilon":{"f":0},"use_cudnn_on_gpu":{"b":true},"strides":{"list":{"i":["1","1","1","1"]}},"fused_ops":{"list":{"s":["Qmlhc0FkZA=="]}},"padding":{"s":"U0FNRQ=="},"dilations":{"list":{"i":["1","1","1","1"]}},"explicit_paddings":{"list":{}},"T":{"type":"DT_FLOAT"}}},
          {"name":"MobileFaceNet/MobileFaceNet/Conv2d_6_InvResBlock_1/Conv/Relu","op":"Relu","input":["MobileFaceNet/MobileFaceNet/Conv2d_6_InvResBlock_1/Conv/BatchNorm/FusedBatchNorm"],"attr":{"T":{"type":"DT_FLOAT"}}},
          {"name":"MobileFaceNet/MobileFaceNet/Conv2d_6_InvResBlock_1/Conv/Abs","op":"Abs","input":["MobileFaceNet/MobileFaceNet/Conv2d_6_InvResBlock_1/Conv/BatchNorm/FusedBatchNorm"],"attr":{"T":{"type":"DT_FLOAT"}}},
          {"name":"MobileFaceNet/MobileFaceNet/Conv2d_6_InvResBlock_1/Conv/sub","op":"Sub","input":["MobileFaceNet/MobileFaceNet/Conv2d_6_InvResBlock_1/Conv/BatchNorm/FusedBatchNorm","MobileFaceNet/MobileFaceNet/Conv2d_6_InvResBlock_1/Conv/Abs"],"attr":{"T":{"type":"DT_FLOAT"}}},
          {"name":"MobileFaceNet/MobileFaceNet/Conv2d_6_InvResBlock_1/Conv/mul_1","op":"Mul","input":["MobileFaceNet/MobileFaceNet/Conv2d_6_InvResBlock_1/Conv/sub","MobileFaceNet/MobileFaceNet/Conv2d_6_InvResBlock_1/Conv/mul"],"attr":{"T":{"type":"DT_FLOAT"}}},
          {"name":"MobileFaceNet/MobileFaceNet/Conv2d_6_InvResBlock_1/Conv/add","op":"Add","input":["MobileFaceNet/MobileFaceNet/Conv2d_6_InvResBlock_1/Conv/Relu","MobileFaceNet/MobileFaceNet/Conv2d_6_InvResBlock_1/Conv/mul_1"],"attr":{"T":{"type":"DT_FLOAT"}}},
          {"name":"MobileFaceNet/MobileFaceNet/Conv2d_6_InvResBlock_1/SeparableConv2d/depthwise","op":"FusedDepthwiseConv2dNative","input":["MobileFaceNet/MobileFaceNet/Conv2d_6_InvResBlock_1/Conv/add","MobileFaceNet/MobileFaceNet/Conv2d_6_InvResBlock_1/SeparableConv2d/depthwise_weights","MobileFaceNet/MobileFaceNet/Conv2d_6_InvResBlock_1/SeparableConv2d/depthwise_bn_offset"],"attr":{"explicit_paddings":{"list":{}},"num_args":{"i":"1"},"strides":{"list":{"i":["1","1","1","1"]}},"fused_ops":{"list":{"s":["Qmlhc0FkZA==","UmVsdQ=="]}},"data_format":{"s":"TkhXQw=="},"dilations":{"list":{"i":["1","1","1","1"]}},"T":{"type":"DT_FLOAT"},"padding":{"s":"U0FNRQ=="}}},
          {"name":"MobileFaceNet/MobileFaceNet/Conv2d_6_InvResBlock_1/SeparableConv2d/Abs","op":"Abs","input":["MobileFaceNet/MobileFaceNet/Conv2d_6_InvResBlock_1/SeparableConv2d/depthwise"],"attr":{"T":{"type":"DT_FLOAT"}}},
          {"name":"MobileFaceNet/MobileFaceNet/Conv2d_6_InvResBlock_1/SeparableConv2d/sub","op":"Sub","input":["MobileFaceNet/MobileFaceNet/Conv2d_6_InvResBlock_1/SeparableConv2d/depthwise","MobileFaceNet/MobileFaceNet/Conv2d_6_InvResBlock_1/SeparableConv2d/Abs"],"attr":{"T":{"type":"DT_FLOAT"}}},
          {"name":"MobileFaceNet/MobileFaceNet/Conv2d_6_InvResBlock_1/SeparableConv2d/mul_1","op":"Mul","input":["MobileFaceNet/MobileFaceNet/Conv2d_6_InvResBlock_1/SeparableConv2d/sub","MobileFaceNet/MobileFaceNet/Conv2d_6_InvResBlock_1/SeparableConv2d/mul"],"attr":{"T":{"type":"DT_FLOAT"}}},
          {"name":"MobileFaceNet/MobileFaceNet/Conv2d_6_InvResBlock_1/SeparableConv2d/add","op":"Add","input":["MobileFaceNet/MobileFaceNet/Conv2d_6_InvResBlock_1/SeparableConv2d/depthwise","MobileFaceNet/MobileFaceNet/Conv2d_6_InvResBlock_1/SeparableConv2d/mul_1"],"attr":{"T":{"type":"DT_FLOAT"}}},
          {"name":"MobileFaceNet/MobileFaceNet/Conv2d_6_InvResBlock_1/Conv_1/BatchNorm/FusedBatchNorm","op":"_FusedConv2D","input":["MobileFaceNet/MobileFaceNet/Conv2d_6_InvResBlock_1/SeparableConv2d/add","MobileFaceNet/MobileFaceNet/Conv2d_6_InvResBlock_1/Conv_1/Conv2D_weights","MobileFaceNet/MobileFaceNet/Conv2d_6_InvResBlock_1/Conv_1/Conv2D_bn_offset"],"device":"/device:CPU:0","attr":{"dilations":{"list":{"i":["1","1","1","1"]}},"explicit_paddings":{"list":{}},"T":{"type":"DT_FLOAT"},"fused_ops":{"list":{"s":["Qmlhc0FkZA=="]}},"epsilon":{"f":0},"strides":{"list":{"i":["1","1","1","1"]}},"padding":{"s":"U0FNRQ=="},"data_format":{"s":"TkhXQw=="},"num_args":{"i":"1"},"use_cudnn_on_gpu":{"b":true}}},
          {"name":"MobileFaceNet/MobileFaceNet/Conv2d_6_InvResBlock_1/Add","op":"Add","input":["MobileFaceNet/MobileFaceNet/Conv2d_6_InvResBlock_1/Conv_1/BatchNorm/FusedBatchNorm","MobileFaceNet/MobileFaceNet/Conv2d_6_InvResBlock_0/Add"],"attr":{"T":{"type":"DT_FLOAT"}}},
          {"name":"MobileFaceNet/MobileFaceNet/Conv2d_7/BatchNorm/FusedBatchNorm","op":"_FusedConv2D","input":["MobileFaceNet/MobileFaceNet/Conv2d_6_InvResBlock_1/Add","MobileFaceNet/MobileFaceNet/Conv2d_7/Conv2D_weights","MobileFaceNet/MobileFaceNet/Conv2d_7/Conv2D_bn_offset"],"device":"/device:CPU:0","attr":{"padding":{"s":"U0FNRQ=="},"T":{"type":"DT_FLOAT"},"fused_ops":{"list":{"s":["Qmlhc0FkZA=="]}},"strides":{"list":{"i":["1","1","1","1"]}},"dilations":{"list":{"i":["1","1","1","1"]}},"num_args":{"i":"1"},"epsilon":{"f":0},"use_cudnn_on_gpu":{"b":true},"data_format":{"s":"TkhXQw=="},"explicit_paddings":{"list":{}}}},
          {"name":"MobileFaceNet/MobileFaceNet/Conv2d_7/Relu","op":"Relu","input":["MobileFaceNet/MobileFaceNet/Conv2d_7/BatchNorm/FusedBatchNorm"],"attr":{"T":{"type":"DT_FLOAT"}}},
          {"name":"MobileFaceNet/MobileFaceNet/Conv2d_7/Abs","op":"Abs","input":["MobileFaceNet/MobileFaceNet/Conv2d_7/BatchNorm/FusedBatchNorm"],"attr":{"T":{"type":"DT_FLOAT"}}},
          {"name":"MobileFaceNet/MobileFaceNet/Conv2d_7/sub","op":"Sub","input":["MobileFaceNet/MobileFaceNet/Conv2d_7/BatchNorm/FusedBatchNorm","MobileFaceNet/MobileFaceNet/Conv2d_7/Abs"],"attr":{"T":{"type":"DT_FLOAT"}}},
          {"name":"MobileFaceNet/MobileFaceNet/Conv2d_7/mul_1","op":"Mul","input":["MobileFaceNet/MobileFaceNet/Conv2d_7/sub","MobileFaceNet/MobileFaceNet/Conv2d_7/mul"],"attr":{"T":{"type":"DT_FLOAT"}}},
          {"name":"MobileFaceNet/MobileFaceNet/Conv2d_7/add","op":"Add","input":["MobileFaceNet/MobileFaceNet/Conv2d_7/Relu","MobileFaceNet/MobileFaceNet/Conv2d_7/mul_1"],"attr":{"T":{"type":"DT_FLOAT"}}},
          {"name":"MobileFaceNet/Logits/SeparableConv2d/depthwise","op":"FusedDepthwiseConv2dNative","input":["MobileFaceNet/MobileFaceNet/Conv2d_7/add","MobileFaceNet/Logits/SeparableConv2d/depthwise_weights","MobileFaceNet/Logits/SeparableConv2d/depthwise_bn_offset"],"attr":{"num_args":{"i":"1"},"strides":{"list":{"i":["1","1","1","1"]}},"fused_ops":{"list":{"s":["Qmlhc0FkZA=="]}},"padding":{"s":"VkFMSUQ="},"data_format":{"s":"TkhXQw=="},"T":{"type":"DT_FLOAT"},"dilations":{"list":{"i":["1","1","1","1"]}},"explicit_paddings":{"list":{}}}},
          {"name":"MobileFaceNet/Logits/Conv/BatchNorm/FusedBatchNorm","op":"_FusedConv2D","input":["MobileFaceNet/Logits/SeparableConv2d/depthwise","MobileFaceNet/Logits/Conv/Conv2D_weights","MobileFaceNet/Logits/Conv/Conv2D_bn_offset"],"device":"/device:CPU:0","attr":{"num_args":{"i":"1"},"dilations":{"list":{"i":["1","1","1","1"]}},"explicit_paddings":{"list":{}},"data_format":{"s":"TkhXQw=="},"padding":{"s":"VkFMSUQ="},"strides":{"list":{"i":["1","1","1","1"]}},"T":{"type":"DT_FLOAT"},"fused_ops":{"list":{"s":["Qmlhc0FkZA=="]}},"use_cudnn_on_gpu":{"b":true},"epsilon":{"f":0}}},
          {"name":"MobileFaceNet/Logits/LinearConv1x1/BatchNorm/FusedBatchNorm","op":"_FusedConv2D","input":["MobileFaceNet/Logits/Conv/BatchNorm/FusedBatchNorm","MobileFaceNet/Logits/LinearConv1x1/Conv2D_weights","MobileFaceNet/Logits/LinearConv1x1/Conv2D_bn_offset"],"device":"/device:CPU:0","attr":{"T":{"type":"DT_FLOAT"},"explicit_paddings":{"list":{}},"data_format":{"s":"TkhXQw=="},"epsilon":{"f":0},"strides":{"list":{"i":["1","1","1","1"]}},"num_args":{"i":"1"},"dilations":{"list":{"i":["1","1","1","1"]}},"use_cudnn_on_gpu":{"b":true},"padding":{"s":"U0FNRQ=="},"fused_ops":{"list":{"s":["Qmlhc0FkZA=="]}}}},
          {"name":"MobileFaceNet/Logits/SpatialSqueeze","op":"Squeeze","input":["MobileFaceNet/Logits/LinearConv1x1/BatchNorm/FusedBatchNorm"],"attr":{"T":{"type":"DT_FLOAT"},"squeeze_dims":{"list":{"i":["1","2"]}}}},
          {"name":"embeddings/Square","op":"Square","input":["MobileFaceNet/Logits/SpatialSqueeze"],"attr":{"T":{"type":"DT_FLOAT"}}},
          {"name":"embeddings/Sum","op":"Sum","input":["embeddings/Square","embeddings/Sum/reduction_indices"],"attr":{"keep_dims":{"b":true},"Tidx":{"type":"DT_INT32"},"T":{"type":"DT_FLOAT"}}},
          {"name":"embeddings/Maximum","op":"Maximum","input":["embeddings/Sum","embeddings/Maximum/y"],"attr":{"T":{"type":"DT_FLOAT"}}},
          {"name":"embeddings/Rsqrt","op":"Rsqrt","input":["embeddings/Maximum"],"attr":{"T":{"type":"DT_FLOAT"}}},
          {"name":"embeddings","op":"Mul","input":["MobileFaceNet/Logits/SpatialSqueeze","embeddings/Rsqrt"],"attr":{"T":{"type":"DT_FLOAT"}}}
      ],
      "library": {},
      "versions": {}
  },
  "weightsManifest":
  [
      {
          "paths": ["mobilefacenet.bin"],
          "weights": [{"name":"MobileFaceNet/MobileFaceNet/Conv2d_6_InvResBlock_1/Conv/mul","shape":[256],"dtype":"float32"},{"name":"MobileFaceNet/MobileFaceNet/Conv2d_6_InvResBlock_1/SeparableConv2d/mul","shape":[256],"dtype":"float32"},{"name":"MobileFaceNet/MobileFaceNet/Conv2d_6_InvResBlock_0/Conv/mul","shape":[256],"dtype":"float32"},{"name":"MobileFaceNet/MobileFaceNet/Conv2d_6_InvResBlock_0/SeparableConv2d/mul","shape":[256],"dtype":"float32"},{"name":"MobileFaceNet/MobileFaceNet/Conv2d_4_InvResBlock_5/Conv/mul","shape":[256],"dtype":"float32"},{"name":"MobileFaceNet/MobileFaceNet/Conv2d_4_InvResBlock_5/SeparableConv2d/mul","shape":[256],"dtype":"float32"},{"name":"MobileFaceNet/MobileFaceNet/Conv2d_4_InvResBlock_4/Conv/mul","shape":[256],"dtype":"float32"},{"name":"MobileFaceNet/MobileFaceNet/Conv2d_4_InvResBlock_4/SeparableConv2d/mul","shape":[256],"dtype":"float32"},{"name":"MobileFaceNet/MobileFaceNet/Conv2d_4_InvResBlock_3/Conv/mul","shape":[256],"dtype":"float32"},{"name":"MobileFaceNet/MobileFaceNet/Conv2d_4_InvResBlock_3/SeparableConv2d/mul","shape":[256],"dtype":"float32"},{"name":"MobileFaceNet/MobileFaceNet/Conv2d_4_InvResBlock_2/Conv/mul","shape":[256],"dtype":"float32"},{"name":"MobileFaceNet/MobileFaceNet/Conv2d_4_InvResBlock_2/SeparableConv2d/mul","shape":[256],"dtype":"float32"},{"name":"MobileFaceNet/MobileFaceNet/Conv2d_4_InvResBlock_1/Conv/mul","shape":[256],"dtype":"float32"},{"name":"MobileFaceNet/MobileFaceNet/Conv2d_4_InvResBlock_1/SeparableConv2d/mul","shape":[256],"dtype":"float32"},{"name":"MobileFaceNet/MobileFaceNet/Conv2d_4_InvResBlock_0/Conv/mul","shape":[256],"dtype":"float32"},{"name":"MobileFaceNet/MobileFaceNet/Conv2d_4_InvResBlock_0/SeparableConv2d/mul","shape":[256],"dtype":"float32"},{"name":"MobileFaceNet/MobileFaceNet/Conv2d_2_InvResBlock_4/Conv/mul","shape":[128],"dtype":"float32"},{"name":"MobileFaceNet/MobileFaceNet/Conv2d_2_InvResBlock_4/SeparableConv2d/mul","shape":[128],"dtype":"float32"},{"name":"MobileFaceNet/MobileFaceNet/Conv2d_2_InvResBlock_3/Conv/mul","shape":[128],"dtype":"float32"},{"name":"MobileFaceNet/MobileFaceNet/Conv2d_2_InvResBlock_3/SeparableConv2d/mul","shape":[128],"dtype":"float32"},{"name":"MobileFaceNet/MobileFaceNet/Conv2d_2_InvResBlock_2/Conv/mul","shape":[128],"dtype":"float32"},{"name":"MobileFaceNet/MobileFaceNet/Conv2d_2_InvResBlock_2/SeparableConv2d/mul","shape":[128],"dtype":"float32"},{"name":"MobileFaceNet/MobileFaceNet/Conv2d_2_InvResBlock_1/Conv/mul","shape":[128],"dtype":"float32"},{"name":"MobileFaceNet/MobileFaceNet/Conv2d_2_InvResBlock_1/SeparableConv2d/mul","shape":[128],"dtype":"float32"},{"name":"MobileFaceNet/MobileFaceNet/Conv2d_0/mul","shape":[64],"dtype":"float32"},{"name":"MobileFaceNet/MobileFaceNet/SeparableConv2d/mul","shape":[64],"dtype":"float32"},{"name":"MobileFaceNet/MobileFaceNet/Conv2d_2_InvResBlock_0/Conv/mul","shape":[128],"dtype":"float32"},{"name":"MobileFaceNet/MobileFaceNet/Conv2d_2_InvResBlock_0/SeparableConv2d/mul","shape":[128],"dtype":"float32"},{"name":"MobileFaceNet/MobileFaceNet/Conv2d_3_InvResBlock_0/Conv/mul","shape":[256],"dtype":"float32"},{"name":"MobileFaceNet/MobileFaceNet/Conv2d_3_InvResBlock_0/SeparableConv2d/mul","shape":[256],"dtype":"float32"},{"name":"MobileFaceNet/MobileFaceNet/Conv2d_5_InvResBlock_0/Conv/mul","shape":[512],"dtype":"float32"},{"name":"MobileFaceNet/MobileFaceNet/Conv2d_5_InvResBlock_0/SeparableConv2d/mul","shape":[512],"dtype":"float32"},{"name":"MobileFaceNet/MobileFaceNet/Conv2d_7/mul","shape":[512],"dtype":"float32"},{"name":"embeddings/Sum/reduction_indices","shape":[],"dtype":"int32"},{"name":"embeddings/Maximum/y","shape":[],"dtype":"float32"},{"name":"MobileFaceNet/MobileFaceNet/Conv2d_0/Conv2D_weights","shape":[3,3,3,64],"dtype":"float32"},{"name":"MobileFaceNet/MobileFaceNet/Conv2d_0/Conv2D_bn_offset","shape":[64],"dtype":"float32"},{"name":"MobileFaceNet/MobileFaceNet/SeparableConv2d/depthwise_weights","shape":[3,3,64,1],"dtype":"float32"},{"name":"MobileFaceNet/MobileFaceNet/SeparableConv2d/depthwise_bn_offset","shape":[64],"dtype":"float32"},{"name":"MobileFaceNet/MobileFaceNet/Conv/Conv2D_weights","shape":[1,1,64,64],"dtype":"float32"},{"name":"MobileFaceNet/MobileFaceNet/Conv/Conv2D_bn_offset","shape":[64],"dtype":"float32"},{"name":"MobileFaceNet/MobileFaceNet/Conv2d_2_InvResBlock_0/Conv/Conv2D_weights","shape":[1,1,64,128],"dtype":"float32"},{"name":"MobileFaceNet/MobileFaceNet/Conv2d_2_InvResBlock_0/Conv/Conv2D_bn_offset","shape":[128],"dtype":"float32"},{"name":"MobileFaceNet/MobileFaceNet/Conv2d_2_InvResBlock_0/SeparableConv2d/depthwise_weights","shape":[3,3,128,1],"dtype":"float32"},{"name":"MobileFaceNet/MobileFaceNet/Conv2d_2_InvResBlock_0/SeparableConv2d/depthwise_bn_offset","shape":[128],"dtype":"float32"},{"name":"MobileFaceNet/MobileFaceNet/Conv2d_2_InvResBlock_0/Conv_1/Conv2D_weights","shape":[1,1,128,64],"dtype":"float32"},{"name":"MobileFaceNet/MobileFaceNet/Conv2d_6_InvResBlock_1/Conv_1/Conv2D_weights","shape":[1,1,256,128],"dtype":"float32"},{"name":"MobileFaceNet/MobileFaceNet/Conv2d_2_InvResBlock_0/Conv_1/Conv2D_bn_offset","shape":[64],"dtype":"float32"},{"name":"MobileFaceNet/MobileFaceNet/Conv2d_2_InvResBlock_1/Conv/Conv2D_weights","shape":[1,1,64,128],"dtype":"float32"},{"name":"MobileFaceNet/MobileFaceNet/Conv2d_2_InvResBlock_1/Conv/Conv2D_bn_offset","shape":[128],"dtype":"float32"},{"name":"MobileFaceNet/MobileFaceNet/Conv2d_2_InvResBlock_1/SeparableConv2d/depthwise_weights","shape":[3,3,128,1],"dtype":"float32"},{"name":"MobileFaceNet/MobileFaceNet/Conv2d_2_InvResBlock_1/SeparableConv2d/depthwise_bn_offset","shape":[128],"dtype":"float32"},{"name":"MobileFaceNet/MobileFaceNet/Conv2d_2_InvResBlock_1/Conv_1/Conv2D_weights","shape":[1,1,128,64],"dtype":"float32"},{"name":"MobileFaceNet/MobileFaceNet/Conv2d_6_InvResBlock_1/Conv_1/Conv2D_bn_offset","shape":[128],"dtype":"float32"},{"name":"MobileFaceNet/MobileFaceNet/Conv2d_2_InvResBlock_1/Conv_1/Conv2D_bn_offset","shape":[64],"dtype":"float32"},{"name":"MobileFaceNet/MobileFaceNet/Conv2d_2_InvResBlock_2/Conv/Conv2D_weights","shape":[1,1,64,128],"dtype":"float32"},{"name":"MobileFaceNet/MobileFaceNet/Conv2d_2_InvResBlock_2/Conv/Conv2D_bn_offset","shape":[128],"dtype":"float32"},{"name":"MobileFaceNet/MobileFaceNet/Conv2d_2_InvResBlock_2/SeparableConv2d/depthwise_weights","shape":[3,3,128,1],"dtype":"float32"},{"name":"MobileFaceNet/MobileFaceNet/Conv2d_2_InvResBlock_2/SeparableConv2d/depthwise_bn_offset","shape":[128],"dtype":"float32"},{"name":"MobileFaceNet/MobileFaceNet/Conv2d_2_InvResBlock_2/Conv_1/Conv2D_weights","shape":[1,1,128,64],"dtype":"float32"},{"name":"MobileFaceNet/MobileFaceNet/Conv2d_2_InvResBlock_2/Conv_1/Conv2D_bn_offset","shape":[64],"dtype":"float32"},{"name":"MobileFaceNet/MobileFaceNet/Conv2d_2_InvResBlock_3/Conv/Conv2D_weights","shape":[1,1,64,128],"dtype":"float32"},{"name":"MobileFaceNet/MobileFaceNet/Conv2d_7/Conv2D_weights","shape":[1,1,128,512],"dtype":"float32"},{"name":"MobileFaceNet/MobileFaceNet/Conv2d_2_InvResBlock_3/Conv/Conv2D_bn_offset","shape":[128],"dtype":"float32"},{"name":"MobileFaceNet/MobileFaceNet/Conv2d_2_InvResBlock_3/SeparableConv2d/depthwise_weights","shape":[3,3,128,1],"dtype":"float32"},{"name":"MobileFaceNet/MobileFaceNet/Conv2d_2_InvResBlock_3/SeparableConv2d/depthwise_bn_offset","shape":[128],"dtype":"float32"},{"name":"MobileFaceNet/MobileFaceNet/Conv2d_2_InvResBlock_3/Conv_1/Conv2D_weights","shape":[1,1,128,64],"dtype":"float32"},{"name":"MobileFaceNet/MobileFaceNet/Conv2d_2_InvResBlock_3/Conv_1/Conv2D_bn_offset","shape":[64],"dtype":"float32"},{"name":"MobileFaceNet/MobileFaceNet/Conv2d_2_InvResBlock_4/Conv/Conv2D_weights","shape":[1,1,64,128],"dtype":"float32"},{"name":"MobileFaceNet/MobileFaceNet/Conv2d_7/Conv2D_bn_offset","shape":[512],"dtype":"float32"},{"name":"MobileFaceNet/MobileFaceNet/Conv2d_2_InvResBlock_4/Conv/Conv2D_bn_offset","shape":[128],"dtype":"float32"},{"name":"MobileFaceNet/MobileFaceNet/Conv2d_2_InvResBlock_4/SeparableConv2d/depthwise_weights","shape":[3,3,128,1],"dtype":"float32"},{"name":"MobileFaceNet/MobileFaceNet/Conv2d_2_InvResBlock_4/SeparableConv2d/depthwise_bn_offset","shape":[128],"dtype":"float32"},{"name":"MobileFaceNet/MobileFaceNet/Conv2d_2_InvResBlock_4/Conv_1/Conv2D_weights","shape":[1,1,128,64],"dtype":"float32"},{"name":"MobileFaceNet/MobileFaceNet/Conv2d_2_InvResBlock_4/Conv_1/Conv2D_bn_offset","shape":[64],"dtype":"float32"},{"name":"MobileFaceNet/MobileFaceNet/Conv2d_3_InvResBlock_0/Conv/Conv2D_weights","shape":[1,1,64,256],"dtype":"float32"},{"name":"MobileFaceNet/MobileFaceNet/Conv2d_3_InvResBlock_0/Conv/Conv2D_bn_offset","shape":[256],"dtype":"float32"},{"name":"MobileFaceNet/MobileFaceNet/Conv2d_3_InvResBlock_0/SeparableConv2d/depthwise_weights","shape":[3,3,256,1],"dtype":"float32"},{"name":"MobileFaceNet/MobileFaceNet/Conv2d_3_InvResBlock_0/SeparableConv2d/depthwise_bn_offset","shape":[256],"dtype":"float32"},{"name":"MobileFaceNet/MobileFaceNet/Conv2d_3_InvResBlock_0/Conv_1/Conv2D_weights","shape":[1,1,256,128],"dtype":"float32"},{"name":"MobileFaceNet/MobileFaceNet/Conv2d_3_InvResBlock_0/Conv_1/Conv2D_bn_offset","shape":[128],"dtype":"float32"},{"name":"MobileFaceNet/MobileFaceNet/Conv2d_4_InvResBlock_0/Conv/Conv2D_weights","shape":[1,1,128,256],"dtype":"float32"},{"name":"MobileFaceNet/MobileFaceNet/Conv2d_4_InvResBlock_0/Conv/Conv2D_bn_offset","shape":[256],"dtype":"float32"},{"name":"MobileFaceNet/MobileFaceNet/Conv2d_4_InvResBlock_0/SeparableConv2d/depthwise_weights","shape":[3,3,256,1],"dtype":"float32"},{"name":"MobileFaceNet/MobileFaceNet/Conv2d_4_InvResBlock_0/SeparableConv2d/depthwise_bn_offset","shape":[256],"dtype":"float32"},{"name":"MobileFaceNet/MobileFaceNet/Conv2d_4_InvResBlock_0/Conv_1/Conv2D_weights","shape":[1,1,256,128],"dtype":"float32"},{"name":"MobileFaceNet/MobileFaceNet/Conv2d_4_InvResBlock_0/Conv_1/Conv2D_bn_offset","shape":[128],"dtype":"float32"},{"name":"MobileFaceNet/MobileFaceNet/Conv2d_4_InvResBlock_1/Conv/Conv2D_weights","shape":[1,1,128,256],"dtype":"float32"},{"name":"MobileFaceNet/MobileFaceNet/Conv2d_4_InvResBlock_1/Conv/Conv2D_bn_offset","shape":[256],"dtype":"float32"},{"name":"MobileFaceNet/MobileFaceNet/Conv2d_4_InvResBlock_1/SeparableConv2d/depthwise_weights","shape":[3,3,256,1],"dtype":"float32"},{"name":"MobileFaceNet/MobileFaceNet/Conv2d_4_InvResBlock_1/SeparableConv2d/depthwise_bn_offset","shape":[256],"dtype":"float32"},{"name":"MobileFaceNet/MobileFaceNet/Conv2d_4_InvResBlock_1/Conv_1/Conv2D_weights","shape":[1,1,256,128],"dtype":"float32"},{"name":"MobileFaceNet/Logits/SeparableConv2d/depthwise_weights","shape":[7,7,512,1],"dtype":"float32"},{"name":"MobileFaceNet/MobileFaceNet/Conv2d_4_InvResBlock_1/Conv_1/Conv2D_bn_offset","shape":[128],"dtype":"float32"},{"name":"MobileFaceNet/MobileFaceNet/Conv2d_4_InvResBlock_2/Conv/Conv2D_weights","shape":[1,1,128,256],"dtype":"float32"},{"name":"MobileFaceNet/MobileFaceNet/Conv2d_4_InvResBlock_2/Conv/Conv2D_bn_offset","shape":[256],"dtype":"float32"},{"name":"MobileFaceNet/MobileFaceNet/Conv2d_4_InvResBlock_2/SeparableConv2d/depthwise_weights","shape":[3,3,256,1],"dtype":"float32"},{"name":"MobileFaceNet/MobileFaceNet/Conv2d_4_InvResBlock_2/SeparableConv2d/depthwise_bn_offset","shape":[256],"dtype":"float32"},{"name":"MobileFaceNet/MobileFaceNet/Conv2d_4_InvResBlock_2/Conv_1/Conv2D_weights","shape":[1,1,256,128],"dtype":"float32"},{"name":"MobileFaceNet/Logits/SeparableConv2d/depthwise_bn_offset","shape":[512],"dtype":"float32"},{"name":"MobileFaceNet/MobileFaceNet/Conv2d_4_InvResBlock_2/Conv_1/Conv2D_bn_offset","shape":[128],"dtype":"float32"},{"name":"MobileFaceNet/MobileFaceNet/Conv2d_4_InvResBlock_3/Conv/Conv2D_weights","shape":[1,1,128,256],"dtype":"float32"},{"name":"MobileFaceNet/MobileFaceNet/Conv2d_4_InvResBlock_3/Conv/Conv2D_bn_offset","shape":[256],"dtype":"float32"},{"name":"MobileFaceNet/MobileFaceNet/Conv2d_4_InvResBlock_3/SeparableConv2d/depthwise_weights","shape":[3,3,256,1],"dtype":"float32"},{"name":"MobileFaceNet/MobileFaceNet/Conv2d_4_InvResBlock_3/SeparableConv2d/depthwise_bn_offset","shape":[256],"dtype":"float32"},{"name":"MobileFaceNet/MobileFaceNet/Conv2d_4_InvResBlock_3/Conv_1/Conv2D_weights","shape":[1,1,256,128],"dtype":"float32"},{"name":"MobileFaceNet/Logits/Conv/Conv2D_weights","shape":[1,1,512,512],"dtype":"float32"},{"name":"MobileFaceNet/MobileFaceNet/Conv2d_4_InvResBlock_3/Conv_1/Conv2D_bn_offset","shape":[128],"dtype":"float32"},{"name":"MobileFaceNet/MobileFaceNet/Conv2d_4_InvResBlock_4/Conv/Conv2D_weights","shape":[1,1,128,256],"dtype":"float32"},{"name":"MobileFaceNet/MobileFaceNet/Conv2d_4_InvResBlock_4/Conv/Conv2D_bn_offset","shape":[256],"dtype":"float32"},{"name":"MobileFaceNet/MobileFaceNet/Conv2d_4_InvResBlock_4/SeparableConv2d/depthwise_weights","shape":[3,3,256,1],"dtype":"float32"},{"name":"MobileFaceNet/MobileFaceNet/Conv2d_4_InvResBlock_4/SeparableConv2d/depthwise_bn_offset","shape":[256],"dtype":"float32"},{"name":"MobileFaceNet/MobileFaceNet/Conv2d_4_InvResBlock_4/Conv_1/Conv2D_weights","shape":[1,1,256,128],"dtype":"float32"},{"name":"MobileFaceNet/Logits/Conv/Conv2D_bn_offset","shape":[512],"dtype":"float32"},{"name":"MobileFaceNet/MobileFaceNet/Conv2d_4_InvResBlock_4/Conv_1/Conv2D_bn_offset","shape":[128],"dtype":"float32"},{"name":"MobileFaceNet/MobileFaceNet/Conv2d_4_InvResBlock_5/Conv/Conv2D_weights","shape":[1,1,128,256],"dtype":"float32"},{"name":"MobileFaceNet/MobileFaceNet/Conv2d_4_InvResBlock_5/Conv/Conv2D_bn_offset","shape":[256],"dtype":"float32"},{"name":"MobileFaceNet/MobileFaceNet/Conv2d_4_InvResBlock_5/SeparableConv2d/depthwise_weights","shape":[3,3,256,1],"dtype":"float32"},{"name":"MobileFaceNet/MobileFaceNet/Conv2d_4_InvResBlock_5/SeparableConv2d/depthwise_bn_offset","shape":[256],"dtype":"float32"},{"name":"MobileFaceNet/MobileFaceNet/Conv2d_4_InvResBlock_5/Conv_1/Conv2D_weights","shape":[1,1,256,128],"dtype":"float32"},{"name":"MobileFaceNet/Logits/LinearConv1x1/Conv2D_weights","shape":[1,1,512,192],"dtype":"float32"},{"name":"MobileFaceNet/MobileFaceNet/Conv2d_4_InvResBlock_5/Conv_1/Conv2D_bn_offset","shape":[128],"dtype":"float32"},{"name":"MobileFaceNet/MobileFaceNet/Conv2d_5_InvResBlock_0/Conv/Conv2D_weights","shape":[1,1,128,512],"dtype":"float32"},{"name":"MobileFaceNet/MobileFaceNet/Conv2d_5_InvResBlock_0/Conv/Conv2D_bn_offset","shape":[512],"dtype":"float32"},{"name":"MobileFaceNet/MobileFaceNet/Conv2d_5_InvResBlock_0/SeparableConv2d/depthwise_weights","shape":[3,3,512,1],"dtype":"float32"},{"name":"MobileFaceNet/MobileFaceNet/Conv2d_5_InvResBlock_0/SeparableConv2d/depthwise_bn_offset","shape":[512],"dtype":"float32"},{"name":"MobileFaceNet/MobileFaceNet/Conv2d_5_InvResBlock_0/Conv_1/Conv2D_weights","shape":[1,1,512,128],"dtype":"float32"},{"name":"MobileFaceNet/Logits/LinearConv1x1/Conv2D_bn_offset","shape":[192],"dtype":"float32"},{"name":"MobileFaceNet/MobileFaceNet/Conv2d_5_InvResBlock_0/Conv_1/Conv2D_bn_offset","shape":[128],"dtype":"float32"},{"name":"MobileFaceNet/MobileFaceNet/Conv2d_6_InvResBlock_0/Conv/Conv2D_weights","shape":[1,1,128,256],"dtype":"float32"},{"name":"MobileFaceNet/MobileFaceNet/Conv2d_6_InvResBlock_0/Conv/Conv2D_bn_offset","shape":[256],"dtype":"float32"},{"name":"MobileFaceNet/MobileFaceNet/Conv2d_6_InvResBlock_0/SeparableConv2d/depthwise_weights","shape":[3,3,256,1],"dtype":"float32"},{"name":"MobileFaceNet/MobileFaceNet/Conv2d_6_InvResBlock_0/SeparableConv2d/depthwise_bn_offset","shape":[256],"dtype":"float32"},{"name":"MobileFaceNet/MobileFaceNet/Conv2d_6_InvResBlock_0/Conv_1/Conv2D_weights","shape":[1,1,256,128],"dtype":"float32"},{"name":"MobileFaceNet/MobileFaceNet/Conv2d_6_InvResBlock_0/Conv_1/Conv2D_bn_offset","shape":[128],"dtype":"float32"},{"name":"MobileFaceNet/MobileFaceNet/Conv2d_6_InvResBlock_1/Conv/Conv2D_weights","shape":[1,1,128,256],"dtype":"float32"},{"name":"MobileFaceNet/MobileFaceNet/Conv2d_6_InvResBlock_1/Conv/Conv2D_bn_offset","shape":[256],"dtype":"float32"},{"name":"MobileFaceNet/MobileFaceNet/Conv2d_6_InvResBlock_1/SeparableConv2d/depthwise_weights","shape":[3,3,256,1],"dtype":"float32"},{"name":"MobileFaceNet/MobileFaceNet/Conv2d_6_InvResBlock_1/SeparableConv2d/depthwise_bn_offset","shape":[256],"dtype":"float32"}]
      }
  ]
}