{
  "format": "graph-model",
  "generatedBy": "https://github.com/RangiLyu/nanodet",
  "convertedBy": "https://github.com/vladmandic",
  "signature":
  {
      "inputs":
      {
          "input_1:0": {"name":"input_1:0","dtype":"DT_FLOAT","tensorShape":{"dim":[{"size":"1"},{"size":"3"},{"size":"416"},{"size":"416"}]}}
      },
      "outputs":
      {
          "Identity_1:0": {"name":"Identity_1:0","dtype":"DT_FLOAT","tensorShape":{"dim":[{"size":"1"},{"size":"676"},{"size":"80"}]}},
          "Identity_2:0": {"name":"Identity_2:0","dtype":"DT_FLOAT","tensorShape":{"dim":[{"size":"1"},{"size":"169"},{"size":"80"}]}},
          "Identity_3:0": {"name":"Identity_3:0","dtype":"DT_FLOAT","tensorShape":{"dim":[{"size":"1"},{"size":"2704"},{"size":"32"}]}},
          "Identity_5:0": {"name":"Identity_5:0","dtype":"DT_FLOAT","tensorShape":{"dim":[{"size":"1"},{"size":"169"},{"size":"32"}]}},
          "Identity:0": {"name":"Identity:0","dtype":"DT_FLOAT","tensorShape":{"dim":[{"size":"1"},{"size":"2704"},{"size":"80"}]}},
          "Identity_4:0": {"name":"Identity_4:0","dtype":"DT_FLOAT","tensorShape":{"dim":[{"size":"1"},{"size":"676"},{"size":"32"}]}}
      }
  },
  "modelTopology":
  {
      "node":
      [
          {"name":"PartitionedCall/Where_32","op":"Const","attr":{"value":{"tensor":{"dtype":"DT_INT64","tensorShape":{"dim":[{},{"size":"1"}]}}},"dtype":{"type":"DT_INT64"}}},
          {"name":"PartitionedCall/Cast_40","op":"Const","attr":{"value":{"tensor":{"dtype":"DT_INT64","tensorShape":{"dim":[{"size":"1"}]}}},"dtype":{"type":"DT_INT64"}}},
          {"name":"PartitionedCall/GatherV2_32","op":"Const","attr":{"dtype":{"type":"DT_INT64"},"value":{"tensor":{"dtype":"DT_INT64","tensorShape":{"dim":[{}]}}}}},
          {"name":"PartitionedCall/zeros_32","op":"Const","attr":{"dtype":{"type":"DT_INT64"},"value":{"tensor":{"dtype":"DT_INT64","tensorShape":{}}}}},
          {"name":"PartitionedCall/onnx_tf_prefix_Transpose_301/perm","op":"Const","attr":{"value":{"tensor":{"dtype":"DT_INT32","tensorShape":{"dim":[{"size":"3"}]}}},"dtype":{"type":"DT_INT32"}}},
          {"name":"PartitionedCall/Where_34","op":"Const","attr":{"value":{"tensor":{"dtype":"DT_INT64","tensorShape":{"dim":[{},{"size":"1"}]}}},"dtype":{"type":"DT_INT64"}}},
          {"name":"PartitionedCall/Cast_42","op":"Const","attr":{"dtype":{"type":"DT_INT64"},"value":{"tensor":{"dtype":"DT_INT64","tensorShape":{"dim":[{"size":"1"}]}}}}},
          {"name":"PartitionedCall/GatherV2_34","op":"Const","attr":{"dtype":{"type":"DT_INT64"},"value":{"tensor":{"dtype":"DT_INT64","tensorShape":{"dim":[{}]}}}}},
          {"name":"PartitionedCall/zeros_34","op":"Const","attr":{"value":{"tensor":{"dtype":"DT_INT64","tensorShape":{}}},"dtype":{"type":"DT_INT64"}}},
          {"name":"PartitionedCall/onnx_tf_prefix_Transpose_318/perm","op":"Const","attr":{"dtype":{"type":"DT_INT32"},"value":{"tensor":{"dtype":"DT_INT32","tensorShape":{"dim":[{"size":"3"}]}}}}},
          {"name":"unknown_135","op":"Const","attr":{"dtype":{"type":"DT_INT64"},"value":{"tensor":{"dtype":"DT_INT64","tensorShape":{"dim":[{"size":"3"}]}}}}},
          {"name":"PartitionedCall/Where_36","op":"Const","attr":{"value":{"tensor":{"dtype":"DT_INT64","tensorShape":{"dim":[{},{"size":"1"}]}}},"dtype":{"type":"DT_INT64"}}},
          {"name":"PartitionedCall/Cast_44","op":"Const","attr":{"dtype":{"type":"DT_INT64"},"value":{"tensor":{"dtype":"DT_INT64","tensorShape":{"dim":[{"size":"1"}]}}}}},
          {"name":"PartitionedCall/GatherV2_36","op":"Const","attr":{"dtype":{"type":"DT_INT64"},"value":{"tensor":{"dtype":"DT_INT64","tensorShape":{"dim":[{}]}}}}},
          {"name":"PartitionedCall/zeros_36","op":"Const","attr":{"dtype":{"type":"DT_INT64"},"value":{"tensor":{"dtype":"DT_INT64","tensorShape":{}}}}},
          {"name":"PartitionedCall/onnx_tf_prefix_Transpose_335/perm","op":"Const","attr":{"dtype":{"type":"DT_INT32"},"value":{"tensor":{"dtype":"DT_INT32","tensorShape":{"dim":[{"size":"3"}]}}}}},
          {"name":"PartitionedCall/Const_104","op":"Const","attr":{"value":{"tensor":{"dtype":"DT_INT32","tensorShape":{"dim":[{"size":"4"},{"size":"2"}]}}},"dtype":{"type":"DT_INT32"}}},
          {"name":"PartitionedCall/transpose_185/perm","op":"Const","attr":{"dtype":{"type":"DT_INT32"},"value":{"tensor":{"dtype":"DT_INT32","tensorShape":{"dim":[{"size":"4"}]}}}}},
          {"name":"PartitionedCall/Reshape_19","op":"Const","attr":{"dtype":{"type":"DT_FLOAT"},"value":{"tensor":{"dtype":"DT_FLOAT","tensorShape":{"dim":[{"size":"3"},{"size":"3"},{"size":"96"},{"size":"1"}]}}}}},
          {"name":"unknown_126","op":"Const","attr":{"value":{"tensor":{"dtype":"DT_FLOAT","tensorShape":{"dim":[{"size":"96"}]}}},"dtype":{"type":"DT_FLOAT"}}},
          {"name":"PartitionedCall/transpose_186/perm","op":"Const","attr":{"dtype":{"type":"DT_INT32"},"value":{"tensor":{"dtype":"DT_INT32","tensorShape":{"dim":[{"size":"4"}]}}}}},
          {"name":"PartitionedCall/transpose_188/perm","op":"Const","attr":{"value":{"tensor":{"dtype":"DT_INT32","tensorShape":{"dim":[{"size":"4"}]}}},"dtype":{"type":"DT_INT32"}}},
          {"name":"PartitionedCall/split_39","op":"Const","attr":{"dtype":{"type":"DT_FLOAT"},"value":{"tensor":{"dtype":"DT_FLOAT","tensorShape":{"dim":[{"size":"1"},{"size":"1"},{"size":"96"},{"size":"96"}]}}}}},
          {"name":"unknown_128","op":"Const","attr":{"dtype":{"type":"DT_FLOAT"},"value":{"tensor":{"dtype":"DT_FLOAT","tensorShape":{"dim":[{"size":"96"}]}}}}},
          {"name":"PartitionedCall/transpose_189/perm","op":"Const","attr":{"dtype":{"type":"DT_INT32"},"value":{"tensor":{"dtype":"DT_INT32","tensorShape":{"dim":[{"size":"4"}]}}}}},
          {"name":"PartitionedCall/Const_106","op":"Const","attr":{"value":{"tensor":{"dtype":"DT_INT32","tensorShape":{"dim":[{"size":"4"},{"size":"2"}]}}},"dtype":{"type":"DT_INT32"}}},
          {"name":"PartitionedCall/transpose_191/perm","op":"Const","attr":{"dtype":{"type":"DT_INT32"},"value":{"tensor":{"dtype":"DT_INT32","tensorShape":{"dim":[{"size":"4"}]}}}}},
          {"name":"PartitionedCall/Reshape_20","op":"Const","attr":{"dtype":{"type":"DT_FLOAT"},"value":{"tensor":{"dtype":"DT_FLOAT","tensorShape":{"dim":[{"size":"3"},{"size":"3"},{"size":"96"},{"size":"1"}]}}}}},
          {"name":"unknown_130","op":"Const","attr":{"value":{"tensor":{"dtype":"DT_FLOAT","tensorShape":{"dim":[{"size":"96"}]}}},"dtype":{"type":"DT_FLOAT"}}},
          {"name":"PartitionedCall/transpose_192/perm","op":"Const","attr":{"value":{"tensor":{"dtype":"DT_INT32","tensorShape":{"dim":[{"size":"4"}]}}},"dtype":{"type":"DT_INT32"}}},
          {"name":"PartitionedCall/transpose_194/perm","op":"Const","attr":{"value":{"tensor":{"dtype":"DT_INT32","tensorShape":{"dim":[{"size":"4"}]}}},"dtype":{"type":"DT_INT32"}}},
          {"name":"PartitionedCall/split_40","op":"Const","attr":{"value":{"tensor":{"dtype":"DT_FLOAT","tensorShape":{"dim":[{"size":"1"},{"size":"1"},{"size":"96"},{"size":"96"}]}}},"dtype":{"type":"DT_FLOAT"}}},
          {"name":"unknown_132","op":"Const","attr":{"dtype":{"type":"DT_FLOAT"},"value":{"tensor":{"dtype":"DT_FLOAT","tensorShape":{"dim":[{"size":"96"}]}}}}},
          {"name":"PartitionedCall/transpose_195/perm","op":"Const","attr":{"dtype":{"type":"DT_INT32"},"value":{"tensor":{"dtype":"DT_INT32","tensorShape":{"dim":[{"size":"4"}]}}}}},
          {"name":"PartitionedCall/transpose_197/perm","op":"Const","attr":{"dtype":{"type":"DT_INT32"},"value":{"tensor":{"dtype":"DT_INT32","tensorShape":{"dim":[{"size":"4"}]}}}}},
          {"name":"PartitionedCall/split_41","op":"Const","attr":{"dtype":{"type":"DT_FLOAT"},"value":{"tensor":{"dtype":"DT_FLOAT","tensorShape":{"dim":[{"size":"1"},{"size":"1"},{"size":"96"},{"size":"112"}]}}}}},
          {"name":"unknown_134","op":"Const","attr":{"value":{"tensor":{"dtype":"DT_FLOAT","tensorShape":{"dim":[{"size":"112"}]}}},"dtype":{"type":"DT_FLOAT"}}},
          {"name":"PartitionedCall/transpose_198/perm","op":"Const","attr":{"dtype":{"type":"DT_INT32"},"value":{"tensor":{"dtype":"DT_INT32","tensorShape":{"dim":[{"size":"4"}]}}}}},
          {"name":"PartitionedCall/Const_109","op":"Const","attr":{"dtype":{"type":"DT_INT32"},"value":{"tensor":{"dtype":"DT_INT32","tensorShape":{"dim":[{"size":"2"}]}}}}},
          {"name":"PartitionedCall/onnx_tf_prefix_Split_297/split_dim","op":"Const","attr":{"value":{"tensor":{"dtype":"DT_INT32","tensorShape":{}}},"dtype":{"type":"DT_INT32"}}},
          {"name":"PartitionedCall/Where_33","op":"Const","attr":{"value":{"tensor":{"dtype":"DT_INT64","tensorShape":{"dim":[{},{"size":"1"}]}}},"dtype":{"type":"DT_INT64"}}},
          {"name":"PartitionedCall/Cast_41","op":"Const","attr":{"dtype":{"type":"DT_INT64"},"value":{"tensor":{"dtype":"DT_INT64","tensorShape":{"dim":[{"size":"1"}]}}}}},
          {"name":"PartitionedCall/GatherV2_33","op":"Const","attr":{"dtype":{"type":"DT_INT64"},"value":{"tensor":{"dtype":"DT_INT64","tensorShape":{"dim":[{}]}}}}},
          {"name":"PartitionedCall/zeros_33","op":"Const","attr":{"dtype":{"type":"DT_INT64"},"value":{"tensor":{"dtype":"DT_INT64","tensorShape":{}}}}},
          {"name":"PartitionedCall/onnx_tf_prefix_Transpose_304/perm","op":"Const","attr":{"dtype":{"type":"DT_INT32"},"value":{"tensor":{"dtype":"DT_INT32","tensorShape":{"dim":[{"size":"3"}]}}}}},
          {"name":"PartitionedCall/Const_112","op":"Const","attr":{"dtype":{"type":"DT_INT32"},"value":{"tensor":{"dtype":"DT_INT32","tensorShape":{"dim":[{"size":"4"},{"size":"2"}]}}}}},
          {"name":"PartitionedCall/transpose_200/perm","op":"Const","attr":{"value":{"tensor":{"dtype":"DT_INT32","tensorShape":{"dim":[{"size":"4"}]}}},"dtype":{"type":"DT_INT32"}}},
          {"name":"PartitionedCall/Reshape_21","op":"Const","attr":{"value":{"tensor":{"dtype":"DT_FLOAT","tensorShape":{"dim":[{"size":"3"},{"size":"3"},{"size":"96"},{"size":"1"}]}}},"dtype":{"type":"DT_FLOAT"}}},
          {"name":"unknown_138","op":"Const","attr":{"dtype":{"type":"DT_FLOAT"},"value":{"tensor":{"dtype":"DT_FLOAT","tensorShape":{"dim":[{"size":"96"}]}}}}},
          {"name":"PartitionedCall/transpose_201/perm","op":"Const","attr":{"dtype":{"type":"DT_INT32"},"value":{"tensor":{"dtype":"DT_INT32","tensorShape":{"dim":[{"size":"4"}]}}}}},
          {"name":"PartitionedCall/transpose_203/perm","op":"Const","attr":{"value":{"tensor":{"dtype":"DT_INT32","tensorShape":{"dim":[{"size":"4"}]}}},"dtype":{"type":"DT_INT32"}}},
          {"name":"PartitionedCall/split_42","op":"Const","attr":{"value":{"tensor":{"dtype":"DT_FLOAT","tensorShape":{"dim":[{"size":"1"},{"size":"1"},{"size":"96"},{"size":"96"}]}}},"dtype":{"type":"DT_FLOAT"}}},
          {"name":"unknown_140","op":"Const","attr":{"value":{"tensor":{"dtype":"DT_FLOAT","tensorShape":{"dim":[{"size":"96"}]}}},"dtype":{"type":"DT_FLOAT"}}},
          {"name":"PartitionedCall/transpose_204/perm","op":"Const","attr":{"dtype":{"type":"DT_INT32"},"value":{"tensor":{"dtype":"DT_INT32","tensorShape":{"dim":[{"size":"4"}]}}}}},
          {"name":"PartitionedCall/Const_114","op":"Const","attr":{"dtype":{"type":"DT_INT32"},"value":{"tensor":{"dtype":"DT_INT32","tensorShape":{"dim":[{"size":"4"},{"size":"2"}]}}}}},
          {"name":"PartitionedCall/transpose_206/perm","op":"Const","attr":{"dtype":{"type":"DT_INT32"},"value":{"tensor":{"dtype":"DT_INT32","tensorShape":{"dim":[{"size":"4"}]}}}}},
          {"name":"PartitionedCall/Reshape_22","op":"Const","attr":{"dtype":{"type":"DT_FLOAT"},"value":{"tensor":{"dtype":"DT_FLOAT","tensorShape":{"dim":[{"size":"3"},{"size":"3"},{"size":"96"},{"size":"1"}]}}}}},
          {"name":"unknown_142","op":"Const","attr":{"value":{"tensor":{"dtype":"DT_FLOAT","tensorShape":{"dim":[{"size":"96"}]}}},"dtype":{"type":"DT_FLOAT"}}},
          {"name":"PartitionedCall/transpose_207/perm","op":"Const","attr":{"dtype":{"type":"DT_INT32"},"value":{"tensor":{"dtype":"DT_INT32","tensorShape":{"dim":[{"size":"4"}]}}}}},
          {"name":"PartitionedCall/transpose_209/perm","op":"Const","attr":{"dtype":{"type":"DT_INT32"},"value":{"tensor":{"dtype":"DT_INT32","tensorShape":{"dim":[{"size":"4"}]}}}}},
          {"name":"PartitionedCall/split_43","op":"Const","attr":{"value":{"tensor":{"dtype":"DT_FLOAT","tensorShape":{"dim":[{"size":"1"},{"size":"1"},{"size":"96"},{"size":"96"}]}}},"dtype":{"type":"DT_FLOAT"}}},
          {"name":"unknown_144","op":"Const","attr":{"dtype":{"type":"DT_FLOAT"},"value":{"tensor":{"dtype":"DT_FLOAT","tensorShape":{"dim":[{"size":"96"}]}}}}},
          {"name":"PartitionedCall/transpose_210/perm","op":"Const","attr":{"dtype":{"type":"DT_INT32"},"value":{"tensor":{"dtype":"DT_INT32","tensorShape":{"dim":[{"size":"4"}]}}}}},
          {"name":"PartitionedCall/transpose_212/perm","op":"Const","attr":{"value":{"tensor":{"dtype":"DT_INT32","tensorShape":{"dim":[{"size":"4"}]}}},"dtype":{"type":"DT_INT32"}}},
          {"name":"PartitionedCall/split_44","op":"Const","attr":{"dtype":{"type":"DT_FLOAT"},"value":{"tensor":{"dtype":"DT_FLOAT","tensorShape":{"dim":[{"size":"1"},{"size":"1"},{"size":"96"},{"size":"112"}]}}}}},
          {"name":"unknown_146","op":"Const","attr":{"value":{"tensor":{"dtype":"DT_FLOAT","tensorShape":{"dim":[{"size":"112"}]}}},"dtype":{"type":"DT_FLOAT"}}},
          {"name":"PartitionedCall/transpose_213/perm","op":"Const","attr":{"dtype":{"type":"DT_INT32"},"value":{"tensor":{"dtype":"DT_INT32","tensorShape":{"dim":[{"size":"4"}]}}}}},
          {"name":"PartitionedCall/Const_117","op":"Const","attr":{"value":{"tensor":{"dtype":"DT_INT32","tensorShape":{"dim":[{"size":"2"}]}}},"dtype":{"type":"DT_INT32"}}},
          {"name":"PartitionedCall/onnx_tf_prefix_Split_314/split_dim","op":"Const","attr":{"value":{"tensor":{"dtype":"DT_INT32","tensorShape":{}}},"dtype":{"type":"DT_INT32"}}},
          {"name":"PartitionedCall/Where_35","op":"Const","attr":{"dtype":{"type":"DT_INT64"},"value":{"tensor":{"dtype":"DT_INT64","tensorShape":{"dim":[{},{"size":"1"}]}}}}},
          {"name":"PartitionedCall/Cast_43","op":"Const","attr":{"dtype":{"type":"DT_INT64"},"value":{"tensor":{"dtype":"DT_INT64","tensorShape":{"dim":[{"size":"1"}]}}}}},
          {"name":"PartitionedCall/GatherV2_35","op":"Const","attr":{"dtype":{"type":"DT_INT64"},"value":{"tensor":{"dtype":"DT_INT64","tensorShape":{"dim":[{}]}}}}},
          {"name":"PartitionedCall/zeros_35","op":"Const","attr":{"value":{"tensor":{"dtype":"DT_INT64","tensorShape":{}}},"dtype":{"type":"DT_INT64"}}},
          {"name":"PartitionedCall/onnx_tf_prefix_Transpose_321/perm","op":"Const","attr":{"dtype":{"type":"DT_INT32"},"value":{"tensor":{"dtype":"DT_INT32","tensorShape":{"dim":[{"size":"3"}]}}}}},
          {"name":"PartitionedCall/transpose_175/perm","op":"Const","attr":{"dtype":{"type":"DT_INT32"},"value":{"tensor":{"dtype":"DT_INT32","tensorShape":{"dim":[{"size":"4"}]}}}}},
          {"name":"PartitionedCall/transpose_168/perm","op":"Const","attr":{"value":{"tensor":{"dtype":"DT_INT32","tensorShape":{"dim":[{"size":"4"}]}}},"dtype":{"type":"DT_INT32"}}},
          {"name":"PartitionedCall/split_36","op":"Const","attr":{"dtype":{"type":"DT_FLOAT"},"value":{"tensor":{"dtype":"DT_FLOAT","tensorShape":{"dim":[{"size":"1"},{"size":"1"},{"size":"116"},{"size":"96"}]}}}}},
          {"name":"unknown_116","op":"Const","attr":{"value":{"tensor":{"dtype":"DT_FLOAT","tensorShape":{"dim":[{"size":"96"}]}}},"dtype":{"type":"DT_FLOAT"}}},
          {"name":"PartitionedCall/transpose_169/perm","op":"Const","attr":{"value":{"tensor":{"dtype":"DT_INT32","tensorShape":{"dim":[{"size":"4"}]}}},"dtype":{"type":"DT_INT32"}}},
          {"name":"PartitionedCall/transpose_171/perm","op":"Const","attr":{"dtype":{"type":"DT_INT32"},"value":{"tensor":{"dtype":"DT_INT32","tensorShape":{"dim":[{"size":"4"}]}}}}},
          {"name":"PartitionedCall/split_37","op":"Const","attr":{"dtype":{"type":"DT_FLOAT"},"value":{"tensor":{"dtype":"DT_FLOAT","tensorShape":{"dim":[{"size":"1"},{"size":"1"},{"size":"232"},{"size":"96"}]}}}}},
          {"name":"unknown_118","op":"Const","attr":{"dtype":{"type":"DT_FLOAT"},"value":{"tensor":{"dtype":"DT_FLOAT","tensorShape":{"dim":[{"size":"96"}]}}}}},
          {"name":"PartitionedCall/transpose_172/perm","op":"Const","attr":{"dtype":{"type":"DT_INT32"},"value":{"tensor":{"dtype":"DT_INT32","tensorShape":{"dim":[{"size":"4"}]}}}}},
          {"name":"PartitionedCall/Const_76","op":"Const","attr":{"value":{"tensor":{"dtype":"DT_INT32","tensorShape":{"dim":[{"size":"4"},{"size":"2"}]}}},"dtype":{"type":"DT_INT32"}}},
          {"name":"PartitionedCall/transpose_126/perm","op":"Const","attr":{"value":{"tensor":{"dtype":"DT_INT32","tensorShape":{"dim":[{"size":"4"}]}}},"dtype":{"type":"DT_INT32"}}},
          {"name":"PartitionedCall/Reshape_14","op":"Const","attr":{"dtype":{"type":"DT_FLOAT"},"value":{"tensor":{"dtype":"DT_FLOAT","tensorShape":{"dim":[{"size":"3"},{"size":"3"},{"size":"232"},{"size":"1"}]}}}}},
          {"name":"unknown_86","op":"Const","attr":{"value":{"tensor":{"dtype":"DT_FLOAT","tensorShape":{"dim":[{"size":"232"}]}}},"dtype":{"type":"DT_FLOAT"}}},
          {"name":"PartitionedCall/split_27","op":"Const","attr":{"value":{"tensor":{"dtype":"DT_FLOAT","tensorShape":{"dim":[{"size":"1"},{"size":"1"},{"size":"232"},{"size":"232"}]}}},"dtype":{"type":"DT_FLOAT"}}},
          {"name":"unknown_88","op":"Const","attr":{"value":{"tensor":{"dtype":"DT_FLOAT","tensorShape":{"dim":[{"size":"232"}]}}},"dtype":{"type":"DT_FLOAT"}}},
          {"name":"PartitionedCall/transpose_130/perm","op":"Const","attr":{"value":{"tensor":{"dtype":"DT_INT32","tensorShape":{"dim":[{"size":"4"}]}}},"dtype":{"type":"DT_INT32"}}},
          {"name":"PartitionedCall/Const_27","op":"Const","attr":{"dtype":{"type":"DT_INT32"},"value":{"tensor":{"dtype":"DT_INT32","tensorShape":{"dim":[{"size":"4"},{"size":"2"}]}}}}},
          {"name":"PartitionedCall/transpose_48/perm","op":"Const","attr":{"value":{"tensor":{"dtype":"DT_INT32","tensorShape":{"dim":[{"size":"4"}]}}},"dtype":{"type":"DT_INT32"}}},
          {"name":"PartitionedCall/Reshape_5","op":"Const","attr":{"value":{"tensor":{"dtype":"DT_FLOAT","tensorShape":{"dim":[{"size":"3"},{"size":"3"},{"size":"116"},{"size":"1"}]}}},"dtype":{"type":"DT_FLOAT"}}},
          {"name":"unknown_32","op":"Const","attr":{"value":{"tensor":{"dtype":"DT_FLOAT","tensorShape":{"dim":[{"size":"116"}]}}},"dtype":{"type":"DT_FLOAT"}}},
          {"name":"PartitionedCall/split_10","op":"Const","attr":{"dtype":{"type":"DT_FLOAT"},"value":{"tensor":{"dtype":"DT_FLOAT","tensorShape":{"dim":[{"size":"1"},{"size":"1"},{"size":"116"},{"size":"116"}]}}}}},
          {"name":"unknown_34","op":"Const","attr":{"value":{"tensor":{"dtype":"DT_FLOAT","tensorShape":{"dim":[{"size":"116"}]}}},"dtype":{"type":"DT_FLOAT"}}},
          {"name":"PartitionedCall/transpose_52/perm","op":"Const","attr":{"value":{"tensor":{"dtype":"DT_INT32","tensorShape":{"dim":[{"size":"4"}]}}},"dtype":{"type":"DT_INT32"}}},
          {"name":"PartitionedCall/transpose_4/perm","op":"Const","attr":{"dtype":{"type":"DT_INT32"},"value":{"tensor":{"dtype":"DT_INT32","tensorShape":{"dim":[{"size":"4"}]}}}}},
          {"name":"PartitionedCall/Const_2","op":"Const","attr":{"dtype":{"type":"DT_INT32"},"value":{"tensor":{"dtype":"DT_INT32","tensorShape":{"dim":[{"size":"4"},{"size":"2"}]}}}}},
          {"name":"PartitionedCall/transpose_6/perm","op":"Const","attr":{"dtype":{"type":"DT_INT32"},"value":{"tensor":{"dtype":"DT_INT32","tensorShape":{"dim":[{"size":"4"}]}}}}},
          {"name":"PartitionedCall/Reshape","op":"Const","attr":{"dtype":{"type":"DT_FLOAT"},"value":{"tensor":{"dtype":"DT_FLOAT","tensorShape":{"dim":[{"size":"3"},{"size":"3"},{"size":"24"},{"size":"1"}]}}}}},
          {"name":"unknown_2","op":"Const","attr":{"dtype":{"type":"DT_FLOAT"},"value":{"tensor":{"dtype":"DT_FLOAT","tensorShape":{"dim":[{"size":"24"}]}}}}},
          {"name":"PartitionedCall/split_1","op":"Const","attr":{"dtype":{"type":"DT_FLOAT"},"value":{"tensor":{"dtype":"DT_FLOAT","tensorShape":{"dim":[{"size":"1"},{"size":"1"},{"size":"24"},{"size":"58"}]}}}}},
          {"name":"unknown_4","op":"Const","attr":{"dtype":{"type":"DT_FLOAT"},"value":{"tensor":{"dtype":"DT_FLOAT","tensorShape":{"dim":[{"size":"58"}]}}}}},
          {"name":"PartitionedCall/transpose_10/perm","op":"Const","attr":{"value":{"tensor":{"dtype":"DT_INT32","tensorShape":{"dim":[{"size":"4"}]}}},"dtype":{"type":"DT_INT32"}}},
          {"name":"PartitionedCall/Const","op":"Const","attr":{"value":{"tensor":{"dtype":"DT_INT32","tensorShape":{"dim":[{"size":"4"},{"size":"2"}]}}},"dtype":{"type":"DT_INT32"}}},
          {"name":"PartitionedCall/transpose_1/perm","op":"Const","attr":{"dtype":{"type":"DT_INT32"},"value":{"tensor":{"dtype":"DT_INT32","tensorShape":{"dim":[{"size":"4"}]}}}}},
          {"name":"PartitionedCall/split","op":"Const","attr":{"dtype":{"type":"DT_FLOAT"},"value":{"tensor":{"dtype":"DT_FLOAT","tensorShape":{"dim":[{"size":"3"},{"size":"3"},{"size":"3"},{"size":"24"}]}}}}},
          {"name":"unknown_0","op":"Const","attr":{"value":{"tensor":{"dtype":"DT_FLOAT","tensorShape":{"dim":[{"size":"24"}]}}},"dtype":{"type":"DT_FLOAT"}}},
          {"name":"PartitionedCall/transpose_2/perm","op":"Const","attr":{"dtype":{"type":"DT_INT32"},"value":{"tensor":{"dtype":"DT_INT32","tensorShape":{"dim":[{"size":"4"}]}}}}},
          {"name":"PartitionedCall/PadV2/paddings","op":"Const","attr":{"dtype":{"type":"DT_INT32"},"value":{"tensor":{"dtype":"DT_INT32","tensorShape":{"dim":[{"size":"4"},{"size":"2"}]}}}}},
          {"name":"PartitionedCall/PadV2/constant_values","op":"Const","attr":{"dtype":{"type":"DT_FLOAT"},"value":{"tensor":{"dtype":"DT_FLOAT","tensorShape":{}}}}},
          {"name":"PartitionedCall/transpose_3/perm","op":"Const","attr":{"dtype":{"type":"DT_INT32"},"value":{"tensor":{"dtype":"DT_INT32","tensorShape":{"dim":[{"size":"4"}]}}}}},
          {"name":"PartitionedCall/split_2","op":"Const","attr":{"value":{"tensor":{"dtype":"DT_FLOAT","tensorShape":{"dim":[{"size":"1"},{"size":"1"},{"size":"24"},{"size":"58"}]}}},"dtype":{"type":"DT_FLOAT"}}},
          {"name":"unknown_6","op":"Const","attr":{"dtype":{"type":"DT_FLOAT"},"value":{"tensor":{"dtype":"DT_FLOAT","tensorShape":{"dim":[{"size":"58"}]}}}}},
          {"name":"PartitionedCall/transpose_13/perm","op":"Const","attr":{"dtype":{"type":"DT_INT32"},"value":{"tensor":{"dtype":"DT_INT32","tensorShape":{"dim":[{"size":"4"}]}}}}},
          {"name":"PartitionedCall/Const_5","op":"Const","attr":{"dtype":{"type":"DT_INT32"},"value":{"tensor":{"dtype":"DT_INT32","tensorShape":{"dim":[{"size":"4"},{"size":"2"}]}}}}},
          {"name":"PartitionedCall/transpose_15/perm","op":"Const","attr":{"value":{"tensor":{"dtype":"DT_INT32","tensorShape":{"dim":[{"size":"4"}]}}},"dtype":{"type":"DT_INT32"}}},
          {"name":"PartitionedCall/Reshape_1","op":"Const","attr":{"dtype":{"type":"DT_FLOAT"},"value":{"tensor":{"dtype":"DT_FLOAT","tensorShape":{"dim":[{"size":"3"},{"size":"3"},{"size":"58"},{"size":"1"}]}}}}},
          {"name":"unknown_8","op":"Const","attr":{"dtype":{"type":"DT_FLOAT"},"value":{"tensor":{"dtype":"DT_FLOAT","tensorShape":{"dim":[{"size":"58"}]}}}}},
          {"name":"PartitionedCall/split_3","op":"Const","attr":{"value":{"tensor":{"dtype":"DT_FLOAT","tensorShape":{"dim":[{"size":"1"},{"size":"1"},{"size":"58"},{"size":"58"}]}}},"dtype":{"type":"DT_FLOAT"}}},
          {"name":"unknown_10","op":"Const","attr":{"dtype":{"type":"DT_FLOAT"},"value":{"tensor":{"dtype":"DT_FLOAT","tensorShape":{"dim":[{"size":"58"}]}}}}},
          {"name":"PartitionedCall/transpose_19/perm","op":"Const","attr":{"dtype":{"type":"DT_INT32"},"value":{"tensor":{"dtype":"DT_INT32","tensorShape":{"dim":[{"size":"4"}]}}}}},
          {"name":"PartitionedCall/onnx_tf_prefix_Concat_11/axis","op":"Const","attr":{"dtype":{"type":"DT_INT32"},"value":{"tensor":{"dtype":"DT_INT32","tensorShape":{}}}}},
          {"name":"PartitionedCall/Where","op":"Const","attr":{"dtype":{"type":"DT_INT64"},"value":{"tensor":{"dtype":"DT_INT64","tensorShape":{"dim":[{},{"size":"1"}]}}}}},
          {"name":"PartitionedCall/Cast","op":"Const","attr":{"dtype":{"type":"DT_INT64"},"value":{"tensor":{"dtype":"DT_INT64","tensorShape":{"dim":[{"size":"1"}]}}}}},
          {"name":"PartitionedCall/GatherV2","op":"Const","attr":{"dtype":{"type":"DT_INT64"},"value":{"tensor":{"dtype":"DT_INT64","tensorShape":{"dim":[{}]}}}}},
          {"name":"PartitionedCall/zeros","op":"Const","attr":{"value":{"tensor":{"dtype":"DT_INT64","tensorShape":{}}},"dtype":{"type":"DT_INT64"}}},
          {"name":"PartitionedCall/onnx_tf_prefix_Transpose_14/perm","op":"Const","attr":{"value":{"tensor":{"dtype":"DT_INT32","tensorShape":{"dim":[{"size":"5"}]}}},"dtype":{"type":"DT_INT32"}}},
          {"name":"PartitionedCall/Where_1","op":"Const","attr":{"dtype":{"type":"DT_INT64"},"value":{"tensor":{"dtype":"DT_INT64","tensorShape":{"dim":[{},{"size":"1"}]}}}}},
          {"name":"PartitionedCall/Cast_1","op":"Const","attr":{"value":{"tensor":{"dtype":"DT_INT64","tensorShape":{"dim":[{"size":"1"}]}}},"dtype":{"type":"DT_INT64"}}},
          {"name":"PartitionedCall/GatherV2_1","op":"Const","attr":{"dtype":{"type":"DT_INT64"},"value":{"tensor":{"dtype":"DT_INT64","tensorShape":{"dim":[{}]}}}}},
          {"name":"PartitionedCall/zeros_1","op":"Const","attr":{"dtype":{"type":"DT_INT64"},"value":{"tensor":{"dtype":"DT_INT64","tensorShape":{}}}}},
          {"name":"PartitionedCall/Const_9","op":"Const","attr":{"value":{"tensor":{"dtype":"DT_INT32","tensorShape":{"dim":[{"size":"2"}]}}},"dtype":{"type":"DT_INT32"}}},
          {"name":"PartitionedCall/onnx_tf_prefix_Split_17/split_dim","op":"Const","attr":{"dtype":{"type":"DT_INT32"},"value":{"tensor":{"dtype":"DT_INT32","tensorShape":{}}}}},
          {"name":"PartitionedCall/transpose_21/perm","op":"Const","attr":{"dtype":{"type":"DT_INT32"},"value":{"tensor":{"dtype":"DT_INT32","tensorShape":{"dim":[{"size":"4"}]}}}}},
          {"name":"PartitionedCall/split_4","op":"Const","attr":{"dtype":{"type":"DT_FLOAT"},"value":{"tensor":{"dtype":"DT_FLOAT","tensorShape":{"dim":[{"size":"1"},{"size":"1"},{"size":"58"},{"size":"58"}]}}}}},
          {"name":"unknown_14","op":"Const","attr":{"value":{"tensor":{"dtype":"DT_FLOAT","tensorShape":{"dim":[{"size":"58"}]}}},"dtype":{"type":"DT_FLOAT"}}},
          {"name":"PartitionedCall/transpose_22/perm","op":"Const","attr":{"dtype":{"type":"DT_INT32"},"value":{"tensor":{"dtype":"DT_INT32","tensorShape":{"dim":[{"size":"4"}]}}}}},
          {"name":"PartitionedCall/Const_11","op":"Const","attr":{"value":{"tensor":{"dtype":"DT_INT32","tensorShape":{"dim":[{"size":"4"},{"size":"2"}]}}},"dtype":{"type":"DT_INT32"}}},
          {"name":"PartitionedCall/transpose_24/perm","op":"Const","attr":{"dtype":{"type":"DT_INT32"},"value":{"tensor":{"dtype":"DT_INT32","tensorShape":{"dim":[{"size":"4"}]}}}}},
          {"name":"PartitionedCall/Reshape_2","op":"Const","attr":{"value":{"tensor":{"dtype":"DT_FLOAT","tensorShape":{"dim":[{"size":"3"},{"size":"3"},{"size":"58"},{"size":"1"}]}}},"dtype":{"type":"DT_FLOAT"}}},
          {"name":"unknown_16","op":"Const","attr":{"value":{"tensor":{"dtype":"DT_FLOAT","tensorShape":{"dim":[{"size":"58"}]}}},"dtype":{"type":"DT_FLOAT"}}},
          {"name":"PartitionedCall/split_5","op":"Const","attr":{"dtype":{"type":"DT_FLOAT"},"value":{"tensor":{"dtype":"DT_FLOAT","tensorShape":{"dim":[{"size":"1"},{"size":"1"},{"size":"58"},{"size":"58"}]}}}}},
          {"name":"unknown_18","op":"Const","attr":{"value":{"tensor":{"dtype":"DT_FLOAT","tensorShape":{"dim":[{"size":"58"}]}}},"dtype":{"type":"DT_FLOAT"}}},
          {"name":"PartitionedCall/transpose_28/perm","op":"Const","attr":{"value":{"tensor":{"dtype":"DT_INT32","tensorShape":{"dim":[{"size":"4"}]}}},"dtype":{"type":"DT_INT32"}}},
          {"name":"PartitionedCall/onnx_tf_prefix_Concat_23/axis","op":"Const","attr":{"dtype":{"type":"DT_INT32"},"value":{"tensor":{"dtype":"DT_INT32","tensorShape":{}}}}},
          {"name":"PartitionedCall/Where_2","op":"Const","attr":{"value":{"tensor":{"dtype":"DT_INT64","tensorShape":{"dim":[{},{"size":"1"}]}}},"dtype":{"type":"DT_INT64"}}},
          {"name":"PartitionedCall/Cast_2","op":"Const","attr":{"value":{"tensor":{"dtype":"DT_INT64","tensorShape":{"dim":[{"size":"1"}]}}},"dtype":{"type":"DT_INT64"}}},
          {"name":"PartitionedCall/GatherV2_2","op":"Const","attr":{"dtype":{"type":"DT_INT64"},"value":{"tensor":{"dtype":"DT_INT64","tensorShape":{"dim":[{}]}}}}},
          {"name":"PartitionedCall/zeros_2","op":"Const","attr":{"dtype":{"type":"DT_INT64"},"value":{"tensor":{"dtype":"DT_INT64","tensorShape":{}}}}},
          {"name":"PartitionedCall/onnx_tf_prefix_Transpose_26/perm","op":"Const","attr":{"value":{"tensor":{"dtype":"DT_INT32","tensorShape":{"dim":[{"size":"5"}]}}},"dtype":{"type":"DT_INT32"}}},
          {"name":"PartitionedCall/Where_3","op":"Const","attr":{"value":{"tensor":{"dtype":"DT_INT64","tensorShape":{"dim":[{},{"size":"1"}]}}},"dtype":{"type":"DT_INT64"}}},
          {"name":"PartitionedCall/Cast_3","op":"Const","attr":{"dtype":{"type":"DT_INT64"},"value":{"tensor":{"dtype":"DT_INT64","tensorShape":{"dim":[{"size":"1"}]}}}}},
          {"name":"PartitionedCall/GatherV2_3","op":"Const","attr":{"value":{"tensor":{"dtype":"DT_INT64","tensorShape":{"dim":[{}]}}},"dtype":{"type":"DT_INT64"}}},
          {"name":"PartitionedCall/zeros_3","op":"Const","attr":{"value":{"tensor":{"dtype":"DT_INT64","tensorShape":{}}},"dtype":{"type":"DT_INT64"}}},
          {"name":"PartitionedCall/Const_15","op":"Const","attr":{"value":{"tensor":{"dtype":"DT_INT32","tensorShape":{"dim":[{"size":"2"}]}}},"dtype":{"type":"DT_INT32"}}},
          {"name":"PartitionedCall/onnx_tf_prefix_Split_29/split_dim","op":"Const","attr":{"dtype":{"type":"DT_INT32"},"value":{"tensor":{"dtype":"DT_INT32","tensorShape":{}}}}},
          {"name":"PartitionedCall/transpose_30/perm","op":"Const","attr":{"dtype":{"type":"DT_INT32"},"value":{"tensor":{"dtype":"DT_INT32","tensorShape":{"dim":[{"size":"4"}]}}}}},
          {"name":"PartitionedCall/split_6","op":"Const","attr":{"dtype":{"type":"DT_FLOAT"},"value":{"tensor":{"dtype":"DT_FLOAT","tensorShape":{"dim":[{"size":"1"},{"size":"1"},{"size":"58"},{"size":"58"}]}}}}},
          {"name":"unknown_20","op":"Const","attr":{"value":{"tensor":{"dtype":"DT_FLOAT","tensorShape":{"dim":[{"size":"58"}]}}},"dtype":{"type":"DT_FLOAT"}}},
          {"name":"PartitionedCall/transpose_31/perm","op":"Const","attr":{"value":{"tensor":{"dtype":"DT_INT32","tensorShape":{"dim":[{"size":"4"}]}}},"dtype":{"type":"DT_INT32"}}},
          {"name":"PartitionedCall/Const_17","op":"Const","attr":{"value":{"tensor":{"dtype":"DT_INT32","tensorShape":{"dim":[{"size":"4"},{"size":"2"}]}}},"dtype":{"type":"DT_INT32"}}},
          {"name":"PartitionedCall/transpose_33/perm","op":"Const","attr":{"dtype":{"type":"DT_INT32"},"value":{"tensor":{"dtype":"DT_INT32","tensorShape":{"dim":[{"size":"4"}]}}}}},
          {"name":"PartitionedCall/Reshape_3","op":"Const","attr":{"value":{"tensor":{"dtype":"DT_FLOAT","tensorShape":{"dim":[{"size":"3"},{"size":"3"},{"size":"58"},{"size":"1"}]}}},"dtype":{"type":"DT_FLOAT"}}},
          {"name":"unknown_22","op":"Const","attr":{"dtype":{"type":"DT_FLOAT"},"value":{"tensor":{"dtype":"DT_FLOAT","tensorShape":{"dim":[{"size":"58"}]}}}}},
          {"name":"PartitionedCall/split_7","op":"Const","attr":{"dtype":{"type":"DT_FLOAT"},"value":{"tensor":{"dtype":"DT_FLOAT","tensorShape":{"dim":[{"size":"1"},{"size":"1"},{"size":"58"},{"size":"58"}]}}}}},
          {"name":"unknown_24","op":"Const","attr":{"dtype":{"type":"DT_FLOAT"},"value":{"tensor":{"dtype":"DT_FLOAT","tensorShape":{"dim":[{"size":"58"}]}}}}},
          {"name":"PartitionedCall/transpose_37/perm","op":"Const","attr":{"value":{"tensor":{"dtype":"DT_INT32","tensorShape":{"dim":[{"size":"4"}]}}},"dtype":{"type":"DT_INT32"}}},
          {"name":"PartitionedCall/onnx_tf_prefix_Concat_35/axis","op":"Const","attr":{"dtype":{"type":"DT_INT32"},"value":{"tensor":{"dtype":"DT_INT32","tensorShape":{}}}}},
          {"name":"PartitionedCall/Where_4","op":"Const","attr":{"value":{"tensor":{"dtype":"DT_INT64","tensorShape":{"dim":[{},{"size":"1"}]}}},"dtype":{"type":"DT_INT64"}}},
          {"name":"PartitionedCall/Cast_4","op":"Const","attr":{"dtype":{"type":"DT_INT64"},"value":{"tensor":{"dtype":"DT_INT64","tensorShape":{"dim":[{"size":"1"}]}}}}},
          {"name":"PartitionedCall/GatherV2_4","op":"Const","attr":{"dtype":{"type":"DT_INT64"},"value":{"tensor":{"dtype":"DT_INT64","tensorShape":{"dim":[{}]}}}}},
          {"name":"PartitionedCall/zeros_4","op":"Const","attr":{"dtype":{"type":"DT_INT64"},"value":{"tensor":{"dtype":"DT_INT64","tensorShape":{}}}}},
          {"name":"PartitionedCall/onnx_tf_prefix_Transpose_38/perm","op":"Const","attr":{"dtype":{"type":"DT_INT32"},"value":{"tensor":{"dtype":"DT_INT32","tensorShape":{"dim":[{"size":"5"}]}}}}},
          {"name":"PartitionedCall/Where_5","op":"Const","attr":{"value":{"tensor":{"dtype":"DT_INT64","tensorShape":{"dim":[{},{"size":"1"}]}}},"dtype":{"type":"DT_INT64"}}},
          {"name":"PartitionedCall/Cast_5","op":"Const","attr":{"dtype":{"type":"DT_INT64"},"value":{"tensor":{"dtype":"DT_INT64","tensorShape":{"dim":[{"size":"1"}]}}}}},
          {"name":"PartitionedCall/GatherV2_5","op":"Const","attr":{"dtype":{"type":"DT_INT64"},"value":{"tensor":{"dtype":"DT_INT64","tensorShape":{"dim":[{}]}}}}},
          {"name":"PartitionedCall/zeros_5","op":"Const","attr":{"dtype":{"type":"DT_INT64"},"value":{"tensor":{"dtype":"DT_INT64","tensorShape":{}}}}},
          {"name":"PartitionedCall/Const_21","op":"Const","attr":{"value":{"tensor":{"dtype":"DT_INT32","tensorShape":{"dim":[{"size":"2"}]}}},"dtype":{"type":"DT_INT32"}}},
          {"name":"PartitionedCall/onnx_tf_prefix_Split_41/split_dim","op":"Const","attr":{"dtype":{"type":"DT_INT32"},"value":{"tensor":{"dtype":"DT_INT32","tensorShape":{}}}}},
          {"name":"PartitionedCall/transpose_39/perm","op":"Const","attr":{"value":{"tensor":{"dtype":"DT_INT32","tensorShape":{"dim":[{"size":"4"}]}}},"dtype":{"type":"DT_INT32"}}},
          {"name":"PartitionedCall/split_8","op":"Const","attr":{"value":{"tensor":{"dtype":"DT_FLOAT","tensorShape":{"dim":[{"size":"1"},{"size":"1"},{"size":"58"},{"size":"58"}]}}},"dtype":{"type":"DT_FLOAT"}}},
          {"name":"unknown_26","op":"Const","attr":{"dtype":{"type":"DT_FLOAT"},"value":{"tensor":{"dtype":"DT_FLOAT","tensorShape":{"dim":[{"size":"58"}]}}}}},
          {"name":"PartitionedCall/transpose_40/perm","op":"Const","attr":{"dtype":{"type":"DT_INT32"},"value":{"tensor":{"dtype":"DT_INT32","tensorShape":{"dim":[{"size":"4"}]}}}}},
          {"name":"PartitionedCall/Const_23","op":"Const","attr":{"dtype":{"type":"DT_INT32"},"value":{"tensor":{"dtype":"DT_INT32","tensorShape":{"dim":[{"size":"4"},{"size":"2"}]}}}}},
          {"name":"PartitionedCall/transpose_42/perm","op":"Const","attr":{"dtype":{"type":"DT_INT32"},"value":{"tensor":{"dtype":"DT_INT32","tensorShape":{"dim":[{"size":"4"}]}}}}},
          {"name":"PartitionedCall/Reshape_4","op":"Const","attr":{"dtype":{"type":"DT_FLOAT"},"value":{"tensor":{"dtype":"DT_FLOAT","tensorShape":{"dim":[{"size":"3"},{"size":"3"},{"size":"58"},{"size":"1"}]}}}}},
          {"name":"unknown_28","op":"Const","attr":{"value":{"tensor":{"dtype":"DT_FLOAT","tensorShape":{"dim":[{"size":"58"}]}}},"dtype":{"type":"DT_FLOAT"}}},
          {"name":"PartitionedCall/split_9","op":"Const","attr":{"value":{"tensor":{"dtype":"DT_FLOAT","tensorShape":{"dim":[{"size":"1"},{"size":"1"},{"size":"58"},{"size":"58"}]}}},"dtype":{"type":"DT_FLOAT"}}},
          {"name":"unknown_30","op":"Const","attr":{"value":{"tensor":{"dtype":"DT_FLOAT","tensorShape":{"dim":[{"size":"58"}]}}},"dtype":{"type":"DT_FLOAT"}}},
          {"name":"PartitionedCall/transpose_46/perm","op":"Const","attr":{"value":{"tensor":{"dtype":"DT_INT32","tensorShape":{"dim":[{"size":"4"}]}}},"dtype":{"type":"DT_INT32"}}},
          {"name":"PartitionedCall/onnx_tf_prefix_Concat_47/axis","op":"Const","attr":{"value":{"tensor":{"dtype":"DT_INT32","tensorShape":{}}},"dtype":{"type":"DT_INT32"}}},
          {"name":"unknown_11","op":"Const","attr":{"dtype":{"type":"DT_INT64"},"value":{"tensor":{"dtype":"DT_INT64","tensorShape":{"dim":[{"size":"5"}]}}}}},
          {"name":"PartitionedCall/Where_6","op":"Const","attr":{"dtype":{"type":"DT_INT64"},"value":{"tensor":{"dtype":"DT_INT64","tensorShape":{"dim":[{},{"size":"1"}]}}}}},
          {"name":"PartitionedCall/Cast_6","op":"Const","attr":{"value":{"tensor":{"dtype":"DT_INT64","tensorShape":{"dim":[{"size":"1"}]}}},"dtype":{"type":"DT_INT64"}}},
          {"name":"PartitionedCall/GatherV2_6","op":"Const","attr":{"value":{"tensor":{"dtype":"DT_INT64","tensorShape":{"dim":[{}]}}},"dtype":{"type":"DT_INT64"}}},
          {"name":"PartitionedCall/zeros_6","op":"Const","attr":{"dtype":{"type":"DT_INT64"},"value":{"tensor":{"dtype":"DT_INT64","tensorShape":{}}}}},
          {"name":"PartitionedCall/onnx_tf_prefix_Transpose_50/perm","op":"Const","attr":{"value":{"tensor":{"dtype":"DT_INT32","tensorShape":{"dim":[{"size":"5"}]}}},"dtype":{"type":"DT_INT32"}}},
          {"name":"unknown_12","op":"Const","attr":{"dtype":{"type":"DT_INT64"},"value":{"tensor":{"dtype":"DT_INT64","tensorShape":{"dim":[{"size":"4"}]}}}}},
          {"name":"PartitionedCall/Where_7","op":"Const","attr":{"value":{"tensor":{"dtype":"DT_INT64","tensorShape":{"dim":[{},{"size":"1"}]}}},"dtype":{"type":"DT_INT64"}}},
          {"name":"PartitionedCall/Cast_7","op":"Const","attr":{"value":{"tensor":{"dtype":"DT_INT64","tensorShape":{"dim":[{"size":"1"}]}}},"dtype":{"type":"DT_INT64"}}},
          {"name":"PartitionedCall/GatherV2_7","op":"Const","attr":{"value":{"tensor":{"dtype":"DT_INT64","tensorShape":{"dim":[{}]}}},"dtype":{"type":"DT_INT64"}}},
          {"name":"PartitionedCall/zeros_7","op":"Const","attr":{"value":{"tensor":{"dtype":"DT_INT64","tensorShape":{}}},"dtype":{"type":"DT_INT64"}}},
          {"name":"PartitionedCall/transpose_54/perm","op":"Const","attr":{"value":{"tensor":{"dtype":"DT_INT32","tensorShape":{"dim":[{"size":"4"}]}}},"dtype":{"type":"DT_INT32"}}},
          {"name":"PartitionedCall/split_11","op":"Const","attr":{"dtype":{"type":"DT_FLOAT"},"value":{"tensor":{"dtype":"DT_FLOAT","tensorShape":{"dim":[{"size":"1"},{"size":"1"},{"size":"116"},{"size":"116"}]}}}}},
          {"name":"unknown_36","op":"Const","attr":{"dtype":{"type":"DT_FLOAT"},"value":{"tensor":{"dtype":"DT_FLOAT","tensorShape":{"dim":[{"size":"116"}]}}}}},
          {"name":"PartitionedCall/transpose_55/perm","op":"Const","attr":{"value":{"tensor":{"dtype":"DT_INT32","tensorShape":{"dim":[{"size":"4"}]}}},"dtype":{"type":"DT_INT32"}}},
          {"name":"PartitionedCall/Const_30","op":"Const","attr":{"value":{"tensor":{"dtype":"DT_INT32","tensorShape":{"dim":[{"size":"4"},{"size":"2"}]}}},"dtype":{"type":"DT_INT32"}}},
          {"name":"PartitionedCall/transpose_57/perm","op":"Const","attr":{"value":{"tensor":{"dtype":"DT_INT32","tensorShape":{"dim":[{"size":"4"}]}}},"dtype":{"type":"DT_INT32"}}},
          {"name":"PartitionedCall/Reshape_6","op":"Const","attr":{"dtype":{"type":"DT_FLOAT"},"value":{"tensor":{"dtype":"DT_FLOAT","tensorShape":{"dim":[{"size":"3"},{"size":"3"},{"size":"116"},{"size":"1"}]}}}}},
          {"name":"unknown_38","op":"Const","attr":{"dtype":{"type":"DT_FLOAT"},"value":{"tensor":{"dtype":"DT_FLOAT","tensorShape":{"dim":[{"size":"116"}]}}}}},
          {"name":"PartitionedCall/split_12","op":"Const","attr":{"value":{"tensor":{"dtype":"DT_FLOAT","tensorShape":{"dim":[{"size":"1"},{"size":"1"},{"size":"116"},{"size":"116"}]}}},"dtype":{"type":"DT_FLOAT"}}},
          {"name":"unknown_40","op":"Const","attr":{"value":{"tensor":{"dtype":"DT_FLOAT","tensorShape":{"dim":[{"size":"116"}]}}},"dtype":{"type":"DT_FLOAT"}}},
          {"name":"PartitionedCall/transpose_61/perm","op":"Const","attr":{"dtype":{"type":"DT_INT32"},"value":{"tensor":{"dtype":"DT_INT32","tensorShape":{"dim":[{"size":"4"}]}}}}},
          {"name":"PartitionedCall/onnx_tf_prefix_Concat_61/axis","op":"Const","attr":{"dtype":{"type":"DT_INT32"},"value":{"tensor":{"dtype":"DT_INT32","tensorShape":{}}}}},
          {"name":"PartitionedCall/Where_8","op":"Const","attr":{"dtype":{"type":"DT_INT64"},"value":{"tensor":{"dtype":"DT_INT64","tensorShape":{"dim":[{},{"size":"1"}]}}}}},
          {"name":"PartitionedCall/Cast_8","op":"Const","attr":{"value":{"tensor":{"dtype":"DT_INT64","tensorShape":{"dim":[{"size":"1"}]}}},"dtype":{"type":"DT_INT64"}}},
          {"name":"PartitionedCall/GatherV2_8","op":"Const","attr":{"dtype":{"type":"DT_INT64"},"value":{"tensor":{"dtype":"DT_INT64","tensorShape":{"dim":[{}]}}}}},
          {"name":"PartitionedCall/zeros_8","op":"Const","attr":{"dtype":{"type":"DT_INT64"},"value":{"tensor":{"dtype":"DT_INT64","tensorShape":{}}}}},
          {"name":"PartitionedCall/onnx_tf_prefix_Transpose_64/perm","op":"Const","attr":{"dtype":{"type":"DT_INT32"},"value":{"tensor":{"dtype":"DT_INT32","tensorShape":{"dim":[{"size":"5"}]}}}}},
          {"name":"PartitionedCall/Where_9","op":"Const","attr":{"dtype":{"type":"DT_INT64"},"value":{"tensor":{"dtype":"DT_INT64","tensorShape":{"dim":[{},{"size":"1"}]}}}}},
          {"name":"PartitionedCall/Cast_9","op":"Const","attr":{"dtype":{"type":"DT_INT64"},"value":{"tensor":{"dtype":"DT_INT64","tensorShape":{"dim":[{"size":"1"}]}}}}},
          {"name":"PartitionedCall/GatherV2_9","op":"Const","attr":{"value":{"tensor":{"dtype":"DT_INT64","tensorShape":{"dim":[{}]}}},"dtype":{"type":"DT_INT64"}}},
          {"name":"PartitionedCall/zeros_9","op":"Const","attr":{"value":{"tensor":{"dtype":"DT_INT64","tensorShape":{}}},"dtype":{"type":"DT_INT64"}}},
          {"name":"PartitionedCall/Const_34","op":"Const","attr":{"dtype":{"type":"DT_INT32"},"value":{"tensor":{"dtype":"DT_INT32","tensorShape":{"dim":[{"size":"2"}]}}}}},
          {"name":"PartitionedCall/onnx_tf_prefix_Split_67/split_dim","op":"Const","attr":{"dtype":{"type":"DT_INT32"},"value":{"tensor":{"dtype":"DT_INT32","tensorShape":{}}}}},
          {"name":"PartitionedCall/transpose_63/perm","op":"Const","attr":{"value":{"tensor":{"dtype":"DT_INT32","tensorShape":{"dim":[{"size":"4"}]}}},"dtype":{"type":"DT_INT32"}}},
          {"name":"PartitionedCall/split_13","op":"Const","attr":{"dtype":{"type":"DT_FLOAT"},"value":{"tensor":{"dtype":"DT_FLOAT","tensorShape":{"dim":[{"size":"1"},{"size":"1"},{"size":"116"},{"size":"116"}]}}}}},
          {"name":"unknown_44","op":"Const","attr":{"dtype":{"type":"DT_FLOAT"},"value":{"tensor":{"dtype":"DT_FLOAT","tensorShape":{"dim":[{"size":"116"}]}}}}},
          {"name":"PartitionedCall/transpose_64/perm","op":"Const","attr":{"value":{"tensor":{"dtype":"DT_INT32","tensorShape":{"dim":[{"size":"4"}]}}},"dtype":{"type":"DT_INT32"}}},
          {"name":"PartitionedCall/Const_36","op":"Const","attr":{"dtype":{"type":"DT_INT32"},"value":{"tensor":{"dtype":"DT_INT32","tensorShape":{"dim":[{"size":"4"},{"size":"2"}]}}}}},
          {"name":"PartitionedCall/transpose_66/perm","op":"Const","attr":{"value":{"tensor":{"dtype":"DT_INT32","tensorShape":{"dim":[{"size":"4"}]}}},"dtype":{"type":"DT_INT32"}}},
          {"name":"PartitionedCall/Reshape_7","op":"Const","attr":{"dtype":{"type":"DT_FLOAT"},"value":{"tensor":{"dtype":"DT_FLOAT","tensorShape":{"dim":[{"size":"3"},{"size":"3"},{"size":"116"},{"size":"1"}]}}}}},
          {"name":"unknown_46","op":"Const","attr":{"dtype":{"type":"DT_FLOAT"},"value":{"tensor":{"dtype":"DT_FLOAT","tensorShape":{"dim":[{"size":"116"}]}}}}},
          {"name":"PartitionedCall/split_14","op":"Const","attr":{"value":{"tensor":{"dtype":"DT_FLOAT","tensorShape":{"dim":[{"size":"1"},{"size":"1"},{"size":"116"},{"size":"116"}]}}},"dtype":{"type":"DT_FLOAT"}}},
          {"name":"unknown_48","op":"Const","attr":{"value":{"tensor":{"dtype":"DT_FLOAT","tensorShape":{"dim":[{"size":"116"}]}}},"dtype":{"type":"DT_FLOAT"}}},
          {"name":"PartitionedCall/transpose_70/perm","op":"Const","attr":{"value":{"tensor":{"dtype":"DT_INT32","tensorShape":{"dim":[{"size":"4"}]}}},"dtype":{"type":"DT_INT32"}}},
          {"name":"PartitionedCall/onnx_tf_prefix_Concat_73/axis","op":"Const","attr":{"value":{"tensor":{"dtype":"DT_INT32","tensorShape":{}}},"dtype":{"type":"DT_INT32"}}},
          {"name":"PartitionedCall/Where_10","op":"Const","attr":{"dtype":{"type":"DT_INT64"},"value":{"tensor":{"dtype":"DT_INT64","tensorShape":{"dim":[{},{"size":"1"}]}}}}},
          {"name":"PartitionedCall/Cast_10","op":"Const","attr":{"value":{"tensor":{"dtype":"DT_INT64","tensorShape":{"dim":[{"size":"1"}]}}},"dtype":{"type":"DT_INT64"}}},
          {"name":"PartitionedCall/GatherV2_10","op":"Const","attr":{"dtype":{"type":"DT_INT64"},"value":{"tensor":{"dtype":"DT_INT64","tensorShape":{"dim":[{}]}}}}},
          {"name":"PartitionedCall/zeros_10","op":"Const","attr":{"dtype":{"type":"DT_INT64"},"value":{"tensor":{"dtype":"DT_INT64","tensorShape":{}}}}},
          {"name":"PartitionedCall/onnx_tf_prefix_Transpose_76/perm","op":"Const","attr":{"value":{"tensor":{"dtype":"DT_INT32","tensorShape":{"dim":[{"size":"5"}]}}},"dtype":{"type":"DT_INT32"}}},
          {"name":"PartitionedCall/Where_11","op":"Const","attr":{"dtype":{"type":"DT_INT64"},"value":{"tensor":{"dtype":"DT_INT64","tensorShape":{"dim":[{},{"size":"1"}]}}}}},
          {"name":"PartitionedCall/Cast_11","op":"Const","attr":{"value":{"tensor":{"dtype":"DT_INT64","tensorShape":{"dim":[{"size":"1"}]}}},"dtype":{"type":"DT_INT64"}}},
          {"name":"PartitionedCall/GatherV2_11","op":"Const","attr":{"value":{"tensor":{"dtype":"DT_INT64","tensorShape":{"dim":[{}]}}},"dtype":{"type":"DT_INT64"}}},
          {"name":"PartitionedCall/zeros_11","op":"Const","attr":{"value":{"tensor":{"dtype":"DT_INT64","tensorShape":{}}},"dtype":{"type":"DT_INT64"}}},
          {"name":"PartitionedCall/Const_40","op":"Const","attr":{"dtype":{"type":"DT_INT32"},"value":{"tensor":{"dtype":"DT_INT32","tensorShape":{"dim":[{"size":"2"}]}}}}},
          {"name":"PartitionedCall/onnx_tf_prefix_Split_79/split_dim","op":"Const","attr":{"dtype":{"type":"DT_INT32"},"value":{"tensor":{"dtype":"DT_INT32","tensorShape":{}}}}},
          {"name":"PartitionedCall/transpose_72/perm","op":"Const","attr":{"dtype":{"type":"DT_INT32"},"value":{"tensor":{"dtype":"DT_INT32","tensorShape":{"dim":[{"size":"4"}]}}}}},
          {"name":"PartitionedCall/split_15","op":"Const","attr":{"value":{"tensor":{"dtype":"DT_FLOAT","tensorShape":{"dim":[{"size":"1"},{"size":"1"},{"size":"116"},{"size":"116"}]}}},"dtype":{"type":"DT_FLOAT"}}},
          {"name":"unknown_50","op":"Const","attr":{"value":{"tensor":{"dtype":"DT_FLOAT","tensorShape":{"dim":[{"size":"116"}]}}},"dtype":{"type":"DT_FLOAT"}}},
          {"name":"PartitionedCall/transpose_73/perm","op":"Const","attr":{"value":{"tensor":{"dtype":"DT_INT32","tensorShape":{"dim":[{"size":"4"}]}}},"dtype":{"type":"DT_INT32"}}},
          {"name":"PartitionedCall/Const_42","op":"Const","attr":{"value":{"tensor":{"dtype":"DT_INT32","tensorShape":{"dim":[{"size":"4"},{"size":"2"}]}}},"dtype":{"type":"DT_INT32"}}},
          {"name":"PartitionedCall/transpose_75/perm","op":"Const","attr":{"dtype":{"type":"DT_INT32"},"value":{"tensor":{"dtype":"DT_INT32","tensorShape":{"dim":[{"size":"4"}]}}}}},
          {"name":"PartitionedCall/Reshape_8","op":"Const","attr":{"value":{"tensor":{"dtype":"DT_FLOAT","tensorShape":{"dim":[{"size":"3"},{"size":"3"},{"size":"116"},{"size":"1"}]}}},"dtype":{"type":"DT_FLOAT"}}},
          {"name":"unknown_52","op":"Const","attr":{"dtype":{"type":"DT_FLOAT"},"value":{"tensor":{"dtype":"DT_FLOAT","tensorShape":{"dim":[{"size":"116"}]}}}}},
          {"name":"PartitionedCall/split_16","op":"Const","attr":{"value":{"tensor":{"dtype":"DT_FLOAT","tensorShape":{"dim":[{"size":"1"},{"size":"1"},{"size":"116"},{"size":"116"}]}}},"dtype":{"type":"DT_FLOAT"}}},
          {"name":"unknown_54","op":"Const","attr":{"dtype":{"type":"DT_FLOAT"},"value":{"tensor":{"dtype":"DT_FLOAT","tensorShape":{"dim":[{"size":"116"}]}}}}},
          {"name":"PartitionedCall/transpose_79/perm","op":"Const","attr":{"dtype":{"type":"DT_INT32"},"value":{"tensor":{"dtype":"DT_INT32","tensorShape":{"dim":[{"size":"4"}]}}}}},
          {"name":"PartitionedCall/onnx_tf_prefix_Concat_85/axis","op":"Const","attr":{"value":{"tensor":{"dtype":"DT_INT32","tensorShape":{}}},"dtype":{"type":"DT_INT32"}}},
          {"name":"PartitionedCall/Where_12","op":"Const","attr":{"dtype":{"type":"DT_INT64"},"value":{"tensor":{"dtype":"DT_INT64","tensorShape":{"dim":[{},{"size":"1"}]}}}}},
          {"name":"PartitionedCall/Cast_12","op":"Const","attr":{"value":{"tensor":{"dtype":"DT_INT64","tensorShape":{"dim":[{"size":"1"}]}}},"dtype":{"type":"DT_INT64"}}},
          {"name":"PartitionedCall/GatherV2_12","op":"Const","attr":{"value":{"tensor":{"dtype":"DT_INT64","tensorShape":{"dim":[{}]}}},"dtype":{"type":"DT_INT64"}}},
          {"name":"PartitionedCall/zeros_12","op":"Const","attr":{"dtype":{"type":"DT_INT64"},"value":{"tensor":{"dtype":"DT_INT64","tensorShape":{}}}}},
          {"name":"PartitionedCall/onnx_tf_prefix_Transpose_88/perm","op":"Const","attr":{"dtype":{"type":"DT_INT32"},"value":{"tensor":{"dtype":"DT_INT32","tensorShape":{"dim":[{"size":"5"}]}}}}},
          {"name":"PartitionedCall/Where_13","op":"Const","attr":{"value":{"tensor":{"dtype":"DT_INT64","tensorShape":{"dim":[{},{"size":"1"}]}}},"dtype":{"type":"DT_INT64"}}},
          {"name":"PartitionedCall/Cast_13","op":"Const","attr":{"value":{"tensor":{"dtype":"DT_INT64","tensorShape":{"dim":[{"size":"1"}]}}},"dtype":{"type":"DT_INT64"}}},
          {"name":"PartitionedCall/GatherV2_13","op":"Const","attr":{"value":{"tensor":{"dtype":"DT_INT64","tensorShape":{"dim":[{}]}}},"dtype":{"type":"DT_INT64"}}},
          {"name":"PartitionedCall/zeros_13","op":"Const","attr":{"value":{"tensor":{"dtype":"DT_INT64","tensorShape":{}}},"dtype":{"type":"DT_INT64"}}},
          {"name":"PartitionedCall/Const_46","op":"Const","attr":{"dtype":{"type":"DT_INT32"},"value":{"tensor":{"dtype":"DT_INT32","tensorShape":{"dim":[{"size":"2"}]}}}}},
          {"name":"PartitionedCall/onnx_tf_prefix_Split_91/split_dim","op":"Const","attr":{"dtype":{"type":"DT_INT32"},"value":{"tensor":{"dtype":"DT_INT32","tensorShape":{}}}}},
          {"name":"PartitionedCall/transpose_81/perm","op":"Const","attr":{"dtype":{"type":"DT_INT32"},"value":{"tensor":{"dtype":"DT_INT32","tensorShape":{"dim":[{"size":"4"}]}}}}},
          {"name":"PartitionedCall/split_17","op":"Const","attr":{"dtype":{"type":"DT_FLOAT"},"value":{"tensor":{"dtype":"DT_FLOAT","tensorShape":{"dim":[{"size":"1"},{"size":"1"},{"size":"116"},{"size":"116"}]}}}}},
          {"name":"unknown_56","op":"Const","attr":{"value":{"tensor":{"dtype":"DT_FLOAT","tensorShape":{"dim":[{"size":"116"}]}}},"dtype":{"type":"DT_FLOAT"}}},
          {"name":"PartitionedCall/transpose_82/perm","op":"Const","attr":{"dtype":{"type":"DT_INT32"},"value":{"tensor":{"dtype":"DT_INT32","tensorShape":{"dim":[{"size":"4"}]}}}}},
          {"name":"PartitionedCall/Const_48","op":"Const","attr":{"value":{"tensor":{"dtype":"DT_INT32","tensorShape":{"dim":[{"size":"4"},{"size":"2"}]}}},"dtype":{"type":"DT_INT32"}}},
          {"name":"PartitionedCall/transpose_84/perm","op":"Const","attr":{"value":{"tensor":{"dtype":"DT_INT32","tensorShape":{"dim":[{"size":"4"}]}}},"dtype":{"type":"DT_INT32"}}},
          {"name":"PartitionedCall/Reshape_9","op":"Const","attr":{"value":{"tensor":{"dtype":"DT_FLOAT","tensorShape":{"dim":[{"size":"3"},{"size":"3"},{"size":"116"},{"size":"1"}]}}},"dtype":{"type":"DT_FLOAT"}}},
          {"name":"unknown_58","op":"Const","attr":{"dtype":{"type":"DT_FLOAT"},"value":{"tensor":{"dtype":"DT_FLOAT","tensorShape":{"dim":[{"size":"116"}]}}}}},
          {"name":"PartitionedCall/split_18","op":"Const","attr":{"dtype":{"type":"DT_FLOAT"},"value":{"tensor":{"dtype":"DT_FLOAT","tensorShape":{"dim":[{"size":"1"},{"size":"1"},{"size":"116"},{"size":"116"}]}}}}},
          {"name":"unknown_60","op":"Const","attr":{"dtype":{"type":"DT_FLOAT"},"value":{"tensor":{"dtype":"DT_FLOAT","tensorShape":{"dim":[{"size":"116"}]}}}}},
          {"name":"PartitionedCall/transpose_88/perm","op":"Const","attr":{"dtype":{"type":"DT_INT32"},"value":{"tensor":{"dtype":"DT_INT32","tensorShape":{"dim":[{"size":"4"}]}}}}},
          {"name":"PartitionedCall/onnx_tf_prefix_Concat_97/axis","op":"Const","attr":{"value":{"tensor":{"dtype":"DT_INT32","tensorShape":{}}},"dtype":{"type":"DT_INT32"}}},
          {"name":"PartitionedCall/Where_14","op":"Const","attr":{"dtype":{"type":"DT_INT64"},"value":{"tensor":{"dtype":"DT_INT64","tensorShape":{"dim":[{},{"size":"1"}]}}}}},
          {"name":"PartitionedCall/Cast_14","op":"Const","attr":{"dtype":{"type":"DT_INT64"},"value":{"tensor":{"dtype":"DT_INT64","tensorShape":{"dim":[{"size":"1"}]}}}}},
          {"name":"PartitionedCall/GatherV2_14","op":"Const","attr":{"dtype":{"type":"DT_INT64"},"value":{"tensor":{"dtype":"DT_INT64","tensorShape":{"dim":[{}]}}}}},
          {"name":"PartitionedCall/zeros_14","op":"Const","attr":{"value":{"tensor":{"dtype":"DT_INT64","tensorShape":{}}},"dtype":{"type":"DT_INT64"}}},
          {"name":"PartitionedCall/onnx_tf_prefix_Transpose_100/perm","op":"Const","attr":{"dtype":{"type":"DT_INT32"},"value":{"tensor":{"dtype":"DT_INT32","tensorShape":{"dim":[{"size":"5"}]}}}}},
          {"name":"PartitionedCall/Where_15","op":"Const","attr":{"value":{"tensor":{"dtype":"DT_INT64","tensorShape":{"dim":[{},{"size":"1"}]}}},"dtype":{"type":"DT_INT64"}}},
          {"name":"PartitionedCall/Cast_15","op":"Const","attr":{"dtype":{"type":"DT_INT64"},"value":{"tensor":{"dtype":"DT_INT64","tensorShape":{"dim":[{"size":"1"}]}}}}},
          {"name":"PartitionedCall/GatherV2_15","op":"Const","attr":{"value":{"tensor":{"dtype":"DT_INT64","tensorShape":{"dim":[{}]}}},"dtype":{"type":"DT_INT64"}}},
          {"name":"PartitionedCall/zeros_15","op":"Const","attr":{"value":{"tensor":{"dtype":"DT_INT64","tensorShape":{}}},"dtype":{"type":"DT_INT64"}}},
          {"name":"PartitionedCall/Const_52","op":"Const","attr":{"value":{"tensor":{"dtype":"DT_INT32","tensorShape":{"dim":[{"size":"2"}]}}},"dtype":{"type":"DT_INT32"}}},
          {"name":"PartitionedCall/onnx_tf_prefix_Split_103/split_dim","op":"Const","attr":{"value":{"tensor":{"dtype":"DT_INT32","tensorShape":{}}},"dtype":{"type":"DT_INT32"}}},
          {"name":"PartitionedCall/transpose_90/perm","op":"Const","attr":{"dtype":{"type":"DT_INT32"},"value":{"tensor":{"dtype":"DT_INT32","tensorShape":{"dim":[{"size":"4"}]}}}}},
          {"name":"PartitionedCall/split_19","op":"Const","attr":{"value":{"tensor":{"dtype":"DT_FLOAT","tensorShape":{"dim":[{"size":"1"},{"size":"1"},{"size":"116"},{"size":"116"}]}}},"dtype":{"type":"DT_FLOAT"}}},
          {"name":"unknown_62","op":"Const","attr":{"value":{"tensor":{"dtype":"DT_FLOAT","tensorShape":{"dim":[{"size":"116"}]}}},"dtype":{"type":"DT_FLOAT"}}},
          {"name":"PartitionedCall/transpose_91/perm","op":"Const","attr":{"dtype":{"type":"DT_INT32"},"value":{"tensor":{"dtype":"DT_INT32","tensorShape":{"dim":[{"size":"4"}]}}}}},
          {"name":"PartitionedCall/Const_54","op":"Const","attr":{"dtype":{"type":"DT_INT32"},"value":{"tensor":{"dtype":"DT_INT32","tensorShape":{"dim":[{"size":"4"},{"size":"2"}]}}}}},
          {"name":"PartitionedCall/transpose_93/perm","op":"Const","attr":{"value":{"tensor":{"dtype":"DT_INT32","tensorShape":{"dim":[{"size":"4"}]}}},"dtype":{"type":"DT_INT32"}}},
          {"name":"PartitionedCall/Reshape_10","op":"Const","attr":{"value":{"tensor":{"dtype":"DT_FLOAT","tensorShape":{"dim":[{"size":"3"},{"size":"3"},{"size":"116"},{"size":"1"}]}}},"dtype":{"type":"DT_FLOAT"}}},
          {"name":"unknown_64","op":"Const","attr":{"value":{"tensor":{"dtype":"DT_FLOAT","tensorShape":{"dim":[{"size":"116"}]}}},"dtype":{"type":"DT_FLOAT"}}},
          {"name":"PartitionedCall/split_20","op":"Const","attr":{"dtype":{"type":"DT_FLOAT"},"value":{"tensor":{"dtype":"DT_FLOAT","tensorShape":{"dim":[{"size":"1"},{"size":"1"},{"size":"116"},{"size":"116"}]}}}}},
          {"name":"unknown_66","op":"Const","attr":{"dtype":{"type":"DT_FLOAT"},"value":{"tensor":{"dtype":"DT_FLOAT","tensorShape":{"dim":[{"size":"116"}]}}}}},
          {"name":"PartitionedCall/transpose_97/perm","op":"Const","attr":{"dtype":{"type":"DT_INT32"},"value":{"tensor":{"dtype":"DT_INT32","tensorShape":{"dim":[{"size":"4"}]}}}}},
          {"name":"PartitionedCall/onnx_tf_prefix_Concat_109/axis","op":"Const","attr":{"dtype":{"type":"DT_INT32"},"value":{"tensor":{"dtype":"DT_INT32","tensorShape":{}}}}},
          {"name":"PartitionedCall/Where_16","op":"Const","attr":{"dtype":{"type":"DT_INT64"},"value":{"tensor":{"dtype":"DT_INT64","tensorShape":{"dim":[{},{"size":"1"}]}}}}},
          {"name":"PartitionedCall/Cast_16","op":"Const","attr":{"dtype":{"type":"DT_INT64"},"value":{"tensor":{"dtype":"DT_INT64","tensorShape":{"dim":[{"size":"1"}]}}}}},
          {"name":"PartitionedCall/GatherV2_16","op":"Const","attr":{"dtype":{"type":"DT_INT64"},"value":{"tensor":{"dtype":"DT_INT64","tensorShape":{"dim":[{}]}}}}},
          {"name":"PartitionedCall/zeros_16","op":"Const","attr":{"dtype":{"type":"DT_INT64"},"value":{"tensor":{"dtype":"DT_INT64","tensorShape":{}}}}},
          {"name":"PartitionedCall/onnx_tf_prefix_Transpose_112/perm","op":"Const","attr":{"value":{"tensor":{"dtype":"DT_INT32","tensorShape":{"dim":[{"size":"5"}]}}},"dtype":{"type":"DT_INT32"}}},
          {"name":"PartitionedCall/Where_17","op":"Const","attr":{"dtype":{"type":"DT_INT64"},"value":{"tensor":{"dtype":"DT_INT64","tensorShape":{"dim":[{},{"size":"1"}]}}}}},
          {"name":"PartitionedCall/Cast_17","op":"Const","attr":{"dtype":{"type":"DT_INT64"},"value":{"tensor":{"dtype":"DT_INT64","tensorShape":{"dim":[{"size":"1"}]}}}}},
          {"name":"PartitionedCall/GatherV2_17","op":"Const","attr":{"value":{"tensor":{"dtype":"DT_INT64","tensorShape":{"dim":[{}]}}},"dtype":{"type":"DT_INT64"}}},
          {"name":"PartitionedCall/zeros_17","op":"Const","attr":{"dtype":{"type":"DT_INT64"},"value":{"tensor":{"dtype":"DT_INT64","tensorShape":{}}}}},
          {"name":"PartitionedCall/Const_58","op":"Const","attr":{"value":{"tensor":{"dtype":"DT_INT32","tensorShape":{"dim":[{"size":"2"}]}}},"dtype":{"type":"DT_INT32"}}},
          {"name":"PartitionedCall/onnx_tf_prefix_Split_115/split_dim","op":"Const","attr":{"dtype":{"type":"DT_INT32"},"value":{"tensor":{"dtype":"DT_INT32","tensorShape":{}}}}},
          {"name":"PartitionedCall/transpose_99/perm","op":"Const","attr":{"dtype":{"type":"DT_INT32"},"value":{"tensor":{"dtype":"DT_INT32","tensorShape":{"dim":[{"size":"4"}]}}}}},
          {"name":"PartitionedCall/split_21","op":"Const","attr":{"value":{"tensor":{"dtype":"DT_FLOAT","tensorShape":{"dim":[{"size":"1"},{"size":"1"},{"size":"116"},{"size":"116"}]}}},"dtype":{"type":"DT_FLOAT"}}},
          {"name":"unknown_68","op":"Const","attr":{"value":{"tensor":{"dtype":"DT_FLOAT","tensorShape":{"dim":[{"size":"116"}]}}},"dtype":{"type":"DT_FLOAT"}}},
          {"name":"PartitionedCall/transpose_100/perm","op":"Const","attr":{"dtype":{"type":"DT_INT32"},"value":{"tensor":{"dtype":"DT_INT32","tensorShape":{"dim":[{"size":"4"}]}}}}},
          {"name":"PartitionedCall/Const_60","op":"Const","attr":{"value":{"tensor":{"dtype":"DT_INT32","tensorShape":{"dim":[{"size":"4"},{"size":"2"}]}}},"dtype":{"type":"DT_INT32"}}},
          {"name":"PartitionedCall/transpose_102/perm","op":"Const","attr":{"dtype":{"type":"DT_INT32"},"value":{"tensor":{"dtype":"DT_INT32","tensorShape":{"dim":[{"size":"4"}]}}}}},
          {"name":"PartitionedCall/Reshape_11","op":"Const","attr":{"value":{"tensor":{"dtype":"DT_FLOAT","tensorShape":{"dim":[{"size":"3"},{"size":"3"},{"size":"116"},{"size":"1"}]}}},"dtype":{"type":"DT_FLOAT"}}},
          {"name":"unknown_70","op":"Const","attr":{"value":{"tensor":{"dtype":"DT_FLOAT","tensorShape":{"dim":[{"size":"116"}]}}},"dtype":{"type":"DT_FLOAT"}}},
          {"name":"PartitionedCall/split_22","op":"Const","attr":{"value":{"tensor":{"dtype":"DT_FLOAT","tensorShape":{"dim":[{"size":"1"},{"size":"1"},{"size":"116"},{"size":"116"}]}}},"dtype":{"type":"DT_FLOAT"}}},
          {"name":"unknown_72","op":"Const","attr":{"dtype":{"type":"DT_FLOAT"},"value":{"tensor":{"dtype":"DT_FLOAT","tensorShape":{"dim":[{"size":"116"}]}}}}},
          {"name":"PartitionedCall/transpose_106/perm","op":"Const","attr":{"dtype":{"type":"DT_INT32"},"value":{"tensor":{"dtype":"DT_INT32","tensorShape":{"dim":[{"size":"4"}]}}}}},
          {"name":"PartitionedCall/onnx_tf_prefix_Concat_121/axis","op":"Const","attr":{"value":{"tensor":{"dtype":"DT_INT32","tensorShape":{}}},"dtype":{"type":"DT_INT32"}}},
          {"name":"PartitionedCall/Where_18","op":"Const","attr":{"dtype":{"type":"DT_INT64"},"value":{"tensor":{"dtype":"DT_INT64","tensorShape":{"dim":[{},{"size":"1"}]}}}}},
          {"name":"PartitionedCall/Cast_18","op":"Const","attr":{"value":{"tensor":{"dtype":"DT_INT64","tensorShape":{"dim":[{"size":"1"}]}}},"dtype":{"type":"DT_INT64"}}},
          {"name":"PartitionedCall/GatherV2_18","op":"Const","attr":{"dtype":{"type":"DT_INT64"},"value":{"tensor":{"dtype":"DT_INT64","tensorShape":{"dim":[{}]}}}}},
          {"name":"PartitionedCall/zeros_18","op":"Const","attr":{"dtype":{"type":"DT_INT64"},"value":{"tensor":{"dtype":"DT_INT64","tensorShape":{}}}}},
          {"name":"PartitionedCall/onnx_tf_prefix_Transpose_124/perm","op":"Const","attr":{"dtype":{"type":"DT_INT32"},"value":{"tensor":{"dtype":"DT_INT32","tensorShape":{"dim":[{"size":"5"}]}}}}},
          {"name":"PartitionedCall/Where_19","op":"Const","attr":{"value":{"tensor":{"dtype":"DT_INT64","tensorShape":{"dim":[{},{"size":"1"}]}}},"dtype":{"type":"DT_INT64"}}},
          {"name":"PartitionedCall/Cast_19","op":"Const","attr":{"value":{"tensor":{"dtype":"DT_INT64","tensorShape":{"dim":[{"size":"1"}]}}},"dtype":{"type":"DT_INT64"}}},
          {"name":"PartitionedCall/GatherV2_19","op":"Const","attr":{"value":{"tensor":{"dtype":"DT_INT64","tensorShape":{"dim":[{}]}}},"dtype":{"type":"DT_INT64"}}},
          {"name":"PartitionedCall/zeros_19","op":"Const","attr":{"dtype":{"type":"DT_INT64"},"value":{"tensor":{"dtype":"DT_INT64","tensorShape":{}}}}},
          {"name":"PartitionedCall/Const_64","op":"Const","attr":{"dtype":{"type":"DT_INT32"},"value":{"tensor":{"dtype":"DT_INT32","tensorShape":{"dim":[{"size":"2"}]}}}}},
          {"name":"PartitionedCall/onnx_tf_prefix_Split_127/split_dim","op":"Const","attr":{"value":{"tensor":{"dtype":"DT_INT32","tensorShape":{}}},"dtype":{"type":"DT_INT32"}}},
          {"name":"PartitionedCall/transpose_108/perm","op":"Const","attr":{"dtype":{"type":"DT_INT32"},"value":{"tensor":{"dtype":"DT_INT32","tensorShape":{"dim":[{"size":"4"}]}}}}},
          {"name":"PartitionedCall/split_23","op":"Const","attr":{"value":{"tensor":{"dtype":"DT_FLOAT","tensorShape":{"dim":[{"size":"1"},{"size":"1"},{"size":"116"},{"size":"116"}]}}},"dtype":{"type":"DT_FLOAT"}}},
          {"name":"unknown_74","op":"Const","attr":{"dtype":{"type":"DT_FLOAT"},"value":{"tensor":{"dtype":"DT_FLOAT","tensorShape":{"dim":[{"size":"116"}]}}}}},
          {"name":"PartitionedCall/transpose_109/perm","op":"Const","attr":{"dtype":{"type":"DT_INT32"},"value":{"tensor":{"dtype":"DT_INT32","tensorShape":{"dim":[{"size":"4"}]}}}}},
          {"name":"PartitionedCall/Const_66","op":"Const","attr":{"value":{"tensor":{"dtype":"DT_INT32","tensorShape":{"dim":[{"size":"4"},{"size":"2"}]}}},"dtype":{"type":"DT_INT32"}}},
          {"name":"PartitionedCall/transpose_111/perm","op":"Const","attr":{"value":{"tensor":{"dtype":"DT_INT32","tensorShape":{"dim":[{"size":"4"}]}}},"dtype":{"type":"DT_INT32"}}},
          {"name":"PartitionedCall/Reshape_12","op":"Const","attr":{"value":{"tensor":{"dtype":"DT_FLOAT","tensorShape":{"dim":[{"size":"3"},{"size":"3"},{"size":"116"},{"size":"1"}]}}},"dtype":{"type":"DT_FLOAT"}}},
          {"name":"unknown_76","op":"Const","attr":{"dtype":{"type":"DT_FLOAT"},"value":{"tensor":{"dtype":"DT_FLOAT","tensorShape":{"dim":[{"size":"116"}]}}}}},
          {"name":"PartitionedCall/split_24","op":"Const","attr":{"dtype":{"type":"DT_FLOAT"},"value":{"tensor":{"dtype":"DT_FLOAT","tensorShape":{"dim":[{"size":"1"},{"size":"1"},{"size":"116"},{"size":"116"}]}}}}},
          {"name":"unknown_78","op":"Const","attr":{"dtype":{"type":"DT_FLOAT"},"value":{"tensor":{"dtype":"DT_FLOAT","tensorShape":{"dim":[{"size":"116"}]}}}}},
          {"name":"PartitionedCall/transpose_115/perm","op":"Const","attr":{"dtype":{"type":"DT_INT32"},"value":{"tensor":{"dtype":"DT_INT32","tensorShape":{"dim":[{"size":"4"}]}}}}},
          {"name":"PartitionedCall/onnx_tf_prefix_Concat_133/axis","op":"Const","attr":{"value":{"tensor":{"dtype":"DT_INT32","tensorShape":{}}},"dtype":{"type":"DT_INT32"}}},
          {"name":"PartitionedCall/Where_20","op":"Const","attr":{"dtype":{"type":"DT_INT64"},"value":{"tensor":{"dtype":"DT_INT64","tensorShape":{"dim":[{},{"size":"1"}]}}}}},
          {"name":"PartitionedCall/Cast_20","op":"Const","attr":{"dtype":{"type":"DT_INT64"},"value":{"tensor":{"dtype":"DT_INT64","tensorShape":{"dim":[{"size":"1"}]}}}}},
          {"name":"PartitionedCall/GatherV2_20","op":"Const","attr":{"dtype":{"type":"DT_INT64"},"value":{"tensor":{"dtype":"DT_INT64","tensorShape":{"dim":[{}]}}}}},
          {"name":"PartitionedCall/zeros_20","op":"Const","attr":{"dtype":{"type":"DT_INT64"},"value":{"tensor":{"dtype":"DT_INT64","tensorShape":{}}}}},
          {"name":"PartitionedCall/onnx_tf_prefix_Transpose_136/perm","op":"Const","attr":{"dtype":{"type":"DT_INT32"},"value":{"tensor":{"dtype":"DT_INT32","tensorShape":{"dim":[{"size":"5"}]}}}}},
          {"name":"PartitionedCall/Where_21","op":"Const","attr":{"dtype":{"type":"DT_INT64"},"value":{"tensor":{"dtype":"DT_INT64","tensorShape":{"dim":[{},{"size":"1"}]}}}}},
          {"name":"PartitionedCall/Cast_21","op":"Const","attr":{"dtype":{"type":"DT_INT64"},"value":{"tensor":{"dtype":"DT_INT64","tensorShape":{"dim":[{"size":"1"}]}}}}},
          {"name":"PartitionedCall/GatherV2_21","op":"Const","attr":{"value":{"tensor":{"dtype":"DT_INT64","tensorShape":{"dim":[{}]}}},"dtype":{"type":"DT_INT64"}}},
          {"name":"PartitionedCall/zeros_21","op":"Const","attr":{"value":{"tensor":{"dtype":"DT_INT64","tensorShape":{}}},"dtype":{"type":"DT_INT64"}}},
          {"name":"PartitionedCall/Const_70","op":"Const","attr":{"value":{"tensor":{"dtype":"DT_INT32","tensorShape":{"dim":[{"size":"2"}]}}},"dtype":{"type":"DT_INT32"}}},
          {"name":"PartitionedCall/onnx_tf_prefix_Split_139/split_dim","op":"Const","attr":{"value":{"tensor":{"dtype":"DT_INT32","tensorShape":{}}},"dtype":{"type":"DT_INT32"}}},
          {"name":"PartitionedCall/transpose_117/perm","op":"Const","attr":{"dtype":{"type":"DT_INT32"},"value":{"tensor":{"dtype":"DT_INT32","tensorShape":{"dim":[{"size":"4"}]}}}}},
          {"name":"PartitionedCall/split_25","op":"Const","attr":{"value":{"tensor":{"dtype":"DT_FLOAT","tensorShape":{"dim":[{"size":"1"},{"size":"1"},{"size":"116"},{"size":"116"}]}}},"dtype":{"type":"DT_FLOAT"}}},
          {"name":"unknown_80","op":"Const","attr":{"value":{"tensor":{"dtype":"DT_FLOAT","tensorShape":{"dim":[{"size":"116"}]}}},"dtype":{"type":"DT_FLOAT"}}},
          {"name":"PartitionedCall/transpose_118/perm","op":"Const","attr":{"dtype":{"type":"DT_INT32"},"value":{"tensor":{"dtype":"DT_INT32","tensorShape":{"dim":[{"size":"4"}]}}}}},
          {"name":"PartitionedCall/Const_72","op":"Const","attr":{"dtype":{"type":"DT_INT32"},"value":{"tensor":{"dtype":"DT_INT32","tensorShape":{"dim":[{"size":"4"},{"size":"2"}]}}}}},
          {"name":"PartitionedCall/transpose_120/perm","op":"Const","attr":{"dtype":{"type":"DT_INT32"},"value":{"tensor":{"dtype":"DT_INT32","tensorShape":{"dim":[{"size":"4"}]}}}}},
          {"name":"PartitionedCall/Reshape_13","op":"Const","attr":{"value":{"tensor":{"dtype":"DT_FLOAT","tensorShape":{"dim":[{"size":"3"},{"size":"3"},{"size":"116"},{"size":"1"}]}}},"dtype":{"type":"DT_FLOAT"}}},
          {"name":"unknown_82","op":"Const","attr":{"value":{"tensor":{"dtype":"DT_FLOAT","tensorShape":{"dim":[{"size":"116"}]}}},"dtype":{"type":"DT_FLOAT"}}},
          {"name":"PartitionedCall/split_26","op":"Const","attr":{"dtype":{"type":"DT_FLOAT"},"value":{"tensor":{"dtype":"DT_FLOAT","tensorShape":{"dim":[{"size":"1"},{"size":"1"},{"size":"116"},{"size":"116"}]}}}}},
          {"name":"unknown_84","op":"Const","attr":{"value":{"tensor":{"dtype":"DT_FLOAT","tensorShape":{"dim":[{"size":"116"}]}}},"dtype":{"type":"DT_FLOAT"}}},
          {"name":"PartitionedCall/transpose_124/perm","op":"Const","attr":{"value":{"tensor":{"dtype":"DT_INT32","tensorShape":{"dim":[{"size":"4"}]}}},"dtype":{"type":"DT_INT32"}}},
          {"name":"PartitionedCall/onnx_tf_prefix_Concat_145/axis","op":"Const","attr":{"dtype":{"type":"DT_INT32"},"value":{"tensor":{"dtype":"DT_INT32","tensorShape":{}}}}},
          {"name":"unknown_41","op":"Const","attr":{"value":{"tensor":{"dtype":"DT_INT64","tensorShape":{"dim":[{"size":"5"}]}}},"dtype":{"type":"DT_INT64"}}},
          {"name":"PartitionedCall/Where_22","op":"Const","attr":{"dtype":{"type":"DT_INT64"},"value":{"tensor":{"dtype":"DT_INT64","tensorShape":{"dim":[{},{"size":"1"}]}}}}},
          {"name":"PartitionedCall/Cast_22","op":"Const","attr":{"dtype":{"type":"DT_INT64"},"value":{"tensor":{"dtype":"DT_INT64","tensorShape":{"dim":[{"size":"1"}]}}}}},
          {"name":"PartitionedCall/GatherV2_22","op":"Const","attr":{"value":{"tensor":{"dtype":"DT_INT64","tensorShape":{"dim":[{}]}}},"dtype":{"type":"DT_INT64"}}},
          {"name":"PartitionedCall/zeros_22","op":"Const","attr":{"dtype":{"type":"DT_INT64"},"value":{"tensor":{"dtype":"DT_INT64","tensorShape":{}}}}},
          {"name":"PartitionedCall/onnx_tf_prefix_Transpose_148/perm","op":"Const","attr":{"dtype":{"type":"DT_INT32"},"value":{"tensor":{"dtype":"DT_INT32","tensorShape":{"dim":[{"size":"5"}]}}}}},
          {"name":"unknown_42","op":"Const","attr":{"value":{"tensor":{"dtype":"DT_INT64","tensorShape":{"dim":[{"size":"4"}]}}},"dtype":{"type":"DT_INT64"}}},
          {"name":"PartitionedCall/Where_23","op":"Const","attr":{"dtype":{"type":"DT_INT64"},"value":{"tensor":{"dtype":"DT_INT64","tensorShape":{"dim":[{},{"size":"1"}]}}}}},
          {"name":"PartitionedCall/Cast_23","op":"Const","attr":{"value":{"tensor":{"dtype":"DT_INT64","tensorShape":{"dim":[{"size":"1"}]}}},"dtype":{"type":"DT_INT64"}}},
          {"name":"PartitionedCall/GatherV2_23","op":"Const","attr":{"dtype":{"type":"DT_INT64"},"value":{"tensor":{"dtype":"DT_INT64","tensorShape":{"dim":[{}]}}}}},
          {"name":"PartitionedCall/zeros_23","op":"Const","attr":{"dtype":{"type":"DT_INT64"},"value":{"tensor":{"dtype":"DT_INT64","tensorShape":{}}}}},
          {"name":"PartitionedCall/transpose_132/perm","op":"Const","attr":{"dtype":{"type":"DT_INT32"},"value":{"tensor":{"dtype":"DT_INT32","tensorShape":{"dim":[{"size":"4"}]}}}}},
          {"name":"PartitionedCall/split_28","op":"Const","attr":{"value":{"tensor":{"dtype":"DT_FLOAT","tensorShape":{"dim":[{"size":"1"},{"size":"1"},{"size":"232"},{"size":"232"}]}}},"dtype":{"type":"DT_FLOAT"}}},
          {"name":"unknown_90","op":"Const","attr":{"value":{"tensor":{"dtype":"DT_FLOAT","tensorShape":{"dim":[{"size":"232"}]}}},"dtype":{"type":"DT_FLOAT"}}},
          {"name":"PartitionedCall/transpose_133/perm","op":"Const","attr":{"value":{"tensor":{"dtype":"DT_INT32","tensorShape":{"dim":[{"size":"4"}]}}},"dtype":{"type":"DT_INT32"}}},
          {"name":"PartitionedCall/Const_79","op":"Const","attr":{"dtype":{"type":"DT_INT32"},"value":{"tensor":{"dtype":"DT_INT32","tensorShape":{"dim":[{"size":"4"},{"size":"2"}]}}}}},
          {"name":"PartitionedCall/transpose_135/perm","op":"Const","attr":{"value":{"tensor":{"dtype":"DT_INT32","tensorShape":{"dim":[{"size":"4"}]}}},"dtype":{"type":"DT_INT32"}}},
          {"name":"PartitionedCall/Reshape_15","op":"Const","attr":{"dtype":{"type":"DT_FLOAT"},"value":{"tensor":{"dtype":"DT_FLOAT","tensorShape":{"dim":[{"size":"3"},{"size":"3"},{"size":"232"},{"size":"1"}]}}}}},
          {"name":"unknown_92","op":"Const","attr":{"dtype":{"type":"DT_FLOAT"},"value":{"tensor":{"dtype":"DT_FLOAT","tensorShape":{"dim":[{"size":"232"}]}}}}},
          {"name":"PartitionedCall/split_29","op":"Const","attr":{"value":{"tensor":{"dtype":"DT_FLOAT","tensorShape":{"dim":[{"size":"1"},{"size":"1"},{"size":"232"},{"size":"232"}]}}},"dtype":{"type":"DT_FLOAT"}}},
          {"name":"unknown_94","op":"Const","attr":{"dtype":{"type":"DT_FLOAT"},"value":{"tensor":{"dtype":"DT_FLOAT","tensorShape":{"dim":[{"size":"232"}]}}}}},
          {"name":"PartitionedCall/transpose_139/perm","op":"Const","attr":{"dtype":{"type":"DT_INT32"},"value":{"tensor":{"dtype":"DT_INT32","tensorShape":{"dim":[{"size":"4"}]}}}}},
          {"name":"PartitionedCall/onnx_tf_prefix_Concat_159/axis","op":"Const","attr":{"dtype":{"type":"DT_INT32"},"value":{"tensor":{"dtype":"DT_INT32","tensorShape":{}}}}},
          {"name":"PartitionedCall/Where_24","op":"Const","attr":{"value":{"tensor":{"dtype":"DT_INT64","tensorShape":{"dim":[{},{"size":"1"}]}}},"dtype":{"type":"DT_INT64"}}},
          {"name":"PartitionedCall/Cast_24","op":"Const","attr":{"dtype":{"type":"DT_INT64"},"value":{"tensor":{"dtype":"DT_INT64","tensorShape":{"dim":[{"size":"1"}]}}}}},
          {"name":"PartitionedCall/GatherV2_24","op":"Const","attr":{"dtype":{"type":"DT_INT64"},"value":{"tensor":{"dtype":"DT_INT64","tensorShape":{"dim":[{}]}}}}},
          {"name":"PartitionedCall/zeros_24","op":"Const","attr":{"value":{"tensor":{"dtype":"DT_INT64","tensorShape":{}}},"dtype":{"type":"DT_INT64"}}},
          {"name":"PartitionedCall/onnx_tf_prefix_Transpose_162/perm","op":"Const","attr":{"dtype":{"type":"DT_INT32"},"value":{"tensor":{"dtype":"DT_INT32","tensorShape":{"dim":[{"size":"5"}]}}}}},
          {"name":"PartitionedCall/Where_25","op":"Const","attr":{"dtype":{"type":"DT_INT64"},"value":{"tensor":{"dtype":"DT_INT64","tensorShape":{"dim":[{},{"size":"1"}]}}}}},
          {"name":"PartitionedCall/Cast_25","op":"Const","attr":{"dtype":{"type":"DT_INT64"},"value":{"tensor":{"dtype":"DT_INT64","tensorShape":{"dim":[{"size":"1"}]}}}}},
          {"name":"PartitionedCall/GatherV2_25","op":"Const","attr":{"value":{"tensor":{"dtype":"DT_INT64","tensorShape":{"dim":[{}]}}},"dtype":{"type":"DT_INT64"}}},
          {"name":"PartitionedCall/zeros_25","op":"Const","attr":{"value":{"tensor":{"dtype":"DT_INT64","tensorShape":{}}},"dtype":{"type":"DT_INT64"}}},
          {"name":"PartitionedCall/Const_83","op":"Const","attr":{"dtype":{"type":"DT_INT32"},"value":{"tensor":{"dtype":"DT_INT32","tensorShape":{"dim":[{"size":"2"}]}}}}},
          {"name":"PartitionedCall/onnx_tf_prefix_Split_165/split_dim","op":"Const","attr":{"dtype":{"type":"DT_INT32"},"value":{"tensor":{"dtype":"DT_INT32","tensorShape":{}}}}},
          {"name":"PartitionedCall/transpose_141/perm","op":"Const","attr":{"value":{"tensor":{"dtype":"DT_INT32","tensorShape":{"dim":[{"size":"4"}]}}},"dtype":{"type":"DT_INT32"}}},
          {"name":"PartitionedCall/split_30","op":"Const","attr":{"value":{"tensor":{"dtype":"DT_FLOAT","tensorShape":{"dim":[{"size":"1"},{"size":"1"},{"size":"232"},{"size":"232"}]}}},"dtype":{"type":"DT_FLOAT"}}},
          {"name":"unknown_98","op":"Const","attr":{"value":{"tensor":{"dtype":"DT_FLOAT","tensorShape":{"dim":[{"size":"232"}]}}},"dtype":{"type":"DT_FLOAT"}}},
          {"name":"PartitionedCall/transpose_142/perm","op":"Const","attr":{"value":{"tensor":{"dtype":"DT_INT32","tensorShape":{"dim":[{"size":"4"}]}}},"dtype":{"type":"DT_INT32"}}},
          {"name":"PartitionedCall/Const_85","op":"Const","attr":{"dtype":{"type":"DT_INT32"},"value":{"tensor":{"dtype":"DT_INT32","tensorShape":{"dim":[{"size":"4"},{"size":"2"}]}}}}},
          {"name":"PartitionedCall/transpose_144/perm","op":"Const","attr":{"dtype":{"type":"DT_INT32"},"value":{"tensor":{"dtype":"DT_INT32","tensorShape":{"dim":[{"size":"4"}]}}}}},
          {"name":"PartitionedCall/Reshape_16","op":"Const","attr":{"value":{"tensor":{"dtype":"DT_FLOAT","tensorShape":{"dim":[{"size":"3"},{"size":"3"},{"size":"232"},{"size":"1"}]}}},"dtype":{"type":"DT_FLOAT"}}},
          {"name":"unknown_100","op":"Const","attr":{"dtype":{"type":"DT_FLOAT"},"value":{"tensor":{"dtype":"DT_FLOAT","tensorShape":{"dim":[{"size":"232"}]}}}}},
          {"name":"PartitionedCall/split_31","op":"Const","attr":{"value":{"tensor":{"dtype":"DT_FLOAT","tensorShape":{"dim":[{"size":"1"},{"size":"1"},{"size":"232"},{"size":"232"}]}}},"dtype":{"type":"DT_FLOAT"}}},
          {"name":"unknown_102","op":"Const","attr":{"dtype":{"type":"DT_FLOAT"},"value":{"tensor":{"dtype":"DT_FLOAT","tensorShape":{"dim":[{"size":"232"}]}}}}},
          {"name":"PartitionedCall/transpose_148/perm","op":"Const","attr":{"value":{"tensor":{"dtype":"DT_INT32","tensorShape":{"dim":[{"size":"4"}]}}},"dtype":{"type":"DT_INT32"}}},
          {"name":"PartitionedCall/onnx_tf_prefix_Concat_171/axis","op":"Const","attr":{"value":{"tensor":{"dtype":"DT_INT32","tensorShape":{}}},"dtype":{"type":"DT_INT32"}}},
          {"name":"PartitionedCall/Where_26","op":"Const","attr":{"value":{"tensor":{"dtype":"DT_INT64","tensorShape":{"dim":[{},{"size":"1"}]}}},"dtype":{"type":"DT_INT64"}}},
          {"name":"PartitionedCall/Cast_26","op":"Const","attr":{"dtype":{"type":"DT_INT64"},"value":{"tensor":{"dtype":"DT_INT64","tensorShape":{"dim":[{"size":"1"}]}}}}},
          {"name":"PartitionedCall/GatherV2_26","op":"Const","attr":{"value":{"tensor":{"dtype":"DT_INT64","tensorShape":{"dim":[{}]}}},"dtype":{"type":"DT_INT64"}}},
          {"name":"PartitionedCall/zeros_26","op":"Const","attr":{"dtype":{"type":"DT_INT64"},"value":{"tensor":{"dtype":"DT_INT64","tensorShape":{}}}}},
          {"name":"PartitionedCall/onnx_tf_prefix_Transpose_174/perm","op":"Const","attr":{"value":{"tensor":{"dtype":"DT_INT32","tensorShape":{"dim":[{"size":"5"}]}}},"dtype":{"type":"DT_INT32"}}},
          {"name":"PartitionedCall/Where_27","op":"Const","attr":{"value":{"tensor":{"dtype":"DT_INT64","tensorShape":{"dim":[{},{"size":"1"}]}}},"dtype":{"type":"DT_INT64"}}},
          {"name":"PartitionedCall/Cast_27","op":"Const","attr":{"dtype":{"type":"DT_INT64"},"value":{"tensor":{"dtype":"DT_INT64","tensorShape":{"dim":[{"size":"1"}]}}}}},
          {"name":"PartitionedCall/GatherV2_27","op":"Const","attr":{"dtype":{"type":"DT_INT64"},"value":{"tensor":{"dtype":"DT_INT64","tensorShape":{"dim":[{}]}}}}},
          {"name":"PartitionedCall/zeros_27","op":"Const","attr":{"value":{"tensor":{"dtype":"DT_INT64","tensorShape":{}}},"dtype":{"type":"DT_INT64"}}},
          {"name":"PartitionedCall/Const_89","op":"Const","attr":{"value":{"tensor":{"dtype":"DT_INT32","tensorShape":{"dim":[{"size":"2"}]}}},"dtype":{"type":"DT_INT32"}}},
          {"name":"PartitionedCall/onnx_tf_prefix_Split_177/split_dim","op":"Const","attr":{"value":{"tensor":{"dtype":"DT_INT32","tensorShape":{}}},"dtype":{"type":"DT_INT32"}}},
          {"name":"PartitionedCall/transpose_150/perm","op":"Const","attr":{"dtype":{"type":"DT_INT32"},"value":{"tensor":{"dtype":"DT_INT32","tensorShape":{"dim":[{"size":"4"}]}}}}},
          {"name":"PartitionedCall/split_32","op":"Const","attr":{"value":{"tensor":{"dtype":"DT_FLOAT","tensorShape":{"dim":[{"size":"1"},{"size":"1"},{"size":"232"},{"size":"232"}]}}},"dtype":{"type":"DT_FLOAT"}}},
          {"name":"unknown_104","op":"Const","attr":{"dtype":{"type":"DT_FLOAT"},"value":{"tensor":{"dtype":"DT_FLOAT","tensorShape":{"dim":[{"size":"232"}]}}}}},
          {"name":"PartitionedCall/transpose_151/perm","op":"Const","attr":{"value":{"tensor":{"dtype":"DT_INT32","tensorShape":{"dim":[{"size":"4"}]}}},"dtype":{"type":"DT_INT32"}}},
          {"name":"PartitionedCall/Const_91","op":"Const","attr":{"dtype":{"type":"DT_INT32"},"value":{"tensor":{"dtype":"DT_INT32","tensorShape":{"dim":[{"size":"4"},{"size":"2"}]}}}}},
          {"name":"PartitionedCall/transpose_153/perm","op":"Const","attr":{"value":{"tensor":{"dtype":"DT_INT32","tensorShape":{"dim":[{"size":"4"}]}}},"dtype":{"type":"DT_INT32"}}},
          {"name":"PartitionedCall/Reshape_17","op":"Const","attr":{"dtype":{"type":"DT_FLOAT"},"value":{"tensor":{"dtype":"DT_FLOAT","tensorShape":{"dim":[{"size":"3"},{"size":"3"},{"size":"232"},{"size":"1"}]}}}}},
          {"name":"unknown_106","op":"Const","attr":{"dtype":{"type":"DT_FLOAT"},"value":{"tensor":{"dtype":"DT_FLOAT","tensorShape":{"dim":[{"size":"232"}]}}}}},
          {"name":"PartitionedCall/split_33","op":"Const","attr":{"dtype":{"type":"DT_FLOAT"},"value":{"tensor":{"dtype":"DT_FLOAT","tensorShape":{"dim":[{"size":"1"},{"size":"1"},{"size":"232"},{"size":"232"}]}}}}},
          {"name":"unknown_108","op":"Const","attr":{"value":{"tensor":{"dtype":"DT_FLOAT","tensorShape":{"dim":[{"size":"232"}]}}},"dtype":{"type":"DT_FLOAT"}}},
          {"name":"PartitionedCall/transpose_157/perm","op":"Const","attr":{"value":{"tensor":{"dtype":"DT_INT32","tensorShape":{"dim":[{"size":"4"}]}}},"dtype":{"type":"DT_INT32"}}},
          {"name":"PartitionedCall/onnx_tf_prefix_Concat_183/axis","op":"Const","attr":{"dtype":{"type":"DT_INT32"},"value":{"tensor":{"dtype":"DT_INT32","tensorShape":{}}}}},
          {"name":"PartitionedCall/Where_28","op":"Const","attr":{"dtype":{"type":"DT_INT64"},"value":{"tensor":{"dtype":"DT_INT64","tensorShape":{"dim":[{},{"size":"1"}]}}}}},
          {"name":"PartitionedCall/Cast_28","op":"Const","attr":{"dtype":{"type":"DT_INT64"},"value":{"tensor":{"dtype":"DT_INT64","tensorShape":{"dim":[{"size":"1"}]}}}}},
          {"name":"PartitionedCall/GatherV2_28","op":"Const","attr":{"dtype":{"type":"DT_INT64"},"value":{"tensor":{"dtype":"DT_INT64","tensorShape":{"dim":[{}]}}}}},
          {"name":"PartitionedCall/zeros_28","op":"Const","attr":{"value":{"tensor":{"dtype":"DT_INT64","tensorShape":{}}},"dtype":{"type":"DT_INT64"}}},
          {"name":"PartitionedCall/onnx_tf_prefix_Transpose_186/perm","op":"Const","attr":{"value":{"tensor":{"dtype":"DT_INT32","tensorShape":{"dim":[{"size":"5"}]}}},"dtype":{"type":"DT_INT32"}}},
          {"name":"PartitionedCall/Where_29","op":"Const","attr":{"value":{"tensor":{"dtype":"DT_INT64","tensorShape":{"dim":[{},{"size":"1"}]}}},"dtype":{"type":"DT_INT64"}}},
          {"name":"PartitionedCall/Cast_29","op":"Const","attr":{"dtype":{"type":"DT_INT64"},"value":{"tensor":{"dtype":"DT_INT64","tensorShape":{"dim":[{"size":"1"}]}}}}},
          {"name":"PartitionedCall/GatherV2_29","op":"Const","attr":{"value":{"tensor":{"dtype":"DT_INT64","tensorShape":{"dim":[{}]}}},"dtype":{"type":"DT_INT64"}}},
          {"name":"PartitionedCall/zeros_29","op":"Const","attr":{"value":{"tensor":{"dtype":"DT_INT64","tensorShape":{}}},"dtype":{"type":"DT_INT64"}}},
          {"name":"PartitionedCall/Const_95","op":"Const","attr":{"dtype":{"type":"DT_INT32"},"value":{"tensor":{"dtype":"DT_INT32","tensorShape":{"dim":[{"size":"2"}]}}}}},
          {"name":"PartitionedCall/onnx_tf_prefix_Split_189/split_dim","op":"Const","attr":{"value":{"tensor":{"dtype":"DT_INT32","tensorShape":{}}},"dtype":{"type":"DT_INT32"}}},
          {"name":"PartitionedCall/transpose_159/perm","op":"Const","attr":{"dtype":{"type":"DT_INT32"},"value":{"tensor":{"dtype":"DT_INT32","tensorShape":{"dim":[{"size":"4"}]}}}}},
          {"name":"PartitionedCall/split_34","op":"Const","attr":{"value":{"tensor":{"dtype":"DT_FLOAT","tensorShape":{"dim":[{"size":"1"},{"size":"1"},{"size":"232"},{"size":"232"}]}}},"dtype":{"type":"DT_FLOAT"}}},
          {"name":"unknown_110","op":"Const","attr":{"dtype":{"type":"DT_FLOAT"},"value":{"tensor":{"dtype":"DT_FLOAT","tensorShape":{"dim":[{"size":"232"}]}}}}},
          {"name":"PartitionedCall/transpose_160/perm","op":"Const","attr":{"dtype":{"type":"DT_INT32"},"value":{"tensor":{"dtype":"DT_INT32","tensorShape":{"dim":[{"size":"4"}]}}}}},
          {"name":"PartitionedCall/Const_97","op":"Const","attr":{"dtype":{"type":"DT_INT32"},"value":{"tensor":{"dtype":"DT_INT32","tensorShape":{"dim":[{"size":"4"},{"size":"2"}]}}}}},
          {"name":"PartitionedCall/transpose_162/perm","op":"Const","attr":{"value":{"tensor":{"dtype":"DT_INT32","tensorShape":{"dim":[{"size":"4"}]}}},"dtype":{"type":"DT_INT32"}}},
          {"name":"PartitionedCall/Reshape_18","op":"Const","attr":{"dtype":{"type":"DT_FLOAT"},"value":{"tensor":{"dtype":"DT_FLOAT","tensorShape":{"dim":[{"size":"3"},{"size":"3"},{"size":"232"},{"size":"1"}]}}}}},
          {"name":"unknown_112","op":"Const","attr":{"value":{"tensor":{"dtype":"DT_FLOAT","tensorShape":{"dim":[{"size":"232"}]}}},"dtype":{"type":"DT_FLOAT"}}},
          {"name":"PartitionedCall/split_35","op":"Const","attr":{"value":{"tensor":{"dtype":"DT_FLOAT","tensorShape":{"dim":[{"size":"1"},{"size":"1"},{"size":"232"},{"size":"232"}]}}},"dtype":{"type":"DT_FLOAT"}}},
          {"name":"unknown_114","op":"Const","attr":{"value":{"tensor":{"dtype":"DT_FLOAT","tensorShape":{"dim":[{"size":"232"}]}}},"dtype":{"type":"DT_FLOAT"}}},
          {"name":"PartitionedCall/transpose_166/perm","op":"Const","attr":{"dtype":{"type":"DT_INT32"},"value":{"tensor":{"dtype":"DT_INT32","tensorShape":{"dim":[{"size":"4"}]}}}}},
          {"name":"PartitionedCall/onnx_tf_prefix_Concat_195/axis","op":"Const","attr":{"dtype":{"type":"DT_INT32"},"value":{"tensor":{"dtype":"DT_INT32","tensorShape":{}}}}},
          {"name":"unknown_95","op":"Const","attr":{"value":{"tensor":{"dtype":"DT_INT64","tensorShape":{"dim":[{"size":"5"}]}}},"dtype":{"type":"DT_INT64"}}},
          {"name":"PartitionedCall/Where_30","op":"Const","attr":{"dtype":{"type":"DT_INT64"},"value":{"tensor":{"dtype":"DT_INT64","tensorShape":{"dim":[{},{"size":"1"}]}}}}},
          {"name":"PartitionedCall/Cast_30","op":"Const","attr":{"value":{"tensor":{"dtype":"DT_INT64","tensorShape":{"dim":[{"size":"1"}]}}},"dtype":{"type":"DT_INT64"}}},
          {"name":"PartitionedCall/GatherV2_30","op":"Const","attr":{"value":{"tensor":{"dtype":"DT_INT64","tensorShape":{"dim":[{}]}}},"dtype":{"type":"DT_INT64"}}},
          {"name":"PartitionedCall/zeros_30","op":"Const","attr":{"dtype":{"type":"DT_INT64"},"value":{"tensor":{"dtype":"DT_INT64","tensorShape":{}}}}},
          {"name":"PartitionedCall/onnx_tf_prefix_Transpose_198/perm","op":"Const","attr":{"dtype":{"type":"DT_INT32"},"value":{"tensor":{"dtype":"DT_INT32","tensorShape":{"dim":[{"size":"5"}]}}}}},
          {"name":"unknown_96","op":"Const","attr":{"value":{"tensor":{"dtype":"DT_INT64","tensorShape":{"dim":[{"size":"4"}]}}},"dtype":{"type":"DT_INT64"}}},
          {"name":"PartitionedCall/Where_31","op":"Const","attr":{"dtype":{"type":"DT_INT64"},"value":{"tensor":{"dtype":"DT_INT64","tensorShape":{"dim":[{},{"size":"1"}]}}}}},
          {"name":"PartitionedCall/Cast_31","op":"Const","attr":{"value":{"tensor":{"dtype":"DT_INT64","tensorShape":{"dim":[{"size":"1"}]}}},"dtype":{"type":"DT_INT64"}}},
          {"name":"PartitionedCall/GatherV2_31","op":"Const","attr":{"value":{"tensor":{"dtype":"DT_INT64","tensorShape":{"dim":[{}]}}},"dtype":{"type":"DT_INT64"}}},
          {"name":"PartitionedCall/zeros_31","op":"Const","attr":{"value":{"tensor":{"dtype":"DT_INT64","tensorShape":{}}},"dtype":{"type":"DT_INT64"}}},
          {"name":"PartitionedCall/transpose_174/perm","op":"Const","attr":{"dtype":{"type":"DT_INT32"},"value":{"tensor":{"dtype":"DT_INT32","tensorShape":{"dim":[{"size":"4"}]}}}}},
          {"name":"PartitionedCall/split_38","op":"Const","attr":{"dtype":{"type":"DT_FLOAT"},"value":{"tensor":{"dtype":"DT_FLOAT","tensorShape":{"dim":[{"size":"1"},{"size":"1"},{"size":"464"},{"size":"96"}]}}}}},
          {"name":"unknown_120","op":"Const","attr":{"dtype":{"type":"DT_FLOAT"},"value":{"tensor":{"dtype":"DT_FLOAT","tensorShape":{"dim":[{"size":"96"}]}}}}},
          {"name":"PartitionedCall/Cast_33","op":"Const","attr":{"dtype":{"type":"DT_INT32"},"value":{"tensor":{"dtype":"DT_INT32","tensorShape":{"dim":[{"size":"2"}]}}}}},
          {"name":"PartitionedCall/transpose_177/perm","op":"Const","attr":{"dtype":{"type":"DT_INT32"},"value":{"tensor":{"dtype":"DT_INT32","tensorShape":{"dim":[{"size":"4"}]}}}}},
          {"name":"PartitionedCall/transpose_178/perm","op":"Const","attr":{"dtype":{"type":"DT_INT32"},"value":{"tensor":{"dtype":"DT_INT32","tensorShape":{"dim":[{"size":"4"}]}}}}},
          {"name":"PartitionedCall/Cast_35","op":"Const","attr":{"dtype":{"type":"DT_INT32"},"value":{"tensor":{"dtype":"DT_INT32","tensorShape":{"dim":[{"size":"2"}]}}}}},
          {"name":"PartitionedCall/transpose_179/perm","op":"Const","attr":{"value":{"tensor":{"dtype":"DT_INT32","tensorShape":{"dim":[{"size":"4"}]}}},"dtype":{"type":"DT_INT32"}}},
          {"name":"PartitionedCall/transpose_180/perm","op":"Const","attr":{"value":{"tensor":{"dtype":"DT_INT32","tensorShape":{"dim":[{"size":"4"}]}}},"dtype":{"type":"DT_INT32"}}},
          {"name":"PartitionedCall/Cast_37","op":"Const","attr":{"dtype":{"type":"DT_INT32"},"value":{"tensor":{"dtype":"DT_INT32","tensorShape":{"dim":[{"size":"2"}]}}}}},
          {"name":"PartitionedCall/transpose_181/perm","op":"Const","attr":{"value":{"tensor":{"dtype":"DT_INT32","tensorShape":{"dim":[{"size":"4"}]}}},"dtype":{"type":"DT_INT32"}}},
          {"name":"PartitionedCall/transpose_182/perm","op":"Const","attr":{"dtype":{"type":"DT_INT32"},"value":{"tensor":{"dtype":"DT_INT32","tensorShape":{"dim":[{"size":"4"}]}}}}},
          {"name":"PartitionedCall/Cast_39","op":"Const","attr":{"dtype":{"type":"DT_INT32"},"value":{"tensor":{"dtype":"DT_INT32","tensorShape":{"dim":[{"size":"2"}]}}}}},
          {"name":"PartitionedCall/transpose_183/perm","op":"Const","attr":{"dtype":{"type":"DT_INT32"},"value":{"tensor":{"dtype":"DT_INT32","tensorShape":{"dim":[{"size":"4"}]}}}}},
          {"name":"PartitionedCall/Const_120","op":"Const","attr":{"value":{"tensor":{"dtype":"DT_INT32","tensorShape":{"dim":[{"size":"4"},{"size":"2"}]}}},"dtype":{"type":"DT_INT32"}}},
          {"name":"PartitionedCall/transpose_215/perm","op":"Const","attr":{"value":{"tensor":{"dtype":"DT_INT32","tensorShape":{"dim":[{"size":"4"}]}}},"dtype":{"type":"DT_INT32"}}},
          {"name":"PartitionedCall/Reshape_23","op":"Const","attr":{"dtype":{"type":"DT_FLOAT"},"value":{"tensor":{"dtype":"DT_FLOAT","tensorShape":{"dim":[{"size":"3"},{"size":"3"},{"size":"96"},{"size":"1"}]}}}}},
          {"name":"unknown_148","op":"Const","attr":{"dtype":{"type":"DT_FLOAT"},"value":{"tensor":{"dtype":"DT_FLOAT","tensorShape":{"dim":[{"size":"96"}]}}}}},
          {"name":"PartitionedCall/transpose_216/perm","op":"Const","attr":{"value":{"tensor":{"dtype":"DT_INT32","tensorShape":{"dim":[{"size":"4"}]}}},"dtype":{"type":"DT_INT32"}}},
          {"name":"PartitionedCall/transpose_218/perm","op":"Const","attr":{"dtype":{"type":"DT_INT32"},"value":{"tensor":{"dtype":"DT_INT32","tensorShape":{"dim":[{"size":"4"}]}}}}},
          {"name":"PartitionedCall/split_45","op":"Const","attr":{"value":{"tensor":{"dtype":"DT_FLOAT","tensorShape":{"dim":[{"size":"1"},{"size":"1"},{"size":"96"},{"size":"96"}]}}},"dtype":{"type":"DT_FLOAT"}}},
          {"name":"unknown_150","op":"Const","attr":{"value":{"tensor":{"dtype":"DT_FLOAT","tensorShape":{"dim":[{"size":"96"}]}}},"dtype":{"type":"DT_FLOAT"}}},
          {"name":"PartitionedCall/transpose_219/perm","op":"Const","attr":{"value":{"tensor":{"dtype":"DT_INT32","tensorShape":{"dim":[{"size":"4"}]}}},"dtype":{"type":"DT_INT32"}}},
          {"name":"PartitionedCall/Const_122","op":"Const","attr":{"value":{"tensor":{"dtype":"DT_INT32","tensorShape":{"dim":[{"size":"4"},{"size":"2"}]}}},"dtype":{"type":"DT_INT32"}}},
          {"name":"PartitionedCall/transpose_221/perm","op":"Const","attr":{"value":{"tensor":{"dtype":"DT_INT32","tensorShape":{"dim":[{"size":"4"}]}}},"dtype":{"type":"DT_INT32"}}},
          {"name":"PartitionedCall/Reshape_24","op":"Const","attr":{"value":{"tensor":{"dtype":"DT_FLOAT","tensorShape":{"dim":[{"size":"3"},{"size":"3"},{"size":"96"},{"size":"1"}]}}},"dtype":{"type":"DT_FLOAT"}}},
          {"name":"unknown_152","op":"Const","attr":{"dtype":{"type":"DT_FLOAT"},"value":{"tensor":{"dtype":"DT_FLOAT","tensorShape":{"dim":[{"size":"96"}]}}}}},
          {"name":"PartitionedCall/transpose_222/perm","op":"Const","attr":{"dtype":{"type":"DT_INT32"},"value":{"tensor":{"dtype":"DT_INT32","tensorShape":{"dim":[{"size":"4"}]}}}}},
          {"name":"PartitionedCall/transpose_224/perm","op":"Const","attr":{"value":{"tensor":{"dtype":"DT_INT32","tensorShape":{"dim":[{"size":"4"}]}}},"dtype":{"type":"DT_INT32"}}},
          {"name":"PartitionedCall/split_46","op":"Const","attr":{"value":{"tensor":{"dtype":"DT_FLOAT","tensorShape":{"dim":[{"size":"1"},{"size":"1"},{"size":"96"},{"size":"96"}]}}},"dtype":{"type":"DT_FLOAT"}}},
          {"name":"unknown_154","op":"Const","attr":{"dtype":{"type":"DT_FLOAT"},"value":{"tensor":{"dtype":"DT_FLOAT","tensorShape":{"dim":[{"size":"96"}]}}}}},
          {"name":"PartitionedCall/transpose_225/perm","op":"Const","attr":{"dtype":{"type":"DT_INT32"},"value":{"tensor":{"dtype":"DT_INT32","tensorShape":{"dim":[{"size":"4"}]}}}}},
          {"name":"PartitionedCall/transpose_227/perm","op":"Const","attr":{"dtype":{"type":"DT_INT32"},"value":{"tensor":{"dtype":"DT_INT32","tensorShape":{"dim":[{"size":"4"}]}}}}},
          {"name":"PartitionedCall/split_47","op":"Const","attr":{"dtype":{"type":"DT_FLOAT"},"value":{"tensor":{"dtype":"DT_FLOAT","tensorShape":{"dim":[{"size":"1"},{"size":"1"},{"size":"96"},{"size":"112"}]}}}}},
          {"name":"unknown_156","op":"Const","attr":{"dtype":{"type":"DT_FLOAT"},"value":{"tensor":{"dtype":"DT_FLOAT","tensorShape":{"dim":[{"size":"112"}]}}}}},
          {"name":"PartitionedCall/transpose_228/perm","op":"Const","attr":{"value":{"tensor":{"dtype":"DT_INT32","tensorShape":{"dim":[{"size":"4"}]}}},"dtype":{"type":"DT_INT32"}}},
          {"name":"PartitionedCall/Const_125","op":"Const","attr":{"dtype":{"type":"DT_INT32"},"value":{"tensor":{"dtype":"DT_INT32","tensorShape":{"dim":[{"size":"2"}]}}}}},
          {"name":"PartitionedCall/onnx_tf_prefix_Split_331/split_dim","op":"Const","attr":{"dtype":{"type":"DT_INT32"},"value":{"tensor":{"dtype":"DT_INT32","tensorShape":{}}}}},
          {"name":"unknown_136","op":"Const","attr":{"value":{"tensor":{"dtype":"DT_INT64","tensorShape":{"dim":[{"size":"3"}]}}},"dtype":{"type":"DT_INT64"}}},
          {"name":"PartitionedCall/Where_37","op":"Const","attr":{"dtype":{"type":"DT_INT64"},"value":{"tensor":{"dtype":"DT_INT64","tensorShape":{"dim":[{},{"size":"1"}]}}}}},
          {"name":"PartitionedCall/Cast_45","op":"Const","attr":{"dtype":{"type":"DT_INT64"},"value":{"tensor":{"dtype":"DT_INT64","tensorShape":{"dim":[{"size":"1"}]}}}}},
          {"name":"PartitionedCall/GatherV2_37","op":"Const","attr":{"value":{"tensor":{"dtype":"DT_INT64","tensorShape":{"dim":[{}]}}},"dtype":{"type":"DT_INT64"}}},
          {"name":"PartitionedCall/zeros_37","op":"Const","attr":{"dtype":{"type":"DT_INT64"},"value":{"tensor":{"dtype":"DT_INT64","tensorShape":{}}}}},
          {"name":"PartitionedCall/onnx_tf_prefix_Transpose_338/perm","op":"Const","attr":{"value":{"tensor":{"dtype":"DT_INT32","tensorShape":{"dim":[{"size":"3"}]}}},"dtype":{"type":"DT_INT32"}}},
          {"name":"input_1","op":"Placeholder","attr":{"dtype":{"type":"DT_FLOAT"},"shape":{"shape":{"dim":[{"size":"1"},{"size":"3"},{"size":"416"},{"size":"416"}]}}}},
          {"name":"PartitionedCall/SparseToDense_32","op":"SparseToDense","input":["PartitionedCall/Where_32","PartitionedCall/Cast_40","PartitionedCall/GatherV2_32","PartitionedCall/zeros_32"],"attr":{"T":{"type":"DT_INT64"},"Tindices":{"type":"DT_INT64"},"validate_indices":{"b":true}}},
          {"name":"PartitionedCall/SparseToDense_34","op":"SparseToDense","input":["PartitionedCall/Where_34","PartitionedCall/Cast_42","PartitionedCall/GatherV2_34","PartitionedCall/zeros_34"],"attr":{"T":{"type":"DT_INT64"},"validate_indices":{"b":true},"Tindices":{"type":"DT_INT64"}}},
          {"name":"PartitionedCall/SparseToDense_36","op":"SparseToDense","input":["PartitionedCall/Where_36","PartitionedCall/Cast_44","PartitionedCall/GatherV2_36","PartitionedCall/zeros_36"],"attr":{"T":{"type":"DT_INT64"},"validate_indices":{"b":true},"Tindices":{"type":"DT_INT64"}}},
          {"name":"PartitionedCall/SparseToDense_33","op":"SparseToDense","input":["PartitionedCall/Where_33","PartitionedCall/Cast_41","PartitionedCall/GatherV2_33","PartitionedCall/zeros_33"],"attr":{"Tindices":{"type":"DT_INT64"},"validate_indices":{"b":true},"T":{"type":"DT_INT64"}}},
          {"name":"PartitionedCall/SparseToDense_35","op":"SparseToDense","input":["PartitionedCall/Where_35","PartitionedCall/Cast_43","PartitionedCall/GatherV2_35","PartitionedCall/zeros_35"],"attr":{"T":{"type":"DT_INT64"},"Tindices":{"type":"DT_INT64"},"validate_indices":{"b":true}}},
          {"name":"PartitionedCall/SparseToDense","op":"SparseToDense","input":["PartitionedCall/Where","PartitionedCall/Cast","PartitionedCall/GatherV2","PartitionedCall/zeros"],"attr":{"validate_indices":{"b":true},"Tindices":{"type":"DT_INT64"},"T":{"type":"DT_INT64"}}},
          {"name":"PartitionedCall/SparseToDense_1","op":"SparseToDense","input":["PartitionedCall/Where_1","PartitionedCall/Cast_1","PartitionedCall/GatherV2_1","PartitionedCall/zeros_1"],"attr":{"Tindices":{"type":"DT_INT64"},"validate_indices":{"b":true},"T":{"type":"DT_INT64"}}},
          {"name":"PartitionedCall/SparseToDense_2","op":"SparseToDense","input":["PartitionedCall/Where_2","PartitionedCall/Cast_2","PartitionedCall/GatherV2_2","PartitionedCall/zeros_2"],"attr":{"Tindices":{"type":"DT_INT64"},"T":{"type":"DT_INT64"},"validate_indices":{"b":true}}},
          {"name":"PartitionedCall/SparseToDense_3","op":"SparseToDense","input":["PartitionedCall/Where_3","PartitionedCall/Cast_3","PartitionedCall/GatherV2_3","PartitionedCall/zeros_3"],"attr":{"T":{"type":"DT_INT64"},"Tindices":{"type":"DT_INT64"},"validate_indices":{"b":true}}},
          {"name":"PartitionedCall/SparseToDense_4","op":"SparseToDense","input":["PartitionedCall/Where_4","PartitionedCall/Cast_4","PartitionedCall/GatherV2_4","PartitionedCall/zeros_4"],"attr":{"validate_indices":{"b":true},"T":{"type":"DT_INT64"},"Tindices":{"type":"DT_INT64"}}},
          {"name":"PartitionedCall/SparseToDense_5","op":"SparseToDense","input":["PartitionedCall/Where_5","PartitionedCall/Cast_5","PartitionedCall/GatherV2_5","PartitionedCall/zeros_5"],"attr":{"T":{"type":"DT_INT64"},"validate_indices":{"b":true},"Tindices":{"type":"DT_INT64"}}},
          {"name":"PartitionedCall/SparseToDense_6","op":"SparseToDense","input":["PartitionedCall/Where_6","PartitionedCall/Cast_6","PartitionedCall/GatherV2_6","PartitionedCall/zeros_6"],"attr":{"T":{"type":"DT_INT64"},"Tindices":{"type":"DT_INT64"},"validate_indices":{"b":true}}},
          {"name":"PartitionedCall/SparseToDense_7","op":"SparseToDense","input":["PartitionedCall/Where_7","PartitionedCall/Cast_7","PartitionedCall/GatherV2_7","PartitionedCall/zeros_7"],"attr":{"T":{"type":"DT_INT64"},"Tindices":{"type":"DT_INT64"},"validate_indices":{"b":true}}},
          {"name":"PartitionedCall/SparseToDense_8","op":"SparseToDense","input":["PartitionedCall/Where_8","PartitionedCall/Cast_8","PartitionedCall/GatherV2_8","PartitionedCall/zeros_8"],"attr":{"Tindices":{"type":"DT_INT64"},"T":{"type":"DT_INT64"},"validate_indices":{"b":true}}},
          {"name":"PartitionedCall/SparseToDense_9","op":"SparseToDense","input":["PartitionedCall/Where_9","PartitionedCall/Cast_9","PartitionedCall/GatherV2_9","PartitionedCall/zeros_9"],"attr":{"T":{"type":"DT_INT64"},"Tindices":{"type":"DT_INT64"},"validate_indices":{"b":true}}},
          {"name":"PartitionedCall/SparseToDense_10","op":"SparseToDense","input":["PartitionedCall/Where_10","PartitionedCall/Cast_10","PartitionedCall/GatherV2_10","PartitionedCall/zeros_10"],"attr":{"Tindices":{"type":"DT_INT64"},"T":{"type":"DT_INT64"},"validate_indices":{"b":true}}},
          {"name":"PartitionedCall/SparseToDense_11","op":"SparseToDense","input":["PartitionedCall/Where_11","PartitionedCall/Cast_11","PartitionedCall/GatherV2_11","PartitionedCall/zeros_11"],"attr":{"T":{"type":"DT_INT64"},"validate_indices":{"b":true},"Tindices":{"type":"DT_INT64"}}},
          {"name":"PartitionedCall/SparseToDense_12","op":"SparseToDense","input":["PartitionedCall/Where_12","PartitionedCall/Cast_12","PartitionedCall/GatherV2_12","PartitionedCall/zeros_12"],"attr":{"validate_indices":{"b":true},"Tindices":{"type":"DT_INT64"},"T":{"type":"DT_INT64"}}},
          {"name":"PartitionedCall/SparseToDense_13","op":"SparseToDense","input":["PartitionedCall/Where_13","PartitionedCall/Cast_13","PartitionedCall/GatherV2_13","PartitionedCall/zeros_13"],"attr":{"Tindices":{"type":"DT_INT64"},"validate_indices":{"b":true},"T":{"type":"DT_INT64"}}},
          {"name":"PartitionedCall/SparseToDense_14","op":"SparseToDense","input":["PartitionedCall/Where_14","PartitionedCall/Cast_14","PartitionedCall/GatherV2_14","PartitionedCall/zeros_14"],"attr":{"validate_indices":{"b":true},"T":{"type":"DT_INT64"},"Tindices":{"type":"DT_INT64"}}},
          {"name":"PartitionedCall/SparseToDense_15","op":"SparseToDense","input":["PartitionedCall/Where_15","PartitionedCall/Cast_15","PartitionedCall/GatherV2_15","PartitionedCall/zeros_15"],"attr":{"T":{"type":"DT_INT64"},"validate_indices":{"b":true},"Tindices":{"type":"DT_INT64"}}},
          {"name":"PartitionedCall/SparseToDense_16","op":"SparseToDense","input":["PartitionedCall/Where_16","PartitionedCall/Cast_16","PartitionedCall/GatherV2_16","PartitionedCall/zeros_16"],"attr":{"Tindices":{"type":"DT_INT64"},"T":{"type":"DT_INT64"},"validate_indices":{"b":true}}},
          {"name":"PartitionedCall/SparseToDense_17","op":"SparseToDense","input":["PartitionedCall/Where_17","PartitionedCall/Cast_17","PartitionedCall/GatherV2_17","PartitionedCall/zeros_17"],"attr":{"Tindices":{"type":"DT_INT64"},"T":{"type":"DT_INT64"},"validate_indices":{"b":true}}},
          {"name":"PartitionedCall/SparseToDense_18","op":"SparseToDense","input":["PartitionedCall/Where_18","PartitionedCall/Cast_18","PartitionedCall/GatherV2_18","PartitionedCall/zeros_18"],"attr":{"T":{"type":"DT_INT64"},"validate_indices":{"b":true},"Tindices":{"type":"DT_INT64"}}},
          {"name":"PartitionedCall/SparseToDense_19","op":"SparseToDense","input":["PartitionedCall/Where_19","PartitionedCall/Cast_19","PartitionedCall/GatherV2_19","PartitionedCall/zeros_19"],"attr":{"T":{"type":"DT_INT64"},"validate_indices":{"b":true},"Tindices":{"type":"DT_INT64"}}},
          {"name":"PartitionedCall/SparseToDense_20","op":"SparseToDense","input":["PartitionedCall/Where_20","PartitionedCall/Cast_20","PartitionedCall/GatherV2_20","PartitionedCall/zeros_20"],"attr":{"validate_indices":{"b":true},"Tindices":{"type":"DT_INT64"},"T":{"type":"DT_INT64"}}},
          {"name":"PartitionedCall/SparseToDense_21","op":"SparseToDense","input":["PartitionedCall/Where_21","PartitionedCall/Cast_21","PartitionedCall/GatherV2_21","PartitionedCall/zeros_21"],"attr":{"Tindices":{"type":"DT_INT64"},"validate_indices":{"b":true},"T":{"type":"DT_INT64"}}},
          {"name":"PartitionedCall/SparseToDense_22","op":"SparseToDense","input":["PartitionedCall/Where_22","PartitionedCall/Cast_22","PartitionedCall/GatherV2_22","PartitionedCall/zeros_22"],"attr":{"Tindices":{"type":"DT_INT64"},"T":{"type":"DT_INT64"},"validate_indices":{"b":true}}},
          {"name":"PartitionedCall/SparseToDense_23","op":"SparseToDense","input":["PartitionedCall/Where_23","PartitionedCall/Cast_23","PartitionedCall/GatherV2_23","PartitionedCall/zeros_23"],"attr":{"Tindices":{"type":"DT_INT64"},"validate_indices":{"b":true},"T":{"type":"DT_INT64"}}},
          {"name":"PartitionedCall/SparseToDense_24","op":"SparseToDense","input":["PartitionedCall/Where_24","PartitionedCall/Cast_24","PartitionedCall/GatherV2_24","PartitionedCall/zeros_24"],"attr":{"T":{"type":"DT_INT64"},"validate_indices":{"b":true},"Tindices":{"type":"DT_INT64"}}},
          {"name":"PartitionedCall/SparseToDense_25","op":"SparseToDense","input":["PartitionedCall/Where_25","PartitionedCall/Cast_25","PartitionedCall/GatherV2_25","PartitionedCall/zeros_25"],"attr":{"Tindices":{"type":"DT_INT64"},"T":{"type":"DT_INT64"},"validate_indices":{"b":true}}},
          {"name":"PartitionedCall/SparseToDense_26","op":"SparseToDense","input":["PartitionedCall/Where_26","PartitionedCall/Cast_26","PartitionedCall/GatherV2_26","PartitionedCall/zeros_26"],"attr":{"Tindices":{"type":"DT_INT64"},"T":{"type":"DT_INT64"},"validate_indices":{"b":true}}},
          {"name":"PartitionedCall/SparseToDense_27","op":"SparseToDense","input":["PartitionedCall/Where_27","PartitionedCall/Cast_27","PartitionedCall/GatherV2_27","PartitionedCall/zeros_27"],"attr":{"validate_indices":{"b":true},"Tindices":{"type":"DT_INT64"},"T":{"type":"DT_INT64"}}},
          {"name":"PartitionedCall/SparseToDense_28","op":"SparseToDense","input":["PartitionedCall/Where_28","PartitionedCall/Cast_28","PartitionedCall/GatherV2_28","PartitionedCall/zeros_28"],"attr":{"T":{"type":"DT_INT64"},"validate_indices":{"b":true},"Tindices":{"type":"DT_INT64"}}},
          {"name":"PartitionedCall/SparseToDense_29","op":"SparseToDense","input":["PartitionedCall/Where_29","PartitionedCall/Cast_29","PartitionedCall/GatherV2_29","PartitionedCall/zeros_29"],"attr":{"Tindices":{"type":"DT_INT64"},"T":{"type":"DT_INT64"},"validate_indices":{"b":true}}},
          {"name":"PartitionedCall/SparseToDense_30","op":"SparseToDense","input":["PartitionedCall/Where_30","PartitionedCall/Cast_30","PartitionedCall/GatherV2_30","PartitionedCall/zeros_30"],"attr":{"Tindices":{"type":"DT_INT64"},"T":{"type":"DT_INT64"},"validate_indices":{"b":true}}},
          {"name":"PartitionedCall/SparseToDense_31","op":"SparseToDense","input":["PartitionedCall/Where_31","PartitionedCall/Cast_31","PartitionedCall/GatherV2_31","PartitionedCall/zeros_31"],"attr":{"Tindices":{"type":"DT_INT64"},"T":{"type":"DT_INT64"},"validate_indices":{"b":true}}},
          {"name":"PartitionedCall/SparseToDense_37","op":"SparseToDense","input":["PartitionedCall/Where_37","PartitionedCall/Cast_45","PartitionedCall/GatherV2_37","PartitionedCall/zeros_37"],"attr":{"Tindices":{"type":"DT_INT64"},"validate_indices":{"b":true},"T":{"type":"DT_INT64"}}},
          {"name":"PartitionedCall/Pad","op":"Pad","input":["input_1","PartitionedCall/Const"],"attr":{"T":{"type":"DT_FLOAT"},"Tpaddings":{"type":"DT_INT32"}}},
          {"name":"PartitionedCall/add_95","op":"AddV2","input":["unknown_135","PartitionedCall/SparseToDense_32"],"attr":{"T":{"type":"DT_INT64"}}},
          {"name":"PartitionedCall/add_102","op":"AddV2","input":["unknown_135","PartitionedCall/SparseToDense_34"],"attr":{"T":{"type":"DT_INT64"}}},
          {"name":"PartitionedCall/add_109","op":"AddV2","input":["unknown_135","PartitionedCall/SparseToDense_36"],"attr":{"T":{"type":"DT_INT64"}}},
          {"name":"PartitionedCall/add_96","op":"AddV2","input":["unknown_136","PartitionedCall/SparseToDense_33"],"attr":{"T":{"type":"DT_INT64"}}},
          {"name":"PartitionedCall/add_103","op":"AddV2","input":["unknown_136","PartitionedCall/SparseToDense_35"],"attr":{"T":{"type":"DT_INT64"}}},
          {"name":"PartitionedCall/add_6","op":"AddV2","input":["unknown_11","PartitionedCall/SparseToDense"],"attr":{"T":{"type":"DT_INT64"}}},
          {"name":"PartitionedCall/add_7","op":"AddV2","input":["unknown_12","PartitionedCall/SparseToDense_1"],"attr":{"T":{"type":"DT_INT64"}}},
          {"name":"PartitionedCall/add_11","op":"AddV2","input":["unknown_11","PartitionedCall/SparseToDense_2"],"attr":{"T":{"type":"DT_INT64"}}},
          {"name":"PartitionedCall/add_12","op":"AddV2","input":["unknown_12","PartitionedCall/SparseToDense_3"],"attr":{"T":{"type":"DT_INT64"}}},
          {"name":"PartitionedCall/add_16","op":"AddV2","input":["unknown_11","PartitionedCall/SparseToDense_4"],"attr":{"T":{"type":"DT_INT64"}}},
          {"name":"PartitionedCall/add_17","op":"AddV2","input":["unknown_12","PartitionedCall/SparseToDense_5"],"attr":{"T":{"type":"DT_INT64"}}},
          {"name":"PartitionedCall/add_21","op":"AddV2","input":["unknown_11","PartitionedCall/SparseToDense_6"],"attr":{"T":{"type":"DT_INT64"}}},
          {"name":"PartitionedCall/add_22","op":"AddV2","input":["unknown_12","PartitionedCall/SparseToDense_7"],"attr":{"T":{"type":"DT_INT64"}}},
          {"name":"PartitionedCall/add_28","op":"AddV2","input":["unknown_41","PartitionedCall/SparseToDense_8"],"attr":{"T":{"type":"DT_INT64"}}},
          {"name":"PartitionedCall/add_29","op":"AddV2","input":["unknown_42","PartitionedCall/SparseToDense_9"],"attr":{"T":{"type":"DT_INT64"}}},
          {"name":"PartitionedCall/add_33","op":"AddV2","input":["unknown_41","PartitionedCall/SparseToDense_10"],"attr":{"T":{"type":"DT_INT64"}}},
          {"name":"PartitionedCall/add_34","op":"AddV2","input":["unknown_42","PartitionedCall/SparseToDense_11"],"attr":{"T":{"type":"DT_INT64"}}},
          {"name":"PartitionedCall/add_38","op":"AddV2","input":["unknown_41","PartitionedCall/SparseToDense_12"],"attr":{"T":{"type":"DT_INT64"}}},
          {"name":"PartitionedCall/add_39","op":"AddV2","input":["unknown_42","PartitionedCall/SparseToDense_13"],"attr":{"T":{"type":"DT_INT64"}}},
          {"name":"PartitionedCall/add_43","op":"AddV2","input":["unknown_41","PartitionedCall/SparseToDense_14"],"attr":{"T":{"type":"DT_INT64"}}},
          {"name":"PartitionedCall/add_44","op":"AddV2","input":["unknown_42","PartitionedCall/SparseToDense_15"],"attr":{"T":{"type":"DT_INT64"}}},
          {"name":"PartitionedCall/add_48","op":"AddV2","input":["unknown_41","PartitionedCall/SparseToDense_16"],"attr":{"T":{"type":"DT_INT64"}}},
          {"name":"PartitionedCall/add_49","op":"AddV2","input":["unknown_42","PartitionedCall/SparseToDense_17"],"attr":{"T":{"type":"DT_INT64"}}},
          {"name":"PartitionedCall/add_53","op":"AddV2","input":["unknown_41","PartitionedCall/SparseToDense_18"],"attr":{"T":{"type":"DT_INT64"}}},
          {"name":"PartitionedCall/add_54","op":"AddV2","input":["unknown_42","PartitionedCall/SparseToDense_19"],"attr":{"T":{"type":"DT_INT64"}}},
          {"name":"PartitionedCall/add_58","op":"AddV2","input":["unknown_41","PartitionedCall/SparseToDense_20"],"attr":{"T":{"type":"DT_INT64"}}},
          {"name":"PartitionedCall/add_59","op":"AddV2","input":["unknown_42","PartitionedCall/SparseToDense_21"],"attr":{"T":{"type":"DT_INT64"}}},
          {"name":"PartitionedCall/add_63","op":"AddV2","input":["unknown_41","PartitionedCall/SparseToDense_22"],"attr":{"T":{"type":"DT_INT64"}}},
          {"name":"PartitionedCall/add_64","op":"AddV2","input":["unknown_42","PartitionedCall/SparseToDense_23"],"attr":{"T":{"type":"DT_INT64"}}},
          {"name":"PartitionedCall/add_70","op":"AddV2","input":["unknown_95","PartitionedCall/SparseToDense_24"],"attr":{"T":{"type":"DT_INT64"}}},
          {"name":"PartitionedCall/add_71","op":"AddV2","input":["unknown_96","PartitionedCall/SparseToDense_25"],"attr":{"T":{"type":"DT_INT64"}}},
          {"name":"PartitionedCall/add_75","op":"AddV2","input":["unknown_95","PartitionedCall/SparseToDense_26"],"attr":{"T":{"type":"DT_INT64"}}},
          {"name":"PartitionedCall/add_76","op":"AddV2","input":["unknown_96","PartitionedCall/SparseToDense_27"],"attr":{"T":{"type":"DT_INT64"}}},
          {"name":"PartitionedCall/add_80","op":"AddV2","input":["unknown_95","PartitionedCall/SparseToDense_28"],"attr":{"T":{"type":"DT_INT64"}}},
          {"name":"PartitionedCall/add_81","op":"AddV2","input":["unknown_96","PartitionedCall/SparseToDense_29"],"attr":{"T":{"type":"DT_INT64"}}},
          {"name":"PartitionedCall/add_85","op":"AddV2","input":["unknown_95","PartitionedCall/SparseToDense_30"],"attr":{"T":{"type":"DT_INT64"}}},
          {"name":"PartitionedCall/add_86","op":"AddV2","input":["unknown_96","PartitionedCall/SparseToDense_31"],"attr":{"T":{"type":"DT_INT64"}}},
          {"name":"PartitionedCall/add_110","op":"AddV2","input":["unknown_136","PartitionedCall/SparseToDense_37"],"attr":{"T":{"type":"DT_INT64"}}},
          {"name":"PartitionedCall/transpose_1","op":"Transpose","input":["PartitionedCall/Pad","PartitionedCall/transpose_1/perm"],"attr":{"Tperm":{"type":"DT_INT32"},"T":{"type":"DT_FLOAT"}}},
          {"name":"PartitionedCall/convolution","op":"Conv2D","input":["PartitionedCall/transpose_1","PartitionedCall/split"],"device":"/device:CPU:0","attr":{"use_cudnn_on_gpu":{"b":true},"padding":{"s":"VkFMSUQ="},"explicit_paddings":{"list":{}},"dilations":{"list":{"i":["1","1","1","1"]}},"data_format":{"s":"TkhXQw=="},"T":{"type":"DT_FLOAT"},"strides":{"list":{"i":["1","2","2","1"]}}}},
          {"name":"PartitionedCall/Add","op":"Add","input":["PartitionedCall/convolution","unknown_0"],"attr":{"T":{"type":"DT_FLOAT"}}},
          {"name":"PartitionedCall/transpose_2","op":"Transpose","input":["PartitionedCall/Add","PartitionedCall/transpose_2/perm"],"attr":{"Tperm":{"type":"DT_INT32"},"T":{"type":"DT_FLOAT"}}},
          {"name":"PartitionedCall/onnx_tf_prefix_LeakyRelu_1","op":"LeakyRelu","input":["PartitionedCall/transpose_2"],"attr":{"alpha":{"f":0.1},"T":{"type":"DT_FLOAT"}}},
          {"name":"PartitionedCall/PadV2","op":"PadV2","input":["PartitionedCall/onnx_tf_prefix_LeakyRelu_1","PartitionedCall/PadV2/paddings","PartitionedCall/PadV2/constant_values"],"attr":{"Tpaddings":{"type":"DT_INT32"},"T":{"type":"DT_FLOAT"}}},
          {"name":"PartitionedCall/transpose_3","op":"Transpose","input":["PartitionedCall/PadV2","PartitionedCall/transpose_3/perm"],"attr":{"Tperm":{"type":"DT_INT32"},"T":{"type":"DT_FLOAT"}}},
          {"name":"PartitionedCall/MaxPool2d","op":"MaxPool","input":["PartitionedCall/transpose_3"],"attr":{"padding":{"s":"VkFMSUQ="},"ksize":{"list":{"i":["1","3","3","1"]}},"T":{"type":"DT_FLOAT"},"data_format":{"s":"TkhXQw=="},"strides":{"list":{"i":["1","2","2","1"]}},"explicit_paddings":{"list":{}}}},
          {"name":"PartitionedCall/transpose_4","op":"Transpose","input":["PartitionedCall/MaxPool2d","PartitionedCall/transpose_4/perm"],"attr":{"Tperm":{"type":"DT_INT32"},"T":{"type":"DT_FLOAT"}}},
          {"name":"PartitionedCall/convolution_2","op":"Conv2D","input":["PartitionedCall/MaxPool2d","PartitionedCall/split_2"],"device":"/device:CPU:0","attr":{"dilations":{"list":{"i":["1","1","1","1"]}},"explicit_paddings":{"list":{}},"use_cudnn_on_gpu":{"b":true},"data_format":{"s":"TkhXQw=="},"strides":{"list":{"i":["1","1","1","1"]}},"T":{"type":"DT_FLOAT"},"padding":{"s":"VkFMSUQ="}}},
          {"name":"PartitionedCall/Pad_1","op":"Pad","input":["PartitionedCall/transpose_4","PartitionedCall/Const_2"],"attr":{"Tpaddings":{"type":"DT_INT32"},"T":{"type":"DT_FLOAT"}}},
          {"name":"PartitionedCall/Add_3","op":"Add","input":["PartitionedCall/convolution_2","unknown_6"],"attr":{"T":{"type":"DT_FLOAT"}}},
          {"name":"PartitionedCall/transpose_6","op":"Transpose","input":["PartitionedCall/Pad_1","PartitionedCall/transpose_6/perm"],"attr":{"Tperm":{"type":"DT_INT32"},"T":{"type":"DT_FLOAT"}}},
          {"name":"PartitionedCall/transpose_13","op":"Transpose","input":["PartitionedCall/Add_3","PartitionedCall/transpose_13/perm"],"attr":{"T":{"type":"DT_FLOAT"},"Tperm":{"type":"DT_INT32"}}},
          {"name":"PartitionedCall/depthwise","op":"DepthwiseConv2dNative","input":["PartitionedCall/transpose_6","PartitionedCall/Reshape"],"attr":{"strides":{"list":{"i":["1","2","2","1"]}},"padding":{"s":"VkFMSUQ="},"T":{"type":"DT_FLOAT"},"explicit_paddings":{"list":{}},"dilations":{"list":{"i":["1","1","1","1"]}},"data_format":{"s":"TkhXQw=="}}},
          {"name":"PartitionedCall/onnx_tf_prefix_LeakyRelu_7","op":"LeakyRelu","input":["PartitionedCall/transpose_13"],"attr":{"alpha":{"f":0.1},"T":{"type":"DT_FLOAT"}}},
          {"name":"PartitionedCall/Add_1","op":"Add","input":["PartitionedCall/depthwise","unknown_2"],"attr":{"T":{"type":"DT_FLOAT"}}},
          {"name":"PartitionedCall/Pad_2","op":"Pad","input":["PartitionedCall/onnx_tf_prefix_LeakyRelu_7","PartitionedCall/Const_5"],"attr":{"Tpaddings":{"type":"DT_INT32"},"T":{"type":"DT_FLOAT"}}},
          {"name":"PartitionedCall/convolution_1","op":"Conv2D","input":["PartitionedCall/Add_1","PartitionedCall/split_1"],"device":"/device:CPU:0","attr":{"data_format":{"s":"TkhXQw=="},"T":{"type":"DT_FLOAT"},"strides":{"list":{"i":["1","1","1","1"]}},"explicit_paddings":{"list":{}},"padding":{"s":"VkFMSUQ="},"dilations":{"list":{"i":["1","1","1","1"]}},"use_cudnn_on_gpu":{"b":true}}},
          {"name":"PartitionedCall/transpose_15","op":"Transpose","input":["PartitionedCall/Pad_2","PartitionedCall/transpose_15/perm"],"attr":{"T":{"type":"DT_FLOAT"},"Tperm":{"type":"DT_INT32"}}},
          {"name":"PartitionedCall/Add_2","op":"Add","input":["PartitionedCall/convolution_1","unknown_4"],"attr":{"T":{"type":"DT_FLOAT"}}},
          {"name":"PartitionedCall/depthwise_1","op":"DepthwiseConv2dNative","input":["PartitionedCall/transpose_15","PartitionedCall/Reshape_1"],"attr":{"dilations":{"list":{"i":["1","1","1","1"]}},"T":{"type":"DT_FLOAT"},"padding":{"s":"VkFMSUQ="},"strides":{"list":{"i":["1","2","2","1"]}},"data_format":{"s":"TkhXQw=="},"explicit_paddings":{"list":{}}}},
          {"name":"PartitionedCall/transpose_10","op":"Transpose","input":["PartitionedCall/Add_2","PartitionedCall/transpose_10/perm"],"attr":{"T":{"type":"DT_FLOAT"},"Tperm":{"type":"DT_INT32"}}},
          {"name":"PartitionedCall/Add_4","op":"Add","input":["PartitionedCall/depthwise_1","unknown_8"],"attr":{"T":{"type":"DT_FLOAT"}}},
          {"name":"PartitionedCall/onnx_tf_prefix_LeakyRelu_5","op":"LeakyRelu","input":["PartitionedCall/transpose_10"],"attr":{"alpha":{"f":0.1},"T":{"type":"DT_FLOAT"}}},
          {"name":"PartitionedCall/convolution_3","op":"Conv2D","input":["PartitionedCall/Add_4","PartitionedCall/split_3"],"device":"/device:CPU:0","attr":{"explicit_paddings":{"list":{}},"strides":{"list":{"i":["1","1","1","1"]}},"use_cudnn_on_gpu":{"b":true},"T":{"type":"DT_FLOAT"},"padding":{"s":"VkFMSUQ="},"dilations":{"list":{"i":["1","1","1","1"]}},"data_format":{"s":"TkhXQw=="}}},
          {"name":"PartitionedCall/Add_5","op":"Add","input":["PartitionedCall/convolution_3","unknown_10"],"attr":{"T":{"type":"DT_FLOAT"}}},
          {"name":"PartitionedCall/transpose_19","op":"Transpose","input":["PartitionedCall/Add_5","PartitionedCall/transpose_19/perm"],"attr":{"T":{"type":"DT_FLOAT"},"Tperm":{"type":"DT_INT32"}}},
          {"name":"PartitionedCall/onnx_tf_prefix_LeakyRelu_10","op":"LeakyRelu","input":["PartitionedCall/transpose_19"],"attr":{"T":{"type":"DT_FLOAT"},"alpha":{"f":0.1}}},
          {"name":"PartitionedCall/onnx_tf_prefix_Concat_11","op":"ConcatV2","input":["PartitionedCall/onnx_tf_prefix_LeakyRelu_5","PartitionedCall/onnx_tf_prefix_LeakyRelu_10","PartitionedCall/onnx_tf_prefix_Concat_11/axis"],"attr":{"N":{"i":"2"},"T":{"type":"DT_FLOAT"},"Tidx":{"type":"DT_INT32"}}},
          {"name":"PartitionedCall/onnx_tf_prefix_Reshape_13","op":"Reshape","input":["PartitionedCall/onnx_tf_prefix_Concat_11","PartitionedCall/add_6"],"attr":{"T":{"type":"DT_FLOAT"},"Tshape":{"type":"DT_INT64"}}},
          {"name":"PartitionedCall/onnx_tf_prefix_Transpose_14","op":"Transpose","input":["PartitionedCall/onnx_tf_prefix_Reshape_13","PartitionedCall/onnx_tf_prefix_Transpose_14/perm"],"attr":{"T":{"type":"DT_FLOAT"},"Tperm":{"type":"DT_INT32"}}},
          {"name":"PartitionedCall/onnx_tf_prefix_Reshape_16","op":"Reshape","input":["PartitionedCall/onnx_tf_prefix_Transpose_14","PartitionedCall/add_7"],"attr":{"Tshape":{"type":"DT_INT64"},"T":{"type":"DT_FLOAT"}}},
          {"name":"PartitionedCall/onnx_tf_prefix_Split_17","op":"SplitV","input":["PartitionedCall/onnx_tf_prefix_Reshape_16","PartitionedCall/Const_9","PartitionedCall/onnx_tf_prefix_Split_17/split_dim"],"attr":{"Tlen":{"type":"DT_INT32"},"T":{"type":"DT_FLOAT"},"num_split":{"i":"2"}}},
          {"name":"PartitionedCall/transpose_21","op":"Transpose","input":["PartitionedCall/onnx_tf_prefix_Split_17:1","PartitionedCall/transpose_21/perm"],"attr":{"T":{"type":"DT_FLOAT"},"Tperm":{"type":"DT_INT32"}}},
          {"name":"PartitionedCall/convolution_4","op":"Conv2D","input":["PartitionedCall/transpose_21","PartitionedCall/split_4"],"device":"/device:CPU:0","attr":{"strides":{"list":{"i":["1","1","1","1"]}},"padding":{"s":"VkFMSUQ="},"T":{"type":"DT_FLOAT"},"dilations":{"list":{"i":["1","1","1","1"]}},"data_format":{"s":"TkhXQw=="},"explicit_paddings":{"list":{}},"use_cudnn_on_gpu":{"b":true}}},
          {"name":"PartitionedCall/Add_8","op":"Add","input":["PartitionedCall/convolution_4","unknown_14"],"attr":{"T":{"type":"DT_FLOAT"}}},
          {"name":"PartitionedCall/transpose_22","op":"Transpose","input":["PartitionedCall/Add_8","PartitionedCall/transpose_22/perm"],"attr":{"T":{"type":"DT_FLOAT"},"Tperm":{"type":"DT_INT32"}}},
          {"name":"PartitionedCall/onnx_tf_prefix_LeakyRelu_19","op":"LeakyRelu","input":["PartitionedCall/transpose_22"],"attr":{"T":{"type":"DT_FLOAT"},"alpha":{"f":0.1}}},
          {"name":"PartitionedCall/Pad_3","op":"Pad","input":["PartitionedCall/onnx_tf_prefix_LeakyRelu_19","PartitionedCall/Const_11"],"attr":{"Tpaddings":{"type":"DT_INT32"},"T":{"type":"DT_FLOAT"}}},
          {"name":"PartitionedCall/transpose_24","op":"Transpose","input":["PartitionedCall/Pad_3","PartitionedCall/transpose_24/perm"],"attr":{"T":{"type":"DT_FLOAT"},"Tperm":{"type":"DT_INT32"}}},
          {"name":"PartitionedCall/depthwise_2","op":"DepthwiseConv2dNative","input":["PartitionedCall/transpose_24","PartitionedCall/Reshape_2"],"attr":{"T":{"type":"DT_FLOAT"},"dilations":{"list":{"i":["1","1","1","1"]}},"padding":{"s":"VkFMSUQ="},"strides":{"list":{"i":["1","1","1","1"]}},"data_format":{"s":"TkhXQw=="},"explicit_paddings":{"list":{}}}},
          {"name":"PartitionedCall/Add_9","op":"Add","input":["PartitionedCall/depthwise_2","unknown_16"],"attr":{"T":{"type":"DT_FLOAT"}}},
          {"name":"PartitionedCall/convolution_5","op":"Conv2D","input":["PartitionedCall/Add_9","PartitionedCall/split_5"],"device":"/device:CPU:0","attr":{"T":{"type":"DT_FLOAT"},"dilations":{"list":{"i":["1","1","1","1"]}},"strides":{"list":{"i":["1","1","1","1"]}},"explicit_paddings":{"list":{}},"data_format":{"s":"TkhXQw=="},"use_cudnn_on_gpu":{"b":true},"padding":{"s":"VkFMSUQ="}}},
          {"name":"PartitionedCall/Add_10","op":"Add","input":["PartitionedCall/convolution_5","unknown_18"],"attr":{"T":{"type":"DT_FLOAT"}}},
          {"name":"PartitionedCall/transpose_28","op":"Transpose","input":["PartitionedCall/Add_10","PartitionedCall/transpose_28/perm"],"attr":{"Tperm":{"type":"DT_INT32"},"T":{"type":"DT_FLOAT"}}},
          {"name":"PartitionedCall/onnx_tf_prefix_LeakyRelu_22","op":"LeakyRelu","input":["PartitionedCall/transpose_28"],"attr":{"alpha":{"f":0.1},"T":{"type":"DT_FLOAT"}}},
          {"name":"PartitionedCall/onnx_tf_prefix_Concat_23","op":"ConcatV2","input":["PartitionedCall/onnx_tf_prefix_Split_17","PartitionedCall/onnx_tf_prefix_LeakyRelu_22","PartitionedCall/onnx_tf_prefix_Concat_23/axis"],"attr":{"Tidx":{"type":"DT_INT32"},"T":{"type":"DT_FLOAT"},"N":{"i":"2"}}},
          {"name":"PartitionedCall/onnx_tf_prefix_Reshape_25","op":"Reshape","input":["PartitionedCall/onnx_tf_prefix_Concat_23","PartitionedCall/add_11"],"attr":{"T":{"type":"DT_FLOAT"},"Tshape":{"type":"DT_INT64"}}},
          {"name":"PartitionedCall/onnx_tf_prefix_Transpose_26","op":"Transpose","input":["PartitionedCall/onnx_tf_prefix_Reshape_25","PartitionedCall/onnx_tf_prefix_Transpose_26/perm"],"attr":{"T":{"type":"DT_FLOAT"},"Tperm":{"type":"DT_INT32"}}},
          {"name":"PartitionedCall/onnx_tf_prefix_Reshape_28","op":"Reshape","input":["PartitionedCall/onnx_tf_prefix_Transpose_26","PartitionedCall/add_12"],"attr":{"Tshape":{"type":"DT_INT64"},"T":{"type":"DT_FLOAT"}}},
          {"name":"PartitionedCall/onnx_tf_prefix_Split_29","op":"SplitV","input":["PartitionedCall/onnx_tf_prefix_Reshape_28","PartitionedCall/Const_15","PartitionedCall/onnx_tf_prefix_Split_29/split_dim"],"attr":{"Tlen":{"type":"DT_INT32"},"T":{"type":"DT_FLOAT"},"num_split":{"i":"2"}}},
          {"name":"PartitionedCall/transpose_30","op":"Transpose","input":["PartitionedCall/onnx_tf_prefix_Split_29:1","PartitionedCall/transpose_30/perm"],"attr":{"Tperm":{"type":"DT_INT32"},"T":{"type":"DT_FLOAT"}}},
          {"name":"PartitionedCall/convolution_6","op":"Conv2D","input":["PartitionedCall/transpose_30","PartitionedCall/split_6"],"device":"/device:CPU:0","attr":{"dilations":{"list":{"i":["1","1","1","1"]}},"explicit_paddings":{"list":{}},"data_format":{"s":"TkhXQw=="},"padding":{"s":"VkFMSUQ="},"use_cudnn_on_gpu":{"b":true},"strides":{"list":{"i":["1","1","1","1"]}},"T":{"type":"DT_FLOAT"}}},
          {"name":"PartitionedCall/Add_13","op":"Add","input":["PartitionedCall/convolution_6","unknown_20"],"attr":{"T":{"type":"DT_FLOAT"}}},
          {"name":"PartitionedCall/transpose_31","op":"Transpose","input":["PartitionedCall/Add_13","PartitionedCall/transpose_31/perm"],"attr":{"T":{"type":"DT_FLOAT"},"Tperm":{"type":"DT_INT32"}}},
          {"name":"PartitionedCall/onnx_tf_prefix_LeakyRelu_31","op":"LeakyRelu","input":["PartitionedCall/transpose_31"],"attr":{"alpha":{"f":0.1},"T":{"type":"DT_FLOAT"}}},
          {"name":"PartitionedCall/Pad_4","op":"Pad","input":["PartitionedCall/onnx_tf_prefix_LeakyRelu_31","PartitionedCall/Const_17"],"attr":{"Tpaddings":{"type":"DT_INT32"},"T":{"type":"DT_FLOAT"}}},
          {"name":"PartitionedCall/transpose_33","op":"Transpose","input":["PartitionedCall/Pad_4","PartitionedCall/transpose_33/perm"],"attr":{"Tperm":{"type":"DT_INT32"},"T":{"type":"DT_FLOAT"}}},
          {"name":"PartitionedCall/depthwise_3","op":"DepthwiseConv2dNative","input":["PartitionedCall/transpose_33","PartitionedCall/Reshape_3"],"attr":{"explicit_paddings":{"list":{}},"strides":{"list":{"i":["1","1","1","1"]}},"T":{"type":"DT_FLOAT"},"data_format":{"s":"TkhXQw=="},"dilations":{"list":{"i":["1","1","1","1"]}},"padding":{"s":"VkFMSUQ="}}},
          {"name":"PartitionedCall/Add_14","op":"Add","input":["PartitionedCall/depthwise_3","unknown_22"],"attr":{"T":{"type":"DT_FLOAT"}}},
          {"name":"PartitionedCall/convolution_7","op":"Conv2D","input":["PartitionedCall/Add_14","PartitionedCall/split_7"],"device":"/device:CPU:0","attr":{"padding":{"s":"VkFMSUQ="},"use_cudnn_on_gpu":{"b":true},"data_format":{"s":"TkhXQw=="},"strides":{"list":{"i":["1","1","1","1"]}},"T":{"type":"DT_FLOAT"},"explicit_paddings":{"list":{}},"dilations":{"list":{"i":["1","1","1","1"]}}}},
          {"name":"PartitionedCall/Add_15","op":"Add","input":["PartitionedCall/convolution_7","unknown_24"],"attr":{"T":{"type":"DT_FLOAT"}}},
          {"name":"PartitionedCall/transpose_37","op":"Transpose","input":["PartitionedCall/Add_15","PartitionedCall/transpose_37/perm"],"attr":{"Tperm":{"type":"DT_INT32"},"T":{"type":"DT_FLOAT"}}},
          {"name":"PartitionedCall/onnx_tf_prefix_LeakyRelu_34","op":"LeakyRelu","input":["PartitionedCall/transpose_37"],"attr":{"T":{"type":"DT_FLOAT"},"alpha":{"f":0.1}}},
          {"name":"PartitionedCall/onnx_tf_prefix_Concat_35","op":"ConcatV2","input":["PartitionedCall/onnx_tf_prefix_Split_29","PartitionedCall/onnx_tf_prefix_LeakyRelu_34","PartitionedCall/onnx_tf_prefix_Concat_35/axis"],"attr":{"N":{"i":"2"},"T":{"type":"DT_FLOAT"},"Tidx":{"type":"DT_INT32"}}},
          {"name":"PartitionedCall/onnx_tf_prefix_Reshape_37","op":"Reshape","input":["PartitionedCall/onnx_tf_prefix_Concat_35","PartitionedCall/add_16"],"attr":{"Tshape":{"type":"DT_INT64"},"T":{"type":"DT_FLOAT"}}},
          {"name":"PartitionedCall/onnx_tf_prefix_Transpose_38","op":"Transpose","input":["PartitionedCall/onnx_tf_prefix_Reshape_37","PartitionedCall/onnx_tf_prefix_Transpose_38/perm"],"attr":{"T":{"type":"DT_FLOAT"},"Tperm":{"type":"DT_INT32"}}},
          {"name":"PartitionedCall/onnx_tf_prefix_Reshape_40","op":"Reshape","input":["PartitionedCall/onnx_tf_prefix_Transpose_38","PartitionedCall/add_17"],"attr":{"Tshape":{"type":"DT_INT64"},"T":{"type":"DT_FLOAT"}}},
          {"name":"PartitionedCall/onnx_tf_prefix_Split_41","op":"SplitV","input":["PartitionedCall/onnx_tf_prefix_Reshape_40","PartitionedCall/Const_21","PartitionedCall/onnx_tf_prefix_Split_41/split_dim"],"attr":{"T":{"type":"DT_FLOAT"},"Tlen":{"type":"DT_INT32"},"num_split":{"i":"2"}}},
          {"name":"PartitionedCall/transpose_39","op":"Transpose","input":["PartitionedCall/onnx_tf_prefix_Split_41:1","PartitionedCall/transpose_39/perm"],"attr":{"Tperm":{"type":"DT_INT32"},"T":{"type":"DT_FLOAT"}}},
          {"name":"PartitionedCall/convolution_8","op":"Conv2D","input":["PartitionedCall/transpose_39","PartitionedCall/split_8"],"device":"/device:CPU:0","attr":{"dilations":{"list":{"i":["1","1","1","1"]}},"data_format":{"s":"TkhXQw=="},"T":{"type":"DT_FLOAT"},"use_cudnn_on_gpu":{"b":true},"explicit_paddings":{"list":{}},"padding":{"s":"VkFMSUQ="},"strides":{"list":{"i":["1","1","1","1"]}}}},
          {"name":"PartitionedCall/Add_18","op":"Add","input":["PartitionedCall/convolution_8","unknown_26"],"attr":{"T":{"type":"DT_FLOAT"}}},
          {"name":"PartitionedCall/transpose_40","op":"Transpose","input":["PartitionedCall/Add_18","PartitionedCall/transpose_40/perm"],"attr":{"Tperm":{"type":"DT_INT32"},"T":{"type":"DT_FLOAT"}}},
          {"name":"PartitionedCall/onnx_tf_prefix_LeakyRelu_43","op":"LeakyRelu","input":["PartitionedCall/transpose_40"],"attr":{"alpha":{"f":0.1},"T":{"type":"DT_FLOAT"}}},
          {"name":"PartitionedCall/Pad_5","op":"Pad","input":["PartitionedCall/onnx_tf_prefix_LeakyRelu_43","PartitionedCall/Const_23"],"attr":{"Tpaddings":{"type":"DT_INT32"},"T":{"type":"DT_FLOAT"}}},
          {"name":"PartitionedCall/transpose_42","op":"Transpose","input":["PartitionedCall/Pad_5","PartitionedCall/transpose_42/perm"],"attr":{"T":{"type":"DT_FLOAT"},"Tperm":{"type":"DT_INT32"}}},
          {"name":"PartitionedCall/depthwise_4","op":"DepthwiseConv2dNative","input":["PartitionedCall/transpose_42","PartitionedCall/Reshape_4"],"attr":{"data_format":{"s":"TkhXQw=="},"strides":{"list":{"i":["1","1","1","1"]}},"dilations":{"list":{"i":["1","1","1","1"]}},"padding":{"s":"VkFMSUQ="},"T":{"type":"DT_FLOAT"},"explicit_paddings":{"list":{}}}},
          {"name":"PartitionedCall/Add_19","op":"Add","input":["PartitionedCall/depthwise_4","unknown_28"],"attr":{"T":{"type":"DT_FLOAT"}}},
          {"name":"PartitionedCall/convolution_9","op":"Conv2D","input":["PartitionedCall/Add_19","PartitionedCall/split_9"],"device":"/device:CPU:0","attr":{"strides":{"list":{"i":["1","1","1","1"]}},"explicit_paddings":{"list":{}},"padding":{"s":"VkFMSUQ="},"T":{"type":"DT_FLOAT"},"data_format":{"s":"TkhXQw=="},"dilations":{"list":{"i":["1","1","1","1"]}},"use_cudnn_on_gpu":{"b":true}}},
          {"name":"PartitionedCall/Add_20","op":"Add","input":["PartitionedCall/convolution_9","unknown_30"],"attr":{"T":{"type":"DT_FLOAT"}}},
          {"name":"PartitionedCall/transpose_46","op":"Transpose","input":["PartitionedCall/Add_20","PartitionedCall/transpose_46/perm"],"attr":{"T":{"type":"DT_FLOAT"},"Tperm":{"type":"DT_INT32"}}},
          {"name":"PartitionedCall/onnx_tf_prefix_LeakyRelu_46","op":"LeakyRelu","input":["PartitionedCall/transpose_46"],"attr":{"T":{"type":"DT_FLOAT"},"alpha":{"f":0.1}}},
          {"name":"PartitionedCall/onnx_tf_prefix_Concat_47","op":"ConcatV2","input":["PartitionedCall/onnx_tf_prefix_Split_41","PartitionedCall/onnx_tf_prefix_LeakyRelu_46","PartitionedCall/onnx_tf_prefix_Concat_47/axis"],"attr":{"Tidx":{"type":"DT_INT32"},"T":{"type":"DT_FLOAT"},"N":{"i":"2"}}},
          {"name":"PartitionedCall/onnx_tf_prefix_Reshape_49","op":"Reshape","input":["PartitionedCall/onnx_tf_prefix_Concat_47","PartitionedCall/add_21"],"attr":{"T":{"type":"DT_FLOAT"},"Tshape":{"type":"DT_INT64"}}},
          {"name":"PartitionedCall/onnx_tf_prefix_Transpose_50","op":"Transpose","input":["PartitionedCall/onnx_tf_prefix_Reshape_49","PartitionedCall/onnx_tf_prefix_Transpose_50/perm"],"attr":{"T":{"type":"DT_FLOAT"},"Tperm":{"type":"DT_INT32"}}},
          {"name":"PartitionedCall/onnx_tf_prefix_Reshape_52","op":"Reshape","input":["PartitionedCall/onnx_tf_prefix_Transpose_50","PartitionedCall/add_22"],"attr":{"Tshape":{"type":"DT_INT64"},"T":{"type":"DT_FLOAT"}}},
          {"name":"PartitionedCall/transpose_168","op":"Transpose","input":["PartitionedCall/onnx_tf_prefix_Reshape_52","PartitionedCall/transpose_168/perm"],"attr":{"T":{"type":"DT_FLOAT"},"Tperm":{"type":"DT_INT32"}}},
          {"name":"PartitionedCall/Pad_6","op":"Pad","input":["PartitionedCall/onnx_tf_prefix_Reshape_52","PartitionedCall/Const_27"],"attr":{"Tpaddings":{"type":"DT_INT32"},"T":{"type":"DT_FLOAT"}}},
          {"name":"PartitionedCall/transpose_54","op":"Transpose","input":["PartitionedCall/onnx_tf_prefix_Reshape_52","PartitionedCall/transpose_54/perm"],"attr":{"T":{"type":"DT_FLOAT"},"Tperm":{"type":"DT_INT32"}}},
          {"name":"PartitionedCall/convolution_36","op":"Conv2D","input":["PartitionedCall/transpose_168","PartitionedCall/split_36"],"device":"/device:CPU:0","attr":{"strides":{"list":{"i":["1","1","1","1"]}},"data_format":{"s":"TkhXQw=="},"explicit_paddings":{"list":{}},"padding":{"s":"VkFMSUQ="},"use_cudnn_on_gpu":{"b":true},"T":{"type":"DT_FLOAT"},"dilations":{"list":{"i":["1","1","1","1"]}}}},
          {"name":"PartitionedCall/transpose_48","op":"Transpose","input":["PartitionedCall/Pad_6","PartitionedCall/transpose_48/perm"],"attr":{"T":{"type":"DT_FLOAT"},"Tperm":{"type":"DT_INT32"}}},
          {"name":"PartitionedCall/convolution_11","op":"Conv2D","input":["PartitionedCall/transpose_54","PartitionedCall/split_11"],"device":"/device:CPU:0","attr":{"dilations":{"list":{"i":["1","1","1","1"]}},"data_format":{"s":"TkhXQw=="},"explicit_paddings":{"list":{}},"padding":{"s":"VkFMSUQ="},"strides":{"list":{"i":["1","1","1","1"]}},"use_cudnn_on_gpu":{"b":true},"T":{"type":"DT_FLOAT"}}},
          {"name":"PartitionedCall/Add_87","op":"Add","input":["PartitionedCall/convolution_36","unknown_116"],"attr":{"T":{"type":"DT_FLOAT"}}},
          {"name":"PartitionedCall/depthwise_5","op":"DepthwiseConv2dNative","input":["PartitionedCall/transpose_48","PartitionedCall/Reshape_5"],"attr":{"explicit_paddings":{"list":{}},"strides":{"list":{"i":["1","2","2","1"]}},"T":{"type":"DT_FLOAT"},"data_format":{"s":"TkhXQw=="},"padding":{"s":"VkFMSUQ="},"dilations":{"list":{"i":["1","1","1","1"]}}}},
          {"name":"PartitionedCall/Add_25","op":"Add","input":["PartitionedCall/convolution_11","unknown_36"],"attr":{"T":{"type":"DT_FLOAT"}}},
          {"name":"PartitionedCall/transpose_169","op":"Transpose","input":["PartitionedCall/Add_87","PartitionedCall/transpose_169/perm"],"attr":{"Tperm":{"type":"DT_INT32"},"T":{"type":"DT_FLOAT"}}},
          {"name":"PartitionedCall/Add_23","op":"Add","input":["PartitionedCall/depthwise_5","unknown_32"],"attr":{"T":{"type":"DT_FLOAT"}}},
          {"name":"PartitionedCall/transpose_55","op":"Transpose","input":["PartitionedCall/Add_25","PartitionedCall/transpose_55/perm"],"attr":{"T":{"type":"DT_FLOAT"},"Tperm":{"type":"DT_INT32"}}},
          {"name":"PartitionedCall/convolution_10","op":"Conv2D","input":["PartitionedCall/Add_23","PartitionedCall/split_10"],"device":"/device:CPU:0","attr":{"explicit_paddings":{"list":{}},"data_format":{"s":"TkhXQw=="},"use_cudnn_on_gpu":{"b":true},"strides":{"list":{"i":["1","1","1","1"]}},"T":{"type":"DT_FLOAT"},"dilations":{"list":{"i":["1","1","1","1"]}},"padding":{"s":"VkFMSUQ="}}},
          {"name":"PartitionedCall/onnx_tf_prefix_LeakyRelu_57","op":"LeakyRelu","input":["PartitionedCall/transpose_55"],"attr":{"T":{"type":"DT_FLOAT"},"alpha":{"f":0.1}}},
          {"name":"PartitionedCall/Add_24","op":"Add","input":["PartitionedCall/convolution_10","unknown_34"],"attr":{"T":{"type":"DT_FLOAT"}}},
          {"name":"PartitionedCall/Pad_7","op":"Pad","input":["PartitionedCall/onnx_tf_prefix_LeakyRelu_57","PartitionedCall/Const_30"],"attr":{"T":{"type":"DT_FLOAT"},"Tpaddings":{"type":"DT_INT32"}}},
          {"name":"PartitionedCall/transpose_52","op":"Transpose","input":["PartitionedCall/Add_24","PartitionedCall/transpose_52/perm"],"attr":{"T":{"type":"DT_FLOAT"},"Tperm":{"type":"DT_INT32"}}},
          {"name":"PartitionedCall/transpose_57","op":"Transpose","input":["PartitionedCall/Pad_7","PartitionedCall/transpose_57/perm"],"attr":{"T":{"type":"DT_FLOAT"},"Tperm":{"type":"DT_INT32"}}},
          {"name":"PartitionedCall/onnx_tf_prefix_LeakyRelu_55","op":"LeakyRelu","input":["PartitionedCall/transpose_52"],"attr":{"alpha":{"f":0.1},"T":{"type":"DT_FLOAT"}}},
          {"name":"PartitionedCall/depthwise_6","op":"DepthwiseConv2dNative","input":["PartitionedCall/transpose_57","PartitionedCall/Reshape_6"],"attr":{"strides":{"list":{"i":["1","2","2","1"]}},"dilations":{"list":{"i":["1","1","1","1"]}},"T":{"type":"DT_FLOAT"},"padding":{"s":"VkFMSUQ="},"data_format":{"s":"TkhXQw=="},"explicit_paddings":{"list":{}}}},
          {"name":"PartitionedCall/Add_26","op":"Add","input":["PartitionedCall/depthwise_6","unknown_38"],"attr":{"T":{"type":"DT_FLOAT"}}},
          {"name":"PartitionedCall/convolution_12","op":"Conv2D","input":["PartitionedCall/Add_26","PartitionedCall/split_12"],"device":"/device:CPU:0","attr":{"padding":{"s":"VkFMSUQ="},"T":{"type":"DT_FLOAT"},"dilations":{"list":{"i":["1","1","1","1"]}},"use_cudnn_on_gpu":{"b":true},"strides":{"list":{"i":["1","1","1","1"]}},"explicit_paddings":{"list":{}},"data_format":{"s":"TkhXQw=="}}},
          {"name":"PartitionedCall/Add_27","op":"Add","input":["PartitionedCall/convolution_12","unknown_40"],"attr":{"T":{"type":"DT_FLOAT"}}},
          {"name":"PartitionedCall/transpose_61","op":"Transpose","input":["PartitionedCall/Add_27","PartitionedCall/transpose_61/perm"],"attr":{"Tperm":{"type":"DT_INT32"},"T":{"type":"DT_FLOAT"}}},
          {"name":"PartitionedCall/onnx_tf_prefix_LeakyRelu_60","op":"LeakyRelu","input":["PartitionedCall/transpose_61"],"attr":{"alpha":{"f":0.1},"T":{"type":"DT_FLOAT"}}},
          {"name":"PartitionedCall/onnx_tf_prefix_Concat_61","op":"ConcatV2","input":["PartitionedCall/onnx_tf_prefix_LeakyRelu_55","PartitionedCall/onnx_tf_prefix_LeakyRelu_60","PartitionedCall/onnx_tf_prefix_Concat_61/axis"],"attr":{"N":{"i":"2"},"T":{"type":"DT_FLOAT"},"Tidx":{"type":"DT_INT32"}}},
          {"name":"PartitionedCall/onnx_tf_prefix_Reshape_63","op":"Reshape","input":["PartitionedCall/onnx_tf_prefix_Concat_61","PartitionedCall/add_28"],"attr":{"T":{"type":"DT_FLOAT"},"Tshape":{"type":"DT_INT64"}}},
          {"name":"PartitionedCall/onnx_tf_prefix_Transpose_64","op":"Transpose","input":["PartitionedCall/onnx_tf_prefix_Reshape_63","PartitionedCall/onnx_tf_prefix_Transpose_64/perm"],"attr":{"T":{"type":"DT_FLOAT"},"Tperm":{"type":"DT_INT32"}}},
          {"name":"PartitionedCall/onnx_tf_prefix_Reshape_66","op":"Reshape","input":["PartitionedCall/onnx_tf_prefix_Transpose_64","PartitionedCall/add_29"],"attr":{"Tshape":{"type":"DT_INT64"},"T":{"type":"DT_FLOAT"}}},
          {"name":"PartitionedCall/onnx_tf_prefix_Split_67","op":"SplitV","input":["PartitionedCall/onnx_tf_prefix_Reshape_66","PartitionedCall/Const_34","PartitionedCall/onnx_tf_prefix_Split_67/split_dim"],"attr":{"Tlen":{"type":"DT_INT32"},"T":{"type":"DT_FLOAT"},"num_split":{"i":"2"}}},
          {"name":"PartitionedCall/transpose_63","op":"Transpose","input":["PartitionedCall/onnx_tf_prefix_Split_67:1","PartitionedCall/transpose_63/perm"],"attr":{"Tperm":{"type":"DT_INT32"},"T":{"type":"DT_FLOAT"}}},
          {"name":"PartitionedCall/convolution_13","op":"Conv2D","input":["PartitionedCall/transpose_63","PartitionedCall/split_13"],"device":"/device:CPU:0","attr":{"explicit_paddings":{"list":{}},"padding":{"s":"VkFMSUQ="},"T":{"type":"DT_FLOAT"},"use_cudnn_on_gpu":{"b":true},"data_format":{"s":"TkhXQw=="},"dilations":{"list":{"i":["1","1","1","1"]}},"strides":{"list":{"i":["1","1","1","1"]}}}},
          {"name":"PartitionedCall/Add_30","op":"Add","input":["PartitionedCall/convolution_13","unknown_44"],"attr":{"T":{"type":"DT_FLOAT"}}},
          {"name":"PartitionedCall/transpose_64","op":"Transpose","input":["PartitionedCall/Add_30","PartitionedCall/transpose_64/perm"],"attr":{"Tperm":{"type":"DT_INT32"},"T":{"type":"DT_FLOAT"}}},
          {"name":"PartitionedCall/onnx_tf_prefix_LeakyRelu_69","op":"LeakyRelu","input":["PartitionedCall/transpose_64"],"attr":{"T":{"type":"DT_FLOAT"},"alpha":{"f":0.1}}},
          {"name":"PartitionedCall/Pad_8","op":"Pad","input":["PartitionedCall/onnx_tf_prefix_LeakyRelu_69","PartitionedCall/Const_36"],"attr":{"T":{"type":"DT_FLOAT"},"Tpaddings":{"type":"DT_INT32"}}},
          {"name":"PartitionedCall/transpose_66","op":"Transpose","input":["PartitionedCall/Pad_8","PartitionedCall/transpose_66/perm"],"attr":{"Tperm":{"type":"DT_INT32"},"T":{"type":"DT_FLOAT"}}},
          {"name":"PartitionedCall/depthwise_7","op":"DepthwiseConv2dNative","input":["PartitionedCall/transpose_66","PartitionedCall/Reshape_7"],"attr":{"explicit_paddings":{"list":{}},"data_format":{"s":"TkhXQw=="},"dilations":{"list":{"i":["1","1","1","1"]}},"strides":{"list":{"i":["1","1","1","1"]}},"padding":{"s":"VkFMSUQ="},"T":{"type":"DT_FLOAT"}}},
          {"name":"PartitionedCall/Add_31","op":"Add","input":["PartitionedCall/depthwise_7","unknown_46"],"attr":{"T":{"type":"DT_FLOAT"}}},
          {"name":"PartitionedCall/convolution_14","op":"Conv2D","input":["PartitionedCall/Add_31","PartitionedCall/split_14"],"device":"/device:CPU:0","attr":{"padding":{"s":"VkFMSUQ="},"use_cudnn_on_gpu":{"b":true},"explicit_paddings":{"list":{}},"dilations":{"list":{"i":["1","1","1","1"]}},"strides":{"list":{"i":["1","1","1","1"]}},"data_format":{"s":"TkhXQw=="},"T":{"type":"DT_FLOAT"}}},
          {"name":"PartitionedCall/Add_32","op":"Add","input":["PartitionedCall/convolution_14","unknown_48"],"attr":{"T":{"type":"DT_FLOAT"}}},
          {"name":"PartitionedCall/transpose_70","op":"Transpose","input":["PartitionedCall/Add_32","PartitionedCall/transpose_70/perm"],"attr":{"Tperm":{"type":"DT_INT32"},"T":{"type":"DT_FLOAT"}}},
          {"name":"PartitionedCall/onnx_tf_prefix_LeakyRelu_72","op":"LeakyRelu","input":["PartitionedCall/transpose_70"],"attr":{"T":{"type":"DT_FLOAT"},"alpha":{"f":0.1}}},
          {"name":"PartitionedCall/onnx_tf_prefix_Concat_73","op":"ConcatV2","input":["PartitionedCall/onnx_tf_prefix_Split_67","PartitionedCall/onnx_tf_prefix_LeakyRelu_72","PartitionedCall/onnx_tf_prefix_Concat_73/axis"],"attr":{"N":{"i":"2"},"T":{"type":"DT_FLOAT"},"Tidx":{"type":"DT_INT32"}}},
          {"name":"PartitionedCall/onnx_tf_prefix_Reshape_75","op":"Reshape","input":["PartitionedCall/onnx_tf_prefix_Concat_73","PartitionedCall/add_33"],"attr":{"Tshape":{"type":"DT_INT64"},"T":{"type":"DT_FLOAT"}}},
          {"name":"PartitionedCall/onnx_tf_prefix_Transpose_76","op":"Transpose","input":["PartitionedCall/onnx_tf_prefix_Reshape_75","PartitionedCall/onnx_tf_prefix_Transpose_76/perm"],"attr":{"T":{"type":"DT_FLOAT"},"Tperm":{"type":"DT_INT32"}}},
          {"name":"PartitionedCall/onnx_tf_prefix_Reshape_78","op":"Reshape","input":["PartitionedCall/onnx_tf_prefix_Transpose_76","PartitionedCall/add_34"],"attr":{"T":{"type":"DT_FLOAT"},"Tshape":{"type":"DT_INT64"}}},
          {"name":"PartitionedCall/onnx_tf_prefix_Split_79","op":"SplitV","input":["PartitionedCall/onnx_tf_prefix_Reshape_78","PartitionedCall/Const_40","PartitionedCall/onnx_tf_prefix_Split_79/split_dim"],"attr":{"T":{"type":"DT_FLOAT"},"Tlen":{"type":"DT_INT32"},"num_split":{"i":"2"}}},
          {"name":"PartitionedCall/transpose_72","op":"Transpose","input":["PartitionedCall/onnx_tf_prefix_Split_79:1","PartitionedCall/transpose_72/perm"],"attr":{"Tperm":{"type":"DT_INT32"},"T":{"type":"DT_FLOAT"}}},
          {"name":"PartitionedCall/convolution_15","op":"Conv2D","input":["PartitionedCall/transpose_72","PartitionedCall/split_15"],"device":"/device:CPU:0","attr":{"dilations":{"list":{"i":["1","1","1","1"]}},"data_format":{"s":"TkhXQw=="},"strides":{"list":{"i":["1","1","1","1"]}},"padding":{"s":"VkFMSUQ="},"explicit_paddings":{"list":{}},"use_cudnn_on_gpu":{"b":true},"T":{"type":"DT_FLOAT"}}},
          {"name":"PartitionedCall/Add_35","op":"Add","input":["PartitionedCall/convolution_15","unknown_50"],"attr":{"T":{"type":"DT_FLOAT"}}},
          {"name":"PartitionedCall/transpose_73","op":"Transpose","input":["PartitionedCall/Add_35","PartitionedCall/transpose_73/perm"],"attr":{"Tperm":{"type":"DT_INT32"},"T":{"type":"DT_FLOAT"}}},
          {"name":"PartitionedCall/onnx_tf_prefix_LeakyRelu_81","op":"LeakyRelu","input":["PartitionedCall/transpose_73"],"attr":{"alpha":{"f":0.1},"T":{"type":"DT_FLOAT"}}},
          {"name":"PartitionedCall/Pad_9","op":"Pad","input":["PartitionedCall/onnx_tf_prefix_LeakyRelu_81","PartitionedCall/Const_42"],"attr":{"Tpaddings":{"type":"DT_INT32"},"T":{"type":"DT_FLOAT"}}},
          {"name":"PartitionedCall/transpose_75","op":"Transpose","input":["PartitionedCall/Pad_9","PartitionedCall/transpose_75/perm"],"attr":{"Tperm":{"type":"DT_INT32"},"T":{"type":"DT_FLOAT"}}},
          {"name":"PartitionedCall/depthwise_8","op":"DepthwiseConv2dNative","input":["PartitionedCall/transpose_75","PartitionedCall/Reshape_8"],"attr":{"strides":{"list":{"i":["1","1","1","1"]}},"explicit_paddings":{"list":{}},"padding":{"s":"VkFMSUQ="},"T":{"type":"DT_FLOAT"},"dilations":{"list":{"i":["1","1","1","1"]}},"data_format":{"s":"TkhXQw=="}}},
          {"name":"PartitionedCall/Add_36","op":"Add","input":["PartitionedCall/depthwise_8","unknown_52"],"attr":{"T":{"type":"DT_FLOAT"}}},
          {"name":"PartitionedCall/convolution_16","op":"Conv2D","input":["PartitionedCall/Add_36","PartitionedCall/split_16"],"device":"/device:CPU:0","attr":{"padding":{"s":"VkFMSUQ="},"explicit_paddings":{"list":{}},"dilations":{"list":{"i":["1","1","1","1"]}},"data_format":{"s":"TkhXQw=="},"strides":{"list":{"i":["1","1","1","1"]}},"T":{"type":"DT_FLOAT"},"use_cudnn_on_gpu":{"b":true}}},
          {"name":"PartitionedCall/Add_37","op":"Add","input":["PartitionedCall/convolution_16","unknown_54"],"attr":{"T":{"type":"DT_FLOAT"}}},
          {"name":"PartitionedCall/transpose_79","op":"Transpose","input":["PartitionedCall/Add_37","PartitionedCall/transpose_79/perm"],"attr":{"Tperm":{"type":"DT_INT32"},"T":{"type":"DT_FLOAT"}}},
          {"name":"PartitionedCall/onnx_tf_prefix_LeakyRelu_84","op":"LeakyRelu","input":["PartitionedCall/transpose_79"],"attr":{"alpha":{"f":0.1},"T":{"type":"DT_FLOAT"}}},
          {"name":"PartitionedCall/onnx_tf_prefix_Concat_85","op":"ConcatV2","input":["PartitionedCall/onnx_tf_prefix_Split_79","PartitionedCall/onnx_tf_prefix_LeakyRelu_84","PartitionedCall/onnx_tf_prefix_Concat_85/axis"],"attr":{"T":{"type":"DT_FLOAT"},"Tidx":{"type":"DT_INT32"},"N":{"i":"2"}}},
          {"name":"PartitionedCall/onnx_tf_prefix_Reshape_87","op":"Reshape","input":["PartitionedCall/onnx_tf_prefix_Concat_85","PartitionedCall/add_38"],"attr":{"T":{"type":"DT_FLOAT"},"Tshape":{"type":"DT_INT64"}}},
          {"name":"PartitionedCall/onnx_tf_prefix_Transpose_88","op":"Transpose","input":["PartitionedCall/onnx_tf_prefix_Reshape_87","PartitionedCall/onnx_tf_prefix_Transpose_88/perm"],"attr":{"T":{"type":"DT_FLOAT"},"Tperm":{"type":"DT_INT32"}}},
          {"name":"PartitionedCall/onnx_tf_prefix_Reshape_90","op":"Reshape","input":["PartitionedCall/onnx_tf_prefix_Transpose_88","PartitionedCall/add_39"],"attr":{"T":{"type":"DT_FLOAT"},"Tshape":{"type":"DT_INT64"}}},
          {"name":"PartitionedCall/onnx_tf_prefix_Split_91","op":"SplitV","input":["PartitionedCall/onnx_tf_prefix_Reshape_90","PartitionedCall/Const_46","PartitionedCall/onnx_tf_prefix_Split_91/split_dim"],"attr":{"num_split":{"i":"2"},"Tlen":{"type":"DT_INT32"},"T":{"type":"DT_FLOAT"}}},
          {"name":"PartitionedCall/transpose_81","op":"Transpose","input":["PartitionedCall/onnx_tf_prefix_Split_91:1","PartitionedCall/transpose_81/perm"],"attr":{"Tperm":{"type":"DT_INT32"},"T":{"type":"DT_FLOAT"}}},
          {"name":"PartitionedCall/convolution_17","op":"Conv2D","input":["PartitionedCall/transpose_81","PartitionedCall/split_17"],"device":"/device:CPU:0","attr":{"use_cudnn_on_gpu":{"b":true},"padding":{"s":"VkFMSUQ="},"dilations":{"list":{"i":["1","1","1","1"]}},"strides":{"list":{"i":["1","1","1","1"]}},"explicit_paddings":{"list":{}},"T":{"type":"DT_FLOAT"},"data_format":{"s":"TkhXQw=="}}},
          {"name":"PartitionedCall/Add_40","op":"Add","input":["PartitionedCall/convolution_17","unknown_56"],"attr":{"T":{"type":"DT_FLOAT"}}},
          {"name":"PartitionedCall/transpose_82","op":"Transpose","input":["PartitionedCall/Add_40","PartitionedCall/transpose_82/perm"],"attr":{"Tperm":{"type":"DT_INT32"},"T":{"type":"DT_FLOAT"}}},
          {"name":"PartitionedCall/onnx_tf_prefix_LeakyRelu_93","op":"LeakyRelu","input":["PartitionedCall/transpose_82"],"attr":{"alpha":{"f":0.1},"T":{"type":"DT_FLOAT"}}},
          {"name":"PartitionedCall/Pad_10","op":"Pad","input":["PartitionedCall/onnx_tf_prefix_LeakyRelu_93","PartitionedCall/Const_48"],"attr":{"Tpaddings":{"type":"DT_INT32"},"T":{"type":"DT_FLOAT"}}},
          {"name":"PartitionedCall/transpose_84","op":"Transpose","input":["PartitionedCall/Pad_10","PartitionedCall/transpose_84/perm"],"attr":{"Tperm":{"type":"DT_INT32"},"T":{"type":"DT_FLOAT"}}},
…
          {"name":"PartitionedCall/transpose_213","op":"Transpose","input":["PartitionedCall/Add_101","PartitionedCall/transpose_213/perm"],"attr":{"T":{"type":"DT_FLOAT"},"Tperm":{"type":"DT_INT32"}}},
          {"name":"PartitionedCall/onnx_tf_prefix_LeakyRelu_329","op":"LeakyRelu","input":["PartitionedCall/transpose_225"],"attr":{"T":{"type":"DT_FLOAT"},"alpha":{"f":0.1}}},
          {"name":"Identity","op":"Identity","input":["PartitionedCall/onnx_tf_prefix_Transpose_301"],"attr":{"T":{"type":"DT_FLOAT"}}},
          {"name":"PartitionedCall/onnx_tf_prefix_Split_314","op":"SplitV","input":["PartitionedCall/transpose_213","PartitionedCall/Const_117","PartitionedCall/onnx_tf_prefix_Split_314/split_dim"],"attr":{"num_split":{"i":"2"},"Tlen":{"type":"DT_INT32"},"T":{"type":"DT_FLOAT"}}},
          {"name":"PartitionedCall/transpose_227","op":"Transpose","input":["PartitionedCall/onnx_tf_prefix_LeakyRelu_329","PartitionedCall/transpose_227/perm"],"attr":{"Tperm":{"type":"DT_INT32"},"T":{"type":"DT_FLOAT"}}},
          {"name":"PartitionedCall/onnx_tf_prefix_Sigmoid_315","op":"Sigmoid","input":["PartitionedCall/onnx_tf_prefix_Split_314"],"attr":{"T":{"type":"DT_FLOAT"}}},
          {"name":"PartitionedCall/onnx_tf_prefix_Reshape_320","op":"Reshape","input":["PartitionedCall/onnx_tf_prefix_Split_314:1","PartitionedCall/add_103"],"attr":{"Tshape":{"type":"DT_INT64"},"T":{"type":"DT_FLOAT"}}},
          {"name":"PartitionedCall/convolution_47","op":"Conv2D","input":["PartitionedCall/transpose_227","PartitionedCall/split_47"],"device":"/device:CPU:0","attr":{"T":{"type":"DT_FLOAT"},"padding":{"s":"VkFMSUQ="},"use_cudnn_on_gpu":{"b":true},"data_format":{"s":"TkhXQw=="},"dilations":{"list":{"i":["1","1","1","1"]}},"explicit_paddings":{"list":{}},"strides":{"list":{"i":["1","1","1","1"]}}}},
          {"name":"PartitionedCall/onnx_tf_prefix_Reshape_317","op":"Reshape","input":["PartitionedCall/onnx_tf_prefix_Sigmoid_315","PartitionedCall/add_102"],"attr":{"T":{"type":"DT_FLOAT"},"Tshape":{"type":"DT_INT64"}}},
          {"name":"PartitionedCall/onnx_tf_prefix_Transpose_321","op":"Transpose","input":["PartitionedCall/onnx_tf_prefix_Reshape_320","PartitionedCall/onnx_tf_prefix_Transpose_321/perm"],"attr":{"T":{"type":"DT_FLOAT"},"Tperm":{"type":"DT_INT32"}}},
          {"name":"PartitionedCall/Add_108","op":"Add","input":["PartitionedCall/convolution_47","unknown_156"],"attr":{"T":{"type":"DT_FLOAT"}}},
          {"name":"PartitionedCall/onnx_tf_prefix_Transpose_318","op":"Transpose","input":["PartitionedCall/onnx_tf_prefix_Reshape_317","PartitionedCall/onnx_tf_prefix_Transpose_318/perm"],"attr":{"T":{"type":"DT_FLOAT"},"Tperm":{"type":"DT_INT32"}}},
          {"name":"Identity_4","op":"Identity","input":["PartitionedCall/onnx_tf_prefix_Transpose_321"],"attr":{"T":{"type":"DT_FLOAT"}}},
          {"name":"PartitionedCall/transpose_228","op":"Transpose","input":["PartitionedCall/Add_108","PartitionedCall/transpose_228/perm"],"attr":{"T":{"type":"DT_FLOAT"},"Tperm":{"type":"DT_INT32"}}},
          {"name":"Identity_1","op":"Identity","input":["PartitionedCall/onnx_tf_prefix_Transpose_318"],"attr":{"T":{"type":"DT_FLOAT"}}},
          {"name":"PartitionedCall/onnx_tf_prefix_Split_331","op":"SplitV","input":["PartitionedCall/transpose_228","PartitionedCall/Const_125","PartitionedCall/onnx_tf_prefix_Split_331/split_dim"],"attr":{"num_split":{"i":"2"},"T":{"type":"DT_FLOAT"},"Tlen":{"type":"DT_INT32"}}},
          {"name":"PartitionedCall/onnx_tf_prefix_Sigmoid_332","op":"Sigmoid","input":["PartitionedCall/onnx_tf_prefix_Split_331"],"attr":{"T":{"type":"DT_FLOAT"}}},
          {"name":"PartitionedCall/onnx_tf_prefix_Reshape_337","op":"Reshape","input":["PartitionedCall/onnx_tf_prefix_Split_331:1","PartitionedCall/add_110"],"attr":{"Tshape":{"type":"DT_INT64"},"T":{"type":"DT_FLOAT"}}},
          {"name":"PartitionedCall/onnx_tf_prefix_Reshape_334","op":"Reshape","input":["PartitionedCall/onnx_tf_prefix_Sigmoid_332","PartitionedCall/add_109"],"attr":{"Tshape":{"type":"DT_INT64"},"T":{"type":"DT_FLOAT"}}},
          {"name":"PartitionedCall/onnx_tf_prefix_Transpose_338","op":"Transpose","input":["PartitionedCall/onnx_tf_prefix_Reshape_337","PartitionedCall/onnx_tf_prefix_Transpose_338/perm"],"attr":{"Tperm":{"type":"DT_INT32"},"T":{"type":"DT_FLOAT"}}},
          {"name":"PartitionedCall/onnx_tf_prefix_Transpose_335","op":"Transpose","input":["PartitionedCall/onnx_tf_prefix_Reshape_334","PartitionedCall/onnx_tf_prefix_Transpose_335/perm"],"attr":{"Tperm":{"type":"DT_INT32"},"T":{"type":"DT_FLOAT"}}},
          {"name":"Identity_5","op":"Identity","input":["PartitionedCall/onnx_tf_prefix_Transpose_338"],"attr":{"T":{"type":"DT_FLOAT"}}},
          {"name":"Identity_2","op":"Identity","input":["PartitionedCall/onnx_tf_prefix_Transpose_335"],"attr":{"T":{"type":"DT_FLOAT"}}}
      ],
      "library": {},
      "versions":
      {
          "producer": 561
      }
  },
  "weightsManifest":
  [
      {
          "paths": ["nanodet.bin"],
          "weights": [{"name":"PartitionedCall/Where_32","shape":[0,1],"dtype":"int32"},{"name":"PartitionedCall/Cast_40","shape":[1],"dtype":"int32"},{"name":"PartitionedCall/GatherV2_32","shape":[0],"dtype":"int32"},{"name":"PartitionedCall/zeros_32","shape":[],"dtype":"int32"},{"name":"PartitionedCall/onnx_tf_prefix_Transpose_301/perm","shape":[3],"dtype":"int32"},{"name":"PartitionedCall/Where_34","shape":[0,1],"dtype":"int32"},{"name":"PartitionedCall/Cast_42","shape":[1],"dtype":"int32"},{"name":"PartitionedCall/GatherV2_34","shape":[0],"dtype":"int32"},{"name":"PartitionedCall/zeros_34","shape":[],"dtype":"int32"},{"name":"PartitionedCall/onnx_tf_prefix_Transpose_318/perm","shape":[3],"dtype":"int32"},{"name":"unknown_135","shape":[3],"dtype":"int32"},{"name":"PartitionedCall/Where_36","shape":[0,1],"dtype":"int32"},{"name":"PartitionedCall/Cast_44","shape":[1],"dtype":"int32"},{"name":"PartitionedCall/GatherV2_36","shape":[0],"dtype":"int32"},{"name":"PartitionedCall/zeros_36","shape":[],"dtype":"int32"},{"name":"PartitionedCall/onnx_tf_prefix_Transpose_335/perm","shape":[3],"dtype":"int32"},{"name":"PartitionedCall/Const_104","shape":[4,2],"dtype":"int32"},{"name":"PartitionedCall/transpose_185/perm","shape":[4],"dtype":"int32"},{"name":"PartitionedCall/Reshape_19","shape":[3,3,96,1],"dtype":"float32","quantization":{"dtype":"float16","original_dtype":"float32"}},{"name":"unknown_126","shape":[96],"dtype":"float32","quantization":{"dtype":"float16","original_dtype":"float32"}},{"name":"PartitionedCall/transpose_186/perm","shape":[4],"dtype":"int32"},{"name":"PartitionedCall/transpose_188/perm","shape":[4],"dtype":"int32"},{"name":"PartitionedCall/split_39","shape":[1,1,96,96],"dtype":"float32","quantization":{"dtype":"float16","original_dtype":"float32"}},{"name":"unknown_128","shape":[96],"dtype":"float32","quantization":{"dtype":"float16","original_dtype":"float32"}},{"name":"PartitionedCall/transpose_189/perm","shape":[4],"dtype":"int32"},{"name":"PartitionedCall/Const_106","shape":[4,2],"dtype":"int32"},{"name":"PartitionedCall/transpose_191/perm","shape":[4],"dtype":"int32"},{"name":"PartitionedCall/Reshape_20","shape":[3,3,96,1],"dtype":"float32","quantization":{"dtype":"float16","original_dtype":"float32"}},{"name":"unknown_130","shape":[96],"dtype":"float32","quantization":{"dtype":"float16","original_dtype":"float32"}},{"name":"PartitionedCall/transpose_192/perm","shape":[4],"dtype":"int32"},{"name":"PartitionedCall/transpose_194/perm","shape":[4],"dtype":"int32"},{"name":"PartitionedCall/split_40","shape":[1,1,96,96],"dtype":"float32","quantization":{"dtype":"float16","original_dtype":"float32"}},{"name":"unknown_132","shape":[96],"dtype":"float32","quantization":{"dtype":"float16","original_dtype":"float32"}},{"name":"PartitionedCall/transpose_195/perm","shape":[4],"dtype":"int32"},{"name":"PartitionedCall/transpose_197/perm","shape":[4],"dtype":"int32"},{"name":"PartitionedCall/split_41","shape":[1,1,96,112],"dtype":"float32","quantization":{"dtype":"float16","original_dtype":"float32"}},{"name":"unknown_134","shape":[112],"dtype":"float32","quantization":{"dtype":"float16","original_dtype":"float32"}},{"name":"PartitionedCall/transpose_198/perm","shape":[4],"dtype":"int32"},{"name":"PartitionedCall/Const_109","shape":[2],"dtype":"int32"},{"name":"PartitionedCall/onnx_tf_prefix_Split_297/split_dim","shape":[],"dtype":"int32"},{"name":"PartitionedCall/Where_33","shape":[0,1],"dtype":"int32"},{"name":"PartitionedCall/Cast_41","shape":[1],"dtype":"int32"},{"name":"PartitionedCall/GatherV2_33","shape":[0],"dtype":"int32"},{"name":"PartitionedCall/zeros_33","shape":[],"dtype":"int32"},{"name":"PartitionedCall/onnx_tf_prefix_Transpose_304/perm","shape":[3],"dtype":"int32"},{"name":"PartitionedCall/Const_112","shape":[4,2],"dtype":"int32"},{"name":"PartitionedCall/transpose_200/perm","shape":[4],"dtype":"int32"},{"name":"PartitionedCall/Reshape_21","shape":[3,3,96,1],"dtype":"float32","quantization":{"dtype":"float16","original_dtype":"float32"}},{"name":"unknown_138","shape":[96],"dtype":"float32","quantization":{"dtype":"float16","original_dtype":"float32"}},{"name":"PartitionedCall/transpose_201/perm","shape":[4],"dtype":"int32"},{"name":"PartitionedCall/transpose_203/perm","shape":[4],"dtype":"int32"},{"name":"PartitionedCall/split_42","shape":[1,1,96,96],"dtype":"float32","quantization":{"dtype":"float16","original_dtype":"float32"}},{"name":"unknown_140","shape":[96],"dtype":"float32","quantization":{"dtype":"float16","original_dtype":"float32"}},{"name":"PartitionedCall/transpose_204/perm","shape":[4],"dtype":"int32"},{"name":"PartitionedCall/Const_114","shape":[4,2],"dtype":"int32"},{"name":"PartitionedCall/transpose_206/perm","shape":[4],"dtype":"int32"},{"name":"PartitionedCall/Reshape_22","shape":[3,3,96,1],"dtype":"float32","quantization":{"dtype":"float16","original_dtype":"float32"}},{"name":"unknown_142","shape":[96],"dtype":"float32","quantization":{"dtype":"float16","original_dtype":"float32"}},{"name":"PartitionedCall/transpose_207/perm","shape":[4],"dtype":"int32"},{"name":"PartitionedCall/transpose_209/perm","shape":[4],"dtype":"int32"},{"name":"PartitionedCall/split_43","shape":[1,1,96,96],"dtype":"float32","quantization":{"dtype":"float16","original_dtype":"float32"}},{"name":"unknown_144","shape":[96],"dtype":"float32","quantization":{"dtype":"float16","original_dtype":"float32"}},{"name":"PartitionedCall/transpose_210/perm","shape":[4],"dtype":"int32"},{"name":"PartitionedCall/transpose_212/perm","shape":[4],"dtype":"int32"},{"name":"PartitionedCall/split_44","shape":[1,1,96,112],"dtype":"float32","quantization":{"dtype":"float16","original_dtype":"float32"}},{"name":"unknown_146","shape":[112],"dtype":"float32","quantization":{"dtype":"float16","original_dtype":"float32"}},{"name":"PartitionedCall/transpose_213/perm","shape":[4],"dtype":"int32"},{"name":"PartitionedCall/Const_117","shape":[2],"dtype":"int32"},{"name":"PartitionedCall/onnx_tf_prefix_Split_314/split_dim","shape":[],"dtype":"int32"},{"name":"PartitionedCall/Where_35","shape":[0,1],"dtype":"int32"},{"name":"PartitionedCall/Cast_43","shape":[1],"dtype":"int32"},{"name":"PartitionedCall/GatherV2_35","shape":[0],"dtype":"int32"},{"name":"PartitionedCall/zeros_35","shape":[],"dtype":"int32"},{"name":"PartitionedCall/onnx_tf_prefix_Transpose_321/perm","shape":[3],"dtype":"int32"},{"name":"PartitionedCall/transpose_175/perm","shape":[4],"dtype":"int32"},{"name":"PartitionedCall/transpose_168/perm","shape":[4],"dtype":"int32"},{"name":"PartitionedCall/split_36","shape":[1,1,116,96],"dtype":"float32","quantization":{"dtype":"float16","original_dtype":"float32"}},{"name":"unknown_116","shape":[96],"dtype":"float32","quantization":{"dtype":"float16","original_dtype":"float32"}},{"name":"PartitionedCall/transpose_169/perm","shape":[4],"dtype":"int32"},{"name":"PartitionedCall/transpose_171/perm","shape":[4],"dtype":"int32"},{"name":"PartitionedCall/split_37","shape":[1,1,232,96],"dtype":"float32","quantization":{"dtype":"float16","original_dtype":"float32"}},{"name":"unknown_118","shape":[96],"dtype":"float32","quantization":{"dtype":"float16","original_dtype":"float32"}},{"name":"PartitionedCall/transpose_172/perm","shape":[4],"dtype":"int32"},{"name":"PartitionedCall/Const_76","shape":[4,2],"dtype":"int32"},{"name":"PartitionedCall/transpose_126/perm","shape":[4],"dtype":"int32"},{"name":"PartitionedCall/Reshape_14","shape":[3,3,232,1],"dtype":"float32","quantization":{"dtype":"float16","original_dtype":"float32"}},{"name":"unknown_86","shape":[232],"dtype":"float32","quantization":{"dtype":"float16","original_dtype":"float32"}},{"name":"PartitionedCall/split_27","shape":[1,1,232,232],"dtype":"float32","quantization":{"dtype":"float16","original_dtype":"float32"}},{"name":"unknown_88","shape":[232],"dtype":"float32","quantization":{"dtype":"float16","original_dtype":"float32"}},{"name":"PartitionedCall/transpose_130/perm","shape":[4],"dtype":"int32"},{"name":"PartitionedCall/Const_27","shape":[4,2],"dtype":"int32"},{"name":"PartitionedCall/transpose_48/perm","shape":[4],"dtype":"int32"},{"name":"PartitionedCall/Reshape_5","shape":[3,3,116,1],"dtype":"float32","quantization":{"dtype":"float16","original_dtype":"float32"}},{"name":"unknown_32","shape":[116],"dtype":"float32","quantization":{"dtype":"float16","original_dtype":"float32"}},{"name":"PartitionedCall/split_10","shape":[1,1,116,116],"dtype":"float32","quantization":{"dtype":"float16","original_dtype":"float32"}},{"name":"unknown_34","shape":[116],"dtype":"float32","quantization":{"dtype":"float16","original_dtype":"float32"}},{"name":"PartitionedCall/transpose_52/perm","shape":[4],"dtype":"int32"},{"name":"PartitionedCall/transpose_4/perm","shape":[4],"dtype":"int32"},{"name":"PartitionedCall/Const_2","shape":[4,2],"dtype":"int32"},{"name":"PartitionedCall/transpose_6/perm","shape":[4],"dtype":"int32"},{"name":"PartitionedCall/Reshape","shape":[3,3,24,1],"dtype":"float32","quantization":{"dtype":"float16","original_dtype":"float32"}},{"name":"unknown_2","shape":[24],"dtype":"float32","quantization":{"dtype":"float16","original_dtype":"float32"}},{"name":"PartitionedCall/split_1","shape":[1,1,24,58],"dtype":"float32","quantization":{"dtype":"float16","original_dtype":"float32"}},{"name":"unknown_4","shape":[58],"dtype":"float32","quantization":{"dtype":"float16","original_dtype":"float32"}},{"name":"PartitionedCall/transpose_10/perm","shape":[4],"dtype":"int32"},{"name":"PartitionedCall/Const","shape":[4,2],"dtype":"int32"},{"name":"PartitionedCall/transpose_1/perm","shape":[4],"dtype":"int32"},{"name":"PartitionedCall/split","shape":[3,3,3,24],"dtype":"float32","quantization":{"dtype":"float16","original_dtype":"float32"}},{"name":"unknown_0","shape":[24],"dtype":"float32","quantization":{"dtype":"float16","original_dtype":"float32"}},{"name":"PartitionedCall/transpose_2/perm","shape":[4],"dtype":"int32"},{"name":"PartitionedCall/PadV2/paddings","shape":[4,2],"dtype":"int32"},{"name":"PartitionedCall/PadV2/constant_values","shape":[],"dtype":"float32","quantization":{"dtype":"float16","original_dtype":"float32"}},{"name":"PartitionedCall/transpose_3/perm","shape":[4],"dtype":"int32"},{"name":"PartitionedCall/split_2","shape":[1,1,24,58],"dtype":"float32","quantization":{"dtype":"float16","original_dtype":"float32"}},{"name":"unknown_6","shape":[58],"dtype":"float32","quantization":{"dtype":"float16","original_dtype":"float32"}},{"name":"PartitionedCall/transpose_13/perm","shape":[4],"dtype":"int32"},{"name":"PartitionedCall/Const_5","shape":[4,2],"dtype":"int32"},{"name":"PartitionedCall/transpose_15/perm","shape":[4],"dtype":"int32"},{"name":"PartitionedCall/Reshape_1","shape":[3,3,58,1],"dtype":"float32","quantization":{"dtype":"float16","original_dtype":"float32"}},{"name":"unknown_8","shape":[58],"dtype":"float32","quantization":{"dtype":"float16","original_dtype":"float32"}},{"name":"PartitionedCall/split_3","shape":[1,1,58,58],"dtype":"float32","quantization":{"dtype":"float16","original_dtype":"float32"}},{"name":"unknown_10","shape":[58],"dtype":"float32","quantization":{"dtype":"float16","original_dtype":"float32"}},{"name":"PartitionedCall/transpose_19/perm","shape":[4],"dtype":"int32"},{"name":"PartitionedCall/onnx_tf_prefix_Concat_11/axis","shape":[],"dtype":"int32"},{"name":"PartitionedCall/Where","shape":[0,1],"dtype":"int32"},{"name":"PartitionedCall/Cast","shape":[1],"dtype":"int32"},{"name":"PartitionedCall/GatherV2","shape":[0],"dtype":"int32"},{"name":"PartitionedCall/zeros","shape":[],"dtype":"int32"},{"name":"PartitionedCall/onnx_tf_prefix_Transpose_14/perm","shape":[5],"dtype":"int32"},{"name":"PartitionedCall/Where_1","shape":[0,1],"dtype":"int32"},{"name":"PartitionedCall/Cast_1","shape":[1],"dtype":"int32"},{"name":"PartitionedCall/GatherV2_1","shape":[0],"dtype":"int32"},{"name":"PartitionedCall/zeros_1","shape":[],"dtype":"int32"},{"name":"PartitionedCall/Const_9","shape":[2],"dtype":"int32"},{"name":"PartitionedCall/onnx_tf_prefix_Split_17/split_dim","shape":[],"dtype":"int32"},{"name":"PartitionedCall/transpose_21/perm","shape":[4],"dtype":"int32"},{"name":"PartitionedCall/split_4","shape":[1,1,58,58],"dtype":"float32","quantization":{"dtype":"float16","original_dtype":"float32"}},{"name":"unknown_14","shape":[58],"dtype":"float32","quantization":{"dtype":"float16","original_dtype":"float32"}},{"name":"PartitionedCall/transpose_22/perm","shape":[4],"dtype":"int32"},{"name":"PartitionedCall/Const_11","shape":[4,2],"dtype":"int32"},{"name":"PartitionedCall/transpose_24/perm","shape":[4],"dtype":"int32"},{"name":"PartitionedCall/Reshape_2","shape":[3,3,58,1],"dtype":"float32","quantization":{"dtype":"float16","original_dtype":"float32"}},{"name":"unknown_16","shape":[58],"dtype":"float32","quantization":{"dtype":"float16","original_dtype":"float32"}},{"name":"PartitionedCall/split_5","shape":[1,1,58,58],"dtype":"float32","quantization":{"dtype":"float16","original_dtype":"float32"}},{"name":"unknown_18","shape":[58],"dtype":"float32","quantization":{"dtype":"float16","original_dtype":"float32"}},{"name":"PartitionedCall/transpose_28/perm","shape":[4],"dtype":"int32"},{"name":"PartitionedCall/onnx_tf_prefix_Concat_23/axis","shape":[],"dtype":"int32"},{"name":"PartitionedCall/Where_2","shape":[0,1],"dtype":"int32"},{"name":"PartitionedCall/Cast_2","shape":[1],"dtype":"int32"},{"name":"PartitionedCall/GatherV2_2","shape":[0],"dtype":"int32"},{"name":"PartitionedCall/zeros_2","shape":[],"dtype":"int32"},{"name":"PartitionedCall/onnx_tf_prefix_Transpose_26/perm","shape":[5],"dtype":"int32"},{"name":"PartitionedCall/Where_3","shape":[0,1],"dtype":"int32"},{"name":"PartitionedCall/Cast_3","shape":[1],"dtype":"int32"},{"name":"PartitionedCall/GatherV2_3","shape":[0],"dtype":"int32"},{"name":"PartitionedCall/zeros_3","shape":[],"dtype":"int32"},{"name":"PartitionedCall/Const_15","shape":[2],"dtype":"int32"},{"name":"PartitionedCall/onnx_tf_prefix_Split_29/split_dim","shape":[],"dtype":"int32"},{"name":"PartitionedCall/transpose_30/perm","shape":[4],"dtype":"int32"},{"name":"PartitionedCall/split_6","shape":[1,1,58,58],"dtype":"float32","quantization":{"dtype":"float16","original_dtype":"float32"}},{"name":"unknown_20","shape":[58],"dtype":"float32","quantization":{"dtype":"float16","original_dtype":"float32"}},{"name":"PartitionedCall/transpose_31/perm","shape":[4],"dtype":"int32"},{"name":"PartitionedCall/Const_17","shape":[4,2],"dtype":"int32"},{"name":"PartitionedCall/transpose_33/perm","shape":[4],"dtype":"int32"},{"name":"PartitionedCall/Reshape_3","shape":[3,3,58,1],"dtype":"float32","quantization":{"dtype":"float16","original_dtype":"float32"}},{"name":"unknown_22","shape":[58],"dtype":"float32","quantization":{"dtype":"float16","original_dtype":"float32"}},{"name":"PartitionedCall/split_7","shape":[1,1,58,58],"dtype":"float32","quantization":{"dtype":"float16","original_dtype":"float32"}},{"name":"unknown_24","shape":[58],"dtype":"float32","quantization":{"dtype":"float16","original_dtype":"float32"}},{"name":"PartitionedCall/transpose_37/perm","shape":[4],"dtype":"int32"},{"name":"PartitionedCall/onnx_tf_prefix_Concat_35/axis","shape":[],"dtype":"int32"},{"name":"PartitionedCall/Where_4","shape":[0,1],"dtype":"int32"},{"name":"PartitionedCall/Cast_4","shape":[1],"dtype":"int32"},{"name":"PartitionedCall/GatherV2_4","shape":[0],"dtype":"int32"},{"name":"PartitionedCall/zeros_4","shape":[],"dtype":"int32"},{"name":"PartitionedCall/onnx_tf_prefix_Transpose_38/perm","shape":[5],"dtype":"int32"},{"name":"PartitionedCall/Where_5","shape":[0,1],"dtype":"int32"},{"name":"PartitionedCall/Cast_5","shape":[1],"dtype":"int32"},{"name":"PartitionedCall/GatherV2_5","shape":[0],"dtype":"int32"},{"name":"PartitionedCall/zeros_5","shape":[],"dtype":"int32"},{"name":"PartitionedCall/Const_21","shape":[2],"dtype":"int32"},{"name":"PartitionedCall/onnx_tf_prefix_Split_41/split_dim","shape":[],"dtype":"int32"},{"name":"PartitionedCall/transpose_39/perm","shape":[4],"dtype":"int32"},{"name":"PartitionedCall/split_8","shape":[1,1,58,58],"dtype":"float32","quantization":{"dtype":"float16","original_dtype":"float32"}},{"name":"unknown_26","shape":[58],"dtype":"float32","quantization":{"dtype":"float16","original_dtype":"float32"}},{"name":"PartitionedCall/transpose_40/perm","shape":[4],"dtype":"int32"},{"name":"PartitionedCall/Const_23","shape":[4,2],"dtype":"int32"},{"name":"PartitionedCall/transpose_42/perm","shape":[4],"dtype":"int32"},{"name":"PartitionedCall/Reshape_4","shape":[3,3,58,1],"dtype":"float32","quantization":{"dtype":"float16","original_dtype":"float32"}},{"name":"unknown_28","shape":[58],"dtype":"float32","quantization":{"dtype":"float16","original_dtype":"float32"}},{"name":"PartitionedCall/split_9","shape":[1,1,58,58],"dtype":"float32","quantization":{"dtype":"float16","original_dtype":"float32"}},{"name":"unknown_30","shape":[58],"dtype":"float32","quantization":{"dtype":"float16","original_dtype":"float32"}},{"name":"PartitionedCall/transpose_46/perm","shape":[4],"dtype":"int32"},{"name":"PartitionedCall/onnx_tf_prefix_Concat_47/axis","shape":[],"dtype":"int32"},{"name":"unknown_11","shape":[5],"dtype":"int32"},{"name":"PartitionedCall/Where_6","shape":[0,1],"dtype":"int32"},{"name":"PartitionedCall/Cast_6","shape":[1],"dtype":"int32"},{"name":"PartitionedCall/GatherV2_6","shape":[0],"dtype":"int32"},{"name":"PartitionedCall/zeros_6","shape":[],"dtype":"int32"},{"name":"PartitionedCall/onnx_tf_prefix_Transpose_50/perm","shape":[5],"dtype":"int32"},{"name":"unknown_12","shape":[4],"dtype":"int32"},{"name":"PartitionedCall/Where_7","shape":[0,1],"dtype":"int32"},{"name":"PartitionedCall/Cast_7","shape":[1],"dtype":"int32"},{"name":"PartitionedCall/GatherV2_7","shape":[0],"dtype":"int32"},{"name":"PartitionedCall/zeros_7","shape":[],"dtype":"int32"},{"name":"PartitionedCall/transpose_54/perm","shape":[4],"dtype":"int32"},{"name":"PartitionedCall/split_11","shape":[1,1,116,116],"dtype":"float32","quantization":{"dtype":"float16","original_dtype":"float32"}},{"name":"unknown_36","shape":[116],"dtype":"float32","quantization":{"dtype":"float16","original_dtype":"float32"}},{"name":"PartitionedCall/transpose_55/perm","shape":[4],"dtype":"int32"},{"name":"PartitionedCall/Const_30","shape":[4,2],"dtype":"int32"},{"name":"PartitionedCall/transpose_57/perm","shape":[4],"dtype":"int32"},{"name":"PartitionedCall/Reshape_6","shape":[3,3,116,1],"dtype":"float32","quantization":{"dtype":"float16","original_dtype":"float32"}},{"name":"unknown_38","shape":[116],"dtype":"float32","quantization":{"dtype":"float16","original_dtype":"float32"}},{"name":"PartitionedCall/split_12","shape":[1,1,116,116],"dtype":"float32","quantization":{"dtype":"float16","original_dtype":"float32"}},{"name":"unknown_40","shape":[116],"dtype":"float32","quantization":{"dtype":"float16","original_dtype":"float32"}},{"name":"PartitionedCall/transpose_61/perm","shape":[4],"dtype":"int32"},{"name":"PartitionedCall/onnx_tf_prefix_Concat_61/axis","shape":[],"dtype":"int32"},{"name":"PartitionedCall/Where_8","shape":[0,1],"dtype":"int32"},{"name":"PartitionedCall/Cast_8","shape":[1],"dtype":"int32"},{"name":"PartitionedCall/GatherV2_8","shape":[0],"dtype":"int32"},{"name":"PartitionedCall/zeros_8","shape":[],"dtype":"int32"},{"name":"PartitionedCall/onnx_tf_prefix_Transpose_64/perm","shape":[5],"dtype":"int32"},{"name":"PartitionedCall/Where_9","shape":[0,1],"dtype":"int32"},{"name":"PartitionedCall/Cast_9","shape":[1],"dtype":"int32"},{"name":"PartitionedCall/GatherV2_9","shape":[0],"dtype":"int32"},{"name":"PartitionedCall/zeros_9","shape":[],"dtype":"int32"},{"name":"PartitionedCall/Const_34","shape":[2],"dtype":"int32"},{"name":"PartitionedCall/onnx_tf_prefix_Split_67/split_dim","shape":[],"dtype":"int32"},{"name":"PartitionedCall/transpose_63/perm","shape":[4],"dtype":"int32"},{"name":"PartitionedCall/split_13","shape":[1,1,116,116],"dtype":"float32","quantization":{"dtype":"float16","original_dtype":"float32"}},{"name":"unknown_44","shape":[116],"dtype":"float32","quantization":{"dtype":"float16","original_dtype":"float32"}},{"name":"PartitionedCall/transpose_64/perm","shape":[4],"dtype":"int32"},{"name":"PartitionedCall/Const_36","shape":[4,2],"dtype":"int32"},{"name":"PartitionedCall/transpose_66/perm","shape":[4],"dtype":"int32"},{"name":"PartitionedCall/Reshape_7","shape":[3,3,116,1],"dtype":"float32","quantization":{"dtype":"float16","original_dtype":"float32"}},{"name":"unknown_46","shape":[116],"dtype":"float32","quantization":{"dtype":"float16","original_dtype":"float32"}},{"name":"PartitionedCall/split_14","shape":[1,1,116,116],"dtype":"float32","quantization":{"dtype":"float16","original_dtype":"float32"}},{"name":"unknown_48","shape":[116],"dtype":"float32","quantization":{"dtype":"float16","original_dtype":"float32"}},{"name":"PartitionedCall/transpose_70/perm","shape":[4],"dtype":"int32"},{"name":"PartitionedCall/onnx_tf_prefix_Concat_73/axis","shape":[],"dtype":"int32"},{"name":"PartitionedCall/Where_10","shape":[0,1],"dtype":"int32"},{"name":"PartitionedCall/Cast_10","shape":[1],"dtype":"int32"},{"name":"PartitionedCall/GatherV2_10","shape":[0],"dtype":"int32"},{"name":"PartitionedCall/zeros_10","shape":[],"dtype":"int32"},{"name":"PartitionedCall/onnx_tf_prefix_Transpose_76/perm","shape":[5],"dtype":"int32"},{"name":"PartitionedCall/Where_11","shape":[0,1],"dtype":"int32"},{"name":"PartitionedCall/Cast_11","shape":[1],"dtype":"int32"},{"name":"PartitionedCall/GatherV2_11","shape":[0],"dtype":"int32"},{"name":"PartitionedCall/zeros_11","shape":[],"dtype":"int32"},{"name":"PartitionedCall/Const_40","shape":[2],"dtype":"int32"},{"name":"PartitionedCall/onnx_tf_prefix_Split_79/split_dim","shape":[],"dtype":"int32"},{"name":"PartitionedCall/transpose_72/perm","shape":[4],"dtype":"int32"},{"name":"PartitionedCall/split_15","shape":[1,1,116,116],"dtype":"float32","quantization":{"dtype":"float16","original_dtype":"float32"}},{"name":"unknown_50","shape":[116],"dtype":"float32","quantization":{"dtype":"float16","original_dtype":"float32"}},{"name":"PartitionedCall/transpose_73/perm","shape":[4],"dtype":"int32"},{"name":"PartitionedCall/Const_42","shape":[4,2],"dtype":"int32"},{"name":"PartitionedCall/transpose_75/perm","shape":[4],"dtype":"int32"},{"name":"PartitionedCall/Reshape_8","shape":[3,3,116,1],"dtype":"float32","quantization":{"dtype":"float16","original_dtype":"float32"}},{"name":"unknown_52","shape":[116],"dtype":"float32","quantization":{"dtype":"float16","original_dtype":"float32"}},{"name":"PartitionedCall/split_16","shape":[1,1,116,116],"dtype":"float32","quantization":{"dtype":"float16","original_dtype":"float32"}},{"name":"unknown_54","shape":[116],"dtype":"float32","quantization":{"dtype":"float16","original_dtype":"float32"}},{"name":"PartitionedCall/transpose_79/perm","shape":[4],"dtype":"int32"},{"name":"PartitionedCall/onnx_tf_prefix_Concat_85/axis","shape":[],"dtype":"int32"},{"name":"PartitionedCall/Where_12","shape":[0,1],"dtype":"int32"},{"name":"PartitionedCall/Cast_12","shape":[1],"dtype":"int32"},{"name":"PartitionedCall/GatherV2_12","shape":[0],"dtype":"int32"},{"name":"PartitionedCall/zeros_12","shape":[],"dtype":"int32"},{"name":"PartitionedCall/onnx_tf_prefix_Transpose_88/perm","shape":[5],"dtype":"int32"},{"name":"PartitionedCall/Where_13","shape":[0,1],"dtype":"int32"},{"name":"PartitionedCall/Cast_13","shape":[1],"dtype":"int32"},{"name":"PartitionedCall/GatherV2_13","shape":[0],"dtype":"int32"},{"name":"PartitionedCall/zeros_13","shape":[],"dtype":"int32"},{"name":"PartitionedCall/Const_46","shape":[2],"dtype":"int32"},{"name":"PartitionedCall/onnx_tf_prefix_Split_91/split_dim","shape":[],"dtype":"int32"},{"name":"PartitionedCall/transpose_81/perm","shape":[4],"dtype":"int32"},{"name":"PartitionedCall/split_17","shape":[1,1,116,116],"dtype":"float32","quantization":{"dtype":"float16","original_dtype":"float32"}},{"name":"unknown_56","shape":[116],"dtype":"float32","quantization":{"dtype":"float16","original_dtype":"float32"}},{"name":"PartitionedCall/transpose_82/perm","shape":[4],"dtype":"int32"},{"name":"PartitionedCall/Const_48","shape":[4,2],"dtype":"int32"},{"name":"PartitionedCall/transpose_84/perm","shape":[4],"dtype":"int32"},{"name":"PartitionedCall/Reshape_9","shape":[3,3,116,1],"dtype":"float32","quantization":{"dtype":"float16","original_dtype":"float32"}},{"name":"unknown_58","shape":[116],"dtype":"float32","quantization":{"dtype":"float16","original_dtype":"float32"}},{"name":"PartitionedCall/split_18","shape":[1,1,116,116],"dtype":"float32","quantization":{"dtype":"float16","original_dtype":"float32"}},{"name":"unknown_60","shape":[116],"dtype":"float32","quantization":{"dtype":"float16","original_dtype":"float32"}},{"name":"PartitionedCall/transpose_88/perm","shape":[4],"dtype":"int32"},{"name":"PartitionedCall/onnx_tf_prefix_Concat_97/axis","shape":[],"dtype":"int32"},{"name":"PartitionedCall/Where_14","shape":[0,1],"dtype":"int32"},{"name":"PartitionedCall/Cast_14","shape":[1],"dtype":"int32"},{"name":"PartitionedCall/GatherV2_14","shape":[0],"dtype":"int32"},{"name":"PartitionedCall/zeros_14","shape":[],"dtype":"int32"},{"name":"PartitionedCall/onnx_tf_prefix_Transpose_100/perm","shape":[5],"dtype":"int32"},{"name":"PartitionedCall/Where_15","shape":[0,1],"dtype":"int32"},{"name":"PartitionedCall/Cast_15","shape":[1],"dtype":"int32"},{"name":"PartitionedCall/GatherV2_15","shape":[0],"dtype":"int32"},{"name":"PartitionedCall/zeros_15","shape":[],"dtype":"int32"},{"name":"PartitionedCall/Const_52","shape":[2],"dtype":"int32"},{"name":"PartitionedCall/onnx_tf_prefix_Split_103/split_dim","shape":[],"dtype":"int32"},{"name":"PartitionedCall/transpose_90/perm","shape":[4],"dtype":"int32"},{"name":"PartitionedCall/split_19","shape":[1,1,116,116],"dtype":"float32","quantization":{"dtype":"float16","original_dtype":"float32"}},{"name":"unknown_62","shape":[116],"dtype":"float32","quantization":{"dtype":"float16","original_dtype":"float32"}},{"name":"PartitionedCall/transpose_91/perm","shape":[4],"dtype":"int32"},{"name":"PartitionedCall/Const_54","shape":[4,2],"dtype":"int32"},{"name":"PartitionedCall/transpose_93/perm","shape":[4],"dtype":"int32"},{"name":"PartitionedCall/Reshape_10","shape":[3,3,116,1],"dtype":"float32","quantization":{"dtype":"float16","original_dtype":"float32"}},{"name":"unknown_64","shape":[116],"dtype":"float32","quantization":{"dtype":"float16","original_dtype":"float32"}},{"name":"PartitionedCall/split_20","shape":[1,1,116,116],"dtype":"float32","quantization":{"dtype":"float16","original_dtype":"float32"}},{"name":"unknown_66","shape":[116],"dtype":"float32","quantization":{"dtype":"float16","original_dtype":"float32"}},{"name":"PartitionedCall/transpose_97/perm","shape":[4],"dtype":"int32"},{"name":"PartitionedCall/onnx_tf_prefix_Concat_109/axis","shape":[],"dtype":"int32"},{"name":"PartitionedCall/Where_16","shape":[0,1],"dtype":"int32"},{"name":"PartitionedCall/Cast_16","shape":[1],"dtype":"int32"},{"name":"PartitionedCall/GatherV2_16","shape":[0],"dtype":"int32"},{"name":"PartitionedCall/zeros_16","shape":[],"dtype":"int32"},{"name":"PartitionedCall/onnx_tf_prefix_Transpose_112/perm","shape":[5],"dtype":"int32"},{"name":"PartitionedCall/Where_17","shape":[0,1],"dtype":"int32"},{"name":"PartitionedCall/Cast_17","shape":[1],"dtype":"int32"},{"name":"PartitionedCall/GatherV2_17","shape":[0],"dtype":"int32"},{"name":"PartitionedCall/zeros_17","shape":[],"dtype":"int32"},{"name":"PartitionedCall/Const_58","shape":[2],"dtype":"int32"},{"name":"PartitionedCall/onnx_tf_prefix_Split_115/split_dim","shape":[],"dtype":"int32"},{"name":"PartitionedCall/transpose_99/perm","shape":[4],"dtype":"int32"},{"name":"PartitionedCall/split_21","shape":[1,1,116,116],"dtype":"float32","quantization":{"dtype":"float16","original_dtype":"float32"}},{"name":"unknown_68","shape":[116],"dtype":"float32","quantization":{"dtype":"float16","original_dtype":"float32"}},{"name":"PartitionedCall/transpose_100/perm","shape":[4],"dtype":"int32"},{"name":"PartitionedCall/Const_60","shape":[4,2],"dtype":"int32"},{"name":"PartitionedCall/transpose_102/perm","shape":[4],"dtype":"int32"},{"name":"PartitionedCall/Reshape_11","shape":[3,3,116,1],"dtype":"float32","quantization":{"dtype":"float16","original_dtype":"float32"}},{"name":"unknown_70","shape":[116],"dtype":"float32","quantization":{"dtype":"float16","original_dtype":"float32"}},{"name":"PartitionedCall/split_22","shape":[1,1,116,116],"dtype":"float32","quantization":{"dtype":"float16","original_dtype":"float32"}},{"name":"unknown_72","shape":[116],"dtype":"float32","quantization":{"dtype":"float16","original_dtype":"float32"}},{"name":"PartitionedCall/transpose_106/perm","shape":[4],"dtype":"int32"},{"name":"PartitionedCall/onnx_tf_prefix_Concat_121/axis","shape":[],"dtype":"int32"},{"name":"PartitionedCall/Where_18","shape":[0,1],"dtype":"int32"},{"name":"PartitionedCall/Cast_18","shape":[1],"dtype":"int32"},{"name":"PartitionedCall/GatherV2_18","shape":[0],"dtype":"int32"},{"name":"PartitionedCall/zeros_18","shape":[],"dtype":"int32"},{"name":"PartitionedCall/onnx_tf_prefix_Transpose_124/perm","shape":[5],"dtype":"int32"},{"name":"PartitionedCall/Where_19","shape":[0,1],"dtype":"int32"},{"name":"PartitionedCall/Cast_19","shape":[1],"dtype":"int32"},{"name":"PartitionedCall/GatherV2_19","shape":[0],"dtype":"int32"},{"name":"PartitionedCall/zeros_19","shape":[],"dtype":"int32"},{"name":"PartitionedCall/Const_64","shape":[2],"dtype":"int32"},{"name":"PartitionedCall/onnx_tf_prefix_Split_127/split_dim","shape":[],"dtype":"int32"},{"name":"PartitionedCall/transpose_108/perm","shape":[4],"dtype":"int32"},{"name":"PartitionedCall/split_23","shape":[1,1,116,116],"dtype":"float32","quantization":{"dtype":"float16","original_dtype":"float32"}},{"name":"unknown_74","shape":[116],"dtype":"float32","quantization":{"dtype":"float16","original_dtype":"float32"}},{"name":"PartitionedCall/transpose_109/perm","shape":[4],"dtype":"int32"},{"name":"PartitionedCall/Const_66","shape":[4,2],"dtype":"int32"},{"name":"PartitionedCall/transpose_111/perm","shape":[4],"dtype":"int32"},{"name":"PartitionedCall/Reshape_12","shape":[3,3,116,1],"dtype":"float32","quantization":{"dtype":"float16","original_dtype":"float32"}},{"name":"unknown_76","shape":[116],"dtype":"float32","quantization":{"dtype":"float16","original_dtype":"float32"}},{"name":"PartitionedCall/split_24","shape":[1,1,116,116],"dtype":"float32","quantization":{"dtype":"float16","original_dtype":"float32"}},{"name":"unknown_78","shape":[116],"dtype":"float32","quantization":{"dtype":"float16","original_dtype":"float32"}},{"name":"PartitionedCall/transpose_115/perm","shape":[4],"dtype":"int32"},{"name":"PartitionedCall/onnx_tf_prefix_Concat_133/axis","shape":[],"dtype":"int32"},{"name":"PartitionedCall/Where_20","shape":[0,1],"dtype":"int32"},{"name":"PartitionedCall/Cast_20","shape":[1],"dtype":"int32"},{"name":"PartitionedCall/GatherV2_20","shape":[0],"dtype":"int32"},{"name":"PartitionedCall/zeros_20","shape":[],"dtype":"int32"},{"name":"PartitionedCall/onnx_tf_prefix_Transpose_136/perm","shape":[5],"dtype":"int32"},{"name":"PartitionedCall/Where_21","shape":[0,1],"dtype":"int32"},{"name":"PartitionedCall/Cast_21","shape":[1],"dtype":"int32"},{"name":"PartitionedCall/GatherV2_21","shape":[0],"dtype":"int32"},{"name":"PartitionedCall/zeros_21","shape":[],"dtype":"int32"},{"name":"PartitionedCall/Const_70","shape":[2],"dtype":"int32"},{"name":"PartitionedCall/onnx_tf_prefix_Split_139/split_dim","shape":[],"dtype":"int32"},{"name":"PartitionedCall/transpose_117/perm","shape":[4],"dtype":"int32"},{"name":"PartitionedCall/split_25","shape":[1,1,116,116],"dtype":"float32","quantization":{"dtype":"float16","original_dtype":"float32"}},{"name":"unknown_80","shape":[116],"dtype":"float32","quantization":{"dtype":"float16","original_dtype":"float32"}},{"name":"PartitionedCall/transpose_118/perm","shape":[4],"dtype":"int32"},{"name":"PartitionedCall/Const_72","shape":[4,2],"dtype":"int32"},{"name":"PartitionedCall/transpose_120/perm","shape":[4],"dtype":"int32"},{"name":"PartitionedCall/Reshape_13","shape":[3,3,116,1],"dtype":"float32","quantization":{"dtype":"float16","original_dtype":"float32"}},{"name":"unknown_82","shape":[116],"dtype":"float32","quantization":{"dtype":"float16","original_dtype":"float32"}},{"name":"PartitionedCall/split_26","shape":[1,1,116,116],"dtype":"float32","quantization":{"dtype":"float16","original_dtype":"float32"}},{"name":"unknown_84","shape":[116],"dtype":"float32","quantization":{"dtype":"float16","original_dtype":"float32"}},{"name":"PartitionedCall/transpose_124/perm","shape":[4],"dtype":"int32"},{"name":"PartitionedCall/onnx_tf_prefix_Concat_145/axis","shape":[],"dtype":"int32"},{"name":"unknown_41","shape":[5],"dtype":"int32"},{"name":"PartitionedCall/Where_22","shape":[0,1],"dtype":"int32"},{"name":"PartitionedCall/Cast_22","shape":[1],"dtype":"int32"},{"name":"PartitionedCall/GatherV2_22","shape":[0],"dtype":"int32"},{"name":"PartitionedCall/zeros_22","shape":[],"dtype":"int32"},{"name":"PartitionedCall/onnx_tf_prefix_Transpose_148/perm","shape":[5],"dtype":"int32"},{"name":"unknown_42","shape":[4],"dtype":"int32"},{"name":"PartitionedCall/Where_23","shape":[0,1],"dtype":"int32"},{"name":"PartitionedCall/Cast_23","shape":[1],"dtype":"int32"},{"name":"PartitionedCall/GatherV2_23","shape":[0],"dtype":"int32"},{"name":"PartitionedCall/zeros_23","shape":[],"dtype":"int32"},{"name":"PartitionedCall/transpose_132/perm","shape":[4],"dtype":"int32"},{"name":"PartitionedCall/split_28","shape":[1,1,232,232],"dtype":"float32","quantization":{"dtype":"float16","original_dtype":"float32"}},{"name":"unknown_90","shape":[232],"dtype":"float32","quantization":{"dtype":"float16","original_dtype":"float32"}},{"name":"PartitionedCall/transpose_133/perm","shape":[4],"dtype":"int32"},{"name":"PartitionedCall/Const_79","shape":[4,2],"dtype":"int32"},{"name":"PartitionedCall/transpose_135/perm","shape":[4],"dtype":"int32"},{"name":"PartitionedCall/Reshape_15","shape":[3,3,232,1],"dtype":"float32","quantization":{"dtype":"float16","original_dtype":"float32"}},{"name":"unknown_92","shape":[232],"dtype":"float32","quantization":{"dtype":"float16","original_dtype":"float32"}},{"name":"PartitionedCall/split_29","shape":[1,1,232,232],"dtype":"float32","quantization":{"dtype":"float16","original_dtype":"float32"}},{"name":"unknown_94","shape":[232],"dtype":"float32","quantization":{"dtype":"float16","original_dtype":"float32"}},{"name":"PartitionedCall/transpose_139/perm","shape":[4],"dtype":"int32"},{"name":"PartitionedCall/onnx_tf_prefix_Concat_159/axis","shape":[],"dtype":"int32"},{"name":"PartitionedCall/Where_24","shape":[0,1],"dtype":"int32"},{"name":"PartitionedCall/Cast_24","shape":[1],"dtype":"int32"},{"name":"PartitionedCall/GatherV2_24","shape":[0],"dtype":"int32"},{"name":"PartitionedCall/zeros_24","shape":[],"dtype":"int32"},{"name":"PartitionedCall/onnx_tf_prefix_Transpose_162/perm","shape":[5],"dtype":"int32"},{"name":"PartitionedCall/Where_25","shape":[0,1],"dtype":"int32"},{"name":"PartitionedCall/Cast_25","shape":[1],"dtype":"int32"},{"name":"PartitionedCall/GatherV2_25","shape":[0],"dtype":"int32"},{"name":"PartitionedCall/zeros_25","shape":[],"dtype":"int32"},{"name":"PartitionedCall/Const_83","shape":[2],"dtype":"int32"},{"name":"PartitionedCall/onnx_tf_prefix_Split_165/split_dim","shape":[],"dtype":"int32"},{"name":"PartitionedCall/transpose_141/perm","shape":[4],"dtype":"int32"},{"name":"PartitionedCall/split_30","shape":[1,1,232,232],"dtype":"float32","quantization":{"dtype":"float16","original_dtype":"float32"}},{"name":"unknown_98","shape":[232],"dtype":"float32","quantization":{"dtype":"float16","original_dtype":"float32"}},{"name":"PartitionedCall/transpose_142/perm","shape":[4],"dtype":"int32"},{"name":"PartitionedCall/Const_85","shape":[4,2],"dtype":"int32"},{"name":"PartitionedCall/transpose_144/perm","shape":[4],"dtype":"int32"},{"name":"PartitionedCall/Reshape_16","shape":[3,3,232,1],"dtype":"float32","quantization":{"dtype":"float16","original_dtype":"float32"}},{"name":"unknown_100","shape":[232],"dtype":"float32","quantization":{"dtype":"float16","original_dtype":"float32"}},{"name":"PartitionedCall/split_31","shape":[1,1,232,232],"dtype":"float32","quantization":{"dtype":"float16","original_dtype":"float32"}},{"name":"unknown_102","shape":[232],"dtype":"float32","quantization":{"dtype":"float16","original_dtype":"float32"}},{"name":"PartitionedCall/transpose_148/perm","shape":[4],"dtype":"int32"},{"name":"PartitionedCall/onnx_tf_prefix_Concat_171/axis","shape":[],"dtype":"int32"},{"name":"PartitionedCall/Where_26","shape":[0,1],"dtype":"int32"},{"name":"PartitionedCall/Cast_26","shape":[1],"dtype":"int32"},{"name":"PartitionedCall/GatherV2_26","shape":[0],"dtype":"int32"},{"name":"PartitionedCall/zeros_26","shape":[],"dtype":"int32"},{"name":"PartitionedCall/onnx_tf_prefix_Transpose_174/perm","shape":[5],"dtype":"int32"},{"name":"PartitionedCall/Where_27","shape":[0,1],"dtype":"int32"},{"name":"PartitionedCall/Cast_27","shape":[1],"dtype":"int32"},{"name":"PartitionedCall/GatherV2_27","shape":[0],"dtype":"int32"},{"name":"PartitionedCall/zeros_27","shape":[],"dtype":"int32"},{"name":"PartitionedCall/Const_89","shape":[2],"dtype":"int32"},{"name":"PartitionedCall/onnx_tf_prefix_Split_177/split_dim","shape":[],"dtype":"int32"},{"name":"PartitionedCall/transpose_150/perm","shape":[4],"dtype":"int32"},{"name":"PartitionedCall/split_32","shape":[1,1,232,232],"dtype":"float32","quantization":{"dtype":"float16","original_dtype":"float32"}},{"name":"unknown_104","shape":[232],"dtype":"float32","quantization":{"dtype":"float16","original_dtype":"float32"}},{"name":"PartitionedCall/transpose_151/perm","shape":[4],"dtype":"int32"},{"name":"PartitionedCall/Const_91","shape":[4,2],"dtype":"int32"},{"name":"PartitionedCall/transpose_153/perm","shape":[4],"dtype":"int32"},{"name":"PartitionedCall/Reshape_17","shape":[3,3,232,1],"dtype":"float32","quantization":{"dtype":"float16","original_dtype":"float32"}},{"name":"unknown_106","shape":[232],"dtype":"float32","quantization":{"dtype":"float16","original_dtype":"float32"}},{"name":"PartitionedCall/split_33","shape":[1,1,232,232],"dtype":"float32","quantization":{"dtype":"float16","original_dtype":"float32"}},{"name":"unknown_108","shape":[232],"dtype":"float32","quantization":{"dtype":"float16","original_dtype":"float32"}},{"name":"PartitionedCall/transpose_157/perm","shape":[4],"dtype":"int32"},{"name":"PartitionedCall/onnx_tf_prefix_Concat_183/axis","shape":[],"dtype":"int32"},{"name":"PartitionedCall/Where_28","shape":[0,1],"dtype":"int32"},{"name":"PartitionedCall/Cast_28","shape":[1],"dtype":"int32"},{"name":"PartitionedCall/GatherV2_28","shape":[0],"dtype":"int32"},{"name":"PartitionedCall/zeros_28","shape":[],"dtype":"int32"},{"name":"PartitionedCall/onnx_tf_prefix_Transpose_186/perm","shape":[5],"dtype":"int32"},{"name":"PartitionedCall/Where_29","shape":[0,1],"dtype":"int32"},{"name":"PartitionedCall/Cast_29","shape":[1],"dtype":"int32"},{"name":"PartitionedCall/GatherV2_29","shape":[0],"dtype":"int32"},{"name":"PartitionedCall/zeros_29","shape":[],"dtype":"int32"},{"name":"PartitionedCall/Const_95","shape":[2],"dtype":"int32"},{"name":"PartitionedCall/onnx_tf_prefix_Split_189/split_dim","shape":[],"dtype":"int32"},{"name":"PartitionedCall/transpose_159/perm","shape":[4],"dtype":"int32"},{"name":"PartitionedCall/split_34","shape":[1,1,232,232],"dtype":"float32","quantization":{"dtype":"float16","original_dtype":"float32"}},{"name":"unknown_110","shape":[232],"dtype":"float32","quantization":{"dtype":"float16","original_dtype":"float32"}},{"name":"PartitionedCall/transpose_160/perm","shape":[4],"dtype":"int32"},{"name":"PartitionedCall/Const_97","shape":[4,2],"dtype":"int32"},{"name":"PartitionedCall/transpose_162/perm","shape":[4],"dtype":"int32"},{"name":"PartitionedCall/Reshape_18","shape":[3,3,232,1],"dtype":"float32","quantization":{"dtype":"float16","original_dtype":"float32"}},{"name":"unknown_112","shape":[232],"dtype":"float32","quantization":{"dtype":"float16","original_dtype":"float32"}},{"name":"PartitionedCall/split_35","shape":[1,1,232,232],"dtype":"float32","quantization":{"dtype":"float16","original_dtype":"float32"}},{"name":"unknown_114","shape":[232],"dtype":"float32","quantization":{"dtype":"float16","original_dtype":"float32"}},{"name":"PartitionedCall/transpose_166/perm","shape":[4],"dtype":"int32"},{"name":"PartitionedCall/onnx_tf_prefix_Concat_195/axis","shape":[],"dtype":"int32"},{"name":"unknown_95","shape":[5],"dtype":"int32"},{"name":"PartitionedCall/Where_30","shape":[0,1],"dtype":"int32"},{"name":"PartitionedCall/Cast_30","shape":[1],"dtype":"int32"},{"name":"PartitionedCall/GatherV2_30","shape":[0],"dtype":"int32"},{"name":"PartitionedCall/zeros_30","shape":[],"dtype":"int32"},{"name":"PartitionedCall/onnx_tf_prefix_Transpose_198/perm","shape":[5],"dtype":"int32"},{"name":"unknown_96","shape":[4],"dtype":"int32"},{"name":"PartitionedCall/Where_31","shape":[0,1],"dtype":"int32"},{"name":"PartitionedCall/Cast_31","shape":[1],"dtype":"int32"},{"name":"PartitionedCall/GatherV2_31","shape":[0],"dtype":"int32"},{"name":"PartitionedCall/zeros_31","shape":[],"dtype":"int32"},{"name":"PartitionedCall/transpose_174/perm","shape":[4],"dtype":"int32"},{"name":"PartitionedCall/split_38","shape":[1,1,464,96],"dtype":"float32","quantization":{"dtype":"float16","original_dtype":"float32"}},{"name":"unknown_120","shape":[96],"dtype":"float32","quantization":{"dtype":"float16","original_dtype":"float32"}},{"name":"PartitionedCall/Cast_33","shape":[2],"dtype":"int32"},{"name":"PartitionedCall/transpose_177/perm","shape":[4],"dtype":"int32"},{"name":"PartitionedCall/transpose_178/perm","shape":[4],"dtype":"int32"},{"name":"PartitionedCall/Cast_35","shape":[2],"dtype":"int32"},{"name":"PartitionedCall/transpose_179/perm","shape":[4],"dtype":"int32"},{"name":"PartitionedCall/transpose_180/perm","shape":[4],"dtype":"int32"},{"name":"PartitionedCall/Cast_37","shape":[2],"dtype":"int32"},{"name":"PartitionedCall/transpose_181/perm","shape":[4],"dtype":"int32"},{"name":"PartitionedCall/transpose_182/perm","shape":[4],"dtype":"int32"},{"name":"PartitionedCall/Cast_39","shape":[2],"dtype":"int32"},{"name":"PartitionedCall/transpose_183/perm","shape":[4],"dtype":"int32"},{"name":"PartitionedCall/Const_120","shape":[4,2],"dtype":"int32"},{"name":"PartitionedCall/transpose_215/perm","shape":[4],"dtype":"int32"},{"name":"PartitionedCall/Reshape_23","shape":[3,3,96,1],"dtype":"float32","quantization":{"dtype":"float16","original_dtype":"float32"}},{"name":"unknown_148","shape":[96],"dtype":"float32","quantization":{"dtype":"float16","original_dtype":"float32"}},{"name":"PartitionedCall/transpose_216/perm","shape":[4],"dtype":"int32"},{"name":"PartitionedCall/transpose_218/perm","shape":[4],"dtype":"int32"},{"name":"PartitionedCall/split_45","shape":[1,1,96,96],"dtype":"float32","quantization":{"dtype":"float16","original_dtype":"float32"}},{"name":"unknown_150","shape":[96],"dtype":"float32","quantization":{"dtype":"float16","original_dtype":"float32"}},{"name":"PartitionedCall/transpose_219/perm","shape":[4],"dtype":"int32"},{"name":"PartitionedCall/Const_122","shape":[4,2],"dtype":"int32"},{"name":"PartitionedCall/transpose_221/perm","shape":[4],"dtype":"int32"},{"name":"PartitionedCall/Reshape_24","shape":[3,3,96,1],"dtype":"float32","quantization":{"dtype":"float16","original_dtype":"float32"}},{"name":"unknown_152","shape":[96],"dtype":"float32","quantization":{"dtype":"float16","original_dtype":"float32"}},{"name":"PartitionedCall/transpose_222/perm","shape":[4],"dtype":"int32"},{"name":"PartitionedCall/transpose_224/perm","shape":[4],"dtype":"int32"},{"name":"PartitionedCall/split_46","shape":[1,1,96,96],"dtype":"float32","quantization":{"dtype":"float16","original_dtype":"float32"}},{"name":"unknown_154","shape":[96],"dtype":"float32","quantization":{"dtype":"float16","original_dtype":"float32"}},{"name":"PartitionedCall/transpose_225/perm","shape":[4],"dtype":"int32"},{"name":"PartitionedCall/transpose_227/perm","shape":[4],"dtype":"int32"},{"name":"PartitionedCall/split_47","shape":[1,1,96,112],"dtype":"float32","quantization":{"dtype":"float16","original_dtype":"float32"}},{"name":"unknown_156","shape":[112],"dtype":"float32","quantization":{"dtype":"float16","original_dtype":"float32"}},{"name":"PartitionedCall/transpose_228/perm","shape":[4],"dtype":"int32"},{"name":"PartitionedCall/Const_125","shape":[2],"dtype":"int32"},{"name":"PartitionedCall/onnx_tf_prefix_Split_331/split_dim","shape":[],"dtype":"int32"},{"name":"unknown_136","shape":[3],"dtype":"int32"},{"name":"PartitionedCall/Where_37","shape":[0,1],"dtype":"int32"},{"name":"PartitionedCall/Cast_45","shape":[1],"dtype":"int32"},{"name":"PartitionedCall/GatherV2_37","shape":[0],"dtype":"int32"},{"name":"PartitionedCall/zeros_37","shape":[],"dtype":"int32"},{"name":"PartitionedCall/onnx_tf_prefix_Transpose_338/perm","shape":[3],"dtype":"int32"}]
      }
  ]
}