{
  "format": "graph-model",
  "generatedBy": "https://github.com/RangiLyu/nanodet",
  "convertedBy": "https://github.com/vladmandic",
  "signature":
  {
    "inputs":
    {
      "input_1:0": {"name":"input_1:0","dtype":"DT_FLOAT","tensorShape":{"dim":[{"size":"1"},{"size":"3"},{"size":"416"},{"size":"416"}]}}
    },
    "outputs":
    {
      "Identity_2:0": {"name":"Identity_2:0","dtype":"DT_FLOAT","tensorShape":{"dim":[{"size":"1"},{"size":"169"},{"size":"80"}]}},
      "Identity_5:0": {"name":"Identity_5:0","dtype":"DT_FLOAT","tensorShape":{"dim":[{"size":"1"},{"size":"169"},{"size":"44"}]}},
      "Identity_1:0": {"name":"Identity_1:0","dtype":"DT_FLOAT","tensorShape":{"dim":[{"size":"1"},{"size":"676"},{"size":"80"}]}},
      "Identity:0": {"name":"Identity:0","dtype":"DT_FLOAT","tensorShape":{"dim":[{"size":"1"},{"size":"2704"},{"size":"80"}]}},
      "Identity_4:0": {"name":"Identity_4:0","dtype":"DT_FLOAT","tensorShape":{"dim":[{"size":"1"},{"size":"676"},{"size":"44"}]}},
      "Identity_3:0": {"name":"Identity_3:0","dtype":"DT_FLOAT","tensorShape":{"dim":[{"size":"1"},{"size":"2704"},{"size":"44"}]}}
    }
  },
  "modelTopology":
  {
      "node":
      [
          {"name":"PartitionedCall/Where","op":"Const","attr":{"value":{"tensor":{"dtype":"DT_INT64","tensorShape":{"dim":[{},{"size":"1"}]}}},"dtype":{"type":"DT_INT64"}}},
          {"name":"PartitionedCall/Cast_8","op":"Const","attr":{"dtype":{"type":"DT_INT64"},"value":{"tensor":{"dtype":"DT_INT64","tensorShape":{"dim":[{"size":"1"}]}}}}},
          {"name":"PartitionedCall/GatherV2","op":"Const","attr":{"value":{"tensor":{"dtype":"DT_INT64","tensorShape":{"dim":[{}]}}},"dtype":{"type":"DT_INT64"}}},
          {"name":"PartitionedCall/zeros","op":"Const","attr":{"dtype":{"type":"DT_INT64"},"value":{"tensor":{"dtype":"DT_INT64","tensorShape":{}}}}},
          {"name":"PartitionedCall/onnx_tf_prefix_Transpose_157/perm","op":"Const","attr":{"value":{"tensor":{"dtype":"DT_INT32","tensorShape":{"dim":[{"size":"3"}]}}},"dtype":{"type":"DT_INT32"}}},
          {"name":"PartitionedCall/Where_2","op":"Const","attr":{"value":{"tensor":{"dtype":"DT_INT64","tensorShape":{"dim":[{},{"size":"1"}]}}},"dtype":{"type":"DT_INT64"}}},
          {"name":"PartitionedCall/Cast_10","op":"Const","attr":{"value":{"tensor":{"dtype":"DT_INT64","tensorShape":{"dim":[{"size":"1"}]}}},"dtype":{"type":"DT_INT64"}}},
          {"name":"PartitionedCall/GatherV2_2","op":"Const","attr":{"dtype":{"type":"DT_INT64"},"value":{"tensor":{"dtype":"DT_INT64","tensorShape":{"dim":[{}]}}}}},
          {"name":"PartitionedCall/zeros_2","op":"Const","attr":{"value":{"tensor":{"dtype":"DT_INT64","tensorShape":{}}},"dtype":{"type":"DT_INT64"}}},
          {"name":"PartitionedCall/onnx_tf_prefix_Transpose_168/perm","op":"Const","attr":{"value":{"tensor":{"dtype":"DT_INT32","tensorShape":{"dim":[{"size":"3"}]}}},"dtype":{"type":"DT_INT32"}}},
          {"name":"unknown_63","op":"Const","attr":{"value":{"tensor":{"dtype":"DT_INT64","tensorShape":{"dim":[{"size":"3"}]}}},"dtype":{"type":"DT_INT64"}}},
          {"name":"PartitionedCall/Where_4","op":"Const","attr":{"dtype":{"type":"DT_INT64"},"value":{"tensor":{"dtype":"DT_INT64","tensorShape":{"dim":[{},{"size":"1"}]}}}}},
          {"name":"PartitionedCall/Cast_12","op":"Const","attr":{"value":{"tensor":{"dtype":"DT_INT64","tensorShape":{"dim":[{"size":"1"}]}}},"dtype":{"type":"DT_INT64"}}},
          {"name":"PartitionedCall/GatherV2_4","op":"Const","attr":{"dtype":{"type":"DT_INT64"},"value":{"tensor":{"dtype":"DT_INT64","tensorShape":{"dim":[{}]}}}}},
          {"name":"PartitionedCall/zeros_4","op":"Const","attr":{"dtype":{"type":"DT_INT64"},"value":{"tensor":{"dtype":"DT_INT64","tensorShape":{}}}}},
          {"name":"PartitionedCall/onnx_tf_prefix_Transpose_179/perm","op":"Const","attr":{"dtype":{"type":"DT_INT32"},"value":{"tensor":{"dtype":"DT_INT32","tensorShape":{"dim":[{"size":"3"}]}}}}},
          {"name":"PartitionedCall/Const_53","op":"Const","attr":{"value":{"tensor":{"dtype":"DT_INT32","tensorShape":{"dim":[{"size":"4"},{"size":"2"}]}}},"dtype":{"type":"DT_INT32"}}},
          {"name":"PartitionedCall/transpose_95/perm","op":"Const","attr":{"dtype":{"type":"DT_INT32"},"value":{"tensor":{"dtype":"DT_INT32","tensorShape":{"dim":[{"size":"4"}]}}}}},
          {"name":"PartitionedCall/split_28","op":"Const","attr":{"value":{"tensor":{"dtype":"DT_FLOAT","tensorShape":{"dim":[{"size":"3"},{"size":"3"},{"size":"128"},{"size":"128"}]}}},"dtype":{"type":"DT_FLOAT"}}},
          {"name":"unknown_60","op":"Const","attr":{"dtype":{"type":"DT_FLOAT"},"value":{"tensor":{"dtype":"DT_FLOAT","tensorShape":{"dim":[{"size":"128"}]}}}}},
          {"name":"PartitionedCall/transpose_96/perm","op":"Const","attr":{"dtype":{"type":"DT_INT32"},"value":{"tensor":{"dtype":"DT_INT32","tensorShape":{"dim":[{"size":"4"}]}}}}},
          {"name":"PartitionedCall/transpose_98/perm","op":"Const","attr":{"dtype":{"type":"DT_INT32"},"value":{"tensor":{"dtype":"DT_INT32","tensorShape":{"dim":[{"size":"4"}]}}}}},
          {"name":"PartitionedCall/split_29","op":"Const","attr":{"value":{"tensor":{"dtype":"DT_FLOAT","tensorShape":{"dim":[{"size":"1"},{"size":"1"},{"size":"128"},{"size":"124"}]}}},"dtype":{"type":"DT_FLOAT"}}},
          {"name":"unknown_62","op":"Const","attr":{"dtype":{"type":"DT_FLOAT"},"value":{"tensor":{"dtype":"DT_FLOAT","tensorShape":{"dim":[{"size":"124"}]}}}}},
          {"name":"PartitionedCall/transpose_99/perm","op":"Const","attr":{"value":{"tensor":{"dtype":"DT_INT32","tensorShape":{"dim":[{"size":"4"}]}}},"dtype":{"type":"DT_INT32"}}},
          {"name":"PartitionedCall/Const_56","op":"Const","attr":{"dtype":{"type":"DT_INT32"},"value":{"tensor":{"dtype":"DT_INT32","tensorShape":{"dim":[{"size":"2"}]}}}}},
          {"name":"PartitionedCall/onnx_tf_prefix_Split_153/split_dim","op":"Const","attr":{"dtype":{"type":"DT_INT32"},"value":{"tensor":{"dtype":"DT_INT32","tensorShape":{}}}}},
          {"name":"PartitionedCall/Where_1","op":"Const","attr":{"dtype":{"type":"DT_INT64"},"value":{"tensor":{"dtype":"DT_INT64","tensorShape":{"dim":[{},{"size":"1"}]}}}}},
          {"name":"PartitionedCall/Cast_9","op":"Const","attr":{"dtype":{"type":"DT_INT64"},"value":{"tensor":{"dtype":"DT_INT64","tensorShape":{"dim":[{"size":"1"}]}}}}},
          {"name":"PartitionedCall/GatherV2_1","op":"Const","attr":{"dtype":{"type":"DT_INT64"},"value":{"tensor":{"dtype":"DT_INT64","tensorShape":{"dim":[{}]}}}}},
          {"name":"PartitionedCall/zeros_1","op":"Const","attr":{"dtype":{"type":"DT_INT64"},"value":{"tensor":{"dtype":"DT_INT64","tensorShape":{}}}}},
          {"name":"PartitionedCall/onnx_tf_prefix_Transpose_160/perm","op":"Const","attr":{"value":{"tensor":{"dtype":"DT_INT32","tensorShape":{"dim":[{"size":"3"}]}}},"dtype":{"type":"DT_INT32"}}},
          {"name":"PartitionedCall/Const_59","op":"Const","attr":{"value":{"tensor":{"dtype":"DT_INT32","tensorShape":{"dim":[{"size":"4"},{"size":"2"}]}}},"dtype":{"type":"DT_INT32"}}},
          {"name":"PartitionedCall/transpose_101/perm","op":"Const","attr":{"dtype":{"type":"DT_INT32"},"value":{"tensor":{"dtype":"DT_INT32","tensorShape":{"dim":[{"size":"4"}]}}}}},
          {"name":"PartitionedCall/split_30","op":"Const","attr":{"dtype":{"type":"DT_FLOAT"},"value":{"tensor":{"dtype":"DT_FLOAT","tensorShape":{"dim":[{"size":"3"},{"size":"3"},{"size":"128"},{"size":"128"}]}}}}},
          {"name":"unknown_66","op":"Const","attr":{"value":{"tensor":{"dtype":"DT_FLOAT","tensorShape":{"dim":[{"size":"128"}]}}},"dtype":{"type":"DT_FLOAT"}}},
          {"name":"PartitionedCall/transpose_102/perm","op":"Const","attr":{"dtype":{"type":"DT_INT32"},"value":{"tensor":{"dtype":"DT_INT32","tensorShape":{"dim":[{"size":"4"}]}}}}},
          {"name":"PartitionedCall/transpose_104/perm","op":"Const","attr":{"value":{"tensor":{"dtype":"DT_INT32","tensorShape":{"dim":[{"size":"4"}]}}},"dtype":{"type":"DT_INT32"}}},
          {"name":"PartitionedCall/split_31","op":"Const","attr":{"dtype":{"type":"DT_FLOAT"},"value":{"tensor":{"dtype":"DT_FLOAT","tensorShape":{"dim":[{"size":"1"},{"size":"1"},{"size":"128"},{"size":"124"}]}}}}},
          {"name":"unknown_68","op":"Const","attr":{"dtype":{"type":"DT_FLOAT"},"value":{"tensor":{"dtype":"DT_FLOAT","tensorShape":{"dim":[{"size":"124"}]}}}}},
          {"name":"PartitionedCall/transpose_105/perm","op":"Const","attr":{"value":{"tensor":{"dtype":"DT_INT32","tensorShape":{"dim":[{"size":"4"}]}}},"dtype":{"type":"DT_INT32"}}},
          {"name":"PartitionedCall/Const_62","op":"Const","attr":{"dtype":{"type":"DT_INT32"},"value":{"tensor":{"dtype":"DT_INT32","tensorShape":{"dim":[{"size":"2"}]}}}}},
          {"name":"PartitionedCall/onnx_tf_prefix_Split_164/split_dim","op":"Const","attr":{"dtype":{"type":"DT_INT32"},"value":{"tensor":{"dtype":"DT_INT32","tensorShape":{}}}}},
          {"name":"PartitionedCall/Where_3","op":"Const","attr":{"value":{"tensor":{"dtype":"DT_INT64","tensorShape":{"dim":[{},{"size":"1"}]}}},"dtype":{"type":"DT_INT64"}}},
          {"name":"PartitionedCall/Cast_11","op":"Const","attr":{"value":{"tensor":{"dtype":"DT_INT64","tensorShape":{"dim":[{"size":"1"}]}}},"dtype":{"type":"DT_INT64"}}},
          {"name":"PartitionedCall/GatherV2_3","op":"Const","attr":{"value":{"tensor":{"dtype":"DT_INT64","tensorShape":{"dim":[{}]}}},"dtype":{"type":"DT_INT64"}}},
          {"name":"PartitionedCall/zeros_3","op":"Const","attr":{"value":{"tensor":{"dtype":"DT_INT64","tensorShape":{}}},"dtype":{"type":"DT_INT64"}}},
          {"name":"PartitionedCall/onnx_tf_prefix_Transpose_171/perm","op":"Const","attr":{"dtype":{"type":"DT_INT32"},"value":{"tensor":{"dtype":"DT_INT32","tensorShape":{"dim":[{"size":"3"}]}}}}},
          {"name":"PartitionedCall/transpose_85/perm","op":"Const","attr":{"value":{"tensor":{"dtype":"DT_INT32","tensorShape":{"dim":[{"size":"4"}]}}},"dtype":{"type":"DT_INT32"}}},
          {"name":"PartitionedCall/transpose_78/perm","op":"Const","attr":{"dtype":{"type":"DT_INT32"},"value":{"tensor":{"dtype":"DT_INT32","tensorShape":{"dim":[{"size":"4"}]}}}}},
          {"name":"PartitionedCall/split_25","op":"Const","attr":{"dtype":{"type":"DT_FLOAT"},"value":{"tensor":{"dtype":"DT_FLOAT","tensorShape":{"dim":[{"size":"1"},{"size":"1"},{"size":"128"},{"size":"128"}]}}}}},
          {"name":"unknown_50","op":"Const","attr":{"value":{"tensor":{"dtype":"DT_FLOAT","tensorShape":{"dim":[{"size":"128"}]}}},"dtype":{"type":"DT_FLOAT"}}},
          {"name":"PartitionedCall/transpose_79/perm","op":"Const","attr":{"dtype":{"type":"DT_INT32"},"value":{"tensor":{"dtype":"DT_INT32","tensorShape":{"dim":[{"size":"4"}]}}}}},
          {"name":"PartitionedCall/transpose_81/perm","op":"Const","attr":{"dtype":{"type":"DT_INT32"},"value":{"tensor":{"dtype":"DT_INT32","tensorShape":{"dim":[{"size":"4"}]}}}}},
          {"name":"PartitionedCall/split_26","op":"Const","attr":{"value":{"tensor":{"dtype":"DT_FLOAT","tensorShape":{"dim":[{"size":"1"},{"size":"1"},{"size":"256"},{"size":"128"}]}}},"dtype":{"type":"DT_FLOAT"}}},
          {"name":"unknown_52","op":"Const","attr":{"dtype":{"type":"DT_FLOAT"},"value":{"tensor":{"dtype":"DT_FLOAT","tensorShape":{"dim":[{"size":"128"}]}}}}},
          {"name":"PartitionedCall/transpose_82/perm","op":"Const","attr":{"dtype":{"type":"DT_INT32"},"value":{"tensor":{"dtype":"DT_INT32","tensorShape":{"dim":[{"size":"4"}]}}}}},
          {"name":"PartitionedCall/Const_46","op":"Const","attr":{"value":{"tensor":{"dtype":"DT_INT32","tensorShape":{"dim":[{"size":"4"},{"size":"2"}]}}},"dtype":{"type":"DT_INT32"}}},
          {"name":"PartitionedCall/transpose_72/perm","op":"Const","attr":{"dtype":{"type":"DT_INT32"},"value":{"tensor":{"dtype":"DT_INT32","tensorShape":{"dim":[{"size":"4"}]}}}}},
          {"name":"PartitionedCall/split_23","op":"Const","attr":{"dtype":{"type":"DT_FLOAT"},"value":{"tensor":{"dtype":"DT_FLOAT","tensorShape":{"dim":[{"size":"3"},{"size":"3"},{"size":"128"},{"size":"128"}]}}}}},
          {"name":"unknown_46","op":"Const","attr":{"value":{"tensor":{"dtype":"DT_FLOAT","tensorShape":{"dim":[{"size":"128"}]}}},"dtype":{"type":"DT_FLOAT"}}},
          {"name":"PartitionedCall/transpose_73/perm","op":"Const","attr":{"value":{"tensor":{"dtype":"DT_INT32","tensorShape":{"dim":[{"size":"4"}]}}},"dtype":{"type":"DT_INT32"}}},
          {"name":"PartitionedCall/Const_42","op":"Const","attr":{"dtype":{"type":"DT_INT32"},"value":{"tensor":{"dtype":"DT_INT32","tensorShape":{"dim":[{"size":"4"},{"size":"2"}]}}}}},
          {"name":"PartitionedCall/transpose_66/perm","op":"Const","attr":{"value":{"tensor":{"dtype":"DT_INT32","tensorShape":{"dim":[{"size":"4"}]}}},"dtype":{"type":"DT_INT32"}}},
          {"name":"PartitionedCall/split_21","op":"Const","attr":{"value":{"tensor":{"dtype":"DT_FLOAT","tensorShape":{"dim":[{"size":"3"},{"size":"3"},{"size":"128"},{"size":"128"}]}}},"dtype":{"type":"DT_FLOAT"}}},
          {"name":"unknown_42","op":"Const","attr":{"dtype":{"type":"DT_FLOAT"},"value":{"tensor":{"dtype":"DT_FLOAT","tensorShape":{"dim":[{"size":"128"}]}}}}},
          {"name":"PartitionedCall/transpose_67/perm","op":"Const","attr":{"dtype":{"type":"DT_INT32"},"value":{"tensor":{"dtype":"DT_INT32","tensorShape":{"dim":[{"size":"4"}]}}}}},
          {"name":"PartitionedCall/Const_38","op":"Const","attr":{"value":{"tensor":{"dtype":"DT_INT32","tensorShape":{"dim":[{"size":"4"},{"size":"2"}]}}},"dtype":{"type":"DT_INT32"}}},
          {"name":"PartitionedCall/transpose_60/perm","op":"Const","attr":{"dtype":{"type":"DT_INT32"},"value":{"tensor":{"dtype":"DT_INT32","tensorShape":{"dim":[{"size":"4"}]}}}}},
          {"name":"PartitionedCall/split_19","op":"Const","attr":{"dtype":{"type":"DT_FLOAT"},"value":{"tensor":{"dtype":"DT_FLOAT","tensorShape":{"dim":[{"size":"3"},{"size":"3"},{"size":"128"},{"size":"128"}]}}}}},
          {"name":"unknown_38","op":"Const","attr":{"value":{"tensor":{"dtype":"DT_FLOAT","tensorShape":{"dim":[{"size":"128"}]}}},"dtype":{"type":"DT_FLOAT"}}},
          {"name":"PartitionedCall/transpose_61/perm","op":"Const","attr":{"dtype":{"type":"DT_INT32"},"value":{"tensor":{"dtype":"DT_INT32","tensorShape":{"dim":[{"size":"4"}]}}}}},
          {"name":"PartitionedCall/Const_36","op":"Const","attr":{"value":{"tensor":{"dtype":"DT_INT32","tensorShape":{"dim":[{"size":"4"},{"size":"2"}]}}},"dtype":{"type":"DT_INT32"}}},
          {"name":"PartitionedCall/transpose_57/perm","op":"Const","attr":{"dtype":{"type":"DT_INT32"},"value":{"tensor":{"dtype":"DT_INT32","tensorShape":{"dim":[{"size":"4"}]}}}}},
          {"name":"PartitionedCall/split_18","op":"Const","attr":{"value":{"tensor":{"dtype":"DT_FLOAT","tensorShape":{"dim":[{"size":"3"},{"size":"3"},{"size":"256"},{"size":"128"}]}}},"dtype":{"type":"DT_FLOAT"}}},
          {"name":"unknown_36","op":"Const","attr":{"dtype":{"type":"DT_FLOAT"},"value":{"tensor":{"dtype":"DT_FLOAT","tensorShape":{"dim":[{"size":"128"}]}}}}},
          {"name":"PartitionedCall/transpose_58/perm","op":"Const","attr":{"dtype":{"type":"DT_INT32"},"value":{"tensor":{"dtype":"DT_INT32","tensorShape":{"dim":[{"size":"4"}]}}}}},
          {"name":"PartitionedCall/onnx_tf_prefix_Concat_49/axis","op":"Const","attr":{"dtype":{"type":"DT_INT32"},"value":{"tensor":{"dtype":"DT_INT32","tensorShape":{}}}}},
          {"name":"PartitionedCall/Const_40","op":"Const","attr":{"value":{"tensor":{"dtype":"DT_INT32","tensorShape":{"dim":[{"size":"4"},{"size":"2"}]}}},"dtype":{"type":"DT_INT32"}}},
          {"name":"PartitionedCall/transpose_63/perm","op":"Const","attr":{"dtype":{"type":"DT_INT32"},"value":{"tensor":{"dtype":"DT_INT32","tensorShape":{"dim":[{"size":"4"}]}}}}},
          {"name":"PartitionedCall/split_20","op":"Const","attr":{"dtype":{"type":"DT_FLOAT"},"value":{"tensor":{"dtype":"DT_FLOAT","tensorShape":{"dim":[{"size":"3"},{"size":"3"},{"size":"256"},{"size":"128"}]}}}}},
          {"name":"unknown_40","op":"Const","attr":{"dtype":{"type":"DT_FLOAT"},"value":{"tensor":{"dtype":"DT_FLOAT","tensorShape":{"dim":[{"size":"128"}]}}}}},
          {"name":"PartitionedCall/transpose_64/perm","op":"Const","attr":{"value":{"tensor":{"dtype":"DT_INT32","tensorShape":{"dim":[{"size":"4"}]}}},"dtype":{"type":"DT_INT32"}}},
          {"name":"PartitionedCall/onnx_tf_prefix_Concat_54/axis","op":"Const","attr":{"dtype":{"type":"DT_INT32"},"value":{"tensor":{"dtype":"DT_INT32","tensorShape":{}}}}},
          {"name":"PartitionedCall/Const_44","op":"Const","attr":{"value":{"tensor":{"dtype":"DT_INT32","tensorShape":{"dim":[{"size":"4"},{"size":"2"}]}}},"dtype":{"type":"DT_INT32"}}},
          {"name":"PartitionedCall/transpose_69/perm","op":"Const","attr":{"value":{"tensor":{"dtype":"DT_INT32","tensorShape":{"dim":[{"size":"4"}]}}},"dtype":{"type":"DT_INT32"}}},
          {"name":"PartitionedCall/split_22","op":"Const","attr":{"dtype":{"type":"DT_FLOAT"},"value":{"tensor":{"dtype":"DT_FLOAT","tensorShape":{"dim":[{"size":"3"},{"size":"3"},{"size":"256"},{"size":"128"}]}}}}},
          {"name":"unknown_44","op":"Const","attr":{"dtype":{"type":"DT_FLOAT"},"value":{"tensor":{"dtype":"DT_FLOAT","tensorShape":{"dim":[{"size":"128"}]}}}}},
          {"name":"PartitionedCall/transpose_70/perm","op":"Const","attr":{"dtype":{"type":"DT_INT32"},"value":{"tensor":{"dtype":"DT_INT32","tensorShape":{"dim":[{"size":"4"}]}}}}},
          {"name":"PartitionedCall/onnx_tf_prefix_Concat_59/axis","op":"Const","attr":{"value":{"tensor":{"dtype":"DT_INT32","tensorShape":{}}},"dtype":{"type":"DT_INT32"}}},
          {"name":"PartitionedCall/Const_48","op":"Const","attr":{"value":{"tensor":{"dtype":"DT_INT32","tensorShape":{"dim":[{"size":"4"},{"size":"2"}]}}},"dtype":{"type":"DT_INT32"}}},
          {"name":"PartitionedCall/transpose_75/perm","op":"Const","attr":{"value":{"tensor":{"dtype":"DT_INT32","tensorShape":{"dim":[{"size":"4"}]}}},"dtype":{"type":"DT_INT32"}}},
          {"name":"PartitionedCall/split_24","op":"Const","attr":{"dtype":{"type":"DT_FLOAT"},"value":{"tensor":{"dtype":"DT_FLOAT","tensorShape":{"dim":[{"size":"3"},{"size":"3"},{"size":"256"},{"size":"256"}]}}}}},
          {"name":"unknown_48","op":"Const","attr":{"dtype":{"type":"DT_FLOAT"},"value":{"tensor":{"dtype":"DT_FLOAT","tensorShape":{"dim":[{"size":"256"}]}}}}},
          {"name":"PartitionedCall/transpose_76/perm","op":"Const","attr":{"dtype":{"type":"DT_INT32"},"value":{"tensor":{"dtype":"DT_INT32","tensorShape":{"dim":[{"size":"4"}]}}}}},
          {"name":"PartitionedCall/Const_30","op":"Const","attr":{"dtype":{"type":"DT_INT32"},"value":{"tensor":{"dtype":"DT_INT32","tensorShape":{"dim":[{"size":"4"},{"size":"2"}]}}}}},
          {"name":"PartitionedCall/transpose_48/perm","op":"Const","attr":{"value":{"tensor":{"dtype":"DT_INT32","tensorShape":{"dim":[{"size":"4"}]}}},"dtype":{"type":"DT_INT32"}}},
          {"name":"PartitionedCall/split_15","op":"Const","attr":{"value":{"tensor":{"dtype":"DT_FLOAT","tensorShape":{"dim":[{"size":"3"},{"size":"3"},{"size":"64"},{"size":"64"}]}}},"dtype":{"type":"DT_FLOAT"}}},
          {"name":"unknown_30","op":"Const","attr":{"value":{"tensor":{"dtype":"DT_FLOAT","tensorShape":{"dim":[{"size":"64"}]}}},"dtype":{"type":"DT_FLOAT"}}},
          {"name":"PartitionedCall/transpose_49/perm","op":"Const","attr":{"value":{"tensor":{"dtype":"DT_INT32","tensorShape":{"dim":[{"size":"4"}]}}},"dtype":{"type":"DT_INT32"}}},
          {"name":"PartitionedCall/Const_26","op":"Const","attr":{"dtype":{"type":"DT_INT32"},"value":{"tensor":{"dtype":"DT_INT32","tensorShape":{"dim":[{"size":"4"},{"size":"2"}]}}}}},
          {"name":"PartitionedCall/transpose_42/perm","op":"Const","attr":{"value":{"tensor":{"dtype":"DT_INT32","tensorShape":{"dim":[{"size":"4"}]}}},"dtype":{"type":"DT_INT32"}}},
          {"name":"PartitionedCall/split_13","op":"Const","attr":{"dtype":{"type":"DT_FLOAT"},"value":{"tensor":{"dtype":"DT_FLOAT","tensorShape":{"dim":[{"size":"3"},{"size":"3"},{"size":"64"},{"size":"64"}]}}}}},
          {"name":"unknown_26","op":"Const","attr":{"value":{"tensor":{"dtype":"DT_FLOAT","tensorShape":{"dim":[{"size":"64"}]}}},"dtype":{"type":"DT_FLOAT"}}},
          {"name":"PartitionedCall/transpose_43/perm","op":"Const","attr":{"dtype":{"type":"DT_INT32"},"value":{"tensor":{"dtype":"DT_INT32","tensorShape":{"dim":[{"size":"4"}]}}}}},
          {"name":"PartitionedCall/Const_24","op":"Const","attr":{"value":{"tensor":{"dtype":"DT_INT32","tensorShape":{"dim":[{"size":"4"},{"size":"2"}]}}},"dtype":{"type":"DT_INT32"}}},
          {"name":"PartitionedCall/transpose_39/perm","op":"Const","attr":{"value":{"tensor":{"dtype":"DT_INT32","tensorShape":{"dim":[{"size":"4"}]}}},"dtype":{"type":"DT_INT32"}}},
          {"name":"PartitionedCall/split_12","op":"Const","attr":{"dtype":{"type":"DT_FLOAT"},"value":{"tensor":{"dtype":"DT_FLOAT","tensorShape":{"dim":[{"size":"3"},{"size":"3"},{"size":"128"},{"size":"64"}]}}}}},
          {"name":"unknown_24","op":"Const","attr":{"dtype":{"type":"DT_FLOAT"},"value":{"tensor":{"dtype":"DT_FLOAT","tensorShape":{"dim":[{"size":"64"}]}}}}},
          {"name":"PartitionedCall/transpose_40/perm","op":"Const","attr":{"value":{"tensor":{"dtype":"DT_INT32","tensorShape":{"dim":[{"size":"4"}]}}},"dtype":{"type":"DT_INT32"}}},
          {"name":"PartitionedCall/onnx_tf_prefix_Concat_34/axis","op":"Const","attr":{"value":{"tensor":{"dtype":"DT_INT32","tensorShape":{}}},"dtype":{"type":"DT_INT32"}}},
          {"name":"PartitionedCall/Const_28","op":"Const","attr":{"value":{"tensor":{"dtype":"DT_INT32","tensorShape":{"dim":[{"size":"4"},{"size":"2"}]}}},"dtype":{"type":"DT_INT32"}}},
          {"name":"PartitionedCall/transpose_45/perm","op":"Const","attr":{"dtype":{"type":"DT_INT32"},"value":{"tensor":{"dtype":"DT_INT32","tensorShape":{"dim":[{"size":"4"}]}}}}},
          {"name":"PartitionedCall/split_14","op":"Const","attr":{"value":{"tensor":{"dtype":"DT_FLOAT","tensorShape":{"dim":[{"size":"3"},{"size":"3"},{"size":"128"},{"size":"64"}]}}},"dtype":{"type":"DT_FLOAT"}}},
          {"name":"unknown_28","op":"Const","attr":{"dtype":{"type":"DT_FLOAT"},"value":{"tensor":{"dtype":"DT_FLOAT","tensorShape":{"dim":[{"size":"64"}]}}}}},
          {"name":"PartitionedCall/transpose_46/perm","op":"Const","attr":{"dtype":{"type":"DT_INT32"},"value":{"tensor":{"dtype":"DT_INT32","tensorShape":{"dim":[{"size":"4"}]}}}}},
          {"name":"PartitionedCall/onnx_tf_prefix_Concat_39/axis","op":"Const","attr":{"dtype":{"type":"DT_INT32"},"value":{"tensor":{"dtype":"DT_INT32","tensorShape":{}}}}},
          {"name":"PartitionedCall/Const_32","op":"Const","attr":{"dtype":{"type":"DT_INT32"},"value":{"tensor":{"dtype":"DT_INT32","tensorShape":{"dim":[{"size":"4"},{"size":"2"}]}}}}},
          {"name":"PartitionedCall/transpose_51/perm","op":"Const","attr":{"value":{"tensor":{"dtype":"DT_INT32","tensorShape":{"dim":[{"size":"4"}]}}},"dtype":{"type":"DT_INT32"}}},
          {"name":"PartitionedCall/split_16","op":"Const","attr":{"value":{"tensor":{"dtype":"DT_FLOAT","tensorShape":{"dim":[{"size":"3"},{"size":"3"},{"size":"128"},{"size":"128"}]}}},"dtype":{"type":"DT_FLOAT"}}},
          {"name":"unknown_32","op":"Const","attr":{"value":{"tensor":{"dtype":"DT_FLOAT","tensorShape":{"dim":[{"size":"128"}]}}},"dtype":{"type":"DT_FLOAT"}}},
          {"name":"PartitionedCall/transpose_52/perm","op":"Const","attr":{"dtype":{"type":"DT_INT32"},"value":{"tensor":{"dtype":"DT_INT32","tensorShape":{"dim":[{"size":"4"}]}}}}},
          {"name":"PartitionedCall/Const_18","op":"Const","attr":{"dtype":{"type":"DT_INT32"},"value":{"tensor":{"dtype":"DT_INT32","tensorShape":{"dim":[{"size":"4"},{"size":"2"}]}}}}},
          {"name":"PartitionedCall/transpose_30/perm","op":"Const","attr":{"dtype":{"type":"DT_INT32"},"value":{"tensor":{"dtype":"DT_INT32","tensorShape":{"dim":[{"size":"4"}]}}}}},
          {"name":"PartitionedCall/split_9","op":"Const","attr":{"value":{"tensor":{"dtype":"DT_FLOAT","tensorShape":{"dim":[{"size":"3"},{"size":"3"},{"size":"32"},{"size":"32"}]}}},"dtype":{"type":"DT_FLOAT"}}},
          {"name":"unknown_18","op":"Const","attr":{"dtype":{"type":"DT_FLOAT"},"value":{"tensor":{"dtype":"DT_FLOAT","tensorShape":{"dim":[{"size":"32"}]}}}}},
          {"name":"PartitionedCall/transpose_31/perm","op":"Const","attr":{"value":{"tensor":{"dtype":"DT_INT32","tensorShape":{"dim":[{"size":"4"}]}}},"dtype":{"type":"DT_INT32"}}},
          {"name":"PartitionedCall/Const_14","op":"Const","attr":{"value":{"tensor":{"dtype":"DT_INT32","tensorShape":{"dim":[{"size":"4"},{"size":"2"}]}}},"dtype":{"type":"DT_INT32"}}},
          {"name":"PartitionedCall/transpose_24/perm","op":"Const","attr":{"value":{"tensor":{"dtype":"DT_INT32","tensorShape":{"dim":[{"size":"4"}]}}},"dtype":{"type":"DT_INT32"}}},
          {"name":"PartitionedCall/split_7","op":"Const","attr":{"value":{"tensor":{"dtype":"DT_FLOAT","tensorShape":{"dim":[{"size":"3"},{"size":"3"},{"size":"32"},{"size":"32"}]}}},"dtype":{"type":"DT_FLOAT"}}},
          {"name":"unknown_14","op":"Const","attr":{"value":{"tensor":{"dtype":"DT_FLOAT","tensorShape":{"dim":[{"size":"32"}]}}},"dtype":{"type":"DT_FLOAT"}}},
          {"name":"PartitionedCall/transpose_25/perm","op":"Const","attr":{"dtype":{"type":"DT_INT32"},"value":{"tensor":{"dtype":"DT_INT32","tensorShape":{"dim":[{"size":"4"}]}}}}},
          {"name":"PartitionedCall/Const_12","op":"Const","attr":{"dtype":{"type":"DT_INT32"},"value":{"tensor":{"dtype":"DT_INT32","tensorShape":{"dim":[{"size":"4"},{"size":"2"}]}}}}},
          {"name":"PartitionedCall/transpose_21/perm","op":"Const","attr":{"dtype":{"type":"DT_INT32"},"value":{"tensor":{"dtype":"DT_INT32","tensorShape":{"dim":[{"size":"4"}]}}}}},
          {"name":"PartitionedCall/split_6","op":"Const","attr":{"value":{"tensor":{"dtype":"DT_FLOAT","tensorShape":{"dim":[{"size":"3"},{"size":"3"},{"size":"64"},{"size":"32"}]}}},"dtype":{"type":"DT_FLOAT"}}},
          {"name":"unknown_12","op":"Const","attr":{"dtype":{"type":"DT_FLOAT"},"value":{"tensor":{"dtype":"DT_FLOAT","tensorShape":{"dim":[{"size":"32"}]}}}}},
          {"name":"PartitionedCall/transpose_22/perm","op":"Const","attr":{"dtype":{"type":"DT_INT32"},"value":{"tensor":{"dtype":"DT_INT32","tensorShape":{"dim":[{"size":"4"}]}}}}},
          {"name":"PartitionedCall/onnx_tf_prefix_Concat_19/axis","op":"Const","attr":{"dtype":{"type":"DT_INT32"},"value":{"tensor":{"dtype":"DT_INT32","tensorShape":{}}}}},
          {"name":"PartitionedCall/Const_16","op":"Const","attr":{"dtype":{"type":"DT_INT32"},"value":{"tensor":{"dtype":"DT_INT32","tensorShape":{"dim":[{"size":"4"},{"size":"2"}]}}}}},
          {"name":"PartitionedCall/transpose_27/perm","op":"Const","attr":{"value":{"tensor":{"dtype":"DT_INT32","tensorShape":{"dim":[{"size":"4"}]}}},"dtype":{"type":"DT_INT32"}}},
          {"name":"PartitionedCall/split_8","op":"Const","attr":{"value":{"tensor":{"dtype":"DT_FLOAT","tensorShape":{"dim":[{"size":"3"},{"size":"3"},{"size":"64"},{"size":"32"}]}}},"dtype":{"type":"DT_FLOAT"}}},
          {"name":"unknown_16","op":"Const","attr":{"dtype":{"type":"DT_FLOAT"},"value":{"tensor":{"dtype":"DT_FLOAT","tensorShape":{"dim":[{"size":"32"}]}}}}},
          {"name":"PartitionedCall/transpose_28/perm","op":"Const","attr":{"value":{"tensor":{"dtype":"DT_INT32","tensorShape":{"dim":[{"size":"4"}]}}},"dtype":{"type":"DT_INT32"}}},
          {"name":"PartitionedCall/onnx_tf_prefix_Concat_24/axis","op":"Const","attr":{"dtype":{"type":"DT_INT32"},"value":{"tensor":{"dtype":"DT_INT32","tensorShape":{}}}}},
          {"name":"PartitionedCall/Const_20","op":"Const","attr":{"dtype":{"type":"DT_INT32"},"value":{"tensor":{"dtype":"DT_INT32","tensorShape":{"dim":[{"size":"4"},{"size":"2"}]}}}}},
          {"name":"PartitionedCall/transpose_33/perm","op":"Const","attr":{"value":{"tensor":{"dtype":"DT_INT32","tensorShape":{"dim":[{"size":"4"}]}}},"dtype":{"type":"DT_INT32"}}},
          {"name":"PartitionedCall/split_10","op":"Const","attr":{"value":{"tensor":{"dtype":"DT_FLOAT","tensorShape":{"dim":[{"size":"3"},{"size":"3"},{"size":"64"},{"size":"64"}]}}},"dtype":{"type":"DT_FLOAT"}}},
          {"name":"unknown_20","op":"Const","attr":{"dtype":{"type":"DT_FLOAT"},"value":{"tensor":{"dtype":"DT_FLOAT","tensorShape":{"dim":[{"size":"64"}]}}}}},
          {"name":"PartitionedCall/transpose_34/perm","op":"Const","attr":{"value":{"tensor":{"dtype":"DT_INT32","tensorShape":{"dim":[{"size":"4"}]}}},"dtype":{"type":"DT_INT32"}}},
          {"name":"PartitionedCall/Const_6","op":"Const","attr":{"dtype":{"type":"DT_INT32"},"value":{"tensor":{"dtype":"DT_INT32","tensorShape":{"dim":[{"size":"4"},{"size":"2"}]}}}}},
          {"name":"PartitionedCall/transpose_12/perm","op":"Const","attr":{"dtype":{"type":"DT_INT32"},"value":{"tensor":{"dtype":"DT_INT32","tensorShape":{"dim":[{"size":"4"}]}}}}},
          {"name":"PartitionedCall/split_3","op":"Const","attr":{"dtype":{"type":"DT_FLOAT"},"value":{"tensor":{"dtype":"DT_FLOAT","tensorShape":{"dim":[{"size":"3"},{"size":"3"},{"size":"16"},{"size":"16"}]}}}}},
          {"name":"unknown_6","op":"Const","attr":{"dtype":{"type":"DT_FLOAT"},"value":{"tensor":{"dtype":"DT_FLOAT","tensorShape":{"dim":[{"size":"16"}]}}}}},
          {"name":"PartitionedCall/transpose_13/perm","op":"Const","attr":{"dtype":{"type":"DT_INT32"},"value":{"tensor":{"dtype":"DT_INT32","tensorShape":{"dim":[{"size":"4"}]}}}}},
          {"name":"PartitionedCall/Const_4","op":"Const","attr":{"value":{"tensor":{"dtype":"DT_INT32","tensorShape":{"dim":[{"size":"4"},{"size":"2"}]}}},"dtype":{"type":"DT_INT32"}}},
          {"name":"PartitionedCall/transpose_9/perm","op":"Const","attr":{"value":{"tensor":{"dtype":"DT_INT32","tensorShape":{"dim":[{"size":"4"}]}}},"dtype":{"type":"DT_INT32"}}},
          {"name":"PartitionedCall/split_2","op":"Const","attr":{"value":{"tensor":{"dtype":"DT_FLOAT","tensorShape":{"dim":[{"size":"3"},{"size":"3"},{"size":"32"},{"size":"16"}]}}},"dtype":{"type":"DT_FLOAT"}}},
          {"name":"unknown_4","op":"Const","attr":{"dtype":{"type":"DT_FLOAT"},"value":{"tensor":{"dtype":"DT_FLOAT","tensorShape":{"dim":[{"size":"16"}]}}}}},
          {"name":"PartitionedCall/transpose_10/perm","op":"Const","attr":{"value":{"tensor":{"dtype":"DT_INT32","tensorShape":{"dim":[{"size":"4"}]}}},"dtype":{"type":"DT_INT32"}}},
          {"name":"PartitionedCall/onnx_tf_prefix_Concat_9/axis","op":"Const","attr":{"value":{"tensor":{"dtype":"DT_INT32","tensorShape":{}}},"dtype":{"type":"DT_INT32"}}},
          {"name":"PartitionedCall/Const_8","op":"Const","attr":{"value":{"tensor":{"dtype":"DT_INT32","tensorShape":{"dim":[{"size":"4"},{"size":"2"}]}}},"dtype":{"type":"DT_INT32"}}},
          {"name":"PartitionedCall/transpose_15/perm","op":"Const","attr":{"value":{"tensor":{"dtype":"DT_INT32","tensorShape":{"dim":[{"size":"4"}]}}},"dtype":{"type":"DT_INT32"}}},
          {"name":"PartitionedCall/split_4","op":"Const","attr":{"dtype":{"type":"DT_FLOAT"},"value":{"tensor":{"dtype":"DT_FLOAT","tensorShape":{"dim":[{"size":"3"},{"size":"3"},{"size":"32"},{"size":"32"}]}}}}},
          {"name":"unknown_8","op":"Const","attr":{"value":{"tensor":{"dtype":"DT_FLOAT","tensorShape":{"dim":[{"size":"32"}]}}},"dtype":{"type":"DT_FLOAT"}}},
          {"name":"PartitionedCall/transpose_16/perm","op":"Const","attr":{"value":{"tensor":{"dtype":"DT_INT32","tensorShape":{"dim":[{"size":"4"}]}}},"dtype":{"type":"DT_INT32"}}},
          {"name":"PartitionedCall/Const","op":"Const","attr":{"dtype":{"type":"DT_INT32"},"value":{"tensor":{"dtype":"DT_INT32","tensorShape":{"dim":[{"size":"4"},{"size":"2"}]}}}}},
          {"name":"PartitionedCall/transpose_1/perm","op":"Const","attr":{"value":{"tensor":{"dtype":"DT_INT32","tensorShape":{"dim":[{"size":"4"}]}}},"dtype":{"type":"DT_INT32"}}},
          {"name":"PartitionedCall/split","op":"Const","attr":{"dtype":{"type":"DT_FLOAT"},"value":{"tensor":{"dtype":"DT_FLOAT","tensorShape":{"dim":[{"size":"3"},{"size":"3"},{"size":"3"},{"size":"32"}]}}}}},
          {"name":"unknown_0","op":"Const","attr":{"dtype":{"type":"DT_FLOAT"},"value":{"tensor":{"dtype":"DT_FLOAT","tensorShape":{"dim":[{"size":"32"}]}}}}},
          {"name":"PartitionedCall/transpose_2/perm","op":"Const","attr":{"dtype":{"type":"DT_INT32"},"value":{"tensor":{"dtype":"DT_INT32","tensorShape":{"dim":[{"size":"4"}]}}}}},
          {"name":"PartitionedCall/PadV2/paddings","op":"Const","attr":{"value":{"tensor":{"dtype":"DT_INT32","tensorShape":{"dim":[{"size":"4"},{"size":"2"}]}}},"dtype":{"type":"DT_INT32"}}},
          {"name":"PartitionedCall/PadV2/constant_values","op":"Const","attr":{"value":{"tensor":{"dtype":"DT_FLOAT","tensorShape":{}}},"dtype":{"type":"DT_FLOAT"}}},
          {"name":"PartitionedCall/transpose_3/perm","op":"Const","attr":{"value":{"tensor":{"dtype":"DT_INT32","tensorShape":{"dim":[{"size":"4"}]}}},"dtype":{"type":"DT_INT32"}}},
          {"name":"PartitionedCall/transpose_4/perm","op":"Const","attr":{"dtype":{"type":"DT_INT32"},"value":{"tensor":{"dtype":"DT_INT32","tensorShape":{"dim":[{"size":"4"}]}}}}},
          {"name":"PartitionedCall/Const_2","op":"Const","attr":{"dtype":{"type":"DT_INT32"},"value":{"tensor":{"dtype":"DT_INT32","tensorShape":{"dim":[{"size":"4"},{"size":"2"}]}}}}},
          {"name":"PartitionedCall/transpose_6/perm","op":"Const","attr":{"dtype":{"type":"DT_INT32"},"value":{"tensor":{"dtype":"DT_INT32","tensorShape":{"dim":[{"size":"4"}]}}}}},
          {"name":"PartitionedCall/split_1","op":"Const","attr":{"dtype":{"type":"DT_FLOAT"},"value":{"tensor":{"dtype":"DT_FLOAT","tensorShape":{"dim":[{"size":"3"},{"size":"3"},{"size":"32"},{"size":"32"}]}}}}},
          {"name":"unknown_2","op":"Const","attr":{"dtype":{"type":"DT_FLOAT"},"value":{"tensor":{"dtype":"DT_FLOAT","tensorShape":{"dim":[{"size":"32"}]}}}}},
          {"name":"PartitionedCall/transpose_7/perm","op":"Const","attr":{"value":{"tensor":{"dtype":"DT_INT32","tensorShape":{"dim":[{"size":"4"}]}}},"dtype":{"type":"DT_INT32"}}},
          {"name":"PartitionedCall/onnx_tf_prefix_Concat_12/axis","op":"Const","attr":{"dtype":{"type":"DT_INT32"},"value":{"tensor":{"dtype":"DT_INT32","tensorShape":{}}}}},
          {"name":"PartitionedCall/Const_10","op":"Const","attr":{"dtype":{"type":"DT_INT32"},"value":{"tensor":{"dtype":"DT_INT32","tensorShape":{"dim":[{"size":"4"},{"size":"2"}]}}}}},
          {"name":"PartitionedCall/transpose_18/perm","op":"Const","attr":{"value":{"tensor":{"dtype":"DT_INT32","tensorShape":{"dim":[{"size":"4"}]}}},"dtype":{"type":"DT_INT32"}}},
          {"name":"PartitionedCall/split_5","op":"Const","attr":{"dtype":{"type":"DT_FLOAT"},"value":{"tensor":{"dtype":"DT_FLOAT","tensorShape":{"dim":[{"size":"3"},{"size":"3"},{"size":"64"},{"size":"64"}]}}}}},
          {"name":"unknown_10","op":"Const","attr":{"value":{"tensor":{"dtype":"DT_FLOAT","tensorShape":{"dim":[{"size":"64"}]}}},"dtype":{"type":"DT_FLOAT"}}},
          {"name":"PartitionedCall/transpose_19/perm","op":"Const","attr":{"value":{"tensor":{"dtype":"DT_INT32","tensorShape":{"dim":[{"size":"4"}]}}},"dtype":{"type":"DT_INT32"}}},
          {"name":"PartitionedCall/onnx_tf_prefix_Concat_27/axis","op":"Const","attr":{"value":{"tensor":{"dtype":"DT_INT32","tensorShape":{}}},"dtype":{"type":"DT_INT32"}}},
          {"name":"PartitionedCall/Const_22","op":"Const","attr":{"dtype":{"type":"DT_INT32"},"value":{"tensor":{"dtype":"DT_INT32","tensorShape":{"dim":[{"size":"4"},{"size":"2"}]}}}}},
          {"name":"PartitionedCall/transpose_36/perm","op":"Const","attr":{"value":{"tensor":{"dtype":"DT_INT32","tensorShape":{"dim":[{"size":"4"}]}}},"dtype":{"type":"DT_INT32"}}},
          {"name":"PartitionedCall/split_11","op":"Const","attr":{"value":{"tensor":{"dtype":"DT_FLOAT","tensorShape":{"dim":[{"size":"3"},{"size":"3"},{"size":"128"},{"size":"128"}]}}},"dtype":{"type":"DT_FLOAT"}}},
          {"name":"unknown_22","op":"Const","attr":{"dtype":{"type":"DT_FLOAT"},"value":{"tensor":{"dtype":"DT_FLOAT","tensorShape":{"dim":[{"size":"128"}]}}}}},
          {"name":"PartitionedCall/transpose_37/perm","op":"Const","attr":{"dtype":{"type":"DT_INT32"},"value":{"tensor":{"dtype":"DT_INT32","tensorShape":{"dim":[{"size":"4"}]}}}}},
          {"name":"PartitionedCall/onnx_tf_prefix_Concat_42/axis","op":"Const","attr":{"value":{"tensor":{"dtype":"DT_INT32","tensorShape":{}}},"dtype":{"type":"DT_INT32"}}},
          {"name":"PartitionedCall/Const_34","op":"Const","attr":{"dtype":{"type":"DT_INT32"},"value":{"tensor":{"dtype":"DT_INT32","tensorShape":{"dim":[{"size":"4"},{"size":"2"}]}}}}},
          {"name":"PartitionedCall/transpose_54/perm","op":"Const","attr":{"dtype":{"type":"DT_INT32"},"value":{"tensor":{"dtype":"DT_INT32","tensorShape":{"dim":[{"size":"4"}]}}}}},
          {"name":"PartitionedCall/split_17","op":"Const","attr":{"dtype":{"type":"DT_FLOAT"},"value":{"tensor":{"dtype":"DT_FLOAT","tensorShape":{"dim":[{"size":"3"},{"size":"3"},{"size":"256"},{"size":"256"}]}}}}},
          {"name":"unknown_34","op":"Const","attr":{"dtype":{"type":"DT_FLOAT"},"value":{"tensor":{"dtype":"DT_FLOAT","tensorShape":{"dim":[{"size":"256"}]}}}}},
          {"name":"PartitionedCall/transpose_55/perm","op":"Const","attr":{"value":{"tensor":{"dtype":"DT_INT32","tensorShape":{"dim":[{"size":"4"}]}}},"dtype":{"type":"DT_INT32"}}},
          {"name":"PartitionedCall/onnx_tf_prefix_Concat_62/axis","op":"Const","attr":{"value":{"tensor":{"dtype":"DT_INT32","tensorShape":{}}},"dtype":{"type":"DT_INT32"}}},
          {"name":"PartitionedCall/transpose_84/perm","op":"Const","attr":{"dtype":{"type":"DT_INT32"},"value":{"tensor":{"dtype":"DT_INT32","tensorShape":{"dim":[{"size":"4"}]}}}}},
          {"name":"PartitionedCall/split_27","op":"Const","attr":{"value":{"tensor":{"dtype":"DT_FLOAT","tensorShape":{"dim":[{"size":"1"},{"size":"1"},{"size":"512"},{"size":"128"}]}}},"dtype":{"type":"DT_FLOAT"}}},
          {"name":"unknown_54","op":"Const","attr":{"value":{"tensor":{"dtype":"DT_FLOAT","tensorShape":{"dim":[{"size":"128"}]}}},"dtype":{"type":"DT_FLOAT"}}},
          {"name":"PartitionedCall/Cast_1","op":"Const","attr":{"value":{"tensor":{"dtype":"DT_INT32","tensorShape":{"dim":[{"size":"2"}]}}},"dtype":{"type":"DT_INT32"}}},
          {"name":"PartitionedCall/transpose_87/perm","op":"Const","attr":{"value":{"tensor":{"dtype":"DT_INT32","tensorShape":{"dim":[{"size":"4"}]}}},"dtype":{"type":"DT_INT32"}}},
          {"name":"PartitionedCall/transpose_88/perm","op":"Const","attr":{"dtype":{"type":"DT_INT32"},"value":{"tensor":{"dtype":"DT_INT32","tensorShape":{"dim":[{"size":"4"}]}}}}},
          {"name":"PartitionedCall/Cast_3","op":"Const","attr":{"value":{"tensor":{"dtype":"DT_INT32","tensorShape":{"dim":[{"size":"2"}]}}},"dtype":{"type":"DT_INT32"}}},
          {"name":"PartitionedCall/transpose_89/perm","op":"Const","attr":{"dtype":{"type":"DT_INT32"},"value":{"tensor":{"dtype":"DT_INT32","tensorShape":{"dim":[{"size":"4"}]}}}}},
          {"name":"PartitionedCall/transpose_90/perm","op":"Const","attr":{"value":{"tensor":{"dtype":"DT_INT32","tensorShape":{"dim":[{"size":"4"}]}}},"dtype":{"type":"DT_INT32"}}},
          {"name":"PartitionedCall/Cast_5","op":"Const","attr":{"value":{"tensor":{"dtype":"DT_INT32","tensorShape":{"dim":[{"size":"2"}]}}},"dtype":{"type":"DT_INT32"}}},
          {"name":"PartitionedCall/transpose_91/perm","op":"Const","attr":{"dtype":{"type":"DT_INT32"},"value":{"tensor":{"dtype":"DT_INT32","tensorShape":{"dim":[{"size":"4"}]}}}}},
          {"name":"PartitionedCall/transpose_92/perm","op":"Const","attr":{"value":{"tensor":{"dtype":"DT_INT32","tensorShape":{"dim":[{"size":"4"}]}}},"dtype":{"type":"DT_INT32"}}},
          {"name":"PartitionedCall/Cast_7","op":"Const","attr":{"value":{"tensor":{"dtype":"DT_INT32","tensorShape":{"dim":[{"size":"2"}]}}},"dtype":{"type":"DT_INT32"}}},
          {"name":"PartitionedCall/transpose_93/perm","op":"Const","attr":{"dtype":{"type":"DT_INT32"},"value":{"tensor":{"dtype":"DT_INT32","tensorShape":{"dim":[{"size":"4"}]}}}}},
          {"name":"PartitionedCall/Const_65","op":"Const","attr":{"dtype":{"type":"DT_INT32"},"value":{"tensor":{"dtype":"DT_INT32","tensorShape":{"dim":[{"size":"4"},{"size":"2"}]}}}}},
          {"name":"PartitionedCall/transpose_107/perm","op":"Const","attr":{"value":{"tensor":{"dtype":"DT_INT32","tensorShape":{"dim":[{"size":"4"}]}}},"dtype":{"type":"DT_INT32"}}},
          {"name":"PartitionedCall/split_32","op":"Const","attr":{"value":{"tensor":{"dtype":"DT_FLOAT","tensorShape":{"dim":[{"size":"3"},{"size":"3"},{"size":"128"},{"size":"128"}]}}},"dtype":{"type":"DT_FLOAT"}}},
          {"name":"unknown_70","op":"Const","attr":{"value":{"tensor":{"dtype":"DT_FLOAT","tensorShape":{"dim":[{"size":"128"}]}}},"dtype":{"type":"DT_FLOAT"}}},
          {"name":"PartitionedCall/transpose_108/perm","op":"Const","attr":{"value":{"tensor":{"dtype":"DT_INT32","tensorShape":{"dim":[{"size":"4"}]}}},"dtype":{"type":"DT_INT32"}}},
          {"name":"PartitionedCall/transpose_110/perm","op":"Const","attr":{"value":{"tensor":{"dtype":"DT_INT32","tensorShape":{"dim":[{"size":"4"}]}}},"dtype":{"type":"DT_INT32"}}},
          {"name":"PartitionedCall/split_33","op":"Const","attr":{"value":{"tensor":{"dtype":"DT_FLOAT","tensorShape":{"dim":[{"size":"1"},{"size":"1"},{"size":"128"},{"size":"124"}]}}},"dtype":{"type":"DT_FLOAT"}}},
          {"name":"unknown_72","op":"Const","attr":{"value":{"tensor":{"dtype":"DT_FLOAT","tensorShape":{"dim":[{"size":"124"}]}}},"dtype":{"type":"DT_FLOAT"}}},
          {"name":"PartitionedCall/transpose_111/perm","op":"Const","attr":{"value":{"tensor":{"dtype":"DT_INT32","tensorShape":{"dim":[{"size":"4"}]}}},"dtype":{"type":"DT_INT32"}}},
          {"name":"PartitionedCall/Const_68","op":"Const","attr":{"dtype":{"type":"DT_INT32"},"value":{"tensor":{"dtype":"DT_INT32","tensorShape":{"dim":[{"size":"2"}]}}}}},
          {"name":"PartitionedCall/onnx_tf_prefix_Split_175/split_dim","op":"Const","attr":{"value":{"tensor":{"dtype":"DT_INT32","tensorShape":{}}},"dtype":{"type":"DT_INT32"}}},
          {"name":"unknown_64","op":"Const","attr":{"dtype":{"type":"DT_INT64"},"value":{"tensor":{"dtype":"DT_INT64","tensorShape":{"dim":[{"size":"3"}]}}}}},
          {"name":"PartitionedCall/Where_5","op":"Const","attr":{"dtype":{"type":"DT_INT64"},"value":{"tensor":{"dtype":"DT_INT64","tensorShape":{"dim":[{},{"size":"1"}]}}}}},
          {"name":"PartitionedCall/Cast_13","op":"Const","attr":{"dtype":{"type":"DT_INT64"},"value":{"tensor":{"dtype":"DT_INT64","tensorShape":{"dim":[{"size":"1"}]}}}}},
          {"name":"PartitionedCall/GatherV2_5","op":"Const","attr":{"value":{"tensor":{"dtype":"DT_INT64","tensorShape":{"dim":[{}]}}},"dtype":{"type":"DT_INT64"}}},
          {"name":"PartitionedCall/zeros_5","op":"Const","attr":{"value":{"tensor":{"dtype":"DT_INT64","tensorShape":{}}},"dtype":{"type":"DT_INT64"}}},
          {"name":"PartitionedCall/onnx_tf_prefix_Transpose_182/perm","op":"Const","attr":{"dtype":{"type":"DT_INT32"},"value":{"tensor":{"dtype":"DT_INT32","tensorShape":{"dim":[{"size":"3"}]}}}}},
          {"name":"input_1","op":"Placeholder","attr":{"shape":{"shape":{"dim":[{"size":"1"},{"size":"3"},{"size":"416"},{"size":"416"}]}},"dtype":{"type":"DT_FLOAT"}}},
          {"name":"PartitionedCall/SparseToDense","op":"SparseToDense","input":["PartitionedCall/Where","PartitionedCall/Cast_8","PartitionedCall/GatherV2","PartitionedCall/zeros"],"attr":{"T":{"type":"DT_INT64"},"Tindices":{"type":"DT_INT64"},"validate_indices":{"b":true}}},
          {"name":"PartitionedCall/SparseToDense_2","op":"SparseToDense","input":["PartitionedCall/Where_2","PartitionedCall/Cast_10","PartitionedCall/GatherV2_2","PartitionedCall/zeros_2"],"attr":{"T":{"type":"DT_INT64"},"validate_indices":{"b":true},"Tindices":{"type":"DT_INT64"}}},
          {"name":"PartitionedCall/SparseToDense_4","op":"SparseToDense","input":["PartitionedCall/Where_4","PartitionedCall/Cast_12","PartitionedCall/GatherV2_4","PartitionedCall/zeros_4"],"attr":{"validate_indices":{"b":true},"T":{"type":"DT_INT64"},"Tindices":{"type":"DT_INT64"}}},
          {"name":"PartitionedCall/SparseToDense_1","op":"SparseToDense","input":["PartitionedCall/Where_1","PartitionedCall/Cast_9","PartitionedCall/GatherV2_1","PartitionedCall/zeros_1"],"attr":{"T":{"type":"DT_INT64"},"validate_indices":{"b":true},"Tindices":{"type":"DT_INT64"}}},
          {"name":"PartitionedCall/SparseToDense_3","op":"SparseToDense","input":["PartitionedCall/Where_3","PartitionedCall/Cast_11","PartitionedCall/GatherV2_3","PartitionedCall/zeros_3"],"attr":{"Tindices":{"type":"DT_INT64"},"T":{"type":"DT_INT64"},"validate_indices":{"b":true}}},
          {"name":"PartitionedCall/SparseToDense_5","op":"SparseToDense","input":["PartitionedCall/Where_5","PartitionedCall/Cast_13","PartitionedCall/GatherV2_5","PartitionedCall/zeros_5"],"attr":{"validate_indices":{"b":true},"T":{"type":"DT_INT64"},"Tindices":{"type":"DT_INT64"}}},
          {"name":"PartitionedCall/Pad","op":"Pad","input":["input_1","PartitionedCall/Const"],"attr":{"T":{"type":"DT_FLOAT"},"Tpaddings":{"type":"DT_INT32"}}},
          {"name":"PartitionedCall/add_30","op":"AddV2","input":["unknown_63","PartitionedCall/SparseToDense"],"attr":{"T":{"type":"DT_INT64"}}},
          {"name":"PartitionedCall/add_34","op":"AddV2","input":["unknown_63","PartitionedCall/SparseToDense_2"],"attr":{"T":{"type":"DT_INT64"}}},
          {"name":"PartitionedCall/add_38","op":"AddV2","input":["unknown_63","PartitionedCall/SparseToDense_4"],"attr":{"T":{"type":"DT_INT64"}}},
          {"name":"PartitionedCall/add_31","op":"AddV2","input":["unknown_64","PartitionedCall/SparseToDense_1"],"attr":{"T":{"type":"DT_INT64"}}},
          {"name":"PartitionedCall/add_35","op":"AddV2","input":["unknown_64","PartitionedCall/SparseToDense_3"],"attr":{"T":{"type":"DT_INT64"}}},
          {"name":"PartitionedCall/add_39","op":"AddV2","input":["unknown_64","PartitionedCall/SparseToDense_5"],"attr":{"T":{"type":"DT_INT64"}}},
          {"name":"PartitionedCall/transpose_1","op":"Transpose","input":["PartitionedCall/Pad","PartitionedCall/transpose_1/perm"],"attr":{"Tperm":{"type":"DT_INT32"},"T":{"type":"DT_FLOAT"}}},
          {"name":"PartitionedCall/convolution","op":"Conv2D","input":["PartitionedCall/transpose_1","PartitionedCall/split"],"device":"/device:CPU:0","attr":{"padding":{"s":"VkFMSUQ="},"use_cudnn_on_gpu":{"b":true},"T":{"type":"DT_FLOAT"},"data_format":{"s":"TkhXQw=="},"strides":{"list":{"i":["1","2","2","1"]}},"explicit_paddings":{"list":{}},"dilations":{"list":{"i":["1","1","1","1"]}}}},
          {"name":"PartitionedCall/Add","op":"Add","input":["PartitionedCall/convolution","unknown_0"],"attr":{"T":{"type":"DT_FLOAT"}}},
          {"name":"PartitionedCall/transpose_2","op":"Transpose","input":["PartitionedCall/Add","PartitionedCall/transpose_2/perm"],"attr":{"Tperm":{"type":"DT_INT32"},"T":{"type":"DT_FLOAT"}}},
          {"name":"PartitionedCall/onnx_tf_prefix_LeakyRelu_1","op":"LeakyRelu","input":["PartitionedCall/transpose_2"],"attr":{"T":{"type":"DT_FLOAT"},"alpha":{"f":0.1}}},
          {"name":"PartitionedCall/PadV2","op":"PadV2","input":["PartitionedCall/onnx_tf_prefix_LeakyRelu_1","PartitionedCall/PadV2/paddings","PartitionedCall/PadV2/constant_values"],"attr":{"T":{"type":"DT_FLOAT"},"Tpaddings":{"type":"DT_INT32"}}},
          {"name":"PartitionedCall/transpose_3","op":"Transpose","input":["PartitionedCall/PadV2","PartitionedCall/transpose_3/perm"],"attr":{"T":{"type":"DT_FLOAT"},"Tperm":{"type":"DT_INT32"}}},
          {"name":"PartitionedCall/MaxPool2d","op":"MaxPool","input":["PartitionedCall/transpose_3"],"attr":{"explicit_paddings":{"list":{}},"T":{"type":"DT_FLOAT"},"data_format":{"s":"TkhXQw=="},"ksize":{"list":{"i":["1","3","3","1"]}},"padding":{"s":"VkFMSUQ="},"strides":{"list":{"i":["1","2","2","1"]}}}},
          {"name":"PartitionedCall/transpose_4","op":"Transpose","input":["PartitionedCall/MaxPool2d","PartitionedCall/transpose_4/perm"],"attr":{"Tperm":{"type":"DT_INT32"},"T":{"type":"DT_FLOAT"}}},
          {"name":"PartitionedCall/Pad_1","op":"Pad","input":["PartitionedCall/transpose_4","PartitionedCall/Const_2"],"attr":{"Tpaddings":{"type":"DT_INT32"},"T":{"type":"DT_FLOAT"}}},
          {"name":"PartitionedCall/transpose_6","op":"Transpose","input":["PartitionedCall/Pad_1","PartitionedCall/transpose_6/perm"],"attr":{"T":{"type":"DT_FLOAT"},"Tperm":{"type":"DT_INT32"}}},
          {"name":"PartitionedCall/convolution_1","op":"Conv2D","input":["PartitionedCall/transpose_6","PartitionedCall/split_1"],"device":"/device:CPU:0","attr":{"data_format":{"s":"TkhXQw=="},"padding":{"s":"VkFMSUQ="},"dilations":{"list":{"i":["1","1","1","1"]}},"use_cudnn_on_gpu":{"b":true},"T":{"type":"DT_FLOAT"},"explicit_paddings":{"list":{}},"strides":{"list":{"i":["1","1","1","1"]}}}},
          {"name":"PartitionedCall/Add_1","op":"Add","input":["PartitionedCall/convolution_1","unknown_2"],"attr":{"T":{"type":"DT_FLOAT"}}},
          {"name":"PartitionedCall/transpose_7","op":"Transpose","input":["PartitionedCall/Add_1","PartitionedCall/transpose_7/perm"],"attr":{"T":{"type":"DT_FLOAT"},"Tperm":{"type":"DT_INT32"}}},
          {"name":"PartitionedCall/onnx_tf_prefix_LeakyRelu_4","op":"LeakyRelu","input":["PartitionedCall/transpose_7"],"attr":{"T":{"type":"DT_FLOAT"},"alpha":{"f":0.1}}},
          {"name":"PartitionedCall/Pad_2","op":"Pad","input":["PartitionedCall/onnx_tf_prefix_LeakyRelu_4","PartitionedCall/Const_4"],"attr":{"T":{"type":"DT_FLOAT"},"Tpaddings":{"type":"DT_INT32"}}},
          {"name":"PartitionedCall/transpose_9","op":"Transpose","input":["PartitionedCall/Pad_2","PartitionedCall/transpose_9/perm"],"attr":{"Tperm":{"type":"DT_INT32"},"T":{"type":"DT_FLOAT"}}},
          {"name":"PartitionedCall/convolution_2","op":"Conv2D","input":["PartitionedCall/transpose_9","PartitionedCall/split_2"],"device":"/device:CPU:0","attr":{"padding":{"s":"VkFMSUQ="},"explicit_paddings":{"list":{}},"use_cudnn_on_gpu":{"b":true},"T":{"type":"DT_FLOAT"},"dilations":{"list":{"i":["1","1","1","1"]}},"strides":{"list":{"i":["1","1","1","1"]}},"data_format":{"s":"TkhXQw=="}}},
          {"name":"PartitionedCall/Add_2","op":"Add","input":["PartitionedCall/convolution_2","unknown_4"],"attr":{"T":{"type":"DT_FLOAT"}}},
          {"name":"PartitionedCall/transpose_10","op":"Transpose","input":["PartitionedCall/Add_2","PartitionedCall/transpose_10/perm"],"attr":{"Tperm":{"type":"DT_INT32"},"T":{"type":"DT_FLOAT"}}},
          {"name":"PartitionedCall/onnx_tf_prefix_LeakyRelu_6","op":"LeakyRelu","input":["PartitionedCall/transpose_10"],"attr":{"T":{"type":"DT_FLOAT"},"alpha":{"f":0.1}}},
          {"name":"PartitionedCall/Pad_3","op":"Pad","input":["PartitionedCall/onnx_tf_prefix_LeakyRelu_6","PartitionedCall/Const_6"],"attr":{"Tpaddings":{"type":"DT_INT32"},"T":{"type":"DT_FLOAT"}}},
          {"name":"PartitionedCall/transpose_12","op":"Transpose","input":["PartitionedCall/Pad_3","PartitionedCall/transpose_12/perm"],"attr":{"Tperm":{"type":"DT_INT32"},"T":{"type":"DT_FLOAT"}}},
          {"name":"PartitionedCall/convolution_3","op":"Conv2D","input":["PartitionedCall/transpose_12","PartitionedCall/split_3"],"device":"/device:CPU:0","attr":{"strides":{"list":{"i":["1","1","1","1"]}},"dilations":{"list":{"i":["1","1","1","1"]}},"T":{"type":"DT_FLOAT"},"explicit_paddings":{"list":{}},"padding":{"s":"VkFMSUQ="},"use_cudnn_on_gpu":{"b":true},"data_format":{"s":"TkhXQw=="}}},
          {"name":"PartitionedCall/Add_3","op":"Add","input":["PartitionedCall/convolution_3","unknown_6"],"attr":{"T":{"type":"DT_FLOAT"}}},
          {"name":"PartitionedCall/transpose_13","op":"Transpose","input":["PartitionedCall/Add_3","PartitionedCall/transpose_13/perm"],"attr":{"Tperm":{"type":"DT_INT32"},"T":{"type":"DT_FLOAT"}}},
          {"name":"PartitionedCall/onnx_tf_prefix_LeakyRelu_8","op":"LeakyRelu","input":["PartitionedCall/transpose_13"],"attr":{"alpha":{"f":0.1},"T":{"type":"DT_FLOAT"}}},
          {"name":"PartitionedCall/onnx_tf_prefix_Concat_9","op":"ConcatV2","input":["PartitionedCall/onnx_tf_prefix_LeakyRelu_8","PartitionedCall/onnx_tf_prefix_LeakyRelu_6","PartitionedCall/onnx_tf_prefix_Concat_9/axis"],"attr":{"T":{"type":"DT_FLOAT"},"N":{"i":"2"},"Tidx":{"type":"DT_INT32"}}},
          {"name":"PartitionedCall/Pad_4","op":"Pad","input":["PartitionedCall/onnx_tf_prefix_Concat_9","PartitionedCall/Const_8"],"attr":{"Tpaddings":{"type":"DT_INT32"},"T":{"type":"DT_FLOAT"}}},
          {"name":"PartitionedCall/transpose_15","op":"Transpose","input":["PartitionedCall/Pad_4","PartitionedCall/transpose_15/perm"],"attr":{"Tperm":{"type":"DT_INT32"},"T":{"type":"DT_FLOAT"}}},
          {"name":"PartitionedCall/convolution_4","op":"Conv2D","input":["PartitionedCall/transpose_15","PartitionedCall/split_4"],"device":"/device:CPU:0","attr":{"strides":{"list":{"i":["1","1","1","1"]}},"dilations":{"list":{"i":["1","1","1","1"]}},"data_format":{"s":"TkhXQw=="},"use_cudnn_on_gpu":{"b":true},"explicit_paddings":{"list":{}},"T":{"type":"DT_FLOAT"},"padding":{"s":"VkFMSUQ="}}},
          {"name":"PartitionedCall/Add_4","op":"Add","input":["PartitionedCall/convolution_4","unknown_8"],"attr":{"T":{"type":"DT_FLOAT"}}},
          {"name":"PartitionedCall/transpose_16","op":"Transpose","input":["PartitionedCall/Add_4","PartitionedCall/transpose_16/perm"],"attr":{"T":{"type":"DT_FLOAT"},"Tperm":{"type":"DT_INT32"}}},
          {"name":"PartitionedCall/onnx_tf_prefix_LeakyRelu_11","op":"LeakyRelu","input":["PartitionedCall/transpose_16"],"attr":{"alpha":{"f":0.1},"T":{"type":"DT_FLOAT"}}},
          {"name":"PartitionedCall/onnx_tf_prefix_Concat_12","op":"ConcatV2","input":["PartitionedCall/onnx_tf_prefix_LeakyRelu_11","PartitionedCall/onnx_tf_prefix_LeakyRelu_4","PartitionedCall/onnx_tf_prefix_Concat_12/axis"],"attr":{"Tidx":{"type":"DT_INT32"},"T":{"type":"DT_FLOAT"},"N":{"i":"2"}}},
          {"name":"PartitionedCall/Pad_5","op":"Pad","input":["PartitionedCall/onnx_tf_prefix_Concat_12","PartitionedCall/Const_10"],"attr":{"T":{"type":"DT_FLOAT"},"Tpaddings":{"type":"DT_INT32"}}},
          {"name":"PartitionedCall/transpose_18","op":"Transpose","input":["PartitionedCall/Pad_5","PartitionedCall/transpose_18/perm"],"attr":{"T":{"type":"DT_FLOAT"},"Tperm":{"type":"DT_INT32"}}},
          {"name":"PartitionedCall/convolution_5","op":"Conv2D","input":["PartitionedCall/transpose_18","PartitionedCall/split_5"],"device":"/device:CPU:0","attr":{"T":{"type":"DT_FLOAT"},"dilations":{"list":{"i":["1","1","1","1"]}},"padding":{"s":"VkFMSUQ="},"explicit_paddings":{"list":{}},"strides":{"list":{"i":["1","2","2","1"]}},"use_cudnn_on_gpu":{"b":true},"data_format":{"s":"TkhXQw=="}}},
          {"name":"PartitionedCall/Add_5","op":"Add","input":["PartitionedCall/convolution_5","unknown_10"],"attr":{"T":{"type":"DT_FLOAT"}}},
          {"name":"PartitionedCall/transpose_19","op":"Transpose","input":["PartitionedCall/Add_5","PartitionedCall/transpose_19/perm"],"attr":{"Tperm":{"type":"DT_INT32"},"T":{"type":"DT_FLOAT"}}},
          {"name":"PartitionedCall/onnx_tf_prefix_LeakyRelu_14","op":"LeakyRelu","input":["PartitionedCall/transpose_19"],"attr":{"T":{"type":"DT_FLOAT"},"alpha":{"f":0.1}}},
          {"name":"PartitionedCall/Pad_6","op":"Pad","input":["PartitionedCall/onnx_tf_prefix_LeakyRelu_14","PartitionedCall/Const_12"],"attr":{"T":{"type":"DT_FLOAT"},"Tpaddings":{"type":"DT_INT32"}}},
          {"name":"PartitionedCall/transpose_21","op":"Transpose","input":["PartitionedCall/Pad_6","PartitionedCall/transpose_21/perm"],"attr":{"Tperm":{"type":"DT_INT32"},"T":{"type":"DT_FLOAT"}}},
          {"name":"PartitionedCall/convolution_6","op":"Conv2D","input":["PartitionedCall/transpose_21","PartitionedCall/split_6"],"device":"/device:CPU:0","attr":{"data_format":{"s":"TkhXQw=="},"dilations":{"list":{"i":["1","1","1","1"]}},"explicit_paddings":{"list":{}},"strides":{"list":{"i":["1","1","1","1"]}},"T":{"type":"DT_FLOAT"},"use_cudnn_on_gpu":{"b":true},"padding":{"s":"VkFMSUQ="}}},
          {"name":"PartitionedCall/Add_6","op":"Add","input":["PartitionedCall/convolution_6","unknown_12"],"attr":{"T":{"type":"DT_FLOAT"}}},
          {"name":"PartitionedCall/transpose_22","op":"Transpose","input":["PartitionedCall/Add_6","PartitionedCall/transpose_22/perm"],"attr":{"T":{"type":"DT_FLOAT"},"Tperm":{"type":"DT_INT32"}}},
          {"name":"PartitionedCall/onnx_tf_prefix_LeakyRelu_16","op":"LeakyRelu","input":["PartitionedCall/transpose_22"],"attr":{"T":{"type":"DT_FLOAT"},"alpha":{"f":0.1}}},
          {"name":"PartitionedCall/Pad_7","op":"Pad","input":["PartitionedCall/onnx_tf_prefix_LeakyRelu_16","PartitionedCall/Const_14"],"attr":{"Tpaddings":{"type":"DT_INT32"},"T":{"type":"DT_FLOAT"}}},
          {"name":"PartitionedCall/transpose_24","op":"Transpose","input":["PartitionedCall/Pad_7","PartitionedCall/transpose_24/perm"],"attr":{"Tperm":{"type":"DT_INT32"},"T":{"type":"DT_FLOAT"}}},
          {"name":"PartitionedCall/convolution_7","op":"Conv2D","input":["PartitionedCall/transpose_24","PartitionedCall/split_7"],"device":"/device:CPU:0","attr":{"padding":{"s":"VkFMSUQ="},"explicit_paddings":{"list":{}},"strides":{"list":{"i":["1","1","1","1"]}},"T":{"type":"DT_FLOAT"},"data_format":{"s":"TkhXQw=="},"use_cudnn_on_gpu":{"b":true},"dilations":{"list":{"i":["1","1","1","1"]}}}},
          {"name":"PartitionedCall/Add_7","op":"Add","input":["PartitionedCall/convolution_7","unknown_14"],"attr":{"T":{"type":"DT_FLOAT"}}},
          {"name":"PartitionedCall/transpose_25","op":"Transpose","input":["PartitionedCall/Add_7","PartitionedCall/transpose_25/perm"],"attr":{"T":{"type":"DT_FLOAT"},"Tperm":{"type":"DT_INT32"}}},
          {"name":"PartitionedCall/onnx_tf_prefix_LeakyRelu_18","op":"LeakyRelu","input":["PartitionedCall/transpose_25"],"attr":{"T":{"type":"DT_FLOAT"},"alpha":{"f":0.1}}},
          {"name":"PartitionedCall/onnx_tf_prefix_Concat_19","op":"ConcatV2","input":["PartitionedCall/onnx_tf_prefix_LeakyRelu_18","PartitionedCall/onnx_tf_prefix_LeakyRelu_16","PartitionedCall/onnx_tf_prefix_Concat_19/axis"],"attr":{"T":{"type":"DT_FLOAT"},"Tidx":{"type":"DT_INT32"},"N":{"i":"2"}}},
          {"name":"PartitionedCall/Pad_8","op":"Pad","input":["PartitionedCall/onnx_tf_prefix_Concat_19","PartitionedCall/Const_16"],"attr":{"T":{"type":"DT_FLOAT"},"Tpaddings":{"type":"DT_INT32"}}},
          {"name":"PartitionedCall/transpose_27","op":"Transpose","input":["PartitionedCall/Pad_8","PartitionedCall/transpose_27/perm"],"attr":{"T":{"type":"DT_FLOAT"},"Tperm":{"type":"DT_INT32"}}},
          {"name":"PartitionedCall/convolution_8","op":"Conv2D","input":["PartitionedCall/transpose_27","PartitionedCall/split_8"],"device":"/device:CPU:0","attr":{"use_cudnn_on_gpu":{"b":true},"dilations":{"list":{"i":["1","1","1","1"]}},"explicit_paddings":{"list":{}},"strides":{"list":{"i":["1","1","1","1"]}},"padding":{"s":"VkFMSUQ="},"data_format":{"s":"TkhXQw=="},"T":{"type":"DT_FLOAT"}}},
          {"name":"PartitionedCall/Add_8","op":"Add","input":["PartitionedCall/convolution_8","unknown_16"],"attr":{"T":{"type":"DT_FLOAT"}}},
          {"name":"PartitionedCall/transpose_28","op":"Transpose","input":["PartitionedCall/Add_8","PartitionedCall/transpose_28/perm"],"attr":{"T":{"type":"DT_FLOAT"},"Tperm":{"type":"DT_INT32"}}},
          {"name":"PartitionedCall/onnx_tf_prefix_LeakyRelu_21","op":"LeakyRelu","input":["PartitionedCall/transpose_28"],"attr":{"T":{"type":"DT_FLOAT"},"alpha":{"f":0.1}}},
          {"name":"PartitionedCall/Pad_9","op":"Pad","input":["PartitionedCall/onnx_tf_prefix_LeakyRelu_21","PartitionedCall/Const_18"],"attr":{"T":{"type":"DT_FLOAT"},"Tpaddings":{"type":"DT_INT32"}}},
          {"name":"PartitionedCall/transpose_30","op":"Transpose","input":["PartitionedCall/Pad_9","PartitionedCall/transpose_30/perm"],"attr":{"Tperm":{"type":"DT_INT32"},"T":{"type":"DT_FLOAT"}}},
          {"name":"PartitionedCall/convolution_9","op":"Conv2D","input":["PartitionedCall/transpose_30","PartitionedCall/split_9"],"device":"/device:CPU:0","attr":{"data_format":{"s":"TkhXQw=="},"T":{"type":"DT_FLOAT"},"padding":{"s":"VkFMSUQ="},"strides":{"list":{"i":["1","1","1","1"]}},"use_cudnn_on_gpu":{"b":true},"dilations":{"list":{"i":["1","1","1","1"]}},"explicit_paddings":{"list":{}}}},
          {"name":"PartitionedCall/Add_9","op":"Add","input":["PartitionedCall/convolution_9","unknown_18"],"attr":{"T":{"type":"DT_FLOAT"}}},
          {"name":"PartitionedCall/transpose_31","op":"Transpose","input":["PartitionedCall/Add_9","PartitionedCall/transpose_31/perm"],"attr":{"Tperm":{"type":"DT_INT32"},"T":{"type":"DT_FLOAT"}}},
          {"name":"PartitionedCall/onnx_tf_prefix_LeakyRelu_23","op":"LeakyRelu","input":["PartitionedCall/transpose_31"],"attr":{"T":{"type":"DT_FLOAT"},"alpha":{"f":0.1}}},
          {"name":"PartitionedCall/onnx_tf_prefix_Concat_24","op":"ConcatV2","input":["PartitionedCall/onnx_tf_prefix_LeakyRelu_23","PartitionedCall/onnx_tf_prefix_LeakyRelu_21","PartitionedCall/onnx_tf_prefix_Concat_24/axis"],"attr":{"T":{"type":"DT_FLOAT"},"Tidx":{"type":"DT_INT32"},"N":{"i":"2"}}},
          {"name":"PartitionedCall/Pad_10","op":"Pad","input":["PartitionedCall/onnx_tf_prefix_Concat_24","PartitionedCall/Const_20"],"attr":{"T":{"type":"DT_FLOAT"},"Tpaddings":{"type":"DT_INT32"}}},
          {"name":"PartitionedCall/transpose_33","op":"Transpose","input":["PartitionedCall/Pad_10","PartitionedCall/transpose_33/perm"],"attr":{"Tperm":{"type":"DT_INT32"},"T":{"type":"DT_FLOAT"}}},
          {"name":"PartitionedCall/convolution_10","op":"Conv2D","input":["PartitionedCall/transpose_33","PartitionedCall/split_10"],"device":"/device:CPU:0","attr":{"explicit_paddings":{"list":{}},"data_format":{"s":"TkhXQw=="},"strides":{"list":{"i":["1","1","1","1"]}},"dilations":{"list":{"i":["1","1","1","1"]}},"T":{"type":"DT_FLOAT"},"use_cudnn_on_gpu":{"b":true},"padding":{"s":"VkFMSUQ="}}},
          {"name":"PartitionedCall/Add_10","op":"Add","input":["PartitionedCall/convolution_10","unknown_20"],"attr":{"T":{"type":"DT_FLOAT"}}},
          {"name":"PartitionedCall/transpose_34","op":"Transpose","input":["PartitionedCall/Add_10","PartitionedCall/transpose_34/perm"],"attr":{"Tperm":{"type":"DT_INT32"},"T":{"type":"DT_FLOAT"}}},
          {"name":"PartitionedCall/onnx_tf_prefix_LeakyRelu_26","op":"LeakyRelu","input":["PartitionedCall/transpose_34"],"attr":{"alpha":{"f":0.1},"T":{"type":"DT_FLOAT"}}},
          {"name":"PartitionedCall/onnx_tf_prefix_Concat_27","op":"ConcatV2","input":["PartitionedCall/onnx_tf_prefix_LeakyRelu_26","PartitionedCall/onnx_tf_prefix_LeakyRelu_14","PartitionedCall/onnx_tf_prefix_Concat_27/axis"],"attr":{"T":{"type":"DT_FLOAT"},"Tidx":{"type":"DT_INT32"},"N":{"i":"2"}}},
          {"name":"PartitionedCall/transpose_78","op":"Transpose","input":["PartitionedCall/onnx_tf_prefix_Concat_27","PartitionedCall/transpose_78/perm"],"attr":{"Tperm":{"type":"DT_INT32"},"T":{"type":"DT_FLOAT"}}},
          {"name":"PartitionedCall/Pad_11","op":"Pad","input":["PartitionedCall/onnx_tf_prefix_Concat_27","PartitionedCall/Const_22"],"attr":{"Tpaddings":{"type":"DT_INT32"},"T":{"type":"DT_FLOAT"}}},
          {"name":"PartitionedCall/convolution_25","op":"Conv2D","input":["PartitionedCall/transpose_78","PartitionedCall/split_25"],"device":"/device:CPU:0","attr":{"use_cudnn_on_gpu":{"b":true},"T":{"type":"DT_FLOAT"},"padding":{"s":"VkFMSUQ="},"dilations":{"list":{"i":["1","1","1","1"]}},"explicit_paddings":{"list":{}},"data_format":{"s":"TkhXQw=="},"strides":{"list":{"i":["1","1","1","1"]}}}},
          {"name":"PartitionedCall/transpose_36","op":"Transpose","input":["PartitionedCall/Pad_11","PartitionedCall/transpose_36/perm"],"attr":{"T":{"type":"DT_FLOAT"},"Tperm":{"type":"DT_INT32"}}},
          {"name":"PartitionedCall/Add_25","op":"Add","input":["PartitionedCall/convolution_25","unknown_50"],"attr":{"T":{"type":"DT_FLOAT"}}},
          {"name":"PartitionedCall/convolution_11","op":"Conv2D","input":["PartitionedCall/transpose_36","PartitionedCall/split_11"],"device":"/device:CPU:0","attr":{"explicit_paddings":{"list":{}},"dilations":{"list":{"i":["1","1","1","1"]}},"use_cudnn_on_gpu":{"b":true},"padding":{"s":"VkFMSUQ="},"data_format":{"s":"TkhXQw=="},"strides":{"list":{"i":["1","2","2","1"]}},"T":{"type":"DT_FLOAT"}}},
          {"name":"PartitionedCall/transpose_79","op":"Transpose","input":["PartitionedCall/Add_25","PartitionedCall/transpose_79/perm"],"attr":{"T":{"type":"DT_FLOAT"},"Tperm":{"type":"DT_INT32"}}},
          {"name":"PartitionedCall/Add_11","op":"Add","input":["PartitionedCall/convolution_11","unknown_22"],"attr":{"T":{"type":"DT_FLOAT"}}},
          {"name":"PartitionedCall/transpose_37","op":"Transpose","input":["PartitionedCall/Add_11","PartitionedCall/transpose_37/perm"],"attr":{"Tperm":{"type":"DT_INT32"},"T":{"type":"DT_FLOAT"}}},
          {"name":"PartitionedCall/onnx_tf_prefix_LeakyRelu_29","op":"LeakyRelu","input":["PartitionedCall/transpose_37"],"attr":{"alpha":{"f":0.1},"T":{"type":"DT_FLOAT"}}},
          {"name":"PartitionedCall/Pad_12","op":"Pad","input":["PartitionedCall/onnx_tf_prefix_LeakyRelu_29","PartitionedCall/Const_24"],"attr":{"T":{"type":"DT_FLOAT"},"Tpaddings":{"type":"DT_INT32"}}},
          {"name":"PartitionedCall/transpose_39","op":"Transpose","input":["PartitionedCall/Pad_12","PartitionedCall/transpose_39/perm"],"attr":{"Tperm":{"type":"DT_INT32"},"T":{"type":"DT_FLOAT"}}},
          {"name":"PartitionedCall/convolution_12","op":"Conv2D","input":["PartitionedCall/transpose_39","PartitionedCall/split_12"],"device":"/device:CPU:0","attr":{"dilations":{"list":{"i":["1","1","1","1"]}},"T":{"type":"DT_FLOAT"},"strides":{"list":{"i":["1","1","1","1"]}},"explicit_paddings":{"list":{}},"padding":{"s":"VkFMSUQ="},"use_cudnn_on_gpu":{"b":true},"data_format":{"s":"TkhXQw=="}}},
          {"name":"PartitionedCall/Add_12","op":"Add","input":["PartitionedCall/convolution_12","unknown_24"],"attr":{"T":{"type":"DT_FLOAT"}}},
          {"name":"PartitionedCall/transpose_40","op":"Transpose","input":["PartitionedCall/Add_12","PartitionedCall/transpose_40/perm"],"attr":{"T":{"type":"DT_FLOAT"},"Tperm":{"type":"DT_INT32"}}},
          {"name":"PartitionedCall/onnx_tf_prefix_LeakyRelu_31","op":"LeakyRelu","input":["PartitionedCall/transpose_40"],"attr":{"T":{"type":"DT_FLOAT"},"alpha":{"f":0.1}}},
          {"name":"PartitionedCall/Pad_13","op":"Pad","input":["PartitionedCall/onnx_tf_prefix_LeakyRelu_31","PartitionedCall/Const_26"],"attr":{"T":{"type":"DT_FLOAT"},"Tpaddings":{"type":"DT_INT32"}}},
          {"name":"PartitionedCall/transpose_42","op":"Transpose","input":["PartitionedCall/Pad_13","PartitionedCall/transpose_42/perm"],"attr":{"T":{"type":"DT_FLOAT"},"Tperm":{"type":"DT_INT32"}}},
          {"name":"PartitionedCall/convolution_13","op":"Conv2D","input":["PartitionedCall/transpose_42","PartitionedCall/split_13"],"device":"/device:CPU:0","attr":{"T":{"type":"DT_FLOAT"},"strides":{"list":{"i":["1","1","1","1"]}},"dilations":{"list":{"i":["1","1","1","1"]}},"explicit_paddings":{"list":{}},"use_cudnn_on_gpu":{"b":true},"padding":{"s":"VkFMSUQ="},"data_format":{"s":"TkhXQw=="}}},
          {"name":"PartitionedCall/Add_13","op":"Add","input":["PartitionedCall/convolution_13","unknown_26"],"attr":{"T":{"type":"DT_FLOAT"}}},
          {"name":"PartitionedCall/transpose_43","op":"Transpose","input":["PartitionedCall/Add_13","PartitionedCall/transpose_43/perm"],"attr":{"Tperm":{"type":"DT_INT32"},"T":{"type":"DT_FLOAT"}}},
          {"name":"PartitionedCall/onnx_tf_prefix_LeakyRelu_33","op":"LeakyRelu","input":["PartitionedCall/transpose_43"],"attr":{"alpha":{"f":0.1},"T":{"type":"DT_FLOAT"}}},
          {"name":"PartitionedCall/onnx_tf_prefix_Concat_34","op":"ConcatV2","input":["PartitionedCall/onnx_tf_prefix_LeakyRelu_33","PartitionedCall/onnx_tf_prefix_LeakyRelu_31","PartitionedCall/onnx_tf_prefix_Concat_34/axis"],"attr":{"Tidx":{"type":"DT_INT32"},"N":{"i":"2"},"T":{"type":"DT_FLOAT"}}},
          {"name":"PartitionedCall/Pad_14","op":"Pad","input":["PartitionedCall/onnx_tf_prefix_Concat_34","PartitionedCall/Const_28"],"attr":{"Tpaddings":{"type":"DT_INT32"},"T":{"type":"DT_FLOAT"}}},
          {"name":"PartitionedCall/transpose_45","op":"Transpose","input":["PartitionedCall/Pad_14","PartitionedCall/transpose_45/perm"],"attr":{"T":{"type":"DT_FLOAT"},"Tperm":{"type":"DT_INT32"}}},
          {"name":"PartitionedCall/convolution_14","op":"Conv2D","input":["PartitionedCall/transpose_45","PartitionedCall/split_14"],"device":"/device:CPU:0","attr":{"data_format":{"s":"TkhXQw=="},"strides":{"list":{"i":["1","1","1","1"]}},"dilations":{"list":{"i":["1","1","1","1"]}},"padding":{"s":"VkFMSUQ="},"T":{"type":"DT_FLOAT"},"use_cudnn_on_gpu":{"b":true},"explicit_paddings":{"list":{}}}},
          {"name":"PartitionedCall/Add_14","op":"Add","input":["PartitionedCall/convolution_14","unknown_28"],"attr":{"T":{"type":"DT_FLOAT"}}},
          {"name":"PartitionedCall/transpose_46","op":"Transpose","input":["PartitionedCall/Add_14","PartitionedCall/transpose_46/perm"],"attr":{"Tperm":{"type":"DT_INT32"},"T":{"type":"DT_FLOAT"}}},
          {"name":"PartitionedCall/onnx_tf_prefix_LeakyRelu_36","op":"LeakyRelu","input":["PartitionedCall/transpose_46"],"attr":{"T":{"type":"DT_FLOAT"},"alpha":{"f":0.1}}},
          {"name":"PartitionedCall/Pad_15","op":"Pad","input":["PartitionedCall/onnx_tf_prefix_LeakyRelu_36","PartitionedCall/Const_30"],"attr":{"Tpaddings":{"type":"DT_INT32"},"T":{"type":"DT_FLOAT"}}},
          {"name":"PartitionedCall/transpose_48","op":"Transpose","input":["PartitionedCall/Pad_15","PartitionedCall/transpose_48/perm"],"attr":{"T":{"type":"DT_FLOAT"},"Tperm":{"type":"DT_INT32"}}},
          {"name":"PartitionedCall/convolution_15","op":"Conv2D","input":["PartitionedCall/transpose_48","PartitionedCall/split_15"],"device":"/device:CPU:0","attr":{"strides":{"list":{"i":["1","1","1","1"]}},"explicit_paddings":{"list":{}},"data_format":{"s":"TkhXQw=="},"dilations":{"list":{"i":["1","1","1","1"]}},"padding":{"s":"VkFMSUQ="},"T":{"type":"DT_FLOAT"},"use_cudnn_on_gpu":{"b":true}}},
          {"name":"PartitionedCall/Add_15","op":"Add","input":["PartitionedCall/convolution_15","unknown_30"],"attr":{"T":{"type":"DT_FLOAT"}}},
          {"name":"PartitionedCall/transpose_49","op":"Transpose","input":["PartitionedCall/Add_15","PartitionedCall/transpose_49/perm"],"attr":{"Tperm":{"type":"DT_INT32"},"T":{"type":"DT_FLOAT"}}},
          {"name":"PartitionedCall/onnx_tf_prefix_LeakyRelu_38","op":"LeakyRelu","input":["PartitionedCall/transpose_49"],"attr":{"alpha":{"f":0.1},"T":{"type":"DT_FLOAT"}}},
          {"name":"PartitionedCall/onnx_tf_prefix_Concat_39","op":"ConcatV2","input":["PartitionedCall/onnx_tf_prefix_LeakyRelu_38","PartitionedCall/onnx_tf_prefix_LeakyRelu_36","PartitionedCall/onnx_tf_prefix_Concat_39/axis"],"attr":{"N":{"i":"2"},"T":{"type":"DT_FLOAT"},"Tidx":{"type":"DT_INT32"}}},
          {"name":"PartitionedCall/Pad_16","op":"Pad","input":["PartitionedCall/onnx_tf_prefix_Concat_39","PartitionedCall/Const_32"],"attr":{"Tpaddings":{"type":"DT_INT32"},"T":{"type":"DT_FLOAT"}}},
          {"name":"PartitionedCall/transpose_51","op":"Transpose","input":["PartitionedCall/Pad_16","PartitionedCall/transpose_51/perm"],"attr":{"T":{"type":"DT_FLOAT"},"Tperm":{"type":"DT_INT32"}}},
          {"name":"PartitionedCall/convolution_16","op":"Conv2D","input":["PartitionedCall/transpose_51","PartitionedCall/split_16"],"device":"/device:CPU:0","attr":{"use_cudnn_on_gpu":{"b":true},"dilations":{"list":{"i":["1","1","1","1"]}},"explicit_paddings":{"list":{}},"padding":{"s":"VkFMSUQ="},"strides":{"list":{"i":["1","1","1","1"]}},"data_format":{"s":"TkhXQw=="},"T":{"type":"DT_FLOAT"}}},
          {"name":"PartitionedCall/Add_16","op":"Add","input":["PartitionedCall/convolution_16","unknown_32"],"attr":{"T":{"type":"DT_FLOAT"}}},
          {"name":"PartitionedCall/transpose_52","op":"Transpose","input":["PartitionedCall/Add_16","PartitionedCall/transpose_52/perm"],"attr":{"Tperm":{"type":"DT_INT32"},"T":{"type":"DT_FLOAT"}}},
          {"name":"PartitionedCall/onnx_tf_prefix_LeakyRelu_41","op":"LeakyRelu","input":["PartitionedCall/transpose_52"],"attr":{"T":{"type":"DT_FLOAT"},"alpha":{"f":0.1}}},
          {"name":"PartitionedCall/onnx_tf_prefix_Concat_42","op":"ConcatV2","input":["PartitionedCall/onnx_tf_prefix_LeakyRelu_41","PartitionedCall/onnx_tf_prefix_LeakyRelu_29","PartitionedCall/onnx_tf_prefix_Concat_42/axis"],"attr":{"N":{"i":"2"},"T":{"type":"DT_FLOAT"},"Tidx":{"type":"DT_INT32"}}},
          {"name":"PartitionedCall/transpose_81","op":"Transpose","input":["PartitionedCall/onnx_tf_prefix_Concat_42","PartitionedCall/transpose_81/perm"],"attr":{"T":{"type":"DT_FLOAT"},"Tperm":{"type":"DT_INT32"}}},
          {"name":"PartitionedCall/Pad_17","op":"Pad","input":["PartitionedCall/onnx_tf_prefix_Concat_42","PartitionedCall/Const_34"],"attr":{"T":{"type":"DT_FLOAT"},"Tpaddings":{"type":"DT_INT32"}}},
          {"name":"PartitionedCall/convolution_26","op":"Conv2D","input":["PartitionedCall/transpose_81","PartitionedCall/split_26"],"device":"/device:CPU:0","attr":{"data_format":{"s":"TkhXQw=="},"strides":{"list":{"i":["1","1","1","1"]}},"explicit_paddings":{"list":{}},"padding":{"s":"VkFMSUQ="},"dilations":{"list":{"i":["1","1","1","1"]}},"T":{"type":"DT_FLOAT"},"use_cudnn_on_gpu":{"b":true}}},
          {"name":"PartitionedCall/transpose_54","op":"Transpose","input":["PartitionedCall/Pad_17","PartitionedCall/transpose_54/perm"],"attr":{"T":{"type":"DT_FLOAT"},"Tperm":{"type":"DT_INT32"}}},
          {"name":"PartitionedCall/Add_26","op":"Add","input":["PartitionedCall/convolution_26","unknown_52"],"attr":{"T":{"type":"DT_FLOAT"}}},
          {"name":"PartitionedCall/convolution_17","op":"Conv2D","input":["PartitionedCall/transpose_54","PartitionedCall/split_17"],"device":"/device:CPU:0","attr":{"padding":{"s":"VkFMSUQ="},"T":{"type":"DT_FLOAT"},"data_format":{"s":"TkhXQw=="},"explicit_paddings":{"list":{}},"dilations":{"list":{"i":["1","1","1","1"]}},"use_cudnn_on_gpu":{"b":true},"strides":{"list":{"i":["1","2","2","1"]}}}},
          {"name":"PartitionedCall/transpose_82","op":"Transpose","input":["PartitionedCall/Add_26","PartitionedCall/transpose_82/perm"],"attr":{"T":{"type":"DT_FLOAT"},"Tperm":{"type":"DT_INT32"}}},
          {"name":"PartitionedCall/Add_17","op":"Add","input":["PartitionedCall/convolution_17","unknown_34"],"attr":{"T":{"type":"DT_FLOAT"}}},
          {"name":"PartitionedCall/transpose_55","op":"Transpose","input":["PartitionedCall/Add_17","PartitionedCall/transpose_55/perm"],"attr":{"T":{"type":"DT_FLOAT"},"Tperm":{"type":"DT_INT32"}}},
          {"name":"PartitionedCall/onnx_tf_prefix_LeakyRelu_44","op":"LeakyRelu","input":["PartitionedCall/transpose_55"],"attr":{"alpha":{"f":0.1},"T":{"type":"DT_FLOAT"}}},
          {"name":"PartitionedCall/Pad_18","op":"Pad","input":["PartitionedCall/onnx_tf_prefix_LeakyRelu_44","PartitionedCall/Const_36"],"attr":{"T":{"type":"DT_FLOAT"},"Tpaddings":{"type":"DT_INT32"}}},
          {"name":"PartitionedCall/transpose_57","op":"Transpose","input":["PartitionedCall/Pad_18","PartitionedCall/transpose_57/perm"],"attr":{"T":{"type":"DT_FLOAT"},"Tperm":{"type":"DT_INT32"}}},
          {"name":"PartitionedCall/convolution_18","op":"Conv2D","input":["PartitionedCall/transpose_57","PartitionedCall/split_18"],"device":"/device:CPU:0","attr":{"T":{"type":"DT_FLOAT"},"explicit_paddings":{"list":{}},"padding":{"s":"VkFMSUQ="},"strides":{"list":{"i":["1","1","1","1"]}},"data_format":{"s":"TkhXQw=="},"use_cudnn_on_gpu":{"b":true},"dilations":{"list":{"i":["1","1","1","1"]}}}},
          {"name":"PartitionedCall/Add_18","op":"Add","input":["PartitionedCall/convolution_18","unknown_36"],"attr":{"T":{"type":"DT_FLOAT"}}},
          {"name":"PartitionedCall/transpose_58","op":"Transpose","input":["PartitionedCall/Add_18","PartitionedCall/transpose_58/perm"],"attr":{"Tperm":{"type":"DT_INT32"},"T":{"type":"DT_FLOAT"}}},
          {"name":"PartitionedCall/onnx_tf_prefix_LeakyRelu_46","op":"LeakyRelu","input":["PartitionedCall/transpose_58"],"attr":{"T":{"type":"DT_FLOAT"},"alpha":{"f":0.1}}},
          {"name":"PartitionedCall/Pad_19","op":"Pad","input":["PartitionedCall/onnx_tf_prefix_LeakyRelu_46","PartitionedCall/Const_38"],"attr":{"Tpaddings":{"type":"DT_INT32"},"T":{"type":"DT_FLOAT"}}},
          {"name":"PartitionedCall/transpose_60","op":"Transpose","input":["PartitionedCall/Pad_19","PartitionedCall/transpose_60/perm"],"attr":{"Tperm":{"type":"DT_INT32"},"T":{"type":"DT_FLOAT"}}},
          {"name":"PartitionedCall/convolution_19","op":"Conv2D","input":["PartitionedCall/transpose_60","PartitionedCall/split_19"],"device":"/device:CPU:0","attr":{"dilations":{"list":{"i":["1","1","1","1"]}},"data_format":{"s":"TkhXQw=="},"T":{"type":"DT_FLOAT"},"explicit_paddings":{"list":{}},"padding":{"s":"VkFMSUQ="},"strides":{"list":{"i":["1","1","1","1"]}},"use_cudnn_on_gpu":{"b":true}}},
          {"name":"PartitionedCall/Add_19","op":"Add","input":["PartitionedCall/convolution_19","unknown_38"],"attr":{"T":{"type":"DT_FLOAT"}}},
          {"name":"PartitionedCall/transpose_61","op":"Transpose","input":["PartitionedCall/Add_19","PartitionedCall/transpose_61/perm"],"attr":{"Tperm":{"type":"DT_INT32"},"T":{"type":"DT_FLOAT"}}},
          {"name":"PartitionedCall/onnx_tf_prefix_LeakyRelu_48","op":"LeakyRelu","input":["PartitionedCall/transpose_61"],"attr":{"alpha":{"f":0.1},"T":{"type":"DT_FLOAT"}}},
          {"name":"PartitionedCall/onnx_tf_prefix_Concat_49","op":"ConcatV2","input":["PartitionedCall/onnx_tf_prefix_LeakyRelu_48","PartitionedCall/onnx_tf_prefix_LeakyRelu_46","PartitionedCall/onnx_tf_prefix_Concat_49/axis"],"attr":{"N":{"i":"2"},"T":{"type":"DT_FLOAT"},"Tidx":{"type":"DT_INT32"}}},
          {"name":"PartitionedCall/Pad_20","op":"Pad","input":["PartitionedCall/onnx_tf_prefix_Concat_49","PartitionedCall/Const_40"],"attr":{"T":{"type":"DT_FLOAT"},"Tpaddings":{"type":"DT_INT32"}}},
          {"name":"PartitionedCall/transpose_63","op":"Transpose","input":["PartitionedCall/Pad_20","PartitionedCall/transpose_63/perm"],"attr":{"T":{"type":"DT_FLOAT"},"Tperm":{"type":"DT_INT32"}}},
          {"name":"PartitionedCall/convolution_20","op":"Conv2D","input":["PartitionedCall/transpose_63","PartitionedCall/split_20"],"device":"/device:CPU:0","attr":{"dilations":{"list":{"i":["1","1","1","1"]}},"explicit_paddings":{"list":{}},"data_format":{"s":"TkhXQw=="},"T":{"type":"DT_FLOAT"},"strides":{"list":{"i":["1","1","1","1"]}},"use_cudnn_on_gpu":{"b":true},"padding":{"s":"VkFMSUQ="}}},
          {"name":"PartitionedCall/Add_20","op":"Add","input":["PartitionedCall/convolution_20","unknown_40"],"attr":{"T":{"type":"DT_FLOAT"}}},
          {"name":"PartitionedCall/transpose_64","op":"Transpose","input":["PartitionedCall/Add_20","PartitionedCall/transpose_64/perm"],"attr":{"Tperm":{"type":"DT_INT32"},"T":{"type":"DT_FLOAT"}}},
          {"name":"PartitionedCall/onnx_tf_prefix_LeakyRelu_51","op":"LeakyRelu","input":["PartitionedCall/transpose_64"],"attr":{"alpha":{"f":0.1},"T":{"type":"DT_FLOAT"}}},
          {"name":"PartitionedCall/Pad_21","op":"Pad","input":["PartitionedCall/onnx_tf_prefix_LeakyRelu_51","PartitionedCall/Const_42"],"attr":{"T":{"type":"DT_FLOAT"},"Tpaddings":{"type":"DT_INT32"}}},
          {"name":"PartitionedCall/transpose_66","op":"Transpose","input":["PartitionedCall/Pad_21","PartitionedCall/transpose_66/perm"],"attr":{"Tperm":{"type":"DT_INT32"},"T":{"type":"DT_FLOAT"}}},
          {"name":"PartitionedCall/convolution_21","op":"Conv2D","input":["PartitionedCall/transpose_66","PartitionedCall/split_21"],"device":"/device:CPU:0","attr":{"data_format":{"s":"TkhXQw=="},"T":{"type":"DT_FLOAT"},"strides":{"list":{"i":["1","1","1","1"]}},"use_cudnn_on_gpu":{"b":true},"explicit_paddings":{"list":{}},"padding":{"s":"VkFMSUQ="},"dilations":{"list":{"i":["1","1","1","1"]}}}},
          {"name":"PartitionedCall/Add_21","op":"Add","input":["PartitionedCall/convolution_21","unknown_42"],"attr":{"T":{"type":"DT_FLOAT"}}},
          {"name":"PartitionedCall/transpose_67","op":"Transpose","input":["PartitionedCall/Add_21","PartitionedCall/transpose_67/perm"],"attr":{"Tperm":{"type":"DT_INT32"},"T":{"type":"DT_FLOAT"}}},
          {"name":"PartitionedCall/onnx_tf_prefix_LeakyRelu_53","op":"LeakyRelu","input":["PartitionedCall/transpose_67"],"attr":{"T":{"type":"DT_FLOAT"},"alpha":{"f":0.1}}},
          {"name":"PartitionedCall/onnx_tf_prefix_Concat_54","op":"ConcatV2","input":["PartitionedCall/onnx_tf_prefix_LeakyRelu_53","PartitionedCall/onnx_tf_prefix_LeakyRelu_51","PartitionedCall/onnx_tf_prefix_Concat_54/axis"],"attr":{"N":{"i":"2"},"Tidx":{"type":"DT_INT32"},"T":{"type":"DT_FLOAT"}}},
          {"name":"PartitionedCall/Pad_22","op":"Pad","input":["PartitionedCall/onnx_tf_prefix_Concat_54","PartitionedCall/Const_44"],"attr":{"Tpaddings":{"type":"DT_INT32"},"T":{"type":"DT_FLOAT"}}},
          {"name":"PartitionedCall/transpose_69","op":"Transpose","input":["PartitionedCall/Pad_22","PartitionedCall/transpose_69/perm"],"attr":{"Tperm":{"type":"DT_INT32"},"T":{"type":"DT_FLOAT"}}},
          {"name":"PartitionedCall/convolution_22","op":"Conv2D","input":["PartitionedCall/transpose_69","PartitionedCall/split_22"],"device":"/device:CPU:0","attr":{"data_format":{"s":"TkhXQw=="},"use_cudnn_on_gpu":{"b":true},"strides":{"list":{"i":["1","1","1","1"]}},"T":{"type":"DT_FLOAT"},"dilations":{"list":{"i":["1","1","1","1"]}},"padding":{"s":"VkFMSUQ="},"explicit_paddings":{"list":{}}}},
          {"name":"PartitionedCall/Add_22","op":"Add","input":["PartitionedCall/convolution_22","unknown_44"],"attr":{"T":{"type":"DT_FLOAT"}}},
          {"name":"PartitionedCall/transpose_70","op":"Transpose","input":["PartitionedCall/Add_22","PartitionedCall/transpose_70/perm"],"attr":{"T":{"type":"DT_FLOAT"},"Tperm":{"type":"DT_INT32"}}},
          {"name":"PartitionedCall/onnx_tf_prefix_LeakyRelu_56","op":"LeakyRelu","input":["PartitionedCall/transpose_70"],"attr":{"alpha":{"f":0.1},"T":{"type":"DT_FLOAT"}}},
          {"name":"PartitionedCall/Pad_23","op":"Pad","input":["PartitionedCall/onnx_tf_prefix_LeakyRelu_56","PartitionedCall/Const_46"],"attr":{"T":{"type":"DT_FLOAT"},"Tpaddings":{"type":"DT_INT32"}}},
          {"name":"PartitionedCall/transpose_72","op":"Transpose","input":["PartitionedCall/Pad_23","PartitionedCall/transpose_72/perm"],"attr":{"Tperm":{"type":"DT_INT32"},"T":{"type":"DT_FLOAT"}}},
          {"name":"PartitionedCall/convolution_23","op":"Conv2D","input":["PartitionedCall/transpose_72","PartitionedCall/split_23"],"device":"/device:CPU:0","attr":{"data_format":{"s":"TkhXQw=="},"padding":{"s":"VkFMSUQ="},"dilations":{"list":{"i":["1","1","1","1"]}},"explicit_paddings":{"list":{}},"use_cudnn_on_gpu":{"b":true},"strides":{"list":{"i":["1","1","1","1"]}},"T":{"type":"DT_FLOAT"}}},
          {"name":"PartitionedCall/Add_23","op":"Add","input":["PartitionedCall/convolution_23","unknown_46"],"attr":{"T":{"type":"DT_FLOAT"}}},
          {"name":"PartitionedCall/transpose_73","op":"Transpose","input":["PartitionedCall/Add_23","PartitionedCall/transpose_73/perm"],"attr":{"Tperm":{"type":"DT_INT32"},"T":{"type":"DT_FLOAT"}}},
          {"name":"PartitionedCall/onnx_tf_prefix_LeakyRelu_58","op":"LeakyRelu","input":["PartitionedCall/transpose_73"],"attr":{"alpha":{"f":0.1},"T":{"type":"DT_FLOAT"}}},
          {"name":"PartitionedCall/onnx_tf_prefix_Concat_59","op":"ConcatV2","input":["PartitionedCall/onnx_tf_prefix_LeakyRelu_58","PartitionedCall/onnx_tf_prefix_LeakyRelu_56","PartitionedCall/onnx_tf_prefix_Concat_59/axis"],"attr":{"N":{"i":"2"},"T":{"type":"DT_FLOAT"},"Tidx":{"type":"DT_INT32"}}},
          {"name":"PartitionedCall/Pad_24","op":"Pad","input":["PartitionedCall/onnx_tf_prefix_Concat_59","PartitionedCall/Const_48"],"attr":{"Tpaddings":{"type":"DT_INT32"},"T":{"type":"DT_FLOAT"}}},
          {"name":"PartitionedCall/transpose_75","op":"Transpose","input":["PartitionedCall/Pad_24","PartitionedCall/transpose_75/perm"],"attr":{"Tperm":{"type":"DT_INT32"},"T":{"type":"DT_FLOAT"}}},
          {"name":"PartitionedCall/convolution_24","op":"Conv2D","input":["PartitionedCall/transpose_75","PartitionedCall/split_24"],"device":"/device:CPU:0","attr":{"T":{"type":"DT_FLOAT"},"data_format":{"s":"TkhXQw=="},"explicit_paddings":{"list":{}},"use_cudnn_on_gpu":{"b":true},"strides":{"list":{"i":["1","1","1","1"]}},"dilations":{"list":{"i":["1","1","1","1"]}},"padding":{"s":"VkFMSUQ="}}},
          {"name":"PartitionedCall/Add_24","op":"Add","input":["PartitionedCall/convolution_24","unknown_48"],"attr":{"T":{"type":"DT_FLOAT"}}},
          {"name":"PartitionedCall/transpose_76","op":"Transpose","input":["PartitionedCall/Add_24","PartitionedCall/transpose_76/perm"],"attr":{"Tperm":{"type":"DT_INT32"},"T":{"type":"DT_FLOAT"}}},
          {"name":"PartitionedCall/onnx_tf_prefix_LeakyRelu_61","op":"LeakyRelu","input":["PartitionedCall/transpose_76"],"attr":{"alpha":{"f":0.1},"T":{"type":"DT_FLOAT"}}},
          {"name":"PartitionedCall/onnx_tf_prefix_Concat_62","op":"ConcatV2","input":["PartitionedCall/onnx_tf_prefix_LeakyRelu_61","PartitionedCall/onnx_tf_prefix_LeakyRelu_44","PartitionedCall/onnx_tf_prefix_Concat_62/axis"],"attr":{"N":{"i":"2"},"Tidx":{"type":"DT_INT32"},"T":{"type":"DT_FLOAT"}}},
          {"name":"PartitionedCall/transpose_84","op":"Transpose","input":["PartitionedCall/onnx_tf_prefix_Concat_62","PartitionedCall/transpose_84/perm"],"attr":{"Tperm":{"type":"DT_INT32"},"T":{"type":"DT_FLOAT"}}},
          {"name":"PartitionedCall/convolution_27","op":"Conv2D","input":["PartitionedCall/transpose_84","PartitionedCall/split_27"],"device":"/device:CPU:0","attr":{"strides":{"list":{"i":["1","1","1","1"]}},"use_cudnn_on_gpu":{"b":true},"data_format":{"s":"TkhXQw=="},"padding":{"s":"VkFMSUQ="},"T":{"type":"DT_FLOAT"},"explicit_paddings":{"list":{}},"dilations":{"list":{"i":["1","1","1","1"]}}}},
          {"name":"PartitionedCall/Add_27","op":"Add","input":["PartitionedCall/convolution_27","unknown_54"],"attr":{"T":{"type":"DT_FLOAT"}}},
          {"name":"PartitionedCall/transpose_85","op":"Transpose","input":["PartitionedCall/Add_27","PartitionedCall/transpose_85/perm"],"attr":{"Tperm":{"type":"DT_INT32"},"T":{"type":"DT_FLOAT"}}},
          {"name":"PartitionedCall/resize/ResizeBilinear","op":"ResizeBilinear","input":["PartitionedCall/Add_27","PartitionedCall/Cast_1"],"attr":{"half_pixel_centers":{"b":true},"T":{"type":"DT_FLOAT"},"align_corners":{"b":false}}},
          {"name":"PartitionedCall/transpose_87","op":"Transpose","input":["PartitionedCall/resize/ResizeBilinear","PartitionedCall/transpose_87/perm"],"attr":{"T":{"type":"DT_FLOAT"},"Tperm":{"type":"DT_INT32"}}},
          {"name":"PartitionedCall/onnx_tf_prefix_Add_86","op":"Add","input":["PartitionedCall/transpose_82","PartitionedCall/transpose_87"],"attr":{"T":{"type":"DT_FLOAT"}}},
          {"name":"PartitionedCall/transpose_88","op":"Transpose","input":["PartitionedCall/onnx_tf_prefix_Add_86","PartitionedCall/transpose_88/perm"],"attr":{"Tperm":{"type":"DT_INT32"},"T":{"type":"DT_FLOAT"}}},
          {"name":"PartitionedCall/resize_1/ResizeBilinear","op":"ResizeBilinear","input":["PartitionedCall/transpose_88","PartitionedCall/Cast_3"],"attr":{"T":{"type":"DT_FLOAT"},"align_corners":{"b":false},"half_pixel_centers":{"b":true}}},
          {"name":"PartitionedCall/transpose_89","op":"Transpose","input":["PartitionedCall/resize_1/ResizeBilinear","PartitionedCall/transpose_89/perm"],"attr":{"Tperm":{"type":"DT_INT32"},"T":{"type":"DT_FLOAT"}}},
          {"name":"PartitionedCall/onnx_tf_prefix_Add_107","op":"Add","input":["PartitionedCall/transpose_79","PartitionedCall/transpose_89"],"attr":{"T":{"type":"DT_FLOAT"}}},
          {"name":"PartitionedCall/Pad_25","op":"Pad","input":["PartitionedCall/onnx_tf_prefix_Add_107","PartitionedCall/Const_53"],"attr":{"T":{"type":"DT_FLOAT"},"Tpaddings":{"type":"DT_INT32"}}},
          {"name":"PartitionedCall/transpose_90","op":"Transpose","input":["PartitionedCall/onnx_tf_prefix_Add_107","PartitionedCall/transpose_90/perm"],"attr":{"Tperm":{"type":"DT_INT32"},"T":{"type":"DT_FLOAT"}}},
          {"name":"PartitionedCall/transpose_95","op":"Transpose","input":["PartitionedCall/Pad_25","PartitionedCall/transpose_95/perm"],"attr":{"Tperm":{"type":"DT_INT32"},"T":{"type":"DT_FLOAT"}}},
          {"name":"PartitionedCall/resize_2/ResizeBilinear","op":"ResizeBilinear","input":["PartitionedCall/transpose_90","PartitionedCall/Cast_5"],"attr":{"align_corners":{"b":false},"half_pixel_centers":{"b":true},"T":{"type":"DT_FLOAT"}}},
          {"name":"PartitionedCall/convolution_28","op":"Conv2D","input":["PartitionedCall/transpose_95","PartitionedCall/split_28"],"device":"/device:CPU:0","attr":{"dilations":{"list":{"i":["1","1","1","1"]}},"strides":{"list":{"i":["1","1","1","1"]}},"data_format":{"s":"TkhXQw=="},"explicit_paddings":{"list":{}},"padding":{"s":"VkFMSUQ="},"T":{"type":"DT_FLOAT"},"use_cudnn_on_gpu":{"b":true}}},
          {"name":"PartitionedCall/transpose_91","op":"Transpose","input":["PartitionedCall/resize_2/ResizeBilinear","PartitionedCall/transpose_91/perm"],"attr":{"T":{"type":"DT_FLOAT"},"Tperm":{"type":"DT_INT32"}}},
          {"name":"PartitionedCall/Add_28","op":"Add","input":["PartitionedCall/convolution_28","unknown_60"],"attr":{"T":{"type":"DT_FLOAT"}}},
          {"name":"PartitionedCall/onnx_tf_prefix_Add_128","op":"Add","input":["PartitionedCall/onnx_tf_prefix_Add_86","PartitionedCall/transpose_91"],"attr":{"T":{"type":"DT_FLOAT"}}},
          {"name":"PartitionedCall/transpose_96","op":"Transpose","input":["PartitionedCall/Add_28","PartitionedCall/transpose_96/perm"],"attr":{"T":{"type":"DT_FLOAT"},"Tperm":{"type":"DT_INT32"}}},
          {"name":"PartitionedCall/Pad_26","op":"Pad","input":["PartitionedCall/onnx_tf_prefix_Add_128","PartitionedCall/Const_59"],"attr":{"T":{"type":"DT_FLOAT"},"Tpaddings":{"type":"DT_INT32"}}},
          {"name":"PartitionedCall/transpose_92","op":"Transpose","input":["PartitionedCall/onnx_tf_prefix_Add_128","PartitionedCall/transpose_92/perm"],"attr":{"T":{"type":"DT_FLOAT"},"Tperm":{"type":"DT_INT32"}}},
          {"name":"PartitionedCall/onnx_tf_prefix_LeakyRelu_151","op":"LeakyRelu","input":["PartitionedCall/transpose_96"],"attr":{"T":{"type":"DT_FLOAT"},"alpha":{"f":0.1}}},
          {"name":"PartitionedCall/transpose_101","op":"Transpose","input":["PartitionedCall/Pad_26","PartitionedCall/transpose_101/perm"],"attr":{"Tperm":{"type":"DT_INT32"},"T":{"type":"DT_FLOAT"}}},
          {"name":"PartitionedCall/resize_3/ResizeBilinear","op":"ResizeBilinear","input":["PartitionedCall/transpose_92","PartitionedCall/Cast_7"],"attr":{"T":{"type":"DT_FLOAT"},"align_corners":{"b":false},"half_pixel_centers":{"b":true}}},
          {"name":"PartitionedCall/transpose_98","op":"Transpose","input":["PartitionedCall/onnx_tf_prefix_LeakyRelu_151","PartitionedCall/transpose_98/perm"],"attr":{"Tperm":{"type":"DT_INT32"},"T":{"type":"DT_FLOAT"}}},
          {"name":"PartitionedCall/convolution_30","op":"Conv2D","input":["PartitionedCall/transpose_101","PartitionedCall/split_30"],"device":"/device:CPU:0","attr":{"explicit_paddings":{"list":{}},"T":{"type":"DT_FLOAT"},"padding":{"s":"VkFMSUQ="},"dilations":{"list":{"i":["1","1","1","1"]}},"use_cudnn_on_gpu":{"b":true},"data_format":{"s":"TkhXQw=="},"strides":{"list":{"i":["1","1","1","1"]}}}},
          {"name":"PartitionedCall/transpose_93","op":"Transpose","input":["PartitionedCall/resize_3/ResizeBilinear","PartitionedCall/transpose_93/perm"],"attr":{"T":{"type":"DT_FLOAT"},"Tperm":{"type":"DT_INT32"}}},
          {"name":"PartitionedCall/convolution_29","op":"Conv2D","input":["PartitionedCall/transpose_98","PartitionedCall/split_29"],"device":"/device:CPU:0","attr":{"dilations":{"list":{"i":["1","1","1","1"]}},"padding":{"s":"VkFMSUQ="},"strides":{"list":{"i":["1","1","1","1"]}},"data_format":{"s":"TkhXQw=="},"explicit_paddings":{"list":{}},"use_cudnn_on_gpu":{"b":true},"T":{"type":"DT_FLOAT"}}},
          {"name":"PartitionedCall/Add_32","op":"Add","input":["PartitionedCall/convolution_30","unknown_66"],"attr":{"T":{"type":"DT_FLOAT"}}},
          {"name":"PartitionedCall/onnx_tf_prefix_Add_149","op":"Add","input":["PartitionedCall/transpose_85","PartitionedCall/transpose_93"],"attr":{"T":{"type":"DT_FLOAT"}}},
          {"name":"PartitionedCall/Add_29","op":"Add","input":["PartitionedCall/convolution_29","unknown_62"],"attr":{"T":{"type":"DT_FLOAT"}}},
          {"name":"PartitionedCall/transpose_102","op":"Transpose","input":["PartitionedCall/Add_32","PartitionedCall/transpose_102/perm"],"attr":{"Tperm":{"type":"DT_INT32"},"T":{"type":"DT_FLOAT"}}},
          {"name":"PartitionedCall/Pad_27","op":"Pad","input":["PartitionedCall/onnx_tf_prefix_Add_149","PartitionedCall/Const_65"],"attr":{"Tpaddings":{"type":"DT_INT32"},"T":{"type":"DT_FLOAT"}}},
          {"name":"PartitionedCall/transpose_99","op":"Transpose","input":["PartitionedCall/Add_29","PartitionedCall/transpose_99/perm"],"attr":{"T":{"type":"DT_FLOAT"},"Tperm":{"type":"DT_INT32"}}},
          {"name":"PartitionedCall/onnx_tf_prefix_LeakyRelu_162","op":"LeakyRelu","input":["PartitionedCall/transpose_102"],"attr":{"T":{"type":"DT_FLOAT"},"alpha":{"f":0.1}}},
          {"name":"PartitionedCall/transpose_107","op":"Transpose","input":["PartitionedCall/Pad_27","PartitionedCall/transpose_107/perm"],"attr":{"T":{"type":"DT_FLOAT"},"Tperm":{"type":"DT_INT32"}}},
          {"name":"PartitionedCall/onnx_tf_prefix_Split_153","op":"SplitV","input":["PartitionedCall/transpose_99","PartitionedCall/Const_56","PartitionedCall/onnx_tf_prefix_Split_153/split_dim"],"attr":{"T":{"type":"DT_FLOAT"},"Tlen":{"type":"DT_INT32"},"num_split":{"i":"2"}}},
          {"name":"PartitionedCall/transpose_104","op":"Transpose","input":["PartitionedCall/onnx_tf_prefix_LeakyRelu_162","PartitionedCall/transpose_104/perm"],"attr":{"T":{"type":"DT_FLOAT"},"Tperm":{"type":"DT_INT32"}}},
          {"name":"PartitionedCall/convolution_32","op":"Conv2D","input":["PartitionedCall/transpose_107","PartitionedCall/split_32"],"device":"/device:CPU:0","attr":{"explicit_paddings":{"list":{}},"padding":{"s":"VkFMSUQ="},"dilations":{"list":{"i":["1","1","1","1"]}},"use_cudnn_on_gpu":{"b":true},"strides":{"list":{"i":["1","1","1","1"]}},"data_format":{"s":"TkhXQw=="},"T":{"type":"DT_FLOAT"}}},
          {"name":"PartitionedCall/onnx_tf_prefix_Sigmoid_154","op":"Sigmoid","input":["PartitionedCall/onnx_tf_prefix_Split_153"],"attr":{"T":{"type":"DT_FLOAT"}}},
          {"name":"PartitionedCall/onnx_tf_prefix_Reshape_159","op":"Reshape","input":["PartitionedCall/onnx_tf_prefix_Split_153:1","PartitionedCall/add_31"],"attr":{"T":{"type":"DT_FLOAT"},"Tshape":{"type":"DT_INT64"}}},
          {"name":"PartitionedCall/convolution_31","op":"Conv2D","input":["PartitionedCall/transpose_104","PartitionedCall/split_31"],"device":"/device:CPU:0","attr":{"T":{"type":"DT_FLOAT"},"data_format":{"s":"TkhXQw=="},"use_cudnn_on_gpu":{"b":true},"explicit_paddings":{"list":{}},"strides":{"list":{"i":["1","1","1","1"]}},"dilations":{"list":{"i":["1","1","1","1"]}},"padding":{"s":"VkFMSUQ="}}},
          {"name":"PartitionedCall/Add_36","op":"Add","input":["PartitionedCall/convolution_32","unknown_70"],"attr":{"T":{"type":"DT_FLOAT"}}},
          {"name":"PartitionedCall/onnx_tf_prefix_Reshape_156","op":"Reshape","input":["PartitionedCall/onnx_tf_prefix_Sigmoid_154","PartitionedCall/add_30"],"attr":{"Tshape":{"type":"DT_INT64"},"T":{"type":"DT_FLOAT"}}},
          {"name":"PartitionedCall/onnx_tf_prefix_Transpose_160","op":"Transpose","input":["PartitionedCall/onnx_tf_prefix_Reshape_159","PartitionedCall/onnx_tf_prefix_Transpose_160/perm"],"attr":{"T":{"type":"DT_FLOAT"},"Tperm":{"type":"DT_INT32"}}},
          {"name":"PartitionedCall/Add_33","op":"Add","input":["PartitionedCall/convolution_31","unknown_68"],"attr":{"T":{"type":"DT_FLOAT"}}},
          {"name":"PartitionedCall/transpose_108","op":"Transpose","input":["PartitionedCall/Add_36","PartitionedCall/transpose_108/perm"],"attr":{"T":{"type":"DT_FLOAT"},"Tperm":{"type":"DT_INT32"}}},
          {"name":"PartitionedCall/onnx_tf_prefix_Transpose_157","op":"Transpose","input":["PartitionedCall/onnx_tf_prefix_Reshape_156","PartitionedCall/onnx_tf_prefix_Transpose_157/perm"],"attr":{"T":{"type":"DT_FLOAT"},"Tperm":{"type":"DT_INT32"}}},
          {"name":"Identity_3","op":"Identity","input":["PartitionedCall/onnx_tf_prefix_Transpose_160"],"attr":{"T":{"type":"DT_FLOAT"}}},
          {"name":"PartitionedCall/transpose_105","op":"Transpose","input":["PartitionedCall/Add_33","PartitionedCall/transpose_105/perm"],"attr":{"Tperm":{"type":"DT_INT32"},"T":{"type":"DT_FLOAT"}}},
          {"name":"PartitionedCall/onnx_tf_prefix_LeakyRelu_173","op":"LeakyRelu","input":["PartitionedCall/transpose_108"],"attr":{"alpha":{"f":0.1},"T":{"type":"DT_FLOAT"}}},
          {"name":"Identity","op":"Identity","input":["PartitionedCall/onnx_tf_prefix_Transpose_157"],"attr":{"T":{"type":"DT_FLOAT"}}},
          {"name":"PartitionedCall/onnx_tf_prefix_Split_164","op":"SplitV","input":["PartitionedCall/transpose_105","PartitionedCall/Const_62","PartitionedCall/onnx_tf_prefix_Split_164/split_dim"],"attr":{"T":{"type":"DT_FLOAT"},"num_split":{"i":"2"},"Tlen":{"type":"DT_INT32"}}},
          {"name":"PartitionedCall/transpose_110","op":"Transpose","input":["PartitionedCall/onnx_tf_prefix_LeakyRelu_173","PartitionedCall/transpose_110/perm"],"attr":{"T":{"type":"DT_FLOAT"},"Tperm":{"type":"DT_INT32"}}},
          {"name":"PartitionedCall/onnx_tf_prefix_Sigmoid_165","op":"Sigmoid","input":["PartitionedCall/onnx_tf_prefix_Split_164"],"attr":{"T":{"type":"DT_FLOAT"}}},
          {"name":"PartitionedCall/onnx_tf_prefix_Reshape_170","op":"Reshape","input":["PartitionedCall/onnx_tf_prefix_Split_164:1","PartitionedCall/add_35"],"attr":{"Tshape":{"type":"DT_INT64"},"T":{"type":"DT_FLOAT"}}},
          {"name":"PartitionedCall/convolution_33","op":"Conv2D","input":["PartitionedCall/transpose_110","PartitionedCall/split_33"],"device":"/device:CPU:0","attr":{"padding":{"s":"VkFMSUQ="},"explicit_paddings":{"list":{}},"dilations":{"list":{"i":["1","1","1","1"]}},"use_cudnn_on_gpu":{"b":true},"strides":{"list":{"i":["1","1","1","1"]}},"T":{"type":"DT_FLOAT"},"data_format":{"s":"TkhXQw=="}}},
          {"name":"PartitionedCall/onnx_tf_prefix_Reshape_167","op":"Reshape","input":["PartitionedCall/onnx_tf_prefix_Sigmoid_165","PartitionedCall/add_34"],"attr":{"T":{"type":"DT_FLOAT"},"Tshape":{"type":"DT_INT64"}}},
          {"name":"PartitionedCall/onnx_tf_prefix_Transpose_171","op":"Transpose","input":["PartitionedCall/onnx_tf_prefix_Reshape_170","PartitionedCall/onnx_tf_prefix_Transpose_171/perm"],"attr":{"Tperm":{"type":"DT_INT32"},"T":{"type":"DT_FLOAT"}}},
          {"name":"PartitionedCall/Add_37","op":"Add","input":["PartitionedCall/convolution_33","unknown_72"],"attr":{"T":{"type":"DT_FLOAT"}}},
          {"name":"PartitionedCall/onnx_tf_prefix_Transpose_168","op":"Transpose","input":["PartitionedCall/onnx_tf_prefix_Reshape_167","PartitionedCall/onnx_tf_prefix_Transpose_168/perm"],"attr":{"T":{"type":"DT_FLOAT"},"Tperm":{"type":"DT_INT32"}}},
          {"name":"Identity_4","op":"Identity","input":["PartitionedCall/onnx_tf_prefix_Transpose_171"],"attr":{"T":{"type":"DT_FLOAT"}}},
          {"name":"PartitionedCall/transpose_111","op":"Transpose","input":["PartitionedCall/Add_37","PartitionedCall/transpose_111/perm"],"attr":{"T":{"type":"DT_FLOAT"},"Tperm":{"type":"DT_INT32"}}},
          {"name":"Identity_1","op":"Identity","input":["PartitionedCall/onnx_tf_prefix_Transpose_168"],"attr":{"T":{"type":"DT_FLOAT"}}},
          {"name":"PartitionedCall/onnx_tf_prefix_Split_175","op":"SplitV","input":["PartitionedCall/transpose_111","PartitionedCall/Const_68","PartitionedCall/onnx_tf_prefix_Split_175/split_dim"],"attr":{"num_split":{"i":"2"},"Tlen":{"type":"DT_INT32"},"T":{"type":"DT_FLOAT"}}},
          {"name":"PartitionedCall/onnx_tf_prefix_Sigmoid_176","op":"Sigmoid","input":["PartitionedCall/onnx_tf_prefix_Split_175"],"attr":{"T":{"type":"DT_FLOAT"}}},
          {"name":"PartitionedCall/onnx_tf_prefix_Reshape_181","op":"Reshape","input":["PartitionedCall/onnx_tf_prefix_Split_175:1","PartitionedCall/add_39"],"attr":{"T":{"type":"DT_FLOAT"},"Tshape":{"type":"DT_INT64"}}},
          {"name":"PartitionedCall/onnx_tf_prefix_Reshape_178","op":"Reshape","input":["PartitionedCall/onnx_tf_prefix_Sigmoid_176","PartitionedCall/add_38"],"attr":{"Tshape":{"type":"DT_INT64"},"T":{"type":"DT_FLOAT"}}},
          {"name":"PartitionedCall/onnx_tf_prefix_Transpose_182","op":"Transpose","input":["PartitionedCall/onnx_tf_prefix_Reshape_181","PartitionedCall/onnx_tf_prefix_Transpose_182/perm"],"attr":{"Tperm":{"type":"DT_INT32"},"T":{"type":"DT_FLOAT"}}},
          {"name":"PartitionedCall/onnx_tf_prefix_Transpose_179","op":"Transpose","input":["PartitionedCall/onnx_tf_prefix_Reshape_178","PartitionedCall/onnx_tf_prefix_Transpose_179/perm"],"attr":{"Tperm":{"type":"DT_INT32"},"T":{"type":"DT_FLOAT"}}},
          {"name":"Identity_5","op":"Identity","input":["PartitionedCall/onnx_tf_prefix_Transpose_182"],"attr":{"T":{"type":"DT_FLOAT"}}},
          {"name":"Identity_2","op":"Identity","input":["PartitionedCall/onnx_tf_prefix_Transpose_179"],"attr":{"T":{"type":"DT_FLOAT"}}}
      ],
      "library": {},
      "versions": {}
  },
  "weightsManifest":
  [
      {
          "paths": ["nanodet.bin"],
          "weights": [{"name":"PartitionedCall/Where","shape":[0,1],"dtype":"int32"},{"name":"PartitionedCall/Cast_8","shape":[1],"dtype":"int32"},{"name":"PartitionedCall/GatherV2","shape":[0],"dtype":"int32"},{"name":"PartitionedCall/zeros","shape":[],"dtype":"int32"},{"name":"PartitionedCall/onnx_tf_prefix_Transpose_157/perm","shape":[3],"dtype":"int32"},{"name":"PartitionedCall/Where_2","shape":[0,1],"dtype":"int32"},{"name":"PartitionedCall/Cast_10","shape":[1],"dtype":"int32"},{"name":"PartitionedCall/GatherV2_2","shape":[0],"dtype":"int32"},{"name":"PartitionedCall/zeros_2","shape":[],"dtype":"int32"},{"name":"PartitionedCall/onnx_tf_prefix_Transpose_168/perm","shape":[3],"dtype":"int32"},{"name":"unknown_63","shape":[3],"dtype":"int32"},{"name":"PartitionedCall/Where_4","shape":[0,1],"dtype":"int32"},{"name":"PartitionedCall/Cast_12","shape":[1],"dtype":"int32"},{"name":"PartitionedCall/GatherV2_4","shape":[0],"dtype":"int32"},{"name":"PartitionedCall/zeros_4","shape":[],"dtype":"int32"},{"name":"PartitionedCall/onnx_tf_prefix_Transpose_179/perm","shape":[3],"dtype":"int32"},{"name":"PartitionedCall/Const_53","shape":[4,2],"dtype":"int32"},{"name":"PartitionedCall/transpose_95/perm","shape":[4],"dtype":"int32"},{"name":"PartitionedCall/split_28","shape":[3,3,128,128],"dtype":"float32","quantization":{"dtype":"float16","original_dtype":"float32"}},{"name":"unknown_60","shape":[128],"dtype":"float32","quantization":{"dtype":"float16","original_dtype":"float32"}},{"name":"PartitionedCall/transpose_96/perm","shape":[4],"dtype":"int32"},{"name":"PartitionedCall/transpose_98/perm","shape":[4],"dtype":"int32"},{"name":"PartitionedCall/split_29","shape":[1,1,128,124],"dtype":"float32","quantization":{"dtype":"float16","original_dtype":"float32"}},{"name":"unknown_62","shape":[124],"dtype":"float32","quantization":{"dtype":"float16","original_dtype":"float32"}},{"name":"PartitionedCall/transpose_99/perm","shape":[4],"dtype":"int32"},{"name":"PartitionedCall/Const_56","shape":[2],"dtype":"int32"},{"name":"PartitionedCall/onnx_tf_prefix_Split_153/split_dim","shape":[],"dtype":"int32"},{"name":"PartitionedCall/Where_1","shape":[0,1],"dtype":"int32"},{"name":"PartitionedCall/Cast_9","shape":[1],"dtype":"int32"},{"name":"PartitionedCall/GatherV2_1","shape":[0],"dtype":"int32"},{"name":"PartitionedCall/zeros_1","shape":[],"dtype":"int32"},{"name":"PartitionedCall/onnx_tf_prefix_Transpose_160/perm","shape":[3],"dtype":"int32"},{"name":"PartitionedCall/Const_59","shape":[4,2],"dtype":"int32"},{"name":"PartitionedCall/transpose_101/perm","shape":[4],"dtype":"int32"},{"name":"PartitionedCall/split_30","shape":[3,3,128,128],"dtype":"float32","quantization":{"dtype":"float16","original_dtype":"float32"}},{"name":"unknown_66","shape":[128],"dtype":"float32","quantization":{"dtype":"float16","original_dtype":"float32"}},{"name":"PartitionedCall/transpose_102/perm","shape":[4],"dtype":"int32"},{"name":"PartitionedCall/transpose_104/perm","shape":[4],"dtype":"int32"},{"name":"PartitionedCall/split_31","shape":[1,1,128,124],"dtype":"float32","quantization":{"dtype":"float16","original_dtype":"float32"}},{"name":"unknown_68","shape":[124],"dtype":"float32","quantization":{"dtype":"float16","original_dtype":"float32"}},{"name":"PartitionedCall/transpose_105/perm","shape":[4],"dtype":"int32"},{"name":"PartitionedCall/Const_62","shape":[2],"dtype":"int32"},{"name":"PartitionedCall/onnx_tf_prefix_Split_164/split_dim","shape":[],"dtype":"int32"},{"name":"PartitionedCall/Where_3","shape":[0,1],"dtype":"int32"},{"name":"PartitionedCall/Cast_11","shape":[1],"dtype":"int32"},{"name":"PartitionedCall/GatherV2_3","shape":[0],"dtype":"int32"},{"name":"PartitionedCall/zeros_3","shape":[],"dtype":"int32"},{"name":"PartitionedCall/onnx_tf_prefix_Transpose_171/perm","shape":[3],"dtype":"int32"},{"name":"PartitionedCall/transpose_85/perm","shape":[4],"dtype":"int32"},{"name":"PartitionedCall/transpose_78/perm","shape":[4],"dtype":"int32"},{"name":"PartitionedCall/split_25","shape":[1,1,128,128],"dtype":"float32","quantization":{"dtype":"float16","original_dtype":"float32"}},{"name":"unknown_50","shape":[128],"dtype":"float32","quantization":{"dtype":"float16","original_dtype":"float32"}},{"name":"PartitionedCall/transpose_79/perm","shape":[4],"dtype":"int32"},{"name":"PartitionedCall/transpose_81/perm","shape":[4],"dtype":"int32"},{"name":"PartitionedCall/split_26","shape":[1,1,256,128],"dtype":"float32","quantization":{"dtype":"float16","original_dtype":"float32"}},{"name":"unknown_52","shape":[128],"dtype":"float32","quantization":{"dtype":"float16","original_dtype":"float32"}},{"name":"PartitionedCall/transpose_82/perm","shape":[4],"dtype":"int32"},{"name":"PartitionedCall/Const_46","shape":[4,2],"dtype":"int32"},{"name":"PartitionedCall/transpose_72/perm","shape":[4],"dtype":"int32"},{"name":"PartitionedCall/split_23","shape":[3,3,128,128],"dtype":"float32","quantization":{"dtype":"float16","original_dtype":"float32"}},{"name":"unknown_46","shape":[128],"dtype":"float32","quantization":{"dtype":"float16","original_dtype":"float32"}},{"name":"PartitionedCall/transpose_73/perm","shape":[4],"dtype":"int32"},{"name":"PartitionedCall/Const_42","shape":[4,2],"dtype":"int32"},{"name":"PartitionedCall/transpose_66/perm","shape":[4],"dtype":"int32"},{"name":"PartitionedCall/split_21","shape":[3,3,128,128],"dtype":"float32","quantization":{"dtype":"float16","original_dtype":"float32"}},{"name":"unknown_42","shape":[128],"dtype":"float32","quantization":{"dtype":"float16","original_dtype":"float32"}},{"name":"PartitionedCall/transpose_67/perm","shape":[4],"dtype":"int32"},{"name":"PartitionedCall/Const_38","shape":[4,2],"dtype":"int32"},{"name":"PartitionedCall/transpose_60/perm","shape":[4],"dtype":"int32"},{"name":"PartitionedCall/split_19","shape":[3,3,128,128],"dtype":"float32","quantization":{"dtype":"float16","original_dtype":"float32"}},{"name":"unknown_38","shape":[128],"dtype":"float32","quantization":{"dtype":"float16","original_dtype":"float32"}},{"name":"PartitionedCall/transpose_61/perm","shape":[4],"dtype":"int32"},{"name":"PartitionedCall/Const_36","shape":[4,2],"dtype":"int32"},{"name":"PartitionedCall/transpose_57/perm","shape":[4],"dtype":"int32"},{"name":"PartitionedCall/split_18","shape":[3,3,256,128],"dtype":"float32","quantization":{"dtype":"float16","original_dtype":"float32"}},{"name":"unknown_36","shape":[128],"dtype":"float32","quantization":{"dtype":"float16","original_dtype":"float32"}},{"name":"PartitionedCall/transpose_58/perm","shape":[4],"dtype":"int32"},{"name":"PartitionedCall/onnx_tf_prefix_Concat_49/axis","shape":[],"dtype":"int32"},{"name":"PartitionedCall/Const_40","shape":[4,2],"dtype":"int32"},{"name":"PartitionedCall/transpose_63/perm","shape":[4],"dtype":"int32"},{"name":"PartitionedCall/split_20","shape":[3,3,256,128],"dtype":"float32","quantization":{"dtype":"float16","original_dtype":"float32"}},{"name":"unknown_40","shape":[128],"dtype":"float32","quantization":{"dtype":"float16","original_dtype":"float32"}},{"name":"PartitionedCall/transpose_64/perm","shape":[4],"dtype":"int32"},{"name":"PartitionedCall/onnx_tf_prefix_Concat_54/axis","shape":[],"dtype":"int32"},{"name":"PartitionedCall/Const_44","shape":[4,2],"dtype":"int32"},{"name":"PartitionedCall/transpose_69/perm","shape":[4],"dtype":"int32"},{"name":"PartitionedCall/split_22","shape":[3,3,256,128],"dtype":"float32","quantization":{"dtype":"float16","original_dtype":"float32"}},{"name":"unknown_44","shape":[128],"dtype":"float32","quantization":{"dtype":"float16","original_dtype":"float32"}},{"name":"PartitionedCall/transpose_70/perm","shape":[4],"dtype":"int32"},{"name":"PartitionedCall/onnx_tf_prefix_Concat_59/axis","shape":[],"dtype":"int32"},{"name":"PartitionedCall/Const_48","shape":[4,2],"dtype":"int32"},{"name":"PartitionedCall/transpose_75/perm","shape":[4],"dtype":"int32"},{"name":"PartitionedCall/split_24","shape":[3,3,256,256],"dtype":"float32","quantization":{"dtype":"float16","original_dtype":"float32"}},{"name":"unknown_48","shape":[256],"dtype":"float32","quantization":{"dtype":"float16","original_dtype":"float32"}},{"name":"PartitionedCall/transpose_76/perm","shape":[4],"dtype":"int32"},{"name":"PartitionedCall/Const_30","shape":[4,2],"dtype":"int32"},{"name":"PartitionedCall/transpose_48/perm","shape":[4],"dtype":"int32"},{"name":"PartitionedCall/split_15","shape":[3,3,64,64],"dtype":"float32","quantization":{"dtype":"float16","original_dtype":"float32"}},{"name":"unknown_30","shape":[64],"dtype":"float32","quantization":{"dtype":"float16","original_dtype":"float32"}},{"name":"PartitionedCall/transpose_49/perm","shape":[4],"dtype":"int32"},{"name":"PartitionedCall/Const_26","shape":[4,2],"dtype":"int32"},{"name":"PartitionedCall/transpose_42/perm","shape":[4],"dtype":"int32"},{"name":"PartitionedCall/split_13","shape":[3,3,64,64],"dtype":"float32","quantization":{"dtype":"float16","original_dtype":"float32"}},{"name":"unknown_26","shape":[64],"dtype":"float32","quantization":{"dtype":"float16","original_dtype":"float32"}},{"name":"PartitionedCall/transpose_43/perm","shape":[4],"dtype":"int32"},{"name":"PartitionedCall/Const_24","shape":[4,2],"dtype":"int32"},{"name":"PartitionedCall/transpose_39/perm","shape":[4],"dtype":"int32"},{"name":"PartitionedCall/split_12","shape":[3,3,128,64],"dtype":"float32","quantization":{"dtype":"float16","original_dtype":"float32"}},{"name":"unknown_24","shape":[64],"dtype":"float32","quantization":{"dtype":"float16","original_dtype":"float32"}},{"name":"PartitionedCall/transpose_40/perm","shape":[4],"dtype":"int32"},{"name":"PartitionedCall/onnx_tf_prefix_Concat_34/axis","shape":[],"dtype":"int32"},{"name":"PartitionedCall/Const_28","shape":[4,2],"dtype":"int32"},{"name":"PartitionedCall/transpose_45/perm","shape":[4],"dtype":"int32"},{"name":"PartitionedCall/split_14","shape":[3,3,128,64],"dtype":"float32","quantization":{"dtype":"float16","original_dtype":"float32"}},{"name":"unknown_28","shape":[64],"dtype":"float32","quantization":{"dtype":"float16","original_dtype":"float32"}},{"name":"PartitionedCall/transpose_46/perm","shape":[4],"dtype":"int32"},{"name":"PartitionedCall/onnx_tf_prefix_Concat_39/axis","shape":[],"dtype":"int32"},{"name":"PartitionedCall/Const_32","shape":[4,2],"dtype":"int32"},{"name":"PartitionedCall/transpose_51/perm","shape":[4],"dtype":"int32"},{"name":"PartitionedCall/split_16","shape":[3,3,128,128],"dtype":"float32","quantization":{"dtype":"float16","original_dtype":"float32"}},{"name":"unknown_32","shape":[128],"dtype":"float32","quantization":{"dtype":"float16","original_dtype":"float32"}},{"name":"PartitionedCall/transpose_52/perm","shape":[4],"dtype":"int32"},{"name":"PartitionedCall/Const_18","shape":[4,2],"dtype":"int32"},{"name":"PartitionedCall/transpose_30/perm","shape":[4],"dtype":"int32"},{"name":"PartitionedCall/split_9","shape":[3,3,32,32],"dtype":"float32","quantization":{"dtype":"float16","original_dtype":"float32"}},{"name":"unknown_18","shape":[32],"dtype":"float32","quantization":{"dtype":"float16","original_dtype":"float32"}},{"name":"PartitionedCall/transpose_31/perm","shape":[4],"dtype":"int32"},{"name":"PartitionedCall/Const_14","shape":[4,2],"dtype":"int32"},{"name":"PartitionedCall/transpose_24/perm","shape":[4],"dtype":"int32"},{"name":"PartitionedCall/split_7","shape":[3,3,32,32],"dtype":"float32","quantization":{"dtype":"float16","original_dtype":"float32"}},{"name":"unknown_14","shape":[32],"dtype":"float32","quantization":{"dtype":"float16","original_dtype":"float32"}},{"name":"PartitionedCall/transpose_25/perm","shape":[4],"dtype":"int32"},{"name":"PartitionedCall/Const_12","shape":[4,2],"dtype":"int32"},{"name":"PartitionedCall/transpose_21/perm","shape":[4],"dtype":"int32"},{"name":"PartitionedCall/split_6","shape":[3,3,64,32],"dtype":"float32","quantization":{"dtype":"float16","original_dtype":"float32"}},{"name":"unknown_12","shape":[32],"dtype":"float32","quantization":{"dtype":"float16","original_dtype":"float32"}},{"name":"PartitionedCall/transpose_22/perm","shape":[4],"dtype":"int32"},{"name":"PartitionedCall/onnx_tf_prefix_Concat_19/axis","shape":[],"dtype":"int32"},{"name":"PartitionedCall/Const_16","shape":[4,2],"dtype":"int32"},{"name":"PartitionedCall/transpose_27/perm","shape":[4],"dtype":"int32"},{"name":"PartitionedCall/split_8","shape":[3,3,64,32],"dtype":"float32","quantization":{"dtype":"float16","original_dtype":"float32"}},{"name":"unknown_16","shape":[32],"dtype":"float32","quantization":{"dtype":"float16","original_dtype":"float32"}},{"name":"PartitionedCall/transpose_28/perm","shape":[4],"dtype":"int32"},{"name":"PartitionedCall/onnx_tf_prefix_Concat_24/axis","shape":[],"dtype":"int32"},{"name":"PartitionedCall/Const_20","shape":[4,2],"dtype":"int32"},{"name":"PartitionedCall/transpose_33/perm","shape":[4],"dtype":"int32"},{"name":"PartitionedCall/split_10","shape":[3,3,64,64],"dtype":"float32","quantization":{"dtype":"float16","original_dtype":"float32"}},{"name":"unknown_20","shape":[64],"dtype":"float32","quantization":{"dtype":"float16","original_dtype":"float32"}},{"name":"PartitionedCall/transpose_34/perm","shape":[4],"dtype":"int32"},{"name":"PartitionedCall/Const_6","shape":[4,2],"dtype":"int32"},{"name":"PartitionedCall/transpose_12/perm","shape":[4],"dtype":"int32"},{"name":"PartitionedCall/split_3","shape":[3,3,16,16],"dtype":"float32","quantization":{"dtype":"float16","original_dtype":"float32"}},{"name":"unknown_6","shape":[16],"dtype":"float32","quantization":{"dtype":"float16","original_dtype":"float32"}},{"name":"PartitionedCall/transpose_13/perm","shape":[4],"dtype":"int32"},{"name":"PartitionedCall/Const_4","shape":[4,2],"dtype":"int32"},{"name":"PartitionedCall/transpose_9/perm","shape":[4],"dtype":"int32"},{"name":"PartitionedCall/split_2","shape":[3,3,32,16],"dtype":"float32","quantization":{"dtype":"float16","original_dtype":"float32"}},{"name":"unknown_4","shape":[16],"dtype":"float32","quantization":{"dtype":"float16","original_dtype":"float32"}},{"name":"PartitionedCall/transpose_10/perm","shape":[4],"dtype":"int32"},{"name":"PartitionedCall/onnx_tf_prefix_Concat_9/axis","shape":[],"dtype":"int32"},{"name":"PartitionedCall/Const_8","shape":[4,2],"dtype":"int32"},{"name":"PartitionedCall/transpose_15/perm","shape":[4],"dtype":"int32"},{"name":"PartitionedCall/split_4","shape":[3,3,32,32],"dtype":"float32","quantization":{"dtype":"float16","original_dtype":"float32"}},{"name":"unknown_8","shape":[32],"dtype":"float32","quantization":{"dtype":"float16","original_dtype":"float32"}},{"name":"PartitionedCall/transpose_16/perm","shape":[4],"dtype":"int32"},{"name":"PartitionedCall/Const","shape":[4,2],"dtype":"int32"},{"name":"PartitionedCall/transpose_1/perm","shape":[4],"dtype":"int32"},{"name":"PartitionedCall/split","shape":[3,3,3,32],"dtype":"float32","quantization":{"dtype":"float16","original_dtype":"float32"}},{"name":"unknown_0","shape":[32],"dtype":"float32","quantization":{"dtype":"float16","original_dtype":"float32"}},{"name":"PartitionedCall/transpose_2/perm","shape":[4],"dtype":"int32"},{"name":"PartitionedCall/PadV2/paddings","shape":[4,2],"dtype":"int32"},{"name":"PartitionedCall/PadV2/constant_values","shape":[],"dtype":"float32","quantization":{"dtype":"float16","original_dtype":"float32"}},{"name":"PartitionedCall/transpose_3/perm","shape":[4],"dtype":"int32"},{"name":"PartitionedCall/transpose_4/perm","shape":[4],"dtype":"int32"},{"name":"PartitionedCall/Const_2","shape":[4,2],"dtype":"int32"},{"name":"PartitionedCall/transpose_6/perm","shape":[4],"dtype":"int32"},{"name":"PartitionedCall/split_1","shape":[3,3,32,32],"dtype":"float32","quantization":{"dtype":"float16","original_dtype":"float32"}},{"name":"unknown_2","shape":[32],"dtype":"float32","quantization":{"dtype":"float16","original_dtype":"float32"}},{"name":"PartitionedCall/transpose_7/perm","shape":[4],"dtype":"int32"},{"name":"PartitionedCall/onnx_tf_prefix_Concat_12/axis","shape":[],"dtype":"int32"},{"name":"PartitionedCall/Const_10","shape":[4,2],"dtype":"int32"},{"name":"PartitionedCall/transpose_18/perm","shape":[4],"dtype":"int32"},{"name":"PartitionedCall/split_5","shape":[3,3,64,64],"dtype":"float32","quantization":{"dtype":"float16","original_dtype":"float32"}},{"name":"unknown_10","shape":[64],"dtype":"float32","quantization":{"dtype":"float16","original_dtype":"float32"}},{"name":"PartitionedCall/transpose_19/perm","shape":[4],"dtype":"int32"},{"name":"PartitionedCall/onnx_tf_prefix_Concat_27/axis","shape":[],"dtype":"int32"},{"name":"PartitionedCall/Const_22","shape":[4,2],"dtype":"int32"},{"name":"PartitionedCall/transpose_36/perm","shape":[4],"dtype":"int32"},{"name":"PartitionedCall/split_11","shape":[3,3,128,128],"dtype":"float32","quantization":{"dtype":"float16","original_dtype":"float32"}},{"name":"unknown_22","shape":[128],"dtype":"float32","quantization":{"dtype":"float16","original_dtype":"float32"}},{"name":"PartitionedCall/transpose_37/perm","shape":[4],"dtype":"int32"},{"name":"PartitionedCall/onnx_tf_prefix_Concat_42/axis","shape":[],"dtype":"int32"},{"name":"PartitionedCall/Const_34","shape":[4,2],"dtype":"int32"},{"name":"PartitionedCall/transpose_54/perm","shape":[4],"dtype":"int32"},{"name":"PartitionedCall/split_17","shape":[3,3,256,256],"dtype":"float32","quantization":{"dtype":"float16","original_dtype":"float32"}},{"name":"unknown_34","shape":[256],"dtype":"float32","quantization":{"dtype":"float16","original_dtype":"float32"}},{"name":"PartitionedCall/transpose_55/perm","shape":[4],"dtype":"int32"},{"name":"PartitionedCall/onnx_tf_prefix_Concat_62/axis","shape":[],"dtype":"int32"},{"name":"PartitionedCall/transpose_84/perm","shape":[4],"dtype":"int32"},{"name":"PartitionedCall/split_27","shape":[1,1,512,128],"dtype":"float32","quantization":{"dtype":"float16","original_dtype":"float32"}},{"name":"unknown_54","shape":[128],"dtype":"float32","quantization":{"dtype":"float16","original_dtype":"float32"}},{"name":"PartitionedCall/Cast_1","shape":[2],"dtype":"int32"},{"name":"PartitionedCall/transpose_87/perm","shape":[4],"dtype":"int32"},{"name":"PartitionedCall/transpose_88/perm","shape":[4],"dtype":"int32"},{"name":"PartitionedCall/Cast_3","shape":[2],"dtype":"int32"},{"name":"PartitionedCall/transpose_89/perm","shape":[4],"dtype":"int32"},{"name":"PartitionedCall/transpose_90/perm","shape":[4],"dtype":"int32"},{"name":"PartitionedCall/Cast_5","shape":[2],"dtype":"int32"},{"name":"PartitionedCall/transpose_91/perm","shape":[4],"dtype":"int32"},{"name":"PartitionedCall/transpose_92/perm","shape":[4],"dtype":"int32"},{"name":"PartitionedCall/Cast_7","shape":[2],"dtype":"int32"},{"name":"PartitionedCall/transpose_93/perm","shape":[4],"dtype":"int32"},{"name":"PartitionedCall/Const_65","shape":[4,2],"dtype":"int32"},{"name":"PartitionedCall/transpose_107/perm","shape":[4],"dtype":"int32"},{"name":"PartitionedCall/split_32","shape":[3,3,128,128],"dtype":"float32","quantization":{"dtype":"float16","original_dtype":"float32"}},{"name":"unknown_70","shape":[128],"dtype":"float32","quantization":{"dtype":"float16","original_dtype":"float32"}},{"name":"PartitionedCall/transpose_108/perm","shape":[4],"dtype":"int32"},{"name":"PartitionedCall/transpose_110/perm","shape":[4],"dtype":"int32"},{"name":"PartitionedCall/split_33","shape":[1,1,128,124],"dtype":"float32","quantization":{"dtype":"float16","original_dtype":"float32"}},{"name":"unknown_72","shape":[124],"dtype":"float32","quantization":{"dtype":"float16","original_dtype":"float32"}},{"name":"PartitionedCall/transpose_111/perm","shape":[4],"dtype":"int32"},{"name":"PartitionedCall/Const_68","shape":[2],"dtype":"int32"},{"name":"PartitionedCall/onnx_tf_prefix_Split_175/split_dim","shape":[],"dtype":"int32"},{"name":"unknown_64","shape":[3],"dtype":"int32"},{"name":"PartitionedCall/Where_5","shape":[0,1],"dtype":"int32"},{"name":"PartitionedCall/Cast_13","shape":[1],"dtype":"int32"},{"name":"PartitionedCall/GatherV2_5","shape":[0],"dtype":"int32"},{"name":"PartitionedCall/zeros_5","shape":[],"dtype":"int32"},{"name":"PartitionedCall/onnx_tf_prefix_Transpose_182/perm","shape":[3],"dtype":"int32"}]
      }
  ]
}