{
  "format": "graph-model",
  "generatedBy": "2.0.0-dev20190603",
  "convertedBy": "TensorFlow.js Converter v1.1.2",
  "modelTopology":
  {
      "node":
      [
          {"name":"sub_2","op":"Placeholder","attr":{"dtype":{"type":"DT_FLOAT"},"shape":{"shape":{"dim":[{"size":"1"},{"size":"-1"},{"size":"-1"},{"size":"3"}]}}}},
          {"name":"MobilenetV1/offset_2/Conv2D_bias","op":"Const","attr":{"value":{"tensor":{"dtype":"DT_FLOAT","tensorShape":{"dim":[{"size":"34"}]}}},"dtype":{"type":"DT_FLOAT"}}},
          {"name":"MobilenetV1/offset_2/weights","op":"Const","attr":{"value":{"tensor":{"dtype":"DT_FLOAT","tensorShape":{"dim":[{"size":"1"},{"size":"1"},{"size":"1024"},{"size":"34"}]}}},"dtype":{"type":"DT_FLOAT"}}},
          {"name":"MobilenetV1/Conv2d_13_pointwise/Conv2D_bias","op":"Const","attr":{"value":{"tensor":{"dtype":"DT_FLOAT","tensorShape":{"dim":[{"size":"1024"}]}}},"dtype":{"type":"DT_FLOAT"}}},
          {"name":"MobilenetV1/Conv2d_13_pointwise/weights","op":"Const","attr":{"value":{"tensor":{"dtype":"DT_FLOAT","tensorShape":{"dim":[{"size":"1"},{"size":"1"},{"size":"1024"},{"size":"1024"}]}}},"dtype":{"type":"DT_FLOAT"}}},
          {"name":"MobilenetV1/Conv2d_13_depthwise/depthwise_bias","op":"Const","attr":{"value":{"tensor":{"dtype":"DT_FLOAT","tensorShape":{"dim":[{"size":"1024"}]}}},"dtype":{"type":"DT_FLOAT"}}},
          {"name":"MobilenetV1/Conv2d_13_depthwise/depthwise_weights","op":"Const","attr":{"value":{"tensor":{"dtype":"DT_FLOAT","tensorShape":{"dim":[{"size":"3"},{"size":"3"},{"size":"1024"},{"size":"1"}]}}},"dtype":{"type":"DT_FLOAT"}}},
          {"name":"MobilenetV1/Conv2d_12_pointwise/Conv2D_bias","op":"Const","attr":{"value":{"tensor":{"dtype":"DT_FLOAT","tensorShape":{"dim":[{"size":"1024"}]}}},"dtype":{"type":"DT_FLOAT"}}},
          {"name":"MobilenetV1/Conv2d_12_pointwise/weights","op":"Const","attr":{"value":{"tensor":{"dtype":"DT_FLOAT","tensorShape":{"dim":[{"size":"1"},{"size":"1"},{"size":"512"},{"size":"1024"}]}}},"dtype":{"type":"DT_FLOAT"}}},
          {"name":"MobilenetV1/Conv2d_12_depthwise/depthwise_bias","op":"Const","attr":{"value":{"tensor":{"dtype":"DT_FLOAT","tensorShape":{"dim":[{"size":"512"}]}}},"dtype":{"type":"DT_FLOAT"}}},
          {"name":"MobilenetV1/Conv2d_12_depthwise/depthwise_weights","op":"Const","attr":{"value":{"tensor":{"dtype":"DT_FLOAT","tensorShape":{"dim":[{"size":"3"},{"size":"3"},{"size":"512"},{"size":"1"}]}}},"dtype":{"type":"DT_FLOAT"}}},
          {"name":"MobilenetV1/Conv2d_11_pointwise/Conv2D_bias","op":"Const","attr":{"value":{"tensor":{"dtype":"DT_FLOAT","tensorShape":{"dim":[{"size":"512"}]}}},"dtype":{"type":"DT_FLOAT"}}},
          {"name":"MobilenetV1/Conv2d_11_pointwise/weights","op":"Const","attr":{"value":{"tensor":{"dtype":"DT_FLOAT","tensorShape":{"dim":[{"size":"1"},{"size":"1"},{"size":"512"},{"size":"512"}]}}},"dtype":{"type":"DT_FLOAT"}}},
          {"name":"MobilenetV1/Conv2d_11_depthwise/depthwise_bias","op":"Const","attr":{"value":{"tensor":{"dtype":"DT_FLOAT","tensorShape":{"dim":[{"size":"512"}]}}},"dtype":{"type":"DT_FLOAT"}}},
          {"name":"MobilenetV1/Conv2d_11_depthwise/depthwise_weights","op":"Const","attr":{"value":{"tensor":{"dtype":"DT_FLOAT","tensorShape":{"dim":[{"size":"3"},{"size":"3"},{"size":"512"},{"size":"1"}]}}},"dtype":{"type":"DT_FLOAT"}}},
          {"name":"MobilenetV1/Conv2d_10_pointwise/Conv2D_bias","op":"Const","attr":{"dtype":{"type":"DT_FLOAT"},"value":{"tensor":{"dtype":"DT_FLOAT","tensorShape":{"dim":[{"size":"512"}]}}}}},
          {"name":"MobilenetV1/Conv2d_10_pointwise/weights","op":"Const","attr":{"value":{"tensor":{"dtype":"DT_FLOAT","tensorShape":{"dim":[{"size":"1"},{"size":"1"},{"size":"512"},{"size":"512"}]}}},"dtype":{"type":"DT_FLOAT"}}},
          {"name":"MobilenetV1/Conv2d_10_depthwise/depthwise_bias","op":"Const","attr":{"dtype":{"type":"DT_FLOAT"},"value":{"tensor":{"dtype":"DT_FLOAT","tensorShape":{"dim":[{"size":"512"}]}}}}},
          {"name":"MobilenetV1/Conv2d_10_depthwise/depthwise_weights","op":"Const","attr":{"value":{"tensor":{"dtype":"DT_FLOAT","tensorShape":{"dim":[{"size":"3"},{"size":"3"},{"size":"512"},{"size":"1"}]}}},"dtype":{"type":"DT_FLOAT"}}},
          {"name":"MobilenetV1/Conv2d_9_pointwise/Conv2D_bias","op":"Const","attr":{"dtype":{"type":"DT_FLOAT"},"value":{"tensor":{"dtype":"DT_FLOAT","tensorShape":{"dim":[{"size":"512"}]}}}}},
          {"name":"MobilenetV1/Conv2d_9_pointwise/weights","op":"Const","attr":{"value":{"tensor":{"dtype":"DT_FLOAT","tensorShape":{"dim":[{"size":"1"},{"size":"1"},{"size":"512"},{"size":"512"}]}}},"dtype":{"type":"DT_FLOAT"}}},
          {"name":"MobilenetV1/Conv2d_9_depthwise/depthwise_bias","op":"Const","attr":{"value":{"tensor":{"dtype":"DT_FLOAT","tensorShape":{"dim":[{"size":"512"}]}}},"dtype":{"type":"DT_FLOAT"}}},
          {"name":"MobilenetV1/Conv2d_9_depthwise/depthwise_weights","op":"Const","attr":{"value":{"tensor":{"dtype":"DT_FLOAT","tensorShape":{"dim":[{"size":"3"},{"size":"3"},{"size":"512"},{"size":"1"}]}}},"dtype":{"type":"DT_FLOAT"}}},
          {"name":"MobilenetV1/Conv2d_8_pointwise/Conv2D_bias","op":"Const","attr":{"value":{"tensor":{"dtype":"DT_FLOAT","tensorShape":{"dim":[{"size":"512"}]}}},"dtype":{"type":"DT_FLOAT"}}},
          {"name":"MobilenetV1/Conv2d_8_pointwise/weights","op":"Const","attr":{"value":{"tensor":{"dtype":"DT_FLOAT","tensorShape":{"dim":[{"size":"1"},{"size":"1"},{"size":"512"},{"size":"512"}]}}},"dtype":{"type":"DT_FLOAT"}}},
          {"name":"MobilenetV1/Conv2d_8_depthwise/depthwise_bias","op":"Const","attr":{"value":{"tensor":{"dtype":"DT_FLOAT","tensorShape":{"dim":[{"size":"512"}]}}},"dtype":{"type":"DT_FLOAT"}}},
          {"name":"MobilenetV1/Conv2d_8_depthwise/depthwise_weights","op":"Const","attr":{"value":{"tensor":{"dtype":"DT_FLOAT","tensorShape":{"dim":[{"size":"3"},{"size":"3"},{"size":"512"},{"size":"1"}]}}},"dtype":{"type":"DT_FLOAT"}}},
          {"name":"MobilenetV1/Conv2d_7_pointwise/Conv2D_bias","op":"Const","attr":{"value":{"tensor":{"dtype":"DT_FLOAT","tensorShape":{"dim":[{"size":"512"}]}}},"dtype":{"type":"DT_FLOAT"}}},
          {"name":"MobilenetV1/Conv2d_7_pointwise/weights","op":"Const","attr":{"value":{"tensor":{"dtype":"DT_FLOAT","tensorShape":{"dim":[{"size":"1"},{"size":"1"},{"size":"512"},{"size":"512"}]}}},"dtype":{"type":"DT_FLOAT"}}},
          {"name":"MobilenetV1/Conv2d_7_depthwise/depthwise_bias","op":"Const","attr":{"value":{"tensor":{"dtype":"DT_FLOAT","tensorShape":{"dim":[{"size":"512"}]}}},"dtype":{"type":"DT_FLOAT"}}},
          {"name":"MobilenetV1/Conv2d_7_depthwise/depthwise_weights","op":"Const","attr":{"value":{"tensor":{"dtype":"DT_FLOAT","tensorShape":{"dim":[{"size":"3"},{"size":"3"},{"size":"512"},{"size":"1"}]}}},"dtype":{"type":"DT_FLOAT"}}},
          {"name":"MobilenetV1/Conv2d_6_pointwise/Conv2D_bias","op":"Const","attr":{"value":{"tensor":{"dtype":"DT_FLOAT","tensorShape":{"dim":[{"size":"512"}]}}},"dtype":{"type":"DT_FLOAT"}}},
          {"name":"MobilenetV1/Conv2d_6_pointwise/weights","op":"Const","attr":{"value":{"tensor":{"dtype":"DT_FLOAT","tensorShape":{"dim":[{"size":"1"},{"size":"1"},{"size":"256"},{"size":"512"}]}}},"dtype":{"type":"DT_FLOAT"}}},
          {"name":"MobilenetV1/Conv2d_6_depthwise/depthwise_bias","op":"Const","attr":{"value":{"tensor":{"dtype":"DT_FLOAT","tensorShape":{"dim":[{"size":"256"}]}}},"dtype":{"type":"DT_FLOAT"}}},
          {"name":"MobilenetV1/Conv2d_6_depthwise/depthwise_weights","op":"Const","attr":{"value":{"tensor":{"dtype":"DT_FLOAT","tensorShape":{"dim":[{"size":"3"},{"size":"3"},{"size":"256"},{"size":"1"}]}}},"dtype":{"type":"DT_FLOAT"}}},
          {"name":"MobilenetV1/Conv2d_5_pointwise/Conv2D_bias","op":"Const","attr":{"value":{"tensor":{"dtype":"DT_FLOAT","tensorShape":{"dim":[{"size":"256"}]}}},"dtype":{"type":"DT_FLOAT"}}},
          {"name":"MobilenetV1/Conv2d_5_pointwise/weights","op":"Const","attr":{"value":{"tensor":{"dtype":"DT_FLOAT","tensorShape":{"dim":[{"size":"1"},{"size":"1"},{"size":"256"},{"size":"256"}]}}},"dtype":{"type":"DT_FLOAT"}}},
          {"name":"MobilenetV1/Conv2d_5_depthwise/depthwise_bias","op":"Const","attr":{"dtype":{"type":"DT_FLOAT"},"value":{"tensor":{"dtype":"DT_FLOAT","tensorShape":{"dim":[{"size":"256"}]}}}}},
          {"name":"MobilenetV1/Conv2d_5_depthwise/depthwise_weights","op":"Const","attr":{"value":{"tensor":{"dtype":"DT_FLOAT","tensorShape":{"dim":[{"size":"3"},{"size":"3"},{"size":"256"},{"size":"1"}]}}},"dtype":{"type":"DT_FLOAT"}}},
          {"name":"MobilenetV1/Conv2d_4_pointwise/Conv2D_bias","op":"Const","attr":{"value":{"tensor":{"dtype":"DT_FLOAT","tensorShape":{"dim":[{"size":"256"}]}}},"dtype":{"type":"DT_FLOAT"}}},
          {"name":"MobilenetV1/Conv2d_4_pointwise/weights","op":"Const","attr":{"value":{"tensor":{"dtype":"DT_FLOAT","tensorShape":{"dim":[{"size":"1"},{"size":"1"},{"size":"128"},{"size":"256"}]}}},"dtype":{"type":"DT_FLOAT"}}},
          {"name":"MobilenetV1/Conv2d_4_depthwise/depthwise_bias","op":"Const","attr":{"value":{"tensor":{"dtype":"DT_FLOAT","tensorShape":{"dim":[{"size":"128"}]}}},"dtype":{"type":"DT_FLOAT"}}},
          {"name":"MobilenetV1/Conv2d_4_depthwise/depthwise_weights","op":"Const","attr":{"value":{"tensor":{"dtype":"DT_FLOAT","tensorShape":{"dim":[{"size":"3"},{"size":"3"},{"size":"128"},{"size":"1"}]}}},"dtype":{"type":"DT_FLOAT"}}},
          {"name":"MobilenetV1/Conv2d_3_pointwise/Conv2D_bias","op":"Const","attr":{"dtype":{"type":"DT_FLOAT"},"value":{"tensor":{"dtype":"DT_FLOAT","tensorShape":{"dim":[{"size":"128"}]}}}}},
          {"name":"MobilenetV1/Conv2d_3_pointwise/weights","op":"Const","attr":{"value":{"tensor":{"dtype":"DT_FLOAT","tensorShape":{"dim":[{"size":"1"},{"size":"1"},{"size":"128"},{"size":"128"}]}}},"dtype":{"type":"DT_FLOAT"}}},
          {"name":"MobilenetV1/Conv2d_3_depthwise/depthwise_bias","op":"Const","attr":{"value":{"tensor":{"dtype":"DT_FLOAT","tensorShape":{"dim":[{"size":"128"}]}}},"dtype":{"type":"DT_FLOAT"}}},
          {"name":"MobilenetV1/Conv2d_3_depthwise/depthwise_weights","op":"Const","attr":{"value":{"tensor":{"dtype":"DT_FLOAT","tensorShape":{"dim":[{"size":"3"},{"size":"3"},{"size":"128"},{"size":"1"}]}}},"dtype":{"type":"DT_FLOAT"}}},
          {"name":"MobilenetV1/Conv2d_2_pointwise/Conv2D_bias","op":"Const","attr":{"value":{"tensor":{"dtype":"DT_FLOAT","tensorShape":{"dim":[{"size":"128"}]}}},"dtype":{"type":"DT_FLOAT"}}},
          {"name":"MobilenetV1/Conv2d_2_pointwise/weights","op":"Const","attr":{"value":{"tensor":{"dtype":"DT_FLOAT","tensorShape":{"dim":[{"size":"1"},{"size":"1"},{"size":"64"},{"size":"128"}]}}},"dtype":{"type":"DT_FLOAT"}}},
          {"name":"MobilenetV1/Conv2d_2_depthwise/depthwise_bias","op":"Const","attr":{"value":{"tensor":{"dtype":"DT_FLOAT","tensorShape":{"dim":[{"size":"64"}]}}},"dtype":{"type":"DT_FLOAT"}}},
          {"name":"MobilenetV1/Conv2d_2_depthwise/depthwise_weights","op":"Const","attr":{"value":{"tensor":{"dtype":"DT_FLOAT","tensorShape":{"dim":[{"size":"3"},{"size":"3"},{"size":"64"},{"size":"1"}]}}},"dtype":{"type":"DT_FLOAT"}}},
          {"name":"MobilenetV1/Conv2d_1_pointwise/Conv2D_bias","op":"Const","attr":{"value":{"tensor":{"dtype":"DT_FLOAT","tensorShape":{"dim":[{"size":"64"}]}}},"dtype":{"type":"DT_FLOAT"}}},
          {"name":"MobilenetV1/Conv2d_1_pointwise/weights","op":"Const","attr":{"value":{"tensor":{"dtype":"DT_FLOAT","tensorShape":{"dim":[{"size":"1"},{"size":"1"},{"size":"32"},{"size":"64"}]}}},"dtype":{"type":"DT_FLOAT"}}},
          {"name":"MobilenetV1/Conv2d_1_depthwise/depthwise_bias","op":"Const","attr":{"value":{"tensor":{"dtype":"DT_FLOAT","tensorShape":{"dim":[{"size":"32"}]}}},"dtype":{"type":"DT_FLOAT"}}},
          {"name":"MobilenetV1/Conv2d_1_depthwise/depthwise_weights","op":"Const","attr":{"value":{"tensor":{"dtype":"DT_FLOAT","tensorShape":{"dim":[{"size":"3"},{"size":"3"},{"size":"32"},{"size":"1"}]}}},"dtype":{"type":"DT_FLOAT"}}},
          {"name":"MobilenetV1/Conv2d_0/Conv2D_bias","op":"Const","attr":{"dtype":{"type":"DT_FLOAT"},"value":{"tensor":{"dtype":"DT_FLOAT","tensorShape":{"dim":[{"size":"32"}]}}}}},
          {"name":"MobilenetV1/Conv2d_0/weights","op":"Const","attr":{"value":{"tensor":{"dtype":"DT_FLOAT","tensorShape":{"dim":[{"size":"3"},{"size":"3"},{"size":"3"},{"size":"32"}]}}},"dtype":{"type":"DT_FLOAT"}}},
          {"name":"MobilenetV1/heatmap_2/Conv2D_bias","op":"Const","attr":{"value":{"tensor":{"dtype":"DT_FLOAT","tensorShape":{"dim":[{"size":"17"}]}}},"dtype":{"type":"DT_FLOAT"}}},
          {"name":"MobilenetV1/heatmap_2/weights","op":"Const","attr":{"value":{"tensor":{"dtype":"DT_FLOAT","tensorShape":{"dim":[{"size":"1"},{"size":"1"},{"size":"1024"},{"size":"17"}]}}},"dtype":{"type":"DT_FLOAT"}}},
          {"name":"MobilenetV1/displacement_fwd_2/Conv2D_bias","op":"Const","attr":{"dtype":{"type":"DT_FLOAT"},"value":{"tensor":{"dtype":"DT_FLOAT","tensorShape":{"dim":[{"size":"32"}]}}}}},
          {"name":"MobilenetV1/displacement_fwd_2/weights","op":"Const","attr":{"value":{"tensor":{"dtype":"DT_FLOAT","tensorShape":{"dim":[{"size":"1"},{"size":"1"},{"size":"1024"},{"size":"32"}]}}},"dtype":{"type":"DT_FLOAT"}}},
          {"name":"MobilenetV1/displacement_bwd_2/Conv2D_bias","op":"Const","attr":{"value":{"tensor":{"dtype":"DT_FLOAT","tensorShape":{"dim":[{"size":"32"}]}}},"dtype":{"type":"DT_FLOAT"}}},
          {"name":"MobilenetV1/displacement_bwd_2/weights","op":"Const","attr":{"value":{"tensor":{"dtype":"DT_FLOAT","tensorShape":{"dim":[{"size":"1"},{"size":"1"},{"size":"1024"},{"size":"32"}]}}},"dtype":{"type":"DT_FLOAT"}}},
          {"name":"MobilenetV1/Conv2d_0/BatchNorm/batchnorm_1/add_1/conv","op":"Conv2D","input":["sub_2","MobilenetV1/Conv2d_0/weights"],"attr":{"padding":{"s":"U0FNRQ=="},"dilations":{"list":{"i":["1","1","1","1"]}},"T":{"type":"DT_FLOAT"},"data_format":{"s":"TkhXQw=="},"strides":{"list":{"i":["1","2","2","1"]}},"use_cudnn_on_gpu":{"b":true},"explicit_paddings":{"list":{}}}},
          {"name":"MobilenetV1/Conv2d_0/BatchNorm/batchnorm_1/add_1","op":"BiasAdd","input":["MobilenetV1/Conv2d_0/BatchNorm/batchnorm_1/add_1/conv","MobilenetV1/Conv2d_0/Conv2D_bias"],"attr":{"T":{"type":"DT_FLOAT"},"data_format":{"s":"TkhXQw=="}}},
          {"name":"MobilenetV1/Conv2d_0/Relu6","op":"Relu6","input":["MobilenetV1/Conv2d_0/BatchNorm/batchnorm_1/add_1"],"attr":{"T":{"type":"DT_FLOAT"}}},
          {"name":"MobilenetV1/Conv2d_1_depthwise/BatchNorm/batchnorm_1/add_1/conv","op":"DepthwiseConv2dNative","input":["MobilenetV1/Conv2d_0/Relu6","MobilenetV1/Conv2d_1_depthwise/depthwise_weights"],"attr":{"data_format":{"s":"TkhXQw=="},"strides":{"list":{"i":["1","1","1","1"]}},"dilations":{"list":{"i":["1","1","1","1"]}},"padding":{"s":"U0FNRQ=="},"T":{"type":"DT_FLOAT"}}},
          {"name":"MobilenetV1/Conv2d_1_depthwise/BatchNorm/batchnorm_1/add_1","op":"BiasAdd","input":["MobilenetV1/Conv2d_1_depthwise/BatchNorm/batchnorm_1/add_1/conv","MobilenetV1/Conv2d_1_depthwise/depthwise_bias"],"attr":{"T":{"type":"DT_FLOAT"},"data_format":{"s":"TkhXQw=="}}},
          {"name":"MobilenetV1/Conv2d_1_depthwise/Relu6","op":"Relu6","input":["MobilenetV1/Conv2d_1_depthwise/BatchNorm/batchnorm_1/add_1"],"attr":{"T":{"type":"DT_FLOAT"}}},
          {"name":"MobilenetV1/Conv2d_1_pointwise/BatchNorm/batchnorm_1/add_1/conv","op":"Conv2D","input":["MobilenetV1/Conv2d_1_depthwise/Relu6","MobilenetV1/Conv2d_1_pointwise/weights"],"attr":{"padding":{"s":"U0FNRQ=="},"dilations":{"list":{"i":["1","1","1","1"]}},"T":{"type":"DT_FLOAT"},"data_format":{"s":"TkhXQw=="},"strides":{"list":{"i":["1","1","1","1"]}},"explicit_paddings":{"list":{}},"use_cudnn_on_gpu":{"b":true}}},
          {"name":"MobilenetV1/Conv2d_1_pointwise/BatchNorm/batchnorm_1/add_1","op":"BiasAdd","input":["MobilenetV1/Conv2d_1_pointwise/BatchNorm/batchnorm_1/add_1/conv","MobilenetV1/Conv2d_1_pointwise/Conv2D_bias"],"attr":{"data_format":{"s":"TkhXQw=="},"T":{"type":"DT_FLOAT"}}},
          {"name":"MobilenetV1/Conv2d_1_pointwise/Relu6","op":"Relu6","input":["MobilenetV1/Conv2d_1_pointwise/BatchNorm/batchnorm_1/add_1"],"attr":{"T":{"type":"DT_FLOAT"}}},
          {"name":"MobilenetV1/Conv2d_2_depthwise/BatchNorm/batchnorm_1/add_1/conv","op":"DepthwiseConv2dNative","input":["MobilenetV1/Conv2d_1_pointwise/Relu6","MobilenetV1/Conv2d_2_depthwise/depthwise_weights"],"attr":{"padding":{"s":"U0FNRQ=="},"dilations":{"list":{"i":["1","1","1","1"]}},"T":{"type":"DT_FLOAT"},"strides":{"list":{"i":["1","2","2","1"]}},"data_format":{"s":"TkhXQw=="}}},
          {"name":"MobilenetV1/Conv2d_2_depthwise/BatchNorm/batchnorm_1/add_1","op":"BiasAdd","input":["MobilenetV1/Conv2d_2_depthwise/BatchNorm/batchnorm_1/add_1/conv","MobilenetV1/Conv2d_2_depthwise/depthwise_bias"],"attr":{"T":{"type":"DT_FLOAT"},"data_format":{"s":"TkhXQw=="}}},
          {"name":"MobilenetV1/Conv2d_2_depthwise/Relu6","op":"Relu6","input":["MobilenetV1/Conv2d_2_depthwise/BatchNorm/batchnorm_1/add_1"],"attr":{"T":{"type":"DT_FLOAT"}}},
          {"name":"MobilenetV1/Conv2d_2_pointwise/BatchNorm/batchnorm_1/add_1/conv","op":"Conv2D","input":["MobilenetV1/Conv2d_2_depthwise/Relu6","MobilenetV1/Conv2d_2_pointwise/weights"],"attr":{"padding":{"s":"U0FNRQ=="},"dilations":{"list":{"i":["1","1","1","1"]}},"T":{"type":"DT_FLOAT"},"strides":{"list":{"i":["1","1","1","1"]}},"data_format":{"s":"TkhXQw=="},"use_cudnn_on_gpu":{"b":true},"explicit_paddings":{"list":{}}}},
          {"name":"MobilenetV1/Conv2d_2_pointwise/BatchNorm/batchnorm_1/add_1","op":"BiasAdd","input":["MobilenetV1/Conv2d_2_pointwise/BatchNorm/batchnorm_1/add_1/conv","MobilenetV1/Conv2d_2_pointwise/Conv2D_bias"],"attr":{"T":{"type":"DT_FLOAT"},"data_format":{"s":"TkhXQw=="}}},
          {"name":"MobilenetV1/Conv2d_2_pointwise/Relu6","op":"Relu6","input":["MobilenetV1/Conv2d_2_pointwise/BatchNorm/batchnorm_1/add_1"],"attr":{"T":{"type":"DT_FLOAT"}}},
          {"name":"MobilenetV1/Conv2d_3_depthwise/BatchNorm/batchnorm_1/add_1/conv","op":"DepthwiseConv2dNative","input":["MobilenetV1/Conv2d_2_pointwise/Relu6","MobilenetV1/Conv2d_3_depthwise/depthwise_weights"],"attr":{"data_format":{"s":"TkhXQw=="},"strides":{"list":{"i":["1","1","1","1"]}},"dilations":{"list":{"i":["1","1","1","1"]}},"padding":{"s":"U0FNRQ=="},"T":{"type":"DT_FLOAT"}}},
          {"name":"MobilenetV1/Conv2d_3_depthwise/BatchNorm/batchnorm_1/add_1","op":"BiasAdd","input":["MobilenetV1/Conv2d_3_depthwise/BatchNorm/batchnorm_1/add_1/conv","MobilenetV1/Conv2d_3_depthwise/depthwise_bias"],"attr":{"T":{"type":"DT_FLOAT"},"data_format":{"s":"TkhXQw=="}}},
          {"name":"MobilenetV1/Conv2d_3_depthwise/Relu6","op":"Relu6","input":["MobilenetV1/Conv2d_3_depthwise/BatchNorm/batchnorm_1/add_1"],"attr":{"T":{"type":"DT_FLOAT"}}},
          {"name":"MobilenetV1/Conv2d_3_pointwise/BatchNorm/batchnorm_1/add_1/conv","op":"Conv2D","input":["MobilenetV1/Conv2d_3_depthwise/Relu6","MobilenetV1/Conv2d_3_pointwise/weights"],"attr":{"dilations":{"list":{"i":["1","1","1","1"]}},"T":{"type":"DT_FLOAT"},"data_format":{"s":"TkhXQw=="},"strides":{"list":{"i":["1","1","1","1"]}},"use_cudnn_on_gpu":{"b":true},"explicit_paddings":{"list":{}},"padding":{"s":"U0FNRQ=="}}},
          {"name":"MobilenetV1/Conv2d_3_pointwise/BatchNorm/batchnorm_1/add_1","op":"BiasAdd","input":["MobilenetV1/Conv2d_3_pointwise/BatchNorm/batchnorm_1/add_1/conv","MobilenetV1/Conv2d_3_pointwise/Conv2D_bias"],"attr":{"T":{"type":"DT_FLOAT"},"data_format":{"s":"TkhXQw=="}}},
          {"name":"MobilenetV1/Conv2d_3_pointwise/Relu6","op":"Relu6","input":["MobilenetV1/Conv2d_3_pointwise/BatchNorm/batchnorm_1/add_1"],"attr":{"T":{"type":"DT_FLOAT"}}},
          {"name":"MobilenetV1/Conv2d_4_depthwise/BatchNorm/batchnorm_1/add_1/conv","op":"DepthwiseConv2dNative","input":["MobilenetV1/Conv2d_3_pointwise/Relu6","MobilenetV1/Conv2d_4_depthwise/depthwise_weights"],"attr":{"strides":{"list":{"i":["1","2","2","1"]}},"data_format":{"s":"TkhXQw=="},"padding":{"s":"U0FNRQ=="},"dilations":{"list":{"i":["1","1","1","1"]}},"T":{"type":"DT_FLOAT"}}},
          {"name":"MobilenetV1/Conv2d_4_depthwise/BatchNorm/batchnorm_1/add_1","op":"BiasAdd","input":["MobilenetV1/Conv2d_4_depthwise/BatchNorm/batchnorm_1/add_1/conv","MobilenetV1/Conv2d_4_depthwise/depthwise_bias"],"attr":{"T":{"type":"DT_FLOAT"},"data_format":{"s":"TkhXQw=="}}},
          {"name":"MobilenetV1/Conv2d_4_depthwise/Relu6","op":"Relu6","input":["MobilenetV1/Conv2d_4_depthwise/BatchNorm/batchnorm_1/add_1"],"attr":{"T":{"type":"DT_FLOAT"}}},
          {"name":"MobilenetV1/Conv2d_4_pointwise/BatchNorm/batchnorm_1/add_1/conv","op":"Conv2D","input":["MobilenetV1/Conv2d_4_depthwise/Relu6","MobilenetV1/Conv2d_4_pointwise/weights"],"attr":{"dilations":{"list":{"i":["1","1","1","1"]}},"T":{"type":"DT_FLOAT"},"strides":{"list":{"i":["1","1","1","1"]}},"data_format":{"s":"TkhXQw=="},"use_cudnn_on_gpu":{"b":true},"explicit_paddings":{"list":{}},"padding":{"s":"U0FNRQ=="}}},
          {"name":"MobilenetV1/Conv2d_4_pointwise/BatchNorm/batchnorm_1/add_1","op":"BiasAdd","input":["MobilenetV1/Conv2d_4_pointwise/BatchNorm/batchnorm_1/add_1/conv","MobilenetV1/Conv2d_4_pointwise/Conv2D_bias"],"attr":{"data_format":{"s":"TkhXQw=="},"T":{"type":"DT_FLOAT"}}},
          {"name":"MobilenetV1/Conv2d_4_pointwise/Relu6","op":"Relu6","input":["MobilenetV1/Conv2d_4_pointwise/BatchNorm/batchnorm_1/add_1"],"attr":{"T":{"type":"DT_FLOAT"}}},
          {"name":"MobilenetV1/Conv2d_5_depthwise/BatchNorm/batchnorm_1/add_1/conv","op":"DepthwiseConv2dNative","input":["MobilenetV1/Conv2d_4_pointwise/Relu6","MobilenetV1/Conv2d_5_depthwise/depthwise_weights"],"attr":{"T":{"type":"DT_FLOAT"},"strides":{"list":{"i":["1","1","1","1"]}},"data_format":{"s":"TkhXQw=="},"padding":{"s":"U0FNRQ=="},"dilations":{"list":{"i":["1","1","1","1"]}}}},
          {"name":"MobilenetV1/Conv2d_5_depthwise/BatchNorm/batchnorm_1/add_1","op":"BiasAdd","input":["MobilenetV1/Conv2d_5_depthwise/BatchNorm/batchnorm_1/add_1/conv","MobilenetV1/Conv2d_5_depthwise/depthwise_bias"],"attr":{"T":{"type":"DT_FLOAT"},"data_format":{"s":"TkhXQw=="}}},
          {"name":"MobilenetV1/Conv2d_5_depthwise/Relu6","op":"Relu6","input":["MobilenetV1/Conv2d_5_depthwise/BatchNorm/batchnorm_1/add_1"],"attr":{"T":{"type":"DT_FLOAT"}}},
          {"name":"MobilenetV1/Conv2d_5_pointwise/BatchNorm/batchnorm_1/add_1/conv","op":"Conv2D","input":["MobilenetV1/Conv2d_5_depthwise/Relu6","MobilenetV1/Conv2d_5_pointwise/weights"],"attr":{"dilations":{"list":{"i":["1","1","1","1"]}},"T":{"type":"DT_FLOAT"},"data_format":{"s":"TkhXQw=="},"strides":{"list":{"i":["1","1","1","1"]}},"use_cudnn_on_gpu":{"b":true},"explicit_paddings":{"list":{}},"padding":{"s":"U0FNRQ=="}}},
          {"name":"MobilenetV1/Conv2d_5_pointwise/BatchNorm/batchnorm_1/add_1","op":"BiasAdd","input":["MobilenetV1/Conv2d_5_pointwise/BatchNorm/batchnorm_1/add_1/conv","MobilenetV1/Conv2d_5_pointwise/Conv2D_bias"],"attr":{"data_format":{"s":"TkhXQw=="},"T":{"type":"DT_FLOAT"}}},
          {"name":"MobilenetV1/Conv2d_5_pointwise/Relu6","op":"Relu6","input":["MobilenetV1/Conv2d_5_pointwise/BatchNorm/batchnorm_1/add_1"],"attr":{"T":{"type":"DT_FLOAT"}}},
          {"name":"MobilenetV1/Conv2d_6_depthwise/BatchNorm/batchnorm_1/add_1/conv","op":"DepthwiseConv2dNative","input":["MobilenetV1/Conv2d_5_pointwise/Relu6","MobilenetV1/Conv2d_6_depthwise/depthwise_weights"],"attr":{"strides":{"list":{"i":["1","2","2","1"]}},"data_format":{"s":"TkhXQw=="},"dilations":{"list":{"i":["1","1","1","1"]}},"padding":{"s":"U0FNRQ=="},"T":{"type":"DT_FLOAT"}}},
          {"name":"MobilenetV1/Conv2d_6_depthwise/BatchNorm/batchnorm_1/add_1","op":"BiasAdd","input":["MobilenetV1/Conv2d_6_depthwise/BatchNorm/batchnorm_1/add_1/conv","MobilenetV1/Conv2d_6_depthwise/depthwise_bias"],"attr":{"T":{"type":"DT_FLOAT"},"data_format":{"s":"TkhXQw=="}}},
          {"name":"MobilenetV1/Conv2d_6_depthwise/Relu6","op":"Relu6","input":["MobilenetV1/Conv2d_6_depthwise/BatchNorm/batchnorm_1/add_1"],"attr":{"T":{"type":"DT_FLOAT"}}},
          {"name":"MobilenetV1/Conv2d_6_pointwise/BatchNorm/batchnorm_1/add_1/conv","op":"Conv2D","input":["MobilenetV1/Conv2d_6_depthwise/Relu6","MobilenetV1/Conv2d_6_pointwise/weights"],"attr":{"dilations":{"list":{"i":["1","1","1","1"]}},"T":{"type":"DT_FLOAT"},"strides":{"list":{"i":["1","1","1","1"]}},"data_format":{"s":"TkhXQw=="},"use_cudnn_on_gpu":{"b":true},"explicit_paddings":{"list":{}},"padding":{"s":"U0FNRQ=="}}},
          {"name":"MobilenetV1/Conv2d_6_pointwise/BatchNorm/batchnorm_1/add_1","op":"BiasAdd","input":["MobilenetV1/Conv2d_6_pointwise/BatchNorm/batchnorm_1/add_1/conv","MobilenetV1/Conv2d_6_pointwise/Conv2D_bias"],"attr":{"T":{"type":"DT_FLOAT"},"data_format":{"s":"TkhXQw=="}}},
          {"name":"MobilenetV1/Conv2d_6_pointwise/Relu6","op":"Relu6","input":["MobilenetV1/Conv2d_6_pointwise/BatchNorm/batchnorm_1/add_1"],"attr":{"T":{"type":"DT_FLOAT"}}},
          {"name":"MobilenetV1/Conv2d_7_depthwise/BatchNorm/batchnorm_1/add_1/conv","op":"DepthwiseConv2dNative","input":["MobilenetV1/Conv2d_6_pointwise/Relu6","MobilenetV1/Conv2d_7_depthwise/depthwise_weights"],"attr":{"data_format":{"s":"TkhXQw=="},"strides":{"list":{"i":["1","1","1","1"]}},"dilations":{"list":{"i":["1","1","1","1"]}},"padding":{"s":"U0FNRQ=="},"T":{"type":"DT_FLOAT"}}},
          {"name":"MobilenetV1/Conv2d_7_depthwise/BatchNorm/batchnorm_1/add_1","op":"BiasAdd","input":["MobilenetV1/Conv2d_7_depthwise/BatchNorm/batchnorm_1/add_1/conv","MobilenetV1/Conv2d_7_depthwise/depthwise_bias"],"attr":{"T":{"type":"DT_FLOAT"},"data_format":{"s":"TkhXQw=="}}},
          {"name":"MobilenetV1/Conv2d_7_depthwise/Relu6","op":"Relu6","input":["MobilenetV1/Conv2d_7_depthwise/BatchNorm/batchnorm_1/add_1"],"attr":{"T":{"type":"DT_FLOAT"}}},
          {"name":"MobilenetV1/Conv2d_7_pointwise/BatchNorm/batchnorm_1/add_1/conv","op":"Conv2D","input":["MobilenetV1/Conv2d_7_depthwise/Relu6","MobilenetV1/Conv2d_7_pointwise/weights"],"attr":{"use_cudnn_on_gpu":{"b":true},"explicit_paddings":{"list":{}},"padding":{"s":"U0FNRQ=="},"dilations":{"list":{"i":["1","1","1","1"]}},"T":{"type":"DT_FLOAT"},"strides":{"list":{"i":["1","1","1","1"]}},"data_format":{"s":"TkhXQw=="}}},
          {"name":"MobilenetV1/Conv2d_7_pointwise/BatchNorm/batchnorm_1/add_1","op":"BiasAdd","input":["MobilenetV1/Conv2d_7_pointwise/BatchNorm/batchnorm_1/add_1/conv","MobilenetV1/Conv2d_7_pointwise/Conv2D_bias"],"attr":{"data_format":{"s":"TkhXQw=="},"T":{"type":"DT_FLOAT"}}},
          {"name":"MobilenetV1/Conv2d_7_pointwise/Relu6","op":"Relu6","input":["MobilenetV1/Conv2d_7_pointwise/BatchNorm/batchnorm_1/add_1"],"attr":{"T":{"type":"DT_FLOAT"}}},
          {"name":"MobilenetV1/Conv2d_8_depthwise/BatchNorm/batchnorm_1/add_1/conv","op":"DepthwiseConv2dNative","input":["MobilenetV1/Conv2d_7_pointwise/Relu6","MobilenetV1/Conv2d_8_depthwise/depthwise_weights"],"attr":{"T":{"type":"DT_FLOAT"},"data_format":{"s":"TkhXQw=="},"strides":{"list":{"i":["1","1","1","1"]}},"padding":{"s":"U0FNRQ=="},"dilations":{"list":{"i":["1","1","1","1"]}}}},
          {"name":"MobilenetV1/Conv2d_8_depthwise/BatchNorm/batchnorm_1/add_1","op":"BiasAdd","input":["MobilenetV1/Conv2d_8_depthwise/BatchNorm/batchnorm_1/add_1/conv","MobilenetV1/Conv2d_8_depthwise/depthwise_bias"],"attr":{"T":{"type":"DT_FLOAT"},"data_format":{"s":"TkhXQw=="}}},
          {"name":"MobilenetV1/Conv2d_8_depthwise/Relu6","op":"Relu6","input":["MobilenetV1/Conv2d_8_depthwise/BatchNorm/batchnorm_1/add_1"],"attr":{"T":{"type":"DT_FLOAT"}}},
          {"name":"MobilenetV1/Conv2d_8_pointwise/BatchNorm/batchnorm_1/add_1/conv","op":"Conv2D","input":["MobilenetV1/Conv2d_8_depthwise/Relu6","MobilenetV1/Conv2d_8_pointwise/weights"],"attr":{"dilations":{"list":{"i":["1","1","1","1"]}},"T":{"type":"DT_FLOAT"},"data_format":{"s":"TkhXQw=="},"strides":{"list":{"i":["1","1","1","1"]}},"use_cudnn_on_gpu":{"b":true},"explicit_paddings":{"list":{}},"padding":{"s":"U0FNRQ=="}}},
          {"name":"MobilenetV1/Conv2d_8_pointwise/BatchNorm/batchnorm_1/add_1","op":"BiasAdd","input":["MobilenetV1/Conv2d_8_pointwise/BatchNorm/batchnorm_1/add_1/conv","MobilenetV1/Conv2d_8_pointwise/Conv2D_bias"],"attr":{"T":{"type":"DT_FLOAT"},"data_format":{"s":"TkhXQw=="}}},
          {"name":"MobilenetV1/Conv2d_8_pointwise/Relu6","op":"Relu6","input":["MobilenetV1/Conv2d_8_pointwise/BatchNorm/batchnorm_1/add_1"],"attr":{"T":{"type":"DT_FLOAT"}}},
          {"name":"MobilenetV1/Conv2d_9_depthwise/BatchNorm/batchnorm_1/add_1/conv","op":"DepthwiseConv2dNative","input":["MobilenetV1/Conv2d_8_pointwise/Relu6","MobilenetV1/Conv2d_9_depthwise/depthwise_weights"],"attr":{"dilations":{"list":{"i":["1","1","1","1"]}},"padding":{"s":"U0FNRQ=="},"T":{"type":"DT_FLOAT"},"data_format":{"s":"TkhXQw=="},"strides":{"list":{"i":["1","1","1","1"]}}}},
          {"name":"MobilenetV1/Conv2d_9_depthwise/BatchNorm/batchnorm_1/add_1","op":"BiasAdd","input":["MobilenetV1/Conv2d_9_depthwise/BatchNorm/batchnorm_1/add_1/conv","MobilenetV1/Conv2d_9_depthwise/depthwise_bias"],"attr":{"T":{"type":"DT_FLOAT"},"data_format":{"s":"TkhXQw=="}}},
          {"name":"MobilenetV1/Conv2d_9_depthwise/Relu6","op":"Relu6","input":["MobilenetV1/Conv2d_9_depthwise/BatchNorm/batchnorm_1/add_1"],"attr":{"T":{"type":"DT_FLOAT"}}},
          {"name":"MobilenetV1/Conv2d_9_pointwise/BatchNorm/batchnorm_1/add_1/conv","op":"Conv2D","input":["MobilenetV1/Conv2d_9_depthwise/Relu6","MobilenetV1/Conv2d_9_pointwise/weights"],"attr":{"padding":{"s":"U0FNRQ=="},"dilations":{"list":{"i":["1","1","1","1"]}},"T":{"type":"DT_FLOAT"},"data_format":{"s":"TkhXQw=="},"strides":{"list":{"i":["1","1","1","1"]}},"use_cudnn_on_gpu":{"b":true},"explicit_paddings":{"list":{}}}},
          {"name":"MobilenetV1/Conv2d_9_pointwise/BatchNorm/batchnorm_1/add_1","op":"BiasAdd","input":["MobilenetV1/Conv2d_9_pointwise/BatchNorm/batchnorm_1/add_1/conv","MobilenetV1/Conv2d_9_pointwise/Conv2D_bias"],"attr":{"T":{"type":"DT_FLOAT"},"data_format":{"s":"TkhXQw=="}}},
          {"name":"MobilenetV1/Conv2d_9_pointwise/Relu6","op":"Relu6","input":["MobilenetV1/Conv2d_9_pointwise/BatchNorm/batchnorm_1/add_1"],"attr":{"T":{"type":"DT_FLOAT"}}},
          {"name":"MobilenetV1/Conv2d_10_depthwise/BatchNorm/batchnorm_1/add_1/conv","op":"DepthwiseConv2dNative","input":["MobilenetV1/Conv2d_9_pointwise/Relu6","MobilenetV1/Conv2d_10_depthwise/depthwise_weights"],"attr":{"dilations":{"list":{"i":["1","1","1","1"]}},"padding":{"s":"U0FNRQ=="},"T":{"type":"DT_FLOAT"},"data_format":{"s":"TkhXQw=="},"strides":{"list":{"i":["1","1","1","1"]}}}},
          {"name":"MobilenetV1/Conv2d_10_depthwise/BatchNorm/batchnorm_1/add_1","op":"BiasAdd","input":["MobilenetV1/Conv2d_10_depthwise/BatchNorm/batchnorm_1/add_1/conv","MobilenetV1/Conv2d_10_depthwise/depthwise_bias"],"attr":{"T":{"type":"DT_FLOAT"},"data_format":{"s":"TkhXQw=="}}},
          {"name":"MobilenetV1/Conv2d_10_depthwise/Relu6","op":"Relu6","input":["MobilenetV1/Conv2d_10_depthwise/BatchNorm/batchnorm_1/add_1"],"attr":{"T":{"type":"DT_FLOAT"}}},
          {"name":"MobilenetV1/Conv2d_10_pointwise/BatchNorm/batchnorm_1/add_1/conv","op":"Conv2D","input":["MobilenetV1/Conv2d_10_depthwise/Relu6","MobilenetV1/Conv2d_10_pointwise/weights"],"attr":{"padding":{"s":"U0FNRQ=="},"dilations":{"list":{"i":["1","1","1","1"]}},"T":{"type":"DT_FLOAT"},"strides":{"list":{"i":["1","1","1","1"]}},"data_format":{"s":"TkhXQw=="},"use_cudnn_on_gpu":{"b":true},"explicit_paddings":{"list":{}}}},
          {"name":"MobilenetV1/Conv2d_10_pointwise/BatchNorm/batchnorm_1/add_1","op":"BiasAdd","input":["MobilenetV1/Conv2d_10_pointwise/BatchNorm/batchnorm_1/add_1/conv","MobilenetV1/Conv2d_10_pointwise/Conv2D_bias"],"attr":{"T":{"type":"DT_FLOAT"},"data_format":{"s":"TkhXQw=="}}},
          {"name":"MobilenetV1/Conv2d_10_pointwise/Relu6","op":"Relu6","input":["MobilenetV1/Conv2d_10_pointwise/BatchNorm/batchnorm_1/add_1"],"attr":{"T":{"type":"DT_FLOAT"}}},
          {"name":"MobilenetV1/Conv2d_11_depthwise/BatchNorm/batchnorm_1/add_1/conv","op":"DepthwiseConv2dNative","input":["MobilenetV1/Conv2d_10_pointwise/Relu6","MobilenetV1/Conv2d_11_depthwise/depthwise_weights"],"attr":{"padding":{"s":"U0FNRQ=="},"dilations":{"list":{"i":["1","1","1","1"]}},"T":{"type":"DT_FLOAT"},"strides":{"list":{"i":["1","1","1","1"]}},"data_format":{"s":"TkhXQw=="}}},
          {"name":"MobilenetV1/Conv2d_11_depthwise/BatchNorm/batchnorm_1/add_1","op":"BiasAdd","input":["MobilenetV1/Conv2d_11_depthwise/BatchNorm/batchnorm_1/add_1/conv","MobilenetV1/Conv2d_11_depthwise/depthwise_bias"],"attr":{"T":{"type":"DT_FLOAT"},"data_format":{"s":"TkhXQw=="}}},
          {"name":"MobilenetV1/Conv2d_11_depthwise/Relu6","op":"Relu6","input":["MobilenetV1/Conv2d_11_depthwise/BatchNorm/batchnorm_1/add_1"],"attr":{"T":{"type":"DT_FLOAT"}}},
          {"name":"MobilenetV1/Conv2d_11_pointwise/BatchNorm/batchnorm_1/add_1/conv","op":"Conv2D","input":["MobilenetV1/Conv2d_11_depthwise/Relu6","MobilenetV1/Conv2d_11_pointwise/weights"],"attr":{"padding":{"s":"U0FNRQ=="},"dilations":{"list":{"i":["1","1","1","1"]}},"T":{"type":"DT_FLOAT"},"strides":{"list":{"i":["1","1","1","1"]}},"data_format":{"s":"TkhXQw=="},"explicit_paddings":{"list":{}},"use_cudnn_on_gpu":{"b":true}}},
          {"name":"MobilenetV1/Conv2d_11_pointwise/BatchNorm/batchnorm_1/add_1","op":"BiasAdd","input":["MobilenetV1/Conv2d_11_pointwise/BatchNorm/batchnorm_1/add_1/conv","MobilenetV1/Conv2d_11_pointwise/Conv2D_bias"],"attr":{"T":{"type":"DT_FLOAT"},"data_format":{"s":"TkhXQw=="}}},
          {"name":"MobilenetV1/Conv2d_11_pointwise/Relu6","op":"Relu6","input":["MobilenetV1/Conv2d_11_pointwise/BatchNorm/batchnorm_1/add_1"],"attr":{"T":{"type":"DT_FLOAT"}}},
          {"name":"MobilenetV1/Conv2d_12_depthwise/BatchNorm/batchnorm_1/add_1/conv","op":"DepthwiseConv2dNative","input":["MobilenetV1/Conv2d_11_pointwise/Relu6","MobilenetV1/Conv2d_12_depthwise/depthwise_weights"],"attr":{"data_format":{"s":"TkhXQw=="},"strides":{"list":{"i":["1","1","1","1"]}},"dilations":{"list":{"i":["1","1","1","1"]}},"padding":{"s":"U0FNRQ=="},"T":{"type":"DT_FLOAT"}}},
          {"name":"MobilenetV1/Conv2d_12_depthwise/BatchNorm/batchnorm_1/add_1","op":"BiasAdd","input":["MobilenetV1/Conv2d_12_depthwise/BatchNorm/batchnorm_1/add_1/conv","MobilenetV1/Conv2d_12_depthwise/depthwise_bias"],"attr":{"T":{"type":"DT_FLOAT"},"data_format":{"s":"TkhXQw=="}}},
          {"name":"MobilenetV1/Conv2d_12_depthwise/Relu6","op":"Relu6","input":["MobilenetV1/Conv2d_12_depthwise/BatchNorm/batchnorm_1/add_1"],"attr":{"T":{"type":"DT_FLOAT"}}},
          {"name":"MobilenetV1/Conv2d_12_pointwise/BatchNorm/batchnorm_1/add_1/conv","op":"Conv2D","input":["MobilenetV1/Conv2d_12_depthwise/Relu6","MobilenetV1/Conv2d_12_pointwise/weights"],"attr":{"dilations":{"list":{"i":["1","1","1","1"]}},"T":{"type":"DT_FLOAT"},"data_format":{"s":"TkhXQw=="},"strides":{"list":{"i":["1","1","1","1"]}},"explicit_paddings":{"list":{}},"use_cudnn_on_gpu":{"b":true},"padding":{"s":"U0FNRQ=="}}},
          {"name":"MobilenetV1/Conv2d_12_pointwise/BatchNorm/batchnorm_1/add_1","op":"BiasAdd","input":["MobilenetV1/Conv2d_12_pointwise/BatchNorm/batchnorm_1/add_1/conv","MobilenetV1/Conv2d_12_pointwise/Conv2D_bias"],"attr":{"T":{"type":"DT_FLOAT"},"data_format":{"s":"TkhXQw=="}}},
          {"name":"MobilenetV1/Conv2d_12_pointwise/Relu6","op":"Relu6","input":["MobilenetV1/Conv2d_12_pointwise/BatchNorm/batchnorm_1/add_1"],"attr":{"T":{"type":"DT_FLOAT"}}},
          {"name":"MobilenetV1/Conv2d_13_depthwise/BatchNorm/batchnorm_1/add_1/conv","op":"DepthwiseConv2dNative","input":["MobilenetV1/Conv2d_12_pointwise/Relu6","MobilenetV1/Conv2d_13_depthwise/depthwise_weights"],"attr":{"dilations":{"list":{"i":["2","2","1","1"]}},"padding":{"s":"U0FNRQ=="},"T":{"type":"DT_FLOAT"},"strides":{"list":{"i":["1","1","1","1"]}},"data_format":{"s":"TkhXQw=="}}},
          {"name":"MobilenetV1/Conv2d_13_depthwise/BatchNorm/batchnorm_1/add_1","op":"BiasAdd","input":["MobilenetV1/Conv2d_13_depthwise/BatchNorm/batchnorm_1/add_1/conv","MobilenetV1/Conv2d_13_depthwise/depthwise_bias"],"attr":{"T":{"type":"DT_FLOAT"},"data_format":{"s":"TkhXQw=="}}},
          {"name":"MobilenetV1/Conv2d_13_depthwise/Relu6","op":"Relu6","input":["MobilenetV1/Conv2d_13_depthwise/BatchNorm/batchnorm_1/add_1"],"attr":{"T":{"type":"DT_FLOAT"}}},
          {"name":"MobilenetV1/Conv2d_13_pointwise/BatchNorm/batchnorm_1/add_1/conv","op":"Conv2D","input":["MobilenetV1/Conv2d_13_depthwise/Relu6","MobilenetV1/Conv2d_13_pointwise/weights"],"attr":{"padding":{"s":"U0FNRQ=="},"dilations":{"list":{"i":["1","1","1","1"]}},"T":{"type":"DT_FLOAT"},"strides":{"list":{"i":["1","1","1","1"]}},"data_format":{"s":"TkhXQw=="},"use_cudnn_on_gpu":{"b":true},"explicit_paddings":{"list":{}}}},
          {"name":"MobilenetV1/Conv2d_13_pointwise/BatchNorm/batchnorm_1/add_1","op":"BiasAdd","input":["MobilenetV1/Conv2d_13_pointwise/BatchNorm/batchnorm_1/add_1/conv","MobilenetV1/Conv2d_13_pointwise/Conv2D_bias"],"attr":{"T":{"type":"DT_FLOAT"},"data_format":{"s":"TkhXQw=="}}},
          {"name":"MobilenetV1/Conv2d_13_pointwise/Relu6","op":"Relu6","input":["MobilenetV1/Conv2d_13_pointwise/BatchNorm/batchnorm_1/add_1"],"attr":{"T":{"type":"DT_FLOAT"}}},
          {"name":"MobilenetV1/offset_2/BiasAdd/conv","op":"Conv2D","input":["MobilenetV1/Conv2d_13_pointwise/Relu6","MobilenetV1/offset_2/weights"],"attr":{"explicit_paddings":{"list":{}},"use_cudnn_on_gpu":{"b":true},"padding":{"s":"U0FNRQ=="},"dilations":{"list":{"i":["1","1","1","1"]}},"T":{"type":"DT_FLOAT"},"data_format":{"s":"TkhXQw=="},"strides":{"list":{"i":["1","1","1","1"]}}}},
          {"name":"MobilenetV1/heatmap_2/BiasAdd/conv","op":"Conv2D","input":["MobilenetV1/Conv2d_13_pointwise/Relu6","MobilenetV1/heatmap_2/weights"],"attr":{"strides":{"list":{"i":["1","1","1","1"]}},"data_format":{"s":"TkhXQw=="},"use_cudnn_on_gpu":{"b":true},"explicit_paddings":{"list":{}},"padding":{"s":"U0FNRQ=="},"dilations":{"list":{"i":["1","1","1","1"]}},"T":{"type":"DT_FLOAT"}}},
          {"name":"MobilenetV1/displacement_fwd_2/BiasAdd/conv","op":"Conv2D","input":["MobilenetV1/Conv2d_13_pointwise/Relu6","MobilenetV1/displacement_fwd_2/weights"],"attr":{"explicit_paddings":{"list":{}},"use_cudnn_on_gpu":{"b":true},"padding":{"s":"U0FNRQ=="},"dilations":{"list":{"i":["1","1","1","1"]}},"T":{"type":"DT_FLOAT"},"data_format":{"s":"TkhXQw=="},"strides":{"list":{"i":["1","1","1","1"]}}}},
          {"name":"MobilenetV1/displacement_bwd_2/BiasAdd/conv","op":"Conv2D","input":["MobilenetV1/Conv2d_13_pointwise/Relu6","MobilenetV1/displacement_bwd_2/weights"],"attr":{"dilations":{"list":{"i":["1","1","1","1"]}},"T":{"type":"DT_FLOAT"},"strides":{"list":{"i":["1","1","1","1"]}},"data_format":{"s":"TkhXQw=="},"use_cudnn_on_gpu":{"b":true},"explicit_paddings":{"list":{}},"padding":{"s":"U0FNRQ=="}}},
          {"name":"MobilenetV1/offset_2/BiasAdd","op":"BiasAdd","input":["MobilenetV1/offset_2/BiasAdd/conv","MobilenetV1/offset_2/Conv2D_bias"],"attr":{"T":{"type":"DT_FLOAT"},"data_format":{"s":"TkhXQw=="}}},
          {"name":"MobilenetV1/heatmap_2/BiasAdd","op":"BiasAdd","input":["MobilenetV1/heatmap_2/BiasAdd/conv","MobilenetV1/heatmap_2/Conv2D_bias"],"attr":{"T":{"type":"DT_FLOAT"},"data_format":{"s":"TkhXQw=="}}},
          {"name":"MobilenetV1/displacement_fwd_2/BiasAdd","op":"BiasAdd","input":["MobilenetV1/displacement_fwd_2/BiasAdd/conv","MobilenetV1/displacement_fwd_2/Conv2D_bias"],"attr":{"data_format":{"s":"TkhXQw=="},"T":{"type":"DT_FLOAT"}}},
          {"name":"MobilenetV1/displacement_bwd_2/BiasAdd","op":"BiasAdd","input":["MobilenetV1/displacement_bwd_2/BiasAdd/conv","MobilenetV1/displacement_bwd_2/Conv2D_bias"],"attr":{"data_format":{"s":"TkhXQw=="},"T":{"type":"DT_FLOAT"}}}
      ],
      "library": {},
      "versions":
      {
          "producer": 54
      }
  },
  "weightsManifest":
  [
      {
          "paths": ["posenet.bin"],
          "weights": [{"name":"MobilenetV1/offset_2/Conv2D_bias","shape":[34],"dtype":"float32","quantization":{"min":-0.4183588711759032,"scale":0.000011000180668276798,"dtype":"uint16"}},{"name":"MobilenetV1/offset_2/weights","shape":[1,1,1024,34],"dtype":"float32","quantization":{"min":-0.7443294638171116,"scale":0.000022078410815326775,"dtype":"uint16"}},{"name":"MobilenetV1/Conv2d_13_pointwise/Conv2D_bias","shape":[1024],"dtype":"float32","quantization":{"min":-38.93823948722869,"scale":0.0012170101418105545,"dtype":"uint16"}},{"name":"MobilenetV1/Conv2d_13_pointwise/weights","shape":[1,1,1024,1024],"dtype":"float32","quantization":{"min":-10.3544933536719,"scale":0.00020779637474757978,"dtype":"uint16"}},{"name":"MobilenetV1/Conv2d_13_depthwise/depthwise_bias","shape":[1024],"dtype":"float32","quantization":{"min":-7.4374776166591525,"scale":0.00031457419179711343,"dtype":"uint16"}},{"name":"MobilenetV1/Conv2d_13_depthwise/depthwise_weights","shape":[3,3,1024,1],"dtype":"float32","quantization":{"min":-132.6183791925662,"scale":0.002367931635763422,"dtype":"uint16"}},{"name":"MobilenetV1/Conv2d_12_pointwise/Conv2D_bias","shape":[1024],"dtype":"float32","quantization":{"min":-11.287337231390481,"scale":0.0003630653038499302,"dtype":"uint16"}},{"name":"MobilenetV1/Conv2d_12_pointwise/weights","shape":[1,1,512,1024],"dtype":"float32","quantization":{"min":-1.1846326388746664,"scale":0.00003586969777976947,"dtype":"uint16"}},{"name":"MobilenetV1/Conv2d_12_depthwise/depthwise_bias","shape":[512],"dtype":"float32","quantization":{"min":-6.735948869308363,"scale":0.0001912209410466236,"dtype":"uint16"}},{"name":"MobilenetV1/Conv2d_12_depthwise/depthwise_weights","shape":[3,3,512,1],"dtype":"float32","quantization":{"min":-1.648429718943094,"scale":0.00029352381035311503,"dtype":"uint16"}},{"name":"MobilenetV1/Conv2d_11_pointwise/Conv2D_bias","shape":[512],"dtype":"float32","quantization":{"min":-7.563645569356108,"scale":0.0002832932158266642,"dtype":"uint16"}},{"name":"MobilenetV1/Conv2d_11_pointwise/weights","shape":[1,1,512,512],"dtype":"float32","quantization":{"min":-0.7253192465774816,"scale":0.000025588063450838977,"dtype":"uint16"}},{"name":"MobilenetV1/Conv2d_11_depthwise/depthwise_bias","shape":[512],"dtype":"float32","quantization":{"min":-11.488307353565638,"scale":0.00026697126216689064,"dtype":"uint16"}},{"name":"MobilenetV1/Conv2d_11_depthwise/depthwise_weights","shape":[3,3,512,1],"dtype":"float32","quantization":{"min":-2.938037795370027,"scale":0.0002422924126150443,"dtype":"uint16"}},{"name":"MobilenetV1/Conv2d_10_pointwise/Conv2D_bias","shape":[512],"dtype":"float32","quantization":{"min":-8.172473671136718,"scale":0.00021090798913873178,"dtype":"uint16"}},{"name":"MobilenetV1/Conv2d_10_pointwise/weights","shape":[1,1,512,512],"dtype":"float32","quantization":{"min":-0.681954025744737,"scale":0.000023374602424841027,"dtype":"uint16"}},{"name":"MobilenetV1/Conv2d_10_depthwise/depthwise_bias","shape":[512],"dtype":"float32","quantization":{"min":-8.794623263025754,"scale":0.0002461342605307927,"dtype":"uint16"}},{"name":"MobilenetV1/Conv2d_10_depthwise/depthwise_weights","shape":[3,3,512,1],"dtype":"float32","quantization":{"min":-16.593479178118617,"scale":0.0006865604360179824,"dtype":"uint16"}},{"name":"MobilenetV1/Conv2d_9_pointwise/Conv2D_bias","shape":[512],"dtype":"float32","quantization":{"min":-5.824447737593595,"scale":0.00020651872983702425,"dtype":"uint16"}},{"name":"MobilenetV1/Conv2d_9_pointwise/weights","shape":[1,1,512,512],"dtype":"float32","quantization":{"min":-0.6786451539331528,"scale":0.000022454592659006478,"dtype":"uint16"}},{"name":"MobilenetV1/Conv2d_9_depthwise/depthwise_bias","shape":[512],"dtype":"float32","quantization":{"min":-8.825366684434941,"scale":0.0002461542042349299,"dtype":"uint16"}},{"name":"MobilenetV1/Conv2d_9_depthwise/depthwise_weights","shape":[3,3,512,1],"dtype":"float32","quantization":{"min":-4.586987860564592,"scale":0.00014299036318353415,"dtype":"uint16"}},{"name":"MobilenetV1/Conv2d_8_pointwise/Conv2D_bias","shape":[512],"dtype":"float32","quantization":{"min":-5.243668522030409,"scale":0.00017336733855816995,"dtype":"uint16"}},{"name":"MobilenetV1/Conv2d_8_pointwise/weights","shape":[1,1,512,512],"dtype":"float32","quantization":{"min":-0.7722793826014952,"scale":0.000023555157158588884,"dtype":"uint16"}},{"name":"MobilenetV1/Conv2d_8_depthwise/depthwise_bias","shape":[512],"dtype":"float32","quantization":{"min":-11.878931781797611,"scale":0.00028425977606062866,"dtype":"uint16"}},{"name":"MobilenetV1/Conv2d_8_depthwise/depthwise_weights","shape":[3,3,512,1],"dtype":"float32","quantization":{"min":-5.902603176873945,"scale":0.00018478549844641847,"dtype":"uint16"}},{"name":"MobilenetV1/Conv2d_7_pointwise/Conv2D_bias","shape":[512],"dtype":"float32","quantization":{"min":-3.1753617462399184,"scale":0.0001316266683070767,"dtype":"uint16"}},{"name":"MobilenetV1/Conv2d_7_pointwise/weights","shape":[1,1,512,512],"dtype":"float32","quantization":{"min":-1.095653521910934,"scale":0.000025020061700142358,"dtype":"uint16"}},{"name":"MobilenetV1/Conv2d_7_depthwise/depthwise_bias","shape":[512],"dtype":"float32","quantization":{"min":-6.623572054467377,"scale":0.00030218404372769637,"dtype":"uint16"}},{"name":"MobilenetV1/Conv2d_7_depthwise/depthwise_weights","shape":[3,3,512,1],"dtype":"float32","quantization":{"min":-36.69828745285433,"scale":0.0012116844670272504,"dtype":"uint16"}},{"name":"MobilenetV1/Conv2d_6_pointwise/Conv2D_bias","shape":[512],"dtype":"float32","quantization":{"min":-16.410717629749698,"scale":0.0004647480283693381,"dtype":"uint16"}},{"name":"MobilenetV1/Conv2d_6_pointwise/weights","shape":[1,1,256,512],"dtype":"float32","quantization":{"min":-1.638333135119763,"scale":0.00006413015755743387,"dtype":"uint16"}},{"name":"MobilenetV1/Conv2d_6_depthwise/depthwise_bias","shape":[256],"dtype":"float32","quantization":{"min":-1.901368670435549,"scale":0.0001591902771630567,"dtype":"uint16"}},{"name":"MobilenetV1/Conv2d_6_depthwise/depthwise_weights","shape":[3,3,256,1],"dtype":"float32","quantization":{"min":-22.450582167332275,"scale":0.0007050619360383228,"dtype":"uint16"}},{"name":"MobilenetV1/Conv2d_5_pointwise/Conv2D_bias","shape":[256],"dtype":"float32","quantization":{"min":-5.57056301563985,"scale":0.00018455962017161482,"dtype":"uint16"}},{"name":"MobilenetV1/Conv2d_5_pointwise/weights","shape":[1,1,256,256],"dtype":"float32","quantization":{"min":-1.5304100826256444,"scale":0.0000473532622490066,"dtype":"uint16"}},{"name":"MobilenetV1/Conv2d_5_depthwise/depthwise_bias","shape":[256],"dtype":"float32","quantization":{"min":-5.644173754373895,"scale":0.0002996641228762355,"dtype":"uint16"}},{"name":"MobilenetV1/Conv2d_5_depthwise/depthwise_weights","shape":[3,3,256,1],"dtype":"float32","quantization":{"min":-4.554532203010739,"scale":0.00013706085474001622,"dtype":"uint16"}},{"name":"MobilenetV1/Conv2d_4_pointwise/Conv2D_bias","shape":[256],"dtype":"float32","quantization":{"min":-14.790696935914898,"scale":0.0003758849509749904,"dtype":"uint16"}},{"name":"MobilenetV1/Conv2d_4_pointwise/weights","shape":[1,1,128,256],"dtype":"float32","quantization":{"min":-1.827577733204077,"scale":0.00005341607918407894,"dtype":"uint16"}},{"name":"MobilenetV1/Conv2d_4_depthwise/depthwise_bias","shape":[128],"dtype":"float32","quantization":{"min":-15.151218396291094,"scale":0.0003402245165672893,"dtype":"uint16"}},{"name":"MobilenetV1/Conv2d_4_depthwise/depthwise_weights","shape":[3,3,128,1],"dtype":"float32","quantization":{"min":-1.7621843075783181,"scale":0.0003850085880660516,"dtype":"uint16"}},{"name":"MobilenetV1/Conv2d_3_pointwise/Conv2D_bias","shape":[128],"dtype":"float32","quantization":{"min":-9.357141463609404,"scale":0.0002909739866785684,"dtype":"uint16"}},{"name":"MobilenetV1/Conv2d_3_pointwise/weights","shape":[1,1,128,128],"dtype":"float32","quantization":{"min":-1.689941661743693,"scale":0.00007206266947011612,"dtype":"uint16"}},{"name":"MobilenetV1/Conv2d_3_depthwise/depthwise_bias","shape":[128],"dtype":"float32","quantization":{"min":-4.625732086462787,"scale":0.00018185053608769854,"dtype":"uint16"}},{"name":"MobilenetV1/Conv2d_3_depthwise/depthwise_weights","shape":[3,3,128,1],"dtype":"float32","quantization":{"min":-19.61847216413397,"scale":0.0012022596006945685,"dtype":"uint16"}},{"name":"MobilenetV1/Conv2d_2_pointwise/Conv2D_bias","shape":[128],"dtype":"float32","quantization":{"min":-7.710151972559321,"scale":0.0003184171129329859,"dtype":"uint16"}},{"name":"MobilenetV1/Conv2d_2_pointwise/weights","shape":[1,1,64,128],"dtype":"float32","quantization":{"min":-2.411324385406315,"scale":0.00009332834250904962,"dtype":"uint16"}},{"name":"MobilenetV1/Conv2d_2_depthwise/depthwise_bias","shape":[64],"dtype":"float32","quantization":{"min":-6.760119211725579,"scale":0.0003722122680170454,"dtype":"uint16"}},{"name":"MobilenetV1/Conv2d_2_depthwise/depthwise_weights","shape":[3,3,64,1],"dtype":"float32","quantization":{"min":-12.435028880410295,"scale":0.000847476922266087,"dtype":"uint16"}},{"name":"MobilenetV1/Conv2d_1_pointwise/Conv2D_bias","shape":[64],"dtype":"float32","quantization":{"min":-28.839661513119218,"scale":0.0008372912993008715,"dtype":"uint16"}},{"name":"MobilenetV1/Conv2d_1_pointwise/weights","shape":[1,1,32,64],"dtype":"float32","quantization":{"min":-4.447997121126235,"scale":0.00016238307247102202,"dtype":"uint16"}},{"name":"MobilenetV1/Conv2d_1_depthwise/depthwise_bias","shape":[32],"dtype":"float32","quantization":{"min":-2.487840545747722,"scale":0.00012522477202132792,"dtype":"uint16"}},{"name":"MobilenetV1/Conv2d_1_depthwise/depthwise_weights","shape":[3,3,32,1],"dtype":"float32","quantization":{"min":-65.78906572219245,"scale":0.0029483313490271776,"dtype":"uint16"}},{"name":"MobilenetV1/Conv2d_0/Conv2D_bias","shape":[32],"dtype":"float32","quantization":{"min":-7.391933663096755,"scale":0.00019520779737229658,"dtype":"uint16"}},{"name":"MobilenetV1/Conv2d_0/weights","shape":[3,3,3,32],"dtype":"float32","quantization":{"min":-5.687550251207608,"scale":0.00016071520108529793,"dtype":"uint16"}},{"name":"MobilenetV1/heatmap_2/Conv2D_bias","shape":[17],"dtype":"float32","quantization":{"min":-1.431293249130249,"scale":0.000006935277592356385,"dtype":"uint16"}},{"name":"MobilenetV1/heatmap_2/weights","shape":[1,1,1024,17],"dtype":"float32","quantization":{"min":-0.28039426254427585,"scale":0.000008477785043970366,"dtype":"uint16"}},{"name":"MobilenetV1/displacement_fwd_2/Conv2D_bias","shape":[32],"dtype":"float32","quantization":{"min":-0.1850186691635159,"scale":0.000016070413373014496,"dtype":"uint16"}},{"name":"MobilenetV1/displacement_fwd_2/weights","shape":[1,1,1024,32],"dtype":"float32","quantization":{"min":-0.5185037798927734,"scale":0.000016137181534741322,"dtype":"uint16"}},{"name":"MobilenetV1/displacement_bwd_2/Conv2D_bias","shape":[32],"dtype":"float32","quantization":{"min":-1.5544228021063702,"scale":0.000030322509453336134,"dtype":"uint16"}},{"name":"MobilenetV1/displacement_bwd_2/weights","shape":[1,1,1024,32],"dtype":"float32","quantization":{"min":-0.6644535259659524,"scale":0.00001857987601269371,"dtype":"uint16"}}]
      }
  ]
}